sgan-dataset/logs/zara1/models_03_Mar_2019_13_48_21/model_registrar-899.pt (torch_old, 575433 bytes, 45 tensors)

weight_ih_l0 f4 [128, 6]
00000000: 2e83 e4bd 0b71 6dbc 9b65 f5bd b953 a83c
00000010: 1a15 59bd ecfb 2c3e 0adf 94be 5208 92be
00000020: 5a52 4cbe d455 53be 1403 2f3e b3a8 40bd
00000030: 8198 1bbe 8b2a 06be c2cd d4bd ef7f d0bd
00000040: 292b a6be 7cf8 8c3e 9737 e4bd e202 173d
00000050: bda6 623e 6777 5fbe 21c1 62bc b342 973e
00000060: 18c6 8dbd 74fe 823d e577 5abe 6732 3f3e
00000070: 40ef 123e 8c6e 36be 95d4 273e 9ee6 a43d
00000080: 998e 893d 4d61 313d 28e2 fc3d e482 0bbd
00000090: 5790 2dbe 2266 8ebd 371b 50be 7a1a 22bc
000000a0: 118a f53c ca00 b4bd a838 253c 4a2d 453e
000000b0: f67f 17be 3e03 343d 8826 81be 9dda 213d
000000c0: c549 233e 73fa f13d e9f1 9c3d 6dd2 a13d
000000d0: fbb0 0ebd 1a69 423d 29d6 07be fe74 70be
000000e0: 6f89 a7bd d3d7 673e d41f 0cbc 4004 5abe
000000f0: 7594 ad3c f9e3 203e 5b93 9cbe 00df 5ebe
00000100: 4ded e5bc f52b b93c e532 55bd 3f24 04bc
00000110: 940b d8bd 1ba6 9d3d 6b14 253e 6dcd 023e
00000120: e71f 3abe d443 37be 6d72 9f3d b41f b23c
00000130: c4d1 e43c 62e7 17be 0bc7 42bd 233b d33d
00000140: 3423 4d3e 65d7 9cbd e73e f0bd 6b60 c53c
00000150: fdfc efbd 0312 95bd 8956 3abe 659b 4b3e
00000160: 9988 703d bdcc ed3d 379f dfbd d556 283e
00000170: 973c 863d 0f0c b93e facf 34bc d016 23bc
00000180: fd16 0b3e 3adf b93d e9eb 533c 404e 4b3d
00000190: 77ae 283e dbf2 c6bd a0a7 71bd a032 37be
000001a0: 3117 c43d 362e 90bd 665b 50bc 331c a53e
000001b0: daaf a83d 45b9 27bc 8587 053e 5eaf 06bc
000001c0: c621 763d ddd2 e0bd 4bfa 7cbc c7df 153d
000001d0: 9ed0 82be 8ed2 a53d 26f9 fe3d dbcf 703e
000001e0: 6490 80bd 41b8 883d 1a13 b43e 4994 b8bd
000001f0: 06c0 183e f507 6dbd 4e97 b9bd 0a5c 3abd
00000200: aa96 3b3d 7074 193e 6970 98be 38d7 993e
00000210: 57cb 30bc 7a40 07be 2424 dabd 87bb c2bd
00000220: 645b e43d 1b1e 733d 5c28 c6bc 25b8 b6bd
00000230: 2784 f3bd a6b0 00bd e199 6a3d 3695 593e
00000240: 2cc0 babc c4f4 06be 0731 42be 4dc2 e7bd
00000250: 6b4f b0bd 4a5d 71bd b215 24be 6f50 dbbd
00000260: 5b3b b43d f086 263e 246e cb3c cc7f 8f3e
00000270: 9da2 0cbe a7a6 433b f2d2 6a3d dccc 5a3d
00000280: 9ab2 c23c 483f 9f3e 4472 2fbe 1661 af3d
00000290: 2bf7 b63e 81ca f03d 63ea ea39 9298 803e
000002a0: 9a46 ed3d d717 063e a755 a5bc 33ec 15be
000002b0: 52f8 ce3c 1540 953d 8228 16be a4db ecbd
000002c0: 4604 50be 8008 2cbd 8093 c4bc 099c 733b
000002d0: f40a 8239 1f56 2f3d dad4 b93d 187e a5be
000002e0: 6fa6 4fbe 5237 30be b89f 99bd 3966 c63d
000002f0: 0713 bc3d aa35 62be 397b 8dbd 7e31 51be
00000300: 78fc af3c 5ea6 ef3d 2b3b 32be c326 fcbd
00000310: b865 213e b4d5 3ebd 66df 18bd a392 eebd
00000320: 1a29 01be 4030 4bbe 8d2b 683e 0216 383d
00000330: 35ac 0fbe f4d8 dcbc 97db 62bd 97fb 9cbd
00000340: 1b99 fcbc 7b35 323e a81c f6bd 0c91 27bd
00000350: c7ae 0f3e 0f79 9fbe f7a9 673c dcb3 39bc
00000360: ec20 c03d 66b6 b7bd 6328 e9bd 24bf 973d
00000370: 19ff 18be 0a75 08be a204 a83d 5945 56bd
00000380: 4128 bf3d 4f84 3ebe 350c d9bd eede 16be
00000390: 3a82 6e3d 44dc 82bc 4428 bcbd 1619 5bbd
000003a0: 897d 16be 8751 883d 0df2 e33c 3a63 c5bd
000003b0: a0d9 74bd 3a6c aa3c 8cf6 56be a799 af3d
000003c0: 79bb c33d caf4 c9bc d566 d2bd 95f6 773a
000003d0: c45b 773d 8ce5 183e 9bab 4bbe 7868 e7bd
000003e0: 58a9 273e 1c76 e33d 22a5 033e 5492 f0ba
000003f0: 0b76 0f3e 50b2 07be 63a4 18be f6c5 5fbd
-0.11157833 -0.014492284 -0.1198227 0.020547735 -0.05299864 0.16892976 -0.29076415 -0.28521973
-0.1995329 -0.2063821 0.17091018 -0.047035884 -0.15194894 -0.13102166 -0.10390808 -0.101806514
-0.32454804 0.2753333 -0.111434154 0.036867984 0.22133918 -0.21822892 -0.013839991 0.29543075
-0.06922549 0.06396189 -0.21334799 0.1867157 0.14349079 -0.17815608 0.16389687 0.08051799
0.067166515 0.043305684 0.123478234 -0.034060374 -0.16949593 -0.06953074 -0.20322882 -0.009894008
0.029973062 -0.08789213 0.010084309 0.19255558 -0.14794907 0.043948404 -0.2522471 0.039515126
0.1594611 0.118153475 0.07663328 0.07901464 -0.03483675 0.047463514 -0.1326529 -0.23482129
-0.0818051 0.22640924 -0.00855251 -0.21290684 0.021188954 0.15711965 -0.30581173 -0.21764755
-0.028067255 0.022603968 -0.05205049 -0.008065282 -0.10549083 0.07697698 0.1612107 0.12773676
-0.18176232 -0.17896968 0.07785497 0.021743633 0.027932055 -0.1483436 -0.047553103 0.10314014
0.2003296 -0.07658271 -0.11730748 0.024093827 -0.117181756 -0.07278826 -0.18197073 0.19883497
0.05872402 0.11611316 -0.1091904 0.16439374 0.06554525 0.36142012 -0.011035914 -0.009954169
0.13582988 0.0907578 0.012934663 0.049635172 0.16472803 -0.0971429 -0.05899775 -0.17890406
0.09574736 -0.07040064 -0.012717104 0.32248077 0.08236666 -0.010237043 0.13039978 -0.008220522
0.060090803 -0.10977719 -0.015440534 0.036590364 -0.25549787 0.08096801 0.12449865 0.2351679
-0.0627754 0.06675769 0.35170823 -0.09012658 0.14917001 -0.057868917 -0.09062062 -0.04549793
0.04579798 0.14985824 -0.29773262 0.3004701 -0.0107906675 -0.1320819 -0.106514245 -0.09508424
0.11150244 0.059354883 -0.024189167 -0.089218415 -0.118904404 -0.031418465 0.057275657 0.21248326
-0.022796713 -0.13179308 -0.18964015 -0.11316357 -0.08608898 -0.058926858 -0.16023901 -0.10708701
0.08800384 0.16262412 0.024832793 0.2802719 -0.13733907 0.0029853971 0.05733008 0.053418025
0.023766804 0.31102967 -0.17133433 0.085634395 0.3573545 0.117573746 0.0004480659 0.25116402
0.11585732 0.13095032 -0.020182444 -0.14640884 0.025264893 0.07287613 -0.1466389 -0.115653306
-0.2031413 -0.042000294 -0.023996115 0.0037171862 0.00024803693 0.04280674 0.09073801 -0.32322764
-0.20278333 -0.17208603 -0.07501167 0.09687466 0.09183317 -0.22090784 -0.069082685 -0.20429036
0.021482691 0.11701654 -0.17405383 -0.12312081 0.15761459 -0.046590522 -0.037322424 -0.116490625
-0.12613335 -0.19842625 0.22672863 0.044942863 -0.14030536 -0.02695892 -0.0553852 -0.076651745
-0.030834725 0.17403214 -0.120171845 -0.04090981 0.14031516 -0.31147048 0.014139644 -0.011334386
0.09381279 -0.089703366 -0.11384656 0.07409504 -0.14941062 -0.13325897 0.08204009 -0.05231223
0.0933385 -0.18605159 -0.105980314 -0.14733478 0.058229662 -0.015974171 -0.091873676 -0.05349072
-0.14696325 0.06656175 0.02782538 -0.096380666 -0.059777856 0.02080356 -0.20992488 0.08574229
0.09557242 -0.024652857 -0.1027352 0.0009459046 0.06039025 0.14931315 -0.19889681 -0.11299223
0.16373193 0.11106512 0.12855962 -0.0018354156 0.14009874 -0.13251615 -0.14906459 -0.05463215

weight_hh_l0 f4 [128, 32]
00000000: ce88 aabd fee5 81bd 6097 29bd 9d07 083e
00000010: 9205 d4bc 13e4 a0bc 3111 32be 90ad 2bbc
00000020: d2c4 f03d 39f6 b93d 41aa ac3c 5831 2e3e
00000030: cb09 ddbc b9ea 123e 97b5 e33d ac5b 3f3e
00000040: c375 e13d f766 1ebe eb46 9d3d 64a4 14be
00000050: 3ca2 dcbd 43e0 e1bd cad9 b4bd f45c 0ebe
00000060: d119 0e3e fa80 b9bd 1c20 df3d eeeb 213e
00000070: daab c53d 601f f93d 5000 de3c c74b 2ebe
00000080: 6cec 6a3e 5a80 f4bd fd85 2a3e 1ac8 6c3d
00000090: 2f80 8aba 850d 563e 0da7 e1bd fba9 28be
000000a0: 624e 043e 6eb7 62be 28d8 8fbd f8a1 d3bd
000000b0: f562 4cbe b31e 083e ef1b 3c3e ae01 c73d
000000c0: 96b0 143e 7213 e93d 114f d6bd a01f 3ebd
000000d0: 6b05 5a3d 5087 b3bd 5723 1cbe ff1f e9bc
000000e0: 0669 e7bd 884e a3bd 2857 8cbe e6fc a0bd
000000f0: e923 bdbd 7797 d93a 0ca7 313d 7736 b8bd
00000100: 6702 fe3d d2cc debd 3a6b 83bd 5036 a83d
00000110: 4ce1 fa3c f194 8f3d 1066 36be c2f1 29be
00000120: 544b 15bd 913f ac3d 5494 05be 6de8 c43d
00000130: 7e2c 0abe 407c f1bd 6535 013e 6768 06be
00000140: 2c32 8d3d 9be2 64bd 9c06 123e 02cb 3abe
00000150: e345 b03d 7e4c 833e 27b5 343d 5ded 123e
00000160: 6093 bb3d 01c4 8a3d 5bf3 b53d 3620 2a3e
00000170: 26d3 043e d09b 913d e7b7 e7bd 40c3 c83d
00000180: da9b ab3c c814 093d 23ac b03d 682c 883d
00000190: 00a2 31be 120a 92bd 77db 9fbd fe25 ce3d
000001a0: 2c78 efbd 92d8 b7bd 5860 0cbc 065a 19be
000001b0: a4f0 66be 46a5 aabd 5a8e 28be 24ec bbbd
000001c0: b6e1 1dbd 8403 9e3e 21ca a3bd 6522 c1bd
000001d0: dc3c 65bd 96f2 103e 23aa bf3d 3ba5 d4bd
000001e0: 2e90 0fbe 8701 f83c 0955 74be ba8c 353e
000001f0: 12f9 04be 1551 623c 478f 213e d361 c33d
00000200: 0a3a 26be f009 51bd 65b3 103e 8945 ebbd
00000210: 8426 143e 20cf 10be 6c6a 18bd d0e9 043e
00000220: 56f2 27be a81f 33be 4ad2 38bd 04b5 0dbe
00000230: 2418 763c 2e15 ae3d 914b d13d 27e3 20be
00000240: 16e2 10bd 55d2 35be 8308 05be 2135 b33d
00000250: 399a 193d 58cb 073e 8fcb 973d 6ff7 f2bd
00000260: b1e7 6c3d 0a0e f9bd 79c5 1abe 876a 41be
00000270: ec1f 403e 6d1b 8bbd cd6c fe3d a13f 00be
00000280: 1197 113e a03e d0bd 74c1 133d 8d96 49be
00000290: 116a 8ebd 8f7a 79bd cf38 98bb 162f 8cbd
000002a0: 62e8 45bd 0d1f 4e3c 9dcc 023e 6af1 32be
000002b0: af5b 0ebe 567f 603d a24e 04bd 63f9 0abd
000002c0: d0b2 c1bb 4878 0b3e 2439 3dbe a845 0b3e
000002d0: 0212 9f3d fa3e 1bbd b5b7 08bd c5cb 5cbd
000002e0: 38de 67bd 52fa d2bd 3f5c 143e ad3c 423e
000002f0: 60e1 613d 8e84 d53d 296c 123e afa7 a43d
00000300: 8398 3d3e 86df 463d 02f4 1bbe c956 543e
00000310: fc97 8bbb cb4f 7ebd 93d4 a53c 8829 0ebe
00000320: bdd6 83bd eadc 13bc a5cb 1ebd d9c8 eebd
00000330: 1afa d7bc 02dd 2e3e 9730 16bc 3d5c 5c3d
00000340: 59eb 803c 14bb d8bd b1ab dc3c f3ea 14be
00000350: 68d5 c93d d1a9 633e 7f9e 243e a667 dabc
00000360: e537 3fbe d3e7 013c 1cab e13d abdd 443c
00000370: 598c 3bbe 2017 1e3e 16ca 17be f666 5e3d
00000380: 0719 4f3e 312c 6fbd 0bb2 71bd c033 063e
00000390: 6151 23bd 86dc 8f3d 0c19 443d 6fa6 ab3b
000003a0: 7c3f 6dbc 2ac7 2fbe b3c6 33bd eb30 1ebe
000003b0: 3449 613e 7624 a1bd cca5 b93d da86 523d
000003c0: 1ecd 0c3e 550c f6bd ee31 0ebe 085d 14bc
000003d0: c177 30be 8625 bfbd d4a2 86bd df5a 34be
000003e0: c810 903d 1f14 243e cb5f 053d 6573 083d
000003f0: a62c 163e 3bd4 3b3e fc88 65bc 38f2 be3d
-0.08326875 -0.06342696 -0.041404128 0.13284154 -0.025881562 -0.019640004 -0.1738937 -0.010478392
0.117562905 0.09080166 0.021077277 0.1701101 -0.026982209 0.14347352 0.1111862 0.18687314
0.110087894 -0.15468965 0.07679542 -0.14515835 -0.10773131 -0.11029103 -0.088306025 -0.13902646
0.13877036 -0.090578035 0.10894796 0.15812656 0.09651919 0.121641874 0.027099758 -0.17021094
0.2294175 -0.119385436 0.16652675 0.05780802 -0.0010566766 0.20903595 -0.110181905 -0.16471092
0.12920526 -0.22140285 -0.070236504 -0.103336275 -0.19959624 0.13292961 0.18370031 0.09717117
0.14520487 0.11380662 -0.104642995 -0.04641688 0.053227823 -0.08766043 -0.15247856 -0.02845764
-0.112993285 -0.07973963 -0.27410245 -0.078607365 -0.09235365 0.0016600926 0.0433722 -0.08994763
0.12402802 -0.1087891 -0.06416936 0.08213484 0.030625008 0.0701083 -0.17812371 -0.1659613
-0.03644879 0.08410562 -0.13044864 0.09614644 -0.13493535 -0.11791277 0.12618025 -0.13125764
0.06894335 -0.05588017 0.14260334 -0.18241504 0.0860708 0.25644296 0.044118073 0.1434836
0.09158969 0.06775666 0.08884307 0.1661385 0.12971172 0.07109797 -0.113143735 0.09802866
0.02094834 0.033467084 0.086265825 0.06649095 -0.17346954 -0.07130827 -0.078055315 0.1006584
-0.11692843 -0.089768544 -0.008567892 -0.14975747 -0.22552735 -0.08332305 -0.16460553 -0.091758996
-0.038545333 0.30862057 -0.079975374 -0.09430388 -0.055966243 0.14155039 0.09358623 -0.10383078
-0.14019844 0.030274166 -0.23860563 0.17729464 -0.12985638 0.013813277 0.15777312 0.09540143
-0.16233078 -0.051034868 0.14130934 -0.11487872 0.14467818 -0.14141512 -0.037210867 0.12979817
-0.16401038 -0.17492545 -0.045122422 -0.13838583 0.015020404 0.085001335 0.10219491 -0.15711652
-0.035371862 -0.17756017 -0.12991528 0.08750368 0.037500594 0.13261163 0.074118726 -0.118636005
0.057838146 -0.12160881 -0.15114392 -0.18888293 0.18762177 -0.067923404 0.12423096 -0.12524273
0.14217784 -0.10168195 0.036073163 -0.19686337 -0.06953824 -0.060907897 -0.004645444 -0.068449184
-0.04831732 0.012580645 0.12773366 -0.17474905 -0.13902162 0.054808937 -0.032301553 -0.03392924
-0.0059112087 0.13620102 -0.18478829 0.1360079 0.077671066 -0.037901856 -0.03337832 -0.053905267
-0.05660841 -0.10301651 0.14488314 0.18968458 0.055146575 0.104256734 0.14299072 0.080397956
0.1851521 0.048553012 -0.152298 0.20736231 -0.0042600613 -0.062087815 0.020242965 -0.1388303
-0.064374425 -0.009024838 -0.03876843 -0.116594024 -0.026364375 0.17076495 -0.009166858 0.053798903
0.015737223 -0.10582557 0.026937338 -0.14542751 0.09855157 0.22232749 0.16076086 -0.026660752
-0.18673666 0.007928806 0.11018965 0.01201574 -0.18315257 0.15438509 -0.14823183 0.05429741
0.20224391 -0.058391754 -0.059007686 0.13105679 -0.03987253 0.070244834 0.04787545 0.0052383463
-0.014480468 -0.17165819 -0.043890666 -0.15448348 0.22000581 -0.078682825 0.09064826 0.051398136
0.13750121 -0.12014071 -0.13886234 -0.0090553835 -0.17233182 -0.09333329 -0.06574026 -0.1761279
0.07034451 0.160233 0.03256206 0.033313174 0.1466547 0.18342678 -0.01400971 0.09323543

bias_ih_l0 f4 [128]
00000000: 95d4 b1bd 9191 c3bc 2d9f b8bc ad55 c6bd
00000010: 8bf3 23be b1e5 0e3e 2122 41bd 996b 3ebe
00000020: b19b b83c e379 f23c bcb7 1e3e 88f2 113e
00000030: 5cc7 893d 70b5 1dbe bf8b a33d ee14 1cbe
00000040: 14f8 7d3b d372 1a3e 94ec 36bd 648d f83d
00000050: e544 773c 3723 473c 0ee5 37bd 676d 3bbd
00000060: 4418 f93d e0e7 903d 7fde 24bd cbc9 903d
00000070: a1a9 b5bc 7933 e9bd 84de 4abe 0562 7bbd
00000080: 6805 3f3e 631a eebc aecc 1dbe 2489 0e3e
00000090: ec4b 21be 7083 aabd 57ff 13be 7996 f6bc
000000a0: 6a83 06be 9e48 d63d 58b4 7abd 8791 213d
000000b0: d330 32bd 2190 303e 4254 f9bc 238e f8bd
000000c0: 8bc3 e23d 68e0 ee3d 47f7 a6bd 207f 9c3d
000000d0: aa78 21be 24c6 ea3d 1cf3 d53d d9ad c73d
000000e0: c387 a83d 2dcf 193e 971d 003e eb73 0f3e
000000f0: 9671 a9bc a0d8 21be c497 4abe afbf 2cbe
00000100: feb1 e33d 6312 053e c4ee 28bd 518d 743d
00000110: 2706 8dbd b389 503c d0c1 d53d 9def 71bd
00000120: f337 903c 2552 c93d a8c1 f6bd 89ae 313d
00000130: 7f3c 0fbe 5149 84bd f24f 72bd 0379 52be
00000140: 1a15 f8bd 6b67 09be 0dac 0f3e 8df5 12bd
00000150: 896e 8dba aa28 ea3d 2b0a bf3d c082 0cbe
00000160: 10ea 203e 6eac fbbd 5c72 033e c2c0 23be
00000170: 665b 07be ebe1 073e 36ce 6b3c ae78 bcbd
00000180: fed2 d83d 9b31 2cbd 244d 953c 4106 40bd
00000190: f448 63b9 d382 893d b57d 59bc edb4 2abe
000001a0: 8d1d ccbd d0ea a93d 6ceb acbd 3697 9a3d
000001b0: f54a 1c3d d01c 34be e7e0 ee3d 1873 ef3c
000001c0: 044c 023e b5f6 803d 086c 4d3d 60df e4bb
000001d0: 2dbe d73d e9a8 54bb 6d9f c2bd 68f0 013c
000001e0: 95c4 c1bd fc2d dd3d 4ba9 e93d 971d 353b
000001f0: 7089 df3d aa4d b33d 9be7 11be 5bdf 9bbd
-0.08683125 -0.023873122 -0.022536838 -0.0968431 -0.16010873 0.13954808 -0.04715169 -0.18595733
0.022535177 0.029599136 0.15499777 0.14252675 0.06727478 -0.15401244 0.07985639 -0.15242359
0.0038752602 0.15082864 -0.044659212 0.12136343 0.015092109 0.012154392 -0.044896178 -0.04575863
0.121628314 0.07075477 -0.04025125 0.07069739 -0.022175612 -0.11386771 -0.19811445 -0.061372776
0.18654406 -0.029065317 -0.1541011 0.13919502 -0.15751618 -0.08325851 -0.14452873 -0.030101048
-0.13136068 0.104630694 -0.061207145 0.039445426 -0.043503594 0.17242481 -0.030435685 -0.121364854
0.11072453 0.11663896 -0.08152633 0.07641435 -0.15768686 0.114635736 0.1044676 0.09749956
0.082290195 0.15020438 0.12511288 0.14009063 -0.020684045 -0.15805292 -0.19784456 -0.16869996
0.11117934 0.12995295 -0.04124333 0.059705082 -0.06885939 0.012728143 0.104373574 -0.059066404
0.017604804 0.09830121 -0.12048656 0.04337934 -0.13987921 -0.064592965 -0.059158273 -0.20553975
-0.121134 -0.13418357 0.14030476 -0.035878707 -0.0010790388 0.11433537 0.09328111 -0.13721752
0.15714288 -0.12288748 0.12836593 -0.159915 -0.1321846 0.13269775 0.014392426 -0.09202705
0.105871186 -0.042039495 0.01822526 -0.046880964 -0.00021675584 0.06714406 -0.0132746 -0.1667058
-0.09966574 0.0829674 -0.08443341 0.075483724 0.038157422 -0.17589116 0.116639905 0.029229686
0.1272431 0.06297056 0.050151855 -0.006984636 0.1053432 -0.003244931 -0.09503064 0.0079308525
-0.09461323 0.107997864 0.11409243 0.0027636045 0.10914886 0.087550476 -0.14248507 -0.07610961

bias_hh_l0 f4 [128]
00000000: a644 06be c261 30bc 3814 20be 0062 843d
00000010: 63cc 85bc a5b6 d5bd 625f 18be f181 09bc
00000020: b183 dc3d a329 473e 39c8 cfbd e5fc 903c
00000030: a31f 2fbe 689f 0f3e ae9e f63d 4b06 033c
00000040: dd2b aabd 84d4 123e ddb7 0fbe 49df 9d3d
00000050: 05ad 263e 1b80 453e 721b 86bc 8edf 973c
00000060: b0c9 be3c 37d8 633d 2769 083d 3616 abbc
00000070: f695 d4bd e355 fcbd 80ae 03be 8d33 37bc
00000080: 8e43 c83d df00 43bb 2a30 ab3d 901c 89bd
00000090: 3478 1a3e 72fd a23d 5f06 6bbb ff1f 33be
000000a0: ac83 6fbd fa47 463d f025 2dbd 751f b2bc
000000b0: 4996 3dbd 63c3 e5bb d0a9 9a3d dcec 91bd
000000c0: 4c71 a4bc 7c89 473d 61cc 59bd d8c6 d6bd
000000d0: ddc3 61bc e743 45bd cce3 f2bd 475c 8e3d
000000e0: e167 f8bd f139 22be a281 03be 609b a23d
000000f0: c850 48bd 595e 9b3d 09ad 86bd 31e0 073e
00000100: a835 30be da26 0ebe 82ed 033e 0880 853b
00000110: 0a4f 403e 9685 383d 7576 a7bd bf7c 47bc
00000120: f6ac 223e 2973 993b 65ba f03b 1484 783d
00000130: 9f41 273d daaa f23a e225 0cbe dfd0 72bd
00000140: 56f4 e6bc 969b dd3d d1a8 863d 105c 26be
00000150: e4d8 21be c2b3 5c3d d7eb 19be 900a e33d
00000160: ef9c a6bd 4a49 8dbc 267c 063e 8e99 38bd
00000170: 3e41 f7bd 0573 15be 2168 26bc cc18 443c
00000180: 4d37 16bc 8800 bd3d 142f 0dbe 32c3 383e
00000190: 8b84 c93d 6263 f1bc 96c0 3d3e 4c57 133e
000001a0: e55a 1dbe f7b0 d73d 3c99 203e 6608 1c3e
000001b0: 301b 4e3d 93a5 8d3c ce7a 153d 6bef 173d
000001c0: b43b 153e 772f 97bd 47f9 1e3e 039b 05be
000001d0: bd10 8c3d a85b 403e 936d 683d 87e4 0f3e
000001e0: e6e7 be3d be4e ab3d bbfd 293e e1ea 123c
000001f0: 3e68 a5bc 1ef4 a73d dc79 ecbd 4b3d ff3d
-0.13112125 -0.010765495 -0.15632713 0.064640045 -0.01633281 -0.10435227 -0.14880136 -0.008392797
0.10767306 0.19449477 -0.10145611 0.017698715 -0.17101912 0.14025652 0.120419845 0.007997106
-0.083091475 0.14338881 -0.14034982 0.07708604 0.16276939 0.1928715 -0.016370509 0.018539216
0.023289531 0.05562612 0.033303406 -0.020884614 -0.10380165 -0.12321069 -0.12859535 -0.011181724
0.0977851 -0.0029755158 0.08358796 -0.06694901 0.15084916 0.07958497 -0.0035861952 -0.17492674
-0.05847518 0.048408486 -0.04227251 -0.021743516 -0.0462859 -0.0070118173 0.075519204 -0.071252555
-0.020073555 0.0487151 -0.053173427 -0.10487145 -0.013779608 -0.04816046 -0.11859855 0.06951194
-0.12129188 -0.15842415 -0.1284242 0.07939792 -0.048905164 0.07586355 -0.065759726 0.13269116
-0.17207968 -0.13882008 0.12883571 0.0040741004 0.18780151 0.045049272 -0.08176891 -0.012175738
0.15886292 0.0046829176 0.0073464387 0.060672835 0.040834066 0.0018514052 -0.13686326 -0.059281226
-0.02819268 0.10820691 0.06575168 -0.16246057 -0.15805393 0.053882368 -0.15031372 0.11085999
-0.081354015 -0.017246861 0.13133296 -0.045068316 -0.12072991 -0.14594658 -0.010156662 0.011968803
-0.009168458 0.09228617 -0.1378749 0.18043211 0.09839734 -0.029466335 0.18530497 0.1438877
-0.15366705 0.105318 0.15683454 0.15237579 0.050318897 0.017290866 0.03649407 0.03709356
0.14573556 -0.073821 0.1552478 -0.13047414 0.0683913 0.18784964 0.056745123 0.1405202
0.09321575 0.08364628 0.16600697 0.008967132 -0.020191308 0.082008585 -0.1154668 0.124628626

weight_ih_l0 f4 [128, 2]
00000000: 8010 093a 0f3a 613e d658 c6bd ede7 abbc
00000010: c4fe 3e3e 449f 53be 653a 143d 27fa 72bd
00000020: 1e56 dcbc 27aa 77be 0338 77bd ad7e ef3d
00000030: c8cd 33bd 1ea7 083c 69c8 213d 57c5 35be
00000040: d294 b63c 97b7 9cbe b798 d03c 6873 8d3e
00000050: 8ccb 913d 0da0 c43d a1c2 1d3e 069d 99bd
00000060: 621f 9a3d 4d36 203e a9fc 78bd 2206 70be
00000070: a67b 27bd 576a 593c 9756 36bc b36c 913e
00000080: 13a3 38bd 0e73 6e3c 370b 0b3e 6751 a23c
00000090: f3d4 26be 029f 2bbd c853 a33e 0a81 bd3e
000000a0: 6572 98bb 9185 c9be 6be7 88bd 7eb0 81bd
000000b0: f333 53be 77db ccbc 1210 2ebe b25d 8c3c
000000c0: d202 bd3b 90b7 9fbd 8e87 40be 2935 a2be
000000d0: 32d1 4d3e 8cfb cf3d 9ba2 60be b0b1 2f3d
000000e0: 44aa debe 4dd0 51be 77bf a2bb ca96 62bd
000000f0: 604c 9d3e 57db 2bbe 5b23 65be 3d3e 36be
00000100: bcc4 f6bd c391 afbd c709 713e ae06 823d
00000110: 43eb 563e 6df5 463d c227 74bd 97ca d6bd
00000120: 294f 893e 109b 88be 7fc9 673b 95db 9dbd
00000130: c0b4 7abe 824e 603d 557d 0f3e 2145 763b
00000140: 0d7e 8c3d 08ad 19be fa8d a83e 9806 983e
00000150: cfc0 003e 1bda b3bd 7969 71be 5d93 34be
00000160: 00bf 223e 97e0 b03e 05c7 f93d d11c a0be
00000170: 07a4 c93e 17b7 7a3e efe4 693e 5b81 1f3e
00000180: 3d38 6abe 1394 56be 50a0 adbb f335 2fbe
00000190: 156c 92bd 9cee 903d f261 afbe 47fd 1cbe
000001a0: 0969 0a3f b19c 4c3d c2b2 8b3e 6791 75bd
000001b0: 4c74 f7bc 7d8a 70bd 02b8 5dbd 133b 40be
000001c0: 68c4 9ebe 0868 9dbd 1278 143e 0cb4 15be
000001d0: f023 423d 987a bfbd 8887 c3be e636 86bd
000001e0: fac5 963d 06aa 98be 5795 e5bb af35 423c
000001f0: ebcd 603c 5628 adbe 1813 79be 4ce7 8fbe
00000200: b06d e53d 57c2 223e 942d 11be aeb5 96be
00000210: 555a a2be 9167 c73d ed8a 9fbe 7e80 89bc
00000220: 8906 78bd 2453 38be 26da 3d3e 8185 aebe
00000230: caf8 babd 0e08 0a3d cbed 303e 318d 3cbe
00000240: e97f 543e 1740 b83d 0d7f 48bd 6bb5 b53e
00000250: 9168 8c3e 4c56 573e 22a8 10be afa8 06be
00000260: 9f00 6ebe d998 0bbe d487 873e 9a34 873e
00000270: 34a2 7ebe cbc4 acbe baae afbe 8ae9 733e
00000280: 473a 1ebe 7404 403e f71a 31be 77fd 7a3e
00000290: 7af1 a5bd c530 8e3e a5d6 1a3e 718a 1b3e
000002a0: b403 09be d809 1dbd 27e4 53be 3a1c 583e
000002b0: bc45 d33d cf60 16be d346 273e 1a3d 0d3d
000002c0: 4828 1a3e e3c2 6e3e e217 e93e e28d c33d
000002d0: 4436 4dbb bada 833e c108 4a3e fc01 8bbe
000002e0: 43d4 3d3e ca5c 6c3d 4c53 353e f036 903e
000002f0: dad1 f1bc 5e0c f5bd 5d2e 9ebe 57e7 c13d
00000300: 8d93 8cbe 8816 8dbb 5777 193e 02cd 983d
00000310: 8727 713e 9c0b 33be 23bf ee3d 2343 24be
00000320: 4ece 0b3d 5d31 b0be 2c8a 23bc f523 43bd
00000330: 4516 1dbe 9543 7bbe 2e53 d8bd dbc3 46be
00000340: a25c 213d 50d8 5fbc 7f55 b4bc 0b00 9a3b
00000350: a5f3 703e 5f87 88bc 671a ce3d 32a4 90be
00000360: ff70 d23e 79d2 583e ad1c a73d 5612 72be
00000370: eb23 693e d676 153e 6c26 50be 3919 b83e
00000380: 91dc c8bd 5932 f4bd 2004 25bc c544 84be
00000390: d3e8 1cbe de6d 7ebe bec0 f73d 6ce2 bc3d
000003a0: 17dc 433e 2029 a3bd e551 7a3c d24f 5bbd
000003b0: 5fd7 183e 0ad5 a6bd 0c0b 43be beb9 0dbe
000003c0: ff35 e23a f290 8abb d034 823c 49ea c4be
000003d0: c7f8 873e 758d 6cbe 8d4c acbe 0548 1a3e
000003e0: 4977 8ebe 77d4 86be 6e19 d4bd 1a78 43be
000003f0: 75d9 d63d aaa7 02be 9937 82bd 993e 62be
0.0005228594 0.21994804 -0.09684913 -0.020984614 0.18651873 -0.20666224 0.036188502 -0.059320595
-0.026896533 -0.24186002 -0.06035615 0.11694083 -0.04389742 0.008340625 0.039497767 -0.1775106
0.02228776 -0.30608818 0.025463445 0.2762711 0.071189016 0.0960084 0.15406276 -0.07500653
0.07525517 0.15645714 -0.06078783 -0.2343984 -0.040889405 0.013269982 -0.011129043 0.28403243
-0.045077395 0.014553798 0.13578497 0.019814206 -0.16292171 -0.04189969 0.31899858 0.37012511
-0.0046523088 -0.39359716 -0.066847645 -0.06332491 -0.20625286 -0.025006993 -0.16998318 0.017134521
0.0057681585 -0.07798684 -0.1880171 -0.31681183 0.20099333 0.10155401 -0.21937029 0.042894065
-0.43489277 -0.20489617 -0.004966672 -0.055319585 0.30722332 -0.1678289 -0.22376768 -0.1779718
-0.12049243 -0.08572724 0.23538886 0.0634893 0.20988183 0.0485739 -0.05960823 -0.1048786
0.26818207 -0.26680803 0.0035367904 -0.077078976 -0.24483013 0.05476237 0.14012654 0.0037577825
0.0685998 -0.15007412 0.3292082 0.2969253 0.1257355 -0.08781835 -0.23575391 -0.1763434
0.15893173 0.34546348 0.12196163 -0.31271985 0.39382955 0.24483906 0.22841237 0.15576689
-0.22873016 -0.20954923 -0.0052986518 -0.17110424 -0.07149521 0.07076761 -0.34254414 -0.15330993
0.5406652 0.04995412 0.2728482 -0.05995312 -0.030206822 -0.058725823 -0.05413056 -0.18772535
-0.3100922 -0.07685858 0.14498928 -0.14619464 0.047397554 -0.09349555 -0.3818934 -0.0655344
0.0736198 -0.29817218 -0.007006328 0.0118536195 0.01372097 -0.33819836 -0.2432369 -0.28106153
0.11202562 0.15894447 -0.14177543 -0.29435486 -0.31709543 0.097365506 -0.3116068 -0.016784903
-0.060553107 -0.18000466 0.18540248 -0.3408623 -0.09129484 0.033699088 0.17278211 -0.18413235
0.20751919 0.08996599 -0.04894929 0.35489973 0.27423528 0.21029013 -0.14126638 -0.13150285
-0.23242424 -0.13632526 0.26470816 0.2640732 -0.24866563 -0.3374389 -0.34312993 0.23819557
-0.15451919 0.18751699 -0.17295443 0.24510752 -0.081026986 0.27771583 0.15120943 0.1518953
-0.13380319 -0.038339466 -0.20692502 0.21104518 0.10316035 -0.14685367 0.16335611 0.0344821
0.15054429 0.23316531 0.45526034 0.095485464 -0.0031312862 0.25752813 0.19729902 -0.2714995
0.18538003 0.057705678 0.17707556 0.28166914 -0.02951901 -0.119652495 -0.30894747 0.09467953
-0.27456322 -0.0043056644 0.14986931 0.07460977 0.23550235 -0.17484897 0.1165755 -0.16041236
0.034132294 -0.3441266 -0.009981673 -0.047641713 -0.15340526 -0.24537499 -0.1056274 -0.1941065
0.039394982 -0.013662413 -0.022013424 0.004699712 0.23530443 -0.016666112 0.100636296 -0.2825027
0.41101834 0.21174039 0.08159766 -0.23639807 0.22767608 0.14596114 -0.20327157 0.35956743
-0.09807695 -0.119236656 -0.010071784 -0.25833717 -0.1532319 -0.24846599 0.120973095 0.09222874
0.19126926 -0.07966828 0.015278314 -0.05354292 0.14925908 -0.08146103 -0.19047183 -0.13840386
0.0017258524 -0.0042287046 0.015894324 -0.38459995 0.2655699 -0.23100837 -0.33652154 0.15066536
-0.27825382 -0.26333973 -0.10356413 -0.19088784 0.104906954 -0.12759271 -0.06358261 -0.22094192

weight_hh_l0 f4 [128, 32]
00000000: 5f6d 00be 88f6 763d 4555 4cbe 25c8 2f3d
00000010: 2448 e23c 8d8f 2b3e 81ac cabd 5ad1 63bd
00000020: c0b2 01be 658d 713c 42ad 5c3e 0cf8 a43d
00000030: 6850 d23d 56b2 f63d f74c 5fbd 5d6c 153d
00000040: 2617 9c3d 94c6 e9bd 9921 29bc d6b3 b53d
00000050: 1ecc 963d a68f 1fbe 0797 43be d5a5 b83d
00000060: 4354 3ebe 2c8c 773e 119e 47be a8bc 393e
00000070: f0ee 1b3d 4dda 65be 48d8 a5bc b793 983d
00000080: c454 cdbd 10ab 8cbb d15b 3e3e b481 fbbd
00000090: 9669 9f3d 4803 3a3e 7e03 04be ba33 31bd
000000a0: 0a27 d9bd 165e b63d 3471 4fbd 3aec 39be
000000b0: d7e4 303e db64 a73c 5532 463d b43c aa3c
000000c0: 19f4 e23c 5c01 b2bc 1070 c3ba b5d6 ba3d
000000d0: b608 813e 0d80 89be b3f0 743d 472f 763e
000000e0: 27a3 103d f765 0ebd b82f 053d 2a6d e9bd
000000f0: d999 d33c 72ff 9e3d cea4 623d 5306 d7bd
00000100: c5cb 04be addd c23d ccff b03c d1e6 f4bd
00000110: 1cce a9bd 0b61 203d 0561 01be 6795 4d3c
00000120: 3175 18be 26c2 3ebe b0c4 2cbd 16a1 f5bd
00000130: 05ed 443c 172e 733e 569e 963d b824 67be
00000140: f597 19bb 683b 69bc 0c94 6cbe 5c4a 58be
00000150: 2c97 1ebd 1997 07be dfd8 30be ebe6 733e
00000160: 1601 12be 4a70 9c3c cab7 cbbd 2388 74bd
00000170: a93c 59bd c5c3 933d e1ca fd3d a2bb 6abe
00000180: 7f1d e23d ac66 0c3d 87c4 9f3c 2a84 cdbd
00000190: 3b99 323d e0c2 413e 2871 083e ff2f 143e
000001a0: a6d7 103e 5525 2d3e d147 a13d d6aa 53bd
000001b0: 2975 fbbc cfef 54bc efa2 3fbd 6bd0 a6be
000001c0: 287d 70be 27eb 08be 3d82 0dbe 4fbc 3ebe
000001d0: b9e8 17bb ed31 213d e0af 83bd 9d3b 8b3c
000001e0: 6ac5 1fbd c6d7 5d3e aa94 cbbd 63c1 31bd
000001f0: 49ff 323e 7736 16bd 4317 653e 5b2e 82be
00000200: c256 6dbd a7bf 2d3e 1cf9 25bd d47e 5e3d
00000210: 1f69 033e 9023 8f3e 2026 ef3d b4e5 50bd
00000220: c4de 423b 926f b83d be57 b6bd 7632 0ebd
00000230: 9091 253d 84c1 df3d d165 103e 3420 02be
00000240: 0556 5cbe 7459 38bc 6659 2dbd ad2e 80bd
00000250: 02e4 2c3e 9869 aa3d ef2b a93d 695c 9bbd
00000260: 47a6 43be b7f7 1f3d c410 39be 3c12 6b3d
00000270: 59a8 613c 0e77 f93d e921 0f3e 4a83 a8bd
00000280: 27c6 95bd 6f1b bebc 0b39 14be 1657 48be
00000290: 6f12 76bc 9f86 883e c547 26be 8192 693e
000002a0: 3c1a cc3b 3f54 50be 92f7 8abc 6ea3 ba3d
000002b0: 7eb0 4d3d 985d 64bd 8bf0 c73d 8550 50be
000002c0: 446f 1dbe 0497 ae3d e4b8 0cbe 76fe b23d
000002d0: 7b53 9cbd 51d8 ecbd 0804 7abe 22a7 163e
000002e0: 3735 cf3d b29b 553e 6561 0c3e a2d0 bebd
000002f0: 0fb6 963d add1 49be 62a4 873e 938f 14be
00000300: 0a52 003e 4f05 843d e591 24bd 4730 a2bd
00000310: e704 6c3e 6fdd 9fbd d6fb 7fbe 7224 2e3e
00000320: c9f2 43be 6b52 d33d d8ce 7a3d 3bca 833d
00000330: b4f6 8f3d 370a 5f3e 2a7e e0bd 3003 a2be
00000340: e3fa d2bd 04dd f5bd e471 bf3d 93e7 f9bd
00000350: 65b9 553e 2d37 9c3d 78d9 3cbe 0c65 653e
00000360: 9c65 05be c9d9 0d3e e1ac 25be 0d3c b83d
00000370: 655a 433d 40bd 19be 05bf 85bd 675f e1bd
00000380: 6ce5 243d be72 753e 8e10 b8bc cacc e63c
00000390: d59c 0c3e b619 44bd 2d8c 1a3d db7e f53d
000003a0: b045 b9bd 2550 7fbe f902 e4bd a4b2 5c3e
000003b0: 9932 313e 73c3 eabd eb53 1c3e 9bad 4abe
000003c0: cafe 3c3d 1394 d8bd 4cdc 89be b3fd 223d
000003d0: 7dda 1c3d 9f45 a4bd 3e33 35be 4261 a6bd
000003e0: 48d1 abbb 89c5 b3bd 3ee7 dc3b 233c 1d3e
000003f0: 4a62 82bd 4a63 6a3d 6f50 163e e721 fabc
-0.12541722 0.060293704 -0.19954403 0.042915482 0.02762229 0.16753979 -0.09896184 -0.055619575
-0.12665844 0.014743184 0.21550468 0.08055124 0.102692425 0.12045734 -0.05451676 0.036480296
0.07621603 -0.11414829 -0.010322952 0.088721916 0.07363151 -0.15582141 -0.19100581 0.09016005
-0.18586831 0.24174565 -0.19493891 0.18138373 0.038069665 -0.22446556 -0.020244732 0.07450049
-0.100259334 -0.004292853 0.18589713 -0.12280598 0.07783811 0.18165314 -0.12891957 -0.04326222
-0.10603149 0.08904664 -0.05064507 -0.1815652 0.17274795 0.020433834 0.048387844 0.020780899
0.027704285 -0.021729164 -0.0014910717 0.09122983 0.25201958 -0.26855507 0.05979986 0.24041472
0.035311844 -0.03476521 0.03251621 -0.113977745 0.025830196 0.07763566 0.05533295 -0.10499253
-0.12968357 0.095149375 0.021606348 -0.11958087 -0.08291265 0.039155047 -0.12634666 0.012547827
-0.14888455 -0.18628749 -0.042179763 -0.11993615 0.0120194005 0.2374805 0.07354419 -0.22572601
-0.002343652 -0.014235355 -0.2310335 -0.21122116 -0.038718387 -0.13241233 -0.1727023 0.23818557
-0.14258227 0.019096512 -0.09947164 -0.059700143 -0.053036366 0.072150744 0.12392212 -0.22923139
0.11040782 0.034277603 0.019502891 -0.10034974 0.043603163 0.18921995 0.13324416 0.14471434
0.14144763 0.16908772 0.07875026 -0.051676594 -0.030695515 -0.012996628 -0.046786245 -0.32580885
-0.23485243 -0.13370954 -0.13819213 -0.18626522 -0.0023179485 0.039354254 -0.0643003 0.0169962
-0.039006628 0.21664342 -0.09940465 -0.04339732 0.17480196 -0.036673035 0.22372155 -0.2542599
-0.057944067 0.16967641 -0.040520772 0.05432017 0.1283307 0.2795682 0.11677194 -0.051000312
0.002973483 0.09005655 -0.08903454 -0.034716092 0.040422022 0.10925582 0.1410134 -0.12707597
-0.21517189 -0.011251796 -0.042321585 -0.06258903 0.16883853 0.08320922 0.08260333 -0.07585985
-0.19106399 0.0390546 -0.18072802 0.057390437 0.013773047 0.12180911 0.1397778 -0.082281664
-0.07313185 -0.02320644 -0.14474885 -0.1956447 -0.015019043 0.26665208 -0.16238315 0.22809793
0.0062287133 -0.20344637 -0.016963754 0.09113203 0.050217144 -0.05575332 0.09762677 -0.20343216
-0.15374476 0.08524898 -0.13742405 0.08739941 -0.0763311 -0.115646966 -0.244156 0.14712194
0.10117572 0.20860174 0.13709028 -0.09317137 0.07358944 -0.19708891 0.26492602 -0.14507894
0.12531295 0.06446325 -0.0401782 -0.079193644 0.23048745 -0.07805907 -0.24998412 0.1700609
-0.19135584 0.10318454 0.061232418 0.06435057 0.07029477 0.2178124 -0.10961564 -0.31643057
-0.10301759 -0.12005046 0.09347895 -0.122023724 0.20871504 0.076277114 -0.18442333 0.22401828
-0.13027042 0.1385261 -0.1617923 0.08995829 0.04769363 -0.150136 -0.06530575 -0.11004525
0.040257856 0.23969552 -0.022468831 0.028173823 0.13731702 -0.047876082 0.03773134 0.119870864
-0.09046495 -0.24932916 -0.111333795 0.21552521 0.17304458 -0.1146306 0.15266387 -0.19792788
0.046141423 -0.10575118 -0.26925886 0.039792728 0.038294304 -0.08021092 -0.17695329 -0.08124019
-0.005243454 -0.08777911 0.0067414334 0.15354972 -0.063664034 0.057223596 0.1467912 -0.030533744

bias_ih_l0 f4 [128]
00000000: 822d 16bc 3649 57bd 024c 003e d8e4 073e
00000010: 22cc a23b 6752 0e3e 0375 4f3e b17d 80bd
00000020: 1f56 393d b3fb 153e f713 c1bd 144d 15be
00000030: 15ff e03d 83c5 a63e 044e 00be 63fe c53e
00000040: ac94 6f3d 4eb0 0a3e a906 6d3e 7956 403d
00000050: 316d 5b3e e431 c0bc fb82 d2bd 946f a638
00000060: fc8e a7bc e27a c13c 4335 9d3d 7be5 8c3d
00000070: bfb0 113e 630c 233e 54be 493e 079a 2d3d
00000080: 0585 6f3e 2148 54bd dc46 7cbd 6c9e a0bd
00000090: 95e7 24bd 66b1 ce3d a161 4f3c 1378 5a3e
000000a0: 8f93 4a3e bc3a ab3e 918e 0d3e ddbd 2d3e
000000b0: 57f6 8dbc 3a2b bf3e 1a6e 873d 60ca 8b3e
000000c0: d57a bbbd b54b 5e3e 6e69 413e 03de 803e
000000d0: 7e73 1d3e 95c3 e33d 5943 6bbd 3c9c 973d
000000e0: 048d d13c b65b 1c3e b4af 9d3d 4ee5 8e3e
000000f0: 6fdf cdbd 6747 a53d 786b aa3c e88a 003d
00000100: 0d43 e9bd a104 583d 2582 873d 89de 54be
00000110: b88e d33c 869e ca3d d892 1a3e 0853 063e
00000120: 968f e03d 30f3 a4bd a31f 253e d27b 253d
00000130: c766 3b3d e612 fa3c ef9c f43d de33 a3bd
00000140: 0694 1dbe 3490 dbbd a8e9 1f3e bf77 afbd
00000150: a758 573d dd41 2fbe e49a b4bd e581 3a3e
00000160: 94a2 ccbd d7a1 52bd 8c56 f13d 484e 8cbc
00000170: 9bdf 7c3c 542d acbd 91d9 06bd 55c5 8e3d
00000180: b5e0 1abd a33b 643e 53d7 533e 9733 243e
00000190: 7387 c63d 2c53 3d3e 9bca 503e acf1 413d
000001a0: 31cd bc3c db95 703e 0f45 d93d 617b 0dbe
000001b0: b50d f9bc 7442 ec3e 4a96 8c3d 6d13 8b3e
000001c0: ab73 a43d c3c7 dfbd c23f 073e b479 183e
000001d0: f274 03bc eb3f 113e d5ce 28bb 3ca0 1cbd
000001e0: dfdb 583e 2ec7 e03d 631b 623e a093 20bd
000001f0: ed70 dfbd e2fd 783c 0ffe 143e a0e8 803c
-0.009166123 -0.052560054 0.12528995 0.1327089 0.004968182 0.13898621 0.2025948 -0.06273974
0.045248147 0.14646797 -0.09427636 -0.14580184 0.10986153 0.32572564 -0.1252976 0.38670644
0.058491394 0.13543817 0.23147072 0.046957467 0.21428372 -0.02346129 -0.10278889 7.93628e-05
-0.020453922 0.023618165 0.076761745 0.068797074 0.1422758 0.15922694 0.1970151 0.04238322
0.23390587 -0.0518266 -0.061591014 -0.078427166 -0.040259916 0.1009243 0.012657554 0.21334867
0.19782852 0.33443248 0.13823916 0.16966958 -0.017329378 0.37337667 0.06612797 0.27302837
-0.09154288 0.21708567 0.18887874 0.25169381 0.15376088 0.11121289 -0.057437275 0.07402846
0.025579937 0.1526936 0.07699528 0.2790932 -0.10052382 0.080702595 0.020803198 0.03138247
-0.11389742 0.05273879 0.0661662 -0.20788015 0.02582489 0.09893517 0.15095079 0.13117611
0.10964887 -0.08054197 0.1612535 0.040401287 0.045752313 0.03052659 0.11943995 -0.07968877
-0.15388498 -0.10720864 0.15616477 -0.08567762 0.05257478 -0.17114969 -0.088186055 0.18213613
-0.09991947 -0.051423874 0.11784086 -0.017127171 0.015434171 -0.08407083 -0.03292233 0.06971232
-0.037811954 0.22288375 0.20687608 0.16035305 0.09693804 0.18488759 0.20389788 0.047349617
0.023047062 0.23494665 0.10608875 -0.13816597 -0.030402044 0.4614445 0.06864603 0.27163258
0.080298744 -0.109267734 0.13207915 0.14890176 -0.008023487 0.14184539 -0.0025758047 -0.03823875
0.21177624 0.109754905 0.2208076 -0.039203286 -0.10910211 0.015197249 0.1455004 0.015735924

bias_hh_l0 f4 [128]
00000000: 7f26 613e f6e4 533e 8c3c 633d 945d 14bd
00000010: e6c1 ca3d 551b 683e 3852 34bd 3e59 293d
00000020: b0cc fd3d 6dd8 5f3e 00e1 e23d 22ed 803d
00000030: 001b e23d 9486 ab3e e5f6 d43d de24 e03e
00000040: b7f0 f33b 12ab 663d 359e 103e 70cd 023b
00000050: df9c 603e b712 b03d 8a31 443e 7051 96bd
00000060: a282 02be 59e0 73bd 42f3 273d 9347 e0bc
00000070: 3127 2c3e 98d6 3b3e 3232 663d 3622 923d
00000080: 752e cc3d 723f 2d3e a551 7f3d fbd4 d43c
00000090: 6c83 f4bc 5a0c 87bd 2c33 e2bd cceb 9cbd
000000a0: 7bb1 82bd 9479 1f3e af17 693d b7e5 823d
000000b0: b344 023e 49df c53e 98f7 b8bd 9ae1 4b3e
000000c0: 9f3c c5bc 432c 30bd b8b6 333d fd1d 843d
000000d0: e9ac 153e eaa1 0c3d 94fe b23d 159f 96bd
000000e0: 7bdc 4c3d 1657 4a3e 802b 49bc 8752 763d
000000f0: d48c c83d cd7e e4bd d334 cabd bd55 553e
00000100: b1eb 853d 22c1 903d 96f9 fabd 03e5 32be
00000110: d668 cb3d dd90 d1bd 031b 5abd 72a3 053e
00000120: 10b5 1abe 3987 113e 757c b03d 9446 173e
00000130: 2091 e13b d3c7 d33d 31b7 c53d c5dd dd3c
00000140: 8b16 85bd 4b01 833d 5816 02be 6baf 4a3c
00000150: 03dc cb3d 7a91 04be adc2 313d ec45 f13d
00000160: 607f 12bd 2d38 2f3e 92dc b0bd bfcf 81ba
00000170: 1a7d 08be ad58 fbbd 29b7 443e 78fa e0bd
00000180: 5e02 683e daa0 4b3e 13aa d93d e803 d9bd
00000190: f524 9cbd 62d6 4a3e 1615 043e faf5 f73d
000001a0: 2c6a 873d bf9d 7d3e c633 523d c46c f0bd
000001b0: cc7d b8bc 0226 a43e 689d 093e 6457 bf3e
000001c0: 85df 693e fe69 50bd d40f b8bd 9e69 093e
000001d0: 385d cebc 70c7 45bd b340 f23d 6c81 7e3e
000001e0: e495 b13d 013e 713e 82ca 153c 50b4 153e
000001f0: 8a68 2a3e 43bb a83d c404 903d d6c0 a43d
0.21987341 0.2069281 0.055477664 -0.036222056 0.099002644 0.22666676 -0.044023722 0.041344874
0.12392557 0.21859904 0.110780716 0.062952295 0.11040306 0.33501112 0.10398654 0.43778127
0.007444467 0.05631549 0.14122851 0.0019958876 0.21934842 0.085973196 0.19159523 -0.07339752
-0.12745145 -0.059540126 0.041003473 -0.02737788 0.16811825 0.1834358 0.056200214 0.071354315
0.099697985 0.16918734 0.06233372 0.025980463 -0.029847823 -0.06594153 -0.110449165 -0.07662162
-0.06381508 0.15573722 0.056907352 0.06391471 0.12721519 0.38646916 -0.090316 0.19910279
-0.024076758 -0.04301096 0.043875426 0.06451032 0.14616741 0.0343341 0.08739963 -0.07354561
0.050014954 0.19759783 -0.012278438 0.060137298 0.09792486 -0.11156998 -0.09873357 0.20833488
0.06539095 0.07068087 -0.12254636 -0.17470174 0.09932105 -0.102327086 -0.053248417 0.1305063
-0.15108132 0.1421174 0.08617488 0.14773017 0.0068837553 0.10340848 0.096540816 0.027083287
-0.0649844 0.06396731 -0.12703836 0.012370924 0.09954073 -0.1294612 0.043398548 0.11780915
-0.035766006 0.17111273 -0.086358204 -0.0009903832 -0.13328972 -0.12272773 0.19210495 -0.10985273
0.22657153 0.19885579 0.10628142 -0.10596448 -0.076242365 0.19808343 0.12898669 0.12107463
0.066120476 0.24767207 0.051318906 -0.117394954 -0.022520922 0.32060248 0.13438952 0.3737136
0.22839172 -0.050882332 -0.08987394 0.13419196 -0.025190935 -0.0482859 0.11828747 0.24854058
0.086711675 0.23558809 0.00914252 0.14619565 0.16641441 0.08238842 0.07032159 0.08044593

weight_ih_l0_reverse f4 [128, 2]
00000000: b3ba 903d 4818 33be 235a 323e 74af 273e
00000010: a69c 2dbd 9fd5 bfbd a229 2e3e 3f41 05be
00000020: 484a d73c ee13 dd3d 102b f6bd 1f77 6cbe
00000030: 4fa8 72bc e23a a03e e325 81bd 224f 8fbe
00000040: 9051 6d3d e0e8 83be cb50 17be 2a4d e23d
00000050: 94a2 60be 73f7 e73d c9f8 273e 5902 16be
00000060: 2837 54be 2c10 903e 4d36 47be d0b7 94be
00000070: 73d8 163e 7f83 3e3d f484 79bd 8078 6d3d
00000080: 9c30 febd b13c 143d c06d d4bd a64a e8bd
00000090: 5d0c 98be 9514 14bb b5cf 163d 7248 063e
000000a0: 3ce1 8ebd 4a2c f23e a4f5 2fbe c3d4 2fbd
000000b0: 8a66 1cbe 9c61 893d 3999 3e3e 0f16 e23b
000000c0: 126f b8bd 7146 8c3b f801 d7bd ba2a dcbd
000000d0: 542a 6b3d 8e92 863c dd65 ccbd 053b 863b
000000e0: dd16 11bd 66d8 f53d 1ae6 0b3d d501 64bc
000000f0: 1ff4 3d3e a937 6bbe 6062 74bd bae8 10be
00000100: d1a4 a0bd 5bdc 4d3d be44 653e 1231 763c
00000110: f473 3cbd b977 b5bc e6b8 2c3c 480f 46be
00000120: ffd1 773c 68e6 fb3d ce64 253e e705 5abd
00000130: eba4 81be 4c63 ac3e 6d27 1f3c 2c98 b5bd
00000140: dc17 023e 258e dcbd 2859 c6bc ef35 eabd
00000150: e9ca c03d c8a4 f6bd 91b9 3a3e 0fa5 1cbe
00000160: 966c 83be c9f1 133f 056a 4fbd 6715 86be
00000170: 865c 863d 9eeb cfbd ea9f 03be de00 3bbd
00000180: 3223 313d c2db a8bc e626 efbd 556c 9cbc
00000190: 9af1 a1be aaa0 cabc f592 79bd a692 923d
000001a0: 9292 833d 3e68 163f 0d26 12bd a62c dbbd
000001b0: ab91 c53d b827 62be 6e6c 29be 6695 3ebd
000001c0: 0c9f 3e3d c137 5bbe c755 ad3d 5322 7bbe
000001d0: 3394 193e 5e76 a7bd 58f7 9a3d 4b30 8bbe
000001e0: 8623 ebbd 0912 873e e636 5e3e 05b5 0dbd
000001f0: ad66 843e b013 33be 1dd3 413d cd22 7dbe
00000200: 7bcf 02be 4382 3ebe 23ac 6d3e ddf9 9d3e
00000210: d80b 1e3e 2ce3 28be a1ed 20be 8a73 4bbe
00000220: bfdf 033d acf4 a23e 2eea 503a 236c 4f3e
00000230: 3c34 043e 4d23 86be 8fea 4cbe 0032 813e
00000240: 3054 7ebe 4942 4e3c 18fe 08be d486 873e
00000250: 627c 9c3e 8b05 51be 74aa b03e 946d 24be
00000260: a11e a73e a32b 51be 4b3f af3e 1e7f 59bd
00000270: 6d40 8abe 9eff 85bc 665c 56bd 5ad2 6a3e
00000280: 7089 7a3c 6906 203e 5c29 63bd a93f b63e
00000290: 69fa 513e f32b 19bd 497f acbe b352 4bbe
000002a0: 4ee6 9fbe 6ba0 61be e4a1 a73e f794 30be
000002b0: 35e9 9abe 9443 4d3e 1f66 143e 970f 883e
000002c0: 6bdc 06be 7eaa 853e 99f7 973e b3b1 68bc
000002d0: c1be 83be 7ae0 013e 22af 583e 1c3a 99be
000002e0: a4ef 01bf aca3 8d3e 62db 193e 1836 043e
000002f0: 4dc4 823e 23da 85be b1f3 263e 6eaa 843d
00000300: 8d27 413e 03a4 cdbd 7b33 523e 8d50 183e
00000310: 7a32 6e3d 3695 59be 6dc2 88bd 308c 51be
00000320: 8933 93bd 7e91 613e 5bb1 0abe c842 22be
00000330: 92c5 98be 60b0 5e3e 8d53 d43d 1dd5 84be
00000340: cdcb 4cbd 0298 16be d301 21bd 1391 19be
00000350: 06b7 c03d 4f4d 38be b627 3f3e 0554 65be
00000360: 00cd a63c b5c3 983e ff1d 8cbd 1f32 22be
00000370: a1ad 673e 6d01 74bd ed64 89bd 2433 50be
00000380: 5e0d 243e b93f 9d3d cf4e 1cbc 515a 54be
00000390: f945 aabe 182f d3bc dcb3 69be 9c5d e93d
000003a0: 3eb0 5dbd 06d8 5d3e 01c9 bcbd 0476 393d
000003b0: 19d3 c2bd b5f0 50be fbdc 89bd 975c 80bd
000003c0: eb39 d23d 1a02 733d 0447 453e 9a83 59be
000003d0: ab06 21be 62e9 903d 6bc2 023e 24bc 873d
000003e0: 755d 533e e691 56bd 7776 6f3d cde8 84be
000003f0: db6e b03d ec33 0ebe 54bb b5bd 8ae8 29be
0.0706686 -0.17489731 0.17417197 0.16375524 -0.04238572 -0.09366917 0.17008069 -0.1301317
0.026280537 0.10794817 -0.12019932 -0.23092316 -0.014810636 0.31294924 -0.063060544 -0.2799006
0.057939112 -0.25763607 -0.14776914 0.11049874 -0.21937019 0.11326494 0.16403498 -0.14649333
-0.20724165 0.28137338 -0.19454308 -0.29046488 0.14731006 0.046512123 -0.06091781 0.057976246
-0.12411615 0.036190692 -0.10372496 -0.11342363 -0.29696932 -0.0022595276 0.03681918 0.13113573
-0.06976554 0.47299415 -0.17183548 -0.042927515 -0.1527349 0.06708071 0.18613137 0.0068996022
-0.0900556 0.004280858 -0.104984224 -0.10750337 0.057413414 0.016427305 -0.099803664 0.004096391
-0.035422195 0.12004165 0.03415499 -0.013916452 0.18550156 -0.22970451 -0.05966413 -0.14151278
-0.07843936 0.050258975 0.22389504 0.015026348 -0.04600902 -0.022151815 0.01054213 -0.19341767
0.015125751 0.12299806 0.16151735 -0.053228285 -0.25321135 0.33669508 0.00971399 -0.08866915
0.12704414 -0.107692994 -0.024212435 -0.11436068 0.09413702 -0.12043148 0.1823485 -0.1529734
-0.25668782 0.5779081 -0.050638217 -0.26188204 0.06560616 -0.10152362 -0.12853971 -0.045655124
0.043246455 -0.020612601 -0.11677341 -0.019094625 -0.3162964 -0.024734814 -0.060931165 0.07156877
0.064244404 0.5875281 -0.03568082 -0.107018754 0.096469246 -0.22085464 -0.16545269 -0.046529196
0.046538398 -0.21407987 0.08463626 -0.24524812 0.1499794 -0.081768736 0.07566708 -0.27185282
-0.11481385 0.26380947 0.2170063 -0.03459646 0.25859585 -0.17487979 0.047320474 -0.24720307
-0.1277446 -0.18604378 0.23210196 0.30854693 0.15434206 -0.16492909 -0.15715648 -0.19868293
0.032195803 0.31827295 0.0007969466 0.20256095 0.12910551 -0.26198807 -0.20011352 0.2523346
-0.24836802 0.012589046 -0.13378179 0.26470053 0.30563647 -0.2041227 0.34505045 -0.16057426
0.32640556 -0.20426802 0.34227976 -0.053099744 -0.27002278 -0.01635724 -0.05233421 0.22931805
0.015291557 0.15627445 -0.055459365 0.35595444 0.2050568 -0.03739543 -0.3369086 -0.19855766
-0.31230396 -0.22033851 0.327407 -0.17244326 -0.30256048 0.2004531 0.14492081 0.26574394
-0.1317002 0.26106638 0.2968109 -0.014202523 -0.2573147 0.12683287 0.21160558 -0.29927146
-0.5075629 0.27663934 0.15025094 0.1291126 0.2554039 -0.26142988 0.16303898 0.064778194
0.18862744 -0.100410484 0.2052745 0.14874478 0.058153607 -0.21248326 -0.06677709 -0.20463634
-0.07187564 0.22028157 -0.13544218 -0.15845788 -0.29838234 0.21746969 0.103674985 -0.25943843
-0.049999047 -0.14706424 -0.03930838 -0.14996748 0.09409909 -0.17998241 0.18667492 -0.22395332
0.020361423 0.29836813 -0.06841659 -0.15839432 0.22624828 -0.059571672 -0.06708703 -0.20332009
0.16020724 0.0767817 -0.009540274 -0.20737578 -0.3325651 -0.025779292 -0.22822517 0.11394808
-0.054123156 0.21664438 -0.09218026 0.045278564 -0.0951292 -0.20404322 -0.06731602 -0.0626766
0.10264953 0.059328176 0.19265372 -0.21241608 -0.157252 0.07075764 0.12769477 0.06627682
0.2064112 -0.052385233 0.058462586 -0.25958863 0.08614894 -0.13886994 -0.08873621 -0.16592613

weight_hh_l0_reverse f4 [128, 32]
00000000: 2687 11bc 2f43 893d 5e9f 7bbc db26 613d
00000010: 6ad1 4a3d 0056 9e3d 9a1b ff3c 8cf5 623c
00000020: 5ed7 07bd 1277 363d c73d 343d c341 33bd
00000030: e651 c4bc 5054 023e 5013 f1bd 4507 8d3c
00000040: 6a71 0ebc cb8f 9a3d 3ccd 933c 5741 03bd
00000050: 2ddc edbc a642 093e 0651 b43c a966 fbbc
00000060: 9e38 f7bd ef13 313e a66f 40be a024 fdbd
00000070: 4c75 6cbb c12a b23d 45c6 02be 5352 ed3c
00000080: 839d d0bc f166 f93d 8f45 323d f6cd 623e
00000090: 3a9e c3bd 1fff d8bd a640 51bd 8d27 02be
000000a0: 90c8 89bd 76bf 793d 0f9e 09bc 25f1 d4bd
000000b0: 874f cbbd c39b a2bd f6b7 ba3c ab2c 6bbd
000000c0: c878 c7bd a3eb c9bd e7fc df3c fc16 463c
000000d0: 5569 2bbd b2c4 e63d 6293 47bd a237 2fbe
000000e0: 2632 cebd a40e 46bb 0ef3 c0bd 8dc5 46bd
000000f0: dc23 17bc 54f1 06be 0f6e e23d 0587 9e3d
00000100: ed7c db3d a90f 54be 93c7 9ebd ff25 31bd
00000110: 97c1 b33d 8938 c33d c5e6 8a3d a562 50be
00000120: 09af aebb 6218 8dbb 51f7 a43c b7ca c73d
00000130: 4290 a43d d054 503c 5a9d 683d 4ed6 83bc
00000140: 6f0b 56be 57e1 9dbd d086 d2bd 9555 323d
00000150: eb67 ccbc 12e1 9ebd 1ad8 ec3c 6c5b 3dbe
00000160: 2653 14be b8b2 3d3e 0285 73bc 353b 313d
00000170: 9941 323d 3f43 ec3d bc68 e6bc 04d7 62be
00000180: 0d55 843c 2b85 3dbe 5019 03be c4e7 d1bc
00000190: 4ed9 fdbd ed37 2fbd 58f4 143e 02b2 9e3d
000001a0: f10a 86bd ee00 b5bd 99b5 8abd 2c96 223e
000001b0: 8c9d 973d 7758 7a3b b87c a23d 468e d53d
000001c0: d41a d3bd ad0d a33d 2ea9 b8bd be22 b4bb
000001d0: 93a0 2bbc cf42 113e d776 4abe 6e53 133d
000001e0: d9a5 3abe 2c73 c23d 5d15 cc3c 5a54 323c
000001f0: dc2c 533d 68d1 38be a322 d33c 288e 30bd
00000200: 12b6 263e 2def d0bc 8fbc dbbd 6523 903d
00000210: 1cc7 22be 2723 c73c daf6 5e3a 1552 20bd
00000220: 54a9 e03d c0fc 1dbe baa1 86bd 5a1a aa3b
00000230: e825 10be e15f 0f3e 818e 29bd bbb3 e9bd
00000240: e9a4 b5bd 3ad7 443d 4899 023d f64b c5bd
00000250: c9f1 28be ec66 253d 1a8a c1bd 7bbc 0d3e
00000260: 7063 08be d4c5 7a3e 10c8 21be 15b4 403e
00000270: 6fd7 06bd 2afd fc3d 083d 92bd 7c72 06be
00000280: 941b 5c3d 45d8 fbbd 3b52 ac3d 36bd 0c3d
00000290: 36af a23d 50f9 c73d 966e a6bd a282 29be
000002a0: 5661 58be 2494 00be c3c7 523d 18b0 c8bd
000002b0: 33d8 f3bd 311d 033e 4170 59bd ac97 53bd
000002c0: 0d5a 92bc 5dec 67be 467e 63be 1472 a5bd
000002d0: d493 bf3d 9b25 9a3d a2b3 40be befb 713d
000002e0: 1c9e b63d 21a6 c1bc 9292 e6bd 8b1a 44bd
000002f0: cfe3 6dbe 50b9 313d a36f 343e 659b f8bd
00000300: 476e 253e 5b02 763e a036 7e3d c38a c5bd
00000310: dcc0 2abc e394 41be 4665 8d3d 33a8 06be
00000320: 3f2f a3bd 1b65 3bbe f196 a33c 6102 023e
00000330: c4ca 13be 041f 393d b000 02be 329b eb3d
00000340: b6c9 2dbd 30af c03d 05a5 21be b46f cc3d
00000350: cf2c 763c 99ac 773e c7c5 123e 28c9 56bc
00000360: 3d31 15be 4097 a43d c8c6 583c 2547 d5bd
00000370: 2544 2ebd ad42 d0bd b98c b43c 3d6d 37bc
00000380: 3b1a 573e cb94 73be 7685 3d3e 7252 e1bd
00000390: d52a 2ebd dad9 65bd 8424 cfba 19c5 5ebe
000003a0: 986f 75bd aaf0 c3bd 0825 363e 71ef 32bc
000003b0: 2f0d 36bd e52e b93d eeb6 df3d 6421 55be
000003c0: 790a 393d 19b2 1ebd a18d 51be 5d22 0dbd
000003d0: 9a55 b33c 0c77 6bbd 8b19 f1bb a59e 93bc
000003e0: c5e7 f33d 5642 0f3e b704 093e 74ec c53c
000003f0: 32c4 adbd b1c0 abbd 0a9f 41bc 6871 e1bc
-0.00888232 0.067022674 -0.01535782 0.054968696 0.04951612 0.07731247 0.031141091 0.013852488
-0.033164375 0.044547148 0.044004228 -0.043763887 -0.023964833 0.12727475 -0.11771262 0.01721538
-0.008694032 0.075469576 0.0180422 -0.032044735 -0.029035652 0.1340433 0.022011291 -0.0306886
-0.12071346 0.1729276 -0.1879259 -0.12360501 -0.0036080657 0.08699561 -0.12770946 0.02896992
-0.025465732 0.12177838 0.043523367 0.2214888 -0.09551664 -0.105955355 -0.051087044 -0.127104
-0.067277074 0.060973607 -0.0083995005 -0.10397557 -0.09927278 -0.079398654 0.022792798 -0.057415646
-0.09739834 -0.09859397 0.027342273 0.012090441 -0.0418485 0.112679854 -0.04872454 -0.17111066
-0.10068159 -0.003022113 -0.09421359 -0.048528243 -0.009224858 -0.13177997 0.11056148 0.07740597
0.10717187 -0.20709099 -0.077529095 -0.043249127 0.08777159 0.095322676 0.06782297 -0.2035013
-0.0053309244 -0.004305885 0.02013746 0.09755462 0.080353275 0.012715533 0.056790687 -0.0160934
-0.20902799 -0.07708996 -0.1027962 0.04353865 -0.024951896 -0.077577725 0.028911639 -0.18491906
-0.14484844 0.18525207 -0.0148632545 0.043269355 0.04351959 0.11536264 -0.028126113 -0.22152334
0.016153837 -0.18507831 -0.12802625 -0.02562321 -0.12394963 -0.042777944 0.14546335 0.07748796
-0.06545056 -0.08838068 -0.06772918 0.15877599 0.074030966 0.0038199702 0.079339445 0.10427527
-0.103078514 0.07961593 -0.090166435 -0.0054973057 -0.010475296 0.14185642 -0.19771896 0.035968237
-0.18227328 0.094946235 0.02491253 0.010884369 0.051556453 -0.18048632 0.025773352 -0.04310432
0.16280392 -0.025504673 -0.10729324 0.07038001 -0.15896267 0.024308754 0.00085054117 -0.03914078
0.10969797 -0.15428448 -0.06573816 0.0051911296 -0.1407696 0.14001419 -0.041395668 -0.11411234
-0.08869345 0.04805682 0.03188446 -0.09633629 -0.16498484 0.040381357 -0.09450169 0.13841431
-0.13319182 0.24489528 -0.15798974 0.18818696 -0.032920297 0.12352975 -0.07140547 -0.1312961
0.053737238 -0.122971095 0.08414122 0.034360133 0.07943575 0.097643495 -0.08126561 -0.16553739
-0.2113088 -0.12556511 0.05146004 -0.09799212 -0.11906471 0.12804104 -0.05308557 -0.051658317
-0.017865205 -0.22648759 -0.22216138 -0.08078399 0.09354368 0.07526704 -0.18818524 0.05907797
0.08916876 -0.023638787 -0.11258425 -0.047876876 -0.23231433 0.04338962 0.17620711 -0.12139014
0.16155349 0.24024336 0.062063813 -0.09645607 -0.010421958 -0.18904452 0.06904082 -0.131501
-0.07967996 -0.18300287 0.019969435 0.1269622 -0.14432818 0.045195594 -0.12695575 0.115042105
-0.042428695 0.09408414 -0.15785606 0.09982243 0.015025332 0.24186935 0.14333259 -0.013109483
-0.14569564 0.08036661 0.013230987 -0.1041396 -0.042545456 -0.101689674 0.022039758 -0.011195478
0.210061 -0.23787229 0.18507943 -0.11002053 -0.042521317 -0.056115963 -0.0015803729 -0.21754874
-0.059920877 -0.095673874 0.17787564 -0.010921345 -0.044446167 0.090421475 0.10923563 -0.20813519
0.045176003 -0.038744066 -0.20464183 -0.0344566 0.021891404 -0.05748658 -0.0073577813 -0.018019984
0.11909441 0.13990149 0.13380705 0.024160601 -0.08484687 -0.08386362 -0.011817703 -0.027519897
