sgan-dataset/logs/zara1/models_03_Mar_2019_13_48_21/model_registrar-1199.pt (torch_old, 575433 bytes, 45 tensors)

weight_ih_l0 f4 [128, 6]
00000000: 7493 0bbe f054 b7bc 2aaa 0abe 4939 f13c
00000010: 48ef cfbc dca6 2b3e f8ac a9be 65e4 a2be
00000020: cf89 72be 9a11 96be 9a1e 7b3e f922 eabd
00000030: fc4f 1fbe 58bb 07be de3f d5bd a3a4 a1bd
00000040: a37f c0be 910e 9b3e 2ae6 03be 1b8d ac3c
00000050: 6e77 693e 8e3f 85be 39ee 6ebd c623 b03e
00000060: 2d75 8ebd 2211 833d 0fc2 62be d886 443e
00000070: 2048 0f3e 342c 3dbe 095c 293e e349 aa3d
00000080: 224f b03d 6998 1c3d 6e95 003e d2dd 39bd
00000090: 23c9 2fbe 109d 92bd 5795 59be b028 a2bb
000000a0: 4d96 9c3d a032 9ebd 31a1 863c 7da1 4c3e
000000b0: cf2b 39be edae 8a3d 508c 99be 74d2 cf3c
000000c0: 1627 233e 38b1 f03d 4236 ab3d 876b 833d
000000d0: e654 3ebd fd1b 403d ee7a 16be 4a40 77be
000000e0: 29d3 9abd 7c01 893e 01f4 c8bc 03cf 6abe
000000f0: 3a3a c23c ff61 2a3e da72 b4be 5f87 5ebe
00000100: 74a6 debc 5dab a63c 8776 5abd 9e2e 01bc
00000110: 40f3 d4bd 26e8 403d 3cb6 263e 408c 113e
00000120: 5e76 44be 958d 41be 8fe0 993d 0573 063d
00000130: 3248 c03b d8bd 00be 7478 58bd b623 ca3d
00000140: 2c31 4f3e 1dae adbd 8b56 0dbe 1f93 1e3d
00000150: e230 f8bd 649c 9fbd 7deb 54be 9f93 4a3e
00000160: 9b7f dd3d ba06 273e f7a5 d2bd afed 2f3e
00000170: d059 c63d 221d da3e 8882 bfbb fa09 9ebc
00000180: 640f 013e 2896 aa3d 1e2d 41ba a3ad a13d
00000190: f362 223e a92f cebd 9f00 87bd f97c 3ebe
000001a0: 17f7 cb3d 9e61 8cbd e61a 9bbb 429e bd3e
000001b0: 8d22 9c3d fff5 c0bc 5436 143e 86b3 88bc
000001c0: 45d6 803d cf1b f1bd 07fa 89bc 0aa5 123d
000001d0: bc3f 8ebe ce8a b43d 0b1f 1c3e b917 803e
000001e0: 16f6 88bd 2c5e 873d 9f3d bc3e d491 10be
000001f0: 552a 153e a431 2bbd d5c8 e7bd 8f30 72bd
00000200: c133 c93c 67fe 373e 6ca0 a4be 6b78 b93e
00000210: 6d70 40bc 92aa 05be 8ecf f5bd eacf afbd
00000220: f614 0e3e f2cd 8f3d 84c4 0bbd 2d6e c4bd
00000230: d67e 02be 7c33 3abd 379b 9b3d 4024 553e
00000240: dfba f5bc 3cfa 0bbe b1c6 57be e2b8 04be
00000250: 283a d1bd 4654 42bd e9d9 2bbe f1a5 e0bd
00000260: 21d1 d73d 2aab 2c3e 96e4 853c 95e1 9f3e
00000270: 3c5e 11be 4d34 1f3b 95af 923d 5b3d 913d
00000280: 3650 313d ba55 ab3e ab53 42be 1ce4 913d
00000290: 8d9f c73e 46fd 073e 8b73 da3c 7e28 9b3e
000002a0: 2550 ec3d 257f 043e eb77 cdbc 8a8b d0bd
000002b0: dc01 b33c 3131 893d 2af6 24be 3aea 05be
000002c0: eb79 61be 3046 f3bc 0d88 a7bc e1c4 be3a
000002d0: 444f 02bb 9487 313d c281 5e3d 5968 a3be
000002e0: 18c7 68be 2074 33be 19ec 9abd 38e1 c63d
000002f0: b941 bc3d 2d16 65be 0b44 8bbd 8d60 4abe
00000300: 944d 78bb 77be e13d 6983 43be 2102 d1bd
00000310: b6ab 413e a7b1 e4bc e6f2 27bd 86e9 c9bd
00000320: 19a6 12be 6c8b 5fbe 5e10 a63e 4000 3e3d
00000330: f762 0fbe 0748 c3bc 375a 73bd d1f6 7bbd
00000340: 5117 d5bc 89d2 323e 00bc fcbd 0715 39bd
00000350: 7b1d 063e 3f56 a3be 3ac7 903b 02a3 063b
00000360: b5bc c03d 8185 b6bd afb0 eebd 4061 a33d
00000370: 3ad0 1cbe a5f3 08be 5ff5 a83d 45f5 52bd
00000380: 80ee d13d 6abd 3fbe 7bfd debd 4083 1abe
00000390: 6f02 713d db3b 72bc 922f c1bd b8ef 3cbd
000003a0: d603 f7bd 27cc 863d 3cf5 023d a3f6 b8bd
000003b0: 6cbf bfbd ac85 193d b215 60be 7243 9d3d
000003c0: 3f95 c53d cbc1 c6bc 0c2e cabd c8d5 91bc
000003d0: 13eb 723d 095e 1a3e 2357 4abe 4913 dcbd
000003e0: aefb 273e aca3 0a3e 8350 fd3d 6e4c 50bc
000003f0: 46df 0c3e ba93 00be b838 57be cb86 63bd
-0.13630468 -0.022379369 -0.13541475 0.029446261 -0.025382653 0.1676287 -0.33139777 -0.31814876
-0.23685382 -0.29310304 0.24523392 -0.11432452 -0.15557855 -0.1325506 -0.10412572 -0.0789273
-0.3759738 0.3028455 -0.1288077 0.021063378 0.22799465 -0.2602505 -0.058332656 0.34402293
-0.06955943 0.06399752 -0.2214434 0.19192064 0.13992357 -0.18473893 0.16539015 0.08314874
0.086088434 0.038231287 0.12557003 -0.04537756 -0.17166571 -0.071588635 -0.21248375 -0.004948698
0.07645855 -0.077245 0.016434284 0.19983478 -0.18083118 0.06771646 -0.29989862 0.025368907
0.15932879 0.11752552 0.08359958 0.064169936 -0.046467684 0.04690169 -0.14695331 -0.24145618
-0.07559807 0.26758945 -0.024530413 -0.22930531 0.023709405 0.16638945 -0.35243875 -0.21731327
-0.02717898 0.020345384 -0.053335693 -0.00788465 -0.10397959 0.047096394 0.16280454 0.14213657
-0.19185778 -0.18901666 0.07513534 0.032824535 0.0058679814 -0.1257242 -0.052849248 0.098700926
0.20233601 -0.08480475 -0.13802545 0.038714524 -0.12118699 -0.07793501 -0.20792957 0.19782875
0.108153544 0.1631116 -0.102855615 0.17180513 0.09685099 0.42600352 -0.005844418 -0.019291867
0.12603527 0.08329421 -0.00073690887 0.07894447 0.15858059 -0.10067684 -0.06591915 -0.18602361
0.09959238 -0.068545565 -0.004733431 0.37034804 0.076237775 -0.0235548 0.1447385 -0.016687166
0.06290869 -0.11772882 -0.016842855 0.035801925 -0.27783 0.088155374 0.15246217 0.250181
-0.06687562 0.06609759 0.36765763 -0.14118129 0.1456693 -0.041795388 -0.113176025 -0.05912834
0.024560811 0.1796814 -0.32153642 0.36224684 -0.011745554 -0.13053349 -0.120024785 -0.08584578
0.13875183 0.07021703 -0.03412296 -0.09591327 -0.12743697 -0.045459256 0.07597964 0.2081461
-0.029996334 -0.13669676 -0.21071889 -0.12961152 -0.102161705 -0.04744365 -0.16782345 -0.10969151
0.10537935 0.16862169 0.01634435 0.31226793 -0.14196104 0.0024292648 0.07162396 0.07091781
0.043289386 0.33463842 -0.1897723 0.071235865 0.38988915 0.1328021 0.026666423 0.3030433
0.11538724 0.12939127 -0.025081595 -0.10182865 0.021851473 0.06698836 -0.16109529 -0.13077632
-0.22019164 -0.029696554 -0.020450616 0.0014554524 -0.0019883672 0.043342188 0.054322965 -0.31915548
-0.22732198 -0.17524767 -0.07564563 0.09710926 0.09192223 -0.2237174 -0.068000875 -0.19763394
-0.0037888037 0.110226564 -0.19093098 -0.10205484 0.18913159 -0.027916742 -0.04100313 -0.09858994
-0.14321174 -0.21830529 0.32434362 0.046386957 -0.14002596 -0.023838056 -0.059412207 -0.06151468
-0.026012095 0.17463125 -0.12340546 -0.04518607 0.13097183 -0.31901738 0.004418281 0.0020543938
0.09410993 -0.089121826 -0.116547935 0.07977533 -0.15313807 -0.13374193 0.08249926 -0.05150344
0.102505684 -0.187246 -0.10888191 -0.1508913 0.05884021 -0.0147847785 -0.094329014 -0.04612705
-0.120612785 0.06581908 0.031972155 -0.09031417 -0.09362683 0.037480995 -0.21883276 0.0767888
0.09647607 -0.02426233 -0.09872064 -0.017802134 0.059306215 0.15074934 -0.19759803 -0.10745866
0.16404602 0.13538998 0.12368872 -0.012713535 0.13757047 -0.12556353 -0.2101773 -0.05554847

weight_hh_l0 f4 [128, 32]
00000000: fa75 b9bd 165a ccbd 4660 05bd c888 353e
00000010: 35f4 1cbd b235 e2bb 990d 43be 6dd5 bcbc
00000020: 6dea fa3d 5aff bf3d 69f2 a43c e2ae 343e
00000030: a1a0 06bc 40b5 143e 60d9 f53d 213b 563e
00000040: dc54 f93d f306 0ebe 0473 9f3d bb4d 1cbe
00000050: 3923 c0bd c2ae 15be a051 c3bd ad50 02be
00000060: 33cc 1b3e e184 bbbd 08ca e33d b8a4 203e
00000070: 223c af3d 2b68 e03d a523 ca3c b9cb 29be
00000080: 04fa 693e a312 13be bb05 5a3e c97e fa3d
00000090: b86d cabc e387 803e e24f 02be a6c4 4dbe
000000a0: d672 0f3e 09ca 52be 3168 91bd 6845 c3bd
000000b0: 6d6c 82be 799f e93d f1d4 403e ff8f 353e
000000c0: 74c2 0c3e daf3 003e 98db b8bd 5e94 8dbd
000000d0: c3d6 ba3d 12fd 9cbb 56b7 23be e46d 9abc
000000e0: 2add bebd b8b1 cfbd 68e0 98be 1855 0fbd
000000f0: 879c 05be 27da c7bc 3ffd 123d fbf4 96bd
00000100: 179d f33d 72d0 febd 84e5 85bd 44b5 cc3d
00000110: ef3f f03c f079 943d 8d85 3abe a39d 2dbe
00000120: 61f2 13bd 7ea7 a73d 3e6d 04be 1e7e cb3d
00000130: fcc0 05be 7a06 edbd 60e6 023e 5058 02be
00000140: 17ef 933d 3b65 60bd a8dc 113e 57d3 3cbe
00000150: c798 ba3d 5ff6 813e 4986 2d3d 59b7 163e
00000160: 6205 c23d 7cfb 8a3d 7c7d b93d e2d2 253e
00000170: a19a 043e 4a7d 8c3d fdaa d9bd cd4b c83d
00000180: b734 1d3c d735 803b e6b8 b13d 6538 8f3d
00000190: a10e 3abe ce85 76bd 4684 afbd 54f6 a63d
000001a0: 713b edbd 57dc c3bd 9a67 023c eee3 15be
000001b0: 20d8 68be 80eb 9dbd 5e35 23be f283 89bd
000001c0: 5d17 e6bc 5dec 953e a409 a3bd 3486 d4bd
000001d0: 68e2 50bd 8b48 103e e21d b63d 6a6b c9bd
000001e0: 28f0 16be 1abe db3c e514 76be 450b 3d3e
000001f0: f8eb 15be 7e29 5f3b 1cc6 223e 54e6 c23d
00000200: 49da 28be 53c2 53bd bdf4 103e ab12 e1bd
00000210: 4044 133e 3c25 11be defb 16bd 57a1 043e
00000220: 6617 28be 7a6f 2cbe 8162 37bd befc 0dbe
00000230: 3091 8e3c 08a7 a83d 644b d23d e6fb 1fbe
00000240: d78c 10bd bade 37be 86b2 05be 86d1 b33d
00000250: afee 1a3d bcce fd3d a18d 973d 8f68 f5bd
00000260: b66c 7b3d 861a f8bd 2ff2 19be 7310 44be
00000270: 5ab5 403e d2af 88bd 1156 fe3d 7c16 00be
00000280: 5fe2 0f3e 5984 04be d919 0b3d 2845 45be
00000290: 96f6 87bd fffb 7cbd eda2 8abb 6c7f 8abd
000002a0: 6ecd 49bd 0341 313c 36be 003e e096 30be
000002b0: 989a 13be 64a9 6e3d 89cb 10bd df49 f8bc
000002c0: e173 0ebc dbf5 173e 73f9 3dbe 880b 0b3e
000002d0: 7c57 a23d 95fd d7bc e86a 07bd 5f75 57bd
000002e0: e192 65bd e847 cfbd f4f2 133e 13e3 483e
000002f0: 6030 5d3d 26cd c93d 5da5 123e 9ae5 a63d
00000300: b546 3b3e cc90 233d 4cc5 17be f6a6 523e
00000310: 8d69 95bb 095a 78bd 96ce b03c ef40 11be
00000320: 7a76 8bbd 9969 79bc 4fc4 0cbd 0771 eebd
00000330: 4488 f7bc d291 333e d948 16bc 3043 7b3d
00000340: d271 713c 9845 cfbd 3ab0 b23c 938a 15be
00000350: bbf7 d13d 863f 6f3e 9c84 243e 6810 ebbc
00000360: a801 41be 5a2e 053c b97e d33d b80f 093d
00000370: bcf5 3abe b11c 1a3e 3070 13be 0601 663d
00000380: b2bb 4f3e 309e bcbc 0a6f 7bbd 08cd 1b3e
00000390: 6a69 2abd f11f 893d 3a68 473d e250 103c
000003a0: 7cf8 62bc 94a1 2abe 1578 49bd 2863 25be
000003b0: 356d 6e3e 6d7f c1bd 7c99 c23d 39e1 453d
000003c0: f921 113e 7c75 08be 0c09 08be a9f4 cdbb
000003d0: f076 35be 1d4f ddbd 86d5 81bd abe8 35be
000003e0: 03b8 9f3d 8894 1f3e 01cc 263d a778 043b
000003f0: 5de1 1b3e c64b 493e fbb9 8abc 4535 ba3d
-0.09055705 -0.0997812 -0.032562517 0.17727959 -0.03831883 -0.0069033736 -0.19048156 -0.023050988
0.122517444 0.09374876 0.020135121 0.17644837 -0.008217008 0.14522266 0.120043516 0.20920993
0.12174389 -0.13869838 0.07785609 -0.15264027 -0.09381718 -0.14617446 -0.09537053 -0.12726088
0.15214615 -0.09156204 0.11122519 0.15687835 0.08556391 0.109573685 0.0246752 -0.1658162
0.2284928 -0.14362578 0.21291249 0.122312136 -0.024710521 0.25103673 -0.12725785 -0.20094547
0.1400865 -0.20584883 -0.07099951 -0.095347226 -0.25473347 0.1140737 0.1883123 0.17730711
0.13746053 0.12593022 -0.09026259 -0.069130644 0.09122994 -0.0047909105 -0.15987906 -0.018851228
-0.093195274 -0.10141319 -0.29858708 -0.03499326 -0.13047992 -0.024396015 0.035886046 -0.07370945
0.11895197 -0.124421015 -0.06537917 0.09995511 0.02932736 0.0724982 -0.18215008 -0.16954665
-0.036119822 0.081862435 -0.12932298 0.09936164 -0.13061899 -0.11573501 0.12783194 -0.12729001
0.07223337 -0.05478404 0.1424433 -0.18439995 0.09111171 0.2538328 0.042364392 0.14718379
0.09473683 0.06786248 0.09057137 0.16193727 0.12949611 0.068598345 -0.106283166 0.09780083
0.009595088 0.003912668 0.08677845 0.06993178 -0.18169643 -0.0601862 -0.08570151 0.08152452
-0.11583603 -0.09563511 0.007959271 -0.1463773 -0.22738695 -0.07710934 -0.15938327 -0.0671462
-0.028087312 0.29281893 -0.07960823 -0.1037716 -0.050997168 0.14090173 0.088924184 -0.09834941
-0.1474005 0.026824046 -0.24031408 0.1846133 -0.14640796 0.003405183 0.15895885 0.09516588
-0.16489519 -0.051698994 0.1415586 -0.10989889 0.14381504 -0.1417436 -0.036861293 0.12952171
-0.16415176 -0.168394 -0.044771675 -0.13865945 0.017403215 0.08234984 0.10268286 -0.15623435
-0.035290565 -0.17956057 -0.13056383 0.08780198 0.037825283 0.12392947 0.074000604 -0.119828336
0.06138297 -0.12114434 -0.15033792 -0.191469 0.1881918 -0.0667416 0.124187596 -0.12508577
0.14051197 -0.12941112 0.033960197 -0.19264662 -0.066388294 -0.06176376 -0.004230848 -0.06762585
-0.04926818 0.010818723 0.1257256 -0.17245054 -0.14414442 0.058267012 -0.035350356 -0.030308662
-0.00869462 0.1483988 -0.18552189 0.13578618 0.079268426 -0.026366035 -0.033060938 -0.05260217
-0.056048278 -0.10121137 0.14448148 0.19617872 0.054001212 0.09853582 0.14320894 0.08149262
0.18288691 0.03993301 -0.14821357 0.20571503 -0.004559702 -0.06063274 0.021582883 -0.14184926
-0.06809707 -0.01522293 -0.034366902 -0.11642652 -0.030216344 0.17536095 -0.009172642 0.061343372
0.0147366095 -0.10120696 0.021812547 -0.14603643 0.10252329 0.23364076 0.16066211 -0.028694347
-0.18848288 0.008128727 0.10326905 0.033462256 -0.18257803 0.15050007 -0.14398265 0.05615332
0.20286444 -0.023024648 -0.061385192 0.15214932 -0.041604437 0.066955455 0.048683383 0.008808346
-0.013853189 -0.166632 -0.049186785 -0.16151106 0.23283847 -0.09448133 0.09501931 0.048310492
0.14173116 -0.13326067 -0.13284701 -0.0062852693 -0.17721152 -0.10806105 -0.063395545 -0.17764537
0.07798769 0.15584004 0.040721897 0.0020213516 0.15222688 0.19657812 -0.016934386 0.090921916

bias_ih_l0 f4 [128]
00000000: c1b7 9cbd d6d7 263c ddca babc d70d b6bd
00000010: 69e9 24be 22c9 0d3e 0b6a 4ebd a087 41be
00000020: 3991 ba3c 25eb f73c 8a55 1e3e 4b6c 113e
00000030: 6b58 893d 035f 1dbe 13f0 953d a2d3 22be
00000040: 572a f73b 4a1b 1b3e f7fa 23bd 8fc6 fb3d
00000050: 1c1e 7f3c 88ec d63c 4379 3fbd d71c 39bd
00000060: 03b2 fe3d 88b5 8e3d 7e2c 24bd b86c a83d
00000070: bf6c bfbc 0775 e5bd 7081 4dbe ac0f 81bd
00000080: da0b 4c3e e93c dd3b 58c8 1fbe 4c1b 0f3e
00000090: ae8f 22be 762e aabd cfcf 17be e404 fbbc
000000a0: ecdb 06be 8869 d53d c563 64bd bed5 1b3d
000000b0: 78e5 2fbd efa1 303e db73 08bd 29ae f2bd
000000c0: 53c4 e03d 00d7 e73d d3cc a3bd 7303 a23d
000000d0: 1477 1ebe a922 e83d 4877 d13d 3c4d c43d
000000e0: f117 a33d 1648 133e cbd8 fb3d cd82 1b3e
000000f0: a45c b4bc 6cac 1dbe 2037 4bbe 8032 2ebe
00000100: 0ca2 dc3d c3e0 013e d25d 3cbd 3880 783d
00000110: 8b7b 71bd ea5c 2b3c 21f4 d73d bd1a 59bd
00000120: a91e 823c 60fa c43d 3981 f6bd f27e 283d
00000130: 5274 11be 4262 82bd 3de7 73bd fabc 4fbe
00000140: 84e4 f5bd cfcd 08be 66a9 103e 4e24 11bd
00000150: 5a34 0c3b 4534 ee3d 2f84 c33d 24cd 0bbe
00000160: bb6c 1f3e b5ba fdbd f1c6 023e f4da 24be
00000170: 8a99 07be 19b0 043e 3eaa c23b 32e7 bebd
00000180: 761f f43d 19df 2f3c a7db 8e3c f999 23bd
00000190: 938f ebba 551e 873d 876d 81bc 1da1 2dbe
000001a0: d146 ccbd 045e b03d df8c acbd 2b11 993d
000001b0: 0915 1e3d 38f8 34be c732 e33d 76b2 c73c
000001c0: 0b48 043e b506 7a3d d9bc 5e3d c89c c0bb
000001d0: 1f2c da3d 2a0d fa3b 872f c8bd 2bde dd3b
000001e0: 3823 c3bd f65a d63d 8b61 e93d ba0f 643c
000001f0: 70f7 d63d 3f78 b83d 1c2c 16be 485b a0bd
-0.07652236 0.010183295 -0.02280181 -0.088893585 -0.16104664 0.13846257 -0.0503941 -0.18899393
0.022774326 0.030263493 0.15462318 0.14201467 0.067063175 -0.15368275 0.07321181 -0.15901044
0.007542889 0.15147129 -0.04003426 0.122937314 0.0155711435 0.026235834 -0.046746504 -0.04519352
0.12436297 0.06968218 -0.040081494 0.082238615 -0.023367284 -0.11203962 -0.20068908 -0.06301817
0.19926396 0.006751646 -0.15603769 0.13975257 -0.15875122 -0.08309643 -0.14825366 -0.03064198
-0.13169831 0.10420519 -0.05575921 0.038045637 -0.042943448 0.17249273 -0.033313613 -0.11849625
0.10974946 0.11320305 -0.079980515 0.07910814 -0.15475112 0.11334736 0.10227829 0.09585044
0.07963551 0.14382967 0.12297209 0.15186615 -0.02201683 -0.15397805 -0.19845247 -0.17011452
0.107730955 0.12683396 -0.04598791 0.060669154 -0.05895571 0.010459164 0.10544611 -0.053004015
0.01588376 0.09618068 -0.12036366 0.04113669 -0.14204529 -0.063663974 -0.059546698 -0.20286933
-0.120064765 -0.1335976 0.1412712 -0.035435013 0.0021393509 0.11631063 0.095466964 -0.13652474
0.15568821 -0.12389127 0.12771203 -0.16099149 -0.13242164 0.12957801 0.0059407046 -0.09321441
0.11920063 0.010734343 0.017438723 -0.03994176 -0.0017971866 0.06597582 -0.015799297 -0.16955991
-0.09974445 0.08611682 -0.084253065 0.07473978 0.03859428 -0.17672813 0.110936694 0.024377089
0.12918107 0.061041553 0.054379318 -0.005878065 0.10652947 0.007630964 -0.0977469 0.0067708693
-0.09528202 0.10466568 0.11395558 0.013919765 0.10496414 0.0900731 -0.14665264 -0.078299105

bias_hh_l0 f4 [128]
00000000: 7f6c f7bd 9dcc be3c af59 20be d6a9 943d
00000010: 587b 8dbc ddef d7bd 5bb1 1bbe ab41 3bbc
00000020: 1801 dd3d d5d7 473e a38c d0bd 19cb 8c3c
00000030: 2357 2fbe d5f5 0f3e 0203 e93d a8d9 b83a
00000040: f6a8 a2bd fb7c 133e 72fb 0abe 7418 a13d
00000050: 932a 273e 72eb 533e fe43 95bc b680 9c3c
00000060: 7e30 d53c 8c73 5f3d 281b 093d ee14 19bc
00000070: c906 d7bd 7197 f8bd 6c51 06be ce28 52bc
00000080: 7f50 e23d bc84 063d df38 a73d 41f8 87bd
00000090: 7234 193e 6c52 a33d 4093 efbb cead 33be
000000a0: c4e5 70bd c889 443d 5dd5 16bd 0697 bdbc
000000b0: ee4a 3bbd ec88 e3bb e9c4 943d e20c 8cbd
000000c0: 2d6e acbc a776 393d 6877 53bd 8542 d1bd
000000d0: 2faa 31bc e38a 4abd a05f f7bd aafb 8a3d
000000e0: b3d7 fdbd 08c1 28be d4b2 05be 22b9 ba3d
000000f0: 4bc6 4dbd b5b6 a33d b4eb 87bd 606d 063e
00000100: 9fbd 33be 7a58 11be 8823 fe3d 5217 a53b
00000110: 3973 4a3e 633a 2f3d 2444 a5bd 4c52 c8bb
00000120: cfe9 203e 2eed 273b a7c1 f43b 7d54 6f3d
00000130: 7562 1e3d 9238 363b b08b 0cbe bde0 67bd
00000140: fa31 debc b8ce de3d 7ba3 883d bfe7 25be
00000150: 3a8d 1ebe feca 643d d8ae 17be c475 e43d
00000160: 9a97 a9bd 5d82 95bc bbd0 053e 3502 3dbd
00000170: 85bd f7bd d7a4 18be a370 98bc a5a4 303c
00000180: ee58 883b 9c8a 143e 3dfd 0dbe 40de 3f3e
00000190: ec47 c63d 58f5 fabc bc2a 3b3e 1c6b 103e
000001a0: 826f 1dbe 2b24 de3d 85c8 203e 6545 1b3e
000001b0: 44e5 4f3d 44ca 863c 163d fc3c 1a0f 043d
000001c0: bb37 173e d322 9bbd 7e4d 233e f178 04be
000001d0: af7e 8e3d b67e 4b3e 704d 5d3d 77b4 0e3e
000001e0: 4389 bd3d b87b a43d d7d9 293e 9ad9 a43c
000001f0: 29b0 c7bc b31e ad3d d202 f5bd 5ec1 fa3d
-0.12081241 0.023290927 -0.15659212 0.07258956 -0.017270729 -0.10543797 -0.15204374 -0.011429231
0.10791224 0.19515927 -0.10183074 0.017186688 -0.17123084 0.14058621 0.11377527 0.0014102953
-0.07942383 0.14403145 -0.13572481 0.07865992 0.16324835 0.20695284 -0.018220898 0.019104343
0.0260241 0.054553553 0.033473164 -0.009343369 -0.10499341 -0.1213826 -0.13116997 -0.012827111
0.1105051 0.03284143 0.08165144 -0.066391475 0.14961413 0.07974705 -0.0073112547 -0.1754677
-0.05881287 0.04798296 -0.036824573 -0.023143303 -0.045725755 -0.0069438126 0.0726412 -0.06838395
-0.02104863 0.04527917 -0.051627547 -0.10217766 -0.010843798 -0.04944886 -0.12078786 0.06786282
-0.12394657 -0.16479886 -0.13056499 0.091173425 -0.050237935 0.07993833 -0.06636754 0.13127661
-0.17552803 -0.14193907 0.12409121 0.0050381804 0.19770516 0.04278029 -0.080696374 -0.006113326
0.15714191 0.0025623548 0.007469374 0.058430184 0.038668115 0.0027804715 -0.13725162 -0.05661081
-0.02712344 0.10879272 0.066718064 -0.16201685 -0.15483561 0.05585765 -0.14812791 0.111552745
-0.08280869 -0.018250639 0.13067906 -0.046144683 -0.12096695 -0.14906631 -0.018608397 0.010781442
0.004160992 0.14506 -0.13866134 0.18737125 0.09681687 -0.030634567 0.1827802 0.14103359
-0.15374568 0.10846742 0.15701492 0.1516319 0.050755754 0.01645387 0.030790847 0.032240964
0.14767353 -0.075750016 0.1594753 -0.1293676 0.06957757 0.19872555 0.05402893 0.1393603
0.09254696 0.0803141 0.16587006 0.020123292 -0.024375992 0.08453121 -0.119634286 0.12243913

weight_ih_l0 f4 [128, 2]
00000000: 66a6 0b3d 0e64 a63e ccb9 933c c771 523d
00000010: eca8 a43d cdbe 5fbe 4fc7 d2bb d4d8 62bd
00000020: 094b 35bd a240 50be 7baa 08be 4caf 6e3e
00000030: d1e5 423c 7343 06be 7922 a53c 6f9d fdbd
00000040: 3770 8bbc ca14 d5be 23ed d43d 691d ef3e
00000050: b383 1cbc 01c6 6fbc d44b 963e b617 773b
00000060: a8e1 973e df39 763e aa07 aebe 9743 02bf
00000070: 0dcb 3f3e e5b5 203e 4077 853e 39f2 a13e
00000080: c470 4cbd a0b0 7a3c a21a ea3d 4727 a73d
00000090: 9ed8 9ebe 68e3 d6bd 413c 0e3f 0697 353f
000000a0: 99e7 e2bd 3cc5 0abf 9b6c 1dbe fee4 10be
000000b0: 1d5c 98be 0db5 81be de78 0bbe 732a 8f3d
000000c0: 8d99 a93d f744 1fbd b5a2 fcbe d2bd d9be
000000d0: 0d5c 8f3e 3d1c 913e 8b2d 26be 2ce4 693c
000000e0: d8dd 2fbf 7f5b a8be f901 553d f472 7dbd
000000f0: 3283 da3e 21e1 2bbd 30ba 8abe 35ab 0ebe
00000100: ce2a 593c 74da 69bd e3bd 083f 9cc2 a83e
00000110: 0d85 e63d 929d 793d e878 9ebe 5c2c 27be
00000120: 1f56 793e fec3 7cbe 334d 03bd c0ef 3abd
00000130: 357e 04be 449c 9a3c 5e08 5a3e db36 3e3d
00000140: 1360 3f3e 5d25 88bd ff1c f73e f5e8 cb3e
00000150: 763b 0f3d ce46 66be 046c 97be 5547 e7bd
00000160: 40f4 7a3e 3948 063f 361a 413d 5bb8 c3be
00000170: c4a6 333f 2d65 a63e eaca e63e 377b 743d
00000180: 3bbc 12bf 825d a2be 9a2a 283d 16f5 96bd
00000190: cc02 2abc 8830 0d3e f02c efbe 7e06 a4be
000001a0: 0b28 5a3f ea1a 3f3e 3be6 e13e 5900 a13c
000001b0: afaf 4d3e 4a0b 13be a1f7 45be 886b 0dbe
000001c0: a63a b8be 469a 02be 937f cc3d 8c35 0fbe
000001d0: e0d3 4d3d ed4a 843b bf42 03bf 5f66 2c3e
000001e0: 13df d23d 8df3 87be 9f3c aa3d 2016 9a3d
000001f0: 6d7e 7ebd fdcf bcbe 2a1d 46be 2af9 a1be
00000200: f08c 8c3d 757c 303e 784c 28be 1201 a1be
00000210: 00d0 acbe 9e99 c93d 6dc8 b5be c1bc 2fbc
00000220: 90d8 15be a8f0 37be 5ae0 053e a431 a4be
00000230: ffe6 a3bd 6bf1 21bd dc79 353e 1986 47be
00000240: b3cd 3f3e 9b89 7a3d 3e2b febc 2e4e ba3e
00000250: 6199 983e 8b76 933e 7e54 7abe d304 f9bd
00000260: b3f3 3abe 7aed f5bd 1d77 993e 0b22 843e
00000270: b52f abbe 0a72 b7be 4ae0 92be a714 893e
00000280: 03dd 0fbe 3e5d 4c3e 45c4 1fbe d211 803e
00000290: bcc0 40be 1547 6c3e 2976 3d3e 949c 973d
000002a0: 8e3c 68bd f25f 253d 43e5 9abe c83d 1e3e
000002b0: 8544 1cbd 9e60 f0bd a522 d73d dc3e 583d
000002c0: 5698 133e e82a 9e3e f081 373f 0d50 443e
000002d0: 55ee d03d 2ea6 7a3e 8e17 813e ab37 c1be
000002e0: ccb6 113d a453 babc b5a3 3e3e 3f09 823e
000002f0: 8da3 e9bd ace1 62bd 6c58 aabe cc75 753d
00000300: 1f2b 53be 0dda f53d 33cb 8d3e a258 223e
00000310: 9d75 373e f525 3dbe 3ca1 55bc 3a0c 67be
00000320: bf9e 5e3b 8bf3 b8be 9848 d73b 1c2d d43c
00000330: b976 5fbd d8fa a7be 50a0 32bc 3c6d 16be
00000340: a166 e23d 1d1c d6bc 09a9 863d 69cf e93d
00000350: aad5 303e 7819 37be 7065 3c3e 7ebb 46be
00000360: 5030 e23e bb0e 9a3e b229 8abd fc89 e5be
00000370: e1a1 fa3e 7c6a 4f3e 8e9e 75bd ade0 c53e
00000380: db16 82be 507a 1cbe cb5e c33c d4ab 53be
00000390: c04c 18be 81b9 6bbe 0861 6d3e c6b0 273e
000003a0: adad 643e b151 d13c fc14 a8bb b0d8 12bd
000003b0: eee6 ad3e 326d 0bbe d826 06be 2351 8bbd
000003c0: 79d9 b3bc 86b3 c0bc 5c95 49be 988c dfbe
000003d0: 38b8 ab3e df72 cdbd 4983 c1be 6964 933e
000003e0: 82fc a3be fd24 8dbe 2f73 afbc cf13 2fbe
000003f0: a4a0 243e 1bc8 7dbd 98d2 a5bd d842 63be
0.034094237 0.3249821 0.01803293 0.051378038 0.08040032 -0.21850128 -0.006432451 -0.055382565
-0.044261012 -0.20337155 -0.13346283 0.23309058 0.011895613 -0.13111667 0.02015804 -0.12383544
-0.017021282 -0.41617423 0.10396793 0.46702126 -0.009552884 -0.01463461 0.29354727 0.0037703342
0.2966435 0.24045514 -0.33990222 -0.50884384 0.18729801 0.15694387 0.26067543 0.31630114
-0.04991223 0.0153009 0.11430861 0.081617884 -0.3102464 -0.10492593 0.5556069 0.7093357
-0.1107933 -0.54207206 -0.15373461 -0.14149854 -0.29757777 -0.25333443 -0.13620326 0.069905184
0.082812406 -0.03888413 -0.49342886 -0.42527634 0.27999917 0.28341857 -0.16228311 0.014275592
-0.6869788 -0.32882306 0.052003834 -0.061877206 0.4267822 -0.041962747 -0.27095175 -0.13932498
0.013254834 -0.0570931 0.53414744 0.32960975 0.11255846 0.060941286 -0.3095162 -0.16325516
0.24349259 -0.2468414 -0.032056045 -0.0456388 -0.12938769 0.018873341 0.21292254 0.046439033
0.18688993 -0.066477515 0.4826431 0.3982617 0.034968816 -0.22487947 -0.29574597 -0.112929024
0.24507236 0.52453953 0.047144137 -0.3822659 0.7017634 0.32499066 0.45076686 0.05968782
-0.57318467 -0.31711966 0.041056253 -0.07370965 -0.010376643 0.13788044 -0.46713972 -0.32036203
0.8521735 0.1866261 0.44120964 0.019653486 0.20086549 -0.14359775 -0.19332744 -0.13810551
-0.35982245 -0.12754163 0.0998527 -0.1398527 0.050250888 0.004037252 -0.5127372 0.16835926
0.10296454 -0.26553002 0.08312344 0.07523751 -0.062132288 -0.36877432 -0.19347063 -0.3163541
0.06862819 0.17234977 -0.1643542 -0.3144613 -0.3375244 0.09843753 -0.35504475 -0.010726155
-0.14633393 -0.17962897 0.13073865 -0.32069123 -0.080030434 -0.039536875 0.17722267 -0.19484748
0.18730812 0.061166387 -0.031026479 0.3638777 0.2980452 0.2880138 -0.24446294 -0.12159123
-0.18257026 -0.12008186 0.2997369 0.25807223 -0.33434835 -0.35829192 -0.28686744 0.2677357
-0.14049153 0.19957444 -0.15602215 0.25013596 -0.18823522 0.2307399 0.18502106 0.07402912
-0.056698374 0.040374704 -0.30253038 0.15453255 -0.038151283 -0.11737178 0.10504655 0.052794322
0.1441358 0.3089211 0.71682644 0.19171162 0.10201708 0.24477455 0.25213283 -0.37737784
0.03557472 -0.022744961 0.18617137 0.2539768 -0.11408148 -0.055391 -0.33270586 0.059926793
-0.20621918 0.120044805 0.2769409 0.15854123 0.1791596 -0.1847151 -0.01303893 -0.22563258
0.0033969132 -0.3612331 0.006569933 0.025900416 -0.054556582 -0.32808566 -0.010902479 -0.14690107
0.11054731 -0.026136452 0.0657521 0.114165135 0.17269006 -0.1788081 0.1839807 -0.1940746
0.44177485 0.30089363 -0.06746234 -0.44831836 0.4895163 0.20255464 -0.059965663 0.38647977
-0.25408062 -0.15281034 0.023848912 -0.20671016 -0.14873028 -0.23019983 0.23181546 0.16376027
0.22331877 0.025551649 -0.0051294547 -0.03585118 0.33965248 -0.13615873 -0.13100755 -0.06802585
-0.021954285 -0.023523103 -0.19685882 -0.43661952 0.33538985 -0.100316755 -0.37795475 0.28787544
-0.32028586 -0.27567282 -0.021417229 -0.170974 0.16076905 -0.061958414 -0.08096808 -0.22193468

weight_hh_l0 f4 [128, 32]
00000000: 7819 16be ac3c 593d f76a 62be fc66 9c3c
00000010: f765 2f3d 8651 443e be9b 85bd 563f 37bd
00000020: 4567 f4bd 7607 9e3d e4a2 7c3e 05ee 9e3d
00000030: 8bdb 843d f8da 113e 8b72 7fbd 0684 8d3d
00000040: a4b7 953d 5a40 eabd 00b7 abbc 0d92 b93d
00000050: 2d6c 8e3d 99e1 22be ddc5 61be efb9 f83d
00000060: cb74 10be 517b 883e abc4 2fbe beb6 043e
00000070: b17d 143d 476c 5fbe 7a49 abbb 9c25 833d
00000080: c7dd cabd 9f9e 4d3c da11 853e 5f28 07be
00000090: 4a75 9f3d f918 3f3e 2b2c fdbd aa28 34bd
000000a0: ddf9 f4bd 6eb0 b73d 2c24 1ebd 60a9 81be
000000b0: d87b 363e c085 13bc 7737 743d d531 40bb
000000c0: f80e f63c a1e9 81bc cf6c 55bc 71b1 af3d
000000d0: 026e 8e3e efee 91be ee36 5b3d 9887 753e
000000e0: 29da e53c 9bc4 18bd d815 a83d b2eb debd
000000f0: 30fd 4d3d 5cb6 a63d 2be2 863d d009 eabd
00000100: fde8 1bbe fc34 e23d fd89 5f3d a764 0bbe
00000110: de42 7fbd 437d 643d bdb3 bcbd f876 b63c
00000120: efed 22be e0b4 46be 9855 bdbc 63d2 07be
00000130: c812 6ebb fef4 633e e1d1 9a3d 8426 66be
00000140: b697 6bbc 1b37 dabc 8442 7cbe 02c3 66be
00000150: 2df8 d2bc acdc 12be 0fc6 3cbe 376a 843e
00000160: 1217 0fbe 38bf 163d 9a07 acbd 9ecc a6bd
00000170: 7e35 c2bc 95b0 883d d462 0f3e 1a2d 75be
00000180: 5578 d33d 1088 0d3d 127f 723d c250 d9bd
00000190: 0fc6 233d 911f 473e 89af 553e 3a2a 143e
000001a0: 859e 153e 49fc 403e e28a c53d 3fef a5bd
000001b0: 7d71 4cbd f0f6 85bb 57b2 4ebd 16ee babe
000001c0: 6b73 72be dc76 edbd 5a8a 0dbe 62e7 35be
000001d0: e962 3fbc 68eb 093d 83f7 76bd a3b5 023d
000001e0: fd1e 65bd dd47 6a3e 70d6 a7bd b179 67bd
000001f0: a505 933e 6910 57bc 4f65 663e 03f0 88be
00000200: aa66 a2bd a98a 463e 3f66 1fbd f0f0 0c3d
00000210: 7ca8 143e b4db 9e3e 40b1 ff3d 44a2 d3bc
00000220: f490 85bc 64f7 9a3d f562 80bd 3f31 7fbd
00000230: bfbc 013c e0a8 e43d 1f71 163e ca9a 1dbe
00000240: c3f2 69be 204c b3bc c5ca 6ebd 10f3 a6bd
00000250: c486 3d3e 5ba8 843d 7b08 803d dd8a 1fbd
00000260: 5767 4abe 1018 7d3d 869d 2abe ec78 963c
00000270: 166d 1c3d 00a1 ea3d aa7a 253e a386 f3bd
00000280: 92ea 0abe b642 2c3d 023a 07be f052 6ebe
00000290: 9c18 b83c 25fb 973e 7f2a 2bbe 94d6 8f3e
000002a0: bcb4 2cbd d6cc 77be f57d 223d ca21 903d
000002b0: b326 1b3d 292a 81bd 6980 1b3e 25e5 11be
000002c0: 2fac 2abe 7ef3 863d 8f23 2dbe 6119 ab3c
000002d0: 93a7 92bc c4f3 20be b324 9ebe d48c 343e
000002e0: a9af 613d 6741 763e e8b8 063e 4b1b 10be
000002f0: 6a79 cd3d 44eb 7abe fb7e ab3e a69f 32be
00000300: ba08 063e b0f3 943d 6aed 2fbd af85 c9bd
00000310: 5a66 7d3e 0a19 84bd 66c0 6fbe ad0e 5f3e
00000320: 9039 50be c212 8b3e 3ecf ad3d 839a 5a3d
00000330: 5d38 803d aaa9 573e 72ee e7bd c84c 9cbe
00000340: 6567 c1bd 8ac5 38be 3dd1 af3d 89be f1bd
00000350: 9b1d 563e 8189 833d cfcc 40be cbe2 773e
00000360: 5a60 11bd 518f 143e c2a2 1bbe 3cb8 a33d
00000370: 6b10 303d 0a2d 58be bee2 3bbd 2562 fcbd
00000380: 9f06 153c d2dd 923e 7b49 663c 9644 c23b
00000390: e103 1c3e cf05 9dbc 8d9d 213d 7912 133e
000003a0: f13a 00be 24b6 7ebe 49e9 b6bd be25 323e
000003b0: de06 253e d700 2abe 6110 2a3e bfcc 5fbe
000003c0: ef24 323d 53bf d5bd c354 99be ba33 2e3c
000003d0: 7bb9 a83d 2243 e6bd 6816 5abe 98d9 83bd
000003e0: 1ab7 59bc 027e 98bd abb7 0a3d 5e57 fc3d
000003f0: d15d 80bd bc7d 343d b617 3f3e a648 75bd
-0.14658153 0.053036377 -0.22111116 0.019092076 0.04282185 0.19171724 -0.06523846 -0.044738136
-0.119337596 0.07716267 0.24671513 0.077602424 0.06487187 0.14243686 -0.062365096 0.06909947
0.07310417 -0.11438055 -0.020961285 0.0906106 0.06954227 -0.15906371 -0.22048135 0.12144839
-0.14107053 0.26656583 -0.17164867 0.12960336 0.03625268 -0.21818648 -0.005227265 0.06403658
-0.09905582 0.012550025 0.25990182 -0.13198994 0.07786043 0.1866187 -0.1236194 -0.043984093
-0.1196172 0.08969198 -0.038608715 -0.25324535 0.1782068 -0.009004056 0.059623208 -0.0029326577
0.030036435 -0.015858473 -0.01302643 0.08578766 0.27818304 -0.28502604 0.053519182 0.23977506
0.028058128 -0.037296873 0.08207291 -0.10884799 0.050290287 0.08140251 0.06586107 -0.11427653
-0.15225597 0.11045262 0.054574955 -0.13612615 -0.06231963 0.05578352 -0.0921397 0.022273526
-0.15911077 -0.19404936 -0.023112103 -0.1326385 -0.0036327112 0.22261426 0.075595625 -0.2247563
-0.014379432 -0.026637604 -0.24634749 -0.22535327 -0.025753105 -0.14341992 -0.18434928 0.25862285
-0.13973644 0.036803454 -0.083998874 -0.081444964 -0.023707148 0.06674305 0.14002544 -0.23942986
0.10325686 0.034553587 0.059203215 -0.106111065 0.039983805 0.19445635 0.20867743 0.14469233
0.14611252 0.18846239 0.096456304 -0.08102273 -0.04991292 -0.004088275 -0.050463047 -0.3650977
-0.23676841 -0.11594936 -0.13822308 -0.17764047 -0.011681297 0.033671767 -0.06029464 0.031911504
-0.055937756 0.22878976 -0.081951976 -0.05651254 0.28715244 -0.013126471 0.22499584 -0.26745614
-0.07929738 0.19388832 -0.03891587 0.034409463 0.14517397 0.31026995 0.1248498 -0.02583421
-0.01630447 0.07566717 -0.062688746 -0.062302824 0.007918536 0.11165023 0.1469159 -0.15391079
-0.22846512 -0.021886885 -0.058298845 -0.08151829 0.1850844 0.06477424 0.062516175 -0.03895079
-0.19765984 0.061790526 -0.16661653 0.018368207 0.03818997 0.114564896 0.16160074 -0.11890914
-0.13566044 0.042055808 -0.13205722 -0.23273826 0.022472672 0.29683796 -0.1671543 0.28093398
-0.04216455 -0.24199232 0.039670903 0.07037695 0.037878703 -0.063068695 0.15185703 -0.14247568
-0.16667245 0.06589411 -0.16908096 0.020886125 -0.017902171 -0.15717989 -0.30887374 0.17631847
0.055099163 0.24048387 0.13156474 -0.14072911 0.100329235 -0.24503809 0.33495316 -0.17443714
0.13089266 0.07273042 -0.042951025 -0.09839951 0.24746075 -0.06450088 -0.23413238 0.21782942
-0.20334458 0.2716275 0.08486794 0.05337001 0.062607504 0.21060815 -0.11324777 -0.3052733
-0.09443549 -0.18044105 0.08584831 -0.1180392 0.20909731 0.06422711 -0.18828128 0.24207608
-0.03549228 0.14507796 -0.15198806 0.07994124 0.042984407 -0.21110931 -0.045870535 -0.12323407
0.009095817 0.2868486 0.014055605 0.0059285862 0.15235855 -0.019167809 0.039456893 0.14362516
-0.12522484 -0.24874169 -0.08931214 0.1739721 0.16115901 -0.16601883 0.1660781 -0.21855448
0.043492254 -0.10436883 -0.2994748 0.01063245 0.082385026 -0.11243273 -0.2129761 -0.06437987
-0.013288284 -0.07445909 0.033866566 0.123213515 -0.06267894 0.044065222 0.18661389 -0.059883736

bias_ih_l0 f4 [128]
00000000: 4e75 4c3c 0272 4cbd 0793 113e 2d3d 133e
00000010: 1827 a23c 499a 3b3e 9f48 5b3e e2a5 3fbd
00000020: e935 463d 73bf 273e d3a3 99bd 40cb 03be
00000030: deb6 f63d fad2 a93e 8eaa f9bd 0323 c93e
00000040: 502c 833d 8148 113e 0ef5 6d3e a70a 7f3d
00000050: 44b4 643e 508a c4bc ace8 c2bd 8efb 893d
00000060: f0c0 8dbc d67a 113d 1776 b73d 32a4 a33d
00000070: b6a1 183e a3d0 303e ba50 533e 0c1a 703d
00000080: 8537 873e fcac 20bd 152c 55bd 927e 8fbd
00000090: d3a5 e0bc 2cbe f23d 8c52 a83c 4a41 6c3e
000000a0: 7f30 503e a229 b53e 5f49 2c3e 4749 363e
000000b0: f3f5 70bc 5b45 c13e c74f a33d c9da 8e3e
000000c0: 7aad bcbd 5039 603e 4e1c 3c3e a27f 863e
000000d0: 6f8e 1f3e 4017 d23d d9c9 4abd 812c e73d
000000e0: 06df 8b3d a959 223e b84e bb3d 512c 943e
000000f0: bce3 c2bd 43ed b13d 4e09 e23c f861 683d
00000100: 0833 d1bd cfc7 513d 68a3 8a3d d4ab 55be
00000110: 0cf7 973c 0545 a83d 8dca 213e d9bc ec3d
00000120: 42aa e93d 2583 96bd ae59 313e e4dd 2b3d
00000130: c6af 523d a605 dd3c ce0e f13d e865 a2bd
00000140: fbc8 17be 90f7 cfbd d850 263e ca53 9dbd
00000150: be3b 5f3d 8f43 23be b4c9 9ebd 84fe 333e
00000160: 2200 c6bd b8c4 52bd 0e07 f93d f33e 1bbd
00000170: fae6 653c 459b a6bd d811 14bd 9428 a23d
00000180: fa08 2dbc d511 693e 3616 5e3e 9ec6 2f3e
00000190: d46d fc3d 50e5 6b3e 15bb 5c3e 754f 9c3d
000001a0: b4c8 f03c dfc3 8a3e 35a3 043e 7a11 07be
000001b0: 4fa7 85bc 16f8 f73e 3d2d 9e3d 714c 9e3e
000001c0: fe2a af3d 950d cdbd 9ee3 053e dd0e 2b3e
000001d0: c206 db3c bddd 113e 994a ca3b 945c 473d
000001e0: 7ede 6a3e 91c8 fe3d db74 6c3e 649d 7fbc
000001f0: 474d d1bd 9d78 033d 47bf 1c3e 4c62 0e3d
0.0124791395 -0.049913414 0.14216243 0.14378805 0.019794032 0.18320574 0.21414421 -0.046789058
0.048391256 0.16381626 -0.0750195 -0.12870502 0.12046598 0.33168775 -0.12190734 0.39284524
0.06404936 0.14187814 0.23238012 0.06226602 0.22334391 -0.023991734 -0.09517035 0.067374334
-0.017303914 0.035517536 0.08958071 0.07990302 0.14905438 0.17267089 0.20636263 0.05861859
0.26409546 -0.03922747 -0.052043993 -0.07006563 -0.027422821 0.11852679 0.020547174 0.23071781
0.20331 0.35383326 0.16824864 0.1780139 -0.014707076 0.37748227 0.07974201 0.27901295
-0.092127755 0.21896863 0.18370172 0.2626925 0.15581678 0.10258341 -0.049508903 0.11287785
0.06829648 0.15854515 0.09145874 0.2894006 -0.09516093 0.08687832 0.027592327 0.056734055
-0.102148116 0.051215943 0.067694485 -0.20866328 0.018550418 0.082162894 0.15799923 0.11559457
0.11409427 -0.073492326 0.17319366 0.04195966 0.051437162 0.026980232 0.11770402 -0.07929593
-0.14822762 -0.10154641 0.16241777 -0.07681997 0.054500334 -0.1594374 -0.077533156 0.17577559
-0.09667994 -0.051457137 0.12159549 -0.03790183 0.01403212 -0.08135084 -0.03614983 0.07917896
-0.010561222 0.22760709 0.2168816 0.1716561 0.123256356 0.23036695 0.21555741 0.07632343
0.029392578 0.27102563 0.12952884 -0.1319026 -0.01631513 0.48431462 0.07723472 0.30917695
0.08553122 -0.10012356 0.1307511 0.16704889 0.02673662 0.14244743 0.0061734435 0.048672274
0.22936437 0.12440599 0.23091452 -0.01560149 -0.102198176 0.032097448 0.15307342 0.034761712

bias_hh_l0 f4 [128]
00000000: ae50 773e c29a 563e 4d2c 943d b1f8 cdbc
00000010: e31e e93d 9eb1 8a3e c303 05bd beae 6a3d
00000020: 431e 023e 2d9c 713e 9a28 053e caf0 a33d
00000030: c9d2 f73d 0b94 ae3e 5de8 db3d 7e49 e33e
00000040: 1d08 553c f585 803d 9a8c 113e 09c2 8d3c
00000050: f2e3 693e 9efc ae3d b2fe 4b3e def7 c7bb
00000060: b891 febd ee22 43bd ed74 5c3d a34c 85bc
00000070: 2818 333e d89a 493e dd3d 863d 3862 b33d
00000080: 4601 053e 3326 3a3e 3736 933d 32aa 0c3d
00000090: 085a 8bbc 33ff 45bd c70a d2bd c1b2 72bd
000000a0: 66ef 6ebd 5457 333e 7201 b23d 96fc 933d
000000b0: 19f4 043e 6af9 c73e eb15 9dbd 6602 523e
000000c0: 2c07 cabc eb75 28bd 3082 1e3d 60a4 9a3d
000000d0: dac7 173e 9792 d23c 543b c33d ab1d 0ebd
000000e0: 03ea bd3d 0955 503e f232 0f3b 6145 903d
000000f0: 8788 d33d f1d8 d7bd 5b4d bcbd 854b 6f3e
00000100: b8fb 9d3d b4a2 8d3d 53d8 f7bd 4eb2 33be
00000110: e882 bc3d 5eea f3bd 4a3c 3dbd ad5d eb3d
00000120: c527 16be 4cbf 183e a1f0 c83d 1cdf 183e
00000130: 8eec 4d3c 8584 cc3d 1029 c23d b315 e13c
00000140: 0201 73bd ef99 8e3d 4f5e f7bd 87e7 ad3c
00000150: 8ccd cf3d 6e26 f1bd fc64 5d3d 2a3f e43d
00000160: 723a 05bd 702f 2f3e 102c a9bd 934c b2bc
00000170: a0ec 09be 9ec6 f5bd 1a69 413e 3997 cdbd
00000180: fef4 813e 0c77 503e d127 ee3d d9dd c1bd
00000190: 2a7d 4cbd 8668 793e 9005 103e 47a6 193e
000001a0: 0069 943d cb47 913e 391b 993d ec98 e3bd
000001b0: cd2e 0abc a4db af3e cf68 123e 6890 d23e
000001c0: 283b 6f3e a3f5 2abd 12c8 babd c7fe 1b3e
000001d0: f7c7 1c3c 0650 43bd e915 023e 4dc0 ab3e
000001e0: 189b d53d 5c1f 803e 0cb1 9d3c 6adf 2d3e
000001f0: 5c7a 313e d457 cb3d 3b87 9f3d d7b7 cb3d
0.2415187 0.20957473 0.07235012 -0.025143 0.11382844 0.27088636 -0.03247429 0.057295553
0.12706856 0.23594733 0.1300377 0.08004911 0.12100751 0.34097323 0.10737679 0.44392008
0.013002423 0.0627555 0.14213791 0.017304437 0.2284086 0.08544277 0.19921377 -0.006102546
-0.124301374 -0.047640733 0.053822447 -0.016271895 0.17489684 0.19687974 0.06554768 0.08758968
0.12988767 0.18178634 0.07188075 0.034342 -0.017010704 -0.04833908 -0.10255962 -0.059252504
-0.058333777 0.17513782 0.08691682 0.07225911 0.12983741 0.39057475 -0.07670196 0.20508727
-0.024661623 -0.04112808 0.038698375 0.07550883 0.14822331 0.025704665 0.095328 -0.034696262
0.0927315 0.20344938 0.0021850434 0.07044483 0.10328775 -0.10539425 -0.09194442 0.23368652
0.07714027 0.06915799 -0.121018074 -0.17548487 0.09204656 -0.11909936 -0.046200074 0.114924766
-0.14663608 0.14916724 0.09811521 0.1492886 0.012568606 0.099862136 0.09480488 0.027476167
-0.059327133 0.06962954 -0.12078535 0.021228565 0.10146627 -0.11774908 0.054051384 0.1114486
-0.03252644 0.1710794 -0.082603574 -0.021765029 -0.13469172 -0.12000774 0.1888775 -0.10038609
0.25382227 0.20357913 0.11628688 -0.09466142 -0.049924053 0.24356279 0.14064622 0.15004836
0.0724659 0.28375086 0.074758954 -0.11113152 -0.00843401 0.3434726 0.14297794 0.41125798
0.2336241 -0.041738164 -0.09120192 0.15233909 0.00956916 -0.04768374 0.1270367 0.3354515
0.104299724 0.25023925 0.019249462 0.16979757 0.17331833 0.09928861 0.07789465 0.09947174

weight_ih_l0_reverse f4 [128, 2]
00000000: 8b79 9b3d 885f 14be 5f24 3f3e c465 8a3e
00000010: 8bf7 acbd 19fb 8cbd 5ab2 313e 3ad5 f4bd
00000020: 29d6 8cbb d53e 3d3e b0a6 11be d469 71be
00000030: 9c9b 04bc 7f8e c93e 7894 82bd 96b4 89be
00000040: 882e 963a d2b4 68be e447 30be aee8 163e
00000050: cc7c 86be 0571 2e3e 8931 083e c1b0 d4bd
00000060: cd7f 81be efc6 cc3e d2ed 56be 3072 8cbe
00000070: 16e8 ef3d a72a 693d e9f8 cfbd 65fe cb3d
00000080: 67fe 02be 574a cf3d b3ee dfbd b64c 97bd
00000090: cdf7 b7be 9f9c 063d e993 893d 59da 1d3e
000000a0: 4d50 7fbd 6f06 1c3f 491b 4abe 319e c9bc
000000b0: b2e2 42be ecbf ef3d 7d1e 4d3e 5731 113d
000000c0: 1fc1 adbd 60d9 843b c8f9 03be 37e1 d2bd
000000d0: 4ded 663d 6a73 3a3c 42f2 febd 635f 173d
000000e0: 7427 e7bd ccd5 523e fc75 a43c 0fa8 43bc
000000f0: 132e 343e 87b2 63be 2291 f2bd b760 17be
00000100: 7e80 89bd f540 963d e76f 693e 3684 af3d
00000110: 9e09 b8bd 94bd f9bb c5f7 523c 5c5f 43be
00000120: 5e6a 31bc 38af 3c3e 8270 0b3e 9634 4abd
00000130: 4087 6abe ed93 c83e 1c2a 343c 66dd a0bd
00000140: 28b7 b03d 04de b6bd dbe1 2dbd 356c c5bd
00000150: ad24 593d 11c2 97bd 9bfb 183e 4f00 d4bd
00000160: 106b 96be cdbe 2a3f 2ddf 76bd 4498 80be
00000170: 4328 363d 7d67 b7bd e4c8 2abe 5378 b8bc
00000180: 4fbb 473d 46a2 273d c706 03be dae3 053c
00000190: c4ae d0be 0998 433c c425 8dbd f3ad a83d
000001a0: 9dab 183d 555b 233f 5589 7ebd b62b c6bd
000001b0: ba37 703d 0ac3 3dbe 2931 23be 2826 0cbd
000001c0: 9c97 3c3d 8146 5abe d462 733d b9cb 78be
000001d0: 8d2d 0e3e 6703 a7bd 84e2 643d 7600 82be
000001e0: 903e 3ebe 3d04 ba3e 9168 603e 1451 03bd
000001f0: 7031 7c3e 7b43 28be 528f efbb 7ffa 7fbe
00000200: 44c2 12be bb14 3abe 4d78 663e 30b4 993e
00000210: c2c8 da3d a963 1ebe 4f3e 29be 34fb 44be
00000220: 2965 f53c 539b a23e 4b6a 76bc dae4 613e
00000230: c7d2 ed3d c39f 7dbe ca9e 46be 1190 773e
00000240: 8661 6bbe 8117 c7ba 4050 01be edaa 833e
00000250: 698e 943e 24c1 40be 7a0e ab3e e0ae 15be
00000260: 9b1f 963e 8e40 4ebe 77d8 b13e 0ec5 0ebd
00000270: d9e4 7bbe ffdd 0fbd 222a ccbc 7f8d 6d3e
00000280: b98a 2f3d 6718 193e 7289 cebc f9aa b33e
00000290: 8b52 4e3e e5ac 7cbd 1893 a8be fec6 47be
000002a0: 0ea6 6ebe 125e 6bbe 0a74 973e cd0f 27be
000002b0: 7250 99be c772 423e 6a1a 143e 03f7 823e
000002c0: de2a c7bd 31d9 7e3e 60e9 973e 8cf7 793c
000002d0: b0f8 81be 3f8e 013e a093 3b3e 736b 98be
000002e0: efad 00bf eb49 843e adf7 1c3e c656 043e
000002f0: d232 753e 1532 83be 3b1a 6c3e ae06 803d
00000300: 44c4 4b3e 062e 97bd 6e5a 603e 4c7f 693e
00000310: 2a39 143d 15a6 42be 9661 53bd bca1 4abe
00000320: b8bc bfbd 4356 943e 924f 32be e0ef 3fbe
00000330: 21b0 8abe 85d8 9b3e 59f7 c73d 6aaf 7abe
00000340: bf33 87bd dd29 04be aff9 4bbd 3f98 08be
00000350: 8f99 983d 49e5 15be 815e 2a3e c0b4 3bbe
00000360: 4067 b1bc c791 d13e 43ab 4abd 3eec 1bbe
00000370: f800 513e 61bf 51bd 83a3 9cbd e440 2dbe
00000380: 9912 203e ca30 ff3d 756d 5dbb 2823 2cbe
00000390: 5300 e2be 8c41 a43c 4647 65be c36f e23d
000003a0: 9019 43bd f29e c53e 357b d5bd 3f4c 7f3d
000003b0: 91b3 f7bd 0976 2fbe 69e3 4abd 59bf 20bd
000003c0: 293a e73d 5e1d 783d 6ce8 393e 6432 54be
000003d0: 5847 26be 4dac 943d f5a1 eb3d 9c08 b53d
000003e0: 7a86 2b3e baf8 2fbc f34a 563d c049 86be
000003f0: 6ee7 983d f0f7 0abe b05e 2ebe 1925 2fbe
0.07591542 -0.14489567 0.18666218 0.27030766 -0.084456526 -0.068838306 0.17353192 -0.11954732
-0.004297991 0.18481 -0.14223742 -0.23575526 -0.008093741 0.39366528 -0.063759744 -0.2689559
0.0011457959 -0.22725227 -0.17214924 0.14737198 -0.26267087 0.17035301 0.13300146 -0.10385276
-0.25292817 0.39995524 -0.20989159 -0.27430868 0.11714189 0.056925442 -0.10154898 0.09960631
-0.1279236 0.10121601 -0.109342 -0.07387678 -0.35931244 0.03286421 0.06717665 0.15415324
-0.06233244 0.60947317 -0.19736971 -0.024611564 -0.1903179 0.11706528 0.20031162 0.035447445
-0.084841006 0.0040542334 -0.12888253 -0.102968626 0.05637865 0.011380056 -0.12448551 0.036956202
-0.11286822 0.2058937 0.02007579 -0.011941924 0.17595701 -0.22236072 -0.11844088 -0.14782988
-0.06713961 0.07336608 0.22796594 0.08570139 -0.08986209 -0.0076214764 0.012876456 -0.19079345
-0.010828583 0.18426216 0.13617137 -0.049366556 -0.22903156 0.39175358 0.010996368 -0.078547284
0.08628684 -0.08929065 -0.04245172 -0.096397795 0.053013492 -0.07410062 0.1493973 -0.10351621
-0.29378557 0.6669739 -0.06027143 -0.2511617 0.04447199 -0.08955286 -0.16678196 -0.022518313
0.048762616 0.04092624 -0.12795554 0.008172 -0.40758336 0.0119381035 -0.06891969 0.08236303
0.03727304 0.63811237 -0.06214269 -0.09676306 0.058646895 -0.18531433 -0.15936722 -0.034216076
0.046043023 -0.21315958 0.05942042 -0.24296464 0.13884564 -0.08154946 0.055880085 -0.25390977
-0.18578553 0.3633136 0.21914889 -0.032059744 0.24628234 -0.16431992 -0.0073107863 -0.249979
-0.14331919 -0.1817197 0.22506829 0.30020285 0.10682823 -0.15467705 -0.16527675 -0.19236451
0.029955463 0.31759128 -0.015039991 0.22059956 0.11612468 -0.24767976 -0.1939651 0.2417605
-0.22986421 -0.00151895 -0.12628269 0.25716344 0.290149 -0.18823677 0.33409482 -0.14617491
0.29320988 -0.20141813 0.34735462 -0.034855895 -0.24599017 -0.03512382 -0.024922434 0.23198508
0.042856906 0.14950715 -0.025212023 0.3509138 0.20148675 -0.061688323 -0.32924724 -0.19509503
-0.23305532 -0.22985104 0.29580718 -0.16314621 -0.29944187 0.18989097 0.14463201 0.2557908
-0.09724973 0.2488754 0.29670238 0.015256774 -0.25385046 0.12651919 0.18318033 -0.29769477
-0.502654 0.25837645 0.15328856 0.12923726 0.23945168 -0.25624147 0.23056881 0.06251274
0.19899088 -0.07381825 0.21909496 0.22802466 0.03618733 -0.19008668 -0.051606737 -0.1978826
-0.09362167 0.28972062 -0.17413166 -0.18743849 -0.270875 0.3043863 0.09763975 -0.24480978
-0.06601667 -0.12906595 -0.049798664 -0.13339327 0.07451164 -0.14638247 0.16637613 -0.1833067
-0.021655679 0.40931532 -0.049479734 -0.15226838 0.20410526 -0.051207904 -0.07648375 -0.16919285
0.15632094 0.12460478 -0.0033787165 -0.16810286 -0.44140872 0.020050786 -0.2239047 0.11056473
-0.0476318 0.38597828 -0.104238905 0.062328573 -0.120947964 -0.1713487 -0.04953328 -0.039244983
0.1129039 0.06057488 0.18155068 -0.20722347 -0.16238153 0.07259426 0.115055 0.08839533
0.16750517 -0.010740453 0.05231757 -0.26228142 0.07466017 -0.13571143 -0.17028308 -0.17103995

weight_hh_l0_reverse f4 [128, 32]
00000000: 416c 97bc bed2 aa3d 444f bbbc a90f 403d
00000010: 5702 8c3d 733b b23d ca6b 1b3b 780a ad3c
00000020: 0bed c8bc fecf 553d 3db4 0b3d 120d 5abd
00000030: a764 5fbd da68 f53d 7d21 e5bd 2872 e03c
00000040: ac16 4d3b 3726 b03d d01d ac3c a66c 18bd
00000050: d0dc 65bd 129c 013e 3e95 fd3c d67b bfbc
00000060: 4755 e8bd 32c9 2c3e 5b63 37be de5f 07be
00000070: 8690 b83b 2130 c53d 9ec1 0abe c3bf 0f3d
00000080: f810 2fbd 5db5 033e f4c6 1c3d ba51 5a3e
00000090: bb03 87bd 8b3a bebd 7a37 8dbd 9dcc f3bd
000000a0: 4acf 7abd c947 913d a551 abbc 7c2d fbbd
000000b0: 7b51 17be 54cd b0bd b11d bf3c 28d1 38bd
000000c0: 4ce3 98bd 417a aabd c39a b03c 5e11 0e3c
000000d0: 8a3f 54bd ce16 dc3d 0a6e 1ebd 9f5d 2abe
000000e0: 7779 c2bd 8131 1bbc 7799 b1bd e105 6bbd
000000f0: 24c5 533b 96a6 efbd 7265 d23d 48f4 a53d
00000100: ebbe c93d f5d1 5ebe fc17 b1bd 1ee2 37bd
00000110: 1a43 c73d 0861 d93d 747b 983d f7c6 48be
00000120: d663 993b 7a6e 623b 488a 0f3c 0b2a a83d
00000130: 0cda 293d 140d 1a3b 5fed 873d a946 c5bb
00000140: 144e 4bbe fe35 8abd aba5 c6bd ec18 353d
00000150: 239c 89bc 712c b2bd 1430 1c3d 2ddb 3abe
00000160: 6b4b 0abe 8caf 343e 069c 24bb 365e 093d
00000170: 7507 833d 6786 f73d 1431 21bd c686 5bbe
00000180: 98b1 923c 930d 3dbe d514 ffbd 15a7 dbbc
00000190: e5f7 00be 578f 39bd 2c98 103e eb7f 9d3d
000001a0: a4a1 8cbd c771 b7bd 9d36 87bd c798 213e
000001b0: 4bf5 a33d 749d 863b 3bd8 9b3d 2ec4 cc3d
000001c0: 2b6c d7bd 9c97 9d3d 68a8 bfbd a316 82bb
000001d0: 2d27 a4bb 8687 133e 21fa 4cbe 6653 023d
000001e0: 5235 3dbe f0eb c33d 3807 b43c 7d44 553c
000001f0: 7424 453d c5ab 39be 46b9 dc3c e14c 3dbd
00000200: 4ee5 0d3e f961 9e3c b5ea f9bd 8aa1 483d
00000210: cc7f e8bd e394 3a3d 100c 36bd d772 c1bc
00000220: 2eb8 083e 1d87 0abe e2ec b9bd a0e2 aabc
00000230: 9e4a 45be b8db ff3d a683 1bbd f3cb b3bd
00000240: d3ba 71bd 4c1f 973d 95df 423c a779 e2bd
00000250: 46bb 66be fc13 c63c e7bb 8bbd e206 213e
00000260: 95cc f6bd 884e 723e b653 0fbe 0262 2b3e
00000270: 1f2a e1bb eae3 173e 1561 afbd 65f9 ffbd
00000280: 1ee8 4a3d 0a67 fabd 8f7e a73d 36ed 1b3d
00000290: 84a7 b13d 5e8e d03d 074a c0bd e774 29be
000002a0: 5beb 51be b8ed 00be 45f1 383d 4e26 d9bd
000002b0: fccb 15be 5357 fe3d 8715 53bd 9518 3ebd
000002c0: 0cfb 27bc 4fa5 63be 4a3f 67be fe8f a3bd
000002d0: e7c0 983d 432a 953d 2776 3bbe 790a 723d
000002e0: 0752 b93d 6971 dbbc 8631 ddbd f261 52bd
000002f0: d835 65be 27f9 3a3d edd2 323e bfdc f6bd
00000300: 210f 013e 3608 8a3e bcb1 553d dffd f7bd
00000310: b975 d33c 96ff 2dbe 36d7 5e3d c286 ffbd
00000320: 06ab 5dbd 6960 2fbe effe aabb ca29 e93d
00000330: 4f80 2bbe 7779 2f3d e9b2 04be 1b17 193e
00000340: 1d44 9dbc 954b ff3d 4351 2cbe 0984 9a3d
00000350: 1fc2 ecbb bec2 6f3e 06e7 383e 3f45 743c
00000360: fded 10be 3cc6 c03d 5a8b 9f3c cc99 f8bd
00000370: 1013 c6bc eb10 77bd 3716 a43c 56f3 28bc
00000380: 81ea 513e 8066 74be 855e 383e 0c95 e9bd
00000390: 7440 1ebd fd0a 4dbd 91e0 3e3c 6ced 59be
000003a0: 60c9 5fbd 8c8c babd e644 303e 9e40 84bc
000003b0: eddd 51bd 114e ae3d 9368 ea3d 657b 4fbe
000003c0: 64b6 4e3d 6ffc 07bd e555 4cbe c68e 13bd
000003d0: 7dbb f93c 0515 80bd f65b 2cbb 5ea8 7abc
000003e0: e7d1 fe3d 73e7 0b3e 653d 0f3e 6ccc 9a3c
000003f0: 28ad a1bd 7457 a2bd 24c9 90bc 5630 babc
-0.018484237 0.08340977 -0.022864945 0.046889935 0.06836384 0.08702745 0.002371537 0.021123156
-0.024527093 0.05220031 0.034107435 -0.05323512 -0.05453935 0.119828895 -0.11188028 0.027398184
0.003129403 0.08601039 0.02101031 -0.03721299 -0.056118786 0.12657192 0.030954953 -0.02337448
-0.1134439 0.16873625 -0.17908995 -0.13220164 0.005632463 0.096283205 -0.13550422 0.035094988
-0.042740792 0.12862153 0.038275674 0.21320239 -0.065925084 -0.0928851 -0.06895347 -0.11904261
-0.061232843 0.0709377 -0.020912955 -0.12264535 -0.14777176 -0.08632913 0.023329588 -0.045121342
-0.074652284 -0.08324099 0.021558171 0.008671133 -0.051818408 0.10746537 -0.03867916 -0.16637276
-0.09495824 -0.009472252 -0.08671849 -0.057378653 0.003231355 -0.117016956 0.102732554 0.081032336
0.09850868 -0.2175978 -0.08647153 -0.044893377 0.097295955 0.1061421 0.07445422 -0.19607149
0.004681091 0.0034550712 0.008760996 0.08211144 0.04146771 0.002350633 0.06637072 -0.0060203862
-0.19854003 -0.067485794 -0.096995674 0.04421322 -0.016798085 -0.08699883 0.03813179 -0.18247671
-0.13505332 0.17645091 -0.0025117411 0.033537112 0.06397907 0.12086182 -0.039353445 -0.2143813
0.017906949 -0.1846221 -0.12455145 -0.02681307 -0.12594564 -0.045302715 0.14120549 0.07690414
-0.06866768 -0.08957248 -0.066022135 0.15780936 0.0800577 0.0041081253 0.07609602 0.09998356
-0.10518678 0.07694933 -0.09358293 -0.0039699837 -0.005009553 0.14407167 -0.20017292 0.031817816
-0.18477371 0.09566486 0.021976098 0.013016817 0.048130468 -0.18131931 0.026943814 -0.046215896
0.13857004 0.019333826 -0.1220297 0.04898218 -0.113525 0.045552146 -0.044445097 -0.02361433
0.13351509 -0.13528104 -0.09078385 -0.020860016 -0.19266745 0.1249308 -0.037967347 -0.087791346
-0.05901606 0.07379016 0.011894126 -0.110583596 -0.22532377 0.024179451 -0.06822949 0.15725282
-0.1205074 0.2366277 -0.13996777 0.16736606 -0.0068714763 0.14833036 -0.08563439 -0.1249874
0.04953777 -0.122266844 0.08178436 0.03806802 0.08674529 0.101834044 -0.093891196 -0.16548501
-0.20499937 -0.12590683 0.045151968 -0.10603009 -0.14628595 0.124189995 -0.051534202 -0.046410162
-0.010252725 -0.22231029 -0.22582737 -0.07986449 0.07458668 0.072834514 -0.1830679 0.05909202
0.090488486 -0.026787477 -0.108004615 -0.05136294 -0.22383821 0.045647766 0.17463274 -0.12053823
0.12603427 0.2695939 0.052171454 -0.12108969 0.02581297 -0.1699203 0.05440446 -0.12476875
-0.05411818 -0.17126621 -0.0052183787 0.11384924 -0.16748165 0.042840447 -0.12958874 0.1495022
-0.019197518 0.12465588 -0.16827874 0.07544715 -0.0072252895 0.23414132 0.18056878 0.014909088
-0.14153285 0.0941281 0.019475628 -0.121387094 -0.024179012 -0.06031887 0.020030124 -0.010311922
0.20499612 -0.23867226 0.18004806 -0.114053816 -0.038635686 -0.050059307 0.0116502205 -0.21281976
-0.054635406 -0.091088384 0.17213783 -0.016144093 -0.051237036 0.08510984 0.11445727 -0.20261915
0.05046691 -0.033199724 -0.19954641 -0.03602483 0.03048491 -0.06254009 -0.002629993 -0.015298931
0.124423794 0.1366251 0.13988264 0.018896304 -0.07894355 -0.079268366 -0.017674036 -0.022728126
