sgan-dataset/logs/zara1/models_03_Mar_2019_13_48_21/model_registrar-799.pt (torch_old, 575433 bytes, 45 tensors)

weight_ih_l0 f4 [128, 6]
000000 f5 6d d1 bd 32 6d 32 bc c7 15 e4 bd 75 4d 89 3c
       -0.10226051 -0.010890292 -0.11136966 0.016760567
000010 6c f6 86 bd 80 07 2d 3e b8 a3 8b be 55 91 89 be
       -0.0658997 0.16897392 -0.27273345 -0.26868692
000020 44 f2 41 be 17 43 31 be 4b 86 11 3e 5c 9a 01 bd
       -0.18940073 -0.17310749 0.14211385 -0.03164135
000030 50 43 19 be ac b7 04 be 46 71 d7 bd f7 7e dc bd
       -0.14967084 -0.1296069 -0.10519652 -0.10766404
000040 13 ab 98 be f6 4e 86 3e 4a a1 da bd 11 15 2b 3d
       -0.2981802 0.26232117 -0.10675295 0.041768137
000050 35 33 61 3e fb bf 51 be 1d c6 ba 3a 72 1c 8f 3e
       0.2199219 -0.20483391 0.0014249716 0.2795139
000060 4b d8 90 bd ea ee 7e 3d b5 ac 58 be 2d f3 3d 3e
       -0.070725046 0.062239565 -0.21159633 0.18549795
000070 7d 1f 12 3e 64 9b 37 be 68 d7 26 3e 93 26 a2 3d
       0.14269824 -0.1793037 0.16293108 0.07917514
000080 c7 b3 86 3d 2f 1c 40 3d 2d cd f7 3d 91 8d 09 bd
       0.065772586 0.046901878 0.12099681 -0.033582274
000090 1f c7 2d be 7c 6f 8f bd c5 92 4c be e7 29 c3 bb
       -0.1697049 -0.07003686 -0.19977863 -0.005955923
0000a0 31 df 88 3c 53 d5 bb bd b6 06 ee 3b c4 dc 41 3e
       0.016707988 -0.09171548 0.0072639836 0.18931872
0000b0 b7 af 0d be 53 ae 19 3d de 14 74 be b9 8e 20 3d
       -0.13836561 0.037519764 -0.23836085 0.03919861
0000c0 29 3f 23 3e 4d 54 f2 3d 29 6c 99 3d cf bf ac 3d
       0.15942062 0.11832485 0.07491333 0.08435022
0000d0 b7 d4 fd bc 20 f4 45 3d 03 a6 01 be 63 2b 6d be
       -0.03098522 0.04832852 -0.12660985 -0.23161082
0000e0 6b 6b a9 bd 49 5c 56 3e 34 84 c9 bb 4b b5 55 be
       -0.082724415 0.20933641 -0.006149793 -0.20869939
0000f0 10 d2 a4 3c 3d 25 1d 3e 0b 5b 95 be ff 14 61 be
       0.020119697 0.15346237 -0.29171023 -0.21980666
000100 b7 d9 ee bc 5e 92 8b 3c fa 2b 53 bd 1e f7 06 bc
       -0.029156549 0.017037567 -0.05155561 -0.008237628
000110 14 53 da bd 65 a2 ae 3d 7f 88 21 3e 7d 28 fc 3d
       -0.10660377 0.08527068 0.15774725 0.1231241
000120 0b f0 35 be ef 88 32 be 00 db a7 3d 45 74 6a 3c
       -0.1776735 -0.17435049 0.08196068 0.014309947
000130 97 d9 16 3d e8 77 1f be 9d 66 38 bd 9d 90 d8 3d
       0.036828604 -0.15573084 -0.045019735 0.10574458
000140 6f 29 4d 3e 67 15 96 bd 38 d7 dd bd 9d 3a a3 3c
       0.20035337 -0.07328301 -0.10832065 0.01992541
000150 fb 7f ee bd 05 c4 93 bd 8e e0 2e be c4 d2 44 3e
       -0.11645504 -0.07215122 -0.17077848 0.19221026
000160 f7 16 68 3d 66 f3 d8 3d 3a 1b e5 bd 71 51 25 3e
       0.056662526 0.105932996 -0.11186834 0.16144349
000170 88 1e 7e 3d f5 d4 ac 3e 4e b5 91 bc 5f 3a 79 bc
       0.062040836 0.33756223 -0.017786648 -0.015211671
000180 e2 83 0e 3e 71 89 be 3d f2 9b 9e 3c d0 46 33 3d
       0.13917497 0.093035586 0.01936147 0.043768704
000190 85 be 28 3e db bf cc bd d8 ce 63 bd 81 eb 33 be
       0.16478927 -0.09997531 -0.055617183 -0.17570306
0001a0 6e 4e c5 3d 12 97 95 bd 1f 16 63 bc 6b dc 9b 3e
       0.096341 -0.07304205 -0.013860255 0.30441603
0001b0 d7 e1 aa 3d 63 fe cc bb 08 b4 06 3e d7 e6 18 bc
       0.08343857 -0.006255911 0.13154614 -0.00933238
0001c0 c8 94 86 3d bf 65 c9 bd f1 4d 82 bc 88 a1 14 3d
       0.065713465 -0.0983386 -0.015906306 0.03628686
0001d0 43 b9 7d be 94 99 a4 3d c7 75 e5 3d f5 63 67 3e
       -0.24777703 0.08037105 0.11204105 0.22596724
0001e0 0e d9 7b bd ad 14 89 3d 03 93 b0 3e 94 2b 82 bd
       -0.061486296 0.06693397 0.3448716 -0.06355968
0001f0 57 01 16 3e a0 39 8b bd 57 55 a9 bd 73 7e 22 bd
       0.14648949 -0.067981005 -0.082682304 -0.039671373
000200 e7 56 60 3d 1b 64 0d 3e f6 66 91 be 03 d3 8d 3e
       0.054770377 0.13807718 -0.28398865 0.27700052
000210 9f 0f 3c bc 77 b7 08 be 25 44 d0 bd 73 23 c6 bd
       -0.011478334 -0.13351236 -0.101692475 -0.0967473
000220 06 6b d2 3d c1 d8 58 3d b6 43 ae bc f3 d3 b3 bd
       0.10274319 0.052941088 -0.021272521 -0.087806605
000230 f9 42 e8 bd a7 14 b1 bc ba c5 53 3d 06 c7 54 3e
       -0.11340899 -0.021616293 0.05170224 0.20779046
000240 5e e3 97 bc 1e 1a 03 be f0 27 3a be 6c 38 e1 bd
       -0.018541034 -0.12802932 -0.18179297 -0.1099709
000250 c7 66 a7 bd 05 95 81 bd f3 1b 22 be ee 03 db bd
       -0.081739 -0.06327251 -0.15830974 -0.10694109
000260 fd c4 ad 3d dc 9b 1e 3e 5d 60 cb 3c 62 ed 8a 3e
       0.08484838 0.15489143 0.024826223 0.27134234
000270 41 a5 09 be a6 58 9b 3b a7 bd 4e 3d c5 79 42 3d
       -0.13441946 0.0047407923 0.050473835 0.04747941
000280 01 c1 ae 3c 01 03 9b 3e ba 01 27 be 16 16 c0 3d
       0.021332266 0.3027573 -0.16309252 0.093792126
000290 fb 9b b1 3e b0 db e9 3d f7 2b 82 bb 19 a9 72 3e
       0.34689316 0.11418855 -0.003972526 0.23697318
0002a0 d6 c1 eb 3d 25 7d 05 3e 3b 4b 8a bc 63 dd 21 be
       0.11511581 0.1303602 -0.016881576 -0.15807109
0002b0 d5 2c dd 3c 6d fe 99 3d b2 1b 12 be 3b 11 e5 bd
       0.026998917 0.07519231 -0.14268377 -0.11184927
0002c0 f0 3a 4c be 68 f0 34 bd fa dc be bc f2 21 48 3b
       -0.19944358 -0.04417458 -0.02329873 0.003053781
0002d0 4f 68 b9 ba 67 16 28 3d 50 a7 dd 3d 73 4c a3 be
       -0.0014145466 0.04103699 0.10822928 -0.31894264
0002e0 93 fb 3e be 7c 4b 28 be da 9d 99 bd fb a0 c5 3d
       -0.18650655 -0.16435045 -0.07500811 0.09649845
0002f0 33 04 bc 3d 87 c1 5f be 2f 7b 95 bd 0d a9 52 be
       0.091804884 -0.21851169 -0.07298886 -0.205723
000300 0f fe 02 3d 70 9e f8 3d 21 b0 26 be 85 46 07 be
       0.03198057 0.121395946 -0.16278125 -0.13210495
000310 44 f0 14 3e 3e 3c 53 bd 41 46 b5 bc ba ab dd bd
       0.14544779 -0.051571123 -0.022128226 -0.1082377
000320 95 ae ee bd b8 00 3d be c0 b2 3f 3e f4 0e 05 3d
       -0.11654393 -0.18457305 0.18720531 0.032484964
000330 07 6c 0e be 17 f0 da bc 30 55 60 bd 9f a1 a5 bd
       -0.13908397 -0.026725812 -0.05476874 -0.080874674
000340 06 16 cc bc 50 87 2f 3e ae 06 f3 bd 85 6e 1f bd
       -0.024912845 0.17141461 -0.118665084 -0.03892376
000350 b8 46 12 3e f3 4b 9d be ed 42 aa 3c 82 18 85 bc
       0.1428479 -0.30722007 0.020783866 -0.016247038
000360 79 29 bd 3d 10 10 bb bd 4a 6b e7 bd 76 e6 94 3d
       0.09236426 -0.09133923 -0.11299761 0.072705194
000370 55 de 19 be e8 04 09 be 25 8e a6 3d 51 ee 59 bd
       -0.15026219 -0.13380778 0.08132581 -0.05320579
000380 ad c9 be 3d 4e bc 3c be 92 86 da bd df c4 18 be
       0.0931581 -0.18431208 -0.106701985 -0.1491885
000390 31 10 6b 3d 4c 45 8d bc 44 39 ba bd 48 66 50 bd
       0.05738849 -0.017244957 -0.09092954 -0.050878793
0003a0 31 91 1d be 0a 1a 85 3d cc 8b d2 3c 03 1a cb bd
       -0.15387417 0.06499107 0.025701426 -0.09917071
0003b0 25 99 4d bd 8c 89 84 3c ca 0b 56 be 3c f8 ab 3d
       -0.050194878 0.016178869 -0.20902935 0.08396956
0003c0 b4 58 c3 3d fb 4b ca bc 43 26 d5 bd 5c a4 11 3c
       0.09538403 -0.024694433 -0.104076885 0.008889284
0003d0 4d 6b 7e 3d 56 7d 19 3e 25 a1 4a be d6 0a e9 bd
       0.06211405 0.14989218 -0.19788034 -0.1137902
0003e0 97 45 29 3e 59 17 ca 3d a8 10 03 3e 97 1c b7 ba
       0.16530453 0.098677345 0.12799323 -0.0013970312
0003f0 67 9a 0f 3e 09 c7 0a be c7 0f 07 be e1 45 61 bd
       0.14023744 -0.13552488 -0.13189612 -0.054998282

weight_hh_l0 f4 [128, 32]
000000 3c c8 a7 bd d5 af 57 bd d2 3b 37 bd c1 c6 f3 3d
       -0.081924886 -0.05265792 -0.044734783 0.11903144
000010 e2 52 ab bc a7 c7 c6 bc 34 37 2b be f1 b8 b2 bb
       -0.020913545 -0.024265124 -0.16720277 -0.0054541756
000020 b8 cd ec 3d 7a f3 bc 3d 24 5e ad 3c e3 cd 2b 3e
       0.11562675 0.09226127 0.021163054 0.16777758
000030 4a 98 0d bd 34 f8 11 3e a7 8e dc 3d 6a 24 39 3e
       -0.034569062 0.14254838 0.10769396 0.18080297
000040 45 41 d7 3d ac f4 20 be 88 78 9a 3d c2 80 11 be
       0.10510496 -0.15718335 0.07542521 -0.14209273
000050 6e ae e6 bd d1 2e bc bd 15 2d af bd 88 42 13 be
       -0.112637386 -0.09188617 -0.085535206 -0.14380848
000060 f1 41 0b 3e fc 50 b7 bd c4 2f df 3d 41 36 23 3e
       0.13599373 -0.089509934 0.108977824 0.15938665
000070 4e e8 cc 3d a4 42 00 3e 60 27 e0 3c e6 72 2f be
       0.10005246 0.12525421 0.027362525 -0.17133674
000080 b0 39 6a 3e 3d 09 e1 bd 6e c9 1b 3e 96 00 00 3d
       0.22873569 -0.1098809 0.15213558 0.03125056
000090 ce cd 09 3c 2e 2a 46 3e 36 3f cf bd 3c 3c 19 be
       0.008410884 0.19352028 -0.101194784 -0.14964384
0000a0 aa ef fe 3d 98 45 67 be 2d b7 95 bd e4 09 e0 bd
       0.12448056 -0.22585142 -0.07310329 -0.109393865
0000b0 7e 93 3e be 37 66 0b 3e e0 d9 3a 3e 7a f7 99 3d
       -0.18610951 0.1361321 0.18247175 0.075179055
0000c0 fd 3f 14 3e cb ac e3 3d 79 c5 de bd e1 4a 17 bd
       0.14477535 0.11116942 -0.10877509 -0.036936644
0000d0 7c ef 1f 3d d1 fa e1 bd 83 14 17 be cf 60 0a bd
       0.03904675 -0.110341676 -0.14753918 -0.03378373
0000e0 8f ec ef bd 97 0c 99 bd b5 c9 88 be e9 3b ba bd
       -0.11715042 -0.074731044 -0.2671639 -0.09093458
0000f0 3d 0a 9d bd 52 e5 4a 3c f6 fb 36 3d 9a 9c bf bd
       -0.076679684 0.012383776 0.044673882 -0.09356041
000100 48 12 fe 3d 49 5b d8 bd a7 95 84 bd 1d f9 a2 3d
       0.124058306 -0.10564286 -0.064738564 0.07957671
000110 32 fb ff 3c 71 76 8c 3d 20 e3 34 be 97 73 28 be
       0.031247709 0.068585284 -0.17664766 -0.16450344
000120 9a 5f 17 bd 53 b2 b0 3d e3 02 06 be 56 b7 c1 3d
       -0.036956407 0.08627763 -0.13087039 0.09458797
000130 d6 0d 0a be c7 1e f4 bd 56 fa 00 3e c5 7a 07 be
       -0.1348184 -0.11919933 0.12595496 -0.13230427
000140 6a 6c 8b 3d 8d 59 69 bd 16 af 11 3e cf bf 39 be
       0.06807788 -0.056970168 0.14226946 -0.18139575
000150 2c 58 ae 3d ed 3b 82 3e e0 9d 37 3d 40 ce 11 3e
       0.08512911 0.25436345 0.044828296 0.14238834
000160 27 67 bd 3d d8 41 8c 3d 87 43 b6 3d 07 c8 2a 3e
       0.092481904 0.06848496 0.088995986 0.16677867
000170 56 e5 05 3e 44 1c 94 3d 47 91 ed bd a9 53 c8 3d
       0.13075766 0.07231954 -0.11599975 0.09781582
000180 57 ba c2 3c 61 af 21 3d e7 6d b1 3d 96 db 89 3d
       0.023770494 0.039473895 0.0866354 0.06731336
000190 5e 30 2f be ca 4a 98 bd 8d 3c 9c bd 46 a3 d7 3d
       -0.17108294 -0.0743614 -0.07628737 0.10529189
0001a0 51 32 ef bd f6 04 b4 bd 0a d0 56 bc 32 7e 1a be
       -0.11679519 -0.08790009 -0.013111124 -0.15087202
0001b0 da be 65 be e8 ee af bd ee fb 29 be 3c 06 c9 bd
       -0.22436085 -0.085904896 -0.1660001 -0.09815642
0001c0 84 fd 29 bd 65 af a0 3e 5f 4b a0 bd a2 56 bc bd
       -0.041501537 0.31383815 -0.07826876 -0.091962114
0001d0 87 5c 68 bd 0a fa 10 3e e8 ae c2 3d da cd d7 bd
       -0.056728866 0.14157882 0.09506017 -0.1053731
0001e0 cf 08 0c be 44 b8 fd 3c 91 18 73 be aa e8 2e 3e
       -0.13675235 0.030971654 -0.2373984 0.17080942
0001f0 03 1c 01 be 4e 6f 86 3c b1 f4 1f 3e 45 d6 c3 3d
       -0.12608342 0.016410496 0.15620686 0.09562353
000200 42 57 26 be e3 af 56 bd 38 26 11 3e f4 7d ee bd
       -0.16244224 -0.052413832 0.14174736 -0.116451174
000210 44 a5 13 3e 21 8c 0f be 5f 2d 1b bd 22 2c 04 3e
       0.14418513 -0.14018299 -0.037885066 0.1290746
000220 b4 85 27 be 15 cc 34 be 57 57 37 bd 67 ad 0c be
       -0.16359597 -0.17655976 -0.04476103 -0.13738023
000230 17 37 63 3c 8a 0c b1 3d dc e9 d0 3d 86 86 20 be
       0.013868115 0.0864497 0.10200855 -0.15676317
000240 e3 aa 0d bd bf cf 34 be 10 fa 04 be 39 89 b1 3d
       -0.0345868 -0.17657374 -0.12986016 0.08668751
000250 42 38 1d 3d c8 19 09 3e 9e 55 96 3d 8b 63 f0 bd
       0.03838373 0.13388741 0.07340549 -0.11737736
000260 03 59 65 3d 55 64 f9 bd a9 a9 1b be e8 ae 3d be
       0.05599309 -0.1217734 -0.15201439 -0.18523753
000270 58 1e 3f 3e 4e 20 8d bd ce 22 ff 3d 27 41 00 be
       0.18663919 -0.06890927 0.1245781 -0.12524854
000280 15 06 11 3e 93 9d cc bd a0 d0 15 3d e7 43 4a be
       0.14162476 -0.099909924 0.036575913 -0.19752465
000290 a9 c4 8f bd 25 7f 75 bd 0a c0 a0 bb d8 20 8d bd
       -0.07019932 -0.059935708 -0.0049057053 -0.0689103
0002a0 7c 9f 42 bd 9a f9 85 3c 1a c7 02 3e 0e 19 32 be
       -0.047515377 0.01635437 0.12771264 -0.1739237
0002b0 6d e2 0d be 4c 96 5f 3d 98 7e 05 bd 78 45 0f bd
       -0.13855906 0.054586694 -0.032591432 -0.03497836
0002c0 a3 5a b3 bb 27 67 0a 3e 75 17 3d be 3b ce 0a 3e
       -0.005473451 0.13515912 -0.1846598 0.13555233
0002d0 63 95 a0 3d 61 ae 25 bd 41 25 0b bd 2c 9f 5b bd
       0.07840993 -0.040449504 -0.033971075 -0.053618595
0002e0 dc de 62 bd de a7 d2 bd f2 e8 14 3e 7a 1b 42 3e
       -0.055388317 -0.102859244 0.14541987 0.18955794
0002f0 4a 38 5f 3d 9c 47 d6 3d b4 48 12 3e 0f 51 a4 3d
       0.05449704 0.10462877 0.14285547 0.08023273
000300 fd 46 3a 3e ef cd 28 3d ed c4 1d be d7 10 57 3e
       0.18191142 0.04121202 -0.15407152 0.21002518
000310 1f d3 98 bb 85 29 7d bd 39 68 9e 3c cf c3 0d be
       -0.0046638395 -0.061807174 0.019336807 -0.13844226
000320 8f e0 80 bd 2a 19 4a bb 83 61 23 bd 61 87 ec bd
       -0.06292831 -0.0030837753 -0.039887916 -0.11549259
000330 4e 35 c4 bc 3e 25 2e 3e 95 b4 1a bc c0 de 55 3d
       -0.023951199 0.17006394 -0.009442468 0.052214384
000340 96 e3 8d 3c cb ad da bd 28 b0 e0 3c ef 29 15 be
       0.017320435 -0.1067768 0.027427748 -0.14566778
000350 19 13 cb 3d 05 76 57 3e 07 9d 23 3e f5 9c cc bc
       0.09915752 0.21041115 0.1597787 -0.024977187
000360 11 c9 3c be 8b 52 1b 3c 19 62 e6 3d c9 5b 23 3c
       -0.18436076 0.009480129 0.112491794 0.009970614
000370 5b e2 3b be 07 4b 1e 3e 2b 43 19 be 6d 56 5c 3d
       -0.18348067 0.15458308 -0.14967029 0.05379336
000380 59 11 4e 3e 53 9c 8d bd 97 56 6d bd 52 7b 00 3e
       0.20123805 -0.06914582 -0.057943907 0.12547043
000390 4d c2 25 bd 8d 19 93 3d 14 62 42 3d ef df 78 3b
       -0.040468503 0.07182608 0.047456816 0.0037975272
0003a0 57 22 6b bc 8d 1e 2e be 06 59 2d bd e9 70 1b be
       -0.014351449 -0.17003842 -0.042321227 -0.1517979
0003b0 93 7c 5d 3e f7 1a 97 bd e1 51 b7 3d f4 a5 58 3d
       0.21629553 -0.0737819 0.08951164 0.05289264
0003c0 9a 69 0c 3e 2a eb ed bd 81 7d 10 be cc 44 27 bc
       0.13712159 -0.116171196 -0.14110376 -0.010209274
0003d0 fa 9c 2e be b4 d4 b9 bd d2 8a 89 bd 91 4c 33 be
       -0.1705207 -0.09073773 -0.06715931 -0.17509677
0003e0 19 16 8c 3d 42 35 26 3e a7 ea f7 3c 8a fd 3d 3d
       0.06840152 0.16231254 0.030263258 0.04638437
0003f0 df f6 13 3e e8 e7 37 3e ea 06 4e bc f7 18 c0 3d
       0.14449643 0.17959559 -0.012574891 0.09379762

bias_ih_l0 f4 [128]
000000 81 da ba bd d5 7c 1c bd a2 04 c3 bc 8e 3f c9 bd
       -0.091237076 -0.038204987 -0.02380592 -0.09826575
000010 26 7a 22 be ba 50 10 3e ff 44 3b bd 38 d5 3c be
       -0.15866908 0.14093295 -0.045720097 -0.18440711
000020 17 ea b9 3c 0e f8 e6 3c e3 29 1f 3e db 5c 12 3e
       0.02269463 0.028194454 0.15543322 0.14293234
000030 66 59 89 3d 61 84 1e be f1 5b a9 3d 99 ff 19 be
       0.067065045 -0.15480186 0.082694896 -0.15038909
000040 0c ae 01 3b 22 d1 18 3e ea db 3b bd 3a 8e f8 3d
       0.0019787578 0.14923528 -0.045864023 0.121365026
000050 8e f4 73 3c 4a e3 e3 3b 51 d4 34 bd 11 10 3e bd
       0.014889849 0.006954585 -0.044147793 -0.04640204
000060 47 e5 f2 3d da 86 91 3d 98 9d 2a bd ac 0a 88 3d
       0.118601374 0.07105799 -0.0416542 0.066426605
000070 69 02 ad bc 2e e3 e8 bd c7 04 48 be e3 24 7a bd
       -0.021119313 -0.11371456 -0.19533072 -0.061070334
000080 7c e3 38 3e 73 0c 51 bd bd 9b 1e be 52 37 0e 3e
       0.18055528 -0.051037263 -0.15489097 0.1388829
000090 43 df 1f be 41 85 a8 bd 38 82 12 be 33 d5 ef bc
       -0.15612511 -0.08228541 -0.14307487 -0.029276466
0000a0 8e 36 06 be f8 eb d3 3d e0 27 7f bd f0 78 24 3d
       -0.13106748 0.10347742 -0.062293887 0.040154397
0000b0 57 a4 36 bd 9d f2 2f 3e ae 1e eb bc 4a d0 f9 bd
       -0.04459032 0.17182393 -0.028701153 -0.12197931
0000c0 19 25 e1 3d 5c 2a ee 3d 52 78 a8 bd 19 a5 9b 3d
       0.10993404 0.11629173 -0.08226074 0.07599849
0000d0 a6 b3 22 be f6 58 e7 3d 5e 9c d7 3d 94 a1 c7 3d
       -0.15888843 0.11296265 0.105278715 0.097476155
0000e0 9e d0 a4 3d 32 6f 1b 3e cd a2 fe 3d 28 11 0b 3e
       0.08047603 0.15179136 0.124333955 0.13580763
0000f0 23 07 a1 bc e1 18 22 be c5 73 48 be 49 a0 2c be
       -0.019656723 -0.15829803 -0.19575413 -0.16858019
000100 0f 5a e6 3d 9a cd 05 3e 21 00 24 bd fa 2c 75 3d
       0.11247646 0.13066712 -0.040039185 0.059857346
000110 3a bb 94 bd a4 2b 79 3c cd 38 d4 3d 66 a6 7a bd
       -0.07262273 0.015208159 0.103623964 -0.061193846
000120 f4 73 98 3c d3 d4 cc 3d 8b 54 f6 bd 2f a6 37 3d
       0.018609978 0.100015305 -0.12027844 0.04483622
000130 56 79 0d be e8 4d 86 bd c0 39 77 bd ae aa 52 be
       -0.13815817 -0.06557828 -0.06035781 -0.20572922
000140 5a 13 fa bd 21 74 08 be 11 e5 0e 3e 5f c1 18 bd
       -0.12210722 -0.1332555 0.1395457 -0.037293788
000150 cb 0d a8 ba 54 c7 e6 3d 46 12 bd 3d 31 35 0e be
       -0.0012821493 0.112684876 0.09232001 -0.13887478
000160 95 67 22 3e 3d ab fa bd 76 70 04 3e d9 a5 22 be
       0.15859826 -0.12239692 0.12933525 -0.15883578
000170 33 0e 08 be 8f ad 07 3e 24 8e 95 3c 65 6e be bd
       -0.13286667 0.13249801 0.018256254 -0.092984
000180 b9 e3 ce 3d 0d c1 7c bd d4 61 8d 3c f8 0c 44 bd
       0.101020284 -0.061707545 0.017258562 -0.04786393
000190 96 e5 a6 3a 87 47 8c 3d a1 ea 42 bc 4b 26 29 be
       0.0012733217 0.0684958 -0.01189676 -0.16518514
0001a0 62 8b cb bd 41 0f a6 3d e2 20 ac bd 2e bb 9b 3d
       -0.099386945 0.08108378 -0.084047094 0.07604061
0001b0 05 36 18 3d f3 7c 34 be 56 27 f4 3d cd 3c f8 3c
       0.037160892 -0.1762579 0.11921565 0.03030243
0001c0 9a 1c 01 3e 4a 5f 80 3d 5d ec 48 3d 98 67 e2 bb
       0.12608567 0.06268175 0.04905354 -0.006909322
0001d0 02 23 d6 3d c6 d1 05 bc 20 3e c0 bd c4 07 02 3c
       0.10455896 -0.00816769 -0.093868494 0.007936422
0001e0 1e 96 c5 bd 7e 4d de 3d 29 5c e7 3d 4a 07 00 ba
       -0.09647773 0.10854624 0.11296875 -0.00048838987
0001f0 83 6b e3 3d b8 ea b2 3d d5 c5 0e be 82 f7 9a bd
       0.111044906 0.08736175 -0.13942654 -0.075667396

bias_hh_l0 f4 [128]
000000 9c c7 0a be fb 98 cd bc e6 60 21 be 1f 78 81 3d
       -0.13552707 -0.02509736 -0.1575962 0.063217394
000010 dd 02 74 bc 96 e0 d2 bd 1f e8 16 be e9 37 e0 bb
       -0.014893261 -0.102967426 -0.14736985 -0.0068426025
000020 4a d7 dc 3d 69 b9 45 3e ed e3 ce bd 8b 4f 94 3c
       0.10783251 0.1930901 -0.10102067 0.018104335
000030 9c 56 2f be 77 d0 0e 3e e0 6e fc 3d 67 5b 24 3c
       -0.17122883 0.1394671 0.12325835 0.010031558
000040 2b 0e ae bd d3 32 11 3e b4 f3 10 be 1f e0 9d 3d
       -0.08498796 0.14179544 -0.14155465 0.07708763
000050 02 78 26 3e 02 2d 40 3e 09 f4 7f bc 3b 9a 92 3c
       0.16256717 0.18767169 -0.015622147 0.017895808
000060 b4 fd a5 3c 2d 16 65 3d 0e aa 02 3d b7 12 ce bc
       0.020262577 0.05592935 0.031900458 -0.025155408
000070 29 6c d2 bd 98 05 fc bd c3 d4 00 be 03 3f 32 bc
       -0.10274536 -0.123057544 -0.12581162 -0.010879281
000080 b5 ff bb 3d a0 5e cc bc 09 92 a9 3d 35 c0 89 bd
       0.091796316 -0.024947464 0.08279807 -0.06726114
000090 dd e4 1b 3e a1 fb a4 3d 11 bf 0b bb d4 47 32 be
       0.15224023 0.08055807 -0.0021323601 -0.17410213
0000a0 3e 50 6e bd ae 8e 41 3d 78 99 31 bd a3 50 ac bc
       -0.058181994 0.04725521 -0.04335925 -0.021034544
0000b0 cd 09 42 bd f3 73 f9 bb 36 37 9e 3d 03 2f 93 bd
       -0.047372628 -0.007612699 0.077253744 -0.07186701
0000c0 11 eb aa bc 5a 1d 46 3d 79 ce 5c bd df a0 d7 bd
       -0.020864042 0.048367836 -0.053907845 -0.105287306
0000d0 c8 73 75 bc 51 1e 4c bd 8a 3a f1 bd 02 50 8e 3d
       -0.014981218 -0.0498336 -0.117787436 0.06948854
0000e0 06 1f fc bd ec 99 20 be d8 4d 04 be da d5 99 3d
       -0.12310605 -0.15683717 -0.1292032 0.07511492
0000f0 8a 1b 44 bd d9 dd 9a 3d 08 65 82 bd 97 ff 07 3e
       -0.047877826 0.07561845 -0.063669264 0.13281094
000100 a1 e1 2e be a3 6b 0d be 2b 29 05 3e 69 7d 8a 3b
       -0.17078258 -0.13810591 0.13003986 0.004226376
000110 81 74 3c 3e 12 ae 42 3d 78 ff a8 bd c3 57 6a bc
       0.18403818 0.047529288 -0.08251852 -0.014303151
000120 73 b4 23 3e f8 9d d1 3b 0e 8c f7 3b ba 7b 7e 3d
       0.15986805 0.006397005 0.0075545376 0.062129714
000130 43 4e 2e 3d 19 0a 63 3a 5c 60 0d be 8e 97 73 bd
       0.042555105 0.00086608675 -0.1380629 -0.059470706
000140 5a ed ee bc 23 82 df 3d e5 1a 85 3d 03 cf 27 be
       -0.029165912 0.109134935 0.0649927 -0.16387562
000150 27 0e 22 be 24 f1 55 3d cd e7 1a be ac a5 df 3d
       -0.15825711 0.052231923 -0.15127487 0.10920271
000160 e3 a1 a3 bd 94 44 89 bc 40 7a 07 3e e5 2d 34 bd
       -0.07989862 -0.016756333 0.13230228 -0.04398908
000170 d8 a6 f8 bd 61 a7 15 be 34 34 ce bb 37 6b 34 3c
       -0.12141198 -0.14614631 -0.006292844 0.01101189
000180 68 b1 65 bc ca b8 94 3d 83 2c 0e be 7f c1 37 3e
       -0.014019348 0.07261808 -0.13884167 0.17944907
000190 c8 91 cc 3d 9e 50 e6 bc c8 29 3f 3e ee e5 14 3e
       0.09988743 -0.028114613 0.18668282 0.14540836
0001a0 d0 11 1d be 68 d5 d3 3d 82 fe 20 3e 62 9a 1c 3e
       -0.15338826 0.103434384 0.15722087 0.15293267
0001b0 40 06 4a 3d 94 a4 8a 3c bb 07 20 3d 44 54 1c 3d
       0.049322367 0.01692418 0.039069872 0.0381663
0001c0 4a 0c 14 3e e2 c6 97 bd 5a d9 1d 3e 46 87 05 be
       0.14457813 -0.07410981 0.15414944 -0.13039884
0001d0 92 75 8a 3d 32 51 3b 3e 2f 30 6d 3d fc e5 0f 3e
       0.06760706 0.18292692 0.05790728 0.14052576
0001e0 5d 16 bb 3d 40 6e ac 3d 2f d7 28 3e 0f 46 bb 3b
       0.09135125 0.08419466 0.16488336 0.0057151387
0001f0 f8 df 95 bc 2c 91 a7 3d 4a 36 e6 bd 90 12 00 3e
       -0.018295273 0.08181986 -0.112408236 0.12507081

weight_ih_l0 f4 [128, 2]
000000 be 12 86 bb d7 78 39 3e f5 08 d0 bd ad 22 e9 bc
       -0.0040915897 0.18112503 -0.101579584 -0.028458918
000010 b3 10 55 3e fa 14 4c be 57 a6 3a 3d 34 47 68 bd
       0.20807151 -0.19929877 0.04556879 -0.05670853
000020 27 a1 ee bc 80 46 78 be 80 5b 63 bd 7b 97 c9 3d
       -0.029129578 -0.24245644 -0.055507183 0.09843346
000030 e5 9f ad bd 79 f2 79 3c ef 5e b6 3c 6c fe 3e be
       -0.08477763 0.015255564 0.022262065 -0.18651742
000040 a4 a0 60 3d 4c 56 8e be 88 20 1d 3c c6 e7 4f 3e
       0.0548407 -0.27800214 0.009590276 0.20303258
000050 db 9e d4 3d d4 e3 ff 3d 11 a2 fb 3d 11 a3 ea bd
       0.10381862 0.12494627 0.12286771 -0.11456884
000060 1d cc 5d 3d 91 c0 1b 3e b0 3a 13 3d 72 25 33 be
       0.054149736 0.15210177 0.03594464 -0.17494753
000070 96 5b 9d bd 3f ed ce bc 22 18 71 bd 7d cc 89 3e
       -0.07683484 -0.025259612 -0.058860905 0.26913825
000080 df a1 75 bd 75 92 86 3c 97 d8 0f 3e 76 a8 7e 3c
       -0.059968825 0.016427258 0.14047466 0.015543094
000090 23 2e fb bd 64 7f f1 bc a4 f0 72 3e c5 46 8b 3e
       -0.12264659 -0.02947969 0.2372461 0.2720243
0000a0 90 8c 0d 3d c5 5c b6 be fe bb 44 bd 86 56 5d bd
       0.03455788 -0.35617653 -0.048030846 -0.054037593
0000b0 3e 62 37 be e6 7e 9d 3c 6f 3b 20 be ee ff 8c 3b
       -0.1790857 0.019225549 -0.15647672 0.00430297
0000c0 4a a0 3a ba e2 62 a6 bd f4 3e db bd 5b 4e 8d be
       -0.0007119222 -0.08124329 -0.10705367 -0.27598843
0000d0 a8 e8 3f 3e b5 6f 75 3d b3 9b 71 be 7b fc 1b 3d
       0.18741095 0.059920985 -0.23594551 0.03808258
0000e0 e1 e7 ae be 59 ba 22 be a6 1e b0 bc 2c be 7e bd
       -0.34161285 -0.15891398 -0.02149899 -0.06219308
0000f0 53 f0 8c 3e 61 e3 4b be d9 a0 62 be a5 9c 3d be
       0.27527103 -0.19910957 -0.22131671 -0.18516786
000100 d4 33 2e be 68 18 ed bd 6c 0a 3d 3e 4f c4 94 3b
       -0.17011958 -0.11576921 0.18461007 0.0045400034
000110 26 c0 5b 3e de 6b 30 3d e9 ff b5 3c 57 3d a2 bd
       0.21460018 0.04307162 0.022216754 -0.07921856
000120 7d cc 84 3e 74 6a 88 be 9a c8 c0 bb b9 fa 97 bd
       0.25937262 -0.26643717 -0.0058832886 -0.074208684
000130 b5 99 92 be e6 38 80 3d c4 53 f0 3d 06 20 2c bb
       -0.28632894 0.062608525 0.11734727 -0.0026264205
000140 fa 33 0b 3d 60 4b 24 be 53 3d 82 3e 40 9c 82 3e
       0.033985116 -0.16044378 0.25437412 0.25509834
000150 b7 bc 34 3e b6 dd 3c bd a7 2c 59 be b8 82 32 be
       0.17650114 -0.046109878 -0.2120844 -0.17432678
000160 ed e2 0b 3e 15 17 9d 3e 39 e1 0e 3e 7c 52 8b be
       0.13660784 0.30681673 0.13953103 -0.27211368
000170 34 22 92 3e 63 53 38 3e 5e de 1d 3e 15 1e 47 3e
       0.2854172 0.1800056 0.15416858 0.19445069
000180 b9 3d 28 be ae 12 23 be b9 12 5b bc 90 22 40 be
       -0.16429795 -0.15925094 -0.013371163 -0.18763185
000190 65 28 a4 bd 17 e2 84 3d e8 c7 a2 be 44 e8 fe bd
       -0.08015517 0.06488436 -0.3179314 -0.12446645
0001a0 c9 14 de 3e 9a cf a5 3b be 7a 79 3e 50 b6 9b bd
       0.43375233 0.0050601484 0.24363229 -0.07603133
0001b0 45 a4 9a bd 07 71 4d bd fa ac 5e bd 30 2c 56 be
       -0.07550863 -0.05015662 -0.054364182 -0.20915294
0001c0 dc 4f 89 be 36 1d 68 bd 9c 53 2e 3e 5f c9 0f be
       -0.2681874 -0.056668483 0.17024082 -0.1404166
0001d0 0c 1f 21 3d d9 12 f2 bd a4 f6 a0 be 61 69 c1 bd
       0.03933625 -0.11820001 -0.31438172 -0.094439276
0001e0 20 e5 a0 3d ea 48 95 be 69 60 1f bd b7 03 e8 3a
       0.07856202 -0.29157192 -0.038910303 0.0017701302
0001f0 be fa 0b 3d bb c4 a4 be a7 a6 7b be a1 83 8b be
       0.034174673 -0.32181343 -0.24575292 -0.27248862
000200 17 9a 0f 3e 3f 86 2c 3e 81 e0 08 be da db 94 be
       0.14023624 0.16848086 -0.13366891 -0.29073983
000210 63 77 9d be a9 bd ae 3d f6 d1 a3 be e3 e0 f8 bc
       -0.30755147 0.085322686 -0.31996125 -0.030380672
000220 e1 2d 4b bd 03 fb 30 be 21 52 41 3e e0 e3 a4 be
       -0.0496043 -0.17283253 0.18878986 -0.32205105
000230 63 59 d6 bd 32 ad f7 3c f3 d6 25 3e 14 09 35 be
       -0.10466268 0.030233953 0.16195278 -0.17679244
000240 c0 92 60 3e 00 cf d1 3d f9 9b 12 bd 64 dc b1 3e
       0.2193098 0.1024456 -0.03579328 0.34738457
000250 cc 49 8f 3e 76 fe 4f 3e d5 a6 f0 bd 65 b4 00 be
       0.2798599 0.20311913 -0.11750571 -0.12568815
000260 96 b2 79 be 41 9b 1c be be 84 7f 3e da f6 82 3e
       -0.24384531 -0.152936 0.24952981 0.25578958
000270 75 7c 68 be 51 db a6 be 60 20 aa be 07 39 69 3e
       -0.22703727 -0.325892 -0.33227825 0.2277566
000280 5f 02 1f be a6 50 32 3e 6a 2f 40 be f6 53 6f 3e
       -0.15528248 0.17413577 -0.18768087 0.23371872
000290 8f 16 90 bd d4 94 8e 3e 57 c3 20 3e 8b 1b 2b 3e
       -0.07035553 0.27847922 0.15699516 0.16709726
0002a0 15 ea 16 be 46 18 82 bd 04 4d 47 be 1e cc 58 3e
       -0.14737733 -0.06352286 -0.19462973 0.21171615
0002b0 c2 76 0d 3e 4d 43 04 be f8 79 18 3e 5d 1f c4 3c
       0.13814834 -0.12916298 0.14890277 0.023940736
0002c0 94 69 27 3e 86 65 66 3e 33 02 cf 3e 10 3a bd 3d
       0.16348869 0.22499666 0.40431365 0.0923959
0002d0 58 08 0f bd af 39 80 3e 7c 06 44 3e ef a8 76 be
       -0.034920067 0.2504401 0.19143099 -0.2408788
0002e0 60 db 5c 3e 26 eb 9d 3d 9f 92 4b 3e 2a ad 92 3e
       0.2156806 0.07710867 0.1988015 0.2864774
0002f0 21 df 61 bc 28 06 02 be 46 af 96 be 7a 43 bf 3d
       -0.013786108 -0.12697661 -0.29430598 0.09339042
000300 ff 90 92 be 91 22 5f bd 94 77 19 3e e3 cf 87 3d
       -0.28626248 -0.054476324 0.14987022 0.06631448
000310 30 60 67 3e e7 92 35 be 4c c2 18 3e 4b a3 0b be
       0.22595286 -0.1773182 0.14917868 -0.1363651
000320 8b c0 f4 3c 97 df ab be 61 ef c8 bc 57 f8 88 bd
       0.029876968 -0.33569023 -0.024528207 -0.06687992
000330 07 dd 52 be ee bd 69 be 33 8e 10 be af ea 54 be
       -0.20592128 -0.22826359 -0.14116745 -0.2079265
000340 6e 2b 02 3d 15 d2 ae bb 2b c2 53 bd e7 24 3c bd
       0.0317797 -0.0053351023 -0.051698845 -0.04593363
000350 65 e7 88 3e f8 a0 f7 3c 47 3b c3 3d 6e d2 9b be
       0.2673904 0.030228123 0.09532791 -0.30433983
000360 81 49 c9 3e cd 4c 3e 3e 76 ad e2 3d db 06 33 be
       0.39313892 0.18583985 0.11068241 -0.17483084
000370 c3 25 37 3e 24 d1 fe 3d 61 7d 71 be f7 55 b6 3e
       0.17885499 0.12442234 -0.23582985 0.3561246
000380 e7 f9 a3 bd ee 20 d0 bd be 92 81 bc d0 0f 84 be
       -0.080066495 -0.10162531 -0.015817042 -0.25793314
000390 8f 67 1e be 88 25 78 be b2 c1 c4 3d b6 03 96 3d
       -0.15469192 -0.24233067 0.09607257 0.073249266
0003a0 7f 31 32 3e 52 7d de bd 9c 75 89 3c c4 2e 78 bd
       0.17401694 -0.10863747 0.016779713 -0.060591474
0003b0 c6 26 f9 3d 26 0f 89 bd 7e 54 54 be 20 f3 2b be
       0.121655986 -0.066923425 -0.20735356 -0.16791964
0003c0 d6 3c 1a 3d 07 af 87 3c 8b f0 79 3d e5 aa bb be
       0.037655674 0.016562952 0.061020415 -0.3665382
0003d0 42 8a 82 3e 11 f9 81 be 2d 43 8c be 66 01 1e 3e
       0.25496107 -0.25385335 -0.27395 0.15430221
0003e0 c8 48 7e be 8a 64 76 be d6 d0 f6 bd 2e e4 4a be
       -0.24832451 -0.2406179 -0.12051551 -0.19813606
0003f0 f0 7c bc 3d be 46 0e be 6c bb 9b bd 51 b1 60 be
       0.092035174 -0.13894174 -0.07604107 -0.21942641

weight_hh_l0 f4 [128, 32]
000000 ec bc f7 bd ae 47 70 3d 8d d0 4b be 90 7c 4c 3d
       -0.12096581 0.05866211 -0.19903775 0.04992348
000010 6e f4 d9 3c e9 85 25 3e 81 32 d4 bd 27 72 6e bd
       0.026605811 0.16164364 -0.10361195 -0.058214333
000020 40 5b 01 be 0e f1 41 bb 10 12 54 3e 4f f8 ac 3d
       -0.12632465 -0.0029593143 0.20710015 0.084457986
000030 d0 4d f1 3d 3a ff f1 3d a9 d9 55 bd b4 d5 30 3d
       0.1178242 0.11816259 -0.05220953 0.043172553
000040 db 2a 9e 3d 19 73 ee bd 9e 28 e4 bb 6c ba af 3d
       0.07723018 -0.11643047 -0.0069628498 0.08580479
000050 b5 d0 93 3d 92 91 1c be 29 0e 3b be a5 43 a8 3d
       0.07217542 -0.15289906 -0.1826712 0.08216027
000060 2b 1a 44 be a6 95 70 3e 6d 6f 4e be 51 fa 48 3e
       -0.19150607 0.23494586 -0.20159693 0.19626738
000070 17 bd 33 3d 93 48 68 be 86 85 c5 bc 55 97 a3 3d
       0.043881502 -0.22683935 -0.02411152 0.07987849
000080 3a e7 ca bd 4b 57 41 bc b8 7b 17 3e ac 81 f3 bd
       -0.09907384 -0.011800597 0.14793289 -0.11889967
000090 fd 3c 9e 3d 6d f8 36 3e ec 12 08 be 5c 66 35 bd
       0.07726476 0.17868204 -0.13288468 -0.04428707
0000a0 7e de cd bd c8 41 ba 3d 61 00 69 bd 25 40 20 be
       -0.10052203 0.09094578 -0.056885127 -0.15649469
0000b0 f1 f6 2e 3e 24 6b e2 3c 48 11 35 3d c9 92 ce 3c
       0.17086388 0.02763898 0.044205934 0.025216477
0000c0 31 01 e7 3c 4e f3 cd bc 1b 3b 4b 3b e7 59 bf 3d
       0.02819881 -0.02514043 0.0031010571 0.093433194
0000d0 a7 07 79 3e 31 f7 86 be d6 5c 81 3d 15 55 73 3e
       0.24319325 -0.26360467 0.06316535 0.23762925
0000e0 ba 3d 3b 3d 22 d0 13 bd 4c 6f 88 3c ff 1c e9 bd
       0.045713164 -0.036087163 0.016654633 -0.11382484
0000f0 2c 93 0f 3c 51 cd 9f 3d 63 df 4e 3d 85 21 ce bd
       0.008763116 0.07802833 0.050506007 -0.10064987
000100 f1 11 00 be ed 73 b8 3d fb 90 21 3c 16 46 ec bd
       -0.12506844 0.09006486 0.009861226 -0.11536805
000110 d8 01 b2 bd 25 16 10 3d 63 2a 0a be c9 5a 13 3c
       -0.08691758 0.03517737 -0.13492732 0.008993813
000120 73 1d 15 be ab 1f 43 be c1 5c 44 bd d6 df e7 bd
       -0.14562015 -0.19055049 -0.04794002 -0.1132199
000130 78 0b 83 3c 26 e0 75 3e e3 af 95 3d 67 75 62 be
       0.01599668 0.24011287 0.07308938 -0.22115098
000140 29 3c 05 3a df 03 18 bc 47 ff 68 be a3 19 58 be
       0.0005082512 -0.009278267 -0.2275363 -0.2110353
000150 2c 5d 2b bd 85 a7 03 be 8a 4c 2e be 62 6f 6e 3e
       -0.041836902 -0.12856872 -0.17021385 0.23284677
000160 8b 65 0b be 0c 29 6d 3c 45 a2 d7 bd bf 8d 61 bd
       -0.13612954 0.014475118 -0.10528997 -0.05506682
000170 9b fd 73 bd 8b 8b 9a 3d 57 e8 f4 3d 24 45 67 be
       -0.05956803 0.07546147 0.11958378 -0.22584969
000180 97 1d e9 3d 84 36 06 3d 4f 35 22 3c d4 63 c5 bd
       0.11382597 0.032766834 0.009900405 -0.09638181
000190 24 3f 30 3d 78 2e 3e 3e 66 3a ea 3d 94 a8 11 3e
       0.043028966 0.18572414 0.1143692 0.14224464
0001a0 b3 f7 0f 3e ae c1 18 3e 50 03 90 3d 8a b7 1a bd
       0.14059334 0.14917633 0.07031882 -0.037772693
0001b0 0d f9 bc bc 78 2a 83 bc 9b 1c 24 bd ed 3a 9f be
       -0.023067975 -0.016011462 -0.040066343 -0.31099644
0001c0 6f 6d 6f be 48 3b 0e be 61 fe 0b be 4c 3a 44 be
       -0.2338159 -0.13889802 -0.13671257 -0.19162863
0001d0 e3 ac 62 39 ad 32 30 3d 30 74 82 bd cb 25 1c 3c
       0.00021617445 0.04301708 -0.06369817 0.009530495
0001e0 0b cb 1f bd 36 73 57 3e 59 45 df bd a2 30 1b bd
       -0.039011996 0.21040043 -0.10901899 -0.037888177
0001f0 d1 29 08 3e 87 1b 28 bd f6 48 63 3e be 40 7e be
       0.13297202 -0.041041877 0.22195801 -0.24829385
000200 eb 6e 5c bd 79 b0 22 3e 76 95 2d bd 4a 5a 7a 3d
       -0.053816717 0.15887631 -0.042378865 0.061121263
000210 ae a1 ff 3d 8b ab 89 3e 5e d0 eb 3d d3 0b 71 bd
       0.1248201 0.2688869 0.11514352 -0.058849167
000220 36 b2 17 3c 84 5e bc 3d 22 68 c6 bd a6 0e c4 bc
       0.009258797 0.09197715 -0.096878305 -0.023932766
000230 3b ba 4e 3d 6f f2 ea 3d eb 29 11 3e 67 80 ec bd
       0.050470572 0.11472022 0.14176147 -0.11547928
000240 7e 97 59 be fc dc f9 bb 72 85 13 bd 5b 94 75 bd
       -0.21249196 -0.0076252203 -0.036015935 -0.059955936
000250 2d 73 26 3e f9 1a b8 3d ff df b5 3d b8 eb b2 bd
       0.16254874 0.089895196 0.088806145 -0.08736366
000260 2a 6b 42 be 73 d7 04 3d d3 f2 3f be 77 8f 89 3d
       -0.18986192 0.03243203 -0.18744974 0.06716817
000270 e7 cc f4 3b 67 81 fd 3d 60 3c 07 3e a1 41 91 bd
       0.0074707153 0.12378197 0.13206625 -0.07092596
000280 29 1d 79 bd 38 96 37 bd cc ca 1c be 8e 8e 3d be
       -0.060818825 -0.044820994 -0.15311736 -0.18511412
000290 89 02 a8 bc ae ba 81 3e 5d 5d 26 be 1b fb 5b 3e
       -0.020509021 0.25337738 -0.16246553 0.21482508
0002a0 11 e2 ad 3c 74 82 4b be d4 36 f9 bc 3f 53 d3 3d
       0.02122596 -0.19873983 -0.030421652 0.10318612
0002b0 db 4d 6f 3d 34 df 3a bd ff 99 b7 3d cb e8 4a be
       0.058423858 -0.04562302 0.08964919 -0.19815366
0002c0 cc 59 1a be 5f 68 b8 3d 17 0e 01 be fb c0 c8 3d
       -0.15073317 0.09004282 -0.12603031 0.09802433
0002d0 69 6a ba bd 62 36 d1 bd bb c9 6b be 3d 5a 09 3e
       -0.091023274 -0.10215451 -0.23026173 0.1341333
0002e0 c7 a0 e2 3d c6 e9 4d 3e f9 9e 06 3e 66 0b aa bd
       0.11065822 0.20108709 0.13146581 -0.08302955
0002f0 e7 b6 92 3d 3d b6 41 be 77 bb 7c 3e 44 0d 06 be
       0.07163792 -0.18917175 0.24680887 -0.13090998
000300 3f c5 ec 3d 3a b8 7d 3d db d9 0b bd 7e ff 92 bd
       0.11561059 0.06194327 -0.03414331 -0.071776375
000310 ce 01 66 3e 6a 37 b1 bd 2f bd 7f be 37 f7 15 3e
       0.22461626 -0.086531475 -0.24974512 0.14645086
000320 67 e2 3d be 02 89 0d 3d 7d f0 5e 3d bd c6 91 3d
       -0.18543397 0.03455449 0.054428566 0.071179844
000330 2c 30 9f 3d 8e 07 5f 3e c7 e8 be bd 60 2c a3 be
       0.0777286 0.21780226 -0.093217425 -0.31869793
000340 c0 bc d0 bd e3 96 a3 bd fc 32 c3 3d e7 1a fc bd
       -0.10192251 -0.07987764 0.09531209 -0.12309819
000350 34 29 57 3e c6 57 a4 3d 96 5a 3d be 23 b5 59 3e
       0.21011811 0.08024554 -0.18491587 0.21260504
000360 55 7f 1a be a9 c0 0a 3e 7f 79 2a be f3 58 c0 3d
       -0.15087636 0.13550057 -0.1664791 0.09391966
000370 18 57 58 3d a7 ee 0f be 6a 03 94 bd a3 cf d0 bd
       0.052817434 -0.14055882 -0.07227214 -0.101958536
000380 aa 0a 3f 3d eb 24 62 3e 1f 59 01 bd 4c 12 04 3d
       0.04664103 0.22084396 -0.031579133 0.03224401
000390 51 62 0c 3e ce 8a 69 bd fb 39 10 3d 92 de ed 3d
       0.1370938 -0.05701714 0.035211544 0.116147175
0003a0 26 df a8 bd 31 88 79 be 0b 74 ec bd 5a 83 64 3e
       -0.08245687 -0.24368359 -0.11545571 0.22315732
0003b0 d3 6b 38 3e e4 c5 c2 bd fe 0f 1d 3e bf 79 3d be
       0.18009882 -0.09510401 0.15338132 -0.18503474
0003c0 31 eb 37 3d db 06 dd bd 73 7e 84 be ef e2 32 3d
       0.04490203 -0.10792323 -0.25877723 0.043673452
0003d0 58 67 b6 3c 21 d2 92 bd 0b 15 2b be 6e 1e ae bd
       0.022266075 -0.07168985 -0.16707246 -0.08501898
0003e0 0b 00 a1 bb 6f 93 b6 bd 25 40 b7 b8 14 61 28 3e
       -0.004913335 -0.089148395 -8.738068e-05 0.16443282
0003f0 1f 19 82 bd b0 8a 67 3d 54 ff 0a 3e c8 03 bc bc
       -0.06352448 0.056528747 0.13573962 -0.022951022

bias_ih_l0 f4 [128]
000000 5b e6 89 bc 1d 3f 5c bd 70 99 f7 3d cf 5d 03 3e
       -0.016833475 -0.053771127 0.12089813 0.12828754
000010 b0 0a c8 3a 02 26 04 3e f9 ed 4d 3e 3a f3 86 bd
       0.0015261974 0.12905124 0.2011031 -0.065893605
000020 d9 57 36 3d 9b d5 0e 3e f6 e4 ce bd fa 3d 1a be
       0.04451737 0.13948672 -0.101022646 -0.15062705
000030 57 fd d4 3d a3 46 a4 3e be fc 01 be 3d a9 bc 3e
       0.10399883 0.32085142 -0.1269407 0.3684787
000040 bc dc 6e 3d b0 a8 09 3e 04 de 6c 3e 1b 16 1e 3d
       0.058315977 0.13443255 0.23131567 0.0385953
000050 4a b5 58 3e 64 eb b9 bc 7c 18 d9 bd 25 f8 a9 bc
       0.21162906 -0.02269525 -0.10600373 -0.020748207
000060 72 58 94 bc bd 83 b7 3c 31 29 96 3d 49 b2 88 3d
       -0.01810858 0.022401685 0.073320754 0.0667463
000070 8e 47 10 3e f2 da 1f 3e 67 d0 48 3e 25 80 1f 3d
       0.14089796 0.15610865 0.19610749 0.038940568
000080 dc 9d 63 3e 58 c2 71 bd c4 40 82 bd b1 86 a6 bd
       0.22228187 -0.05902323 -0.06360009 -0.08131159
000090 bc 3a 2a bd ca dc c4 3d 54 08 57 3c 02 29 57 3e
       -0.04155992 0.09612425 0.013124544 0.21011737
0000a0 d3 2c 49 3e 07 a1 a3 3e 33 b4 03 3e d2 ee 2a 3e
       0.19646005 0.31958792 0.1286171 0.16692665
0000b0 90 b1 9a bc ce 11 bd 3e 4c 66 6c 3d 80 d4 88 3e
       -0.018883497 0.36927646 0.057714745 0.26724625
0000c0 ac 09 b3 bd b7 36 5f 3e 56 3c 44 3e 0b 1a 7e 3e
       -0.08742079 0.21798216 0.19163641 0.24814622
0000d0 da f0 19 3e a7 17 f1 3d 71 25 77 bd 38 77 7e 3d
       0.15033284 0.117720895 -0.06033844 0.062125415
0000e0 a0 88 05 3c dd ab 1b 3e 97 32 96 3d f0 36 8a 3e
       0.00815025 0.1520228 0.07333868 0.2699504
0000f0 dc 12 d1 bd 42 e6 a7 3d ba 91 9e 3c 59 41 d1 3c
       -0.10208675 0.08198215 0.019356597 0.025543856
000100 d7 8b e0 bd 60 a2 58 3d 16 dd 85 3d 0e 63 52 be
       -0.10964172 0.052889228 0.065363094 -0.20545599
000110 11 fd d9 3c 28 cb d8 3d 43 75 0e 3e 47 90 08 3e
       0.02660993 0.10585624 0.1391192 0.13336287
000120 e1 f0 dc 3d 1f 83 ab bd 4b 74 21 3e f6 19 1e 3d
       0.107881315 -0.08374619 0.15767018 0.038598977
000130 b6 7f 3c 3d 2d ca f9 3c dc 50 f1 3d 98 d9 9d bd
       0.046020232 0.030491913 0.11783001 -0.07707518
000140 d7 97 21 be 29 55 e0 bd 44 bb 1b 3e 75 df b1 bd
       -0.15780579 -0.10953743 0.15208155 -0.08685199
000150 4f 5a 58 3d 43 68 34 be 67 27 bb bd be 4e 37 3e
       0.0528205 -0.17617898 -0.09138375 0.17901132
000160 62 2b db bd 68 5e 47 bd 67 2d f1 3d 81 ff 69 bb
       -0.10701634 -0.048674017 0.11776238 -0.003570527
000170 1d 01 91 3c af b5 ae bd 51 b9 04 bd 15 20 81 3d
       0.017700726 -0.08530747 -0.032403294 0.06304947
000180 2f 5d 4f bd ac 13 62 3e 49 bc 50 3e 94 83 1f 3e
       -0.050625976 0.22077817 0.20384325 0.15577537
000190 b9 4f bc 3d 91 d6 2f 3e 77 85 4e 3e 57 45 25 3d
       0.091948934 0.17171694 0.201681 0.04034933
0001a0 3f 0c b2 3c e9 8c 63 3e 4d 60 c9 3d 1e c1 0f be
       0.021734355 0.22221722 0.09832821 -0.14038512
0001b0 37 5d 0f bd 67 6c e5 3e f3 6d 85 3d c7 9b 82 3e
       -0.035001006 0.44809267 0.06515112 0.25509474
0001c0 2b f5 a5 3d 57 10 e3 bd 24 6f 08 3e 5e 65 14 3e
       0.08103403 -0.11087101 0.13323647 0.14491794
0001d0 f6 01 72 bc a2 da 11 3e b8 0d 80 bb 13 df 8c bd
       -0.014770975 0.14243558 -0.0039078854 -0.068784855
0001e0 37 8d 52 3e 8a 43 d9 3d 6c ea 60 3e 49 f8 6d bd
       0.20561682 0.10608585 0.21964425 -0.05809811
0001f0 80 43 e2 bd 76 2c 4c 3c 12 d4 13 3e f1 3f 0a 3c
       -0.11048031 0.012461772 0.14436367 0.008438096

bias_hh_l0 f4 [128]
000000 8d 4c 59 3e 7a a7 52 3e 67 3f 51 3d c1 79 26 bd
       0.21220608 0.205717 0.051085856 -0.040643457
000010 4b b5 c3 3d f0 ee 5d 3e 54 6e 3a bd 2b 6e 1c 3d
       0.09556063 0.21673179 -0.045515373 0.038191
000020 8f 4d fc 3d 55 b2 58 3e 01 10 d5 3d a4 16 6e 3d
       0.12319481 0.21161778 0.10403443 0.05812706
000030 42 19 d6 3d b4 07 a9 3e 79 99 d1 3d b8 cf d6 3e
       0.10454036 0.3301369 0.10234351 0.41955352
000040 15 31 ee 3b 95 8c 62 3d 90 75 10 3e 4f 9c d0 bb
       0.0072690346 0.05530985 0.14107347 -0.0063662897
000050 f8 e4 5d 3e 59 a4 b1 3d c9 e6 40 3e 11 f9 c0 bd
       0.21669376 0.08673925 0.18838038 -0.09422506
000060 d3 1b 00 be eb db 78 bd 28 db 19 3d 64 14 f1 bc
       -0.12510614 -0.060756605 0.03756252 -0.029428668
000070 00 be 2a 3e 27 a5 38 3e 73 7a 62 3d 44 15 8b 3d
       0.16674042 0.1803175 0.055292558 0.067911655
000080 22 60 b4 3d e4 e0 25 3e fe 16 77 3d f2 33 bd 3c
       0.088073984 0.1619907 0.06032466 0.023096059
000090 c3 29 ff bc f6 e0 90 bd 57 3e e1 bd ef 89 a3 bd
       -0.031147843 -0.07074158 -0.109982185 -0.07985293
0000a0 f6 7e 85 bd 2d 46 10 3e 41 ae 41 3d 51 8f 7a 3d
       -0.065183565 0.1408927 0.047285322 0.061171833
0000b0 4b ad 00 3e dd c5 c3 3e 8c 32 ca bd d5 f5 45 3e
       0.12566106 0.38236895 -0.09872922 0.19332059
0000c0 ff 77 a3 bc 3f 80 2c bd 5b 02 3f 3d 09 b4 79 3d
       -0.01995468 -0.042114493 0.046633106 0.06096271
0000d0 45 2a 12 3e 10 4a 27 3d 84 0d ad 3d b5 ff ae bd
       0.14273937 0.040842116 0.084498435 -0.08544866
0000e0 1d 78 05 3d 3d a7 49 3e 28 8a 82 bc b5 df 50 3d
       0.032585252 0.19692703 -0.015935019 0.050994594
0000f0 67 59 c5 3d f2 df e1 bd 43 2b cd bd 2c 5b 4f 3e
       0.09636193 -0.11029042 -0.10018017 0.20249623
000100 e7 a2 8e 3d fa 0f 91 3d a5 9e fc bd 88 69 30 be
       0.06964665 0.070831254 -0.123349465 -0.17227757
000110 6e 04 cd 3d 3b 64 c3 bd a5 48 85 bd b1 e0 07 3e
       0.100106105 -0.09540602 -0.065079965 0.13269307
000120 6a 84 1c be 42 3f 0e 3e c7 25 a9 3d 1c 6e 15 3e
       -0.15284887 0.13891318 0.082591586 0.14592785
000130 97 58 ea 3b 9e b5 d3 3d 1e 6b c2 3d e3 46 f3 3c
       0.007151674 0.10337375 0.09493087 0.029696887
000140 2d 1e 8d bd af 78 7c 3d bc 44 06 be b4 71 37 3c
       -0.06890521 0.06163853 -0.13112158 0.0111965425
000150 d2 5c cc 3d e0 b7 09 be a9 a9 24 3d a4 df ea 3d
       0.099786416 -0.13449049 0.040200863 0.11468437
000160 f0 90 2f bd 06 09 32 3e b7 05 b1 bd b9 e2 4d 3c
       -0.042862833 0.17386255 -0.08643668 0.012566262
000170 f1 2a 06 be 08 e1 fd bd 38 3f 45 3e b8 9f ee bd
       -0.13102318 -0.12396437 0.19262397 -0.11651558
000180 48 e3 5a 3e e3 78 49 3e ff 73 d3 3d e9 63 e2 bd
       0.21375763 0.19675021 0.10324859 -0.110542126
000190 af 5c a6 bd c7 59 3d 3e f2 cf 01 3e cf 9f e9 3d
       -0.08123147 0.18491279 0.12676981 0.11407434
0001a0 ee b9 84 3d cd 94 70 3e 43 6a 32 3d 42 f8 f4 bd
       0.06480776 0.23494263 0.04355837 -0.11961414
0001b0 87 2a de bc f5 4f 9d 3e 3a 09 06 3e be df b6 3e
       -0.027119888 0.30725065 0.13089457 0.35717577
0001c0 47 a0 6a 3e 24 fb 56 bd 0c b1 b5 bd 48 55 05 3e
       0.22912703 -0.0524856 -0.0887166 0.13020813
0001d0 df d1 02 bd 9d 5c 43 bd 49 86 ef 3d ee 39 5f 3e
       -0.03193843 -0.047695745 0.11695535 0.21799442
0001e0 91 f8 a4 3d 2b 7c 6d 3e 20 bb 02 3c 29 5b 02 3e
       0.08055223 0.23191898 0.007979184 0.12730087
0001f0 3e ff 28 3e 18 21 a3 3d c4 b0 8d 3d ac ce 95 3d
       0.16503617 0.079652965 0.06918481 0.0731481

weight_ih_l0_reverse f4 [128, 2]
000000 e3 0e 87 3d 7a 26 3d be 7e 0e 2f 3e bb 48 04 3e
       0.06594636 -0.18471709 0.17095372 0.1291837
000010 8c ff 03 bd a4 9c d4 bd 48 fd 27 3e 00 d2 0b be
       -0.03222613 -0.10381439 0.16405213 -0.13654327
000020 96 a4 b2 3c d9 89 ad 3d 0e b0 ef bd 90 55 6e be
       0.021806996 0.08473558 -0.11703502 -0.23274827
000030 5d 17 62 bc d9 dd 91 3e bb 23 83 bd 32 a9 91 be
       -0.013799516 0.2848957 -0.064032994 -0.28449398
000040 7c 0b 9d 3d b4 70 89 be 7e ac 14 be c1 42 c3 3d
       0.07668206 -0.26843798 -0.14518926 0.09534217
000050 6f 34 50 be c2 85 c2 3d e9 93 35 3e 92 d5 20 be
       -0.20332502 0.094981685 0.17732204 -0.1570647
000060 fd 97 43 be 19 24 7d 3e 8c f2 3e be 54 88 96 be
       -0.19100948 0.24720801 -0.18647212 -0.29400885
000070 6c ef 1c 3e 6e 52 2b 3d b8 b1 42 bd 70 41 22 3d
       0.15325707 0.041826658 -0.047532767 0.039613187
000080 c5 9d f2 bd 69 c7 4c 3c 5a dd d1 bd 3b 6a 04 be
       -0.118464984 0.012498715 -0.102472976 -0.12931149
000090 99 20 8b be b0 b6 17 bc 9c 24 c4 3c bc 56 ed 3d
       -0.27173308 -0.009259865 0.023943238 0.11588809
0000a0 88 3b 8f bd 83 8c d1 3e 8b e1 26 be 25 2c 54 bd
       -0.069937766 0.40927514 -0.16296975 -0.051799912
0000b0 b2 71 14 be 79 3c 51 3d 08 55 3a 3e 88 f2 78 bb
       -0.14496496 0.05108306 0.181965 -0.0037986357
0000c0 03 65 ba bd 79 5b 77 bb 87 39 c1 bd 5b 44 d5 bd
       -0.09101298 -0.003774373 -0.094348006 -0.104134284
0000d0 df 67 7f 3d 83 9e 57 3c d5 e2 be bd 1f e1 0a bc
       0.06235492 0.013160351 -0.093206085 -0.008476525
0000e0 38 61 3f bc f2 80 bf 3d 23 91 cf 3c a4 2f 86 bc
       -0.011680894 0.09350766 0.025337761 -0.016380139
0000f0 7a e8 3e 3e ae 39 71 be 5c 79 74 bd 76 fd 14 be
       0.1864337 -0.2355716 -0.05968605 -0.14549813
000100 41 52 ae bd 7e 3a 32 3d b6 94 67 3e 15 31 4b bc
       -0.085117824 0.043512814 0.22615322 -0.012401839
000110 21 0d 18 bd 88 f5 df bc e1 8a 1f 3c bc a6 47 be
       -0.037121896 -0.027338758 0.009737701 -0.19497198
000120 04 fb 46 3c 50 21 db 3d c6 ef 26 3e e6 4d 55 bd
       0.012144808 0.10699713 0.16302404 -0.052076243
000130 f9 0d 81 be 55 64 a3 3e b1 88 d8 3b 16 b4 bb bd
       -0.25205973 0.31912485 0.0066080918 -0.09165208
000140 f2 07 0f 3e 59 b1 ea bd fe 12 cd bc b0 e5 fb bd
       0.13967875 -0.11459608 -0.02503347 -0.12299669
000150 ad e5 e7 3d 19 57 0a be ff 79 49 3e 61 b0 28 be
       0.11323104 -0.13509788 0.19675444 -0.16473533
000160 ef 54 6b be 7a 09 05 3f 3a 67 37 bd 9d 2b 86 be
       -0.22981618 0.51967585 -0.04477618 -0.2620515
000170 a5 6a 86 3d 0f 18 d7 bd cb 1c f1 bd be a6 59 bd
       0.065633096 -0.10502636 -0.1177307 -0.053137533
000180 97 ce 44 3d dd f3 35 bd 8b b9 e9 bd b6 ea e4 bc
       0.048048582 -0.04442202 -0.11412343 -0.02794395
000190 bb 74 90 be 37 ef 02 bd b2 ff 73 bd e6 fd 6e 3d
       -0.28214058 -0.031966414 -0.059570022 0.058347605
0001a0 08 2e 98 3d 83 87 06 3f 68 b3 fc bc 6a c2 e2 bd
       0.07430655 0.52550524 -0.030847266 -0.11072238
0001b0 05 9c d6 3d cb ca 6d be ee 83 27 be 22 35 4f bd
       0.10478977 -0.2322189 -0.16358921 -0.05058778
0001c0 02 7b 2a 3d aa 0b 5f be 22 6e c4 3d 28 77 76 be
       0.041621216 -0.21781793 0.09591319 -0.24068892
0001d0 cb 6b 19 3e 85 94 a4 bd ab 7f a2 3d ee 2f 8e be
       0.14982526 -0.0803614 0.07934507 -0.27770942
0001e0 c7 6e b4 bd 37 75 6a 3e c0 6b 52 3e 3f 14 0c bd
       -0.088101916 0.22896276 0.20548916 -0.034198996
0001f0 6b c4 83 3e 3a 60 38 be 3c 30 4c 3d 60 9a 7f be
       0.25735793 -0.18005458 0.049850687 -0.24961233
000200 b0 10 ff bd 24 87 3f be 7c 01 6d 3e 88 14 9e 3e
       -0.12454355 -0.18703896 0.23145097 0.3087504
000210 0a 10 20 3e cf e7 2c be bf 4f 1e be f5 5b 4d be
       0.15631118 -0.16885303 -0.15460108 -0.2005461
000220 1e 50 0e 3d 24 15 a2 3e 94 a3 5b 3b 26 fe 4c 3e
       0.034744374 0.31656754 0.0033514248 0.20018825
000230 c1 0a 03 3e c2 8b 88 be f4 f0 4d be 09 df 82 3e
       0.12797071 -0.26669127 -0.20111448 0.25560787
000240 b8 17 7c be a2 eb 84 3c cc 94 06 be 4d 4b 88 3e
       -0.24618423 0.01622564 -0.13142699 0.2661995
000250 6f e9 97 3e 44 2e 57 be 1c f7 ac 3e 40 9f 2a be
       0.29670283 -0.21013743 0.3378228 -0.16662312
000260 bb 62 a8 3e fa a3 54 be 0f db a7 3e 82 ea 7b bd
       0.32887825 -0.20765677 0.32784316 -0.06150294
000270 a1 d5 85 be 1d 3a 12 bc d1 2f 60 bd ca 0f 6a 3e
       -0.26139548 -0.008924988 -0.0547331 0.22857586
000280 35 85 1f 3c 7f 97 21 3e f1 e0 73 bd f4 a2 b6 3e
       0.009736349 0.15780447 -0.059540693 0.35671198
000290 b1 5c 42 3e 92 5a f0 bc f3 67 aa be a5 4b 4b be
       0.18980671 -0.029340062 -0.33282432 -0.19853075
0002a0 ed 3e a6 be 05 74 59 be 27 a4 a8 3e 01 43 34 be
       -0.32469884 -0.21235664 0.32937738 -0.17603685
0002b0 be 68 97 be aa 9a 4f 3e 80 da 11 3e 35 be 88 3e
       -0.295721 0.20273843 0.14243507 0.26707616
0002c0 77 f3 0b be ab 74 88 3e 5d 3c 93 3e 48 a7 c1 bc
       -0.13667093 0.2665151 0.2875699 -0.023639336
0002d0 b9 c4 80 be 30 8f 03 3e ce 28 5a 3e 4e b9 99 be
       -0.25150087 0.1284759 0.21304628 -0.3002419
0002e0 f5 92 fb be bb 85 91 3e 3f b7 17 3e ee 8a 06 3e
       -0.49135557 0.2842234 0.14815997 0.13138935
0002f0 08 5d 81 3e 93 71 88 be 9d 34 16 3e 95 75 8e 3d
       0.2526629 -0.2664915 0.14668508 0.06956021
000300 af 8c 38 3e 2d 86 df bd cf 39 4d 3e 45 fe ed 3d
       0.18022417 -0.10914264 0.20041583 0.11620764
000310 09 18 77 3d a7 ed 61 be 8a 1d 9a bd 4e 4b 57 be
       0.060325656 -0.22063313 -0.075251654 -0.2102482
000320 ea cb a2 bd 9e 3e 4a 3e 6d e3 06 be a5 63 1b be
       -0.0794905 0.19750449 -0.13172694 -0.1517473
000330 72 4f 98 be cb cb 40 3e 39 fc cd 3d cd 8e 87 be
       -0.29748112 0.18827741 0.10057873 -0.26476136
000340 29 2b 40 bd 1c 0d 1b be d3 f9 25 bd 5e 3b 21 be
       -0.04691616 -0.1514172 -0.040521454 -0.15745303
000350 47 ee cf 3d ac d4 41 be 2b c5 44 3e c9 2d 6e be
       0.1015287 -0.18928784 0.19215839 -0.23259653
000360 c5 32 16 3d b0 9c 80 3e ed 96 8e bd 8c 3a 20 be
       0.03666951 0.25119543 -0.069623806 -0.15647334
000370 81 39 6a 3e 68 fb 81 bd b3 98 87 bd 12 17 5a be
       0.22873498 -0.0634678 -0.06620922 -0.21297863
000380 e4 1c 23 3e 1a 12 74 3d c6 11 8f bc 5e c6 61 be
       0.1592899 0.059587575 -0.01746453 -0.22048327
000390 28 10 95 be 54 8c 33 bd da f5 6b be b2 3d d8 3d
       -0.2911389 -0.043835 -0.23043004 0.105586424
0003a0 fd c3 55 bd 72 de 17 3e ab 2c ba bd 12 cd 21 3d
       -0.052188862 0.1483095 -0.09090551 0.03950221
0003b0 e6 ca bb bd 56 cb 59 be 59 b2 94 bd ee 58 92 bd
       -0.09169559 -0.21268973 -0.072605796 -0.07145868
0003c0 60 c6 c2 3d a2 f9 60 3d 8e 2a 4c 3e de d1 54 be
       0.09510493 0.05492557 0.19938108 -0.20783183
0003d0 85 aa 1e be da 8e 87 3d a0 08 01 3e 7e 54 6c 3d
       -0.15494736 0.06619044 0.12600946 0.057697766
0003e0 4a 1d 61 3e 32 90 7c bd e1 36 45 3d 41 e8 85 be
       0.21983829 -0.061660953 0.04814804 -0.26153758
0003f0 8a 74 b4 3d 74 d3 10 be 76 32 a0 bd 2e 63 2e be
       0.088112906 -0.14143163 -0.07822125 -0.17030022
