sgan-dataset/logs/zara1/models_03_Mar_2019_13_48_21/model_registrar-1299.pt (torch_old, 575433 bytes, 45 tensors)

weight_ih_l0 f4 [128, 6]
0	0xbe117feb	-0.14208953
1	0xbcc0fff7	-0.023559554
2	0xbe0b9fd1	-0.13635184
3	0x3cc5b462	0.024133865
4	0xbc70858d	-0.0146802785
5	0x3e26d6b0	0.16292834
6	0xbeadfff4	-0.3398434
7	0xbea58d9a	-0.32334596
8	0xbe7e6a31	-0.24845196
9	0xbea1e133	-0.31617126
10	0x3e88cc32	0.2671829
11	0xbe0bcc91	-0.13652255
12	0xbe1f8cb8	-0.15581024
13	0xbe07e0b6	-0.13269314
14	0xbdd9ccf0	-0.10634792
15	0xbd93285b	-0.071854316
16	0xbec3e406	-0.38259906
17	0x3e9dae97	0.30797264
18	0xbe0928f5	-0.1339453
19	0x3c83213f	0.016007064
20	0x3e6d9716	0.23202166
21	0xbe8e13d5	-0.27749506
22	0xbd8f0c81	-0.06984807
23	0x3eb81d35	0.35959783
24	0xbd90ebe9	-0.07076246
25	0x3d80f67a	0.06297012
26	0xbe66eb8e	-0.22550794
27	0x3e4730ce	0.19452211
28	0x3e0a26df	0.1349139
29	0xbe3b4ba8	-0.1829058
30	0x3e2a4438	0.16627586
31	0x3dad455f	0.08460497
32	0x3dbf5c4a	0.093437746
33	0x3d07f94f	0.033196744
34	0x3dff2e13	0.1245996
35	0xbd3e8be5	-0.046520133
36	0xbe31121a	-0.17292061
37	0xbd94e72e	-0.072706565
38	0xbe5dc52f	-0.21657251
39	0xbb8b89d4	-0.0042583738
40	0x3dc8ef58	0.09811276
41	0xbd90d7f3	-0.07072439
42	0x3c9a00b2	0.01879916
43	0x3e4f8bfb	0.20268242
44	0xbe437e61	-0.19091178
45	0x3d99129a	0.07474251
46	0xbe9e841b	-0.30960163
47	0x3c9f8586	0.019472849
48	0x3e23a4fa	0.15980902
49	0x3df18870	0.117936015
50	0x3dae68b1	0.08516062
51	0x3d6b02f9	0.05737588
52	0xbd46bb71	-0.0485186
53	0x3d4b457c	0.049626812
54	0xbe1bbddf	-0.15209149
55	0xbe7a4e1f	-0.24443863
56	0xbd98cf51	-0.074614175
57	0x3e90f8b4	0.28314745
58	0xbd0641dd	-0.032777656
59	0xbe72097f	-0.23636435
60	0x3cc8a3db	0.024492195
61	0x3e2d74a8	0.16939032
62	0xbeba5904	-0.3639604
63	0xbe5c4c2d	-0.21513434
64	0xbcc6a2f2	-0.02424762
65	0x3ca8dfaf	0.020614473
66	0xbd59c591	-0.05316693
67	0xbbf554b6	-0.007486905
68	0xbdd5ade2	-0.10433556
69	0x3d1caab6	0.03824874
70	0x3e257209	0.16156782
71	0x3e172d1c	0.14763302
72	0xbe44d6f3	-0.19222622
73	0xbe428548	-0.18996155
74	0x3d9aa96c	0.07551846
75	0x3d0b1a47	0.033960607
76	0x3a9ba181	0.0011873693
77	0xbdf688af	-0.12037789
78	0xbd5e7bbe	-0.05431723
79	0x3dc77343	0.09738781
80	0x3e4ed5c4	0.20198733
81	0xbdb52ebe	-0.08846806
82	0xbe129aea	-0.14316908
83	0x3d3505c9	0.04419497
84	0xbdfc5e44	-0.12322667
85	0xbda3f2d3	-0.080052994
86	0xbe5b74bd	-0.21431251
87	0x3e48dd9a	0.19615784
88	0x3e021c88	0.12706196
89	0x3e38666e	0.18007824
90	0xbdcdbc63	-0.100456975
91	0x3e3342c3	0.17505936
92	0x3de900c7	0.113771014
93	0x3ee4a561	0.44657424
94	0xbbf2ac99	-0.007405829
95	0xbcbecdc3	-0.023291474
96	0x3dfb860b	0.12281426
97	0x3da569fe	0.08076857
98	0xbbfdae2b	-0.0077417097
99	0x3dae163f	0.08500337
100	0x3e1c9d99	0.15294494
101	0xbdd793ae	-0.105262145
102	0xbd8ac2db	-0.06775447
103	0xbe40e28b	-0.1883642
104	0x3dd17f43	0.10229351
105	0xbd8c74c2	-0.06858207
106	0xbb944849	-0.0045252186
107	0x3ec4cd93	0.3843809
108	0x3d95a5e6	0.07307033
109	0xbcea8082	-0.02862573
110	0x3e1499e7	0.14511834
111	0xbca6b0e9	-0.02034803
112	0x3d82c5c3	0.06385376
113	0xbdebffca	-0.11523397
114	0xbc906b95	-0.017629424
115	0x3d12873c	0.0357735
116	0xbe9012fb	-0.2813948
117	0x3db3741f	0.08762383
118	0x3e261658	0.16219461
119	0x3e7ffdb4	0.24999124
120	0xbd8b5c5a	-0.06804724
121	0x3d87cb29	0.066305466
122	0x3ebef48e	0.37295955
123	0xbe1d0f23	-0.15337805
124	0x3e1065e4	0.14101368
125	0xbd156df7	-0.036481824
126	0xbdf0b791	-0.117537625
127	0xbd7aa5c0	-0.061193228
128	0x3ca5fcd8	0.020262167
129	0x3e3c590a	0.1839334
130	0xbea6e92e	-0.32599777
131	0x3ec4c205	0.38429275
132	0xbc4bc664	-0.012437437
133	0xbe054f2e	-0.13018486
134	0xbdf96685	-0.12177757
135	0xbdaa4713	-0.083143376
136	0x3e15b816	0.14621004
137	0x3d908034	0.07055703
138	0xbd1cd3cc	-0.038287923
139	0xbdcaa07c	-0.09893891
140	0xbe05d563	-0.13069682
141	0xbd5046aa	-0.05084864
142	0x3daab5d7	0.083354644
143	0x3e4bd6a3	0.19906096
144	0xbd01a994	-0.031655863
145	0xbe0d692a	-0.13809648
146	0xbe64d536	-0.22346959
147	0xbe0b113b	-0.13580792
148	0xbde3af0c	-0.11117372
149	0xbd315c82	-0.043301113
150	0xbe2fdeed	-0.17174883
151	0xbde5cea3	-0.112210535
152	0x3ddeb33a	0.108740285
153	0x3e32c5c7	0.17458259
154	0x3c244918	0.0100271925
155	0x3ea61722	0.32439524
156	0xbe126e85	-0.14299972
157	0x3b186317	0.0023252422
158	0x3d8d3e46	0.06896643
159	0x3d995dbc	0.074885815
160	0x3d4a9af9	0.0494642
161	0x3eb07b19	0.34468916
162	0xbe485e15	-0.1956714
163	0x3d89fc8c	0.067376226
164	0x3ecc4ff2	0.39904743
165	0x3e0fd38e	0.14045545
166	0x3d0d9e05	0.034574527
167	0x3ea370fa	0.31922132
168	0x3dee0f67	0.116240315
169	0x3e05199e	0.12998053
170	0xbcd3c4af	-0.025850622
171	0xbdbd177d	-0.09232996
172	0x3cd868d0	0.026417166
173	0x3d645075	0.055740792
174	0xbe2b4844	-0.16726786
175	0xbe0c6ad7	-0.13712631
176	0xbe653203	-0.22382359
177	0xbcd0fa8b	-0.025510093
178	0xbc2c58d3	-0.010519224
179	0x3b4e65aa	0.0031493702
180	0xbba95a8c	-0.0051682647
181	0x3d2945b2	0.041326232
182	0x3d3b81ce	0.04577809
183	0xbea75bcf	-0.32687232
184	0xbe71e610	-0.23622918
185	0xbe312aac	-0.17301434
186	0xbd9ae41b	-0.07563039
187	0x3dc70c21	0.0971911
188	0x3dbae9b6	0.09126608
189	0xbe640d95	-0.22270806
190	0xbd8fe756	-0.07026546
191	0xbe464764	-0.19363171
192	0xbc022820	-0.007944137
193	0x3de3ba63	0.11119535
194	0xbe464b2b	-0.19364612
195	0xbdd59a95	-0.10429875
196	0x3e5017e4	0.20321614
197	0xbcd94e64	-0.026526637
198	0xbd24bf80	-0.04022169
199	0xbdbc3ee9	-0.09191687
200	0xbe1c51cb	-0.15265577
201	0xbe6304e2	-0.22169831
202	0x3eadb4a1	0.3392687
203	0x3d27c573	0.040959787
204	0xbe0e520c	-0.13898486
205	0xbcb6c7ac	-0.022312008
206	0xbd7b66f7	-0.06137749
207	0xbd6a7881	-0.057243828
208	0xbca56f3c	-0.020194642
209	0x3e316ea8	0.17327368
210	0xbdfd6a05	-0.12373737
211	0xbd3e29b7	-0.0464265
212	0x3e0421fc	0.12903589
213	0xbea65028	-0.3248303
214	0x3ba0e6a4	0.004910307
215	0x3b41800e	0.002952579
216	0x3dbefdef	0.09325778
217	0xbdb7ffd5	-0.08984343
218	0xbdf09801	-0.117477424
219	0x3da8de5f	0.08245539
220	0xbe220a78	-0.15824306
221	0xbe064d05	-0.13115318
222	0x3da94359	0.08264799
223	0xbd514b7c	-0.051097378
224	0x3dd85436	0.10562937
225	0xbe4277f6	-0.18991074
226	0xbde2146c	-0.110390514
227	0xbe1daf72	-0.15398958
228	0x3d70af7c	0.058761105
229	0xbc6ed084	-0.014576081
230	0xbdc2dc87	-0.095147185
231	0xbd35a2b1	-0.044344608
232	0xbde03070	-0.10946739
233	0x3d846484	0.06464484
234	0x3d093cab	0.033505123
235	0xbdb3fd06	-0.08788495
236	0xbdd44957	-0.10365551
237	0x3d2b6966	0.041848563
238	0xbe5d83ab	-0.21632259
239	0x3d99e4c5	0.075143375
240	0x3dc77cc1	0.09740592
241	0xbcc06854	-0.023487248
242	0xbdca5b27	-0.09880667
243	0xbcce1282	-0.02515531
244	0x3d71648b	0.058933776
245	0x3e1c9ffd	0.15295406
246	0xbe4a853f	-0.19777392
247	0xbdda2506	-0.10651593
248	0x3e28066a	0.16408697
249	0x3e138c0d	0.14408894
250	0x3df2d4ff	0.11857032
251	0xbc864efa	-0.01639508
252	0x3e0be6cf	0.13662265
253	0xbdfc893c	-0.12330863
254	0xbe682d6e	-0.2267358
255	0xbd610551	-0.05493671

weight_hh_l0 f4 [128, 32]
0	0xbdb29d2b	-0.08721384
1	0xbdcb2d80	-0.09920788
2	0xbcd3a579	-0.02583574
3	0x3e3939d6	0.18088469
4	0xbd26659c	-0.040624246
5	0xbb893e58	-0.00418834
6	0xbe44df5b	-0.19225828
7	0xbcd376b1	-0.025813432
8	0x3dfb43e1	0.12268806
9	0x3dbcc812	0.09217848
10	0x3ca008af	0.01953539
11	0x3e347869	0.17624058
12	0xbc2e3762	-0.0106333215
13	0x3e170c1d	0.14750715
14	0x3dfb2b48	0.122641146
15	0x3e5d14b2	0.21589926
16	0x3df828e6	0.12117176
17	0xbe06bff0	-0.13159156
18	0x3d9e9728	0.077436745
19	0xbe1d0361	-0.1533332
20	0xbdbff6a4	-0.09373215
21	0xbe0d5cba	-0.13804904
22	0xbdc2943c	-0.0950093
23	0xbe02490b	-0.12723176
24	0x3e1bd3b6	0.1521748
25	0xbdbff8b6	-0.0937361
26	0x3de03dbd	0.10949276
27	0x3e22c369	0.15894856
28	0x3da8e078	0.08245939
29	0x3dda72d1	0.10666431
30	0x3cdd98ef	0.027050463
31	0xbe27fd3c	-0.16405195
32	0x3e6cb72b	0.23116748
33	0xbe13b70f	-0.144253
34	0x3e6970f3	0.22796993
35	0x3e0ae74e	0.13564798
36	0xbd06a099	-0.032868
37	0x3e84571f	0.25847718
38	0xbe05565e	-0.13021228
39	0xbe59af4a	-0.21258274
40	0x3e0dedaf	0.138602
41	0xbe5563bf	-0.20838831
42	0xbd875b85	-0.06609253
43	0xbdc90a0f	-0.09816372
44	0xbe887957	-0.26655075
45	0x3dd9e3fc	0.10639188
46	0x3e47a6a9	0.1949717
47	0x3e5482d5	0.20753033
48	0x3e0b7bf2	0.136215
49	0x3e017510	0.12642312
50	0xbdb2be89	-0.08727748
51	0xbd96dc01	-0.07366181
52	0x3dc74bfe	0.09731291
53	0x3c33abf5	0.010966291
54	0xbe2323bb	-0.15931599
55	0xbc973052	-0.018455658
56	0xbdbbd617	-0.09171694
57	0xbde2fb52	-0.11083092
58	0xbe9ed4d0	-0.31021738
59	0xbcbef6e3	-0.023311084
60	0xbe0c4857	-0.1369947
61	0xbce8d3e4	-0.02842135
62	0x3d16316c	0.036668226
63	0xbd8bde24	-0.06829479
64	0x3deed9fb	0.1166267
65	0xbe02ca0c	-0.12772387
66	0xbd8721c8	-0.0659824
67	0x3dd58d66	0.1042736
68	0x3cec8e99	0.02887659
69	0x3d95cdc7	0.073146395
70	0xbe3b1d55	-0.18272908
71	0xbe2e9147	-0.17047606
72	0xbd14a481	-0.036289696
73	0x3da81efb	0.08209034
74	0xbe045208	-0.12921917
75	0x3dcca703	0.099927925
76	0xbe044169	-0.12915577
77	0xbdec7058	-0.11544865
78	0x3e034e94	0.12822944
79	0xbe00a9dd	-0.12564798
80	0x3d95bd77	0.07311528
81	0xbd621439	-0.055195067
82	0x3e11827b	0.1420993
83	0xbe3d20e9	-0.18469585
84	0x3dbdb99b	0.09263917
85	0x3e8225e9	0.25419548
86	0x3d2c1b14	0.04201801
87	0x3e1781aa	0.14795557
88	0x3dc4ced7	0.09609764
89	0x3d8b5bee	0.068046436
90	0x3dbadec7	0.09124523
91	0x3e25257e	0.16127583
92	0x3e054281	0.1301365
93	0x3d8c3230	0.0684551
94	0xbdd4e127	-0.10394507
95	0x3dc7999d	0.09746096
96	0x3c08c5a9	0.008347907
97	0x3b144227	0.0022622438
98	0x3db791f6	0.08963387
99	0x3d8c8686	0.06861596
100	0xbe3b93a4	-0.18318039
101	0xbd693fc9	-0.056945596
102	0xbdb0a7c2	-0.08625747
103	0x3d988aae	0.07448326
104	0xbdedc767	-0.116102986
105	0xbdcaef13	-0.09908881
106	0x3c648577	0.013947836
107	0xbe15c936	-0.14627537
108	0xbe6c79ca	-0.23093334
109	0xbd97c456	-0.07410495
110	0xbe21f937	-0.15817724
111	0xbd6bded1	-0.05758554
112	0xbcd9beb2	-0.026580188
113	0x3e9416ea	0.28923732
114	0xbda19578	-0.07889837
115	0xbdda74c5	-0.10666803
116	0xbd52b573	-0.051442575
117	0x3e16be5e	0.14721057
118	0x3db5b754	0.08872858
119	0xbdc9303b	-0.09823652
120	0xbe1b5553	-0.15169267
121	0x3cca25dc	0.024676256
122	0xbe77a94a	-0.24185672
123	0x3e3f6dd4	0.1869424
124	0xbe1caab2	-0.1529949
125	0xba64d2d1	-0.0008728924
126	0x3e2457de	0.16049144
127	0x3dc32f94	0.09530559
128	0xbe2a6051	-0.16638304
129	0xbd558e43	-0.052137624
130	0x3e11459d	0.14186712
131	0xbddc1e47	-0.107479624
132	0x3e1291b0	0.14313388
133	0xbe108912	-0.14114788
134	0xbd18e63b	-0.03732894
135	0x3e03ad12	0.1285899
136	0xbe27f606	-0.16402444
137	0xbe2bc6b3	-0.16775016
138	0xbd339e90	-0.04385239
139	0xbe0dbd45	-0.13841732
140	0x3c972f0b	0.018455049
141	0x3da79d25	0.0818427
142	0x3dd31156	0.10306041
143	0xbe1f2068	-0.15539706
144	0xbd0ce764	-0.03440036
145	0xbe38ea95	-0.18058236
146	0xbe0598fb	-0.13046639
147	0x3db2d139	0.08731312
148	0x3d1e12c3	0.03859211
149	0x3df2d1da	0.11856432
150	0x3d968868	0.07350236
151	0xbdf4a172	-0.11944856
152	0x3d7cb897	0.061699476
153	0xbdf85641	-0.121258266
154	0xbe1a211b	-0.15051691
155	0xbe43fb37	-0.191388
156	0x3e407b78	0.187971
157	0xbd887593	-0.066630505
158	0x3dfe8fc1	0.12429763
159	0xbe0006e1	-0.12502624
160	0x3e13577f	0.14388846
161	0xbe0ad840	-0.13559055
162	0x3d0dea3d	0.034647215
163	0xbe47071b	-0.19436304
164	0xbd843921	-0.06456209
165	0xbd7ed5f0	-0.062215745
166	0xbb652a10	-0.0034967698
167	0xbd889fec	-0.06671128
168	0xbd4d3155	-0.050095875
169	0x3bea3e97	0.0071485746
170	0x3dff4043	0.12463429
171	0xbe3027e1	-0.17202713
172	0xbe183195	-0.14862664
173	0x3d77e687	0.060522582
174	0xbd15bf68	-0.036559492
175	0xbcf288e1	-0.029606285
176	0xbc3377d8	-0.010953866
177	0x3e1e6df0	0.15471625
178	0xbe3e8027	-0.18603574
179	0x3e0b48d2	0.13601997
180	0x3da2dc96	0.0795223
181	0xbc6b2dd3	-0.014354187
182	0xbd038e63	-0.032118212
183	0xbd5749cd	-0.052560616
184	0xbd69f108	-0.05711463
185	0xbdcf3adc	-0.101186484
186	0x3e12222f	0.14270853
187	0x3e4ce338	0.20008552
188	0x3d5be807	0.053688075
189	0x3dc3f521	0.09568239
190	0x3e12cc2f	0.14335702
191	0x3da86202	0.082218185
192	0x3e3bd1de	0.18341777
193	0x3d0ee701	0.03488827
194	0xbe15dfa0	-0.14636087
195	0x3e53573f	0.2063875
196	0xbb9a5571	-0.0047098924
197	0xbd745cee	-0.059658937
198	0x3cb1dd37	0.021711929
199	0xbe129de8	-0.14318049
200	0xbd8e13e0	-0.069373846
201	0xbc9809a8	-0.018559292
202	0xbd0791fd	-0.03309821
203	0xbdedd471	-0.116127856
204	0xbd045f15	-0.03231724
205	0x3e351bf1	0.1768644
206	0xbc168f14	-0.009189386
207	0x3d8375f7	0.064189844
208	0x3c67c7f7	0.014146796
209	0xbdcae8a9	-0.09907658
210	0x3ca6302d	0.020286644
211	0xbe15fe15	-0.14647706
212	0x3dd648f8	0.104631364
213	0x3e7599a6	0.23984393
214	0x3e247a25	0.1606222
215	0xbcec9a0d	-0.02888205
216	0xbe4213a8	-0.18952811
217	0x3c01d117	0.007923386
218	0x3dcd8e41	0.100368984
219	0x3d2df0ed	0.042466093
220	0xbe3b0b80	-0.18266106
221	0x3e180164	0.1484428
222	0xbe1218a7	-0.14267217
223	0x3d68e521	0.05685914
224	0x3e523e73	0.20531635
225	0xbc47e6c3	-0.012201014
226	0xbd7d30a3	-0.06181396
227	0x3e2388c5	0.15970142
228	0xbd2e1c4d	-0.04250746
229	0x3d85efae	0.06539856
230	0x3d4a52c3	0.049395334
231	0x3c249b1b	0.010046746
232	0xbc69f03a	-0.014278466
233	0xbe296e81	-0.1654606
234	0xbd50a45c	-0.050937995
235	0xbe2819c1	-0.16416074
236	0x3e7265f4	0.23671705
237	0xbdcc2b0e	-0.099691495
238	0x3dc63081	0.0967722
239	0x3d425b95	0.04745062
240	0x3e1190af	0.14215349
241	0xbe0bfe92	-0.1367133
242	0xbe06bc29	-0.13157715
243	0xbba3c8ab	-0.0049982867
244	0xbe37a7b0	-0.17935061
245	0xbde3d4b7	-0.111245565
246	0xbd7f57bf	-0.06233954
247	0xbe374300	-0.17896652
248	0x3da4fb6b	0.08055767
249	0x3e1e2977	0.15445505
250	0x3d304b82	0.04304076
251	0xbc072c86	-0.008250361
252	0x3e1df692	0.1542609
253	0x3e4e445a	0.20143262
254	0xbc8d4693	-0.017245566
255	0x3db921e7	0.090396695

bias_ih_l0 f4 [128]
0	0xbd982b2f	-0.074301116
1	0x3c4c557e	0.012471555
2	0xbcc23ecf	-0.02371159
3	0xbdb0bb21	-0.08629442
4	0xbe249432	-0.16072157
5	0x3e0d262d	0.13784094
6	0xbd50c582	-0.050969608
7	0xbe432263	-0.19056086
8	0x3cb921ea	0.02259918
9	0x3cfb887e	0.030704733
10	0x3e1ecd34	0.15507966
11	0x3e106bba	0.14103594
12	0x3d84cd6e	0.06484495
13	0xbe1d5e9c	-0.15368122
14	0x3d92f08a	0.071747854
15	0xbe24cc9c	-0.16093677
16	0x3c0a660f	0.008447184
17	0x3e1b204a	0.15149036
18	0xbd174a30	-0.036935985
19	0x3dfcd0b0	0.123444915
20	0x3c810b6d	0.015752519
21	0x3ce61a25	0.028088639
22	0xbd42fba3	-0.04760326
23	0xbd360b1d	-0.044444192
24	0x3dfe467c	0.124157876
25	0x3d8f9c53	0.07012238
26	0xbd254964	-0.040353194
27	0x3db32ae0	0.08748412
28	0xbccdeb5a	-0.025136638
29	0xbde1c2e1	-0.11023498
30	0xbe4c2936	-0.19937596
31	0xbd82a85a	-0.06379767
32	0x3e4d7d19	0.20067252
33	0x3c2a6519	0.01040008
34	0xbe2143c7	-0.15748511
35	0x3e0f2bfc	0.13981622
36	0xbe226ced	-0.15861864
37	0xbdaa0805	-0.08302311
38	0xbe18c006	-0.14917001
39	0xbd006ea7	-0.031355526
40	0xbe074088	-0.1320821
41	0x3dd64b2b	0.10463556
42	0xbd5a1646	-0.053243898
43	0x3d16759c	0.036733255
44	0xbd3a31ad	-0.04545753
45	0x3e3094c2	0.17244247
46	0xbd0a117d	-0.033708084
47	0xbdeec829	-0.11659271
48	0x3ddef901	0.108873375
49	0x3de5b27d	0.112156846
50	0xbda05c7a	-0.078301385
51	0x3da33659	0.0796935
52	0xbe1d37b4	-0.1535328
53	0x3de0c7ed	0.10975633
54	0x3dcedf87	0.10101228
55	0x3dc4229e	0.09576915
56	0x3d9fba72	0.077992335
57	0x3e124812	0.14285305
58	0x3df9525f	0.12173914
59	0x3e21d66e	0.15804455
60	0xbcc22599	-0.023699569
61	0xbe1a2e32	-0.15056685
62	0xbe486cc0	-0.19572735
63	0xbe2ef9f8	-0.17087543
64	0x3dda046a	0.10645373
65	0x3e020e86	0.12700853
66	0xbd414de6	-0.04719343
67	0x3d78634a	0.060641564
68	0xbd664035	-0.056213576
69	0x3c272134	0.010200787
70	0x3dd86545	0.10566191
71	0xbd5139b1	-0.05108041
72	0x3c78243d	0.015145359
73	0x3dc321fb	0.09527966
74	0xbdf65fc9	-0.12029988
75	0x3d23bb20	0.03997338
76	0xbe1177ea	-0.142059
77	0xbd8304b5	-0.06397382
78	0xbd71aa97	-0.059000578
79	0xbe50444e	-0.20338556
80	0xbdf45595	-0.11930386
81	0xbe095de8	-0.13414729
82	0x3e10fbcf	0.14158557
83	0xbd1284d4	-0.035771206
84	0x3b50e99e	0.0031877528
85	0x3dec6089	0.1154185
86	0x3dc47342	0.09592296
87	0xbe0b6e27	-0.13616239
88	0x3e1f2f46	0.15545377
89	0xbdfcd18c	-0.123446554
90	0x3e0286ac	0.12746686
91	0xbe25536e	-0.16145107
92	0xbe063301	-0.13105394
93	0x3e0332ce	0.12812349
94	0x3b7c9f5c	0.0038547134
95	0xbdbf310e	-0.09335528
96	0x3dfa2804	0.122146636
97	0x3c92416c	0.017853461
98	0x3c85b9b4	0.016323902
99	0xbd181eaa	-0.03713862
100	0xbb034807	-0.0020031945
101	0x3d85f67d	0.065411545
102	0xbc85231a	-0.01625209
103	0xbe2f30ac	-0.1710841
104	0xbdccd73a	-0.10001989
105	0x3db39834	0.08769265
106	0xbdabc907	-0.08387952
107	0x3d96ee3e	0.0736966
108	0x3d15a617	0.03653535
109	0xbe35598b	-0.17709939
110	0x3de051e1	0.10953117
111	0x3cbc8e65	0.023017118
112	0x3e047db9	0.12938584
113	0x3d786801	0.06064606
114	0x3d6ab246	0.05729892
115	0xbbb7605b	-0.0055962033
116	0x3ddaacf0	0.106775165
117	0x3c1427f8	0.009042732
118	0xbdcaa1b1	-0.098941214
119	0x3bde2637	0.006779458
120	0xbdc3ea8b	-0.0956622
121	0x3dd5aa68	0.10432893
122	0x3de8a5ee	0.113597736
123	0x3ca103d9	0.019655155
124	0x3dd16b96	0.102255985
125	0x3dbcdb6e	0.092215404
126	0xbe150c59	-0.14555492
127	0xbda250b2	-0.07925548

bias_hh_l0 f4 [128]
0	0xbdf2dfed	-0.11859117
1	0x3cd18b6e	0.02557918
2	0xbe214831	-0.15750195
3	0x3d99fc8c	0.075188726
4	0xbc8ad1a1	-0.016945662
5	0xbdd935c4	-0.10605958
6	0xbe1c483a	-0.15261927
7	0xbc54ee1a	-0.012996221
8	0x3ddca544	0.107737094
9	0x3e484b89	0.19560064
10	0xbdcf9d59	-0.101374336
11	0x3c84c697	0.016207976
12	0xbe319c9e	-0.17344901
13	0x3e0ff63c	0.14058775
14	0x3de60379	0.11231131
15	0xba074a48	-0.000516091
16	0xbda0ced9	-0.07851953
17	0x3e1381fb	0.14405052
18	0xbe07cf3f	-0.13262652
19	0x3da22295	0.07916752
20	0x3e275a22	0.16342977
21	0x3e55d126	0.20880565
22	0xbc9c48ad	-0.019077623
23	0x3ca2a421	0.019853653
24	0x3cd38254	0.025818981
25	0x3d61411d	0.054993737
26	0x3d07fe42	0.033201464
27	0xbb8647c2	-0.0040979097
28	0xbddaa671	-0.106762774
29	0xbdf4e54b	-0.11957797
30	0xbe04f932	-0.12985685
31	0xbc5eee04	-0.013606552
32	0x3de532fe	0.111913666
33	0x3d157662	0.03648985
34	0x3da44208	0.08020407
35	0xbd87d6da	-0.066327766
36	0x3e195733	0.1497467
37	0x3da378dd	0.07982037
38	0xbc06cd49	-0.008227655
39	0xbe3468da	-0.17618123
40	0xbd72783e	-0.059196703
41	0x3d464d0c	0.04841332
42	0xbd0c87de	-0.03430926
43	0xbcc8574e	-0.024455693
44	0xbd459723	-0.04823984
45	0xbbe52f21	-0.0069941436
46	0x3d93f61b	0.07224675
47	0xbd8826e2	-0.06648041
48	0xbcb39b7b	-0.021924725
49	0x3d352d9b	0.044232946
50	0xbd4c96bc	-0.04994844
51	0xbdd00f9f	-0.101592295
52	0xbc1db418	-0.009625457
53	0xbd594053	-0.05303986
54	0xbdf9f761	-0.12205387
55	0x3d8ad10c	0.06778154
56	0xbe009a98	-0.12558973
57	0xbe29c10c	-0.16577548
58	0xbe06f60e	-0.131798
59	0x3dc7605f	0.09735178
60	0xbd54aabe	-0.051920645
61	0x3daab329	0.08334953
62	0xbd8256fa	-0.06364246
63	0x3e05a5e8	0.1305157
64	0xbe350c71	-0.17680527
65	0xbe112ab7	-0.1417645
66	0x3dfbab85	0.12288574
67	0x3ba43002	0.005010606
68	0x3e4d420c	0.20044726
69	0x3d2e2b79	0.042521928
70	0xbda4d300	-0.080480576
71	0xbb894a00	-0.0041897297
72	0x3e20283d	0.1564035
73	0x3ad9c1df	0.0016613564
74	0x3bf6d8bb	0.0075331605
75	0x3d6a90ab	0.057266872
76	0x3d1e542e	0.0386545
77	0x3b21ea67	0.0024706365
78	0xbe0bfc83	-0.13670544
79	0xbd69fe0f	-0.057127055
80	0xbcd7f64e	-0.026362564
81	0x3dddae7f	0.10824298
82	0x3d89485e	0.06703256
83	0xbe263fe1	-0.16235305
84	0xbe1d7a66	-0.15378723
85	0x3d612383	0.054965507
86	0xbe173752	-0.14767197
87	0x3de533c3	0.111915134
88	0xbdaa128a	-0.08304317
89	0xbc91dda6	-0.017805886
90	0x3e059076	0.13043389
91	0xbd3ee428	-0.046604306
92	0xbdf4f073	-0.119599245
93	0xbe1a2222	-0.15052083
94	0xbca98744	-0.020694382
95	0x3c2e5599	0.010640525
96	0x3be8e184	0.0071069617
97	0x3e1bd4d5	0.15217908
98	0xbe0f217d	-0.13977619
99	0x3e42bd18	0.19017446
100	0x3dc5dbec	0.096610874
101	0xbcff94cd	-0.031198883
102	0x3e3ab408	0.18232739
103	0x3e0edb8d	0.1395094
104	0xbe1db7b6	-0.15402111
105	0x3de15e5b	0.11004325
106	0x3e212a73	0.1573885
107	0x3e1a33e4	0.15058857
108	0x3d477652	0.048696823
109	0x3c83bfa0	0.016082585
110	0x3cf0b974	0.029385306
111	0x3cfcfa27	0.030881
112	0x3e176d69	0.1478783
113	0xbd9bf229	-0.07614548
114	0x3e264ad6	0.16239485
115	0xbe042f0e	-0.12908575
116	0x3d8eff80	0.069823265
117	0x3e4cf0cf	0.20013736
118	0x3d586918	0.0528346
119	0x3e0eb6b6	0.13936886
120	0x3dbcc1f0	0.09216678
121	0x3da3cb2a	0.07997735
122	0x3e297c03	0.16551213
123	0x3cd3d599	0.025858687
124	0xbcdddf9c	-0.027084164
125	0x3db181e2	0.08667351
126	0xbdf2c34d	-0.11853657
127	0x3df8cbf4	0.12148276

weight_ih_l0 f4 [128, 2]
0	0x3d30840a	0.043094672
1	0x3eac9b86	0.33712405
2	0x3d8a1104	0.06741527
3	0x3da058a4	0.07829407
4	0x3d2b6bc2	0.041850813
5	0xbe5fdfbb	-0.2186269
6	0xbc9997fb	-0.018749228
7	0xbd80efa0	-0.06295705
8	0xbd2e9c76	-0.04262968
9	0xbe31a923	-0.17349677
10	0xbe2163cc	-0.15760726
11	0x3e8e0d23	0.27744398
12	0x3c07efdf	0.008296936
13	0xbe4b0893	-0.1982749
14	0x3c3d3f75	0.011550774
15	0xbdc67d22	-0.09691836
16	0xbc86a71c	-0.016437106
17	0xbed8e70e	-0.4236378
18	0x3e070b80	0.1318798
19	0x3efe57b1	0.49676278
20	0xbd1f4138	-0.038880557
21	0xbd86eba8	-0.065879166
22	0x3eadbc2e	0.33932632
23	0x3b104cde	0.0022018473
24	0x3ec02856	0.37530774
25	0x3e8ad653	0.2711664
26	0xbed1cc21	-0.4097605
27	0xbf1a6ca8	-0.60322046
28	0x3e920217	0.2851722
29	0x3e4bfe3e	0.19921204
30	0x3ebaf613	0.36515865
31	0x3ea4ae82	0.3216439
32	0xbd8c0992	-0.06837763
33	0x3c6ddc14	0.014517803
34	0x3ddd68d3	0.10811009
35	0x3ddcf8aa	0.107896164
36	0xbeb61d2f	-0.3556914
37	0xbe09b2ad	-0.13447066
38	0x3f254111	0.6455241
39	0x3f527635	0.8221162
40	0xbe0d0142	-0.13770011
41	0xbf19cf37	-0.6008181
42	0xbe379058	-0.17926157
43	0xbe37d6f1	-0.17953087
44	0xbeab867d	-0.33501044
45	0xbeaa6909	-0.3328326
46	0xbdd3cc87	-0.10341745
47	0x3db079b7	0.08616965
48	0x3de3d04c	0.11123714
49	0xbaf33364	-0.0018554744
50	0xbf1651f9	-0.5871883
51	0xbeefbe37	-0.4682481
52	0x3ea4e215	0.32203737
53	0x3ea4d5a6	0.3219425
54	0xbe0947aa	-0.13406244
55	0x3c16d822	0.0092068035
56	0xbf3c194a	-0.7347609
57	0xbec074f0	-0.37589216
58	0x3d88ea40	0.06685305
59	0xbd7e2169	-0.06204358
60	0x3ef331f4	0.4749905
61	0xbc1dad45	-0.00962383
62	0xbe8ee546	-0.27909297
63	0xbdfc0907	-0.12306409
64	0x3d8173d8	0.063209236
65	0xbd790e1b	-0.060804468
66	0x3f174187	0.5908436
67	0x3ece4ee2	0.40294558
68	0x3d985485	0.07437996
69	0x3d8e39d8	0.069446266
70	0xbebc8b22	-0.368249
71	0xbe433b99	-0.19065703
72	0x3e7456bd	0.23861213
73	0xbe69e39a	-0.2284073
74	0xbd31d152	-0.043412514
75	0xbcdc0291	-0.026856693
76	0xbddd0923	-0.10792758
77	0x3d450d89	0.04810861
78	0x3e79d4ba	0.24397555
79	0x3d8c8c6a	0.06862719
80	0x3e5e0be0	0.21684217
81	0xbc8184ce	-0.015810397
82	0x3efb3114	0.4906088
83	0x3ee0d413	0.439118
84	0x3c735031	0.014850662
85	0xbe81d1f6	-0.253555
86	0xbe9ec27c	-0.31007755
87	0xbdb2c4ab	-0.08728918
88	0x3e8cc921	0.274972
89	0x3f0e9f70	0.5571203
90	0x3cf15339	0.029458629
91	0xbedb9043	-0.428835
92	0x3f469b71	0.77580935
93	0x3ea8107a	0.3282507
94	0x3f06c45d	0.52643377
95	0x3d4dc0fd	0.050232876
96	0xbf2edcac	-0.6830547
97	0xbea7b265	-0.32753292
98	0x3d9181ef	0.07104861
99	0xbcf56c0a	-0.029958744
100	0x3c6fe8c0	0.014642894
101	0x3e2f05ed	0.17092104
102	0xbf000a51	-0.5001574
103	0xbebc3b87	-0.36764166
104	0x3f6e1b40	0.9301033
105	0x3e60fbff	0.21971129
106	0x3f0011ab	0.5002696
107	0x3db925e6	0.09040432
108	0x3e7d78da	0.24753132
109	0xbe1b201b	-0.15148966
110	0xbe880b8b	-0.26571307
111	0xbe0fd681	-0.1404667
112	0xbec10247	-0.3769705
113	0xbdd4f121	-0.10397554
114	0x3db031a2	0.08603217
115	0xbe1033c8	-0.14082253
116	0x3d821185	0.06350998
117	0x3cd80046	0.026367318
118	0xbf097ac3	-0.53702945
119	0x3e65e703	0.22451405
120	0x3e0149ef	0.1262586
121	0xbe8337b0	-0.25628424
122	0x3dccfce6	0.10009174
123	0x3e02af44	0.12762171
124	0xbdaac048	-0.08337456
125	0xbebdf036	-0.3709733
126	0xbe23ba7c	-0.15989107
127	0xbeaa42a3	-0.33253965
128	0x3d5f866c	0.054571554
129	0x3e2998ac	0.16562146
130	0xbe2dc408	-0.16969311
131	0xbea4294a	-0.3206275
132	0xbeaf807a	-0.34277707
133	0x3db6c732	0.08924712
134	0xbec44c1f	-0.38339326
135	0xbc49f6de	-0.012326924
136	0xbe3ecdc6	-0.18633184
137	0xbe286020	-0.16442919
138	0x3e016fef	0.12640356
139	0xbe9ad5ff	-0.3024139
140	0xbdb71686	-0.08939843
141	0xbda17603	-0.07883837
142	0x3e479d83	0.1949368
143	0xbe47ac83	-0.19499402
144	0x3e3bed70	0.18352294
145	0x3d6505cd	0.055913735
146	0xbd01acc2	-0.031658895
147	0x3eb46f17	0.35241005
148	0x3ea12771	0.31475404
149	0x3e9af717	0.3026664
150	0xbe8e15f9	-0.2775114
151	0xbdd8194d	-0.10551701
152	0xbe2ea49c	-0.17054981
153	0xbdd9c2ec	-0.106328815
154	0x3e9997d1	0.2999864
155	0x3e821caa	0.25412494
156	0xbeb74e43	-0.35801896
157	0xbebb53d5	-0.36587396
158	0xbe846d55	-0.25864664
159	0x3e89d5da	0.26920968
160	0xbe11ec27	-0.14250241
161	0x3e4ff5b6	0.20308575
162	0xbe252e7f	-0.16131018
163	0x3e7d63cf	0.24745105
164	0xbe6d20ed	-0.23157091
165	0x3e5e8b65	0.21732862
166	0x3e3c62df	0.18397091
167	0x3d02133e	0.031756632
168	0xbcf0dfbf	-0.029403565
169	0x3d7f1e60	0.062284827
170	0xbeae8189	-0.34083202
171	0x3e0c7183	0.13715176
172	0xbd698fd3	-0.057021927
173	0xbdfdabcb	-0.123862825
174	0x3d38b3b0	0.04509324
175	0x3d1afbf0	0.037837923
176	0x3e0b3ee7	0.13598214
177	0x3eaddca7	0.33957407
178	0x3f4ef6f2	0.8084556
179	0x3e63f3b3	0.22260933
180	0x3dfd5bde	0.12371038
181	0x3e67f161	0.22650672
182	0x3e7e3492	0.24824741
183	0xbebbc609	-0.36674526
184	0xbd0acaa8	-0.033884674
185	0xbd65f71a	-0.056143858
186	0x3e4ad7c4	0.1980887
187	0x3e6086e3	0.21926455
188	0xbe106ddb	-0.14104407
189	0xbc7fc702	-0.015611412
190	0xbeaedbcd	-0.3415207
191	0x3d8392a2	0.06424452
192	0xbe45c46e	-0.19313213
193	0x3e0c7dc9	0.13719858
194	0x3ea7f6a8	0.3280537
195	0x3e3f4fec	0.18682832
196	0x3e1a89f9	0.15091695
197	0xbe413b17	-0.18870197
198	0xbd46935e	-0.048480384
199	0xbe8047ef	-0.2505488
200	0xbb8ace15	-0.0042359927
201	0xbeb4a279	-0.35280207
202	0xbabe269d	-0.0014507357
203	0x3d625637	0.055258002
204	0xbd414b50	-0.047190964
205	0xbeac38f4	-0.33637202
206	0x3b1b3b1a	0.002368635
207	0xbe02c13b	-0.12769024
208	0x3e0d8358	0.13819635
209	0xbc6303ec	-0.0138559155
210	0x3d9f578c	0.0778037
211	0x3e329d43	0.17442803
212	0x3e20b2bf	0.15693186
213	0xbe70ed49	-0.23528017
214	0x3e6262ec	0.22108048
215	0xbe38855b	-0.18019621
216	0x3ee48583	0.4463311
217	0x3e9678d2	0.29389054
218	0xbdff41f3	-0.12463751
219	0xbf0b105e	-0.5432185
220	0x3f1551ba	0.5832783
221	0x3e5e8188	0.217291
222	0xbc676465	-0.014123057
223	0x3ed00082	0.40625387
224	0xbea1196f	-0.31464717
225	0xbe20873f	-0.15676592
226	0x3d22ed34	0.039776996
227	0xbe31bc6b	-0.17357032
228	0xbe16b37a	-0.14716902
229	0xbe63e379	-0.22254743
230	0x3e8b5004	0.27209485
231	0x3e31e494	0.17372352
232	0x3e640648	0.22268021
233	0x3d141eda	0.036162235
234	0xbc3df471	-0.011593924
235	0xbc7d1984	-0.015447978
236	0x3ec22f45	0.3792669
237	0xbe199c74	-0.15001088
238	0xbdb721c5	-0.08941988
239	0xbd620c96	-0.055187784
240	0xbd067aa7	-0.032831814
241	0x3ccf1487	0.025278343
242	0xbe85ef75	-0.26159254
243	0xbeea1066	-0.45715636
244	0x3ec2c4b2	0.38040692
245	0xbda3b0f4	-0.079927355
246	0xbeb9b38e	-0.36269802
247	0x3eb3dc3b	0.3512896
248	0xbea18a54	-0.31550848
249	0xbe8fea68	-0.28108525
250	0xba080637	-0.00051889144
251	0xbe16c16e	-0.14722225
252	0x3e3a8155	0.18213399
253	0xbd47992e	-0.048730068
254	0xbdcf413e	-0.10119866
255	0xbe42ab2a	-0.19010606

weight_hh_l0 f4 [128, 32]
0	0xbe1709e8	-0.14749873
1	0x3d3adae3	0.045618903
2	0xbe6a92a1	-0.22907497
3	0x3c8781fa	0.01654147
4	0x3d2d08ab	0.042244595
5	0x3e47a565	0.19496687
6	0xbd579e92	-0.05264146
7	0xbd3c694c	-0.045998856
8	0xbde4fb91	-0.11180795
9	0x3dc6539d	0.09683917
10	0x3e80e3bc	0.25173748
11	0x3d9281b6	0.07153647
12	0x3d7dc4aa	0.06195513
13	0x3e1bd919	0.15219535
14	0xbd918b32	-0.071066275
15	0x3dbd696e	0.09248625
16	0x3d9d1c09	0.07671363
17	0xbde6d2ed	-0.112707
18	0xbcb18499	-0.021669673
19	0x3dc89297	0.09793585
20	0x3d7f69d3	0.06235678
21	0xbe200ec8	-0.15630639
22	0xbe68ed97	-0.22746883
23	0x3dfdb6a5	0.12388352
24	0xbdf2520e	-0.11832057
25	0x3e8a21ab	0.26978812
26	0xbe202f9c	-0.15643162
27	0x3df7521a	0.120762065
28	0x3d4e99ec	0.05043976
29	0xbe5be0df	-0.214725
30	0xbb995055	-0.004678766
31	0x3d8646ab	0.065564476
32	0xbdca03c6	-0.09864001
33	0x3c7aa00b	0.015296946
34	0x3e89b931	0.26899102
35	0xbe0922b4	-0.13392144
36	0x3d9e3c07	0.07726293
37	0x3e3fa8ad	0.18716688
38	0xbdefc852	-0.1170813
39	0xbd38975d	-0.045066226
40	0xbdf7c9fa	-0.12099071
41	0x3dbad546	0.0912271
42	0xbd173aba	-0.03692124
43	0xbe893b2c	-0.26802957
44	0x3e37d430	0.17952037
45	0xbc983eb4	-0.018584587
46	0x3d8139a0	0.06309819
47	0xbc235668	-0.009969331
48	0x3d02dffb	0.031951886
49	0xbc66965a	-0.014073933
50	0xbc730919	-0.014833712
51	0x3dacb88e	0.084336385
52	0x3e914a1e	0.2837686
53	0xbe93beaa	-0.28856403
54	0x3d573afe	0.052546494
55	0x3e747196	0.23871455
56	0x3cfc5562	0.030802432
57	0xbd1f5ce2	-0.03890694
58	0x3dc77cb1	0.0974058
59	0xbddd4e93	-0.108060025
60	0x3d5b2549	0.053502355
61	0x3dac17b9	0.08402962
62	0x3d8a075e	0.067396864
63	0xbdeb6084	-0.11493018
64	0xbe217852	-0.15768555
65	0x3de95489	0.11393077
66	0x3d86ced8	0.06582421
67	0xbe0fcfe2	-0.14044145
68	0xbd6b3a7b	-0.05742882
69	0x3d765f81	0.060149673
70	0xbda5d17e	-0.08096598
71	0x3cb84104	0.02249194
72	0xbe25a74c	-0.161771
73	0xbe4d216a	-0.20032278
74	0xbca3e2f0	-0.020005673
75	0xbe0c2330	-0.13685298
76	0xbc11109f	-0.00885406
77	0x3e5e433d	0.21705337
78	0x3d6c3fa1	0.05767787
79	0xbe6753e8	-0.22590601
80	0xbc823014	-0.015892066
81	0xbcaefdf4	-0.021361329
82	0xbe806fc8	-0.25085282
83	0xbe6a96a8	-0.22909033
84	0xbcb16eb3	-0.02165923
85	0xbe15232f	-0.14564203
86	0xbe3f5481	-0.1868458
87	0x3e8717f7	0.2638547
88	0xbe06cefc	-0.13164896
89	0x3d26b085	0.040695686
90	0xbda0b077	-0.07846158
91	0xbdb3ecfa	-0.08785434
92	0xbc31d16c	-0.010853153
93	0x3d8f28f9	0.06990237
94	0x3e12ffeb	0.14355437
95	0xbe77af08	-0.24187863
96	0x3dd40486	0.10352425
97	0x3d0bbe5a	0.03411708
98	0x3d86af3b	0.06576391
99	0xbdd925c3	-0.106029056
100	0x3d1b4f34	0.03791733
101	0x3e465c3d	0.19371124
102	0x3e690e5f	0.22759388
103	0x3e12b4d6	0.14326796
104	0x3e171b1a	0.14756432
105	0x3e318d27	0.17339002
106	0x3dcc489b	0.09974786
107	0xbdad9d67	-0.08477288
108	0xbd584fe3	-0.05281056
109	0x3acf78c1	0.0015828834
110	0xbd40dadd	-0.047083724
111	0xbebe3979	-0.37153223
112	0xbe72842b	-0.2368323
113	0xbde8d965	-0.1136959
114	0xbe0c3ec3	-0.13695817
115	0xbe354b29	-0.17704453
116	0xbc65e334	-0.01403122
117	0x3d08e57a	0.03342197
118	0xbd691f25	-0.056914467
119	0x3d0426bc	0.032263502
120	0xbd890129	-0.066896744
121	0x3e6c7ab2	0.2309368
122	0xbda97235	-0.082737364
123	0xbd6a58d7	-0.05721363
124	0x3ea38f2c	0.3194517
125	0xbbccdfd6	-0.0062522693
126	0x3e65d6c9	0.22445215
127	0xbe8966d8	-0.26836276
128	0xbdaed40e	-0.0853654
129	0x3e4c4524	0.1994825
130	0xbd0afcaa	-0.033932365
131	0x3cfc6a44	0.03081239
132	0x3e19476f	0.14968656
133	0x3ea42fa5	0.320676
134	0x3dfeb4da	0.124368384
135	0xbca11fce	-0.019668486
136	0xbcb8bb5f	-0.022550283
137	0x3d89b3f6	0.06723778
138	0xbd704b24	-0.05866541
139	0xbd9896fe	-0.074506745
140	0xbbe7af7e	-0.007070481
141	0x3ddf1fe9	0.10894758
142	0x3e11d7e3	0.1424251
143	0xbe2aa8be	-0.16665933
144	0xbe6e88c9	-0.23294367
145	0xbcaa8858	-0.020816967
146	0xbd82b3dc	-0.06381962
147	0xbdaf806f	-0.08569419
148	0x3e4366a8	0.19082129
149	0x3d7400d7	0.059571113
150	0x3d62e329	0.055392418
151	0xbce41fb2	-0.027847145
152	0xbe4cb901	-0.19992448
153	0x3d8d166c	0.06889042
154	0xbe21312c	-0.15741414
155	0x3b4140f7	0.0029488185
156	0x3d3e6f26	0.04649272
157	0x3de94af4	0.11391249
158	0x3e297a5d	0.16550584
159	0xbe04acd1	-0.12956549
160	0xbe24e15d	-0.16101594
161	0x3d6f8bb3	0.058482837
162	0xbe0c79ff	-0.13718413
163	0xbe78f5dd	-0.2431254
164	0x3d3768a3	0.044777524
165	0x3e9a7bb2	0.30172497
166	0xbe2d9223	-0.16950278
167	0x3e98daf6	0.29854554
168	0xbd601c23	-0.054714333
169	0xbe8f0fc1	-0.27941707
170	0x3d7d6f2b	0.061873596
171	0x3d9c23f3	0.07624044
172	0x3d04b412	0.03239829
173	0xbd64c457	-0.055851307
174	0x3e34327f	0.17597388
175	0xbdc183d6	-0.09448974
176	0xbe32d699	-0.17464675
177	0x3d5bbe45	0.053648252
178	0xbe36407a	-0.17798033
179	0xbc3e7dc9	-0.011626669
180	0x3b7ff6ae	0.0039056945
181	0xbe2958ba	-0.16537753
182	0xbeab7465	-0.3348724
183	0x3e3be43a	0.1834878
184	0x3d020e32	0.03175182
185	0x3e822ff4	0.2542721
186	0x3df36182	0.118838325
187	0xbe22465d	-0.15847154
188	0x3e101105	0.14068992
189	0xbe891ab9	-0.267782
190	0x3eb84824	0.3599254
191	0xbe336dca	-0.1752235
192	0x3e0559b8	0.13022506
193	0x3d9744c7	0.07386165
194	0xbd333484	-0.043751255
195	0xbdd20931	-0.10255659
196	0x3e80ab54	0.25130713
197	0xbd8042eb	-0.062627636
198	0xbe6d6c26	-0.23185787
199	0x3e696418	0.22792089
200	0xbe5114cc	-0.2041809
201	0x3e95ce47	0.2925894
202	0x3db60473	0.08887567
203	0x3d52ecfc	0.051495537
204	0x3d76a0f1	0.06021208
205	0x3e568d5f	0.20952366
206	0xbde9eeb6	-0.114224836
207	0xbe9c6da7	-0.30552408
208	0xbdc0ef34	-0.094206244
209	0xbe41e397	-0.18934475
210	0x3dad4590	0.084605336
211	0xbdee8d1b	-0.116480075
212	0x3e55b001	0.20867921
213	0x3d7ebbb5	0.06219073
214	0xbe412c9d	-0.18864675
215	0x3e7be94d	0.24600716
216	0xbd0435f2	-0.03227801
217	0x3e1650e2	0.14679292
218	0xbe1a256f	-0.15053342
219	0x3d9f47b7	0.077773504
220	0x3d3432f7	0.043993916
221	0xbe708214	-0.23487121
222	0xbd318c7c	-0.043346867
223	0xbe0030d9	-0.12518634
224	0xba395da0	-0.0007071141
225	0x3e97fbf1	0.29684404
226	0x3cfff616	0.031245273
227	0xb9e382d8	-0.000433943
228	0x3e223cf8	0.1584357
229	0xbc391cf8	-0.011298411
230	0x3d25af6d	0.040450502
231	0x3e192e8c	0.14959162
232	0xbe09baa0	-0.13450098
233	0xbe80713a	-0.25086385
234	0xbdabcb10	-0.083883405
235	0x3e1f795f	0.15573643
236	0x3e200888	0.15628254
237	0xbe39932f	-0.18122552
238	0x3e2b11b7	0.16705976
239	0xbe618857	-0.22024666
240	0x3d305ed6	0.043059193
241	0xbdd0a95f	-0.10188555
242	0xbe9db084	-0.30798733
243	0x3b03b9cf	0.0020099764
244	0x3dc1d896	0.094651386
245	0xbdf7e5ab	-0.121043526
246	0xbe660503	-0.2246285
247	0xbd75896a	-0.0599455
248	0xbc6b0163	-0.014343592
249	0xbd8f46ca	-0.06995924
250	0x3d3f8c5c	0.046764717
251	0x3de96644	0.11396459
252	0xbd5aa585	-0.053380508
253	0x3d226599	0.039647672
254	0x3e495032	0.19659498
255	0xbd890f68	-0.06692392

bias_ih_l0 f4 [128]
0	0x3c344a23	0.011004004
1	0xbd4c00ce	-0.049805455
2	0x3e15e2e8	0.14637339
3	0x3e149fa3	0.14514022
4	0x3cbe661f	0.023242055
5	0x3e4a8e49	0.1978084
6	0x3e5e6381	0.21717645
7	0xbd3024e9	-0.04300395
8	0x3d484035	0.048889358
9	0x3e2937d3	0.16525201
10	0xbd8fa125	-0.07013158
11	0xbdfe7e3c	-0.12426421
12	0x3df59d28	0.11992866
13	0x3ea95935	0.33075872
14	0xbdfbf122	-0.12301852
15	0x3ec29b02	0.38008887
16	0x3d873b3e	0.066030964
17	0x3e130f87	0.14361392
18	0x3e6df92c	0.23239583
19	0x3d5c8e6c	0.05384676
20	0x3e66ff48	0.2255832
21	0xbcd3ed2a	-0.025869925
22	0xbdc34bd6	-0.09535949
23	0x3da2b339	0.0794434
24	0xbc973ce3	-0.01846165
25	0x3d1e8d78	0.038709134
26	0x3db921ae	0.09039627
27	0x3da5d907	0.08098035
28	0x3e1b6486	0.15175065
29	0x3e34494b	0.17606084
30	0x3e550e72	0.20806292
31	0x3d760fea	0.06007377
32	0x3e89b1da	0.26893502
33	0xbd1af45f	-0.037830707
34	0xbd498aec	-0.04920475
35	0xbd8cdfb9	-0.06878609
36	0xbcc58681	-0.024111988
37	0x3e00e5a4	0.12587601
38	0x3cbe038c	0.02319505
39	0x3e6f0ab6	0.2334393
40	0x3e513c46	0.20433149
41	0x3eb542cc	0.35402524
42	0x3e36efac	0.17864865
43	0x3e384a83	0.17997174
44	0xbc74fa52	-0.014952259
45	0x3ec0e47a	0.37674314
46	0x3da320a0	0.07965207
47	0x3e8defef	0.27722117
48	0xbdbd9c71	-0.092583545
49	0x3e5fe7c0	0.2186575
50	0x3e3abe46	0.18236646
51	0x3e86e201	0.26344302
52	0x3e1f6b4d	0.15568276
53	0x3dce0be8	0.10060865
54	0xbd44d54a	-0.04805497
55	0x3df8d1cc	0.121493906
56	0x3d9258d6	0.0714585
57	0x3e23d2b7	0.1599835
58	0x3dbd84cf	0.09253847
59	0x3e95014f	0.2910256
60	0xbdc1c56a	-0.09461482
61	0x3db8b58c	0.09019002
62	0x3ceb6a1c	0.02873712
63	0x3d812d01	0.06307412
64	0xbdb2ee2e	-0.087368354
65	0x3d51b550	0.051198304
66	0x3d8afe70	0.06786811
67	0xbe52aacb	-0.20572965
68	0x3c10ea8f	0.008844986
69	0x3d941a79	0.07231612
70	0x3e214ba9	0.15751518
71	0x3dcf824f	0.10132276
72	0x3de9b5b3	0.114116095
73	0xbd965835	-0.07341043
74	0x3e318df9	0.17339315
75	0x3d2e7ce9	0.042599592
76	0x3d52db72	0.05147881
77	0x3cdc79ba	0.026913512
78	0x3df1098b	0.11769398
79	0xbda2a792	-0.07942118
80	0xbe151fd2	-0.1456292
81	0xbdc72b3c	-0.09725043
82	0x3e265e42	0.16246894
83	0xbd9d30c5	-0.07675318
84	0x3d5f6463	0.054539096
85	0xbe23057c	-0.15920061
86	0xbd9dae74	-0.0769929
87	0x3e3194e9	0.17341961
88	0xbdc620dc	-0.09674236
89	0xbd53f480	-0.051746845
90	0x3dfcab6b	0.12337383
91	0xbd19f02c	-0.03758256
92	0x3c66263d	0.014047203
93	0xbda357a6	-0.07975702
94	0xbd1effd5	-0.0388182
95	0x3da86bec	0.082237095
96	0xbbf2f026	-0.007413882
97	0x3e694cb0	0.2278316
98	0x3e60afd5	0.21942075
99	0x3e30eba9	0.17277397
100	0x3e077d7c	0.13231462
101	0x3e789681	0.24276163
102	0x3e629699	0.22127761
103	0x3daa7aac	0.08324179
104	0x3cfa306d	0.03054067
105	0x3e8e8175	0.27833143
106	0x3e0aef2f	0.13567804
107	0xbe0516eb	-0.12997024
108	0xbc5a8e3b	-0.013339574
109	0x3ef9543a	0.48697072
110	0x3da02ff5	0.07821647
111	0x3ea16b89	0.31527355
112	0x3db3f5db	0.087871276
113	0xbdc77a6d	-0.09740148
114	0x3e055bb0	0.13023257
115	0x3e2e888d	0.17044277
116	0x3d225753	0.03963406
117	0x3e106a43	0.14103036
118	0x3c0a7f94	0.008453269
119	0x3d800c3e	0.06252335
120	0x3e6be99f	0.23038338
121	0x3e039c17	0.12852512
122	0x3e6e75cc	0.23287123
123	0xbc5b18fb	-0.013372655
124	0xbdcc1435	-0.09964792
125	0x3d16f266	0.036852263
126	0x3e1eacb9	0.15495576
127	0x3d1d1c86	0.03835728

bias_hh_l0 f4 [128]
0	0x3e75cdfb	0.24004357
1	0x3e56b713	0.20968275
2	0x3d9ccc03	0.076561
3	0xbcc2e4fd	-0.02379083
4	0x3df02ea1	0.11727644
5	0x3e922ba2	0.28548914
6	0xbcf13073	-0.029442048
7	0x3d7a2fb7	0.06108066
8	0x3e02a0d8	0.1275667
9	0x3e73148d	0.23738308
10	0x3e0a29f4	0.13492566
11	0x3dad090f	0.084489934
12	0x3df6b913	0.12047019
13	0x3eae1a46	0.3400442
14	0x3dd9a1c9	0.10626561
15	0x3edcc17d	0.4311637
16	0x3c757f8c	0.014984023
17	0x3d8413fd	0.06449125
18	0x3e1190b8	0.14215362
19	0x3c11932d	0.008885187
20	0x3e6c2ef6	0.23064789
21	0x3dab23e9	0.08356459
22	0x3e4bcd1d	0.19902463
23	0x3bc382dc	0.0059665274
24	0xbe007858	-0.12545907
25	0xbd36104c	-0.044449136
26	0x3d5fcc1f	0.054638024
27	0xbc78f2ad	-0.015194577
28	0x3e35daf8	0.17759311
29	0x3e4d1380	0.2002697
30	0x3d89b952	0.067248
31	0x3db65d2a	0.089044884
32	0x3e09f5ef	0.13472722
33	0x3e3b9460	0.1831832
34	0x3d9906ce	0.07472001
35	0x3d11e7e4	0.03562154
36	0xbc60756d	-0.0136998715
37	0xbd27e4fa	-0.040989853
38	0xbdcc9e85	-0.09991173
39	0xbd678d0d	-0.056531
40	0xbd6ac063	-0.05731238
41	0x3e3389ab	0.17532985
42	0x3dc74e0c	0.09731683
43	0x3d97ff12	0.07421698
44	0x3e04b3d4	0.12959224
45	0x3ec79889	0.38983563
46	0xbd9d4512	-0.0767919
47	0x3e502ca6	0.20329532
48	0xbccdc2f9	-0.025117384
49	0xbd29bc2f	-0.04143923
50	0x3d190a30	0.03736323
51	0x3d9c2dca	0.07625921
52	0x3e17a4b8	0.14808929
53	0x3cc2653e	0.023729917
54	0x3dc635a5	0.09678201
55	0xbcd5a633	-0.026080227
56	0x3dc463d3	0.095893525
57	0x3e51ce17	0.20488773
58	0x3b55f664	0.003264808
59	0x3d939953	0.07206979
60	0x3dd4a6d9	0.10383386
61	0xbdd110a8	-0.10208255
62	0xbdb9f527	-0.09079962
63	0x3e75c987	0.24002658
64	0x3dbc4092	0.09192003
65	0x3d8d9972	0.06914033
66	0xbdf77d4b	-0.120844446
67	0xbe30b145	-0.17255123
68	0x3da8a274	0.082341105
69	0xbe040a76	-0.12894616
70	0xbd3f37e8	-0.046684176
71	0x3dce2323	0.100652955
72	0xbe16220e	-0.14661428
73	0x3e18d4c3	0.14924912
74	0x3dc95941	0.09831477
75	0x3e1986dc	0.14992851
76	0x3c4e9b46	0.012610262
77	0x3dcc618c	0.09979543
78	0x3dc223cd	0.09479485
79	0x3ce00f06	0.027350914
80	0xbd685c53	-0.056728672
81	0x3d976643	0.07392552
82	0xbdf74375	-0.12073413
83	0x3cae738c	0.021295331
84	0x3dcfe1e0	0.10150504
85	0xbdf0aa3f	-0.11751222
86	0x3d5f9b82	0.054591663
87	0x3ddf6bf1	0.1090926
88	0xbd057bd7	-0.032588806
89	0x3e2ee381	0.17078973
90	0xbda587b3	-0.08082523
91	0xbcafaf0a	-0.02144577
92	0xbe09e8aa	-0.1346766
93	0xbdf282ff	-0.11841392
94	0x3e3ead9c	0.18620914
95	0xbdc753e1	-0.097327955
96	0x3e839187	0.25696966
97	0x3e50b1e7	0.20380364
98	0x3df35b0d	0.11882601
99	0xbdbf93c3	-0.09354355
100	0xbd2762ea	-0.040865816
101	0x3e830cdc	0.25595748
102	0x3e15e114	0.14636642
103	0x3e20bbdf	0.15696667
104	0x3d96c2f2	0.073614016
105	0x3e950561	0.29105666
106	0x3da5b338	0.08090824
107	0xbddfa3db	-0.10919925
108	0xbbb2dcd3	-0.005458453
109	0x3eb137c8	0.3461287
110	0x3e136a29	0.14395966
111	0x3ed5af80	0.41735458
112	0x3e71a095	0.23596413
113	0xbd1fcf4e	-0.03901606
114	0xbdbbd7ef	-0.091720454
115	0x3e1f7877	0.15573297
116	0x3cb80be0	0.0224666
117	0xbd491de5	-0.049100775
118	0x3e046b92	0.1293166
119	0x3eb2d7c8	0.34930253
120	0x3dd7b15c	0.105318755
121	0x3e823b3d	0.2543582
122	0x3cadb871	0.021206113
123	0x3e3027a9	0.17202629
124	0x3e3416e8	0.17586863
125	0x3dd514b9	0.10404343
126	0x3da36227	0.079777054
127	0x3dd314f4	0.10306731

weight_ih_l0_reverse f4 [128, 2]
0	0x3da36ca5	0.07979707
1	0xbe0f9308	-0.14020932
2	0x3e420a94	0.18949348
3	0x3e967a16	0.2939002
4	0xbdc63047	-0.09677177
5	0xbd860a0f	-0.06544887
6	0x3e32a539	0.1744584
7	0xbdf18dbc	-0.11794612
8	0xbbea3e11	-0.007148512
9	0x3e4ce5a3	0.20009474
10	0xbe10fe88	-0.14159596
11	0xbe767eb3	-0.2407177
12	0xbab888f3	-0.00140789
13	0x3ecc71bd	0.39930525
14	0xbd8221ac	-0.06354079
15	0xbe89e0bf	-0.2692928
16	0xbc53784f	-0.012907102
17	0xbe620cda	-0.22075215
18	0xbe38d90f	-0.18051551
19	0x3e1c47cc	0.15261763
20	0xbe8b62ab	-0.27223715
21	0x3e3b8792	0.18313435
22	0x3dfe4c8e	0.124169454
23	0xbdc2d9fb	-0.09514233
24	0xbe873627	-0.26408502
25	0x3ed3d7f9	0.41375712
26	0xbe566edb	-0.20940726
27	0xbe8b78fe	-0.27240747
28	0x3ded3cf9	0.11583895
29	0x3d60fbeb	0.054927748
30	0xbddf7ba8	-0.109122574
31	0x3dd3031b	0.10303327
32	0xbdfe7d2b	-0.12426218
33	0x3de5b5c9	0.112163134
34	0xbdde25b9	-0.10847039
35	0xbd9135cc	-0.07090339
36	0xbec13faa	-0.37743884
37	0x3ce829a0	0.02834016
38	0x3d93244a	0.07184656
39	0x3e2105c4	0.15724856
40	0xbd73e619	-0.05954561
41	0x3f1ce546	0.61287344
42	0xbe4d621d	-0.20056958
43	0xbcbbf563	-0.022944158
44	0xbe4e3d69	-0.20140614
45	0x3e018b76	0.12650856
46	0x3e4eb823	0.2018743
47	0x3d278a6e	0.0409035
48	0xbdab0aed	-0.08351693
49	0xbbd95681	-0.0066326265
50	0xbe092be7	-0.13395654
51	0xbdd59792	-0.104293
52	0x3d86c315	0.06580178
53	0x3bb0c696	0.005394767
54	0xbe067aa7	-0.13132726
55	0x3d2efa8b	0.042719405
56	0xbe0a8291	-0.1352637
57	0x3e632c16	0.22184786
58	0x3c9039d2	0.017605696
59	0xbc57db5e	-0.01317486
60	0x3e33c530	0.1755569
61	0xbe697824	-0.22799736
62	0xbe1afa36	-0.1513451
63	0xbe22ce75	-0.1589907
64	0xbd7d8b22	-0.061900266
65	0x3d9bd8b4	0.07609692
66	0x3e6980c9	0.22803034
67	0x3db83cb7	0.089959554
68	0xbdd6ad86	-0.10482316
69	0xbbb466dd	-0.0055054263
70	0x3c866708	0.016406551
71	0xbe4268ee	-0.1898534
72	0xbc5e5376	-0.013569703
73	0x3e40a22d	0.18811865
74	0x3e051beb	0.12998931
75	0xbd56aef7	-0.052412953
76	0xbe5a8822	-0.21340993
77	0x3ec4503e	0.3834247
78	0x3c2d76f0	0.010587439
79	0xbda0ca56	-0.078510925
80	0x3d9d53a8	0.07681972
81	0xbdb25501	-0.087076195
82	0xbd4d2ccd	-0.050091553
83	0xbdc4548c	-0.095864385
84	0x3d44990a	0.047997512
85	0xbd88819f	-0.06665348
86	0x3e11c8b7	0.14236723
87	0xbdc30cd0	-0.09523928
88	0xbe960b0a	-0.29305297
89	0x3f256300	0.64604187
90	0xbd74a32e	-0.059725933
91	0xbe7fc42e	-0.2497718
92	0x3d28c4f3	0.04120345
93	0xbdb61ade	-0.08891843
94	0xbe35c677	-0.1775149
95	0xbcb17d30	-0.02166614
96	0x3d69582e	0.05696886
97	0x3d369363	0.044574153
98	0xbe0567dc	-0.130279
99	0x3c022e42	0.007945599
100	0xbedc93d8	-0.43081546
101	0x3b9958ed	0.00467979
102	0xbd991c33	-0.07476082
103	0x3da7d7c2	0.081954494
104	0x3cddcfdb	0.027076652
105	0x3f14e4f8	0.5816188
106	0xbd9001b2	-0.07031573
107	0xbdc3b4e3	-0.09555986
108	0x3d45e2e5	0.048312087
109	0xbe3add3c	-0.18248457
110	0xbe238c5c	-0.15971512
111	0xbd0489b2	-0.03235788
112	0x3d255353	0.040362667
113	0xbe61c2aa	-0.22046915
114	0x3d608d1f	0.054822084
115	0xbe7a5dbf	-0.24449824
116	0x3e0c453a	0.13698283
117	0xbda78f99	-0.08181686
118	0x3d4756c8	0.048666745
119	0xbe80e3e8	-0.2517388
120	0xbe4a7977	-0.19772898
121	0x3ec030bf	0.3753719
122	0x3e637dc4	0.22215945
123	0xbd08a330	-0.033358753
124	0x3e77839a	0.24171296
125	0xbe2c6ba8	-0.16837943
126	0xbd099cb3	-0.033596706
127	0xbe844c72	-0.25839573
128	0xbe18ae44	-0.14910227
129	0xbe390f68	-0.18072283
130	0x3e644b04	0.22294241
131	0x3e97693b	0.29572472
132	0x3db1e2e6	0.086858556
133	0xbe1cc013	-0.15307645
134	0xbe2b538e	-0.16731092
135	0xbe438f0e	-0.1909754
136	0x3d046c0e	0.03232961
137	0x3ea1a42c	0.31570566
138	0xbc6e9eee	-0.014564259
139	0x3e718055	0.23584111
140	0x3de235c8	0.11045414
141	0xbe78de49	-0.24303545
142	0xbe43c78b	-0.19119088
143	0x3e77e297	0.24207531
144	0xbe5e3658	-0.21700418
145	0xbbd5946d	-0.006517938
146	0xbdf89748	-0.121382296
147	0x3e82ae6c	0.25523698
148	0x3e8e8ac0	0.27840233
149	0xbe3bbe4e	-0.18334314
150	0x3ea6c74f	0.32573935
151	0xbe13b6c8	-0.14425194
152	0x3e90de3c	0.2829455
153	0xbe4983f7	-0.19679247
154	0x3eaf2241	0.3420582
155	0xbd1348d7	-0.035958137
156	0xbe70e2d2	-0.23524025
157	0xbd00875d	-0.031379092
158	0xbc1508c0	-0.009096324
159	0x3e70ae7a	0.23504058
160	0x3d5711e5	0.0525073
161	0x3e14d067	0.14532624
162	0xbc39ff0a	-0.01135231
163	0x3eb34cfb	0.3501967
164	0x3e49df32	0.19714049
165	0xbd5790ba	-0.052628256
166	0xbea69d67	-0.32541963
167	0xbe4563eb	-0.19276397
168	0xbe5d9102	-0.21637347
169	0xbe679d90	-0.22618699
170	0x3e90293a	0.28156453
171	0xbe276fdd	-0.16351266
172	0xbe940ccf	-0.28916022
173	0x3e3e9927	0.1861311
174	0x3e1472dd	0.14496942
175	0x3e81a4bb	0.25320992
176	0xbda9fbbf	-0.0829997
177	0x3e8158f2	0.25263172
178	0x3e9730ac	0.2952932
179	0x3caa30c9	0.020775216
180	0xbe80eec0	-0.25182152
181	0x3e07843a	0.13234034
182	0x3e2bec92	0.16789463
183	0xbe98e540	-0.29862404
184	0xbefd8670	-0.4951663
185	0x3e8290eb	0.2550119
186	0x3e1fffcf	0.15624927
187	0x3e08f4df	0.13374661
188	0x3e6e7a24	0.2328878
189	0xbe860624	-0.2617656
190	0x3e826913	0.2547079
191	0x3d9e8a66	0.07741241
192	0x3e4fed6e	0.20305416
193	0xbd91487f	-0.07093906
194	0x3e624d44	0.22099787
195	0x3e705b14	0.23472244
196	0x3ce44004	0.027862556
197	0xbe3edba7	-0.18638478
198	0xbd435a73	-0.04769368
199	0xbe4bccb8	-0.19902313
200	0xbdbe8642	-0.093029514
201	0x3e9747bf	0.29546925
202	0xbe37ab0e	-0.17936346
203	0xbe464ffe	-0.19366452
204	0xbe81e608	-0.25370812
205	0x3e9a513b	0.301401
206	0x3dbf09e0	0.093280554
207	0xbe791cfe	-0.24327466
208	0xbd8db9d0	-0.069202065
209	0xbe00b442	-0.12568763
210	0xbd5e19f9	-0.05422399
211	0xbe07180e	-0.1319277
212	0x3d97cab5	0.0741171
213	0xbe0ea2b9	-0.13929261
214	0x3e24149c	0.16023487
215	0xbe355960	-0.17709875
216	0xbcf077b9	-0.029353963
217	0x3ed2f80a	0.41204864
218	0xbd1f941f	-0.03895962
219	0xbe19ed72	-0.15031984
220	0x3e4d4381	0.20045282
221	0xbd611927	-0.054955628
222	0xbd9aba13	-0.07555022
223	0xbe25ac6e	-0.16179058
224	0x3e2218be	0.15829751
225	0x3e03d313	0.12873487
226	0xbb0c9bf2	-0.0021455255
227	0xbe288614	-0.16457397
228	0xbeeff13a	-0.4686373
229	0x3c248f86	0.010043984
230	0xbe669e45	-0.22521313
231	0x3dde7ee8	0.10864049
232	0xbd399076	-0.045303784
233	0x3ec3cf31	0.38244012
234	0xbdda8ad8	-0.106710136
235	0x3d833a07	0.06407552
236	0xbe02d610	-0.12776971
237	0xbe2a373e	-0.16622636
238	0xbd3d344a	-0.046192445
239	0xbd131a8a	-0.03591398
240	0x3de82170	0.11334503
241	0x3d5f212e	0.054475002
242	0x3e39e5e3	0.18154101
243	0xbe52a602	-0.2057114
244	0xbe24e3a8	-0.16102469
245	0x3d8c98c4	0.06865075
246	0x3de3b57c	0.111186
247	0x3dbb5c3c	0.09148452
248	0x3e216a0a	0.15763107
249	0x3b3bf00c	0.0028677015
250	0x3d47e83f	0.04880547
251	0xbe86fca2	-0.2636462
252	0x3d96a567	0.07355767
253	0xbe0f9606	-0.14022073
254	0xbe5012c7	-0.20319663
255	0xbe3b722d	-0.18305273
