sgan-dataset/logs/zara1/models_03_Mar_2019_13_48_21/model_registrar-1399.pt (torch_old, 575433 bytes, 45 tensors)

weight_ih_l0 f4 [128, 6]
0	0xbe1655b4	-0.1468113
1	0xbcc8eeaf	-0.024527876
2	0xbe0d309a	-0.13788071
3	0x3c9399bc	0.018017642
4	0xbbe39765	-0.006945538
5	0x3e25f5a5	0.16206987
6	0xbeb0ea42	-0.34553725
7	0xbea6e453	-0.32596073
8	0xbe8758f8	-0.26435065
9	0xbeabc0c1	-0.33545497
10	0x3e9376c8	0.2880156
11	0xbe26dd4f	-0.1629536
12	0xbe1f6c0c	-0.1556856
13	0xbe07d149	-0.1326343
14	0xbddd3a26	-0.108021066
15	0xbd8354a7	-0.064126305
16	0xbeca9706	-0.39568347
17	0x3ea02f30	0.31286
18	0xbe0de2b2	-0.13856009
19	0x3c36d907	0.011160142
20	0x3e73b120	0.23798037
21	0xbe978af4	-0.295982
22	0xbda78741	-0.081800945
23	0x3ebfd19d	0.3746461
24	0xbd950d63	-0.07277944
25	0x3d79c75c	0.06098114
26	0xbe6b606e	-0.22986004
27	0x3e4a0cb6	0.19731411
28	0x3e033004	0.12811285
29	0xbe38889e	-0.18020865
30	0x3e2c01ed	0.1679761
31	0x3db1f29a	0.08688851
32	0x3dce8ec9	0.10085828
33	0x3cdb8278	0.02679561
34	0x3df9d176	0.12198155
35	0xbd3afc92	-0.045651026
36	0xbe3173aa	-0.17329279
37	0xbd95b46c	-0.07309803
38	0xbe625254	-0.22101718
39	0xbb77112d	-0.0037699447
40	0x3de9c87c	0.114151925
41	0xbd8929bf	-0.066974156
42	0x3caaa9ec	0.020832978
43	0x3e51c78c	0.20486277
44	0xbe4e19b6	-0.20126995
45	0x3da65489	0.081215926
46	0xbea2a3b3	-0.31765518
47	0x3c612bbe	0.013743339
48	0x3e248066	0.16064605
49	0x3df2c6bb	0.11854311
50	0x3db21404	0.08695224
51	0x3d491747	0.049094465
52	0xbd5b3aa0	-0.053522706
53	0x3d4fbb67	0.05071583
54	0xbe213555	-0.15743001
55	0xbe7d9883	-0.2476521
56	0xbd943f16	-0.07238595
57	0x3e993c2d	0.29928723
58	0xbd254cc5	-0.040356416
59	0xbe782873	-0.2423418
60	0x3cc8c3f0	0.024507493
61	0x3e2f8576	0.17140755
62	0xbebf8ba7	-0.37411234
63	0xbe5997d4	-0.21249324
64	0xbcc59e76	-0.024123412
65	0x3cd86593	0.026415622
66	0xbd57bd46	-0.05267074
67	0xbbd9450d	-0.006630546
68	0xbdd8c694	-0.10584751
69	0x3d04e320	0.032443166
70	0x3e2532ac	0.16132611
71	0x3e1f0b0b	0.15531556
72	0xbe459c3b	-0.19297878
73	0xbe442330	-0.19154048
74	0x3d975bcc	0.07390556
75	0x3d12bfd8	0.035827488
76	0xbb3e2104	-0.0029011378
77	0xbdefcc54	-0.11708894
78	0xbd6313f7	-0.05543896
79	0x3dc57b79	0.09642691
80	0x3e4f422e	0.2024009
81	0xbdbcbb35	-0.092153944
82	0xbe12abe4	-0.14323384
83	0x3d4d8667	0.050177004
84	0xbdff1076	-0.124543115
85	0xbda72192	-0.081607
86	0xbe61899b	-0.22025149
87	0x3e45292b	0.19253986
88	0x3e118983	0.14212613
89	0x3e48d892	0.19613865
90	0xbdc99b26	-0.09844045
91	0x3e36765b	0.17818587
92	0x3e06125e	0.13092944
93	0x3eef2b3c	0.46712673
94	0xbbcc6d48	-0.0062386133
95	0xbcf47c58	-0.029844448
96	0x3df537db	0.11973544
97	0x3da0b8bd	0.07847736
98	0xbc5c4f55	-0.013446649
99	0x3db47039	0.08810467
100	0x3e14f42f	0.14546274
101	0xbde511b1	-0.11185015
102	0xbd8e07e8	-0.06935102
103	0xbe43da7f	-0.19126318
104	0x3dd794e1	0.10526443
105	0xbd8e87b1	-0.06959475
106	0xba8d2672	-0.0010768904
107	0x3ecbf2da	0.3983372
108	0x3d8e5ff4	0.06951895
109	0xbd0c8e5a	-0.034315445
110	0x3e17b184	0.1481381
111	0xbcc92e48	-0.024558201
112	0x3d756543	0.059911024
113	0xbdeaa939	-0.11458058
114	0xbc94d842	-0.018169526
115	0x3d132e77	0.035932984
116	0xbe92727f	-0.2860298
117	0x3db132f3	0.08652296
118	0x3e2ce8b0	0.16885638
119	0x3e8011f9	0.25013712
120	0xbd8c6336	-0.068548605
121	0x3d899292	0.06717409
122	0x3ec2073f	0.37896153
123	0xbe27c35c	-0.16383117
124	0x3e0ba9f3	0.13639049
125	0xbd0cea2b	-0.034403007
126	0xbdfb6d4d	-0.12276707
127	0xbd8456ec	-0.064618915
128	0x3c8a0061	0.016845884
129	0x3e40ccae	0.18828079
130	0xbeae0b9d	-0.33993235
131	0x3ecf35b1	0.4047065
132	0xbc5d6d98	-0.013514899
133	0xbe05c7f0	-0.13064551
134	0xbdfcff86	-0.12353425
135	0xbda61ab7	-0.08110564
136	0x3e1c143b	0.15242092
137	0x3d94839b	0.07251664
138	0xbd292012	-0.04129035
139	0xbdce6b5a	-0.100790694
140	0xbe08e84b	-0.13369863
141	0xbd6192ef	-0.055071767
142	0x3db9c933	0.09071579
143	0x3e404aa1	0.18778469
144	0xbd078508	-0.033085853
145	0xbe0e788d	-0.13913174
146	0xbe705a6f	-0.23471998
147	0xbe11cd8c	-0.14238566
148	0xbdf807f8	-0.12110895
149	0xbd1aaa5e	-0.03776013
150	0xbe343e12	-0.17601803
151	0xbdeb416e	-0.11487089
152	0x3de7a65b	0.11311027
153	0x3e393d4b	0.18089788
154	0x3a85e448	0.0010215128
155	0x3eab058b	0.33402666
156	0xbe137b1d	-0.14402433
157	0x3b04f6e5	0.0020288762
158	0x3d8a5956	0.06755321
159	0x3d9ebec5	0.0775123
160	0x3d5a88bc	0.053353056
161	0x3eb48271	0.3525577
162	0xbe4d8db5	-0.20073588
163	0x3d84d990	0.06486809
164	0x3ed2957a	0.41129667
165	0x3e139964	0.14413983
166	0x3d345d78	0.04403445
167	0x3eaa6277	0.33278248
168	0x3df082ea	0.1174372
169	0x3e05ab32	0.13053587
170	0xbcee9c56	-0.029127281
171	0xbdab6097	-0.083680324
172	0x3cf92ad0	0.030415922
173	0x3d395144	0.045243517
174	0xbe310af4	-0.17289335
175	0xbe127689	-0.1430303
176	0xbe67a8fe	-0.22623059
177	0xbcab06dd	-0.020877296
178	0x3b72c47f	0.003704339
179	0x395fbc79	0.00021337149
180	0xbc1520e4	-0.00910208
181	0x3d1c1e60	0.038114905
182	0x3d1dcc88	0.038525134
183	0xbeaaa6c0	-0.33330345
184	0xbe7d5697	-0.24740063
185	0xbe371945	-0.17880733
186	0xbd9b5932	-0.07585372
187	0x3dc61f3d	0.09673927
188	0x3db87a4a	0.090077
189	0xbe623f9f	-0.22094582
190	0xbd961ba8	-0.07329494
191	0xbe44da53	-0.19223909
192	0xbc2d4b54	-0.010577042
193	0x3de67c1d	0.112541415
194	0xbe4af66c	-0.19820565
195	0xbddbce77	-0.107327394
196	0x3e5c58d2	0.21518257
197	0xbcbaeca1	-0.022817912
198	0xbd18b4b3	-0.037281703
199	0xbdaabe9d	-0.08337138
200	0xbe296862	-0.16543725
201	0xbe631f44	-0.22179896
202	0x3eb476da	0.35246927
203	0x3d0bfcc3	0.0341766
204	0xbe0cf9f6	-0.13767228
205	0xbcaa1308	-0.020761028
206	0xbd817779	-0.06321616
207	0xbd594ff1	-0.053054754
208	0xbc9a1087	-0.018806709
209	0x3e2f35e3	0.171104
210	0xbdfdc303	-0.12390711
211	0xbd42d6d0	-0.047568142
212	0x3e03f624	0.12886864
213	0xbea97ab0	-0.33101416
214	0x3b9b8d8a	0.0047470974
215	0x3b7473b9	0.0037300421
216	0x3dbba51c	0.091623515
217	0xbdbb4d0f	-0.09145557
218	0xbdf26b8b	-0.118369184
219	0x3dae50fb	0.085115395
220	0xbe269c75	-0.16270621
221	0xbe028f93	-0.12750082
222	0x3daaa447	0.08332115
223	0xbd4d8058	-0.050171226
224	0x3ddd788d	0.10814009
225	0xbe45c4b0	-0.19313312
226	0xbde2eba3	-0.110801004
227	0xbe1c60fa	-0.15271369
228	0x3d73460d	0.059392978
229	0xbc631da8	-0.013862051
230	0xbdc567af	-0.09638917
231	0xbd2bd5fa	-0.04195211
232	0xbdcf61db	-0.10126086
233	0x3d801ba2	0.062552705
234	0x3d0dcd3a	0.034619547
235	0xbdb0773a	-0.08616491
236	0xbde7b223	-0.11313274
237	0x3d3b1b61	0.045680407
238	0xbe5c5c43	-0.2151957
239	0x3d95d24c	0.073155016
240	0x3dca090b	0.09865006
241	0xbcb8d237	-0.022561176
242	0xbdca5c93	-0.098809384
243	0xbd0a40ba	-0.033753134
244	0x3d69e305	0.05710127
245	0x3e1c6fad	0.15276976
246	0xbe4b3c5f	-0.19847248
247	0xbdd8a8c0	-0.105790615
248	0x3e291187	0.16510592
249	0x3e1cb57f	0.1530361
250	0x3dea7a39	0.11449093
251	0xbcaa2ff9	-0.020774828
252	0x3e0a5c08	0.1351167
253	0xbdf9b2c1	-0.12192298
254	0xbe73cb8e	-0.23808119
255	0xbd510fbe	-0.051040404

weight_hh_l0 f4 [128, 32]
0	0xbdaa796a	-0.08323939
1	0xbdc760f0	-0.09735286
2	0xbca0cba1	-0.019628348
3	0x3e3afe4d	0.1826107
4	0xbd2ef869	-0.04271737
5	0xbaf65001	-0.0018792154
6	0xbe46235b	-0.19349425
7	0xbce80f06	-0.028327476
8	0x3dfa9ebc	0.122373074
9	0x3db9909a	0.09060784
10	0x3c9f95a1	0.019480528
11	0x3e337ec1	0.17528822
12	0xbc6fb130	-0.014629647
13	0x3e191587	0.14949618
14	0x3e00ae32	0.1256645
15	0x3e6412b3	0.22272758
16	0x3df5d9ca	0.120044306
17	0xbe025bba	-0.12730303
18	0x3d9bf3d8	0.07614869
19	0xbe1d3b21	-0.15354587
20	0xbdc098d3	-0.09404149
21	0xbe0328d8	-0.1280855
22	0xbdc0d82b	-0.09416231
23	0xbe02af4e	-0.12762186
24	0x3e1b51a6	0.15167865
25	0xbdc57852	-0.0964209
26	0x3ddc9460	0.10770488
27	0x3e26646a	0.16249242
28	0x3da414f8	0.08011812
29	0x3dd6a275	0.10480205
30	0x3cf86368	0.030320838
31	0xbe267825	-0.16256769
32	0x3e6fa013	0.23400907
33	0xbe126b6f	-0.14298795
34	0x3e774b8e	0.24149916
35	0x3e1cb9ef	0.15305303
36	0xbd2f8ce9	-0.04285899
37	0x3e8751b4	0.26429522
38	0xbe0844e1	-0.13307525
39	0xbe63ec1a	-0.22258034
40	0x3e0b6f1e	0.13616607
41	0xbe590794	-0.21194297
42	0xbd7c0a0b	-0.061533015
43	0xbdd29ef4	-0.10284224
44	0xbe8b159f	-0.27164933
45	0x3dc0de00	0.09417343
46	0x3e50e6db	0.20400564
47	0x3e7263b9	0.23670854
48	0x3e0cf78d	0.13766308
49	0x3dfdb366	0.12387733
50	0xbdaa7de3	-0.08324792
51	0xbd9d876c	-0.07691845
52	0x3dd1a8fb	0.102373086
53	0x3cb0baea	0.021573503
54	0xbe220384	-0.15821654
55	0xbc93baeb	-0.018033465
56	0xbdb9c422	-0.090706125
57	0xbdf77fd6	-0.1208493
58	0xbea44571	-0.3208423
59	0xbc781e42	-0.015143933
60	0xbe0f3bd9	-0.13987674
61	0xbce6bfbd	-0.0281676
62	0x3d19ad0c	0.037518546
63	0xbd8318fe	-0.06401251
64	0x3dea0fea	0.114288166
65	0xbe0547a4	-0.1301561
66	0xbd88cd4f	-0.066797845
67	0x3ddcf67f	0.10789203
68	0x3ce9fc52	0.028562699
69	0x3d96ab77	0.07356923
70	0xbe3b5ada	-0.18296376
71	0xbe2f6b56	-0.17130789
72	0xbd16a17d	-0.0367751
73	0x3da76085	0.081727065
74	0xbe037451	-0.1283734
75	0x3dcd82db	0.10034724
76	0xbe02aa44	-0.12760264
77	0xbdebcf65	-0.11514167
78	0x3e03bed2	0.12865761
79	0xbdfe2dba	-0.124110654
80	0x3d978cb9	0.073998876
81	0xbd648cbe	-0.055798285
82	0x3e10d963	0.14145426
83	0xbe3d49a8	-0.18485129
84	0x3dc080e6	0.093995854
85	0x3e82453d	0.2544345
86	0x3d2ae89c	0.04172574
87	0x3e181a40	0.14853764
88	0x3dc68ecb	0.09695204
89	0x3d8bdd03	0.06829264
90	0x3dbbb36a	0.0916508
91	0x3e247920	0.1606183
92	0x3e064aef	0.13114522
93	0x3d8c36ed	0.06846414
94	0xbdce5a4d	-0.10075817
95	0x3dc6c0da	0.09704752
96	0x3c078281	0.008270861
97	0xba544ac2	-0.0008098298
98	0x3dbf13ba	0.093299344
99	0x3d872b7c	0.06600091
100	0xbe3c89a3	-0.18411879
101	0xbd5e8878	-0.054329365
102	0xbdaf48ad	-0.08558784
103	0x3d89ee95	0.06734959
104	0xbdf00d05	-0.11721233
105	0xbdd1b149	-0.102388926
106	0x3ca681f1	0.020325633
107	0xbe15bcea	-0.14622846
108	0xbe718183	-0.23584561
109	0xbd906302	-0.07050134
110	0xbe20e022	-0.157105
111	0xbd429f34	-0.04751511
112	0xbcd5c885	-0.026096592
113	0x3e93bb5c	0.2885388
114	0xbda38329	-0.07984001
115	0xbddfe883	-0.1093302
116	0xbd555664	-0.05208434
117	0x3e1e85fb	0.15480797
118	0x3db62944	0.088945895
119	0xbdcaf906	-0.09910779
120	0xbe1ffb53	-0.15623216
121	0x3cb9947f	0.022653816
122	0xbe7a5f08	-0.24450314
123	0x3e43bb4c	0.19114417
124	0xbe2357af	-0.15951417
125	0xbbc5972d	-0.0060299844
126	0x3e2635c2	0.16231444
127	0x3dc48cae	0.09597145
128	0xbe2bdc3f	-0.16783236
129	0xbd526143	-0.051362287
130	0x3e11d274	0.14240438
131	0xbdd8e260	-0.105900526
132	0x3e11cad0	0.14237523
133	0xbe0f6560	-0.14003515
134	0xbd1bfbcc	-0.03808193
135	0x3e023d41	0.12718679
136	0xbe27be6b	-0.16381232
137	0xbe2c63a2	-0.16834882
138	0xbd2dfc56	-0.042476974
139	0xbe0d35a8	-0.1379
140	0x3c9bf844	0.01903928
141	0x3da7f5ce	0.082011804
142	0x3dd3c59c	0.10340425
143	0xbe1e2a34	-0.15445787
144	0xbd07b941	-0.033135656
145	0xbe3a3bba	-0.18186846
146	0xbe054f91	-0.13018633
147	0x3db124bf	0.08649587
148	0x3d22d92a	0.039757885
149	0x3dea5f4a	0.11443956
150	0x3d951df0	0.07281101
151	0xbdf2e21e	-0.11859535
152	0x3d7a479d	0.061103452
153	0xbdf8d848	-0.121506274
154	0xbe1abf3d	-0.15112014
155	0xbe42300a	-0.18963638
156	0x3e3ff0ca	0.18744197
157	0xbd88d881	-0.0668192
158	0x3dff8705	0.12476925
159	0xbe0009fc	-0.12503809
160	0x3e175b06	0.14780816
161	0xbe10cbed	-0.14140292
162	0x3d103784	0.035209194
163	0xbe4a7997	-0.19772945
164	0xbd7f80fe	-0.062378876
165	0xbd810a27	-0.063007645
166	0xbb1530a2	-0.0022764583
167	0xbd85caf1	-0.065328486
168	0xbd51abf7	-0.05118939
169	0x3b1d0ccd	0.0023963929
170	0x3dfd30ef	0.12362849
171	0xbe304633	-0.17214279
172	0xbe1ca6bc	-0.15297979
173	0x3d80055a	0.06251021
174	0xbd1a6d25	-0.037701745
175	0xbcecdb7e	-0.028913256
176	0xbc5c6a28	-0.013453044
177	0x3e24ce04	0.16094214
178	0xbe3efb77	-0.18650614
179	0x3e0bcb3d	0.13651748
180	0x3da228b9	0.079179235
181	0xbb07f4dc	-0.0020745313
182	0xbcfcacca	-0.030844111
183	0xbd59204f	-0.053009328
184	0xbd6f6ac3	-0.058451425
185	0xbdcfa3d7	-0.10138672
186	0x3e103692	0.14083317
187	0x3e50cfed	0.20391817
188	0x3d5c9710	0.053855002
189	0x3dbe474a	0.09290941
190	0x3e12fc0d	0.14353962
191	0x3daa01a6	0.08301096
192	0x3e3d3612	0.18477657
193	0x3d049e62	0.032377608
194	0xbe1491d2	-0.14508751
195	0x3e54a88c	0.2076742
196	0xbb985786	-0.0046491055
197	0xbd72c5b2	-0.05927057
198	0x3cb5890e	0.02216008
199	0xbe13ae29	-0.14421906
200	0xbd91d355	-0.071203865
201	0xbcbb8b05	-0.022893438
202	0xbd00b7d8	-0.031425327
203	0xbdee7fe5	-0.11645488
204	0xbd0c1ee6	-0.034209155
205	0x3e36626d	0.17810984
206	0xbc1036e3	-0.0088021485
207	0x3d89e647	0.06733375
208	0x3c5a5685	0.013326292
209	0xbdc806b3	-0.09766903
210	0x3c95570a	0.01822998
211	0xbe1619d1	-0.14658286
212	0x3dda0933	0.10646286
213	0x3e7c8a99	0.24662246
214	0x3e24d460	0.1609664
215	0xbcf0149c	-0.029306702
216	0xbe430de8	-0.19048274
217	0x3bff6987	0.0077945623
218	0x3dc7f6fe	0.09763907
219	0x3d524b12	0.051341124
220	0xbe3a9a1f	-0.18222855
221	0x3e16317d	0.14667316
222	0xbe10b283	-0.14130597
223	0x3d6b3b20	0.057429433
224	0x3e55c6ee	0.20876667
225	0x3a948e2c	0.0011333874
226	0xbd7e1e1b	-0.06204043
227	0x3e2a3c06	0.1662446
228	0xbd3247fe	-0.04352569
229	0x3d836e2d	0.06417499
230	0x3d4c7f1a	0.0499259
231	0x3c360346	0.011109179
232	0xbc72b9a9	-0.014814773
233	0xbe29cb88	-0.16581547
234	0xbd5644a7	-0.052311566
235	0xbe2acce6	-0.16679725
236	0x3e758d24	0.23979622
237	0xbdd4a400	-0.10382843
238	0x3dc9cf40	0.09853983
239	0x3d3f46b9	0.046698306
240	0x3e1273c4	0.14301974
241	0xbe10709d	-0.14105459
242	0xbe05ba4b	-0.13059346
243	0xbb7bd50a	-0.0038426542
244	0xbe398ecc	-0.18120879
245	0xbde6b1f4	-0.112644106
246	0xbd7b4556	-0.06134542
247	0xbe380202	-0.17969516
248	0x3da7d43e	0.08194779
249	0x3e1c999c	0.15292972
250	0x3d36cfff	0.044631954
251	0xbc83f010	-0.016105682
252	0x3e2002b5	0.15626033
253	0x3e532c4f	0.20622371
254	0xbc8851a8	-0.0166405
255	0x3db795e9	0.0896414

bias_ih_l0 f4 [128]
0	0xbd9557e2	-0.07292153
1	0x3c4657ed	0.012105924
2	0xbccea149	-0.025223391
3	0xbdaddc91	-0.08489335
4	0xbe238e9e	-0.15972373
5	0x3e0bc0b2	0.13647726
6	0xbd57951f	-0.052632447
7	0xbe448b32	-0.19193724
8	0x3cb370a8	0.021904305
9	0x3cfe805d	0.031067068
10	0x3e1fe5e3	0.15615039
11	0x3e0eeb9a	0.13957062
12	0x3d80cbb6	0.06288855
13	0xbe1df3c8	-0.15425026
14	0x3d8f7ab3	0.07005825
15	0xbe268fe6	-0.1626583
16	0x3c136c4f	0.008997991
17	0x3e1b197a	0.15146437
18	0xbd09324b	-0.03349523
19	0x3dfcfe8b	0.12353238
20	0x3c79eecc	0.0152546875
21	0x3cf6f775	0.030147294
22	0xbd454cc7	-0.048168924
23	0xbd38d1fc	-0.04512213
24	0x3dfd3557	0.123636894
25	0x3d91499d	0.07094119
26	0xbd26a5a0	-0.040685296
27	0x3dbc8a06	0.092060134
28	0xbcdefc3f	-0.02721989
29	0xbde07117	-0.1095907
30	0xbe4a82c8	-0.19776452
31	0xbd83ba81	-0.06432057
32	0x3e4d99c8	0.20078194
33	0x3c2e8b05	0.010653262
34	0xbe231bd5	-0.15928586
35	0x3e0ea418	0.13929784
36	0xbe219a1b	-0.15781443
37	0xbdaafca2	-0.08348967
38	0xbe1a913a	-0.15094462
39	0xbd024c6e	-0.03181117
40	0xbe0822c6	-0.13294515
41	0x3dd7b02b	0.10531648
42	0xbd4fd2d1	-0.05073816
43	0x3d0f01ca	0.034913816
44	0xbd42eb09	-0.04758743
45	0x3e301960	0.1719718
46	0xbd0ce7d4	-0.034400776
47	0xbdeaa341	-0.114569195
48	0x3ddc40ec	0.1075457
49	0x3de35a7e	0.111012444
50	0xbd9c865e	-0.07642816
51	0x3da3f01b	0.08004781
52	0xbe1cbbca	-0.15306011
53	0x3ddafe18	0.10692996
54	0x3dcd1ecc	0.1001564
55	0x3dc1a366	0.09454994
56	0x3d9b5ce7	0.07586079
57	0x3e118afc	0.14213175
58	0x3df69b57	0.120413475
59	0x3e280d99	0.16411437
60	0xbcd1f20f	-0.025628118
61	0xbe17524b	-0.14777486
62	0xbe453577	-0.19258676
63	0xbe2fa762	-0.17153695
64	0x3dd8aa4c	0.105793566
65	0x3e02f4b4	0.1278866
66	0xbd4415e6	-0.047872446
67	0x3d774080	0.060364246
68	0xbd601fa4	-0.054717675
69	0x3c167c5c	0.009184923
70	0x3dd9d049	0.1063543
71	0xbd485e65	-0.048918147
72	0x3c5b9689	0.01340259
73	0x3dc17381	0.09445859
74	0xbdf5a255	-0.11993853
75	0x3d1db5ac	0.038503334
76	0xbe112d4b	-0.14177434
77	0xbd8401ec	-0.06445679
78	0xbd71f072	-0.059067197
79	0xbe5142a9	-0.20435585
80	0xbdf3c68f	-0.119031064
81	0xbe0981f5	-0.13428481
82	0x3e120641	0.14260198
83	0xbd1043d3	-0.035220932
84	0x3b6d3054	0.0036192136
85	0x3deae3ff	0.11469268
86	0x3dc43038	0.095795095
87	0xbe0b6d57	-0.13615929
88	0x3e1e9e69	0.15490116
89	0xbdfd7835	-0.12376443
90	0x3e01c886	0.1267415
91	0xbe24f8fb	-0.16110604
92	0xbe04cb09	-0.12968077
93	0x3e020aed	0.1269948
94	0x3b3ca881	0.002878696
95	0xbdc1a7c3	-0.09455826
96	0x3dfdc6a1	0.12391401
97	0x3cb1bd86	0.021696817
98	0x3c6da229	0.014503994
99	0xbd125dc9	-0.03573397
100	0xbac9062a	-0.001533692
101	0x3d835d9e	0.064143404
102	0xbc907b08	-0.01763679
103	0xbe308b16	-0.17240557
104	0xbdce696e	-0.10078703
105	0x3db6ad66	0.08919792
106	0xbda9f06c	-0.0829781
107	0x3d93db52	0.072195664
108	0x3d0ee54c	0.034886643
109	0xbe365be5	-0.17808492
110	0x3ddcb2ab	0.10776266
111	0x3cb3b2b2	0.021935795
112	0x3e044b02	0.12919238
113	0x3d770755	0.060309727
114	0x3d77c8d5	0.060494263
115	0xbbb9ca6e	-0.0056698835
116	0x3dd9b22b	0.10629686
117	0x3c2dcdde	0.010608165
118	0xbdcc6608	-0.099803984
119	0x3bb00d90	0.0053727105
120	0xbdc582e1	-0.09644104
121	0x3dd5d48a	0.10440929
122	0x3de73a0f	0.11290371
123	0x3ccdaf86	0.02510811
124	0x3dcafe8b	0.099118315
125	0x3dbf46d5	0.09339682
126	0xbe1388de	-0.1440768
127	0xbda3f191	-0.080050595

bias_hh_l0 f4 [128]
0	0xbdf00ca0	-0.11721158
1	0x3cce8ca1	0.025213541
2	0xbe22d482	-0.15901378
3	0x3d9cdb1c	0.07658979
4	0xbc82a510	-0.015947849
5	0xbddc00b3	-0.10742321
6	0xbe1dfc21	-0.15428211
7	0xbc6b7b13	-0.014372605
8	0x3ddb38f8	0.10704225
9	0x3e48aa83	0.19596295
10	0xbdcd6c00	-0.10030365
11	0x3c718b53	0.01474269
12	0xbe339d7b	-0.17540543
13	0x3e0f6110	0.1400187
14	0x3de28da2	0.110621706
15	0xbb12a580	-0.0022376478
16	0xbd9fae0b	-0.07796868
17	0x3e137b2b	0.14402454
18	0xbe044947	-0.12918578
19	0x3da25070	0.079254985
20	0x3e26d7a5	0.162932
21	0x3e57ecd5	0.21086438
22	0xbca0eaee	-0.019643273
23	0x3c9d166e	0.019175734
24	0x3ccf3dcf	0.025298027
25	0x3d649bba	0.055812575
26	0x3d06a206	0.03286936
27	0x39faa9a8	0.0004781012
28	0xbddeeaa9	-0.108846016
29	0xbdf39381	-0.118933685
30	0xbe0352c4	-0.12824541
31	0xbc677f48	-0.014129467
32	0x3de56c58	0.112023056
33	0x3d167fda	0.036743023
34	0x3da091e2	0.07840325
35	0xbd88e6a0	-0.06684613
36	0x3e1a2a05	0.15055092
37	0x3da28440	0.07935381
38	0xbc23e054	-0.010002214
39	0xbe34e04a	-0.17663684
40	0xbd76013d	-0.060059775
41	0x3d491713	0.04909427
42	0xbd024469	-0.031803522
43	0xbcd73eed	-0.026275123
44	0xbd4e507f	-0.050369736
45	0xbbf49b02	-0.0074647674
46	0x3d928af7	0.07155412
47	0xbd8401fa	-0.064456895
48	0xbcbe7bca	-0.023252387
49	0x3d307d9f	0.04308855
50	0xbd44ea88	-0.04807523
51	0xbdcf55dd	-0.10123799
52	0xbc15f526	-0.009152686
53	0xbd64d3fc	-0.055866227
54	0xbdfbb81c	-0.122909755
55	0x3d8851d4	0.066562325
56	0xbe02c95b	-0.12772124
57	0xbe2a7e22	-0.16649678
58	0xbe085192	-0.13312367
59	0x3dd3ceb5	0.103421606
60	0xbd5c90f7	-0.053849187
61	0x3db06af4	0.0861415
62	0xbd77d0c8	-0.060501844
63	0x3e04f87e	0.12985417
64	0xbe35b982	-0.17746547
65	0xbe104489	-0.14088644
66	0x3dfa4781	0.122206695
67	0x3b9b19b6	0.0047332896
68	0x3e4eca34	0.20194322
69	0x3d2a023b	0.041506033
70	0xbda367fc	-0.07978818
71	0xbb04df54	-0.0020274715
72	0x3e1e5f5f	0.15466069
73	0x3a5c45aa	0.0008402715
74	0x3c0157ef	0.0078945
75	0x3d648b37	0.055796828
76	0x3d1f7ea9	0.038939152
77	0x3b0242f8	0.0019876342
78	0xbe0c0df7	-0.13677202
79	0xbd6df772	-0.05809731
80	0xbcd5ba2c	-0.02608975
81	0x3ddd6661	0.10810543
82	0x3d8b5d44	0.068048984
83	0xbe25afa8	-0.16180289
84	0xbe1d094d	-0.15335579
85	0x3d5e2a6a	0.054239668
86	0xbe1758df	-0.14779995
87	0x3de53567	0.11191826
88	0xbdab3434	-0.08359566
89	0xbc94784b	-0.018123766
90	0x3e04d250	0.12970853
91	0xbd3d7a67	-0.04625931
92	0xbdf2208a	-0.118226126
93	0xbe1b4a03	-0.15164952
94	0xbcb1861f	-0.0216704
95	0x3c1a9fe3	0.009437534
96	0x3c1165a3	0.00887433
97	0x3e1fc459	0.15602244
98	0xbe10fe91	-0.1415961
99	0x3e442d4d	0.19157906
100	0x3dc6d217	0.0970804
101	0xbd04fc24	-0.032467023
102	0x3e394908	0.18094265
103	0x3e0d8123	0.13818793
104	0xbe1e80cf	-0.15478824
105	0x3de4738d	0.11154852
106	0x3e2216c3	0.15828995
107	0x3e18aa6c	0.14908761
108	0x3d40b587	0.047048118
109	0x3c7759bf	0.015097081
110	0x3ce23c90	0.02761677
111	0x3cf41e74	0.029799677
112	0x3e173ab2	0.14768484
113	0xbd9ca27e	-0.076481804
114	0x3e29907a	0.1655902
115	0xbe04425e	-0.12915942
116	0x3d8e04bb	0.06934496
117	0x3e4e8b2a	0.20170274
118	0x3d54e060	0.051971793
119	0x3e0d45f0	0.1379621
120	0x3dbb299a	0.09138794
121	0x3da3f54c	0.08005771
122	0x3e28c617	0.16481815
123	0x3d0040a3	0.031311642
124	0xbcf793cf	-0.030221848
125	0x3db3ed49	0.08785493
126	0xbdefbc4e	-0.11705838
127	0x3df72b15	0.12068764

weight_ih_l0 f4 [128, 2]
0	0x3d58edc8	0.05296114
1	0x3eb2000d	0.34765664
2	0x3de4f76e	0.11180006
3	0x3dd094e4	0.10184649
4	0x3c2ff816	0.010740301
5	0xbe5c6333	-0.21522216
6	0xbcdf9924	-0.027294703
7	0xbd860d76	-0.06545536
8	0xbce7b092	-0.028282437
9	0xbe0efd45	-0.13963802
10	0xbe27c5da	-0.16384068
11	0x3ea18e5d	0.31553927
12	0x3c6f04a4	0.014588509
13	0xbe9324a7	-0.287389
14	0x3c239464	0.00998411
15	0xbd8c60fc	-0.06854436
16	0xbb203acb	-0.0024449106
17	0xbed9e6db	-0.4255894
18	0x3e1bf053	0.15228395
19	0x3f064b1a	0.52458346
20	0xbd84c04d	-0.06481991
21	0xbdffbf78	-0.12487692
22	0x3ec19fcc	0.37817228
23	0xbbe0e9a8	-0.0068637915
24	0x3ee291ff	0.4425201
25	0x3e98ff26	0.29882163
26	0xbeeea339	-0.46608904
27	0xbf312678	-0.69199324
28	0x3ec17207	0.37782308
29	0x3e726268	0.23670352
30	0x3ee8db28	0.45479703
31	0x3eb17a3c	0.3466357
32	0xbda25278	-0.07925886
33	0x3c57c50a	0.013169536
34	0x3dd7c67f	0.10535907
35	0x3e0747b1	0.13210942
36	0xbec88e6e	-0.39171165
37	0xbe287c97	-0.16453777
38	0x3f3a148f	0.7268762
39	0x3f7339e2	0.950102
40	0xbe238095	-0.15967019
41	0xbf27976d	-0.6546543
42	0xbe4aa940	-0.19791126
43	0xbe5e4c0d	-0.21708699
44	0xbebc9b1d	-0.36837092
45	0xbecdfb68	-0.4023087
46	0xbd882fcd	-0.06649742
47	0x3dd6fd62	0.10497548
48	0x3e10e24b	0.14148824
49	0x3d2184aa	0.03943316
50	0xbf27f8e3	-0.65614146
51	0xbf02f926	-0.5116142
52	0x3eb8f4a7	0.36124155
53	0x3eb4162d	0.3517317
54	0xbdd59ecf	-0.10430681
55	0x3c240edc	0.010013308
56	0xbf419839	-0.756229
57	0xbed62cce	-0.41831058
58	0x3da7c352	0.08191551
59	0xbd820bad	-0.06349883
60	0x3f05b6f6	0.522323
61	0x3c90dc0b	0.01768305
62	0xbe8db96d	-0.2768053
63	0xbdded813	-0.10881057
64	0x3dfa6264	0.12225798
65	0xbd679e4d	-0.05654745
66	0x3f2306ed	0.6368244
67	0x3eeb6c65	0.45981136
68	0x3d0e5eb6	0.034758292
69	0x3da2a5e4	0.079417974
70	0xbecd154c	-0.4005531
71	0xbe603b76	-0.21897683
72	0x3e7af380	0.2450695
73	0xbe53af9b	-0.20672457
74	0xbd303414	-0.043018416
75	0xbc115e8d	-0.00887264
76	0xbdaa130d	-0.08304415
77	0x3db68026	0.08911161
78	0x3e8de184	0.27711117
79	0x3db8d6e4	0.09025362
80	0x3e768d2c	0.2407729
81	0x3d0b0f8c	0.033950374
82	0x3f02db9e	0.5111636
83	0x3ef44fde	0.47717184
84	0x3c29b625	0.010358368
85	0xbe8eb869	-0.2787507
86	0xbea4a942	-0.32160383
87	0xbd78e976	-0.06076952
88	0x3e97f696	0.29680318
89	0x3f1248f7	0.57142586
90	0x3c8a1ba9	0.016858893
91	0xbef9e714	-0.4880911
92	0x3f519436	0.81866777
93	0x3ea8c5d2	0.32963425
94	0x3f182151	0.59425837
95	0x3d53ac58	0.05167803
96	0xbf4122de	-0.7544383
97	0xbea84ed7	-0.3287265
98	0x3dd2bebb	0.10290285
99	0x3c86ae68	0.016440585
100	0x3d0ea3d2	0.0348242
101	0x3e4b8582	0.19875148
102	0xbf063ad1	-0.52433497
103	0xbecd971b	-0.40154347
104	0x3f802bdd	1.0013386
105	0x3e7a7ef4	0.24462491
106	0x3f0c4dfc	0.54806495
107	0x3e323d20	0.1740613
108	0x3e8d738d	0.2762722
109	0xbe1d3d03	-0.15355305
110	0xbeab71a7	-0.33485147
111	0xbe1b6ba7	-0.15177785
112	0xbec46879	-0.38360956
113	0xbda09ab0	-0.07842004
114	0x3d9123cd	0.070869066
115	0xbe135b01	-0.14390184
116	0x3d9a951e	0.07547973
117	0x3d3271d9	0.043565605
118	0xbf0ee7bd	-0.55822355
119	0x3e88e0d9	0.26734045
120	0x3e1676db	0.14693777
121	0xbe78c509	-0.24293913
122	0x3deaec5b	0.114708625
123	0x3e32ca48	0.17459977
124	0xbdcf1a36	-0.10112421
125	0xbebe1e40	-0.37132454
126	0xbe069b47	-0.13145171
127	0xbeb37245	-0.35048118
128	0x3ca44680	0.020053148
129	0x3e099713	0.13436536
130	0xbe31b815	-0.17355378
131	0xbea7b253	-0.32753238
132	0xbeade529	-0.33963898
133	0x3d9b1587	0.075724654
134	0xbed46d10	-0.41489458
135	0xbca1733c	-0.019708268
136	0xbe6874c6	-0.22700796
137	0xbe0b0404	-0.1357575
138	0x3e0cdb63	0.13755564
139	0xbe8e3e68	-0.27781987
140	0xbdcec3a8	-0.10095912
141	0xbdf92725	-0.12165669
142	0x3e6ce6c8	0.23134911
143	0xbe3bce1f	-0.18340348
144	0x3e38081a	0.1797184
145	0x3d4f712e	0.050645046
146	0xbd128623	-0.035772454
147	0x3eae7a1c	0.34077537
148	0x3ea453fd	0.32095328
149	0x3ea17fae	0.31542724
150	0xbe9ae551	-0.3025308
151	0xbdb2c7a6	-0.08729486
152	0xbe238f5a	-0.15972653
153	0xbdbd0d2d	-0.09231029
154	0x3e98963f	0.2980213
155	0x3e7f88dd	0.24954553
156	0xbec0187f	-0.3751869
157	0xbebd8959	-0.3701885
158	0xbe7820f5	-0.24231322
159	0x3e8a9f37	0.27074596
160	0xbe19fd59	-0.1503805
161	0x3e50aa72	0.2037752
162	0xbe302442	-0.17201331
163	0x3e765ad6	0.24058089
164	0xbe877333	-0.26455078
165	0x3e526a79	0.20548429
166	0x3e3850a5	0.17999513
167	0xb7160d7a	-8.9438345e-06
168	0xbc2e9510	-0.010655656
169	0x3da418a4	0.08012512
170	0xbebf2e90	-0.37340212
171	0x3df6e0e6	0.12054615
172	0xbd842ee7	-0.064542584
173	0xbe0b8c58	-0.13627756
174	0xbc519d0a	-0.012793789
175	0x3ca863d4	0.020555414
176	0x3e02505e	0.1272597
177	0x3ebc59ab	0.3678716
178	0x3f620852	0.88293946
179	0x3e801c1b	0.25021443
180	0x3e0e848e	0.13917753
181	0x3e555d0c	0.20836276
182	0x3e7e2b14	0.2482112
183	0xbeb3ea90	-0.35139894
184	0xbdbe5281	-0.0929308
185	0xbdb1721f	-0.08664345
186	0x3e515355	0.20441945
187	0x3e36758b	0.17818277
188	0xbe23216f	-0.15930723
189	0x3cb4f58e	0.022089746
190	0xbeb232fa	-0.34804517
191	0x3d9387c2	0.07203628
192	0xbe3e8342	-0.18604758
193	0x3e12aaac	0.14322919
194	0x3ec1f3e8	0.37881398
195	0x3e5875ce	0.21138689
196	0x3e0639fc	0.13108057
197	0xbe460a85	-0.1933995
198	0xbd8fa2cb	-0.07013472
199	0xbe8bb651	-0.27287534
200	0xbb41bcd6	-0.0029562018
201	0xbeaf9305	-0.34291855
202	0xbb1b69a9	-0.0023714101
203	0x3d9d790c	0.076891035
204	0xbd00cc52	-0.031444855
205	0xbeb3935d	-0.35073367
206	0x3c5a3d1b	0.013320233
207	0xbde61655	-0.11234728
208	0x3e2868af	0.16446184
209	0x3b459653	0.0030149415
210	0x3db059f6	0.08610909
211	0x3e77a2c4	0.24183184
212	0x3e1698d5	0.14706738
213	0xbe948bda	-0.29012948
214	0x3e7d064a	0.2470943
215	0xbe316938	-0.17325294
216	0x3ee52137	0.44751903
217	0x3e90b3fe	0.28262323
218	0xbe32a260	-0.17444754
219	0xbf226a7d	-0.6344374
220	0x3f28d3eb	0.6594836
221	0x3e6a180c	0.22860736
222	0x3c6a626f	0.014305695
223	0x3edf6878	0.4363439
224	0xbeb36493	-0.3503767
225	0xbe23202a	-0.15930238
226	0x3d5969db	0.053079467
227	0xbe11d1f6	-0.1424025
228	0xbe15f72a	-0.14645067
229	0xbe5fa641	-0.21840765
230	0x3e9cc73a	0.30620748
231	0x3e40f648	0.18843949
232	0x3e603c52	0.2189801
233	0x3d3acaf8	0.045603722
234	0xbc82122e	-0.01587781
235	0x3bd06346	0.0063594906
236	0x3ecd05a7	0.40043375
237	0xbe28779f	-0.16451882
238	0xbd3b40c7	-0.045716073
239	0xbd38a3b8	-0.04507801
240	0xbd094fa3	-0.033523213
241	0x3da9a94a	0.082842425
242	0xbe98a481	-0.29813007
243	0xbef54322	-0.4790278
244	0x3ed4414d	0.4145607
245	0xbd888e91	-0.066678174
246	0xbeaf9ceb	-0.34299406
247	0x3ecdab8f	0.4016995
248	0xbe9d1d91	-0.3068662
249	0xbe8fd380	-0.2809105
250	0x3c8d08f7	0.017216189
251	0xbe0061ce	-0.1253731
252	0x3e4b6df6	0.19866166
253	0xbd21e3be	-0.039523832
254	0xbde175ff	-0.11008834
255	0xbe1bc68d	-0.1521246

weight_hh_l0 f4 [128, 32]
0	0xbe1956c9	-0.14974512
1	0x3d2fbe2b	0.042905968
2	0xbe74c4f8	-0.23903263
3	0x3c58f22e	0.013241334
4	0x3d32b696	0.04363116
5	0x3e4bfc86	0.19920549
6	0xbd2aaeb0	-0.0416705
7	0xbd33b6ff	-0.04387569
8	0xbddd8abf	-0.10817479
9	0x3de8d1b7	0.11368125
10	0x3e84bfe5	0.25927654
11	0x3d89b012	0.06723036
12	0x3d773638	0.06035444
13	0x3e29c4f9	0.16579045
14	0xbd9a6721	-0.075392015
15	0x3dde503f	0.108551495
16	0x3d9d79b1	0.076892264
17	0xbded8e00	-0.1159935
18	0xbcc19f1f	-0.023635445
19	0x3dd1ca0f	0.10243618
20	0x3d7040fb	0.05865572
21	0xbe203ef9	-0.15649022
22	0xbe6fb439	-0.23408593
23	0x3e025709	0.12728514
24	0xbdd1cbba	-0.10243936
25	0x3e8c36b9	0.273855
26	0xbe124c57	-0.14286934
27	0x3dea59b5	0.114428915
28	0x3d87200d	0.0659791
29	0xbe5b6d92	-0.21428517
30	0xba9246f5	-0.0011160063
31	0x3d83c6ad	0.06434379
32	0xbdca7bf0	-0.098869205
33	0x3c907245	0.017632613
34	0x3e8c22a3	0.27370176
35	0xbe0b0c88	-0.13578999
36	0x3d9e04af	0.07715737
37	0x3e4042b6	0.18775448
38	0xbde558d6	-0.11198585
39	0xbd39d2c5	-0.04536702
40	0xbdf96b3e	-0.12178658
41	0x3db76272	0.08954324
42	0xbd1012dd	-0.03517424
43	0xbe8ddbe4	-0.27706826
44	0x3e388877	0.18020807
45	0xbcccf247	-0.02501787
46	0x3d8a0f12	0.06741156
47	0xbc60d99a	-0.013723755
48	0x3d080cbf	0.03321528
49	0xbc5bb72d	-0.013410372
50	0xbc8380ad	-0.016052568
51	0x3da88c47	0.08229881
52	0x3e937d48	0.2880652
53	0xbe953c84	-0.29147732
54	0x3d51ab33	0.05118866
55	0x3e73dd52	0.23814896
56	0x3d0070ea	0.031357683
57	0xbd228c94	-0.039684847
58	0x3dd718c9	0.10502774
59	0xbddcd4b2	-0.10782756
60	0x3d5f6989	0.054544006
61	0x3daf2565	0.08552054
62	0x3d8cf5c3	0.06882813
63	0xbdec8fc1	-0.115508564
64	0xbe24844d	-0.16066094
65	0x3dec6fd9	0.11544771
66	0x3d9baeb0	0.07601678
67	0xbe12f033	-0.14349441
68	0xbd5f6d48	-0.054547578
69	0x3d81bb7a	0.063345864
70	0xbd8f6944	-0.070025
71	0x3ca5ec6b	0.020254334
72	0xbe26dd1d	-0.16295286
73	0xbe54e773	-0.20791416
74	0xbca1c7d3	-0.019748604
75	0xbe0fce1f	-0.14043473
76	0xbc56eb88	-0.013117678
77	0x3e5831f0	0.211128
78	0x3cc3b55b	0.023890188
79	0xbe6715b3	-0.22566871
80	0xbc863908	-0.016384616
81	0xbc0dc8cb	-0.00865383
82	0xbe827f67	-0.25487825
83	0xbe6cdd25	-0.23131235
84	0xbc8e9bbe	-0.017408248
85	0xbe162544	-0.14662653
86	0xbe40c618	-0.18825567
87	0x3e88f114	0.26746428
88	0xbde4cfb1	-0.111724265
89	0x3d2f3744	0.042777315
90	0xbd94e7a5	-0.07270745
91	0xbdbd5a91	-0.0924579
92	0x3b12c429	0.0022394753
93	0x3d9b181b	0.07572957
94	0x3e14effc	0.14544672
95	0xbe788bf1	-0.24272133
96	0x3dd63fae	0.10461365
97	0x3d08744a	0.033314027
98	0x3d877b63	0.06615331
99	0xbdd7c04b	-0.10534724
100	0x3d16feb4	0.036863998
101	0x3e44a89c	0.19204944
102	0x3e72188e	0.2364218
103	0x3e114052	0.14184693
104	0x3e188c88	0.14897358
105	0x3e1ccbc7	0.1531211
106	0x3dd0be0f	0.10192501
107	0xbdad6216	-0.08465974
108	0xbd5f07c4	-0.054450765
109	0x3c08becd	0.008346272
110	0xbd27a476	-0.040928327
111	0xbebe94aa	-0.37222797
112	0xbe73655a	-0.23769131
113	0xbde9247a	-0.113839105
114	0xbe0b0560	-0.13576269
115	0xbe36e428	-0.17860472
116	0xbc78dbf8	-0.015189163
117	0x3d0a8e9a	0.0338274
118	0xbd5ce29f	-0.05392706
119	0x3d007930	0.031365573
120	0xbda54e95	-0.08071629
121	0x3e6e755c	0.23286957
122	0xbdb374ca	-0.0876251
123	0xbd66702a	-0.05625931
124	0x3eb48f07	0.3526537
125	0xbb027501	-0.0019906166
126	0x3e653843	0.22384743
127	0xbe891eb4	-0.26781237
128	0xbdbb252b	-0.091379486
129	0x3e53125a	0.2061247
130	0xbcee4320	-0.029084742
131	0x3cdc3f59	0.026885675
132	0x3e1e8f3e	0.1548433
133	0x3ea9e397	0.3318145
134	0x3dfac926	0.12245397
135	0xbc4eb595	-0.012616535
136	0xbcf04037	-0.029327495
137	0x3d6a6c58	0.05723223
138	0xbd5a1901	-0.0532465
139	0xbdb1fa2b	-0.08690294
140	0xbcceb8f8	-0.025234684
141	0x3ddf152a	0.108927086
142	0x3e0dd958	0.13852441
143	0xbe3f1629	-0.18660797
144	0xbe73e60c	-0.23818225
145	0xbca72315	-0.02040247
146	0xbd9068cf	-0.07051241
147	0xbdb86ad5	-0.090047516
148	0x3e4b2523	0.19838385
149	0x3d56a27d	0.052401055
150	0x3d466dbb	0.04844449
151	0xbc7abb19	-0.015303397
152	0xbe4feca5	-0.20305116
153	0x3d9de01b	0.0770876
154	0xbe18620a	-0.14881149
155	0xbc60c503	-0.013718846
156	0x3d63d12f	0.055619415
157	0x3de82bd5	0.11336485
158	0x3e2dbc1e	0.16966292
159	0xbe0ff7f7	-0.14059435
160	0xbe39b159	-0.18134059
161	0x3d919619	0.07108707
162	0xbe12b805	-0.1432801
163	0xbe7ff222	-0.2499471
164	0x3d838736	0.06422274
165	0x3e9b9eb4	0.30394518
166	0xbe2c7a23	-0.16843466
167	0x3e9fc215	0.3120276
168	0xbd8537eb	-0.06504806
169	0xbea0d57b	-0.31412873
170	0x3da6e5f6	0.0814933
171	0x3daa4606	0.08314137
172	0x3cdee407	0.027208341
173	0xbd461456	-0.048359238
174	0x3e4a11b1	0.19733311
175	0xbd4eac59	-0.050457332
176	0xbe392599	-0.18080749
177	0x3d2eb30a	0.042651214
178	0xbe3d98b1	-0.18515278
179	0xbd24fac6	-0.04027822
180	0x3cbb13a1	0.022836508
181	0xbe2f65f9	-0.17128743
182	0xbeb61ec3	-0.35570344
183	0x3e42a7a5	0.19009264
184	0x3c4ac969	0.0123771215
185	0x3e87cf7d	0.26525488
186	0x3ddb8d05	0.10720257
187	0xbe30c6dc	-0.17263359
188	0x3e3213a0	0.17390299
189	0xbe9314b1	-0.28726724
190	0x3ec34e15	0.3814551
191	0xbe316fdb	-0.17327826
192	0x3e0226f6	0.12710175
193	0x3d9a7fae	0.07543884
194	0xbd38047f	-0.044926163
195	0xbddc21ca	-0.10748632
196	0x3e8598f4	0.26093256
197	0xbd7513fd	-0.059833515
198	0xbe6b266b	-0.22963874
199	0x3e76fa31	0.24118878
200	0xbe50f839	-0.2040719
201	0x3e99af28	0.30016446
202	0x3dc0d4ea	0.0941561
203	0x3d4cbf8d	0.049987365
204	0x3d68f06c	0.05686991
205	0x3e558c6d	0.2085435
206	0xbded635a	-0.115912154
207	0xbe9c5289	-0.3053172
208	0xbdce4415	-0.10071579
209	0xbe4ad2fe	-0.1980705
210	0x3da9bc2c	0.08287844
211	0xbdeff40a	-0.11716469
212	0x3e55379f	0.20821999
213	0x3d76bbd2	0.060237713
214	0xbe422b39	-0.189618
215	0x3e80d612	0.25163323
216	0xbcf66b51	-0.03008047
217	0x3e1ae90a	0.1512796
218	0xbe18fe62	-0.1494079
219	0x3d994451	0.074837334
220	0x3d3af735	0.04564591
221	0xbe846a6b	-0.2586244
222	0xbd261595	-0.040547926
223	0xbe030d74	-0.127981
224	0xbc200c51	-0.009768561
225	0x3e9c933d	0.30581084
226	0x3d33c458	0.04388842
227	0xbbd1c166	-0.0064012287
228	0x3e292c92	0.16520908
229	0xbb9e7600	-0.004835844
230	0x3d2c8ea9	0.04212824
231	0x3e204c2e	0.1565406
232	0xbe12887f	-0.14309882
233	0xbe82296b	-0.25422224
234	0xbd9c227d	-0.076237656
235	0x3e11cca9	0.14238228
236	0x3e1b783f	0.15182589
237	0xbe4276fe	-0.18990704
238	0x3e30ccbf	0.17265604
239	0xbe62c008	-0.22143567
240	0x3d2a5989	0.041589294
241	0xbdd29902	-0.1028309
242	0xbea13d6f	-0.31492183
243	0xbbef3fcf	-0.0073013077
244	0x3dd886f5	0.10572616
245	0xbe04343f	-0.12910555
246	0xbe70502b	-0.23468082
247	0xbd62e8a8	-0.05539766
248	0xbc9e5a32	-0.019330118
249	0xbd855881	-0.065110214
250	0x3d62643a	0.055271365
251	0x3dd94fe8	0.10610944
252	0xbd35310f	-0.04423624
253	0x3d0a8a84	0.033823505
254	0x3e534547	0.20631896
255	0xbd9550fd	-0.07290838

bias_ih_l0 f4 [128]
0	0x3c3e2954	0.011606533
1	0xbd4a1ad0	-0.049341977
2	0x3e182537	0.14857946
3	0x3e14c9b5	0.1453007
4	0x3ce26a3a	0.027638543
5	0x3e56f623	0.20992331
6	0x3e625da1	0.22106029
7	0xbd1a4762	-0.037665732
8	0x3d4a9456	0.04945787
9	0x3e28c20d	0.16480274
10	0xbd8977f7	-0.067123346
11	0xbdf5e63e	-0.12006806
12	0x3df5762a	0.11985429
13	0x3ea7e9e7	0.3279564
14	0xbdfd83e0	-0.12378669
15	0x3ebc2d18	0.36753154
16	0x3d89e2ec	0.06732735
17	0x3e153f43	0.14574914
18	0x3e6e904d	0.23297234
19	0x3d28d8cd	0.041222382
20	0x3e691104	0.22760397
21	0xbce13356	-0.0274903
22	0xbdc3f424	-0.095680505
23	0x3db432f4	0.08798781
24	0xbc9c1466	-0.019052695
25	0x3d21f9c8	0.03954485
26	0x3dba9b9b	0.09111711
27	0x3da66028	0.08123809
28	0x3e1e4c8a	0.15458885
29	0x3e3788e3	0.17923312
30	0x3e571f8f	0.21008132
31	0x3d782196	0.060578905
32	0x3e8cfda3	0.2753726
33	0xbd14380f	-0.036186274
34	0xbd42d52b	-0.047566574
35	0xbd8b1e52	-0.067928925
36	0xbca42079	-0.020035015
37	0x3e0759d7	0.13217865
38	0x3cd66824	0.026172705
39	0x3e72e2f6	0.23719391
40	0x3e52337e	0.20527455
41	0x3eb41748	0.35174012
42	0x3e3ef76f	0.18649076
43	0x3e3a3322	0.18183568
44	0xbc5db2f3	-0.013531434
45	0x3ec0e71e	0.37676328
46	0x3da2542f	0.07926213
47	0x3e8cb318	0.27480388
48	0xbdbf912e	-0.09353863
49	0x3e60563f	0.219079
50	0x3e3a7198	0.18207395
51	0x3e870a91	0.2637525
52	0x3e1e9a03	0.15488438
53	0x3dcdb647	0.10044532
54	0xbd3d4551	-0.046208683
55	0x3e01321c	0.12616771
56	0x3d972559	0.073801704
57	0x3e23d8a2	0.16000608
58	0x3dbe0298	0.092778385
59	0x3e952dd3	0.29136524
60	0xbdc069a1	-0.09395147
61	0x3dbedb28	0.093191445
62	0x3cf4a22a	0.029862482
63	0x3d8a6b47	0.06758743
64	0xbd96e0de	-0.07367109
65	0x3d51b3ba	0.05119679
66	0x3d8af261	0.06784511
67	0xbe4f0d35	-0.20219882
68	0xbb7efa6b	-0.0038906585
69	0x3d7f8be9	0.062389288
70	0x3e22ec2f	0.1591041
71	0x3db44927	0.08803015
72	0x3de9b686	0.11411767
73	0xbd961335	-0.07327882
74	0x3e31ef61	0.17376472
75	0x3d2723f8	0.040805787
76	0x3d52da62	0.051477797
77	0x3cdc7b06	0.02691413
78	0x3df25c50	0.118340135
79	0xbda3efa2	-0.08004691
80	0xbe127906	-0.1430398
81	0xbdbf6d37	-0.09347003
82	0x3e265eed	0.16247149
83	0xbd9ce41b	-0.07660695
84	0x3d5f6313	0.054537844
85	0xbe22b542	-0.15889457
86	0xbd9ccd45	-0.076563396
87	0x3e2ffc6d	0.17186137
88	0xbdc3d640	-0.09562349
89	0xbd550014	-0.052002028
90	0x3e005017	0.12530552
91	0xbd1f766a	-0.038931288
92	0x3c662bcb	0.014048527
93	0xbda2619f	-0.07928776
94	0xbd28964a	-0.04115895
95	0x3dabd868	0.083908856
96	0xbba2986c	-0.0049620178
97	0x3e69d580	0.2283535
98	0x3e61dd27	0.22057019
99	0x3e30c5ca	0.1726295
100	0x3e104375	0.14088233
101	0x3e8125ba	0.25224096
102	0x3e690c12	0.2275851
103	0x3db7a513	0.08967032
104	0x3d013f2f	0.031554397
105	0x3e905456	0.28189343
106	0x3e0ef93c	0.13962263
107	0xbe03097c	-0.12796587
108	0xbc375c92	-0.011191504
109	0x3ef9749b	0.48721775
110	0x3da2a849	0.07942254
111	0x3ea2b82d	0.3178114
112	0x3db6fe5e	0.089352354
113	0xbdc1e44b	-0.094673716
114	0x3e056e71	0.13030411
115	0x3e310046	0.1728526
116	0x3d4c83b1	0.04993028
117	0x3e0f19fe	0.13974759
118	0x3c30b723	0.010785851
119	0x3d93aa85	0.072102584
120	0x3e6bed3e	0.2303972
121	0x3e061114	0.13092452
122	0x3e70a91b	0.23502009
123	0xbc5ba515	-0.013406058
124	0xbdc650d5	-0.09683386
125	0x3d27f67a	0.041006543
126	0x3e20f485	0.15718277
127	0x3d261918	0.040551275

bias_hh_l0 f4 [128]
0	0x3e766bef	0.24064611
1	0x3e573093	0.21014623
2	0x3da1509a	0.07876702
3	0xbcc1945d	-0.023630315
4	0x3df92fa7	0.12167292
5	0x3e985f92	0.29760414
6	0xbcd15f97	-0.025558276
7	0x3d88069e	0.06641887
8	0x3e0335e4	0.12813526
9	0x3e729ec7	0.23693381
10	0x3e0d3e8a	0.13793388
11	0x3db5a10d	0.088686086
12	0x3df69215	0.12039582
13	0x3eacaaf8	0.3372419
14	0x3dd80f0b	0.10549744
15	0x3ed65393	0.41860637
16	0x3c855e8b	0.016280433
17	0x3d887373	0.06662645
18	0x3e1227d9	0.14273013
19	0xbb750d33	-0.00373919
20	0x3e6e40b2	0.23266867
21	0x3da7d25f	0.08194422
22	0x3e4b78f6	0.19870362
23	0x3c6dbf51	0.014510945
24	0xbe011349	-0.12605013
25	0xbd32a3fc	-0.04361342
26	0x3d62bffd	0.055358876
27	0xbc74b97c	-0.014936801
28	0x3e38c2fc	0.1804313
29	0x3e505318	0.20344198
30	0x3d8ddb8d	0.069266416
31	0x3db765fe	0.08955
32	0x3e108d88	0.1411649
33	0x3e3d4377	0.18482767
34	0x3d9c61a9	0.07635815
35	0x3d156aa9	0.036478672
36	0xbc1da95c	-0.009622898
37	0xbd0e142f	-0.034687217
38	0xbdc6855b	-0.09693404
39	0xbd582c0f	-0.052776393
40	0xbd66e37c	-0.05636929
41	0x3e313294	0.1730445
42	0x3dd75d87	0.10515886
43	0x3d9bd04d	0.076080896
44	0x3e062849	0.13101305
45	0x3ec79b2d	0.38985577
46	0xbd9e1183	-0.07718184
47	0x3e4db2f6	0.200878
48	0xbcd595f8	-0.026072487
49	0xbd280231	-0.041017715
50	0x3d17d791	0.037070815
51	0x3d9cd00c	0.07656869
52	0x3e16d36e	0.14729092
53	0x3cc10eba	0.023566592
54	0x3dc9fda7	0.098628335
55	0xbcaf5c85	-0.021406421
56	0x3dc93056	0.098236725
57	0x3e51d402	0.20491031
58	0x3b65affc	0.0035047522
59	0x3d944b57	0.072409324
60	0x3dd602a2	0.10449721
61	0xbdcaeb0c	-0.09908113
62	0xbdb7a725	-0.08967427
63	0x3e7a68a6	0.24453983
64	0x3dd84de2	0.1056173
65	0x3d8d98a4	0.069138795
66	0xbdf7895a	-0.120867446
67	0xbe2d13af	-0.1690204
68	0x3d8e8d4c	0.06960544
69	0xbe0e34bd	-0.13887306
70	0xbd38b5d4	-0.04509528
71	0x3db2e9fb	0.087360345
72	0xbe1621a5	-0.14661272
73	0x3e18f748	0.1493808
74	0x3dca1c20	0.09868646
75	0x3e17b0a4	0.14813477
76	0x3c4e970d	0.0126092555
77	0x3dcc61db	0.09979602
78	0x3dc37692	0.095441
79	0x3cdaeeca	0.026725192
80	0xbd5dc124	-0.05413927
81	0x3d9f2448	0.07770592
82	0xbdf74221	-0.1207316
83	0x3cafa630	0.021441549
84	0x3dcfe13f	0.10150384
85	0xbdf009d2	-0.11720623
86	0x3d615ddd	0.055021156
87	0x3ddc3af9	0.10753436
88	0xbd00e69e	-0.031469934
89	0x3e2ea09d	0.17053457
90	0xbda192ec	-0.07889351
91	0xbcbabb8c	-0.022794507
92	0xbe09e850	-0.13467526
93	0xbdf18cf8	-0.11794466
94	0x3e3c47ff	0.1838684
95	0xbdc3e765	-0.095656194
96	0x3e84d2e8	0.2594216
97	0x3e513ab7	0.20432554
98	0x3df5b5ba	0.11997552
99	0xbdbfdf7e	-0.093687996
100	0xbd044b03	-0.0322981
101	0x3e87e753	0.26543674
102	0x3e1c568d	0.15267392
103	0x3e275113	0.16339521
104	0x3d98d672	0.07462777
105	0x3e96d842	0.29461867
106	0x3dadc749	0.08485276
107	0xbddb88f8	-0.10719484
108	0xbb58f319	-0.0033103882
109	0x3eb15829	0.34637573
110	0x3e14a650	0.14516568
111	0x3ed6fc24	0.41989243
112	0x3e7324d9	0.23744525
113	0xbd14a305	-0.03628828
114	0xbdbbb275	-0.09164897
115	0x3e21f030	0.1581428
116	0x3d06324e	0.032762818
117	0xbd4e5ef2	-0.050383516
118	0x3e06cf10	0.13164926
119	0x3eb7bf58	0.3588817
120	0x3dd7b8a1	0.10533262
121	0x3e8375ba	0.25675756
122	0x3cbf52ba	0.023354877
123	0x3e301eec	0.17199296
124	0x3e36f89f	0.17868279
125	0x3ddd96c5	0.10819773
126	0x3da7f1c0	0.08200407
127	0x3dd7933d	0.1052613

weight_ih_l0_reverse f4 [128, 2]
0	0x3da9c2bb	0.08289095
1	0xbe0bae5c	-0.13640732
2	0x3e448505	0.19191368
3	0x3e9f7244	0.31141865
4	0xbdd9b37d	-0.10629938
5	0xbd7e6c18	-0.062114805
6	0x3e35c12d	0.17749472
7	0xbdef1198	-0.116732776
8	0xbbc29dbf	-0.005939215
9	0x3e597feb	0.21240203
10	0xbe0eccea	-0.13945356
11	0xbe784b6a	-0.24247518
12	0x3bccd323	0.0062507554
13	0x3ecd6f4a	0.4012397
14	0xbd8269ae	-0.06367813
15	0xbe8a8363	-0.27053365
16	0xbcd88acb	-0.02643337
17	0xbe5d8e05	-0.21636207
18	0xbe416ead	-0.18889876
19	0x3e213d98	0.15746152
20	0xbe8f902f	-0.2803969
21	0x3e485e1e	0.19567153
22	0x3ded9984	0.116015464
23	0xbdb05e9a	-0.08611794
24	0xbe8bb164	-0.27283776
25	0x3ed7cc1e	0.42147917
26	0xbe53def6	-0.20690522
27	0xbe89aebf	-0.26891133
28	0x3df9a74b	0.12190112
29	0x3d475925	0.048669
30	0xbde55503	-0.11197855
31	0x3dd7b015	0.10531632
32	0xbdf35977	-0.118822984
33	0x3df4ecc5	0.11959223
34	0xbddcd8c7	-0.107835345
35	0xbd8c2b07	-0.06844144
36	0xbecbede8	-0.39829946
37	0x3c587db7	0.0132135665
38	0x3d961aa1	0.07329298
39	0x3e2247f3	0.15847759
40	0xbd66ebab	-0.056377094
41	0x3f1c1a7c	0.6097791
42	0xbe4d11a9	-0.20026268
43	0xbcb0bc2e	-0.021574106
44	0xbe59af0c	-0.21258181
45	0x3e0a5a3d	0.13510986
46	0x3e4d29e6	0.20035514
47	0x3d3a466c	0.045477316
48	0xbda9fdea	-0.083003834
49	0xbc992bf9	-0.018697726
50	0xbe0d6f14	-0.13811904
51	0xbdd50137	-0.10400622
52	0x3da2174c	0.079146
53	0x3ad20bb3	0.0016025215
54	0xbe0cb834	-0.13742143
55	0x3d450699	0.048101995
56	0xbe1d6684	-0.15371138
57	0x3e74524a	0.23859516
58	0x3cabbfa4	0.020965405
59	0xbc6b37f6	-0.014356604
60	0x3e35532f	0.17707513
61	0xbe705b89	-0.23472418
62	0xbe418974	-0.1890009
63	0xbe2ef6ce	-0.17086336
64	0xbd6d9940	-0.05800748
65	0x3d9fea12	0.07808317
66	0x3e675350	0.22590375
67	0x3dac5f45	0.08416609
68	0xbdf1ceec	-0.11807045
69	0xbb31b376	-0.0027115024
70	0x3c98b51b	0.018641045
71	0xbe40d0ac	-0.18829602
72	0xbc6de402	-0.014519693
73	0x3e3a7685	0.18209274
74	0x3dfcba9d	0.12340281
75	0xbd52350c	-0.05132012
76	0xbe4947e7	-0.19656335
77	0x3eba3c2c	0.36374032
78	0x3c09398d	0.008375538
79	0xbd9ff993	-0.078112744
80	0x3d88fd27	0.0668891
81	0xbdb30a30	-0.087421775
82	0xbd70c898	-0.05878505
83	0xbdc21281	-0.094761856
84	0x3d3613a8	0.04445234
85	0xbd7d0d92	-0.06178052
86	0x3e0ce982	0.13760951
87	0xbdb742a1	-0.08948255
88	0xbe94237e	-0.28933328
89	0x3f1c111e	0.6096362
90	0xbd6e4255	-0.058168728
91	0xbe7cb54c	-0.24678534
92	0x3d3207a0	0.043464303
93	0xbdbc3d43	-0.09191372
94	0xbe3e79c9	-0.18601145
95	0xbcaec7f1	-0.021335574
96	0x3d8b2630	0.06794393
97	0x3d251e19	0.040311906
98	0xbe08abd9	-0.13346805
99	0x3bf1c15d	0.007377787
100	0xbee8f3a9	-0.45498398
101	0xbc986273	-0.018601632
102	0xbdaaa28a	-0.08331783
103	0x3da47f70	0.08032119
104	0x3c860eff	0.016364573
105	0x3f030e15	0.5119336
106	0xbd9d7061	-0.0768745
107	0xbdc00fe9	-0.093780346
108	0x3d191fd0	0.037383854
109	0xbe3ae728	-0.18252242
110	0xbe28b9b8	-0.16477096
111	0xbcf7c681	-0.030246021
112	0x3d0625ec	0.03275101
113	0xbe68b64d	-0.22725792
114	0x3d5239bb	0.051324587
115	0xbe7b743d	-0.2455606
116	0x3e0c9b18	0.13731039
117	0xbda02bf6	-0.07820885
118	0x3d274043	0.04083277
119	0xbe7f8712	-0.24953869
120	0xbe506ecf	-0.2035477
121	0x3ec3f177	0.3827016
122	0x3e69c959	0.22830714
123	0xbd0cb706	-0.034354232
124	0x3e741ac0	0.2383833
125	0xbe309431	-0.1724403
126	0xbd7cbb78	-0.06170222
127	0xbe88dddc	-0.26731765
128	0xbe1f3c2e	-0.155503
129	0xbe37d248	-0.1795131
130	0x3e65870c	0.22414798
131	0x3e94d0bd	0.29065505
132	0x3d8f19f1	0.0698737
133	0xbe1b53c8	-0.15168679
134	0xbe2f8da9	-0.17143883
135	0xbe40f5a1	-0.188437
136	0x3d16c9ce	0.03681355
137	0x3e9ffd5a	0.3124798
138	0xbc3f2473	-0.011666405
139	0x3e80aa3b	0.25129876
140	0x3dd6d15c	0.10489151
141	0xbe732879	-0.23745908
142	0xbe3e865d	-0.18605943
143	0x3e798f91	0.24371172
144	0xbe502563	-0.20326762
145	0xbc3f44de	-0.011674134
146	0xbdea403e	-0.114380345
147	0x3e81b151	0.25330594
148	0x3e88f49d	0.26749125
149	0xbe3611bf	-0.17780207
150	0x3ea181a0	0.3154421
151	0xbe0da08a	-0.13830772
152	0x3e8c5e05	0.2741548
153	0xbe43836b	-0.190931
154	0x3eac47be	0.33648485
155	0xbd19e889	-0.03757528
156	0xbe6a52c8	-0.22883141
157	0xbcb190fb	-0.021675577
158	0x3b84069e	0.004029109
159	0x3e72a6a4	0.23696381
160	0x3d798a6b	0.06092302
161	0x3e107cb2	0.14110067
162	0x3abbe3c1	0.0014334844
163	0x3eb27b54	0.34859717
164	0x3e486e33	0.19573288
165	0xbd18b46f	-0.03728145
166	0xbea64e00	-0.32481384
167	0xbe434f23	-0.19073157
168	0xbe574778	-0.21023357
169	0xbe638f3a	-0.22222605
170	0x3e899414	0.26870787
171	0xbe28ea7a	-0.16495696
172	0xbe8dcd46	-0.27695674
173	0x3e3a2dfc	0.18181604
174	0x3e1820e4	0.14856297
175	0x3e806f69	0.25085
176	0xbd8c32a8	-0.068455994
177	0x3e83f980	0.2577629
178	0x3e96c99d	0.29450694
179	0x3ceaf792	0.028682504
180	0xbe80b88e	-0.25140804
181	0x3e0e9557	0.13924156
182	0x3e1d0465	0.15333708
183	0xbe9995a5	-0.29996982
184	0xbefa1585	-0.48844543
185	0x3e7e4e13	0.2483447
186	0x3e26a488	0.16273701
187	0x3e0d5e21	0.13805439
188	0x3e692f26	0.22771892
189	0xbe89ca17	-0.26911995
190	0x3e8e3100	0.2777176
191	0x3dc516e7	0.09623509
192	0x3e52ee6b	0.20598762
193	0xbd8d2a22	-0.06892802
194	0x3e62dfd6	0.22155699
195	0x3e6dab09	0.23209776
196	0x3cafb335	0.021447757
197	0xbe3ab39c	-0.18232578
198	0xbd3b5fdd	-0.04574572
199	0xbe4db056	-0.20086798
200	0xbdb3d1c0	-0.08780241
201	0x3e95e478	0.2927587
202	0xbe3a2f4e	-0.18182108
203	0xbe4801d3	-0.19531946
204	0xbe709147	-0.23492919
205	0x3e92de05	0.28685012
206	0x3db3a778	0.087721765
207	0xbe77d273	-0.24201374
208	0xbd94082f	-0.072281234
209	0xbdfbec18	-0.12300891
210	0xbd71cbe3	-0.059032332
211	0xbe055d55	-0.13023885
212	0x3d9756ff	0.0738964
213	0xbe07b5b7	-0.13252912
214	0x3e1f96fa	0.15584937
215	0xbe301844	-0.17196757
216	0xbd0db368	-0.034594923
217	0x3ecd3e51	0.40086606
218	0xbce3d0ed	-0.027809585
219	0xbe15882c	-0.14602727
220	0x3e4f1838	0.20224082
221	0xbd804aae	-0.06264244
222	0xbd92845f	-0.07154154
223	0xbe1da85d	-0.15396257
224	0x3e257b65	0.16160353
225	0x3e02e90b	0.12784211
226	0xbabf4aa1	-0.0014594385
227	0xbe26dbe4	-0.16294819
228	0xbefb30cb	-0.49060664
229	0xbc367778	-0.011136882
230	0xbe6b206f	-0.22961591
231	0x3ddc8a1a	0.10768528
232	0xbd30a908	-0.04312995
233	0x3eb62b39	0.3557985
234	0xbddcb017	-0.10775774
235	0x3d87ec26	0.066368386
236	0xbe095c1d	-0.13414045
237	0xbe26b25f	-0.1627898
238	0xbd40221e	-0.046907537
239	0xbd040f7a	-0.032241322
240	0x3de72233	0.1128582
241	0x3d48a2fd	0.048983563
242	0x3e3a6e9c	0.18206257
243	0xbe50004f	-0.20312618
244	0xbe2203b9	-0.15821733
245	0x3d81e971	0.063433535
246	0x3ddcb5f2	0.10776891
247	0x3dc2246b	0.094796024
248	0x3e18ac1d	0.14909406
249	0x3c9a8dbd	0.018866414
250	0x3d3cbd27	0.046078827
251	0xbe874a93	-0.26424083
252	0x3d99b099	0.075043865
253	0xbe14a007	-0.1451417
254	0xbe6e83a4	-0.23292404
255	0xbe484138	-0.19556129
