sgan-dataset/logs/zara1/models_03_Mar_2019_13_48_21/model_registrar-1799.pt (torch_old, 575433 bytes, 45 tensors)

weight_ih_l0 f4 [128, 6]
-0.16819495 -0.028799096 -0.13252945 0.0023287253 0.02966536 0.16228525 -0.37248066 -0.34234324
-0.29391655 -0.3730335 0.36356515 -0.30274427 -0.157239 -0.13494629 -0.118280426 -0.032426763
-0.45632142 0.33104488 -0.1574874 -0.006964916 0.26037118 -0.35209888 -0.1276028 0.43179157
-0.08470256 0.04881736 -0.25868613 0.21357027 0.08056447 -0.1617975 0.1754001 0.09742776
0.12076318 -0.008400774 0.12643078 -0.04857571 -0.17439733 -0.07348339 -0.24164435 0.0013130425
0.13565445 -0.062366948 0.027246963 0.21226451 -0.23931701 0.106318265 -0.3590587 -0.010627814
0.16040008 0.11726637 0.09914182 0.018292958 -0.065412246 0.055615187 -0.18242759 -0.26495025
-0.061528325 0.37150306 -0.080466226 -0.27919066 0.021581294 0.1746632 -0.40375376 -0.21526533
-0.01700384 0.028992418 -0.05199127 -0.0055941376 -0.09836002 0.01559322 0.14914213 0.18316129
-0.19530791 -0.19530606 0.073782064 0.052446667 -0.010644921 -0.1167539 -0.062871836 0.089176536
0.20280445 -0.09776656 -0.16495572 0.082888044 -0.13144794 -0.08979421 -0.22308809 0.17692815
0.20099251 0.26970768 -0.088506445 0.19150077 0.20014046 0.53749835 -0.0056133443 -0.035249144
0.10984941 0.07263605 -0.036572725 0.08906741 0.11526515 -0.12266814 -0.075550675 -0.2047919
0.11804662 -0.07763869 -0.00068797095 0.45003942 0.05638918 -0.051891237 0.1384441 -0.044483863
0.04881199 -0.10495809 -0.019929834 0.037552893 -0.30270725 0.1007183 0.203371 0.25426778
-0.070618086 0.07017042 0.40107146 -0.20295629 0.10036555 -0.036336187 -0.14199063 -0.07464061
0.004049563 0.21993232 -0.39074135 0.50029796 -0.018155891 -0.13176583 -0.12700614 -0.071572475
0.1762299 0.07189831 -0.052663203 -0.10675883 -0.14614148 -0.075046085 0.12134429 0.16292897
-0.038455755 -0.14196916 -0.28438702 -0.16320941 -0.14762636 -0.023275083 -0.19264103 -0.12531109
0.12957795 0.20930137 -0.022377672 0.38796398 -0.14909783 0.00020288533 0.044300333 0.10180881
0.0851192 0.3818415 -0.21019828 0.06628711 0.45588958 0.18703069 0.08683609 0.36959025
0.12297227 0.1311749 -0.033578683 -0.05889533 0.047929678 0.018577725 -0.19005352 -0.16371544
-0.21655786 -0.015985096 0.055582672 0.0005557091 -0.028912105 0.022375893 0.023378097 -0.35994276
-0.25173575 -0.17383558 -0.076414354 0.097046845 0.088655435 -0.21471387 -0.08912767 -0.1773933
-0.02357027 0.11829567 -0.21284007 -0.10546032 0.2660777 0.0012506766 -0.035848327 -0.06509513
-0.19005816 -0.21153797 0.38727155 -0.010540464 -0.13476883 -0.017425613 -0.0700747 -0.03676044
-0.020693716 0.1700188 -0.124966815 -0.05208085 0.13118663 -0.34778413 0.0029471363 0.010694893
0.08019616 -0.102945805 -0.1300314 0.09816762 -0.20118836 -0.095915146 0.085081875 -0.04716181
0.102672264 -0.21131615 -0.10252196 -0.15654504 0.062586226 -0.009483879 -0.10756503 -0.028316421
-0.09591729 0.045109957 0.036436923 -0.081496336 -0.14775246 0.05876178 -0.1972293 0.0731712
0.100743 -0.02187647 -0.095796674 -0.058523387 0.055631466 0.14606573 -0.20749226 -0.1080743
0.16452236 0.18553934 0.08772225 -0.046778064 0.124947205 -0.12212997 -0.27201295 -0.059262462
00000000: 4c3b 2cbe 15ec ebbc cdb5 07be 879d 183b
00000010: c504 f33c 1b2e 263e c9b5 bebe 9d47 afbe
00000020: 3b7c 96be 3ffe bebe 3625 ba3e 4c01 9bbe
00000030: 4303 21be 5c2f 0abe 023d f2bd edd1 04bd
00000040: f6a2 e9be b77e a93e 6144 21be f339 e4bb
00000050: 5f4f 853e 4e46 b4be 4faa 02be c913 dd3e
00000060: 8978 adbd b6f4 473d 8272 84be 2ab2 5a3e
00000070: fcfe a43d 3eae 25be 159c 333e 3588 c73d
00000080: b052 f73d 66a3 09bc 1277 013e 53f7 46bd
00000090: 3795 32be 767e 96bd 9e71 77be 651a ac3a
000000a0: 00e9 0a3e 7c74 7fbd 0635 df3c de5b 593e
000000b0: 850f 75be 64bd d93d 8bd6 b7be 4820 2ebc
000000c0: eb3f 243e 5a29 f03d de0a cb3d 1ddb 953c
000000d0: dbf6 85bd c0cc 633d 4cce 3abe 8fa7 87be
000000e0: 2005 7cbd a635 be3e 7acb a4bd 14f2 8ebe
000000f0: 41cb b03c e9da 323e d0b8 cebe 846e 5cbe
00000100: a34b 8bbc 8281 ed3c ccf4 54bd 074f b7bb
00000110: fa70 c9bd b47a 7f3c b7b8 183e a28e 3b3e
00000120: ccfe 47be 50fe 47be 0d1b 973d 51d2 563d
00000130: 0968 2ebc ab1c efbd f3c2 80bd 30a2 b63d
00000140: f8ab 4f3e d639 c8bd 27ea 28be 35c1 a93d
00000150: 4a9a 06be 07e6 b7bd 3471 64be a72c 353e
00000160: fbd0 4d3e 2017 8a3e de42 b5bd c718 443e
00000170: 9ff1 4c3e 7e99 093f 25f0 b7bb 6861 10bd
00000180: baf8 e03d 36c2 943d 48cd 15bd f968 b63d
00000190: 2310 ec3d 6f39 fbbd 50ba 9abd f8b4 51be
000001a0: 6dc2 f13d 0901 9fbd f358 34ba 916b e63e
000001b0: 57f8 663d e88b 54bd 4ac4 0d3e b634 36bd
000001c0: 15ef 473d 44f4 d6bd e443 a3bc 10d1 193d
000001d0: 72fc 9abe 6545 ce3d 7d40 503e 632f 823e
000001e0: 37a0 90bd 82b5 8f3d 3d59 cd3e c6d3 4fbe
000001f0: 748c cd3d 41d5 14bd fe65 11be 2ddd 98bd
00000200: 32b2 843b f035 613e 400f c8be 8713 003f
00000210: aabb 94bc 9fed 06be e60d 02be 9794 92bd
00000220: 9c75 343e 6c3f 933d 5fb5 57bd 60a4 dabd
00000230: 1da6 15be c3b1 99bd 5b83 f83d dad6 263e
00000240: c883 1dbd 5d60 11be 2d9b 91be 5e20 27be
00000250: 5d2b 17be 63ab bebc b143 45be 8d51 00be
00000260: 15b0 043e 1953 563e 6151 b7bc 37a3 c63e
00000270: 1aad 18be 9ebd 5439 4474 353d 2381 d03d
00000280: fa52 ae3d bb80 c33e 383e 57be 89c1 873d
00000290: 5c6a e93e f984 3f3e 1fd7 b13d ef3a bd3e
000002a0: e3d8 fb3d b752 063e cd89 09bd 3b3c 71bd
000002b0: e951 443d 5030 983c 649d 42be 05a5 27be
000002c0: 58c1 5dbe 2df3 82bc a8aa 633d 02ad 113a
000002d0: 14d9 ecbc a64d b73c 6c83 bf3c 6b4a b8be
000002e0: 82e3 80be f401 32be 217f 9cbd 7fc0 c63d
000002f0: fb90 b53d f4dd 5bbe 9188 b6bd 97a6 35be
00000300: 7016 c1bc 0045 f23d bff2 59be 95fb d7bd
00000310: 563b 883e beed a33a b2d5 12bd 9850 85bd
00000320: 9b9e 42be 699d 58be 7548 c63e e9b1 2cbc
00000330: d700 0abe 29c0 8ebc 5383 8fbd 1d92 16bd
00000340: de85 a9bc 6919 2e3e 9aee ffbd bb52 55bd
00000350: ca55 063e c310 b2be be24 413b a239 2f3c
00000360: e23d a43d 40d5 d2bd f426 05be 1b0c c93d
00000370: 5204 4ebe 296f c4bd 683f ae3d be2c 41bd
00000380: d645 d23d 4363 58be 09f7 d1bd 584d 20be
00000390: 352d 803d 4662 1bbc 0e4b dcbd d7f7 e7bc
000003a0: 4970 c4bd 38c5 383d e23e 153d 8de7 a6bd
000003b0: 6c4c 17be 31b0 703d 7af6 49be c8da 953d
000003c0: 5952 ce3d 4836 b3bc 0c31 c4bd 38b6 6fbd
000003d0: d2dd 633d 4192 153e da78 54be 0f56 ddbd
000003e0: 8d78 283e 06fe 3d3e b9a7 b33d 5b9a 3fbd
000003f0: 52e4 ff3d 471f fabd 4845 8bbe 32bd 72bd

weight_hh_l0 f4 [128, 32]
-0.07264502 -0.094676696 0.004969247 0.18551037 -0.053365372 0.010676942 -0.1976443 -0.03903504
0.12284537 0.09603889 0.016469166 0.17411588 -0.03131339 0.15575358 0.13632254 0.25327033
0.1118876 -0.105140105 0.06526351 -0.15333948 -0.09332148 -0.09515789 -0.09276509 -0.13218847
0.15513392 -0.10721457 0.10480603 0.17853475 0.07029099 0.101263255 0.052052356 -0.15431298
0.22727066 -0.1475912 0.28440595 0.21031363 -0.083495855 0.29080334 -0.13514584 -0.2697831
0.13219523 -0.20611297 -0.0466647 -0.10549436 -0.3068423 0.055059023 0.22179958 0.3441742
0.12805052 0.1246931 -0.08254608 -0.093057856 0.12541312 0.048584852 -0.16301109 -0.024401095
-0.07315186 -0.14819668 -0.34080672 0.016770968 -0.15619412 -0.028976845 0.058467355 -0.04160521
0.10429636 -0.14290537 -0.069160655 0.11628361 0.02602673 0.077730216 -0.18446358 -0.17485105
-0.038277257 0.07848338 -0.12612511 0.1029832 -0.12265227 -0.11344714 0.12970473 -0.11821762
0.07925034 -0.057356898 0.13878587 -0.18656117 0.100037254 0.2551527 0.03938899 0.15163656
0.09765324 0.069341674 0.09195815 0.16090754 0.13487828 0.06889836 -0.08307892 0.09541876
0.0015979504 -0.009856038 0.10699357 0.057294045 -0.1900764 -0.043576993 -0.084217355 0.033542667
-0.11808361 -0.113836795 0.046223845 -0.1472343 -0.24900275 -0.060776494 -0.15225857 -0.010777241
-0.022316413 0.27950957 -0.071291305 -0.121487014 -0.057441972 0.17823611 0.0880282 -0.10484539
-0.1721162 0.012468566 -0.25008267 0.18988243 -0.18482138 -0.020380767 0.1692935 0.097423516
-0.1804346 -0.05084111 0.14349034 -0.094467975 0.13722585 -0.13318962 -0.043123074 0.11897405
-0.16164567 -0.17145036 -0.03569027 -0.13523495 0.025078472 0.08108242 0.10553887 -0.14875412
-0.023547765 -0.19199912 -0.12493384 0.08130064 0.046572115 0.079084344 0.06810093 -0.11202414
0.057463508 -0.12293592 -0.15304151 -0.18104757 0.18513377 -0.06572604 0.12643088 -0.12602699
0.16819817 -0.16171697 0.03962728 -0.21249905 -0.05083051 -0.06441599 0.0019735238 -0.058366843
-0.055296853 -0.025702626 0.11783725 -0.17376536 -0.17003143 0.07121262 -0.043138176 -0.026176354
-0.024450058 0.18645217 -0.18291315 0.13778657 0.07914307 0.056843556 -0.024326164 -0.052876607
-0.06550035 -0.104726195 0.13048387 0.22431251 0.05394659 0.077336475 0.14306608 0.086471975
0.18880795 0.022052258 -0.14096911 0.22018342 -0.004608841 -0.056577086 0.023038063 -0.14870028
-0.07686864 -0.040650003 -0.026441475 -0.11785021 -0.040211536 0.1800566 -0.0065880013 0.07887532
0.009929828 -0.093331516 0.013584859 -0.1479385 0.11466195 0.27179676 0.1621622 -0.0295691
-0.1927558 0.005607245 0.08905454 0.07813598 -0.18117973 0.14021139 -0.13571991 0.059491977
0.22194792 0.048974924 -0.061538912 0.19269302 -0.048658613 0.06065936 0.051419415 0.012654566
-0.015707446 -0.16714422 -0.054436076 -0.17580163 0.24836959 -0.1183387 0.10599601 0.045022935
0.14625175 -0.15655258 -0.12787983 -0.0006775612 -0.18802571 -0.113467254 -0.058234204 -0.18206602
0.08718477 0.14516279 0.0510694 -0.048394818 0.16190018 0.22572443 -0.010833136 0.08795852
00000000: eac6 94bd dbe5 c1bd 11d5 a23b 6ef6 3d3e
00000010: a695 5abd 57ee 2e3c 4463 4abe 35e3 1fbd
00000020: 5a96 fb3d 0ab0 c43d 58ea 863c 6f4b 323e
00000030: 7842 00bd de7d 1f3e 2398 0b3e a6ac 813e
00000040: 5325 e53d b253 d7bd e0a8 853d 0605 1dbe
00000050: 551f bfbd 24e2 c2bd a0fb bdbd 6a5c 07be
00000060: 6ddb 1e3e 5093 dbbd 8ba4 d63d d0d1 363e
00000070: b9f4 8f3d 1c63 cf3d da34 553d 3904 1ebe
00000080: a4b9 683e 2622 17be a89d 913e 755c 573e
00000090: e0ff aabd 2de4 943e ac63 0abe 0321 8abe
000000a0: 305e 073e 470f 53be 7c23 3fbd 6d0d d8bd
000000b0: 6f1a 9dbe 9285 613d 6e1f 633e 9a37 b03e
000000c0: ad1f 033e 195f ff3d eb0d a9bd 1e95 bebd
000000d0: 4c6c 003e e900 473d 61ec 26be cee4 c7bc
000000e0: a4d0 95bd dfc0 17be 387e aebe 4563 893c
000000f0: 5af1 1fbe d960 edbc 777b 6f3d 3a6a 2abd
00000100: 5499 d53d c955 12be 1aa4 8dbd 1a26 ee3d
00000110: 0236 d53c 0531 9f3d 05e4 3cbe 270c 33be
00000120: 9dc8 1cbd e5bb a03d f126 01be dbe8 d23d
00000130: 1d31 fbbd f956 e8bd 51d1 043e 141c f2bd
00000140: 014e a23d 11ef 6abd e21d 0e3e e409 3fbe
00000150: 55e0 cc3d 60a3 823e 5956 213d 9d46 1b3e
00000160: 6cfe c73d 0203 8e3d 8e54 bc3d f2c4 243e
00000170: 881d 0a3e 951a 8d3d 4825 aabd e96a c33d
00000180: 5172 d13a 387b 21bc 721f db3d 29ad 6a3d
00000190: 63a3 42be ca7d 32bd 267a acbd 0964 093d
000001a0: d2d5 f1bd 4423 e9bd 3755 3d3d 97c4 16be
000001b0: 94fa 7ebe c6f0 78bd ace9 1bbe 0693 30bc
000001c0: e9d0 b6bc e11b 8f3e 2d01 92bd 2fce f8bd
000001d0: 4648 6bbd 8783 363e 2148 b43d 2eb9 d6bd
000001e0: 3b3f 30be f548 4c3c d60a 80be 8a70 423e
000001f0: d141 3dbe 91f5 a6bc 465b 2d3e fb85 c73d
00000200: d9c3 38be c53e 50bd 22ef 123e 6d78 c1bd
00000210: ef84 0c3e dc62 08be d2a1 30bd aba8 f33d
00000220: 7186 25be af90 2fbe f62f 12bd 087b 0abe
00000230: 5e71 cd3c 8a0e a63d c324 d83d 0053 18be
00000240: 3ee7 c0bc 6b9b 44be 50dd ffbd f380 a63d
00000250: 67c2 3e3d f9f6 a13d 8078 8b3d ea6c e5bd
00000260: db5e 6b3d d4c5 fbbd eab6 1cbe 8964 39be
00000270: b593 3d3e 609b 86bd 1977 013e 380d 01be
00000280: 243c 2c3e 2299 25be 3750 223d 5a99 59be
00000290: a733 50bd 88ec 83bd 3c56 013b 1212 6fbd
000002a0: f47e 62bd 508e d2bc a854 f13d 8cef 31be
000002b0: b81c 2ebe ecd7 913d a8b1 30bd cb6f d6bc
000002c0: 7d4b c8bc 51ed 3e3e 964d 3bbe ec17 0d3e
000002d0: c315 a23d cad4 683d aa47 c7bc 2495 58bd
000002e0: 0c25 86bd b07a d6bd 909d 053e 2eb2 653e
000002f0: 19f7 5c3d 9662 9e3d ea7f 123e 3818 b13d
00000300: df56 413e f0a6 b43c 355a 10be c377 613e
00000310: c305 97bb 60bd 67bd 52ba bc3c e344 18be
00000320: 4e6d 9dbd 9e80 26bd cb9b d8bc 735b f1bd
00000330: dab4 24bd c260 383e 29e0 d7bb 6289 a13d
00000340: b8b0 223c 9824 bfbd 0793 5e3c 317d 17be
00000350: e2d3 ea3d f228 8b3e d90d 263e e63a f2bc
00000360: c761 45be fbbc b73b 3a62 b63d c205 a03d
00000370: 2e87 39be 9393 0f3e 29fa 0abe dcad 733d
00000380: 5146 633e ee99 483d 3a10 7cbd 5251 453e
00000390: 414e 47bd f375 783d 2a9d 523d 1955 4f3c
000003a0: e7ac 80bc db27 2bbe 5df8 5ebd 5805 34be
000003b0: 9954 7e3e 8f5b f2bd 7014 d93d f869 383d
000003c0: 05c3 153e 524f 20be eef2 02be 5d9e 31ba
000003d0: d089 40be 8561 e8bd fd86 6ebd 846f 3abe
000003e0: ee8d b23d 8ea5 143e 262e 513d a539 46bd
000003f0: 29c9 253e 4e24 673e 777d 31bc 9923 b43d

bias_ih_l0 f4 [128]
-0.064044885 0.01746095 -0.029046929 -0.073526174 -0.15192768 0.13144082 -0.058069423 -0.19584236
0.022541499 0.03699447 0.16279015 0.13659579 0.05570447 -0.15376091 0.06858915 -0.16734044
0.008905528 0.15265189 -0.02183382 0.123929456 0.014165304 0.034321513 -0.050428543 -0.045788344
0.12028493 0.07285443 -0.042460695 0.10146956 -0.035074998 -0.10967812 -0.18346533 -0.0649538
0.2052152 0.018535836 -0.16427684 0.14165749 -0.14985332 -0.084183924 -0.1572742 -0.031718627
-0.13360539 0.1140171 -0.039583184 0.029948767 -0.054956295 0.17336386 -0.03410821 -0.104829535
0.100216195 0.10621625 -0.07013589 0.08197995 -0.1504341 0.09648181 0.09615535 0.09272104
0.06739186 0.13843222 0.11515659 0.18233556 -0.032982145 -0.13646539 -0.16307287 -0.17294113
0.1017908 0.12747663 -0.05087863 0.06290749 -0.051136963 0.009296481 0.10761171 -0.0433318
0.01175645 0.093830764 -0.12027821 0.037480436 -0.1402864 -0.06458832 -0.05920247 -0.20473143
-0.11896947 -0.13577521 0.14382246 -0.031175718 0.0073778373 0.10972946 0.09485248 -0.13551873
0.15529425 -0.12513162 0.12677939 -0.15892088 -0.12621303 0.12376471 -0.0013796166 -0.10065649
0.13691197 0.03672029 0.009751869 -0.021677194 0.004033405 0.059460416 -0.022328269 -0.17641304
-0.100447126 0.10157639 -0.077061355 0.06875111 0.02925768 -0.17914556 0.10528511 0.019676808
0.12611477 0.060529158 0.07092326 -0.0059023593 0.10561371 0.013866655 -0.10358566 0.0011688927
-0.099286266 0.10354694 0.110135406 0.04039558 0.08733768 0.095960744 -0.13004173 -0.081467226
00000000: f729 83bd 440a 8f3c d3f3 edbc e494 96bd
00000010: ee92 1bbe 6c98 063e 34da 6dbd e68a 48be
00000020: f3a8 b83c 8387 173d 76b2 263e c4df 0b3e
00000030: 5f2a 643d 8073 1dbe 7878 8c3d 4b5b 2bbe
00000040: 7ee8 113c c750 1c3e d7dc b2bc bace fd3d
00000050: 9715 683c b794 0c3d 298e 4ebd 8f8c 3bbd
00000060: f257 f63d b434 953d 44eb 2dbd 46cf cf3d
00000070: cdaa 0fbd ec9e e0bd 56de 3bbe 7f06 85bd
00000080: ef23 523e 77d8 973c 3038 28be a90e 113e
00000090: 2673 19be 9f68 acbd 7d0c 21be 64eb 01bd
000000a0: dacf 08be cc81 e93d fa21 22bd 1e57 f53c
000000b0: da19 61bd 4c86 313e 0db5 0bbd deb0 d6bd
000000c0: 263e cd3d e887 d93d 68a3 8fbd 1be5 a73d
000000d0: 660b 1abe 4198 c53d 19ed c43d 87e4 bd3d
000000e0: be04 8a3d 2dc1 0d3e 38d7 eb3d 2cb6 3a3e
000000f0: 4918 07bd 95bd 0bbe 93fc 26be 7b17 31be
00000100: b277 d03d 3c89 023e 1c66 50bd a4d5 803d
00000110: fe74 51bd 4450 183c 8763 dc3d af7c 31bd
00000120: 209e 403c 582a c03d 6c54 f6bd 1685 193d
00000130: 3da7 0fbe e246 84bd 4a7e 72bd 1ea5 51be
00000140: 44a6 f3bd a808 0bbe 3246 133e 3864 ffbc
00000150: c9c1 f13b d7b9 e03d 0442 c23d 6cc5 0abe
00000160: 7505 1f3e 8122 00be 75d2 013e 28bc 22be
00000170: fd3d 01be 5a78 fd3d 40d4 b4ba fd24 cebd
00000180: a732 0c3e 0468 163d 4ec6 1f3c 5f94 b1bc
00000190: a72a 843b c48c 733d c6e9 b6bc 9fa5 34be
000001a0: 39b7 cdbd 4807 d03d 58d2 9dbd 62cd 8c3d
000001b0: cdad ef3c ef71 37be b89f d73d 4231 a13c
000001c0: 3b24 013e 6ced 773d 3740 913d 9468 c1bb
000001d0: 004c d83d f730 633c b824 d4bd 8835 993a
000001e0: 9956 cbbd 6b10 d43d ac8e e13d d675 253d
000001f0: 19de b23d 1187 c43d a929 05be 4ad8 a6bd

bias_hh_l0 f4 [128]
-0.108334936 0.030568587 -0.16283727 0.08795697 -0.0081518665 -0.11245982 -0.15971904 -0.018277667
0.10767945 0.20189033 -0.093664005 0.011767865 -0.18258949 0.14050806 0.10915261 -0.006919763
-0.07806109 0.14521205 -0.1175244 0.07965206 0.16184264 0.21503858 -0.021902854 0.018509556
0.021946061 0.057725817 0.03109395 0.009887577 -0.116701186 -0.1190211 -0.11394622 -0.014762728
0.11645627 0.044625618 0.073412314 -0.064486325 0.15851203 0.07865956 -0.016331742 -0.17654426
-0.060719904 0.0577949 -0.02064855 -0.031240148 -0.057738602 -0.0060727154 0.07184673 -0.0547172
-0.030581858 0.038292356 -0.041783053 -0.099305846 -0.0065267193 -0.06631438 -0.12691076 0.06473342
-0.13619025 -0.17019631 -0.1383806 0.12164282 -0.0612032 0.097450994 -0.030987892 0.12844999
-0.18146825 -0.1412964 0.11920045 0.007276536 0.20552391 0.0416176 -0.07853077 0.0035588923
0.15301457 0.00021247665 0.007554806 0.05477393 0.040427256 0.0018561868 -0.13690735 -0.058472823
-0.026028143 0.10661497 0.06926934 -0.15775765 -0.14959723 0.049276426 -0.14874245 0.112558864
-0.08320272 -0.019490803 0.12974642 -0.044074196 -0.11475846 -0.15487951 -0.025928706 0.0033392669
0.021872288 0.17104591 -0.14634831 0.20563594 0.102647536 -0.037150037 0.1762512 0.13418046
-0.15444832 0.12392699 0.16420673 0.14564295 0.04141915 0.014036494 0.025139166 0.027540691
0.14460723 -0.07626238 0.17601918 -0.12939188 0.06866181 0.20496124 0.048189998 0.13375837
0.088542715 0.07919536 0.16204979 0.04659913 -0.042002413 0.09041885 -0.10302324 0.11927101
00000000: b5de ddbd f96a fa3c d0be 26be c922 b43d
00000010: 688f 05bc 5651 e6bd 638d 23be 0cbb 95bc
00000020: 0b87 dc3d 57bc 4e3e ead2 bfbd 01ce 403c
00000030: bdf8 3abe 58e1 0f3e 678b df3d 2ebf e2bb
00000040: 7ede 9fbd 78b2 143e a2b0 f0bd 9f20 a33d
00000050: 14ba 253e 1333 5c3e 9d6d b3bc 5aa1 973c
00000060: 3ac8 b33c e871 6c3d bdb8 fe3c 81ff 213c
00000070: 0801 efbd 56c1 f3bd a35c e9bd 5edf 71bc
00000080: a080 ee3d 5ac9 363d 3259 963d 6811 84bd
00000090: fa50 223e 4318 a13d 25ca 85bc 05c8 34be
000000a0: 6fb5 78bd 58ba 6c3d 2627 a9bc 57eb ffbc
000000b0: 507f 6cbd a1fd c6bb 6124 933d 251f 60bd
000000c0: ce86 fabc 72d8 1c3d b524 2bbd dd60 cbbd
000000d0: 17de d5bb d5cf 87bd e5f4 01be f592 843d
000000e0: 7575 0bbe f147 2ebe a5b3 0dbe df1f f93d
000000f0: 35b0 7abd 6394 c73d 52da fdbc 6588 033e
00000100: d0d2 39be 01b0 10be 5e1f f43d 0270 ee3b
00000110: dc74 523e 3777 2a3d bed4 a0bd 4e3c 693b
00000120: daaf 1c3e 44cc 5e39 4e8e f73b a15a 603d
00000130: 0d97 253d 4b4b f33a 7131 0cbe 3381 6fbd
00000140: f938 d5bc f358 da3d 15dd 8d3d 398b 21be
00000150: 0430 19be 14d6 493d f14f 18be 4385 e63d
00000160: 3066 aabd 2dab 9fbc 3fdc 043e 2587 34bd
00000170: 7c06 ebbd bc98 1ebe 7068 d4bc 9ad7 5a3b
00000180: 832d b33c a926 2f3e 55dc 15be 3a92 523e
00000190: df38 d23d a32a 18bd 327b 343e 9a66 093e
000001a0: b327 1ebe 6fcd fd3d cf25 283e 6d23 153e
000001b0: 20a7 293d 53f9 653c a7f0 cd3c 049d e13c
000001c0: eb13 143e 732f 9cbd 5f3e 343e 4e7f 04be
000001d0: 909e 8c3d 5ce1 513e e062 453d f4f7 083e
000001e0: e255 b53d 2d31 a23d 61f0 253e bbde 3e3d
000001f0: b90a 2cbd 852d b93d d9fd d2bd 5c44 f43d

weight_ih_l0 f4 [128, 2]
-0.07141853 0.2688533 0.1886861 0.1402994 -0.060355917 -0.19487563 -0.047173798 -0.0779351
0.12974492 -0.0760568 -0.14254916 0.38684827 0.101611905 -0.68551344 -0.009246558 -0.006036543
0.025391057 -0.4131946 0.16705117 0.58435667 -0.11004563 -0.2971923 0.49866492 -0.082989305
0.54856205 0.35322315 -0.55470777 -0.89166266 0.60059696 0.3041508 0.6034511 0.37845653
-0.09332569 0.014762658 0.08568676 0.18456343 -0.46158847 -0.23146194 0.9031739 1.2837029
-0.2105171 -0.7918903 -0.21900328 -0.30950132 -0.42744684 -0.5543882 0.009181189 0.13553952
0.13853088 0.14443158 -0.7839025 -0.5658119 0.47471878 0.4136598 -0.029967006 0.010789614
-0.7748769 -0.4924111 0.100956224 -0.08153771 0.6551127 0.047640827 -0.25801077 -0.07834526
0.287055 -0.06415193 0.68411124 0.54653865 -0.073367104 0.09457291 -0.45098498 -0.23049885
0.37027323 -0.14902942 -0.027276976 -0.0035289133 -0.0773316 0.23877425 0.33900613 0.15789117
0.27840027 0.09919709 0.48264447 0.5524192 0.024582867 -0.33028975 -0.3462063 0.043957736
0.33304465 0.5784513 0.006159885 -0.63079673 0.8864358 0.30754104 0.79105306 0.028028455
-0.88339376 -0.25390065 0.14134298 0.11845503 0.057586465 0.24021244 -0.5585171 -0.46079418
1.1228036 0.28122285 0.5974903 0.42670718 0.32283205 -0.16957052 -0.43623427 -0.20474996
-0.37662092 -0.013183836 0.028036645 -0.16110304 0.12068096 0.086915694 -0.5920447 0.35968524
0.17101386 -0.21291699 0.1351983 0.22114067 -0.14323214 -0.37200138 -0.08443153 -0.41979268
-0.06121488 -0.052583057 -0.18808846 -0.35739106 -0.2633741 0.07814228 -0.4701183 -0.021193273
-0.35770974 0.08913882 0.15796658 -0.19506967 -0.08734978 -0.21316779 0.34653646 -0.10737166
0.17629662 0.046291135 -0.040958334 0.34292826 0.30239767 0.3348826 -0.35845158 0.00016783828
-0.1516535 -0.08694527 0.3014708 0.2473615 -0.4117633 -0.36913013 -0.22310035 0.25630283
-0.17908064 0.20162916 -0.17450494 0.20886625 -0.27903375 0.18275124 0.17214446 -0.03661579
0.0043197116 0.100713 -0.38926983 0.08611263 -0.048985265 -0.15315932 -0.11039609 -0.024329193
0.10676115 0.4478376 1.0186958 0.29528102 0.18264942 0.1513446 0.2490267 -0.31397384
-0.1598927 -0.13552411 0.21976322 0.0863043 -0.18823658 0.10879212 -0.34259933 0.08722719
-0.18736579 0.08368976 0.45343396 0.24569161 0.11189389 -0.20598796 -0.100355186 -0.31290764
0.057238277 -0.3370419 -0.0081878165 0.080328 0.048147447 -0.47038484 0.016336862 -0.13259025
0.20004454 0.022612656 0.07032705 0.4582871 0.14643525 -0.41127238 0.2985983 -0.2083458
0.44601792 0.25633967 -0.2192886 -0.8467362 0.7728372 0.24094097 0.039660685 0.5239243
-0.4082853 -0.13906838 0.056845773 -0.09293082 -0.1581796 -0.22206827 0.36264884 0.20871118
0.19005823 0.05498477 -0.032532163 0.04127738 0.4108174 -0.211273 0.0792377 -0.04092677
-0.029612184 0.28762627 -0.33816433 -0.5041233 0.49735737 -0.05696364 -0.2766794 0.48365647
-0.29435056 -0.27057776 0.037323013 -0.110969074 0.22196603 -0.040694814 -0.1274289 -0.030855147
00000000: e143 92bd 24a7 893e ee36 413e a5aa 0f3e
00000010: c437 77bd 7a8d 47be 5039 41bd 709c 9fbd
00000020: dadb 043e abc3 9bbd 68f8 11be fa10 c63e
00000030: e719 d03d cf7d 2fbf e07e 17bc 31ce c5bb
00000040: e800 d03c 3e8e d3be 760f 2b3e 6698 153f
00000050: 9a5f e1bd 9729 98be 0251 ff3e 4cf6 a9bd
00000060: 906e 0c3f aad9 b43e 5401 0ebf 0144 64bf
00000070: b9c0 193f a7b9 9b3e c57b 1a3f 0ec5 c13e
00000080: 8a21 bfbd 13df 713c 8a7c af3d 32fe 3c3e
00000090: 5355 ecbe 5c04 6dbe 6836 673f 6050 a43f
000000a0: cb91 57be 53b9 4abf 6542 60be f576 9ebe
000000b0: 50da dabe 63ec 0dbf b36c 163c dfca 0a3e
000000c0: 0adb 0d3e dfe5 133e d6ad 48bf 0cd9 10bf
000000d0: 570e f33e 38cb d33e 5e7d f5bc ecc6 303c
000000e0: 555e 46bf 4f1d fcbe 23c2 ce3d 3efd a6bd
000000f0: 77b5 273f 0723 433d fd19 84be 7b73 a0bd
00000100: dff8 923e 1662 83bd ea21 2f3f f5e9 0b3f
00000110: 7e41 96bd 71af c13d 81e7 e6be e407 6cbe
00000120: 7494 bd3e 2b9b 18be f773 dfbc 5745 67bb
00000130: 0860 9ebd 3d81 743e 3692 ad3e 39ae 213e
00000140: 7b8a 8e3e d827 cb3d 2d1d f73e 586b 0d3f
00000150: 0262 c93c bd1b a9be f441 b1be 070d 343d
00000160: d484 aa3e 6215 143f dcd8 c93b e57b 21bf
00000170: 75ed 623f 0576 9d3e 7482 4a3f ee9b e53c
00000180: 1826 62bf 44ff 81be 37bc 103e 8d98 f23d
00000190: c9df 6b3d 40fa 753e fafa 0ebf 37ed ebbe
000001a0: 07b8 8f3f 71fc 8f3e 20f5 183f 5d79 da3e
000001b0: 3e4a a53e e5a3 2dbe 195a dfbe f9a9 51be
000001c0: 75d4 c0be 0401 58bc 1bad e53c 32f8 24be
000001d0: 9427 f73d db00 b23d 3e90 17bf aa28 b83e
000001e0: 421e 2f3e e906 5abe 6c71 0a3e b372 623e
000001f0: 72ab 12be f776 bebe 70ea acbd 11ef d6be
00000200: 74bc 7abd 5561 57bd 439a 40be f6fb b6be
00000210: f8d8 86be 0f09 a03d 59b3 f0be 849d adbc
00000220: bb25 b7be 6a8e b63d fec1 213e 58c0 47be
00000230: 71e4 b2bd a848 5abe 3a6d b13e ace5 dbbd
00000240: 1a87 343e c69b 3d3d edc3 27bd 4b94 af3e
00000250: ded3 9a3e bb75 ab3e f786 b7be bffd 2f39
00000260: 0e4b 1bbe 5d10 b2bd 615a 9a3e 554c 7d3e
00000270: a4d2 d2be a0fe bcbe 6b74 64be 203a 833e
00000280: ea60 37be e077 4e3e 6cb1 32be 09e1 553e
00000290: 83dd 8ebe 2423 3b3e a346 303e 70fa 15bd
000002a0: 5e8c 8d3b 9e42 ce3d 604e c7be d25b b03d
000002b0: c6a4 48bd ccd5 1cbe 5817 e2bd 044e c7bc
000002c0: 97a5 da3d f84a e53e a064 823f 132f 973e
000002d0: 7308 3b3e 14fa 1a3e db00 7f3e 2ec1 a0be
000002e0: e9ba 23be d5c6 0abe 9c09 613e 4fc0 b03d
000002f0: 17c1 40be 67ce de3d 2e69 afbe 2ba4 b23d
00000300: d1dc 3fbe 8965 ab3d 7f28 e83e 9596 7b3e
00000310: a028 e53d 82ee 52be 0587 cdbd 6e35 a0be
00000320: af72 6a3d c290 acbe 3126 06bc 0283 a43d
00000330: 4236 453d 48d6 f0be e2d4 853c bdc5 07be
00000340: 7ad8 4c3e 2d3e b93c a107 903d 9ba4 ea3e
00000350: 1ff3 153e 4b92 d2be e0e1 983e 9a58 55be
00000360: 765c e43e f43e 833e 318d 60be b4c3 58bf
00000370: a9d8 453f 3bb9 763e 3e73 223d e71f 063f
00000380: c50a d1be f167 0ebe 1dd7 683d 8452 bebd
00000390: d5f9 21be dd65 63be 1cad b93e 62b8 553e
000003a0: a09e 423e b637 613d 7240 05bd 7812 293d
000003b0: a956 d23e f357 58be 6047 a23d d4a2 27bd
000003c0: 4095 f2bc c043 933e e023 adbe 390e 01bf
000003d0: a0a5 fe3e b552 69bd eca8 8dbe d2a1 f73e
000003e0: 1eb5 96be 2b89 8abe 04e0 183d c143 e3bd
000003f0: 104b 633e 9baf 26bd b97c 02be efc3 fcbc

weight_hh_l0 f4 [128, 32]
-0.15407245 0.045021527 -0.3010767 -0.0052338806 0.04758649 0.20995434 -0.016294071 -0.028884912
-0.09643899 0.1509313 0.298547 0.06174659 0.058896683 0.2360376 -0.070169024 0.109774046
0.054800283 -0.14690322 -0.02529065 0.10785216 0.04494787 -0.16016474 -0.23764823 0.14369047
-0.10419153 0.29971987 -0.12233146 0.10931853 0.13492809 -0.22185841 0.0073566744 0.05095192
-0.09858315 0.020035194 0.28084785 -0.13836299 0.07528437 0.18704401 -0.09567483 -0.047542077
-0.12046167 0.08254386 -0.032227654 -0.2899881 0.18236561 -0.026204186 0.07491369 -0.014545881
0.036813553 -0.010839177 -0.016046375 0.07848078 0.2938253 -0.29481667 0.049717076 0.23604566
0.033127803 -0.041857865 0.112336904 -0.10688134 0.058253285 0.0897498 0.07014718 -0.11485739
-0.16691527 0.12056858 0.09781192 -0.15032108 -0.045327507 0.07082104 -0.048947528 0.016399356
-0.17046008 -0.23729655 -0.019568484 -0.1464585 -0.021916794 0.19680604 -0.071838394 -0.22065915
-0.01941024 0.010181916 -0.2665309 -0.24413249 -0.0024296185 -0.1507002 -0.1924062 0.27445492
-0.06679946 0.04538332 -0.06151806 -0.10151839 0.02970092 0.085186705 0.15241991 -0.24373582
0.10478419 0.033504553 0.052606132 -0.10449063 0.03818334 0.18761005 0.23737687 0.14207897
0.1506252 0.07313951 0.111551546 -0.080151305 -0.05641709 0.024414938 0.015349134 -0.35799897
-0.24225762 -0.12569861 -0.13495259 -0.19074374 -0.014456612 0.033713244 -0.050781965 0.02819509
-0.15535992 0.24066234 -0.10379271 -0.052973982 0.44693428 0.00010732174 0.22714688 -0.2659119
-0.11322988 0.24626651 -0.036560066 -0.0023667756 0.16883227 0.38052455 0.102354795 0.0233025
-0.05909126 0.0040584747 -0.004052824 -0.1021279 -0.09349978 0.14242662 0.1642158 -0.32008058
-0.27767664 -0.041909315 -0.10996637 -0.11844295 0.24953608 0.0073857205 0.024605338 0.03867058
-0.24802086 0.12535733 -0.14568728 -0.057991754 0.06802331 0.101593934 0.19335876 -0.19032304
-0.22955036 0.091663584 -0.17013426 -0.2707697 0.11578847 0.3049009 -0.13400549 0.33983985
-0.075566575 -0.39297247 0.14994757 0.10024342 0.0056487205 -0.013644102 0.2541854 0.045387357
-0.1950334 0.016777894 -0.19545195 -0.11346078 0.05433541 -0.18026467 -0.39565712 0.21605292
-0.032439683 0.30299208 0.07376459 -0.2038251 0.27475074 -0.320526 0.43137348 -0.1673664
0.120744415 0.076401666 -0.051586 -0.11505199 0.31864116 -0.05501984 -0.2267693 0.2929472
-0.20363292 0.3186025 0.10223122 0.05192648 0.051913783 0.20989963 -0.11615606 -0.3008164
-0.1372632 -0.21931693 0.08139189 -0.12509653 0.20402671 0.058819335 -0.18790989 0.2647192
-0.02219452 0.15810823 -0.15083487 0.07090824 0.044659067 -0.2903789 -0.035933636 -0.13314526
-0.03253918 0.32516596 0.060415428 -0.019241344 0.18469243 0.005995547 0.055860784 0.17396966
-0.1601767 -0.26584464 -0.04907548 0.12480467 0.14265092 -0.19498156 0.21868972 -0.22498323
0.033805758 -0.11109813 -0.3264423 -0.034115613 0.12739491 -0.14510788 -0.255885 -0.043682568
-0.06298813 -0.051133577 0.061155267 0.08968563 -0.01686259 0.014409817 0.23000874 -0.084267296
00000000: 2bc5 1dbe 7e68 383d ba26 9abe f980 abbb
00000010: 0dea 423d 45fe 563e 257b 85bc 0da0 ecbc
00000020: ce81 c5bd bc8d 1a3e 27db 983e fee9 7c3d
00000030: a63d 713d d7b3 713e c7b4 8fbd 37d1 e03d
00000040: 4376 603d cc6d 16be 562e cfbc 98e1 dc3d
00000050: 421b 383d 3a02 24be 0f5a 73be 9823 133e
00000060: 5e62 d5bd e274 993e eb88 fabd 65e2 df3d
00000070: 972a 0a3e da2e 63be 4210 f13b f6b2 503d
00000080: f6e5 c9bd d920 a43c 4acb 8f3e 07af 0dbe
00000090: b12e 9a3d 7788 3f3e 2af1 c3bd 7bbb 42bd
000000a0: 9cb4 f6bd c10c a93d 2501 04bd 5279 94be
000000b0: 0dbe 3a3e 29aa d6bc 596c 993d d951 6ebc
000000c0: cfc9 163d ce96 31bc b073 83bc 88ba a03d
000000d0: 4570 963e 36f2 96be 22a4 4b3d f4b5 713e
000000e0: 05b1 073d 2773 2bbd e410 e63d 9be4 dabd
000000f0: ff9a 6e3d bece b73d 53a9 8f3d 5a3a ebbd
00000100: d6eb 2abe a9ec f63d 9e51 c83d c5ed 19be
00000110: 56a9 39bd 9f0a 913d 347d 48bd f157 863c
00000120: 168d 2ebe defd 72be 164e a0bc 38f9 15be
00000130: d98a b3bc 8687 493e 0220 93bd 79f4 61be
00000140: 3902 9fbc 0dd2 263c bd76 88be defd 79be
00000150: 3c3a 1fbb 2751 1abe 2206 45be 5b85 8c3e
00000160: 28ce 88bd dce3 393d 5cfa 7bbd e0e8 cfbd
00000170: 584f f33c 5e76 ae3d f713 1c3e e295 79be
00000180: 1899 d63d 123c 093d 8779 573d 2fff d5bd
00000190: 2266 1c3d d91c 403e ec12 733e 267d 113e
000001a0: 7e3d 1a3e 2bca 953d 2375 e43d 5e26 a4bd
000001b0: 9b15 67bd d601 c83c ef7a 7b3c a44b b7be
000001c0: 6212 78be 23b7 00be 0331 0abe 5452 43be
000001d0: 6ddb 6cbc e616 0a3d c000 50bd 64f9 e63c
000001e0: ac16 1fbe 3070 763e 4691 d4bd 3ffb 58bd
000001f0: 92d4 e43e ec11 e138 3199 683e 9b25 88be
00000200: 11e5 e7bd 4a2d 7c3e 02c0 15bd e81b 1bbb
00000210: 5ee2 2c3e 1dd4 c23e 649f d13d e2e4 be3c
00000220: ad09 72bd f4fc 843b 8dcd 84bb 6f28 d1bd
00000230: d07c bfbd 49d8 113e 3028 283e 9ae1 a3be
00000240: a22b 8ebe 1aa9 2bbd 0c36 e1bd 3892 f2bd
00000250: 6386 7f3e ea03 f23b 2291 c93c 0b65 1e3d
00000260: 2ef9 7dbe ac5d 003e 0c2f 15be c388 6dbd
00000270: ce4f 8b3d 7b10 d03d d7ff 453e 0be4 42be
00000280: 400f 6bbe 1eba bb3d ad37 2ebe 53a2 8abe
00000290: 8122 ed3d f91b 9c3e bc38 09be 7dff ad3e
000002a0: a6c2 9abd b033 c9be db8b 193e 6c4c cd3d
000002b0: e718 b93b 838b 5fbc 9724 823e 18e8 393d
000002c0: d6b6 47be cb71 893c 8e24 48be 205e e8bd
000002d0: cf8e 5e3d 4d97 38be 9293 cabe fa3c 5d3e
000002e0: 79df 04bd c721 9b3e e411 973d 87b7 50be
000002f0: 21ac 8c3e fc1b a4be fcdc dc3e 1962 2bbe
00000300: d948 f73d 7a78 9c3d d74b 53bd 61a0 ebbd
00000310: ef24 a33e 7c5c 61bd 3636 68be 2dfd 953e
00000320: 2685 50be de1f a33e 9a5e d13d dcb0 543d
00000330: 8ca3 543d eeef 563e 3ae3 edbd 9b04 9abe
00000340: b98e 0cbe 9e94 60be cbb0 a63d 4e19 00be
00000350: 61ec 503e 8bec 703d 736b 40be 4689 873e
00000360: 48d1 b5bc 20e7 213e 7574 1abe 5738 913d
00000370: 6dec 363d 8bac 94be 262f 13bd 3b57 08be
00000380: ce47 05bd 277c a63e 2b76 773d 06a0 9dbc
00000390: 0320 3d3e 4b76 c43b 47ce 643d 1a25 323e
000003a0: 5c05 24be ca1c 88be 5f03 49bd 9799 ff3d
000003b0: 1513 123e 3fa9 47be 33f0 5f3e 0162 66be
000003c0: e877 0a3d 6b87 e3bd 7223 a7be d0bc 0bbd
000003d0: d073 023e 2997 14be 5c03 83be 7eec 32bd
000003e0: ecff 80bd 7171 51bd f27d 7a3d 19ad b73d
000003f0: 6a23 8abc 2717 6c3c 6987 6b3e 5594 acbd

bias_ih_l0 f4 [128]
0.02341427 -0.04983959 0.15417485 0.14602005 0.062409066 0.24317972 0.22797596 -0.01879547
0.04783334 0.15834424 -0.062223934 -0.11106846 0.118224055 0.3227142 -0.1260494 0.34267724
0.071093395 0.15123571 0.23338617 0.013212028 0.22870767 -0.031619567 -0.0999826 0.10561496
-0.02134632 0.039186824 0.092872836 0.08208607 0.15755099 0.18325987 0.21484214 0.06441805
0.29119924 -0.034029316 -0.043884188 -0.06319671 0.009605235 0.1463102 0.028028289 0.24807341
0.2053622 0.34825847 0.20059027 0.18548346 -0.013537319 0.37474808 0.07676706 0.26799655
-0.0961561 0.22122034 0.18158144 0.26311198 0.15497711 0.10075489 -0.044463433 0.13017924
0.08551123 0.15967606 0.09154314 0.29250416 -0.09489987 0.09554186 0.03083363 0.07480486
-0.040099666 0.051193062 0.069067635 -0.19447395 -0.06065579 0.038648624 0.15867639 0.05299973
0.114121504 -0.073274344 0.17378895 0.04233796 0.051475126 0.02691601 0.11834764 -0.07984408
-0.13851826 -0.08446993 0.16247681 -0.07659966 0.054534636 -0.15888028 -0.076543875 0.17139184
-0.096118346 -0.05197596 0.12489652 -0.03834504 0.014051871 -0.07842622 -0.041285895 0.08785678
0.00022869439 0.22770135 0.22313127 0.17253853 0.17148018 0.27028042 0.24056043 0.102233246
0.031608548 0.28323254 0.1471947 -0.12189176 -0.006955954 0.4867075 0.08064302 0.32541582
0.09248506 -0.08991035 0.1296367 0.17471993 0.07219698 0.13499874 0.012635479 0.08866475
0.2292844 0.13665396 0.24143155 -0.010341381 -0.093697906 0.0458089 0.1614849 0.039006926
00000000: 48cf bf3c 9924 4cbd 03e0 1d3e 4886 153e
00000010: a6a0 7f3d 1b04 793e 8872 693e f5f8 99bc
00000020: e4ec 433d fe24 223e 86de 7ebd dc77 e3bd
00000030: 741f f23d cc3a a53e 1813 01be 6473 af3e
00000040: 6a99 913d 89dd 1a3e c9fc 6e3e 4377 583c
00000050: 5832 6a3e 8583 01bd adc3 ccbd a84c d83d
00000060: 7ade aebc 5d82 203d 1d34 be3d be1c a83d
00000070: 0c55 213e 7aa8 3b3e 94ff 5b3e 9ced 833d
00000080: 1118 953e 5362 0bbd e8bf 33bd 476d 81bd
00000090: 475f 1d3c 57d2 153e 959b e53c f506 7e3e
000000a0: 784a 523e ef4e b23e 8967 4d3e 60ef 3d3e
000000b0: a2cb 5dbc fbde bf3e 0c38 9d3d d836 893e
000000c0: 7ded c4bd 9687 623e 7cf0 393e 9db6 863e
000000d0: 52b2 1e3e 9458 ce3d 4a1f 36bd b54d 053e
000000e0: 8320 af3d 1f82 233e f87a bb3d 1bc3 953e
000000f0: dd5a c2bd 73ab c33d cf96 fc3c 4a33 993d
00000100: 8c3f 24bd d1af 513d 5573 8d3d 2e24 47be
00000110: 3572 78bd 054e 1e3d 107c 223e 3f16 593d
00000120: 89b8 e93d dc10 96bd bbf5 313e 926a 2d3d
00000130: 95d7 523d f77e dc3c 3f60 f23d 4b85 a3bd
00000140: bbd7 0dbe 92fe acbd 5260 263e 48e0 9cbd
00000150: b65f 5f3d 83b1 22be 09c3 9cbd 5881 2f3e
00000160: b2d9 c4bd bfe4 54bd bfc9 ff3d b00f 1dbd
00000170: d239 663c ed9d a0bd 661b 29bd 41ee b33d
00000180: afcd 6f39 8b2a 693e 867c 643e f1ad 303e
00000190: 8098 2f3e 3262 8a3e 7955 763e aa5f d13d
000001a0: f777 013d db03 913e 35ba 163e 63a2 f9bd
000001b0: c5ee e3bb ba31 f93e 2b28 a53d e79c a63e
000001c0: cf68 bd3d eb22 b8bd 7cbf 043e c8e9 323e
000001d0: 03dc 933d 1c3d 0a3e 0a05 4f3c dd95 b53d
000001e0: 88c9 6a3e 04ef 0b3e d539 773e e56e 29bc
000001f0: b0e4 bfbd 1da2 3b3d 4c5c 253e bac5 1f3d

bias_hh_l0 f4 [128]
0.25245386 0.20964871 0.084362365 -0.022910984 0.15644352 0.3308607 -0.018642602 0.08528913
0.12651075 0.2304753 0.14283347 0.09768569 0.118765585 0.3319997 0.10323463 0.39375207
0.020046491 0.07211311 0.14314397 -0.031749554 0.23377237 0.07781494 0.19440162 0.032138057
-0.12834378 -0.043971445 0.057114564 -0.0140888505 0.18339345 0.20746873 0.074027434 0.09338907
0.15699162 0.18698479 0.08004055 0.041210964 0.020017356 -0.020555675 -0.095078476 -0.041896723
-0.056281693 0.16956238 0.119258426 0.0797287 0.13100718 0.38784057 -0.07967691 0.1940706
-0.02868996 -0.03887626 0.03657828 0.075928025 0.14738365 0.023876175 0.10037357 -0.01739496
0.10994625 0.20458029 0.0022694515 0.07354786 0.10354881 -0.09673072 -0.08870306 0.25175738
0.13918877 0.069135144 -0.119644925 -0.16129553 0.012840336 -0.16261381 -0.045522902 0.05232993
-0.1466089 0.1493853 0.09871072 0.149667 0.012606542 0.09979788 0.0954485 0.026927995
-0.049617924 0.08670602 -0.1207262 0.021448875 0.101500705 -0.11719184 0.055040672 0.10706482
-0.031964727 0.17056067 -0.07930254 -0.022208277 -0.13467185 -0.11708312 0.1837415 -0.09170827
0.26461244 0.20367339 0.12253664 -0.09377884 -0.0017004071 0.2834762 0.16564924 0.17595805
0.074681975 0.29595777 0.0924249 -0.10112077 0.0009251655 0.3458655 0.1463861 0.42749685
0.240578 -0.031524807 -0.092316344 0.16001013 0.055029534 -0.05513237 0.1334989 0.37544373
0.10421984 0.26248723 0.029766439 0.17505768 0.18181852 0.11300011 0.08630595 0.10371698
00000000: a241 813e 27ae 563e 2dc6 ac3d d1af bbbc
00000010: bb32 203e 9366 a93e 5fb8 98bc 11ac ae3d
00000020: 098c 013e b801 6c3e f042 123e 6f0f c83d
00000030: 5f3b f33d ddfb a93e ad6c d33d df99 c93e
00000040: 8a38 a43c 0ab0 933d 5594 123e d20b 02bd
00000050: 0662 6f3e 705d 9f3d 3811 473e 32a3 033d
00000060: 8d6c 03be 671b 34bd f6f0 693d ecd4 66bc
00000070: 7ecb 3b3e af72 543e b29b 973d c542 bf3d
00000080: 69c2 203e f178 3f3e 4dec a33d d4cc 283d
00000090: 70fb a33c 6064 a8bc 81b8 c2bd e69b 2bbd
000000a0: a287 66bd c3a1 2d3e c33d f43d cd48 a33d
000000b0: bf26 063e 0a93 c63e a62d a3bd 72ba 463e
000000c0: 3507 ebbc b73c 1fbd 1bd3 153d 2780 9b3d
000000d0: bdeb 163e f897 c33c a990 cd3d e07f 8ebc
000000e0: 802b e13d 7f7d 513e 14bb 143b 43a0 963d
000000f0: 6611 d43d c11a c6bd f3a9 b5bd 58e6 803e
00000100: 8087 0e3e ba96 8d3d 6608 f5bd a82a 25be
00000110: 4660 523c 3c84 26be 3976 3abd e957 563d
00000120: a520 16be 76f8 183e d928 ca3d 4e42 193e
00000130: ab8b 4e3c d562 cc3d 817a c33d 1998 dc3c
00000140: 2a3c 4bbd ed92 b13d 4c3f f7bd 8db5 af3c
00000150: 9adf cf3d 4702 f0bd 5472 613d cd44 db3d
00000160: 72ed 02bd 75a7 2e3e 5f69 a2bd 22ee b5bc
00000170: 6be7 09be 46c9 efbd bb26 3c3e 8cd1 bbbd
00000180: 487b 873e c28f 503e 7df4 fa3d 1f0f c0bd
00000190: 32e0 deba cb23 913e f49f 293e 592e 343e
000001a0: ddf2 983d c787 973e 4449 bd3d 6818 cfbd
000001b0: ce86 723a 4815 b13e 3de6 153e dee0 da3e
000001c0: 145a 763e 2820 01bd 5a10 bdbd b2d9 233e
000001d0: a666 613d 7bd2 61bd f0b3 083e 293a c03e
000001e0: 3671 d53d ba64 863e bfd8 f33c 5242 333e
000001f0: a22e 3a3e 9a6c e73d 2dc1 b03d 9169 d43d

weight_ih_l0_reverse f4 [128, 2]
0.101019844 -0.123534404 0.19323488 0.35138634 -0.11974127 -0.048796743 0.18333727 -0.1327378
0.04330601 0.24746744 -0.13087815 -0.24564849 0.04195926 0.38343832 -0.058359627 -0.28571522
-0.061916307 -0.21798992 -0.21535568 0.16163802 -0.30080566 0.23307434 0.098127775 -0.08631069
-0.29855782 0.4025602 -0.19043082 -0.24745661 0.18036832 0.00015582825 -0.11433029 0.111200124
-0.07558517 0.13135561 -0.09361497 -0.059872992 -0.4456403 -0.084835716 0.05442478 0.15775982
-0.04647547 0.6205779 -0.17371617 -0.019582158 -0.24283743 0.16488758 0.17316233 0.058605555
-0.06450062 -0.06991038 -0.15835407 -0.14357038 0.15292324 -0.010825355 -0.15080918 0.067987315
-0.20572469 0.28173596 0.026994396 -0.026474174 0.21036407 -0.27951768 -0.35183156 -0.23063868
-0.0378534 0.085715264 0.20331821 0.050267678 -0.14835005 0.013879226 0.001892544 -0.19905864
0.0046652444 0.12132054 0.10348222 -0.0008974692 -0.13621797 0.2693194 0.0029066305 -0.07751653
0.036298573 -0.1142595 -0.09719417 -0.09224823 0.046412535 -0.077729605 0.15264507 -0.12880032
-0.26238355 0.41079044 -0.04670445 -0.22473864 0.08866392 -0.12838145 -0.21708795 -0.010918124
0.13264641 -0.012737118 -0.13208841 0.009796841 -0.4819745 -0.174432 -0.13738176 0.07932515
-0.03485203 0.3383116 -0.078719325 -0.08056937 -0.0016790606 -0.20238815 -0.2072751 -0.012096564
0.026719319 -0.23689741 0.041387483 -0.29973817 0.16903083 -0.051859673 0.013908499 -0.23647548
-0.19067967 0.3729153 0.24148044 -0.0379363 0.25439543 -0.20004335 -0.14382069 -0.30625525
-0.17500407 -0.17429511 0.24210376 0.270445 0.03194462 -0.14943872 -0.19161385 -0.17797539
0.05738467 0.2939998 -0.0077178455 0.29236555 0.08896441 -0.21290095 -0.16711825 0.25747904
-0.14245123 -0.038981423 -0.07775585 0.2486015 0.2367422 -0.14608563 0.28560802 -0.07705713
0.24471977 -0.16679716 0.33496612 -0.033522274 -0.23418349 0.039547272 0.01500823 0.23081103
0.07988883 0.12858711 0.023945507 0.33832282 0.19634701 0.032208316 -0.343293 -0.18562733
-0.24455777 -0.21028507 0.24315771 -0.17192452 -0.22556525 0.158223 0.16728052 0.24497339
-0.052530173 0.27477878 0.29983017 0.08098289 -0.27746275 0.16350642 0.11662726 -0.3022866
-0.47817767 0.20068158 0.18091987 0.14472514 0.23564057 -0.30304214 0.3274606 0.18174253
0.21867427 -0.058978394 0.2110528 0.2022384 0.016984338 -0.16554615 -0.06748381 -0.21169506
-0.037824817 0.24806711 -0.20435876 -0.19424129 -0.15834521 0.20479012 0.06717613 -0.24205127
-0.077752896 -0.12411979 -0.07721003 -0.12734461 0.07900961 -0.116703555 0.15904376 -0.17945957
-0.03418644 0.2875826 0.004553863 -0.12088946 0.24251345 -0.10986331 -0.061254196 -0.12965135
0.19610772 0.10430087 0.0053746537 -0.15845792 -0.5202736 -0.1137779 -0.27619842 0.101461574
-0.042472716 0.24783252 -0.09770853 0.075312294 -0.15150897 -0.15921633 -0.080328435 -0.008017259
0.12645748 0.021474836 0.18315409 -0.2251374 -0.15003006 0.038206603 0.10378603 0.10899039
0.11809885 0.064872876 0.01390744 -0.2666604 0.106490284 -0.17685254 -0.30300814 -0.25030088
00000000: 7ee3 ce3d 9bff fcbd 5ddf 453e e9e8 b33e
00000010: e93a f5bd 18df 47bd c4bc 3b3e 6bec 07be
00000020: a561 313d 1b68 7d3e ec04 06be 478b 7bbe
00000030: 79dd 2b3d 0752 c43e 810a 6fbd 4449 92be
00000040: f49b 7dbd c038 5fbe 3386 5cbe 7084 253e
00000050: 3303 9abe 0aab 6e3e 37f7 c83d a9c3 b0bd
00000060: 92dc 98be 5f1c ce3e 4c00 43be 4465 7dbe
00000070: 79b2 383e d465 2339 0026 eabd e4bc e33d
00000080: 66cc 9abd 1682 063e 35b9 bfbd 623d 75bd
00000090: f72a e4be 59be adbd 85ec 5e3d ca8b 213e
000000a0: 105d 3ebd 31de 1e3f a7e2 31be c36a a0bc
000000b0: 60aa 78be 4ad8 283e 7751 313e 610c 703d
000000c0: e718 84bd 2c2d 8fbd 9227 22be 1d04 13be
000000d0: e997 1c3e d45c 31bc b96d 1abe ef3c 8b3d
000000e0: 7ea9 52be b23f 903e 5a23 dd3c 5ee0 d8bc
000000f0: ae69 573e f11c 8fbe 4423 b4be 8c2c 6cbe
00000100: 2b0c 1bbd 7c8b af3d a632 503e 7be5 4d3d
00000110: 13e9 17be b165 633c 3d0f f83a 07d6 4bbe
00000120: e8de 983b e776 f83d 7cee d33d 2344 6bba
00000130: b97c 0bbe 3be4 893e 2b7d 3e3b fdc0 9ebd
00000140: d0ad 143d e200 eabd bd0d c7bd a4ec bcbd
00000150: 121b 3e3d b330 9fbd fd4e 1c3e 3be4 03be
00000160: 2357 86be 2053 d23e 2a4d 3fbd e321 66be
00000170: 6e95 b53d 6d76 03be 4e4c 5ebe eee1 32bc
00000180: 76d4 073e 58af 50bc 2f42 07be ee82 203c
00000190: 5dc5 f6be 4d9e 32be cead 0cbe 3975 a23d
000001a0: 01c1 0ebd 2e37 ad3e 9937 a1bd 8e01 a5bd
000001b0: ed13 dcba d73e 4fbe ec3f 54be ab30 46bc
000001c0: 79e2 da3c 3c95 72be ec85 293d 4877 99be
000001d0: 6b16 2d3e cf6a 54bd 79e0 633c a126 72be
000001e0: 8841 43be c1ee be3e a646 773e 1863 1bbd
000001f0: 1e40 823e 2ad8 4cbe bb45 13be 7dcd 9cbe
00000200: 4434 33be 6b7a 32be 0cea 773e c477 8a3e
00000210: 5dd8 023d 7706 19be 6c36 44be 2e3f 36be
00000220: 300c 6b3d 2487 963e fbe5 fcbb f0b0 953e
00000230: f932 b63d b502 5abe 0c21 2bbe 4bd4 833e
00000240: bcde 11be fcaa 1fbd 763e 9fbd 6491 7e3e
00000250: 8c6c 723e 7997 15be 373b 923e 21d0 9dbd
00000260: d297 7a3e e0cc 2abe ae80 ab3e a74e 09bd
00000270: cccd 6fbe 52fc 213d 14e5 753c ba59 6c3e
00000280: c19c a33d 57ac 033e 5e29 c43c a638 ad3e
00000290: 310f 493e deec 033d 1ac4 afbe 1715 3ebe
000002a0: 5a6d 7abe f854 57be 56fe 783e fb0c 30be
000002b0: 94fa 66be 3605 223e 964b 2b3e 4eda 7a3e
000002c0: e129 57bd ceaf 8c3e 5783 993e 5cda a53d
000002d0: 990f 8ebe 3a6e 273e 46da ee3d 4fc5 9abe
000002e0: b4d3 f4be 797f 4d3e 0f43 393e d432 143e
000002f0: c34b 713e 5728 9bbe eaa8 a73e b71a 3a3e
00000300: 26ec 5f3e 5493 71bd 3a1e 583e 9517 4f3e
00000310: bd22 8b3c ee84 29be f434 8abd 97c6 58be
00000320: 32ee 1abd 4e05 7e3e 6c43 51be 30e7 46be
00000330: 3f25 22be 80b4 513e a493 893d 4adc 77be
00000340: e93c 9fbd 8432 febd 4b20 9ebd a066 02be
00000350: cacf a13d 4602 efbd 5edc 223e 40c4 37be
00000360: 1507 0cbd 073e 933e 9238 953b e594 f7bd
00000370: 7255 783e 0400 e1bd aee5 7abd 53c3 04be
00000380: 76d0 483e b29b d53d dd1d b03b cb42 22be
00000390: a730 05bf 6304 e9bd e169 8dbe 16cb cf3d
000003a0: dff7 2dbd cfc7 7d3e 691b c8bd 553d 9a3d
000003b0: 2b25 1bbe 9b09 23be 3c83 a4bd d25a 03bc
000003c0: 127e 013e ffeb af3c bf8c 3b3e 6b8a 66be
000003d0: 7ba1 19be 877e 1c3d c58d d43d 5b36 df3d
000003e0: cfdd f13d 12dc 843d 08dc 633c b687 88be
000003f0: 9417 da3d d518 35be e223 9bbe 7027 80be

weight_hh_l0_reverse f4 [128, 32]
-0.02548523 0.100848466 -0.026288105 0.041025735 0.08246878 0.09430262 -0.020809723 0.02463717
-0.018686803 0.056082267 0.026843896 -0.058769397 -0.07274409 0.114524566 -0.11072435 0.03475245
0.012893334 0.09356317 0.019208299 -0.04001023 -0.08065218 0.12395131 0.03731482 -0.018152742
-0.111012444 0.16896777 -0.17338338 -0.13653381 0.009254428 0.10466654 -0.13900213 0.037183754
-0.04166187 0.12440427 0.041608084 0.20895028 -0.066019654 -0.08328302 -0.073234946 -0.11804384
-0.06617067 0.0697833 -0.026991926 -0.13045572 -0.15467969 -0.09569009 0.021577299 -0.050419692
-0.07336796 -0.08344793 0.015260742 0.020575568 -0.050038796 0.113445505 -0.045085747 -0.17932957
-0.09648029 -0.018150123 -0.08397696 -0.053345833 0.014933852 -0.11745513 0.09644763 0.07428514
0.09564825 -0.23558304 -0.08945466 -0.034926802 0.09688881 0.1109173 0.08799536 -0.1945398
0.010746981 0.003973208 0.0015814448 0.07835054 0.01601376 -0.0051113297 0.07186066 -0.0013556848
-0.1942307 -0.06478128 -0.09434926 0.0510704 -0.0031527139 -0.090195365 0.042651147 -0.1867912
-0.13094081 0.17162362 0.004799821 0.029277427 0.076025695 0.120087616 -0.04498757 -0.21151812
0.012784546 -0.17258517 -0.11532328 -0.034179445 -0.1096596 -0.04672876 0.108716704 0.071272545
-0.067973256 -0.09323297 -0.07550033 0.13074836 0.052472938 -0.0010423484 0.061768495 0.09913666
-0.08829202 0.07853434 -0.116209045 -0.0016999732 -0.027204506 0.15266807 -0.19814758 0.025705403
-0.1964163 0.07495964 0.019629003 0.017214863 0.06760551 -0.17608249 0.033404347 -0.062611975
0.13120298 0.03357343 -0.12942433 0.032960787 -0.10078071 0.05691656 -0.05678537 -0.014752349
0.13870287 -0.12307277 -0.097297415 -0.026221871 -0.20495994 0.12011166 -0.03972167 -0.07695418
-0.052885555 0.083538346 0.0032019408 -0.11839663 -0.24197596 0.019519128 -0.059373327 0.16911592
-0.11571871 0.24287345 -0.13758563 0.16229278 0.00046318304 0.1610437 -0.09268302 -0.12288932
0.05172509 -0.11174876 0.08568369 0.04564673 0.0868336 0.09586459 -0.10449891 -0.1730501
-0.20379731 -0.13401625 0.046309352 -0.10081329 -0.1558653 0.12871157 -0.057769153 -0.046298537
-0.0078754 -0.22523108 -0.23307264 -0.08245421 0.052446432 0.07827714 -0.18307847 0.059169624
0.082113944 -0.021325974 -0.11348044 -0.046822563 -0.2348445 0.04487666 0.18502077 -0.124225646
0.14657396 0.27071387 0.05934503 -0.12590063 0.0260366 -0.19705099 0.053466078 -0.13972232
-0.054150302 -0.18067811 0.01618424 0.12757671 -0.16882458 0.06678835 -0.13751024 0.14356261
-0.028884254 0.10771715 -0.1737676 0.07523147 -0.010821792 0.24082562 0.17799154 0.0038556105
-0.14856838 0.12973672 -0.010670234 -0.10955043 -0.045021683 -0.06734396 0.035336573 -0.017639711
0.20054916 -0.23706765 0.17905428 -0.11270827 -0.028282449 -0.045409158 -0.01125961 -0.21293211
-0.04788042 -0.09087369 0.16329461 -0.027484735 -0.103582375 0.07888383 0.11497303 -0.19758244
0.06082695 -0.028994821 -0.20431483 -0.032434348 0.013301637 -0.063442044 0.0027913116 -0.017766207
0.12469306 0.13111284 0.1459429 0.016198684 -0.06862584 -0.07571528 -0.019433 -0.023749242
00000000: 67c6 d0bc a489 ce3d 275a d7bc 9a0a 283d
00000010: 64e5 a83d bb21 c13d 2779 aabc e4d3 c93c
00000020: 1115 99bc 85b6 653d bbe7 db3c 2eb8 70bd
00000030: dafa 94bd db8b ea3d 73c3 e2bd 9658 0e3d
00000040: 903e 533c 0c9e bf3d b95a 9d3c c4e1 23bd
00000050: f82c a5bd 2fda fd3d 6dd7 183d 0fb5 94bc
00000060: 7e5a e3bd e305 2d3e 6a8b 31be 85cf 0bbe
00000070: e29f 173c 695b d63d 9356 0ebe fe4d 183d
00000080: a3a5 2abd aac7 fe3d 3d6d 2a3d 10f7 553e
00000090: 5035 87bd 4a90 aabd 34fc 95bd f8c0 f1bd
000000a0: 7d84 87bd 8cea 8e3d 2c1e ddbc 2f96 05be
000000b0: 5a64 1ebe 2af9 c3bd e0c2 b03c e184 4ebd
000000c0: f141 96bd c0e6 aabd 3108 7a3c 188e a83c
000000d0: 7bf5 4cbd 1e56 e83d d5ab 38bd 2ca2 37be
000000e0: 7597 c5bd 91af 94bc 1dfc abbd 2981 5abd
000000f0: 1dad 743c 518c f0bd 5686 c53d cf22 983d
00000100: 3be3 c33d ae3c 71be 0134 b7bd 680f 0fbd
00000110: a46d c63d 9c28 e33d e936 b43d 7135 47be
00000120: 1b14 303c af31 823b 7b48 cf3a 3f76 a03d
00000130: 4a2f 833c f17c a7bb af2b 933d 3cb1 b1ba
00000140: 6ae4 46be 0cac 84bd 2f3a c1bd 322f 513d
00000150: c39d 4ebb 59b8 b8bd f8b2 2e3d 3146 3fbe
00000160: 5915 06be 1abe 2f3e d147 9d3b 37d7 ef3c
00000170: 5cb3 9b3d 7ff0 f53d e344 38bd 3598 58be
00000180: 4676 513c 2bba 30be 9d2e ecbd bfff 0bbd
00000190: 3695 e0bd a866 3fbd dda6 de3d 57f7 913d
000001a0: 9035 8bbd edf0 bebd eb9f 9abd e6e2 053e
000001b0: dded 563d 699f 88ba f600 7d3d 2908 cb3d
000001c0: 72d2 b4bd 9dd6 a03d 02ff edbd a3d1 deba
000001d0: fcdb debc 0555 1c3e 33e7 4abe 2394 d23c
000001e0: 5b21 49be 7184 993d 01cd a03c 2f06 8d3c
000001f0: c274 8a3d f84e 34be ffd2 083d b53a 80bd
00000200: 135a 063e 4b84 093d d087 04be e401 073d
00000210: 1e66 cebd 5721 693d c797 68bd d6b3 71bc
00000220: 2008 0e3e 940d fcbd de43 c7bd 40cf d6bc
00000230: 05e1 51be 1afd f53d 31b3 22bd 279a 9dbd
00000240: 869e 58bd 2716 ab3d a7d7 513b ef79 f2bd
00000250: 8cc8 77be 94e6 9f3c 7231 73bd b92c 2d3e
00000260: eefd ecbd d1b3 783e 3fe3 0cbe 1430 263e
00000270: 60d7 f239 a4e8 243e 98d0 bdbd 65ad fbbd
00000280: b0dd 533d 89dc e4bd ee7a af3d 11f8 3a3d
00000290: d1d5 b13d a754 c43d 8603 d6bd 0c34 31be
000002a0: 3eb0 50be 8e3b 09be e0ae 3d3d 3377 cebd
000002b0: 279b 1fbe f7cc 033e 599f 6cbd 89a3 3dbd
000002c0: d207 01bc faa2 66be 98aa 6ebe c1dd a8bd
000002d0: 12d2 563d c44f a03d ec78 3bbe d95b 723d
000002e0: 5b2b a83d cfb3 aebc 6f68 e8bd 04c9 3fbd
000002f0: 147b 70be 97d0 373d 1676 3d3e 046a febd
00000300: 7c17 163e 029b 8a3e c613 733d 18ec 00be
00000310: b54a d53c bcc7 49be 3fff 5a3d 5e13 0fbe
00000320: b5cc 5dbd af03 39be d094 843c 78a3 023e
00000330: 5ae0 2cbe 55c8 883d 7ccf 0cbe 1402 133e
00000340: ac9e ecbc cf9a dc3d 22f0 31be f512 9a3d
00000350: e34d 31bc fe9a 763e 6a43 363e 69ae 7c3b
00000360: 4f22 18be b4d9 043e 35d2 2ebc fa5b e0bd
00000370: a868 38bd a1eb 89bd 15bd 103d 2881 90bc
00000380: c25c 4d3e ddc1 72be 015a 373e 98d3 e6bd
00000390: 98b0 e7bc f4fe 39bd 3a7a 38bc e00a 5abe
000003a0: 421e 44bd fc1b babd b436 273e ab27 e1bc
000003b0: ff22 d4bd d88d a13d fb76 eb3d 0d53 4abe
000003c0: ae25 793d 8c86 edbc e837 51be e1d9 04bd
000003d0: 1cef 593c e7ed 81bd 70ee 363b 708a 91bc
000003e0: 135f ff3d 7242 063e 0e72 153e 1ab3 843c
000003f0: b48b 8cbd 9d10 9bbd f431 9fbc c58d c2bc
