sgan-dataset/logs/zara1/models_03_Mar_2019_13_48_21/model_registrar-599.pt (torch_old, 575433 bytes, 45 tensors)

weight_ih_l0 f4 [128, 6]
0	0xbdb9bb3e	-0.09068917
1	0xbbba6777	-0.0056886035
2	0xbdc17fd7	-0.09448212
3	0x3d025158	0.031815857
4	0xbdba1544	-0.09086087
5	0x3e2f6c96	0.17131266
6	0xbe6d460d	-0.23171254
7	0xbe6bdec8	-0.23034203
8	0xbe28719a	-0.16449586
9	0xbdbe0fd0	-0.0928036
10	0x3dbfe14c	0.09369144
11	0xbc34c134	-0.011032391
12	0xbe164a40	-0.14676762
13	0xbe01c113	-0.12671308
14	0xbdda3a88	-0.10655695
15	0xbdf01804	-0.117233306
16	0xbe7e2c1e	-0.24821517
17	0x3e75f843	0.24020486
18	0xbdcb1d8e	-0.099177465
19	0x3d44799b	0.047967535
20	0x3e5c14d4	0.2149232
21	0xbe2aef37	-0.16692816
22	0x3ccb241e	0.024797495
23	0x3e77922a	0.24176851
24	0xbd97d003	-0.07412722
25	0x3d6ffbca	0.058589734
26	0xbe536c1e	-0.20646712
27	0x3e3eb5d7	0.18624054
28	0x3e0e58d4	0.13901073
29	0xbe3824a0	-0.17982721
30	0x3e250497	0.16115032
31	0x3d9d5c2e	0.076835975
32	0x3d8a46fc	0.067518204
33	0x3d69458f	0.056951102
34	0x3deb668f	0.11494171
35	0xbcf3e8ba	-0.029774059
36	0xbe2db6f8	-0.16964328
37	0xbd91c91d	-0.071184374
38	0xbe4d661b	-0.20058481
39	0x3b7ac50e	0.0038264426
40	0xbb9f2751	-0.004856982
41	0xbdbcc3b2	-0.092170134
42	0x3b86f0fe	0.004118084
43	0x3e3d006a	0.18457189
44	0xbdf8f464	-0.12155989
45	0x3ce22d49	0.027609484
46	0xbe456055	-0.19275029
47	0x3d241c30	0.040065944
48	0x3e22f014	0.15911895
49	0x3df258a3	0.11833312
50	0x3d93c3c8	0.07215077
51	0x3db73e51	0.08947433
52	0xbce4c5c9	-0.027926343
53	0x3d537f0e	0.05163484
54	0xbde30591	-0.11085046
55	0xbe62f64a	-0.22164264
56	0xbdb43d9e	-0.08800815
57	0x3e2aa0f1	0.16662957
58	0x3a038d40	0.00050183013
59	0xbe4400c7	-0.19140922
60	0x3c9c626b	0.019089898
61	0x3e1606da	0.14651051
62	0xbe886a8c	-0.2664379
63	0xbe6da40c	-0.2320711
64	0xbcecdda9	-0.02891429
65	0x3cb25091	0.021766933
66	0xbd4d3c9a	-0.050106622
67	0xbc01d894	-0.007925171
68	0xbde0367f	-0.10947894
69	0x3dd26353	0.10272851
70	0x3e19e9aa	0.15030542
71	0x3debe7bb	0.115188085
72	0xbe2f153b	-0.17097943
73	0xbe2abcba	-0.16673556
74	0x3db8fcc8	0.09032589
75	0x3c1642b0	0.009171173
76	0x3d5803e6	0.052738093
77	0xbe29c48b	-0.16578881
78	0xbd29616b	-0.04135267
79	0x3de05a29	0.10954697
80	0x3e4daaa5	0.20084627
81	0xbd86f254	-0.06589189
82	0xbdb35b57	-0.08757656
83	0x3c689fb7	0.014198235
84	0xbde9550c	-0.113931745
85	0xbd911915	-0.07084862
86	0xbe16e49c	-0.14735645
87	0x3e3b0e6d	0.18267222
88	0x3d5f12cb	0.05446128
89	0x3dc9a4c4	0.0984588
90	0xbdeb7d3e	-0.114984974
91	0x3e22b837	0.15890585
92	0x3d578d7c	0.052625164
93	0x3e95f824	0.2929088
94	0xbd2b1eec	-0.041777536
95	0xbcabff76	-0.020995837
96	0x3e1577f3	0.14596538
97	0x3dc630e7	0.09677296
98	0x3cf2864c	0.029605053
99	0x3d3e2613	0.04642303
100	0x3e2435cb	0.16036145
101	0xbdd9a530	-0.1062721
102	0xbd4d811d	-0.05017196
103	0xbe2eef9c	-0.17083591
104	0x3dbe8259	0.093022056
105	0xbd9c4fec	-0.076324314
106	0xbc955244	-0.018227704
107	0x3e89d2b9	0.2691858
108	0x3da69a0c	0.08134851
109	0xbb97c89f	-0.00463207
110	0x3e0a6a3b	0.13517086
111	0xbc293a54	-0.010328848
112	0x3d9487f4	0.072524935
113	0xbda565ee	-0.08076082
114	0xbc892f5f	-0.016746221
115	0x3d107fb8	0.035278052
116	0xbe704433	-0.23463516
117	0x3d9a3a5b	0.07530662
118	0x3dc19616	0.09452455
119	0x3e517620	0.20455217
120	0xbd71abf8	-0.059001893
121	0x3d89d5d7	0.0673024
122	0x3ea81c95	0.32834306
123	0xbccbac59	-0.024862455
124	0x3e11e28d	0.14246579
125	0xbdaed6f3	-0.08537092
126	0xbd855696	-0.065106556
127	0xbcdecf4b	-0.027198454
128	0x3d814e8d	0.063138105
129	0x3e0a7da3	0.13524489
130	0xbe838e4e	-0.25694507
131	0x3e6f2dcf	0.23357318
132	0xbc3e3e80	-0.011611581
133	0xbe0a55ea	-0.13509336
134	0xbdc2f915	-0.09520165
135	0xbdaf6ff5	-0.08566276
136	0x3da9ac74	0.08284846
137	0x3d2af4db	0.04173742
138	0xbc810aac	-0.015752159
139	0xbdb02618	-0.08601016
140	0xbddd4f85	-0.10806183
141	0x3c1e4637	0.009660295
142	0x3d1fca8c	0.039011523
143	0x3e4acc3b	0.1980447
144	0xbbfc6449	-0.0077023846
145	0xbdf232ce	-0.118260965
146	0xbe30c39f	-0.17262124
147	0xbddc824f	-0.10767042
148	0xbda46f52	-0.08029045
149	0xbd8bc865	-0.068253316
150	0xbe1a7478	-0.15083492
151	0xbdcfb256	-0.10141437
152	0x3d968623	0.07349803
153	0x3e0746ae	0.13210556
154	0x3cc7d137	0.024391754
155	0x3e822406	0.2541811
156	0xbe0619c9	-0.13095774
157	0x3bedd2ae	0.007257781
158	0x3cef0eed	0.029181922
159	0x3d1a9925	0.037743706
160	0x3cb787de	0.022403654
161	0x3e8ffff3	0.2812496
162	0xbe1a3c98	-0.15062177
163	0x3ddd940c	0.10819253
164	0x3ea5df41	0.32396892
165	0x3de8d943	0.113695644
166	0xbc85b3fa	-0.016321171
167	0x3e54d1f2	0.20783213
168	0x3de8d19e	0.11368106
169	0x3e03e504	0.12880331
170	0xba92bd5b	-0.0011195348
171	0xbe317a5b	-0.17331831
172	0x3ce504dc	0.027956419
173	0x3d926201	0.07147599
174	0xbe0c17a4	-0.13680893
175	0xbdd9177d	-0.10600183
176	0xbe3de1ec	-0.18543214
177	0xbd3cd35c	-0.046100006
178	0xbb21ae69	-0.0024670607
179	0x3b624d94	0.0034531103
180	0xbabdbdbb	-0.00144761
181	0x3d2400c2	0.040039785
182	0x3e06bd2b	0.131581
183	0xbe9d3c77	-0.30710194
184	0xbe337bb6	-0.1752766
185	0xbe1485fa	-0.14504233
186	0xbd9bcfb0	-0.076079726
187	0x3dc4701c	0.09591696
188	0x3dbf08d4	0.09327856
189	0xbe5d5c0d	-0.21617146
190	0xbdb5760f	-0.088604085
191	0xbe50bcbe	-0.203845
192	0x3d3b301d	0.04570018
193	0x3e03b621	0.12862445
194	0xbe1157c2	-0.14193633
195	0xbe00f766	-0.12594375
196	0x3df87bda	0.12132998
197	0xbd63c271	-0.055605356
198	0x3d0d4592	0.034490176
199	0xbd792cbf	-0.06083369
200	0xbdb7d742	-0.08976604
201	0xbe0224b3	-0.12709312
202	0x3e105543	0.14095025
203	0xbb2bb11e	-0.00261981
204	0xbe0cbae7	-0.13743173
205	0xbcd0ac25	-0.02547271
206	0xbd568759	-0.05237517
207	0xbdb37b10	-0.08763707
208	0xbc8915b0	-0.016733974
209	0x3e2ce558	0.16884363
210	0xbde9e665	-0.114208974
211	0xbd13654f	-0.035985287
212	0x3e151a39	0.14560784
213	0xbe920d39	-0.28525713
214	0x3cfe5454	0.03104607
215	0xbcd11492	-0.025522504
216	0x3db6d46d	0.08927236
217	0xbdc1c48f	-0.09461319
218	0xbddef58b	-0.10886677
219	0x3d956d4e	0.07296239
220	0xbe1dc6b9	-0.15407838
221	0xbe07c710	-0.1325953
222	0x3da3fbd7	0.08007019
223	0xbd6083aa	-0.054813065
224	0x3dc4274b	0.09577807
225	0xbe35dba1	-0.17759563
226	0xbdde9af1	-0.108693965
227	0xbe19d2ab	-0.1502177
228	0x3d66360f	0.056203898
229	0xbca2027c	-0.019776575
230	0xbdc2dd41	-0.09514857
231	0xbd2f1fb0	-0.04275483
232	0xbe28ad55	-0.16472371
233	0x3d8506fd	0.064954735
234	0x3cc12ff8	0.023582444
235	0xbdd3978e	-0.10331641
236	0xbd088856	-0.033333145
237	0x3c21df74	0.0098799355
238	0xbe4c3c94	-0.19944984
239	0x3daf3962	0.08555867
240	0x3dc27279	0.0949449
241	0xbccbbfb1	-0.024871679
242	0xbdd94692	-0.10609163
243	0x3c9f504f	0.019447474
244	0x3d7fc6ec	0.062445566
245	0x3e1a6fe4	0.15081745
246	0xbe439637	-0.19100271
247	0xbde2bde3	-0.11071374
248	0x3e2a3ed4	0.1662553
249	0x3d923680	0.07139301
250	0x3e03b50c	0.12862033
251	0xb9cfdad6	-0.00039645162
252	0x3e100aef	0.14066671
253	0xbe11746b	-0.14204566
254	0xbdcbb793	-0.099471234
255	0xbd8d9577	-0.06913274

weight_hh_l0 f4 [128, 32]
0	0xbdb172bc	-0.08664462
1	0xbd7034ab	-0.058643978
2	0xbd567c40	-0.052364588
3	0x3de1c89d	0.11024592
4	0xbc58ef86	-0.013240701
5	0xbcefd8db	-0.02927821
6	0xbe226f9b	-0.15862887
7	0x3aa578d9	0.0012624516
8	0x3deb01e5	0.11474971
9	0x3dd68107	0.10473829
10	0x3ca66c13	0.020315206
11	0x3e2bf9c6	0.167945
12	0xbd252a02	-0.040323265
13	0x3e0f675b	0.1400427
14	0x3dcf7d63	0.101313375
15	0x3e308ce6	0.17241248
16	0x3dcaf4f6	0.09910004
17	0xbe1d1cfd	-0.1534309
18	0x3d973bd6	0.0738446
19	0xbe0d8f94	-0.13824302
20	0xbdeb4a32	-0.11488761
21	0xbdb922c5	-0.09039835
22	0xbdac029c	-0.08398935
23	0xbe1844e4	-0.1487003
24	0x3e117aef	0.14207052
25	0xbdaba052	-0.08380188
26	0x3de66c73	0.11251154
27	0x3e22dd32	0.15904692
28	0x3dd488b8	0.103776395
29	0x3e03d1dc	0.12873024
30	0x3cd230c6	0.025658023
31	0xbe302d5c	-0.17204803
32	0x3e5554cb	0.20833127
33	0xbde364b5	-0.11103193
34	0x3df7ef70	0.12106216
35	0x3c1203cd	0.008912039
36	0x3d092c1a	0.033489324
37	0x3e298ecf	0.16558383
38	0xbda27b18	-0.079336345
39	0xbdf4e461	-0.11957622
40	0x3df4fd9c	0.11962435
41	0xbe509401	-0.20368959
42	0xbdb21d23	-0.08696964
43	0xbdefe50b	-0.11713608
44	0xbe2a13cc	-0.16609114
45	0x3e0b94d0	0.13630986
46	0x3e304d68	0.17217028
47	0x3d1cb67d	0.038259972
48	0x3e08e4db	0.13368551
49	0x3ddf1d3b	0.10894247
50	0xbde54b89	-0.11196048
51	0xbc86c063	-0.016449159
52	0x3c907c6c	0.017637454
53	0xbe1bf286	-0.15229234
54	0xbe0d0a60	-0.13773489
55	0xbd3f3b75	-0.046687562
56	0xbdcac4b9	-0.09900803
57	0xbd6f65ca	-0.058446683
58	0xbe7511cf	-0.23932575
59	0xbde6ae13	-0.11263671
60	0xbd4f8bb7	-0.05067035
61	0x3cfeaf4f	0.031089453
62	0x3d3b4208	0.04571727
63	0xbdcabfee	-0.09899889
64	0x3dfdbb41	0.123892315
65	0xbdd6ec1f	-0.10494255
66	0xbd853210	-0.06503689
67	0x3da036c1	0.078229435
68	0x3d04acf8	0.03239152
69	0x3d87a757	0.066237144
70	0xbe32b21b	-0.17450754
71	0xbe2643a6	-0.16236743
72	0xbd1952e1	-0.037432555
73	0x3db8bb0e	0.09020053
74	0xbe06e204	-0.13172156
75	0x3dbd921e	0.09256385
76	0xbe093c4d	-0.13401909
77	0xbdf9536d	-0.12174115
78	0x3e007bc6	0.12547216
79	0xbe09228a	-0.13392082
80	0x3d8758bc	0.066087216
81	0xbd66fb92	-0.05639226
82	0x3e11ac96	0.14225993
83	0xbe3849a6	-0.17996845
84	0x3dab8004	0.083740264
85	0x3e7f0d4b	0.24907415
86	0x3d3b526f	0.04573291
87	0x3e0fc624	0.14040428
88	0x3dc28d50	0.094996095
89	0x3d8f993c	0.07011649
90	0x3db650e7	0.0890215
91	0x3e2a3956	0.16623434
92	0x3e06d230	0.13166118
93	0x3d96c113	0.07361045
94	0xbdf8d610	-0.12150204
95	0x3dc90117	0.09814661
96	0x3cb31047	0.021858348
97	0x3d21c566	0.039494894
98	0x3da5fe50	0.08105147
99	0x3d944dfc	0.07241437
100	0xbe2cb3ba	-0.16865435
101	0xbda1b2c5	-0.07895426
102	0xbd9aa232	-0.075504676
103	0x3de545aa	0.11194928
104	0xbdec53f8	-0.11539453
105	0xbda507ea	-0.0805815
106	0xbca3e48e	-0.020006444
107	0xbe1b8dff	-0.15190886
108	0xbe5d1c3d	-0.21592803
109	0xbdbadf01	-0.09124566
110	0xbe2b2dd1	-0.16716696
111	0xbddc5ce0	-0.10759902
112	0xbd2ba30d	-0.041903544
113	0x3ea0b35a	0.31386834
114	0xbd9bc061	-0.07605053
115	0xbdb5f051	-0.08883727
116	0xbd63c847	-0.05561092
117	0x3dfd2ce6	0.12362079
118	0x3dc31ea7	0.09527331
119	0xbdd5b343	-0.10434582
120	0xbe02bcac	-0.12767285
121	0x3d0cbad8	0.034357876
122	0xbe6d545c	-0.23176712
123	0x3e228a52	0.15873078
124	0xbdf32259	-0.11871786
125	0x3cb24dec	0.021765672
126	0x3e1be09b	0.15222399
127	0x3dc0f86f	0.09422385
128	0xbe27a67f	-0.16372107
129	0xbd6ec227	-0.058290627
130	0x3e11e8da	0.14248982
131	0xbdf2d82a	-0.11857636
132	0x3e125684	0.14290816
133	0xbe0cb26c	-0.13739938
134	0xbd20fdde	-0.039304607
135	0x3e02853e	0.1274614
136	0xbe265d5e	-0.16246554
137	0xbe33452e	-0.17506859
138	0xbd3627cb	-0.044471543
139	0xbe09a8ad	-0.13443251
140	0x3c41c153	0.011825877
141	0x3db6c49c	0.08924219
142	0x3dcf2cfe	0.101160035
143	0xbe1fafa2	-0.15594342
144	0xbd086ba0	-0.033305764
145	0xbe318969	-0.17337574
146	0xbe056330	-0.13026118
147	0x3dae2b58	0.08504361
148	0x3d26b084	0.040695682
149	0x3e081184	0.13287932
150	0x3d9276d8	0.07151574
151	0xbdebfe65	-0.11523131
152	0x3d5d9a3c	0.054102167
153	0xbdf80b5e	-0.12111543
154	0xbe1d068a	-0.15334526
155	0xbe361e78	-0.1778506
156	0x3e3cbb51	0.1843083
157	0xbd92310c	-0.07138261
158	0x3e010175	0.12598212
159	0xbe00211d	-0.12512632
160	0x3e0ecb84	0.13944823
161	0xbdcf83b4	-0.10132542
162	0x3d169a38	0.03676817
163	0xbe49b1b2	-0.19696692
164	0xbd91fc60	-0.07128215
165	0xbd6d8086	-0.057983898
166	0xbbb68af1	-0.0055707623
167	0xbd8f2e11	-0.06991208
168	0xbd3bef9e	-0.045882814
169	0x3cc84fdc	0.024452142
170	0x3e02a5f4	0.12758619
171	0xbe2f7ae2	-0.1713672
172	0xbe0c97b6	-0.13729748
173	0x3d5f8221	0.05456746
174	0xbd0a4dc8	-0.033765584
175	0xbd15fada	-0.036616184
176	0xbba0c90f	-0.0049067806
177	0x3e0a062b	0.13478915
178	0xbe3d09f8	-0.18460834
179	0x3e09be9a	0.13451615
180	0x3da43f88	0.0801993
181	0xbd480ee6	-0.048842333
182	0xbd1144ea	-0.035466112
183	0xbd583268	-0.052782446
184	0xbd55c7ac	-0.052192375
185	0xbdd063f5	-0.10175315
186	0x3e16af82	0.14715388
187	0x3e4239a3	0.18967299
188	0x3d581069	0.052750025
189	0x3dd5ae3f	0.104336254
190	0x3e12badc	0.14329094
191	0x3da3d8ba	0.08000322
192	0x3e35d210	0.17755914
193	0x3d25cb06	0.04047682
194	0xbe20dab4	-0.15708429
195	0x3e5a46e7	0.2131611
196	0xbbc7c62b	-0.0060966215
197	0xbd7a7daf	-0.061155017
198	0x3c8db823	0.017299717
199	0xbe0cfa27	-0.137673
200	0xbd76c028	-0.06024185
201	0x3b9467d1	0.0045289774
202	0xbd2bcca0	-0.041943192
203	0xbdeb0b1c	-0.11476728
204	0xbc956acb	-0.0182394
205	0x3e2c033c	0.16798109
206	0xbc13bfad	-0.009017867
207	0x3d49b6e2	0.049246676
208	0x3cb2d4e4	0.02183003
209	0xbde82d58	-0.11336774
210	0x3cea0ab7	0.028569562
211	0xbe157b01	-0.14597704
212	0x3dcb563c	0.09928557
213	0x3e41c49d	0.18922658
214	0x3e220768	0.15823138
215	0xbcacc51d	-0.021090085
216	0xbe3abe32	-0.18236616
217	0x3c35cb1c	0.011095788
218	0x3def8b94	0.11696544
219	0x3bb1845f	0.005417391
220	0xbe3b4d02	-0.18291095
221	0x3e207555	0.15669759
222	0xbe1b948a	-0.15193382
223	0x3d558a45	0.052133817
224	0x3e4a3eb5	0.19750483
225	0xbda2a67a	-0.07941909
226	0xbd683f56	-0.056701027
227	0x3de85a82	0.11345388
228	0xbd27777f	-0.040885445
229	0x3d98522e	0.074375495
230	0x3d450140	0.048096895
231	0x3ae4e476	0.0017463106
232	0xbc628f9c	-0.013828184
233	0xbe2460dc	-0.16052574
234	0xbd2579ee	-0.040399484
235	0xbe16f5fe	-0.14742276
236	0x3e56d53d	0.20979781
237	0xbd8773b8	-0.066138685
238	0x3db0730a	0.08615692
239	0x3d5e153e	0.054219477
240	0x3e090279	0.1337985
241	0xbde3817a	-0.1110868
242	0xbe139e88	-0.14415944
243	0xbc3c0078	-0.011474721
244	0xbe2c690b	-0.16836946
245	0xbdab0ff6	-0.08352654
246	0xbd8d887f	-0.069108
247	0xbe33c547	-0.17555724
248	0x3d8c3abb	0.068471394
249	0x3e2a983c	0.16659635
250	0x3ce77fd1	0.02825919
251	0x3d8cbe94	0.068722874
252	0x3e109412	0.14118984
253	0x3e32a6a4	0.17446381
254	0xbc0b3b75	-0.008498062
255	0x3dc1328b	0.094334684

bias_ih_l0 f4 [128]
0	0xbdc3eefb	-0.09567066
1	0xbd81f87f	-0.06346225
2	0xbccf07e0	-0.02527231
3	0xbdcd3466	-0.1001976
4	0xbe1f3a9b	-0.155497
5	0x3e1308bd	0.14358802
6	0xbd30b2c8	-0.04313925
7	0xbe3a5067	-0.18194734
8	0x3cbfd6ed	0.023417914
9	0x3cc5e1e2	0.02415556
10	0x3e20f0b2	0.15716818
11	0x3e13284e	0.14370844
12	0x3d8bc804	0.06825259
13	0xbe1f6764	-0.15566784
14	0x3db543eb	0.08850845
15	0xbe17df58	-0.14831293
16	0xbb0165aa	-0.0019744434
17	0x3e15fb26	0.14646587
18	0xbd33da7f	-0.043909546
19	0x3df9fa0c	0.12205896
20	0x3c69c47a	0.014268035
21	0xbb8fffe8	-0.00439452
22	0xbd32752a	-0.043568768
23	0xbd44023f	-0.047853705
24	0x3de2def2	0.1107768
25	0x3d8b8dfa	0.06814189
26	0xbd343fc7	-0.044006135
27	0x3d7538f4	0.059868768
28	0xbc96ccb5	-0.018408159
29	0xbde75b0f	-0.11296665
30	0xbe446a3f	-0.19181155
31	0xbd728712	-0.059210844
32	0x3e31fe2d	0.17382117
33	0xbdd81a9a	-0.10551949
34	0xbe1fc209	-0.15601362
35	0x3e0bfe8a	0.13671318
36	0xbe1ce3e0	-0.15321302
37	0xbda45d32	-0.08025588
38	0xbe0fcac5	-0.14042194
39	0xbce64524	-0.02810914
40	0xbe056b9a	-0.13029328
41	0x3dc982d3	0.09839406
42	0xbd807d5b	-0.0627391
43	0x3d2a1ede	0.041533343
44	0xbd392cb3	-0.045208644
45	0x3e2f2b7d	0.17106433
46	0xbccfef4d	-0.025382662
47	0xbdfd744f	-0.123757
48	0x3ddc555f	0.10758471
49	0x3deb3001	0.114837654
50	0xbda4172d	-0.08012233
51	0x3d9bca4a	0.07606943
52	0xbe251be7	-0.16123925
53	0x3dd7ad24	0.10531071
54	0x3dd8f4cc	0.10593566
55	0x3dc72b69	0.09725077
56	0x3d9781d8	0.073978126
57	0x3e18e0ac	0.14929456
58	0x3dfa8c31	0.12233771
59	0x3e049d59	0.12950648
60	0xbc8a2b77	-0.016866429
61	0xbe21fa56	-0.15818152
62	0xbe45203e	-0.1925058
63	0xbe2b2535	-0.16713412
64	0x3dedcfa4	0.1161187
65	0x3e0838d1	0.13302924
66	0xbd1d5eff	-0.038420673
67	0x3d73eb42	0.05955053
68	0xbda080be	-0.078370556
69	0x3ca1ce52	0.019751702
70	0x3dcdb009	0.10043342
71	0xbd87c3b4	-0.06629124
72	0x3cac6ebf	0.021048902
73	0x3dd0e2ae	0.10199486
74	0xbdf6dc04	-0.120536834
75	0x3d45f7d0	0.048332036
76	0xbe0c5796	-0.13705286
77	0xbd8952c9	-0.06705243
78	0xbd830f14	-0.0639936
79	0xbe52939e	-0.20564124
80	0xbdfe29ca	-0.124103144
81	0xbe06b4ee	-0.13154957
82	0x3e0f0c74	0.13969594
83	0xbd2b3370	-0.0417971
84	0x3a7daa47	0.00096765574
85	0x3de833b9	0.1133799
86	0x3dba353b	0.09092184
87	0xbe0ef06a	-0.13958898
88	0x3e236f1c	0.15960354
89	0xbdfa61ee	-0.1222571
90	0x3e04ff6c	0.1298806
91	0xbe22aaea	-0.15885511
92	0xbe0aed00	-0.13566971
93	0x3e0730a0	0.13202143
94	0x3ccaa060	0.024734676
95	0xbdbbf939	-0.09178395
96	0x3dc62966	0.09675865
97	0xbdbfc1e0	-0.093631506
98	0x3c8575e9	0.016291576
99	0xbd4aa424	-0.049472943
100	0x3b91672b	0.0044373474
101	0x3d918920	0.07106233
102	0xbc14cce3	-0.009082052
103	0xbe26d3f1	-0.16291787
104	0xbdc9ddb1	-0.098567374
105	0x3d9a898d	0.07545767
106	0xbda7d32c	-0.08194575
107	0x3d9e1615	0.077190556
108	0x3d163582	0.036672123
109	0xbe349552	-0.17635086
110	0x3dff27d0	0.124587655
111	0x3cfdea04	0.030995376
112	0x3dfcf424	0.12351254
113	0x3d7b8361	0.06140459
114	0x3d50fcc2	0.0510223
115	0xbbd43350	-0.0064758435
116	0x3dd2a0fc	0.102846116
117	0xbc9d6b5a	-0.019216228
118	0xbdbd9dfe	-0.0925865
119	0x3bff12ea	0.007784237
120	0xbdd138ad	-0.10215888
121	0x3dd8dbab	0.10588773
122	0x3de392bd	0.111119725
123	0xbba09b47	-0.004901323
124	0x3dec36b2	0.1153387
125	0x3db36010	0.08758557
126	0xbe0ad010	-0.13555932
127	0xbd96948e	-0.07352553

bias_hh_l0 f4 [128]
0	0xbe0f51dd	-0.13996072
1	0xbd4e40ad	-0.05035465
2	0xbe22e155	-0.1590627
3	0x3d7b0696	0.061285578
4	0xbc400a60	-0.011721224
5	0xbdcd7089	-0.1003123
6	0xbe144393	-0.14478903
7	0xbb8f9d88	-0.004382793
8	0x3dde5282	0.10855581
9	0x3e4196a4	0.18905121
10	0xbdcb5633	-0.099285506
11	0x3c9aab52	0.01888052
12	0xbe2e1f54	-0.17004138
13	0x3e0ded74	0.13860112
14	0x3e042b68	0.12907183
15	0x3c465f5f	0.012107699
16	0xbdb626cb	-0.08894118
17	0x3e0e5cd7	0.13902603
18	0xbe0ef355	-0.13960011
19	0x3d9f4bf1	0.077781565
20	0x3e25d501	0.16194536
21	0x3e348de7	0.17632256
22	0xbc76777b	-0.015043135
23	0x3c86b5e5	0.016444156
24	0x3c4bc895	0.012437959
25	0x3d59246c	0.05301325
26	0x3cf20fc1	0.029548528
27	0xbd01e5b9	-0.03171322
28	0xbdccdebb	-0.1000342
29	0xbdfa7d79	-0.12230963
30	0xbdfa7473	-0.12229242
31	0xbc13c7d5	-0.009019812
32	0x3dae3511	0.08506215
33	0xbda2ac06	-0.07942967
34	0x3da74581	0.08167554
35	0xbd8e31be	-0.06943081
36	0x3e1ee040	0.15515232
37	0x3da923b0	0.0825876
38	0x3a08712f	0.0005204854
39	0xbe3115d4	-0.17293483
40	0xbd6b2466	-0.05740776
41	0x3d2cbc72	0.042171903
42	0xbd336c4e	-0.04380446
43	0xbca104d0	-0.019655615
44	0xbd449229	-0.04799095
45	0xbc092cb8	-0.008372478
46	0x3da50303	0.08057215
47	0xbd96d308	-0.0736447
48	0xbcbe2a04	-0.023213394
49	0x3d4028b6	0.046913825
50	0xbd540c31	-0.05176944
51	0xbdd77bae	-0.10521637
52	0xbc8dfc08	-0.017332092
53	0xbd6b75fb	-0.05748556
54	0xbdefe21c	-0.11713049
55	0x3d8dd9d7	0.06926315
56	0xbe04b6ea	-0.12960401
57	0xbe232872	-0.15933397
58	0xbe065927	-0.13119946
59	0x3d8cee37	0.068813734
60	0xbd38adb9	-0.04508755
61	0x3d9b1af5	0.07573501
62	0xbd777c01	-0.060420994
63	0x3e097aab	0.134257
64	0xbe2b26d9	-0.16714038
65	0xbe0b006c	-0.1357438
66	0x3e06d16f	0.1316583
67	0x3b806f66	0.0039195297
68	0x3e3691b2	0.17829016
69	0x3d554a56	0.052072845
70	0xbdaf883c	-0.085709065
71	0xbc9eedd5	-0.019400517
72	0x3e2633c4	0.16230685
73	0x3c093daa	0.008376518
74	0x3bef147f	0.0072961445
75	0x3d8666b1	0.065625556
76	0x3d32d546	0.043660425
77	0xba1f6a0f	-0.00060811726
78	0xbe111974	-0.14169866
79	0xbd733b5f	-0.059382793
80	0xbcff471e	-0.031161841
81	0x3de3008b	0.11084088
82	0x3d8569ab	0.06514295
83	0xbe2c6b80	-0.16837883
84	0xbe1fc060	-0.15600729
85	0x3d58c9ee	0.05292695
86	0xbe1c564f	-0.15267299
87	0x3dde2f4c	0.10848865
88	0xbda192d3	-0.078893326
89	0xbc881f6b	-0.016616544
90	0x3e080936	0.13284764
91	0xbd34422e	-0.044008426
92	0xbdfe646c	-0.12421498
93	0xbe162450	-0.1466229
94	0x39429901	0.0001855828
95	0x3c481470	0.012211904
96	0xbc95c206	-0.018280994
97	0x3d26aee3	0.04069413
98	0xbe0f29fc	-0.1398086
99	0x3e361baf	0.17783998
100	0x3dd30ca6	0.10305147
101	0xbcd14a52	-0.025548134
102	0x3e420b9f	0.18949746
103	0x3e173848	0.14767563
104	0xbe1c3afd	-0.15256877
105	0x3dc84fb4	0.09780827
106	0x3e232563	0.1593223
107	0x3e1dc7db	0.1540827
108	0x3d4805bd	0.048833597
109	0x3c89e19f	0.016831217
110	0x3d3608a5	0.044441838
111	0x3d1f2ae8	0.038859278
112	0x3e1169c3	0.14200501
113	0xbd9a6480	-0.075387
114	0x3e1fdd77	0.15611826
115	0xbe05159d	-0.12996526
116	0x3d86f38c	0.06589422
117	0x3e3000e7	0.17187844
118	0x3d72707d	0.05918931
119	0x3e0fbe1a	0.14037362
120	0x3daf73ce	0.0856701
121	0x3da6fc6d	0.08153615
122	0x3e26f27c	0.16303438
123	0x3aaaaec7	0.0013022058
124	0xbc6566b1	-0.014001534
125	0x3da80684	0.08204368
126	0xbdde4ac6	-0.10854106
127	0x3e024411	0.12721278

weight_ih_l0 f4 [128, 2]
0	0xbb0d7c59	-0.002158901
1	0x3ddb395f	0.10704302
2	0xbdd90b96	-0.10597913
3	0xbcd5b0a9	-0.026085215
4	0x3e67849d	0.22609182
5	0xbe3b78be	-0.18307778
6	0x3d1ab78d	0.037772704
7	0xbd4900b0	-0.04907292
8	0xbd24e4b7	-0.040257182
9	0xbe76d22e	-0.24103615
10	0xbd37ee31	-0.04490489
11	0x3d8bdf78	0.06829733
12	0xbdd54458	-0.10413426
13	0xbcb69e43	-0.022292262
14	0x3c5a464a	0.013322422
15	0xbe598404	-0.21241766
16	0x3de7c0eb	0.11316093
17	0xbe885026	-0.26623648
18	0xb9e476f4	-0.00043576176
19	0x3dd997dd	0.10624669
20	0x3e236bfb	0.1595916
21	0x3e57c8e2	0.21072724
22	0x3d9350c5	0.0719314
23	0xbe223c90	-0.15843415
24	0x3c297b03	0.01034427
25	0x3e140d00	0.14458084
26	0x3e103ec9	0.1408645
27	0xbd85ba56	-0.065296814
28	0xbdf06ef2	-0.11739911
29	0xbda41bf9	-0.08013148
30	0xbda28b17	-0.079366855
31	0x3e78bd62	0.24290994
32	0xbdab90fe	-0.083772644
33	0xbb49ab02	-0.0030772095
34	0x3e1298b3	0.14316063
35	0x3c263528	0.010144509
36	0xbd993ac7	-0.07481914
37	0xbcbbee64	-0.022940822
38	0x3db5cc05	0.08876804
39	0x3df88a17	0.121357135
40	0x3dcb1e9d	0.099179484
41	0xbe8e87ef	-0.27838084
42	0xbcc56217	-0.024094624
43	0xbd2a2b53	-0.041545223
44	0xbe0c4202	-0.13697055
45	0x3d840960	0.06447101
46	0xbd85dab1	-0.06535853
47	0xbc5f9367	-0.013645983
48	0xbb847c11	-0.00404311
49	0xbe00ab8f	-0.12565444
50	0x3d082a1a	0.033243276
51	0xbe398799	-0.18118133
52	0x3e1f2a40	0.15543461
53	0x3ca44ebf	0.02005708
54	0xbe75430e	-0.2395136
55	0x3b585c35	0.0033013944
56	0xbe415477	-0.18879877
57	0xbd4b4b25	-0.04963221
58	0xbd1fb921	-0.038994912
59	0xbdcd4928	-0.10023719
60	0x3e562664	0.20913082
61	0xbe73da97	-0.23813854
62	0xbe49847d	-0.19679447
63	0xbe554295	-0.2082618
64	0xbe440382	-0.19141963
65	0xbe3a8b3a	-0.18217173
66	0x3dfb4367	0.12268715
67	0xbdcb4c7f	-0.099267
68	0x3e3d5aab	0.18491618
69	0x3badc94c	0.0053035375
70	0x3e0c5aa7	0.13706456
71	0xbcfb59a0	-0.030682385
72	0x3e74c15c	0.23901886
73	0xbe84d9b7	-0.25947353
74	0x3b8fb3ed	0.0043854625
75	0xbdc925a1	-0.0982163
76	0xbe83b31d	-0.2572259
77	0x3d25c81a	0.040474035
78	0x3def089e	0.116715655
79	0xbc8b710d	-0.01702168
80	0xbc904210	-0.017609626
81	0xbe4af9a9	-0.198218
82	0x3e19f1f4	0.15033704
83	0x3e0ba7a1	0.13638164
84	0x3e86b37d	0.26308814
85	0x3c9fb8f0	0.019497365
86	0xbe28dbe5	-0.16490133
87	0xbe00da6a	-0.12583318
88	0x3d93de6b	0.07220157
89	0x3e85a7ed	0.2610468
90	0x3e163844	0.14669901
91	0xbe21659f	-0.15761422
92	0x3e017286	0.12641343
93	0x3d59f2b7	0.053209987
94	0x3cf804f1	0.030275794
95	0x3e371e1d	0.17882581
96	0xbc3c6cd4	-0.011500556
97	0xbdbc606e	-0.0919808
98	0xbce8f6dd	-0.028438026
99	0xbe664cad	-0.22490187
100	0xbdb69d35	-0.089167036
101	0x3d7fa02a	0.062408604
102	0xbe87a672	-0.26494175
103	0xbdcb1ee4	-0.09918001
104	0x3e35f0bd	0.17767616
105	0xbdb3c857	-0.08778446
106	0x3e509672	0.2036989
107	0xbde55561	-0.11197925
108	0xbdc74e77	-0.09731763
109	0xbd51da69	-0.051233683
110	0xb922ebc2	-0.0001553735
111	0xbe85bcc2	-0.26120573
112	0xbe170d66	-0.14751205
113	0xbde5b54c	-0.1121622
114	0x3e4b6ec5	0.19866474
115	0xbe0b3bac	-0.13596982
116	0x3cb9694f	0.022633223
117	0xbe063cc1	-0.13109113
118	0xbe15fc40	-0.14647007
119	0xbdf83431	-0.1211933
120	0x3da131b5	0.07870809
121	0xbe80df87	-0.25170538
122	0xbd5379f3	-0.05162997
123	0xbca6281e	-0.020282801
124	0x3d9d3ca5	0.07677583
125	0xbe8f4e72	-0.27989537
126	0xbe693b4a	-0.22776523
127	0xbe935272	-0.28773838
128	0x3e29c8f1	0.1658056
129	0x3e436942	0.19083121
130	0xbdec4def	-0.11538302
131	0xbe93903b	-0.28820977
132	0xbe8ce912	-0.2752157
133	0x3d9c6d6d	0.07638059
134	0xbe9bdcd8	-0.30441928
135	0xbd56b7d0	-0.05242139
136	0xbd2f6c53	-0.042827915
137	0xbe2835a8	-0.16426718
138	0x3e33ef69	0.17571796
139	0xbe9961a4	-0.29957306
140	0xbdf4215e	-0.11920427
141	0x3c9a3ea0	0.01882869
142	0x3e0784d5	0.13234265
143	0xbe346be0	-0.17619276
144	0x3e66329b	0.22480242
145	0x3e0a063e	0.13478944
146	0xbd29f6a3	-0.041494977
147	0x3eaf4baf	0.3423743
148	0x3e931a5a	0.28731042
149	0x3e6800dd	0.2265658
150	0xbd9aa36b	-0.07550701
151	0xbdd21798	-0.102584064
152	0xbe807e2f	-0.2509627
153	0xbe577f42	-0.21044639
154	0x3e731784	0.23739439
155	0x3e6e94ac	0.23298901
156	0xbe4ad93e	-0.19809434
157	0xbe9cd25b	-0.30629238
158	0xbe9f7d86	-0.31150454
159	0x3e71b8d6	0.23605666
160	0xbde46eb9	-0.11153931
161	0x3e21cf83	0.15801816
162	0xbe54757a	-0.20747939
163	0x3e5a11de	0.21295878
164	0xbd98a7a1	-0.07453848
165	0x3e8a07bb	0.26959023
166	0x3e1effc3	0.15527253
167	0x3e5fdf86	0.21862611
168	0xbe1b8df4	-0.1519087
169	0xbde61524	-0.11234501
170	0xbe3b446f	-0.18287824
171	0x3e500e74	0.20318013
172	0x3e29c504	0.16579062
173	0xbd985407	-0.07437902
174	0x3e2b89f3	0.16751842
175	0xbc1cd0d4	-0.009571273
176	0x3e362c8f	0.17790435
177	0x3e5cd53b	0.21565716
178	0x3e9e1615	0.30876222
179	0x3dbd5fe4	0.09246805
180	0xbdc0e948	-0.09419495
181	0x3e68a9a4	0.22720963
182	0x3e32b11a	0.17450371
183	0xbe546d15	-0.20744736
184	0x3e89ef64	0.26940453
185	0x3ddea711	0.10871709
186	0x3e64e74d	0.22353859
187	0x3e9f3cc1	0.3110104
188	0x3c5518f2	0.013006436
189	0xbe0f1804	-0.13974005
190	0xbe72dddf	-0.2371745
191	0x3dc2ea76	0.09517376
192	0xbe873594	-0.26408064
193	0xbe08cd00	-0.13359451
194	0x3e1ce766	0.15322646
195	0x3d900599	0.07032318
196	0x3e4561df	0.19275616
197	0xbe4ffa80	-0.20310402
198	0x3e3a9f04	0.18224722
199	0xbdb83cda	-0.089959815
200	0x3c7173b1	0.014737056
201	0xbea236ec	-0.31682527
202	0xbca9f9f0	-0.020749062
203	0xbdd22452	-0.10260834
204	0xbe48845a	-0.19581738
205	0xbe7ec688	-0.24880421
206	0xbe13c8b3	-0.1443203
207	0xbe70b349	-0.23505892
208	0x3c965caa	0.018354733
209	0xbb4d0080	-0.0031280816
210	0xbdbebdbc	-0.09313533
211	0xbe1c27b0	-0.15249515
212	0x3ea1884a	0.31549293
213	0x3e0daca1	0.13835384
214	0x3dc21d65	0.09478263
215	0xbe9aacd1	-0.30209973
216	0x3ea53868	0.32269597
217	0x3e21eafa	0.15812293
218	0x3df4f367	0.11960488
219	0xba8fb5b8	-0.0010964191
220	0x3ddc9f87	0.10772615
221	0x3db06e0b	0.08614739
222	0xbe65fd30	-0.22459865
223	0x3eaa8918	0.3330772
224	0xbd147171	-0.036241
225	0xbdb019ae	-0.08598648
226	0xbd13c1dd	-0.036073554
227	0xbe8bba0d	-0.27290383
228	0xbe30a30c	-0.17249697
229	0xbe65b083	-0.22430615
230	0x3d91e3d7	0.07123535
231	0x3d8414b2	0.0644926
232	0x3dcf0b34	0.10109559
233	0xbdf2513a	-0.11831899
234	0x3b9874ee	0.004652611
235	0xbdaee75f	-0.08540224
236	0x3deac250	0.114628434
237	0xbd296cc2	-0.041363485
238	0xbe105d1f	-0.14098023
239	0xbe642d1a	-0.2228283
240	0x3def0268	0.11670381
241	0xbc89ef93	-0.01683787
242	0x3dccd19d	0.10000918
243	0xbead5a79	-0.33858088
244	0x3e6638e7	0.22482644
245	0xbe7ad1f7	-0.24494158
246	0xbd95f5cd	-0.073222734
247	0x3e0307da	0.12795964
248	0xbe50f03c	-0.20404142
249	0xbe2950ac	-0.1653468
250	0xbde03278	-0.10947126
251	0xbe72435f	-0.23658513
252	0x3d97165c	0.073773116
253	0xbe0c960b	-0.13729112
254	0xbd47a96b	-0.048745554
255	0xbe86a690	-0.26298952

weight_hh_l0 f4 [128, 32]
0	0xbdf12d6e	-0.11776243
1	0x3d756815	0.059913713
2	0xbe492c7e	-0.19645879
3	0x3d7fd7e2	0.06246174
4	0x3cdfb402	0.027307514
5	0x3e1f92cc	0.15583342
6	0xbdd90e4f	-0.10598432
7	0xbd7760aa	-0.06039492
8	0xbdffbad9	-0.1248681
9	0xbcd34973	-0.02579186
10	0x3e44630b	0.19178407
11	0x3dc2f00d	0.09518442
12	0x3e258c03	0.16166691
13	0x3dba843b	0.09107252
14	0xbd3c6eee	-0.04600423
15	0x3d8cf242	0.068821445
16	0x3da4e8ae	0.08052193
17	0xbdf8cfaf	-0.121489875
18	0xbb37d263	-0.0028048984
19	0x3da23fc4	0.079223186
20	0x3d8ee834	0.06977883
21	0xbe165830	-0.14682078
22	0xbe2ef2f5	-0.17084868
23	0x3d80f2b0	0.06296289
24	0xbe46e938	-0.19424903
25	0x3e5ffb28	0.21873152
26	0xbe597102	-0.21234515
27	0x3e5ac899	0.21365584
28	0x3d1fc221	0.039003495
29	0xbe6ce8d1	-0.23135687
30	0xbcd02b45	-0.025411258
31	0x3dbc612d	0.09198222
32	0xbdc84e54	-0.09780565
33	0xbcbb6a21	-0.022877755
34	0x3d952dfd	0.07284162
35	0xbde70eb5	-0.11282102
36	0x3da3ff1a	0.08007641
37	0x3e32bc84	0.17454726
38	0xbe2a952b	-0.16658466
39	0xbd2a7aa0	-0.04162085
40	0xbdc45be2	-0.09587838
41	0x3d9fb457	0.07798069
42	0xbd889750	-0.066694856
43	0xbdd9432c	-0.10608515
44	0x3e309267	0.17243348
45	0x3d2dc124	0.04242052
46	0x3d5a087b	0.053230744
47	0x3d10c579	0.035344575
48	0x3cb88bdf	0.022527633
49	0xbd66c1d5	-0.056337196
50	0x3c1f050d	0.009705794
51	0x3dbdfa25	0.09276227
52	0x3e6da492	0.2320731
53	0xbe838e1c	-0.25694358
54	0x3d8ac5c8	0.06776005
55	0x3e6e98e2	0.23300508
56	0x3d0ca8c4	0.034340635
57	0xbd1a94f2	-0.0377397
58	0xbcd8929c	-0.026437096
59	0xbdcfa2df	-0.10138487
60	0xbd01c2d9	-0.03167996
61	0x3d8e00eb	0.06933769
62	0x3d2cd620	0.042196393
63	0xbdc22d0f	-0.094812505
64	0xbdee1160	-0.11624408
65	0x3da29814	0.07939163
66	0xbc628911	-0.0138266245
67	0xbddd6d01	-0.108118065
68	0xbdbed852	-0.093186036
69	0x3cdde1f0	0.027085274
70	0xbe0bc37a	-0.13648787
71	0x3b5988c7	0.0033193098
72	0xbe0d4e9f	-0.13799523
73	0xbe2e95cf	-0.17049335
74	0xbd68ce9a	-0.056837656
75	0xbdc19781	-0.09452725
76	0x3cc07b11	0.023496183
77	0x3e79dd18	0.24400747
78	0x3d8faa84	0.07014945
79	0xbe5471b2	-0.20746496
80	0x3be07b19	0.006850612
81	0xbb39fc19	-0.0028379022
82	0xbe611ba0	-0.21983194
83	0xbe5626e1	-0.20913269
84	0xbd4ecfeb	-0.050491255
85	0xbdf66d02	-0.1203251
86	0xbe2896a6	-0.16463718
87	0x3e633d7d	0.22191425
88	0xbdf8b64b	-0.121441446
89	0x3bc0fb3c	0.0058893245
90	0xbdf14625	-0.11780957
91	0xbd49c5d6	-0.049260937
92	0xbda4878c	-0.08033666
93	0x3da6658f	0.081248395
94	0x3de6ed9b	0.112757884
95	0xbe5e6795	-0.21719201
96	0x3df25143	0.11831906
97	0x3cf54f88	0.02994515
98	0x3bbc18b0	0.0057402477
99	0xbdb30efe	-0.08743094
100	0x3d1cef25	0.038314003
101	0x3e342864	0.17593533
102	0x3dd63b4c	0.10460529
103	0x3e0b1118	0.1358074
104	0x3e0e5d9c	0.13902897
105	0x3e0a815a	0.13525906
106	0x3d5af388	0.053454906
107	0xbc3a8baa	-0.011385838
108	0xbc219ea2	-0.009864481
109	0xbccb5a21	-0.02482325
110	0xbcd42208	-0.025895134
111	0xbe918de7	-0.28428575
112	0xbe692434	-0.22767717
113	0xbe0f9a6c	-0.14023751
114	0xbe079245	-0.13239391
115	0xbe4ec488	-0.20192158
116	0x3b2aa20a	0.0026036524
117	0x3d4cb3d5	0.04997619
118	0xbd80e1a0	-0.062930346
119	0xbc3d9b55	-0.011572679
120	0xbd311bc1	-0.04323936
121	0x3e489ca9	0.19591011
122	0xbdfe8507	-0.12427717
123	0xbd035d04	-0.03207113
124	0x3d257022	0.04039014
125	0xbd45b6c1	-0.04826999
126	0x3e612857	0.21988045
127	0xbe715c36	-0.23570332
128	0xbd57467c	-0.052557454
129	0x3e146aa0	0.14493799
130	0xbd2af173	-0.04173417
131	0x3d883f08	0.06652647
132	0x3dfdeed1	0.12399066
133	0x3e83a1a1	0.2570925
134	0x3dee70e9	0.1164263
135	0xbd853b58	-0.065054595
136	0x3c88c8e4	0.016697355
137	0x3dc8b809	0.09800727
138	0xbdd3245c	-0.103096694
139	0xbc3236ba	-0.010877306
140	0x3d74af49	0.059737477
141	0x3de993f6	0.114051744
142	0x3e12dcd5	0.14342053
143	0xbda88de7	-0.08230191
144	0xbe566a56	-0.20939001
145	0xbb9281ec	-0.0044710543
146	0xbcf21f11	-0.02955583
147	0xbd732df1	-0.059369985
148	0x3e1dcf25	0.1541105
149	0x3dc40df1	0.095729716
150	0x3dc0e032	0.09417762
151	0xbdcf708b	-0.10128888
152	0xbe3bfbd1	-0.18357779
153	0x3cce1b73	0.025159573
154	0xbe478378	-0.19483745
155	0x3d91efe5	0.071258344
156	0xbb5d8c5e	-0.003380559
157	0x3dfbdb63	0.12297704
158	0x3e01c5bb	0.12673084
159	0xbd6ce500	-0.05783558
160	0xbd14f1ce	-0.036363415
161	0xbd9d278a	-0.07673557
162	0xbe2d04f9	-0.16896428
163	0xbe291be1	-0.16514541
164	0xbcf8ce80	-0.030371904
165	0x3e69999c	0.22812504
166	0xbe25ee37	-0.16204153
167	0x3e4ce269	0.20008244
168	0x3d30839e	0.04309427
169	0xbe40d954	-0.18832904
170	0xbd534f6e	-0.051589422
171	0x3e017a97	0.1264442
172	0x3da99528	0.082804024
173	0xbcdc7a74	-0.026913859
174	0x3dab5f5c	0.08367798
175	0xbe2e5ba9	-0.17027153
176	0xbe118e16	-0.14214358
177	0x3dbda27c	0.09259507
178	0xbdd67d0d	-0.1047307
179	0x3de8183d	0.11332748
180	0xbdeaf758	-0.11472958
181	0xbda6f3db	-0.081519805
182	0xbe52ce76	-0.20586571
183	0x3dd266cf	0.102735154
184	0x3df8c394	0.121466786
185	0x3e3954fa	0.18098822
186	0x3defc2c6	0.11707072
187	0xbd74f78f	-0.059806403
188	0x3d5dba76	0.0541329
189	0xbe3b39f7	-0.1828383
190	0x3e64bf94	0.22338706
191	0xbdd84e0d	-0.10561762
192	0x3dae14fe	0.08500098
193	0x3d6e1e87	0.058134582
194	0xbc9e463c	-0.0193206
195	0xbd8c024b	-0.06836375
196	0x3e65bb45	0.22434719
197	0xbdbaedb1	-0.09127367
198	0xbe66296b	-0.22476737
199	0x3de92692	0.1138431
200	0xbe3469cc	-0.17618483
201	0xbd1dd281	-0.03853083
202	0x3d686fd1	0.05674726
203	0x3dc1e95e	0.094683394
204	0x3dc02702	0.0938244
205	0x3e43c44e	0.19117853
206	0xbd8abd7f	-0.06774425
207	0xbe881c10	-0.2658391
208	0xbdc2dd70	-0.09514892
209	0xbd6428dd	-0.055703033
210	0x3db446e8	0.08802587
211	0xbe042690	-0.12905335
212	0x3e5ab91e	0.21359679
213	0x3da40918	0.08009547
214	0xbe430ddd	-0.19048257
215	0x3e3f97bf	0.1871023
216	0xbdee19f3	-0.11626043
217	0x3e04b163	0.12958293
218	0xbe2605d1	-0.16213156
219	0x3daf5ac6	0.085622355
220	0x3d5d3a37	0.054010596
221	0xbe1361b5	-0.14392741
222	0xbd84d197	-0.064852886
223	0xbdb26ae5	-0.08711795
224	0x3d739d93	0.059476446
225	0x3e3e38c3	0.1857634
226	0xbd139469	-0.036030207
227	0x3d1f94c1	0.038960222
228	0x3e0aa69f	0.13540123
229	0xbd977467	-0.07395249
230	0x3d2b84e4	0.04187478
231	0x3de39a09	0.11113364
232	0xbd883e24	-0.066524774
233	0xbe684f0e	-0.22686407
234	0xbdf137e8	-0.117782414
235	0x3e6925a1	0.2276826
236	0x3e4993c0	0.19685268
237	0xbd9f7b16	-0.07787149
238	0x3e1c5293	0.15265875
239	0xbe15c7cf	-0.14627002
240	0x3d499336	0.049212657
241	0xbddb0743	-0.106947444
242	0xbe75aac8	-0.23990929
243	0x3d583aa5	0.052790303
244	0xbb67f46e	-0.0035393494
245	0xbd75d9ef	-0.06002229
246	0xbe15f08e	-0.14642546
247	0xbdbb09ad	-0.09132705
248	0x3bdbd739	0.006709006
249	0xbdc546fc	-0.0963268
250	0xbb517c1c	-0.0031964844
251	0x3e306e22	0.17229512
252	0xbd72d637	-0.059286322
253	0x3d6e30d9	0.058152054
254	0x3dffa806	0.1248322
255	0xbbfc88aa	-0.0077067213

bias_ih_l0 f4 [128]
0	0xbce25a66	-0.027630996
1	0xbd643455	-0.05571397
2	0x3deb3158	0.11484021
3	0x3dfcbe1c	0.12340948
4	0x3af78ce4	0.0018886593
5	0x3de87e1c	0.113521785
6	0x3e50d4d7	0.20393692
7	0xbd8d2566	-0.06891899
8	0x3d284caa	0.041088738
9	0x3e04528a	0.12922111
10	0xbde5498f	-0.11195671
11	0xbe217050	-0.157655
12	0x3dbbc937	0.09169238
13	0x3e9eb36d	0.30996266
14	0xbe03f8af	-0.12887834
15	0x3eae23d5	0.34011713
16	0x3d7503e7	0.059818175
17	0x3e09be0c	0.13451403
18	0x3e6bdbc7	0.23033057
19	0x3cb734fb	0.02236413
20	0x3e53be7d	0.20678134
21	0xbc9a37d3	-0.018825447
22	0xbde51eee	-0.1118754
23	0xbd3be24c	-0.04587011
24	0xbc6b387b	-0.014356728
25	0x3ca82d64	0.020529456
26	0x3d8d7e2d	0.06908832
27	0x3d8712c5	0.06595377
28	0x3e0e07be	0.13870141
29	0x3e1f4ed4	0.15557414
30	0x3e49cb69	0.19706501
31	0x3d1aad14	0.037762716
32	0x3e503e63	0.20336299
33	0xbd939822	-0.072067514
34	0xbd8934b8	-0.066995084
35	0xbdaebd8e	-0.085322484
36	0xbd1ca508	-0.038243324
37	0x3da49fe1	0.08038307
38	0x3c4de225	0.012566124
39	0x3e5450b6	0.20733914
40	0x3e4461da	0.19177952
41	0x3e8822a3	0.26588926
42	0x3ddd5ed8	0.10809106
43	0x3e261444	0.16218668
44	0xbca6b476	-0.020349722
45	0x3eb82dff	0.35972592
46	0x3d4669a7	0.0484406
47	0x3e816e6f	0.25279567
48	0xbdae5fb0	-0.08514345
49	0x3e60ae25	0.21941431
50	0x3e476ac9	0.19474329
51	0x3e7870d3	0.24261789
52	0x3e0d24b3	0.13783531
53	0x3e02c3a9	0.12769951
54	0xbd87c91d	-0.06630156
55	0x3d19b4c7	0.03752592
56	0xbcc5b3d9	-0.02413361
57	0x3e1c2ff0	0.15252662
58	0x3d8fa4a3	0.07013824
59	0x3e72299d	0.23648687
60	0xbdd70ae4	-0.10500124
61	0x3db10b81	0.08644772
62	0x3c92ba51	0.017911108
63	0x3c87cbde	0.016576704
64	0xbdd9c69e	-0.10633586
65	0x3d5cde36	0.053922854
66	0x3d7bc8af	0.061470684
67	0xbe53642f	-0.20643686
68	0x3d06b010	0.03288275
69	0x3defe64f	0.1171385
70	0x3dd330b7	0.10312026
71	0x3e0c17ee	0.13681003
72	0x3dd63d6b	0.10460933
73	0xbdbaf5ca	-0.09128912
74	0x3e1d3637	0.15352713
75	0x3d103fc2	0.035217054
76	0x3d40b1c5	0.047044534
77	0x3cf8bbc6	0.030362975
78	0x3dec178c	0.11527929
79	0xbda3892f	-0.0798515
80	0xbe2f56d1	-0.17122962
81	0xbdeea3f1	-0.11652363
82	0x3e1491fe	0.14508817
83	0xbdb3c27a	-0.08777328
84	0x3d5fa927	0.054604676
85	0xbe3fa4e4	-0.18715245
86	0xbdc4ded2	-0.09612812
87	0x3e2fed1b	0.17180292
88	0xbdf8bddc	-0.12145588
89	0xbd222a93	-0.039591383
90	0x3defb297	0.11703985
91	0x3cf18e48	0.02948679
92	0x3c88a38f	0.016679553
93	0xbdbab92a	-0.091173485
94	0xbcff61a4	-0.031174488
95	0x3d3d6f39	0.04624865
96	0xbd9a0531	-0.075205214
97	0x3e5d99c9	0.21640696
98	0x3e4b7973	0.19870548
99	0x3e19c9fd	0.15018459
100	0x3db6697d	0.08906839
101	0x3e19cbd6	0.15019163
102	0x3e481a34	0.19541246
103	0x3d065ca4	0.032803193
104	0x3c989bed	0.018629039
105	0x3e4c5a2b	0.19956271
106	0x3dadc8b1	0.084855445
107	0xbe14440b	-0.14479081
108	0xbd283491	-0.041065756
109	0x3ed0af7f	0.40758893
110	0x3d7b3e33	0.061338615
111	0x3e6e5a5c	0.23276657
112	0x3daa2220	0.0830729
113	0xbde52b9a	-0.11189957
114	0x3e0a1bdd	0.13487191
115	0x3e0de41c	0.13856548
116	0xbcbe1d92	-0.02320746
117	0x3e14ad10	0.14519143
118	0xbba579a0	-0.005049899
119	0xbddf4396	-0.10901563
120	0x3e48bd1c	0.1960339
121	0x3dd0d49c	0.10196802
122	0x3e5f900d	0.21832295
123	0xbdbe6305	-0.0929623
124	0xbde6f7a3	-0.11277702
125	0x3c3861cb	0.011253784
126	0x3e1364a5	0.14393862
127	0xbba54c50	-0.0050444975

bias_hh_l0 f4 [128]
0	0x3e4e3e08	0.2014085
1	0x3e50aa26	0.20377406
2	0x3d386f29	0.045027886
3	0xbd3a74b9	-0.04552147
4	0x3dc47357	0.09592312
5	0x3e4e07fc	0.20120233
6	0xbd2ed2de	-0.042681567
7	0x3d1009e5	0.035165686
8	0x3df547f5	0.11976615
9	0x3e4e2f44	0.20135218
10	0x3dbeab68	0.09310037
11	0x3d514d59	0.051099155
12	0x3dbce522	0.09223391
13	0x3ea3747e	0.31924814
14	0x3dcda19b	0.100405894
15	0x3ec84a50	0.39119196
16	0x3c0fb54e	0.008771254
17	0x3d62e213	0.055391382
18	0x3e0f7353	0.14008836
19	0xbcb91e50	-0.022597462
20	0x3e58ee2b	0.21184604
21	0x3db99144	0.0906091
22	0x3e3ae394	0.18250877
23	0xbdf46c2a	-0.11934693
24	0xbdf8889d	-0.12135432
25	0xbd804388	-0.062628806
26	0x3d08851e	0.033330075
27	0xbcf7928e	-0.03022125
28	0x3e287e30	0.16454387
29	0x3e381909	0.179783
30	0x3d66667e	0.056250088
31	0x3d88abbf	0.06673383
32	0x3d8da139	0.069155164
33	0x3e18856a	0.14894643
34	0x3d692f1b	0.05692969
35	0x3c9c587b	0.01908516
36	0xbce3fe49	-0.027831214
37	0xbdb11ddf	-0.086482756
38	0xbde2631a	-0.110540584
39	0xbda93a78	-0.08263105
40	0xbd8f14d9	-0.06986398
41	0x3db292aa	0.0871938
42	0x3cdb3648	0.026759282
43	0x3d672511	0.056431834
44	0x3dfe59de	0.124194846
45	0x3ebee20e	0.3728184
46	0xbddd30de	-0.10800336
47	0x3e3729b8	0.17887008
48	0xbc90d012	-0.01767734
49	0xbd26a29f	-0.04068243
50	0x3d4bbc3a	0.049740054
51	0x3d630f25	0.055434365
52	0x3e055e1e	0.13024184
53	0x3d502983	0.05082084
54	0x3da0d71b	0.07853528
55	0xbde160f5	-0.11004821
56	0x399e04a4	0.00030139566
57	0x3e4a2b50	0.19743085
58	0xbc9cc20f	-0.019135503
59	0x3c8f9d4c	0.01753106
60	0x3dbf615f	0.09344744
61	0xbdd8bab3	-0.10582485
62	0xbdd02115	-0.1016256
63	0x3e462c7d	0.19352908
64	0x3d956820	0.07295251
65	0x3d932deb	0.071864925
66	0xbe024bb2	-0.12724188
67	0xbe316aa9	-0.17325844
68	0x3dd9dd2a	0.10637887
69	0xbdac4914	-0.08412376
70	0xbdcf0278	-0.10107893
71	0x3e0b6858	0.13614023
72	0xbe1fde1d	-0.15612073
73	0x3e0685e5	0.13137014
74	0x3da0a991	0.07844842
75	0x3e11f788	0.14254582
76	0x3c05f45b	0.008175935
77	0x3dd37202	0.1032448
78	0x3dbd31ce	0.09238015
79	0x3cdc8888	0.026920572
80	0xbda89c3c	-0.08232924
81	0x3d5fdb2a	0.05465237
82	0xbe0d6e02	-0.13811496
83	0x3c285952	0.010275202
84	0x3dd00445	0.10157064
85	0xbe14f481	-0.14546396
86	0x3d113ace	0.03545647
87	0x3ddc1c5f	0.10747599
88	0xbd6ab5d3	-0.057302307
89	0x3e3b5602	0.18294528
90	0xbdb28087	-0.08715921
91	0x3d3adfcd	0.04562359
92	0xbe0736a4	-0.13204437
93	0xbe04f241	-0.12983038
94	0x3e468157	0.19385277
95	0xbe08841c	-0.13331646
96	0x3e41b805	0.18917854
97	0x3e44ff00	0.192379
98	0x3dc8ee5a	0.09811087
99	0xbdedd70f	-0.11613285
100	0xbdac42eb	-0.08411201
101	0x3e274f0c	0.16338748
102	0x3df6c947	0.12050109
103	0x3dda2b78	0.10652822
104	0x3d7cbbb8	0.06170246
105	0x3e59620f	0.21228813
106	0x3cf6762d	0.030085647
107	0xbdfdfe19	-0.12401981
108	0xbd07ec9a	-0.033184625
109	0x3e88930d	0.2667469
110	0x3e0221d1	0.12708212
111	0x3eab7126	0.33484763
112	0x3e6cb6c0	0.23116589
113	0xbd5b319c	-0.053514108
114	0xbdb2578a	-0.08708103
115	0x3dfda80b	0.12385567
116	0xbd25602e	-0.040374927
117	0xbd3812f0	-0.044939935
118	0x3ded2f8c	0.115813345
119	0x3e3607a6	0.17776355
120	0x3d915852	0.07096924
121	0x3e6944ad	0.22780104
122	0x3bda2b09	0.006657962
123	0x3dbd4f72	0.092436686
124	0x3e26a52d	0.16273947
125	0x3da0a7c4	0.07844499
126	0x3d8cd1f1	0.06875981
127	0x3d7463da	0.05966554

weight_ih_l0_reverse f4 [128, 2]
0	0x3d646bba	0.0557668
1	0xbe5007d9	-0.20315494
2	0x3e2d9ba2	0.169539
3	0x3d608e1f	0.054823037
4	0xbc9443db	-0.018098762
5	0xbdf38cf1	-0.11892117
6	0x3e2cc991	0.16873766
7	0xbe21f07e	-0.15814397
8	0x3c8480bc	0.016174667
9	0x3cd4a019	0.025955247
10	0xbdfce50a	-0.12348373
11	0xbe78f3fa	-0.2431182
12	0xbbc3b7cd	-0.0059728385
13	0x3e597309	0.21235289
14	0xbd82df6e	-0.06390272
15	0xbe95d224	-0.29261887
16	0x3de24f4c	0.11050281
17	0xbe911b95	-0.28341356
18	0xbe122d5c	-0.14275116
19	0x3d906fdf	0.07052588
20	0xbe30ec37	-0.17277609
21	0x3d7bc146	0.061463617
22	0x3e46282c	0.19351262
23	0xbe42ee4a	-0.19036213
24	0xbe281f95	-0.16418298
25	0x3e0d36e5	0.13790472
26	0xbe3414c8	-0.17586052
27	0xbe985bfc	-0.29757679
28	0x3e243377	0.16035257
29	0x3d0bcd61	0.03413141
30	0xbcbbc7e2	-0.02292246
31	0x3c12b560	0.008954376
32	0xbdd35eff	-0.103208534
33	0xbd32a7eb	-0.04361717
34	0xbdbd9377	-0.09256642
35	0xbe26a223	-0.16272788
36	0xbe76c29a	-0.24097672
37	0xbcf0aa91	-0.029378207
38	0x3984299c	0.00025208003
39	0x3daa7faa	0.08325131
40	0xbd92b0d3	-0.07162633
41	0x3e8e1afd	0.27754965
42	0xbe17cb29	-0.14823593
43	0xbd8600fc	-0.065431565
44	0xbe0538c6	-0.13009939
45	0x3cee2683	0.029071098
46	0x3e41696d	0.18887873
47	0xbcdaa777	-0.026691182
48	0xbdc24d84	-0.09487441
49	0xbcb76087	-0.022384895
50	0xbdae5eed	-0.085141994
51	0xbdcf8a98	-0.101338565
52	0x3d83bf6b	0.064329945
53	0x3bace365	0.005276131
54	0xbd9fd218	-0.07803744
55	0xbcf4021c	-0.029786162
56	0x3cb791c2	0.02240837
57	0x3d3fb982	0.046807773
58	0x3c0c0275	0.008545508
59	0xbcd19863	-0.025585359
60	0x3e37a1cc	0.17932814
61	0xbe7df391	-0.24799944
62	0xbd948843	-0.07252552
63	0xbe1fa6a8	-0.15590918
64	0xbdcbd37b	-0.09952446
65	0x3d0a8a8e	0.033823542
66	0x3e6dca21	0.23221637
67	0xbd897180	-0.067111015
68	0xbce179a5	-0.027523825
69	0xbd084074	-0.033264592
70	0x3caaaf69	0.020835595
71	0xbe4d4919	-0.20047416
72	0x3c1ab3d7	0.009442291
73	0x3d894833	0.06703224
74	0x3e1a19a0	0.15048838
75	0xbd49d0ee	-0.049271517
76	0xbe75209a	-0.23938218
77	0x3e867aa4	0.26265442
78	0xb7c57d03	-2.3542443e-05
79	0xbdbe6f0c	-0.09298524
80	0x3e234532	0.15944365
81	0xbdfa4a80	-0.12221241
82	0xbcf237d0	-0.02956763
83	0xbe0989c1	-0.13431455
84	0x3e14e10c	0.14538974
85	0xbe239c4b	-0.1597759
86	0x3e51e6db	0.2049822
87	0xbe4b3fe7	-0.19848596
88	0xbe369105	-0.17828758
89	0x3eb698e0	0.3566351
90	0xbd27a400	-0.040927887
91	0xbe85bf4d	-0.26122513
92	0x3d8264a0	0.06366849
93	0xbddfe9af	-0.109332435
94	0xbdd09a63	-0.10185697
95	0xbd7b9cfe	-0.061429016
96	0x3d73641f	0.059421655
97	0xbdbd3424	-0.09238461
98	0xbdd6d1f8	-0.10489267
99	0xbd2e783e	-0.04259514
100	0xbe75adb7	-0.23992048
101	0xbd4a094b	-0.04932527
102	0xbd75fece	-0.060057454
103	0x3d0a7771	0.033805314
104	0x3db3302c	0.087494224
105	0x3ec5c4d1	0.38626722
106	0xbce1c883	-0.027561432
107	0xbdeac3d1	-0.1146313
108	0x3deef9da	0.11668749
109	0xbe7a43b9	-0.24439897
110	0xbe1610c3	-0.14654832
111	0xbd6c0350	-0.057620347
112	0x3ceeeca2	0.02916557
113	0xbe66ae89	-0.22527517
114	0x3dccd959	0.10002393
115	0xbe76f858	-0.24118173
116	0x3e0adf69	0.13561787
117	0xbda10200	-0.078617096
118	0x3dad7949	0.08470399
119	0xbe916013	-0.2839361
120	0xbd6f0d3f	-0.05836224
121	0x3e2e43b2	0.17018011
122	0x3e39b838	0.1813668
123	0xbd08aa8d	-0.033365775
124	0x3e76a37a	0.24085799
125	0xbe427bcb	-0.18992536
126	0x3d33bc7b	0.04388092
127	0xbe821f4b	-0.254145
128	0xbdfb5521	-0.122720964
129	0xbe3a63b1	-0.18202092
130	0x3e66de92	0.22545841
131	0x3e98efce	0.29870456
132	0x3e16ea9d	0.14737935
133	0xbe2ee13a	-0.17078105
134	0xbe1a9f25	-0.15099771
135	0xbe4c00ae	-0.19922134
136	0x3d2cb1c2	0.04216171
137	0x3e99e701	0.30059054
138	0x3cc6048a	0.024172086
139	0x3e499d23	0.19688849
140	0x3dfe9d68	0.124323666
141	0xbe87150b	-0.26383242
142	0xbe4acfcc	-0.1980583
143	0x3e82d53d	0.25553313
144	0xbe71fed5	-0.23632367
145	0x3c8cf2af	0.017205564
146	0xbdfbce82	-0.122952476
147	0x3e87126c	0.26381242
148	0x3e8d7912	0.27631432
149	0xbe55ec06	-0.20890817
150	0x3ea18de0	0.31553555
151	0xbe2e3b96	-0.17014918
152	0x3ea69299	0.3253372
153	0xbe4b4939	-0.19852151
154	0x3e97ef62	0.29674822
155	0xbd8c2b1b	-0.06844159
156	0xbe6e0627	-0.23244534
157	0xb9b73b00	-0.00034948438
158	0xbd2be9f3	-0.04197116
159	0x3e6767e7	0.2259823
160	0x3afb533c	0.0019174586
161	0x3e19968f	0.1499884
162	0xbd55280b	-0.05204014
163	0x3eb408dd	0.35163012
164	0x3e1edacd	0.15513153
165	0xbb805a4e	-0.003917015
166	0xbea3f452	-0.3202234
167	0xbe434d33	-0.19072418
168	0xbea88bbe	-0.32919115
169	0xbe33b866	-0.17550811
170	0x3ea3e046	0.32007045
171	0xbe372fa0	-0.17889261
172	0xbe8ec4e8	-0.27884603
173	0x3e4aae5e	0.19793078
174	0x3e0bec3a	0.13664332
175	0x3e86356e	0.2621264
176	0xbe0b1eec	-0.13586015
177	0x3e8d7c38	0.27633834
178	0x3e876547	0.26444456
179	0xbd0b3202	-0.033983238
180	0xbe69a235	-0.22815783
181	0x3e06658a	0.13124672
182	0x3e5081f5	0.20362075
183	0xbe975e38	-0.2956407
184	0xbee6c4ac	-0.45071924
185	0x3e92f15c	0.28699768
186	0x3e185062	0.14874414
187	0x3e06aa2a	0.1315085
188	0x3e74af15	0.23894913
189	0xbe8c0251	-0.27345517
190	0x3e0f151e	0.139729
191	0x3da1fdda	0.079097465
192	0x3e27dd2e	0.16392967
193	0xbdfb1404	-0.12259677
194	0x3e4a993c	0.19785017
195	0x3d61f736	0.0551674
196	0x3d613090	0.054977953
197	0xbe6dfd3b	-0.23241131
198	0xbd91d856	-0.07121341
199	0xbe658721	-0.22414829
200	0xbdbb4709	-0.09144408
201	0x3e1bb54e	0.15205881
202	0xbe140f2a	-0.1445891
203	0xbe120c77	-0.14262567
204	0xbe93e52e	-0.28885788
205	0x3df60d8b	0.12014302
206	0x3dc889f8	0.097919405
207	0xbe8abf7b	-0.27099213
208	0xbd3daeca	-0.04630927
209	0xbe1ff804	-0.15621954
210	0xbd2e5f56	-0.04257139
211	0xbe2dad08	-0.16960537
212	0x3de32e32	0.110927954
213	0xbe50cdc2	-0.2039099
214	0x3e40eb29	0.18839706
215	0xbe80b7fe	-0.25140375
216	0x3d7f6169	0.062348757
217	0x3dd32c79	0.10311217
218	0xbd9ea299	-0.07745857
219	0xbe1ddc9e	-0.1541619
220	0x3e61cebe	0.22051522
221	0xbd8d9db3	-0.06914844
222	0xbd8be115	-0.0683004
223	0xbe62f116	-0.2216228
224	0x3e207292	0.15668705
225	0x3ccbcb6b	0.02487727
226	0xbcf87714	-0.030330218
227	0xbe75979e	-0.23983619
228	0xbe71597c	-0.23569292
229	0xbda2f1b2	-0.07956256
230	0xbe62f212	-0.22162655
231	0x3dbe6c18	0.09297961
232	0xbd3a1606	-0.04543116
233	0x3ca1d95f	0.01975697
234	0xbdbe6996	-0.09297483
235	0x3d05a8d8	0.032631725
236	0xbdb745f6	-0.08948891
237	0xbe63d07e	-0.22247502
238	0xbd88f869	-0.066880055
239	0xbda9d3f1	-0.08292378
240	0x3d985506	0.07438092
241	0x3d342366	0.04397907
242	0x3e4b5ea4	0.19860321
243	0xbe521dca	-0.20519176
244	0xbe249a6e	-0.16074535
245	0x3d714ba8	0.058910042
246	0x3df621b8	0.1201815
247	0x3d39a76b	0.045325678
248	0x3e694d3f	0.22783373
249	0xbdb2a61d	-0.0872309
250	0x3cfdda5f	0.030987917
251	0xbe879582	-0.26481253
252	0x3da11b32	0.07866515
253	0xbe16ebbf	-0.14738367
254	0xbd940fd6	-0.07229583
255	0xbe397c07	-0.18113719
