sgan-dataset/logs/zara1/models_03_Mar_2019_13_48_21/model_registrar-1099.pt (torch_old, 575433 bytes, 45 tensors)

weight_ih_l0 f4 [128, 6]
000000 18 45 05 be 05 17 ab bc bc b9 09 be 28 51 09 3d
       -0.13014638 -0.020885 -0.13449758 0.033524662
000010 73 c2 03 bd e9 b9 2b 3e a5 90 a4 be 17 7a 9f be
       -0.032167863 0.16770138 -0.32141605 -0.31147835
000020 46 b1 66 be 95 5a 87 be b7 2d 63 3e e7 58 b9 bd
       -0.22528562 -0.26436296 0.22185408 -0.0905016
000030 16 6e 1e be 85 09 07 be ac 44 d4 bd 82 a7 ad bd
       -0.15471682 -0.13187225 -0.103646606 -0.08479215
000040 d9 6e b9 be ec ac 97 3e aa 1e fe bd 61 f9 ce 3c
       -0.36217383 0.29624116 -0.124081925 0.025265398
000050 4d 61 66 3e e8 98 78 be 7b 0c 3f bd ae 02 a9 3e
       0.22498055 -0.24277079 -0.04664276 0.33009857
000060 d9 1b 8d bd 42 18 84 3d 72 b6 5e be 14 85 42 3e
       -0.06890077 0.06449939 -0.21749285 0.18996078
000070 01 9e 13 3e 33 97 3a be 76 07 28 3e b8 e8 a6 3d
       0.14415742 -0.1822174 0.16409096 0.08149856
000080 4c 69 a0 3d 46 ae 2c 3d f6 9d 00 3e 0d 26 22 bd
       0.07832584 0.042158388 0.12560257 -0.03958707
000090 3e 60 2e be 90 c6 8f bd fe f2 55 be cf d5 da bb
       -0.17028901 -0.07020295 -0.20893475 -0.00667832
0000a0 e3 37 63 3d 2d 49 a6 bd eb 42 71 3c c0 8e 4a 3e
       0.05547322 -0.08119426 0.014725427 0.19781017
0000b0 0e da 2d be 31 1f 7a 3d 93 f2 91 be c8 d1 f9 3c
       -0.16977713 0.061064903 -0.28505382 0.03049554
0000c0 ef ef 22 3e fb a4 f0 3d 98 3a a8 3d 40 5a 8e 3d
       0.1591184 0.117502175 0.08214301 0.069508076
0000d0 b4 70 2d bd 22 17 3f 3d d4 a1 11 be bd b9 74 be
       -0.04234381 0.04665292 -0.14221889 -0.23898979
0000e0 48 f9 a0 bd 0e 82 82 3e 75 9c 95 bc 59 8f 63 be
       -0.078600466 0.2548985 -0.018263081 -0.22222652
0000f0 55 6c be 3c 14 70 27 3e 88 63 ad be b9 87 5f be
       0.023245016 0.16351348 -0.33865 -0.21829118
000100 14 ef e9 bc 8f db 9a 3c 20 44 5c bd ba 45 0d bc
       -0.028556384 0.018903522 -0.053775907 -0.008622581
000110 e7 4a d2 bd 93 5f 65 3d 74 0a 28 3e 7e 2f 0d 3e
       -0.10268193 0.05599935 0.16410238 0.13787648
000120 0f f4 42 be 07 2b 40 be 64 2f 9a 3d 96 48 0a 3d
       -0.19038413 -0.18766414 0.0752857 0.03376063
000130 c6 f0 21 3c 4a 16 08 be 1b a0 55 bd d6 e4 ca 3d
       0.009884065 -0.13289753 -0.05215464 0.09906928
000140 8e db 4e 3e 43 0e a9 bd 02 ee 09 be 68 a2 07 3d
       0.20200941 -0.08254673 -0.13469699 0.033113867
000150 3c dd f5 bd e0 6e 9c bd 2b 7d 4e be 86 00 4c 3e
       -0.12005088 -0.07638335 -0.20164935 0.19922075
000160 22 c2 b6 3d a0 19 13 3e 84 dc d6 bd 74 57 2d 3e
       0.08923747 0.14365244 -0.10491279 0.16927892
000170 35 b2 a6 3d 75 ed cf 3e 26 fc 15 bc c7 19 6d bc
       0.08139459 0.40610853 -0.009154355 -0.014471478
000180 b7 5b 04 3e 78 61 af 3d 12 89 99 3b 82 52 8e 3d
       0.12925611 0.085635126 0.0046855295 0.06949331
000190 77 8a 25 3e 8c d3 ca bd 33 70 85 bd 61 6d 3d be
       0.16166101 -0.099036306 -0.06515541 -0.18498756
0001a0 a8 12 c9 3d a0 23 8e bd b0 2a f7 bb 8e 41 b6 3e
       0.098180115 -0.06940389 -0.0075429305 0.3559689
0001b0 b3 71 a1 3d c4 65 99 bc df c7 11 3e fd ba 3e bc
       0.078830145 -0.018725283 0.14236401 -0.011641261
0001c0 2c 7a 6c 3d 2b c9 ef bd cc dc 7f bc c2 16 16 3d
       0.0577337 -0.117082916 -0.015616607 0.036642797
0001d0 70 23 8b be 98 40 b1 3d 5e c4 15 3e 16 bf 7d 3e
       -0.27175474 0.086548984 0.1462569 0.24779925
0001e0 bf d7 84 bd 9e 96 89 3d cd 68 b9 3e f4 76 04 be
       -0.06486463 0.06718181 0.3621277 -0.12936002
0001f0 e8 1d 18 3e 81 35 3d bd 4e 03 df bd 5f 30 6c bd
       0.14855158 -0.046193603 -0.10889302 -0.057663318
000200 76 1a f6 3c 0f 32 33 3e 84 f0 a0 be 64 41 af 3e
       0.030041914 0.17499565 -0.314335 0.34229577
000210 85 2d 2a bc c1 13 05 be 44 19 f0 bd 4f 80 b4 bd
       -0.010386829 -0.12995817 -0.11723569 -0.088135354
000220 1a d0 08 3e 7a 35 8c 3d 94 32 f8 bc 40 c3 be bd
       0.13360634 0.06846137 -0.030297555 -0.09314585
000230 81 69 00 be 8b 72 27 bd 39 5b 8e 3d dc 4a 5b 3e
       -0.12540247 -0.04088072 0.06950993 0.21415275
000240 c4 f4 e5 bc a4 cc 0a be ca 83 50 be d3 1b fa bd
       -0.028070815 -0.13554627 -0.20362774 -0.12212338
000250 2b 49 c0 bd 10 ca 49 bd b0 c4 28 be 89 13 dd bd
       -0.09388956 -0.049264967 -0.1648128 -0.10794742
000260 c4 19 ca 3d a0 eb 2b 3e 4e ad af 3c bf 67 9a 3e
       0.09868196 0.16789103 0.021444943 0.30157277
000270 78 22 11 be b3 84 ad 3a 76 dc 8f 3d 6e 48 8a 3d
       -0.14173305 0.00132384 0.070244715 0.06752096
000280 ef 9c 0d 3d e5 34 a7 3e dc 22 3d be a8 35 98 3d
       0.03457349 0.32657543 -0.18470329 0.07432109
000290 66 18 c3 3e b2 f9 00 3e 8b 4e 96 3c ea ca 92 3e
       0.38104552 0.12595251 0.018348 0.28670436
0002a0 60 62 ed 3d 10 6a 05 3e 92 30 c6 bc 4f 00 e8 bd
       0.11591029 0.13028741 -0.024193082 -0.11328184
0002b0 2d f9 d4 3c d9 52 8c 3d ae 85 1f be 35 32 00 be
       0.025997723 0.068517394 -0.15578339 -0.12519152
0002c0 1a 17 5b be f2 00 0f bd f8 7f d5 bc e2 41 c6 39
       -0.21395531 -0.03491301 -0.026061997 0.0003781459
0002d0 f7 13 12 38 8e 38 34 3d fc e2 81 3d bd 08 a3 be
       3.4827706e-05 0.043999247 0.06342122 -0.31842604
0002e0 47 cd 61 be 98 e4 35 be 85 15 9a bd fa 06 c8 3d
       -0.22050963 -0.17762983 -0.07523636 0.09766956
0002f0 4d f4 bc 3d 10 6e 65 be 37 d8 8e bd 5b 6e 4d be
       0.09226284 -0.22405267 -0.069748335 -0.20061629
000300 b3 0a b6 3a af ff e1 3d cc b8 42 be fc bd cf bd
       0.0013888687 0.11035096 -0.19015807 -0.101436585
000310 21 8c 39 3e e1 3c 0c bd 8a 80 35 bd 0a ad dd bd
       0.18119861 -0.034237746 -0.044312038 -0.1082402
000320 41 fc 0d be 68 f8 57 be ab c3 97 3e ce 92 3b 3d
       -0.13865758 -0.21090853 0.2964147 0.0457943
000330 25 cb 0f be 7d 04 cb bc d7 93 6d bd 5d 7f 84 bd
       -0.14042337 -0.024782414 -0.05800232 -0.06469605
000340 02 4d e2 bc 31 b8 33 3e cf aa fc bd 21 11 37 bd
       -0.02762461 0.17550732 -0.12337267 -0.04469407
000350 86 98 08 3e 0e 7b a0 be 64 7e 62 3b 04 5c ce b9
       0.13339433 -0.31343883 0.0034560198 -0.0003935994
000360 a1 78 c1 3d 74 0d b6 bd 8e 52 eb bd a7 3a 9f 3d
       0.09446836 -0.08889285 -0.114903554 0.07774859
000370 f1 c9 19 be 24 f0 09 be e8 93 a7 3d c0 00 56 bd
       -0.15018441 -0.13470513 0.08182508 -0.05224681
000380 ca c1 ca 3d 05 b8 3d be 59 33 d9 bd 92 d8 16 be
       0.099002436 -0.18527229 -0.10605497 -0.14731053
000390 6b ed 72 3d f6 51 6d bc 67 13 bf bd 85 17 4a bd
       0.05930845 -0.014484873 -0.093298726 -0.049338836
0003a0 85 f1 08 be d3 e2 88 3d 52 58 fe 3c 69 41 bc bd
       -0.13373382 0.06683888 0.031047974 -0.091921635
0003b0 10 96 a8 bd d5 ea 06 3d a7 a4 5d be ae 35 a4 3d
       -0.08231747 0.032938797 -0.21644841 0.08018051
0003c0 cc 5b c4 3d f8 e9 c9 bc 47 0a ca bd 75 bb 38 bc
       0.09587821 -0.024647698 -0.098652415 -0.011275162
0003d0 3d c9 74 3d ad 8e 19 3e 5e 8f 4a be 6d 50 df bd
       0.05976223 0.14995833 -0.19781253 -0.10904012
0003e0 27 e7 26 3e f8 1b 03 3e 68 69 01 3e 10 eb ed bb
       0.16299115 0.12803638 0.12637866 -0.0072606876
0003f0 72 6b 0e 3e 16 ab 02 be 94 4c 45 be 89 23 6a bd
       0.13908175 -0.12760577 -0.19267493 -0.057162795

weight_hh_l0 f4 [128, 32]
000000 2f c1 ba bd 86 44 c2 bd b6 f8 18 bd 02 1a 2e 3e
       -0.09118878 -0.09485726 -0.037346564 0.17002109
000010 a3 ac 12 bd 9d 12 27 bc be 3d 40 be 4f cd a2 bc
       -0.03580917 -0.010197309 -0.18773553 -0.01987329
000020 a7 9a f9 3d 2b 4a c0 3d 07 65 a6 3c 8f de 33 3e
       0.12187701 0.093891464 0.020311845 0.17565368
000030 fe 50 08 bc eb 1b 13 3e c0 41 f1 3d aa c2 4e 3e
       -0.008320091 0.14366119 0.11780119 0.20191446
000040 04 c8 f7 3d 6b 10 15 be d7 c5 a0 3d cd 00 1b be
       0.12098697 -0.14557044 0.07850235 -0.15137024
000050 4d bd c3 bd c0 4d 18 be 8e 25 c2 bd ce 68 03 be
       -0.09557591 -0.1487341 -0.09479819 -0.12832949
000060 d0 00 1a 3e c8 e9 b8 bd 18 e7 e4 3d 89 9f 1e 3e
       0.15039372 -0.09028965 0.1117689 0.15490545
000070 5d 7d b6 3d b4 f5 e7 3d 42 e3 c2 3c fb 93 2b be
       0.0891063 0.11326161 0.023790006 -0.16755669
000080 72 25 67 3e be fe 0e be f3 56 49 3e c7 6d de 3d
       0.22572878 -0.13964364 0.19662075 0.10860782
000090 6a 8d 96 bc 1c fd 75 3e cf e6 fe bd 64 34 43 be
       -0.018377978 0.24022335 -0.12446367 -0.19062954
0000a0 72 8b 0e 3e 8d a7 54 be ca 44 92 bd 41 3a c2 bd
       0.13920382 -0.2076704 -0.07142027 -0.09483767
0000b0 c6 ed 6e be 87 9b f6 3d f7 b3 3d 3e 4f e6 17 3e
       -0.23332891 0.12041383 0.18525682 0.1483395
0000c0 0a 4c 12 3e 85 ea f9 3d fb 00 bf bd dd fb 82 bd
       0.14286819 0.12202934 -0.09326359 -0.06395695
0000d0 f1 0a a8 3d b3 96 0f bd 50 0f 24 be 82 b6 9c bc
       0.08205212 -0.035055827 -0.16021466 -0.019129995
0000e0 d6 65 c7 bd a8 cc bd bd 6d 86 93 be da 4a 4b bd
       -0.097362205 -0.09267551 -0.28813496 -0.04963193
0000f0 2c 88 f7 bd 53 10 8f bc 41 d8 12 3d 2e 50 a3 bd
       -0.120865196 -0.017463839 0.035850767 -0.079742774
000100 ad 30 f5 3d 7a 1f fa bd 8e e0 85 bd 7d e9 c5 3d
       0.11972175 -0.12213035 -0.06536971 0.09663675
000110 62 64 f2 3c 88 b8 92 3d 22 c4 39 be 0c 6c 2c be
       0.029588882 0.07164103 -0.18141225 -0.16838092
000120 47 82 13 bd 1a 38 a9 3d b7 ee 04 be 69 cb c9 3d
       -0.036012914 0.08262654 -0.12981687 0.098532505
000130 f4 f0 05 be 84 3d ef bd 09 8c 02 3e 42 be 03 be
       -0.13080198 -0.11681655 0.12748732 -0.12865546
000140 ae cf 92 3d f7 03 61 bd b7 27 12 3e 58 57 3c be
       0.07168518 -0.05493542 0.14272963 -0.18392694
000150 8e c7 b7 3d 31 e5 80 3e d1 96 2e 3d c8 fa 15 3e
       0.08973609 0.2517486 0.0426243 0.14646447
000160 fb 45 c1 3d 5c 42 8b 3d 55 0a b9 3d 4d 45 26 3e
       0.09437176 0.067997664 0.09035174 0.16237374
000170 4b 9d 04 3e a6 ff 8d 3d 82 0b df bd 7c a5 c8 3d
       0.12950628 0.06933527 -0.10890867 0.09797189
000180 b3 0a 39 3c 80 51 fa 3b 9d 28 ad 3d 5d 02 8f 3d
       0.011294055 0.00763911 0.08455012 0.06982873
000190 37 ef 37 be f6 8f 81 bd 53 e6 ac bd e1 55 b4 3d
       -0.17962347 -0.063262865 -0.08442368 0.088054426
0001a0 ee 13 ed bd 0b 71 bd bd 50 39 21 3b 17 e5 15 be
       -0.11576067 -0.09250077 0.0024600811 -0.14638172
0001b0 b8 a7 66 be 6b 15 a2 bd 98 e3 24 be f2 53 9b bd
       -0.22524917 -0.079142414 -0.16102445 -0.07584371
0001c0 8c d5 f5 bc e7 ef 97 3e b7 78 a4 bd c4 1f cf bd
       -0.030009054 0.29675218 -0.08030837 -0.10113481
0001d0 3a 38 51 bd 8c 16 0c 3e 52 f0 b6 3d 8b d9 c9 bd
       -0.051079012 0.13680476 0.08932556 -0.09855946
0001e0 fd e1 13 be ed 31 ec 3c 50 1c 75 be 10 28 3c 3e
       -0.14441676 0.0288324 -0.23936582 0.18374658
0001f0 c5 db 0f be 2a 24 e1 3b 19 ef 21 3e fd 5b c2 3d
       -0.14048679 0.006870766 0.15813865 0.094902016
000200 19 e9 27 be b5 26 57 bd 4e b4 10 3e d0 be e4 bd
       -0.16397513 -0.05252715 0.14131281 -0.11169207
000210 33 d2 13 3e f4 5d 11 be ef 50 16 bd 38 12 05 3e
       0.14435653 -0.14195997 -0.036698278 0.12995231
000220 69 20 28 be c1 6b 2d be e5 55 39 bd 48 f1 0d be
       -0.16418613 -0.16935636 -0.04524793 -0.13861573
000230 6e bd 86 3c 97 26 aa 3d 2b 92 d1 3d c3 7f 20 be
       0.016447749 0.08308142 0.102329575 -0.15673737
000240 62 bb 12 bd c1 ba 36 be 69 a7 05 be 98 21 b4 3d
       -0.035823233 -0.17844678 -0.13052143 0.0879547
000250 7b c4 19 3d 71 00 03 3e 1c 08 98 3d c3 63 f5 bd
       0.037540894 0.12793137 0.07423422 -0.11981919
000260 2d 6a 79 3d 69 fe f7 bd 63 f1 19 be a8 91 43 be
       0.060892273 -0.12109072 -0.15033488 -0.19098532
000270 b6 aa 40 3e 5d 72 89 bd fa 37 fe 3d 28 1c 00 be
       0.18815121 -0.06711266 0.124130204 -0.12510741
000280 33 01 0f 3e 51 13 f6 bd 39 9d 0c 3d c0 22 45 be
       0.13965301 -0.12015403 0.034329627 -0.19251537
000290 1a 3c 8b bd 58 38 7a bd 35 de a7 bb f8 62 8c bd
       -0.06798573 -0.06108889 -0.0051229247 -0.06854814
0002a0 f9 dc 46 bd 96 22 37 3c 40 e6 01 3e 83 25 31 be
       -0.04855058 0.0111776795 0.1268549 -0.17299466
0002b0 8a 3e 10 be 71 5d 69 3d e7 7b 0b bd d6 87 00 bd
       -0.14086357 0.05697388 -0.03405371 -0.031379543
0002c0 77 36 dc bb 8a 51 12 3e bb 1a 3d be 35 a7 0a 3e
       -0.00672036 0.14288917 -0.18467228 0.13540347
0002d0 fc ae a1 3d 64 24 0e bd b9 1f 0a bd 33 9b 56 bd
       0.07894704 -0.034702674 -0.03372166 -0.052394103
0002e0 96 39 67 bd 6d 94 d0 bd 71 79 14 3e 57 76 45 3e
       -0.056451403 -0.1018456 0.14499451 0.19283424
0002f0 38 9f 5d 3d 2b 37 ce 3d da ad 12 3e af c1 a5 3d
       0.05410692 0.10069116 0.14324132 0.08093583
000300 28 3b 3c 3e 9a 5b 35 3d cc 53 19 be 8e 5a 52 3e
       0.18381941 0.04427681 -0.14973372 0.20542356
000310 1f e9 89 bb e8 5f 7c bd 55 fc b1 3c 21 a6 0f be
       -0.0042086984 -0.0616149 0.021726767 -0.14028217
000320 3c 51 89 bd ee ae 40 bc a4 16 14 bd 4d 28 ef bd
       -0.06704947 -0.0117604565 -0.036154404 -0.11677609
000330 83 33 ef bc 1b 85 31 3e 59 a0 17 bc a0 e3 6f 3d
       -0.029199367 0.17335932 -0.009254538 0.05856669
000340 70 2f 6a 3c 43 dc d1 bd 8a 8d be 3c fa ef 14 be
       0.014293537 -0.1024709 0.02326085 -0.14544669
000350 e6 06 ce 3d b7 e2 6c 3e c4 db 24 3e 21 a2 ec bc
       0.100599095 0.2313336 0.16099459 -0.028885903
000360 dd b3 3f be 57 8c 06 3c dd f0 d8 3d 18 6b ce 3c
       -0.18720956 0.008212171 0.10592816 0.02519755
000370 8e db 3a be 7b 0f 1c 3e c2 d1 14 be ea c7 63 3d
       -0.18247816 0.1524028 -0.14533141 0.055610575
000380 43 26 4d 3e 9c 64 19 bd 48 55 7a bd ca 98 15 3e
       0.20034127 -0.037449464 -0.061116487 0.14609066
000390 66 aa 26 bd ba 21 8b 3d e7 c8 46 3d 4c e5 fd 3b
       -0.04068985 0.06793542 0.04853144 0.0077482816
0003a0 f0 39 63 bc 31 a0 2a be 04 ef 42 bd 2f df 22 be
       -0.013868794 -0.1666267 -0.047591224 -0.1590545
0003b0 77 ae 6a 3e a3 2b b8 bd 68 f5 be 3d 7f e1 49 3d
       0.22918116 -0.08992698 0.09324151 0.049287315
0003c0 a2 6a 0f 3e 81 24 04 be 10 f7 09 be a0 f1 e7 bb
       0.14005521 -0.1290455 -0.13473153 -0.0070783645
0003d0 49 bf 33 be 8e a9 d6 bd 86 5a 83 bd 1c b5 35 be
       -0.17553438 -0.10481559 -0.0641375 -0.17744869
0003e0 90 1b 9d 3d d1 52 21 3e 6a 32 1f 3d de e3 2b 3c
       0.07671273 0.15754248 0.038866438 0.0104913395
0003f0 a1 16 1a 3e 4f c1 44 3e 8b e5 85 bc d7 d5 bb 3d
       0.15047695 0.19214366 -0.016344806 0.09171646

bias_ih_l0 f4 [128]
000000 f8 3d a1 bd d3 ba 71 3b 6d 5a b8 bc 05 7f ba bd
       -0.07873148 0.0036885038 -0.022504056 -0.09106258
000010 9c e9 24 be b9 d5 0e 3e 93 78 4c bd 07 a8 40 be
       -0.1610474 0.13948716 -0.049919676 -0.18814097
000020 ea de ba 3c 7d 10 f2 3c 40 ff 1d 3e 30 6d 12 3e
       0.022811372 0.029548878 0.15429401 0.14299464
000030 d2 48 8c 3d 7a 90 1c be 07 2f 9a 3d 20 92 20 be
       0.06849827 -0.15289488 0.07528501 -0.15680742
000040 63 83 d9 3b 67 31 1c 3e a7 3d 2e bd 20 ed f9 3d
       0.006637977 0.1525322 -0.042539265 0.12203431
000050 e9 95 72 3c 4d c0 c5 3c 78 12 3f bd 4d 18 3b bd
       0.014806249 0.024139548 -0.046648473 -0.045677472
000060 cc 92 fd 3d 58 9a 8e 3d 7d 75 20 bd be 19 a1 3d
       0.12381515 0.069630325 -0.039174546 0.07866238
000070 b4 02 bc bc 57 55 e7 bd 69 8b 4d be ff 55 80 bd
       -0.022950508 -0.11295574 -0.20072712 -0.062664025
000080 dd f8 49 3e 7b 1b 75 3a 7c ef 1e be 22 61 0f 3e
       0.1972384 0.0009350103 -0.15521044 0.14001897
000090 27 74 22 be b3 6d a9 bd ff 23 17 be 6d 3b fb bc
       -0.15864621 -0.082728766 -0.14759825 -0.030667985
0000a0 54 a7 06 be 05 eb d4 3d 8d 01 6e bd ad 1b 21 3d
       -0.13149768 0.10396389 -0.058106948 0.039333034
0000b0 48 82 28 bd 0e 84 31 3e 51 86 04 bd e2 e4 f4 bd
       -0.04113987 0.17335531 -0.032354657 -0.119577184
0000c0 9c 18 e2 3d 58 03 ed 3d af 14 a6 bd aa 62 9f 3d
       0.1103985 0.115729034 -0.08109414 0.077824906
0000d0 b7 dc 1f be 03 39 f0 3d 2b 2d d2 3d e6 87 c4 3d
       -0.1561154 0.11729624 0.10262521 0.09596233
0000e0 cd bb a5 3d 72 ed 14 3e 13 a3 ff 3d 31 d6 17 3e
       0.08092461 0.14543703 0.12482276 0.14827801
0000f0 20 02 b0 bc 95 a3 1f be 90 33 4c be fc c4 2d be
       -0.021485388 -0.15589745 -0.19941545 -0.16969675
000100 87 a2 e0 3d e5 94 02 3e d8 c2 36 bd 18 10 74 3d
       0.109685 0.12752111 -0.04461941 0.05958566
000110 d6 2c 7f bd 2d 11 40 3c f9 4a d8 3d 05 58 61 bd
       -0.06229862 0.011722845 0.10561175 -0.055015583
000120 8e 96 88 3c 3f 9a c6 3d 3a 04 f8 bd 36 76 2d 3d
       0.016673353 0.09697389 -0.12110181 0.042349063
000130 89 11 12 be f1 51 81 bd e8 fa 71 bd 2d 3d 50 be
       -0.14264502 -0.06314457 -0.059077173 -0.20335837
000140 2a e1 f6 bd 85 08 08 be d2 82 0f 3e 00 1f 0e bd
       -0.120546654 -0.132845 0.14014748 -0.034697533
000150 0a 9b 41 3a 8d 6c ed 3d 8f e2 c4 3d 14 28 0c be
       0.00073854683 0.1159297 0.09613525 -0.13687164
000160 89 da 1f 3e f9 52 fd bd 97 87 02 3e 9a 86 24 be
       0.15610708 -0.123693414 0.12747036 -0.16066971
000170 0b 69 07 be 9d 74 06 3e d1 db 0e 3c 86 7d be bd
       -0.13223664 0.13130422 0.0087194005 -0.093012854
000180 3d b3 ed 3d 23 d5 e1 ba 1e 2c 93 3c 74 5a 2d bd
       0.116064526 -0.0017229657 0.017965373 -0.04232259
000190 b7 f2 c6 ba ba 25 89 3d 72 e9 7e bc 92 cf 2c be
       -0.0015178536 0.06696649 -0.015558587 -0.16876057
0001a0 42 02 cc bd b2 73 ad 3d 24 5d ad bd 9a 21 9b 3d
       -0.09961368 0.08469333 -0.08465031 0.07574768
0001b0 a6 9e 24 3d f9 c6 33 be 32 2b e7 3d b4 cb d5 3c
       0.04019036 -0.17556371 0.11287536 0.02609811
0001c0 64 fb 03 3e 35 e3 80 3d ea a8 54 3d 6d 5e d6 bb
       0.12888867 0.06293336 0.0519189 -0.006542018
0001d0 40 ac d8 3d 6c 54 cc 3b e9 28 c7 bd d0 ee df 3b
       0.10579729 0.00623565 -0.097246 0.0068338886
0001e0 9a 92 c2 bd 7d ef d7 3d d7 2d eb 3d 1a 66 2a 3c
       -0.09500618 0.10543726 0.11483353 0.0104003195
0001f0 8b d1 d9 3d 01 26 b6 3d 63 99 15 be f5 fe 9e bd
       0.1063567 0.088939674 -0.14609294 -0.07763473

bias_hh_l0 f4 [128]
000000 b6 f2 fb bd 0c 98 89 3c a4 0b 20 be a8 38 90 3d
       -0.12302153 0.016796134 -0.1562944 0.07042056
000010 de 7c 8d bc a2 d6 d5 bd fe 34 1b be 6b 48 2d bc
       -0.017271455 -0.104413286 -0.15156934 -0.010576348
000020 82 14 dd 3d 7e 1c 47 3e 3e 39 d1 bd 32 d2 94 3c
       0.10794927 0.19444463 -0.10215996 0.018166635
000030 f3 de 2d be 5e c4 10 3e f6 41 ed 3d 7b cd 6c 3b
       -0.1697958 0.14137408 0.11584847 0.0036133218
000040 65 83 a4 bd 18 93 14 3e 20 8c 0d be 05 3f 9f 3d
       -0.08032874 0.14509237 -0.13822985 0.07775692
000050 0b 62 26 3e ef c5 51 3e 5f 76 94 bc c9 89 98 3c
       0.16248338 0.20485662 -0.01812285 0.018620389
000060 b3 b3 d0 3c 2e 3d 5f 3d 29 d2 0c 3d c1 ac 53 bc
       0.025476312 0.054501705 0.03438011 -0.012919606
000070 45 2c d6 bd c1 77 fa bd 65 5b 06 be 57 5b 4c bc
       -0.104576625 -0.122298725 -0.13120802 -0.012472949
000080 80 2a de 3d 19 63 dd 3c 8e ea a8 3d 96 6c 87 bd
       0.1084795 0.027024793 0.08247863 -0.06612508
000090 f9 4f 19 3e 2f 13 a4 3d 9c 18 da bb a2 b4 33 be
       0.14971913 0.080114715 -0.0066557657 -0.17549375
0000a0 61 13 70 bd c8 8c 43 3d 25 73 20 bd 2a 0b b3 bc
       -0.05861223 0.04774168 -0.03917231 -0.02185591
0000b0 be e7 33 bd a4 44 c7 bb b5 bb 96 3d 9b 43 8e bd
       -0.04392218 -0.0060811806 0.07360021 -0.069464885
0000c0 fd 1c a7 bc 5f cf 43 3d 27 07 58 bd 4e e3 d3 bd
       -0.020399565 0.047805186 -0.052741196 -0.10346089
0000d0 91 04 48 bc 2d 5e 3a bd bd a9 f6 bd 54 36 8b 3d
       -0.01220812 -0.04549997 -0.12044094 0.06797472
0000e0 d7 33 fb bd ac 1b 27 be ad cd 03 be e2 5f b3 3d
       -0.12265747 -0.1631915 -0.12871428 0.087585226
0000f0 0a 99 4b bd 67 c8 9f 3d 9d e4 89 bd e4 da 06 3e
       -0.049706496 0.078018956 -0.06733058 0.13169438
000100 6a bd 31 be 58 a4 10 be 82 78 00 3e 34 96 81 3b
       -0.17357412 -0.14125192 0.1254597 0.003954673
000110 e8 06 47 3e 76 67 34 3d 4c ed a4 bd 5a 1e 05 bc
       0.19436228 0.04404398 -0.08053073 -0.008124912
000120 cd b8 21 3e c4 e8 5b 3b 57 91 dc 3b c1 4b 74 3d
       0.15793152 0.0033555487 0.006731193 0.059642557
000130 80 ed 1b 3d 2a 42 58 3b 9a 10 0c be 85 e1 69 bd
       0.038068295 0.0032998421 -0.13678208 -0.057099838
000140 8e 24 e2 bc 4f 59 e0 3d 50 56 86 3d 6e 26 25 be
       -0.027605321 0.10954534 0.065594316 -0.16127941
000150 6e fc 1f be 86 3b 63 3d a5 ff 16 be e9 bf e3 3d
       -0.15623638 0.055476688 -0.14745958 0.11120588
000160 0a bc a8 bd 71 e3 93 bc 61 91 05 3e e1 b0 3b bd
       -0.082389906 -0.018052788 0.13043739 -0.04582298
000170 91 5c f7 bd 53 e0 16 be 45 ad 81 bc df f1 33 3c
       -0.120782025 -0.1473401 -0.015829692 0.0109829595
000180 df 54 86 3a 02 c9 07 3e 2f 73 0d be 22 6e 3d 3e
       0.0010248682 0.13260272 -0.1381347 0.18499044
000190 66 da c6 3d d4 d7 f2 bc d9 69 3b 3e a7 3c 11 3e
       0.09709625 -0.02964393 0.18302096 0.14183293
0001a0 3a 4d 1d be d9 39 db 3d 61 60 20 3e 96 4d 1c 3e
       -0.15361491 0.10704393 0.15661766 0.15263972
0001b0 e1 6e 56 3d 57 54 90 3c 5c 0f 06 3d b9 1b 0b 3d
       0.052351836 0.017618341 0.03272949 0.033961985
0001c0 14 eb 16 3e f7 42 97 bd 81 c8 20 3e fa 26 05 be
       0.14738113 -0.073858194 0.15701486 -0.1300315
0001d0 d0 fe 8c 3d ee 10 4a 3e a8 5a 5f 3d fc c4 0e 3e
       0.06884539 0.1973302 0.054529816 0.13942331
0001e0 e1 19 be 3d 3f 10 a6 3d fb bf 2a 3e c7 04 88 3c
       0.0928228 0.081085674 0.16674797 0.01660384
0001f0 be 47 bc bc 75 cc aa 3d 60 dd f3 bd b1 1d fc 3d
       -0.022983428 0.08339778 -0.11907458 0.12310351

weight_ih_l0 f4 [128, 2]
000000 59 c0 8e 3c d9 f4 99 3e 07 a1 f8 bc 97 2e ca 3c
       0.017425703 0.30069616 -0.030350221 0.024680419
000010 71 40 fc 3d 8e bf 60 be 11 d8 16 3c 6d 57 6a bd
       0.12316979 -0.21948072 0.009206788 -0.057212282
000020 25 b2 21 bd 5a ec 67 be 62 4d d4 bd 40 92 38 3e
       -0.039476532 -0.22648755 -0.10366322 0.1802454
000030 11 11 4a 3c 66 47 9b bd d9 d3 09 3d fb 3e 1a be
       0.0123331705 -0.075819775 0.0336493 -0.15063088
000040 34 2d c3 bb db 47 c8 be 51 2c 8c 3d 75 f7 dc 3e
       -0.0059563164 -0.3911732 0.0684439 0.43157545
000050 59 5a ae 3c e2 22 e7 3c 6b 6c 79 3e a0 6f d0 bb
       0.021283315 0.028214876 0.24357764 -0.006360963
000060 9c 48 52 3e 78 00 53 3e df 13 85 be 35 fd d2 be
       0.20535511 0.20605648 -0.25991723 -0.41208807
000070 fd 14 c1 3d 02 b3 ee 3d a1 de 20 3e 5b bc 9b 3e
       0.09427831 0.11655237 0.15709926 0.3041714
000080 72 19 21 bd f4 b3 46 3c c7 81 f4 3d b6 f8 65 3d
       -0.039330907 0.012127865 0.119388156 0.056145392
000090 af 5e 86 be 6a fd 99 bd d5 3a f1 3e 82 1e 1a 3f
       -0.26244113 -0.07519038 0.47115198 0.602028
0000a0 99 7c a7 bd fc b6 f6 be f0 04 03 be 76 d2 cf bd
       -0.08178062 -0.4818648 -0.12794852 -0.10147564
0000b0 52 46 87 be 45 f5 2b be 35 27 1f be c3 20 40 3d
       -0.26420838 -0.16792782 -0.155423 0.046906244
0000c0 0f 9f 68 3d af 15 8d bd 60 1c c8 be 63 c7 c5 be
       0.056792315 -0.068889014 -0.39084148 -0.38628682
0000d0 36 9e 75 3e 57 7c 6b 3e ff a9 3e be b2 34 d5 3c
       0.23986134 0.2299665 -0.18619536 0.026026104
0000e0 16 bc 1d bf 68 87 90 be 2b b8 01 3d 96 f7 6b bd
       -0.6161512 -0.28228307 0.031669777 -0.057609163
0000f0 4a 52 c2 3e df 1a a7 bd 7f cc 84 be d3 35 1f be
       0.37953407 -0.08159422 -0.25937268 -0.15547876
000100 4f fe f6 bc 9e 7b 63 bd 68 3f e0 3e 39 51 71 3e
       -0.03015056 -0.055537812 0.43798375 0.2356614
000110 e5 b1 22 3e 32 c1 59 3d 2e 11 6f be 7d aa 16 be
       0.15888174 0.05316276 -0.23346397 -0.14713474
000120 a7 38 82 3e f0 73 85 be d4 9d 1a bc db 56 86 bd
       0.25433847 -0.26065016 -0.009437043 -0.06559535
000130 be b0 15 be 8f 0a 34 3c dd 2d 3d 3e b6 ea da 3c
       -0.14618203 0.0109888455 0.18474527 0.026723247
000140 7d d3 19 3e 3a 36 e2 bd 24 2e eb 3e 63 6b b6 3e
       0.15022083 -0.11045499 0.4593364 0.35628805
000150 e6 0b 88 3d 16 8c 40 be 25 1c 8e be e8 a1 0b be
       0.066428944 -0.18803439 -0.27755848 -0.13635981
000160 65 4a 58 3e a0 43 ef 3e b1 f8 91 3d f8 3c b4 be
       0.2112213 0.4673128 0.07127512 -0.35202765
000170 65 d0 1b 3f b2 cd a2 3e 76 17 bf 3e 87 1f 8e 3d
       0.6086486 0.31797558 0.37322587 0.06939607
000180 ad bc e9 be b7 f7 97 be f3 df 80 3c a0 84 eb bd
       -0.4565176 -0.2968118 0.015731787 -0.114999056
000190 e5 17 0c bd 97 f9 e4 3d cf e5 d9 be 31 3f 84 be
       -0.034202475 0.11180418 -0.42558143 -0.2582946
0001a0 8b a5 41 3f cd 59 11 3e e1 be c4 3e 14 a6 c4 bc
       0.75643224 0.14194413 0.3842688 -0.024004973
0001b0 80 9b 0d 3e 18 8a f2 bd 33 03 ff bd 01 d4 1a be
       0.1382885 -0.118427455 -0.12451782 -0.15119936
0001c0 20 30 ad be 62 bc 0f be c0 a5 ea 3d 1a 9f 11 be
       -0.3382578 -0.14036706 0.114573956 -0.14220849
0001d0 a1 d3 48 3d f5 04 ad bc 6e 3d f4 be a7 ff af 3d
       0.04902995 -0.021120528 -0.47703117 0.08593684
0001e0 30 6b a7 3d 4e cd 8d be 5b e4 87 3d f5 78 1f 3d
       0.08174741 -0.27695698 0.06635352 0.038933713
0001f0 00 4b 15 bd e5 84 b8 be 8a ee 60 be 0a 26 9b be
       -0.03644848 -0.3603889 -0.21965995 -0.3030246
000200 a6 27 a8 3d eb c4 2c 3e ac 0f 22 be 5d 67 9c be
       0.08210687 0.16871993 -0.15826291 -0.3054761
000210 5c 9c ab be ee a6 de 3d ff a7 aa be 7f 07 00 bc
       -0.3351773 0.10871683 -0.33331296 -0.007814287
000220 28 11 eb bd 0f 87 40 be 82 59 17 3e 3c d5 ac be
       -0.11477882 -0.18801521 0.14780238 -0.33756435
000230 2d 2c 96 bd f2 b1 57 bb 03 d9 2b 3e 1f da 46 be
       -0.073326446 -0.003291246 0.16782002 -0.19419144
000240 86 43 47 3e c7 8e 86 3d 56 74 1b bd 9d 19 be 3e
       0.19459352 0.06570201 -0.037952743 0.37128916
000250 0f 50 90 3e d4 1c 85 3e 8f 20 54 be 06 bf 06 be
       0.2818608 0.25998557 -0.20715545 -0.13158807
000260 cf 10 4b be 81 75 01 be 05 85 97 3e b6 b9 84 3e
       -0.1983063 -0.1264248 0.29593673 0.25922936
000270 eb 33 9d be 36 15 b2 be 66 3c a0 be d4 ec 86 3e
       -0.30703673 -0.34781808 -0.3129608 0.2635256
000280 4e 05 0f be c2 66 4a 3e c8 25 1c be 64 cf 80 3e
       -0.13966867 0.19765761 -0.15248787 0.25158226
000290 fa 9a 0e be c1 99 7a 3e b2 c2 35 3e 2a 27 ec 3d
       -0.13926306 0.24472715 0.17750052 0.115309075
0002a0 ce 69 b4 bd 0a 2b 95 3c 84 d7 84 be 06 e9 2f 3e
       -0.08809243 0.018209 -0.25945675 0.17178735
0002b0 cf e3 e7 ba e3 e1 00 be c3 82 1a 3e f9 e9 58 3d
       -0.0017691794 -0.12586169 0.15088944 0.05295751
0002c0 e2 96 1b 3e e2 24 8d 3e 77 a1 1d 3f f6 fa 1a 3e
       0.15194276 0.27567202 0.615745 0.15134797
0002d0 99 9b 92 3d bd 11 84 3e c5 fd 73 3e c4 ed b8 be
       0.07158584 0.25794783 0.23827274 -0.361189
0002e0 38 ac c7 3d 9f c4 d2 3b 25 c6 33 3e 71 76 8c 3e
       0.09749645 0.0064321305 0.17556055 0.27434114
0002f0 f5 4b aa bd 6b da b2 bd c7 d9 a0 be cc 35 80 3d
       -0.08315269 -0.08733066 -0.3141615 0.06260261
000300 ff c0 62 be 28 1a bd 3d 56 36 65 3e 11 c0 03 3e
       -0.22143935 0.092335045 0.22384009 0.12866236
000310 c4 c4 56 3e 5e 39 3d be 81 d0 03 3d 30 47 55 be
       0.20973498 -0.18478915 0.032181267 -0.20827937
000320 4f c6 9a 3c d2 85 ba be 0c d3 80 3c eb b6 2b bc
       0.018893389 -0.36430222 0.015725635 -0.010480623
000330 4a 1c 7e bd 5a 51 a0 be 16 7f fc bc 7b b3 2c be
       -0.062038697 -0.31312066 -0.030822318 -0.16865341
000340 49 74 a9 3d 0e bd f3 bc 80 72 2d 3d 41 1c 94 3d
       0.08274133 -0.029753234 0.042345524 0.072319515
000350 4c f3 46 3e e5 bf fb bd aa 27 18 3e 88 09 5d be
       0.19428748 -0.1229246 0.1485888 -0.21585667
000360 4e e2 dd 3e 95 58 92 3e 6e cb 2a bc a7 6d b8 be
       0.4333672 0.28583208 -0.010424478 -0.36021158
000370 8a c2 c6 3e 8d 6d 41 3e 7d 2c de bd 78 16 bb 3e
       0.38820297 0.18889447 -0.10848329 0.3654058
000380 36 a4 45 be 09 77 18 be 9e 5f 02 3c 6f d9 6f be
       -0.19300923 -0.14889158 0.007957367 -0.23422788
000390 7a cd 1a be d3 2d 72 be 26 ec 40 3e 31 43 19 3e
       -0.15117446 -0.23650293 0.18840083 0.14967038
0003a0 c7 6f 5b 3e 58 7b d1 3a 84 f1 03 3b 29 08 3a bd
       0.21429358 0.0015982194 0.0020132968 -0.04541794
0003b0 67 50 90 3e b8 c2 f3 bd 42 06 1c be 14 b9 b9 bd
       0.28186342 -0.11902374 -0.15236762 -0.09068504
0003c0 1e e6 0d bc 3a 25 4d bd 22 12 f2 bd 69 b9 d6 be
       -0.008660821 -0.05008433 -0.11819865 -0.41938332
0003d0 c3 82 99 3e 53 b1 07 be 43 48 bf be 50 d7 56 3e
       0.29982576 -0.13251238 -0.3735982 0.20980573
0003e0 12 d4 a3 be 20 61 8b be ee bf 3a bd c2 11 3d be
       -0.31997734 -0.27222538 -0.045593195 -0.18463805
0003f0 d0 03 0e 3e 04 70 a4 bd 5d 8b 5f bd f9 30 77 be
       0.13868642 -0.08029178 -0.054576267 -0.24139775

weight_hh_l0 f4 [128, 32]
000000 a2 17 11 be 29 e6 69 3d 60 65 59 be 6a d8 d2 3c
       -0.14169171 0.057104263 -0.21230078 0.02573796
000010 e2 36 1d 3d d6 cb 3c 3e c8 f4 a0 bd c0 90 41 bd
       0.03838242 0.18437132 -0.07859188 -0.047257185
000020 c5 58 fc bd 04 28 73 3d 2a 10 73 3e a4 b3 a4 3d
       -0.12321619 0.059364334 0.23736635 0.08042076
000030 34 3d 9a 3d ee 0c 08 3e 24 fb 6b bd d8 3e 53 3d
       0.07531205 0.13286182 -0.057612553 0.051573604
000040 cb 79 95 3d c4 d4 e8 bd 71 f7 90 bc 6f b6 b5 3d
       0.07298621 -0.11368707 -0.017696114 0.08872687
000050 e3 3b 94 3d e5 c0 22 be 16 70 58 be f6 eb e7 3d
       0.07237985 -0.15893896 -0.21136507 0.11324303
000060 c3 ab 23 be 2a db 84 3e 43 3c 3a be 4b 4d 14 3e
       -0.1598349 0.2594846 -0.1818705 0.1448261
000070 cc d0 d8 3c 0e b6 61 be 33 06 17 bc 58 e1 86 3d
       0.02646675 -0.22042105 -0.009217787 0.0658595
000080 a4 58 c7 bd 32 2a c5 3b 2e a8 7e 3e f8 23 02 be
       -0.09733704 0.006016993 0.24868843 -0.12709033
000090 2a a5 9a 3d 3a 4b 3b 3e b5 2c 01 be 9d f8 3b bd
       0.07551034 0.18290415 -0.1261471 -0.045891393
0000a0 28 ff e9 bd f0 4a b4 3d 80 96 30 bd c4 d0 6f be
       -0.1142562 0.08803356 -0.043112278 -0.23419482
0000b0 f8 88 37 3e 48 ca 6d 3b b2 57 60 3d e3 7c 11 3c
       0.17923343 0.00362839 0.054771133 0.008879873
0000c0 ef d0 fe 3c 9b 35 75 bc 45 79 00 bc 6a a4 b7 3d
       0.031105487 -0.014966394 -0.007841413 0.08966906
0000d0 7e e9 89 3e 3a 69 8e be fe c9 69 3d 32 72 73 3e
       0.26935953 -0.27814656 0.0570774 0.23774031
0000e0 b5 3b f1 3c 68 b2 1c bd c2 89 81 3d 48 8a dc bd
       0.029447416 -0.03825608 0.06325103 -0.107685626
0000f0 c3 93 48 3d 3d 72 a7 3d 53 0f 7a 3d 29 f7 e0 bd
       0.04896904 0.08176086 0.06104977 -0.10984642
000100 30 48 16 be 20 73 dc 3d b3 c9 37 3d b0 b1 07 be
       -0.14675975 0.10764146 0.04487009 -0.13251376
000110 95 75 8a bd 47 be 55 3d 62 c0 cf bd 75 c1 b5 3c
       -0.06760708 0.052183416 -0.10144116 0.022186974
000120 55 55 21 be 21 a6 3e be d4 6d d9 bc d7 cc 05 be
       -0.15755208 -0.1861806 -0.026541628 -0.13066421
000130 36 7c f9 38 3b f5 67 3e f9 4f a4 3d 2b 46 68 be
       0.00011896381 0.22652142 0.08023066 -0.22683017
000140 7d 17 41 bc f2 c9 d8 bc 01 95 78 be b5 fa 62 be
       -0.011785385 -0.026463483 -0.2427559 -0.2216595
000150 13 94 e8 bc db 91 11 be 29 e1 3a be 31 2f 82 3e
       -0.02839092 -0.14215796 -0.18249954 0.2542663
000160 0f 69 12 be d3 6c 06 3d c2 fc b2 bd d4 77 9b bd
       -0.14297889 0.032818627 -0.08739616 -0.07591215
000170 db 28 0c bd aa be 83 3d 78 36 0c 3e 8b c3 73 be
       -0.03421865 0.06432851 0.13692653 -0.23805062
000180 67 43 d0 3d 2d 6f 19 3d a8 a3 40 3d 58 a4 dc bd
       0.10169106 0.03745954 0.047031075 -0.107735336
000190 36 22 39 3d 0c 0a 49 3e 1d bc 3d 3e eb 34 18 3e
       0.04519864 0.19632739 0.18528791 0.14863937
0001a0 4a ae 11 3e 06 0f 41 3e 82 24 c3 3d 8e 9c 99 bd
       0.14226642 0.18853387 0.09528448 -0.075005636
0001b0 c5 fa 3f bd aa 58 0c bc 4c 65 44 bd f9 ac b5 be
       -0.04687001 -0.008566061 -0.047948167 -0.3548353
0001c0 45 37 75 be 1d 02 ff bd 59 6b 10 be 8c 05 3b be
       -0.23946865 -0.12451575 -0.1410345 -0.18263835
0001d0 84 a7 be bb 2f 70 04 3d 03 df 85 bd 07 89 01 3d
       -0.0058183093 0.03233355 -0.06536677 0.03162482
0001e0 2f 9a 5c bd 4d 12 6a 3e 51 04 ad bd 52 43 64 bd
       -0.05385798 0.22858544 -0.08448089 -0.055728264
0001f0 8b d9 83 3e 0e 53 cb bc 25 45 69 3e 27 af 88 be
       0.2575191 -0.024819877 0.22780283 -0.2669613
000200 27 ed 94 bd 39 23 40 3e de 38 2e bd 35 f4 21 3d
       -0.07271796 0.18763436 -0.0425347 0.039539535
000210 9b 03 10 3e 94 bf 99 3e fb 11 fc 3d 2a 77 05 bd
       0.14063875 0.30028975 0.12308117 -0.032584347
000220 1a 73 2b bc dd e6 ab 3d c1 15 8d bd 12 17 4d bd
       -0.010464454 0.08393643 -0.06888915 -0.05007083
000230 72 e2 aa 3c c4 e0 e6 3d 01 ec 16 3e 76 dc 10 be
       0.02085993 0.112733394 0.14738466 -0.14146599
000240 4f 65 65 be af a2 ad bc 9d 7b 5a bd 69 0a 9b bd
       -0.22401927 -0.021195738 -0.053340543 -0.07570345
000250 a4 11 38 3e b6 7b 8f 3d 27 8f 8d 3d 44 60 4d bd
       0.1797548 0.07006018 0.0691207 -0.050140634
000260 7b 02 47 be f3 f4 5f 3d 69 cf 31 be 08 07 06 3d
       -0.1943454 0.05467696 -0.17364277 0.03272155
000270 e9 ea e3 3c 5c 41 ec 3d 82 2f 20 3e 1e 88 dc bd
       0.027821975 0.11535904 0.15643123 -0.1076815
000280 93 fb e0 bd 07 c3 ab 3c a9 92 07 be 50 2c 60 be
       -0.10985484 0.02096702 -0.1323954 -0.21891904
000290 69 b2 58 3b 5c c4 92 3e 92 c9 27 be 1b 88 85 3e
       0.0033065325 0.28665435 -0.16385487 0.26080403
0002a0 ab 36 d7 bc 12 0c 5d be 55 1b 94 3c 23 70 95 3d
       -0.026271185 -0.21586636 0.01807944 0.07296779
0002b0 16 2c 37 3d 4b 39 84 bd 1a c5 04 3e b3 98 35 be
       0.044719778 -0.0645624 0.12965813 -0.17734031
0002c0 4c e3 22 be 74 22 9a 3d 83 d8 21 be d7 9c 51 3d
       -0.1590702 0.07526103 -0.15805249 0.051174965
0002d0 a6 b4 26 bd 6b cc 13 be 55 a5 90 be 02 8b 2a 3e
       -0.040699624 -0.14433448 -0.28251138 0.1665459
0002e0 f0 d4 9b 3d eb b0 67 3e 1b f6 0d 3e 00 cb f6 bd
       0.07608974 0.22626083 0.13863413 -0.12050438
0002f0 08 21 9e 3d 57 fb 65 be 0a 5c 9e 3e bf 6c 2b be
       0.07721144 -0.2245916 0.30929595 -0.16740702
000300 9c 58 07 3e 6d fa 8d 3d 62 a9 3a bd 05 1b bb bd
       0.13217396 0.069325306 -0.045571692 -0.09136013
000310 40 ad 79 3e 20 3c 8d bd 2b db 75 be 99 5c 54 3e
       0.24382496 -0.068962336 -0.24009387 0.20738448
000320 69 f1 4c be 24 dd 6e 3e aa 19 a0 3d 7b 48 72 3d
       -0.20013966 0.23326546 0.07817395 0.059151154
000330 09 53 88 3d 1a 5c 5c 3e de d6 dc bd c0 34 9b be
       0.06656463 0.21519509 -0.1078317 -0.30313683
000340 a4 1f c8 bd 8a 8d 32 be b2 c0 b7 3d bc e5 f6 bd
       -0.0977166 -0.17436805 0.089723006 -0.12055537
000350 c1 e9 53 3e 30 6a 8d 3d f5 ee 3d be 22 e7 71 3e
       0.20694639 0.06905019 -0.18548186 0.23623326
000360 e6 19 54 bd c0 2f 11 3e 11 2e 21 be d7 95 ac 3d
       -0.05178251 0.14178371 -0.15740229 0.08427017
000370 b0 95 22 3d db ad 48 be 44 77 51 bd c3 c2 f3 bd
       0.039693534 -0.1959757 -0.05113913 -0.11902382
000380 a2 3c ac 3c 90 15 8b 3e 22 74 08 bb 0a f5 78 3c
       0.021025006 0.27164888 -0.0020821174 0.015195141
000390 14 ea 13 3e 37 c3 fb bc 31 2a 28 3d 20 8b 09 3e
       0.14444762 -0.030732734 0.04105586 0.13431978
0003a0 f9 66 e4 bd 32 6e 7c be 16 90 c5 bd c1 63 46 3e
       -0.11152453 -0.24651411 -0.09646623 0.1937399
0003b0 ab 6e 2b 3e af d5 15 be ab 76 26 3e 5c d6 58 be
       0.16741435 -0.14632295 0.16256206 -0.21175522
0003c0 15 49 3e 3d bc 7a d5 bd 2a 3e 93 be ed 71 b8 3c
       0.046456415 -0.104238 -0.28758365 0.022515262
0003d0 87 9f 87 3d 14 8f cd bd b4 63 4b be 6b a9 92 bd
       0.06622224 -0.100370556 -0.19862252 -0.0716122
0003e0 90 76 00 bc 66 d0 a5 bd f2 b2 ab 3c 8c f5 09 3e
       -0.0078407675 -0.080963895 0.020959351 0.13472575
0003f0 6d 90 86 bd eb f5 50 3d 0d 17 31 3e 1f c4 47 bd
       -0.06570516 0.051015776 0.1729395 -0.04877102

bias_ih_l0 f4 [128]
000000 33 76 0a 3c 2a 8c 57 bd b6 dc 0d 3e 9f f3 12 3e
       0.008451032 -0.052623905 0.13853726 0.14350747
000010 4a b2 81 3c 7d dd 2a 3e 9e 6c 56 3e b2 2e 57 bd
       0.015832085 0.16686054 0.20939872 -0.052534766
000020 94 0f 39 3d 67 ec 20 3e b8 a4 a1 bd 1f 27 0a be
       0.045180872 0.1571518 -0.07892746 -0.13491486
000030 c8 1d ef 3d 6e b8 aa 3e 08 03 fd bd ff 71 cc 3e
       0.11675602 0.33343834 -0.12354094 0.39930722
000040 fe 17 81 3d f3 56 0d 3e 66 c7 6b 3e ff 25 80 3d
       0.06303404 0.138027 0.23025283 0.06257247
000050 e9 56 5f 3e f7 98 cb bc 8f 47 ca bd 9b c4 55 3d
       0.21810497 -0.024853213 -0.0987693 0.05218945
000060 8b 08 a0 bc 30 8e 04 3d bb 51 af 3d 9e c5 9c 3d
       -0.019535324 0.032362163 0.08560511 0.0765488
000070 26 de 13 3e d2 d8 2a 3e fa d1 4e 3e 30 08 61 3d
       0.14440212 0.16684273 0.20197287 0.05493945
000080 7f 46 83 3e 16 8b 35 bd 76 d8 5c bd 4e 57 8e bd
       0.25639722 -0.044322096 -0.05391737 -0.06950246
000090 47 ba ff bc ea 7f e4 3d 20 de 82 3c e5 81 66 3e
       -0.031216754 0.1115721 0.015975058 0.22510488
0000a0 89 44 4c 3e 83 3e b4 3e 46 00 23 3e 1a 82 32 3e
       0.19948019 0.35203943 0.15918073 0.17432442
0000b0 34 df 4a bc e1 75 c0 3e 00 5e a4 3d 50 8a 8f 3e
       -0.012382317 0.37589934 0.080257416 0.28035212
0000c0 db 47 bc bd c0 8a 5e 3e c3 62 3b 3e 96 19 84 3e
       -0.09193393 0.21732616 0.18299393 0.2580077
0000d0 28 fe 21 3e 18 9d d3 3d ea 2f 5d bd 9f 57 d1 3d
       0.15819609 0.10332698 -0.054000773 0.102217905
0000e0 96 90 6c 3d 7d 9b 21 3e c3 56 b3 3d 21 20 94 3e
       0.057755075 0.1578197 0.08756783 0.28930762
0000f0 f3 93 c9 bd c6 fe a6 3d da 4c c3 3c 1b dd 46 3d
       -0.09842672 0.08154063 0.023840357 0.048550706
000100 ae f0 e4 bd 08 59 5a 3d de e0 86 3d bb a2 59 be
       -0.111787185 0.053307563 0.06585859 -0.21253483
000110 c6 df c4 3c cd 08 b9 3d 43 2e 24 3e 8b 1b ff 3d
       0.024032485 0.09034882 0.16033272 0.12456425
000120 e0 3d e4 3d 87 e9 9d bd ba 35 2c 3e dc 72 26 3d
       0.11144614 -0.077105574 0.1681737 0.040636882
000130 93 6d 4d 3d 47 03 e1 3c e9 3b f8 3d 88 0a a6 bd
       0.050153326 0.027467383 0.12120802 -0.081074774
000140 ee d3 1a be 28 f7 d3 bd b7 eb 22 3e 74 53 aa bd
       -0.15119907 -0.10349876 0.1591023 -0.08316699
000150 3d 75 5d 3d 00 a3 26 be f0 6c aa bd 8c c3 39 3e
       0.054066885 -0.16273117 -0.083215594 0.18141001
000160 29 8c c1 bd da 7b 4f bd 22 50 f7 3d 9c ea 12 bd
       -0.094505616 -0.050655223 0.12075831 -0.035868272
000170 93 ba 47 3c ac d2 a5 bd 89 b9 0f bd 01 13 9e 3d
       0.012190479 -0.08096823 -0.03508905 0.077184685
000180 aa 3f 8c bc 87 4e 65 3e 46 3e 5d 3e d5 c5 2f 3e
       -0.017120201 0.22393237 0.21605787 0.1716531
000190 04 e7 ea 3d e3 e7 5a 3e 4a 3e 56 3e ad 84 86 3d
       0.11469844 0.2137752 0.20922199 0.06568275
0001a0 05 c9 cf 3c 90 db 83 3e 10 7b fe 3d 97 94 0a be
       0.025364408 0.2575345 0.12425816 -0.13533245
0001b0 10 16 97 bc 63 88 f6 3e 0d 69 97 3d d4 9d 9a 3e
       -0.018443137 0.4815093 0.07393084 0.30198538
0001c0 ce 54 ac 3d 5c b4 d7 bd 51 66 04 3e db 6d 23 3e
       0.08414613 -0.10532448 0.12929656 0.15959875
0001d0 32 04 43 3c c7 bb 10 3e e7 e7 62 3a 1b 78 03 3d
       0.011902856 0.14134131 0.0008655772 0.032096963
0001e0 75 5d 65 3e 74 b8 f7 3d b7 05 68 3e 43 04 88 bc
       0.22398932 0.120957285 0.2265843 -0.016603595
0001f0 25 c2 da bd bb 42 c9 3c 41 7a 18 3e f4 89 ea 3c
       -0.106815614 0.024567952 0.14890386 0.028630234

bias_hh_l0 f4 [128]
000000 bd 30 73 3e 38 d4 53 3e ae bf 8c 3d fa 44 d0 bc
       0.23749061 0.20686424 0.068724975 -0.025423516
000010 b6 01 e1 3d 35 53 82 3e d1 73 18 bd ee 25 53 3d
       0.109866545 0.25454107 -0.037219826 0.051549844
000020 66 a9 fd 3d 21 c9 6a 3e 1f 28 01 3e ff 38 97 3d
       0.12385826 0.22928287 0.12612961 0.07383918
000030 b3 39 f0 3d 7f 79 af 3e e3 8f d8 3d 7a 98 e6 3e
       0.11729755 0.34272382 0.10574319 0.45038205
000040 b4 65 44 3c b3 45 71 3d f2 5e 0f 3e b7 44 90 3c
       0.011987139 0.05890436 0.14001063 0.01761089
000050 97 86 64 3e f0 38 ad 3d 3e 4f 48 3e f5 62 ae bc
       0.22316967 0.084581256 0.19561478 -0.02128742
000060 d0 91 01 be 94 0f 50 bd 36 2c 4c 3d f0 c6 a0 bc
       -0.1265328 -0.050796106 0.04984685 -0.01962611
000070 98 54 2e 3e 07 a3 43 3e c1 80 7a 3d 49 d9 ab 3d
       0.17024457 0.19105159 0.061157946 0.08391053
000080 6a 3e fa 3d af ee 34 3e 07 60 8f 3d b3 f8 0e 3d
       0.12218936 0.17669176 0.07000738 0.034905147
000090 7c 6e aa bc b7 7b 62 bd df 67 db bd 2b d8 84 bd
       -0.020804636 -0.055293765 -0.10713171 -0.06486543
0000a0 32 9f 7e bd 1c 81 31 3e 43 6f 9f 3d 36 6e 8c 3d
       -0.06216354 0.17334408 0.07784893 0.068569586
0000b0 88 55 07 3e f0 29 c7 3e b2 07 9c bd 74 61 53 3e
       0.13216221 0.38899183 -0.07618655 0.20642644
0000c0 b0 70 c8 bc 1f 30 2f bd 11 9c 1b 3d 47 0c 91 3d
       -0.024467796 -0.0427705 0.037990633 0.0708242
0000d0 93 37 1a 3e f3 a9 d8 3c 4d 08 ba 3d 71 c7 39 bd
       0.15060262 0.026448226 0.090836145 -0.045356218
0000e0 47 53 a8 3d dd 96 4f 3e ea 96 df ba 97 14 90 3d
       0.08219009 0.20272394 -0.0017058526 0.07035177
0000f0 50 d8 cc 3d 6e c7 e2 bd 75 fc c3 bd 4e ea 66 3e
       0.10002196 -0.110731944 -0.09569637 0.22550318
000100 12 3e 8a 3d 51 eb 91 3d dd 9a fb bd 35 a9 37 be
       0.0675012 0.07124961 -0.12285397 -0.17935641
000110 19 bd c7 3d 96 26 e3 bd 79 ad 33 bd 5f bc fd 3d
       0.097528644 -0.11091344 -0.04386661 0.123894446
000120 f2 dd 18 be 1b 0c 15 3e ab a8 be 3d 56 84 17 3e
       -0.14928415 0.14555399 0.093095146 0.14796576
000130 c6 e3 38 3c e9 83 cd 3d 2b 56 c9 3d 24 83 d2 3c
       0.011284774 0.100349255 0.09830888 0.025697298
000140 bc 2c 7f bd 57 9a 8a 3d 91 28 fe bd a1 d1 73 3c
       -0.06229852 0.06767719 -0.12410081 0.014881522
000150 47 ea ce 3d 45 e5 f7 bd 8b 1e 46 3d 41 c9 ef 3d
       0.101032786 -0.121042766 0.04836897 0.11708308
000160 09 a5 f8 bc a6 01 30 3e fc e2 aa bd f1 a3 a1 bc
       -0.030352132 0.17188129 -0.08344075 -0.019731494
000170 65 cf 0b be 05 fe f4 bd 2b 7f 42 3e cc ac d1 bd
       -0.13653333 -0.11962513 0.18993823 -0.102380365
000180 98 32 7d 3e be b3 4c 3e f1 77 ec 3d 6d df c1 bd
       0.24726331 0.19990441 0.115463145 -0.09466443
000190 c1 8a 6f bd 19 6b 68 3e c5 88 09 3e e6 c0 0e 3e
       -0.058481935 0.22697105 0.1343108 0.13940772
0001a0 1b 29 8c 3d 7c 5f 8a 3e e2 4f 8e 3d 26 9f ea bd
       0.06843778 0.27025974 0.0694883 -0.114561364
0001b0 4f 0c 2d bc f1 6b ae 3e bd 06 0f 3e cb e1 ce 3e
       -0.010562017 0.34066728 0.13967414 0.4040664
0001c0 11 d0 6d 3e 31 43 40 bd ac c2 bd bd c5 5d 14 3e
       0.23223902 -0.04693908 -0.09265646 0.14488895
0001d0 a4 82 ac bb fa d7 47 bd f8 4c f9 3d bd 43 a3 3e
       -0.005264597 -0.048789956 0.12172884 0.31887618
0001e0 08 99 ca 3d a2 b6 7c 3e 0d 70 74 3c b4 d8 2c 3e
       0.0989247 0.24679044 0.014919293 0.1687954
0001f0 ee bf 2c 3e 35 ec bb 3d 2f fd 96 3d 2d 29 bf 3d
       0.1687009 0.09175912 0.0737251 0.093340255

weight_ih_l0_reverse f4 [128, 2]
000000 91 60 91 3d 5a a7 1b be 62 b2 39 3e f0 82 72 3e
       0.07098497 -0.15200558 0.18134454 0.23682761
000010 23 d1 90 bd e1 25 9a bd 6a 0b 2f 3e d1 42 fb bd
       -0.0707114 -0.07526756 0.17094198 -0.122686036
000020 4e 0d bc bb af 3c 27 3e 83 23 0f be 69 41 6d be
       -0.0057388907 0.16331743 -0.1397839 -0.23169483
000030 1c a4 bb bc 78 26 c1 3e f9 73 84 bd ef 87 8a be
       -0.022905402 0.37724662 -0.064674325 -0.27056834
000040 44 25 89 3c 4f c4 70 be 29 72 29 be 16 2d 0f 3e
       0.016741402 -0.23512386 -0.16547455 0.13982043
000050 fb a2 80 be fe 6d 1e 3e e8 c2 10 3e 62 22 eb bd
       -0.25124344 0.15471646 0.14136851 -0.114811674
000060 ac d2 76 be e1 3d c1 3e 30 2a 55 be 97 44 8e be
       -0.24103802 0.37742522 -0.20816875 -0.27786705
000070 76 65 fe 3d e8 25 5f 3d b6 21 c0 bd 82 5a b9 3d
       0.12421696 0.05447951 -0.0938143 0.09050466
000080 a2 f2 07 be 30 29 af 3d b8 6a e3 bd 18 9e a9 bd
       -0.13276151 0.08552778 -0.11104339 -0.08282107
000090 c1 ad b2 be db 15 dd 3c 48 74 78 3d 17 e0 19 3e
       -0.3489819 0.02698796 0.06065777 0.1502689
0000a0 d2 09 8c bd 30 fc 15 3f 56 5c 44 be c3 bb eb bc
       -0.068378106 0.5858793 -0.19175848 -0.028776055
0000b0 3b f3 37 be 5d 59 d5 3d 8b b7 47 3e 84 f6 de 3c
       -0.17963879 0.10417435 0.1950361 0.027217157
0000c0 27 9b b7 bd 0a 03 28 3c 4b 01 fa bd 5b 32 d0 bd
       -0.0896514 0.010254631 -0.12207278 -0.101658545
0000d0 86 70 53 3d ca 42 82 3c 97 75 f1 bd ed dc ee 3c
       0.051620983 0.015900988 -0.117900066 0.02915808
0000e0 b6 ea b4 bd 05 fb 3d 3e b0 45 c7 3c 52 25 36 bc
       -0.0883383 0.18552788 0.024325222 -0.011117296
0000f0 6d 2f 36 3e 5f 46 62 be da 35 bc bd 3a 33 10 be
       0.17791529 -0.22097157 -0.09189959 -0.14082041
000100 a2 0b 97 bd 05 da 8c 3d bb 1f 66 3e ca 53 8e 3d
       -0.07375266 0.068775214 0.22473042 0.06949575
000110 93 a0 98 bd d6 bd 3a bc 58 89 ed 3b 67 16 44 be
       -0.07452502 -0.0113977995 0.0072490387 -0.19149171
000120 4b 70 81 bc 5b a6 2e 3e 47 5e 10 3e 5f 09 43 bd
       -0.015800616 0.17055647 0.14098464 -0.04761636
000130 98 cb 81 be 8a 5b c5 3e b4 98 16 3c 10 fd a2 bd
       -0.25350642 0.385464 0.009191681 -0.07958424
000140 cf df c5 3d 92 6c bd bd e0 df 18 bd 98 c7 c8 bd
       0.09661829 -0.09249224 -0.03732288 -0.098036945
000150 75 08 7a 3d 62 0e ad bd 09 54 21 3e 38 a6 eb bd
       0.06104322 -0.08450009 0.15754713 -0.11506313
000160 30 21 95 be da a3 2c 3f 5a 7e 76 bd 0a e7 81 be
       -0.29126883 0.6743752 -0.060179092 -0.2537158
000170 cd d9 4f 3d 2f 93 bf bd c6 31 22 be ef 3c dd bc
       0.05074482 -0.09354245 -0.158393 -0.027006594
000180 db 2a 21 3d 3f ae f5 3c a3 b6 02 be 81 55 61 3b
       0.03934751 0.029990314 -0.12764983 0.003438324
000190 05 da c7 be 67 8c d4 3b a6 f3 82 bd fe 56 aa 3d
       -0.39033523 0.006486464 -0.063941285 0.08317374
0001a0 56 a0 2f 3d 09 7d 2a 3f e7 cf 5d bd d6 32 cb bd
       0.042877518 0.6659704 -0.05415335 -0.099218056
0001b0 a7 a9 8c 3d dd 9b 44 be 2b 7d 26 be 30 9a 18 bd
       0.06868296 -0.19200082 -0.16258685 -0.03725642
0001c0 19 71 3b 3d c6 d1 55 be ea 38 88 3d 78 b2 76 be
       0.045762155 -0.20880803 0.066514805 -0.24091518
0001d0 1a bf 10 3e a5 37 a6 bd 8c 53 7b 3d d6 88 83 be
       0.141354 -0.08116082 0.061358973 -0.25690335
0001e0 59 23 2c be 59 63 af 3e 61 8f 5d 3e 37 f7 fc bc
       -0.16810359 0.34255484 0.21636726 -0.0308796
0001f0 24 43 80 3e e3 6c 27 be b3 7d 72 3c 70 13 7b be
       0.25051224 -0.1635013 0.014800477 -0.24519134
000200 27 64 0c be 2c bf 3a be 3e c6 69 3e 5f 15 9b 3e
       -0.1371008 -0.18236989 0.2282953 0.30289742
000210 24 c8 02 3e 73 ea 21 be 6c 0b 28 be 1c 22 45 be
       0.1277166 -0.15812092 -0.16410607 -0.19251293
000220 d8 d2 e8 3c eb a4 a2 3e f6 be 0c bc a9 17 56 3e
       0.02842085 0.31766447 -0.0085904505 0.20907463
000230 0c 3c fa 3d 81 e8 80 be 05 c0 47 be e7 f7 78 3e
       0.12218484 -0.25177386 -0.19506843 0.24313317
000240 4e 71 76 be 61 d2 76 3b 6d c0 04 be dc a9 84 3e
       -0.2406666 0.0037662017 -0.1296403 0.25910842
000250 79 39 9a 3e 93 4e 46 be 3b 84 ae 3e 00 a6 18 be
       0.30121973 -0.19365911 0.3408526 -0.14907074
000260 ed ad 9d 3e 44 43 50 be 26 9f b2 3e 37 cb 1c bd
       0.30796757 -0.2033816 0.34887046 -0.03827974
000270 5b af 83 be 3e ff 03 bd 4d 24 14 bd fd 2b 6c 3e
       -0.25719723 -0.03222584 -0.03616743 0.23063655
000280 f3 12 fd 3c 4e c0 1b 3e f8 06 1d bd ec 2f b4 3e
       0.030892825 0.15210077 -0.038336724 0.3519281
000290 aa 44 58 3e a8 4d 7a bd 5e 1e ab be 8f 0d 48 be
       0.21119943 -0.061109215 -0.33421606 -0.19536422
0002a0 da e0 82 be 17 94 6b be 5e b1 9d 3e ae 0d 29 be
       -0.25562173 -0.2300571 0.30799383 -0.16509125
0002b0 2f a4 9c be 6a 74 46 3e e7 30 15 3e 5a 40 84 3e
       -0.30594012 0.19380346 0.14569436 0.25830346
0002c0 a8 8d da bd ab c3 7e 3e c2 4f 98 3e e6 a8 df 3b
       -0.1067155 0.24879329 0.2974835 0.006825554
0002d0 9f 5f 82 be bf 78 fe 3d c8 8d 49 3e e6 4d 98 be
       -0.25463578 0.12425374 0.19682992 -0.29746932
0002e0 a7 cc 02 bf f5 d2 86 3e d5 73 1d 3e 61 4e 00 3e
       -0.51093525 0.26332822 0.15376218 0.12529899
0002f0 73 41 7b 3e f3 5e 82 be d0 d7 57 3e 3a a7 65 3d
       0.24536686 -0.25463066 0.2107842 0.056067683
000300 9d b5 45 3e 4f 49 a2 bd 98 c3 5a 3e d2 b9 54 3e
       0.19307561 -0.07924139 0.21363676 0.2077401
000310 dc 99 35 3d 85 07 49 be 39 0d 6b bd f7 fe 4b be
       0.044336185 -0.19631775 -0.057385657 -0.1992148
000320 06 06 c9 bd 5a a9 8c 3e 83 01 28 be e9 d3 36 be
       -0.09815602 0.27472955 -0.16406827 -0.17854275
000330 2b 76 98 be 1d bf 94 3e b3 8d cc 3d 09 f4 7d be
       -0.29777655 0.29052058 0.099879645 -0.24800123
000340 41 8c 7e bd 4c 97 08 be 0e c2 40 bd cb 15 0b be
       -0.062145475 -0.13338965 -0.047060065 -0.13582532
000350 60 e3 9f 3d 0d 30 1f be 24 15 30 3e 37 25 44 be
       0.0780704 -0.15545674 0.17195565 -0.19154821
000360 48 cc 45 bc 52 ef c9 3e 48 ab 72 bd 0d 24 1e be
       -0.01207263 0.394404 -0.059245378 -0.1544344
000370 67 c6 57 3e a5 aa 55 bd ca c0 9c bd 3c a7 38 be
       0.21071778 -0.052164692 -0.07653959 -0.18032545
000380 d0 b9 1c 3e a4 09 ec 3d 17 f1 e1 bb 1b 8d 35 be
       0.15305257 0.11525276 -0.006895195 -0.17729609
000390 3d 02 d7 be 4f 40 89 3c da d4 63 be 3c 63 ea 3d
       -0.41993895 0.016754298 -0.22249165 0.11444709
0003a0 23 79 5a bd 80 fe b5 3e 9e 5d d0 bd c6 a8 6e 3d
       -0.05333818 0.3554573 -0.10174106 0.058266424
0003b0 33 3d e9 bd 3b 8f 37 be ed 9f 68 bd 13 ea 39 bd
       -0.11388626 -0.17925732 -0.056793142 -0.045389246
0003c0 73 fd dc 3d cd a0 82 3d 14 74 3c 3e 74 1c 54 be
       0.10790529 0.063783266 0.18403655 -0.20713979
0003d0 d8 e1 26 be 88 c9 97 3d fd 31 f3 3d 0f 90 ab 3d
       -0.1629709 0.07411486 0.11874769 0.08377086
0003e0 77 e2 37 3e 63 01 b4 bc 0a 20 63 3d 41 19 85 be
       0.17957483 -0.021973317 0.055450477 -0.2599583
0003f0 ee d6 9e 3d 12 d7 09 be d9 f1 0d be 39 b5 27 be
       0.07755838 -0.13460949 -0.13861789 -0.16377725
