sgan-dataset/logs/hotel/models_03_Mar_2019_00_24_04/model_registrar-1199.pt (torch_old, 575417 bytes, 45 tensors)

weight_ih_l0 f4 [128, 6]
000000 fd d0 b2 bd 4d 85 a9 bb 2e af 1a be 7b ac e4 3d
       -0.087312676 -0.0051733614 -0.15105888 0.111657105
000010 39 14 5f bd 2a 70 e0 3d c6 39 d2 be d1 21 bf be
       -0.054462645 0.109588936 -0.41059703 -0.37330487
000020 21 ea 7c be 8f 0e 3f be fc 0f 7d 3e 61 9d 0d be
       -0.24698688 -0.18657897 0.24713129 -0.13829567
000030 c9 ce 33 be 67 06 21 be e4 a0 f0 bd 6d 45 b1 bc
       -0.17559351 -0.15725099 -0.117494375 -0.02163955
000040 b6 25 72 be 04 e5 e1 3e 24 af 09 bd d4 fb 9e 3d
       -0.23647198 0.44120038 -0.033614293 0.07762876
000050 8b 37 47 3e 5d 0c 1a be fb f0 65 3d dd 2b 93 3d
       0.19454782 -0.15043779 0.05613802 0.07186101
000060 9d c5 88 bd 65 84 92 3d 56 68 3e be eb 17 40 3e
       -0.06678317 0.071541585 -0.18594489 0.18759124
000070 bf ba 09 3e 18 66 03 be 46 40 37 3e ff 75 c5 3d
       0.13450144 -0.12831914 0.17895612 0.096416466
000080 d9 d1 13 3e d5 e8 01 be 2a a1 0e 3e 00 6c 2b bd
       0.1443552 -0.12686475 0.13928667 -0.041851044
000090 72 7c 31 be 41 b2 9d bd 39 c7 3d be 96 e9 89 3d
       -0.17332628 -0.07700015 -0.18533029 0.06734006
0000a0 56 47 47 3c 58 4e ce bd f2 e7 c3 bb 46 b5 2c 3e
       0.012163004 -0.10073537 -0.005978578 0.16866025
0000b0 16 6d 2b be 49 ed bd 3d 7e 56 96 bd b2 91 67 3d
       -0.16740832 0.09273774 -0.07340716 0.05653543
0000c0 1f c2 26 3e f6 20 ee 3d f0 28 a4 3d 8f b8 b0 3d
       0.16284989 0.116273805 0.08015621 0.08628952
0000d0 f6 dd 25 3d 8c 3b 60 3d 96 28 08 be 1f 28 75 be
       0.04049488 0.05474429 -0.13296732 -0.23941086
0000e0 60 de e3 bd e1 d9 88 3e 00 b3 05 bc 64 d3 81 be
       -0.11126399 0.26728728 -0.008160353 -0.2535659
0000f0 d5 c3 b5 3c 73 1b 09 3e d5 15 9f be 49 f5 0c be
       0.022188107 0.13389377 -0.31071344 -0.13765444
000100 e1 37 54 bd 96 89 00 bb eb e4 1f bd f8 75 04 bc
       -0.051811103 -0.0019613258 -0.039036673 -0.008084767
000110 ba 48 0b be 45 f5 5f 3d fc 70 13 3e 36 f8 fa 3d
       -0.13601962 0.054677267 0.14398569 0.12254374
000120 f2 ff 2a be 01 a6 39 be 4b 17 cf 3d 48 87 37 bd
       -0.16699198 -0.18129732 0.10111865 -0.04480675
000130 f3 37 2c 3d ba 71 2a be c2 36 c8 bc 60 ad de 3d
       0.042045545 -0.16644946 -0.024440173 0.108729124
000140 dd 5d 1f 3e a1 06 fe bd 52 ff a3 bd 33 a5 63 bb
       0.1556315 -0.12403608 -0.08007683 -0.0034735918
000150 55 42 b6 bd 42 fb 6e bd 3e cf 42 be d8 41 80 3e
       -0.088993706 -0.058345087 -0.19024369 0.25050235
000160 b8 2b 90 bc 6d be 28 3d 78 4f d3 bd 44 15 2a 3e
       -0.017598972 0.04119723 -0.10317892 0.16609675
000170 3b b3 cc bd ca 22 be 3e 4d f7 f7 bc 9f 80 22 bd
       -0.09995123 0.37135917 -0.03026929 -0.039673444
000180 ad b9 16 3e a3 85 d1 3d 22 15 cc bc 27 f2 f3 3d
       0.14719267 0.10230567 -0.02491242 0.11911421
000190 a3 95 36 3e 1f d7 aa bd 81 05 8c bd e5 3d 4d be
       0.1783052 -0.08341812 -0.06836987 -0.20043142
0001a0 01 cb 6a 3d 8f 97 72 bd 9d cd 12 be e1 33 16 3e
       0.057322506 -0.05922657 -0.14336248 0.14668228
0001b0 f8 31 82 bc 07 0c 97 bd c2 ff 86 3e 8e ad 29 bd
       -0.015892968 -0.07375341 0.26367003 -0.04142528
0001c0 ed 37 36 3e 39 c2 2b 3e 89 cc 52 bc 2e c6 23 3d
       0.17794771 0.16773309 -0.012866148 0.03998392
0001d0 da 57 3e be 28 fe f5 3d 15 27 f8 3d 09 2e 6f 3e
       -0.185882 0.12011367 0.12116829 0.23357405
0001e0 28 f1 7e bd c7 39 66 3d 4c 32 8c 3e c4 a2 49 bd
       -0.062241703 0.056207445 0.27382123 -0.04922749
0001f0 f2 86 5c 3d 95 e4 08 be 15 4f 58 bd e4 aa 30 bd
       0.05383963 -0.13368447 -0.052809794 -0.043131724
000200 cc 7a 51 3d 80 06 2b 3e b6 5f a3 be 0c c1 85 3e
       0.0511425 0.16701698 -0.3190896 0.26123846
000210 26 8f 85 bc e0 3c 19 be 08 37 1e be 8d 92 68 bc
       -0.01630361 -0.14964628 -0.1545068 -0.014195097
000220 2b 45 15 3e 37 49 68 3d 74 5d 19 bd e3 eb d1 bd
       0.14577167 0.056710448 -0.03744264 -0.1025007
000230 cb 7a bc bd b5 b1 fe bc 10 70 56 3d c2 fb 20 3e
       -0.092031084 -0.031090597 0.052352965 0.15721038
000240 0b 1c 5f 3a 2f 15 d8 bd 4b 54 e9 bd a7 e5 c3 bd
       0.00085109536 -0.105509154 -0.11393031 -0.09565287
000250 ec 3d c8 bd 14 52 65 bd ea b6 06 be 77 c3 a1 bd
       -0.09777436 -0.05598648 -0.13155714 -0.0789861
000260 98 87 ed bc e7 aa 37 3e c7 90 c9 bb 58 c2 2e 3e
       -0.02899532 0.17936288 -0.006151292 0.17066324
000270 e0 17 02 be 5c 33 6c bb b8 38 83 3d 83 13 c9 bb
       -0.1270442 -0.0036041355 0.064073026 -0.006136359
000280 11 ff 1f 3d ae 10 86 3e bc 94 41 be fc 91 a6 3d
       0.03906161 0.261846 -0.18904394 0.08133313
000290 f5 84 a4 3e b5 01 b0 bd cd 89 a2 bd f5 2b 83 3e
       0.32132688 -0.085940756 -0.0793644 0.25619474
0002a0 e5 23 00 3e 33 e3 04 3e 56 83 f8 bb 92 ff 26 be
       0.12513693 0.12977295 -0.007584016 -0.1630843
0002b0 35 fe 01 3c 0a 8d ed 3b bd 00 1c be bb 8b 0a be
       0.007934143 0.007249479 -0.15234657 -0.13529865
0002c0 7c 98 55 be f1 e0 f2 bc 91 35 80 3d f4 58 91 3c
       -0.2085895 -0.029648276 0.06260217 0.017742611
0002d0 21 cb 25 3c 95 77 89 3d 97 b5 89 3c 0b 67 ab be
       0.0101192305 0.067122616 0.016810222 -0.33477053
0002e0 26 34 11 be 79 30 20 be 88 17 a9 bd fe ca a5 3d
       -0.1418005 -0.15643491 -0.08256441 0.08095358
0002f0 d7 e2 e2 3d 41 74 8d be 8f bf 5e be 6b 8b 1e be
       0.110784225 -0.27627757 -0.21752761 -0.15482871
000300 01 a4 4c 3d 68 1e 06 3e ad 2f 3d be 09 0e a7 bd
       0.049961094 0.13097537 -0.18475218 -0.08156974
000310 19 5b 1b 3e 45 1b bd bd f7 70 88 bd 40 1d c0 bd
       0.1517147 -0.09233717 -0.06662171 -0.09380579
000320 fd 3b 18 be 08 9d 56 bd e7 a5 47 3d fe f2 ed bc
       -0.14866634 -0.05239585 0.0487422 -0.029046532
000330 be ce 16 be 58 e3 e4 bc a9 aa b4 bd 5e 2f 19 bd
       -0.14727303 -0.027940437 -0.08821613 -0.03739869
000340 32 5c 44 bd 09 4a e9 3d c4 92 56 bd cb 2b 99 bb
       -0.047939487 0.11391074 -0.05238606 -0.00467441
000350 7d 96 0d 3e 18 5a 92 be 45 dc 37 bb 1d 4d 1c be
       0.13826938 -0.2858436 -0.0028054875 -0.15263791
000360 27 eb c9 3d f8 75 a3 bd 13 5e d8 bd 6f 7a a7 3d
       0.09859305 -0.07981485 -0.10564818 0.08177649
000370 f1 d9 19 be 74 b4 e1 bd 79 cc b5 3d 29 58 40 bd
       -0.15024544 -0.11020747 0.08876891 -0.046959076
000380 1e 99 0b 3e bd 65 a5 be c3 71 06 be 9f b8 19 be
       0.13632628 -0.32304183 -0.13129334 -0.15011834
000390 26 53 58 3d 8d b5 c9 bc 01 a9 a1 bd 29 f2 03 3c
       0.05281367 -0.024622703 -0.07893563 0.008053341
0003a0 8b e0 fd bd 14 07 39 3d 1d e5 95 3c 21 75 eb bd
       -0.12396344 0.045172766 0.018297726 -0.1149695
0003b0 94 f0 9a bd 51 10 4d 3d 30 34 04 be 67 04 a7 3d
       -0.07565418 0.05006439 -0.12910533 0.081551366
0003c0 a9 44 c6 3d 5c 08 e3 bc 93 eb d2 bd fe 12 68 bc
       0.09681065 -0.027713947 -0.102988385 -0.014164684
0003d0 27 38 da 3d 2c 9d 15 3e 75 02 46 be 8d d1 e3 bd
       0.106552415 0.14610738 -0.19336875 -0.11123953
0003e0 39 e3 26 3e b4 33 0a 3e 38 8e cd 3c 7b cb 03 be
       0.16297616 0.13496286 0.02509223 -0.1287059
0003f0 5a b6 11 3e 67 d8 21 be 45 88 21 be e5 ad b2 bb
       0.14229718 -0.15805207 -0.15774639 -0.0054528587

weight_hh_l0 f4 [128, 32]
000000 ef 8e c1 bd 70 e6 51 bc 00 3b 83 bd 96 d4 d4 3d
       -0.094510905 -0.012811288 -0.06407738 0.1039211
000010 bd e7 8d bc e9 d7 10 bd 64 cb 19 be e6 1d c7 3b
       -0.017322415 -0.035362158 -0.15018994 0.006076562
000020 58 56 e8 3d e2 c3 ea 3d c3 22 86 3c 1f f3 2a 3e
       0.11344594 0.11463143 0.016373998 0.16694306
000030 72 40 d8 bc 81 3b 14 3e 0d d9 de 3d 18 82 33 3e
       -0.026397917 0.14475824 0.10881243 0.17530096
000040 7f 8c cd 3d 2b b8 54 be 26 54 d7 3d 83 eb 05 be
       0.10036563 -0.2077338 0.10514097 -0.13078122
000050 38 fd e3 bd 30 66 1e be 92 f9 a8 bd cd ff 18 be
       -0.11132282 -0.15468669 -0.08250727 -0.1494133
000060 3a d9 1a 3e ce 43 8b bd d2 69 ea 3d 41 38 0f 3e
       0.15121928 -0.06800042 0.11445965 0.13986303
000070 06 85 df 3d f7 ef 0c 3e 62 54 0b 3d 0f 2e 38 be
       0.10914044 0.13763414 0.03401602 -0.1798632
000080 28 10 e4 3d 97 fe d1 bd 3a d7 61 3e 54 b4 5c bd
       0.11135894 -0.10253637 0.22054759 -0.05388291
000090 9f 74 e6 bd b1 c8 9f 3e 7a 79 58 be 07 7d 9a be
       -0.112527125 0.31207803 -0.2114009 -0.30173513
0000a0 75 f5 fe 3d 27 7d ef bd 7c c4 0e 3d fe 4a f8 bd
       0.12449161 -0.11693793 0.03485535 -0.121236786
0000b0 0f c6 24 be 60 8a 80 3e 45 ef 20 3e 33 40 80 3e
       -0.16091178 0.25105572 0.15716274 0.2504898
0000c0 36 93 6d 3e 20 37 d6 3d 11 23 0e be 22 d2 95 bd
       0.23200688 0.10459733 -0.13880564 -0.0731547
0000d0 f0 09 fd 3d 7c 31 f4 bd fd e0 7a be 6d 61 f3 3c
       0.12355411 -0.11923501 -0.24499889 0.029709542
0000e0 4b 96 20 be 35 47 b6 bd 55 d6 c2 be c3 91 20 bd
       -0.15682332 -0.089003004 -0.38054147 -0.03920151
0000f0 bb 20 b1 bd 1b e4 55 bc a2 78 a8 3d 12 e7 42 bc
       -0.08648821 -0.013054873 0.08226134 -0.011895912
000100 f5 ab 4d 3d 25 3b e9 bd 38 fb a0 bd 15 6d df 3d
       0.05021282 -0.11388234 -0.07860416 0.109094776
000110 f5 f3 45 3c 41 9a c1 3d 7c af 5b be 33 ab 3f be
       0.01208209 0.0945325 -0.2145366 -0.18717651
000120 1e f9 fb bc 0d 9b 0d 3e 6a dc a0 bd 29 05 ee 3d
       -0.030758437 0.13828678 -0.07854541 0.11622078
000130 a4 ff cc bd 9e a4 9a bd 81 de fc 3d 2b fa bf bd
       -0.10009697 -0.075509295 0.12347127 -0.09373888
000140 c8 07 f0 3d 56 b3 eb bd 39 40 01 3e 7d 5b 41 be
       0.11720234 -0.11508815 0.12622155 -0.18882556
000150 ce 01 05 3e 86 1f 2c 3e f1 b4 1d 3c d0 87 3f 3e
       0.1298897 0.168089 0.009625659 0.18704152
000160 68 3e e3 3d e7 07 8d 3d 42 1f b3 3d 2b 0c 72 3e
       0.110958874 0.06886273 0.08746196 0.23637454
000170 d4 7e 0c 3e 39 c5 4e 3d 6b 35 45 bc 85 75 c3 3d
       0.13720256 0.050481055 -0.012036662 0.095438994
000180 70 1b 0f 3d 2c 5f a6 3d 78 12 0a 3d 44 d0 c1 3d
       0.034938276 0.08123621 0.03370902 0.09463552
000190 22 cc 0c be 8b a9 06 be fc 68 74 bc a3 3d 26 3e
       -0.13749745 -0.13150613 -0.014917608 0.1623445
0001a0 aa 82 28 be eb 77 84 bd 9d 9c 4d bd d8 ec 42 be
       -0.16456094 -0.06468185 -0.050198186 -0.19035661
0001b0 48 c2 58 be 29 05 d7 bd a4 64 07 be 0c 9b 10 be
       -0.21167862 -0.10499031 -0.13221985 -0.14121646
0001c0 08 b6 34 bd 40 aa 8e 3e 19 e6 da bd ab 02 37 bd
       -0.04411891 0.27864265 -0.10688419 -0.04468028
0001d0 c1 01 ba bd c7 57 de 3d 8e 09 04 3e f5 a6 08 be
       -0.09082366 0.10856586 0.1289427 -0.13344939
0001e0 0b 69 c5 bd d2 ca ba 3d 34 d5 50 be 04 7f 1d 3e
       -0.09639176 0.09120716 -0.2039383 0.15380484
0001f0 b7 05 3e bd 47 c8 8b 3d be bc 03 3e 49 49 7a 3d
       -0.04639217 0.06825309 0.12864968 0.061105046
000200 c0 d5 24 be 8d a0 5c bd f4 4c 11 3e 45 f8 1a be
       -0.16097164 -0.05386405 0.14189512 -0.1513377
000210 75 33 1e 3e ae 17 14 be 3e 76 bf bc 7e 3d 10 3e
       0.15449317 -0.14462158 -0.023371812 0.14085957
000220 18 09 30 be 86 af 17 be 80 35 36 bd 77 fa 08 be
       -0.17190969 -0.1481305 -0.044484615 -0.13376795
000230 c1 0a c6 bb 1c 27 d3 3d 8a c7 d4 3d 96 5b 24 be
       -0.0060437624 0.10310194 0.103896216 -0.16050562
000240 97 c1 3f bd 6e 25 08 be ac 60 e5 bd d6 05 ba 3d
       -0.04681548 -0.13295528 -0.11200079 0.09083144
000250 b2 a0 29 3d 93 f8 00 3e 7e d5 a2 3d 8e cf 05 be
       0.041413017 0.12594824 0.07950877 -0.13067457
000260 bf 98 83 3d 8e ed e5 bd 6f 66 21 be f8 65 33 be
       0.064256184 -0.112269506 -0.15761732 -0.17519367
000270 71 25 3f 3e 5c 28 97 bd 79 1f 11 3e ec 5f fc bd
       0.18666627 -0.07380745 0.14172162 -0.12322983
000280 53 4c 3d 3e ac ca ec bb d7 6b 6d 3d 25 e6 39 be
       0.18486147 -0.007226309 0.057964172 -0.181542
000290 a3 cc 53 bd 2c 01 89 bd b9 c9 88 3c 56 52 78 bd
       -0.05170883 -0.06689677 0.016697751 -0.060625397
0002a0 0b 25 8c bd 35 de a9 bd 37 2f 03 3e ec cd 3a be
       -0.06843003 -0.08294336 0.1281098 -0.18242615
0002b0 df 13 4b be de c6 9c 3d af 87 1d bd 27 d3 6b bd
       -0.19831799 0.076551184 -0.038459476 -0.057574417
0002c0 ad 29 12 bd 9f d0 24 3e 59 b5 79 3b 44 ef 07 3e
       -0.035684276 0.16095208 0.0038102476 0.13274866
0002d0 27 51 59 3d 18 79 eb 3d bb 57 55 bc 5a 7d a5 bd
       0.05305591 0.11497706 -0.013021405 -0.080805495
0002e0 c5 01 91 bd 46 3a ab bd f9 3f 06 3e 84 70 49 3e
       -0.07080416 -0.08360724 0.13110341 0.19671828
0002f0 00 f4 5e 3d 15 93 d0 3d 80 68 2a 3e 24 48 a8 3d
       0.054431915 0.10184304 0.16641426 0.08216885
000300 13 05 22 3e 34 b2 30 3d db c5 28 be d1 5e 2b 3e
       0.15822248 0.043138698 -0.16481726 0.16735388
000310 43 3e b3 bb 5e 14 82 bd 9f 5b ac 3c 06 ef 06 be
       -0.0054700687 -0.06351541 0.021039782 -0.13177118
000320 f9 08 91 bd 48 8b 92 3d 9a ae 0f bd bb ed e3 bd
       -0.070817895 0.07155472 -0.035078622 -0.11129328
000330 32 9d 91 bc 83 2f 48 3e c0 29 25 bc 65 78 57 3d
       -0.017775152 0.19549374 -0.010080755 0.05260505
000340 18 32 96 3c 7b 10 ca bd b3 66 a8 bd f4 27 13 be
       0.018334433 -0.09866425 -0.08222713 -0.1437071
000350 80 9f d1 3d 96 fa 3c 3e 50 ab 1d 3e eb 21 b8 bc
       0.102355 0.18454966 0.15397382 -0.02247711
000360 69 fc 31 be 9c a8 f6 3c ea 5f e1 3d b4 12 93 3d
       -0.17381443 0.030109696 0.11004622 0.07181302
000370 46 84 36 be 1f b8 1a 3e 1e 4d 08 be 9b 37 37 3d
       -0.17823896 0.15109299 -0.13310668 0.044730764
000380 ed 2f 29 3e e4 f3 42 bd 8e 6d 79 bd 9c ef 3f 3d
       0.16522188 -0.047595873 -0.060895495 0.04685937
000390 ad e7 58 bd 90 dd bb 3d a7 8a 30 3d e2 4f 8f bb
       -0.05295532 0.09173119 0.04310098 -0.0043735364
0003a0 7b bd ea ba 72 a9 65 bd 6a 08 96 bc 58 4f 02 be
       -0.0017909253 -0.0560698 -0.018314559 -0.1272558
0003b0 8a 68 4f 3e 76 b5 29 bd c5 95 8c 3d 18 1b 92 3d
       0.20254722 -0.04143282 0.06864504 0.07134074
0003c0 4a ae 0b 3e 82 e9 1f be a9 7e e8 bd ea 63 b0 bc
       0.13640705 -0.1561642 -0.113522835 -0.021532018
0003d0 3e 21 11 be 44 7f b5 bd 9c 98 a8 bd 51 67 25 be
       -0.14172837 -0.088621646 -0.08232233 -0.16152693
0003e0 17 84 af 3d e9 4f 2f 3e 13 37 b9 3c a9 be 98 3d
       0.08570116 0.17120327 0.02260927 0.074582405
0003f0 b1 48 00 3e 30 a1 2c 3e 15 32 38 3d ed 5c c2 3d
       0.1252773 0.16858363 0.044969637 0.094903804

bias_ih_l0 f4 [128]
000000 b5 f9 ca bd f0 3e 2a bd a4 16 be bc 84 39 2a be
       -0.09910909 -0.041563928 -0.023204155 -0.16623503
000010 00 71 27 be 03 58 05 3e f7 e1 48 bd 3f 90 2c be
       -0.163517 0.13021855 -0.049043622 -0.168519
000020 75 07 c5 3c 35 e2 cb bb 09 10 28 3e 5e da 06 3e
       0.024051407 -0.0062220343 0.16412367 0.13169238
000030 04 d7 52 3d 53 bd 2c be d7 24 64 3d 48 0b 20 be
       0.051474586 -0.16869096 0.055699196 -0.15629303
000040 c4 1b 5e bc 43 0f 11 3e 01 23 a5 3b 31 a3 f1 3d
       -0.0135564245 0.14165978 0.005039573 0.117987044
000050 0a c3 e7 ba e1 f7 48 bc 6e 8d 26 bd e7 e1 35 bd
       -0.0017682028 -0.01226613 -0.04066222 -0.04440489
000060 13 f9 c2 3d 03 8b 6c 3d cb fa 4c bd 78 d1 98 3d
       0.095201634 0.05774976 -0.050043862 0.07461828
000070 b5 f8 02 bd d6 db fe bd ce b8 43 be d0 ca 98 bd
       -0.031975467 -0.12444274 -0.19113466 -0.074605584
000080 c0 4e 29 3e 1f 64 d2 3a 90 ad 1d be ef 6f 8f 3d
       0.16533947 0.0016051567 -0.1539824 0.070037715
000090 92 e0 27 be 72 2b aa bd fb d2 15 be c2 57 b0 bc
       -0.1639426 -0.08309068 -0.14631264 -0.021526221
0000a0 c8 65 04 be f4 db ae 3d ca ec 69 bd 0c 77 df 3c
       -0.12929451 0.085380465 -0.057110585 0.027278446
0000b0 81 ce 53 bd 8f f9 1d 3e 19 ed 40 bd 35 ce fc bd
       -0.05171061 0.1542723 -0.047101114 -0.12344018
0000c0 30 b4 bb 3d 20 ef e3 3d 46 6b dc bc 6f 8b 97 3d
       0.091652274 0.11129594 -0.02690662 0.07399642
0000d0 d4 0a 39 be 25 36 b3 3d cd d0 dc 3d 47 4b cd 3d
       -0.18070537 0.087505616 0.10782013 0.10024124
0000e0 db 48 52 3d 54 ac 03 3e 62 5f ec 3d e1 dd 1c 3e
       0.05133901 0.12858707 0.1154163 0.15319015
0000f0 99 bc 0d bd 94 bf 27 be 9c ea a6 bd 47 6b 3b be
       -0.03460369 -0.16381675 -0.08150217 -0.18302642
000100 c9 ed fb 3d a1 b0 04 3e 58 4f 14 bd 53 6c 90 3d
       0.12301213 0.12958004 -0.03620848 0.07051911
000110 1b 2a 7b bd 9b 69 72 3a 23 84 dd 3d e4 b3 9c bd
       -0.06131945 0.0009247304 0.10816219 -0.07651499
000120 71 fa b6 3c 1b 4e b6 3d 5e 83 00 be c8 d3 11 3d
       0.022336217 0.08901616 -0.12550113 0.03560236
000130 94 82 f5 bd 5b 88 71 bd a1 9b 7c bd 4a f0 5c be
       -0.119877964 -0.05896793 -0.061671857 -0.21576038
000140 2a 69 1c be 8f 05 03 be 39 0c 0c 3e 9a 1f 8f bc
       -0.15274492 -0.12795089 0.13676538 -0.017471123
000150 84 e8 68 bc 41 95 ee 3d 15 f6 b5 3d 79 e0 13 be
       -0.014215592 0.11649562 0.08884827 -0.14441098
000160 bf 54 24 3e 3f eb 00 be 33 33 0c 3e 24 24 38 be
       0.16047953 -0.1258974 0.13691406 -0.17982537
000170 f2 93 08 be f4 30 04 3e 46 b3 2f bc 56 90 95 bd
       -0.13337687 0.12909299 -0.010723894 -0.073029205
000180 27 04 c4 3d b8 fc 89 38 a1 fa ce 3c 2c f8 dc bd
       0.095711045 6.5797416e-05 0.025265994 -0.107895225
000190 f2 19 94 bb cf f7 64 3d 5c c2 48 bc dc b0 1b be
       -0.0045196945 0.05590039 -0.01225337 -0.15204185
0001a0 83 6b c8 bd 17 f4 96 3d 1d b9 8b bd 02 92 8c 3d
       -0.09786131 0.07370775 -0.06822417 0.06863786
0001b0 26 fa 16 3d 17 31 42 be a7 81 cf 3d 57 c3 d0 3c
       0.036859654 -0.18964039 0.10132151 0.02548377
0001c0 50 26 de 3d 87 e4 84 3d 0a 54 c0 3d 30 c3 94 3a
       0.10847151 0.06488901 0.09391029 0.0011349674
0001d0 8b 53 b3 3d b1 51 ac bc da 8c b1 bd cb 68 59 3c
       0.08756169 -0.021035047 -0.086694434 0.0132696135
0001e0 e3 09 00 be ca 69 c5 3d 47 06 cd 3d 98 03 06 3c
       -0.12503771 0.09639318 0.10010963 0.008179568
0001f0 28 3f cc 3d c3 b5 b0 3d 6e b0 07 be 7e 21 d7 bd
       0.099729836 0.08628418 -0.13250896 -0.10504435

bias_hh_l0 f4 [128]
000000 3f d7 12 be 4f 1d e9 bc 3b c3 20 be f7 b6 9b bb
       -0.14339922 -0.028456358 -0.15699475 -0.0047520357
000010 7e b8 a1 bc 27 d2 e8 bd 6c 4f 1a be e5 33 14 3c
       -0.019741293 -0.113682084 -0.1506936 0.009045576
000020 90 9e df 3d 5d 7b 22 3e 88 17 bd bd 20 f0 e0 3b
       0.10918915 0.15867372 -0.09233004 0.0068645626
000030 7b 4d 3f be 85 97 00 3e 57 25 c5 3d 70 44 87 3b
       -0.186819 0.125578 0.09626263 0.0041280314
000040 2b df cd bd f9 70 09 3e 44 a7 b9 bd 33 f5 96 3d
       -0.100523315 0.13422002 -0.090651065 0.07370987
000050 2b 69 15 3e 65 7e 2c 3e 98 d8 46 bc a3 f6 a2 3c
       0.145909 0.1684509 -0.012136601 0.019892996
000060 34 99 4d bb 7e 93 2e 3d bd 99 c0 3c 70 f7 8a bc
       -0.0031371834 0.04262113 0.023510808 -0.01696369
000070 ee a7 e8 bd 1e ff 08 be 88 11 f9 bd 1e 01 c8 bc
       -0.11360155 -0.1337857 -0.12161547 -0.024414595
000080 3e d6 9c 3d 58 e0 e2 3c 5e 6e ab 3d 6a 5f 0b be
       0.07658051 0.027694866 0.0837066 -0.13610616
000090 8e e3 13 3e 71 55 a3 3d 8d f9 af bb 1b 58 2a be
       0.14442274 0.07975281 -0.005370325 -0.16635172
0000a0 34 0d 67 bd 0b dd ee 3c 5a 5e 1c bd c1 e5 0a bd
       -0.056409076 0.029158136 -0.03817592 -0.033910517
0000b0 f5 33 5f bd cd 25 ce bc 70 10 71 3d 1b 2d 96 bd
       -0.05449291 -0.02516451 0.058853567 -0.07332822
0000c0 58 57 20 bd fe a6 31 3d 69 90 bd 3a 89 ba db bd
       -0.039145797 0.043372147 0.0014462593 -0.10728938
0000d0 8a b9 16 bd f9 31 9a bd 1b 06 ec bd b8 f9 93 3d
       -0.036798038 -0.07529063 -0.11524602 0.072253644
0000e0 ac e5 1b be ca 5c 38 be 8e 6f 0d be 45 6f bd 3d
       -0.15224332 -0.18004146 -0.13812086 0.092497386
0000f0 47 aa 80 bd 76 90 8f 3d 78 2f 4f 3d 31 69 f2 3d
       -0.06282478 0.070099756 0.05058238 0.1183647
000100 c8 17 24 be 9d 88 0e be 4e 15 09 3e 60 ed 73 3c
       -0.16024697 -0.13919301 0.13387033 0.014888138
000110 87 07 48 3e c3 2c 08 3d 22 b4 9f bd aa ae f2 bc
       0.19534121 0.033245813 -0.077980295 -0.029624302
000120 43 85 27 3e d1 cd 96 bb 0c d3 18 3b 89 a9 58 3d
       0.16359429 -0.004602172 0.0023319153 0.052896056
000130 b0 2e 79 3d 6a fc f4 3b d6 b8 0e be ff 56 8e bd
       0.06083554 0.007476379 -0.13937697 -0.06950187
000140 8a f4 74 bd 57 5f ea 3d 50 d2 7e 3d 80 82 13 be
       -0.059803523 0.11443966 0.06221229 -0.1440525
000150 8d 4c 2f be 0d 8d 65 3d d4 75 1e be 67 4f d4 3d
       -0.17119046 0.05604272 -0.15474635 0.10366707
000160 9d c7 9f bd b3 f1 a5 bc ff 3c 0f 3e ae 13 85 bd
       -0.07801745 -0.020256853 0.13988112 -0.06497894
000170 51 b2 f9 bd f3 23 19 be 73 7a 10 bd cf ad fd 3c
       -0.12192214 -0.1495512 -0.035273027 0.030966667
000180 2e 57 9e bc e7 9d 09 3e 58 f9 05 be 40 91 f4 3d
       -0.01932868 0.13439141 -0.13083398 0.11941767
000190 9d b4 c0 3d be bf 26 bd 4c cc 3e 3e 5d 5b 22 3e
       0.09409449 -0.040710203 0.1863262 0.15855165
0001a0 dd 81 1b be 47 ba c4 3d 58 32 31 3e b7 05 15 3e
       -0.15186258 0.09605842 0.17304361 0.14552961
0001b0 61 ca 48 3d 57 1a 68 3b c9 78 ad 3c 8b 97 08 3d
       0.04902113 0.003541609 0.021175759 0.033347648
0001c0 ec 02 02 3e b4 41 93 bd 3c c8 4b 3e f7 94 fa bd
       0.12696427 -0.07190266 0.19900602 -0.12235444
0001d0 3b 4c 4f 3d 21 24 2e 3e 64 49 85 3d 0e 5c 15 3e
       0.05060981 0.1700597 0.06508139 0.14585897
0001e0 b9 98 80 3d 8c 8a 93 3d 42 ac 1b 3e 16 a7 6b 3c
       0.062791295 0.0720416 0.1520243 0.014383098
0001f0 88 91 f2 bc 37 5c a5 3d 9f 0b d8 bd 2d fb c3 3d
       -0.02961041 0.08074229 -0.105490915 0.09569392

weight_ih_l0 f4 [128, 2]
000000 90 b2 80 3e 8f e0 1a ba fc c0 27 3e 59 3e 82 3d
       0.25136232 -0.00059080956 0.16382211 0.06359548
000010 e3 2d 19 3e 0d 3e f0 3d 76 ef 5c be 5e 8e 26 be
       0.1495891 0.11730585 -0.21575722 -0.16265246
000020 a9 af 7f bd bb d5 3f be d7 9b 78 be 3b 58 da 3e
       -0.062423382 -0.18733875 -0.24278198 0.4264544
000030 c5 77 05 be 12 19 07 be 7f 7b 1f be ec f8 87 be
       -0.1303397 -0.13193157 -0.15574454 -0.265571
000040 9b 94 64 3d d3 57 16 be e9 9d 08 be 02 15 a2 3e
       0.055805784 -0.1468194 -0.13341488 0.31656653
000050 c4 98 12 bf c2 77 0e bf 29 cb 0a 3c 1d 98 84 bd
       -0.5726435 -0.55651486 0.008471289 -0.06474326
000060 5e e8 b4 bd 5a ac ae be 2a 90 7f 3d 6a 87 8f be
       -0.08833383 -0.3411587 0.062393345 -0.28033
000070 a1 de c7 3e fe da 43 3e ce a1 16 be 6d 6e d6 3e
       0.3903704 0.19126508 -0.14710161 0.41881123
000080 24 9f 29 be 87 fc d9 3d bf a6 89 3b b2 0d 30 3e
       -0.16564614 0.10643869 0.004200786 0.17192724
000090 a1 e5 f3 3d 43 ad be 3d 32 60 2e 3f 59 29 38 3f
       0.119090326 0.09310391 0.6811553 0.7193809
0000a0 83 6c bf bd 5b 1c fd be 20 a5 f1 bd ba 85 3b be
       -0.09346869 -0.49435696 -0.11799073 -0.18312731
0000b0 f5 ca df be d8 5d 4f be f8 93 7f be 85 97 d9 bd
       -0.4370953 -0.20250642 -0.2495879 -0.10624603
0000c0 24 0f db 3e 0f 65 ab 3d da 56 48 bf dc b8 de be
       0.4278499 0.08368885 -0.78257525 -0.43500412
0000d0 0b 7d 75 3e 26 69 fa 3d 28 e7 02 be f3 6c 4f 3e
       0.23973481 0.12227087 -0.12783492 0.20256405
0000e0 90 09 a8 bf b8 ab 2d bf cc 26 82 3d 3b fd ea bd
       -1.3127918 -0.67840147 0.06355056 -0.11474081
0000f0 70 60 0f 3e 97 65 0a be 63 67 9e be d9 eb ca bd
       0.14001632 -0.13515316 -0.30938253 -0.099082656
000100 4a fa c0 3c f8 5c 51 be 56 30 9f 3e 16 20 5e 3e
       0.023556847 -0.20445621 0.31091565 0.21691927
000110 ce 9d f9 3e 6b 3b 8d bd 9c dd 77 be e4 80 97 be
       0.48753208 -0.06896099 -0.24205631 -0.29590523
000120 ed 3c 6a 3e 81 57 82 be 51 7f 91 bd 5e a4 03 3e
       0.22874804 -0.25457385 -0.07104362 0.1285567
000130 b4 e7 71 3d 0d bb 71 3e 2e 87 23 3e 66 89 91 bc
       0.05905886 0.2360651 0.15969536 -0.017765712
000140 25 91 39 3e 19 9e 83 3e 9c 15 ff 3d fb 99 a1 3e
       0.18121774 0.25706556 0.124552935 0.3156279
000150 88 2a a8 be 3c 79 82 be 97 20 2a be a7 8b 2f 3e
       -0.3284495 -0.2548312 -0.16613995 0.17143117
000160 fc 5a 34 3e 5d 2d b4 3e a9 08 27 bd 87 f0 17 bf
       0.17612833 0.3519086 -0.040779743 -0.5935139
000170 74 8c 54 3f 33 27 1d 3f f8 3e e2 3c 7e 4c 99 3e
       0.83026814 0.6138794 0.027617916 0.2994117
000180 85 63 c6 be 71 40 00 bf fe 7f 10 bd 58 e7 a2 3d
       -0.38747802 -0.5009833 -0.035278313 0.079542816
000190 bb 65 75 3b a2 48 8d 3d 21 2b d4 be e3 3a 8a be
       0.003744467 0.06898619 -0.41439155 -0.26998052
0001a0 5c 6c 7b 3f e4 b4 95 3e 06 e0 bf 3e 00 5e ba 3e
       0.9821222 0.2923957 0.37475604 0.3639984
0001b0 d9 7b 25 3e 01 43 06 bd bc 11 a0 be 82 82 5a be
       0.16160525 -0.032778744 -0.3126353 -0.21338847
0001c0 6d 1f d8 3e d7 f8 e0 3e fe cd 5e be b4 1b e5 3d
       0.42211476 0.4393985 -0.21758267 0.111869246
0001d0 4b 43 f7 3d 95 ed 14 be 58 a6 9f 3e 96 cc 6d 3e
       0.12073382 -0.14543755 0.31181598 0.23222575
0001e0 f9 95 ea bc 56 60 43 be a5 72 8a 3e ea 69 0f 3e
       -0.028635966 -0.19079718 0.27040592 0.14005247
0001f0 8c b0 8f 3d 9b 02 63 be 07 b8 4d be dd 28 98 be
       0.070160955 -0.22168963 -0.20089732 -0.29718676
000200 0c 35 5a be 49 13 5e 3d f5 b1 5f be cf 51 b9 be
       -0.21309298 0.05421761 -0.21845229 -0.36195228
000210 a6 79 a1 bd ff c2 7c 3d 03 9d c9 be f2 0c 14 bd
       -0.07884531 0.0617094 -0.39377603 -0.036145158
000220 cd 1d 21 bd 26 98 03 be 35 34 7b 3e f6 d6 a8 be
       -0.03933506 -0.12851009 0.24531634 -0.32976502
000230 ea c7 03 bf 42 3d 50 be 79 f4 dc 3e 95 fd b5 bd
       -0.5147692 -0.20335868 0.43155268 -0.088862576
000240 4c c6 8c 3e 38 e9 08 3e 66 03 da 3d b3 e7 bc 3e
       0.27495039 0.13370216 0.106451795 0.36895522
000250 5d c5 e1 3d e4 d5 9b 3e 24 20 9f bd 4c 0d c9 3c
       0.11023972 0.30436623 -0.07769802 0.024542473
000260 3c 83 80 bd 05 0d 42 be 83 81 05 3e 25 10 38 3e
       -0.06275031 -0.18950279 0.13037686 0.17974909
000270 b1 68 93 be 68 48 09 bf 0a a8 73 bd ff c0 a3 3e
       -0.2879081 -0.5362611 -0.059486426 0.31983182
000280 2a 82 81 be 9e a0 e4 3e b3 95 43 be c3 b2 56 3e
       -0.2529462 0.4465379 -0.19100074 0.2096663
000290 c1 2d 31 3e e5 32 b0 3e ac 51 c5 3d d2 49 01 3b
       0.1730261 0.3441383 0.09634718 0.0019727838
0002a0 ce e0 c1 bd 94 f8 d3 3b ea 91 a4 be fc ac 46 3d
       -0.09466706 0.006468842 -0.32142574 0.048504815
0002b0 0a 6b 42 be b4 01 81 be 8f 43 3f 3d 1b a9 78 bd
       -0.18986145 -0.25196612 0.04669529 -0.060708147
0002c0 de ca 88 3e cc c2 fa 3e ac 37 31 3f 1c 93 fc 3e
       0.26717275 0.48976743 0.69225574 0.49330986
0002d0 1e 13 95 3d 3f 2c b0 3e a8 74 80 3e 96 4a bf bd
       0.07279037 0.34408757 0.25089002 -0.09340398
0002e0 51 ce 8c 3c ce b4 f4 bd b0 c0 07 3e c2 04 8e 3e
       0.017188223 -0.11948548 0.13257098 0.27738005
0002f0 b7 04 32 3d 21 ab 97 3c 54 0b 55 be d3 82 7f 3d
       0.043461528 0.018514218 -0.20805103 0.062380623
000300 15 94 46 bd 7d 7e 92 be 91 1c 3c 3f 4d 29 17 3f
       -0.048481066 -0.28612128 0.7348109 0.59047395
000310 c3 d9 6f 3e 17 f2 97 bd 20 db 0c bd cf 95 19 be
       0.23422913 -0.07419222 -0.03438866 -0.14998554
000320 c0 f4 41 bd 21 cb cb be 1d d0 10 be 3b 0f 3f 3e
       -0.047352552 -0.39803413 -0.14141889 0.18658154
000330 7f ef e0 3c 29 2f 4d be 08 ac c3 be a4 bc 9e be
       0.02745795 -0.20037521 -0.38217187 -0.31003296
000340 01 c3 4e 3e e1 37 90 3e be 23 3b be b3 11 14 3c
       0.20191576 0.28167632 -0.18275353 0.009037423
000350 6d 5f d0 3c 2a c2 e1 3c d0 99 90 3d e7 76 8b bd
       0.025436128 0.027558405 0.070605874 -0.06809788
000360 58 8a 9f 3e d3 54 47 be 96 aa a5 3d 7b 5d b9 be
       0.31160235 -0.19465952 0.08089177 -0.36204132
000370 90 eb 3c 3f f5 c2 74 3e 0d e8 4a be 4b d6 ad 3e
       0.7379694 0.23902495 -0.19815083 0.33952555
000380 f8 6b a7 be c8 57 f6 bd 19 50 ea bd 31 d9 69 bc
       -0.3269956 -0.12028462 -0.11441059 -0.014272974
000390 7e a9 2b 3d c5 c5 91 bd 8c 24 1a 3e 41 0f 0a 3e
       0.041909687 -0.071178 0.15053004 0.13482381
0003a0 3a d8 a5 3e 1e a5 7e 3e 8e 4c 24 3e 99 c0 fa 3d
       0.3239153 0.24867675 0.16044828 0.12243766
0003b0 38 38 af 3e 34 a4 08 be 27 3a 06 bf 8e 6e 95 be
       0.3422258 -0.13343889 -0.52432483 -0.2918591
0003c0 73 76 43 3f 34 52 d3 3e 43 91 e4 be d4 4f 88 be
       0.76352614 0.41273654 -0.44642076 -0.26623404
0003d0 6f 83 94 3e b1 81 78 be bf a1 36 3f e5 e8 6f 3f
       0.29006526 -0.24268223 0.71340555 0.93714744
0003e0 16 54 d7 be 16 23 a4 be 9d 9f ec 3d f9 62 93 3c
       -0.4205634 -0.32058018 0.11553881 0.01799153
0003f0 85 2a 95 3d c1 d3 47 bd 64 ea c2 39 08 c5 53 be
       0.072835006 -0.04878593 0.00037177198 -0.2068063

weight_hh_l0 f4 [128, 32]
000000 37 ea c5 bd ed 69 d1 3d a5 99 30 be 30 61 e4 3c
       -0.096638136 0.10225282 -0.1724611 0.027878374
000010 f1 c8 9b 3d d2 63 73 3e a0 9e b3 bd a2 d3 54 bc
       0.07606686 0.23768547 -0.0877049 -0.01298991
000020 14 45 1d be c8 4c 80 bd f8 32 26 3e c2 1b 15 3e
       -0.15358382 -0.06264645 0.1623038 0.1456137
000030 3e f5 19 3e c3 c7 f5 bd 69 fb 12 bc 0a 69 f7 bd
       0.15034959 -0.12000992 -0.008971074 -0.120805815
000040 3a f6 a3 3c bd dc 2a be 65 19 23 bd 92 20 7c 3d
       0.02001487 -0.16685767 -0.03981914 0.0615545
000050 96 89 e5 3d 2b bf 32 be ac 75 4b be fd 15 08 3e
       0.11207883 -0.17455737 -0.19869107 0.13289638
000060 5d 71 66 be ba b9 71 3e 0a 6f 6d be 35 61 4c 3e
       -0.22504182 0.23606005 -0.2318689 0.19958957
000070 22 bc 10 3d 72 6b 84 be f4 79 e6 3c c9 5f 49 3d
       0.035335667 -0.25863224 0.028134324 0.049163613
000080 5b 3b f2 bd 23 e9 6a 3c fd 66 69 3e 30 ad 05 be
       -0.118277274 0.014337811 0.22793193 -0.13054347
000090 a0 44 a9 3d 82 07 4e 3e bf 7d 3e bd 7d c3 6b bd
       0.08265042 0.20120052 -0.04650664 -0.05755948
0000a0 a5 7d d4 bd 63 17 a0 3d f4 1d d6 be fd e7 57 be
       -0.10375527 0.07816961 -0.41819727 -0.2108459
0000b0 83 dc 79 3e 86 40 18 bc 7a ea 75 3d 38 ef 9e bd
       0.24400525 -0.009292727 0.060038067 -0.07760471
0000c0 25 2f 7c 3c 19 9d 23 3d 43 fe 67 bc f8 7b c0 3d
       0.0153920995 0.039944742 -0.014159742 0.09398645
0000d0 b4 7a 8c 3e 41 e8 8c be 3d ab 1f 3d a4 45 82 3e
       0.27437365 -0.27520946 0.038981665 0.25443757
0000e0 e2 b8 ae 3d b4 08 f8 bc 7e 78 91 3d d6 97 cb bd
       0.08531357 -0.030277587 0.0710306 -0.0994107
0000f0 1a eb 49 3d ad 51 a5 3d 13 18 83 3d 56 fb df bd
       0.049296476 0.08072219 0.06401076 -0.109366104
000100 a3 84 0a be ce 82 b9 3d 51 cd 43 3d 2b 01 0f be
       -0.1352716 0.09058152 0.047803227 -0.1396529
000110 53 df 36 bd be ed 6a 3d bc 4f 94 bd f8 06 65 3c
       -0.044646572 0.057355635 -0.072417706 0.013978712
000120 f6 0a 67 be 6f 36 6d be 94 64 3b bd 05 cc 06 bd
       -0.22562775 -0.23165296 -0.045750216 -0.032909412
000130 a0 45 82 bd f4 05 9d 3e 60 bf a0 3d 34 96 51 be
       -0.06360936 0.30668604 0.07849002 -0.20467454
000140 c0 4b 27 bd 99 19 f1 bc 87 20 81 be ea 71 8d be
       -0.040843725 -0.029431151 -0.2522013 -0.27625972
000150 97 05 b4 ba 9f 50 1f be 22 df 5f be e2 4e 92 3e
       -0.0013734576 -0.15558098 -0.21862462 0.28575808
000160 6b f6 33 be 00 c8 be 3c 13 dd cc bd 48 8c f2 bd
       -0.1757447 0.023288727 -0.10003104 -0.11843163
000170 47 3d bb bd 41 8d 34 bc 3e 0d 1d 3e 65 00 7a be
       -0.09142547 -0.011020006 0.15337083 -0.24414213
000180 ae 5d 03 3e 0e 8f 14 3c 62 0f 4e 3d 83 7e c1 bd
       0.12828705 0.00906731 0.05030764 -0.09447958
000190 6e 2d 1f 3d e8 99 45 3e cd 2b 46 3e c2 f3 03 3e
       0.038861685 0.19296992 0.19352646 0.12885955
0001a0 76 6f 26 3e e6 62 d5 3d 43 2b 1f 3e 89 1a d4 bd
       0.16253456 0.10419254 0.15543847 -0.10356624
0001b0 b3 4b 8a bd 94 d6 05 bd 18 ec eb bd da 17 b0 be
       -0.0675272 -0.03267534 -0.11519641 -0.34393197
0001c0 e8 64 6e be 38 96 f7 bd 57 44 0c be f0 f8 48 be
       -0.2328068 -0.12089199 -0.13697945 -0.19626212
0001d0 80 eb 6d bb 8f 78 57 3d 19 ec 53 bd 9e 37 3e 3b
       -0.00363037 0.052605208 -0.051738832 0.002902485
0001e0 83 e4 81 3d 36 ee 51 3e 96 39 c3 bc 26 a9 93 bd
       0.06342413 0.20501027 -0.02383117 -0.07209997
0001f0 6f 82 83 3e 1c 01 a5 bc 96 43 59 3e fe 34 6f be
       0.2568545 -0.02014213 0.21217188 -0.23360059
000200 3c cc a3 bd df 79 50 3e e2 5a 8b bc 69 50 16 3d
       -0.07997939 0.2035899 -0.01701111 0.03669778
000210 9b ed 11 3e be 37 aa 3e 3a 4e f5 3d fc dd 41 bd
       0.14250796 0.33245653 0.11977811 -0.04733084
000220 40 9b b4 ba 3f 0b a4 3d b6 f0 2c be 8b 99 0a bd
       -0.0013779178 0.080099575 -0.16888699 -0.033837836
000230 43 a9 4e bc 37 bf ec bb f3 5a fa 3d 15 ac 03 be
       -0.012613597 -0.007224943 0.122243784 -0.12858613
000240 9e 2c 6c be fd de 6e bb 5e b1 82 bd 4a 2a aa bd
       -0.23063895 -0.003644883 -0.06381486 -0.08308847
000250 a2 e5 40 3e de c8 9e 3d 4f 49 42 3d 92 54 82 bd
       0.18837598 0.07753156 0.047433194 -0.06363787
000260 51 75 2f be d3 6a 7f 3d 19 d8 1d be ae 84 12 3c
       -0.17134596 0.062357735 -0.15414466 0.008942766
000270 39 82 93 3a 1a 39 08 3e 1a 9c 26 3e 9d f5 d1 bd
       0.0011254019 0.13303033 0.16270486 -0.10251925
000280 08 9e 27 bd ca 83 7d 3d 4d 6e 52 be 03 3a 90 be
       -0.040922195 0.061893262 -0.20549889 -0.2816926
000290 ad 15 a8 3d 0f 18 7b 3e aa d6 7b be c8 ba 8f 3e
       0.08207259 0.24520896 -0.24593607 0.2807219
0002a0 5f a4 57 bd b9 42 8f be 49 20 26 3e b5 66 8b 3e
       -0.05264699 -0.27980593 0.16223253 0.27226797
0002b0 60 a2 3a bd 7e 48 4e be c3 85 23 3e 92 89 2b be
       -0.04556501 -0.20144841 0.15968995 -0.16751698
0002c0 a9 b5 5e be 8c 55 ef bc 7f a3 39 be 5a ee 33 bc
       -0.21748985 -0.029215597 -0.18128775 -0.01098212
0002d0 af 55 f9 3c 30 db 26 be bb 7e 94 be 97 4d 15 3e
       0.030436365 -0.16294551 -0.29002938 0.1458038
0002e0 ef 10 8d bc 14 51 af 3e 20 cb 41 3c fe 7f bf 3c
       -0.017219989 0.34241545 0.011828214 0.023376461
0002f0 a0 bc 7c 3d 09 67 79 be 57 a0 85 3e 8a 64 35 be
       0.061703324 -0.24355711 0.26098892 -0.17714134
000300 07 31 d0 3d 5e 8d ec 3c d8 9a b5 b9 0c 76 86 bd
       0.10165601 0.028876003 -0.00034638378 -0.065654844
000310 54 38 76 3e 13 c1 9b bd 99 f9 43 be 43 44 03 3e
       0.24044925 -0.07605185 -0.19138183 0.12819009
000320 ba de 44 be 52 ab 71 bd 60 10 d1 3d f9 0b 08 3e
       -0.19225588 -0.059001274 0.102082014 0.13285817
000330 5f 88 90 3d 99 95 19 3e 7e 1a a3 bd 9c bf 83 be
       0.07057261 0.14998473 -0.07964037 -0.25732124
000340 1b 9f d0 bd 57 39 94 bd b5 be a4 3d b6 aa 12 be
       -0.10186597 -0.07237499 0.08044187 -0.14322934
000350 2c 15 59 3e ae 4d a9 3d bf a5 40 be 75 70 41 3e
       0.21199483 0.08266769 -0.18813227 0.18890555
000360 0b 2f 84 bd 29 46 f3 3d 8e 03 0e be 9b 73 70 3d
       -0.06454285 0.11878616 -0.13868544 0.058704
000370 20 ae 58 3d 37 0b 0d be 4b 4b 5d bd 3c 49 b9 bd
       0.052900434 -0.1377381 -0.054026883 -0.090471715
000380 e7 cc c7 3c 22 d3 74 3e 26 5b 23 3c 4f c9 9a 3a
       0.024389697 0.23908666 0.009970462 0.0011809262
000390 3b d4 19 3e e1 f5 c6 bc ce 90 6c 3d 22 37 e1 3d
       0.15022366 -0.024287166 0.057755284 0.10996844
0003a0 4e 80 b6 bd d9 ce 6c be 2a c0 21 be d6 88 4b 3e
       -0.08911191 -0.23125781 -0.15795961 0.19876418
0003b0 ff fd 14 3e e2 6a 09 be 71 a8 dc 3d 9c 2e 23 be
       0.14550017 -0.13419679 0.10774315 -0.15935749
0003c0 14 e2 09 3d ae 23 89 bd 98 87 8e be 93 76 11 3d
       0.03366287 -0.066962585 -0.27837825 0.03551347
0003d0 51 b7 2d 3d 39 20 bc bd 45 f6 4d be 8e f4 6f bd
       0.042411152 -0.091858335 -0.20113476 -0.058582835
0003e0 ad ae 69 3d 6b 58 67 bd 25 c4 52 3d 9f 4a fd 3d
       0.05705135 -0.056480806 0.05145659 0.123677485
0003f0 3f da d2 bc e2 c4 94 3d ff 08 24 3e ef 66 20 bd
       -0.025738833 0.07264115 0.16019057 -0.039160665

bias_ih_l0 f4 [128]
000000 bb 51 a6 3c 89 d9 27 bd 61 f2 43 3e e5 d0 e7 3d
       0.020302644 -0.040978942 0.19135429 0.1131914
000010 44 33 ee 3b d3 35 39 3e 17 8f 56 3e 2b 98 40 bd
       0.007269295 0.18086939 0.20953022 -0.04702012
000020 f4 a2 4a 3d 51 fa 26 3e d9 f9 20 3e bf 6c f6 bd
       0.04947181 0.16306426 0.1572031 -0.120324604
000030 69 05 20 3e 6f a3 03 3f 0a 1f 02 be cb e6 38 3e
       0.15627064 0.51421255 -0.12707153 0.1805679
000040 3d fe 8a 3d 06 c2 18 3e 7a 2e 72 3e a0 c7 98 3c
       0.06786773 0.14917764 0.23650542 0.018649876
000050 45 f4 69 3e dd 1f 83 bc 80 2a 09 be f8 88 3a bc
       0.22847088 -0.016006405 -0.13395119 -0.011385195
000060 22 63 b7 bb b5 13 be 3d a6 64 9c 3d 57 56 93 3d
       -0.0055965343 0.092811026 0.07636385 0.071942024
000070 93 4d 0f 3e 16 dd 2f 3e 9e e1 64 3e 59 aa 13 3d
       0.13994436 0.17174181 0.22351691 0.036051128
000080 39 f9 2f 3e 3d 30 51 3e 73 1a 55 bb 9d 7f a2 bd
       0.17184915 0.20428558 -0.0032516986 -0.079344966
000090 5b 43 df bc cb 8d 03 3e 13 2e b0 bb 1d a5 48 3e
       -0.027253797 0.12847058 -0.005376586 0.19594236
0000a0 e3 79 4f 3e e4 61 82 3e 5c 0d 9c 3e c7 b8 51 3e
       0.2026134 0.2546531 0.30478942 0.20480643
0000b0 19 01 d3 bb 16 f2 84 3e 41 4f 16 3e c8 41 26 3e
       -0.00643934 0.25965947 0.1467867 0.16236031
0000c0 69 96 97 bd 79 28 6d 3e 36 cd 43 3e d3 e7 77 3e
       -0.07401735 0.2315997 0.1912125 0.24209528
0000d0 6f 95 fd 3d 83 c8 ed 3d c5 79 ba bd 75 90 bb 3d
       0.12382018 0.1161051 -0.09105257 0.09158412
0000e0 e5 4b d0 3d 4c b3 4f 3e 32 3c aa 3d 4a 15 60 3e
       0.10170726 0.2028324 0.083122626 0.21883121
0000f0 bb 1f ba bd 63 f1 a6 3d a8 ef 28 3d e2 46 02 3d
       -0.09088083 0.081515096 0.04124418 0.03180588
000100 2b 47 be bd 6d 26 6e 3d 5a 6f c3 3d 1c f0 30 be
       -0.09290918 0.058142114 0.09542723 -0.17279094
000110 cd b4 67 3c 5a 66 36 3d 0c 05 01 3e c1 28 09 3e
       0.014142227 0.044531204 0.12599581 0.13394453
000120 51 bb c3 3d 0d ac 67 bd 27 98 05 3e 1c 74 b3 3d
       0.09557212 -0.056560565 0.13046323 0.087623805
000130 b8 38 50 3d ff c9 06 3d af 06 f6 3d 05 4d 8f bd
       0.05083534 0.032907482 0.120129935 -0.06997112
000140 96 aa 0d be 54 b9 db bd 4f e5 0a 3e 4c d8 a9 bd
       -0.13834605 -0.10728708 0.13564037 -0.082932085
000150 d8 00 86 3d fc 21 44 be ee 3d a6 bd 72 57 20 3e
       0.0654313 -0.19153589 -0.08117281 0.15658358
000160 3b a7 0b be 8e 82 b8 bd 8e ed c1 3d 3c 0e 16 3d
       -0.13638012 -0.09009276 0.09469138 0.03663467
000170 4d b4 13 3c f8 1e e8 bd 20 55 b9 bc 78 c1 b7 3d
       0.009015155 -0.11334032 -0.022623599 0.08972448
000180 0a d5 a5 bd a3 4d 8a 3e b0 c2 8c 3e 16 98 1c 3e
       -0.080972746 0.27012357 0.27492285 0.15292391
000190 9b 03 05 3e ca d5 53 3e 67 16 4b 3e da 6c 43 3d
       0.12989657 0.20687023 0.19832765 0.04771123
0001a0 f4 e9 e2 3c e5 34 7b 3e 0f 2c 59 3e db 1c e6 bd
       0.027699448 0.24531896 0.21208213 -0.112359725
0001b0 77 e8 0e ba d5 cc e6 3e fe f3 a0 3d 4e 49 48 3e
       -0.000545151 0.4507815 0.07859038 0.19559214
0001c0 ff a5 cb 3d 47 54 aa bd 40 32 0b 3e 22 af 13 3e
       0.099437706 -0.08316856 0.13593388 0.14422277
0001d0 f8 84 0b 3d f4 71 19 3e 17 90 b5 bc e8 e7 86 bd
       0.034062356 0.14984876 -0.022163434 -0.06587201
0001e0 13 ef 58 3e 8c 9d 17 3e 93 5b 6f 3e 5f ff 56 bd
       0.2118495 0.14806193 0.23374777 -0.052489635
0001f0 72 be af bd 88 28 04 3d 34 0e 37 3e 62 6c 38 3c
       -0.085812464 0.032265216 0.17876512 0.011256309

bias_hh_l0 f4 [128]
000000 82 53 7f 3e ec c0 5f 3e e9 ea f8 3d 3e 4f 64 bd
       0.249342 0.21850938 0.121541806 -0.055739634
000010 4f 78 cf 3d 5d 7f 89 3e e8 e9 17 bd 7c bc 69 3d
       0.10130369 0.26854983 -0.037088305 0.05706452
000020 87 39 03 3e 0f d7 70 3e 30 7a b9 3e 91 1a b5 3d
       0.12814914 0.23519538 0.36226034 0.08842958
000030 5d 93 20 3e fe 03 06 3f 0f 55 d1 3d c3 33 6d 3e
       0.15681215 0.5234984 0.10221302 0.23164277
000040 b2 cb 89 3c f8 78 8f 3d 02 c6 15 3e 7c 8b d7 bc
       0.016820762 0.07005495 0.14626315 -0.026311629
000050 f3 23 6f 3e 42 57 bf 3d 8d 48 24 3e 13 cc ad bd
       0.23353557 0.09342815 0.16043301 -0.0848619
000060 c3 97 e6 bd 3e 27 1e 3c 13 52 26 3d 5e 84 c6 bc
       -0.11259415 0.009652911 0.040605616 -0.02423304
000070 fa c3 29 3e 4a a7 48 3e ca 5f a9 3d 70 2a 85 3d
       0.16578665 0.19595066 0.082702234 0.06502235
000080 9f 2d 1a 3d e0 c0 d9 3e 6e 23 f7 3d 5b 50 cd 3c
       0.037641164 0.42529964 0.120673046 0.02506273
000090 8a f7 89 bc 52 44 1d bd 1f 91 03 be ae 91 c0 bd
       -0.016841669 -0.038395233 -0.12848328 -0.09402786
0000a0 71 c9 71 bd b6 8f 9b 3d f6 d1 64 3e d0 db ca 3d
       -0.05903 0.0759577 0.22345719 0.09905207
0000b0 76 6b 0d 3e 20 a6 8b 3e d9 39 1e bc 5c 1d b5 3d
       0.13810524 0.2727518 -0.009657347 0.088434905
0000c0 ca aa d6 bb 4b 72 e9 bc 00 46 3d 3d f5 ea 60 3d
       -0.0065511214 -0.028496882 0.046209335 0.054911572
0000d0 31 08 ee 3d da ab 20 3d fa 4c 5c 3d c2 55 65 bd
       0.11622656 0.03922639 0.053784348 -0.05598999
0000e0 6d 2b 01 3e a9 ae 7d 3e 7f 8e c9 bb 0b 94 02 b9
       0.12614222 0.24773659 -0.00615102 -0.00012452916
0000f0 75 4c dc 3d cf d4 e2 bd d5 57 a0 bd aa c4 55 3e
       0.107567705 -0.11075746 -0.07829253 0.20875803
000100 91 e7 b0 3d 1e d2 9b 3d 60 0c bf bd 96 f6 0e be
       0.08637918 0.07608436 -0.09328532 -0.13961253
000110 cd 7b b3 3d 20 7e 20 be 11 29 a0 bd 2b 79 08 3e
       0.087638475 -0.15673113 -0.07820333 0.13327472
000120 23 1f 29 be bf 15 2a 3e aa da 62 3d 99 a1 47 3e
       -0.16515784 0.16609858 0.055384316 0.19495238
000130 ab 0f 44 3c 16 a8 d8 3d f5 20 c7 3d 9d bc 16 3d
       0.011966626 0.10578935 0.09723083 0.03680097
000140 52 87 4a bd 2d d8 82 3d b0 1a 17 be 93 aa 77 3c
       -0.049445458 0.063888885 -0.14756274 0.015116352
000150 87 30 e6 3d 99 71 19 be 65 7c 4e 3d 05 f1 bc 3d
       0.112397246 -0.1498474 0.0504116 0.09225658
000160 90 eb 93 bd 62 9f 07 3e 94 45 e0 bd e8 26 58 3d
       -0.07222664 0.13244393 -0.10950771 0.05277148
000170 d3 0f 0f be 1b a5 1b be f5 42 4f 3e 6e fe b7 bd
       -0.1397088 -0.15199701 0.20240386 -0.089840755
000180 3c d0 3b 3e 77 00 7c 3e 2a 83 32 3e b2 3a e8 bd
       0.18341154 0.24609552 0.17432848 -0.1133932
000190 84 4a 31 bd 07 59 61 3e d5 c1 fc 3d 9f b3 f8 3d
       -0.043283954 0.22006617 0.12341658 0.12143635
0001a0 56 f1 90 3d 60 1e 84 3e 90 16 21 3e e1 92 bb bd
       0.07077281 0.25804424 0.15731263 -0.09158874
0001b0 0d 63 f0 3b 68 b0 9e 3e 3f cc 13 3e aa 68 98 3e
       0.0073360265 0.30993962 0.14433382 0.29767352
0001c0 a0 78 7d 3e b9 05 cb bc de 2a b0 bd 0c 9f 04 3e
       0.24753046 -0.024783002 -0.08601926 0.12951297
0001d0 3a 67 8a 3c 65 ff 24 bd 28 23 ca 3d 78 35 62 3e
       0.016894925 -0.040282626 0.09869987 0.22090709
0001e0 10 bc b1 3d ee 3b 8c 3e 01 e7 b4 3c 67 19 08 3e
       0.08678448 0.27389473 0.022082807 0.1329094
0001f0 c8 41 42 3e de af cb 3d 37 25 d4 3d 44 94 9b 3d
       0.18970406 0.099456534 0.10358661 0.07596639

weight_ih_l0_reverse f4 [128, 2]
000000 e4 6b 1b 3e e5 8c 07 be dc 43 80 3e c8 ea 04 3e
       0.15177876 -0.13237341 0.25051773 0.12980187
000010 9e e5 b0 bd e5 ed cd bc a9 a0 7d 3e 8d 8c 43 be
       -0.08637546 -0.025137851 0.24768318 -0.19096585
000020 7b 33 78 3e ed 0a 45 3e ab df 85 bd 8f c9 83 be
       0.24238388 0.19242449 -0.06536802 -0.25739715
000030 f7 43 a9 3d 17 82 ae 3e d3 5c 1d ba e7 a9 8e be
       0.082649164 0.34083626 -0.00060029066 -0.27864
000040 2b 88 82 3d bc 85 71 be 71 6c 83 bd df 67 0e 3e
       0.06373628 -0.23586172 -0.06417168 0.13906811
000050 52 83 88 be e5 ab 39 3e ef a0 7e 3d 60 3b 9a bd
       -0.2666269 0.18131979 0.062165197 -0.07530856
000060 d4 be b5 be 8b ab f8 3e 4e 3f 6c be 70 8e 88 be
       -0.35497153 0.48568377 -0.23071024 -0.2667117
000070 27 dd 04 3e 23 c8 78 3d 85 d1 59 bd a7 20 06 3e
       0.12974988 0.06073774 -0.05317833 0.13098393
000080 dc 11 f8 bd d7 b9 0c 3e e5 f3 68 bd 88 b1 73 bd
       -0.121127814 0.13742767 -0.05687322 -0.05949548
000090 50 4c 3a be 0d f8 1c 3d 27 19 8c bd 9e a1 9a 3d
       -0.18193173 0.038322497 -0.06840735 0.07550357
0000a0 69 30 61 be cc 92 d5 3e a4 df 31 be 46 49 ca bb
       -0.21991123 0.4171356 -0.17370468 -0.0061732857
0000b0 b7 b4 1b be be 25 02 3e 70 98 a2 3e 2f 27 d8 3c
       -0.15205656 0.1270971 0.31756926 0.026385872
0000c0 43 b5 88 bd 42 58 70 3c e2 42 21 be 7f fb 1c be
       -0.06675198 0.01466948 -0.1574817 -0.15330313
0000d0 83 19 ac 3d a6 ef 25 3d 2f 71 a7 bd 6a 03 66 3d
       0.084033035 0.04051175 -0.08175885 0.0561556
0000e0 3e 40 5c be c7 ad fa 3e 7d de d6 3d 64 1e c3 bc
       -0.21508881 0.48960707 0.10491655 -0.023818202
0000f0 db dc 42 3e 1d ef 52 be 7a 0b 28 bd d5 5f 1c be
       0.19029562 -0.20599027 -0.04102657 -0.15270932
000100 3e e2 9d 3c d2 7d 95 3d e9 4b 9d 3e a7 5d fd bc
       0.01927292 0.07299389 0.30721977 -0.030928446
000110 d6 81 07 bd cd 36 21 3b da f9 0a 3e 50 5c 69 be
       -0.033082806 0.0024599314 0.13571873 -0.2278912
000120 65 cc 9d 3e 5e ae 34 3e b6 d4 74 3e 7c 6d 7a bd
       0.30820003 0.17644641 0.23909268 -0.06113957
000130 b0 97 92 bc 09 a9 93 3e d9 00 9b 3d a1 a3 bb bd
       -0.017894596 0.288399 0.07568521 -0.09162069
000140 e1 f8 27 3e f7 c5 d3 bd 4e 28 79 3d f0 a7 b0 bd
       0.16403534 -0.10340493 0.060829453 -0.086257815
000150 76 43 a3 3d da ee 0b be 82 8f c4 3d a6 94 22 be
       0.079718515 -0.13665333 0.095976844 -0.15877017
000160 e1 c1 c5 be cc 69 21 3f a8 92 98 bd 3f ab 89 be
       -0.3862448 0.6305206 -0.074498475 -0.26888463
000170 e3 6b ff 3d 22 73 cb bd 5f 53 d3 bc df 79 1d bd
       0.1247175 -0.09934069 -0.02579659 -0.038446303
000180 81 b1 59 3d b4 f3 60 3c fc a2 a8 bc af 17 d8 bc
       0.053147797 0.013729978 -0.02058553 -0.02637848
000190 3d b2 1f be 51 8c 2f 3c 90 d2 33 be c6 3c d5 3c
       -0.15595336 0.010714606 -0.17560792 0.026029956
0001a0 eb 80 ca bd 5a a3 0c 3f a2 76 2e bc a0 aa c1 bd
       -0.098878704 0.54936755 -0.010648401 -0.09456372
0001b0 ea e2 e9 3d 0d 50 47 be c7 d7 3a bc 09 47 1a bd
       0.114202335 -0.1946413 -0.011403984 -0.0376654
0001c0 90 a3 b2 3d 46 e4 42 be ab 0d 47 3d ed ed 9d be
       0.08722603 -0.19032392 0.04859702 -0.30845585
0001d0 fe 87 57 3e b1 be 7c bd 97 cb f5 3d ed b6 89 be
       0.2104797 -0.061705295 0.12001722 -0.26897374
0001e0 aa 67 94 be f0 3a 06 3f df f1 a1 3e d2 e4 b1 bc
       -0.2898534 0.5243368 0.31629845 -0.021715555
0001f0 44 dd 89 3e 28 eb 1f be 5b a4 ea 3d 68 ff 82 be
       0.26926625 -0.15617049 0.114571296 -0.25585485
000200 39 31 df bd 89 6c 49 be c0 f5 13 3e ad 7a a7 3e
       -0.1089806 -0.19670309 0.14449215 0.32710782
000210 1c 61 50 3e f1 95 3d be c4 dc 9f bd db 19 4e be
       0.20349544 -0.1851423 -0.078057796 -0.2012705
000220 a2 41 c2 3c 24 04 b7 3e 82 65 6f bd e8 8f 49 3e
       0.023712937 0.35745347 -0.058446415 0.19683802
000230 ea 65 e9 3d 74 26 86 be ef 30 7a be e8 b6 7a 3e
       0.11396392 -0.26201212 -0.24432729 0.24483836
000240 6d 54 9d be 6a 9b a5 3b 7d f5 36 be e1 05 91 3e
       -0.30728474 0.005053927 -0.17867084 0.28324798
000250 60 96 a3 3e 30 28 2f be 8b 63 b1 3e 3a c0 8c bd
       0.31950665 -0.17105174 0.34646258 -0.06872602
000260 21 1b 9a 3e e7 f6 40 be cc 5d c7 3e 6d de 20 bc
       0.30098823 -0.18844186 0.3893875 -0.009818655
000270 f0 85 98 be 9f 53 b6 bc 3e 94 cb bd 9f c5 82 3e
       -0.29789686 -0.02225667 -0.09940384 0.25541398
000280 60 93 87 ba ac 85 1d 3e 57 4f 4c bd f7 88 bb 3e
       -0.0010343604 0.15383023 -0.049880352 0.36627933
000290 a3 f9 e4 3d 34 f1 a2 bd 1e e0 8b be 0a 81 38 be
       0.11180427 -0.07956162 -0.27319425 -0.18017974
0002a0 7e 76 94 be b7 50 84 be 9f 7e d8 3e c5 42 47 be
       -0.28996652 -0.2584283 0.42284104 -0.19459064
0002b0 1c e4 b7 be 8f a5 47 3e 7b 62 85 3d 69 d1 8d 3e
       -0.3591622 0.1949675 0.06512924 0.2769883
0002c0 41 a0 2c be a1 2c 94 3e cd a9 9b 3e 9f db 39 3d
       -0.16858007 0.289403 0.30402985 0.045375463
0002d0 93 68 a1 be e3 f0 ff 3d 95 70 8c 3e a8 2e 9f be
       -0.31525096 0.12497117 0.27429643 -0.31090283
0002e0 0a bc e8 be 88 9c a0 3e 11 3b cf 3d c2 09 02 3e
       -0.45455962 0.31369424 0.10118688 0.12699035
0002f0 ce 8d 86 3e 7d 1f 87 be fd e6 28 3e 0a eb 7a 3d
       0.26280063 -0.2639121 0.16494365 0.061259307
000300 c8 87 87 3e 89 c0 58 bd 58 d8 8d 3e 31 5d cc 3d
       0.2647078 -0.05291799 0.2770412 0.09978712
000310 e7 2a df b9 ad 27 30 be cd e5 8b bc c6 5b 6e be
       -0.0004256584 -0.17202635 -0.017077351 -0.23277196
000320 c4 33 58 3e 16 80 83 3e cb 65 d0 bd ee d2 80 be
       0.21113497 0.2568366 -0.101756655 -0.25160927
000330 e3 bc e2 bd ec 46 67 3e 46 e2 27 3e d4 17 86 be
       -0.110711835 0.22585648 0.1639491 -0.26190054
000340 ed 93 79 bc 43 c6 22 be a5 ba 06 3d 04 e4 01 be
       -0.015233022 -0.15895943 0.03289284 -0.12684637
000350 b9 78 f2 3d 9d ca 47 be 10 80 22 3e 82 9c 6d be
       0.11839432 -0.19510885 0.15869164 -0.23204234
000360 9b 1f a4 bd 10 23 db 3e 83 01 fc bc 70 bd 33 be
       -0.08013841 0.42800188 -0.03076244 -0.17552733
000370 53 f7 63 3e 6c 74 5e bd 37 3a ae bd 9d a3 4b be
       0.22262315 -0.054310247 -0.08507197 -0.19886632
000380 e0 cb 55 3e b8 c3 d8 3d fd 8e 6c 3b c5 4b 4b be
       0.20878553 0.105842054 0.003609597 -0.19853123
000390 71 46 6c be ce fd 06 3d c7 4d cd be 89 eb 01 3d
       -0.23073746 0.03295689 -0.40098402 0.031718764
0003a0 53 0e 37 be 42 69 34 3e 67 96 81 bd 1f df 42 3d
       -0.17876558 0.17618278 -0.06327515 0.047576066
0003b0 27 b9 ad bd 37 5b 30 be 30 f2 63 3d 98 d7 db bc
       -0.08482581 -0.17222296 0.05565089 -0.026836202
0003c0 ef f8 07 3e af 31 ea 3c b7 e5 2e 3e 2d 35 a4 be
       0.13278554 0.028588144 0.17079817 -0.3207182
0003d0 c0 fc be bd 23 37 e4 3d 17 c9 14 3e 03 04 b2 3d
       -0.09325552 0.11143329 0.14529835 0.086921714
0003e0 ca c2 c7 3d cb 40 2e 3e 1a 7c ff 3d 12 af 9d be
       0.0975395 0.17016904 0.12474842 -0.3079763
0003f0 b5 b0 cd 3d d7 da 06 be 92 33 07 be 0e 1f 4b be
       0.1004347 -0.13169418 -0.13203266 -0.19836065
