sgan-dataset/logs/hotel/models_03_Mar_2019_00_24_04/model_registrar-799.pt (torch_old, 575417 bytes, 45 tensors)

weight_ih_l0 f4 [128, 6]
0	0xbda8b634	-0.082378775
1	0xbb53d82e	-0.0032324898
2	0xbe0a8599	-0.13527526
3	0x3e17c04b	0.14819448
4	0xbdaef6fa	-0.08543201
5	0x3e0ea195	0.13928826
6	0xbea981a4	-0.3310672
7	0xbe9bdd65	-0.30442348
8	0xbe4f24b3	-0.20228843
9	0xbe14cc2c	-0.1453101
10	0x3df648da	0.12025614
11	0xbd81a2ca	-0.06329878
12	0xbe3066a9	-0.17226662
13	0xbe1857de	-0.14877269
14	0xbdf443a1	-0.11926962
15	0xbd6fc4f4	-0.05853744
16	0xbe6f333d	-0.2335939
17	0x3eb757f5	0.35809293
18	0xbd07476d	-0.0330271
19	0x3da0e40f	0.07855999
20	0x3e374f1f	0.17901276
21	0xbdf849fa	-0.12123485
22	0x3d9180b4	0.07104626
23	0x3d8f7747	0.07005172
24	0xbd8e6e65	-0.0695465
25	0x3d8cf974	0.06883517
26	0xbe3bbe7e	-0.18334386
27	0x3e408505	0.18800743
28	0x3e13c0ac	0.14428967
29	0xbe16beec	-0.14721268
30	0x3e32f3f8	0.17475879
31	0x3dbd8eb6	0.092557356
32	0x3dda5b85	0.10661987
33	0xbd8b2b63	-0.06795385
34	0x3e072b89	0.13200201
35	0xbcb0f4d6	-0.021601122
36	0xbe2f1d81	-0.17101099
37	0xbd9305cd	-0.07178841
38	0xbe4dcb02	-0.20096973
39	0x3d92a35f	0.07160067
40	0xbca9583b	-0.020671954
41	0xbdbfdfb6	-0.09368841
42	0xbc7b18c0	-0.015325725
43	0x3e2312fa	0.15925208
44	0xbe075915	-0.13217576
45	0x3d26a7d6	0.040687405
46	0xbd0dd3c1	-0.034625772
47	0x3d6ecbb6	0.058299743
48	0x3e240612	0.1601794
49	0x3dea1b13	0.11430945
50	0x3d920793	0.07130351
51	0x3dbd245a	0.09235449
52	0x3d21d5db	0.03951059
53	0x3d751385	0.05983307
54	0xbde6ff9c	-0.11279222
55	0xbe66416b	-0.22485892
56	0xbdd851ce	-0.10562478
57	0x3e5df4a9	0.21675362
58	0xba2630f5	-0.00063396926
59	0xbe6f9e76	-0.23400292
60	0x3ce3c9c6	0.027806174
61	0x3e0ca4bf	0.1373472
62	0xbe81aded	-0.25328007
63	0xbe3dcd52	-0.18535355
64	0xbd401822	-0.046898015
65	0x3c8c27f4	0.017108895
66	0xbd0cd4be	-0.034382574
67	0xbb958394	-0.0045628045
68	0xbdfaa8db	-0.12239238
69	0x3d95c138	0.07312244
70	0x3e210deb	0.15727966
71	0x3df2c6db	0.11854335
72	0xbe22df58	-0.15905511
73	0xbe2f5e27	-0.1712576
74	0x3dd01d36	0.101618215
75	0xbcf36a16	-0.029713672
76	0x3d30e057	0.043182697
77	0xbe30dd63	-0.17271952
78	0xbccebdda	-0.025237013
79	0x3ddd5da3	0.108088754
80	0x3e29e1a9	0.16589989
81	0xbdcc401b	-0.09973165
82	0xbd5a54e3	-0.05330361
83	0x3b49c6db	0.0030788693
84	0xbdb5dbc9	-0.08879811
85	0xbd83591e	-0.06413482
86	0xbe3672fe	-0.17817304
87	0x3e505750	0.20345807
88	0x3d10d0ce	0.03535538
89	0x3ce40012	0.027832065
90	0xbdd87b5a	-0.105704024
91	0x3e29a799	0.1656784
92	0xbd667e63	-0.056272876
93	0x3ea22340	0.3166752
94	0xbc0ec3ad	-0.008713645
95	0xbcdc6cf5	-0.026907424
96	0x3e1eb4dc	0.1549868
97	0x3ddfde57	0.1093108
98	0xbb196778	-0.002340762
99	0x3dcc4af4	0.09975234
100	0x3e14595a	0.1448721
101	0xbdd28cda	-0.102807716
102	0xbd644d3f	-0.05573773
103	0xbe3a1971	-0.18173768
104	0x3d7710aa	0.060318626
105	0xbd8da77b	-0.0691671
106	0xbe01e6e1	-0.1268573
107	0x3e0026a8	0.12514746
108	0x3b7afc69	0.003829742
109	0xbd874636	-0.066051885
110	0x3e88b9d0	0.26704264
111	0xbcb77ab0	-0.02239737
112	0x3e16c361	0.14722969
113	0x3dcc7bc7	0.09984546
114	0xbc56ea37	-0.013117365
115	0x3d1e2b93	0.038615774
116	0xbe33521d	-0.17511792
117	0x3dae3e59	0.085079856
118	0x3dfce98c	0.12349233
119	0x3e63b090	0.22235322
120	0xbd51e5b9	-0.05124447
121	0x3d893683	0.066998504
122	0x3e82c49c	0.25540626
123	0xbcb2c039	-0.021820175
124	0x3db93394	0.09043041
125	0xbe0c7278	-0.13715541
126	0xbd3580c6	-0.04431226
127	0xbd00c73c	-0.031440005
128	0x3d8a1899	0.06742973
129	0x3e13eba4	0.14445359
130	0xbe95f8d5	-0.29291406
131	0x3e5c308e	0.21502897
132	0xbc84abc5	-0.016195187
133	0xbe186b6f	-0.14884733
134	0xbe096b6c	-0.13419884
135	0xbcc22fad	-0.023704374
136	0x3df74be0	0.12075019
137	0x3d6a4a4e	0.05719977
138	0xbcd2a225	-0.025712082
139	0xbdbc4cfe	-0.091943726
140	0xbdbc3068	-0.0918892
141	0x3aaa3a93	0.0012987427
142	0x3ce60a65	0.028081128
143	0x3e2f7a7a	0.17136565
144	0x3c17c140	0.009262383
145	0xbdce9785	-0.10087494
146	0xbdc3b6fd	-0.095563866
147	0xbdcdc26e	-0.1004685
148	0xbdd79035	-0.10525552
149	0xbdb16b7d	-0.0866308
150	0xbe01d150	-0.12677503
151	0xbd95c4d2	-0.07312931
152	0xbd1a44ea	-0.037663378
153	0x3e262ec3	0.16228776
154	0x3c857377	0.01629041
155	0x3e240732	0.1601837
156	0xbe01a5cb	-0.12660901
157	0xbae7a14e	-0.0017671974
158	0x3cbfce04	0.023413666
159	0xbca5ae91	-0.020224841
160	0x3c3f25ac	0.0116666965
161	0x3e76d4d4	0.24104625
162	0xbe3b3220	-0.1828084
163	0x3db4d49a	0.08829613
164	0x3ea1cd79	0.31602076
165	0xbd96b0ef	-0.07357966
166	0xbddba078	-0.10723966
167	0x3e6d7178	0.23187816
168	0x3df8d513	0.12150016
169	0x3e04d378	0.12971294
170	0xbb19a94d	-0.0023446858
171	0xbe2845df	-0.16432904
172	0x3c31e02e	0.010856671
173	0x3c6754ce	0.01411934
174	0xbe07c126	-0.13257274
175	0xbdec6ea3	-0.1154454
176	0xbe515789	-0.20443548
177	0x3c13dda5	0.009025012
178	0x3ca926e4	0.020648427
179	0xbca1b18d	-0.019737983
180	0x3d04a0fe	0.032380097
181	0x3d7fc32b	0.062441986
182	0x3d1e726b	0.038683336
183	0xbea59ce9	-0.32346275
184	0xbe140235	-0.14453967
185	0xbe06af6b	-0.13152854
186	0xbd9eecde	-0.077600226
187	0x3dbe2c40	0.09285784
188	0x3deaa190	0.11456597
189	0xbe88ae02	-0.26695257
190	0xbe345148	-0.17609131
191	0xbe544410	-0.20729089
192	0x3d62447d	0.055241097
193	0x3e08b5bf	0.1335058
194	0xbe2f368e	-0.17110655
195	0xbd3e0332	-0.046389766
196	0x3df9fe0a	0.12206657
197	0xbdb1e25e	-0.08685754
198	0xbd489e00	-0.048978806
199	0xbdee3a3d	-0.11632202
200	0xbdd82cee	-0.10555445
201	0xbd62cb57	-0.0553697
202	0x3cdfc70f	0.027316598
203	0xbcff8f22	-0.03119618
204	0xbe1ef633	-0.15523605
205	0xbd0550f6	-0.032547913
206	0xbd93d5f4	-0.07218543
207	0xbd82d73d	-0.0638871
208	0xbd8a5a24	-0.06755474
209	0x3de23aa6	0.110463426
210	0xbd4ed56d	-0.050496507
211	0xbb9527df	-0.004551872
212	0x3e034653	0.12819795
213	0xbe85eed9	-0.2615879
214	0x3c0d1750	0.008611515
215	0xbe171479	-0.14753903
216	0x3dc18539	0.09449238
217	0xbdab4924	-0.0836356
218	0xbdcf4c0a	-0.10121925
219	0x3da037c5	0.07823137
220	0xbe134280	-0.14380836
221	0xbdeee00c	-0.11663827
222	0x3db86cac	0.090051025
223	0xbd34999d	-0.04409181
224	0x3de47ce3	0.11156633
225	0xbe8c0bd5	-0.27352777
226	0xbddf85b7	-0.10914176
227	0xbe14d934	-0.14535981
228	0x3d5a90ad	0.05336063
229	0xbcb236d3	-0.021754658
230	0xbdc547bf	-0.09632825
231	0x3c84bad8	0.016202375
232	0xbe0eabc1	-0.13932706
233	0x3d586382	0.052829273
234	0x3c271e60	0.010200113
235	0xbdfd5cb1	-0.12371195
236	0xbd301054	-0.04298432
237	0x3c81e9b5	0.01585851
238	0xbe027546	-0.12740049
239	0x3dc4b4a1	0.09604765
240	0x3dc1fea7	0.09472399
241	0xbcf03999	-0.02932434
242	0xbddf0397	-0.108893566
243	0x3be3a4b4	0.0069471244
244	0x3dd80156	0.1054713
245	0x3e1878a8	0.14889777
246	0xbe4258cb	-0.18979184
247	0xbde532ab	-0.11191305
248	0x3e3026ff	0.17202376
249	0x3dc95a9d	0.09831736
250	0x3d354a0f	0.04426008
251	0xbdd88aee	-0.10573374
252	0x3e1af568	0.15132678
253	0xbe1bad63	-0.1520286
254	0xbdbc3455	-0.09189669
255	0xbd831d6d	-0.06402097

weight_hh_l0 f4 [128, 32]
0	0xbdc8cc03	-0.09804537
1	0xbd7d934a	-0.061908044
2	0xbd95c517	-0.073129825
3	0x3dd521b0	0.10406816
4	0xbc4f1d9a	-0.012641335
5	0xbd17ff61	-0.037108783
6	0xbe192758	-0.14956415
7	0x3c32c477	0.010911099
8	0x3decd306	0.11563687
9	0x3e02fb28	0.12791121
10	0x3c604b77	0.013689867
11	0x3e2f8270	0.17139602
12	0xbcf55083	-0.029945618
13	0x3e0ff6aa	0.14058939
14	0x3dd6f326	0.10495596
15	0x3e2b55b9	0.1673192
16	0x3dc7f690	0.09763825
17	0xbe4bbbae	-0.19895813
18	0x3d951e0e	0.07281123
19	0xbe061f4f	-0.13097881
20	0xbde1502c	-0.1100162
21	0xbe1afbf6	-0.15135178
22	0xbda9d64d	-0.08292828
23	0xbe1844a2	-0.14869931
24	0x3e1d9cc0	0.15391827
25	0xbd898472	-0.06714715
26	0x3df1b260	0.118016005
27	0x3e100cf4	0.14067441
28	0x3de049d3	0.10951581
29	0x3e06a189	0.13147558
30	0x3c9f32af	0.019433348
31	0xbe3b2324	-0.18275124
32	0x3ddc8a69	0.10768587
33	0xbde06ba0	-0.10958028
34	0x3e39955b	0.18123381
35	0xbd802669	-0.06257326
36	0xbd4f951f	-0.050679322
37	0x3e7ac929	0.24490799
38	0xbe2ca2f6	-0.1685904
39	0xbe5fc26e	-0.21851513
40	0x3e092553	0.13393144
41	0xbde438f5	-0.11143676
42	0xbcbb0751	-0.022830637
43	0xbde7e6f1	-0.113233455
44	0xbe2b157e	-0.16707417
45	0x3e3edf44	0.18639857
46	0x3e0f6f1f	0.14007233
47	0x3e18809d	0.14892812
48	0x3e47063a	0.19435969
49	0x3dd57cfe	0.10424231
50	0xbe056126	-0.1302534
51	0xbd5a8a36	-0.053354464
52	0x3d97b27c	0.0740709
53	0xbe099061	-0.13433982
54	0xbe602b59	-0.21891536
55	0x3b4f8a45	0.0031668108
56	0xbe0c6d6a	-0.13713613
57	0xbda1c5d2	-0.07899059
58	0xbea0d722	-0.31414133
59	0xbd88a2d1	-0.0667168
60	0xbd923ca8	-0.071404755
61	0x390f7f46	0.00013684956
62	0x3cd1eed3	0.025626576
63	0xbd28eb68	-0.041240126
64	0x3d9f069e	0.07764934
65	0xbda95ab5	-0.08269254
66	0xbd8083c3	-0.062751316
67	0x3ddf2f9d	0.108977534
68	0x3c69e158	0.014274918
69	0x3db07e9e	0.086179
70	0xbe51b0d0	-0.20477605
71	0xbe3a2505	-0.18178184
72	0xbcf6c305	-0.03012229
73	0x3ddaf131	0.10690535
74	0xbdd5c592	-0.10438074
75	0x3de175ff	0.11008834
76	0xbdf5829a	-0.11987801
77	0xbdaca9d6	-0.08430831
78	0x3df4939b	0.11942216
79	0xbddb8d01	-0.10720254
80	0x3dd672aa	0.10471089
81	0xbda369b1	-0.079791434
82	0x3e0d7ff0	0.13818336
83	0xbe41f520	-0.18941164
84	0x3dee3d79	0.11632819
85	0x3e3e2d65	0.18572004
86	0x3c8883d5	0.016664425
87	0x3e325158	0.17413843
88	0x3dd0ab57	0.101889305
89	0x3d8f1110	0.06985676
90	0x3da6e649	0.08149392
91	0x3e6eeb08	0.23331845
92	0x3e06ba5f	0.13157032
93	0x3d6c6fb5	0.05772372
94	0xbd898dda	-0.06716509
95	0x3dd614e1	0.10453201
96	0x3d08fc17	0.033443537
97	0x3d9a27bc	0.0752711
98	0x3cbd238e	0.023088243
99	0x3dca5a60	0.09880519
100	0xbe0e0ae9	-0.1387135
101	0xbe06dc33	-0.13169937
102	0xbccecb56	-0.025243443
103	0x3e2aa5ef	0.16664861
104	0xbe2105f7	-0.15724932
105	0xbd749032	-0.059707828
106	0xbd68feb5	-0.056883533
107	0xbe449355	-0.19196828
108	0xbe3f7c60	-0.18699789
109	0xbdf69711	-0.120405324
110	0xbe05ca77	-0.13065515
111	0xbe1625ce	-0.14662859
112	0xbd2b1b7e	-0.041774265
113	0x3e7fcae4	0.2497974
114	0xbdd4e024	-0.10394314
115	0xbd2ee59b	-0.042699438
116	0xbdbac641	-0.09119845
117	0x3d9874c7	0.074441485
118	0x3e03412b	0.12817828
119	0xbdfa5cab	-0.12224706
120	0xbdba55e5	-0.09098414
121	0x3db08240	0.08618593
122	0xbe43c1c8	-0.1911689
123	0x3e086d30	0.13322902
124	0xbd456825	-0.048195023
125	0x3d9875e1	0.074443586
126	0x3dfea93c	0.12434623
127	0x3d5d3fa5	0.054015774
128	0xbe2689fd	-0.16263576
129	0xbd52ff31	-0.0515129
130	0x3e140b66	0.14457473
131	0xbe1bf56a	-0.15230337
132	0x3e1c99c3	0.1529303
133	0xbe11d6f4	-0.14242154
134	0xbcdc484b	-0.02688994
135	0x3e0dabeb	0.13835113
136	0xbe2e73b5	-0.17036326
137	0xbe261626	-0.16219386
138	0xbd32e569	-0.043675814
139	0xbe08de15	-0.13365968
140	0xba650230	-0.00087359827
141	0x3dd6120e	0.104526624
142	0x3dd0f220	0.10202432
143	0xbe245ff3	-0.16052227
144	0xbd3c8371	-0.04602379
145	0xbe0fdbb1	-0.1404865
146	0xbddac674	-0.10682383
147	0x3db62a8b	0.08894833
148	0x3d24c58a	0.04022745
149	0x3dfe0041	0.12402392
150	0x3d9d22ca	0.07672651
151	0xbe01d493	-0.12678747
152	0x3d70129e	0.058611505
153	0xbde769f6	-0.11299507
154	0xbe243284	-0.16034895
155	0xbe311fd1	-0.17297293
156	0x3e3cd8ca	0.18442073
157	0xbd99630f	-0.07489597
158	0x3e10a709	0.14126219
159	0xbdfa8506	-0.122324035
160	0x3e33e8a1	0.1756921
161	0xbd413a12	-0.04717452
162	0x3d1b74b1	0.037953082
163	0xbe37e4f9	-0.1795844
164	0xbd66c676	-0.05634161
165	0xbd87cdf4	-0.06631079
166	0x3c3e9c9a	0.011634016
167	0xbd7cc432	-0.061710544
168	0xbd81218b	-0.06305226
169	0xbd46eaf9	-0.04856393
170	0x3e0486c8	0.1294204
171	0xbe38c4c3	-0.18043809
172	0xbe31ce6b	-0.17363898
173	0x3d7ebcab	0.062191647
174	0xbcf75fc3	-0.03019703
175	0xbd5623b3	-0.05228014
176	0xbcd50843	-0.026004916
177	0x3e0a07f1	0.13479592
178	0xbd5d7675	-0.054068048
179	0x3e0be12c	0.13660115
180	0x3d7bd7c0	0.061485052
181	0x3d4cc435	0.049991805
182	0xbc915907	-0.017742647
183	0xbd9806b7	-0.07423156
184	0xbd73495f	-0.059396144
185	0xbdba1fc8	-0.09088093
186	0x3e11e4fa	0.14247504
187	0x3e400299	0.18750991
188	0x3d630688	0.05542615
189	0x3dd6aa6a	0.10481723
190	0x3e181b80	0.1485424
191	0x3d96f2e4	0.073705465
192	0x3e24b276	0.16083702
193	0x3d23fd39	0.040036414
194	0xbe2f3e88	-0.17113698
195	0x3e328364	0.17432934
196	0xbb8e2517	-0.0043379175
197	0xbd87ee2a	-0.06637223
198	0x3c979245	0.018502364
199	0xbe02b8c1	-0.1276579
200	0xbd8786c7	-0.066175036
201	0x3d713f05	0.05889799
202	0xbd24499f	-0.040109273
203	0xbdeac090	-0.1146251
204	0xbad651c3	-0.0016351271
205	0x3e3b3ecd	0.18285675
206	0xbb95699c	-0.0045597088
207	0x3d3b369f	0.045706388
208	0x3ca2b119	0.019859837
209	0xbe003554	-0.12520343
210	0xbd6b1779	-0.057395432
211	0xbe10d133	-0.14142303
212	0x3dcb232d	0.099188186
213	0x3e175e5f	0.14782093
214	0x3e1feac9	0.15616907
215	0xbc9f6138	-0.019455537
216	0xbe2ec388	-0.17066777
217	0x3cc5bc06	0.024137508
218	0x3df26579	0.118357606
219	0x3d08ab0a	0.03336624
220	0xbe37790d	-0.17917271
221	0x3e20bb51	0.15696456
222	0xbe14531b	-0.14484827
223	0x3d2ffcfb	0.04296587
224	0x3e2446f5	0.16042693
225	0xbda219ad	-0.079150535
226	0xbd60da39	-0.054895613
227	0x3d300c63	0.042980563
228	0xbd652480	-0.055943012
229	0x3dc5d119	0.09659023
230	0x3d1bc819	0.038032625
231	0xbc3e91dc	-0.011631455
232	0x3b42060e	0.002960566
233	0xbd82bb74	-0.0638341
234	0xbc7be4a9	-0.015374341
235	0xbdf70e41	-0.120632656
236	0x3e47e212	0.19519833
237	0xbcf91f11	-0.030410321
238	0x3d7d2068	0.061798483
239	0x3d967352	0.07346214
240	0x3e08a10c	0.13342685
241	0xbe168751	-0.14700057
242	0xbe024d4e	-0.12724802
243	0xbcdf1a60	-0.027234256
244	0xbe0ffb87	-0.14060794
245	0xbd881da2	-0.06646277
246	0xbdb51e3a	-0.08843656
247	0xbe21ba3c	-0.15793699
248	0x3d9766c4	0.07392648
249	0x3e2e070b	0.16994874
250	0x3c611464	0.013737772
251	0x3dbba33e	0.09161995
252	0x3deeb8ab	0.11656316
253	0x3e1db06e	0.15399334
254	0x3d12b2b5	0.03581496
255	0x3dc9aad3	0.09847035

bias_ih_l0 f4 [128]
0	0xbdc81646	-0.09769873
1	0xbd3ce77e	-0.046119206
2	0xbca1e41f	-0.019762097
3	0xbe213474	-0.15742666
4	0xbe25137b	-0.16120712
5	0x3e093a7d	0.13401218
6	0xbd3d0e21	-0.046156053
7	0xbe24e4c2	-0.16102889
8	0x3cd9796d	0.026547158
9	0xbac9d4cf	-0.0015398505
10	0x3e245a67	0.16050111
11	0x3e089620	0.13338518
12	0x3d5f7186	0.054551624
13	0xbe29f2c1	-0.1659651
14	0x3d8cc758	0.06873959
15	0xbe1e298f	-0.15445541
16	0xbc6f1fd4	-0.014594991
17	0x3e0fd22d	0.1404502
18	0xbcaa079d	-0.020755583
19	0x3df414b1	0.11918009
20	0xbbadb526	-0.0053011356
21	0xbc40ed19	-0.0117752785
22	0xbd23024e	-0.03979712
23	0xbd3d7929	-0.046258125
24	0x3dc06dc9	0.0939594
25	0x3d717a54	0.05895455
26	0xbd44bc0c	-0.048030898
27	0x3d936d13	0.07198539
28	0xbcd5f1de	-0.026116308
29	0xbdf2aea7	-0.118497185
30	0xbe563373	-0.20918064
31	0xbd89f51f	-0.06736206
32	0x3e2b2253	0.16712312
33	0xbc9e11c7	-0.019295586
34	0xbe154e84	-0.14580733
35	0x3d9b5b42	0.075857654
36	0xbe23e95e	-0.16006991
37	0xbdae29b7	-0.0850405
38	0xbe135e4c	-0.1439144
39	0xbc6e6d0c	-0.014552366
40	0xbe027d6f	-0.12743162
41	0x3db256a3	0.08707931
42	0xbd8139c4	-0.06309846
43	0x3d046555	0.0323232
44	0xbd54a1c0	-0.05191207
45	0x3e1fdffe	0.1561279
46	0xbd18a5d0	-0.037267506
47	0xbe01dcb0	-0.12681842
48	0x3dbfd248	0.0936628
49	0x3dec1945	0.11528257
50	0xbd3a8b6b	-0.045543116
51	0x3d95839d	0.07300494
52	0xbe3df18a	-0.18549171
53	0x3dc4c5c0	0.0960803
54	0x3dde16a3	0.10844161
55	0x3dccecae	0.100060806
56	0x3d606694	0.054785326
57	0x3e063c2e	0.13108894
58	0x3def6de9	0.116908856
59	0x3e1c3462	0.15254357
60	0xbce6834c	-0.02813878
61	0xbe291206	-0.16510782
62	0xbe227be5	-0.15867575
63	0xbe329e1b	-0.17443125
64	0x3def3d51	0.11681617
65	0x3e038284	0.12842757
66	0xbd0ff41c	-0.03514491
67	0x3d8b58fe	0.06804083
68	0xbd8e7371	-0.069556125
69	0x3c4f817b	0.012665148
70	0x3dcd22d2	0.10016407
71	0xbdb52a1d	-0.08845923
72	0x3cdbfe9b	0.026854804
73	0x3dc38990	0.09547722
74	0xbe045f54	-0.1292699
75	0x3d305827	0.04305282
76	0xbe0263f2	-0.12733439
77	0xbd691dfd	-0.056913365
78	0xbd8863a2	-0.066596285
79	0xbe548c78	-0.2075671
80	0xbe18dfb7	-0.1492909
81	0xbdfe340a	-0.124122694
82	0x3e08864a	0.13332477
83	0xbce16df7	-0.027518256
84	0xbc85f185	-0.016350517
85	0x3deb73af	0.11496674
86	0x3dac501a	0.08413716
87	0xbe18b20f	-0.14911674
88	0x3e26d908	0.16293728
89	0xbe008f70	-0.12554717
90	0x3e0a34ad	0.13496657
91	0xbe379000	-0.17926025
92	0xbe0f38bc	-0.13986486
93	0x3e041aa1	0.12900783
94	0x391020fd	0.00013745199
95	0xbd9d271c	-0.07673475
96	0x3dc6e7f2	0.09712209
97	0xbd30693b	-0.043069106
98	0x3cd1b89d	0.025600726
99	0xbdcd347a	-0.10019775
100	0xbb02e1f1	-0.0019971097
101	0x3d74a0a7	0.059723523
102	0xbc220f92	-0.009891408
103	0xbe13c941	-0.14432241
104	0xbdc37951	-0.09544624
105	0x3d853837	0.06504863
106	0xbd92f320	-0.07175279
107	0x3d8fd58e	0.07023154
108	0x3d10806b	0.03527872
109	0xbe3ef798	-0.18649137
110	0x3de8f4c7	0.113748126
111	0x3ce216e8	0.027598813
112	0x3de16dbe	0.1100726
113	0x3d6718fc	0.05642031
114	0x3d7eaea6	0.062178276
115	0x3ad7d51e	0.0016466712
116	0x3dab3b7a	0.08360954
117	0xbcb0378f	-0.021510867
118	0xbdae6c8c	-0.085167974
119	0x3c5316bc	0.012883838
120	0xbdfdb821	-0.123886354
121	0x3dc82bef	0.09774005
122	0x3dd5a680	0.10432148
123	0x3bfea061	0.0077705835
124	0x3ddaf784	0.10691741
125	0x3daf227e	0.08551501
126	0xbe18beea	-0.14916578
127	0xbdb878dd	-0.09007428

bias_hh_l0 f4 [128]
0	0xbe116587	-0.14198886
1	0xbd073735	-0.033011634
2	0xbe1d3ce8	-0.15355265
3	0x3b84ebbf	0.0040564234
4	0xbc8ecc70	-0.017431468
5	0xbde10d20	-0.109888315
6	0xbe175a7d	-0.14780612
7	0x3c8775d1	0.016535671
8	0x3de4bb18	0.11168498
9	0x3e2746be	0.1633558
10	0xbdc482e1	-0.09595276
11	0x3c0c3450	0.008557394
12	0xbe3c26d5	-0.18374188
13	0x3e036217	0.12830387
14	0x3ddfda46	0.10930304
15	0x3bc37a04	0.005965473
16	0xbdcfffac	-0.101561874
17	0x3e0833e3	0.13301043
18	0xbdee7b60	-0.11644626
19	0x3d9966b3	0.074902914
20	0x3e11cb09	0.14237608
21	0x3e2cff0c	0.16894168
22	0xbc38ac1a	-0.011271501
23	0x3c93c81d	0.018039757
24	0xbb8f813e	-0.0043794205
25	0x3d3382cf	0.04382592
26	0x3cd1174b	0.025523802
27	0xbca08900	-0.019596577
28	0xbddca80d	-0.10774241
29	0xbe02e88a	-0.12784019
30	0xbe0f0367	-0.13966142
31	0xbc8caa5a	-0.017171074
32	0x3da07d54	0.078364044
33	0x3bdea15c	0.006794138
34	0x3dbc2c7c	0.09188172
35	0xbe0569c2	-0.13028625
36	0x3e17dac2	0.14829543
37	0x3d9f572c	0.077802986
38	0xbb42c8c3	-0.0029721714
39	0xbe2333f6	-0.1593779
40	0xbd5f6bd2	-0.054546185
41	0x3cfcc7e8	0.030857041
42	0xbd34e518	-0.044163793
43	0xbcec77d2	-0.028865729
44	0xbd600734	-0.05469437
45	0xbcbef232	-0.023308847
46	0x3d8cabdb	0.06868716
47	0xbd9d1821	-0.07670618
48	0xbd181b25	-0.037135262
49	0x3d41fb29	0.047358666
50	0xbc8cd28b	-0.017190238
51	0xbdddc25b	-0.10828086
52	0xbd2a5469	-0.041584406
53	0xbd88a25e	-0.06671594
54	0xbdeac045	-0.11462454
55	0x3d939b1f	0.072073214
56	0xbe185e3a	-0.14879695
57	0xbe35ccf0	-0.17753959
58	0xbe0be850	-0.13662839
59	0x3dbc1c48	0.09185082
60	0xbd66d9a2	-0.056359895
61	0x3d8ceba0	0.068808794
62	0xbcd9d5ce	-0.026591208
63	0x3e0201c3	0.12695985
64	0xbe2a6ffc	-0.16644281
65	0xbe0fb6ba	-0.14034548
66	0x3e0a2c24	0.13493401
67	0x3c4b5295	0.012409826
68	0x3e3f9856	0.18710455
69	0x3d384376	0.04498621
70	0xbdb01573	-0.08597841
71	0xbd2a43c2	-0.041568525
72	0x3e2c25c6	0.16811284
73	0x3af3a576	0.001858874
74	0xbabc5293	-0.0014367871
75	0x3d772de8	0.060346514
76	0x3d5aa403	0.05337907
77	0x3c1c2795	0.0095309215
78	0xbe13c3b4	-0.14430124
79	0xbd7b1ed0	-0.061308682
80	0xbd66cecd	-0.056349564
81	0x3df2365b	0.11826774
82	0x3d70baa9	0.058771763
83	0xbe1dcc4d	-0.15409966
84	0xbe317c35	-0.17332537
85	0x3d5f49dd	0.0545138
86	0xbe2348cc	-0.15945739
87	0x3dcaac33	0.09896126
88	0xbd9abf16	-0.07555978
89	0xbca3136b	-0.01990672
90	0x3e0d3e79	0.13793363
91	0xbd83eb60	-0.064413786
92	0xbe037df0	-0.1284101
93	0xbe193a46	-0.14963636
94	0xbcc7faf8	-0.024411663
95	0x3cdf52b7	0.027261121
96	0xbc92c804	-0.01791764
97	0x3dbae4bb	0.09125658
98	0xbe05a199	-0.13049926
99	0x3e022a6f	0.127115
100	0x3dc5df23	0.096617006
101	0xbd1716e6	-0.036887072
102	0x3e41377e	0.18868825
103	0x3e2a42f8	0.16627109
104	0xbe1908cb	-0.1494476
105	0x3db2fe67	0.0873993
106	0x3e2d9562	0.16951516
107	0x3e16a785	0.14712341
108	0x3d4250a6	0.047440194
109	0x3bdb3ec6	0.006690833
110	0x3d09a2a1	0.03360236
111	0x3d11415a	0.035462715
112	0x3e03a6a3	0.12856536
113	0xbda499b0	-0.08037126
114	0x3e2b49e9	0.16727413
115	0xbdf988b3	-0.121842764
116	0x3d3f1c14	0.046657637
117	0x3e2da764	0.16958386
118	0x3d8869b2	0.06660785
119	0x3e14f6ec	0.14547318
120	0x3d82f45d	0.06394265
121	0x3d964cb1	0.073388465
122	0x3e1ffc5a	0.15623608
123	0x3c64f3af	0.013974114
124	0xbcb7b01a	-0.022422839
125	0x3da3c8f2	0.07997312
126	0xbdfa288b	-0.12214764
127	0x3de2a3ce	0.110663995

weight_ih_l0 f4 [128, 2]
0	0x3e0a42b8	0.13502014
1	0x3d4ed179	0.050492737
2	0xbc53a8c5	-0.012918656
3	0xbd8d1122	-0.068880334
4	0x3dae265d	0.08503411
5	0x3d2385b2	0.039922424
6	0xbbaaeb8f	-0.005216069
7	0xbd81a90f	-0.063310735
8	0xbd06dc4f	-0.032924946
9	0xbe6dc798	-0.2322067
10	0xbdaea79a	-0.08528061
11	0x3e0b0581	0.13576318
12	0xbdb59c05	-0.08867649
13	0xbdd4601d	-0.10369895
14	0xbd117768	-0.035514265
15	0xbe6e6c35	-0.23283465
16	0x3cd8e29d	0.026475245
17	0xbe80a862	-0.25128466
18	0xbd32b552	-0.04362995
19	0x3e0a6cb7	0.13518034
20	0xbed43670	-0.41447783
21	0xbe938dbf	-0.2881908
22	0xbba3ff77	-0.005004819
23	0xbdd4adde	-0.10384725
24	0xbb938a26	-0.0045025526
25	0xbd65822b	-0.05603234
26	0x3d77c9ba	0.060495116
27	0xbddc89ec	-0.10768494
28	0x3d849382	0.064734474
29	0xbbe25a4e	-0.006907738
30	0xbd94ceaf	-0.07265984
31	0x3e6a67c1	0.22891141
32	0xbd97893d	-0.07399223
33	0x3d1d1f19	0.038359735
34	0x3dc6920d	0.09695826
35	0x3dd31acf	0.10307848
36	0xbc041e5a	-0.008063877
37	0xbc641d36	-0.01392298
38	0x3e7aff93	0.24511556
39	0x3e8bf02c	0.27331674
40	0xbc26a5ae	-0.010171337
41	0xbea2f429	-0.31826904
42	0xbd69e928	-0.05710712
43	0xbdcdaee1	-0.10043121
44	0xbe4eb0c8	-0.20184624
45	0xbdada64e	-0.08478986
46	0xbe07da34	-0.13266832
47	0xbd5bcfff	-0.053665157
48	0x3e1fb2af	0.15595506
49	0xbdd66a9f	-0.10469555
50	0xbed5352f	-0.41642138
51	0xbd64a1b3	-0.05581827
52	0x3e408a89	0.18802847
53	0x3d148609	0.03626064
54	0xbe4744eb	-0.19459884
55	0x3dc7b6d8	0.097516716
56	0xbf520a95	-0.82047397
57	0xbe8e5890	-0.27801943
58	0x3cc1a123	0.023636406
59	0xbe1e62bb	-0.1546735
60	0x3e31bece	0.17357942
61	0xbe31fac1	-0.17380811
62	0xbe42fd57	-0.19041954
63	0xbe4131b8	-0.18866622
64	0xbd11cb48	-0.035594255
65	0xbe83ad61	-0.25718215
66	0x3e59d355	0.21272023
67	0x3d56612b	0.05233876
68	0x3e6a5dab	0.22887294
69	0xbc8a4ad8	-0.016881391
70	0x3c3f2dcd	0.011668635
71	0xbe10f60c	-0.1415636
72	0x3e70ea58	0.23526895
73	0xbe92b886	-0.28656405
74	0xbb42e2ba	-0.002973719
75	0xbd5030a3	-0.050827634
76	0xbd434269	-0.047670756
77	0x3d5734db	0.05254064
78	0x3e41cba7	0.18925343
79	0xbc54318b	-0.012951265
80	0x3ca34035	0.019928077
81	0xbccb1576	-0.024790507
82	0x3da7c929	0.08192665
83	0x3e10239d	0.14076085
84	0xbe318481	-0.17335702
85	0xbe4e4cd0	-0.20146489
86	0xbe39fd61	-0.18163063
87	0x3d9a9995	0.07548825
88	0x3d3b6ab2	0.04575605
89	0x3e9488e2	0.29010683
90	0x3c7c4677	0.0153976595
91	0xbed3c200	-0.41358948
92	0x3eea6f3e	0.45787996
93	0x3e9b729f	0.30360886
94	0x3cdc73d1	0.026910694
95	0x3bf679cd	0.007521844
96	0xbdaa364f	-0.0831114
97	0xbe3b00a7	-0.18261968
98	0xbc9e077d	-0.01929068
99	0xbde08cc1	-0.10964347
100	0xbd1396d4	-0.036032513
101	0x3c8f6aa4	0.017506905
102	0xbeb1fc0e	-0.34762615
103	0xbe361cbc	-0.17784399
104	0x3ef493a4	0.4776889
105	0x3dc5f3ff	0.09665679
106	0x3e94b2b7	0.290426
107	0x3d7a9d08	0.061184913
108	0x3d1bd3ac	0.038043663
109	0xbded7c09	-0.115959235
110	0xbd6046aa	-0.05475489
111	0xbe28e819	-0.16494788
112	0x3e6bb4a5	0.23018129
113	0x3e2e6ca1	0.17033626
114	0xbdf1dc07	-0.11809545
115	0x3d694810	0.05695349
116	0x3d901551	0.07035316
117	0xbe2f383b	-0.17111294
118	0x3e7c1eb3	0.24621086
119	0x3db6824f	0.08911573
120	0xbd6165ad	-0.055028606
121	0xbe58cc57	-0.211717
122	0x3dfef97a	0.12449928
123	0x3a44112a	0.0007479364
124	0x3d7519f3	0.0598392
125	0xbe642d91	-0.22283007
126	0xbe4b94aa	-0.1988093
127	0xbe88cf7a	-0.26720792
128	0xbb2754f1	-0.0025532807
129	0x3e514e6f	0.20440076
130	0xbe4e163d	-0.2012567
131	0xbea16290	-0.3152051
132	0xbe8f3f26	-0.27977866
133	0x3b96b65d	0.004599376
134	0xbeb703d2	-0.35745102
135	0xbd1d39dc	-0.038385257
136	0xbc9a6b81	-0.01885009
137	0xbe15e898	-0.14639509
138	0x3e8b19eb	0.2716821
139	0xbea09bbc	-0.31368816
140	0xbea514bc	-0.32242382
141	0xbd27e2ae	-0.040987663
142	0x3ea221b7	0.31666347
143	0xbdc7496d	-0.09730802
144	0x3e824815	0.2544562
145	0x3e09f3bf	0.13471888
146	0xbcf8e591	-0.030382903
147	0x3e8d72d4	0.2762667
148	0x3e2d39d1	0.16916586
149	0x3eafbc36	0.3432328
150	0xbe01aee6	-0.12664375
151	0x3ae7a40d	0.0017672792
152	0xbe1ce21e	-0.15320632
153	0xbe6cbb2d	-0.23118277
154	0x3e46b1ad	0.19403715
155	0x3e523df4	0.20531446
156	0xbe6e9883	-0.23300366
157	0xbecce2a4	-0.40016663
158	0xbe2df2f2	-0.16987208
159	0x3e7abe63	0.2448669
160	0xbe5e3998	-0.21701658
161	0x3e5f6b4b	0.21818273
162	0xbe722097	-0.23645245
163	0x3e31794d	0.17331429
164	0x3cb631f6	0.02224062
165	0x3e94b3cb	0.2904342
166	0x3e1482d1	0.14503027
167	0x3e04dc23	0.129746
168	0xbe33b008	-0.1754762
169	0xbd8f0c3a	-0.06984754
170	0xbe7189d4	-0.23587734
171	0x3e103060	0.14080954
172	0xbd1852d5	-0.03718837
173	0xbdb7ba5e	-0.089710936
174	0x3e2a5687	0.1663457
175	0xbd391ace	-0.04519158
176	0x3e61b5af	0.22041963
177	0x3eba4bf3	0.3638607
178	0x3f0b7b44	0.54484963
179	0x3ec5b3c6	0.3861372
180	0xbd4f0dd9	-0.050550316
181	0x3e8913bd	0.26772872
182	0x3e2fc3de	0.17164561
183	0xbe132cc8	-0.14372551
184	0x3e487176	0.19574532
185	0x3c5581ec	0.013031464
186	0x3e2b0719	0.16701926
187	0x3ea48b39	0.32137468
188	0x3ca886fc	0.020572178
189	0xbd95f073	-0.07321253
190	0xbe8dcc35	-0.2769486
191	0x3d45ed15	0.048321802
192	0xbdd22ec3	-0.10262825
193	0xbe8e75e3	-0.27824315
194	0x3efd3bd0	0.49459696
195	0x3e877c9d	0.2646226
196	0x3e25fdc3	0.16210084
197	0xbd80ee66	-0.06295471
198	0x3e05beb3	0.13061027
199	0xbd920a17	-0.07130831
200	0xbd5baf4f	-0.053633984
201	0xbec93daf	-0.39304873
202	0xbb12285a	-0.0022301883
203	0xbd07675a	-0.033057548
204	0xbd230ad0	-0.039805233
205	0xbeacbd43	-0.33738145
206	0xbe31d990	-0.1736815
207	0xbe85fbec	-0.26168764
208	0x3d732991	0.059365813
209	0x3dc29ebf	0.09502935
210	0xbe3c8cfc	-0.18413156
211	0xbdb8a6ac	-0.09016165
212	0x3d3cf04f	0.046127614
213	0x3d5de365	0.05417194
214	0x3c6d5d77	0.014487616
215	0xbe337d6e	-0.17528316
216	0x3e861dce	0.26194614
217	0x3d189984	0.03725578
218	0x3cfc78be	0.030819293
219	0xbe333a8a	-0.175028
220	0x3eb4947e	0.3526954
221	0x3e06785e	0.13131854
222	0xbdf529ea	-0.11970885
223	0x3e04b419	0.12959327
224	0xbe0ce4e2	-0.13759187
225	0xbdaab78b	-0.08335789
226	0xbdd93cfd	-0.10607336
227	0xbde79119	-0.11306972
228	0xbd957abd	-0.07298801
229	0xbe5163c4	-0.20448214
230	0x3d52ab6c	0.051433012
231	0x3ce40815	0.027835885
232	0x3e0a7c04	0.1352387
233	0x3d9cab28	0.07649833
234	0x3d6f7df0	0.058469713
235	0xbc8d1e5a	-0.017226387
236	0x3e9c2ca9	0.30502823
237	0xbe0ad64f	-0.13558315
238	0xbe401a8f	-0.18760131
239	0xbe66f2a1	-0.22553493
240	0x3edb0fc9	0.4278548
241	0x3e1111fc	0.14167017
242	0xbe75bff4	-0.23999006
243	0xbe1c14e1	-0.1524234
244	0x3e49c94f	0.197057
245	0xbe956de7	-0.2918541
246	0x3e994d24	0.29941666
247	0x3f0e3549	0.55550057
248	0xbec7ccd6	-0.39023465
249	0xbe7e2ea0	-0.24822474
250	0xbb0b99e0	-0.0021301433
251	0xbe5fc17a	-0.21851149
252	0x3d373b5e	0.04473435
253	0xbda82e2c	-0.082119316
254	0x3a94c8e9	0.001135138
255	0xbe838456	-0.25686902

weight_hh_l0 f4 [128, 32]
0	0xbdc142a5	-0.094365396
1	0x3d993d9e	0.07482456
2	0xbe1b5f4e	-0.15173075
3	0x3da013da	0.078162864
4	0x3c7ce7dd	0.01543614
5	0x3e266de0	0.16252851
6	0xbdb5f98e	-0.088854894
7	0xbd77f6a2	-0.06053794
8	0xbdf4c68d	-0.11951933
9	0xbc49bf73	-0.012313711
10	0x3dae768e	0.08518706
11	0x3db7f615	0.08982483
12	0x3e6210b4	0.22076684
13	0xbdd9fd5e	-0.10644029
14	0xbd379dde	-0.04482829
15	0xbd32e480	-0.043674946
16	0x3db745ca	0.08948858
17	0xbdea6882	-0.114457145
18	0x3be8799d	0.0070945756
19	0x3db8dad2	0.09026112
20	0x3d9be6d1	0.07612384
21	0xbe07fac5	-0.13279255
22	0xbe2861cd	-0.16443558
23	0x3d19ff9d	0.037597287
24	0xbe45247f	-0.19252203
25	0x3e3c3ce2	0.183826
26	0xbe51893a	-0.20462504
27	0x3e518d45	0.20464046
28	0x3cef73c9	0.029230015
29	0xbe64583c	-0.22299284
30	0xbcc3f6e7	-0.023921443
31	0x3dde7c59	0.10863561
32	0xbde7564a	-0.11295755
33	0x3ae64c27	0.0017570303
34	0x3e392001	0.18078615
35	0xbe03c1c4	-0.12866884
36	0x3dada96d	0.08479581
37	0x3e4944b7	0.19655119
38	0xbd888be2	-0.066673055
39	0xbd6026c1	-0.05472446
40	0xbdd466b0	-0.103711486
41	0x3d9b7c2a	0.07592042
42	0xbea1e854	-0.31622565
43	0xbe4659ac	-0.19370145
44	0x3e7c60c8	0.24646294
45	0x3cb01526	0.02149446
46	0x3d096640	0.03354478
47	0xbd995ab4	-0.074880034
48	0x3c774121	0.015091212
49	0x3cb781c3	0.022400742
50	0xbbcb3aeb	-0.006202092
51	0x3dc2c328	0.09509879
52	0x3e83b5fb	0.25724778
53	0xbe8a853e	-0.2705478
54	0x3d42ea57	0.047586765
55	0x3e814b56	0.2525279
56	0x3dd723e6	0.10504894
57	0xbcc4dbb6	-0.024030548
58	0x3ce26d65	0.027640054
59	0xbdb79e89	-0.08965785
60	0x3d3a8e01	0.04554558
61	0x3da255d1	0.079265244
62	0x3d79d169	0.060990725
63	0xbdd90958	-0.10597485
64	0xbe15786c	-0.14596719
65	0x3d7b41e1	0.061342124
66	0x3d21754d	0.039418507
67	0xbe1085c2	-0.14113525
68	0xbd7e8f66	-0.062148474
69	0x3d41053d	0.047124136
70	0xbdaf7a75	-0.08568279
71	0xbc8f99cf	-0.017529396
72	0xbe1a26a4	-0.15053803
73	0xbe5d9ce2	-0.21641877
74	0xbd0e1fd7	-0.034698334
75	0xbd906f9a	-0.07052536
76	0xbd5120ae	-0.051056556
77	0x3ea1382d	0.3148817
78	0x3cdbe3dd	0.026842052
79	0xbe4177fb	-0.18893425
80	0xbc6125c9	-0.013741919
81	0x3d4ad25b	0.049517017
82	0xbe75c86d	-0.24002238
83	0xbe72d3e8	-0.23713648
84	0xbccc5cba	-0.02494656
85	0xbe0aff87	-0.13574038
86	0xbe50db3e	-0.20396134
87	0x3e8b11f1	0.27162126
88	0xbdede916	-0.11616723
89	0x3cff7f78	0.031188712
90	0xbdbc7969	-0.09202845
91	0xbde7b5e9	-0.113139935
92	0xbd900c6d	-0.0703362
93	0x3d9907f5	0.07472221
94	0x3e018ddc	0.12651771
95	0xbe674126	-0.22583446
96	0x3deb9fd7	0.115050964
97	0x3b42f783	0.002974958
98	0x3d1ac1aa	0.03778235
99	0xbdabda74	-0.08391276
100	0x3d19ae47	0.03751972
101	0x3e3b57b0	0.18295169
102	0x3e181cce	0.14854738
103	0x3dfd29a2	0.123614565
104	0x3e21811e	0.1577191
105	0x3dd62501	0.10456277
106	0x3dec58c6	0.1154037
107	0xbd66183a	-0.056175448
108	0xbd81c581	-0.06336499
109	0xbd154c25	-0.03644957
110	0xbd93c296	-0.07214849
111	0xbeaa5c0f	-0.3327336
112	0xbe6621eb	-0.22473876
113	0xbdf27e91	-0.11840547
114	0xbe092a8c	-0.13395137
115	0xbe50e454	-0.203996
116	0x36aa6ae0	5.0788367e-06
117	0x3d5ca31b	0.053866487
118	0xbd62c282	-0.05536128
119	0xbb68b932	-0.0035510776
120	0x3c27a2b7	0.010231665
121	0x3e4bc863	0.1990066
122	0xbdaae12f	-0.083437316
123	0xbd865f19	-0.06561107
124	0x3dbf4820	0.093399286
125	0xbd071016	-0.032974325
126	0x3e5b812f	0.21435998
127	0xbe6a8d6c	-0.2290551
128	0xbd85fffa	-0.06542964
129	0x3e2044e5	0.15651281
130	0xbd10f370	-0.03538841
131	0x3d5b0846	0.053474687
132	0x3e01fbeb	0.12693755
133	0x3e9248eb	0.28571257
134	0x3df900b5	0.12158338
135	0xbd83d66e	-0.064373836
136	0x3ca08382	0.019593958
137	0x3dcafac0	0.09911108
138	0xbe242ef5	-0.16033538
139	0xbcadf8e0	-0.021236837
140	0x3c042f5d	0.008067933
141	0x3d53ecff	0.05173969
142	0x3e071925	0.13193186
143	0xbdbdde2f	-0.09270894
144	0xbe59b142	-0.21259025
145	0x3abb6760	0.0014297776
146	0xbd212b0f	-0.039347704
147	0xbd8931ec	-0.06698975
148	0x3e22c40b	0.15895097
149	0x3dba385c	0.09092781
150	0x3da16ac6	0.078816935
151	0xbda42a81	-0.080159195
152	0xbe2e6ebe	-0.17034432
153	0x3d4c5c1c	0.04989253
154	0xbe39fbab	-0.1816241
155	0x3d1ed024	0.038772717
156	0x3a2bffe4	0.0006561263
157	0x3e04404b	0.12915151
158	0x3e0ba7f7	0.13638292
159	0xbd971cdf	-0.073785536
160	0xbd057627	-0.032583382
161	0xbd81ebfe	-0.0634384
162	0xbd9f7836	-0.077866
163	0xbe3b7357	-0.18305717
164	0xbcd8356b	-0.02639266
165	0x3e789870	0.242769
166	0xbe1cfe55	-0.15331395
167	0x3e4a212f	0.19739221
168	0x3d220b48	0.03956154
169	0xbe3b73a4	-0.18305832
170	0xbd61856b	-0.055058878
171	0x3dde0ab5	0.10841886
172	0x3d57e78e	0.052711062
173	0xbe369364	-0.17829663
174	0x3d9d87f1	0.076919444
175	0xbe20f488	-0.15718281
176	0xbe0f2d90	-0.13982224
177	0x3dc002f4	0.09375563
178	0xbdf98578	-0.1218366
179	0x3dd46d02	0.10372354
180	0xbdb15a88	-0.086598456
181	0xbdb3153d	-0.08744285
182	0xbe63cd86	-0.2224637
183	0x3dcb294e	0.099199876
184	0x3dfac61d	0.12244818
185	0x3e528e86	0.20562181
186	0x3e01aa05	0.12662514
187	0xbd9e490b	-0.077287756
188	0x3d2b5648	0.04183033
189	0xbe358d77	-0.17729746
190	0x3e70dfaf	0.23522829
191	0xbddbabc3	-0.1072612
192	0x3db750df	0.08950972
193	0x3cec8dcf	0.028876213
194	0x3c14ab0a	0.009073982
195	0xbd7161d5	-0.05893119
196	0x3e595ffd	0.21228023
197	0xbdb0b475	-0.086281694
198	0xbe38dd49	-0.18053164
199	0x3db98607	0.09058767
200	0xbe2b1570	-0.16707397
201	0xbd51a617	-0.051183786
202	0x3dcd36af	0.10020196
203	0x3df9e5f9	0.12202067
204	0x3da316b6	0.07963316
205	0x3e183550	0.14864087
206	0xbda925d8	-0.08259171
207	0xbe818fc9	-0.25305012
208	0xbda40e0f	-0.08010494
209	0xbd2e0fef	-0.042495664
210	0x3daacb0c	0.08339509
211	0xbdfc22dd	-0.12311337
212	0x3e56fc1b	0.20994608
213	0x3dae7aa8	0.085194886
214	0xbe3b2a2b	-0.18277805
215	0x3e2eb0ea	0.17059675
216	0xbd66c372	-0.056338735
217	0x3de3f9a2	0.11131598
218	0xbe05f0f6	-0.130802
219	0x3d74d414	0.059772566
220	0x3d6df7a4	0.058097497
221	0xbe030600	-0.12795258
222	0xbd7743e9	-0.0603675
223	0xbda03d1e	-0.07824157
224	0x3d456a1c	0.048196897
225	0x3e4d69c1	0.20059873
226	0xbcd5c293	-0.026093757
227	0x3c77e08a	0.015129218
228	0x3e0ffb6d	0.14060755
229	0xbd3b0200	-0.045656204
230	0x3d292d42	0.041302927
231	0x3dd9eeb6	0.106412336
232	0xbd8b9509	-0.068155356
233	0xbe5994fe	-0.21248242
234	0xbe248c43	-0.1606913
235	0x3e642874	0.22281057
236	0x3e27267a	0.16323271
237	0xbddaecc6	-0.10689692
238	0x3e0b3c1d	0.1359715
239	0xbe02f0a9	-0.12787117
240	0x3d379ab0	0.044825256
241	0xbdbecf20	-0.0931685
242	0xbe83809b	-0.25684056
243	0x3d3a7eac	0.04553096
244	0x3c724fc7	0.014789528
245	0xbd936208	-0.07196432
246	0xbe38ef6f	-0.18060087
247	0xbd92f1d6	-0.07175033
248	0x3ce8541a	0.028360415
249	0xbd979bdf	-0.07402777
250	0x3caebbc8	0.021329775
251	0x3e165fe6	0.1468502
252	0xbd541ed2	-0.051787205
253	0x3d8812ca	0.06644209
254	0x3e0e763c	0.1391229
255	0xbcb870ac	-0.022514664

bias_ih_l0 f4 [128]
0	0xbd0c796d	-0.03429549
1	0xbd364b5f	-0.044505473
2	0x3e26d3a8	0.16291678
3	0x3df52b71	0.119711764
4	0x3bda3f1e	0.006660356
5	0x3df40bb7	0.11916297
6	0x3e4d7a4e	0.20066187
7	0xbd6a8bdb	-0.057262283
8	0x3d42c0bb	0.047547083
9	0x3df35353	0.11881127
10	0x3e22dbc3	0.15904145
11	0xbe14da0a	-0.145363
12	0x3e0f29b5	0.13980754
13	0x3f02601d	0.5092791
14	0xbe017ef2	-0.12646082
15	0x3e411ff2	0.18859842
16	0x3d7a9b85	0.06118347
17	0x3e11273f	0.14175127
18	0x3e722e6a	0.23650518
19	0x3ca6f93e	0.02038252
20	0x3e622f57	0.22088371
21	0xbc5baae9	-0.013407447
22	0xbe02cddc	-0.12773842
23	0xbcf09a13	-0.029370343
24	0xbc31a2a7	-0.010842002
25	0x3da369f0	0.0797919
26	0x3d9345bc	0.07191035
27	0x3d857f79	0.06518454
28	0x3e066bf4	0.13127118
29	0x3e2385d3	0.15969019
30	0x3e56781e	0.20944259
31	0x3d2e1bed	0.0425071
32	0x3e34a11c	0.17639583
33	0x3e1541da	0.14575902
34	0xbcb9df93	-0.022689616
35	0xbdace2bc	-0.08441684
36	0xbce415e1	-0.027842464
37	0x3db53118	0.088472545
38	0xbb5e5a42	-0.003392831
39	0x3e52c85c	0.20584244
40	0x3e4ec895	0.20193703
41	0x3e5bdad8	0.21470201
42	0x3ea316ba	0.31853276
43	0x3e38e32b	0.18055408
44	0xbc2fbd80	-0.010726333
45	0x3e840730	0.25786734
46	0x3d9b199c	0.07573244
47	0x3e050ada	0.12992421
48	0xbda7eee6	-0.08199863
49	0x3e67551d	0.22591062
50	0x3e44ea52	0.19230011
51	0x3e77bae1	0.24192382
52	0x3e0415d5	0.12898953
53	0x3e03bed0	0.12865758
54	0xbdb85447	-0.0900045
55	0x3d8e6a65	0.06953887
56	0x3be8c2e8	0.0071033128
57	0x3e43df89	0.1912824
58	0x3d97590e	0.07390033
59	0x3e64717f	0.2230892
60	0xbdc24b61	-0.09487034
61	0x3dad40d7	0.08459633
62	0x3d08c4d1	0.033390824
63	0x3cb68396	0.022279542
64	0xbdc987e5	-0.09840373
65	0x3d6dce98	0.05805835
66	0x3d98b622	0.07456614
67	0xbe46dad4	-0.19419414
68	0x3d27b669	0.040945444
69	0x3dceca39	0.10097165
70	0x3dd21239	0.10257382
71	0x3e108f66	0.14117202
72	0x3dbfcf07	0.09365659
73	0xbdf29974	-0.11845675
74	0x3e052eb9	0.13006105
75	0x3d76b229	0.0602285
76	0x3d525530	0.051350772
77	0x3d04925e	0.03236615
78	0x3df69e26	0.12041883
79	0xbd98a6c0	-0.0745368
80	0xbe2a7a8a	-0.16648307
81	0xbdfd78bc	-0.12376544
82	0x3e0b0dfb	0.13579552
83	0xbdc40b43	-0.095724605
84	0x3d8ac83b	0.06776472
85	0xbe46cdf2	-0.194145
86	0xbdc7889c	-0.09742853
87	0x3e262902	0.1622658
88	0xbe086e81	-0.13323404
89	0xbd824118	-0.06360072
90	0x3dd28588	0.10279375
91	0x3d318140	0.043336153
92	0x3c12f0d5	0.008968552
93	0xbdd33261	-0.103123434
94	0xbc9a9ca9	-0.01887353
95	0x3d414c37	0.047191825
96	0xbdb048a3	-0.08607604
97	0x3e89d701	0.26921847
98	0x3e88b603	0.26701364
99	0x3e1bd287	0.15217029
100	0x3de0fe77	0.10986035
101	0x3e1b816a	0.15186086
102	0x3e3f7be4	0.18699604
103	0x3d1f3e0d	0.038877536
104	0x3cce18ef	0.025158374
105	0x3e494001	0.19653322
106	0x3e830050	0.25586176
107	0xbe04ffa8	-0.1298815
108	0xbc2471ec	-0.010036927
109	0x3ece5782	0.40301138
110	0x3d92684c	0.07148799
111	0x3e17c19e	0.14819953
112	0x3db50d9f	0.08840489
113	0xbdc6ca3c	-0.09706542
114	0x3e0c1773	0.1368082
115	0x3e0d5e97	0.13805614
116	0x3c53c5ff	0.012925624
117	0x3e19b8ae	0.15011856
118	0xbc9baae5	-0.019002387
119	0xbda881fc	-0.082279176
120	0x3e4f4c0d	0.20243855
121	0x3e07f677	0.13277613
122	0x3e6363be	0.22206017
123	0xbd9605ae	-0.07325302
124	0xbdda7cce	-0.10668336
125	0x3cb2e7a2	0.021838967
126	0x3e2893f7	0.16462694
127	0x3aa7978a	0.0012786251

bias_hh_l0 f4 [128]
0	0x3e476af7	0.19474398
1	0x3e5c246d	0.2149827
2	0x3dbead78	0.0931043
3	0xbd499a19	-0.049219225
4	0x3dce390a	0.10069473
5	0x3e53cec5	0.20684345
6	0xbd3c3d02	-0.04595662
7	0x3d3fc8cc	0.046822354
8	0x3e0140fb	0.12622444
9	0x3e438669	0.19094242
10	0x3eba6b28	0.3640988
11	0x3d81d349	0.063391276
12	0x3e0fb7a9	0.14034905
13	0x3f04c0ac	0.51856494
14	0x3dd29527	0.10282355
15	0x3e756cea	0.23967329
16	0x3c2613ae	0.010136528
17	0x3d804359	0.062628455
18	0x3e15c5f2	0.14626291
19	0xbcc959de	-0.024578985
20	0x3e675f05	0.22594841
21	0x3dc4a9dd	0.09602711
22	0x3e2aa531	0.16664578
23	0xbdd2a17b	-0.10284706
24	0xbdf155e1	-0.11783958
25	0xbb5c9c37	-0.0033662447
26	0x3d14143d	0.036152113
27	0xbcfddfea	-0.03099056
28	0x3e20e25b	0.15711348
29	0x3e3c5007	0.18389903
30	0x3d8c8cb2	0.06862773
31	0x3d926332	0.07147826
32	0x3d2ccd20	0.04218781
33	0x3ebbc9a8	0.3667729
34	0x3dcf545f	0.101235144
35	0x3ca3c3ce	0.019990828
36	0xbc8eca10	-0.017430335
37	0xbda08cb0	-0.07839334
38	0xbe018917	-0.12649952
39	0xbdac4b27	-0.08412772
40	0xbd748eb2	-0.059706397
41	0x3d137ba2	0.036006577
42	0x3e72e4bf	0.23720072
43	0x3d993078	0.07479948
44	0x3e09079e	0.13381812
45	0x3e8abb3a	0.27095968
46	0xbda54c20	-0.0807116
47	0x3d655ed5	0.055998642
48	0xbc6e1998	-0.014532469
49	0xbd0c068c	-0.03418593
50	0x3d41ba83	0.047297012
51	0x3d603733	0.054740142
52	0x3df89e72	0.12139596
53	0x3d541614	0.051778868
54	0x3d6097f8	0.05483243
55	0xbd9fd0ee	-0.07803522
56	0x3d012e50	0.031538308
57	0x3e71dae6	0.2361866
58	0xbc7be080	-0.015373349
59	0x3b877273	0.0041335165
60	0x3dd420cf	0.1035782
61	0xbddc855b	-0.10767623
62	0xbdb06d4a	-0.08614595
63	0x3e4c0362	0.19923165
64	0x3da5a6d7	0.08088463
65	0x3d9ba639	0.07600064
66	0xbde9c598	-0.11414641
67	0xbe24e14e	-0.16101572
68	0x3dea6060	0.11444163
69	0xbdcd6527	-0.10029059
70	0xbdd020f3	-0.101625346
71	0x3e0fdfd0	0.14050221
72	0xbe2b1549	-0.16707338
73	0x3dd56818	0.10420245
74	0x3d6134f9	0.05498216
75	0x3e2b941c	0.16755718
76	0x3c4c81a6	0.0124820825
77	0x3dd78c48	0.105248034
78	0x3dc7b86c	0.097519726
79	0x3d040931	0.032235328
80	0xbd9ee39c	-0.07758257
81	0x3d423198	0.047410578
82	0xbe16f204	-0.14740759
83	0x3b184c0e	0.0023238692
84	0x3deaf7ea	0.11473067
85	0xbe1c1d8f	-0.1524565
86	0x3d0be721	0.03415597
87	0x3dc8941d	0.09793875
88	0xbd8d7a11	-0.06908048
89	0x3e22c01b	0.15893595
90	0xbdcfad9a	-0.10140534
91	0x3d7399ec	0.059472963
92	0xbe0f1c0d	-0.13975544
93	0xbe112ed3	-0.14178018
94	0x3e531a05	0.20615394
95	0xbe078ce6	-0.13237342
96	0x3e369662	0.17830804
97	0x3e7b1343	0.24519067
98	0x3e2a69dc	0.16641945
99	0xbde9c5df	-0.11414694
100	0xbd81adf1	-0.06332005
101	0x3e2904a7	0.16505681
102	0x3de58cb0	0.11208475
103	0x3de69c36	0.112602636
104	0x3d8bbd1d	0.0682318
105	0x3e5647e5	0.20925863
106	0x3e4deb1b	0.20109217
107	0xbddf7558	-0.109110534
108	0xbb0d4777	-0.002155749
109	0x3e863b15	0.2621695
110	0x3e0c866a	0.1372315
111	0x3e8024c6	0.25028056
112	0x3e722c78	0.23649776
113	0xbd1e6ed1	-0.0386799
114	0xbdae607b	-0.08514496
115	0x3dfc9d00	0.12334633
116	0xbb8afeef	-0.0042418162
117	0xbd23e489	-0.04001287
118	0x3dd09c7c	0.10186097
119	0x3e51686e	0.20449993
120	0x3d9e7611	0.07737363
121	0x3e846865	0.25860897
122	0x3c2a50e3	0.010395261
123	0x3de5acc9	0.11214597
124	0x3e2ce29e	0.16883323
125	0x3db6557d	0.08903024
126	0x3db730c7	0.089448504
127	0x3d872519	0.06598873

weight_ih_l0_reverse f4 [128, 2]
0	0x3df7d7ed	0.121017314
1	0xbe2d1702	-0.16903308
2	0x3e509c18	0.20372045
3	0x3d78de17	0.060758676
4	0xbcc3f91b	-0.023922494
5	0xbd6a85f9	-0.057256673
6	0x3e28bd41	0.16478445
7	0xbe29b645	-0.16573437
8	0x3e42d31e	0.19025847
9	0x3db87430	0.09006536
10	0xbda62f2e	-0.081144676
11	0xbe7f9f84	-0.24963194
12	0x3db18489	0.08667857
13	0x3e709221	0.23493244
14	0xbc01adfc	-0.007915016
15	0xbe91b8cd	-0.28461304
16	0x3dfd317c	0.12362954
17	0xbe86745a	-0.26260644
18	0xbd9c881c	-0.07643148
19	0x3df5e7cf	0.120071046
20	0xbe4b14ae	-0.19832107
21	0x3de2a81c	0.110672206
22	0x3dcb7eec	0.09936318
23	0xbda1c3df	-0.078986876
24	0xbe9c941f	-0.30581757
25	0x3e7a0f21	0.24419834
26	0xbe417eab	-0.18895976
27	0xbe90855f	-0.28226754
28	0x3e2ac31f	0.16675995
29	0x3d4db7ad	0.050223995
30	0x3b70ee76	0.0036763228
31	0x3d83f2cb	0.064427935
32	0xbddf4379	-0.10901541
33	0x3ce1c312	0.027558837
34	0xbd4cd203	-0.05000497
35	0xbdfa0823	-0.12208583
36	0xbe44feda	-0.19237843
37	0xbd19828b	-0.03747801
38	0xbdc8d2fb	-0.09805866
39	0x3d6088d7	0.054818
40	0xbe7f2c1c	-0.2491917
41	0x3e94e29b	0.29079136
42	0xbe03954b	-0.1284992
43	0xbcec5c84	-0.028852709
44	0xbdce9163	-0.10086324
45	0x3d971ed6	0.07378928
46	0x3e8fc1b4	0.2807747
47	0xbbb71aed	-0.0055879266
48	0xbd7e8eea	-0.062148012
49	0x3c3f08be	0.011659799
50	0xbe0e899c	-0.13919681
51	0xbe03b12c	-0.12860554
52	0x3dba00a5	0.09082154
53	0x3d3bf8c9	0.045891557
54	0xbd3c4590	-0.045964777
55	0x3c1c069c	0.00952306
56	0xbdf4274f	-0.1192156
57	0x3e8fa963	0.2805892
58	0x3d2b5d66	0.04183712
59	0xbca4badd	-0.020108635
60	0x3e3beb4a	0.18351474
61	0xbe5a8bea	-0.21342435
62	0xbd49a9b6	-0.049234115
63	0xbe1a6f40	-0.15081501
64	0xbce0f454	-0.027460255
65	0x3d6b86a3	0.057501446
66	0x3e8ac058	0.27099872
67	0xbd9a59de	-0.07536672
68	0x3bc29bb9	0.0059389737
69	0xbafd8fc5	-0.0019345215
70	0x3d4fd3af	0.050738987
71	0xbe52b19b	-0.20575564
72	0x3e542db0	0.20720553
73	0x3de57009	0.1120301
74	0x3e50bf69	0.20385517
75	0xbd7facd1	-0.06242067
76	0xbdb7ec0f	-0.089805715
77	0x3e66882c	0.22512883
78	0x3d74fa0c	0.059808776
79	0xbdc05625	-0.09391431
80	0x3e52a804	0.20571905
81	0xbde60173	-0.11230745
82	0x3d20a097	0.03921565
83	0xbdb4c72a	-0.0882705
84	0x3e06c2c0	0.13160229
85	0xbe20ab84	-0.15690428
86	0x3dd48388	0.1037665
87	0xbe01425a	-0.12622967
88	0xbeb6f295	-0.3573195
89	0x3ed4026c	0.41408098
90	0xbd52b63c	-0.051443323
91	0xbe895646	-0.26823634
92	0x3e11e84e	0.14248773
93	0xbdd82f4c	-0.10555896
94	0xbc2ae186	-0.010429746
95	0xbd687c67	-0.056759264
96	0x3d450acd	0.048106004
97	0xbd5756c7	-0.05257299
98	0xbcf5ca7f	-0.030003784
99	0xbd21564c	-0.03938894
100	0xbe27a7b7	-0.16372572
101	0xbd7a0960	-0.061044097
102	0xbe285a7e	-0.1644077
103	0x3c1b3186	0.0094722565
104	0xbdbfbe52	-0.093624726
105	0x3efc3e34	0.49266207
106	0x3c28ec3c	0.010310229
107	0xbdc9ac83	-0.09847357
108	0x3e1c9809	0.15292372
109	0xbe61b33d	-0.2204103
110	0xbd4bbbdc	-0.049739704
111	0xbd501db7	-0.05080959
112	0x3d988497	0.074471645
113	0xbe48a44b	-0.19593923
114	0x3d43ca33	0.047800254
115	0xbe92a16c	-0.2863878
116	0x3e40fc3a	0.18846217
117	0xbd621f3a	-0.05520556
118	0x3e0b0b49	0.13578524
119	0xbe8eb44a	-0.27871925
120	0xbe64e9ad	-0.22354765
121	0x3eb9b532	0.36271054
122	0x3e691f53	0.22765855
123	0xbc86d182	-0.016457323
124	0x3e7b0c78	0.24516475
125	0xbe256b88	-0.16154301
126	0x3dcd338e	0.10019599
127	0xbe808d15	-0.25107637
128	0xbdd37ca4	-0.10326508
129	0xbe4ac0c8	-0.19800103
130	0x3e18ef7c	0.14935106
131	0x3ea75049	0.3267844
132	0x3e6235cd	0.22090836
133	0xbe39be05	-0.18138893
134	0xbdb1504b	-0.08657893
135	0xbe56e156	-0.20984396
136	0x3d063943	0.032769453
137	0x3eaa5352	0.33266693
138	0xbc042908	-0.008066423
139	0x3e58ea4b	0.21183126
140	0x3e0d2ba7	0.13786183
141	0xbe83dcdd	-0.25754443
142	0xbe715987	-0.23569308
143	0x3e833ebd	0.25633803
144	0xbea47081	-0.32117084
145	0x3bda51cd	0.0066625834
146	0xbe2bde49	-0.16784014
147	0x3e924f76	0.2857625
148	0x3eac7a12	0.33686882
149	0xbe2cba33	-0.16867904
150	0x3eb124b6	0.3459832
151	0xbdabce90	-0.08389008
152	0x3eab8ca1	0.3350573
153	0xbe16c75e	-0.1472449
154	0x3ec30219	0.38087538
155	0xbcb1bb24	-0.02169568
156	0xbe9a6a9f	-0.3015947
157	0xbbd9264d	-0.0066268803
158	0xbdcd536a	-0.100256756
159	0x3e7f0c7b	0.24907105
160	0xbcab1dbb	-0.0208882
161	0x3e226a9c	0.15860981
162	0xbd824aa7	-0.06361895
163	0x3ebafb70	0.36519957
164	0x3e03a846	0.1285716
165	0xbb89fedf	-0.004211291
166	0xbe8834ac	-0.26602685
167	0xbe4618d9	-0.19345416
168	0xbeb2fa4f	-0.34956595
169	0xbe60f770	-0.2196939
170	0x3ed22a04	0.4104768
171	0xbe43bf2f	-0.191159
172	0xbeb24c8c	-0.34824026
173	0x3e3f1a86	0.18662462
174	0x3d8dff29	0.069334336
175	0x3e90ab86	0.28255862
176	0xbe25f5db	-0.16207068
177	0x3e9bb828	0.30413938
178	0x3e9e38d0	0.3090272
179	0x3cf19fca	0.029495139
180	0xbe99ba63	-0.30025014
181	0x3e11e93b	0.14249127
182	0x3e8a3953	0.2699686
183	0xbe9dba78	-0.30806327
184	0xbee26ec6	-0.44225138
185	0x3e871145	0.26380363
186	0x3e01078b	0.12600534
187	0x3e0b9ef0	0.13634849
188	0x3e84676c	0.25860155
189	0xbe88a421	-0.2668772
190	0x3e0e4859	0.13894786
191	0x3dbb5b3d	0.09148262
192	0x3e6e9afd	0.23301311
193	0xbd9d81e4	-0.0769079
194	0x3e7822dc	0.24232048
195	0x3d534fd7	0.051589813
196	0x3ca3e996	0.020008843
197	0xbe35b506	-0.17744836
198	0xbd8b132c	-0.06790766
199	0xbe600231	-0.21875836
200	0x3de1af17	0.11019724
201	0x3e3dcd7e	0.1853542
202	0xbe0c1d20	-0.13682985
203	0xbe5b7676	-0.21431908
204	0xbe2ae1d4	-0.16687709
205	0x3df232bc	0.11826083
206	0x3e22d1cf	0.15900348
207	0xbe88b76f	-0.2670245
208	0xbb81d7e6	-0.0039625047
209	0xbe210512	-0.1572459
210	0x3cb67a36	0.022275072
211	0xbe07c933	-0.13260345
212	0x3e134347	0.14381133
213	0xbe4af13a	-0.19818583
214	0x3e27db76	0.16392311
215	0xbe52f747	-0.20602141
216	0xbccd2d49	-0.025046008
217	0x3e2a50ae	0.1663234
218	0xbd18bccd	-0.03728943
219	0xbe2de80e	-0.16983053
220	0x3e682806	0.22671518
221	0xbd6e0494	-0.058109835
222	0xbd814653	-0.063122414
223	0xbe567a66	-0.20945129
224	0x3e4de55c	0.20107025
225	0x3d80d5e4	0.062907964
226	0x3b8d1f01	0.0043066745
227	0xbe59ff08	-0.21288693
228	0xbe58d812	-0.21176174
229	0xbd950795	-0.07276837
230	0xbebcaa97	-0.368489
231	0x3d34b007	0.044113185
232	0xbe59c7b9	-0.21267594
233	0x3d5dbd6e	0.054135732
234	0xbd46e501	-0.04855824
235	0x3d4c7a15	0.049921114
236	0xbd749cb7	-0.059719767
237	0xbe46fc67	-0.19432221
238	0x3c51513c	0.012775715
239	0xbd27be43	-0.040952932
240	0x3ddb7ffd	0.10717771
241	0x3d2aeb65	0.041728396
242	0x3e2f1248	0.17096817
243	0xbe8f2aee	-0.2796244
244	0xbdcfa7b0	-0.10139406
245	0x3db40cc3	0.087914966
246	0x3e26f96f	0.16306089
247	0x3d9cf1fa	0.07663341
248	0x3e0bc5f2	0.13649729
249	0x3d88e4fc	0.066843
250	0x3d81d8c2	0.063401714
251	0xbe90b9c5	-0.2826673
252	0x3dd574b8	0.10422653
253	0xbe0dc13a	-0.13843241
254	0xbde63902	-0.11241342
255	0xbe3877fc	-0.1801452
