sgan-dataset/logs/hotel/models_03_Mar_2019_00_24_04/model_registrar-199.pt (torch_old, 575417 bytes, 45 tensors)

weight_ih_l0 f4 [128, 6]
00000000: 0b67 a4bd eaf9 a9bb 7385 fdbd 7246 223e
00000010: 995e febd 5ca9 0c3e 8930 5dbe 08ca 58be
00000020: 6d3f 04be b0a0 b6bc a3ee 903a 908e acbb
00000030: 943d 23be b51f 05be ae25 f0bd 4393 f0bd
00000040: f792 51be 4044 273e f374 0cbd a16f 983d
00000050: 8a83 333e 63b1 7cbd 63b5 733d 67b3 083e
00000060: f277 b0bd e46f 553d 8358 31be 1fef 393e
00000070: 498f 1f3e dcf3 14be c94d 243e ecdc a83d
00000080: 35cd 463d 7db0 0dbc afa7 063e f688 cfbc
00000090: 9083 2fbe 42cf 95bd 4db5 53be 8955 e23c
000000a0: 8882 15bc 7f1b 93bd 21ad dabc c115 173e
000000b0: 3977 c4bd 33e3 1dbd 752f 493c c439 3f3d
000000c0: d03a 1c3e 40aa d93d 3b45 643d 991e c93d
000000d0: 1469 203d c84b aa3d 0090 aebd cb98 54be
000000e0: 5cfb b9bd 9747 233e b00f 0e3a 5e6b 3fbe
000000f0: 051e c93c d614 073e 0e0b 43be 4231 4bbe
00000100: 9cfd 7dbd 5f2c 7a3c b116 32bd b3c8 58bc
00000110: e3fe dfbd e007 db3d 2496 323e 98ef fa3d
00000120: b46d 11be 4a5c 1fbe 6825 ab3d ac42 94bc
00000130: 8f3d 693d 917e 39be 4924 b3bc 7829 e53d
00000140: db86 2e3e 2914 5abd 99e1 b6bc 9fec b13a
00000150: f5e5 c3bd 1679 99bd ccd3 ebbd f26f 103e
00000160: 4fb1 013e 2467 773d da28 04be be3a 113e
00000170: c966 61bc 0bad 633e 8269 7fbc 8ca1 923c
00000180: 2012 233e 57a1 e13d 0904 f43c 13df 5c3d
00000190: 0826 073e 9487 f2bd 519c 0fbd 53c2 1dbe
000001a0: e3a8 333d 269b 80bd 6519 a3bd 46bc 093e
000001b0: 9783 df3c 7927 5abd 0031 793e 1ac1 f5bb
000001c0: 91d7 e73d ae94 263d 9408 0abd f550 823c
000001d0: 2bc9 1ebe 87c6 1d3c 7515 d33d 733a 413e
000001e0: 5cc7 68bd fd41 7d3d f349 743e ba25 22ba
000001f0: 4bf8 3a3e 7428 e1bd 313e 363a ff79 e03b
00000200: 33cf 893d ea07 053e df89 4abe 9a3f 013e
00000210: d49e b0bc a8a1 1fbe f5ba b1bd 234e a1bd
00000220: 6af7 ac3d 4048 603d adf4 3cbc b261 a8bd
00000230: b791 eebd aa42 303d 28d9 793d 9be2 2b3e
00000240: 7d53 d23c 911d b2bd 75f3 b6bd 7765 c0bd
00000250: 22be fcbd a4d3 03be 23c9 00be ecdd 94bd
00000260: 9162 a2bd 9e9a 993d 4fee 2a3d 016f 103e
00000270: 3097 f4bd a286 d03b 48bc 69bd ee14 ba3c
00000280: 7880 ed3b 1580 453e 3c91 25be 54d5 dc3d
00000290: b3c9 8b3e 998a a7bc c568 cebd eeec 4e3e
000002a0: 29d5 e53d 52a7 fc3d 2feb 003d 8d48 3fbe
000002b0: 3924 8bbc 4c47 35bb f730 04be fd9f dfbd
000002c0: 89d6 15be 2dcf e9ba 552c cc3d 69f7 4b3a
000002d0: 0f99 aa3c 5a74 3c3d 6434 5d3d acf0 5dbe
000002e0: 72a2 15be 80ec f3bd 0109 afbd 3b30 b33d
000002f0: cdb6 d23d a786 86be 57b4 09be 8964 65be
00000300: 3619 6c3d 45c2 063e 310c 2abe 3428 e3bb
00000310: 830a a83d 693b d4bd b622 773d 7995 12bd
00000320: ca76 1bbd 0ac8 22bd 1242 b33d 272e a9bd
00000330: cee0 16be 9c21 afbc 2baa 5ebd 61f7 b8bd
00000340: b724 a2bd 8b15 9e3d 050a 44bd 1a0f b1bb
00000350: e33d f93d 52b0 54be 5bad 9c3c b90c 9cbd
00000360: ad56 a13d b825 cbbd 16d2 b1bd ffed 8d3d
00000370: 4074 0bbe b194 e1bd ed76 a33d d354 4dbd
00000380: 10da 903d 86f2 74be 89dc bebd ad5b 20be
00000390: d5f8 513d 9306 cebc e366 dfbd ae83 92bc
000003a0: 7331 09be 93b4 8d3d 0df4 1fbb 4ed1 0cbe
000003b0: 4146 50bc 37f2 50bd 5ccd 01be c5c8 d53d
000003c0: fad6 b53d c1e7 12bd 08df fbbd f332 1b3d
000003d0: e5f6 eb3d 8e6c 2e3e 4044 38be 08ef e0bd
000003e0: 6021 3e3e 139a a83d ca61 943d 4615 99bd
000003f0: 5f51 1a3e f6ad 1fbe d1b3 c7bc 7ecb 8abd
-0.080274664 -0.005187263 -0.12378969 0.15847185 -0.12420387 0.1373648 -0.21600546 -0.21170819
-0.1291482 -0.022293419 0.0011057447 -0.005266018 -0.15941459 -0.13000377 -0.11725937 -0.11746838
-0.20466219 0.16334629 -0.03429122 0.074431665 0.17530647 -0.061692607 0.059499156 0.13349687
-0.08616628 0.05210866 -0.17318921 0.18157624 0.15582003 -0.1454615 0.16045298 0.082452625
0.048535544 -0.008648035 0.13149904 -0.025333863 -0.17140031 -0.07314922 -0.2067463 0.027628677
-0.009125359 -0.07182979 -0.026693882 0.14754392 -0.095930524 -0.038546752 0.012279381 0.04668595
0.1525681 0.10628176 0.055730086 0.09820289 0.03916271 0.083152354 -0.085235596 -0.20761411
-0.09081146 0.15945278 0.0005419208 -0.18693301 0.024550447 0.13191542 -0.19047186 -0.19843009
-0.06200944 0.015269368 -0.04347867 -0.013231444 -0.10937288 0.106948614 0.17440087 0.1225273
-0.14202005 -0.15562549 0.08356744 -0.018098198 0.056943472 -0.18114688 -0.021867888 0.1118955
0.17043631 -0.053241882 -0.02232437 0.0013574547 -0.09565345 -0.074937984 -0.115150064 0.14105204
0.12665294 0.060401097 -0.12906209 0.14182565 -0.013757416 0.2223398 -0.01558912 0.017899297
0.15924883 0.11017101 0.02978708 0.053923678 0.13198102 -0.11842266 -0.035061184 -0.1540616
0.043862235 -0.06279592 -0.07963828 0.13450727 0.027284427 -0.0532603 0.24335098 -0.007499826
0.11320413 0.040669136 -0.033699587 0.015907744 -0.15506427 0.009629852 0.10306827 0.18869953
-0.05683075 0.06183051 0.23856334 -0.0006185431 0.18258779 -0.10994044 0.0006952016 0.0068504806
0.06728973 0.129913 -0.19779156 0.12621918 -0.02156011 -0.1558901 -0.08678237 -0.078762315
0.08445628 0.054756403 -0.011532945 -0.08221759 -0.11648887 0.043032326 0.060998112 0.16785662
0.025674576 -0.086970456 -0.089331545 -0.09394353 -0.123409525 -0.12873703 -0.12576728 -0.07268891
-0.07928956 0.07500194 0.041731175 0.14104845 -0.11942899 0.0063637057 -0.057064325 0.022715058
0.0072479807 0.1928714 -0.16168684 0.107828766 0.27302322 -0.02045183 -0.10078577 0.20207569
0.11222298 0.12336601 0.03147429 -0.1868002 -0.016985046 -0.0027660904 -0.12909304 -0.10919187
-0.1463262 -0.0017838232 0.09969393 0.00077807024 0.020824937 0.0460094 0.05400504 -0.2167384
-0.14612749 -0.11910343 -0.08546639 0.087494336 0.10288773 -0.26274607 -0.134477 -0.22401632
0.05764123 0.13160045 -0.16606213 -0.006932283 0.0820513 -0.10362894 0.060335837 -0.03578708
-0.037955083 -0.039741553 0.08752836 -0.08260756 -0.14734194 -0.02137833 -0.054361504 -0.09031559
-0.07917159 0.07718953 -0.047861118 -0.0054034116 0.12170007 -0.20770386 0.019125631 -0.07619614
0.0787786 -0.09919304 -0.08682649 0.0693016 -0.13618565 -0.11014689 0.07981668 -0.050129723
0.07072842 -0.2392064 -0.093194075 -0.15659972 0.051262695 -0.02514962 -0.10908296 -0.017885055
-0.1339777 0.069192074 -0.002440694 -0.13751718 -0.012712062 -0.051012244 -0.12675995 0.104386844
0.08878894 -0.03586555 -0.12298399 0.037890386 0.11521701 0.17033598 -0.17994785 -0.109830916
0.18567419 0.08232512 0.07245214 -0.07474761 0.15070103 -0.15593705 -0.024377735 -0.06777094

weight_hh_l0 f4 [128, 32]
00000000: f7c1 d5bd 489d 96bd 8fa5 99bd 0a29 ce3d
00000010: 19eb 3ebc e034 0fbd 8ee7 18be db95 273c
00000020: d0fd f23d 17b3 0a3e 85cf 703c e310 323e
00000030: cdf3 24bd 56d4 0e3e 00e4 c83d 9d3a 283e
00000040: d7b8 c73d 13dd 49be 79c0 8f3d 14fa 08be
00000050: 2d0c e0bd f2e3 05be 6ca7 afbd 9ab0 17be
00000060: fc5e 1c3e 1e6c 8bbd 0cd6 f13d 1c96 193e
00000070: 86c8 dc3d d2cc 053e f482 843c 0185 3abe
00000080: 392c b33d b1da 10be 1697 cf3d 0d47 aabd
00000090: 0802 103d 80c7 393e c721 adbd ea65 f5bd
000000a0: b7ab 193e ec21 61bd 8f4d b5bd def0 c7bd
000000b0: 5936 3bbe 5e67 173e 6f5e ef3d 3f4b 033d
000000c0: ee40 113e 764a f43d 9f66 03be 740b abbc
000000d0: d593 cc3c 036e dfbd 44dd 32be d1c7 07bd
000000e0: 3b92 91bd be86 72bd ed11 5fbe 7765 b4bd
000000f0: 2cf7 43bd 8620 0a3d b5fc b73c 2118 9bbd
00000100: c7e7 c13d 7b0e cbbd 8c42 70bd ba27 ef3d
00000110: e759 c13c 5913 a13d 53e1 41be d5df 31be
00000120: f59d e0bc 5ab9 ec3d 9ec4 03be cddc d43d
00000130: 811e 0bbe dd97 e5bd 3d34 fb3d 1aec f9bd
00000140: 73f6 b23d 0d92 4dbd 59fb 0e3e b35f 3fbe
00000150: d3ba ce3d 005d 593e 0387 e23c 87b1 243e
00000160: 71d4 dd3d 23f6 913d 7f69 b43d ae91 513e
00000170: 3a6c fd3d 9a10 873d 3084 f0bd 0388 dc3d
00000180: c998 b93c 19fe 833d dda9 103c 3b99 d13d
00000190: 9281 10be f782 01be d906 1abd 5f9f 243e
000001a0: ee59 10be 9d0c 3fbd 47d2 79bd 0641 3cbe
000001b0: a815 2bbe 0e6a 06be baae 0cbe ec4a 1cbe
000001c0: af75 26bd 4f4b 5d3e 4ee7 c4bd 0a51 39bd
000001d0: 69c4 b8bd b91f 0a3d dfe5 fb3d 758e ddbd
000001e0: bb13 afbd 5ee4 a43d b008 31be 5976 da3d
000001f0: c24e 78bd f186 9a3d f8f6 ff3d 190c 3b3d
00000200: 1114 31be 5cf7 72bd 55cc 193e b0ac 1ebe
00000210: d0df 103e 128a 05be bc6e 2ebd 4407 fb3d
00000220: 4618 23be 4bb0 23be aafd 1fbd cce6 febd
00000230: 7268 d938 152f e33d 542d be3d a20d 1ebe
00000240: 6771 25bd 85fb 1abe 8b65 f0bd 93c5 a23d
00000250: bd5b 373d d623 003e d267 833d 1cd3 efbd
00000260: 1f05 4c3d 7b8c f2bd a7b5 27be 5ea2 2cbe
00000270: 8bbd 2d3e 2db2 abbd 0c7f 123e 3191 f3bd
00000280: d322 283e 69d8 a6bd cf82 1e3d 2e86 34be
00000290: c4bb 8cbd 87db 68bd 1cb7 4ebb e47c 94bd
000002a0: e146 47bd 19d5 09bd 1755 023e 09f8 31be
000002b0: c59b 12be 254a 5c3d 1398 dcbc 66ab 3fbd
000002c0: 74dd 62bc e65a f23d 84b5 e9bd aff1 073e
000002d0: a7b7 8e3d 6d50 eebc 6cc4 e3bc 3887 78bd
000002e0: 30f2 70bd 935c d0bd 5788 163e 27b2 2c3e
000002f0: 2e41 3d3d f0b2 d23d 68ec 0f3e 15d3 973d
00000300: 4713 253e ea34 843d ad3e 27be 275f 303e
00000310: 869a bfbb aa48 82bd 314c 823c e925 06be
00000320: 5a8f 79bd 836d 183d f878 2dbd bb23 ecbd
00000330: 42ac 20bc 0749 383e d067 1abc 7ae2 2c3d
00000340: 16bd 9d3c 50ed 0abe d449 06bb 5655 13be
00000350: aeb3 c43d b0ba 2d3e e2f0 1e3e d60a 9abc
00000360: 66b8 34be a994 8f3c 2866 f03d f6f5 e63c
00000370: cacc 3bbe b308 223e 874a 19be 1e28 3e3d
00000380: f464 1f3e c974 a5bd b2a1 08bd 4a8c 093d
00000390: d23a 82bd 3be2 d73d 7c91 003d 8c0b c6bc
000003a0: 9a74 0c3c bd39 97bd a11e 44bc 9e92 e9bd
000003b0: 85b8 2c3e 9f72 8fbc 6bdc 4b3d 93ab a03d
000003c0: 0430 063e 7648 e7bd cf4b fabd 74e8 15bd
000003d0: 58f5 0ebe 0fe8 75bc ae0e c8bd 5f83 23be
000003e0: bac4 793d d256 293e 5a5b 99ba f5ef 023e
000003f0: 8d60 d63d a59e 103e 040a 013d 32f9 e43d
-0.104373865 -0.07354218 -0.07502281 0.10066421 -0.011652731 -0.034962535 -0.14932081 0.010228599
0.11864817 0.1354488 0.014697914 0.17389254 -0.04027157 0.13948187 0.098091125 0.16428609
0.09752052 -0.1971324 0.07019133 -0.13376647 -0.10939822 -0.13075235 -0.08576855 -0.14813462
0.15270609 -0.06807731 0.11808404 0.14998668 0.10780434 0.13066414 0.016175725 -0.182148
0.08748669 -0.14145924 0.10136239 -0.08314333 0.035158187 0.1814251 -0.08453708 -0.11982329
0.1500691 -0.05496399 -0.08852684 -0.09762739 -0.1828245 0.14785525 0.11687934 0.032054182
0.14184925 0.11928265 -0.12832116 -0.020879485 0.024972836 -0.10909655 -0.17467219 -0.033149544
-0.071079694 -0.05921053 -0.21784182 -0.088084154 -0.047843143 0.033722423 0.022459367 -0.075729616
0.09468036 -0.09914871 -0.058657214 0.11677499 0.02360244 0.078650184 -0.1893361 -0.17370541
-0.02741907 0.115587905 -0.12867972 0.10393677 -0.13585855 -0.11210606 0.12265823 -0.12203236
0.08738413 -0.050188113 0.13963069 -0.1868885 0.10094228 0.21226883 0.02765227 0.16083346
0.108315356 0.07127025 0.08809184 0.20465729 0.12374158 0.06594963 -0.11743963 0.1076813
0.022655861 0.0644495 0.008829561 0.102343045 -0.14111927 -0.12647615 -0.037604187 0.1607642
-0.14096805 -0.04664289 -0.06099155 -0.1838418 -0.1670748 -0.13126394 -0.13738528 -0.15262955
-0.040639576 0.21610759 -0.0961443 -0.0452433 -0.09021837 0.03372166 0.12299704 -0.10818187
-0.08548685 0.0805137 -0.1728847 0.10667104 -0.060621984 0.07545269 0.124982774 0.045665834
-0.17292811 -0.05931793 0.15019353 -0.15495563 0.14147878 -0.13040951 -0.042586073 0.12257245
-0.15927228 -0.15985219 -0.039060272 -0.12446365 0.00010366821 0.110929646 0.092859894 -0.15434888
-0.040391352 -0.1513501 -0.11738118 0.079478405 0.044765223 0.1251367 0.064162865 -0.11710188
0.04980957 -0.11843201 -0.16377889 -0.16858813 0.16966836 -0.08383594 0.14306277 -0.118929274
0.16419534 -0.08146746 0.038698968 -0.1762931 -0.06871751 -0.056849983 -0.0031542247 -0.072503835
-0.04865158 -0.03365049 0.12727772 -0.17379774 -0.14317234 0.053781647 -0.026927983 -0.046794318
-0.013846744 0.11833744 -0.114115745 0.13275789 0.06968623 -0.029091084 -0.027803622 -0.06067583
-0.058824718 -0.10173907 0.14700447 0.16864835 0.04620474 0.10288036 0.14055026 0.074133076
0.16120635 0.06455405 -0.16332503 0.17223798 -0.005847278 -0.06361516 0.015905472 -0.13100399
-0.060927726 0.037213814 -0.042351693 -0.115302525 -0.009806694 0.17996608 -0.009424165 0.042208172
0.019255202 -0.1356709 -0.0020490782 -0.14388022 0.09604584 0.16965747 0.15521577 -0.018803995
-0.17648467 0.017526941 0.11738235 0.028193455 -0.1833984 0.15823631 -0.14969836 0.046424977
0.15565854 -0.080789156 -0.03335733 0.033581056 -0.06358875 0.10541197 0.031388745 -0.024175428
0.008572722 -0.073840596 -0.011970193 -0.11404918 0.16867264 -0.01751071 0.049770754 0.07845225
0.13104254 -0.11293118 -0.122214906 -0.036598638 -0.13960779 -0.01500894 -0.09768425 -0.15968083
0.06097863 0.16537026 -0.0011700199 0.12786849 0.10467634 0.14123018 0.031503692 0.11180343

bias_ih_l0 f4 [128]
00000000: 7123 c1bd bd13 38bd 21cf 8bbc 0ed9 0abe
00000010: 785c 13be c3ed 183e 4fb2 22bd a016 1bbe
00000020: 9b5a 093d 5735 723c 8d03 2b3e f708 173e
00000030: 7c87 7f3d ddf8 27be eaf1 c23d b547 07be
00000040: 754c 19bc dd7e 0c3e 8a6e 11bd 1064 0d3e
00000050: 0de5 2a3c da05 dcbc f6b6 0bbd d5c4 3cbd
00000060: 296a ba3d ed02 863d 75c6 4dbd e2df 743d
00000070: 5c20 8abc f82d d6bd 6f69 55be 2b9d 3dbd
00000080: d53b 2f3e 36e6 d2bd e147 16be 809e b23d
00000090: defa 12be b4d6 97bd 9a24 0dbe 5a02 33bb
000000a0: ed8e f8bd 2980 b53d 921c 6fbd a396 403d
000000b0: bae2 5bbd 2e18 213e 0037 aebc 21bd e8bd
000000c0: 269c cf3d 0222 d83d 1d5e 83bd c34f b63d
000000d0: 8e6f 30be db86 9f3d eee8 eb3d 2463 cf3d
000000e0: e5bd 533d a17b 0d3e 777a e53d a7bc 093e
000000f0: 29e6 9cbc eb70 1dbe da98 58be e913 21be
00000100: 8a39 e73d 24b9 013e 0aa5 d4bc 3e92 893d
00000110: 176b bcbd 5798 093d d2e1 b43d e396 dabd
00000120: a516 173d b715 d43d c90b fcbd 9d73 7b3d
00000130: 29df 0fbe 2e45 6abd 1d2b a9bd 2829 34be
00000140: 9ef8 04be 53fa f1bd feee 043e b9f9 76bd
00000150: 4289 0c3c d5f2 fd3d 00a1 9d3d d086 0cbe
00000160: f992 213e 6077 08be 452d 013e 4f4a 31be
00000170: cd1a 17be 014f f13d 3029 7a3c c7f1 7bbd
00000180: 6077 ce3d b5b0 a8bd 33ee cf3c 94bd a2bd
00000190: d94f 843c 25fa 973d ae36 a0bb b0f3 09be
000001a0: 72f2 b5bd 536c 853d 586c 84bd 7a1f ac3d
000001b0: f4be 093d 6cae 3bbe 4f18 0a3e 8774 3c3d
000001c0: c8a0 f33d 89db 493d 968d 4c3d d8e7 3a3c
000001d0: 54f2 c63d f2f8 01bd 6b65 a2bd 2a5c 723c
000001e0: 05d3 02be 9705 d13d 2a9e d83d b304 3fbb
000001f0: c3a1 f13d 695d c63d aa50 1bbe c0a6 80bd
-0.09430588 -0.0449407 -0.01706654 -0.13559362 -0.14390743 0.14934449 -0.03972083 -0.1514535
0.033533674 0.014783225 0.16700573 0.14749514 0.062385067 -0.16403528 0.09518798 -0.13210948
-0.009356608 0.1372027 -0.03550581 0.13807702 0.0104305865 -0.026858259 -0.034110032 -0.04608615
0.0910228 0.06543527 -0.05023809 0.059783824 -0.016861133 -0.104579866 -0.20841001 -0.046292465
0.17112668 -0.102978155 -0.14675857 0.08721638 -0.1435351 -0.07413998 -0.13783494 -0.0027314634
-0.12136636 0.08862335 -0.058376856 0.04701866 -0.05368302 0.1573188 -0.02126646 -0.113641985
0.10137205 0.105533615 -0.06414435 0.08901932 -0.17230055 0.077893935 0.11519037 0.101263314
0.05169477 0.13816692 0.11204999 0.13450871 -0.019152718 -0.15375106 -0.21152058 -0.15730251
0.112902716 0.12668282 -0.025957603 0.067173466 -0.09200113 0.03359255 0.08832134 -0.106733106
0.03688683 0.10355704 -0.12306935 0.061389554 -0.14049973 -0.05719488 -0.08260176 -0.17593825
-0.12985465 -0.11815324 0.12981793 -0.060296748 0.008577647 0.12399832 0.07696724 -0.13723302
0.15778722 -0.13326788 0.12614925 -0.17313503 -0.14756317 0.11782647 0.015268609 -0.061509874
0.10081363 -0.08236829 0.025382137 -0.079463154 0.016151356 0.07420758 -0.004889331 -0.13471866
-0.088841334 0.06514802 -0.064659774 0.08404441 0.033629373 -0.18328255 0.13485835 0.046009567
0.11895901 0.04928163 0.049939714 0.011407815 0.09714189 -0.031731553 -0.079295 0.014792481
-0.1277581 0.10206144 0.105770424 -0.0029147088 0.11798432 0.09685785 -0.1516749 -0.06281805

bias_hh_l0 f4 [128]
00000000: 24ec 0dbe 7963 02bd 427a 1abe 6516 d43c
00000010: 462e 0ab9 7ba6 c1bd 77c3 10be f4e6 d53c
00000020: 020a f33d b1fd 373e 9730 b7bd c1b0 b93c
00000030: 6421 34be fb5b 053e 6e02 0b3e f5ec e73c
00000040: 3f45 c5bd 8de0 043e 5e58 06be 251a c03d
00000050: 03e7 213e 258d 1d3e c6fd b6bb c230 953c
00000060: a0bb efbb 550e 4e3d 7102 bf3c cb3e 02bd
00000070: a3b3 c9bd 6250 e9bd 6339 0ebe fc7e 7f3b
00000080: 49b0 a83d a577 9dbd be39 ba3d 5690 f3bd
00000090: 42c9 283e 2faa b53d cca2 4b3b 2d19 17be
000000a0: c493 46bd 0cb7 043d 1f8e 21bd 672a 68bc
000000b0: 2e48 67bd b730 b5bc 0271 ad3d d41b 82bd
000000c0: d10e f1bc b40c 1a3d 0b9a 12bd 35f6 bcbd
000000d0: be98 e8bc 43e1 adbd faed dcbd 9511 963d
000000e0: 5a88 1bbe 7d8d 2ebe fae1 10be d12c 973d
000000f0: 0a0b 42bd c82d a43d 52af a2bd f58b 133e
00000100: e271 2ebe 1a80 11be 9094 133e 7f1c 3d3c
00000110: 839c 283e b1fd 863d 7356 c8bd 581d 75bd
00000120: 946b 363e d8d5 223c 3819 9c3b 9e24 a13d
00000130: 26b7 243d d38a 173c 7627 24be 1223 f3bc
00000140: 7632 17bd 1270 fe3d 715d 623d 0d5d 3fbe
00000150: 7af5 17be 1324 823d 5aa0 2abe 9d02 e33d
00000160: 214b a5bd f552 e2bc 1137 043e 02c0 6ebd
00000170: 0160 0bbe 6dad 24be 400d 18bc b805 2e3d
00000180: b314 69bc 4ad1 543d efda 05be e365 173e
00000190: 2f0a eb3d 5486 b7bc b956 463e 8918 343e
000001a0: 6145 12be 7e32 b33d d0d8 343e 80cc 243e
000001b0: 2f8f 3b3d 3f32 223c 551a 603d 6faa 5c3d
000001c0: 23c0 0c3e 6438 b3bd acc1 1e3e 0f8b e5bd
000001d0: c489 763d 1b30 233e d370 943d 43eb 163e
000001e0: e90c 763d 5926 9f3d 2c78 213e 4c89 573b
000001f0: 7a0e 3abc dd03 bb3d 0c4c ffbd f73a 0d3e
-0.13859612 -0.031833146 -0.150857 0.025889585 -0.00013177944 -0.09455582 -0.14137064 0.026111104
0.11867143 0.1796787 -0.08944815 0.02266729 -0.17590863 0.13023369 0.13575146 0.028311232
-0.09632348 0.12976284 -0.13119647 0.09379987 0.1581078 0.15385874 -0.0055844514 0.018211726
-0.007316068 0.050306637 0.023316594 -0.031798165 -0.09848716 -0.11392285 -0.13889079 0.00389856
0.08236749 -0.07688836 0.09093045 -0.11892764 0.16483024 0.088703506 0.0031072376 -0.14755698
-0.048480764 0.03240113 -0.039442178 -0.014170266 -0.05646532 -0.022117956 0.0846882 -0.06352964
-0.02942601 0.03760977 -0.035791438 -0.09226648 -0.028393146 -0.08490231 -0.10787578 0.07327572
-0.15188733 -0.17046161 -0.14148703 0.07381595 -0.04737381 0.080165446 -0.07943596 0.14408858
-0.1703563 -0.14209023 0.14412141 0.0115424385 0.16465954 0.065913565 -0.09782114 -0.059842438
0.17814475 0.00993868 0.0047637485 0.07868312 0.040213726 0.009249407 -0.16030678 -0.029679809
-0.036913358 0.124237195 0.055264894 -0.1868784 -0.14839736 0.06354537 -0.16662732 0.11084483
-0.0807097 -0.027627448 0.12911631 -0.05828858 -0.13610841 -0.16081782 -0.009280503 0.042485923
-0.0142261265 0.051957406 -0.13071798 0.1478496 0.11476552 -0.02240292 0.1936902 0.17587484
-0.14284278 0.08749865 0.17660832 0.16093636 0.045790847 0.009899675 0.054712612 0.053873476
0.1374517 -0.0875099 0.15503567 -0.11208164 0.060189977 0.1593632 0.07248082 0.14738183
0.060070906 0.07770986 0.15768498 0.0032888232 -0.011355991 0.09131596 -0.12465677 0.13792025

weight_ih_l0 f4 [128, 2]
00000000: 8f00 b23d 5c66 0a3d c08d 86bd 93d3 57bd
00000010: 4e3a 653e 109d ebbd 9a61 f23c 9dea 83bd
00000020: 412d 63bc 4435 61be 1b85 393c bc74 953d
00000030: 88d6 a93c 807a 15bd 1514 8c3d e115 52be
00000040: 7756 2d3e 1a47 89be 058d d63d 8d0f afbb
00000050: 562d 603d 2072 6e3e f16f 113d c297 32be
00000060: c6a0 b1bd 50b6 a63c 9aef d23d fbce 03bd
00000070: 7561 9bbd 2a74 1cbe 8e9a bc3c 9420 983d
00000080: 20dc 48bc e901 19bc f232 543e f50d 503b
00000090: 9509 c23c 0357 8bbd c16c 973a 6549 12bd
000000a0: 3994 3a3e f644 63be 285a 8b3d 206b 95bc
000000b0: 3883 21bd e35f 2a3d 95f7 a8bd 23b6 d5bc
000000c0: a689 5f3d 5150 0fbe 26bc fc3c 3be6 8abd
000000d0: c385 323e 73db 73bb 94b1 24be 1a9d babc
000000e0: d5b7 46be 366e e63c c780 9e3d 315f f8bd
000000f0: 3c14 413e e12d 86be a370 ffbd b258 55be
00000100: 663b 57bd f789 6ebe c87c 393d bbf2 6abe
00000110: 2d61 2a3e 7b6c 09be d4d9 513e 4e4a c0bc
00000120: ea02 863e aebd 6fbe fdbd 393d a23c e1bd
00000130: fc4b 95bd 77d2 183d 896c 483e bb6b b2bb
00000140: 6be1 00bd 66c9 63be 46e4 343e e4bd e4bc
00000150: 718b 083e 7bea 663c 48fb 56bd 40ba b3bc
00000160: afe3 b6bd 709b da3d 374f a23d 1c0b babd
00000170: 968d c23d 86fa a7bd cc99 4a3e 5ecc 04be
00000180: 262c 4b3e db5c 3bbd 531b 073d efba 88be
00000190: 7dab 543c 040a 1a3d e0fa 10be 6b43 a1bd
000001a0: b111 98bd 317e 42be b2cb 673e 680a 0fbe
000001b0: 69d0 c3bc 3afa bcbd 3c46 36bd b5cd 87be
000001c0: b2a4 74bd de30 14be 8f21 fa3d a287 08be
000001d0: c494 ac3d 7b0e 0fbe 448e 3f3c c10c 31be
000001e0: 29de 783d 519f 46be 5fd7 7a3d b9ed 0dbd
000001f0: c784 313e b924 60be e2dc f5bd 82b2 8ebe
00000200: dc4a 673d b9f6 4a3e 489e b0bd 3136 8dbe
00000210: bff6 6bbe fca7 603d 9350 8abe 24ba 72bd
00000220: b68a 0bbc dbf4 07be e925 4d3e eb12 87be
00000230: e97e 4fbe b4dd 0ebc f408 473e 6d8a 18be
00000240: be91 043e febb 203e 75ac f0bd 11ca 8e3e
00000250: cac7 5a3e 23d4 9e3e ba17 82bc 3745 5abd
00000260: 181e 1ebe 8efe 7abe 1613 163e 9f76 753e
00000270: 1194 aebd d377 8cbe 8e61 7dbe 3278 783e
00000280: 0e64 cebd 07d2 0f3e e0c5 7fbe fcbd 383e
00000290: 6d3f 09be 3c03 823e 9fba 723d 6e15 6a3e
000002a0: cf40 afbd 2da0 1bbe 5167 66be 3e2a 3f3e
000002b0: 34e4 833d 71b5 80bc fd9e 633e 5631 acbc
000002c0: 1b62 9d3d e2e5 3a3e f4db 823e 5414 9c3d
000002d0: 79d0 42be e0ce 443e 7275 443e 59e4 26be
000002e0: f5a8 5e3e 9b68 3b3e 8b7e f43d 5772 9a3e
000002f0: 39ef ba3d f23e f5bd 32d6 8cbe 569e 913d
00000300: 2f01 12be 580a 21be 26c3 0b3e 528b d83b
00000310: 020d 183e 4f5d 66be 05bd 4d3e 83f6 73bd
00000320: 3374 df3b 3599 8ebe 8e5d a1bc a18d 44bd
00000330: ed77 0fbd 9995 83be 4f1d 9fbd b916 6bbe
00000340: e0ad 2b3d 4db8 993b 9698 5ebd 9490 7dbe
00000350: d295 603e cef2 183e 1080 093e 3335 82be
00000360: d9d0 283e c835 8c3c c12a 8c3d cf00 bc3d
00000370: c95e ec3d 1ed6 52bc b34d 82bd 190b 213d
00000380: 608c 353d 2ec8 85bd f426 d0bc 337b 8fbe
00000390: 6533 e9bd a8ba 7abe 6a93 093e 6f07 a13d
000003a0: 6915 9e3d c689 dfbd 0263 423d 7a20 e8bd
000003b0: 5410 543e eda8 fabc 3ad3 d3bd c792 74be
000003c0: 6b09 473e 3588 03bd d3cd 48bc 7550 8ebe
000003d0: 5359 293e 8f4a 4cbe 40db cd3d 3434 543d
000003e0: fd2c 0cbe dae9 8bbd 01c3 07bc a5d0 84be
000003f0: 7600 fd3d 77af e7bd eeb7 983d 9a33 8ebe
0.08691513 0.033789024 -0.065700054 -0.052692007 0.22385523 -0.11504567 0.029587556 -0.06441233
-0.01386577 -0.21992975 0.011323239 0.07297656 0.02073218 -0.03649378 0.06839768 -0.20516159
0.16927515 -0.2681206 0.10476116 -0.00534243 0.054730736 0.23285723 0.035507146 -0.17440704
-0.08673243 0.020350605 0.102996066 -0.032179814 -0.07586948 -0.15278688 0.023022916 0.07428089
-0.012259513 -0.009338834 0.20722559 0.00317466 0.02368621 -0.068037055 0.0011552797 -0.035714526
0.18220605 -0.22194275 0.06804305 -0.018239558 -0.03943178 0.04159535 -0.082503475 -0.026087826
0.05457463 -0.13995482 0.030851435 -0.06782194 0.17433839 -0.003720966 -0.16083366 -0.02277999
-0.19406064 0.028128725 0.07739406 -0.12127531 0.18855375 -0.26206878 -0.124726556 -0.20834616
-0.05254688 -0.23294817 0.045285016 -0.22944157 0.16638632 -0.13420288 0.20493251 -0.023472931
0.26174098 -0.23412201 0.045347203 -0.10997893 -0.072898835 0.03731009 0.19572653 -0.0054449714
-0.031464975 -0.22244796 0.17665204 -0.027922578 0.13334443 0.01409399 -0.052485734 -0.021939397
-0.08930146 0.106741786 0.07925265 -0.0908415 0.094996616 -0.082020804 0.19785231 -0.12968585
0.1984106 -0.04574285 0.032985043 -0.2670512 0.012980339 0.037607208 -0.14158201 -0.07874187
-0.07425249 -0.1899345 0.22636297 -0.13968813 -0.023903089 -0.092274144 -0.044500574 -0.2652413
-0.05972738 -0.14471766 0.12213432 -0.1333299 0.08426812 -0.13970368 0.011691634 -0.17290021
0.060758743 -0.19396712 0.06124055 -0.034650538 0.17335807 -0.21889009 -0.12005021 -0.27870566
0.056467876 0.1982068 -0.0862394 -0.27580407 -0.23043345 0.054847702 -0.27014598 -0.05925955
-0.008516958 -0.13276999 0.20033993 -0.2638162 -0.20263256 -0.00871985 0.19437009 -0.14896555
0.12946221 0.15696713 -0.117516436 0.2788854 0.21365276 0.31021222 -0.015880454 -0.053288665
-0.15441167 -0.24511167 0.14655718 0.23971032 -0.08524335 -0.2743517 -0.24744245 0.24264601
-0.10077678 0.14044963 -0.24977827 0.18041223 -0.13403101 0.25393093 0.059260007 0.22859737
-0.08557283 -0.15197821 -0.2250035 0.18668458 0.06440011 -0.015711518 0.22228618 -0.021019619
0.07684728 0.18251756 0.25558436 0.07621065 -0.19024839 0.19219542 0.19185427 -0.16298045
0.2174414 0.18301623 0.11938199 0.3016536 0.09127659 -0.119748965 -0.27507168 0.07110278
-0.14258264 -0.15726602 0.13648662 0.006608405 0.14848712 -0.22496532 0.20091636 -0.059561264
0.006819272 -0.27851263 -0.01969793 -0.04798663 -0.03502648 -0.2570007 -0.07769262 -0.22957887
0.041913867 0.00469116 -0.054344736 -0.24762183 0.21932152 0.14936373 0.13427758 -0.25431213
0.16485919 0.017115489 0.06844092 0.09179842 0.11541516 -0.012868432 -0.06362476 0.039317224
0.044323325 -0.06532322 -0.0254092 -0.2802368 -0.11386756 -0.24485266 0.1343514 0.07862746
0.077189274 -0.1091495 0.047457702 -0.113343194 0.20709354 -0.030598128 -0.10343023 -0.23884116
0.19437186 -0.03211232 -0.012256104 -0.2779576 0.1653798 -0.19950317 0.10051584 0.051807597
-0.13689037 -0.06831713 -0.008286239 -0.25940433 0.123536035 -0.11312764 0.07456957 -0.27773744

weight_hh_l0 f4 [128, 32]
00000000: a7e8 d6bd b9db 723d 696b 40be e597 a93d
00000010: a484 923c 1e4f 1f3e ae52 c9bd b6ab 8ebd
00000020: b6ee ebbd 74e6 0cbd d7fa 023e 88f4 be3d
00000030: 5602 4f3e 6000 c0bc b834 52bd ec19 8cbd
00000040: 2fb1 bf3d 76cc f3bd 2079 ee3b 8a5f a93d
00000050: 05c9 803d 483f 04be f3dd 20be c41e 273d
00000060: d6ca 3abe 21e0 4d3e 060d 5abe 327b 5c3e
00000070: 9b46 3c3d 5db9 63be 5f74 13bd 1c0b de3d
00000080: c815 bfbd 89c1 50bd 6fbe f6bd 74b3 c3bd
00000090: f59f ac3d 6476 1f3e 72fe 57be 4ac0 8ebc
000000a0: c48d 9ebd a595 903d bbe3 31be 9740 bfbc
000000b0: 37cc 8c3e 17a1 d93d 1970 b83d a3ce 4fbd
000000c0: 2f4e 913c d886 f2bd 2bbe 1c3d d177 d83d
000000d0: d595 473e 19d7 6fbe f92a ab3d 4065 5e3e
000000e0: d663 123c 2049 75bc ba02 d1bd c39d fdbc
000000f0: 7e17 bcbd 527d 3a3d f86c 8f3c 75ac b7bd
00000100: d73d c0bd 2d8f 323d d6f0 3ebd 2072 81bd
00000110: 798d dfbd d48d 783a 2a95 0cbe b059 5dbc
00000120: 4be5 13be 4d4f 3fbe c6ce c4bd 0f31 12bc
00000130: bfaf 843d ad31 7f3e 3802 8f3d 4990 f6bd
00000140: 3845 f13c 4d40 dfbb db1a 46be ac68 68be
00000150: b6fe 72bd ab25 aabd 233c 16be 8c95 3b3e
00000160: ca41 d8bd d283 61bd 5818 30be d77d 1cbd
00000170: 77e7 27be 0b66 c03d 27da ba3d f160 3ebe
00000180: cd9f 063e 9c64 9d3c 3da8 f63c d84c 45bd
00000190: 39d3 863c 7879 1d3e aee7 013e 05eb f13d
000001a0: 87be 0d3e 64a1 f83d 9b39 4bbc 0b77 623c
000001b0: beea b43c 549f 9bbd d659 93bc e462 81be
000001c0: e772 4fbe 71ca 04be ed4a efbd 04ce 5bbe
000001d0: 31cf 463b 6436 903d 0b66 25bd 947e 64bd
000001e0: dab8 13bd 0136 083e 0be9 09be ec01 eabc
000001f0: d9ff c4bc 6d7d 49bd dafa 593e 1a0c 51be
00000200: 6b29 31bd 5921 fa3d 34bb 1bbd e8d6 983d
00000210: 78f5 e83d 37c7 7a3e 6ea7 f63d 4845 95bd
00000220: f508 e83c 8439 e83d 9d0c 16be 2ced 87bc
00000230: afad 8f3d 5204 773d fb5c 0d3e a929 10bd
00000240: ab4d 4bbe e681 883a a52c 99bc 3df6 54bd
00000250: c514 143e 3d6e d53d d025 d53d 3484 e1bd
00000260: 5d72 2ebe 1ba6 9b3c 6971 4abe 36c0 9b3d
00000270: dd5f 10bc 0cd1 033e d8db f13d 95b3 3cbd
00000280: 4276 49bc f120 d0bd ec90 41be d236 16be
00000290: 991d 2bbd f310 5d3e c2cd 2cbe b70c 4c3e
000002a0: 41e8 533d 5181 3dbe fb13 b3bd 2b2b 173e
000002b0: ac7b fa3d 279a 8ebd 1599 ab3d 2059 1fbe
000002c0: 380d 0abe 434c 983d d503 b6bd 75f8 f33d
000002d0: fd74 03be 7053 84bd 272e 43be 07dc a93d
000002e0: c72a f93d 1f48 343e 5d07 bc3d 8f04 0dbd
000002f0: 79fd 133c 1758 36be ccff 543e 7470 c4bd
00000300: f4d3 993d 7c2a 083d 6185 beba 4fc5 55bd
00000310: b60c 583e 8d66 c7bd 7cb9 48be f0bb 9c3d
00000320: f0f2 25be ed7e 9abd 5302 033d 8e71 0b3e
00000330: 579a e53d fe0b 163e f4f8 94bd bc8d 6abe
00000340: d8e3 9abd d9ae 3fbd 9f4a af3d 2a64 00be
00000350: 7740 543e f210 b43d 5edb 36be cf48 173e
00000360: 040a 83bd c6b9 e93d 45ae 13be 1551 c13d
00000370: 818f 0d3d e3e5 10be 7073 82bd 473b 82bd
00000380: c5ff 923d 34ce 263e 5d12 fdbc f2dd c03c
00000390: d923 053e 885d 9cbd e01c 1b3d dd29 d93d
000003a0: e13c 71bd f94b 53be 7aa2 ffbd e0b3 5f3e
000003b0: c2ee 4d3e b4de d7bd fbd0 153e 0a6c b9bd
000003c0: 74bd 5c3d 56e2 c6bd e4d6 70be d138 763d
000003d0: a244 b03a 25eb 6fbd 0a5d 20be 119a 98bd
000003e0: 49e0 813c d2fc afbd 4236 eb3b 0983 2e3e
000003f0: 370d 42bd 50e6 853d f2b5 fc3d 5e01 19bc
-0.10493594 0.059291575 -0.18790974 0.08280925 0.017885514 0.15557525 -0.09830223 -0.06966345
-0.1152014 -0.034399465 0.12791 0.093239844 0.20215735 -0.023437679 -0.051319808 -0.06840882
0.09359967 -0.11904232 0.007277623 0.08270176 0.062883414 -0.12914765 -0.15709667 0.040800825
-0.18241438 0.2010503 -0.2129403 0.2153137 0.045965772 -0.22238679 -0.035999652 0.10841963
-0.09330326 -0.05096582 -0.12048041 -0.09555712 0.08428947 0.15572506 -0.21093157 -0.017425675
-0.077418834 0.070597924 -0.17372029 -0.023346229 0.27499554 0.106264286 0.09005756 -0.050734174
0.017737476 -0.11842126 0.038267296 0.10569728 0.1949075 -0.23421897 0.08357806 0.21718311
0.008934936 -0.014971048 -0.10205598 -0.030959016 -0.09184168 0.04552967 0.017508015 -0.089684404
-0.09386795 0.043593574 -0.046616398 -0.06320596 -0.10915656 0.0009481583 -0.13728777 -0.013510153
-0.14442937 -0.18682595 -0.096097514 -0.008922829 0.064788334 0.24921294 0.06982845 -0.12039239
0.029451951 -0.006813085 -0.19346182 -0.22696179 -0.059324943 -0.08307966 -0.14671378 0.18318766
-0.10559423 -0.055057354 -0.17196786 -0.038205948 -0.1639689 0.09394463 0.091236405 -0.18591668
0.13146897 0.019213013 0.03010952 -0.048168987 0.01645814 0.15378368 0.12686035 0.118124045
0.13842212 0.12140158 -0.012403871 0.013822327 0.02208459 -0.07598749 -0.017987173 -0.2527076
-0.20258676 -0.1296785 -0.11684213 -0.21465307 0.0030335898 0.07041624 -0.04038052 -0.055784777
-0.03606496 0.13301851 -0.13467805 -0.02856537 -0.024047779 -0.04919188 0.21287099 -0.20414773
-0.04325239 0.12213392 -0.038020328 0.07462865 0.113749444 0.24490057 0.120436534 -0.07288605
0.028324584 0.11339095 -0.14653249 -0.016592585 0.070155494 0.060306855 0.13805 -0.03519598
-0.19853847 0.0010414689 -0.018698046 -0.051992644 0.14461048 0.10421417 0.10407603 -0.11011544
-0.17035814 0.019000104 -0.19769825 0.07605021 -0.008811918 0.12872714 0.1180951 -0.0460697
-0.012296261 -0.10162533 -0.1890294 -0.1466935 -0.041776273 0.21588497 -0.16875365 0.19926725
0.051735166 -0.18506362 -0.08744045 0.14762561 0.1223062 -0.06962996 0.083788075 -0.15561342
-0.13481605 0.07436421 -0.0888745 0.11912624 -0.12837596 -0.06461227 -0.19060574 0.0829392
0.12166362 0.17605637 0.09181092 -0.034428176 0.009032601 -0.17807041 0.20800704 -0.09591761
0.0751113 0.03324364 -0.00145356 -0.05219012 0.21098599 -0.09736357 -0.19602007 0.07653034
-0.16205955 -0.075437404 0.03198464 0.13617536 0.112110786 0.14653012 -0.072740465 -0.2290563
-0.07562989 -0.046797607 0.08559155 -0.1253821 0.20727716 0.087922946 -0.1785712 0.14773868
-0.06398395 0.114123866 -0.14421947 0.09439293 0.034560684 -0.14150195 -0.06369674 -0.063589625
0.071776904 0.16289598 -0.030892545 0.023543332 0.13001956 -0.07635027 0.037869334 0.10603688
-0.05889595 -0.2063445 -0.12482162 0.2184596 0.2011061 -0.10540524 0.14630501 -0.0905381
0.053891614 -0.09711139 -0.23519474 0.060112778 0.0013448189 -0.05857386 -0.15660492 -0.07451261
0.015854018 -0.085931435 0.007178099 0.17042173 -0.047375884 0.06538069 0.12339391 -0.009338705

bias_ih_l0 f4 [128]
00000000: a2c0 4dbd e13e 91bd d492 a23d 139e d13d
00000010: 0b98 59bb e57e c03d d83d 453e 3e93 89bd
00000020: 6627 d33c e7fc c23d e571 1ebd a086 34be
00000030: 0875 313d 5108 923e 81fe 0ebe c722 f13d
00000040: abbb 403d 1532 003e 3807 613e 0ada 9fbc
00000050: 5559 3e3e 2822 b9bc 9ef3 10be c4a0 96bd
00000060: c18a adbc 2d6f b9bc 1825 733d 5af1 5b3d
00000070: 67ea d83d ac58 1c3e b1aa 463e d0fd 103d
00000080: 1014 353e a024 c7bd 595d d2bd b93d dfbd
00000090: 8b68 21bd 3faa 6c3d c900 85bb 7929 513e
000000a0: a8f3 313e ade5 3c3e 912b 6c3e 3bd4 113e
000000b0: 16c1 21bd 20e0 2f3e 6e83 093d 08af 7ebc
000000c0: ed6d cebd a506 563e e34d 413e c79a 643e
000000d0: c844 9f3d 2a60 023e 7298 c5bd 4d03 71bc
000000e0: 69b7 5fbd baa7 bf3d 307e 873d 595d 593e
000000f0: 5faa 13be 4a22 bd3d 11b1 523c 9d8f 99ba
00000100: 00b9 d6bd 19e7 5f3d 94aa 943d 6c77 44be
00000110: 8758 233d 8101 eb3d c413 bc3d 2712 103e
00000120: 9e19 c43d eaa4 f5bd 737b 013e 42df 093d
00000130: 1bc4 5c3d d829 cd3c 7254 e73d 3129 acbd
00000140: 005c 33be 0701 fabd 72d9 093e f2e5 b4bd
00000150: dd29 823d 6727 41be f075 cbbd bf55 1c3e
00000160: 479b 02be 164a 88bd ebf9 e03d ed77 413d
00000170: 566c 793c 2f45 d6bd a461 d7bc ac68 303d
00000180: 7c6a c9bd 0bc4 4a3e b997 443e da13 063e
00000190: 409f 9f3d 2f17 fa3d 35d3 393e bab0 e43c
000001a0: 2a22 553b be7b 203e 41d0 cc3d 2851 2fbe
000001b0: d8e2 8bbd 7ebd 633e fdca 523d b02d 823d
000001c0: 479d 893d 4aa1 ffbd f989 033e ab37 ee3d
000001d0: 1420 62bd a99f 123e 842e a2bc d209 06be
000001e0: 0aae 3b3e 210b 2d3d ac53 503e 1ca5 d8bd
000001f0: 0425 12be e28d 5e3c 0fac 0f3e 5211 b7bc
-0.050232537 -0.07092071 0.079381615 0.102352284 -0.0033202197 0.09399203 0.19261873 -0.06717537
0.025775623 0.095208935 -0.038682837 -0.1762948 0.0433245 0.2852197 -0.13964273 0.117742114
0.047053974 0.12519105 0.2197541 -0.019513149 0.18588765 -0.022599295 -0.14155433 -0.07354882
-0.021184327 -0.02263602 0.059361547 0.053696968 0.10591584 0.152682 0.19401051 0.035398304
0.17683434 -0.097237825 -0.10271711 -0.109004445 -0.03940634 0.057779547 -0.0040589315 0.20425977
0.17378104 0.1844699 0.23063494 0.14241116 -0.03949078 0.1717534 0.033572607 -0.01554466
-0.100795604 0.20900972 0.18877368 0.22324668 0.07776791 0.12731996 -0.09648217 -0.01471026
-0.054618273 0.09358163 0.06615865 0.21227016 -0.1442046 0.09235056 0.012859599 -0.0011715774
-0.10484505 0.05466375 0.07259098 -0.19186181 0.039879348 0.11474896 0.091834575 0.14069425
0.095751986 -0.119943455 0.12644748 0.03366018 0.05389796 0.025044367 0.112954035 -0.08406294
-0.17515564 -0.12207227 0.13461855 -0.08832921 0.06355641 -0.18862687 -0.09934604 0.15267085
-0.12754546 -0.06654756 0.10985168 0.04723351 0.015223583 -0.104624145 -0.026291676 0.043068573
-0.098347634 0.19801347 0.19198503 0.1309351 0.077940464 0.12211453 0.18146975 0.027916301
0.0032521584 0.15672204 0.10000659 -0.17120802 -0.068303764 0.22240254 0.051463116 0.063563704
0.067194514 -0.12481935 0.12845601 0.116317116 -0.055206373 0.14318718 -0.019797571 -0.13089684
0.1832811 0.04224694 0.20344418 -0.10578367 -0.14271933 0.013583632 0.14030479 -0.022347126

bias_hh_l0 f4 [128]
00000000: 2619 373e d617 413e 58c8 1c3c 665a 88bd
00000010: 60c8 b93d 5d08 3a3e ba2e 5dbd 282e 173d
00000020: 70eb d53d 235b 2b3e 095e 2a3e 2ff4 043d
00000030: dcac 333d 60c9 963e ee95 b73d 5ade 2c3e
00000040: 3ed7 82bb 0bb2 3c3d c09e 043e 4c0b 84bd
00000050: 0389 433e aad6 b13d 6f7f 1c3e e38d 16be
00000060: 1d42 03be a7aa d8bd d15b c13c 7cfd 2dbd
00000070: 9aeb 063e e022 353e 80e3 593d 1fd4 833d
00000080: 0299 2e3d 507e fd3d 8cbb ad3c c5a0 96bb
00000090: 4f85 edbc a968 dfbd b337 02be ff88 afbd
000000a0: 4af1 b3bd 8037 bd3b f2e2 183e 1a25 163d
000000b0: 6b26 d73d 3e48 3d3e 01a4 fbbd 243c b7bd
000000c0: 6a84 08bd 7a40 51bd ba48 333d d9b6 133d
000000d0: 9bb7 8f3d 979b 4e3d 940f 463d e02d 26be
000000e0: d442 f7bc 3acf 0d3e ed5b bdbc e112 dbbb
000000f0: f82e 5e3d e8a3 ccbd 7f79 dabd dcff 333e
00000100: bc75 983d 6bb2 943d 29d1 edbd e67d 22be
00000110: 6c31 e83d df2d b1bd 681f e6bd 9162 0f3e
00000120: feef 28be ad5c d23d f867 523d 605f 103e
00000130: 543d 763c 978d c83d b86e b83d 9508 ba3c
00000140: aea6 b0bd f320 493d 8d26 18be ab3d 1f3c
00000150: 8f59 e23d 0477 16be 860c 043d 9fed b43d
00000160: a0d3 81bd 99bb 1f3e 3739 c1bd 4dc8 813d
00000170: 55b4 08be 2db8 12be 6581 4b3e c2c5 0bbe
00000180: 6d05 2a3e 4229 323e f32a bb3d a3a1 0abe
00000190: 280d c3bd d08e 0a3e 423b da3d 5429 d03d
000001a0: dcbf 3d3d a283 2d3e 4f4a 393d 2b0c 1abe
000001b0: ac7d 77bd 2609 a73d 030a f03d d39e 293e
000001c0: 4f74 5c3e 7b0e 88bd 6f7b bfbd 7217 d03d
000001d0: ba38 94bd bb48 40bd 88fb ce3d 9f9f 1f3e
000001e0: 5474 6e3d 1e1d 2c3e 9cb0 06bc 5b0d a33d
000001f0: 08fc 073e 4c6d a53d dd60 853d b684 2d3d
0.17880687 0.18856749 0.00956925 -0.06657867 0.090714216 0.18167253 -0.05399964 0.036909252
0.10445297 0.16733985 0.16637434 0.032459434 0.043866023 0.29450512 0.08964144 0.16881695
-0.003992944 0.046068233 0.12951183 -0.06447467 0.19095235 0.08683522 0.15282987 -0.14702563
-0.12818189 -0.10579424 0.023603352 -0.04247807 0.13175812 0.17689085 0.053195477 0.06436943
0.04262639 0.12377608 0.021207593 -0.004596802 -0.02899423 -0.10908634 -0.1271656 -0.08571052
-0.087862566 0.0057744384 0.14930323 0.036656477 0.105053745 0.1848459 -0.12287141 -0.08947018
-0.033329405 -0.05108688 0.04377053 0.03606305 0.07017442 0.05044135 0.0483547 -0.16228437
-0.030183233 0.13848582 -0.023115123 -0.0066856 0.05424401 -0.099922 -0.10667705 0.17578071
0.07444331 0.07260593 -0.1161216 -0.15868339 0.113375515 -0.08651327 -0.11236459 0.14002444
-0.164978 0.10271583 0.051368684 0.14098883 0.01502927 0.09792631 0.09005493 0.02270917
-0.086255416 0.04910369 -0.14858456 0.009719293 0.11052238 -0.14693838 0.032238506 0.08834385
-0.063391924 0.15598907 -0.09434741 0.063370325 -0.13350041 -0.1432807 0.19873579 -0.13649657
0.16603632 0.17398551 0.09139051 -0.13538222 -0.09523994 0.13531041 0.10655834 0.10164133
0.04632555 0.16944745 0.04523688 -0.15043704 -0.060422584 0.08156042 0.117206596 0.16564493
0.21528743 -0.06643387 -0.09349715 0.10160722 -0.07237382 -0.04694436 0.101065695 0.15588234
0.058216408 0.16807982 -0.008220818 0.07961532 0.13279736 0.08077487 0.06512616 0.04236289

weight_ih_l0_reverse f4 [128, 2]
00000000: e6dd b23d 8af6 50be 0f2e 113e 3274 81bd
00000010: a688 203d 89aa ecbd 1402 553e 13aa 3cbe
00000020: 4f55 b83d 226e 54bd 170d abbd 8f54 88be
00000030: 2b73 373e 0277 3e3d 1fea d5bc 3a4f 98be
00000040: df12 4d3e 3402 8dbe 1caf bcbd 953d 9b3d
00000050: 0fab f0bd 5202 e63c dcef 363e d263 31be
00000060: 51a1 38be 65fa a9bc a894 f9bd d159 8fbe
00000070: 8432 5f3e bbfe 293d d6f9 b03d 8c4c f3bc
00000080: 8f05 aabd 9cbb bebd c382 acbc ea26 5ebe
00000090: 3d69 d4bd 1fa5 40bd 39e9 6ebd 3d2b 24bc
000000a0: 2b5a 2cbe 25c7 c73d 35ac 9fbd bc49 7ebd
000000b0: d352 91bd 5af9 d73c b555 7d3e 6d52 65bd
000000c0: e747 52bd 786b afbc efbc c9bd 1567 b6bd
000000d0: 3e87 083e 3019 0f3c da5e fbbb 6291 21bd
000000e0: ed81 2f3d 4deb 48bd 127f 973c 9537 ccbc
000000f0: 2bfd 383e 1033 7fbe bec9 49bd 573f 10be
00000100: 4067 89bd 2eaa 243d 47b3 3c3e bc71 3dbe
00000110: a361 4a3d 0cff e3bc 7c0c 8f3d 8cb3 53be
00000120: 2acb 8c3d f8d5 d9b9 3607 343e b031 4ebd
00000130: 02fc 3ebd 5cb7 a33d 77d3 003d 5570 b9bd
00000140: ade6 7f3e bbbe e3bd ad50 9b3c e48e e9bd
00000150: 197f 523e 6554 43be 3d40 103e 5196 25be
00000160: b7a8 2fbe c94a aa3d e561 0a39 500b 78be
00000170: eb4a 1f3e 99fc d0bd 2fff 8e3c 889d abbd
00000180: 5acb 653d 4153 03be 472f d2bc e352 a1bd
00000190: 6326 b8bd 8347 81bd cba9 dbbd 07ca 3dbd
000001a0: 8e37 0cbd 0244 183e d2fd 0d3d 74f3 d5bd
000001b0: 5a91 303e afc6 75be bfbe 9cbd 4270 9abd
000001c0: d13a 813d 2c5a 59be 01ed 833d e796 72be
000001d0: 9410 393e 6419 87bd b61a 123e de73 90be
000001e0: 129e 98bd 4429 933d fa59 373e 73f4 a4bc
000001f0: 46f2 5e3e 1c45 3fbe 9faf b23d c295 6ebe
00000200: 9a8b ddbd 0d5c 1dbe 0c13 123e dce7 863e
00000210: ab85 063e 039d 13be d7c5 9dbd 5053 37be
00000220: 1561 2b3d dc51 803e 20d6 993c 3893 2b3e
00000230: d114 be3d d2d9 45be 1e54 61be fcd8 653e
00000240: 8af9 79be a3a2 3ebc f284 18be b2ca 753e
00000250: 93f1 783e c469 24be a8d0 7e3e 7986 b8bd
00000260: 72ef 6b3e 9ee2 edbd e8de 863e cc48 f2bc
00000270: b1f2 50be 4758 a9ba df8d 39bd 6b15 4d3e
00000280: ec9f a43b e541 e63d bff3 03bd 7766 a13e
00000290: 44a2 29bc ccdf 8c3c 05b7 33be 9d25 30be
000002a0: 7998 84be ffc6 b5bd 6011 a13e bcdb 1cbe
000002b0: a3e1 8ebe 1f88 1d3e 49c6 923d cabf 6f3e
000002c0: eaaa 03be 2719 8b3e a426 673e b880 ad39
000002d0: cfe9 5abe 8471 dc3d 06ed 443e 26c0 82be
000002e0: 72f5 9fbe 1df8 603e ac3f f13d 2fb2 de3d
000002f0: e92e 523e c7e0 7cbe d524 c83d 1055 283d
00000300: 1636 443e 89b9 d6bd ab44 443e 084d d4bc
00000310: 8675 5e3c b6cb 5dbe 8920 17bd fbba 75be
00000320: fc6d 62bc a5ba d63d 2074 1dbe b5c6 0ebe
00000330: b4d7 2dbe fdc2 e9bc 16ee 0d3e 7438 8cbe
00000340: 271b b3bb 7d25 17be 7595 6b3b 2da3 21be
00000350: e7d8 253e 50d9 5dbe 48b4 233e abd6 63be
00000360: 3d95 ba3d d5ca 5dbd 9a06 05bd 5179 17be
00000370: c7b4 5b3e 7e59 83bd 98fe 61bd 0af4 6ebe
00000380: d0a9 3a3e 91a4 b13c 23c9 24bc 4724 80be
00000390: 8bf3 c2bd 7af9 f0bd e142 5cbe f165 363d
000003a0: 7bd1 00be b6ab cdbd 01ac 3ebd cc3a 263d
000003b0: 78a0 5cbd af2e 55be ca01 b8bc e438 9fbd
000003c0: 2a94 a63d 8c79 1b3d c36a 3a3e 2466 56be
000003d0: 03a1 debd 0181 383d 748c 253e 681c 653d
000003e0: ffea 463e 2467 d1bd 9c1e 523d 754a 8abe
000003f0: beb4 c73d 2041 20be 3d14 99bd b863 2dbe
0.0873373 -0.20406547 0.14177726 -0.063209906 0.039192818 -0.115559645 0.20801574 -0.18424253
0.09000646 -0.051862843 -0.08352106 -0.26627013 0.17915027 0.046500213 -0.026112614 -0.29747945
0.2002673 -0.27540743 -0.09213087 0.07580105 -0.11751377 0.028077278 0.17864937 -0.17323235
-0.18030287 -0.02074928 -0.12186557 -0.27998212 0.21796614 0.041502696 0.086414024 -0.029699586
-0.083018415 -0.093131274 -0.021058446 -0.21694532 -0.10371635 -0.04703247 -0.058327887 -0.010020074
-0.16831271 0.09754781 -0.07796518 -0.062082037 -0.070958756 0.026364017 0.24739726 -0.05598681
-0.051338103 -0.02141355 -0.09850489 -0.0890638 0.13332841 0.0087340325 -0.0076712193 -0.03944529
0.042848516 -0.049052525 0.018493209 -0.024928847 0.18065326 -0.24921823 -0.049264662 -0.14086662
-0.067091465 0.04020136 0.18427764 -0.18500417 0.04940952 -0.027831577 0.06984803 -0.2067396
0.06874688 -0.00041548884 0.17580876 -0.050340354 -0.046627052 0.079939574 0.03145167 -0.09054629
0.2499034 -0.11120363 0.018959368 -0.11404207 0.20556296 -0.19075163 0.14087005 -0.16170622
-0.17154203 0.083150454 0.00013197174 -0.24223065 0.15555923 -0.10204429 0.017455665 -0.08379656
0.056102134 -0.12824728 -0.02565731 -0.078771375 -0.08991697 -0.06312468 -0.10725745 -0.046335246
-0.03423267 0.14869693 0.03466589 -0.104468256 0.17242947 -0.24001573 -0.076535694 -0.07540943
0.063100465 -0.21225804 0.06441689 -0.23690377 0.1807273 -0.0659664 0.14268002 -0.282134
-0.074520245 0.07185605 0.17905417 -0.020136094 0.21772107 -0.18678707 0.08724903 -0.23299316
-0.108176425 -0.15367146 0.14265078 0.2634877 0.13136928 -0.14415364 -0.077037506 -0.17902875
0.04184063 0.25062454 0.01877886 0.16755378 0.09281314 -0.19321373 -0.22004744 0.22446054
-0.24411598 -0.011635455 -0.14894465 0.24003103 0.24310903 -0.16055971 0.24884284 -0.090100236
0.2304056 -0.116154894 0.2634194 -0.029575728 -0.2040508 -0.0012919985 -0.045301314 0.20027702
0.005023947 0.11243037 -0.032214876 0.31523487 -0.010353629 0.017196558 -0.17550285 -0.17201848
-0.25897577 -0.08875846 0.3145857 -0.15318197 -0.27906522 0.15383957 0.07166726 0.23413005
-0.12858167 0.27167627 0.22573334 0.00033093034 -0.21378253 0.10763839 0.19231042 -0.25537223
-0.31241947 0.21969648 0.117797226 0.108738296 0.20525707 -0.24695121 0.0977265 0.041096747
0.19161257 -0.10484607 0.1916682 -0.025915638 0.013577824 -0.21659741 -0.036896262 -0.23997109
-0.013820168 0.10484818 -0.1537633 -0.13942988 -0.16976815 -0.02853536 0.13860354 -0.2738682
-0.0054658833 -0.14760394 0.0035947238 -0.15784903 0.16196023 -0.2166493 0.1598674 -0.22249858
0.09110496 -0.054148514 -0.032477 -0.14792372 0.2145568 -0.06413554 -0.05517444 -0.23335281
0.18228841 0.021684917 -0.01005772 -0.25027677 -0.095191084 -0.11766334 -0.21509887 0.044530813
-0.1257991 -0.10042517 -0.046550754 0.040583417 -0.053863972 -0.2081859 -0.02246179 -0.07774523
0.08133729 0.037957713 0.18204789 -0.20937401 -0.10870554 0.045044903 0.1616686 0.055935293
0.19425581 -0.10224751 0.051298723 -0.2700993 0.09751271 -0.15649843 -0.07474563 -0.16932571

weight_hh_l0_reverse f4 [128, 32]
00000000: fdf0 24bc fb08 7e3d 5f8a 90bc ab71 553d
00000010: 2bfe 313d cef2 9e3d 4247 713d 350e 893c
00000020: 6d33 0dbd 481b 463d d94f 353d 1719 23bd
00000030: 4af7 a23c 5f80 003e 19c8 ecbd 012b 8a3c
00000040: 07a3 30bc ec6c 9b3d ffd5 c03c 02c7 02bd
00000050: 89ee 833b 493d 083e c632 b83c bddd f1bc
00000060: cd27 f2bd 3f31 333e 697f 40be 250b ffbd
00000070: ffcd 5ebc de31 b73d caa7 04be c6f4 033d
00000080: 824c dabc 1631 903d ba5c 973c f2e6 603e
00000090: a66d 20be 53c6 c2bd 623c 463e e4e6 dcbd
000000a0: 68de 36bd 864e a23d 297d b0bb 84d2 afbd
000000b0: 4284 123d a60e dfbd f250 8c3d a1aa 5ebd
000000c0: a54c f9bd 8df6 d5bd 7050 ba3d bc56 823c
000000d0: 517f 4c3d 027d a63d 7990 28bd 432f 2abe
000000e0: 57d0 8cbd 8351 b2bc 209d 92bd 62f9 86bd
000000f0: a648 85bb 12b0 08be c106 ae3d 44a8 e13d
00000100: 8236 de3d dbad 3cbe 52aa a0bd 75a4 54bd
00000110: f935 a03d 3b9c bf3d bf79 f53d 543f 4dbe
00000120: 29f0 03bc b379 a6ba 7139 d53c 9c1e f53d
00000130: c823 4e3e 6f84 823c 43da 673d fdc0 89bc
00000140: 551c 5ebe 5375 a0bd f202 c6bd c6bd 133d
00000150: 97b2 f9bc 1fd1 9dbd aafa e33c 3c31 35be
00000160: 8112 14be 405a 563e 03c8 a1bc af88 343d
00000170: 11ad fa3b 4a85 f33d c16a d4bc 18a4 5fbe
00000180: 0dff d83b bc8c 32be c9e0 11be 7ab5 12bd
00000190: f166 e0bd 2e71 f6bc 56d3 413e 5e82 b43d
000001a0: d2b9 53bd 5879 99bd 9f81 a3bd 6f6e 1a3e
000001b0: bf31 d33d 2dc8 2dbc f961 c23d 2a4f f03d
000001c0: a46f c4bd bae1 b43d 6800 95bd 7af7 80bc
000001d0: 0398 563b 813a 053e 4e1c 3dbe a320 4f3d
000001e0: bc2f 2ebe 39d1 9e3d f8e1 273d e117 6cba
000001f0: 708f 6b3d b8a7 2dbe e46f 643c 2145 f0bc
00000200: 656e 243e 25bd b7bd b77e f4bd 7c67 8d3d
00000210: d2a9 47be 51f8 fd3c 44fa ee3d fbf2 14bd
00000220: da8c df3d 07b7 15be 7aae 68bd 65fd c23c
00000230: 177b 5bbd fccc 023e e218 82bc c41f eebd
00000240: 47d4 d5bd f05e 293d 24a1 a33d 1535 c1bd
00000250: 5cc1 8dba 5a91 f23c c0ab cbbd 7541 063e
00000260: 6e8e f0bd aabd 6e3e 51f3 1abe f01d 3d3e
00000270: f043 41bd 4e54 023e be4b aabd fe4a d6bd
00000280: 3dc0 2c3d ffa5 04be 0acc 963d 787e a63c
00000290: 2abd af3d 5655 e73d c1a5 a1bd f57a 1dbe
000002a0: 84b4 52be 546f e5bd 5ef4 373d 3d08 d6bd
000002b0: b897 b2bd 5207 f23d f65f 2bbd fb76 36bd
000002c0: 58ed 19bc dff8 5cbe 2aa4 53be c9a6 b7bd
000002d0: 8d01 f93d cb79 8a3d 238d 39be d993 8c3d
000002e0: b51d cb3d 2260 06bd a5ff d5bd 538c 65bd
000002f0: 3813 69be b71d 783d 4640 273e a1ba debd
00000300: c86a 503e 1d9b 873d 86b8 3b3d 4cd0 b6bd
00000310: 6d3c 0abe 9a1a 61be cc9c 473e b7f3 dfbd
00000320: 228a c3bd c114 22be 281a ab3d ea10 5e3e
00000330: a6b3 6b37 e685 843c e8f2 42bd 94b0 813d
00000340: e8b0 e8bd ee6b 013d fea3 c2bc 8462 fa3d
00000350: b381 163e 9c4d 523e 800e d43d c173 64bd
00000360: 2e91 d5bd d6fd 9b3d 2304 a73c a4a8 c6bd
00000370: e349 13be 5af6 16be 53ea 36bc 38e5 6a3d
00000380: 456d 503e c3c9 63be 8756 393e 396d f4bd
00000390: 4b00 d4bc bf50 4ebd 6aef 1dbd 1567 5abe
000003a0: f8d1 72bd 57b1 b7bd c163 343e df1d 16bc
000003b0: 412c 24bd f767 b53d b7b7 e13d b993 51be
000003c0: 0605 523d 4b45 09bd b378 4fbe c175 1bbd
000003d0: d034 f1bb d5bc 72bd 09f0 87bb 0816 70bc
000003e0: 9398 fa3d 4e04 1b3e f107 0a3e edda ab3c
000003f0: 5bc0 b6bd 312c 9bbd c1f8 70bc 3f52 bfbc
-0.010067222 0.062020283 -0.017644105 0.052110355 0.043455284 0.07761155 0.058905847 0.016730407
-0.03447287 0.04836586 0.0442656 -0.03981885 0.019893307 0.1254897 -0.11561603 0.016866209
-0.010781056 0.075891346 0.023539541 -0.03192807 0.0040262383 0.13304628 0.022485148 -0.029524678
-0.11823998 0.17499255 -0.18798603 -0.124532975 -0.013598918 0.08945058 -0.12954631 0.032215856
-0.02664781 0.070406124 0.018476833 0.21963099 -0.15666828 -0.095104836 0.19358972 -0.107862264
-0.044645697 0.079251334 -0.005386014 -0.085850745 0.035770662 -0.10891466 0.068513766 -0.054361943
-0.12172822 -0.104474165 0.090973735 0.015910499 0.049926106 0.08129312 -0.041153405 -0.16619591
-0.06875675 -0.021767383 -0.071588755 -0.06590535 -0.0040674983 -0.13348415 0.08497382 0.11018422
0.1085024 -0.18425696 -0.07844986 -0.05191465 0.078227945 0.093559705 0.11986112 -0.20043689
-0.008052864 -0.0012701064 0.026028367 0.11968729 0.20130837 0.01593229 0.056604635 -0.016815657
-0.21690495 -0.07834878 -0.096685305 0.036069654 -0.030480666 -0.07705902 0.027829487 -0.17694563
-0.14460184 0.20932865 -0.019748693 0.044075664 0.0076500257 0.11890657 -0.02592981 -0.2183994
0.0066222013 -0.17436498 -0.14245905 -0.0358176 -0.109571345 -0.030083265 0.18928275 0.08813928
-0.051690884 -0.074938476 -0.07983708 0.1508119 0.10312223 -0.010606808 0.09491343 0.11733849
-0.09591606 0.088321164 -0.07275468 -0.015743006 0.0032744415 0.13010599 -0.18467829 0.050568234
-0.17010397 0.0775475 0.040986985 -0.0009006244 0.05750984 -0.16958511 0.013942692 -0.029329838
0.16057737 -0.08971623 -0.119382314 0.06904504 -0.19498375 0.031002196 0.11668828 -0.036364537
0.10915537 -0.146206 -0.05680702 0.023802469 -0.053584184 0.12773508 -0.015881006 -0.116271526
-0.10440879 0.041350305 0.079897195 -0.09433953 -0.0010815072 0.029610325 -0.09944868 0.13110907
-0.11745916 0.23314539 -0.1513188 0.18468451 -0.04718393 0.12727472 -0.08315228 -0.104635224
0.04217552 -0.12953947 0.07363136 0.020323977 0.08581002 0.112955734 -0.07892943 -0.15378936
-0.20576674 -0.11202875 0.04491078 -0.1045079 -0.08720344 0.118178025 -0.041839562 -0.044547062
-0.009394966 -0.21579312 -0.20668092 -0.089673586 0.12158499 0.067615114 -0.18120246 0.06864137
0.099177755 -0.032806523 -0.10449151 -0.056042027 -0.22761238 0.060575213 0.16333112 -0.108754404
0.20353234 0.066213824 0.045830272 -0.08926448 -0.13499613 -0.21982804 0.19493407 -0.10935157
-0.09547831 -0.1582823 0.08354598 0.2168614 1.4048919e-05 0.016177129 -0.047594935 0.06332508
-0.11361867 0.03159707 -0.023759838 0.122258216 0.14697914 0.20537418 0.10354328 -0.055774454
-0.104280815 0.07616775 0.020387715 -0.097001344 -0.14383654 -0.14742413 -0.011164266 0.057347506
0.20354183 -0.22244935 0.18099414 -0.11934895 -0.025879046 -0.050369974 -0.0385584 -0.21328385
-0.059282273 -0.08969372 0.17616178 -0.009162395 -0.040081266 0.0885772 0.11021369 -0.20466508
0.051274322 -0.03351335 -0.20260887 -0.037954096 -0.007361032 -0.059262116 -0.0041484875 -0.01465369
0.122361325 0.15138361 0.13479592 0.020978415 -0.08923408 -0.07576788 -0.014707745 -0.023354648
