sgan-dataset/logs/hotel/models_03_Mar_2019_00_24_04/model_registrar-599.pt (torch_old, 575417 bytes, 45 tensors)

weight_ih_l0 f4 [128, 6]
00000000: 3578 a3bd 5fd9 16bb de9a 02be cc67 243e
00000010: 173e bbbd 6c3f 123e a2e5 93be cf7a 8abe
00000020: f94f 2ebe e760 e7bd caf5 a53d 02e8 2fbd
00000030: c762 2dbe 82d8 13be ab72 e1bd d84a aabd
00000040: 6173 5dbe f098 9c3e 0936 07bd 118e 9f3d
00000050: 606f 343e 60f1 dabd 3f5d 993d 2f3c 983d
00000060: 5dbd 94bd 3dc3 863d fff7 3bbe 83c4 403e
00000070: 95fb 1a3e b71c 1cbe 6666 2f3e cd22 b73d
00000080: f80c bb3d d8c9 1cbd d5c3 073e 5375 a8bc
00000090: 9cb1 2ebe 1bd0 91bd 7a45 51be 7fb1 863d
000000a0: b5e6 5bbc 633c a8bd 59f9 a1bc c0a8 1d3e
000000b0: 24c3 f2bd 5c35 7e3c 6d6c 163c 6a68 803d
000000c0: 8bb9 223e c294 e73d 535f 873d 5e39 c33d
000000d0: d73c 1a3d 2fe4 843d 61f4 cdbd 8c6c 5dbe
000000e0: ed8d c7bd 3684 4b3e 2eea e43a fd7c 67be
000000f0: c4ab ec3c ebb8 0c3e 4fca 67be ba39 4ebe
00000100: f237 48bd 66c0 a03c 3a1a 0ebd a6ea 8cbb
00000110: fefe e9bd 3e05 a33d 4843 223e fe94 f13d
00000120: 4e56 1fbe b896 2bbe 2a9c d43d e254 01bd
00000130: 339a 363d 5f4f 34be d288 c3bc 393b e03d
00000140: 879b 2f3e 772a a8bd 9664 29bd 7d99 9d3b
00000150: d1ed b4bd 9070 87bd 8d4a 29be 6605 393e
00000160: 7a4e 993d 3584 163d 91b2 e0bd d3e8 253e
00000170: 4d96 31bd 4d73 943e e200 27bb 01b4 68bc
00000180: e16f 223e 8164 e63d 93df 4d3c efeb a83d
00000190: 126c 0f3e 8dd2 e5bd 165f 49bd 09cd 2fbe
000001a0: 1024 8d3d 553b a3bd eb35 f0bd 55ef f63d
000001b0: 5ad2 363c 5b01 81bd 4470 8a3e 302c 05bc
000001c0: 5b46 163e d19a 9e3d 2348 8ebc 42eb 093d
000001d0: 3949 2abe 4058 913d bd55 fd3d c1d0 5c3e
000001e0: 5317 44bd 6f96 903d 1486 7f3e cd63 20bc
000001f0: 651a f33d 57d6 04be 708f 0fbd b209 babc
00000200: ec4d a43d 1d5e 053e 809c 89be 621f 463e
00000210: f64c 87bc f224 19be 4330 f2bd bb06 19bd
00000220: 76a3 ee3d 3b1d 733d e60b a9bc 5de7 b3bd
00000230: 64a4 b7bd 703a a73c 185a 283d 669f 323e
00000240: 9ae1 883c c3aa c2bd 4442 b1bd cb59 c7bd
00000250: e9e2 d6bd b002 debd cc66 00be f71e 92bd
00000260: a904 47bd 415d 0f3e be7d f93c 9639 1e3e
00000270: 62fd ffbd 279e 3739 2bf9 9a3b 0131 bfbc
00000280: 5ca3 583b 16f1 683e 6f44 34be 051a c13d
00000290: 3101 a13e 86c4 87bd e0a9 f8bd 8dde 623e
000002a0: 0c0a f63d e079 043e c634 d53b 384d 29be
000002b0: 7c02 ba3b ae67 aa3b 9959 febd 4f7b d9bd
000002c0: 33e4 48be 66d2 4c3c 37d7 133d 2556 eebc
000002d0: bafe 1d3d cfb9 7e3d 2b92 453d ff90 99be
000002e0: 9c73 1cbe 316e 06be 79b3 9fbd 8cda bf3d
000002f0: db9d ee3d cf19 88be b5f2 1fbe b6cc 66be
00000300: 8144 6d3d 9cd4 093e aedb 27be a45b ddbc
00000310: adc5 ec3d 01e7 b6bd 690c 01bd cec5 f7bd
00000320: 8945 8fbd e9de 4ebd 4e29 893d debe 1fbd
00000330: 86ac 1fbe d052 06bd 68f2 65bd 2fef a2bd
00000340: 4ca5 8abd 532e d53d ccb4 4abd 063c 8cbb
00000350: c76a 003e ed86 7cbe 6aa5 903c 8f10 0ebe
00000360: a731 bb3d 9355 b1bd 4fb4 c8bd 660e 9e3d
00000370: 679a 0dbe fae2 f0bd 47e7 b43d 550d 39bd
00000380: 461e d03d cb63 81be 8719 c8bd 4c9e 16be
00000390: 72f0 593d 6cf4 b2bc e28d cfbd 19d1 623c
000003a0: 4562 09be 5e43 763d 9b92 c23b 2628 04be
000003b0: f2e6 f5bc 6e5a 38bb f93b dfbd f70a dd3d
000003c0: c723 c03d 6463 f8bc b4b1 e6bd bdc8 8b3c
000003d0: 2d58 d73d 29b8 1c3e a564 3dbe d34d e0bd
000003e0: dd09 373e 3a5b b23d 3d97 5b3d 730c c5bd
000003f0: 9c59 1d3e a789 1abe 23ea 80bd 252e a4bd
-0.07981912 -0.0023017747 -0.1275439 0.1605522 -0.09142702 0.14282006 -0.28886133 -0.2704682
-0.17022695 -0.112977795 0.08103521 -0.04294587 -0.16932212 -0.1443806 -0.11008199 -0.083150566
-0.21626045 0.30585432 -0.033010516 0.07790769 0.17620611 -0.1069057 0.074884884 0.07433354
-0.07262681 0.065802075 -0.18356322 0.18824963 0.15135033 -0.15245329 0.17128906 0.089421846
0.09133333 -0.03827843 0.13258298 -0.020563757 -0.1705994 -0.07119771 -0.2043666 0.065768234
-0.013421704 -0.08214643 -0.019772219 0.15396404 -0.11853626 0.015515652 0.009181124 0.062699154
0.15891092 0.1130767 0.066099785 0.09532426 0.037655678 0.06488835 -0.10056377 -0.21623439
-0.09743867 0.19874653 0.001746481 -0.22606273 0.028890498 0.13742416 -0.22635768 -0.20139208
-0.04888148 0.019622993 -0.03469298 -0.004300433 -0.11425589 0.07959984 0.15845978 0.11795996
-0.15560266 -0.16756713 0.103813484 -0.03157509 0.04458065 -0.17608403 -0.023868952 0.10948796
0.17149173 -0.082112245 -0.04135569 0.004809557 -0.088344224 -0.066132665 -0.16532345 0.18068466
0.07485671 0.036747176 -0.10971559 0.16202097 -0.04335623 0.28994218 -0.0025482704 -0.0142030725
0.15862991 0.11249638 0.012565511 0.08248126 0.1400607 -0.112218 -0.049162947 -0.17168058
0.06891644 -0.07970301 -0.11729034 0.12057368 0.01115855 -0.06299087 0.27038777 -0.008128211
0.14675276 0.07744373 -0.017368382 0.033671625 -0.16629495 0.070969105 0.12369869 0.21564008
-0.047873806 0.07059943 0.2495349 -0.009789419 0.11870269 -0.12972389 -0.035048902 -0.022709701
0.08022675 0.13024183 -0.26877213 0.19347909 -0.01651619 -0.149555 -0.118256114 -0.037359934
0.116522714 0.05935405 -0.020635556 -0.087843634 -0.08966902 0.020413607 0.041101545 0.17443618
0.016709138 -0.095052265 -0.08655217 -0.097339235 -0.104924984 -0.10840356 -0.12539214 -0.07134812
-0.04858843 0.14000417 0.030455466 0.15451655 -0.12499501 0.00017511156 0.00472941 -0.023338797
0.0033056354 0.22748217 -0.1760423 0.09428791 0.3144622 -0.06629281 -0.12141776 0.22155209
0.12013635 0.12937117 0.006506535 -0.16533363 0.0056765657 0.005200348 -0.12419433 -0.106192224
-0.19618301 0.012501335 0.036093917 -0.029093811 0.038573004 0.06218892 0.0482351 -0.29993436
-0.15278476 -0.13127972 -0.077979036 0.093678564 0.11651202 -0.2658219 -0.15619929 -0.22539029
0.05792666 0.1346001 -0.16392395 -0.027021237 0.11561141 -0.08930779 -0.031505976 -0.12098275
-0.06995685 -0.050505552 0.06697331 -0.039000385 -0.15593156 -0.03279382 -0.05613938 -0.07955777
-0.06769809 0.10409226 -0.049488828 -0.0042796163 0.12540732 -0.24660845 0.017657 -0.13873504
0.0914033 -0.086589 -0.09800016 0.0771759 -0.13828431 -0.11762042 0.08833175 -0.04517873
0.10162024 -0.25271448 -0.09770494 -0.14708823 0.053207822 -0.021845065 -0.10134484 0.013843798
-0.13416393 0.06012284 0.005937887 -0.1290594 -0.03001735 -0.0028130072 -0.10900111 0.10793107
0.09381824 -0.03032083 -0.11264363 0.017063493 0.10514865 0.15304627 -0.18495424 -0.10952344
0.17874856 0.08708806 0.05361103 -0.09621515 0.15366215 -0.15091573 -0.06294658 -0.08016614

weight_hh_l0 f4 [128, 32]
00000000: a9d2 ccbd 1c72 a4bd fdc6 9dbd 2a04 d53d
00000010: 8bd9 2ebc 2314 1abd 3eff 17be 8201 503c
00000020: 2f09 ee3d 8bef 093e f7ac 543c 9690 303e
00000030: 28d3 03bd 5f6c 0e3e dfa9 d33d 59af 283e
00000040: 02c8 c53d 1495 4bbe e463 7b3d 602c 06be
00000050: 5de3 e0bd 0f14 17be 28b7 a9bd 6c70 18be
00000060: d1a8 1f3e fafb 87bd beba f53d 3a06 113e
00000070: acc9 e03d 3bff 053e 1d44 873c 8364 3cbe
00000080: 5ccf cc3d 2e57 f4bd 6a0a 183e 2a21 93bd
00000090: 9d01 9ebc ea58 573e 91f5 0dbe 5bb4 31be
000000a0: ce40 013e 089b cdbd 0506 23bd 9ee0 e0bd
000000b0: 997d 2dbe ae0c 2e3e 21f1 0a3e f5c5 d93d
000000c0: 516a 373e e21f dd3d 8cdb 07be 2243 29bd
000000d0: 4d15 593d aeff 12be 4030 52be 71fd 24bc
000000e0: 688e f7bd 3767 85bd ed8d 91be 8230 68bd
000000f0: 8f6d 62bd 8e43 013c 7a28 353c add8 6bbd
00000100: fe81 ae3d 38aa a5bd 9cb1 6abd 8a03 e13d
00000110: e58e 863c b8c6 aa3d d96c 4cbe 1ae9 37be
00000120: d068 f6bc cff7 d53d caf0 e6bd fa59 e03d
00000130: 8678 08be a8b6 b6bd 2e00 f23d ad52 e5bd
00000140: 50cc c83d bce2 76bd 09fc 0b3e f93c 42be
00000150: 2cae e33d eb4f 503e 02d2 9f3c 0a6d 2b3e
00000160: 680a d03d cf1c 913d f679 a43d ebc2 713e
00000170: e676 033e 2282 6f3d 4266 b5bd 7a9f dc3d
00000180: 424f fe3c 880c 973d 7cb1 933c 6ae8 cc3d
00000190: 41a2 0ebe 6766 06be 0cc2 ebbc 4727 2a3e
000001a0: 750f 1ebe da5e 6ebd 998f 6abd 5368 44be
000001b0: 936d 36be 37f9 febd a21b 06be 0896 17be
000001c0: 14b7 26bd 70f5 713e 0635 cfbd 1607 2ebd
000001d0: f4f0 babd d40c 673d 5c33 023e 3347 f1bd
000001e0: 6307 b8bd 8834 ad3d 0bd4 3ebe a06e ff3d
000001f0: 9b2f 4cbd 7b6f 9b3d 986e fd3d 3f24 513d
00000200: eb7d 28be 61e6 64bd 54bb 143e cb48 1cbe
00000210: a0d1 1a3e 56c3 0fbe a40c f5bc 6bfc 0a3e
00000220: 84a8 2cbe e4f1 26be 5e60 2fbd 7990 07be
00000230: 1e9c bc3a 9e1a d83d 818d ce3d f79a 23be
00000240: 8a3c 39bd 5a35 15be aecb e3bd af64 b33d
00000250: c373 263d 9530 f83d 5f71 983d 6df7 febd
00000260: a40a 673d 4af3 e8bd 9200 25be ccec 30be
00000270: 9b70 3a3e d998 9cbd 4453 103e 9c9d fabd
00000280: b003 2d3e db6b 9ebd 5e05 fe3c 0925 37be
00000290: 285a 72bd 9feb 83bd 9d47 fd3b 6c05 84bd
000002a0: cf44 70bd e5f4 07bd 2f07 053e ce57 36be
000002b0: d707 24be 616c 6b3d e767 e7bc 2a9d 4fbd
000002c0: 171b b1bc 56ad fc3d 3807 aebd 4be8 0b3e
000002d0: eae3 843d d686 573c c5f8 adbc 4d83 8ebd
000002e0: 24d6 64bd 2f29 c0bd 556d 163e 26b3 3a3e
000002f0: b8e2 583d 6087 d53d ad50 143e 4269 913d
00000300: 3ac2 243e a781 143d e27f 30be a1c8 333e
00000310: 6164 86bb a388 87bd 4719 913c 3f64 02be
00000320: 52e6 83bd 3499 623d 6338 2abd 0cdb ebbd
00000330: d5bc ef39 6ad5 383e b431 93bb 0e89 333d
00000340: 5164 a23c c741 0abe 8afa 45bd 628f 10be
00000350: 85a1 c93d a17b 133e a237 203e ad52 96bc
00000360: 5ccd 2ebe 751a b73c 896c f63d e9bd cf3c
00000370: ff5b 38be cd9e 213e fe5c 17be b61f 2e3d
00000380: 590e 213e e838 babd 012f 54bd 2b43 293d
00000390: 6842 6ebd f6f2 cb3d 5c8a 0f3d 649e 83bc
000003a0: 6a82 a83b 2e0a 84bd f7b3 60bc 6c63 f0bd
000003b0: 2700 433e 0e9f cabc d3a1 6c3d 9070 9a3d
000003c0: e693 073e 6fb7 15be ae7b 06be fc58 f7bc
000003d0: d96b 0fbe 8200 5abd 33de bbbd a547 20be
000003e0: e073 8d3d b0b9 2d3e 9c2c 233c 5210 ce3d
000003f0: 06aa e53d 96b8 173e dabe 0c3d f523 cc3d
-0.10001118 -0.08029577 -0.0770397 0.10401185 -0.0106719835 -0.03761686 -0.14843461 0.012695672
0.116228454 0.13470285 0.012980691 0.17242655 -0.032183796 0.13908528 0.10335135 0.1647314
0.09657289 -0.19881088 0.06137456 -0.13102865 -0.10980866 -0.14753745 -0.082868874 -0.14886636
0.15591742 -0.066398576 0.11998509 0.14162531 0.10975966 0.13085644 0.016511971 -0.18397717
0.10000488 -0.11930691 0.14847723 -0.0718406 -0.019287879 0.21030012 -0.13863207 -0.17353956
0.12622377 -0.100393355 -0.039800663 -0.10980342 -0.16942443 0.16997024 0.13568546 0.106334604
0.1791165 0.10797097 -0.13267344 -0.04132379 0.05299883 -0.14355347 -0.20526218 -0.010070191
-0.12087709 -0.06513827 -0.28428593 -0.056686886 -0.055280264 0.007889641 0.011057014 -0.057579685
0.08520888 -0.08089107 -0.057298288 0.10987003 0.01642556 0.08338684 -0.19963397 -0.17960015
-0.030079275 0.10447656 -0.112763956 0.10954662 -0.13327226 -0.08921558 0.118164405 -0.1119741
0.098045945 -0.060274825 0.13670363 -0.18968572 0.11117205 0.20342986 0.01950932 0.16740814
0.10158235 0.07085573 0.08031075 0.23609512 0.12838325 0.058473714 -0.08857395 0.10772605
0.031043652 0.07375437 0.018028967 0.10005267 -0.13929082 -0.13125001 -0.028779052 0.16616546
-0.15435584 -0.058195926 -0.05726585 -0.19180422 -0.17815237 -0.12449878 -0.13096479 -0.14803326
-0.04070194 0.23628783 -0.10117535 -0.042487226 -0.091279894 0.05640872 0.12714905 -0.11781158
-0.08985784 0.08457285 -0.18635575 0.12472272 -0.049850088 0.075896226 0.1237461 0.051059958
-0.16454284 -0.05588377 0.14524585 -0.15262143 0.15119028 -0.14039358 -0.029913254 0.13572852
-0.16861159 -0.16303211 -0.042816512 -0.13238706 0.0014389788 0.10551952 0.100855835 -0.15977083
-0.04522375 -0.14571133 -0.11122833 0.08759438 0.040637743 0.12118641 0.07443499 -0.124495365
0.056406632 -0.11374529 -0.16113499 -0.17277831 0.18207018 -0.07646341 0.14094263 -0.12237093
0.16895938 -0.077354155 0.031008419 -0.17885222 -0.05916801 -0.064414255 0.0077294842 -0.06446347
-0.05865937 -0.033192534 0.12991022 -0.17806932 -0.16018616 0.057476405 -0.028247787 -0.050686993
-0.021619363 0.12337749 -0.084974706 0.13662831 0.06488784 0.013154706 -0.021236787 -0.069586374
-0.055868283 -0.09382855 0.14690144 0.18232402 0.05295059 0.10426211 0.144839 0.071001545
0.16089717 0.03625646 -0.17236283 0.17557003 -0.0041013216 -0.06617858 0.017712248 -0.12733553
-0.064404145 0.055321887 -0.04155768 -0.11516389 0.00045726323 0.18050161 -0.004492009 0.043831877
0.019823225 -0.13501655 -0.048334636 -0.14117196 0.098452605 0.1440263 0.15646222 -0.01834997
-0.17070526 0.022351483 0.1203242 0.02535911 -0.18003844 0.15783234 -0.14781567 0.04251071
0.1572813 -0.09092885 -0.05180264 0.041323822 -0.0581688 0.099584505 0.03504406 -0.016066737
0.0051424997 -0.06447254 -0.013714782 -0.11737713 0.19043027 -0.024734046 0.057771515 0.07541001
0.13240013 -0.14620756 -0.13133118 -0.030193798 -0.14005984 -0.05322314 -0.091732405 -0.1565233
0.06906867 0.16965365 0.009959366 0.100617066 0.1121407 0.14816508 0.034361698 0.09967796

bias_ih_l0 f4 [128]
00000000: a0cb c7bd 1470 7cbd a7b7 98bc 2e54 1dbe
00000010: d031 22be 6f4c 0d3e 7af5 35bd a62c 21be
00000020: c161 e43c d48f 7eba 6de6 233e 30f0 093e
00000030: afba 6b3d 2eb4 29be f0cb 993d 47ed 1abe
00000040: 4846 75bc f8ae 0d3e 5540 06bd 3b16 fc3d
00000050: ddc0 babb 8b0d 74bc d070 20bd ae7e 3fbd
00000060: 5971 b93d 023e 763d 93dd 45bd 15a4 8a3d
00000070: 690d c5bc 9ac7 f2bd 7205 5ebe cdb1 7dbd
00000080: d369 2b3e 175a 3cbd 6f41 13be fe96 9e3d
00000090: b7e9 20be 071d aabd 0bdc 11be b74e 30bc
000000a0: cf4f 01be 3c70 af3d 4fec 83bd 63cb 0b3d
000000b0: c29d 4fbd 4dec 1f3e cdb2 08bd 3836 01be
000000c0: 9d0c c13d e60d ea3d ef81 5cbd 3df0 9a3d
000000d0: 5178 3ebe 3fd4 c13d 9969 df3d c774 cc3d
000000e0: 1493 573d 9290 073e e760 ee3d 53c9 173e
000000f0: 3136 d3bc fc56 2abe 8f2c 45be a464 2dbe
00000100: 3178 ef3d 8755 033e 8b3c 0dbd eaa8 8f3d
00000110: f8a0 9abd 9c32 b23c d4d2 c43d 8ec8 c1bd
00000120: a2bf f03c 50c2 c73d 173b 06be 13f3 3e3d
00000130: ac14 06be 3d1b 6abd ff45 8bbd 1691 4fbe
00000140: 8aac 16be 5b54 fbbd f18b 063e 5a10 11bd
00000150: a8d4 63bc 82dc eb3d 2c27 aa3d af6d 1abe
00000160: 8012 293e 0f0c 02be 317b 0a3e 0e28 36be
00000170: dbd3 11be 9dc8 033e 5266 7c3b ba66 9ebd
00000180: 0f92 c73d 8915 b0bd f61a d03c 2593 c6bd
00000190: 9438 5e3a 9535 823d 7d0e 0abc f7eb 0fbe
000001a0: 9dbc c0bd 44fd 733d 66ac 93bd 500f 923d
000001b0: 4aaa 123d 2c43 3ebe 3368 f43d b60e f63c
000001c0: 17e2 e33d 366d 563d 7313 433d 1a94 613b
000001d0: e54c aa3d b757 c4bc 530f acbd bcfe 4c3c
000001e0: e906 02be d4a9 c93d 398c d63d 6762 983b
000001f0: 4f76 e03d 74c9 ab3d ffbc 1fbe d75c a7bd
-0.09755635 -0.061630324 -0.01864226 -0.15364143 -0.15839314 0.13798688 -0.044423558 -0.15739688
0.027878644 -0.0009710763 0.16005869 0.1347053 0.057551082 -0.1657264 0.07509601 -0.15129577
-0.01497037 0.13836277 -0.032776196 0.123089276 -0.0056992606 -0.014895807 -0.039170086 -0.04675167
0.090548225 0.06011773 -0.048307013 0.067695774 -0.024054246 -0.11854477 -0.21681765 -0.061937142
0.16739587 -0.045984354 -0.1438043 0.07743643 -0.15714155 -0.08306318 -0.14244096 -0.010760955
-0.12628101 0.08566329 -0.06441557 0.03412951 -0.05068756 0.15617485 -0.033373643 -0.12618339
0.09426234 0.11428432 -0.05383485 0.07565353 -0.18600585 0.09464311 0.10908813 0.09983211
0.0526305 0.13238743 0.116395764 0.14822893 -0.025782676 -0.16634744 -0.19255279 -0.16932923
0.116928466 0.12825595 -0.034481566 0.0701464 -0.075502336 0.021752648 0.09610525 -0.09462081
0.029388253 0.09753859 -0.13108478 0.046618532 -0.13093823 -0.057154883 -0.0680046 -0.2027019
-0.14714256 -0.12271949 0.13139321 -0.035415985 -0.013905682 0.11516668 0.08308253 -0.15080903
0.16510963 -0.12699912 0.13523556 -0.17788717 -0.14240973 0.12869497 0.0038513136 -0.07734437
0.09744655 -0.085978575 0.025403481 -0.09696034 0.0008477059 0.06357876 -0.008426306 -0.14054857
-0.09410975 0.059567705 -0.07210617 0.07131827 0.03580693 -0.18580312 0.11933937 0.030036312
0.111271076 0.052350245 0.04762597 0.003442055 0.08315448 -0.023967607 -0.0840136 0.012511905
-0.12697949 0.09846845 0.10475964 0.0046504023 0.109600656 0.083880335 -0.1559944 -0.08172005

bias_hh_l0 f4 [128]
00000000: 3a40 11be cbbf 46bd 4f17 1cbe 477a 003c
00000010: 947e 6fbc 35e9 d8bd 4a94 15be a036 a53c
00000020: 2b75 e73d d8db 273e d06a c5bd 77d5 213c
00000030: 9214 39be aaa0 033e dede ec3d 3281 153c
00000040: 7dc4 d0bd ae10 063e d08c 03be 3d68 a13d
00000050: a862 113e 08cd 293e 1766 2ebc 1ebd 8f3c
00000060: 8148 ffbb 7d46 383d 43d4 ce3c 17ad c3bc
00000070: eb6e d8bd 00f5 02be 66d5 16be e072 40bc
00000080: 520c a13d 17fa a2bc ac46 c03d e7cb 03be
00000090: 69da 1a3e dc63 a33d 6a74 c4ba 1052 1fbe
000000a0: 3db5 5abd 652e f13c 224a 3abd aeab ddbc
000000b0: 3603 5bbd e98f bebc 58a5 943d 27cb 9bbd
000000c0: 7ba6 15bd 6ee4 3d3d 91bf d0bc bb55 d8bd
000000d0: 7d6f 2cbd df93 8bbd 4f6d e9bd 3823 933d
000000e0: 1593 1abe 8c78 34be cd6e 0cbe 2146 b33d
000000f0: 1733 5dbd b461 8a3d 75ad 77bd 3a3b 073e
00000100: 8a52 2abe b7e3 0fbe 0fda 0a3e b5d1 6d3c
00000110: 8e81 393e 697c 5d3d 7165 b8bd 9e80 43bd
00000120: e4bd 2e3e 5775 803b 411b 55bb 6de4 823d
00000130: 24e1 4b3d 9132 183c e634 15be 3f31 67bd
00000140: 2b02 5ebd 0a16 f53d 3dd1 683d a8e2 25be
00000150: 54fb 2ebe 811b 603d 485d 24be ec34 c73d
00000160: 1a4c 96bd 5cf8 aebc fd84 0d3e 771b 81bd
00000170: 0f19 06be 4a8c 19be 6f8e a9bc 2154 da3c
00000180: 971f 90bc 9e07 463d 4cd5 05be 1e7b 053e
00000190: a8b2 cb3d 5a4c 07bd 86b7 423e 4220 2e3e
000001a0: 79aa 17be d7c4 a73d be38 2d3e 66c4 173e
000001b0: 857a 443d 6ecc f13b 7889 203d 413d 1b3d
000001c0: cbe0 043e 8bef acbd 1d63 1c3e 6cdb f5bd
000001d0: e03e 3d3d 5e23 2b3e ebc6 8a3d 7295 143e
000001e0: 583d 793d 96ca 973d 376f 203e b7d4 313c
000001f0: eeb4 a1bc e86f a03d 5b12 04be d4bf f33d
-0.14184657 -0.04852275 -0.15243267 0.007841653 -0.014617581 -0.10591356 -0.14607349 0.020167649
0.11301645 0.16392457 -0.096395135 0.009877554 -0.18074253 0.12854257 0.11565946 0.009125041
-0.10193727 0.130923 -0.12846684 0.0788121 0.1419779 0.1658212 -0.010644457 0.017546233
-0.0077906256 0.044989098 0.025247699 -0.023886247 -0.10568031 -0.12788773 -0.14729843 -0.011746138
0.07863678 -0.019894643 0.093884796 -0.12870751 0.1512238 0.07978031 -0.0014988307 -0.15558648
-0.0533955 0.029441068 -0.045480855 -0.027059402 -0.05346986 -0.023261981 0.07258099 -0.076071076
-0.03653572 0.046360426 -0.025481971 -0.10563227 -0.04209851 -0.068153135 -0.11397802 0.07184452
-0.1509517 -0.1762411 -0.13714142 0.087536104 -0.0540038 0.06756917 -0.060468156 0.13206187
-0.16633049 -0.1405171 0.13559745 0.01451533 0.18115827 0.054073725 -0.090037234 -0.04773008
0.17064625 0.003920238 -0.0032517465 0.06391225 0.049775258 0.0092894 -0.1457096 -0.05644345
-0.054201286 0.11967094 0.05684017 -0.16199744 -0.17088062 0.05471373 -0.16051209 0.09726891
-0.07338734 -0.021358661 0.13820262 -0.06304067 -0.13095497 -0.14994922 -0.0206978 0.026651444
-0.017593188 0.048347108 -0.13069648 0.13035247 0.09946185 -0.0330318 0.19015321 0.17004493
-0.14811124 0.08191841 0.16916177 0.14821014 0.047968406 0.0073791062 0.0391936 0.037900213
0.12976377 -0.08444127 0.15272184 -0.12004742 0.04620254 0.1671271 0.06776222 0.14510134
0.060849518 0.07411687 0.15667425 0.010853938 -0.019739594 0.078338444 -0.12897627 0.11901823

weight_ih_l0 f4 [128, 2]
00000000: 7493 9b3d 51df 363d 4f04 c4bd 40b5 a1bd
00000010: 19c3 fa3d 827e ba3c 2d4a 363d 5d3c f0bc
00000020: 5fa4 fcbc 55b1 6bbe 062a dcbc 17fb 833d
00000030: 8898 3fbd cc3b 81bd ca16 663c b0dc 68be
00000040: a323 043d b939 7bbe c5fc 143d 5763 973d
00000050: 4cad a0be 6b31 bdbd 8dae eabb de4e 22be
00000060: 26b0 b33c fa44 673d 18c0 2d3d c32e 84bd
00000070: c9ff 4fbd 0274 b0bd dd00 08bd e316 203e
00000080: 1106 0cbd 37cc 0f3c 09ac 0e3e f13c 943d
00000090: 8ff8 c0bc d0e9 05bd 8776 8c3d fcef 9e3d
000000a0: f3dd 463d bc1b 78be 1bc0 fcbb 4bbe 22bd
000000b0: a76b 0abe a97f 4cbc da9e 86bd bcce 0b3c
000000c0: e478 863d 9075 19be 2690 58be cfca 633d
000000d0: 1b9e 2d3e 0f0e 273c 8398 41be 09e7 8b3d
000000e0: 866b 13bf 0646 82bd d3ea 0c3d 1921 0cbe
000000f0: 8642 273e ad20 4ebe 39ee 1dbe e037 4cbe
00000100: 09b7 81bd c87c 7ebe 28c9 d83d 03e2 76bd
00000110: a2d8 253e b39b 18bd 4657 0a3e e92f 47bd
00000120: 04b3 773e f793 88be 5def f33c 0d2f 09be
00000130: 2e22 a8bd c784 1e3d 1de9 373e 4bad 9fbc
00000140: 6256 52bd c0a2 16be 77b7 183e 4b57 7f3d
00000150: 11da f1bd 3f1d 41bd c5b8 19be 6974 00bc
00000160: 4421 8dbc e3bc 573e c76b 583d 9b06 79be
00000170: 619b 593e 844d 8e3d 5689 da3d 53f5 d1bd
00000180: ae8c a93d 3e9b afbd 3d5e 21bc 0d3c 45be
00000190: 858a 47bd 2dc4 0b3d faab 8bbe 540f e0bd
000001a0: 69a5 6b3e 6568 17bd bd04 663e e87e 32bd
000001b0: 5f40 d2bc ebe1 e6bd 1aae ad3c 0cd5 36be
000001c0: 3691 1b3d 00f5 26bb 5551 4dbd b788 873b
000001d0: 6372 783d c80d 31be 4194 163e 613b 1dbd
000001e0: 6d14 9cbd dfdf 4bbe 650d 993d dbf6 e7bc
000001f0: 0bbb af3d bc70 58be 5f21 2fbe 1fd8 8cbe
00000200: da41 833d 749c 593e 80b4 35be ce36 8fbe
00000210: 209d 9abe 55ab 073c c85a a6be 5a6a 4abd
00000220: 9c02 02bd ea92 0fbe 0454 643e c2f1 8fbe
00000230: 30d9 83be a98e cbbc 392d 7b3e 3dc6 06be
00000240: 6691 583e f66c 023e 09e2 72bd a8dc 833e
00000250: 44ae 523e 52c4 a83e 514f c7bd 5cc0 f5bc
00000260: c910 39be ea0e 72be c0e5 4b3e 7bd0 4e3e
00000270: b73b 3abe 10d2 9ebe 3a46 75be 07c6 613e
00000280: 38d7 26be a156 2d3e 6c5a 73be 2e12 263e
00000290: dff5 1abd 8aef 7d3e c630 053e a9d7 403e
000002a0: fa1d 22be a099 c3bd 07b0 55be 6fad 1e3e
000002b0: 5337 633d 19ad 20bd b04a 5b3e 3bd5 18bd
000002c0: f24a 283e 5064 823e 7f66 c43e 74e4 803e
000002d0: dcf9 ecbd 680c 623e eb1f 333e 91f5 0fbe
000002e0: 79f1 843e 6b7c a43d 289d 253e 596b a43e
000002f0: e04e d03c cdd7 c2bd 5d9f 89be ef71 7e3d
00000300: c656 10be 2f6d 81be 9efb 8c3e 882c 013e
00000310: e65f 1c3e 8769 c3bd 4a24 4a3e ec7c 19bd
00000320: 59a6 18bd 8db7 b1be fbe6 143c e247 eebd
00000330: f401 81bd 1029 a3be e519 0abe 7610 7dbe
00000340: 6f8c 0b3c 81a8 273d 6bdc e7bd 8820 22be
00000350: c1dc 3f3d f463 163e a74d 863c f8fe 78be
00000360: fbcf 793e ba61 be3d 2981 843c 4e0a a3bd
00000370: 10f5 353e 19dc 8d3d d239 95bd 4efc 643d
00000380: 0b50 06bd 45f4 82bd 8727 a7bd 3c89 38be
00000390: 82e2 f3bd 7035 7cbe 34e9 293d 3fc1 183d
000003a0: 2858 393d 5ddd dbbc 43a4 fc3c 1d97 86bd
000003b0: c80c 6f3e 54e6 debd 85ee d6bd 94e8 5ebe
000003c0: fab3 803e 9de3 4b3c d277 03be b5d3 08be
000003d0: 595f 283e 71fb 8cbe f8af 223e ca9b a83e
000003e0: b6e7 bbbe fbde 0fbe 6a0a d0bc d42a 86be
000003f0: 1fe2 473d 437c b4bd 1892 0a3d 6cba 8ebe
0.07596484 0.044646565 -0.09571134 -0.07895899 0.12244243 0.022765402 0.044504333 -0.029325658
-0.030840097 -0.23016866 -0.026875507 0.06444376 -0.046776325 -0.063102335 0.014043519 -0.22740436
0.03226055 -0.24533738 0.036373872 0.073919944 -0.31382215 -0.09237941 -0.0071619214 -0.15850398
0.02193458 0.056462266 0.042419523 -0.064542316 -0.050781045 -0.08615877 -0.03320395 0.1563373
-0.034185473 0.008776716 0.13932814 0.07238186 -0.023556022 -0.032693684 0.06858545 0.07760617
0.04855151 -0.2422933 -0.0077133304 -0.03973226 -0.13517629 -0.012481608 -0.06573267 0.008533176
0.06566027 -0.14986253 -0.21148738 0.055613335 0.16954844 0.010196223 -0.18905835 0.06831176
-0.5758594 -0.06361012 0.034403633 -0.13684501 0.1633397 -0.20129652 -0.15422906 -0.1994319
-0.06333739 -0.24852288 0.105852425 -0.060274135 0.1619592 -0.03725786 0.13509855 -0.048629675
0.24189383 -0.26675388 0.029777223 -0.13396855 -0.08209644 0.038700845 0.1796002 -0.019491812
-0.051351912 -0.14710522 0.14913736 0.06233911 -0.11809171 -0.047147032 -0.1501189 -0.007840254
-0.017227776 0.21068148 0.05283716 -0.24318926 0.21250679 0.06948379 0.10670726 -0.1025187
0.08278786 -0.08574532 -0.009849128 -0.19261189 -0.048716087 0.034122635 -0.27279645 -0.109404236
0.23012318 -0.036964793 0.22462745 -0.04357806 -0.02566546 -0.11273559 0.021201182 -0.17854708
0.03798028 -0.0025475621 -0.050126392 0.0041361707 0.060655963 -0.17290413 0.14704992 -0.038386706
-0.076210834 -0.19909619 0.07473258 -0.028315952 0.085805975 -0.21136755 -0.17102574 -0.27508637
0.064090446 0.21251088 -0.17744637 -0.279715 -0.30198002 0.008280595 -0.32491136 -0.04941783
-0.03174077 -0.14020887 0.22297674 -0.28114134 -0.25751638 -0.0248483 0.2452897 -0.1316156
0.21149215 0.12736878 -0.059297595 0.25754285 0.2057429 0.3296228 -0.09731925 -0.02999895
-0.1807281 -0.23638502 0.19911861 0.20196716 -0.18186842 -0.3101964 -0.2395257 0.22048198
-0.16293037 0.16927578 -0.23764962 0.16217873 -0.037832137 0.24798408 0.13006887 0.18832268
-0.15831748 -0.09550786 -0.2086793 0.15495847 0.055472683 -0.03922758 0.2141521 -0.037312727
0.1643484 0.25467157 0.38359448 0.25174296 -0.115710944 0.22075045 0.17492644 -0.1405852
0.2596548 0.08031543 0.16173232 0.3211315 0.025428236 -0.09513817 -0.26879397 0.062120374
-0.14095601 -0.25278613 0.2753572 0.12614644 0.15270957 -0.09541612 0.19740406 -0.03747265
-0.037268016 -0.3471035 0.009088273 -0.11634804 -0.06299201 -0.31867266 -0.1348644 -0.2471331
0.008517369 0.040932182 -0.11321338 -0.15832722 0.046841387 0.14686567 0.01639445 -0.24316013
0.24395745 0.092959836 0.01617487 -0.0796095 0.17769265 0.06926746 -0.07286419 0.05590468
-0.03279118 -0.06394247 -0.08161836 -0.18021101 -0.11908437 -0.2462976 0.041482165 0.03729367
0.045250088 -0.026838953 0.030840045 -0.06571791 0.2334472 -0.10883775 -0.10494713 -0.21768409
0.2513731 0.012444404 -0.12838677 -0.1336201 0.16442622 -0.27535585 0.15887439 0.32931358
-0.3670022 -0.14049904 -0.02539559 -0.2620455 0.04879963 -0.088127635 0.033830732 -0.27876604

weight_hh_l0 f4 [128, 32]
00000000: bd8f c8bd 4514 773d f758 24be 2edc 9e3d
00000010: b704 663c a8cb 1f3e 9d19 b6bd ba8b 8ebd
00000020: b9d1 e2bd 2b5a 83bc 1228 c83d 406a a73d
00000030: 7624 543e 6b31 b8bd fe37 63bd e1a4 1cbd
00000040: 53df c53d 8071 e3bd 4e5e 113c 130b bd3d
00000050: d28a 853d 0a61 03be a931 21be d702 183d
00000060: fed1 37be 0a6c 403e db50 4ebe b5e8 4e3e
00000070: 6cb5 4b3d 2cb3 5fbe 15fd 04bd 8331 e83d
00000080: 55b2 dbbd b460 3fbc 86e2 db3d 7d84 ffbd
00000090: 5dee af3d a489 423e 3e65 cbbd c18a 60bd
000000a0: 11a4 cbbd 0558 9c3d 7f7a 74be eae7 20be
000000b0: 597c 7e3e a478 2a3d 79b5 083d db77 86bd
000000c0: 7392 813c 8007 44bc 2a8f f03a 84e4 c63d
000000d0: 60f3 793e b41f 87be 1b83 603d 9030 7e3e
000000e0: 16ba cd3d 0adc aabc e06f 97bc d172 a1bd
000000f0: 7697 973c 9f49 9c3d 3b19 5c3d e374 cebd
00000100: ec0a 0ebe 1348 463d cb39 fb3c bc8f 0ebe
00000110: a9d3 92bd 1298 253d e3ba b8bd 7656 d7bc
00000120: 8664 07be 0ec9 50be f69e 9ebc 9100 bdbd
00000130: 4e32 34bd 7b5e a33e e793 6b3b a4a1 38be
00000140: 3c39 1fbb 3239 893d a40a 6ebe e0b6 65be
00000150: 1d10 0dbd 0bda 01be c24e 47be 897c 863e
00000160: 9fba aabd bfbd ec3c 6ef3 bcbd 1d92 dbbd
00000170: 6f37 4ebd 846d c73d cbb6 ec3d f18a 5fbe
00000180: ade7 ef3d 1162 0e3b 2e50 b13c 853a 9cbd
00000190: ebf1 073d 905b 343e c37b 063e 561a f53d
000001a0: 846d 1e3e e83f da3d 3abd 8a3d 2e77 c8bc
000001b0: b4e3 68bd a27e 1abd e265 44bd b4d6 a4be
000001c0: daa5 5fbe 32fd f3bd d56d 04be 3ab5 53be
000001d0: 2a5b f939 4cd4 6e3d 7477 59bd a423 47bc
000001e0: 0f7c 96bc 0afa 433e 444c e0bd b231 6abd
000001f0: 9e52 483d 8f28 20bd f119 583e ca94 64be
00000200: f226 57bd f114 083e 1435 20bd a746 813d
00000210: ed86 f33d a1c1 863e 9d54 fa3d 6e99 8fbd
00000220: 5648 e43c e700 e13d 9441 1ebe 67af a9bc
00000230: c170 dd3c 12ee 9e3d 7f56 093e 99e6 89bd
00000240: b964 50be 3e11 0f3b 86b3 d3bc bc98 65bd
00000250: f0fa 143e 049f c93d d413 c13d 9821 bfbd
00000260: 8b0d 2dbe 8c2d 133d c1e3 41be 703d 623d
00000270: fd5a 3c39 60d0 043e 74e0 fe3d 7020 6cbd
00000280: 71bb a2bc ad70 b4bd 8c6f cdbd 9e80 29be
00000290: dac2 28bd 1e26 703e c7aa 17be 4dbe 443e
000002a0: 0b9d 603d f9f8 2ebe f490 b7bd cfdd ce3d
000002b0: 2a5c 913d 400f 06be f650 8e3d dac7 33be
000002c0: b446 04be d220 c43d 8b94 d1bd 17f7 f83d
000002d0: 584a edbd fc21 93bd ddde 4fbe 113f bd3d
000002e0: ef73 0b3e b681 3c3e d388 013e 0fc3 9fbd
000002f0: a8ab 4b3d f22d 2ebe e86e 603e b5e3 c9bd
00000300: b826 b03d d796 f13c 0b69 283c db93 66bd
00000310: 31d5 563e bdde b6bd b8e6 38be d92d ab3d
00000320: b060 28be cca0 62bd cbf0 ad3d b064 fa3d
00000330: 0f6d aa3d 0569 193e da8c a5bd 6585 7ebe
00000340: 49fb 9abd 2ad4 20bd 218a ad3d e63d fabd
00000350: ee0c 553e 504a af3d 9d82 39be e647 2a3e
00000360: cefb 61bd 2765 de3d eb29 06be d392 7c3d
00000370: 9bfc 623d 49f6 06be 5aa0 7bbd 6589 97bd
00000380: 0178 783d 4ffd 253e e70e 25bd 5494 b23c
00000390: 9abe 0c3e b9bc 79bd b49f 143d 1d19 d93d
000003a0: d7b9 76bd bf38 56be 2d9a 1cbe 8220 693e
000003b0: fa90 323e cf1b a7bd a9f3 133e 183b dbbd
000003c0: 0b6f 433d 8ffb ccbd f4e3 75be 18c8 593d
000003d0: dd5a d8bb 531f 7cbd f94d 29be dfb4 9bbd
000003e0: d10c a13c ffa3 a1bd 9517 1b3c 4810 253e
000003f0: 46e0 5abd 5180 813d 6fd8 023e 3220 82bc
-0.09793041 0.060322065 -0.16049562 0.0775684 0.01403921 0.15605032 -0.08891604 -0.069602445
-0.11075158 -0.016034206 0.09773268 0.081745625 0.20717034 -0.08993801 -0.05547332 -0.03824318
0.09661736 -0.11105633 0.008872582 0.09230628 0.065206185 -0.12829986 -0.157416 0.037112083
-0.179512 0.18791214 -0.20148031 0.20205958 0.049733564 -0.21845692 -0.03246792 0.113375686
-0.107273735 -0.011680771 0.10736565 -0.12476442 0.08590386 0.18997818 -0.0993142 -0.054819826
-0.099434026 0.07633976 -0.23874854 -0.15713468 0.24852122 0.041618958 0.03337619 -0.06565829
0.015816903 -0.011964679 0.0018353213 0.09711555 0.24409246 -0.26391375 0.054812532 0.24823213
0.10045259 -0.020856876 -0.018485963 -0.078832276 0.01850484 0.076312296 0.053735 -0.10080888
-0.13871354 0.04840858 0.030667206 -0.13922018 -0.07169277 0.04042823 -0.09020021 -0.026286345
-0.1322194 -0.20389196 -0.019362908 -0.09228624 -0.043993287 0.3190802 0.003594631 -0.18030411
-0.002429559 0.06700362 -0.23246247 -0.22433043 -0.034439195 -0.12680833 -0.19463637 0.26266888
-0.083363764 0.028899072 -0.09226118 -0.10721228 -0.050345834 0.09737685 0.115583025 -0.21830346
0.117141105 0.0021725933 0.021644678 -0.07628349 0.033189695 0.17613053 0.13133149 0.11967914
0.15471464 0.106567204 0.06774373 -0.024470892 -0.05685778 -0.037718423 -0.047948726 -0.32195055
-0.21840611 -0.119135275 -0.12932523 -0.20674601 0.00047560903 0.05830793 -0.053092435 -0.0121544935
-0.018369703 0.19138351 -0.109520465 -0.0571763 0.048906915 -0.03910118 0.21103646 -0.22322384
-0.052527376 0.13289239 -0.03911312 0.06312304 0.118909694 0.26319602 0.1222317 -0.07011686
0.027866524 0.109865 -0.15454704 -0.020713521 0.027031304 0.07760252 0.13411902 -0.06733436
-0.20350923 0.0021830346 -0.02584244 -0.056053862 0.1454885 0.09844783 0.0942761 -0.093325794
-0.16899697 0.03593211 -0.18934537 0.055234373 0.00017962973 0.12970114 0.12445155 -0.057648122
-0.01986477 -0.08810554 -0.100310415 -0.1655297 -0.04120145 0.2345204 -0.1481124 0.19213219
0.054837268 -0.17087163 -0.089631945 0.101009004 0.07097657 -0.13091755 0.06949036 -0.17556706
-0.12917596 0.095765725 -0.102334104 0.12156504 -0.115864456 -0.071842164 -0.2029986 0.092405446
0.13618444 0.18408856 0.1264985 -0.07800876 0.04972425 -0.17009714 0.21917307 -0.09857885
0.08601135 0.029490871 0.01027895 -0.05629335 0.20979764 -0.08929203 -0.18056762 0.08358354
-0.16443133 -0.05532913 0.08493193 0.12226236 0.083215825 0.14981468 -0.08083506 -0.24855573
-0.0756746 -0.039264835 0.084736116 -0.122188374 0.20805714 0.08559096 -0.18116231 0.1662899
-0.05517178 0.10859137 -0.13101928 0.06166346 0.055416685 -0.13179888 -0.06143222 -0.07399253
0.06066132 0.16209911 -0.040297415 0.021799244 0.13744584 -0.060970996 0.036285117 0.10600493
-0.060235824 -0.20920084 -0.15293188 0.22766307 0.17438117 -0.08159601 0.14448418 -0.107046306
0.04771332 -0.100089185 -0.24012738 0.05316934 -0.0066026286 -0.06155331 -0.1653365 -0.07602858
0.019659432 -0.07892608 0.009466072 0.16119492 -0.05343654 0.063233025 0.12777875 -0.015884493

bias_ih_l0 f4 [128]
00000000: eeb5 32bd 17ce 47bd 902e 1b3e a178 ef3d
00000010: 4cc8 423b c022 d53d 8999 4b3e d9fc 7dbd
00000020: 6e3f 303d a811 e03d 3ee2 f13d 0546 22be
00000030: 0c98 d03d 0bfb fc3e 5969 04be fb12 413e
00000040: 78e4 6b3d 6237 0c3e 44e0 6e3e 128d 003c
00000050: b3ec 583e 4193 70bc c72e 05be d429 16bd
00000060: 995e 82bc 589a 8b3d 0730 8a3d a504 803d
00000070: 589c 023e 281b 203e 0fd3 4e3e 45f4 2d3d
00000080: 206e 383e d0f7 8a3d d163 fcbc 8b8c b6bd
00000090: 1f13 09bd c7d6 8e3d f1ad bcba b10a 553e
000000a0: bdd2 483e 4b0f 4f3e a711 a33e 1ace 2a3e
000000b0: f835 82bc 8d01 823e 5495 663d 029e 9d3d
000000c0: f7f3 b3bd e537 653e a80b 463e 495b 743e
000000d0: 6557 fb3d 3416 063e a96c b8bd 4c04 5b3d
000000e0: e0fc f9bc 1ddd 3b3e 008f 923d b029 633e
000000f0: 35ed cfbd bb71 b13d b79d c13c 22ba 833c
00000100: 5ed1 d0bd 7d68 6e3d 4e55 8c3d 353d 4abe
00000110: 5362 333d fc61 e53d 17aa c03d 35aa 123e
00000120: 71f6 bd3d 491c 01be 2696 053e 221b 563d
00000130: fb5d 533d 9344 073d d2d0 f23d 47ab a2bd
00000140: e363 33be 29dc 03be 2f6e 0a3e f0b8 c9bd
00000150: 054c 883d 7c0e 48be 8013 ccbd 14bf 283e
00000160: b380 06be 9c39 4fbd 2254 d43d fddd 473d
00000170: 5639 033c d3c4 d4bd 22bc 97bc 320b 273d
00000180: 45f0 b6bd 6416 823e 3020 863e 5431 183e
00000190: a1e2 c03d 491d 0e3e 2f89 3d3e 0161 0d3d
000001a0: 3375 9d3c 4f4b 333e 981f 6b3e 838b 12be
000001b0: 94d9 a6bc d884 b63e b716 833d 1e5e e83d
000001c0: 29c4 aa3d 1cdb dabd 986b 0a3e 11ba 063e
000001d0: 68dd 3dbc b4bf 173e 36d8 92bc 2f36 babd
000001e0: 73dd 463e e6d6 fb3d 5c58 5d3e 1efd b3bd
000001f0: 9666 ebbd a92d 933c 057f 1b3e bea7 dabb
-0.043630533 -0.048780527 0.15154481 0.1169293 0.0029721437 0.10407019 0.19882788 -0.062008712
0.04302924 0.10940868 0.118107304 -0.15847023 0.10185251 0.4941028 -0.12930812 0.18854897
0.05759093 0.13693002 0.23327738 0.007846134 0.21184044 -0.014683546 -0.13006125 -0.036660984
-0.015914248 0.06816548 0.06747442 0.06250886 0.12754953 0.1563536 0.201977 0.04246928
0.1801076 0.06785548 -0.030809315 -0.08913525 -0.0334655 0.06974559 -0.00143951 0.2080486
0.1961164 0.20220678 0.31849405 0.16680184 -0.015894875 0.25391808 0.056294754 0.07696153
-0.08786767 0.22384603 0.19340384 0.23862948 0.122725286 0.13094407 -0.090051 0.053470895
-0.030516088 0.18346067 0.07156181 0.22183871 -0.101526655 0.086642705 0.023634775 0.016079966
-0.101961836 0.058205117 0.06852208 -0.19749911 0.04379494 0.1120033 0.09407442 0.14322741
0.092755206 -0.12608446 0.13045558 0.05227197 0.0516033 0.03302438 0.118562356 -0.07942825
-0.17518573 -0.12876953 0.13518594 -0.09849727 0.066551246 -0.19536775 -0.09964657 0.1647914
-0.13135032 -0.05059205 0.103676096 0.04879569 0.008009275 -0.10389104 -0.018522326 0.04078216
-0.089325465 0.25407708 0.26196432 0.14862567 0.09418226 0.13878359 0.18509363 0.03451634
0.019220924 0.17509197 0.22961271 -0.14311032 -0.020367421 0.35648227 0.06400817 0.113460764
0.08338196 -0.10686323 0.13517606 0.13156916 -0.011588432 0.14819223 -0.017925363 -0.09092366
0.19420414 0.12296848 0.21615738 -0.08788513 -0.11494176 0.017966108 0.15185173 -0.0066728285

bias_hh_l0 f4 [128]
00000000: dadb 3d3e bdc3 573e 4a63 a73d b0ff 54bd
00000010: 62ab c63d 4b5a 443e 0cc0 43bd ce57 2c3d
00000020: 4741 f93d 93e5 393e d075 a53e a5f6 4d3d
00000030: f5b3 d13d 0ede 003f 4dc0 cc3d f35f 753e
00000040: e06e d63b 34c7 6c3d cc77 123e 4706 18bd
00000050: 611c 5e3e d10c c23d 4644 283e e28f e1bd
00000060: 32b9 fbbd f1a3 75bc cae8 013d 8ae5 09bd
00000070: bf12 1d3e 5ce5 383e 0b85 7a3d 584f 923d
00000080: 2f01 3c3d b2e6 933e 52b3 be3d 3539 7a3c
00000090: 66da bcbc 01e7 c6bd 1512 ffbd 87c6 a7bd
000000a0: 0e33 86bd 039b c03c aada 723e 9c0c 7a3d
000000b0: b6bc 033e 97b5 883e 0e1b cdbd b2f7 463b
000000c0: f020 a7bc 717b 14bd d43f 463d dfb8 523d
000000d0: 38ca eb3d a873 5d3d 2167 603d 29b9 c0bd
000000e0: ff43 c7bb 7ad8 693e 9718 91bc 8df0 3c3b
000000f0: fb7e c63d 7754 d8bd 4368 c4bd 36aa 453e
00000100: 5e5d 9e3d 2bf3 9b3d 6c26 f6bd af43 28be
00000110: 5236 f03d 64cd b6bd 1589 e1bd 9ffa 113e
00000120: 9101 2cbe f8c8 c53d b9d2 623d 5a6e 233e
00000130: dfa4 503c 69e5 d83d 18eb c33d 3d00 e03c
00000140: 5fb6 b0bd 63b2 2d3d d091 17be c946 ebb9
00000150: b47b e83d 195e 1dbe 52d1 023d 4bc0 cd3d
00000160: 729e 89bd 3f12 303e 00df cdbd 54fb 843d
00000170: 8617 10be 06f8 11be 1976 533e 261d 0ebe
00000180: 9142 333e 0292 6b3e 293e 253e 4a08 f1bd
00000190: c7c9 a1bd 86a0 1b3e 40a7 e13d aead dd3d
000001a0: 4f28 7f3d 3353 403e 0e0a 333e 0c8d fabd
000001b0: 1d93 4cbc ced0 5c3e 9bdd 043e fbb6 5c3e
000001c0: bd07 6d3e a190 46bd 40b8 b1bd f953 ef3d
000001d0: 6d91 ebbc 71c8 2bbd 27d1 d23d 548e 483e
000001e0: e098 8d3d c0c5 7e3e c634 933b 59b5 c73d
000001f0: bf6d 243e fe66 ae3d cf06 9d3d 6db8 6d3d
0.18540898 0.21070762 0.08173235 -0.052001655 0.097006574 0.19175069 -0.047790572 0.042075925
0.12170654 0.18153982 0.32316446 0.050284047 0.10239402 0.5033883 0.09997616 0.23962383
0.006543979 0.057807162 0.14303511 -0.03711536 0.21690513 0.09475101 0.16432294 -0.110137716
-0.122911826 -0.0149927 0.031716146 -0.03366617 0.15339182 0.18056244 0.061162036 0.0714404
0.045899566 0.28886944 0.093115464 0.015272428 -0.02305336 -0.09712029 -0.12454621 -0.08192163
-0.06552707 0.023511415 0.23716226 0.06104718 0.12864956 0.26701042 -0.10014926 0.003036004
-0.020401448 -0.036250535 0.048400715 0.051445838 0.115131795 0.054065377 0.05478585 -0.094103165
-0.006081104 0.22836486 -0.01771192 0.0028829903 0.09692188 -0.105629854 -0.09590199 0.19303212
0.07732652 0.0761474 -0.12019047 -0.16432069 0.11729111 -0.08925894 -0.110124744 0.1425576
-0.16797473 0.09657472 0.055376742 0.15960065 0.012734621 0.105906315 0.09566325 0.027343864
-0.086285345 0.04240645 -0.14801717 -0.00044875432 0.113517195 -0.15367927 0.031937905 0.100464426
-0.06719674 0.1719446 -0.100522995 0.064932495 -0.14071473 -0.1425477 0.2065052 -0.13878307
0.17505862 0.23004916 0.16136993 -0.11769159 -0.07899814 0.15197954 0.110182285 0.108241424
0.0622943 0.18781738 0.17484304 -0.12233934 -0.012486246 0.21564028 0.12975161 0.21554177
0.23147483 -0.048477773 -0.08677721 0.116859384 -0.028755868 -0.041939203 0.10293799 0.19585544
0.06913924 0.24880123 0.004492375 0.09751386 0.1605749 0.08515738 0.07667314 0.05803721

weight_ih_l0_reverse f4 [128, 2]
00000000: 5e52 ec3d 438a 40be b36c 493e b933 d13c
00000010: 9a98 373c 7456 9fbd 8e24 433e f91e 31be
00000020: 4522 313e 103e ef3c 0302 9fbd befa 88be
00000030: 4ce8 0e3e 1cb5 0e3e ae46 14bc 0432 96be
00000040: 61c6 203e 5e35 89be ca50 9bbd b334 c23d
00000050: ab05 20be 13de 993d 28ea 0a3e 5078 04be
00000060: f36c 82be b10e 703d 8863 1dbe 9d4a 93be
00000070: 5571 493e c751 503d f3a8 163d c961 df3c
00000080: e43d bebd bb56 ffbc 276f 0fbd 5620 25be
00000090: cbd2 13be cc4b 63bd 3904 a6bd 7316 173d
000000a0: fc3d 6fbe 1a19 753e 5fd4 d3bd db86 22bd
000000b0: 682a a0bd 8e7b 563d b0f6 8f3e 2536 cebc
000000c0: 1477 67bd 00dc c2b9 64b9 f1bd 32d5 05be
000000d0: 3cd1 e23d e52f fe3c 61cb cbbc 47cc 32bc
000000e0: f374 58bd 0401 093e f2ce 173d 913f e1bc
000000f0: 45c0 423e 7ea8 67be 0d20 0fbd 6cc0 1cbe
00000100: a326 16bd 3641 3d3d f4dd 873e defd cfbd
00000110: a14f 053d dd95 3ebc 5fe9 8b3d 315c 54be
00000120: fa9e 353e 8401 8a3d 9291 4b3e 2416 8fbd
00000130: eccb 5ebd a997 103e 8ee6 653d 23a7 c5bd
00000140: a824 6c3e 2951 e8bd 6168 183d 981c d8bd
00000150: 7b5b 2f3e da9c 2fbe 1857 023e 6ed0 1fbe
00000160: f442 91be bcb3 323e 20e5 bfbc aa84 86be
00000170: df23 243e 75e0 d2bd 759c 533b e37e 90bd
00000180: 897d 753d eb1d bcbd a72d b0bc 0eef 66bd
00000190: f58f f9bd bc0d 99bd 239d 08be f436 8abb
000001a0: 46a2 97bd 77b6 d53e ff4c dc3c b343 cdbd
000001b0: 45fa 2f3e 51e0 6cbe 7f84 33bd 1102 74bd
000001c0: bdc2 993d cb7e 50be 2c0f 773d 0776 92be
000001d0: 499a 433e c7ac 82bd eba4 163e c38f 90be
000001e0: dfa8 1dbe 806c 583e 03bc 5c3e 8e4d c1bc
000001f0: 67dc 793e 2e4c 31be ffca e23d 0010 7ebe
00000200: c689 d8bd d01f 3ebe 3662 173e e7f8 a13e
00000210: dbea 503e f266 23be aaba b1bd 914b 5abe
00000220: e67f 1a3d 6119 9f3e 0cd5 1dbc 3ad8 5d3e
00000230: 8773 073e 5baa 64be 0cb6 70be 5d02 803e
00000240: 4e4b 9dbe 64f7 e3bb 7df0 28be 038e 8d3e
00000250: d904 a63e bb37 1abe 95eb a93e 18e4 90bd
00000260: e707 a23e 6364 e5bd da21 ba3e bdd5 98bc
00000270: c3e0 95be 6157 14bc e586 babd 26df 6c3e
00000280: ccb6 97bc dc0d 0e3e a160 73bd a9c8 b23e
00000290: 7c13 6e3d 0342 f33c 1e71 74be 8734 58be
000002a0: 635d aebe 2793 40be 2cdc c83e 9261 32be
000002b0: 29f2 abbe 5227 2c3e 63bc 953d 9e88 8a3e
000002c0: 1728 27be 5073 993e fe4b 9b3e 71f1 ff3c
000002d0: 6463 92be 49b9 063e 1c94 823e 3d87 94be
000002e0: 224b d5be 2cd6 663e 345d 003e 60ee 0f3e
000002f0: 7dc8 813e f0ae 83be fe06 c53d 5a45 ac3d
00000300: c0df 693e 6e84 bbbd 7649 783e 94c3 ef3c
00000310: 1858 0c3d 4e7a 40be 57ed 27bd af1b 66be
00000320: 7d1b a83d 66f6 163e 03b7 13be 2464 50be
00000330: 0285 1abe 2acc 193d 8384 233e 1426 8bbe
00000340: bff8 d03a 309f 21be bbcb af3c f07b 18be
00000350: f49c 263e 769f 53be 5cf9 2d3e 7072 6fbe
00000360: 4bdc c63c e3d2 9bbc 9788 eebc 620c 2bbe
00000370: 1e38 6f3e af06 73bd 4dde 4dbd 2b45 5abe
00000380: c64d 503e 7d12 153d 1a95 0c3c b0e1 67be
00000390: fbf3 1dbe 3837 e0bd 9ef6 9ebe 39cc 363d
000003a0: 55ac 47be 356e 793c 91ae 1fbd 5bc2 433d
000003b0: c239 47bd 601c 52be 6502 a23c 5159 58bd
000003c0: 9d57 c73d 7f99 1f3d 76b5 353e 95aa 8abe
000003d0: 7c57 c1bd ca5c 8b3d 5082 2d3e 9601 8a3d
000003e0: 51eb 2a3e 0fa4 03bd 8b00 693d c000 90be
000003f0: 125d d93d 4cf5 15be 9566 a2bd abfb 35be
0.11539148 -0.18802743 0.19670372 0.025537359 0.011205817 -0.077801615 0.19056913 -0.17296971
0.17298229 0.029204398 -0.077640556 -0.267538 0.13955802 0.13936275 -0.0090500545 -0.29335034
0.15700676 -0.26798528 -0.07583769 0.09482708 -0.15627162 0.075130604 0.13565886 -0.1293652
-0.25473747 0.05860776 -0.1537 -0.28767863 0.19672139 0.05085924 0.036782216 0.027268307
-0.092891484 -0.031169286 -0.035018113 -0.16125616 -0.1443588 -0.055492207 -0.08106274 0.036886644
-0.23363489 0.23935357 -0.10343241 -0.03967939 -0.07820588 0.052363925 0.28117895 -0.025172302
-0.056510046 -0.00037166476 -0.118029386 -0.13069609 0.110750645 0.031028697 -0.024877252 -0.010912961
-0.052845906 0.13379294 0.037062593 -0.027496131 0.19018658 -0.22622868 -0.034942675 -0.15307778
-0.03665794 0.046204768 0.26536524 -0.10155843 0.032546643 -0.01163241 0.068316214 -0.20738293
0.17736426 0.0673857 0.1987975 -0.06986645 -0.054393694 0.14120354 0.056128077 -0.096510194
0.23060858 -0.11343605 0.03720892 -0.10552329 0.17124741 -0.17149678 0.12728536 -0.15606853
-0.28371394 0.17451376 -0.023424685 -0.2627309 0.16029309 -0.10296718 0.00322893 -0.07055452
0.059934173 -0.09185394 -0.021506144 -0.056380324 -0.12185661 -0.07473323 -0.13341193 -0.0042179767
-0.07403998 0.41740772 0.026892183 -0.10022678 0.17185314 -0.23132445 -0.04382753 -0.059572283
0.075078465 -0.20360868 0.060317203 -0.28605673 0.19101824 -0.06380611 0.14711349 -0.2823468
-0.1539645 0.2113514 0.21556096 -0.023596551 0.24400483 -0.17314216 0.11073875 -0.24810791
-0.10573153 -0.18566823 0.14783558 0.3163521 0.2040209 -0.1595724 -0.086781815 -0.21317889
0.03771963 0.3107405 -0.009633314 0.21664515 0.13227664 -0.2233061 -0.23506945 0.25001803
-0.30721515 -0.0069569815 -0.16497989 0.2764741 0.32425573 -0.15060322 0.33187547 -0.070747554
0.31646654 -0.11200788 0.36353952 -0.018656606 -0.29273042 -0.009054036 -0.0910776 0.23132
-0.018519782 0.13872474 -0.059418324 0.34918717 0.05812405 0.029694563 -0.23871276 -0.21113788
-0.34055623 -0.18806134 0.39230478 -0.17420033 -0.3358319 0.16811875 0.073113225 0.27057356
-0.16323887 0.2997079 0.30331415 0.031243058 -0.28591454 0.13156618 0.25503623 -0.2900943
-0.41658884 0.22542638 0.12535554 0.14055777 0.25348273 -0.25719404 0.09620474 0.08411665
0.2283926 -0.09156118 0.24246773 0.029268064 0.0342637 -0.18796656 -0.04099783 -0.22471498
0.08208368 0.14742431 -0.14425282 -0.203507 -0.15089801 0.03754822 0.15968518 -0.2717749
0.0015943273 -0.15783381 0.021459451 -0.14891028 0.1627081 -0.20666298 0.16989654 -0.23383498
0.024274966 -0.019021457 -0.029117865 -0.16703942 0.23361251 -0.059332546 -0.05026083 -0.21315448
0.20342168 0.036394585 0.00858047 -0.22644687 -0.15425102 -0.10948032 -0.3104753 0.044628356
-0.19499333 0.015224029 -0.03898484 0.047792774 -0.048639067 -0.20518637 0.019776532 -0.052819554
0.09733508 0.038964745 0.17745003 -0.2708327 -0.094405144 0.068048075 0.16944242 0.06738584
0.16691329 -0.03213888 0.056885283 -0.28125572 0.10613455 -0.14644355 -0.07929722 -0.17771785

weight_hh_l0_reverse f4 [128, 32]
00000000: 13a7 23bc 9d8e 8d3d aea0 8dbc 1ccb 4a3d
00000010: 475e 333d a82c 9d3d 4dd6 873d c736 833c
00000020: bdec 0ebd 7222 453d 2f45 3c3d 27ac 08bd
00000030: bb51 133d 9273 023e 8c56 eebd a7e9 893c
00000040: f294 42bc 578a 9a3d 1bec c53c ae92 11bd
00000050: 0316 b2bc f8e6 073e a7ed b33c 6a7f e1bc
00000060: 3ec0 f1bd 3a65 383e 66e2 41be b450 febd
00000070: 9906 b7bc d70c ba3d 57f0 02be 0abf 053d
00000080: d960 d8bc 66ac dc3d 5524 013d 02e0 563e
00000090: fa57 00be 28c2 d4bd 3683 0d3e 5464 e6bd
000000a0: 3de6 84bd f793 9b3d 2780 ce3b a237 87bd
000000b0: 7cb1 923c ff5c b9bd 38b5 393d 1a11 7abd
000000c0: 325d ffbd aa5e d8bd 4378 953d 0767 e73b
000000d0: e183 33bd 6c45 c73d b3fc 5abd 483f 21be
000000e0: c959 a6bd 53c5 603b 2543 bebd e4e3 5cbd
000000f0: 26d6 fcbc fed1 03be 69d7 c93d 21a2 c43d
00000100: 4dfd d33d f69c 3bbe bbf0 abbd f110 62bd
00000110: d794 b03d 0c6e ce3d 7f68 c23d a4d7 48be
00000120: 8093 3cbb f039 693b e132 9a3c 8fed db3d
00000130: a396 2e3e 1abe 283c dfe0 783d d0f7 2cbc
00000140: f044 56be b754 92bd 96b2 c1bd 940a 0e3d
00000150: c647 fcbc c5fa a7bd d505 0a3d 27eb 31be
00000160: 1064 0ebe f090 4f3e 57fc 56bc 91cd 1d3d
00000170: 158a d73c 6692 fb3d cdfc 02bd e0ee 5bbe
00000180: 5702 263c 31d9 29be 7e56 0cbe f8c3 0cbd
00000190: 37c6 d6bd a963 14bd bb93 293e cff8 ab3d
000001a0: 0e37 68bd 286e a1bd b7f8 9bbd 70c1 1d3e
000001b0: eb2d a43d 9208 d7bb 6e00 b43d dfd8 e63d
000001c0: 8e7b cabd aaaf ad3d c7ac a5bd c416 48bc
000001d0: f9ca 0abd 701d 0a3e a655 41be caa9 453d
000001e0: 8a5f 33be e63d aa3d 6189 0d3d 4829 773b
000001f0: 658b 5c3d a8e9 30be 8fcf 9d3c 0724 14bd
00000200: 7a46 283e df72 86bd 3d2f e3bd 2768 823d
00000210: e781 3ebe e4c4 b83c a8b7 eb3d 0b88 2dbd
00000220: e4e3 c83d 982a 1abe cd86 3dbd ee3e 3d3d
00000230: f562 f4bc e471 113e b9bc eabc 8d60 f9bd
00000240: 4569 e3bd 8536 163d 3318 923d 0238 d2bd
00000250: 8c44 8dbd 06dc 1a3d e43d dcbd ee27 0a3e
00000260: b6f0 febd 7c17 823e 2355 28be b23f 453e
00000270: edb7 9bbd 7164 033e c3fe 92bd ae0f e6bd
00000280: 0ad4 433d f331 08be 6fce 9d3d f81b e43c
00000290: 08a6 9d3d b9d0 db3d 3fa0 93bd 59cb 23be
000002a0: dfcf 54be 49c2 f2bd 5420 483d 3973 c3bd
000002b0: a528 9cbd 11d1 fb3d 92be 37bd 414b 41bd
000002c0: 1a02 54bc 46cb 61be b1d8 57be be8b b4bd
000002d0: 293d f53d b1f7 8e3d 3a82 3cbe 8fe4 843d
000002e0: 0c12 c43d 3473 dabc a39b ddbd 69ef 57bd
000002f0: c155 79be f6da 5f3d d1e2 2d3e 13aa e6bd
00000300: 3979 523e d96e a73d f244 403d bd6e b6bd
00000310: 5c83 00be c116 63be aa4d 383e b78d e7bd
00000320: ce5e c3bd 87db 23be c97e aa3d 14ab 603e
00000330: 80e6 3dbc fbe8 a73c 2407 5fbd 7904 863d
00000340: 069b e5bd 8ee6 093d abbd 19bd d4e8 fa3d
00000350: 4966 f03d 3773 523e ee7a d83d 2c45 5abd
00000360: 21e9 d5bd c8ce b03d 6420 8b3c 7c3a c5bd
00000370: c80e 13be f102 18be d61b e0bb 4ab0 4c3d
00000380: 7bd3 523e 5bbf 61be fef8 3a3e 8f9e f3bd
00000390: 79ec fdbc 23f4 5bbd 0007 a2bc 6cba 5cbe
000003a0: ce7d 76bd 03aa bbbd 599f 373e 0ebf 6fba
000003b0: 77be 90bc cd2a bb3d 4a57 df3d 8b46 53be
000003c0: 72f6 433d 6797 14bd afa3 4fbe f39e 22bd
000003d0: 1c86 87bc 5cbb 71bd 6abb babb 3fee 78bc
000003e0: 08ea f83d 937f 213e 428a 073e c967 b73c
000003f0: c838 cebd 2773 9dbd 1859 3ebc 046f c4bc
-0.009988564 0.06911967 -0.017288532 0.049510106 0.04379108 0.07674533 0.066326715 0.01601733
-0.03489374 0.048128553 0.045964416 -0.033367302 0.035966616 0.12739399 -0.11637601 0.016835047
-0.011876332 0.075459175 0.024160435 -0.035540275 -0.021739012 0.13271701 0.021963907 -0.027526576
-0.118042454 0.18007365 -0.1893402 -0.12417737 -0.022342013 0.0908448 -0.12786995 0.032652892
-0.026413368 0.1077507 0.03152879 0.2098389 -0.1253356 -0.10388595 0.13819584 -0.11249605
-0.06489227 0.075965814 0.006301898 -0.06602408 0.017906897 -0.09050941 0.04533884 -0.061051466
-0.124689475 -0.10564931 0.07298329 0.0070618424 -0.04382694 0.09730038 -0.05346365 -0.15746796
-0.08122594 0.0034297302 -0.092901506 -0.05392827 -0.030863833 -0.12873074 0.09855539 0.09601236
0.10351048 -0.18321595 -0.08395525 -0.055191938 0.08622139 0.100795835 0.09492587 -0.1961351
-0.002877444 0.0035587512 0.01882309 0.1073867 0.17049651 0.01029923 0.06076133 -0.01055713
-0.20924735 -0.07145064 -0.09457891 0.034678057 -0.030795943 -0.08202127 0.033696968 -0.1737486
-0.13905358 0.20270133 -0.013121686 0.03852612 0.02631096 0.12283783 -0.03197937 -0.21477842
0.010132394 -0.16586758 -0.13704869 -0.034366578 -0.10487025 -0.036227856 0.16560261 0.08397066
-0.05669313 -0.07882339 -0.07615798 0.15405822 0.08016571 -0.006562301 0.087891445 0.11271834
-0.098868474 0.08480771 -0.08089595 -0.012212459 -0.033884976 0.13487792 -0.18880329 0.048257627
-0.17516914 0.083125874 0.034554843 0.0037713815 0.053843874 -0.17276633 0.01926401 -0.03616717
0.16433135 -0.06564879 -0.11092994 0.06367522 -0.18604241 0.022554822 0.11509639 -0.04236607
0.09809092 -0.1505531 -0.046271134 0.046202593 -0.029832343 0.14203602 -0.028654443 -0.12176619
-0.11104063 0.036673088 0.07133522 -0.10264589 -0.0689784 0.037807487 -0.10753992 0.13491794
-0.12448256 0.25408542 -0.16438727 0.19262579 -0.076034404 0.12831284 -0.07177498 -0.112334594
0.047809638 -0.13300304 0.0770539 0.027845368 0.076976836 0.1073317 -0.07208299 -0.1599554
-0.20782422 -0.11853463 0.048858956 -0.09543461 -0.0762494 0.122957356 -0.044859476 -0.04719091
-0.012939954 -0.22050199 -0.21078755 -0.08815716 0.11974556 0.06980837 -0.18409052 0.064889066
0.09573755 -0.026666261 -0.10820701 -0.052718554 -0.24349119 0.054652177 0.16981055 -0.11262908
0.20554055 0.081754394 0.04694075 -0.089078404 -0.1255011 -0.22176649 0.17998376 -0.11306327
-0.09539567 -0.16001712 0.083249636 0.21940261 -0.0115906 0.020496836 -0.05445017 0.06543822
-0.11211209 0.03366714 -0.037534397 0.1225144 0.11738259 0.20551763 0.10570322 -0.053288624
-0.104448564 0.086331904 0.016983218 -0.09630296 -0.14361107 -0.14844872 -0.006839256 0.04997281
0.20588486 -0.22045653 0.18259045 -0.11895477 -0.030996548 -0.053699624 -0.019778728 -0.2155549
-0.06017857 -0.091632865 0.1793188 -0.0009145596 -0.017668946 0.09139023 0.10905321 -0.20632379
0.04784245 -0.0362772 -0.20277284 -0.039702367 -0.01654344 -0.05901657 -0.005698611 -0.015193521
0.12154013 0.15771322 0.13236335 0.022388356 -0.10069424 -0.07687979 -0.011617921 -0.023978718
