sgan-dataset/logs/hotel/models_03_Mar_2019_00_24_04/model_registrar-1999.pt (torch_old, 575417 bytes, 45 tensors)

weight_ih_l0 f4 [128, 6]
00000000: 18e7 efbd 5f0b babb c283 21be ad88 fe3c
00000010: 67ef bc3b dc8e 7b3d d52c 02bf 5448 edbe
00000020: ed63 9ebe d274 75be 8982 fb3e 1b7b abbe
00000030: b817 31be 175b 1cbe b90f a6bd 32e1 9ebb
00000040: d224 71be 6716 0b3f 42b2 3bbd a54b 613d
00000050: 988b 443e 5383 26be 011b 293d 1c30 db3d
00000060: 449f 94bd 447a 8c3d c117 5fbe 9826 403e
00000070: aaac cc3d 417b ecbd a998 3f3e 80da d13d
00000080: 87c4 173e b073 51be 1120 363e 93f7 7ebd
00000090: 9234 32be aa6d a5bd e76e 38be ea16 e73d
000000a0: c018 b53d 600d dabd df7f 093c 9088 3d3e
000000b0: ff12 6ebe f3da 253e dc6e 4ebd 8577 4c3d
000000c0: 937f 263e 38c6 ed3d febd a13d 50a7 103d
000000d0: 3006 8e3c 45e5 1d3d a5ed 22be d7c4 8bbe
000000e0: 7ef8 bdbd 27ed bb3e 69aa 62bd f800 94be
000000f0: ad77 b93b ffe9 0b3e f7f7 a9be e35a 06be
00000100: 0197 d4bc fc67 5bbc 1f61 41bd ab75 75bc
00000110: da34 0fbe 0709 14bc e224 083e 5212 363e
00000120: 3289 47be c9a1 5bbe 1b52 d53d 2054 86bd
00000130: 5aa0 1d3d 2de0 1abe e5d3 d8bc f63d da3d
00000140: 8475 0d3e 9b46 23be 2690 09be d038 c63b
00000150: 6d27 c6bd db44 77bd 0abd 54be bb5c a13e
00000160: e34d 83bb 4eef cc3d eabe d8bd 33b8 2a3e
00000170: 30e1 14be 36ea e73e d85b 0abd bdfd 13bd
00000180: dbd3 043e 8619 bd3d 3ef5 5bbc 49b2 cf3d
00000190: 0c80 783e 67c3 7ebd 6042 e5bd b023 70be
000001a0: 10a2 833d fe86 bebd bdc1 1fbe cc49 8a3e
000001b0: f698 6abc abc4 70bd 8e12 893e 1142 8cbd
000001c0: c0e2 973e 76fd 893e a0d0 abbc 7432 003d
000001d0: 1004 45be 280e 3a3e 6dfa b13d 6247 4c3e
000001e0: 366f b2bd 9556 043d 3385 933e 8efa adbd
000001f0: 920f 1139 20b0 febd fb59 acbd 96e6 8bbd
00000200: cc38 6d3d 421b 373e 4ee9 adbe 9d19 be3e
00000210: ae9c a6bc 1e25 1bbe bc2f 3bbe 4617 95bc
00000220: aed7 483e 5f45 5a3d 5ec1 60bd 82ff edbd
00000230: 223d debd 3516 4cbd 0b42 ef3d e871 253e
00000240: 7b43 3cbc 3d2e e9bd 4983 47be 9496 bebd
00000250: 47bb c0bd fa6e f2bc cd97 17be 763b bfbd
00000260: abb5 e7bb d351 303e b065 3cbd 5caf 233e
00000270: 3891 0bbe a03d 4fbc 8998 ff3d 4c7f b7bb
00000280: abaf 503d 0b0b a43e 9d68 57be 6366 5d3d
00000290: 6f1a b03e a400 ddbd 1dbb debc 063e 9f3e
000002a0: 1b77 0d3e bc1c 0a3e 7fec 30bc 14e5 12be
000002b0: 2ec4 053d beae a7bc c42c 2bbe 011b 24be
000002c0: 49d8 54be f8ab f9bd 91c5 0c3e 48b8 783c
000002d0: 84da 24bd 3589 353d 5f04 86bd cd70 cabe
000002e0: 7aa6 0dbe b9aa 88be 393c bbbd ace8 9e3d
000002f0: 8524 053e 704d a6be e823 94be e263 e3bd
00000300: 8e80 b03c ab81 063e 1a2b 3fbe 18c7 fbbd
00000310: e245 7a3e 028b bbbd 37e2 a9bd 2755 a2bd
00000320: 8df5 35be b75d 6ebd 40aa 323e a35a 09bd
00000330: c395 05be 8cdd 0bbc 5a4a adbd a3bc fcbc
00000340: 4745 a5bc 2e97 0e3e 1ad8 7ebd 276b a7bc
00000350: 10c4 fa3d ea20 81be ecc0 ca3b ea03 2ebe
00000360: 471c c83d a3c2 a1bd 1a1d e5bd 30a0 a33d
00000370: 6016 31be dc39 dfbd 0b93 9f3d 21a2 7dbd
00000380: d8d9 c43d 222f babe 82f5 f2bd 1462 2abe
00000390: 49cd 6f3d 5ad8 a5bc e6bc a0bd 483b 2c3d
000003a0: 1af3 aabd 3ec6 273d fa55 c73c 45f1 d7bd
000003b0: 3c82 06be f9a5 aa3d 8170 91bd fa98 9a3d
000003c0: 562b c73d 37c1 d8bc f7f7 dfbd ad5e a7bd
000003d0: b426 c63d d354 0c3e f39d 4fbe f5a2 f6bd
000003e0: 7e79 173e 694f 1e3e 51f3 cebc 8cc3 28be
000003f0: b1a8 f23d 7b10 21be 6075 0cbe 2b24 f53c
-0.117139995 -0.005677625 -0.15772918 0.031071031 0.0057658437 0.06141554 -0.5084966 -0.46344244
-0.30935612 -0.23970345 0.49123028 -0.3349236 -0.17294204 -0.15269123 -0.081084676 -0.0048486227
-0.23549202 0.5433106 -0.045824297 0.05500378 0.19193876 -0.16261034 0.04128552 0.107025355
-0.0725694 0.06859258 -0.21786405 0.18764722 0.099938706 -0.11546946 0.18710579 0.10246754
0.14821063 -0.20454288 0.1778567 -0.062247824 -0.17402866 -0.080775574 -0.18011056 0.112836674
0.08842611 -0.10647082 0.008392303 0.18509126 -0.23249434 0.16196804 -0.050398692 0.04991867
0.16259603 0.11610073 0.07897566 0.03531581 0.017336935 0.038548727 -0.15910967 -0.27298614
-0.09275912 0.3670437 -0.055338297 -0.2890699 0.0056600184 0.13663481 -0.33196995 -0.13120608
-0.02595091 -0.013391491 -0.047211763 -0.0149816675 -0.13985005 -0.009035355 0.1329532 0.17780426
-0.1948593 -0.21448435 0.10416051 -0.06559014 0.038483 -0.15124579 -0.026468227 0.10656349
0.1381436 -0.15944903 -0.13433895 0.006049253 -0.096754886 -0.0603684 -0.20775238 0.3151606
-0.0040070876 0.10006581 -0.10583289 0.16671829 -0.14539027 0.45295876 -0.033778995 -0.036130656
0.12971441 0.09233384 -0.0134251695 0.10141427 0.24267596 -0.06219807 -0.11194301 -0.23451114
0.06427395 -0.093030915 -0.15601249 0.27009428 -0.014318695 -0.058781307 0.2677197 -0.06848539
0.29665184 0.26951188 -0.020973504 0.031298116 -0.19239831 0.18169463 0.08690343 0.19949105
-0.08712618 0.032309134 0.2881256 -0.08495055 0.00013834078 -0.12435937 -0.084156 -0.0683109
0.057915494 0.17881492 -0.3396706 0.37128916 -0.020338383 -0.15150878 -0.18279928 -0.018199574
0.19613525 0.053288814 -0.05487191 -0.11621 -0.10851504 -0.049825866 0.116825186 0.16156733
-0.011490698 -0.113857724 -0.19483675 -0.09306064 -0.0941072 -0.029593933 -0.14804001 -0.09337513
-0.007071217 0.17218713 -0.045995414 0.15984863 -0.13629615 -0.01264897 0.12480266 -0.0055998918
0.05094878 0.32039675 -0.21036 0.05405272 0.34395167 -0.10791138 -0.027188832 0.31102008
0.13814966 0.13487524 -0.010798573 -0.14345199 0.032657795 -0.020469066 -0.16716295 -0.16025926
-0.20785631 -0.121910036 0.1374724 0.015180655 -0.040247455 0.044320304 -0.065438025 -0.39539185
-0.13833037 -0.2669275 -0.09142346 0.077592224 0.13002212 -0.32480955 -0.28933644 -0.111030355
0.021545675 0.13135402 -0.18668786 -0.122938335 0.2444072 -0.09157373 -0.082951 -0.07926398
-0.17769451 -0.058194842 0.17447758 -0.033533704 -0.13045411 -0.008536708 -0.08461447 -0.030851668
-0.020174636 0.13924858 -0.06221781 -0.020436836 0.12244427 -0.25220424 0.006187549 -0.1699368
0.097710185 -0.07898452 -0.11187191 0.07989538 -0.17293692 -0.10899708 0.07791718 -0.061922196
0.09611863 -0.36364084 -0.11863233 -0.16638976 0.058545385 -0.020244766 -0.078485295 0.042048723
-0.08347149 0.040960543 0.024332989 -0.105440654 -0.13135618 0.08332438 -0.071015365 0.07548709
0.097250625 -0.02645932 -0.109359674 -0.08172355 0.09675351 0.13704233 -0.20275097 -0.120428
0.1479244 0.1545998 -0.025262507 -0.16480845 0.118485816 -0.15728943 -0.1371665 0.029924473

weight_hh_l0 f4 [128, 32]
00000000: 2499 8fbd 42f8 1c3d ea9d dcbc 7060 e03d
00000010: bd70 f5bc 72ea d3bc 3a39 1cbe 7b73 c7bb
00000020: 9b41 e43d b887 a23d a3ab e73b 5115 233e
00000030: fba6 95bc a6b9 243e aee4 fc3d 2462 453e
00000040: 5c98 c73d 5526 1dbe a235 163e 3bc3 04be
00000050: 426e ddbd 16f9 1abe a157 a2bd ae00 22be
00000060: f181 153e 2be5 9abd e3cc cf3d 537e e83d
00000070: 873b c83d 8fc0 063e 1190 283d ea0f 25be
00000080: d5d0 d33d 2e0f d5bd 12ed 753e 6b2b 45bd
00000090: f523 41be 6688 cc3e 15ee 73be cb4e c6be
000000a0: ece3 813d a41b eabd 6a56 2d3e 302f fcbd
000000b0: 70af fdbd cd60 a53e 4e92 523e 0071 e13e
000000c0: 7a01 973e 6c38 da3d 316f 26be e519 91bd
000000d0: b419 573e 4587 bfbd 5a69 8abe 7068 873d
000000e0: 4622 32be 7d13 cbbd ce62 f0be 2e7a 133d
000000f0: 8b56 5dbd 208e 30bd fae5 2a3e 5cce 01ba
00000100: 79e8 f83c e30c 13be d7ac b9bd 3e18 f33d
00000110: 1952 733c bb68 da3d 206f 5ebe 5388 40be
00000120: 55f5 39bd 56a6 1a3e d7c6 31bd 4d77 fa3d
00000130: d2a9 adbd a4ce 88bd 7ae1 093e 625e 8fbd
00000140: 0e0e f93d 3a76 f0bd 5fec fb3d a598 3ebe
00000150: 0e56 143e f57e 263e 1bb6 333c 1060 3a3e
00000160: 4a25 f93d c4ea 973d d45b b93d f654 703e
00000170: 8d1a 183e 411f c93c b8a7 d03d 4e70 b93d
00000180: a3c4 7c3c c8c8 ce3d 9b20 403d 46cf ab3d
00000190: a1e2 10be e808 f2bd cad5 18bc 7f0c 093e
000001a0: e127 36be e7cb a8bd 5e98 b6bb bc0f 41be
000001b0: 1e49 6ebe 25ae 8ebd ff32 0abe eb12 edbd
000001c0: dbc0 14bd 787a 8b3e 0855 dcbd c156 4bbd
000001d0: 7f2d a5bd 0450 063e a39a f43d e214 0bbe
000001e0: 7f5c edbd f202 c33d 8769 6fbe 2a0a 473e
000001f0: 9033 1dbd 5975 813d 0610 3a3e f914 8d3d
00000200: c28d 22be ff27 38bd b5de 113e b4b9 19be
00000210: 865b 1d3e a9af 12be 6a03 b2bc e96e 0d3e
00000220: fa52 32be fe69 06be eee7 2bbd c46c 08be
00000230: 058b 1cbc 4769 d63d 3f7a d93d 8945 20be
00000240: 7d7c 3fbd 4a0d 01be 908d f8bd 824a bd3d
00000250: 3392 393d ea84 ff3d 02b8 a53d b7a5 08be
00000260: 61fd 8a3d 5190 e2bd 03ef 21be 3ebc 34be
00000270: b542 403e 513a 98bd dc28 1e3e 0969 fcbd
00000280: 5751 4a3e c251 af3c 8985 bd3d af2b 46be
00000290: 4d40 32bd c82e 6dbd 20ca c53c c4bb 5ebd
000002a0: 5a5f a5bd b207 11be ba64 f83d a545 41be
000002b0: 6ea1 64be 2b6e cb3d 2dec 60bd e900 96bd
000002c0: a71d 46bd ba9e 4d3e cef4 273d 1525 f73d
000002d0: 7c2e 433d 4df0 4e3e ccd7 b9bb e0a4 b0bd
000002e0: 15e9 bebd 1fd1 94bd f822 c43d f203 863e
000002f0: 7e25 803d 409b c73d 7d2d 5f3e 5842 ce3d
00000300: 3465 113e afe4 ed3c d039 2abe b0a4 293e
00000310: b22d c5bb 5618 2bbd 8b07 ab3c 4fc0 16be
00000320: fd31 aabd 729d 623d 749a 14bb 04e3 e5bd
00000330: 33c6 273b 90c0 583e 4ecd 11bc 1549 9e3d
00000340: 8b5d c83c b5d5 f6bd 10eb b2bd be00 17be
00000350: 22da df3d 98a3 413e 1eb5 193e 5847 9fbc
00000360: 30c9 3abe 9188 0c3d 643f ca3d 7839 c43d
00000370: 5956 2ebe 18ef 113e e084 8bbd ccd6 323d
00000380: 0143 343e a20f b43c 366a 86bd 5d4c 723d
00000390: 3b02 5abd 4844 b43d 6270 463d c95e 80ba
000003a0: ce3f 21bc d522 54bd 59b5 aebc 1b09 14be
000003b0: 864f 683e 2448 68bd a7d1 a93d 11da 963d
000003c0: 99cc 103e c2c0 4fbe 7531 90bd 4776 54bc
000003d0: 22a5 1abe 1250 ffbd 6f38 91bd e544 2bbe
000003e0: eb5e d23d 0601 303e b91d 2b3d e778 073d
000003f0: 08db 093e 3e89 4e3e 08cd e83d 7754 b93d
-0.07011631 0.038322695 -0.026930768 0.10955894 -0.029960984 -0.025868628 -0.15256205 -0.0060867644
0.11145326 0.079360425 0.0070700212 0.159261 -0.018268099 0.16086444 0.12348305 0.19275719
0.09745857 -0.15346654 0.14668897 -0.129651 -0.10812046 -0.15134081 -0.0792687 -0.15820572
0.1460035 -0.075632416 0.10146501 0.113522194 0.09776979 0.13159393 0.041153017 -0.16119352
0.10342566 -0.10403286 0.24016216 -0.04813711 -0.18861373 0.39947814 -0.2382129 -0.3873199
0.06342301 -0.11431053 0.16927496 -0.12313688 -0.12386978 0.32300416 0.20563623 0.44031525
0.29493314 0.10655293 -0.16253354 -0.07085017 0.21005899 -0.093519725 -0.27033502 0.06611717
-0.17395887 -0.099158265 -0.46950382 0.03600519 -0.054037612 -0.04310429 0.16689292 -0.00049517094
0.03038429 -0.14360385 -0.0906617 0.11869858 0.014851117 0.10664507 -0.21722078 -0.18802004
-0.045399982 0.15102515 -0.04340252 0.12229786 -0.08479656 -0.066800386 0.13464919 -0.07000424
0.12160884 -0.117413 0.123009436 -0.18612917 0.14485952 0.16259368 0.01096871 0.18200707
0.121653154 0.07417825 0.09050718 0.2346991 0.14853878 0.024551036 0.1018824 0.090546235
0.015427741 0.1009689 0.046906095 0.08389144 -0.14148952 -0.11818105 -0.009328315 0.13383673
-0.1778865 -0.08242016 -0.005572363 -0.18853658 -0.2327008 -0.06966809 -0.13496016 -0.11575874
-0.036316734 0.27241874 -0.10758406 -0.04964328 -0.08065318 0.13116461 0.11943557 -0.13582185
-0.11589908 0.09522046 -0.23380099 0.19437471 -0.038379252 0.063212104 0.18170175 0.06888766
-0.15874389 -0.04496002 0.14245112 -0.15012246 0.15366945 -0.14324822 -0.021730144 0.1381184
-0.17414466 -0.1312637 -0.041969232 -0.13322741 -0.009554629 0.10469299 0.1061902 -0.15651526
-0.04674958 -0.12602726 -0.12136376 0.09242727 0.045305442 0.12476523 0.08091737 -0.13344465
0.067866094 -0.110626824 -0.15813832 -0.17649934 0.18775447 -0.07432998 0.15445274 -0.12324721
0.19757591 0.02140129 0.092539854 -0.19352601 -0.043518353 -0.057905942 0.024144232 -0.054378286
-0.080748275 -0.14163092 0.12128587 -0.18874224 -0.22327206 0.09933122 -0.054912735 -0.07324392
-0.048368122 0.2008008 0.04100495 0.1206762 0.047651753 0.20208855 -0.005671477 -0.086251974
-0.093218006 -0.07266449 0.09576982 0.26174885 0.06257151 0.097464085 0.21794696 0.10071248
0.14198762 0.029039709 -0.16623616 0.1656673 -0.00601741 -0.041771255 0.02087762 -0.14721797
-0.08310316 0.055325933 -0.002267507 -0.112249404 0.0025600314 0.21167207 -0.008899046 0.07728783
0.024458667 -0.1205248 -0.08736241 -0.14746377 0.109302774 0.18910062 0.15010497 -0.019443199
-0.1824081 0.034309927 0.09875372 0.09581274 -0.17025127 0.14251363 -0.06812453 0.043661878
0.17603685 0.02198011 -0.06563227 0.059154857 -0.053224783 0.08802086 0.04844702 -0.0009793873
-0.009841872 -0.05179103 -0.021326708 -0.14456598 0.22686586 -0.056709424 0.08291941 0.073658116
0.14140548 -0.20288375 -0.07040683 -0.012967653 -0.15102056 -0.12466444 -0.07090842 -0.167255
0.102720104 0.1718789 0.041776393 0.033074286 0.1346246 0.20169541 0.113672316 0.090493135

bias_ih_l0 f4 [128]
00000000: d6d2 bebd a156 cdbd 857f 2abd c643 36be
00000010: c101 27be f8fe f53d c9a7 7ebd 1461 39be
00000020: 5bbe c33c 510a 4fbc 66e7 2e3e ffd0 ff3d
00000030: bb22 833d 81ca 30be 3ac8 233d 00da 1bbe
00000040: e850 25bc df38 203e f743 af3b 0edd fa3d
00000050: e365 743c 9917 5cbb 9f59 26bd 1635 30bd
00000060: 6ed9 b63d 4e6c 603d ce39 46bd 0aa7 c23d
00000070: 6914 47bd ff59 0cbe a618 efbd a0ff c7bd
00000080: 2e89 2d3e 4358 ad3b f7dc 34be 7554 6e3d
00000090: bae7 2bbe 6eb0 a5bd db87 22be 96ee ebbc
000000a0: 6ab6 05be 167b ba3d f70c 50bd d425 2c3c
000000b0: 231f 07bd 6e15 1a3e b5b0 65bd 6b33 dbbd
000000c0: a0a1 b13d 4572 d53d 60b1 a5bc e725 ae3d
000000d0: 2905 28be 9a95 9c3d 4077 de3d 8d85 ca3d
000000e0: 4aba 303d 0af6 fa3d f5eb ec3d 28d3 2e3e
000000f0: 82d0 54bd cce1 1fbe 9333 573c 7d57 4bbe
00000100: 3149 003e 918d 023e b893 22bd dd57 823d
00000110: 58ba 4bbd 89f7 7abc 2f6e e93d 509b 76bd
00000120: 492b 733c 8e16 b03d b564 f8bd da51 e03c
00000130: d81d dfbd 31af 87bd 4bd4 62bd b57a 65be
00000140: fb99 1abe 75de 07be 4380 0c3e 523c 62bb
00000150: 7e84 4abc 8da3 e53d 2d27 c33d 55a5 10be
00000160: e901 243e f723 04be afee 0f3e b8b4 38be
00000170: 3cf3 e5bd 920b fa3d abe1 89bc 21d3 91bd
00000180: a1f2 d03d 1aad 06bd 55cb 033c 7207 fabd
00000190: 85cb bebb e548 3d3d d09a b5bc dc2a 29be
000001a0: 61a9 cabd 8d8f b33d 1a1e 87bd 48b0 7d3d
000001b0: 66d3 593d 07b5 47be 44c0 b43d bf4e e83c
000001c0: 12e8 df3d 6cf0 953d b8ef d03d 8739 373b
000001d0: f1a6 d53d bbc7 35bc d776 babd 1ed5 dd3b
000001e0: 77e3 05be a837 bc3d 63b8 c33d ccdb a73c
000001f0: 3dd0 a43d 75d0 b43d 072b 05bd 0c2f 08be
-0.093175575 -0.10026289 -0.04162552 -0.17799291 -0.16309263 0.12011522 -0.06217173 -0.18103439
0.02389448 -0.012636737 0.17080459 0.12491035 0.06403109 -0.17264749 0.039985873 -0.15219879
-0.01009009 0.15646695 0.005348678 0.12249194 0.01491687 -0.0033583401 -0.040612813 -0.043019377
0.0892819 0.054790787 -0.04839497 0.095045164 -0.04860345 -0.13706206 -0.11674623 -0.097655535
0.16946861 0.0052900626 -0.17662416 0.058186013 -0.16787615 -0.08090292 -0.15872137 -0.02880029
-0.13057867 0.09105508 -0.050793614 0.010507066 -0.03298868 0.15047237 -0.056076724 -0.107031666
0.08673406 0.10422186 -0.02022618 0.08503323 -0.16408218 0.07645722 0.10862589 0.09888754
0.04314641 0.122539595 0.11568443 0.17072737 -0.05195666 -0.15613478 0.013134855 -0.19857593
0.1252792 0.12749316 -0.039691657 0.06364415 -0.049738258 -0.015317806 0.11397969 -0.06020671
0.014841863 0.08598052 -0.12128583 0.02738278 -0.10894364 -0.06625212 -0.05537824 -0.2241009
-0.15097801 -0.13268454 0.13720803 -0.0034520817 -0.01236069 0.112128355 0.095289566 -0.14125569
0.16016354 -0.12904344 0.14055894 -0.18037689 -0.11228034 0.12209238 -0.01683124 -0.07120348
0.10202528 -0.032879926 0.008044084 -0.12208451 -0.0058226013 0.046212096 -0.022168547 -0.16520256
-0.09895588 0.087676145 -0.06597538 0.061935693 0.05318012 -0.1950265 0.08825734 0.028357862
0.10932936 0.073212475 0.10201973 0.0027957873 0.10432232 -0.011094983 -0.09104698 0.0067697903
-0.13075052 0.09190303 0.09556653 0.02049055 0.08047531 0.088288225 -0.032511737 -0.13299197

bias_hh_l0 f4 [128]
00000000: c7c3 0cbe 7b7e b2bd 50a0 33be b73f 87bc
00000010: 7c3e 9ebc 4283 fdbd d7c0 27be 1b66 63bb
00000020: 504c df3d bae9 1b3e b868 afbd 8582 ad38
00000030: e571 32be ac14 f93d 06f7 a43d 62b7 063c
00000040: e5c5 c6bd 959a 183e 4105 b9bd 102f a03d
00000050: 037f 263e 789d 353e 7b09 46bc 3c50 ae3c
00000060: 6e63 14bc c974 223d de1b ce3c 8df5 623b
00000070: e25a 05be 30eb 15be 2371 41bd 176a 42bd
00000080: f64a a53d 0e88 003d 521f 7a3d 3c82 17be
00000090: 66dc 0f3e 75d0 a73d 6ea5 91bc edca 31be
000000a0: d04f 6cbd beac 0e3d 877e 02bd cb97 4fbd
000000b0: 9784 12bd 5946 edbc d44c 4c3d a624 69bd
000000c0: 687c 34bd 3dad 143d cc25 053c 1120 c5bd
000000d0: 9245 a5bc 84d2 b0bd a85f eabd fe33 913d
000000e0: 5749 24be 1c8e 3ebe 4829 0dbe c559 e13d
000000f0: 4234 a4bd f84b 9f3d 6cb4 143e cf90 d23d
00000100: 78c5 21be adab 10be 3c84 053e 8b49 033c
00000110: 6ae3 533e 764a 8b3c 16ca 93bd 6a2b 5abc
00000120: b2d8 1f3e 7846 fabb 7789 d63b abfe 363d
00000130: 15fc 923d a17d 4939 0147 08be cd6b 9fbd
00000140: d0b7 6dbd 93ad e03d 2151 803d 7427 05be
00000150: 4a66 2dbe 99a9 533d 47dd 17be a9c5 da3d
00000160: 6f6d a0bd 54b7 bfbc 7bf8 123e c134 86bd
00000170: 8a7d cebd 224f 20be 7b7e 29bd 4251 063d
00000180: 8e3a 55bc abc2 cf3d f79b 17be fa81 d73d
00000190: 8309 be3d a86e 4ebd 14a5 343e 5de1 143e
000001a0: d1a0 1cbe bd55 e13d d27f 333e dc28 0e3e
000001b0: d5d1 853d d2c1 f1ba 62e6 043c 3e5d 143d
000001c0: cbe3 023e cf35 82bd 0616 543e 342e f7bd
000001d0: 6ff9 893d d651 383e dbbe 783d 24b4 0e3e
000001e0: 0dcb 693d 6a58 8a3d 4a05 173e 86ad da3c
000001f0: 7126 48bd e976 a93d de03 b4bb a3be 8a3d
-0.13746558 -0.087155305 -0.17541623 -0.016509874 -0.019316904 -0.12378551 -0.16382156 -0.003469831
0.10903227 0.15225878 -0.085648954 8.273594e-05 -0.1742626 0.12162146 0.080549285 0.008222433
-0.09705714 0.14902718 -0.09034205 0.078214765 0.16259389 0.17735851 -0.012087221 0.021278493
-0.009056909 0.039662156 0.025159772 0.0034631223 -0.1302295 -0.14640498 -0.047227036 -0.047464456
0.08070938 0.03137975 0.061065026 -0.14795774 0.14048919 0.08194057 -0.017779078 -0.17362566
-0.057693303 0.03483271 -0.031858947 -0.05068187 -0.03577098 -0.028964208 0.049877957 -0.056919716
-0.044063956 0.036298025 0.008126687 -0.09625257 -0.020174775 -0.08633903 -0.11444026 0.07089995
-0.16043602 -0.18608898 -0.13785279 0.1100345 -0.0801778 0.07778162 0.1452195 0.10281526
-0.15797985 -0.14127989 0.13038725 0.0080131395 0.2069222 0.01700328 -0.07216279 -0.013316015
0.15610006 -0.007637795 0.006547149 0.044676464 0.07176987 0.00019215654 -0.13308336 -0.07784233
-0.058036625 0.10970607 0.06265474 -0.13003331 -0.16933551 0.051675413 -0.14830504 0.10682232
-0.07833373 -0.023402847 0.143526 -0.06553031 -0.100825384 -0.15655187 -0.041380387 0.032792337
-0.013014449 0.10144552 -0.1480559 0.10522838 0.09279158 -0.0503985 0.17641097 0.14539094
-0.15295722 0.110026814 0.17529228 0.13882774 0.06534163 -0.0018444604 0.008111568 0.036221735
0.12782209 -0.063579194 0.20711526 -0.120693594 0.06737029 0.17999968 0.06072889 0.13935906
0.05707841 0.06755145 0.14748111 0.02669407 -0.048864786 0.082746334 -0.005493625 0.06774642

weight_ih_l0 f4 [128, 2]
00000000: e0f2 cb3e 7362 1dbe 8f83 4f3e b65e 113e
00000010: 1463 e63e fe0e 343e 75f8 b9be e25a 65be
00000020: 4281 d7bd e72a f5bd e483 92bd 0f39 253f
00000030: 8b2e debd 40a3 96be f539 77be 8045 90be
00000040: a683 7abd beac eabd 436d b9bd 1386 493f
00000050: 822c 2ebf b0ac 3cbf e828 b63d f35a 9ebc
00000060: d745 febe 915c 0ebf 1342 06bd ff85 0fbf
00000070: 137d 033f 651b 813e c430 2abf 1e2a 253f
00000080: fa3f 1ebe 68d7 113e 4444 93bd c346 5d3e
00000090: 8b14 313e b00c 1f3e 670d 6f3f 4654 9c3f
000000a0: 30ce 13be fa8a 0ebf 11dd 1bbe 8a69 5abe
000000b0: 5ccf 19bf c113 95be 1877 84be a1a4 1cbe
000000c0: 3bc6 053f a8d2 153e f997 7ebf 96a1 3dbf
000000d0: 5658 423e b7fc a73e 1d32 833c f559 4f3e
000000e0: 4eb3 c3bf c99b 68bf 3227 fa3d c854 5ebe
000000f0: fcec 123e 63ba 97bd 138a 8dbe 4784 0c3e
00000100: a7b5 763e 4c2c 7cbe 0474 ec3e b3a4 6d3d
00000110: a2ec 173f 6d63 7abd 38b2 cfbe a0c3 89be
00000120: 5164 783e 738f 0dbe 0940 6b3e 425a c33d
00000130: 62bb 503e 079f 833e cee6 953d 7912 aabd
00000140: 5866 6f3e f689 933e e894 be3e 2f08 2f3f
00000150: c51c c8be 6b27 82be c89c 5abd 352f 083e
00000160: 0346 9a3e 2dc9 c13e 86da 07be e266 20bf
00000170: 9c4f 553f 490e 1e3f c2f5 bd3c a74b 003e
00000180: 7d40 f2be 9d37 f5be 5651 b0bc e986 fc3d
00000190: 4c48 073c 9f85 c33d 7e2e d2be 0d1d a4be
000001a0: 0f39 9a3f c302 ad3e 7e0d b43e ce4a 073f
000001b0: 3102 1c3e 96c1 e3bd 60b7 8ebe e07d 85be
000001c0: b666 f33e 6d2d e53e a9cf 85be 477c 053e
000001d0: 335e fb3d 49bd 25be 13bb 053e ff5f 663e
000001e0: 58e0 59bd 9438 23be 59d6 d03e 8b21 ba3d
000001f0: 0ae0 cc3d 4717 50be a79d 69be 28f5 a2be
00000200: 68ec c4bd 6a83 623e 6855 52be 6c0d d5be
00000210: 65f4 ab3d ffb0 0b3e 88b8 f0be dba2 5cbd
00000220: 8515 2fbe f92d 75bd 08b0 2d3e 6736 91be
00000230: 6dfd fbbe 4ff9 3abe 9548 aa3e c37c fdbd
00000240: 2c1a 8c3e f40c 0b3e 6962 073e 660c ea3e
00000250: 2a40 793d e119 933e 1cb6 493e 2f8e f63d
00000260: aae3 56bd 04ee 5cbe 9114 083e 37eb 363e
00000270: a877 9fbe 270e 10bf a2b0 50bd 9aaa c13e
00000280: c943 a0bd ad60 fa3e fe31 7abe 55aa 713e
00000290: 3329 443e e496 ad3e 472b a93d c38d ea3c
000002a0: c968 59bd c2e2 113d 3005 abbe 366e 8cbc
000002b0: 9a25 5abd 7440 8cbe 1764 433e 1d0e 9bbd
000002c0: 7763 8e3e d6fc 023f 1e82 2f3f 0511 063f
000002d0: 2690 8b3e 55f1 8f3e 1547 a23e ac9f d4bd
000002e0: 26bf 16bd 1ce8 dcbd 3f00 7e3d c57c cf3e
000002f0: 23a0 193d e365 013d 5185 dcbd 8e0d 953d
00000300: 1731 0a3e 1e6f 10bf 941b 3d3f ee70 1a3f
00000310: d76d a63e 87e0 9dbd c0f6 efbd 69ba 23be
00000320: ac36 8bbd 5a5f 96be 0f7c 98bd adf1 443e
00000330: 6b6c 133e 7252 70be adeb 04bf d881 b4be
00000340: d602 4a3e 026a 9e3e 0944 debd 2f43 193e
00000350: e3e6 8abc d5f0 6dbc 692d e13d 60ac b73c
00000360: 2dba a23e 9be5 56be cb38 4bbb f339 d2be
00000370: c57a 513f f6b1 773e de7b 97be f95d a33e
00000380: 4859 a0be a5bc b4bd edcb fcbd f3fa 5e3c
00000390: cf88 903d 5a38 03bd 8526 4d3e 5ea9 483e
000003a0: cc12 ac3e 7049 8d3e 8a69 433e 1ba5 083e
000003b0: 9ee1 a23e 4afb a7be 0c8e 1fbf 5b8d a7be
000003c0: b7f7 5f3f 2fad d83e e7b3 05bf 90c9 9cbe
000003d0: 612a d83e 321e ddbd 938b ce3e 4bc5 663f
000003e0: 5c8d dcbe 4535 9bbe 2c3e 673e d6bf 263d
000003f0: b1dc b63d e7d9 72bb d403 c5bc 6fb1 82be
0.39833736 -0.15369587 0.2026503 0.14196286 0.44997466 0.17583844 -0.3632237 -0.2239795
-0.10522701 -0.119710736 -0.071540624 0.6454019 -0.10848721 -0.29421425 -0.24143203 -0.28178024
-0.061160706 -0.11458729 -0.09054043 0.78720206 -0.68036664 -0.73701 0.08894521 -0.019330477
-0.4966266 -0.55609995 -0.032777857 -0.56063837 0.51362723 0.25216213 -0.6648066 0.6451739
-0.15454093 0.14242327 -0.07190755 0.21609025 0.17292993 0.15532184 0.93379825 1.2213218
-0.14434123 -0.5568081 -0.15221049 -0.21329322 -0.6008203 -0.29116634 -0.2587211 -0.15297176
0.522556 0.1463114 -0.9945064 -0.74074686 0.1897901 0.32809994 0.016015107 0.2024916
-1.5289094 -0.9086271 0.12214507 -0.21712029 0.14348215 -0.07408597 -0.27644405 0.13722335
0.24092732 -0.24626273 0.46182263 0.058018398 0.5934545 -0.061129976 -0.40565658 -0.26907063
0.24257018 -0.13824253 0.22973646 0.095387 0.20383981 0.25707266 0.07319413 -0.08304305
0.23378885 0.28816193 0.3722298 0.6837186 -0.3908445 -0.254207 -0.053372175 0.13299258
0.3013154 0.37848797 -0.13266954 -0.62656987 0.833246 0.6174055 0.023188476 0.12528859
-0.47314826 -0.47893992 -0.021523159 0.123304196 0.008256983 0.095469706 -0.41051096 -0.32053414
1.2048663 0.3379117 0.35166544 0.5284852 0.15235211 -0.11120908 -0.2787428 -0.26072598
0.475393 0.4476122 -0.26134995 0.1303569 0.122738265 -0.16185488 0.13059644 0.22497557
-0.053192466 -0.15939552 0.40788534 0.09088429 0.100036696 -0.2032138 -0.22814046 -0.31827664
-0.096154034 0.22120443 -0.20540392 -0.41611803 0.08396224 0.13641737 -0.47015786 -0.05386625
-0.17098053 -0.059858296 0.16961682 -0.28361818 -0.49216786 -0.18259166 0.332585 -0.12377312
0.27363718 0.1357916 0.13221134 0.45712584 0.060852207 0.28730682 0.19698375 0.12038838
-0.05246321 -0.21575171 0.13289095 0.17863165 -0.31145978 -0.56271595 -0.0509497 0.3782547
-0.07825429 0.48901883 -0.24433133 0.23600133 0.19156341 0.33904183 0.082602076 0.02863205
-0.053078447 0.035616644 -0.33402395 -0.017142396 -0.053258516 -0.27392924 0.1908115 -0.07571051
0.2781026 0.5116705 0.6855792 0.5236972 0.27258414 0.2811381 0.31694856 -0.103820175
-0.036803387 -0.10786459 0.062011953 0.4052488 0.037506234 0.031591307 -0.107676156 0.07277976
0.13495289 -0.5641955 0.73870206 0.6032857 0.32505676 -0.07708841 -0.11716986 -0.15989079
-0.06797537 -0.29369622 -0.07445537 0.19232817 0.14396827 -0.2346895 -0.5192211 -0.35255313
0.19727644 0.30940253 -0.108528204 0.14967035 -0.016955798 -0.014522751 0.109949894 0.022421062
0.31782666 -0.20986025 -0.0031009193 -0.41059837 0.81827956 0.2418898 -0.2958669 0.31907633
-0.31318116 -0.088250436 -0.12343583 0.013609636 0.07057344 -0.032036163 0.20034225 0.19595858
0.3360809 0.2759509 0.19083229 0.13344233 0.31812757 -0.32808906 -0.6232612 -0.32725033
0.8748736 0.4231963 -0.52227634 -0.3062253 0.42219833 -0.10796775 0.40340862 0.90144795
-0.430766 -0.3031408 0.2258231 0.040710293 0.08928812 -0.003705615 -0.024049677 -0.25525996

weight_hh_l0 f4 [128, 32]
00000000: c0c1 4ebe ae03 153e 9a91 2cbe 9c8c 8cbc
00000010: 9aaa 303e dac0 923e 279d 36bd cefb 63bb
00000020: ea32 27be 445f 81be bc9d aa3e dfb3 393e
00000030: a644 893d 96f6 18be 0101 f7bb e9b1 41be
00000040: 6819 c9bd 683e 26be 45bd d8bd c906 e93c
00000050: 99d1 1d3e ee44 71be c748 69be 1765 4f3e
00000060: 5dc1 48be 4e8b b53e 9c31 5dbe 8dd7 143e
00000070: 2737 943d e601 92be 27b6 ca3d 1e6f d3bc
00000080: 1a6a eebd ed23 d43c c8be 6f3e c0a2 0abe
00000090: cb87 a93d fd53 4f3e b1cc 21bd 050f 6cbd
000000a0: 2868 d6bd 73a6 a13d b4a4 b2be f339 5cbe
000000b0: 16a6 783e 9fba a1bc 364f 723d 97a9 afbd
000000c0: bf7c 4c3c 7513 2e3d 23e1 90bc 80ae be3d
000000d0: 010f 913e d5ee 8dbe d437 0f3d e990 823e
000000e0: 445b 973d d043 f9bc 8516 9f3d a2c7 cfbd
000000f0: dd20 7a3d 8356 aa3d adc4 7e3d d58e e2bd
00000100: a511 f2bd d3fc d13d df30 373d 7d1b 08be
00000110: ee17 22bd 5224 6b3d 76a2 9abd ed70 e73c
00000120: f8f0 8fbe 653b 70be 156b 5bbd 3dbc 95bc
00000130: c3b9 83bd c446 9d3e cff2 ce3d 462e 58be
00000140: 912a 60bd c5ed 6ebd 52b4 81be 3eb3 9bbe
00000150: 79ba a73b 076e 25be 0e98 5fbe 1c8a 923e
00000160: 0c3a 49be 8925 433c 0337 ddbd f34c edbd
00000170: b6cc cfbd 96a6 4fbd 6295 243e 446b 80be
00000180: 0a3e 0d3e fbe4 883c 4c83 6b3d 3fd1 bfbd
00000190: 7a01 0f3d b219 493e bd46 693e 2731 003e
000001a0: f33d 2b3e 7efe d23d 7b02 383e 2689 f5bd
000001b0: 09d1 8dbd 5037 c5bc 2aec e7bd bb21 b7be
000001c0: eb36 72be fcf6 eebd 197a 0abe 9dcb 41be
000001d0: 5500 c6bb 9ba1 633d 0ef3 1bbd 1fa2 85bb
000001e0: 6a52 993d 1d3b 4e3e 792e 75bb c864 82bd
000001f0: ccb5 cf3e 6878 0fbc f8a1 4e3e c2ec 6bbe
00000200: 7a86 b6bd f180 6e3e 0d14 15bd 7e73 9d3c
00000210: a2cc 223e 7f78 bb3e 8260 c53d 1071 cbbc
00000220: 692b b1bc 69e6 883d 0662 10be 9d65 01bd
00000230: e341 e1bc 2bd1 63bc 4264 013e 485e 04be
00000240: d5d6 7cbe 1e71 cdbc 0b5f 9dbd 4ef2 ccbd
00000250: 2e1d 563e 153e 813d 5a57 023d 51cd 55bd
00000260: 7bcd 39be 0075 903d 4c5f 22be 163a a53c
00000270: 489a bb3c 8787 f53d 9495 363e 481b efbd
00000280: e87b ee3d 420e ea3d 8870 a2be fbd5 96be
00000290: 8ef7 513e 30dc 683e 2e7e abbe 9826 f53e
000002a0: 694e 65be 0b05 8fbe a75c 5e3e aab2 bb3e
000002b0: f629 22bd bb4f 0dbe 1cec 903e 4516 1dbe
000002c0: 0a4e 98be 4af3 88be e7d2 1abe 62c9 21be
000002d0: 2104 d03c 9fad 37be 51fd 89be 6f5e 4f3e
000002e0: 51f1 0fbe 65a0 a43e 46e6 d1bd afd2 c43d
000002f0: cc06 a5bc d8e5 bebe cbad 853e ec36 56be
00000300: f2dd 033e f9f0 e43c c6d7 cabb 70f5 a2bd
00000310: 9a27 913e b266 86bd ec31 46be 950e 453e
00000320: 5499 5fbe 62a0 4fbd 3a53 f03d 5bd6 083e
00000330: f3b8 7a3d 0edf 183e 577f 9fbd 2fe9 81be
00000340: 4605 f2bd 8f53 d0bd edc8 9e3d 92c5 1bbe
00000350: 7bf3 573e a62f 983d 5da4 43be 54a1 5f3e
00000360: 1d95 81bd da1b fd3d 4cc3 12be ea74 5b3d
00000370: 61df 5e3d b3bb 19be cc8d 2abd c371 d4bd
00000380: e3d1 313c 0c6d 853e 3360 513c 8e50 0bbc
00000390: a103 2a3e 7b46 8cbc 2f35 673d 4a54 ee3d
000003a0: ae92 e3bd b1f3 81be e7de ccbd e8ee 553e
000003b0: 824c 0b3e 2242 12be 6034 ee3d be03 2cbe
000003c0: d584 7d3c 7036 d1bd 5a2e 94be ef9f 5e3c
000003d0: 9cbd 6a3d cdb3 d4bd 7e23 54be cef7 5ebd
000003e0: deb2 343d 148e 1fbd 2b7e 453d 8dad fe3d
000003f0: 6c07 b4bb e57e 0c3d 48ff 293e e88d 40bd
-0.20191097 0.14552185 -0.16852418 -0.017156892 0.1725258 0.2866276 -0.044583466 -0.0034787538
-0.16328016 -0.25267994 0.33323467 0.18135022 0.06702547 -0.14937815 -0.0075379615 -0.18915524
-0.09819299 -0.16234744 -0.10582975 0.028445618 0.15411986 -0.23561451 -0.22781669 0.20253406
-0.19605012 0.35457844 -0.21600956 0.14535351 0.07237082 -0.28517073 0.09898024 -0.02580982
-0.11641331 0.025896037 0.23412621 -0.13538647 0.082778536 0.20246883 -0.03950185 -0.05763151
-0.10469085 0.07893076 -0.34891284 -0.21506481 0.24282107 -0.019742308 0.059157573 -0.085772686
0.012480914 0.042499024 -0.017685479 0.09310627 0.2833176 -0.27721277 0.03496535 0.25501183
0.073904544 -0.030427843 0.07767967 -0.10145499 0.061066497 0.08317282 0.062199283 -0.11062399
-0.11819772 0.102533005 0.04472434 -0.13291736 -0.039573602 0.057407685 -0.07550518 0.02825209
-0.28113532 -0.23460157 -0.05356892 -0.018278236 -0.064319156 0.30718052 0.10104906 -0.21111402
-0.054728094 -0.058332223 -0.25332886 -0.30410188 0.005118665 -0.16155253 -0.21835348 0.28620994
-0.1965105 0.011910805 -0.10801508 -0.115869425 -0.101464674 -0.050695978 0.1607261 -0.25081837
0.13793197 0.016710749 0.05749826 -0.093660824 0.034913518 0.19638708 0.22780891 0.1251875
0.1672285 0.10302447 0.17969696 -0.119890496 -0.06924636 -0.024074227 -0.113243416 -0.35767922
-0.23653762 -0.11668202 -0.13523139 -0.18925329 -0.00604252 0.05557404 -0.038073592 -0.004078164
0.07486422 0.20139737 -0.0037411733 -0.06366879 0.40568388 -0.008756734 0.20178974 -0.23039535
-0.08912368 0.23291375 -0.036396075 0.01922011 0.15898374 0.3661537 0.09637548 -0.024834186
-0.021627145 0.06684572 -0.14099893 -0.031591047 -0.027497238 -0.01390485 0.12635902 -0.1292659
-0.24691327 -0.025078353 -0.07684144 -0.100071535 0.20909569 0.06310669 0.031821586 -0.052197758
-0.18144791 0.07053566 -0.15856665 0.0201693 0.022900715 0.119887404 0.17830497 -0.11675125
0.11644727 0.11428501 -0.3172648 -0.2946013 0.20504591 0.22740245 -0.33494705 0.47881007
-0.22393192 -0.27933535 0.21715032 0.36659747 -0.0395908 -0.13799946 0.28305137 -0.15340526
-0.2974704 -0.26748115 -0.15119515 -0.15799478 0.025392594 -0.17937325 -0.26951078 0.20250867
-0.14056899 0.3215362 -0.10248999 0.09610497 -0.020144843 -0.37284732 0.26109156 -0.20919389
0.12877634 0.027946936 -0.006190273 -0.0795697 0.28350526 -0.06562556 -0.19354981 0.19243844
-0.21835834 -0.050690062 0.11734624 0.1336302 0.061211538 0.14928839 -0.0778796 -0.25373217
-0.11817412 -0.101721875 0.07753167 -0.15212086 0.21088974 0.07430963 -0.19105668 0.21838886
-0.06327269 0.12358828 -0.14332312 0.053578295 0.05441225 -0.15013008 -0.041639134 -0.10373261
0.010853264 0.2605976 0.012779283 -0.008503092 0.16602947 -0.017123451 0.056447204 0.116371706
-0.11111961 -0.25381234 -0.10003453 0.20891917 0.13603404 -0.1428304 0.116310835 -0.16798303
0.015473564 -0.10215461 -0.28941613 0.013587936 0.05730973 -0.10385857 -0.20716664 -0.054435544
0.044115894 -0.038953856 0.048216026 0.12435446 -0.005494049 0.034300704 0.16601288 -0.047010332

bias_ih_l0 f4 [128]
00000000: ac85 e13d 2fe9 21bd 246e 4f3e 5393 d53d
00000010: df1a 503c 7992 3f3e 551e 613e 472a 1bbd
00000020: 631f 473d 105c 6f3e 27aa 113e 6430 e8bd
00000030: 0fa6 eb3d 7fc7 ff3e cbca 02be a50e 3a3e
00000040: e7be 903d 8267 233e 8d6c 713e 04a5 4d3c
00000050: 24f5 6b3e ed18 90bc da17 0bbe ddd3 cfbb
00000060: 3582 cebb 8c06 b23d 78c5 973d 1281 973d
00000070: 0164 103e eb34 373e 4229 663e ce53 e63c
00000080: f05c 363e 93d9 393e 2679 fb38 17fb a3bd
00000090: 8986 09bd dc7b 283e 53b4 40bb fe0e 4c3e
000000a0: 2cb1 4e3e bdc8 9b3e 123c 9a3e e0f6 613e
000000b0: 81b5 d1bb 37f8 843e b683 163e 4478 333e
000000c0: f069 9cbd 23dd 783e 9b53 443e 0c20 7a3e
000000d0: ce14 043e 27aa e03d 8b46 acbd 1976 d43d
000000e0: 5909 f63d 6539 4e3e b84f c03d dd33 663e
000000f0: b2c7 c0bd 4ca0 9a3d 3c1a 363d 4453 f53c
00000100: c657 a6bd 8421 6e3d b345 c73d 8452 1abe
00000110: d530 18bd 9424 1e3d 1d10 063e e3dd 063e
00000120: 67c0 c33d d605 9d3c 0b99 053e 4b0e e53d
00000130: 5c33 503d 97cd 063d 4603 f63d dd5d 92bd
00000140: a877 0cbe 9a9f bdbd b8e7 0a3e d545 a8bd
00000150: c4fc 853d a848 44be c621 a0bd 3157 203e
00000160: 72a4 0bbe c379 b8bd 47d1 b43d 2869 963c
00000170: 25cc 133c 860b f4bd a399 b5bc 192f f03d
00000180: de12 66bd d3ae 8b3e 32ed 8c3e 48d7 173e
00000190: b688 023e a06d 8e3e 72e0 583e e458 4b3d
000001a0: 21db e23c f55f 8f3e 5bd6 3d3e a269 d2bd
000001b0: 2be1 8eb8 bac2 d23e 1969 a13d 498a 543e
000001c0: 642b cf3d bc88 97bd d08c 0a3e c220 183e
000001d0: 98d6 223d 85af 193e 7efb 9ebc 73b4 6dbd
000001e0: 3e5b 5b3e c22b 183e b1a2 7b3e 6b9a 04bc
000001f0: 1e43 9fbd d1a1 193d 9607 373e aae6 c038
0.11011824 -0.03952902 0.20256859 0.104284905 0.012701719 0.18708219 0.21984227 -0.037882116
0.048613917 0.23374963 0.14225064 -0.11337355 0.115062825 0.4995689 -0.12772672 0.18169649
0.07067662 0.15957454 0.23576565 0.01255155 0.23042732 -0.01759001 -0.13583317 -0.0063423947
-0.006302143 0.08692655 0.07410711 0.07397665 0.14100648 0.1789128 0.22476676 0.028116133
0.1780889 0.18149404 0.00011991178 -0.08006876 -0.03357557 0.16453499 -0.0029404357 0.19927594
0.20184773 0.3042659 0.30123955 0.22066832 -0.006399811 0.25970623 0.14698681 0.17526346
-0.076373935 0.24303107 0.19172518 0.24426287 0.12898561 0.10969954 -0.084118925 0.10374088
0.12013502 0.20139082 0.09390205 0.22480722 -0.09413089 0.075501055 0.044458613 0.02994693
-0.0812221 0.05813743 0.09730091 -0.1507054 -0.037155945 0.038609102 0.13092084 0.1317058
0.09558182 0.019167822 0.13046663 0.11184367 0.05083023 0.03291091 0.12012343 -0.07146809
-0.1371752 -0.09258957 0.13564956 -0.082164444 0.06542352 -0.19168341 -0.07818942 0.15658261
-0.1363695 -0.09007599 0.08828979 0.01836069 0.00902084 -0.119162604 -0.022167986 0.11727733
-0.056170337 0.27281818 0.27524716 0.14828217 0.12747464 0.27818012 0.21179369 0.04964532
0.02769238 0.28002897 0.18538801 -0.10274054 -6.8130284e-05 0.4116419 0.07881374 0.20755877
0.10115698 -0.07399127 0.13530278 0.14856246 0.039755434 0.15008362 -0.01940703 -0.058033418
0.21421525 0.14860442 0.2457378 -0.008093457 -0.077764735 0.037507836 0.17873988 9.198238e-05

bias_hh_l0 f4 [128]
00000000: 0da6 ad3e 053d 613e 3cf1 073e 3865 84bd
00000010: 6598 da3d a7ad 8c3e ed59 dbbc 3795 873d
00000020: a758 023e 699c 9c3e 4cd2 b13e ec56 c33d
00000030: fbc1 ec3d 4d44 023f acfd cf3d 9d5b 6e3e
00000040: 76ce a03c d9c3 a43d 1504 153e 4fc0 04bd
00000050: d224 713e f318 bc3d 335b 223e 2978 a3bd
00000060: ba09 e8bd 25f8 763b b913 1d3d 89d9 b5bc
00000070: 68da 2a3e 1fff 4f3e 20ef ab3d 75d4 693d
00000080: 7bbc 333d 8b15 ce3e 1d0b fe3d 5462 c73c
00000090: 31c1 bdbc 07c4 18bb 6712 01be e8bd b9bd
000000a0: 59ec 74bd 9b95 003e 512f 613e f557 eb3d
000000b0: dd75 0d3e 41ac 8b3e a8f2 1abc 308a cf3d
000000c0: 4cf1 11bc c8cc 8bbc 7e5f 3f3d b3cb 693d
000000d0: 709c f83d 096f 063d 78b3 783d 5d8a 33bd
000000e0: 1b0a 143e c234 7c3e 69aa 973b 57be bf3b
000000f0: 7ea4 d53d e625 efbd 91c2 99bd 5bdd 533e
00000100: f6d6 c83d b3cf 9b3d 0736 bbbd e8b1 f0bd
00000110: b4d9 143d 868e 26be fb12 96bd 4d2e 063e
00000120: a21c 29be 8ba1 773e 57de 623d 9e6e 603e
00000130: 14fa 433c eaa9 d83d 8c1d c73d ef9a 103d
00000140: b3bb 45bd e7f1 a03d 4718 17be c31e 823c
00000150: 732c e63d 4598 19be b8b4 5a3d 81f0 bc3d
00000160: f0e5 93bd d6a3 073e db61 edbd 3b4d 0d3d
00000170: 530e 0fbe 579b 21be 69ba 4f3e 9c21 7fbd
00000180: 0836 553e cdc2 7e3e 26d8 323e 50bc f1bd
00000190: 2c36 3bbd 422f 953e f12a 0c3e a2a9 fc3d
000001a0: 8bed 903d e7e3 953e dcc0 053e a8df a7bd
000001b0: 4a02 003c 4da6 8a3e ca06 143e 2289 9e3e
000001c0: 493b 7f3e 48af 7fbc e775 b1bd ac10 093e
000001d0: 550a b93c d208 24bd 40c8 cf3d 4c3c 6a3e
000001e0: 6294 b63d 0383 8c3e e98f 0b3d 908f 353e
000001f0: 797f 4a3e 846c d63d d517 d43d eeb6 843d
0.3391575 0.21995933 0.13275617 -0.064646184 0.10673598 0.27476236 -0.026776278 0.06620257
0.1272913 0.3058808 0.34730756 0.095380634 0.11560436 0.5088547 0.10155806 0.23277135
0.019629698 0.080451675 0.14552338 -0.032409962 0.23549202 0.09184446 0.15855102 -0.07981903
-0.1132998 0.0037684527 0.038348887 -0.022198455 0.16684878 0.20312165 0.08395219 0.05708738
0.04388092 0.4025081 0.124044634 0.024338879 -0.02316341 -0.00233102 -0.12604676 -0.09069425
-0.05979571 0.1255707 0.21990706 0.11491386 0.13814493 0.27279857 -0.009457268 0.10133779
-0.008907627 -0.01706542 0.046721928 0.05707903 0.12139213 0.032820735 0.06071803 -0.043833125
0.1445698 0.246295 0.004628469 0.0058515477 0.10431765 -0.116771504 -0.07507814 0.20689909
0.098066255 0.07607975 -0.09141164 -0.11752683 0.03634043 -0.16265306 -0.07327839 0.131036
-0.16514829 0.24182718 0.05538782 0.21917197 0.011961479 0.105792835 0.097224325 0.035304006
-0.048274707 0.07858639 -0.14755355 0.015883809 0.11238947 -0.14999492 0.053395003 0.0922556
-0.072215915 0.13246092 -0.1159093 0.03449748 -0.13970308 -0.15781914 0.20285954 -0.06228791
0.20821393 0.24878998 0.17465267 -0.11803496 -0.04570596 0.29137617 0.13688256 0.123370424
0.07076558 0.29275438 0.13061851 -0.08196956 0.007813046 0.27080002 0.14455715 0.30964
0.24924959 -0.015605755 -0.08665066 0.13385266 0.022587935 -0.040047474 0.101456165 0.22874564
0.089150205 0.27443704 0.03407279 0.17730546 0.1977519 0.104699165 0.10356108 0.064802036

weight_ih_l0_reverse f4 [128, 2]
00000000: 1c32 563e 1e57 18be f02d 563e 64cc a23d
00000010: df95 24be 4646 1cbd cbd8 a53e 2df0 00bf
00000020: cb18 753e 6325 5a3e 9caa 12be 5735 f8be
00000030: 0b3e 9b3d 6f23 163e 9c6b 8f3c b757 a8be
00000040: 650b 063c 2973 4dbe eae8 d8bc 8c51 423d
00000050: b74d adbe f837 483e 7410 673d 04d4 a6be
00000060: daf3 e9be 429d 113f 8862 7bbe 040b 92be
00000070: abc9 693e b597 a93d 4966 07be 4987 cd3d
00000080: 3412 76bd e464 6f3e 5e35 84bd ae0c e2bd
00000090: 6d5c 2fbe 300f 843d d8b7 a6bd 3fbf 873d
000000a0: 061f 20be d044 e43e 81f1 40be fc78 c3bc
000000b0: 577f 74be a51e 243e 9996 883e 3b8e 7abc
000000c0: 3053 8fbd a818 d8bd 9afb 0bbe d9c3 25be
000000d0: fda3 2a3e 1d5b 6ebd 19bc c4bd 19e7 933d
000000e0: 25c0 9ebe ef82 293f 71b1 b73d d21d 1abe
000000f0: e794 693e 3bf1 88be 4f65 1ebd 3d5a 86be
00000100: b58f 033e 7afb ae3d ad23 643e e3e6 09be
00000110: 67ad c9bd cc50 02bb 3378 5b3e 99d7 84be
00000120: 7c2b a43e 0464 073e a086 073e a43e 8ebc
00000130: 6fd6 ba3c 0cb2 c93d dd93 b13d f90e 7abd
00000140: 1f51 f43d 8600 b1bd 67a5 b03d 3b7a c3bd
00000150: 2e16 523c 2109 0cbe 70c6 c73d 8ac7 94be
00000160: 8d59 97be ca61 283f b387 d5bd 55f6 79be
00000170: e538 223e 2291 d4bc ad88 9ebd 1950 d8b9
00000180: fbeb 413e 0b90 883b f5ad 8bbc 1f52 babb
00000190: 29f6 14be 01d6 113e 237a 86be 3bae a03c
000001a0: 3a8a 39be ff49 9f3e acbf 30bd 5266 5ebd
000001b0: e6df 2a3d 11c8 57be 6678 38bd c1c8 5dbd
000001c0: c1f5 743d 6e14 e2bd efa2 573d a3d6 72be
000001d0: b34c 483e 155c 513d 3471 d03d ceb6 5ebe
000001e0: c1a8 88be f7bb 0a3f afaf a23e 1baf 9dbc
000001f0: c023 8c3e b6b4 03be a1cd f93d f4f8 61be
00000200: 9b90 b1bd 8a3e 06be 2af3 f03d b20e 803e
00000210: 8b71 363e cd84 43be 4701 08bd 7b81 25be
00000220: 5e87 a7bc 24eb 813e 4742 4abc 19c7 863e
00000230: 616e ef3d d81d 79be e082 82be f010 5a3e
00000240: 3831 8dbe e30a b23c e98e 32be b4c5 5f3e
00000250: 93f6 973e d9a4 39be cc0c 9d3e 4db1 d5bd
00000260: 0e09 983e 0197 55be b54d cf3e 0c0a bdbc
00000270: 5511 bbbe 3292 493a 6e15 61bd e162 653e
00000280: be07 7ebc 61ec fa3d b026 6abd 220e a33e
00000290: 1f1b c53d 44bd 963c 7303 65be eb78 42be
000002a0: 03d2 89be b9fe 82be 60c8 e03e d581 43be
000002b0: e19e abbe bbdd 663e a8d0 463d f9d9 583e
000002c0: 7638 27be 9d9a 893e c063 9b3e 3857 8dbb
000002d0: 2bbe bfbe 90ee d33d 8c89 963e 7a5f 96be
000002e0: 86c7 ccbe 8342 d03e 29fb 423d d913 993d
000002f0: cff2 973e b082 9cbe d2ca 8e3e fa40 853d
00000300: 59fe a13e a2dd 8bbd ee7b 6e3e b2de 113c
00000310: b6ad 42bd 9627 3bbe d5a1 8f3d 23ca d2be
00000320: 2d8c 813e c47f 5d3e 5af9 47be 02b8 adbe
00000330: a255 3bbd c8a5 013e e10c 303e 817e 86be
00000340: 47ff adbc 8899 21be e4af 893d 0f35 32be
00000350: db63 d53d ab49 4fbe d97a 443e 2d74 e1be
00000360: 28d7 70bd 6962 ec3e 699d febb 5e4f 39be
00000370: c71c 733e f434 a0bc db0e 1ebe c9c1 42be
00000380: 1df3 923e 1329 e23d 8fac 4cbc 0961 65be
00000390: b97d 81be bfaa b83d 24f1 d4be c2af 20bd
000003a0: ea0d 64be 3fea 743d 82ce a4bd 9f74 1a3d
000003b0: 4f31 04be 5f3a 42be c707 bd3d 1b8d a5bd
000003c0: cf55 0b3e 414d 41bb 2dfe 513e 78fd 93be
000003d0: 32db f9bd 57de e53d 1188 0c3e 4d2c 923d
000003e0: 3cda da3d 9b85 563e cf57 2f3e bd5a c9be
000003f0: 40c7 d13d ce4d 2bbe 9c45 b2bd 9ca8 90be
0.20917553 -0.14876983 0.20915961 0.07949141 -0.16072796 -0.038152955 0.32391962 -0.5036648
0.23935239 0.21303324 -0.14322895 -0.48478195 0.07580193 0.14661954 0.017507367 -0.3287942
0.008181428 -0.20063461 -0.02647825 0.04744105 -0.33848354 0.195526 0.056412175 -0.3258363
-0.45693856 0.5688058 -0.24549305 -0.2852403 0.22830836 0.08280889 -0.13222612 0.10035569
-0.060075954 0.2337833 -0.064554915 -0.11037575 -0.17125101 0.06448209 -0.08140534 0.06628274
-0.15636835 0.4458375 -0.18842126 -0.0238614 -0.23876701 0.16027315 0.26677397 -0.015292699
-0.06998289 -0.10551578 -0.13670197 -0.16187991 0.16664119 -0.05819236 -0.09606189 0.07221813
-0.3100597 0.66215414 0.08969391 -0.15050438 0.22810708 -0.26746544 -0.038670834 -0.2624072
0.12847789 0.08544059 0.22279234 -0.13466983 -0.09847527 -0.0019884584 0.21432571 -0.25945738
0.32064426 0.13221747 0.13234949 -0.017363854 0.022807328 0.09848413 0.08670781 -0.061049435
0.11929535 -0.08642678 0.08625298 -0.09544798 0.012822671 -0.13675357 0.09754646 -0.29058486
-0.2956051 0.65774214 -0.10426273 -0.24410374 0.15842016 -0.025948111 -0.077409126 -0.00041258408
0.18937676 0.004167562 -0.017050723 -0.005686059 -0.14547028 0.14241792 -0.26265058 0.01961433
-0.18119135 0.31111142 -0.043151543 -0.0542968 0.041717432 -0.21072413 -0.045036696 -0.054146532
0.05980468 -0.11039053 0.05264562 -0.2371469 0.19560508 0.051113207 0.10177842 -0.21749422
-0.2669125 0.5419306 0.3177466 -0.019248536 0.27371025 -0.12861905 0.12197424 -0.22067624
-0.086701594 -0.13109794 0.1176513 0.25011212 0.1781675 -0.19093628 -0.033204343 -0.16162674
-0.02045029 0.2537471 -0.012344903 0.26323774 0.11690975 -0.2432779 -0.25490475 0.21295524
-0.27576613 0.021733707 -0.17437328 0.21852762 0.2968031 -0.1812929 0.30673826 -0.10434208
0.29694408 -0.20858385 0.40488973 -0.02307608 -0.3653666 0.00076893263 -0.054952078 0.22401
-0.015504776 0.12252117 -0.0571658 0.3184672 0.096243136 0.018400796 -0.22364597 -0.18991439
-0.2691804 -0.25584963 0.43902874 -0.19092496 -0.33519652 0.22545521 0.048538834 0.211769
-0.16330132 0.26875773 0.3034954 -0.004313376 -0.37449774 0.103482366 0.29401815 -0.29369718
-0.39995974 0.40675744 0.047602806 0.07474489 0.29677436 -0.30568457 0.27889115 0.06506534
0.31639364 -0.068293825 0.23289463 0.008903192 -0.047528945 -0.1827682 0.07013289 -0.41169843
0.25302258 0.2163077 -0.19528714 -0.3392945 -0.045735963 0.12660897 0.17192413 -0.2626839
-0.02123989 -0.15781224 0.067230016 -0.17403053 0.104194365 -0.20242946 0.19187488 -0.44033948
-0.05879894 0.4616883 -0.0077702296 -0.18096682 0.23741446 -0.0195565 -0.15435354 -0.19019236
0.28701106 0.110429905 -0.012492313 -0.22400297 -0.2529123 0.09016942 -0.41590226 -0.039230116
-0.22270933 0.059793707 -0.08047201 0.037708875 -0.12909435 -0.1896758 0.09229999 -0.08083554
0.13606952 -0.002949551 0.20507117 -0.2890432 -0.12200011 0.112240486 0.1372378 0.07137356
0.10686156 0.20949404 0.1712334 -0.3932704 0.10243082 -0.16728899 -0.08704683 -0.2825364

weight_hh_l0_reverse f4 [128, 32]
00000000: e5ed be3a 5ad0 993d 5374 03bc 9696 c23d
00000010: 9764 073d 16e6 4a3d d795 ab3d acf9 abbb
00000020: e1f7 0fbd bdc4 cb3c b627 713d 2e67 003c
00000030: 9fdd b4bc 4c36 133e 1723 05be b04b 683c
00000040: a61f 3cbc f4c6 6f3d f8f7 f53b 8ced 1fbd
00000050: cbd7 45be 4d29 0a3e ca08 bd3c cedd 2abd
00000060: a117 06be 8f02 583e d053 54be d7c2 efbd
00000070: 10c5 73bc cecb 953d fa0b d2bd 944d c63c
00000080: 381b 3abd 28d2 ff3d 8526 353d 915f 7c3e
00000090: 9113 9bbd 4b79 12be 70e8 0a3d 3e4d 07be
000000a0: 1f66 71bd 37dc 863d fd49 5abc 40d7 f4bd
000000b0: 2fb7 0dbe 8427 c3bd a033 e23c 9db7 86bd
000000c0: 3bef b4bd 202d ecbd 0104 1d3d caee 1c3c
000000d0: 989b fabd 61b2 cb3d def2 14bd d6a5 2fbe
000000e0: 53af c2bd d5e1 34bd f3dd cabd df21 6cbd
000000f0: 43f0 c23d ad2b 07be bc19 d33d f779 7e3d
00000100: a93a c93d 9d9d 60be 377a bfbd 1e2b 14bd
00000110: 93d2 b43d 5ed3 e63d 522a c03d b961 41be
00000120: 5431 373c 9869 f63b 489e ef3b 0087 b63d
00000130: 5e98 9a3d e635 0fbb 58bb 933d 4657 963b
00000140: fb33 49be a5c4 80bd ba8e c0bd 7104 2f3d
00000150: 674b 1ebd 14cc bfbd 4938 413d a702 37be
00000160: 6298 04be 7b80 3e3e 0e0a 683b a85e d43c
00000170: 2916 9d3d 88a9 f73d 30e4 34bd 7da0 57be
00000180: 6f31 f13d 2d57 7fbe c69b 5abd dc71 513d
00000190: 31ae 8bbe 62d0 2cbe ace0 b03e 6cd5 07bc
000001a0: 72e9 febd 8a3d 37be 6d0e 8c3c c99c 8b3e
000001b0: 6de2 893e 31bf 813d 30f0 073d 8b78 593b
000001c0: ab14 4cbe 47e7 ebbc ee2c e7bd ba1e 0a3d
000001d0: f8cc 833d c806 473e 7b99 8dbe 4486 3fbd
000001e0: 68b0 84be 1c00 323e 9376 75bd 47cd ae3d
000001f0: bd5e 01be f06e 90be 73cb 043e e3c4 ddbd
00000200: b35a 243e 1256 b4bc 1213 cfbd c1b4 fd3d
00000210: f9f7 16be d00c 7dbc 716e 1e3d 18e4 8abd
00000220: 20ff cf3d 4aef 2cbe 34ca 43bd 1b63 233d
00000230: 4104 25be 9689 233e d8ba 5cbd 986b f9bd
00000240: 1529 c2bd 4e8b c23c 3b5b eb3c 85c8 ebbd
00000250: eda3 8ebe b1ec 233d 4b44 bdbd c799 003e
00000260: 8f29 12be 3a1b 893e 3bd5 41be f953 463e
00000270: 1599 cd3a e028 ea3d 9642 4ebd cb2e 12be
00000280: 58bc ed3d e21d 92be 1c25 db3d 648f 363e
00000290: 302f b7bd 2553 323d 93b7 cb3c de50 5ebe
000002a0: e728 63be ff14 4bbe eb82 ae3d fdb0 c73a
000002b0: 9392 2fbd f012 233e f186 6dbd f419 a2bd
000002c0: c771 4dbd 8d1e 8abe 60cf 68be 3e54 7abd
000002d0: 94f3 103e 337c c23d 1867 54be b4da ad3b
000002e0: 9960 413d 75c6 c93b 0034 0cbe 67da 9dbc
000002f0: d2ba a1be ed7f 48bd 5023 673e 698c 18be
00000300: 9877 6a3e be72 f23d 67a0 6d3d 1d46 1b3e
00000310: ec9d a6bd e366 a0be 5897 d23d f21b 2dbe
00000320: cf86 babd aa52 64be 5cbc ba3d f326 573e
00000330: 9da2 0cbe fc08 6c3d 904d a4bd d647 5a3d
00000340: 6490 cdbd d9d2 74bb bebd c3bd 9bbb 0e3e
00000350: aa2c 4abd 2db6 5e3e 3542 fa3d e84a abbd
00000360: 1c20 0dbe c012 d03d 61d9 b9bc fb00 afbd
00000370: 7f88 2cbd 598b 6ebe 9fc9 ff3c fd31 eabb
00000380: 4ba7 553e 3f26 7ebe b4c8 343e 3bd3 ddbd
00000390: ce23 83bd bcf0 41bd 41e6 d53d c435 5fbe
000003a0: dcc1 47bd 284e c8bd 0e86 373e 06b5 dd3c
000003b0: 9cf7 673d 6fea b23d 9d16 f43d 97c2 48be
000003c0: 8764 463d c7c1 0ebd 1757 43be 603e 26bd
000003d0: ef59 923d 4157 89bd bd08 3a39 525d 9fbc
000003e0: e383 023e 3ec8 2a3e 0a16 123e d117 893c
000003f0: ef42 f1bd 03d2 a2bd 93c2 37bc 86e0 72bc
0.0014566748 0.07510443 -0.008023339 0.09501378 0.033054914 0.049535833 0.08378189 -0.005248269
-0.035148505 0.024874086 0.058875762 0.0078371 -0.022078333 0.14376181 -0.13001667 0.014178202
-0.011482155 0.058539346 0.007506367 -0.0390449 -0.193206 0.13492317 0.02307548 -0.041715436
-0.13094951 0.21094726 -0.20735097 -0.117070846 -0.014878526 0.07314263 -0.102561906 0.024206914
-0.045436114 0.12491256 0.04422619 0.2464583 -0.07572091 -0.14304082 0.033913076 -0.1321306
-0.05893528 0.065849714 -0.013323304 -0.11955118 -0.1383941 -0.095290214 0.027612507 -0.0657799
-0.08834692 -0.115320444 0.038333897 0.009578416 -0.122367084 0.099461325 -0.03636443 -0.17153105
-0.09506097 -0.044160683 -0.09905615 -0.05764949 0.095184825 -0.13200255 0.10307643 0.062128033
0.09825642 -0.21935125 -0.093494825 -0.036173932 0.08829226 0.11270784 0.09383072 -0.18884934
0.011181194 0.007519912 0.00731257 0.08912468 0.07548593 -0.0021852194 0.07213467 0.0045880405
-0.19648735 -0.06287507 -0.09402223 0.042728845 -0.038646128 -0.09365097 0.04717282 -0.17872106
-0.12948754 0.18603699 0.0035406384 0.025924042 0.07670242 0.120928824 -0.04416293 -0.21057315
0.11777007 -0.24935599 -0.053371213 0.051133975 -0.27281335 -0.16876367 0.3454641 -0.00829063
-0.1244687 -0.17894569 0.017096722 0.27268055 0.26930562 0.06335295 0.033188045 0.0033183421
-0.19929759 -0.028796805 -0.112878665 0.03372071 0.06435579 0.1943618 -0.2765616 -0.046758905
-0.25915837 0.17382854 -0.059927534 0.08535247 -0.12633796 -0.2820964 0.12968235 -0.10828569
0.16050224 -0.022013698 -0.10111059 0.12387992 -0.14743032 -0.015444949 0.038679544 -0.06781787
0.10156083 -0.16888157 -0.047800258 0.039889436 -0.16114904 0.15970454 -0.053889126 -0.12178725
-0.09480492 0.023748066 0.028730026 -0.115128554 -0.2785944 0.04002065 -0.092415415 0.12558661
-0.14273666 0.26778585 -0.18928997 0.1936797 0.0015685881 0.114335775 -0.05035647 -0.14275663
0.11608189 -0.28538424 0.107004374 0.17828137 -0.08944547 0.043536324 0.024867808 -0.21710536
-0.22183572 -0.19832228 0.08521064 0.0015235242 -0.042864393 0.15925193 -0.05799002 -0.079151064
-0.050157335 -0.26976433 -0.22735357 -0.061115496 0.14155418 0.09496345 -0.20742452 0.0053056125
0.047211263 0.006157691 -0.13691711 -0.019269181 -0.31587845 -0.048950125 0.22572064 -0.14897312
0.22897184 0.118382916 0.0580143 0.15163465 -0.0813559 -0.31328496 0.10282773 -0.16905192
-0.09107744 -0.22297159 0.09117958 0.21010952 -0.13733907 0.057625756 -0.080226064 0.053291164
-0.10037306 -0.003735712 -0.09557675 0.13938753 -0.049359 0.21749182 0.12219659 -0.083638966
-0.1378178 0.10159826 -0.022686662 -0.08545109 -0.04212236 -0.23295344 0.03122407 -0.0071470723
0.20864598 -0.24819277 0.17654687 -0.10831305 -0.064033136 -0.047348723 0.10444308 -0.21797854
-0.048768863 -0.09780532 0.17922232 0.027063858 0.056632623 0.08736121 0.11918376 -0.1960548
0.048435714 -0.03485277 -0.19076191 -0.04058683 0.0714606 -0.067060955 0.00017741598 -0.019453678
0.12745623 0.16677949 0.1426622 0.01673499 -0.11780345 -0.07950213 -0.011215824 -0.014824038
