sgan-dataset/logs/hotel/models_03_Mar_2019_00_24_04/model_registrar-1899.pt (torch_old, 575417 bytes, 45 tensors)

weight_ih_l0 f4 [128, 6]
0	0xbde72bc7	-0.11287647
1	0xbbb4513b	-0.0055028475
2	0xbe21786f	-0.15768598
3	0x3d127493	0.035755705
4	0x3ac320f5	0.0014887141
5	0x3d8b2d7c	0.06795785
6	0xbeffd6ff	-0.49968717
7	0xbee9bbcf	-0.456511
8	0xbe9ace94	-0.30235732
9	0xbe6fdd3b	-0.23424236
10	0x3eed0dd6	0.46299618
11	0xbe9f2d7a	-0.31089383
12	0xbe319711	-0.17342784
13	0xbe1d6e35	-0.15374072
14	0xbdacb0c8	-0.08432156
15	0xbbbc651c	-0.005749358
16	0xbe705c39	-0.2347268
17	0x3f0899dd	0.53359777
18	0xbd35b122	-0.04435838
19	0x3d693abc	0.05694078
20	0x3e46808a	0.19384971
21	0xbe28b43f	-0.16475008
22	0x3d19614b	0.0374463
23	0x3dc93f8f	0.09826576
24	0xbd907b9a	-0.07054825
25	0x3d8fce24	0.0702174
26	0xbe5920c5	-0.21203907
27	0x3e41290e	0.18863317
28	0x3ddee9ce	0.108844385
29	0xbde747b1	-0.11292971
30	0x3e3fa764	0.18716198
31	0x3dd1789e	0.10228084
32	0x3e181c5d	0.1485457
33	0xbe485930	-0.19565272
34	0x3e2eb924	0.17062813
35	0xbd7701eb	-0.060304563
36	0xbe31ce7a	-0.17363921
37	0xbda42148	-0.080141604
38	0xbe3b52f5	-0.18293364
39	0x3dd7cef4	0.1053752
40	0x3db32689	0.087475844
41	0xbdd1e3c0	-0.10248518
42	0x3bfcabcd	0.00771091
43	0x3e3c6a5a	0.18399945
44	0xbe68e876	-0.22744927
45	0x3e1f6c68	0.15568697
46	0xbd555942	-0.052087076
47	0x3d5b27af	0.053504642
48	0x3e274ff8	0.163391
49	0x3deef0e0	0.11667037
50	0x3da354d6	0.079751655
51	0x3d3a5b43	0.04549719
52	0x3cad3ee5	0.021148155
53	0x3d2fe881	0.042946342
54	0xbe22781b	-0.15866129
55	0xbe8abf16	-0.27098912
56	0xbdbd9f31	-0.09258879
57	0x3eb72856	0.3577296
58	0xbd442c9e	-0.047894113
59	0xbe908e76	-0.2823369
60	0x3c0411af	0.008060857
61	0x3e0c2b61	0.13688423
62	0xbea9c787	-0.3316004
63	0xbe0a428d	-0.1350195
64	0xbcf66e65	-0.030081937
65	0xbc67bc7a	-0.014144057
66	0xbd3b5d3d	-0.045743216
67	0xbc628eb2	-0.0138279665
68	0xbe113e44	-0.14183909
69	0xbba3c767	-0.004998136
70	0x3e0ec139	0.13940896
71	0x3e2b95c3	0.16756348
72	0xbe44c7eb	-0.19216888
73	0xbe57c9ca	-0.2107307
74	0x3dda0d1f	0.10647034
75	0xbd89a5fd	-0.06721113
76	0x3d1350ff	0.035965916
77	0xbe20af11	-0.15691783
78	0xbcd6d3c7	-0.02622403
79	0x3ddab5f6	0.106792375
80	0x3e0fb703	0.14034657
81	0xbe1fa34d	-0.15589638
82	0xbe03b171	-0.12860657
83	0x3b5613e1	0.0032665657
84	0xbdc3e0dc	-0.09564373
85	0xbd74f922	-0.059807904
86	0xbe55164a	-0.20809284
87	0x3e9fcf09	0.31212643
88	0xbb1639b6	-0.0022922582
89	0x3dc4619e	0.095889315
90	0xbdd7d684	-0.105389625
91	0x3e2a78ff	0.16647719
92	0xbe1161a2	-0.141974
93	0x3ee3423f	0.4438648
94	0xbd0831bd	-0.03325056
95	0xbd1416e0	-0.036154628
96	0x3e071bb3	0.1319416
97	0x3dc00e7e	0.09377764
98	0xbc6468c6	-0.013940996
99	0x3dd63123	0.10458591
100	0x3e7512ab	0.23932903
101	0xbd84b807	-0.06480413
102	0xbddd6aee	-0.10811411
103	0xbe6d6d06	-0.2318612
104	0x3d8521c2	0.065005794
105	0xbdbce9f2	-0.09224309
106	0xbe1bf68b	-0.15230767
107	0x3e83f266	0.25770873
108	0xbc806533	-0.015673256
109	0xbd7e46e3	-0.06207932
110	0x3e88117a	0.26575834
111	0xbd83b8df	-0.06431746
112	0x3e91f747	0.2850897
113	0x3e8427bb	0.25811562
114	0xbca46102	-0.020065788
115	0x3d037e1b	0.032102685
116	0xbe4551c5	-0.19269474
117	0x3e3627dd	0.17788644
118	0x3dba5754	0.09098688
119	0x3e4f53da	0.2024683
120	0xbdaa5325	-0.0831664
121	0x3d10672c	0.035254642
122	0x3e92374e	0.2855782
123	0xbda17227	-0.07883101
124	0x3c0abbef	0.008467658
125	0xbe0279f1	-0.1274183
126	0xbda5c392	-0.08093943
127	0xbd874e80	-0.066067696
128	0x3d6b78cf	0.05748826
129	0x3e36cadd	0.17850824
130	0xbeacd188	-0.3375361
131	0x3eb6af7d	0.35680762
132	0xbca1e6a7	-0.019763304
133	0xbe1ad00f	-0.1511843
134	0xbe38f780	-0.18063164
135	0xbc859505	-0.01630641
136	0x3e442be9	0.19157375
137	0x3d611167	0.054948237
138	0xbd583a6b	-0.052790087
139	0xbdea71d8	-0.11447495
140	0xbdde4c7f	-0.10854434
141	0xbd4c6b60	-0.04990709
142	0x3deff014	0.11715713
143	0x3e2143b8	0.15748489
144	0xbc2dce5c	-0.010608282
145	0xbde8307a	-0.11337371
146	0xbe3bb473	-0.18330555
147	0xbdbb47cf	-0.09144556
148	0xbdc1ed76	-0.0946912
149	0xbcefb4b3	-0.029260969
150	0xbe15f084	-0.1464253
151	0xbdbd396b	-0.09239467
152	0xbbec4c90	-0.0072112754
153	0x3e32e59b	0.174704
154	0xbd304935	-0.043038566
155	0x3e247497	0.160601
156	0xbe0b0c92	-0.13579014
157	0xbc4acf4f	-0.012378528
158	0x3df33c8b	0.11876782
159	0xbbb1d295	-0.0054267147
160	0x3d3f995f	0.046777125
161	0x3ea0d13e	0.3140964
162	0xbe54c785	-0.20779236
163	0x3d6b6aa2	0.05747474
164	0x3eaec66d	0.34135762
165	0xbddd1fcc	-0.107970804
166	0xbd238fa4	-0.03993191
167	0x3e9e397d	0.30903235
168	0x3e0c4eab	0.13701884
169	0x3e0990d1	0.1343415
170	0xbc54203f	-0.012947141
171	0xbe147e33	-0.14501266
172	0x3cf44df9	0.029822337
173	0xbc9e848f	-0.019350318
174	0xbe293032	-0.16522291
175	0xbe1fbbf1	-0.15599038
176	0xbe5590ba	-0.2085599
177	0xbded9bbf	-0.11601972
178	0x3dfda1f3	0.12384405
179	0x3c7ccf38	0.015430264
180	0xbd0797fb	-0.033103924
181	0x3d43cc1d	0.04780208
182	0xbd80aeb0	-0.06283319
183	0xbec8125d	-0.3907651
184	0xbe05e02c	-0.13073796
185	0xbe7eafad	-0.24871702
186	0xbdbafe16	-0.09130494
187	0x3d9dc56b	0.0770367
188	0x3e0462df	0.12928341
189	0xbea43ec1	-0.32079127
190	0xbe932ff2	-0.28747517
191	0xbdde6179	-0.10858435
192	0x3cd04436	0.02542315
193	0x3e067b6d	0.1313302
194	0xbe3f39b8	-0.18674362
195	0xbdffa4a6	-0.12482576
196	0x3e6f80d5	0.2338899
197	0xbdbbc7a2	-0.09168936
198	0xbda63440	-0.08115435
199	0xbda5a0ad	-0.08087287
200	0xbe342cb2	-0.17595175
201	0xbd6a86b0	-0.057257354
202	0x3e24a24f	0.16077541
203	0xbcee5908	-0.029095188
204	0xbe074615	-0.13210328
205	0xbc2eff99	-0.010681056
206	0xbdae48cf	-0.08509981
207	0xbcfa2ab1	-0.030537935
208	0xbcb9525f	-0.022622285
209	0x3e0deb6c	0.13859338
210	0xbd788aa8	-0.060679108
211	0xbc9ad88d	-0.018902088
212	0x3dff6ebc	0.12472293
213	0xbe84c183	-0.25928888
214	0x383c9d7b	4.4969358e-05
215	0xbe3321eb	-0.17493407
216	0x3dca8f96	0.09890668
217	0xbd9fb64d	-0.07798443
218	0xbde47844	-0.11155751
219	0x3da84558	0.08216351
220	0xbe2af6fd	-0.16695781
221	0xbddb8777	-0.10719197
222	0x3da49e0b	0.08037957
223	0xbd73ec6c	-0.05955164
224	0x3dd3e4bb	0.10346361
225	0xbeb833be	-0.35976976
226	0xbdf20eda	-0.11819239
227	0xbe299001	-0.1655884
228	0x3d6e87cc	0.058234975
229	0xbca84590	-0.020540982
230	0xbda4b277	-0.08041852
231	0x3d1745c7	0.03693178
232	0xbda3ac9e	-0.079919085
233	0x3d2b5dd7	0.04183754
234	0x3ccbfb18	0.024900004
235	0xbdd80770	-0.105482936
236	0xbe02d58b	-0.12776773
237	0x3da5d9c5	0.08098177
238	0xbd9bcab9	-0.07607026
239	0x3da050ca	0.07827909
240	0x3dc837aa	0.09776242
241	0xbcd711ca	-0.0262536
242	0xbddcdc84	-0.107842475
243	0xbd9121ac	-0.070865005
244	0x3dcfbb7c	0.10143182
245	0x3e107c2f	0.14109872
246	0xbe512d02	-0.20427325
247	0xbdf98527	-0.121836
248	0x3e1ba870	0.15200973
249	0x3e20523e	0.15656373
250	0xbcb90d3e	-0.022589322
251	0xbe23fdd5	-0.16014798
252	0x3df91ce8	0.121637166
253	0xbe20a6d9	-0.15688647
254	0xbe15e95e	-0.14639804
255	0x3c9e39ef	0.019314734

weight_hh_l0 f4 [128, 32]
0	0xbd94c40e	-0.07263957
1	0x3d09db81	0.0336566
2	0xbcf80867	-0.030277444
3	0x3ddf78c6	0.109117076
4	0xbce6eaa4	-0.028188057
5	0xbcdaa461	-0.02668971
6	0xbe1c3787	-0.15255557
7	0xbbaedf15	-0.005336652
8	0x3de4f881	0.11180211
9	0x3da466d1	0.08027423
10	0x3c02f12a	0.007992068
11	0x3e239c78	0.15977657
12	0xbc99318c	-0.018700384
13	0x3e22ff90	0.15917802
14	0x3df7757e	0.12082957
15	0x3e431a62	0.19053033
16	0x3dc7d229	0.09756882
17	0xbe245b9d	-0.16050573
18	0x3e1644df	0.1467471
19	0xbe05c96e	-0.1306512
20	0xbde0f24d	-0.10983715
21	0xbe1c00b0	-0.15234637
22	0xbda298c9	-0.07939298
23	0xbe20e4e9	-0.15712322
24	0x3e152262	0.14563897
25	0xbd98161e	-0.074260935
26	0x3dd27c61	0.1027763
27	0x3deb52ce	0.11490403
28	0x3dc9adde	0.09847616
29	0x3e0816c9	0.13289942
30	0x3d32cf0d	0.04365449
31	0xbe26dde7	-0.16295587
32	0x3dd673e9	0.10471327
33	0xbdd24ef5	-0.10268966
34	0x3e75f681	0.24019815
35	0xbd3f35dd	-0.046682227
36	0xbe397fc5	-0.18115146
37	0x3ecb34b4	0.39688647
38	0xbe73d045	-0.23809917
39	0xbec48943	-0.38385972
40	0x3d937a8e	0.0720111
41	0xbdee3cce	-0.11632691
42	0x3e210085	0.15722854
43	0xbdffbdb1	-0.12487353
44	0xbe02a1db	-0.12757055
45	0x3ea4f2e3	0.32216558
46	0x3e499cbc	0.19688696
47	0x3ed5e9b2	0.41779858
48	0x3e933b1e	0.2875604
49	0x3dd38b7c	0.10329339
50	0xbe2135b6	-0.15743145
51	0xbd9aee4b	-0.07564982
52	0x3e4a9b17	0.19785725
53	0xbdc2efe5	-0.095184125
54	0xbe890d3d	-0.26767913
55	0x3d831856	0.06401126
56	0xbe32d0be	-0.17462441
57	0xbdc3357a	-0.09531684
58	0xbeec8e9e	-0.46202558
59	0x3cc4b3ed	0.024011577
60	0xbd7e0707	-0.06201842
61	0xbd1a4e87	-0.037672546
62	0x3e2bbdd0	0.16771626
63	0x3ab9ff6e	0.0014190504
64	0x3cfffcb5	0.03124843
65	0xbe116d7f	-0.14201926
66	0xbdb8b4b5	-0.09018842
67	0x3deff572	0.11716737
68	0x3c6da192	0.014503853
69	0x3dd78d3b	0.105249844
70	0xbe5f0872	-0.21780565
71	0xbe40ebf9	-0.18840016
72	0xbd32516b	-0.043534677
73	0x3e1a8e96	0.15093455
74	0xbd3cb489	-0.04607061
75	0x3dfa1529	0.12211067
76	0xbdae47f7	-0.0850982
77	0xbd89ddf2	-0.06731786
78	0x3e08c230	0.13355327
79	0xbd940f1b	-0.07229444
80	0x3df95fc4	0.12176469
81	0xbdf4e5ab	-0.11957868
82	0x3dfbbdd5	0.12292067
83	0xbe3ee3aa	-0.18641534
84	0x3e130d11	0.14360453
85	0x3e25f859	0.16208018
86	0x3c29a564	0.010354374
87	0x3e3ccb85	0.18437012
88	0x3df722f9	0.120672174
89	0x3d960fae	0.073272094
90	0x3db98fa5	0.09060601
91	0x3e70a7bf	0.2350149
92	0x3e1708a8	0.14749396
93	0x3ce590d2	0.028023157
94	0x3dc24e97	0.09487646
95	0x3db95d91	0.090510495
96	0x3c8dd647	0.01731409
97	0x3dc5dd84	0.096613914
98	0x3d37611d	0.04477035
99	0x3dad32e1	0.0845697
100	0xbe100e7c	-0.14068025
101	0xbdf61e9b	-0.12017556
102	0xbc1a3594	-0.009412188
103	0x3e0d059e	0.13771674
104	0xbe34b3ef	-0.17646764
105	0xbda24aa9	-0.079243965
106	0xbc343057	-0.010997853
107	0xbe405beb	-0.18785064
108	0xbe6dc9d7	-0.23221527
109	0xbd95149f	-0.07279324
110	0xbe0af324	-0.13569313
111	0xbdf3efe7	-0.11910992
112	0xbd196a2f	-0.03745478
113	0x3e8caee5	0.27477184
114	0xbddf403c	-0.109009236
115	0xbd4bcb71	-0.049754564
116	0xbda6d479	-0.08145995
117	0x3e067b34	0.13132936
118	0x3df639d0	0.120227456
119	0xbe0ab65d	-0.13546129
120	0xbdea0cbb	-0.114282094
121	0x3dc413b9	0.09574074
122	0xbe6c2cc5	-0.23063953
123	0x3e44d214	0.19220763
124	0xbd227a66	-0.03966751
125	0x3d803185	0.06259445
126	0x3e3082aa	0.17237344
127	0x3d8aec70	0.06783378
128	0xbe22adac	-0.15886563
129	0xbd42dd6d	-0.04757445
130	0x3e10cae5	0.14139898
131	0xbe1961de	-0.1497874
132	0x3e1db83c	0.15402311
133	0xbe134de6	-0.14385185
134	0xbcb1e6cb	-0.021716496
135	0x3e0eb759	0.13937129
136	0xbe31f3f4	-0.17378217
137	0xbe06b383	-0.13154416
138	0xbd2efef4	-0.04272361
139	0xbe08920c	-0.13336962
140	0xbc107fcc	-0.008819532
141	0x3dd412df	0.10355162
142	0x3dd9e3fc	0.10639188
143	0xbe213b2e	-0.15745232
144	0xbd3fcdc3	-0.04682709
145	0xbe020b41	-0.12699606
146	0xbdf46029	-0.119324036
147	0x3dbd9223	0.09256389
148	0x3d370160	0.044679046
149	0x3dfaf97b	0.12254616
150	0x3da6511f	0.08120941
151	0xbe08cd01	-0.13359453
152	0x3d8c5e42	0.06853916
153	0xbde3859a	-0.11109467
154	0xbe20a948	-0.15689576
155	0xbe377492	-0.17915562
156	0x3e407feb	0.18798797
157	0xbd972305	-0.07379726
158	0x3e1b14a1	0.15144588
159	0xbdfd377d	-0.12364099
160	0x3e48855f	0.19582127
161	0x3ca2bc5f	0.019865213
162	0x3db5089e	0.08839534
163	0xbe436d1d	-0.19084592
164	0xbd3545b1	-0.044255916
165	0xbd712997	-0.058877554
166	0x3cc0b04d	0.023521567
167	0xbd61073d	-0.054938544
168	0xbda23368	-0.07919961
169	0xbe0b7ad2	-0.13621071
170	0x3df9d5d3	0.12198987
171	0xbe410baf	-0.18852113
172	0xbe62f459	-0.22163524
173	0x3dc4aca5	0.09603242
174	0xbd59b8dd	-0.053154815
175	0xbd92990d	-0.07158098
176	0xbd42258a	-0.04739908
177	0x3e473b87	0.19456302
178	0x3d2c13c3	0.042011034
179	0x3dfa1227	0.122104935
180	0x3d415861	0.047203425
181	0x3e481791	0.1954024
182	0xbbc6d626	-0.006068009
183	0xbdb01a69	-0.08598787
184	0xbdb96aba	-0.090535596
185	0xbd96440b	-0.07337197
186	0x3dcf6aac	0.10127768
187	0x3e80071b	0.2500542
188	0x3d7c748b	0.06163458
189	0x3dcb8a2a	0.09938462
190	0x3e5be5de	0.21474406
191	0x3dc8fdd5	0.098140396
192	0x3e1473a3	0.14497237
193	0x3d025dc4	0.031827703
194	0xbe2a15d1	-0.16609885
195	0x3e29ea67	0.16593324
196	0xbbc43143	-0.0059873178
197	0xbd39d68f	-0.045370635
198	0x3cad0ef6	0.021125298
199	0xbe14412a	-0.14477983
200	0xbda6946e	-0.081337795
201	0x3d6da911	0.058022562
202	0xbbfdc149	-0.0077439887
203	0xbde51d2c	-0.11187205
204	0xbaa6bbaa	-0.0012720723
205	0x3e5623db	0.20912115
206	0xbc162765	-0.009164666
207	0x3d96b1af	0.07358109
208	0x3cbe5189	0.023232238
209	0xbdf321a6	-0.11871652
210	0xbdaa2e3c	-0.083096
211	0xbe166e74	-0.14690572
212	0x3ddd992a	0.10820229
213	0x3e40ffb8	0.18847549
214	0x3e1a9113	0.15094404
215	0xbca6d667	-0.020365907
216	0xbe397171	-0.1810968
217	0x3d0aecc6	0.03391721
218	0x3dce139a	0.100623325
219	0x3dbc35fa	0.09189983
220	0xbe2f7ee2	-0.17138246
221	0x3e13823a	0.14405146
222	0xbda2d0fd	-0.079500176
223	0x3d33f06a	0.04393045
224	0x3e334ced	0.17509814
225	0x3c8cbfdc	0.01718133
226	0xbd86778f	-0.06565773
227	0x3d6b7fe9	0.05749503
228	0xbd575b1f	-0.052577134
229	0x3db4d79b	0.08830186
230	0x3d475dbe	0.048673384
231	0xb9ba034e	-0.00035479147
232	0xbc1bb45b	-0.009503449
233	0xbd53551c	-0.05159484
234	0xbcae843c	-0.021303289
235	0xbe1294a4	-0.14314514
236	0x3e63c8f1	0.22244622
237	0xbd64398d	-0.055718947
238	0x3da73ef4	0.08166304
239	0x3d95f760	0.07322574
240	0x3e106807	0.14102183
241	0xbe4a6e86	-0.19768724
242	0xbd97deb8	-0.07415527
243	0xbc5b8776	-0.013398996
244	0xbe18f016	-0.14935336
245	0xbdf7bebf	-0.12096929
246	0xbd926a51	-0.071491845
247	0xbe2bda8d	-0.1678259
248	0x3dd085fe	0.10181807
249	0x3e3034d2	0.1720765
250	0x3d2389c5	0.03992631
251	0x3d180c73	0.037121248
252	0x3e09e90a	0.13467804
253	0x3e4ba1e7	0.1988598
254	0x3dda0c9b	0.106469356
255	0x3db9acc0	0.090661526

bias_ih_l0 f4 [128]
0	0xbdc06aa4	-0.0939534
1	0xbdb6f610	-0.089336514
2	0xbd21cd20	-0.039502263
3	0xbe34fc31	-0.17674328
4	0xbe27b07c	-0.16375917
5	0x3df73c54	0.120720536
6	0xbd77b095	-0.060471136
7	0xbe38dc2d	-0.1805274
8	0x3cc0c1a2	0.023529831
9	0xbc31c702	-0.01085067
10	0x3e2d3353	0.1691411
11	0x3e002423	0.12513785
12	0x3d813d99	0.06310577
13	0xbe303657	-0.17208229
14	0x3d284e01	0.041090015
15	0xbe1cc5fd	-0.15309902
16	0xbc2ee2b2	-0.010674166
17	0x3e201248	0.15631974
18	0x3bcecf8f	0.006311364
19	0x3df96c21	0.12178827
20	0x3c462a78	0.012095086
21	0xbb8c9369	-0.0042900336
22	0xbd2595b6	-0.04042598
23	0xbd3127ed	-0.043250967
24	0x3db936ba	0.090436414
25	0x3d648ffb	0.055801373
26	0xbd44e86a	-0.04807321
27	0x3dbc730b	0.0920163
28	0xbd40bbad	-0.04705398
29	0xbe0bae03	-0.13640599
30	0xbe00e90b	-0.12588899
31	0xbdc27aae	-0.094960555
32	0x3e2d08e6	0.16897926
33	0x3bc68564	0.006058382
34	0xbe327471	-0.17427231
35	0x3d71b09e	0.059006326
36	0xbe2bf328	-0.16791975
37	0xbda72bdd	-0.08162663
38	0xbe2116cb	-0.15731351
39	0xbcedf3ee	-0.029046979
40	0xbe05ac91	-0.1305411
41	0x3dbce86e	0.0922402
42	0xbd55847c	-0.0521283
43	0x3c42bae8	0.011885382
44	0xbd0dcdff	-0.03462028
45	0x3e1af1fd	0.15131374
46	0xbd628d2f	-0.055310424
47	0xbde0b154	-0.10971323
48	0x3db2fd94	0.087397724
49	0x3dd9ea2a	0.106403664
50	0xbcb24892	-0.02176312
51	0x3dab2ec3	0.083585285
52	0xbe2b0185	-0.16699798
53	0x3d9ff43b	0.07810255
54	0x3dde1a48	0.108448565
55	0x3dca1b83	0.09868529
56	0x3d35dc0e	0.044399314
57	0x3dfe33f4	0.12412253
58	0x3dee542d	0.11637149
59	0x3e2c6db7	0.16838728
60	0xbd4e4867	-0.050362017
61	0xbe22d9e7	-0.15903436
62	0x3c246a0f	0.010035052
63	0xbe499064	-0.19683987
64	0x3e0068b3	0.1253994
65	0x3e02ea0c	0.12784594
66	0xbd20aaa8	-0.03922525
67	0x3d83d7ca	0.06437643
68	0xbd4e7bfa	-0.050411202
69	0xbc625874	-0.013815034
70	0x3de93173	0.11386385
71	0xbd7944c9	-0.060856614
72	0x3c815e91	0.015792163
73	0x3db04276	0.086064264
74	0xbdf95652	-0.121746674
75	0x3ce423bb	0.027849069
76	0xbde17747	-0.110090785
77	0xbd861e9a	-0.065488055
78	0xbd6547ee	-0.0559768
79	0xbe6529d1	-0.22379233
80	0xbe1a83b8	-0.15089309
81	0xbe0787d7	-0.13235413
82	0x3e0c351a	0.13692132
83	0xbb8a001d	-0.0042114393
84	0xbc53b86c	-0.012922388
85	0x3de5f988	0.11229235
86	0x3dc2134a	0.09476335
87	0xbe10d44b	-0.14143483
88	0x3e23e8f8	0.1600684
89	0xbe03f201	-0.12885286
90	0x3e0f674b	0.14004247
91	0xbe38a3a9	-0.18031181
92	0xbdeb762b	-0.11497148
93	0x3dfc4964	0.12318686
94	0xbc86952a	-0.016428549
95	0xbd915394	-0.070960194
96	0x3dcefc60	0.101067305
97	0xbcd7e145	-0.026352534
98	0x3c2808b9	0.010255986
99	0xbdf741fe	-0.12073134
100	0xbbc50947	-0.006013069
101	0x3d3f1878	0.046654195
102	0xbcab4106	-0.020905029
103	0xbe288814	-0.1645816
104	0xbdcaedb2	-0.09908618
105	0x3db3bca1	0.087762125
106	0xbd8929c7	-0.066974215
107	0x3d7ed6b3	0.062216472
108	0x3d54767c	0.051870808
109	0xbe46e6a1	-0.19423915
110	0x3db6c8ea	0.0892504
111	0x3cdf67fa	0.02727126
112	0x3ddf66d7	0.10908287
113	0x3d972ba8	0.07381374
114	0x3dd0d491	0.10196794
115	0x3b210cf5	0.0024574373
116	0x3dcf5b77	0.101248674
117	0xbc47400f	-0.012161269
118	0xbdb92631	-0.090404876
119	0x3bfe368d	0.007757968
120	0xbe04f8b2	-0.12985495
121	0x3dbe7f86	0.09301667
122	0x3dc5d0ce	0.09658967
123	0x3c9d9d7e	0.019240137
124	0x3da84fc1	0.08218337
125	0x3db276a4	0.08714035
126	0xbd3ad9ca	-0.045617856
127	0xbe04fd31	-0.1298721

bias_hh_l0 f4 [128]
0	0xbe0d8fb0	-0.13824344
1	0xbd9c1dea	-0.07622893
2	0xbe3173b5	-0.17329295
3	0xbc7a05f6	-0.01526021
4	0xbca3b449	-0.019983428
5	0xbdfc45e6	-0.123180196
6	0xbe26030b	-0.16212098
7	0xbb422c4e	-0.0029628458
8	0x3dde8d25	0.10866765
9	0x3e1dbdf0	0.15404487
10	0xbdb2d0dd	-0.08731244
11	0x39a2a0b9	0.00031018796
12	0xbe336470	-0.17518783
13	0x3dfa3cf7	0.12218659
14	0x3da739e6	0.0816534
15	0x3befeeea	0.007322182
16	0xbdc7f81a	-0.097641185
17	0x3e1873fe	0.14887998
18	0xbdb70c87	-0.08937936
19	0x3d9ebe23	0.077511095
20	0x3e239b4f	0.15977214
21	0x3e34a938	0.17642677
22	0xbc42f9c6	-0.011900371
23	0x3cac6a91	0.021046909
24	0xbc01790a	-0.007902393
25	0x3d269876	0.04067274
26	0x3cd0bea4	0.02548153
27	0x39e3af46	0.00043427403
28	0xbe03c4b5	-0.12868007
29	0xbe153f34	-0.14574891
30	0xbd66e40f	-0.056369837
31	0xbd376041	-0.04476953
32	0x3da44a74	0.08022013
33	0x3d03adae	0.032148056
34	0x3d81e0ad	0.06341682
35	0xbe16ab33	-0.14713745
36	0x3e0fd0f8	0.14044559
37	0x3da65506	0.08121686
38	0xbc861ce1	-0.016371192
39	0xbe320b9d	-0.17387243
40	0xbd6c2857	-0.05765566
41	0x3d138764	0.03601779
42	0xbd07f60c	-0.033193633
43	0xbd49f287	-0.049303558
44	0xbd193373	-0.03740258
45	0xbce661ec	-0.028122865
46	0x3d4f705a	0.050644256
47	0xbd74207f	-0.059601303
48	0xbd31c47d	-0.043400276
49	0x3d1d9d0b	0.038479846
50	0x3bd7eee8	0.006589759
51	0xbdc81735	-0.097700514
52	0xbcbd28b0	-0.02309069
53	0xbdad73e3	-0.08469369
54	0xbdeabca0	-0.114617586
55	0x3d90c9f4	0.070697695
56	0xbe2300e4	-0.15918308
57	0xbe3cef24	-0.184506
58	0xbe0c752a	-0.1371657
59	0x3ddc8ee6	0.10769443
60	0xbda0f033	-0.07858314
61	0x3d995bcb	0.07488211
62	0x3e1187d1	0.14211966
63	0x3dd61ef7	0.10455125
64	0xbe21a5f6	-0.15785965
65	0xbe104f32	-0.1409271
66	0x3e05fe83	0.1308537
67	0x3c0f48f9	0.008745425
68	0x3e533300	0.20624924
69	0x3c9799ff	0.018506048
70	0xbd9406d2	-0.07227863
71	0xbc64d14c	-0.013965916
72	0x3e20d1cc	0.15705031
73	0xbbf7880b	-0.0075540594
74	0x3bc76f98	0.006086301
75	0x3d38e79b	0.04514275
76	0x3d90a2a6	0.07062273
77	0x3a7aab3e	0.000956226
78	0xbe08e3f1	-0.13368203
79	0xbd9ec9fe	-0.07753371
80	0xbd6d5ec1	-0.057951692
81	0x3de15acf	0.110036485
82	0x3d7f7595	0.062367994
83	0xbe05ee87	-0.13079272
84	0xbe2df987	-0.16989718
85	0x3d545592	0.05183942
86	0xbe18673c	-0.14883131
87	0x3dda67c4	0.10664323
88	0xbda09f51	-0.07842887
89	0xbcbe278e	-0.02321222
90	0x3e127117	0.14300953
91	0xbd8612a6	-0.06546526
92	0xbdd40079	-0.10351653
93	0xbe1f303b	-0.15545742
94	0xbd27d833	-0.040977668
95	0x3d07505a	0.033035614
96	0xbc64ec9f	-0.0139724305
97	0x3ddd20e6	0.107972905
98	0xbe15581f	-0.14584397
99	0x3dda476e	0.106581554
100	0x3dbda5aa	0.092601135
101	0xbd4c9f15	-0.0499564
102	0x3e35f051	0.17767455
103	0x3e158425	0.1460119
104	0xbe1cc2f1	-0.15308739
105	0x3de182d1	0.110112794
106	0x3e3279fb	0.17429344
107	0x3e0e7275	0.1391085
108	0x3d83235d	0.064032294
109	0xba8a8ea6	-0.0010571077
110	0x3c152b7f	0.009104609
111	0x3d0fe9dd	0.03513514
112	0x3e02a32d	0.12757559
113	0xbd80fa93	-0.06297793
114	0x3e540873	0.20706348
115	0xbdf7df9a	-0.121031955
116	0x3d83adf5	0.06429664
117	0x3e373a57	0.17893349
118	0x3d7b6013	0.06137092
119	0x3e0fb730	0.14034724
120	0x3d6d7621	0.057973985
121	0x3d8ca048	0.06866509
122	0x3e181181	0.14850427
123	0x3cd06f38	0.025443658
124	0xbd412775	-0.04715677
125	0x3da71d18	0.08159846
126	0xbc985e8b	-0.01859977
127	0x3d912250	0.07086623

weight_ih_l0 f4 [128, 2]
0	0x3ecd0feb	0.40051207
1	0xbe184d15	-0.14873154
2	0x3e50addb	0.2037882
3	0x3e0b9da3	0.13634352
4	0x3edecb18	0.43514323
5	0x3e30f9ee	0.1728284
6	0xbeb4d4cc	-0.353186
7	0xbe5d7aa8	-0.21628821
8	0xbdde050b	-0.108408056
9	0xbdfa31a3	-0.12216499
10	0xbda7c073	-0.08191004
11	0x3f21bc04	0.63177514
12	0xbdd6f5ef	-0.10496127
13	0xbe8f225c	-0.27955902
14	0xbe7c3b42	-0.2463198
15	0xbe91719b	-0.28406987
16	0xbd440050	-0.04785186
17	0xbde9e8f8	-0.114213884
18	0xbdc90705	-0.09815792
19	0x3f3dd0c2	0.74146664
20	0xbf2c3700	-0.67271423
21	0xbf388739	-0.72081333
22	0x3d9a467b	0.07532974
23	0xbce32ef5	-0.027732352
24	0xbef08638	-0.469774
25	0xbf0aeb03	-0.5426485
26	0xbcd2595e	-0.02567738
27	0xbf0a1e17	-0.53952163
28	0x3f026ca8	0.50947046
29	0x3e7ea771	0.24868561
30	0xbf2663e4	-0.6499617
31	0x3f218f80	0.6310959
32	0xbe1f054f	-0.15529369
33	0x3e0e8821	0.13919117
34	0xbd89eb21	-0.067343004
35	0x3e5aafe6	0.21356162
36	0x3e2df560	0.16988134
37	0x3e1a9ae5	0.1509815
38	0x3f6c824b	0.9238631
39	0x3f942b55	1.1575724
40	0xbe0fbf0b	-0.14037721
41	0xbf0d2bdb	-0.55145043
42	0xbe18870f	-0.14895271
43	0xbe576de7	-0.21038018
44	0xbf169d7a	-0.5883404
45	0xbe9027fe	-0.28155512
46	0xbe85e881	-0.2615395
47	0xbe18490d	-0.14871617
48	0x3f05c199	0.5224853
49	0x3e116c55	0.14201482
50	0xbf7b1660	-0.98081017
51	0xbf374b1e	-0.71598995
52	0x3e41c967	0.18924485
53	0x3e9fed5a	0.31235772
54	0x3c347f57	0.011016688
55	0x3e53dee4	0.20690495
56	0xbfc21f6e	-1.5165842
57	0xbf6441aa	-0.89162695
58	0x3df6e59c	0.12055513
59	0xbe5128ff	-0.20425795
60	0x3e12f3e6	0.14350852
61	0xbda29042	-0.07937671
62	0xbe8dfd99	-0.27732542
63	0x3dfcf4da	0.12351389
64	0x3e724775	0.23660071
65	0xbe7f919d	-0.24957891
66	0x3ee3b954	0.44477332
67	0x3dae9a6a	0.08525546
68	0x3f1653f3	0.58721846
69	0xbd819ce8	-0.063287556
70	0xbecc0f1c	-0.39855278
71	0xbe88a81d	-0.2669076
72	0x3e748939	0.23880471
73	0xbe1898ce	-0.1490204
74	0x3e5a998a	0.21347633
75	0x3dc5a590	0.09650719
76	0x3e47646d	0.19471903
77	0x3e7d9c68	0.24766695
78	0x3d9e3ed7	0.077268295
79	0xbda1560b	-0.078777395
80	0x3e6e8966	0.23294601
81	0x3e947758	0.28997302
82	0x3eb5cd6f	0.35508296
83	0x3f2579b1	0.6463881
84	0xbec18025	-0.3779308
85	0xbe82d48b	-0.25552782
86	0xbd87c466	-0.06629257
87	0x3e0724d3	0.13197641
88	0x3e95f81a	0.2929085
89	0x3ec0ecfc	0.37680805
90	0xbdfd4713	-0.12367072
91	0xbf202071	-0.625495
92	0x3f57938a	0.842095
93	0x3f1e0bed	0.6173695
94	0x3cab1562	0.02088422
95	0x3e0a2157	0.1348928
96	0xbef1cf99	-0.47228697
97	0xbefc884d	-0.4932274
98	0xbcb360e1	-0.021896781
99	0x3dfc66db	0.123243056
100	0x3c343213	0.010998267
101	0x3dc1a610	0.09455502
102	0xbed1fe67	-0.41014406
103	0xbea1efdd	-0.31628314
104	0x3f990829	1.1955615
105	0x3eac4805	0.33648697
106	0x3eb6e617	0.3572242
107	0x3f04ca58	0.5187125
108	0x3e1f1ec9	0.15539087
109	0xbdb2b664	-0.087261945
110	0xbe92ab9d	-0.28646556
111	0xbe8470e1	-0.2586737
112	0x3ef0fce2	0.47067934
113	0x3ee660ae	0.44995636
114	0xbe82fac9	-0.2558196
115	0x3e05e942	0.13077262
116	0x3e01bbab	0.12669246
117	0xbe24d33b	-0.16096203
118	0x3e12129f	0.14264916
119	0x3e657617	0.22408329
120	0xbd63b146	-0.055588983
121	0xbe240241	-0.16016485
122	0x3ecd8015	0.4013678
123	0x3dc58550	0.09644568
124	0x3dcb3b0b	0.09923371
125	0xbe509a26	-0.20371303
126	0xbe622d11	-0.22087504
127	0xbea10e45	-0.314562
128	0xbdcee099	-0.10101432
129	0x3e5e38d3	0.21701364
130	0xbe51c1ea	-0.20484129
131	0xbed29518	-0.41129375
132	0x3d97cbd4	0.07411924
133	0x3e074138	0.13208473
134	0xbeea538b	-0.45766863
135	0xbd61643d	-0.055027235
136	0xbe1b5df7	-0.15172563
137	0xbd963703	-0.073347114
138	0x3e2c2d27	0.16814099
139	0xbe93d140	-0.28870583
140	0xbefbcd5e	-0.4918012
141	0xbe3d43b2	-0.18482855
142	0x3eaf15d6	0.34196347
143	0xbe0256ea	-0.12728468
144	0x3e8bc4ea	0.2729867
145	0x3e0ab79d	0.13546605
146	0x3dfb23b4	0.12262669
147	0x3ee7a94e	0.45246357
148	0x3d80775e	0.062727675
149	0x3e93d7cb	0.28875574
150	0x3e2754c5	0.16340931
151	0x3dd8900e	0.10574351
152	0xbd542cfa	-0.051800705
153	0xbe5b5a5b	-0.21421187
154	0x3e05d32c	0.13068837
155	0x3e36eb6d	0.17863245
156	0xbe9e9e87	-0.30980322
157	0xbf0f25fe	-0.55917346
158	0xbd4d8c4a	-0.05018262
159	0x3ec20596	0.37894887
160	0xbdb4e45b	-0.08832618
161	0x3efbf56f	0.49210688
162	0xbe7279b5	-0.2367924
163	0x3e6efbfd	0.23338313
164	0x3e43950e	0.19099829
165	0x3eadebe1	0.33969024
166	0x3da8335b	0.0821292
167	0x3cb64aab	0.022252401
168	0xbd5e1d00	-0.054226875
169	0x3d0ffda3	0.035153996
170	0xbeac6a71	-0.33674958
171	0xbc4bf86e	-0.012449367
172	0xbd7122c5	-0.05887105
173	0xbe8d1052	-0.27551514
174	0x3e3e38d8	0.18576372
175	0xbd9c7675	-0.076397814
176	0x3e8d4bd9	0.2759693
177	0x3f0299fb	0.51016206
178	0x3f2fc5ce	0.686612
179	0x3f059ce8	0.52192545
180	0x3e85e291	0.2614942
181	0x3e94a14d	0.29029313
182	0x3ea5a4b5	0.32352224
183	0xbdd2697b	-0.10274025
184	0xbd1268de	-0.03574454
185	0xbde1d7e2	-0.110275045
186	0x3d891567	0.06693535
187	0x3ec70d64	0.38877404
188	0x3d235c20	0.03988278
189	0x3d054507	0.032536533
190	0xbde93ec0	-0.11388922
191	0x3d9597e0	0.073043585
192	0x3e081e9a	0.13292924
193	0xbf0d639e	-0.5523013
194	0x3f3d1c1d	0.7387102
195	0x3f1a9598	0.6038451
196	0x3ea2d978	0.3180654
197	0xbd9ed077	-0.07754605
198	0xbde8c15d	-0.11365006
199	0xbe212f7e	-0.15740773
200	0xbd8168b8	-0.06318802
201	0xbe9b274b	-0.30303416
202	0xbda078a4	-0.078355104
203	0x3e4350b0	0.19073749
204	0x3e0ff6ca	0.14058986
205	0xbe7621ad	-0.24036284
206	0xbf034569	-0.51277786
207	0xbeb25a9f	-0.34834763
208	0x3e4e7742	0.20162681
209	0x3e9ec85a	0.3101223
210	0xbde97dea	-0.11400969
211	0x3e118fcb	0.14215009
212	0xbc8896a4	-0.016673394
213	0xbc3741f4	-0.011185158
214	0x3ddc7f39	0.10766453
215	0x3cd2dd0b	0.025740167
216	0x3ea10d24	0.31455338
217	0xbe5ad22e	-0.2136924
218	0x3c15b295	0.009136816
219	0xbed19723	-0.4093562
220	0x3f513923	0.8172781
221	0x3e78427b	0.2424411
222	0xbe95ca46	-0.29255885
223	0x3ea2c359	0.31789663
224	0xbea12f8d	-0.3148159
225	0xbdbc99f5	-0.092090525
226	0xbdfa62d6	-0.12225883
227	0x3c6887f1	0.014192567
228	0x3d916f6e	0.07101332
229	0xbd0c9039	-0.03431723
230	0x3e4c3e8e	0.19945738
231	0x3e443f5a	0.19164792
232	0x3eae115b	0.33997616
233	0x3e8d7fc3	0.27636537
234	0x3e44637b	0.19178574
235	0x3e0a96a5	0.13534029
236	0x3ea4ddba	0.32200414
237	0xbe9e137f	-0.3087425
238	0xbf1f14b6	-0.6214098
239	0xbea64c7a	-0.32480222
240	0x3f5f0d1f	0.87129396
241	0x3ed92e7d	0.4241828
242	0xbf04c08b	-0.518563
243	0xbe9b6046	-0.30346888
244	0x3ed4918b	0.4151729
245	0xbdf29bf5	-0.11846153
246	0x3ee0907c	0.43860233
247	0x3f67d80c	0.90564036
248	0xbedeb830	-0.434999
249	0xbe9c3c5c	-0.305148
250	0x3e627074	0.2211321
251	0x3d214eb8	0.039381713
252	0x3db71465	0.08939437
253	0xbbbdcce5	-0.0057922476
254	0xbc9ea3f1	-0.019365283
255	0xbe7fcbd9	-0.24980105

weight_hh_l0 f4 [128, 32]
0	0xbe4bea83	-0.19913678
1	0x3e0f8e37	0.14019094
2	0xbe2aa5b9	-0.1666478
3	0xbc831721	-0.01600224
4	0x3e2e94b7	0.17048918
5	0x3e933131	0.28748468
6	0xbd3e84eb	-0.04651348
7	0xbb863237	-0.0040953415
8	0xbe2731b8	-0.1632756
9	0xbe7d8df2	-0.24761179
10	0x3ea0d285	0.31410614
11	0x3e36b517	0.17842518
12	0x3d8da9fd	0.06917188
13	0xbe1a60ec	-0.15076035
14	0xbc2dc91b	-0.010607029
15	0xbe3e8df5	-0.1860884
16	0xbdbc2ae0	-0.09187865
17	0xbe279c6a	-0.16368261
18	0xbdd70ca9	-0.105004616
19	0x3ce95d40	0.028486848
20	0x3e1d64b2	0.15370443
21	0xbe6f6810	-0.2337954
22	0xbe693a74	-0.22776204
23	0x3e4e7f53	0.20165758
24	0xbe45693a	-0.19278422
25	0x3eb2f703	0.3495408
26	0xbe5c1ab2	-0.21494558
27	0x3e14dcd4	0.14537364
28	0x3d9293b1	0.07157076
29	0xbe91b8bc	-0.28461254
30	0x3dcb0729	0.09913475
31	0xbcc86a38	-0.024464712
32	0xbdf059a4	-0.117358476
33	0x3ccf838c	0.025331281
34	0x3e6f9120	0.23395205
35	0xbe0a0555	-0.13478597
36	0x3da9728a	0.082738
37	0x3e4f5a0e	0.20249197
38	0xbd261463	-0.040546786
39	0xbd6c4258	-0.057680458
40	0xbdd637f8	-0.10459894
41	0x3da17a08	0.07884604
42	0xbeb90baf	-0.36141726
43	0xbe5be732	-0.21474913
44	0x3e78d07b	0.24298279
45	0xbca08679	-0.019595372
46	0x3d703366	0.058642767
47	0xbdae5f1f	-0.08514237
48	0x3c51a455	0.012795527
49	0x3d2de36c	0.042453215
50	0xbc8f27c9	-0.017475026
51	0x3dbf048c	0.09327039
52	0x3e90d841	0.2828999
53	0xbe8dd653	-0.2770258
54	0x3d0ff917	0.03514966
55	0x3e827aa1	0.25484183
56	0x3d9b37cf	0.07579004
57	0xbcf9c2a8	-0.030488327
58	0x3d9ed550	0.0775553
59	0xbdcfc111	-0.10144246
60	0x3d75205b	0.05984531
61	0x3da9fd92	0.08300318
62	0x3d7f82ad	0.06238048
63	0xbde25aef	-0.110525005
64	0xbdf27e07	-0.11840444
65	0x3dd0150d	0.10160265
66	0x3d379f39	0.04482958
67	0xbe088cf5	-0.13335021
68	0xbd22f423	-0.03978361
69	0x3d6c0051	0.05761749
70	0xbd9987bc	-0.074965924
71	0x3ce31cc9	0.027723687
72	0xbe8e5d72	-0.27805668
73	0xbe6fb832	-0.23410109
74	0xbd5a51f0	-0.053300798
75	0xbc9ca960	-0.019123733
76	0xbd843745	-0.06455854
77	0x3e9d50d5	0.30725732
78	0x3dcc3506	0.09971051
79	0xbe57f686	-0.21090135
80	0xbd5e1b03	-0.05422498
81	0xbd6b4009	-0.057434116
82	0xbe81b1bb	-0.2533091
83	0xbe9aaddb	-0.30210766
84	0x3b9a76ba	0.0047138603
85	0xbe25226d	-0.16126414
86	0xbe5f7b80	-0.21824455
87	0x3e92bdd7	0.2866046
88	0xbe477832	-0.19479445
89	0x3c49f0d7	0.012325487
90	0xbddc02bc	-0.10742709
91	0xbdeddfbd	-0.1161494
92	0xbdce8a34	-0.10084954
93	0xbd4621c0	-0.04837203
94	0x3e2455cb	0.16048352
95	0xbe8057ce	-0.2506699
96	0x3e0d0853	0.13772707
97	0x3c81beac	0.01583799
98	0x3d6b7045	0.057480115
99	0xbdbf9f65	-0.09356574
100	0x3d0e3a12	0.03472335
101	0x3e4902ca	0.1962997
102	0x3e66d058	0.22540414
103	0x3e007f9c	0.12548679
104	0x3e2aedc7	0.16692267
105	0x3dd4b26d	0.103855945
106	0x3e349d19	0.17638053
107	0xbdf4df81	-0.119566925
108	0xbd8d2538	-0.068918645
109	0xbcc311d0	-0.023812205
110	0xbdeb23bc	-0.11481425
111	0xbeb66796	-0.35625905
112	0xbe716a80	-0.23575783
113	0xbdef161e	-0.116741404
114	0xbe0a2465	-0.13490446
115	0xbe41cb60	-0.18925238
116	0xbbd673c0	-0.00654456
117	0x3d640a9d	0.055674184
118	0xbd21c583	-0.039495002
119	0xbb7946fe	-0.00380367
120	0x3d9a186f	0.075241916
121	0x3e4dfbbc	0.2011556
122	0xbb81f523	-0.00396599
123	0xbd837a99	-0.06419868
124	0x3ecade5e	0.39622778
125	0xbc15bf7e	-0.009139894
126	0x3e4f5aff	0.20249556
127	0xbe6bf929	-0.23044266
128	0xbdb43d2b	-0.08800729
129	0x3e6cec30	0.23136973
130	0xbd028d71	-0.03187317
131	0x3ca8710b	0.020561716
132	0x3e2121ec	0.15735596
133	0x3ebac13f	0.3647556
134	0x3dcef247	0.101048045
135	0xbcd48b30	-0.025945276
136	0xbca363e5	-0.019945094
137	0x3d8c2535	0.06843034
138	0xbe13c402	-0.1443024
139	0xbd0e8a44	-0.03479983
140	0xbcd8666c	-0.026416026
141	0xbc65133d	-0.013981638
142	0x3dff6c19	0.1247179
143	0xbe044c4d	-0.12919731
144	0xbe7b3743	-0.245328
145	0xbcbcb6d1	-0.023036392
146	0xbd9b713e	-0.075899586
147	0xbdc8e2cd	-0.09808884
148	0x3e542899	0.20718612
149	0x3d8440ed	0.06457696
150	0x3d048445	0.032352705
151	0xbd593d11	-0.053036753
152	0xbe378f63	-0.17925791
153	0x3d8e1a81	0.06938649
154	0xbe1ed2f3	-0.15510158
155	0x3c91930d	0.017770315
156	0x3ca971aa	0.020684082
157	0x3dfa8c49	0.122337885
158	0x3e35e8d3	0.17764597
159	0xbded2750	-0.11579764
160	0x3de53426	0.11191587
161	0x3dee2562	0.11628224
162	0xbea1f33e	-0.31630892
163	0xbe974eb2	-0.29552227
164	0x3e4e65a6	0.20155963
165	0x3e683f5c	0.2268042
166	0xbeaafb15	-0.33394685
167	0x3ef1e481	0.47244647
168	0xbe61e25d	-0.22059007
169	0xbe8e9e44	-0.27855122
170	0x3e6160ee	0.22009632
171	0x3ebb705b	0.36609158
172	0xbd2261af	-0.03964394
173	0xbe0e953c	-0.13924116
174	0x3e90f05e	0.28308386
175	0xbe19efaf	-0.15032838
176	0xbe96dc8e	-0.29465145
177	0xbe87a503	-0.2649308
178	0xbe1c0b42	-0.1523867
179	0xbe21004e	-0.15722772
180	0x3cd63fc2	0.026153449
181	0xbe38f0f0	-0.1806066
182	0xbe8a1ddd	-0.2697591
183	0x3e4d5ef5	0.20055754
184	0xbe0f8730	-0.14016414
185	0x3ea5d72a	0.3239072
186	0xbdcf7353	-0.10129418
187	0x3dc4a581	0.0960188
188	0xbc9d8ecd	-0.019233132
189	0xbebfa851	-0.37433103
190	0x3e867e4b	0.2626823
191	0xbe553591	-0.20821215
192	0x3e02b880	0.12765694
193	0x3ceb41ae	0.028717842
194	0xbbbc95ff	-0.0057551856
195	0xbda0fbc3	-0.0786052
196	0x3e8f6bc9	0.2801192
197	0xbd873fe9	-0.06603987
198	0xbe467097	-0.19378887
199	0x3e435d08	0.19078457
200	0xbe611533	-0.21980743
201	0xbd4abbf5	-0.049495656
202	0x3decbeb5	0.11559812
203	0x3e08b89e	0.13351676
204	0x3d7e4526	0.062077664
205	0x3e18c9d7	0.14920746
206	0xbd9e7433	-0.07737007
207	0xbe81c9f0	-0.2534938
208	0xbdeee777	-0.11665242
209	0xbdce6181	-0.10077191
210	0x3d9f49a6	0.07777719
211	0xbe1d3bd9	-0.15354861
212	0x3e582b39	0.21110238
213	0x3d98b7ec	0.07456955
214	0xbe43b8ce	-0.19113466
215	0x3e5d9b14	0.21641189
216	0xbd82e85b	-0.063919745
217	0x3dfa425d	0.12219689
218	0xbe12a951	-0.14322402
219	0x3d5ce2e2	0.05392731
220	0x3d5c974e	0.053855233
221	0xbe19f66d	-0.1503541
222	0xbd2a97fe	-0.041648857
223	0xbdd32743	-0.10310223
224	0x3c3b5936	0.011434844
225	0x3e8491f5	0.25892606
226	0x3c50465c	0.0127120875
227	0xbbf8a25c	-0.007587714
228	0x3e284b76	0.16435036
229	0xbc90a60e	-0.017657306
230	0x3d66ecac	0.05637805
231	0x3dec53c7	0.11539417
232	0xbddee1d0	-0.10882914
233	0xbe80beb4	-0.25145495
234	0xbdd50b6f	-0.104025714
235	0x3e54d033	0.20782547
236	0x3e0c704e	0.13714716
237	0xbe119046	-0.14215192
238	0x3dec3078	0.11532682
239	0xbe2aafe1	-0.16668655
240	0x3c8e0eee	0.017341103
241	0xbdcabf97	-0.09899824
242	0xbe93aef6	-0.28844422
243	0x3c832210	0.016007453
244	0x3d6585fd	0.056035984
245	0xbdd2122f	-0.102573745
246	0xbe53995f	-0.20663975
247	0xbd62654f	-0.055272397
248	0x3d3a7f53	0.045531582
249	0xbd25cf4b	-0.040480893
250	0x3d47941e	0.04872524
251	0x3dff1674	0.124554545
252	0xbbdb0ec0	-0.006685108
253	0x3d1b6388	0.037936717
254	0x3e295b51	0.1653874
255	0xbd3cb424	-0.046070233

bias_ih_l0 f4 [128]
0	0x3dd8d0ab	0.10586675
1	0xbd239d73	-0.039945077
2	0x3e4eb9a6	0.20188007
3	0x3dd62c41	0.104576595
4	0x3c3b712e	0.011440558
5	0x3e4174a4	0.18892151
6	0x3e608d24	0.21928841
7	0xbd204ffe	-0.039138786
8	0x3d47186a	0.048607267
9	0x3e65e196	0.22449335
10	0x3e130106	0.14355859
11	0xbde8c4eb	-0.11365684
12	0x3defdd60	0.11712146
13	0x3f003349	0.50078255
14	0xbe02c8cb	-0.12771909
15	0x3e3a2514	0.18178207
16	0x3d9028ec	0.07039055
17	0x3e224a9b	0.15848772
18	0x3e716e5a	0.23577252
19	0x3c41cda8	0.011828817
20	0x3e6b756c	0.22994012
21	0xbc8de053	-0.01731888
22	0xbe0b16a5	-0.13582857
23	0xbbd7d940	-0.0065871775
24	0xbbcab564	-0.006186174
25	0x3db2a386	0.08722596
26	0x3d983c52	0.0743338
27	0x3d98d8fd	0.07463262
28	0x3e108b94	0.14115745
29	0x3e36c89a	0.17849961
30	0x3e65a3db	0.22425787
31	0x3ce92ec9	0.028464692
32	0x3e3588cc	0.17727965
33	0x3e3a9b82	0.18223384
34	0x38fda149	0.00012094022
35	0xbda459ff	-0.08024978
36	0xbd075bcc	-0.03304653
37	0x3e270df7	0.16313921
38	0xbb62065b	-0.0034488651
39	0x3e4b75aa	0.19869104
40	0x3e4e8ec6	0.20171651
41	0x3e991c55	0.29904428
42	0x3e9a40b2	0.30127484
43	0x3e6126e0	0.21987486
44	0xbbd1fcc7	-0.0064083072
45	0x3e8502b2	0.2597862
46	0x3e16c9ef	0.14725469
47	0x3e329212	0.17438534
48	0xbd9c7706	-0.076398894
49	0x3e786dc7	0.24260627
50	0x3e445d91	0.19176318
51	0x3e7a2fbe	0.24432275
52	0x3e033be3	0.12815814
53	0x3de1c634	0.11024132
54	0xbdadb3ca	-0.08481558
55	0x3dd26175	0.10272495
56	0x3df5cdcd	0.12002144
57	0x3e4e6b94	0.20158225
58	0x3dc09266	0.09402923
59	0x3e65613d	0.22400375
60	0xbdc0f585	-0.09421829
61	0x3d9aa2cc	0.07550582
62	0x3d345889	0.044029746
63	0x3cf38bae	0.02972969
64	0xbda816f9	-0.08207507
65	0x3d6e21ec	0.05813782
66	0x3dc75cb4	0.097344786
67	0xbe1be418	-0.1522373
68	0xbd005d73	-0.03133912
69	0x3d1378f5	0.036004025
70	0x3e06864d	0.13137169
71	0x3e065698	0.1311897
72	0x3dc3c01d	0.09558127
73	0x3c54b008	0.012981422
74	0x3e0598f6	0.13046631
75	0x3de43ae8	0.11144048
76	0x3d5033c9	0.050830636
77	0x3d06cd45	0.032910604
78	0x3df60385	0.1201239
79	0xbd92481a	-0.071426585
80	0xbe0c51f2	-0.13703135
81	0xbdc0fad1	-0.094228394
82	0x3e0ae790	0.13564897
83	0xbda86935	-0.08223192
84	0x3d85fd09	0.06542403
85	0xbe4448e5	-0.19168432
86	0xbda02261	-0.07819057
87	0x3e2056f8	0.15658176
88	0xbe0ba49a	-0.1363701
89	0xbdb87a2a	-0.09007676
90	0x3db41f75	0.087950625
91	0x3ca28bb6	0.01984201
92	0x3c13ca4c	0.009020399
93	0xbdf37ee1	-0.118894346
94	0xbcb5a227	-0.022172047
95	0x3def3848	0.11680657
96	0xbd719a23	-0.058984887
97	0x3e8b8b1d	0.27254573
98	0x3e8cebcd	0.27523652
99	0x3e181c66	0.14854583
100	0x3e02632e	0.12733147
101	0x3e8cfe47	0.27537748
102	0x3e57d05e	0.2107558
103	0x3d493709	0.04912475
104	0x3ce27dab	0.027647814
105	0x3e8d29e7	0.2757103
106	0x3e3f4481	0.18678476
107	0xbdd418ba	-0.10356279
108	0xb98a4348	-0.0002637154
109	0x3ed5bdc0	0.4174633
110	0x3da1a2f7	0.07892411
111	0x3e54417b	0.20728104
112	0x3dcedc1d	0.10100577
113	0xbd98ef2f	-0.07467496
114	0x3e0a8e04	0.13530737
115	0x3e17d1d5	0.14826138
116	0x3d1fb871	0.038994256
117	0x3e19c3f8	0.15016162
118	0xbca1ba37	-0.019742114
119	0xbd7043cc	-0.058658406
120	0x3e5b41e3	0.21411853
121	0x3e1822c1	0.14857008
122	0x3e7afaa8	0.2450968
123	0xbc10fa2a	-0.008848706
124	0xbda0a82c	-0.07844576
125	0x3d18be08	0.037290603
126	0x3e36f44f	0.17866634
127	0x3a064cc0	0.0005123131

bias_hh_l0 f4 [128]
0	0x3eab78cf	0.33490607
1	0x3e60cff5	0.2195433
2	0x3e073cbe	0.13206765
3	0xbd83cc4a	-0.064354494
4	0x3dd80330	0.10547483
5	0x3e8d9ebf	0.27660176
6	0xbcdfe374	-0.027330138
7	0x3d85025a	0.06494589
8	0x3e0256e7	0.12728463
9	0x3e97df2a	0.29662448
10	0x3eb27dc2	0.3486157
11	0x3dc2c265	0.09509734
12	0x3df0f94c	0.117662996
13	0x3f0293d8	0.5100684
14	0x3dd001b1	0.101565726
15	0x3e6e720c	0.23285693
16	0x3c9e7689	0.019343631
17	0x3da28a19	0.07936496
18	0x3e1505e2	0.14553025
19	0xbd07b627	-0.0331327
20	0x3e70a51a	0.23500481
21	0x3dbca715	0.09211556
22	0x3e225c68	0.15855563
23	0xbda3f881	-0.08006383
24	0xbde7cced	-0.11318383
25	0x3b854ba3	0.0040678545
26	0x3d1e0173	0.0385756
27	0xbcb079da	-0.021542478
28	0x3e2b01fb	0.16699974
29	0x3e4f92ce	0.20270845
30	0x3daae45c	0.08344337
31	0x3d6b41f3	0.05743594
32	0x3d306bfc	0.043071732
33	0x3ece7680	0.40324783
34	0x3dfe0baa	0.124045685
35	0x3cc5e6a9	0.024157839
36	0xbcb96bbc	-0.02263438
37	0xbb743e00	-0.00372684
38	0xbe0197b3	-0.12655525
39	0xbdbaf08c	-0.09127912
40	0xbd7575ed	-0.059926916
41	0x3df67995	0.12034909
42	0x3e61388c	0.21994227
43	0x3de9b7fa	0.11412044
44	0x3e0d73a1	0.1381364
45	0x3e8bb6bc	0.27287853
46	0xbc168f14	-0.009189386
47	0x3dcdbddf	0.10045981
48	0xbc125a03	-0.008932593
49	0xbc8f47a7	-0.017490221
50	0x3d3f8774	0.046760038
51	0x3d6a0a81	0.057138924
52	0x3df6ea9c	0.12056467
53	0x3d08a721	0.03336251
54	0x3d75d8f8	0.06002137
55	0xbd37b3a7	-0.044849064
56	0x3e13ec55	0.14445622
57	0x3e7c66f1	0.24648644
58	0x3b9bd509	0.0047556204
59	0x3ba569ed	0.0050480277
60	0x3dd576ab	0.10423025
61	0xbdef2366	-0.116766736
62	0xbd9aa367	-0.07550698
63	0x3e53a466	0.20668182
64	0x3dc717c3	0.09721329
65	0x3d9bcfe6	0.07608013
66	0xbdbb1f06	-0.091367766
67	0xbdf3d518	-0.11905879
68	0x3d2cad16	0.042157255
69	0xbe29396e	-0.16525814
70	0xbd952695	-0.072827496
71	0x3e05a702	0.1305199
72	0xbe291cce	-0.16514894
73	0x3e714bcf	0.23564075
74	0x3d62de00	0.055387497
75	0x3e6004f1	0.21876885
76	0x3c43fbcc	0.0119618885
77	0x3dd8a9c1	0.10579253
78	0x3dc71dcb	0.097224794
79	0x3d10c670	0.035345495
80	0xbd4524e5	-0.04813089
81	0x3d9d96b0	0.07694757
82	0xbe17186f	-0.14755414
83	0x3c819166	0.015816402
84	0x3de62cb8	0.11238998
85	0xbe199882	-0.14999583
86	0x3d5ab379	0.053393815
87	0x3dbcf016	0.0922548
88	0xbd93e643	-0.07221653
89	0x3e07a3a0	0.13246012
90	0xbdee13ad	-0.116248466
91	0x3d135e80	0.035978794
92	0xbe0f0e6f	-0.1397035
93	0xbe215501	-0.15755083
94	0x3e4fb957	0.20285545
95	0xbd80879e	-0.06275867
96	0x3e525434	0.20539933
97	0x3e7e7b6e	0.24851772
98	0x3e32d55b	0.17464201
99	0xbdf13213	-0.11777129
100	0xbd3bcc61	-0.045849208
101	0x3e93bfe9	0.28857353
102	0x3e0b1add	0.13584466
103	0x3dfb98b6	0.12284987
104	0x3d90d630	0.07072103
105	0x3e93add9	0.28843573
106	0x3e072f02	0.13201526
107	0xbda98ec0	-0.082791805
108	0x3bf99be6	0.0076174615
109	0x3e8da153	0.27662143
110	0x3e1423b4	0.14466745
111	0x3e9e64bc	0.3093623
112	0x3e7f13aa	0.24909845
113	0xbc857158	-0.016289398
114	0xbdb17370	-0.08664596
115	0x3e08c1bf	0.13355158
116	0x3cb2ce07	0.021826757
117	0xbd23b706	-0.039969467
118	0x3dcf1897	0.10112112
119	0x3e69987a	0.22812071
120	0x3db661a9	0.08905346
121	0x3e8c7e87	0.27440283
122	0x3d08efba	0.033431746
123	0x3e34c994	0.17655021
124	0x3e49cceb	0.19707076
125	0x3dd5faa1	0.10448194
126	0x3dd3f14a	0.103487566
127	0x3d85934b	0.065222345

weight_ih_l0_reverse f4 [128, 2]
0	0x3e4c96c0	0.19979382
1	0xbe10a129	-0.14123978
2	0x3e5bdf05	0.21471794
3	0x3dc648c7	0.0968185
4	0xbe1cda6a	-0.15317693
5	0xbd03d781	-0.032187942
6	0x3ea92b67	0.33040926
7	0xbee57dce	-0.44822544
8	0x3e6ff721	0.23434116
9	0x3e5f8ab4	0.21830255
10	0xbe0e9359	-0.13923396
11	0xbee83b9a	-0.45357972
12	0x3d84dd78	0.06487554
13	0x3e43ffd7	0.19140564
14	0x3c4020f5	0.011726608
15	0xbea26620	-0.3171854
16	0x3c6fd65c	0.01463851
17	0xbe4b43ac	-0.19850034
18	0xbd094061	-0.033508662
19	0x3d837c2d	0.06420169
20	0xbeaaaf2d	-0.33336774
21	0x3e50f383	0.20405392
22	0x3d388fbd	0.045058955
23	0xbe91ebf8	-0.28500342
24	0xbee73ae2	-0.45162112
25	0x3f11f52b	0.5701472
26	0xbe7a607b	-0.24450867
27	0xbe8e1c0d	-0.27755776
28	0x3e571445	0.21003826
29	0x3da215bb	0.07914301
30	0xbe04a972	-0.12955263
31	0x3de94066	0.11389236
32	0xbd975dbf	-0.073909275
33	0x3e6cb6de	0.23116633
34	0xbd8526f7	-0.065015726
35	0xbdc019a7	-0.09379893
36	0xbe3c0757	-0.18362175
37	0x3d9ad717	0.075605564
38	0xbda292b1	-0.079381354
39	0x3d90c2b8	0.0706839
40	0xbe2dc4c3	-0.1696959
41	0x3ee41c26	0.44552726
42	0xbe432288	-0.19056141
43	0xbc8224ba	-0.015886653
44	0xbe6ce436	-0.2313393
45	0x3e29f38e	0.16596815
46	0x3e8be665	0.27324215
47	0xbb07adbb	-0.0020702917
48	0xbd979b22	-0.07402636
49	0xbdbb15c5	-0.091350116
50	0xbe159c2a	-0.14610353
51	0xbe2659af	-0.16245149
52	0x3e10f6f7	0.1415671
53	0xbd3dd1fd	-0.04634284
54	0xbdca3b95	-0.098746456
55	0x3d9d4103	0.076784156
56	0xbe998c95	-0.29990068
57	0x3f27faba	0.65616953
58	0x3dc88325	0.09790639
59	0xbe0851f3	-0.13312511
60	0x3e60de5b	0.21959822
61	0xbe84fcbb	-0.25974068
62	0xbd23d50b	-0.039998095
63	0xbe76ccba	-0.24101534
64	0x3de755ed	0.11295686
65	0x3dab0710	0.083509564
66	0x3e6e893a	0.23294535
67	0xbde70d0f	-0.112817876
68	0xbdb9961e	-0.09061836
69	0xba21a774	-0.0006166615
70	0x3e6fd96b	0.23422782
71	0xbe87358b	-0.26408038
72	0x3e9d9329	0.30776337
73	0x3e14e1ad	0.14539213
74	0x3e176e26	0.14788112
75	0xbd069662	-0.03285826
76	0x3c1895d8	0.009313069
77	0x3e05a49f	0.13051079
78	0x3dab2d9c	0.08358309
79	0xbd853e74	-0.065060526
80	0x3dffef90	0.12496865
81	0xbda49ab2	-0.08037318
82	0x3da6e7e9	0.08149702
83	0xbdca3733	-0.0987381
84	0x3ca2f934	0.01989422
85	0xbe01f0a9	-0.12689461
86	0x3db53d43	0.08849575
87	0xbe917b0d	-0.28414193
88	0xbe9ea293	-0.3098341
89	0x3f28ae91	0.6589137
90	0xbdcaf5cf	-0.099101655
91	0xbe7bcf75	-0.24590857
92	0x3e1c6d1e	0.15276
93	0xbd249aac	-0.04018657
94	0xbd981249	-0.074253626
95	0x3a4696a5	0.00075755484
96	0x3e27b077	0.1637591
97	0x3cc93722	0.024562422
98	0xbc8be817	-0.017078442
99	0xbc0232ef	-0.007946714
100	0xbe2210e1	-0.15826751
101	0x3e062b58	0.13102472
102	0xbe81986a	-0.25311595
103	0x3cc333f2	0.02382848
104	0xbe36ef4a	-0.17864719
105	0x3ead1e5e	0.3381223
106	0xbd1f13f3	-0.038837384
107	0xbd6e5ea3	-0.05819572
108	0x3d41507a	0.04719589
109	0xbe44cbf6	-0.1921843
110	0xbd2bf623	-0.04198278
111	0xbd46247a	-0.04837463
112	0x3d7e689c	0.062111482
113	0xbe009002	-0.12554935
114	0x3d4b3f76	0.049621068
115	0xbe8206db	-0.25395855
116	0x3e47a2c4	0.19495684
117	0x3c997ef0	0.018737286
118	0x3dd0b4f4	0.10190764
119	0xbe646a28	-0.2230612
120	0xbe8c470d	-0.27397957
121	0x3f0ecf4b	0.55785054
122	0x3ea8cd23	0.32969007
123	0xbcddb31c	-0.027062945
124	0x3e8ac14f	0.27100608
125	0xbe0d975b	-0.13827269
126	0x3dfcb742	0.12339641
127	0xbe6b39e9	-0.2297131
128	0xbdbb94af	-0.091592185
129	0xbe0fff14	-0.14062148
130	0x3df9e2cc	0.12201461
131	0x3e839c7e	0.25705332
132	0x3e3a985a	0.1822218
133	0xbe41954a	-0.18904606
134	0xbd2f4680	-0.042791843
135	0xbe2ba2ee	-0.16761371
136	0xbc4161dc	-0.011803117
137	0x3e8abbff	0.27096555
138	0xbc82d5d1	-0.015971096
139	0x3e82070a	0.25395995
140	0x3debdc52	0.11516632
141	0xbe781378	-0.24226177
142	0xbe81758e	-0.25285
143	0x3e5c1d6d	0.214956
144	0xbe9148aa	-0.2837575
145	0x3c98b76c	0.01864215
146	0xbe30c41b	-0.17262308
147	0x3e6a3495	0.22871621
148	0x3e9a85f7	0.30180332
149	0xbe35c974	-0.1775263
150	0x3ea3e0d5	0.3200747
151	0xbdc82d0f	-0.09774219
152	0x3e99d18f	0.30042693
153	0xbe534ccd	-0.20634766
154	0x3ecccae8	0.39998555
155	0xbcbdc743	-0.023166304
156	0xbeb3056f	-0.34965083
157	0xbb249ea7	-0.0025118978
158	0xbd6bfba5	-0.057613034
159	0x3e68747e	0.22700688
160	0xbc6283d7	-0.013825378
161	0x3dfa9d07	0.12236982
162	0xbd5d5e9b	-0.0540453
163	0x3ea5c16e	0.32374138
164	0x3dd9e1e8	0.10638791
165	0xbb8f17a7	-0.0043668333
166	0xbe69d6ca	-0.22835842
167	0xbe3e161a	-0.18563119
168	0xbe8a67bf	-0.27032277
169	0xbe807a0e	-0.2509312
170	0x3edf40fb	0.43604264
171	0xbe43df61	-0.19128181
172	0xbeaee5b8	-0.34159636
173	0x3e5f83c2	0.21827605
174	0x3d5a4c1b	0.053295236
175	0x3e5f4c33	0.21806411
176	0xbe2514bf	-0.16121195
177	0x3e8a0b05	0.26961532
178	0x3e9d69b0	0.30744696
179	0x3b90810b	0.0044099144
180	0xbeb63616	-0.3558814
181	0x3dd9b38e	0.106299505
182	0x3e960c04	0.29306042
183	0xbe978839	-0.29596117
184	0xbed1c414	-0.40969908
185	0x3ecbf1ec	0.3983301
186	0x3d6a144f	0.057148274
187	0x3db0d538	0.08634418
188	0x3e955e6f	0.2917361
189	0xbe9a1ae7	-0.3009865
190	0x3e881975	0.26581922
191	0x3d58a9d9	0.052896354
192	0x3e9dcb4f	0.30819175
193	0xbd8483db	-0.06470462
194	0x3e733ba9	0.23753227
195	0x3d0683d6	0.032840572
196	0xbd296111	-0.041352335
197	0xbe38d621	-0.18050434
198	0x3d8b66bf	0.06806707
199	0xbec2dd62	-0.38059527
200	0x3e759db0	0.23985934
201	0x3e69118b	0.22760598
202	0xbe3ec0f6	-0.18628296
203	0xbeadf6b1	-0.33977273
204	0xbd76b3bd	-0.060230006
205	0x3e20bab6	0.15696225
206	0x3e2ce4c7	0.16884147
207	0xbe861f59	-0.2619579
208	0xbcb28f7c	-0.021796934
209	0xbe1eec4f	-0.15519832
210	0x3d782501	0.060582165
211	0xbe2d42e6	-0.16920051
212	0x3dd50f8c	0.10403356
213	0xbe4be6af	-0.19912218
214	0x3e3376db	0.17525809
215	0xbed4e38a	-0.4157985
216	0xbd8dabd9	-0.06917543
217	0x3eefdd29	0.4684842
218	0xbc2c7894	-0.010526795
219	0xbe36aa50	-0.17838407
220	0x3e72729a	0.2367653
221	0xbcd37978	-0.025814757
222	0xbe19c2eb	-0.15015762
223	0xbe42aee6	-0.19012031
224	0x3e8ad63d	0.27116576
225	0x3dee2171	0.11627472
226	0xbc4e4aa1	-0.012591035
227	0xbe5f7d58	-0.21825159
228	0xbe833719	-0.25627974
229	0x3dbe7f64	0.093016416
230	0xbed146b2	-0.4087425
231	0xbcdc680f	-0.026905088
232	0xbe5d3ea0	-0.21605921
233	0x3dbb6264	0.09149626
234	0xbda3a8d0	-0.07991183
235	0x3d23ada0	0.039960504
236	0xbe026f6c	-0.12737817
237	0xbe36ae9d	-0.17840047
238	0x3db90f2c	0.09036097
239	0xbd8c2c2b	-0.06844362
240	0x3e0b21a4	0.13587052
241	0xbc2c9538	-0.010533623
242	0x3e47adf6	0.19499955
243	0xbe9b09e6	-0.3028099
244	0xbdeaa029	-0.114563294
245	0x3ddf1fc5	0.108947314
246	0x3e099310	0.13435006
247	0x3d95efba	0.07321115
248	0x3dd01867	0.101609044
249	0x3e59b46f	0.21260236
250	0x3e34c69d	0.1765389
251	0xbec64369	-0.38723305
252	0x3dc8264f	0.09772932
253	0xbe2af66f	-0.1669557
254	0xbdca1631	-0.09867514
255	0xbe8a46a6	-0.27007025
