sgan-dataset/logs/eth/models_03_Mar_2019_00_23_46/model_registrar-99.pt (torch_old, 575429 bytes, 45 tensors)

weight_ih_l0 f4 [128, 6]
-0.07711952 -0.0036261184 -0.05086394 0.15441561 -0.14932857 0.13205828 -0.13701987 -0.15014228
-0.1264244 0.025691664 -0.040671393 0.04229727 -0.1561094 -0.12918314 -0.12731877 -0.11407422
-0.08143474 0.09508822 -0.09325457 0.04012708 0.16885453 0.027901215 0.049305867 0.16555443
-0.08853774 0.042952467 -0.18608144 0.12743379 0.14437684 -0.1801893 0.14164254 0.06685296
0.039988633 0.076553926 0.12720615 0.006104349 -0.17474544 -0.07825819 -0.17299365 -0.017817685
0.013435336 -0.06309038 -0.018424695 0.16160463 -0.067078374 -0.06651113 -0.010668481 0.026260985
0.14767249 0.100647226 0.06055498 0.10748026 -0.0017456358 0.090061486 -0.077431865 -0.19718494
-0.14278916 0.11579271 -0.0039261957 -0.13865334 0.014437145 0.12370021 -0.18681307 -0.18745549
-0.09941696 0.0201259 -0.050379742 -0.016988387 -0.12752669 0.13242851 0.12984811 0.13823539
-0.13864523 -0.14738579 0.10814349 -0.007643675 0.08090519 -0.16434075 -0.023885103 0.12040117
0.16604388 -0.034650963 -0.023373444 -0.010981225 -0.10764285 -0.0763077 -0.0893809 0.12006858
0.087313525 0.07552364 -0.13872403 0.13021527 0.013408466 0.18127166 -0.09147449 0.05272148
0.15920939 0.10044066 0.04967247 -0.036456272 0.09864423 -0.14155546 -0.015964545 -0.12768674
0.04572198 -0.093201265 -0.025878403 0.17302579 0.07829573 -0.0032303687 0.14099027 -0.076685205
0.13286717 -0.016221866 -0.040795073 0.008683405 -0.15379992 0.025074283 0.06599077 0.14973138
-0.07334184 0.0441326 0.1881185 0.021276666 0.14275646 -0.073573574 0.009712704 0.012425586
0.083623044 0.118038684 -0.13221397 0.095468804 -0.031667933 -0.16298816 -0.033368543 -0.099153385
0.044525843 0.062550604 -0.007012374 -0.08153774 -0.071584806 0.03805272 0.05356143 0.16810557
-0.0091355685 -0.12164253 -0.16214845 -0.07530091 -0.12771998 -0.12901205 -0.12660094 -0.07946163
-0.04296346 0.039401356 0.07733336 0.12859847 -0.13139707 0.0019627977 -0.088204086 0.025876155
0.032089785 0.20464562 -0.12421023 0.14184138 0.19750418 0.14916235 -0.04875373 0.16227853
0.11121641 0.12740168 0.0427681 -0.20903361 -0.0012746231 0.013431105 -0.12838489 -0.10372488
-0.14299013 -0.06067112 0.13481061 0.036690317 0.0013729129 0.034042295 0.13118772 -0.14053917
-0.13646814 -0.08280133 -0.10391558 0.07275438 0.102236845 -0.24843173 -0.16578601 -0.18034518
0.06236701 0.13419355 -0.093697675 -0.004075897 0.05811438 -0.10520189 0.14521481 0.03544354
-0.05487983 -0.04369627 0.07332498 -0.08027205 -0.14638054 -0.026467092 -0.05948565 -0.07633187
-0.0046132924 0.10870789 -0.10272579 -0.038275 0.11853165 -0.12562701 0.012808435 -0.040853914
0.07520599 -0.11009167 -0.09724958 0.018747652 -0.15614319 -0.12325759 0.06167603 -0.06557664
0.06817113 -0.16755934 -0.101114325 -0.122743696 0.04683631 -0.031220322 -0.07924132 -0.06437577
-0.13143024 0.07058625 0.0028017086 -0.12660071 0.015259868 -0.07519647 -0.15679425 0.08941119
0.08476769 -0.041237324 -0.12298318 0.07040558 0.09335043 0.1839895 -0.17619531 -0.105096646
0.13622728 0.0628826 0.0868501 -0.06512808 0.14015812 -0.16624607 -0.027269972 -0.060847074
00000000: d7f0 9dbd 2ca4 6dbb b556 50bd 201f 1e3e
00000010: 97e9 18be 493a 073e f04e 0cbe e6be 19be
00000020: 6675 01be 5377 d23c 0c97 26bd e73f 2d3d
00000030: 24db 1fbe 9648 04be da5f 02be bf9f e9bd
00000040: 42c7 a6bd 9dbd c23d 41fc bebd 4b5c 243d
00000050: 34e8 2c3e 1791 e43c f3f4 493d 1a87 293e
00000060: 4653 b5bd edee 2f3d 228c 3ebe 017e 023e
00000070: 86d7 133e 8b83 38be be0a 113e 34ea 883d
00000080: 1fcb 233d 4ec8 9c3d 5442 023e fe06 c83b
00000090: 78f0 32be d445 a0bd 3f25 31be 65f6 91bc
000000a0: e21f 5c3c 8735 81bd 63ef 96bc af7b 253e
000000b0: 6360 89bd fd36 88bd daca 2ebc 4721 d73c
000000c0: 7537 173e 2220 ce3d 8008 783d 9c1e dc3d
000000d0: d1cd e4ba 2872 b83d 9994 9ebd d9ea 49be
000000e0: 5237 12be ba24 ed3d 51a7 80bb 24fb 0dbe
000000f0: c689 6c3c 8956 fd3d ed4b 3fbe 55f4 3fbe
00000100: 1e9b cbbd 12df a43c fd5a 4ebd 3b2b 8bbc
00000110: 5b96 02be 579b 073e e7f6 043e 948d 0d3e
00000120: 04f9 0dbe 4dec 16be 567a dd3d cb77 fabb
00000130: 9fb1 a53d f148 28be b1aa c3bc e394 f63d
00000140: 6807 2a3e 2bee 0dbd aa79 bfbc 99ea 33bc
00000150: db73 dcbd 3647 9cbd 550d b7bd 84e6 f53d
00000160: 6fd1 b23d 23ac 9a3d ac0d 0ebe 2757 053e
00000170: 2faf 5b3c 479f 393e fa56 bbbd 7bf2 573d
00000180: c907 233e d5b3 cd3d 5c75 4b3d 2c53 15bd
00000190: fc05 ca3d eaf3 10be 14c8 82bc 50c0 02be
000001a0: f946 3b3d 4ee0 bebd f2fe d3bc ac2d 313e
000001b0: 8359 a03d 98b4 53bb c15f 103e 220d 9dbd
000001c0: 550e 083e b8e3 84bc bc18 27bd d744 0e3c
000001d0: ba7d 1dbe 9568 cd3c 2b26 873d 2f53 193e
000001e0: 3f34 96bd 63c4 343d 23a2 403e 674c ae3c
000001f0: c02e 123e bead 96bd 0922 1f3c af94 4b3c
00000200: 8f42 ab3d 44be f13d 1963 07be 2685 c33d
00000210: 3cb6 01bd 5ee6 26be 74ad 08bd ee10 cbbd
00000220: bb60 363d 881a 803d 0ec8 e5bb 42fd a6bd
00000230: 0e9b 92bd 2bdd 1b3d 3b63 5b3d de23 2c3e
00000240: 5aad 15bc b81f f9bd 3e0a 26be 5d37 9abd
00000250: 07c9 02be bc1b 04be ada3 01be c7bc a2bd
00000260: 74fa 2fbd 5163 213d f460 9e3d 51af 033e
00000270: f48c 06be 48a2 003b 58a4 b4bd 3bfa d33c
00000280: 9470 033d 9f8e 513e ef61 febd de3e 113e
00000290: 893e 4a3e 04be 183e feb1 47bd 582c 263e
000002a0: 6ec5 e33d 9675 023e 9a2d 2f3d e80c 56be
000002b0: 4111 a7ba 230e 5c3c 5477 03be b66d d4bd
000002c0: 016c 12be 4882 78bd cb0b 0a3e 9648 163d
000002d0: 50f3 b33a ef6f 0b3d 1356 063e 80e9 0fbe
000002e0: 4ebe 0bbe be93 a9bd b1d1 d4bd 4000 953d
000002f0: 8d61 d13d e364 7ebe cfc3 29be 68ac 38be
00000300: 8d74 7f3d 096a 093e 91e4 bfbd 1a8f 85bb
00000310: 5809 6e3d 1774 d7bd 31b3 143e 3f2d 113d
00000320: acc9 60bd dcfa 32bd 682b 963d ac65 a4bd
00000330: c8e4 15be 84d1 d8bc 3aa7 73bd e253 9cbd
00000340: 1a2b 97bb 3ea2 de3d e661 d2bd 3fc6 1cbd
00000350: b9c0 f23d 5ea4 00be 78da 513c 6f56 27bd
00000360: 9905 9a3d be77 e1bd ca2a c7bd ad94 993c
00000370: 00e4 1fbe 7a6e fcbd 01a0 7c3d 0c4d 86bd
00000380: 4e9d 8b3d ad94 2bbe 0715 cfbd 0c61 fbbd
00000390: 6ed7 3f3d c3c1 ffbc 4649 a2bd 72d7 83bd
000003a0: a695 06be 868f 903d df9c 373b 9ea3 01be
000003b0: 8704 7a3c 9b00 9abd ac8e 20be 371d b73d
000003c0: af9a ad3d 78e8 28bd 9bde fbbd cd30 903d
000003d0: 832e bf3d be67 3c3e 8b6c 34be e93c d7bd
000003e0: 2a7f 0b3e 98c8 803d 77de b13d df61 85bd
000003f0: 9c85 0f3e 693c 2abe 4765 dfbc c83a 79bd

weight_hh_l0 f4 [128, 32]
-0.12056689 -0.0849637 -0.07924482 0.10863715 0.001101835 -0.03555434 -0.14471032 0.010392107
0.11810558 0.17079644 0.019558853 0.17811413 -0.04488948 0.14956944 0.0852531 0.16587722
0.097407684 -0.15419678 0.079463474 -0.13218316 -0.10522528 -0.1333783 -0.0925937 -0.14755122
0.17509699 -0.065419495 0.1225942 0.16933407 0.10839222 0.13023686 0.026474802 -0.1733268
0.13504581 -0.13654895 0.048463278 -0.0814584 0.10638041 0.12284818 -0.012774427 -0.06590652
0.132377 -0.064227484 -0.13243607 -0.11675201 -0.16865794 0.12520236 0.13431306 -0.04067589
0.083453834 0.09491373 -0.07810878 0.026665855 -0.028039468 -0.08695429 -0.11395002 -0.08728269
-0.023287646 -0.022047874 -0.14123139 -0.14563319 -0.02222341 0.0692201 0.047858194 -0.1229044
0.1189172 -0.11543613 -0.06887195 0.13512933 0.019849462 0.07224767 -0.1826514 -0.16408898
-0.028359361 0.10783978 -0.15561573 0.09739201 -0.101261355 -0.13770896 0.13373737 -0.12768032
0.08328032 -0.058551334 0.1297164 -0.18076412 0.09642452 0.1507047 0.03597016 0.16122887
0.10237618 0.07275922 0.10121684 0.1556651 0.13066207 0.080136985 -0.13292223 0.09742263
-0.0055706394 0.03763512 0.040884964 0.12703404 -0.17691576 -0.083706535 -0.10000971 0.12754363
-0.098226555 -0.049070742 -0.0356852 -0.14891106 -0.18196194 -0.1092866 -0.1679991 -0.11579549
-0.009391699 0.2387829 -0.07415407 -0.08101449 -0.049742002 0.01565852 0.084614165 -0.07045217
-0.10069914 0.03854032 -0.20158327 0.08554786 -0.09966196 0.04620811 0.14975955 0.08725981
-0.15505244 -0.0629877 0.16059637 -0.10633145 0.13057905 -0.12416307 -0.048603944 0.11669366
-0.15828781 -0.21579267 -0.029656328 -0.12584276 -0.004995438 0.10416444 0.09338306 -0.14954016
-0.026709829 -0.1483482 -0.120986916 0.074143186 0.049405105 0.14578606 0.06161016 -0.107772425
0.026410563 -0.13009867 -0.17262061 -0.1622548 0.16920401 -0.0876145 0.13051194 -0.11598605
0.14574046 -0.10703182 0.05667648 -0.20410226 -0.08765828 -0.03955279 -0.023984991 -0.08356793
-0.031845864 -0.018387627 0.13748825 -0.15920332 -0.13007376 0.058287915 -0.031628508 -0.028923048
0.0075586243 0.14948756 -0.17342 0.12054048 0.091252804 -0.10426643 -0.044223856 -0.03755757
-0.0745628 -0.11779518 0.13736434 0.16762808 0.040194478 0.092857085 0.14687262 0.08921135
0.17204857 0.057570737 -0.15089396 0.20874347 -0.010028361 -0.0565665 0.009000192 -0.14050652
-0.052832082 0.0054090777 -0.0321654 -0.10934002 -0.030226128 0.1890191 -0.022128649 0.04637738
0.022707934 -0.09403992 0.04408193 -0.15246437 0.101349324 0.1974485 0.14821912 -0.014937724
-0.19226536 0.0073351166 0.10784266 0.010471425 -0.19193472 0.14644076 -0.1438129 0.05894696
0.18638405 -0.09929502 -0.031281915 0.035657473 -0.05421035 0.095282905 0.041276112 -0.016828975
-0.0034762502 -0.1346993 -0.019033164 -0.12554237 0.17113742 -0.025062675 0.0594314 0.06865314
0.12143571 -0.059396658 -0.13545851 -0.027649326 -0.14862685 -0.037719622 -0.087881625 -0.17522605
0.048183482 0.16664614 -0.00024227037 0.12755984 0.11310039 0.14103466 0.016340643 0.11581216
00000000: c6eb f6bd 7301 aebd 1c4b a2bd 277d de3d
00000010: 736b 903a 6da1 11bd f12e 14be a843 2a3c
00000020: 57e1 f13d 43e5 2e3e e339 a03c 8d63 363e
00000030: 08de 37bd bb28 193e 2d99 ae3d b8db 293e
00000040: ae7d c73d c3e5 1dbe bfbd a23d 065b 07be
00000050: 5a80 d7bd 5294 08be c4a1 bdbd ab17 17be
00000060: a04c 333e a8fa 85bd ab12 fb3d e965 2d3e
00000070: befc dd3d d05c 053e afe1 d83c 957c 31be
00000080: 7349 0a3e 7dd3 0bbe 6e81 463d a9d3 a6bd
00000090: f9dd d93d d497 fb3d d54b 51bc fff9 86bd
000000a0: d68d 073e b389 83bd 529d 07be ae1b efbd
000000b0: abb4 2cbe 0c35 003e 5d89 093e c39b 26bd
000000c0: d8e9 aa3d 2162 c23d 7ff7 9fbd 5a72 da3c
000000d0: 07b3 e5bc 1715 b2bd a15e e9bd 44c1 b2bd
000000e0: bcc5 bebc be9d b4bc f69e 10be de20 15be
000000f0: de0d b6bc 45c3 8d3d f406 443d 4db5 fbbd
00000100: dc8a f33d c769 ecbd bd0c 8dbd 585f 0a3e
00000110: 579b a23c 96f6 933d f808 3bbe f106 28be
00000120: e451 e8bc 1adb dc3d bb59 1fbe 7675 c73d
00000130: 1d62 cfbd 9403 0dbe 73f2 083e a1be 02be
00000140: df8e aa3d 86d3 6fbd 60d4 043e 3b1a 39be
00000150: 387a c53d 5552 1a3e 7255 133d 2e19 253e
00000160: 9aaa d13d c902 953d c64a cf3d ac66 1f3e
00000170: 47cc 053e dc1e a43d c41c 08be 8485 c73d
00000180: e989 b6bb 4927 1a3d fe76 273d 3615 023e
00000190: 6829 35be 556e abbd e4d1 ccbd cc9a 023e
000001a0: 012b c9bd 67fe 48bd a52a 12bd 247c 18be
000001b0: 3b54 3abe a7d1 dfbd f507 2cbe 3026 edbd
000001c0: a4df 19bc 8183 743e 17de 97bd edea a5bd
000001d0: 45be 4bbd 4c46 803c 314a ad3d 3a49 90bd
000001e0: 5a3b cebd 74dc 1d3d d86b 4ebe b733 af3d
000001f0: 921b ccbd b744 3d3d 915a 193e 45b5 b23d
00000200: 11c6 1ebe b2ff 80bd 6073 243e 4ec4 d9bd
00000210: 84b6 053e 3549 febd ee14 47bd 16fd ee3d
00000220: 3316 22be c1f8 5cbe d4f1 f2bc eddc 00be
00000230: c5b0 a3bb 2a54 d53d 9e3f bf3d 0e21 19be
00000240: 92ce dabc 97e8 17be fdc7 f7bd 62d8 973d
00000250: 025d 4a3d f148 153e ef5a 7c3d cab7 dcbd
00000260: f75a d83c 9638 05be 75c3 30be 1f26 26be
00000270: d143 2d3e 3b6f b3bd eca4 053e 188a edbd
00000280: fd3c 153e 8033 dbbd 9925 683d 2f00 51be
00000290: 2f86 b3bd 1b02 22bd 2c7c c4bc aa25 abbd
000002a0: cf70 02bd a6a1 96bc b8c9 0c3e 3206 23be
000002b0: 0e32 05be 4fbf 6e3d e58c 01bd 07f0 ecbc
000002c0: 56ae f73b 4413 193e 0395 31be eddd f63d
000002d0: c0e2 ba3d a389 d5bd 1324 35bd f7d5 19bd
000002e0: 62b4 98bd 993e f1bd 3da9 0c3e b2a6 2b3e
000002f0: f7a2 243d db2b be3d c765 163e 71b4 b63d
00000300: 802d 303e 4bcf 6b3d f283 1abe d9c0 553e
00000310: ff4d 24bc 46b2 67bd 8b75 133c f1e0 0fbe
00000320: 7466 58bd a23e b13b debf 03bd a9ed dfbd
00000330: c99c f7bc 398e 413e 2447 b5bc 35f6 3d3d
00000340: fd05 ba3c 0098 c0bd 418f 343d 9f1f 1cbe
00000350: 3c90 cf3d f12f 4a3e c1c6 173e 5bbd 74bc
00000360: 36e1 44be 6b5b f03b 9ddc dc3d 5790 2b3c
00000370: 898a 44be 91f4 153e b043 13be 5e72 713d
00000380: 76db 3e3e 305b cbbd 7721 00bd 920d 123d
00000390: ac0b 5ebd af23 c33d 2411 293d ebdc 89bc
000003a0: cdd1 63bb 9dee 09be 70eb 9bbc 2e8e 00be
000003b0: a63e 2f3e 3d50 cdbc 576e 733d 049a 8c3d
000003c0: 49b3 f83d e949 73bd a3b5 0abe d780 e2bc
000003d0: a331 18be e47f 1abd 48fb b3bd 756e 33be
000003e0: 0b5c 453d 49a5 2a3e f509 7eb9 0c9f 023e
000003f0: 2da1 e73d 646b 103e d0dc 853c ed2e ed3d

bias_ih_l0 f4 [128]
-0.09795404 -0.06898682 -0.015660027 -0.09084355 -0.14320873 0.16194788 -0.032228973 -0.16292562
0.03735215 0.037170697 0.17825632 0.15530664 0.07824939 -0.15238373 0.10630271 -0.12402668
-0.004317285 0.13994572 -0.023923779 0.14540486 0.03354273 -0.014759923 -0.025540821 -0.043877106
0.12329858 0.06866564 -0.03907228 0.047244027 -0.014440819 -0.100894466 -0.18148798 -0.032001615
0.16887228 -0.15143113 -0.14852966 0.13832007 -0.14124978 -0.06311591 -0.12975201 -0.010852561
-0.11710577 0.095564425 -0.04470521 0.055895407 -0.043822113 0.17212093 -0.012994386 -0.10728644
0.109798364 0.10125352 -0.060242366 0.09885182 -0.15147199 0.08745756 0.12698598 0.103126846
0.08513487 0.14576338 0.12253636 0.11722735 -0.010627506 -0.14746054 -0.18092608 -0.14263213
0.11726837 0.13008602 -0.016044578 0.06973092 -0.087065235 0.033355016 0.08119728 -0.09577668
0.036609687 0.11583689 -0.09786275 0.071685284 -0.15230982 -0.049676545 -0.09424677 -0.16960418
-0.11565222 -0.11721804 0.15291624 -0.06713606 0.013336639 0.13316332 0.07135292 -0.14001915
0.15241742 -0.1338664 0.10372247 -0.16740012 -0.14691402 0.11775466 0.04046741 -0.054988105
0.09822501 -0.11289428 0.028168375 -0.03851951 0.01630086 0.08911176 2.3757248e-05 -0.14500688
-0.083809175 0.07708942 -0.05373988 0.09235237 0.040821545 -0.16923407 0.14257534 0.0530261
0.12550719 0.060026687 0.07654925 0.019913686 0.11684631 -0.014041206 -0.0689966 0.014683191
-0.08215774 0.10844222 0.11942647 -0.012045846 0.123288654 0.100286596 -0.12779298 -0.04911665
00000000: 219c c8bd f648 8dbd 7549 80bc 2f0c babd
00000010: 4fa5 12be aad5 253e 8702 04bd f9d5 26be
00000020: 91fe 183d 4d40 183d d388 363e b408 1f3e
00000030: 3741 a03d 7b0a 1cbe 3cb5 d93d b301 febd
00000040: 0378 8dbb ee4d 0f3e cdfb c3bc 03e5 143e
00000050: 1a64 093d 9bd3 71bc fc3a d1bc 7bb8 33bd
00000060: f783 fc3d 92a0 8c3d 410a 20bd f482 413d
00000070: 2f99 6cbc c2a1 cebd fcd7 39be 2014 03bd
00000080: dbec 2c3e c310 1bbe 2918 18be c7a3 0d3e
00000090: c8a3 10be ea42 81bd b6dd 04be f1ce 31bc
000000a0: 26d5 efbd 48b7 c33d cf1c 37bd 95f2 643d
000000b0: d17e 33bd 7840 303e 68e6 54bc feb8 dbbd
000000c0: f7dd e03d 015e cf3d b3c0 76bd d372 ca3d
000000d0: 791b 1bbe f31c b33d 9d08 023e 2b34 d33d
000000e0: 315b ae3d ff42 153e 58f4 fa3d e514 f03d
000000f0: fe1e 2ebc e5ff 16be b044 39be 280e 12be
00000100: 662a f03d 4535 053e eb6f 83bc 16cf 8e3d
00000110: 424f b2bd 459f 083d c24a a63d 9026 c4bd
00000120: 0af4 153d e43b ed3d 446c c8bd bccf 923d
00000130: 1bf7 1bbe a279 4bbd 7304 c1bd b8ac 2dbe
00000140: 12db ecbd 0310 f0bd 1396 1c3e a17e 89bd
00000150: eb81 5a3c f75b 083e 7b21 923d 2e61 0fbe
00000160: 5013 1c3e 4614 09be 726c d43d f06a 2bbe
00000170: a170 16be 5b29 f13d 28c1 253d 353b 61bd
00000180: 322a c93d 1e35 e7bd 5dc1 e63c a2c6 1dbd
00000190: 6289 853c 3a80 b63d 4d4a c737 af7c 14be
000001a0: 25a4 abbd 0fe1 9d3d 591e 5cbd 3d23 bd3d
000001b0: 7e34 273d b24b 2dbe 45ff 113e e531 593d
000001c0: f584 003e 8bde 753d dac5 9c3d 0722 a33c
000001d0: 1e4d ef3d 160d 66bc 174e 8dbd c491 703c
000001e0: 5142 a8bd f416 de3d dd95 f43d f15b 45bc
000001f0: c37e fc3d 0f63 cd3d 2adc 02be 8a2e 49bd

bias_hh_l0 f4 [128]
-0.1422442 -0.055879235 -0.1494505 0.070639655 0.000567012 -0.08195252 -0.13387877 0.014638969
0.12248989 0.20206621 -0.07819736 0.030478826 -0.16004434 0.14188524 0.14686623 0.036393937
-0.09128409 0.13250588 -0.11961435 0.1011276 0.18122001 0.1659571 0.0029847745 0.020420806
0.024959732 0.053536948 0.034482393 -0.04433796 -0.09606687 -0.11023745 -0.11196872 0.018189395
0.0801131 -0.12534136 0.08915944 -0.06782387 0.16711557 0.09972759 0.011190209 -0.15567811
-0.044220157 0.03934224 -0.025770541 -0.0052935 -0.046604414 -0.0073158215 0.09296033 -0.05717411
-0.020999731 0.03332965 -0.0318894 -0.082433976 -0.0075646597 -0.075338714 -0.09608018 0.075139254
-0.11844721 -0.16286515 -0.13100058 0.056534596 -0.03884861 0.08645598 -0.048841428 0.15875897
-0.1659906 -0.138687 0.1540345 0.014099882 0.16959548 0.06567608 -0.104945205 -0.048885953
0.17786765 0.022218566 0.029970326 0.08897883 0.0284036 0.016767742 -0.17195164 -0.02334574
-0.022710878 0.12517239 0.07836328 -0.19371767 -0.1436383 0.07271036 -0.1722417 0.108058795
-0.086079404 -0.028225947 0.10668953 -0.052553594 -0.13545926 -0.1608896 0.0159183 0.049007688
-0.01681475 0.021431403 -0.1279317 0.18879339 0.114914946 -0.007498725 0.19860327 0.16558662
-0.13781059 0.09944002 0.18752827 0.16924432 0.05298302 0.023948094 0.0624296 0.060890038
0.14399981 -0.0767649 0.18164523 -0.10357579 0.07989441 0.17705351 0.082779214 0.14727253
0.10567127 0.084090635 0.17134109 -0.0058423155 -0.0060515036 0.094744705 -0.1007749 0.15162174
00000000: 77a8 11be a0e1 64bd 8d09 19be 86ab 903d
00000010: 88a3 143a b9d6 a7bd 8417 09be 49d8 6f3c
00000020: fbdb fa3d 72ea 4e3e f025 a0bd bbae f93c
00000030: aae2 23be 5d4a 113e 1a64 163e cf11 153d
00000040: 27f3 babd 9faf 073e 5ef8 f4bd fd1b cf3d
00000050: bd91 393e a8f0 293e 359c 433b 8949 a73c
00000060: 5a78 cc3c 8f49 5b3d 693d 0d3d b99b 35bd
00000070: b5be c4bd 2cc4 e1bd db4f e5bd ed01 953c
00000080: 5612 a43d 7c59 00be 3999 b63d 3ee7 8abd
00000090: 5820 2b3e fb3d cc3d 2357 373c 156a 1fbe
000000a0: 3220 35bd 5425 213d be1c d3bc 1975 adbb
000000b0: 45e4 3ebd 8fb9 efbb fc61 be3d 662f 6abd
000000c0: a107 acbc ac84 083d 769e 02bd 25d3 a8bd
000000d0: f7e0 f7bb 2f4b 9abd afc5 c4bd 9ce2 993d
000000e0: 7394 f2bd 1fc6 26be 0425 06be d290 673d
000000f0: b81f 1fbd d50f b13d f30d 48bd b691 223e
00000100: 71f9 29be f703 0ebe 38bb 1d3e 3103 673c
00000110: 70aa 2d3e 2e81 863d 83ed d6bd a33c 48bd
00000120: f022 363e b603 b63c 5484 f53c 883a b63d
00000130: abae e83c 815c 893c 1714 30be 913f bfbc
00000140: 2a0c babc 312d 003e ed7c a03d ed5d 46be
00000150: eb15 13be 2be9 943d 2160 30be ee4d dd3d
00000160: 664a b0bd 1a3a e7bc 0a80 da3d 7042 57bd
00000170: d5b5 0abe 3ec0 24be 1867 823c 49bc 483d
00000180: 16bf 89bc e990 af3c 8700 03be 0e53 413e
00000190: 8758 eb3d ddb7 f5bb a85e 4b3e 8a8f 293e
000001a0: 381e 0dbe 36a7 cb3d 6907 403e 624e 2d3e
000001b0: b904 593d cb2e c43c 2eb6 7f3d d567 793d
000001c0: b074 133e ea36 9dbd 3501 3a3e 8b1f d4bd
000001d0: ae9f a33d 844d 353e 2688 a93d 9cce 163e
000001e0: 2e6a d83d b637 ac3d 0a74 2f3e e570 bfbb
000001f0: b14b c6bb 8309 c23d 1263 cebd bb42 1b3e

weight_ih_l0 f4 [128, 2]
0.078843914 0.02739707 -0.055476665 -0.045845564 0.171284 -0.1522167 -0.025336877 -0.06147859
-0.06634954 -0.2100603 -0.018804058 0.05740722 -0.011745929 -0.040299937 0.002781951 -0.20501532
0.14867477 -0.26490718 0.0404979 0.003329056 0.06016794 0.18287826 -0.03458165 -0.16756634
-0.08955239 0.0053267195 0.1499718 -0.0097120525 -0.10621893 -0.1300506 -0.038443446 0.14350373
-0.07521447 -0.0011468462 0.17428131 0.011151249 0.020555938 -0.070262745 -0.006205235 -0.029242942
0.16629337 -0.21320869 0.034589577 -0.012901582 -0.035950672 0.05027268 -0.16050452 -0.019256447
0.011391663 -0.12825948 -0.066172786 -0.10003678 0.1405211 0.01551509 -0.18226287 -0.013149062
-0.08813884 0.02919915 -0.016151475 -0.10819473 0.13806851 -0.24589011 -0.15677789 -0.20376629
-0.07728838 -0.23470926 0.056232937 -0.2264522 0.10033511 -0.14704747 0.15387999 -0.019650128
0.20568174 -0.2257925 0.0055454774 -0.11873174 -0.107796036 0.03597248 0.12617955 -0.003688354
-0.060196307 -0.21748176 0.11096036 -0.014400875 0.09617914 0.0017358575 -0.12022483 -0.013437496
-0.06380529 0.05907849 0.036114898 -0.08806478 0.05741309 -0.06698273 0.11748583 -0.051228736
0.13606307 -0.036566433 -0.0035883107 -0.2569354 0.00061012624 0.044486377 -0.15880713 -0.06668494
-0.08830217 -0.18106566 0.19877386 -0.13951795 -0.024411194 -0.08194032 -0.11510479 -0.25355574
-0.11371722 -0.13190106 0.0078015183 -0.17203788 0.035752002 -0.11812604 0.0035269572 -0.17788592
0.12323859 -0.18718775 -0.04135619 -0.021437751 0.12165939 -0.20485474 -0.14760847 -0.27105677
0.0932971 0.17641489 -0.077661045 -0.24487337 -0.1301982 0.073424436 -0.19199882 -0.06466552
-0.06963741 -0.11945998 0.12978354 -0.24931528 -0.12358135 -0.018958997 0.09965019 -0.14168735
0.17652786 0.13570437 -0.043869503 0.28401357 0.17662269 0.20119745 -0.07079855 -0.048350137
-0.19504744 -0.21178576 0.16961679 0.1522751 -0.12740342 -0.25173774 -0.16177009 0.21545078
-0.0017580029 0.12390527 -0.17456879 0.16974753 -0.08599571 0.2370306 0.098756775 0.2097943
-0.09520708 -0.12602934 -0.16418281 0.16965804 0.06678353 -0.026296979 0.12788926 -0.015639676
0.13172111 0.162386 0.12424804 0.02449536 -0.12193012 0.17763089 0.14215676 -0.1410878
0.22522104 0.1555332 0.20502736 0.28316182 0.030829519 -0.10463474 -0.19883604 0.06364158
-0.16726519 -0.15061289 0.15684798 0.023879841 0.07587492 -0.27948773 0.15130927 -0.054910477
-0.04827456 -0.26515538 -0.07071803 -0.055564355 -0.066965066 -0.2486714 -0.12170067 -0.23165789
0.009140275 0.0060068504 -0.12079219 -0.21284373 0.24276645 0.12233409 0.08693703 -0.2461811
0.18788454 -0.024931014 0.079740286 0.12526445 0.0815907 0.00856893 -0.13042398 0.17772053
-0.013368701 -0.065775216 -0.07813356 -0.28542504 -0.15279934 -0.2183178 0.13412923 0.09015553
0.059598785 -0.097378634 0.0021837868 -0.09935214 0.18808371 -0.028506072 -0.16252634 -0.22532079
0.13372475 -0.017192418 -0.10700042 -0.2755681 0.13980076 -0.18764694 0.06518347 0.07280384
-0.11204588 -0.06373675 -0.06282602 -0.26008946 0.060367122 -0.10441241 0.027182095 -0.26851997
00000000: eb78 a13d d26f e03c 803b 63bd 8fc8 3bbd
00000010: 1365 2f3e b2de 1bbe 488f cfbc f9d0 7bbd
00000020: 45e2 87bd 0c1a 57be f80a 9abc d523 6b3d
00000030: ff71 40bc 8c11 25bd 6551 363b 89ef 51be
00000040: 333e 183e eaa1 87be 20e1 253d 4b2c 5a3b
00000050: a872 763d 7044 3b3e 7da5 0dbd 8396 2bbe
00000060: 3e67 b7bd c38b ae3b 3592 193e 4d1f 1fbc
00000070: 4f89 d9bd fc2b 05be e076 1dbd a4f2 123e
00000080: 0b0a 9abd c651 96ba cd76 323e bab3 363c
00000090: ed64 a83c eae5 8fbd 4955 cbbb e58e efbc
000000a0: cf48 2a3e 6153 5abe cdad 0d3d 2861 53bc
000000b0: 0341 13bd baea 4d3d 4c5b 24be b2bf 9dbc
000000c0: 19a4 3a3c 7456 03be 9985 87bd 15e0 ccbd
000000d0: c3e4 0f3e 0133 7e3c 1ea3 3abe 2a6f 57bc
000000e0: 2382 b4bd 0e33 ef3c 1950 84bc 3395 ddbd
000000f0: d561 0d3e 9eca 7bbe 628a 20be 1ca8 50be
00000100: 5f49 9ebd a057 70be 8254 663d 16e3 67be
00000110: 7f7c cd3d 9d93 16be b792 1d3e 4ef9 a0bc
00000120: 3c9e 523e 2636 67be d6b6 b53b a029 f3bd
00000130: 2bc4 dcbd e157 133d 3635 013e 50b8 71bb
00000140: 6790 76bd 8ab3 5ebe 2f3f e33d a6f1 6bbc
00000150: 92f9 c43d b685 e33a 7038 f6bd f128 5cbc
00000160: 59ac 82bd 49fc 713d 37ed 133d 4f5b b4bd
00000170: fd29 6b3d 3e2e 89bd 699c f03d 39d5 51bd
00000180: 1e54 0b3e afc6 15bd dd29 6bbb 098d 83be
00000190: e1f0 1f3a 5937 363d 569e 22be 1d92 88bd
000001a0: c5d7 b4bd 4769 39be 608b 4b3e cbdd 0ebe
000001b0: fcf9 c7bc 54d0 a7bd 0fbc ebbd 0fd2 81be
000001c0: 93e4 e8bd 1211 07be e1a3 ff3b b32a 30be
000001d0: b170 123d 11ec f1bd 8624 673b ba27 36be
000001e0: 8464 fc3d 25ae 3fbe 1c65 29bd 399e afbc
000001f0: 8f28 f93d 71c5 51be ad26 17be f4c7 8abe
00000200: 8d12 bf3d 1ba6 343e c10c 9fbd 16c0 7abe
00000210: ad52 05be 8d5f 963d 579b 44be 5b6f 84bd
00000220: 0f9e 8ebd 6fa7 f4bd fae5 043e 814c 7fbe
00000230: 3818 fdbd e64f 9bbc 6615 cc3d 7d16 11be
00000240: b8c3 343e 16f6 0a3e 82b0 33bd 3a6a 913e
00000250: 94dc 343e b406 4e3e d5fe 90bd cb0a 46bd
00000260: 84ba 47be 5ede 58be 06b0 2d3e 01ee 1b3e
00000270: 0b76 02be c5e3 80be 0fa7 25be 219f 5c3e
00000280: ca6c e6ba 0cc2 fd3d 29c2 32be 4cd2 2d3e
00000290: 851e b0bd 26b8 723e fe40 ca3d 51d4 563e
000002a0: eefb c2bd d60d 01be 8a1f 28be d6ba 2d3e
000002b0: cec5 883d c36c d7bc 67f5 023e c71e 80bc
000002c0: e6e1 063e 8448 263e c275 fe3d 7eaa c83c
000002d0: 80b6 f9bd dfe4 353e 8b91 113e 5279 10be
000002e0: 58a0 663e 1844 1f3e b1f2 513e 96fa 903e
000002f0: 308e fc3c bd4a d6bd ad9b 4bbe 8456 823d
00000300: 9147 2bbe 443a 1abe c29c 203e a89f c33c
00000310: 4f64 9b3d 0419 8fbe d1f0 1a3e cfe9 60bd
00000320: 8cbb 45bd 72c2 87be 9dd4 90bd 7397 63bd
00000330: fb24 89bd b7a3 7ebe 333e f9bd ba37 6dbe
00000340: 18c1 153c 1dd5 c43b e561 f7bd b5f3 59be
00000350: c597 783e 4c8a fa3d 0b0c b23d e616 7cbe
00000360: ce64 403e 203c ccbc e04e a33d 5345 003e
00000370: 0619 a73d b364 0c3c dd8d 05be 5ffc 353e
00000380: 6508 5bbc 28b5 86bd 7d04 a0bd 3b23 92be
00000390: 6e77 1cbe b48e 5fbe 2c59 093e 76a3 b83d
000003a0: db1d 743d 736e c7bd dd1d 0f3b 2379 cbbd
000003b0: 0499 403e 9185 e9bc 4e6d 26be 7eba 66be
000003c0: 24ef 083e 1dd7 8cbc 0923 dbbd 4317 8dbe
000003d0: ee27 0f3e 8526 40be e97e 853d 2e1a 953d
000003e0: 4f78 e5bd 6a88 82bd eeaa 80bd 722a 85be
000003f0: 8443 773d 2cd6 d5bd fcac de3c 737b 89be

weight_hh_l0 f4 [128, 32]
-0.106958844 0.05767384 -0.18568829 0.085184984 0.018925678 0.15328585 -0.097133175 -0.06976406
-0.11677656 -0.04290336 0.17367174 0.09393865 0.20247124 0.030221744 -0.050336573 -0.050383657
0.09353095 -0.11834606 0.0055774082 0.081023455 0.06252839 -0.12914065 -0.15410079 0.038098834
-0.18412212 0.19999534 -0.21237451 0.21536441 0.042573553 -0.2252205 -0.036652334 0.109961465
-0.088283405 -0.066956535 -0.06468514 -0.08408863 0.07062057 0.15231395 -0.19761677 -0.032593716
-0.0667568 0.07154324 -0.09978898 -0.042842172 0.2112055 0.12874012 0.07614724 -0.026836421
0.028608697 -0.10601571 0.04143739 0.11386385 0.18716891 -0.22625695 0.09411331 0.20128435
0.021518353 -0.03247506 -0.08963703 -0.047359876 -0.06767252 0.05376769 0.005565253 -0.07342148
-0.089689665 0.05880518 -0.01930782 -0.0509212 -0.1230327 -0.0012036258 -0.13470973 -0.018252295
-0.1395962 -0.18650769 -0.13263354 -0.018020362 0.076375484 0.15135597 0.063359514 -0.0048604575
0.040464915 -0.0051303674 -0.19309379 -0.22629587 -0.058783233 -0.0812259 -0.1501545 0.16421705
-0.100913346 -0.061758526 -0.16892985 -0.036475692 -0.16073562 0.10124437 0.095106006 -0.17477785
0.12968916 0.02515532 0.030607468 -0.05219524 0.0171414 0.14587967 0.11293277 0.11482772
0.13369212 0.116560444 0.0010238027 0.01788059 0.04147668 -0.084198795 -0.018714016 -0.21856025
-0.20393597 -0.1258957 -0.11490285 -0.21732609 0.0051093646 0.073103376 -0.055611346 -0.06336756
-0.038971156 0.13616982 -0.13157369 -0.030671733 -0.03510576 -0.05010875 0.21176806 -0.20318401
-0.0469148 0.13013545 -0.031922214 0.07616502 0.12072767 0.23861279 0.11853386 -0.07248344
0.01980819 0.10711865 -0.12014763 -0.005748518 0.084347814 0.08564299 0.14083633 0.018213784
-0.20164426 0.0020166012 -0.020870892 -0.05726069 0.14858216 0.10354768 0.0982659 -0.11793443
-0.17743278 0.014523631 -0.19794469 0.07804232 -0.018650249 0.12353551 0.11943803 -0.04411489
-0.019259647 -0.095017105 -0.17272758 -0.13980912 -0.04208799 0.22026317 -0.16453621 0.19440503
0.052659445 -0.18922085 -0.088255666 0.14410722 0.12586288 -0.09385438 0.08160188 -0.098815575
-0.13260692 0.08527493 -0.0922104 0.115798004 -0.12668674 -0.061990768 -0.19039549 0.07043447
0.12201092 0.16765669 0.10163783 -0.038573157 0.016308172 -0.17773876 0.20581892 -0.087589264
0.07012133 0.036682334 -0.021778287 -0.053807523 0.21293694 -0.09675113 -0.20294245 0.073753566
-0.16477929 -0.0865634 0.03897594 0.13882801 0.12285257 0.13321911 -0.07253385 -0.21173434
-0.07834133 -0.044151574 0.08313986 -0.1303047 0.21002659 0.088353835 -0.18685478 0.14220251
-0.068816826 0.111829095 -0.14258914 0.0995702 0.021580476 -0.14525212 -0.06364987 -0.0629682
0.068336606 0.1724044 -0.021193828 0.03962629 0.13279961 -0.08602928 0.032668985 0.10750356
-0.06501783 -0.21334213 -0.118113615 0.22354618 0.21582285 -0.113723874 0.14963229 -0.054873593
0.05281652 -0.10035472 -0.236779 0.05388533 0.005531744 -0.058386028 -0.15454134 -0.09576583
0.010979272 -0.10060983 -0.002368862 0.17206767 -0.06721496 0.060565967 0.12576765 -0.010394111
00000000: 3d0d dbbd 683b 6c3d 1225 3ebe 7775 ae3d
00000010: 060a 9b3c f7f6 1c3e c2ed c6bd 76e0 8ebd
00000020: 8d28 efbd 6fbb 2fbd 01d7 313e e862 c03d
00000030: 9f54 4f3e 9793 f73c b92d 4ebd 185f 4ebd
00000040: 288d bf3d 6b5f f2bd b1c2 b63b a0ef a53d
00000050: e20e 803d 723d 04be 99cc 1dbe 860d 1c3d
00000060: 828a 3cbe 94cb 4c3e b478 59be 7d88 5c3e
00000070: 9b61 2e3d 34a0 66be c220 16bd 7a33 e13d
00000080: eecd b4bd 8220 89bd a579 84bd a936 acbd
00000090: 84a1 903d 30f8 1b3e 0d5c 4abe fd80 05bd
000000a0: cab7 88bd 4385 923d 2a5e ccbd 467b 2fbd
000000b0: 4146 583e 73d4 033e 16f3 9b3d 0ed8 dbbc
000000c0: c95c ea3c c41e d9bd 41ba 293d 7331 e93d
000000d0: 35a9 3f3e e7af 67be 7bbe c03d 7c1d 4e3e
000000e0: 4247 b03c 9204 05bd 9f93 b7bd 6efc 41bd
000000f0: e497 8abd 823b 5c3d ba5c b63b 005e 96bd
00000100: 37af b7bd b3dd 703d 6f2b 9ebc c092 50bd
00000110: 91f8 fbbd fbc2 9dba 59f1 09be d685 95bc
00000120: 4ef2 0ebe dffb 3ebe 16d1 07be 709f 93bc
00000130: c06a 9c3d 0ffd 1a3e a2c2 813d 7944 9fbb
00000140: 8abe 253d a41c a8bb 61ba 45be 1bba 67be
00000150: b0c6 70bd c459 a6bd 1ac2 19be 8428 283e
00000160: a8ab cebd 82f6 7cbd f2fb 2cbe 8967 15bd
00000170: e197 24be 3559 cf3d f0c6 c23d f7f8 32be
00000180: 3ccd 043e 8812 ce3c 83bc fa3c adca 55bd
00000190: 1f6c 8c3c 7b61 153e 4c49 e73d cc2a eb3d
000001a0: 96e6 083e 3eb7 ee3d 1e31 863a 517a 923c
000001b0: 74e3 293d 6b70 acbd 234e 99bc 42ce 5fbe
000001c0: 97d4 50be cdea 00be 2f52 ebbd bb8a 5ebe
000001d0: 756c a73b 39b7 953d b9c8 63bd dac6 81bd
000001e0: 38a0 1fbd 1a70 0b3e 41bb 06be 4943 fbbc
000001f0: 0fcb 0fbd d53e 4dbd bad9 583e 780f 50be
00000200: bc29 40bd 3a42 053e dec0 02bd 68fc 9b3d
00000210: 1240 f73d e956 743e e1c1 f23d 3372 94bd
00000220: c944 a23c 0661 db3d f60f f6bd 105e bcbb
00000230: 8cbe ac3d 9865 af3d 6637 103e 1335 953c
00000240: d57b 4ebe f428 043b 6ff9 aabc 2f8a 6abd
00000250: ec25 183e ce10 d43d a23f c93d 9b87 f1bd
00000260: f0b0 35be 86f4 6d3c 03b2 4abe a7d4 9f3d
00000270: 68c8 98bc 2f00 fd3d ed9b f43d d1b1 34bd
00000280: 68c6 9dbc 5498 c2bd 80df 30be 1f2a 0fbe
00000290: 7564 2cbd ab8c 613e 2e7c 28be 1d12 473e
000002a0: 6eb1 573d 1cc3 41be 63bf b4bd d890 133e
000002b0: 33e2 003e ba36 c0bd e31e a73d d25f cabd
000002c0: 1cca 07be 9fa4 ae3d ced8 bcbd 8127 ed3d
000002d0: 2bba 01be 08ea 7dbd 09f7 42be f33f 903d
000002e0: dce0 f93d 32ae 2b3e 7f27 d03d e3fe 1dbd
000002f0: b798 853c 2601 36be 32c2 523e 0062 b3bd
00000300: c69b 8f3d 3740 163d 6168 b2bc 4765 5cbd
00000310: 240c 5a3e 7525 c6bd 25d0 4fbe 1c0c 973d
00000320: e7bb 28be 2748 b1bd 3ca5 1f3d ee28 0e3e
00000330: 219a fb3d 976a 083e a18c 94bd e3d0 58be
00000340: 6b71 a0bd 48d8 34bd 3b45 aa3d 986e 05be
00000350: 3611 573e dbf2 b43d dc56 3fbe 899d 113e
00000360: d6ef 8cbd a706 e53d e302 12be 76eb cb3d
00000370: 8ac9 b03c f9bc 14be dd5a 82bd 79f5 80bd
00000380: 10f4 8b3d c78a 303e ae9e adbc 2d4f 223d
00000390: 9ffc 073e 1f30 b0bd eacf 053d d42a dc3d
000003a0: 1128 85bd 5c76 5abe 8de5 f1bd 4ae9 643e
000003b0: aa00 5d3e 10e8 e8bd 3539 193e 22c3 60bd
000003c0: 2356 583d c786 cdbd 3276 72be ddb6 5c3d
000003d0: a243 b53b 3026 6fbd 1640 1ebe e020 c4bd
000003e0: 68e2 333c 870c cebd e93e 1bbb 8232 303e
000003f0: ffa7 89bd 0514 783d 3cc9 003e 104c 2abc

bias_ih_l0 f4 [128]
-0.051140875 -0.07898804 0.06441299 0.10273637 -0.00061222946 0.088158295 0.19315057 -0.06749255
0.029595386 0.106379926 -0.15296544 -0.16460618 0.044045806 0.18453263 -0.13798703 0.05196623
0.046920333 0.12395969 0.2177555 -0.020277854 0.18733831 -0.023588292 -0.1404497 -0.09382282
-0.01935542 -0.048061162 0.055009294 0.051676646 0.114980705 0.15816787 0.19499783 0.030760799
0.17768098 -0.11786373 -0.11281329 -0.10904886 -0.036642455 0.049709875 -0.00092061167 0.20446557
0.17689544 0.19480993 0.018069254 0.15162463 -0.03176336 0.14137557 0.036858972 -0.046533044
-0.10138708 0.20678695 0.1874203 0.22336403 0.07801383 0.12679484 -0.09550495 -0.033854775
-0.053095467 0.0737365 0.060861446 0.20800294 -0.1400674 0.098396905 0.012597218 -0.0042163227
-0.10734703 0.058171336 0.06684668 -0.19378649 0.040853035 0.1210867 0.088994496 0.1450445
0.09318152 -0.11171348 0.13375305 0.03867724 0.060638733 0.019335715 0.1172295 -0.07911392
-0.1764859 -0.124328755 0.13305196 -0.08906314 0.0664787 -0.1907364 -0.09950514 0.15349501
-0.12680748 -0.06748552 0.1108345 0.0471863 0.014863372 -0.10310043 -0.026240803 0.039516613
-0.09845039 0.18323682 0.17284831 0.13000284 0.07851718 0.11886607 0.18651895 0.026204212
0.0070348503 0.16127893 0.024021706 -0.15922508 -0.073943734 0.19182062 0.053174805 0.019749425
0.06558492 -0.12476919 0.12632442 0.11513658 -0.05472869 0.14158602 -0.020954408 -0.14311688
0.18751504 0.03477328 0.20173785 -0.12295597 -0.13469456 0.00781153 0.1413543 -0.0261551
00000000: 1879 51bd 7bc4 a1bd f5ea 833d 7267 d23d
00000010: 067e 20ba 568c b43d 43c9 453e 8939 8abd
00000020: 0672 f23c b8dd d93d f9a2 1cbe 868e 28be
00000030: 6069 343d 1ff6 3c3e 794c 0dbe 8bda 543d
00000040: 892f 403d 94de fd3d 4cfb 5e3e be1d a6bc
00000050: 9dd5 3f3e 3c3c c1bc 0cd2 0fbe 2e26 c0bd
00000060: 428f 9ebc c8db 44bd 6d51 613d e4aa 533d
00000070: 017b eb3d c2f6 213e 83ad 473e 12fe fb3c
00000080: 01f2 353e 8a62 f1bd a70a e7bd 0255 dfbd
00000090: 6616 16bd 959c 4b3d 3455 71ba 6c5f 513e
000000a0: 1424 353e 417c 473e f905 943c 7d43 1b3e
000000b0: 4c1a 02bd c2c4 103e 6ff9 163d 6f99 3ebd
000000c0: 08a4 cfbd f5bf 533e 1beb 3f3e 8ab9 643e
000000d0: b7c5 9f3d 82d6 013e 1998 c3bd 4eab 0abd
000000e0: a27a 59bd 2a03 973d da49 793d b9fe 543e
000000f0: d46d 0fbe 5184 c93d 9064 4e3c 1429 8abb
00000100: c2d8 dbbd 1145 6e3d eae6 883d f76f 46be
00000110: 8355 273d 4efc f73d bf42 b63d 8c86 143e
00000120: f4d5 be3d 09ca e4bd 8ff6 083e 076c 1e3d
00000130: 5260 783d ef65 9e3c 0516 f03d 7b06 a2bd
00000140: b8b8 34be 13a0 febd c63e 083e bc66 b6bd
00000150: fc25 883d 6750 43be 5ac9 cbbd cc2d 1d3e
00000160: d2d9 01be d935 8abd 33fd e23d 6c46 413d
00000170: 8085 733c 5126 d3bd f4f6 d6bc 2cdc 213d
00000180: 5ca0 c9bd 6fa2 3b3e 26ff 303e 771f 053e
00000190: 9ecd a03d 0e70 f33d d3fe 3e3e 37aa d63c
000001a0: 9a84 e63b 4e26 253e 2bc9 c43c e60b 23be
000001b0: d06f 97bd a06c 443e d3cd 593d 8cc9 a13c
000001c0: 6351 863d fd86 ffbd 305b 013e bacc eb3d
000001d0: 312b 60bd edfb 103e 94a8 abbc 3b8d 12be
000001e0: f103 403e 6d6e 0e3d 5e94 4e3e 57d0 fbbd
000001f0: 5fed 09be ddf7 ff3b 2ebf 103e 3843 d6bc

bias_hh_l0 f4 [128]
0.17789865 0.18050018 -0.005399332 -0.066194594 0.09342219 0.17583883 -0.05346781 0.036592044
0.10827271 0.178511 0.052091714 0.04414802 0.04458733 0.19381806 0.09129718 0.1030411
-0.0041265883 0.044836946 0.12751323 -0.06523945 0.192403 0.085846245 0.15393452 -0.16729955
-0.12635304 -0.13121945 0.019251075 -0.044498403 0.14082319 0.18237673 0.054182805 0.05973192
0.043473013 0.10315018 0.011111446 -0.00464125 -0.026230365 -0.11715599 -0.124027215 -0.085504696
-0.084748074 0.016114522 -0.0632625 0.04586986 0.11278117 0.15446804 -0.119584985 -0.12045857
-0.03392085 -0.053309727 0.042417236 0.036180515 0.070420325 0.049916152 0.049331885 -0.18142891
-0.028660445 0.118640736 -0.028412336 -0.010952711 0.05838121 -0.09387562 -0.10693949 0.17273596
0.07194132 0.07611349 -0.12186589 -0.16060807 0.114349194 -0.08017556 -0.115204684 0.1443747
-0.16754839 0.1109458 0.0586742 0.14600581 0.021770062 0.0922177 0.09433038 0.027658135
-0.08758563 0.046847247 -0.15015118 0.008985413 0.113444656 -0.14904791 0.03207942 0.08916805
-0.06265392 0.15505114 -0.09336459 0.06332314 -0.13386053 -0.14175709 0.19878668 -0.14004855
0.1659333 0.15920891 0.072253734 -0.13631448 -0.09466323 0.13206191 0.111607455 0.09992925
0.05010821 0.17400435 -0.030748041 -0.1384541 -0.06606256 0.05097856 0.11891832 0.12183062
0.21367784 -0.06638368 -0.095628686 0.10042667 -0.07189616 -0.04854553 0.09990891 0.14366232
0.062450238 0.16060609 -0.009926952 0.062443048 0.14082202 0.07500277 0.06617556 0.03855491
00000000: 102b 363e 0ad5 383e e1ec b0bb 0891 87bd
00000010: 2254 bf3d 180f 343e 1001 5bbd 8ae1 153d
00000020: 15be dd3d 96cb 363e 1f5e 553d 8ed4 343d
00000030: 34a1 363d 3e78 463e 04fa ba3d 3607 d33d
00000040: 5538 87bb f2a6 373d d492 023e 439c 85bd
00000050: 4b05 453e 28d0 af3d 03a1 1d3e 9350 2bbe
00000060: b162 01be 645e 06be 6eb4 9d3c f543 36bd
00000070: f433 103e f7c0 3a3e caee 5d3d 75a9 743d
00000080: c210 323d 6740 d33d c80c 363c a015 98bb
00000090: 10e1 d6bc 7bef efbd fb01 febd 161d afbd
000000a0: 6690 adbd 9a02 843c c58f 81bd 09e2 3b3d
000000b0: d0f9 e63d df2c 1e3e f9e8 f4bd fcb2 f6bd
000000c0: 97f0 0abd 4d5b 5abd b2bd 2d3d 0532 143d
000000d0: 8838 903d e174 4c3d 3b10 4a3d 80c8 39be
000000e0: 4fc9 eabc eaf9 f23d fdc0 e8bc 0073 33bc
000000f0: 2321 6f3d dc41 c0bd 1703 dbbd b2e1 303e
00000100: f955 933d 64e1 9b3d d394 f9bd 7176 24be
00000110: e92f ea3d 1633 a4bd 6ff0 ebbd f6d6 133e
00000120: ce91 2bbe 8d37 e33d 5c54 703d 8c82 153e
00000130: 2157 b23c a2dc bc3d 4930 c13d 5093 e23c
00000140: 1860 b3bd e6e2 3f3d 3bc1 19be 8e37 133c
00000150: ac55 e83d 04a0 18be b665 033d bd9d b63d
00000160: b350 80bd bac5 1e3e ef35 bfbd 90af 813d
00000170: bc12 09be c528 11be bc8e 4b3e e368 0fbe
00000180: 6bea 293e a907 233e c4f9 933d 0696 0bbe
00000190: ccde c1bd 3d3b 073e 7392 e43d b5a7 cc3d
000001a0: 443e 4d3d 322e 323e 51e3 fbbc e9c6 0dbe
000001b0: cf4b 87bd e5ce 503d 738b f33d 5582 f93d
000001c0: 5dce 5a3e 2bf4 87bd f9d8 c3bd 7fac cd3d
000001d0: 4b3e 93bd add7 46bd 0b9d cc3d 371c 133e
000001e0: d2cb 7f3d ec75 243e a8a4 22bc 48c4 7f3d
000001f0: a633 103e 0d9b 993d 0d87 873d c1eb 1d3d

weight_ih_l0_reverse f4 [128, 2]
0.05531356 -0.20841932 0.14131273 -0.08674716 -0.008863287 -0.12981099 0.18461284 -0.168468
0.037348725 -0.05815676 -0.11303936 -0.26318336 0.11870196 0.058414657 -0.06693818 -0.28423002
0.15956645 -0.293767 -0.13269667 0.06776058 -0.14646123 0.018973922 0.16597742 -0.2289895
-0.20818055 -0.054481667 -0.15790504 -0.27986434 0.16794994 0.03153934 0.05871636 -0.04049659
-0.09101451 -0.12845719 -0.043236777 -0.20744623 -0.14998673 -0.036606517 -0.0808619 -0.0013405196
-0.14083773 0.06960908 -0.12398022 -0.07130903 -0.1098492 0.023952875 0.16735788 -0.07447628
-0.08298553 -0.025874581 -0.17433105 -0.098693624 0.09525373 -0.0020972916 -0.040541653 -0.040261142
0.019028926 -0.07428381 -0.021905163 -0.033157006 0.14308055 -0.24423265 -0.110415265 -0.1384006
-0.09844227 0.036583275 0.18968172 -0.21453838 0.0019139473 -0.037602432 0.04169281 -0.19345337
0.0105351005 -0.00542872 0.13996783 -0.03893896 -0.10960211 0.11841935 -0.014520438 -0.07176216
0.20401603 -0.12593791 -0.020104412 -0.12325854 0.17908336 -0.19992806 0.12695584 -0.2189256
-0.1905181 0.049496703 -0.03346098 -0.24287955 0.10409711 -0.110507414 -0.01767773 -0.08093391
0.048610028 -0.1635912 -0.05397883 -0.06317076 -0.13714378 -0.04979297 -0.13018662 -0.037616383
0.0009406083 0.084245466 -0.013682168 -0.11167528 0.13378745 -0.2404633 -0.16461287 -0.09157779
0.027198806 -0.21307918 -0.014659092 -0.24668844 0.13465625 -0.068236865 0.10726613 -0.2768255
-0.10695469 0.057565033 0.13473618 -0.023045344 0.17512317 -0.17544486 0.025886346 -0.23144694
-0.12545402 -0.14674394 0.18418491 0.2524422 0.039932918 -0.13915572 -0.13691857 -0.17122956
0.062542714 0.23709883 0.06281525 0.15346496 0.013612974 -0.1913365 -0.1737603 0.22220242
-0.16120277 -0.016589751 -0.11025744 0.22954659 0.16754596 -0.16777001 0.19173555 -0.11297761
0.16595344 -0.11969682 0.18307261 -0.030849295 -0.1196892 -0.0030319924 0.013764426 0.19091034
0.051066812 0.11450988 0.026488958 0.31009284 0.05242505 0.002640942 -0.20399788 -0.15224329
-0.2512764 -0.12033318 0.21888898 -0.14400731 -0.19932982 0.15381208 0.13308011 0.22022028
-0.073862635 0.25264576 0.12919381 -0.014322999 -0.14497562 0.1031332 0.11745834 -0.24582888
-0.23822498 0.21150115 0.1461052 0.09772915 0.14638923 -0.24761863 0.19098613 0.028764801
0.14670062 -0.11873487 0.17807911 -0.03432052 -0.026139688 -0.23207071 -0.06848275 -0.2322067
-0.070828445 0.09946394 -0.117241405 -0.13677572 -0.19031754 -0.0042163553 0.09765099 -0.26188546
-0.05514044 -0.1492059 -0.034089886 -0.16683216 0.104370154 -0.21112384 0.12948762 -0.21792245
0.0677506 -0.06893105 -0.072373845 -0.14263403 0.17601007 -0.070310175 -0.08477356 -0.23333025
0.1505641 0.0034702225 -0.038013272 -0.25748456 -0.13062184 -0.11448467 -0.21715707 0.054128215
-0.08785613 -0.19557656 -0.090902425 0.036027286 -0.0875759 -0.21601568 -0.0754914 -0.09840346
0.044956382 0.03899543 0.13106857 -0.19431965 -0.18205278 0.04680089 0.10942634 0.048789825
0.17116989 -0.120357454 0.02590611 -0.26839396 0.050148766 -0.14861429 -0.15529972 -0.1843243
00000000: 7990 623d e06b 55be 49b4 103e 7fa8 b1bd
00000010: 5237 11bc 2ced 04be 260b 3d3e e082 2cbe
00000020: fafa 183d c835 6ebd 2e81 e7bd f8bf 86be
00000030: 031a f33d 3544 6f3d e216 89bd 9986 91be
00000040: 6365 233e a168 96be a3e1 07be 0fc6 8a3d
00000050: eff9 15be 336f 9b3c fcf5 293e 397c 6abe
00000060: 482d 55be 2b28 5fbd dcb1 21be 614a 8fbe
00000070: 12fb 2b3e 652f 013d 9180 703d c1df 25bd
00000080: d165 babd 488a 03be 0c19 31bd c96c 54be
00000090: 1f96 19be b7f0 15bd ec9a a5bd 60b4 afba
000000a0: c437 10be 358f 8e3d 57e9 fdbd 780a 92bd
000000b0: 9ef8 e0bd d238 c43c dd5f 2b3e 0587 98bd
000000c0: 51f4 a9bd eef6 d3bc d783 32be e21f cabd
000000d0: 6314 c33d b772 09bb 010f 26bd dee8 24bd
000000e0: 8de2 9b3c 1c22 98bd 7572 b3bc a4cf 07bd
000000f0: b583 123e 2018 7abe 6621 e2bd e3b8 0dbe
00000100: 1a9c c9bd 58d8 153d ed3b 423e f3af 5bbe
00000110: 6add fa3a 0205 1abd 14c6 2a3d a418 46be
00000120: 6a9b 2c3c 67e3 b1bb ba53 0f3e 757e 1fbd
00000130: 1277 e0bd d885 f23d 22e7 6dbc 0af8 92bd
00000140: 94e9 503e def5 00be 02b2 a4bc f96e fcbd
00000150: a161 373e f1b9 4cbe b600 023e 082e 60be
00000160: 2d17 43be 0ebd 4a3d 610e 09bd 6bb5 78be
00000170: de30 d53d b651 e2bd e3d0 90bc aec0 a5bd
00000180: 4f1b 473d 7484 27be e818 5dbd ac5f 81bd
00000190: 6b6f 0cbe b7f3 4bbd a44f 05be a313 1abd
000001a0: 2893 763a e388 ac3d 2c2b 60bc 02b6 e4bd
000001b0: 94ff 083e 033c 76be 4790 28be 238d bbbd
000001c0: 08d0 de3c 6e31 5abe b02c 70bc e59b 7cbe
000001d0: 54e3 093e c5bf 8bbd 58ae db3d 12bc 8dbe
000001e0: 0f0b dbbd 50c9 6b3d 48f8 093e 97c9 bcbc
000001f0: 7d53 333e d1a7 33be 9a0f d43c 6d00 6dbe
00000200: 0577 00be 0b44 16be f89a 3c3e 1b40 813e
00000210: b390 233d d67e 0ebe 6234 0cbe cd56 2fbe
00000220: 6516 803d 09ca 723e 48a5 803d eb25 1d3e
00000230: f408 5f3c b7ed 43be 38ee 31be 0889 633e
00000240: 5712 25be 3be7 87bc a7ce e1bd 430e 6b3e
00000250: 2b91 2b3e e7cb 2bbe 5356 443e ce60 e7bd
00000260: b3ef 293e 9b23 f5bd 6377 3b3e a9b7 fcbc
00000270: 9c1f f5bd 64b4 46bb 3084 613c 007e 433e
00000280: 6f2b 513d 2884 ea3d 5fff d83c 7dc4 9e3e
00000290: a6bb 563d a813 2d3b d2e4 50be aae5 1bbe
000002a0: 4da7 80be 3e71 f6bd 6f24 603e a776 13be
000002b0: 1e1d 4cbe ea80 1d3e 2746 083e 6d81 613e
000002c0: 4b45 97bd c95a 813e 624b 043e 03ab 6abc
000002d0: 7d74 14be 8037 d33d 008e f03d 91ba 7bbe
000002e0: 40f1 73be c293 583e 9a9c 153e 3826 c83d
000002f0: 0fe7 153e bd8f 7dbe de91 433e 29a4 eb3c
00000300: b038 163e 442b f3bd 5f5a 363e ac93 0cbd
00000310: e622 d6bc f2a3 6dbe af40 8cbd 98c7 6dbe
00000320: 810e 91bd c0b3 cb3d 431c f0bd ef0e 0cbe
00000330: 9ae2 42be 5a29 8abb 3efd c73d da15 86be
00000340: f1da 61bd 6ec9 18be d6a1 0bbd 0dd6 2abe
00000350: 05c0 d53d d930 58be 6798 043e 1027 5fbe
00000360: d4c0 8a3d b92b 8dbd bd38 94bd a80e 12be
00000370: fc3b 343e c8fe 8fbd c39d adbd 20ee 6ebe
00000380: 7a2d 1a3e ac6c 633b ceb3 1bbd 04d5 83be
00000390: bbc1 05be f076 eabd 6c5e 5ebe 8cb5 5d3d
000003a0: eaed b3bd 3945 48be 0d2b babd 5991 133d
000003b0: fe5a b3bd 3733 5dbe 3c9b 9abd c187 c9bd
000003c0: 2f24 383d acb9 1f3d d736 063e bbfb 46be
000003d0: 0b6c 3abe 4ab2 3f3d eb1a e03d d7d7 473d
000003e0: 2947 2f3e f87d f6bd 0d39 d43c ef6a 89be
000003f0: cb68 4d3d 582e 18be e406 1fbe 82bf 3cbe

weight_hh_l0_reverse f4 [128, 32]
-0.0061633126 0.05328565 -0.013179754 0.060512915 0.03662051 0.07297458 0.06983415 0.012954885
-0.037704237 0.04370823 0.049242165 -0.040462 0.0076780277 0.12860182 -0.11872751 0.011112349
-0.016791789 0.06968008 0.019650841 -0.025636682 0.020113112 0.13704418 0.017924104 -0.03227062
-0.12198163 0.17650329 -0.19104129 -0.12022788 -0.005304631 0.084876455 -0.12755619 0.027670728
-0.011996315 0.07089589 0.030512877 0.22855468 -0.16981749 -0.10757145 0.17585428 -0.120608434
-0.055868126 0.06685001 0.003936323 -0.07798532 0.04724681 -0.0968207 0.056593608 -0.067549944
-0.13651396 -0.118323036 0.07765616 0.029049454 0.052788176 0.09561581 -0.052306693 -0.18244974
-0.08327746 -0.018438773 -0.08215058 -0.052331623 -0.0043983795 -0.14816366 0.096812986 0.09762845
0.11383177 -0.2052331 -0.074629314 -0.039058413 0.06516499 0.08805239 0.14361909 -0.2045187
-0.008964738 -0.005953575 0.030769493 0.116827086 0.17698315 0.017005606 0.055304877 -0.021657543
-0.22419891 -0.08619894 -0.0989905 0.0451936 0.0018694927 -0.074911915 0.024575323 -0.18491516
-0.14737916 0.20325945 -0.021035498 0.047473885 0.016210392 0.11087068 -0.024139969 -0.22277771
0.018516643 -0.17852409 -0.1288168 -0.03008238 -0.12022057 -0.044632927 0.16605446 0.080383115
-0.06817386 -0.084270865 -0.0668162 0.1599353 0.08533953 0.002495016 0.07852045 0.10406604
-0.110699534 0.07873283 -0.08805423 0.0005611776 -0.01795992 0.14484955 -0.1986198 0.03794778
-0.18263246 0.097313814 0.026285714 0.012091284 0.057301275 -0.18443914 0.022973537 -0.04504094
0.16675158 -0.094756305 -0.12259564 0.07121602 -0.20340739 0.021594135 0.10912794 -0.020794068
0.10771126 -0.13548398 -0.06355029 0.009236026 -0.083452925 0.12573068 -0.018129224 -0.12196121
-0.11143162 0.0338121 0.075059764 -0.08208881 0.017200105 0.030344307 -0.09693279 0.12186696
-0.11329221 0.22389351 -0.1477571 0.17864953 -0.01848451 0.116520144 -0.0969982 -0.11175306
0.042277947 -0.11913779 0.07408133 0.018079337 0.08402147 0.10992242 -0.066507764 -0.15306096
-0.20608151 -0.111062795 0.044368606 -0.111918725 -0.1047947 0.11539374 -0.04285583 -0.045796316
-0.011858103 -0.21759842 -0.20721997 -0.08732492 0.12999453 0.06875634 -0.18149495 0.07026315
0.09899286 -0.038916104 -0.103420265 -0.055451877 -0.2072346 0.05889334 0.16068159 -0.10996913
0.22484337 0.04950421 0.07011864 -0.06439037 -0.15182796 -0.24393785 0.18618815 -0.12998976
-0.12251903 -0.18030232 0.09943443 0.22647107 -0.04943241 0.038053475 -0.073520735 0.040448382
-0.13533181 0.011259161 -0.049869884 0.15022841 0.16799222 0.23556472 0.07892809 -0.07891564
-0.13107862 0.08680197 -0.0033239473 -0.072053045 -0.14118938 -0.17294951 0.008312795 0.030645331
0.20697917 -0.2399736 0.18386783 -0.10941157 -0.033752434 -0.053862114 -0.032660387 -0.21447067
-0.061082646 -0.09264278 0.1762739 -0.018061094 -0.069969766 0.088492766 0.10837495 -0.20756178
0.047967095 -0.036549058 -0.20609815 -0.028587691 0.024032349 -0.05642921 -0.0061750314 -0.01964474
0.11978505 0.14683044 0.13446835 0.023242231 -0.074277714 -0.08234239 -0.015583516 -0.028390342
00000000: 9df5 c9bb 0e42 5a3d e5ef 57bc 64dc 773d
00000010: 63ff 153d b273 953d 3505 8f3d ba40 543c
00000020: c26f 1abd 6707 333d 27b2 493d 7bbb 25bd
00000030: f797 fb3b 32b0 033e 6927 f3bd 9210 363c
00000040: ef8e 89bc 6eb4 8e3d cdfa a03c 0504 d2bc
00000050: 41c4 a43c 4f55 0c3e 92d5 923c 332e 04bd
00000060: 81d1 f9bd 47bd 343e 54a0 43be 093a f6bd
00000070: 78d2 adbb b5d3 ad3d 179e 02be b9ad e23c
00000080: 318c 44bc dd31 913d 24f6 f93c 3d0a 6a3e
00000090: a3e4 2dbe 6c4e dcbd 2513 343e 8e01 f7bd
000000a0: fad5 64bd a8e8 883d 45fc 803b c4b6 9fbd
000000b0: df85 413d ee49 c6bd b3ce 673d a057 8abd
000000c0: 51ca 0bbe 5953 f2bd 310a 9f3d 1ff9 ed3c
000000d0: 6a38 583d 39d2 c33d 8b3f 56bd 1bd4 3abe
000000e0: 5f8d aabd e90c 97bc 903e a8bd af59 56bd
000000f0: 4820 90bb 37b8 17be e345 c63d 6df1 c73d
00000100: a220 e93d a028 52be 41d7 98bd b7fb 1fbd
00000110: 3975 853d d054 b43d e210 133e 5a6d 51be
00000120: d6e0 12bc 3516 c3bb 4e10 fc3c 0a43 ef3d
00000130: 123b 353e 574f 8b3c 5e87 623d 296b b1bc
00000140: 6694 65be 1289 b0bd 88bb cabd ed1c 393d
00000150: c409 f53a 6b6b 99bd 3052 c93c 665a 3dbe
00000160: 90ea 16be 3f23 503e a352 acbc fa73 423d
00000170: a8cb 843c 2b10 e33d 2fc1 c5bc d71f 64be
00000180: 37b0 973c 05cf 36be 8de8 03be 536f f6bc
00000190: 3436 f6bd 04d1 36bd 2e0a 2a3e e79f a43d
000001a0: bd9e 8bbd 3496 acbd efd6 88bd 14c6 233e
000001b0: 7ec6 ae3d 6c83 233b 54cf a03d 9320 d53d
000001c0: 70b6 e2bd ae3e a13d c755 b4bd fe1b 133a
000001d0: af20 93bc 7153 143e fd62 4bbe 226f 1b3d
000001e0: 0104 3bbe 774c c73d 2355 d73c 851a 463c
000001f0: beb4 6a3d 9ddd 3cbe 0033 bc3c d97c 38bd
00000200: edc0 2a3e 980f c2bd 6c13 fbbd b4d9 913d
00000210: 074a 50be 2fe6 b03c 787e df3d 5258 aabc
00000220: b997 dc3d 50bc 0abe a826 82bd b352 173c
00000230: 5ee9 aabd 8bbf 003e bd83 94bc cdc6 f9bd
00000240: 4336 e4bd 8e7e 0a3d efb8 993d 2e1e a8bd
00000250: 3ce7 8c3c a094 f83c b384 c6bd 6295 f93d
00000260: bf05 e8bd 5744 653e a34d 17be e7ef 363e
00000270: d46c 97bc 1da2 ee3d fea6 c6bd cade e4bd
00000280: a42b 2d3d 83fe f3bd f4b7 973d 1e1b 943c
00000290: 7313 ac3d 011f e13d 3935 88bd 03bc 1cbe
000002a0: 0807 53be e474 e3bd dbbb 353d a535 e5bd
000002b0: 9b9e d6bd 8e53 ec3d 9889 2fbd eb94 3bbd
000002c0: 7d48 42bc 1fd2 5ebe 7931 54be 68d7 b2bd
000002d0: 491d 053e 20d0 8c3d d0d9 39be 20e6 8f3d
000002e0: c5bc ca3d 7e66 1fbd 01ce d3bd 8221 63bd
000002f0: 4f35 54be 253a 713d b789 243e 7f37 e1bd
00000300: 573d 663e edc4 4a3d 5d9a 8f3d 19df 83bd
00000310: ca78 1bbe d8ca 79be 1ba8 3e3e 091c 05be
00000320: 42eb fabd 2ca1 38be 47a4 cb3d 08e8 673e
00000330: a479 4abd f6dd 1b3d 0a92 96bd 34ad 253d
00000340: 6c94 0abe 5878 383c 5d44 4cbd 7ad5 193e
00000350: 2706 2c3e e137 713e 0da5 a13d 869e a1bd
00000360: 7939 06be 3bc5 b13d 95d6 59bb 8c90 93bd
00000370: f393 10be ad19 31be 6432 083c eb0b fb3c
00000380: 59f2 533e a4bb 75be d947 3c3e 2c13 e0bd
00000390: fe3f 0abd 859e 5cbd e6c6 05bd 339e 5bbe
000003a0: cc31 7abd 7fbb bdbd 2581 343e dcf4 93bc
000003b0: 4f4c 8fbd b23b b53d b0f3 dd3d 138b 54be
000003c0: 2579 443d 77b4 15bd 650b 53be bc30 eabc
000003d0: 7ddf c43c 5122 67bd eb57 cabb 01ee a0bc
000003e0: dd51 f53d b85a 163e 12b2 093e 7e66 be3c
000003f0: ea1e 98bd 21a3 a8bd 0152 7fbc dd92 e8bc
