sgan-dataset/logs/eth/models_03_Mar_2019_00_23_46/model_registrar-1899.pt (torch_old, 575429 bytes, 45 tensors)

weight_ih_l0 f4 [128, 6]
00000000: 767b 43be b0b9 78bd e099 b03d 3f14 ca3e
00000010: 00a5 a33b 3b62 d5bc 9756 cebe b6e0 a0be
00000020: 0dbc 34be 01d5 0ebe 0c49 bc3d facc 2abe
00000030: f563 1fbe 2276 03be 66d6 d2bd 96da 6fbd
00000040: 1494 3ebe 0d84 5f3e 0733 9ebe 9698 bebd
00000050: 33a9 613e 0a83 afbe 172b 34be 8c9e f43e
00000060: 8e3b c1bd 405f 193d 56a3 36be 3783 093e
00000070: a2b7 883d ff8c 57be e6fc 293e 41a3 b73d
00000080: feaa f23d 6640 17be 0651 663e 2acc 2fbd
00000090: 2257 29be cf07 8bbd 1c22 92be 964e bebc
000000a0: 4542 c2bc 1ab7 15be 2d1e c53c 8a97 593e
000000b0: d1cf debe b00d d5bb 2627 acbe 71b0 36bc
000000c0: ffa0 183e 0982 d23d ffb5 d63d c8f3 903d
000000d0: 368a f3bc 2a1b 813d 744b 1bbe 2dde 63be
000000e0: eef0 debd d786 543e 51cf b7bd 84bc b5be
000000f0: ad0d 2b3d 45b9 243e 766a cebe a54a 89bd
00000100: fe2b 52bd 01ae 23bd 2166 31bd 4362 81bb
00000110: 34c9 3fbe 1194 2d3d f147 183e 3419 0c3e
00000120: 6508 39be 646f 40be 96d6 813c 65db 8c3d
00000130: 7c51 6b3d aaf6 1abe 1738 2ebd 52eb d53d
00000140: 8f51 313e bb84 a7bd c52c 83bd 8397 413c
00000150: d2d7 f0bd e9cc a4bd 7c60 0fbf b540 853e
00000160: 6ac3 bf3d f7bf 083e 2032 f9bd ea73 253e
00000170: e292 9f3d 912c 143f 864e 043c 4133 d0bb
00000180: 02ba 113e 1253 c73d 7c12 2abb 5d2e 6a3c
00000190: 78a2 7c3d 1715 11be 7ecf 76bd dc77 2fbe
000001a0: 891e c63d 54ff 90bd 1932 abbd 5246 b53e
000001b0: 31c2 843d 2970 1dbd 1d33 c63c 7187 4fbe
000001c0: 1cb4 293e f68c c9bd 937c 8abc 910f 0b3d
000001d0: 7d47 81be 9c8c 123e 368a 9f3e c647 e53e
000001e0: 2f55 d8bd 031a 323d 082e b13e a03f a1be
000001f0: 13aa 643e f25d 29be 311a bebd d501 bfbc
00000200: 4637 6f3c bd40 683e a882 cbbe f281 bd3e
00000210: 7af6 1ebd 345b 21be 3099 00be 7d81 4cbd
00000220: f7cf 5c3e 0445 333d 03b3 30bd 0826 d0bd
00000230: ec61 17be cdca 0abc 2766 ea3d 8685 763e
00000240: dd65 b2bd e184 31be 68dd 26be 79f0 26be
00000250: d736 7dbd dc81 11bd 012d 14be aea7 babd
00000260: d0d8 f13d 9b8f f43d 9c86 b23d 025f 2e3e
00000270: 51b3 0fbe ffa4 0c3c 4e8d a33d 6d45 1d3e
00000280: 845f 5d3e 61df c03e ba39 24be 8c5b e43d
00000290: 74f1 e13e 2dc3 fe3d 73fa dbbd adbb 633e
000002a0: fd7e 103e 90ee 1a3e 5880 98bd 1068 11be
000002b0: d69b 823d a4ae bdbc 3935 34be 88b6 19be
000002c0: 5a00 1ebe 361a 29be 84df 563d 0518 753d
000002d0: c7c3 b8bd 9d6e 56bd 8d88 0d3e de3a 8fbe
000002e0: 8dd1 bfbe 00fa 7bbe 8797 90bd ed1d d63d
000002f0: f800 1b3e bc1d 53be 4fae b9bd b89b 68be
00000300: a281 84bd fd00 973d 502c ab3d d085 543d
00000310: 94bd c53e 0bce 13bd 0b80 84bd 2d8b 23bd
00000320: 7788 9fbc b9c7 d3bd f073 5b3a 0a5e c8bc
00000330: c35e 0abe 5221 6cbc 66af 55bd 7b4d 00bd
00000340: 8b45 793d f641 b03d dc34 1cbe f4f7 76bd
00000350: 7ad3 e33d 22eb 9ebe 758f 72bd c465 26be
00000360: dd39 9b3d 22a4 e1bd a427 74bd dcf5 423d
00000370: daf8 4ebe 3131 14be 8002 933d baed 6bbd
00000380: 789d cc3d 8475 b0be cd5a 6bbd 1607 15be
00000390: 5a1f 7d3d ea40 52bc 0704 20be 8a22 93bd
000003a0: aace 1cbe 6232 f03b 5163 803c 995f c5bd
000003b0: efd5 efbe e133 86bd ab74 9fbd f5b2 c83d
000003c0: 6438 bd3d 3307 09bd 5bbd abbd a17b b5bc
000003d0: 9583 8a3d eb31 193e 0ca1 38be dab8 a7bd
000003e0: eb4d 173e f48f 833d a822 f33c 3b5f 0ebe
000003f0: 50fd 1d3e 0ef0 0abe 96eb 83be 7cf5 1b3d
-0.19090065 -0.06072396 0.08623099 0.39468572 0.0049940348 -0.026047817 -0.40300438 -0.3142144
-0.1764986 -0.13948442 0.0919362 -0.16679755 -0.15565474 -0.12838033 -0.102947995 -0.05855807
-0.18611175 0.21827717 -0.30898306 -0.09306447 0.220372 -0.34279662 -0.17594562 0.47777212
-0.09435187 0.037444353 -0.17835745 0.1342896 0.0667565 -0.2104988 0.1660038 0.08966685
0.118490204 -0.1477066 0.22491845 -0.042919315 -0.16537145 -0.06788599 -0.28541648 -0.023230832
-0.02371324 -0.14620629 0.02406224 0.21249214 -0.43517926 -0.006501876 -0.33623618 -0.011150465
0.14905165 0.102787085 0.10483932 0.070777476 -0.02972899 0.06304009 -0.15165502 -0.22252722
-0.108857974 0.20754562 -0.08975089 -0.35495389 0.04176109 0.160863 -0.40315598 -0.067036904
-0.051311485 -0.039960865 -0.04331029 -0.0039484813 -0.18729097 0.042377535 0.14871193 0.13681489
-0.18069609 -0.18792492 0.015849393 0.06877784 0.057450756 -0.15133157 -0.04253396 0.104452744
0.17316268 -0.08179613 -0.064050235 0.011815908 -0.117599145 -0.08046896 -0.560066 0.2602593
0.09363444 0.13354479 -0.12167764 0.16157499 0.077916875 0.578805 0.008075362 -0.006353766
0.14231113 0.09732641 -0.002595096 0.01429328 0.06167838 -0.14168201 -0.060256474 -0.17135566
0.09673793 -0.0707995 -0.08359165 0.35405213 0.064823516 -0.038437042 0.024194295 -0.2026651
0.16572613 -0.09841339 -0.016905105 0.033950392 -0.25249854 0.1431145 0.31160134 0.4478132
-0.105631225 0.043481838 0.34605432 -0.31493855 0.22330503 -0.16539744 -0.09282339 -0.023316303
0.014600581 0.22680946 -0.3974812 0.37013203 -0.038809277 -0.15757447 -0.12558436 -0.049928177
0.21563707 0.04376699 -0.04313947 -0.10163504 -0.14783448 -0.008471203 0.11445265 0.24074373
-0.08710835 -0.17335846 -0.16295397 -0.1630267 -0.061819877 -0.035524234 -0.14470293 -0.091140136
0.11808932 0.11941453 0.08717081 0.1702843 -0.14033248 0.00858426 0.07985936 0.15358515
0.21618468 0.37670425 -0.16037646 0.11150274 0.44129527 0.124395706 -0.10741129 0.22239561
0.14110942 0.15130067 -0.07446355 -0.14199853 0.063773796 -0.023154564 -0.17598428 -0.15011036
-0.15429822 -0.16513905 0.052459255 0.05983736 -0.090217166 -0.052351583 0.13821621 -0.279746
-0.37464562 -0.24607086 -0.070601515 0.10454927 0.15137088 -0.20616812 -0.0906645 -0.22715652
-0.06470038 0.073732354 0.08358061 0.051885426 0.386212 -0.03608517 -0.06469735 -0.03992765
-0.019474251 -0.103408284 0.0008371463 -0.024458904 -0.13512711 -0.014412241 -0.052169226 -0.03132389
0.060857337 0.08606331 -0.15254539 -0.06029506 0.1112432 -0.31038767 -0.059218843 -0.16249758
0.07579396 -0.11017634 -0.059608117 0.04759775 -0.20212117 -0.1447189 0.07178211 -0.05759976
0.09990972 -0.34464657 -0.05745964 -0.14553484 0.061797477 -0.0128328595 -0.15626536 -0.07184322
-0.15313211 0.007330225 0.015672358 -0.096373744 -0.46842906 -0.06552864 -0.077859245 0.09799758
0.09239271 -0.03345413 -0.08385726 -0.022153677 0.067633785 0.14960448 -0.18030185 -0.081895545
0.14775817 0.06423941 0.029679611 -0.13903515 0.15428662 -0.13568136 -0.25765675 0.03807591

weight_hh_l0 f4 [128, 32]
00000000: 013d 1dbe f96c 33be b5d3 adbd f860 f53e
00000010: 1419 11bd 13a5 0a3d b09f 84be 694e 85bd
00000020: bd86 293e 92f4 843e bee3 2f3d 4e35 893e
00000030: ae62 b6bc 3e68 8b3e 9b20 7d3d 4725 793e
00000040: 10c0 173e d70d c9bc 06f2 bb3d 8bde 2fbe
00000050: 8d41 de3c d247 7fbe d9f2 33be a4c0 31bd
00000060: c405 963e 346d 92bc dd0e d63d fb90 093e
00000070: 1ee0 8e3d 6d33 143d 9363 ba3d 32cf 1bbe
00000080: 3ae3 313e a287 4bbe e7f9 353e 39bd 2d3e
00000090: 8bc3 733b b68f 673e c6d3 09be f912 80be
000000a0: 286d 003e 5df0 b3bd 317a 65bb 1995 6cbd
000000b0: de15 57be 13dd e43d 093f 123e f0fd 513e
000000c0: 4e24 0d3e b1ce 493e 094e c0bd cb1e 3abd
000000d0: 3075 3c3e c67f 2bbd e7a3 52be 51c7 3abd
000000e0: 9b81 59bd 5fc1 c3bd 47f5 aebe fe1d 5d3d
000000f0: 455e ffbd c960 13bd b3af 1bbd 0a5e 89bc
00000100: b7d0 0b3e e019 1dbe e9f4 9cbd 32f1 343e
00000110: 3a5f d93c e02b a93d 988d 40be 2258 30be
00000120: d71c 13bd 2ff8 da3d b95d 19be 6205 d23d
00000130: c6ca e2bd a910 e5bd 717e ff3d a724 e8bd
00000140: ac20 aa3d e7ba 4ebd 0cad f53d 72c1 39be
00000150: 0b25 e33d 704b 3e3e be5c 203d 9e8f 293e
00000160: fcda ed3d 5886 a73d a8bf c83d 1bf0 433e
00000170: c77f 0d3e 7179 893d 07b7 d6bd 6cca c13d
00000180: 9864 bd3d ca5c e3ba c591 113e 962c e23d
00000190: ad9b 8bbe 75f0 47bc cb84 56be bb47 5dbe
000001a0: 8e89 12be dce5 20be c1bb 423e 44ee f5bd
000001b0: 05b7 77be 640b 7dbc b81f 31be 0175 1e3e
000001c0: 3d41 ab3d 202c a43e 77ae 24be 964c 40be
000001d0: 1a47 a7bd 7ab5 0b3e 54a6 763d 0b6a dbbd
000001e0: a35e afbe 3c11 b7bc f3c4 a2be 1a31 173e
000001f0: eba9 40be 6f22 b9bd 14d8 133e 3926 0b3e
00000200: 4f70 21be f97f 1abe 1630 1f3e 0c7b d5bd
00000210: 2c4e 113e a4a1 02be 60d0 2bbd ac9a cf3d
00000220: 8c44 2dbe f956 2ebe 7a5a b6bc c243 f1bd
00000230: f0dd 08bd d400 f83d a16c ac3d a4f9 07be
00000240: 1988 04bd c311 f1bd 0dc9 05be 8e67 9b3d
00000250: ea10 923d a064 393e 0df0 833d ec5c dbbd
00000260: 789b 6f3d 6780 edbd 7ac4 3fbe d53e a4bd
00000270: 27b4 333e 0b86 d4bd 6c46 0f3e 6e0b eebd
00000280: 851e 4a3e da3e b8bd 8e6c 683d 4eba ebbe
00000290: a351 87bd f65f 59bd b950 403b fc65 81bd
000002a0: 9bdb 5cbd 25c2 90bc 2edb f13d f2ab 37be
000002b0: 23a6 2fbe 0e5f 873d f508 2abd 9ceb 37bd
000002c0: defe 41bc c6b1 2a3e c6a3 48be ba55 083e
000002d0: 2237 8f3d cbe2 503d db1b 7ebc ce3e 6ebd
000002e0: 9d22 b2bd fe43 e7bd 8029 043e 6e52 493e
000002f0: 07f1 703d c907 d53d dcb7 223e 2938 ac3d
00000300: 1d91 743e 2b8e c93d df6a 19be ffa4 8d3e
00000310: 4f32 d0bb 371f 70bd 86b9 7e3c 1e23 24be
00000320: cb71 90bd 0fa6 99bd 7d00 acbc c6bd f5bd
00000330: 145a c6bb e944 353e 0a13 0cbc f294 653d
00000340: 3a54 e93c bdf2 eebd aa48 943c 544d 1cbe
00000350: 9083 c43d 2b95 423e 0d94 283e 1412 a1bc
00000360: 317f 60be e016 ee3b 5c24 d63d 4342 0e3d
00000370: 4fcc 34be a581 1c3e a5d5 22be 1b64 4e3d
00000380: 790c 803e d84c 423d 6b61 41bd f837 a83e
00000390: a224 77bd b93b b73d 594d 4f3d 9612 a43c
000003a0: 578e b9bc 05bd aabe 2942 4ebd 4d5a 39be
000003b0: 6442 953e f82c cebd 8aac f13d 7c19 2e3d
000003c0: cf3c 0a3e 9ecb 48be e7aa 0fbe 46c3 83bc
000003d0: e360 4bbe e521 1cbe 620f 45bd 6303 29be
000003e0: f026 df3b 0d19 193e 72b0 3e3d 3233 c4bc
000003f0: e6f8 1d3e 96cd 513e e149 bcbd 0227 b43d
-0.15355302 -0.17522039 -0.084876455 0.47925544 -0.035424307 0.033848833 -0.25903082 -0.06509096
0.16555305 0.25967842 0.0429418 0.2679848 -0.022263851 0.27227968 0.061798673 0.24330626
0.1481936 -0.024542732 0.09177022 -0.17174737 0.027130866 -0.24929741 -0.17573108 -0.043396607
0.29301274 -0.017874338 0.10452054 0.13434212 0.06976341 0.036181856 0.091010235 -0.15215757
0.17371836 -0.19875959 0.17771111 0.16966714 0.003719541 0.22613415 -0.13459691 -0.25014475
0.1254164 -0.0878608 -0.0035015459 -0.057759378 -0.21004435 0.11174979 0.14281859 0.20507026
0.1378338 0.19707753 -0.09389884 -0.045439523 0.18404078 -0.0418699 -0.20570336 -0.04560024
-0.053102117 -0.09558367 -0.34171507 0.05398368 -0.12469152 -0.035980973 -0.038009357 -0.016768474
0.13653837 -0.15341902 -0.076639004 0.17670134 0.026534665 0.082603216 -0.18804014 -0.1722112
-0.035916176 0.106918685 -0.14977159 0.10254933 -0.11073832 -0.11184818 0.12475289 -0.11335116
0.08307013 -0.050471213 0.11995897 -0.181402 0.1109105 0.18583465 0.039150946 0.16558692
0.116140336 0.08179921 0.098021805 0.19134562 0.13818274 0.06712616 -0.104841284 0.09462437
0.09247702 -0.0017346379 0.14215763 0.1104366 -0.2726721 -0.0122033255 -0.20949094 -0.21609394
-0.14310285 -0.15712684 0.19016935 -0.12008336 -0.2419091 -0.01544461 -0.17297256 0.15474321
0.083620526 0.32064915 -0.16082178 -0.18779215 -0.081678584 0.13643447 0.060217217 -0.107135855
-0.3425189 -0.022347085 -0.31790885 0.14764825 -0.18814819 -0.09039771 0.14437896 0.135888
-0.15765499 -0.1508788 0.15545687 -0.1042386 0.14189976 -0.12756974 -0.04194677 0.10136923
-0.1692068 -0.17025365 -0.02225994 -0.11780502 -0.03341478 0.12109533 0.08419157 -0.13278824
-0.032356355 -0.11770966 -0.13064976 0.07588111 0.07132132 0.18104792 0.064422704 -0.10711083
0.058497876 -0.115967564 -0.18727294 -0.08019797 0.17549191 -0.10377129 0.13991708 -0.11623274
0.19738205 -0.08996363 0.05674415 -0.46040577 -0.06607368 -0.05307003 0.002934499 -0.0631828
-0.05392037 -0.0176707 0.11809383 -0.17936686 -0.1715322 0.06609927 -0.04151245 -0.04490243
-0.01184055 0.16669378 -0.19593725 0.13313952 0.069929376 0.050997537 -0.015509571 -0.058165364
-0.08698008 -0.11292265 0.12906456 0.1966035 0.05882361 0.104018755 0.1589045 0.08409149
0.23883481 0.098415695 -0.14982174 0.27664945 -0.0063536535 -0.05862352 0.015547162 -0.16029021
-0.07052954 -0.07502376 -0.020996327 -0.11999087 -0.0060532186 0.17702068 -0.008549461 0.05605025
0.028482545 -0.116673924 0.018101055 -0.15263873 0.09595406 0.19002216 0.16462727 -0.01966194
-0.2192352 0.0072659105 0.10456154 0.03473116 -0.17656063 0.1528383 -0.15901811 0.050388437
0.25009516 0.047436565 -0.047212046 0.328552 -0.06033767 0.08946938 0.050610874 0.020028394
-0.02265088 -0.33347335 -0.050356064 -0.18100853 0.29152215 -0.10067171 0.11800487 0.042504773
0.13499759 -0.19608924 -0.14030038 -0.016084325 -0.19861178 -0.15247305 -0.048110373 -0.16505198
0.0068100616 0.14950962 0.04655499 -0.023950193 0.15426978 0.20488581 -0.09193779 0.08796503

bias_ih_l0 f4 [128]
00000000: 4691 7fbd 6668 c03b cfb3 f0bc b69c 4abd
00000010: 6c9a 21be 07fb 093e 5ec1 67bd 8a0a 45be
00000020: b556 ed3c 1f2e 6e3c 634e 253e e791 073e
00000030: d730 683d 3032 22be d26d 083d 1bc9 0fbe
00000040: e54e bfbb fee7 213e 2def 04bd 81c4 f33d
00000050: 39e6 2d3d 93b2 c03b 0d51 13bd c311 3cbd
00000060: c1f1 183e 4bee 893d ca11 30bd 8110 713d
00000070: 0b63 5cbd e45a f5bd d618 2bbe 5560 8cbd
00000080: 29ff 723e c9a2 263c 091a 27be fbea 083e
00000090: d720 22be 97c7 a2bd 2d5c 18be 382c 18bc
000000a0: 5638 05be 10f9 a63d 296b 4cbd 61cc 043d
000000b0: 8770 2ebd 6022 2f3e 4154 0bbd f768 c5bd
000000c0: be0d d13d 305e ef3d dc87 96bd 54f1 a83d
000000d0: 7e90 08be e969 993d 7c8a d93d 7f5b bd3d
000000e0: 8c13 ad3d 70c6 103e 7c00 f63d b4b2 fc3d
000000f0: 5829 43bd 15d4 19be d21d 11be 553d 32be
00000100: 3d2c fb3d df70 0d3e f709 2fbd 44c7 7b3d
00000110: 6d4a 90bd 79b8 85bb 58c2 e13d ae7d 51bd
00000120: 0f93 243c c1ab c13d 7015 eabd 3a64 1b3d
00000130: 30b2 13be 3662 6bbd 82bf 8fbd 397e 44be
00000140: 783a dbbd b8b5 08be 47e7 043e e663 8b3c
00000150: 3fb8 913a 5776 e63d 86a7 c13d cdd2 0fbe
00000160: 6282 1c3e a495 fdbd 88f9 023e 6894 29be
00000170: 1cf2 d0bd 284f 0f3e 0d01 9fbb 472e d0bd
00000180: 7b90 213e 26b0 313c e0d4 363c e607 d53b
00000190: f24a 4cbc 9470 833d 17c6 a9bc 949e 2fbe
000001a0: 86ba c4bd 5158 8f3d 5553 95bd cab9 8a3d
000001b0: 64a2 033d d706 37be 3d71 b53d ada6 2b3d
000001c0: a782 e93d 2bf7 803d a683 833d b07a a33a
000001d0: 746b 023e 6efb 64bc 847d babd e9c5 ec3b
000001e0: f888 50bd 25ea d53d 588d e63d 0408 263a
000001f0: 0031 983d e2ae bd3d 0283 debd b1d1 a7bd
-0.062394403 0.0058718203 -0.029382614 -0.049465857 -0.15781564 0.13474666 -0.056580894 -0.19242302
0.02897201 0.014537363 0.16143183 0.13239251 0.056687202 -0.15839458 0.033307858 -0.1404156
-0.0058382624 0.15811154 -0.03245466 0.119027145 0.042455886 0.0058806627 -0.035965968 -0.045915376
0.14935972 0.06734904 -0.042985715 0.05885363 -0.053805392 -0.11980227 -0.16708693 -0.068543114
0.23730148 0.010170647 -0.16318525 0.13370888 -0.1583284 -0.07948225 -0.14878912 -0.009287886
-0.13009772 0.08152974 -0.049906883 0.032421473 -0.042587783 0.17102957 -0.034015898 -0.09639161
0.10207699 0.11687887 -0.07350132 0.08249155 -0.1333637 0.07490904 0.10622117 0.09245967
0.08450994 0.14138198 0.12011811 0.123387724 -0.04764685 -0.15022309 -0.14171532 -0.17406209
0.12264297 0.13812588 -0.042734113 0.06146933 -0.070454456 -0.0040808287 0.11023396 -0.051145248
0.010044827 0.094565876 -0.1142987 0.03793738 -0.14423442 -0.057466708 -0.07018949 -0.19188775
-0.107045114 -0.1335057 0.1297885 0.017015409 0.0011117532 0.1125304 0.09455781 -0.14045258
0.15284112 -0.12382057 0.12790501 -0.16560519 -0.10202429 0.1399504 -0.00485242 -0.10165077
0.15777771 0.01084522 0.011159152 0.0065011857 -0.01246904 0.06417957 -0.02072434 -0.17150337
-0.09605889 0.06999267 -0.07291285 0.06773718 0.03213729 -0.17873703 0.08859489 0.041907
0.11401873 0.062971435 0.06421594 0.0012472477 0.12736303 -0.013975961 -0.091059715 0.007225741
-0.050911874 0.1044505 0.11257428 0.0006333592 0.07431221 0.09261872 -0.108648315 -0.08194292

bias_hh_l0 f4 [128]
00000000: 847d dabd a17a 9b3c e416 27be 5e69 e53d
00000010: eb07 66bc 138c dfbd 3a07 22be 8c71 73bc
00000020: 5ab2 e93d 4bbd 373e e19a c2bd 05e2 f73b
00000030: f8f6 39be a822 0b3e ce49 973d eae1 a33c
00000040: 9a10 bebd af49 1a3e 8e38 03be 7516 993d
00000050: 5bb2 423e 7b13 3f3e 72ce f3bb 0b97 963c
00000060: 39fb 503d ede4 553d db6b fa3c 2c0e 06bd
00000070: 81ae 0abe ac3e 04be 82d1 c7bd 3557 96bc
00000080: 801b 183e cf85 143d 8f95 983d a458 94bd
00000090: 49a3 193e 4eb9 aa3d d58e 00bc eecf 1dbe
000000a0: ef56 6abd ba51 cf3c 70b9 fdbc 7ba9 ebbc
000000b0: fbd5 39bd 2bbf 09bc b054 933d 648f 3dbd
000000c0: 5748 ebbc 0585 483d 95ed 38bd a454 cabd
000000d0: 3dbf 2c3c 3afe b3bd 574c efbd f009 843d
000000e0: 18dc f3bd ae42 2bbe fa9e 08be 2c66 803d
000000f0: ac60 9bbd 8567 ab3d bec8 1dbc 8962 023e
00000100: 7278 24be 5dc8 05be d966 023e aa4f bf3b
00000110: dcac 3e3e f357 e73c ed75 9bbd 1068 8bbb
00000120: 21ef 1a3e 976f 783a 94bf 5d3c ee39 623d
00000130: 036b 153d 9816 133c a571 17be a5e5 3abd
00000140: 1b13 67bc 11ff de3d 4f3e 623d 4664 e0bd
00000150: 9d9a 1fbe 234f 553d 3a9d 18be a46a dc3d
00000160: 2c6c afbd 50ee 94bc 5503 063e 95e8 4fbd
00000170: 987c b9bd c605 0ebe 68db f0bc 09af 193b
00000180: f00d 2f3d a7a7 143e 646b 14be f86c 6f3e
00000190: c36c b03d 58d6 04bd af1f 363e a56d 0e3e
000001a0: 60a9 19be 811e bd3d 4f65 2c3e aa19 143e
000001b0: 9d72 353d a4ab 6c3c e56d 0a3c 92dc 4b3d
000001c0: 22b1 073e 0d2f 97bd 1e60 2d3e 3e5a fabd
000001d0: 6929 b93d 795e 353e 74b1 783d af2b 0f3e
000001e0: 0334 0c3e e70a a43d d86f 283e d007 e03b
000001f0: fd64 61bd 5655 b23d be2d a7bd d94a f33d
-0.106684715 0.018979372 -0.16317326 0.11201738 -0.014039974 -0.10915389 -0.15823069 -0.014858615
0.11410971 0.17943303 -0.09502197 0.0075647854 -0.18160617 0.13587439 0.07387124 0.020005185
-0.0928051 0.1506717 -0.12814543 0.074749865 0.1901335 0.18659775 -0.0074403817 0.01838257
0.051020835 0.052220274 0.030569008 -0.03272836 -0.1354313 -0.12914532 -0.09756757 -0.01835213
0.1485424 0.036260422 0.07450401 -0.07243469 0.15003695 0.08336125 -0.007846554 -0.1541135
-0.057211813 0.025307525 -0.030972213 -0.028767338 -0.045370083 -0.008407394 0.07193887 -0.046279326
-0.028721018 0.048954982 -0.04514845 -0.09879425 0.010543642 -0.08788724 -0.116844825 0.06447208
-0.11907214 -0.16724655 -0.13341895 0.06269488 -0.07586798 0.08369354 -0.00963038 0.127329
-0.16061571 -0.13064714 0.12734546 0.005838354 0.18620628 0.02824018 -0.07590852 -0.0042543486
0.15130283 0.00094770774 0.013534445 0.055231027 0.036479007 0.008977555 -0.14789446 -0.045629162
-0.014103676 0.10888494 0.055235203 -0.10956626 -0.15586324 0.052077424 -0.14903727 0.107625276
-0.08565554 -0.018180043 0.13087209 -0.050758917 -0.090569675 -0.1386939 -0.029401496 0.0023450276
0.0427379 0.1451708 -0.14494091 0.23381412 0.08614495 -0.032430977 0.17785524 0.13909014
-0.15006018 0.09234334 0.16835521 0.14462915 0.044298757 0.014445219 0.008449052 0.0497709
0.13251165 -0.07382021 0.16931197 -0.122242436 0.090411015 0.1771182 0.060716107 0.13981508
0.13691716 0.08009892 0.16448915 0.006836869 -0.05502795 0.08707683 -0.081630215 0.118795104

weight_ih_l0 f4 [128, 2]
00000000: 5851 9b3e bf2b 513e 367c 983e f2af 4fbd
00000010: ec6c 103f 3b56 293d 758d 2ebe 2da4 00be
00000020: 4e87 19bd b63e 7abe a2e9 f0be 4dc2 0f3f
00000030: 7b9a a13c 93b4 823e f3d2 c5bd 49d3 40be
00000040: a100 013e 576d 9fbe 5593 983e 3bab e53e
00000050: 7a04 6fbe e3ef d4be eb70 903d 975f 94bd
00000060: 0033 0b3e 7c48 433e ffaa 9fbe d772 56bf
00000070: 9153 5d3e 2a65 1ebd 257d 073f 6c38 7d3f
00000080: 2d25 6abd 9dc4 093e 68bb a23e 776b 9e3c
00000090: 075c da3b c04b cfbd d313 e83e e50c 543f
000000a0: c527 8cbb bd2c 14bf 3052 9abd 6279 5fbe
000000b0: 7778 cd3e 6f5f 6a3e a57f 51bf d083 20be
000000c0: 9a6a 8a3e ecc1 503d 2b43 1fbf 1c19 43bf
000000d0: 85b5 513e 4819 383e d87c a8bc f10a a63e
000000e0: 946a a4bf 09b3 65bf 8a4f 3bbb 8201 07be
000000f0: 2047 ba3e 5ed9 0dbe 9474 92be 7b8a 88bd
00000100: 82c5 323e 6c4b a1bd 9c4a 1f3f b2e9 083e
00000110: 3976 213f 8b49 3bbe abc8 a1be 3665 99be
00000120: de3b 6a3e 43bf 96be 10f1 71be df2f 06be
00000130: 0f48 d6bc 3d01 0e3e 1c31 833e 8d5c b5bc
00000140: 6b07 373e 3064 473e fed2 423f acaa 043f
00000150: 242a 30bd b086 313c 15f0 55be 3258 b0be
00000160: b4b6 583e 7618 5b3f 500b 3a3d ee5c 22bf
00000170: e536 2a3f f9ba c63e 33b6 9d3e 20c7 763e
00000180: 767e f8be fcd1 25bf 2046 be3e c073 003e
00000190: ac7b ab3d c61c 013e 587d 7dbe 7e0e a2be
000001a0: 2f76 7f3f 9121 b63e ca4e 063f 54f9 f23d
000001b0: f982 c93e 8ed7 e33e 4439 acbe b4f0 83be
000001c0: 8cff dfbd 0c7e e13d 3043 013f 215e 7bbd
000001d0: 86a9 1c3e df56 cf3d ee0a a23c 5c3c 34be
000001e0: 3729 f53d 6bc1 a7be 0a25 813e 1b1b 3c3e
000001f0: 759f b33d 9d59 06bf 78a8 17be 3844 c5be
00000200: 156f 573e fabe 4e3e 15d6 18be eddc f4be
00000210: d3c1 ff3d 3c64 283c 2657 e4be 5933 153e
00000220: 774f f8bd 8a4b 32be c1fd 553e da18 f5be
00000230: 94a9 9fbd 5b64 443d 75d6 afbd 736e 9dbe
00000240: cd8e 0d3e 938f 0b3e 7eca 933d 1470 e33e
00000250: 4749 163e ba88 a13e 19ab 5dbe afa6 b2be
00000260: ed61 07be 4660 3dbe 0a3b 3e3e 0c75 943e
00000270: 190a 7abe 9f15 08bf 5c71 163d e04a e53e
00000280: c963 ff3d 32ea cf3e 1858 9abd a145 e13e
00000290: c9d7 b1bd 22ae 973e 3692 7e3d 03f5 e8bc
000002a0: 545b 053d 7bbe 99b8 562c a9be 878e 403e
000002b0: 2977 b43d a967 9bbe 810e 253e 5b51 3a3c
000002c0: a465 4c3e 490c a83e e3ea 7e3e 1b1a ec3e
000002d0: 90ff de3d d910 bd3e a7b9 0f3e c404 f6be
000002e0: 4079 193c 3704 343d 9947 4d3e e722 3e3e
000002f0: b839 ccbb 78cf 10be a273 6cbd 3cdf 4a3e
00000300: d333 cdbc 0164 3dbd 43b1 e93e 4e1b c4bb
00000310: 59b8 7f3e d891 27be 01f5 5fbd ecf8 0dbe
00000320: 286a b3bc d2db 0ebf 5582 07bf 85e3 8a3c
00000330: 3f4b 71bd d132 a4be f36e 0bbe b946 7fbe
00000340: 5596 3f3e 35e2 9d3d bb20 2b3e 3a15 793e
00000350: 3965 a73d 4fe5 8fbd 6d4a 753e d3d2 7dbe
00000360: ddf4 c13e 72e0 4b3e 13d5 98bd 88e6 2fbf
00000370: 59f4 0a3f 3a73 5c3d e11a 2fbd ad20 133f
00000380: 3aa7 7cbe 770c d1bd 14cc 2b3e f77e 80be
00000390: d8ad 59bd 1b5b 80be b289 2f3e 7c85 a43d
000003a0: f0fd 393e 2485 aabd 6d9c 873d f778 93bd
000003b0: d9a2 403f a0ad 89be 85d5 18bf 787d 89be
000003c0: 2800 d73e ddfb 4c3e d962 3fbe a93d edbe
000003d0: 7f9b 8b3e f593 9fbe 016d e13e 21ce 973e
000003e0: 67a7 e6be a734 00bf e580 073e 75df f2bd
000003f0: ff07 383e 45c9 2cbe 1f17 37bd 9424 77be
0.30335498 0.20426844 0.29782265 -0.050704904 0.564162 0.041342 -0.17046149 -0.12562628
-0.037482552 -0.24437985 -0.47053248 0.56155854 0.019726982 0.25528392 -0.09659376 -0.18830599
0.12597896 -0.31138107 0.29799905 0.448572 -0.23341551 -0.4158927 0.070527874 -0.07244795
0.13593674 0.1907062 -0.31185147 -0.8376898 0.2161391 -0.038670696 0.5292533 0.9891422
-0.05716436 0.13453908 0.31783605 0.019338353 0.0066638025 -0.1012187 0.45327625 0.82832175
-0.004277202 -0.57880765 -0.07535207 -0.21823648 0.4013097 0.22887968 -0.81835395 -0.15675282
0.27034456 0.05096619 -0.62211865 -0.7621019 0.204794 0.17978394 -0.020567343 0.32430223
-1.2845025 -0.8972631 -0.0028581345 -0.13184169 0.3638239 -0.1385245 -0.28604567 -0.06667038
0.17458156 -0.07875714 0.6222322 0.13370398 0.6307102 -0.18289773 -0.3159841 -0.2996003
0.228744 -0.29442796 -0.23627114 -0.13104199 -0.026157407 0.1386766 0.25623405 -0.022138858
0.17873923 0.19471812 0.761032 0.51822925 -0.04300894 0.010835335 -0.20892365 -0.34442288
0.21163446 0.855842 0.045420945 -0.6342305 0.6649001 0.38814524 0.3080307 0.24099398
-0.48533982 -0.64773536 0.37162876 0.12544155 0.08373198 0.12608632 -0.24754846 -0.31651682
0.9978971 0.35572484 0.5246397 0.11863962 0.39357737 0.44500393 -0.3363744 -0.2576958
-0.109374136 0.1101037 0.50493145 -0.061369065 0.15299043 0.10123991 0.019780602 -0.1760115
0.11970752 -0.32764754 0.2522357 0.18369715 0.087706484 -0.5248049 -0.1481036 -0.3852861
0.21038468 0.2019004 -0.14925416 -0.47824803 0.12488141 0.010277804 -0.4459774 0.14570369
-0.12124532 -0.17411628 0.2089758 -0.47870523 -0.07796016 0.04794727 -0.08585826 -0.3074833
0.13824005 0.13628988 0.07216357 0.44421446 0.1467639 0.31549627 -0.216473 -0.34892794
-0.1322095 -0.18493757 0.18577209 0.2899555 -0.24417914 -0.5315799 0.0367292 0.44783688
0.124702044 0.40608364 -0.07536334 0.43998435 -0.08683736 0.2962504 0.062151156 -0.028437143
0.0325578 -7.331088e-05 -0.33041638 0.1880437 0.088117905 -0.30352524 0.16118814 0.011371936
0.19960648 0.32821873 0.2489429 0.46113667 0.108885884 0.36926916 0.14035664 -0.4805051
0.009367287 0.043949332 0.20046844 0.18568002 -0.0062324665 -0.14141643 -0.057727464 0.1981172
-0.025049126 -0.04623795 0.45643052 -0.0059847003 0.24972667 -0.16364229 -0.054677013 -0.13864487
-0.021901205 -0.5580417 -0.52933246 0.016954193 -0.05890965 -0.3207002 -0.13616543 -0.24929322
0.18709691 0.07709161 0.16711704 0.24324504 0.081736036 -0.07026159 0.23954172 -0.24787454
0.37882128 0.19909838 -0.07462516 -0.6871114 0.54279095 0.053820826 -0.042750243 0.57471734
-0.24673167 -0.102074556 0.16777068 -0.25096866 -0.053144306 -0.25069508 0.1714237 0.080332726
0.18163276 -0.08326176 0.06621633 -0.072008066 0.75248486 -0.26890278 -0.59700805 -0.26853538
0.41992307 0.20017953 -0.18690051 -0.46336105 0.27267072 -0.3116757 0.44028476 0.2964945
-0.45049593 -0.5008034 0.13232763 -0.11859027 0.179718 -0.16873653 -0.044699784 -0.24135047

weight_hh_l0 f4 [128, 32]
00000000: f69f 22be 4c31 6c3d 9c52 b1be 4f97 efbc
00000010: 264f 443d a1c6 5d3e 1508 26bd 147f b7bc
00000020: 92bb c1bd 4366 c73c a4f6 a23e 0efc eb3d
00000030: 6983 b53d cf98 273e 5c46 eebc 7720 b5bd
00000040: b529 833d e425 01be 4fcc a4bc efeb d33d
00000050: 19ce a73c 6d9e 30be d839 53be c86c 093e
00000060: ddca 24be 820f b83e 87e2 5cbe 314e c73d
00000070: cf90 843d 9903 62be f75b 8a3b 1c04 163d
00000080: 3e5b d5bd f11e ad3b c9b8 7d3e 438e 29be
00000090: 7692 be3d eca3 4a3e f4b7 7abd 91c0 53bc
000000a0: 21f7 b2bd d5e0 5b3d fe35 083d dba5 8cbe
000000b0: df9f 4a3e 26bc cbbc c1bb 6e3d f29a 83bd
000000c0: 66f9 a63c ff23 193d b2ca c2bc 4e92 e33d
000000d0: 9e0a 913e c8d9 96be a51d 233d 2c8c 933e
000000e0: 7bcc 573d d38b 0c3c 2c20 ee3d 4b6e d7bd
000000f0: 6a7f 3c3e 9ead 8a3d d12b 8b3d 129f 05be
00000100: 2dd9 0bbe d5e5 243e fb75 47bd 7258 2fbe
00000110: 2038 2cbd eb6c c73d 5c88 50be b880 e23d
00000120: 532d 6ebe 0c36 89be 8d47 a6bc 7db1 19bd
00000130: d8b2 b23b 2023 533e 8ea9 973e c31c 26be
00000140: 1eed b1bd 6d57 c6bd 3068 85be 4e89 96be
00000150: 4ed4 83bc 4747 4bbe c5d7 6fbe e1c4 9d3e
00000160: 0666 d4be 0ee3 6e3d f86e 39be b33c 7dbd
00000170: a7ee 8dbd 7ad3 57be e18c 3c3e d661 94be
00000180: 9084 f53d 889b 3f3b 9063 f93c c956 cebd
00000190: ffb0 7e3c ef62 3e3e d0e9 193e 8664 0a3e
000001a0: d22a 283e e4a3 2b3e 18e9 a93d 6c1e 09be
000001b0: 980d 27bd c4d0 74bc 5d9d b3bd ff8d d3be
000001c0: 2b4c 71be b5aa c4bd 8e8a fbbd 0bb6 1abe
000001d0: 806b 23bd 6eb9 573d 4326 81bd 2a39 c739
000001e0: f9a0 60bb 67f4 603e fb28 59bd d072 94bd
000001f0: 4216 6e3e 4674 dfba 27f4 4a3e 9c49 7abe
00000200: 4730 a2bd 3662 4d3e c824 fcbc fd02 043c
00000210: 5576 153e 17ad 963e 527b 023e 415c c7bc
00000220: 1903 afbc db6c c93d fed5 1cbd 8b8f b4bd
00000230: 5488 833c 148e 323d 02ef d03d 73c3 6eba
00000240: 5404 67be 2530 773a 0913 97bd 7a78 adbd
00000250: 3cef 563e 2814 403d ad30 0d3d aa45 49bd
00000260: 9c70 40be 58bb c43d 1389 1abe f250 a23c
00000270: 3bbe 9c3d 0533 ff3d 3963 323e aa10 d9bd
00000280: becf 47be 80e6 98bc 9e6b 39be f2fe 94be
00000290: a8e7 573c 8efd 673e 36e0 06be 5596 ce3e
000002a0: 5d56 92bc a503 cdbd e891 833e dac5 ac3d
000002b0: b51f 7fbc f9ca 37bd acdb f33d d2f3 49be
000002c0: 6a99 35be 364e d43d 66e6 16be a6b2 043d
000002d0: c20d 84bd 91c5 2bbe e5f1 babe 8be1 693e
000002e0: 3168 f438 a935 f93e b0ee ff3d 80e3 33be
000002f0: cb0d 753e c201 85be 7907 9e3e f2c6 5bbe
00000300: d4ac 1e3e dfaa 643d 3217 a6bd a150 d7bd
00000310: db8a 723e 8a61 9fbd 1777 60be bcd1 323e
00000320: 9c94 6abe 85ea 1c3e 4188 e43d 0da7 90bd
00000330: d0e8 64ba 94e3 753e c0fb 16be 9173 c0be
00000340: 3bb2 ebbd 5fec 05be 2203 a23d 2aed 0fbe
00000350: e39e 633e 3023 3d3d 7f36 6ebe 8f68 9d3e
00000360: ac86 11be 6dc0 353e fd3e 95bd fad1 acbc
00000370: a6ad 423e e4e1 d6bd f616 21bd 7839 01be
00000380: 766a f9bc 7d7a a13e e74c 203b a9a5 54bd
00000390: 2e11 253e b697 943c d516 333d 80f2 1a3e
000003a0: 6b65 d0bd 1289 86be 23cb 55bd 0a16 263e
000003b0: 0205 903d 2661 64be 3d8a 073e 8b20 2dbc
000003c0: 4084 123d c466 86bd f6a6 b8be 0162 573c
000003d0: 06f4 b93d da82 19be dbb6 a2be 1a02 a5bd
000003e0: 630c 9d3c 3d0d 213b be63 3d3d a2d9 273d
000003f0: b3f6 c73c 7f58 493d d82b 5a3e 7287 e8bd
-0.15881333 0.0576642 -0.34633338 -0.029246954 0.047927044 0.21657802 -0.04053505 -0.022399463
-0.09459604 0.024340754 0.31828797 0.11522685 0.08862955 0.16366886 -0.029086284 -0.08844083
0.06404439 -0.1261211 -0.020116953 0.10347735 0.020484017 -0.17247935 -0.20627534 0.13420403
-0.16093011 0.35949332 -0.21570788 0.09731711 0.064729325 -0.22071685 0.004222389 0.036625013
-0.10417794 0.0052832295 0.24777521 -0.16558175 0.09305279 0.19789094 -0.061210588 -0.012924329
-0.08738542 0.053681213 0.033254616 -0.27470288 0.19787548 -0.02486999 0.058284525 -0.06426038
0.020382594 0.037387844 -0.023778293 0.1111189 0.28328413 -0.2946303 0.039823193 0.2881788
0.052685242 0.008578259 0.1162723 -0.105190836 0.1840798 0.06771396 0.06795467 -0.13048962
-0.13657065 0.16103299 -0.0486965 -0.17123583 -0.042045712 0.09737571 -0.20364517 0.110597074
-0.23259477 -0.26799047 -0.02029779 -0.03752278 0.0054534487 0.20618868 0.29621547 -0.16221909
-0.08687805 -0.09684644 -0.2605605 -0.2940163 -0.016092446 -0.19851409 -0.23422153 0.3081427
-0.41484088 0.058322005 -0.18108737 -0.061825465 -0.06930285 -0.21076766 0.18413116 -0.28980893
0.11988175 0.002923699 0.030442983 -0.10075147 0.015545129 0.18592428 0.15030599 0.13514909
0.16422585 0.16761738 0.08296412 -0.13390511 -0.04078445 -0.014942352 -0.08770249 -0.41319272
-0.23564212 -0.09602872 -0.122822866 -0.15108506 -0.039897442 0.052667074 -0.06306126 0.00037998828
-0.0034275635 0.21968232 -0.053017598 -0.07248461 0.23250678 -0.0017048202 0.19819699 -0.24442142
-0.079193644 0.20056996 -0.030779257 0.008057353 0.14595921 0.29428932 0.12742355 -0.024335982
-0.021363782 0.09835216 -0.038290016 -0.08816441 0.016056217 0.043592528 0.10201837 -0.00091081037
-0.22560245 0.00094294763 -0.073766775 -0.08470245 0.20989698 0.046894222 0.03447025 -0.049138702
-0.18792957 0.096060455 -0.15091352 0.019813988 0.07653471 0.12460903 0.17420663 -0.105988815
-0.19512841 -0.018664598 -0.18107459 -0.29100758 0.01317779 0.22655317 -0.13171467 0.4034907
-0.017863447 -0.10010461 0.25697255 0.08436175 -0.015571524 -0.044871304 0.119071335 -0.19721916
-0.17734304 0.1036648 -0.14736328 0.032396935 -0.064479366 -0.16774584 -0.36512676 0.22839944
0.00011654234 0.48673752 0.12496698 -0.17567253 0.23931043 -0.25977904 0.30865076 -0.2146261
0.15495616 0.055827018 -0.08109893 -0.105134256 0.23685782 -0.07782276 -0.21920429 0.1746282
-0.22908252 0.15323837 0.11158801 -0.070631124 -0.00087322015 0.24012595 -0.14744473 -0.3758817
-0.11508604 -0.1307845 0.07910754 -0.14055315 0.22228579 0.046176136 -0.23262976 0.30743834
-0.1421153 0.17749186 -0.07287405 -0.021096218 0.19011554 -0.10492304 -0.039328538 -0.12619579
-0.030446272 0.31538764 0.00244599 -0.0519158 0.16119835 0.018138748 0.043722946 0.15131569
-0.10175594 -0.2627645 -0.05219568 0.16219345 0.07032205 -0.22302684 0.13236327 -0.010566841
0.035770655 -0.0656257 -0.3606488 0.013145925 0.09079747 -0.14991322 -0.31780133 -0.080570415
0.019170946 0.002457454 0.0462377 0.040979035 0.024409628 0.049156662 0.21305788 -0.11353959

bias_ih_l0 f4 [128]
00000000: d854 f43c 7637 26bd 0643 563e 179d 013e
00000010: 0cad 0b3d 7858 963e 99c8 7c3e cf62 09bd
00000020: fedd 613d f765 233e 8718 ddbd 4640 f3bd
00000030: 934e d73d 5b94 ba3e 380c f8bd b4d1 963e
00000040: 585a 903d a0d0 0f3e 9394 753e c960 423d
00000050: 586a 693e 7cc0 9fbc cf73 8fbd 687e 07bd
00000060: 83e9 923b 711a 443d 0b92 c93d b7e6 b73d
00000070: 0b1f f73d cceb 423e 12ca 673e 371e 763d
00000080: 60de 873e 062a 33bd 529e 4b3d e1b5 a1bd
00000090: 202d dabc 925f 773e 10d0 583d 3ffe 693e
000000a0: d3b3 513e ed0d 9c3e 5e4d 123e 024a 443e
000000b0: d91b 2dbc efa3 bd3e a83d 113e 65c6 323e
000000c0: ee82 b6bd 5c45 683e 24fa 483e 30dc 863e
000000d0: fb5b 073e 6636 f23d 761c 353d 96e0 833d
000000e0: cc5e 913d e6f2 433e 5d7e e83d 1d24 ac3e
000000f0: b9ad e0bd 5f21 d83d 35a1 0f3d 02c0 973c
00000100: f5fc c0bd 4306 333d 3c74 8f3d 8174 3cbe
00000110: 91bf f63c 1758 89bb 5d67 0a3e 443e bb3d
00000120: bb7d e63d e116 b5bd 9978 193e d8f0 683d
00000130: 5a28 453d d06b f93c 552b db3d cab7 d1bd
00000140: 6e87 fcbd 52d2 02be 1272 183e 35bc aebd
00000150: 3ffc 493d 7978 2fbe 0692 8dbd 4cd9 213e
00000160: 642c 07be 0a75 b2bd f40e c53d 438c afbc
00000170: 1b92 0f3d 78ab debd 2370 03bd 575c 903d
00000180: 8fee b0bc 27c3 6a3e c4df 8a3e 6f7a 2a3e
00000190: c26b f13d e288 7f3e 8ba9 6d3e ba69 b33d
000001a0: bda4 023d 5a2a 683e 7b41 ba3d 4fac febd
000001b0: e8ce 9f3c 84c0 de3e 7c9d b13d f6d9 5c3e
000001c0: 9e4a cb3d 9ee6 c1bd c945 0c3e 452a 233e
000001d0: 2922 953c 8c2a 1a3e 765f e03c bbd4 c7bd
000001e0: ea89 7d3e 93ca 0f3e c1c0 883e d430 7d3d
000001f0: 888b c4bd 1094 ff3c 5872 283e 7d88 59bb
0.029825613 -0.040580235 0.20924005 0.12657581 0.034100577 0.2936437 0.24685897 -0.033541497
0.05514335 0.15956865 -0.10795694 -0.118774936 0.10513034 0.3644131 -0.121117055 0.29456866
0.07048482 0.14044428 0.23982458 0.047455583 0.22794473 -0.019500963 -0.070045106 -0.033079535
0.004483403 0.04787678 0.098423086 0.08979552 0.12066468 0.19035262 0.22635677 0.06008741
0.26536846 -0.04374125 0.049711533 -0.07896019 -0.026632845 0.24157551 0.0529328 0.22850893
0.20478754 0.30479375 0.14287326 0.19168857 -0.010565721 0.37039134 0.14183676 0.17458494
-0.089116916 0.22682709 0.19626671 0.26339865 0.13218682 0.11826782 0.044216596 0.06439321
0.07098159 0.19135627 0.11352227 0.33621302 -0.10970635 0.1055324 0.03506585 0.018524174
-0.09423248 0.043707144 0.07004592 -0.18403818 0.030120643 -0.0041914093 0.13515992 0.091427356
0.1125445 -0.088422544 0.1498741 0.05687031 0.048134185 0.030446917 0.10701624 -0.10240133
-0.12330519 -0.12775543 0.14887264 -0.085319914 0.049312826 -0.171358 -0.069126174 0.15805548
-0.13200527 -0.0871373 0.09621993 -0.021429187 0.035051446 -0.10872549 -0.032089364 0.070488624
-0.021598129 0.22926007 0.27123845 0.16648267 0.11788131 0.2495456 0.23209207 0.087604
0.031895388 0.22672406 0.09094521 -0.12435209 0.01950784 0.43506253 0.08672616 0.2156752
0.099263415 -0.09467815 0.13698496 0.15934093 0.018204765 0.15055293 0.02738927 -0.09757372
0.24759641 0.1404212 0.2670956 0.061814144 -0.09596926 0.031198531 0.16449869 -0.0033192926

bias_hh_l0 f4 [128]
00000000: f489 843e 7729 603e 2cc6 0e3e 6d7c 2dbd
00000010: cc35 033e f43c c33e 4d71 7c39 e178 903d
00000020: 3a08 093e b542 6d3e 88dc c63d f446 b83d
00000030: 7d6a d83d 6a55 bf3e d686 dd3d 36f8 b03e
00000040: 083c 9f3c 242c 7b3d 1b2c 193e 1773 233b
00000050: 069a 6e3e 312f b83d 18b9 653e 3f3a dabd
00000060: 02f3 d1bd 6a83 10bd 7156 803d c90a d1bb
00000070: fa05 163e 01b6 5b3e ad30 af3d 4f64 b63d
00000080: f94e 063e 1287 353e afcd 313e da76 d03c
00000090: 62e1 84bc 2d01 993d 66b7 8fbd e9be 7bbd
000000a0: 01e2 68bd ff1f 013e ef12 7c3d 0dfe af3d
000000b0: bc31 093e fc57 c43e 3953 6fbc 9526 ce3d
000000c0: b25c b1bc 4245 08bd 92f9 513d 5116 9c3d
000000d0: c32a ff3d 7c87 293d 3397 413e b05a aabd
000000e0: c669 c33d 49ee 713e c3a4 c63c 9624 f03d
000000f0: 81be b53d cea4 b1bd 17ff acbd fd2a 483e
00000100: c631 ae3d 0384 7c3d 8207 f3bd fb7a 1abe
00000110: fd34 d43d 6662 52be 6564 8dbd 18df b93d
00000120: ddbd 17be 5275 093e 362e 993d bd23 283e
00000130: 56ce 173c 1d9e d33d 9945 ac3d 0138 8f3b
00000140: 16ec 0cbd b6d9 313d ef8d 09be bd8b 503c
00000150: df2d c53d 16c8 04be 7dd4 7f3d b9f4 bf3d
00000160: ecf5 8abd 1ea6 0a3e 2e24 ddbd 7e6b adbb
00000170: 26cd e8bd 61eb 16be 9591 453e 8563 dfbd
00000180: ca9c 783e 6128 523e a0bd 2e3e 0976 ccbd
00000190: 3f81 62bd 0186 863e fef3 203e 7633 253e
000001a0: 4e89 993d 3e32 753e ad2c 143d 5722 d4bd
000001b0: f05e e03c 16a4 963e f920 1c3e e9b0 a23e
000001c0: fa4a 7d3e a4a7 14bd 0504 aebd 301a 143e
000001d0: 69f5 873a 541d 22bd 7ecf 173e 0dbf 413e
000001e0: fbf1 fa3d 6f52 883e 170b 633d 7a25 7d3e
000001f0: 4ddb 373e 7f80 c93d 7eed b63d f174 7b3d
0.258865 0.21890818 0.13942784 -0.04235499 0.1281349 0.3813244 0.000240748 0.07054306
0.13382044 0.23169978 0.09710032 0.08997908 0.10567186 0.37369853 0.108167335 0.3456437
0.019437805 0.061321393 0.14958231 0.0024940425 0.23300943 0.08993376 0.22433889 -0.10655641
-0.10251428 -0.035281576 0.062664874 -0.0063794595 0.14650717 0.21456148 0.08554206 0.08905851
0.13116063 0.17727306 0.17363618 0.025447298 -0.016220752 0.074709274 -0.07017402 -0.061461363
-0.05685616 0.12609862 0.061541494 0.08593378 0.13397878 0.38348377 -0.014607244 0.10065953
-0.021650646 -0.033269174 0.0512634 0.07621444 0.12459328 0.041388974 0.18905334 -0.083180785
0.09541659 0.23626055 0.024248486 0.11725728 0.08874226 -0.08674012 -0.08447092 0.19547649
0.08505587 0.061649334 -0.118666664 -0.15085976 0.10361669 -0.20545349 -0.06903914 0.09075755
-0.14818521 0.1342366 0.07479517 0.16419883 0.009265503 0.10332892 0.08411712 0.00437069
-0.034404837 0.043420516 -0.1343305 0.012728629 0.0962789 -0.12966952 0.062458504 0.09372849
-0.06785187 0.13539931 -0.10797916 -0.005292355 -0.11367254 -0.14738227 0.19293816 -0.10907654
0.2427856 0.20523216 0.17064524 -0.09983451 -0.05529904 0.26274112 0.15718076 0.16132912
0.07496892 0.23944947 0.03617542 -0.10358112 0.02738902 0.29422063 0.15246953 0.31775597
0.24735633 -0.036292687 -0.084968604 0.14463115 0.001037282 -0.03957875 0.14825246 0.18920536
0.12253185 0.26625392 0.055430498 0.24721327 0.1795475 0.09838962 0.08932017 0.06139082

weight_ih_l0_reverse f4 [128, 2]
00000000: 13a5 d93d 91e5 d3bd 8e72 723e e2ad 313e
00000010: d37e dabd 508e 3b3d ff9c 893e d7df 0dbe
00000020: 30f1 803e d651 423e eeb9 ffbd d8ff 43be
00000030: b92a cb3e 4d52 af3e 3b4a 82bd 6d79 8bbe
00000040: 6b98 ad3d 0eaa 39be ab4f fcbd 4710 ee3d
00000050: edd2 67be 7fd7 a73e 47d7 203e e3d6 92bd
00000060: e922 8fbe 657e 093f f0f2 34be e130 4fbe
00000070: 7703 273d d09d e03d 81c4 3fbc f4d5 763e
00000080: 4ede 4dbd 5327 1b3e f5e5 07bd f4b9 533d
00000090: 8682 57be e87d 303e a32f 1cbd 743b 533e
000000a0: d183 6fbd e604 0e3f ca3d 3dbe fd88 853b
000000b0: 6b39 0fbe fbf9 233e bd4f 5f3e 1f63 1c3d
000000c0: 12d1 9cbd 81de b63b 6fcf 22be 9228 a9bd
000000d0: 936a ce3d 9844 a73d 1168 a0bd b6fc db3d
000000e0: bc72 b4bd 749b f03e e778 453d a241 8e3c
000000f0: 683d 113e 07a3 18be 8abb 12be a961 20be
00000100: c638 1cbd 6720 ce3d 166d a53e e68e 7a3d
00000110: 8350 c2bd 4d35 873d 97f6 113e 0a0d 3bbe
00000120: 5850 a83e 3f9e 4b3e 7bbc 223e 9304 8fbb
00000130: 02f2 9f3e 9e59 803e 8268 22bb 815e 8cbd
00000140: 5908 093e b929 7dbd b2a9 b9bb cbd6 dabd
00000150: 4c26 df3d 662c 0cbc dba3 213e d4d8 39be
00000160: febd 86be ad83 fc3e e317 e8bc 82a9 5fbe
00000170: 04f7 553c 84d3 a6bd 7b92 88bd 3ca2 0c3d
00000180: e9a9 e83d 7c07 1f3d a8f6 4bbd 75fc 8b3d
00000190: 5339 5dbe bd28 033e 087e 31be d520 4f3e
000001a0: c459 853d bc6a 233f c7e6 81bd 8a3b b8bd
000001b0: e266 c93d a2e1 27be 9a30 06be 5695 6a3c
000001c0: 4cc5 373d 3632 4bbe a6eb c63c 9fd2 98be
000001d0: 6415 373e 4f60 7cbd 2fcf aa3d 62a9 69be
000001e0: 9e3c 29be a51e 013f 9d7d 6a3e 9b61 f73b
000001f0: bdf1 4e3e e419 dfbd 5676 253c 2de3 88be
00000200: 4beb 14be f0d5 3ebe 1c90 3f3e b1b1 a33e
00000210: 6baa 7dbc 5d6d 51be b648 05be 97f7 6abe
00000220: 9898 723d 01df af3e a737 013c efd3 1b3e
00000230: 5a76 f93c bca8 8ebe 04e9 32be 454b 6e3e
00000240: b033 01be 36ba 143c a773 ecbd f3e4 8f3e
00000250: f138 2f3e ac3d 46be 2a35 7c3e 933a b4bd
00000260: a022 0d3e 2080 66be 1c98 7e3e 88ff 6bbb
00000270: 4820 29be ade7 163b f3e7 0f3d 9b24 7f3e
00000280: 9488 963d 262e 183e 1cf3 313d d6e8 b33e
00000290: b7c9 023e 492f 2dbe 20df 74be 06f7 10be
000002a0: 2a35 57be 91ed 6fbe 3c3b 533e 8807 44be
000002b0: c8ae 62be 03ee 4c3e 640d 0d3e 4a58 813e
000002c0: 1bbf 6ebd 26c9 7f3e cf80 353e e0ea 053d
000002d0: 103e 39be 2126 ee3d 4a4b e33d 4b68 a0be
000002e0: 2d05 a6be 9c18 923e 89a1 183e ce30 023e
000002f0: b419 233e b569 86be cb3b 8b3e 9248 9a3d
00000300: dfcf 523e b9a0 2fbd 38c7 893e ec8a 2a3e
00000310: b41e 6ebd c938 11be 897b 9b3d 3515 15be
00000320: dc16 273e 94a2 783e a558 2fbe c7f3 46be
00000330: 9894 a63e b564 343e 33a5 bf3d 6150 6bbe
00000340: 345a 97bd 7329 07be c3e5 f5bc e917 03be
00000350: e074 a93d 7b8c 1abe 9a86 363e f87d 7abe
00000360: 5430 cfbc 895e 9f3e a0de 30bd ee2e 00be
00000370: f7e0 083e 24da 6fbd 7f75 0dbe c743 41be
00000380: fc7c 553e 666e da3d dd9d 89bc cb1c 1abe
00000390: b705 51be f06b 233e 68a3 99be 3d56 433e
000003a0: 1fbc 7aba 259e 963e a202 05be f995 863d
000003b0: a10f c2bd d5e5 2bbe 2cb2 cabc 7834 333c
000003c0: be89 943d 920e 2f3d 0583 2a3e 6a37 84be
000003d0: c1dc 65be fb81 2f3e e87d c83d 120e de3d
000003e0: baa3 3e3e 1fb4 8f3d f404 6b3d a21d 7ebe
000003f0: 231b 0d3d a1c7 cbbd ae37 a5be a830 5ebe
0.106271885 -0.10346521 0.23676512 0.17351487 -0.10668721 0.045790017 0.2687759 -0.1385492
0.2518401 0.1897653 -0.12486635 -0.19140565 0.39681032 0.34242478 -0.063618146 -0.27241078
0.08476337 -0.18131277 -0.12319883 0.116241984 -0.22639056 0.32781598 0.15707122 -0.07169893
-0.27956322 0.5370849 -0.17670798 -0.2023349 0.04077479 0.109676 -0.011704565 0.24105054
-0.050260834 0.1515172 -0.03317829 0.05169101 -0.21045884 0.1723553 -0.038131367 0.20628148
-0.05847532 0.55476224 -0.18480602 0.004075168 -0.13986747 0.16013329 0.21807761 0.038180467
-0.076570645 0.0055807238 -0.15899442 -0.08259691 0.10078921 0.0816738 -0.07832349 0.1074156
-0.08810946 0.469936 0.048211005 0.01736528 0.14183581 -0.1490594 -0.14329353 -0.15662254
-0.03814008 0.10064774 0.32309788 0.061171435 -0.09488013 0.06601963 0.14254223 -0.18266693
0.32873797 0.19884585 0.15892212 -0.004364559 0.31239325 0.25068372 -0.002478153 -0.06853963
0.1338209 -0.061807368 -0.005665981 -0.106855 0.108959764 -0.008555507 0.15785162 -0.1814912
-0.26316828 0.4931921 -0.028331703 -0.21842006 0.013059381 -0.08145812 -0.06668564 0.034334406
0.11360533 0.038825497 -0.049795777 0.06835262 -0.21603899 0.12808509 -0.17333233 0.20227368
0.06511262 0.6383474 -0.063428454 -0.08995731 0.098340765 -0.16394666 -0.13104478 0.014317831
0.04486589 -0.19843373 0.024282288 -0.2984819 0.17879254 -0.061615285 0.083402984 -0.2281852
-0.1652703 0.50437385 0.2289948 0.0075494773 0.20209403 -0.1089361 0.010099014 -0.2673582
-0.14542882 -0.18636298 0.18707317 0.31971505 -0.015482525 -0.20451875 -0.13016018 -0.2294601
0.059227556 0.34349826 0.007886804 0.15217565 0.030451942 -0.2786311 -0.17471701 0.232709
-0.12617373 0.009077599 -0.115454964 0.28104362 0.17111565 -0.19359463 0.24629655 -0.08800235
0.1378274 -0.22509813 0.24862713 -0.0036010463 -0.1651622 0.0023026273 0.035133313 0.24916308
0.07350269 0.14861354 0.043444738 0.35138577 0.1277226 -0.16912569 -0.2391324 -0.14156732
-0.21016374 -0.23430468 0.20628065 -0.19143498 -0.22136986 0.2001267 0.1377464 0.25262672
-0.05828772 0.24979076 0.17724918 0.032694697 -0.18090081 0.11628366 0.110983446 -0.3132957
-0.32425824 0.285344 0.14905371 0.1271393 0.15927774 -0.26252523 0.27194056 0.07533373
0.20587109 -0.042877886 0.26909804 0.16654557 -0.05813475 -0.14181818 0.07591922 -0.14558871
0.16317314 0.24280769 -0.17123659 -0.19428931 0.32535243 0.17616542 0.09357681 -0.22979881
-0.07390252 -0.13199405 -0.030016785 -0.1280209 0.08274245 -0.15092652 0.17824784 -0.24462116
-0.0252916 0.31126812 -0.04318106 -0.12517902 0.13367067 -0.058557644 -0.13814352 -0.18873511
0.20848459 0.10665588 -0.016798908 -0.15050046 -0.20412336 0.15959144 -0.30007482 0.19075866
-0.00095647754 0.2941753 -0.12989286 0.06571574 -0.09475637 -0.16786893 -0.024743162 0.0109378025
0.07252835 0.042738505 0.16651542 -0.25823528 -0.22447492 0.17139427 0.0978964 0.108425274
0.18617144 0.07016777 0.05737777 -0.24815992 0.034449708 -0.099501856 -0.32269043 -0.21698248

weight_hh_l0_reverse f4 [128, 32]
00000000: ddae 9bbc f97e b03d 7021 c3bc a80a 503d
00000010: 3baf 6a3d 30bb a33d 62bd 893d bb56 973c
00000020: 3847 c9bc 763f 493d 7862 1d3d 06f6 21bd
00000030: 4176 4ebd 6ced fb3d 0961 e1bd 3231 d13c
00000040: cfcb 58bb a2b2 a33d 0810 c23c bab3 23bd
00000050: d443 c8bd df83 013e d0b6 f03c ce2b 8ebc
00000060: 2b3f e7bd 534e 383e efe2 3abe 505c 06be
00000070: 2ed2 4aba 5215 c93d ab7e 08be 9754 1a3d
00000080: cd60 4dbd a06a f83d 26d9 3e3c 243c 523e
00000090: a2f8 9cbd fc05 afbd 7398 19bc 7faf d7bd
000000a0: 0ef1 3abd 6429 a83d 8e57 4abc b699 b4bd
000000b0: 881f 213d 6fa9 c8bd 37e6 723d 00f2 04bd
000000c0: 1241 b9bd 8675 aebd a9bd a33d e630 94bb
000000d0: 2874 40bd 7121 aa3d 0ab2 0bbd 5505 1dbe
000000e0: 543d 8ebd 2206 8bbc 17cd 92bd 81c6 94bd
000000f0: 5478 c7bc 39c9 e2bd be3d b33d f288 e83d
00000100: 2471 c03d 7e4f 4cbe c56c b5bd 684c 2fbd
00000110: 97d2 da3d eeb8 dc3d fd7d db3b 218b 44be
00000120: a666 d13b a50f f53b 3e9b 733b 2e8e 933d
00000130: e0d3 27bd eb22 82b9 f2bf 8a3d d3ac ebba
00000140: 027c 48be b71b 87bd 75bd d5bd 6c76 343d
00000150: 0bcf 92bd d5ac b0bd bd86 2c3d 2b63 37be
00000160: a14b 0bbe 1a41 3b3e 9d0e b4ba bedd fd3c
00000170: e84d aa3d 46e8 f83d b103 31bd b633 5fbe
00000180: f57e 9b3c 7cfd 3fbe e55e 03be c6b7 9fbc
00000190: 5bee f6bd 071e 50bd 6f08 273e 275c 9f3d
000001a0: cf58 89bd 073a b9bd 7a5a 7bbd dbcc 3c3e
000001b0: 9787 4f3e 7b3f f63b 4828 a33d fc05 d93d
000001c0: 4dfc e3bd 3a9f 9a3d ea14 aabd 8da8 5dbb
000001d0: bb6b 28bd 7371 113e de62 4cbe 7d0d 0d3d
000001e0: 9e64 3abe c679 ef3d dffb c53c 5de3 383c
000001f0: 864f d23c 8c4f 3cbe 6215 ef3c 2b35 33bd
00000200: b0ee 093e 2fa8 fc3b 71ef 0cbe 5370 f33c
00000210: 4778 00be 6413 103d 4c83 293c 61ff 73bc
00000220: fde6 043e 7703 fdbd aee2 a8bd debf 143c
00000230: fb29 30be 2182 023e a139 9ebc 49a2 babd
00000240: 7a5a a2bd dc36 713d 6e60 403d 9c51 edbd
00000250: 28a6 1fbe 0707 903c 97ff 96bd 3e77 223e
00000260: c069 d3bd 5417 713e 98e0 0fbe 4f52 243e
00000270: 76cc 46bc 5105 1f3e c3d8 c9bd f9b7 cebd
00000280: ad28 2f3d d25d fcbd ed1c 973d 167f d23c
00000290: 9c92 973d 811c e23d 782b 84bd c4d3 20be
000002a0: 2865 4cbe 415c eebd 2600 203d 34bb e5bd
000002b0: 786c 0ebe 304c ef3d e2ee 2fbd 4e10 26bd
000002c0: 29a3 e9bb f179 5dbe d98b 5fbe 29f7 afbd
000002d0: fd55 cf3d 8b5b 8a3d 6a8b 35be 084e 8c3d
000002e0: 12c3 c83d f97b 03bd 350e d1bd 5608 6bbd
000002f0: 23e9 55be b63c 643d b492 273e c1f6 e6bd
00000300: 439b 0e3e 257a 513e 4ef4 b43c 88d9 35be
00000310: 0138 3abc d1d1 3dbe 0035 ac3d 539b e2bd
00000320: dd0d 2cbd 5b19 0bbe bfb9 cf3c b4ae 1d3e
00000330: c600 5abe 5bce 5c3c a2cf 89bd 0dd1 e83d
00000340: 6053 78bd 9fda a13d 7bb2 0bbe 66b6 f53d
00000350: 7af9 e73c 9904 4d3e 69ee 223e 4927 b5bc
00000360: edce c1bd 8aca 523d fed9 213d 6cc8 05be
00000370: cfb7 cebc 62de afbd 5f23 9ebc bf49 263d
00000380: 56d1 513e e032 79be 1007 363e ed50 e4bd
00000390: f5b9 4abd b5f0 58bd 22da f43d aae1 56be
000003a0: 1df5 5cbd fe7d b6bd 2ffe 313e 0276 1abc
000003b0: 3ec8 1abc c114 ad3d dcc6 ef3d 7896 4fbe
000003c0: d38b 3b3d 975b 11bd 5c4a 47be fb11 1abd
000003d0: 8920 2c3d 9a04 84bd 0317 a4ba 9b35 4abc
000003e0: 0c99 013e fbf5 1a3e 93b2 0e3e 4124 8f3c
000003f0: 749b a8bd c288 a1bd 370e a0bc 477d a5bc
-0.01900428 0.08617968 -0.023819655 0.050791413 0.05729602 0.079946876 0.06725575 0.018473973
-0.024570093 0.049132787 0.038423985 -0.039541267 -0.050405744 0.12301144 -0.11004836 0.025536153
-0.0033080464 0.07993056 0.023689285 -0.039966322 -0.09778562 0.12647961 0.029384047 -0.017354872
-0.11291345 0.17998628 -0.18250631 -0.13121152 -0.00077370077 0.0981852 -0.1332957 0.037678327
-0.050141145 0.12129712 0.011648452 0.20530754 -0.076646104 -0.08546063 -0.009374726 -0.1053152
-0.045640044 0.0821102 -0.012349976 -0.088183805 0.03933671 -0.09797942 0.05930158 -0.03245735
-0.09045614 -0.085185096 0.07995159 -0.0045224307 -0.046985775 0.0830716 -0.03410534 -0.15334065
-0.06945291 -0.016970698 -0.07168024 -0.07264424 -0.02434937 -0.110735364 0.08752011 0.11354245
0.0939658 -0.19952199 -0.08858637 -0.042797476 0.10684698 0.1077746 0.0066983686 -0.19193698
0.0063904105 0.0074786716 0.003717139 0.07204853 -0.040973544 -0.00024821548 0.06774892 -0.0017980583
-0.19578555 -0.06597083 -0.10436527 0.04405825 -0.071683966 -0.08626715 0.042120684 -0.17908923
-0.13603069 0.18286553 -0.0013737265 0.030989524 0.08315641 0.12153678 -0.04321641 -0.2179707
0.018981436 -0.1874904 -0.12829168 -0.01949681 -0.120571814 -0.050809886 0.16311811 0.077812485
-0.06706392 -0.09044271 -0.061365582 0.18437521 0.20266567 0.0075148917 0.079666674 0.105968446
-0.11132107 0.07549901 -0.0830477 -0.0033822388 -0.041118365 0.14203434 -0.1995959 0.03443669
-0.18202445 0.11693148 0.024167953 0.011284676 0.025672685 -0.1838972 0.029185 -0.043751877
0.13469958 0.0077104787 -0.13763215 0.029716646 -0.12545882 0.035174742 0.010346245 -0.01489243
0.1297874 -0.123541765 -0.08246361 0.009078948 -0.17203514 0.12744953 -0.019314589 -0.09112985
-0.07927413 0.05889021 0.046966963 -0.115878314 -0.15590727 0.017581476 -0.07372969 0.158658
-0.103229046 0.23544055 -0.1405052 0.16047023 -0.012133708 0.15529372 -0.09855797 -0.10093684
0.0427634 -0.12322582 0.07378564 0.025695365 0.074010104 0.11040593 -0.064536035 -0.15705782
-0.19960463 -0.1163869 0.03906264 -0.11217347 -0.13908565 0.116844535 -0.042952426 -0.040542893
-0.007130046 -0.21628548 -0.21830691 -0.08592064 0.10123823 0.06755742 -0.17728963 0.06850821
0.09802832 -0.03210065 -0.10207788 -0.057380997 -0.20889716 0.05572196 0.16364557 -0.11277533
0.13926415 0.2045675 0.02208915 -0.17758763 -0.011365891 -0.1853707 0.084085464 -0.11064782
-0.04200541 -0.13583891 0.025357125 0.15398675 -0.21289358 0.013476933 -0.06729056 0.11367998
-0.060626388 0.07903027 -0.13642304 0.1199768 0.028317202 0.20021285 0.15911259 -0.02211346
-0.09463296 0.051462688 0.039514534 -0.13064736 -0.025234131 -0.08587338 -0.019303976 0.040597674
0.20490012 -0.24335814 0.17776132 -0.11148248 -0.04949375 -0.05296393 0.11955668 -0.20984522
-0.053944696 -0.0891075 0.1738212 -0.009427549 -0.0094471555 0.08451224 0.11707851 -0.20272243
0.045787644 -0.035487738 -0.1946196 -0.037614804 0.042023215 -0.0644619 -0.0012519065 -0.012341882
0.12656039 0.15132897 0.13935308 0.017473342 -0.08232775 -0.078874126 -0.019538028 -0.020201338
