sgan-dataset/logs/eth/models_03_Mar_2019_00_23_46/model_registrar-1199.pt (torch_old, 575429 bytes, 45 tensors)

weight_ih_l0 f4 [128, 6]
-0.16521807 -0.06282139 0.027458003 0.2822913 -0.009584566 0.061019503 -0.3148411 -0.2617799
-0.1209633 -0.030954637 0.0858434 -0.1320876 -0.15443702 -0.13182287 -0.08748711 -0.09264918
-0.15355131 0.20140389 -0.21657191 -0.019979363 0.19206305 -0.24898526 -0.087162435 0.3289752
-0.08391552 0.047653075 -0.2039885 0.12553182 0.10780921 -0.17520654 0.16550873 0.086315826
0.072440304 -0.054457746 0.16822377 -0.019200126 -0.16743967 -0.07152931 -0.26029792 -0.032366674
-0.13934693 -0.12471723 0.017823307 0.20173186 -0.26342607 -0.008027592 -0.19067901 0.004021519
0.14827986 0.102203794 0.08551504 0.102145836 -0.043887872 0.07530467 -0.125828 -0.21021535
-0.12986527 0.15586114 -0.051655643 -0.29730657 0.041256867 0.15036394 -0.33640838 -0.059114344
-0.049467396 -0.0409501 -0.045217987 -0.006305135 -0.15331943 0.09144329 0.14404139 0.12218968
-0.17282525 -0.17138481 0.05428611 0.06123935 0.0693098 -0.17242561 -0.032851983 0.11380893
0.1941987 -0.053832825 -0.048403524 0.0027940308 -0.12352107 -0.08840337 -0.40713802 0.23673496
-0.017340034 0.11020263 -0.12935784 0.14624092 0.0260145 0.39449477 -0.026528068 -0.009746651
0.15480956 0.10458976 -0.02066776 0.007245866 0.083275326 -0.13588417 -0.0485156 -0.16377829
0.10303688 -0.065920725 -0.0818079 0.26939756 0.076713175 -0.01285613 0.09542066 -0.11371703
0.14195803 -0.047518298 -0.007495121 0.04379331 -0.24752674 0.16635682 0.24371216 0.3832687
-0.10122833 0.032405086 0.31769067 -0.17691186 0.17189537 -0.10324779 -0.07127777 -0.028203864
0.042005282 0.17174177 -0.35979295 0.2900003 -0.02935034 -0.1546681 -0.122010335 -0.05463323
0.13240042 0.048131913 -0.02954938 -0.096282944 -0.11186239 -0.017772803 0.026166443 0.21095845
-0.06310846 -0.15396251 -0.15264183 -0.12437475 -0.04372459 -0.05580803 -0.13569526 -0.08544605
0.088790566 0.12711523 0.07591584 0.18687287 -0.1299627 0.014937663 0.063519284 0.108029805
0.16991773 0.33414537 -0.14150335 0.12898399 0.3776222 0.06454149 -0.08821465 0.20457515
0.13173997 0.1441706 -0.05328583 -0.14647415 0.049779315 0.021958053 -0.14095205 -0.113351576
-0.2090577 -0.07922321 -0.068198435 -0.005458622 -0.036530584 0.018051071 0.114704 -0.31500345
-0.27923957 -0.21638088 -0.08221472 0.08876946 0.13563347 -0.2043067 -0.09663402 -0.23107755
-0.041983765 0.059621423 -0.014066583 0.022440199 0.24674487 -0.057831652 -0.055766672 -0.080526106
-0.010833522 -0.033143055 0.111398034 -0.13193183 -0.13969743 -0.02326824 -0.043983974 -0.05616471
0.042981345 0.104909554 -0.14814968 -0.0463614 0.11649737 -0.30405396 -0.06829392 -0.1028503
0.08217306 -0.10360338 -0.0944616 0.027934492 -0.18202281 -0.12935656 0.079915315 -0.05195727
0.083342224 -0.2564121 -0.07695612 -0.13799249 0.056921814 -0.020187616 -0.13799706 -0.079513706
-0.23321441 0.043941405 0.028832272 -0.09332787 -0.20204294 -0.02693269 -0.13721189 0.07295472
0.08697681 -0.03842307 -0.09549787 0.01636391 0.050111167 0.16865954 -0.18593568 -0.093313776
0.14539844 0.048331928 0.06218937 -0.13160224 0.1606182 -0.14253296 -0.17715833 0.066009775
00000000: ed2e 29be 80a8 80bd 9bef e03c 7c88 903e
00000010: 9508 1dbc 96ef 793d da32 a1be 0408 86be
00000020: 9bbb f7bd 9494 fdbc aace af3d f941 07be
00000030: bd24 1ebe 93fc 06be 712c b3bd dabe bdbd
00000040: 8e3c 1dbe d23c 4e3e 07c5 5dbe c3ab a3bc
00000050: 2dac 443e fef5 7ebe 3882 b2bd 706f a83e
00000060: e6db abbd df2f 433d 5de2 50be 6a8b 003e
00000070: 13cb dc3d 5869 33be 1f7b 293e 5ac6 b03d
00000080: 955b 943d 160f 5fbd da42 2c3e 9549 9dbc
00000090: 4e75 2bbe f57d 92bd c545 85be eb92 04bd
000000a0: f6b0 0ebe bf6b ffbd 2f02 923c cc92 4e3e
000000b0: c8df 86be 2986 03bc 5c41 43be f2c6 833b
000000c0: add6 173e 3950 d13d 8222 af3d d631 d13d
000000d0: c5c3 33bd 5639 9a3d 0ed9 00be b142 57be
000000e0: 67fb 04be 109a 1f3e de94 53bd 9138 98be
000000f0: f6fc 283d 01f9 193e b83d acbe e221 72bd
00000100: 539e 4abd 4bbb 27bd 7f36 39bd 4e9b cebb
00000110: c5ff 1cbe 9f46 bb3d 967f 133e 953e fa3d
00000120: 1af9 30be 807f 2fbe 1d5b 5e3d 1dd6 7a3d
00000130: 4cf2 8d3d 5790 30be cd8f 06bd a814 e93d
00000140: 06dc 463e cf7f 5cbd c642 46bd 0f1c 373b
00000150: 9df8 fcbd d30c b5bd 6574 d0be a66a 723e
00000160: b00c 8ebc ebb1 e13d 6276 04be 2ec0 153e
00000170: 5c1c d53c 38fb c93e 6451 d9bc 6bb0 1fbc
00000180: 6686 1e3e 2833 d63d 6f4f a9bc bb6e ed3b
00000190: 418c aa3d 3825 0bbe 4bb8 46bd 7fb5 27be
000001a0: 0005 d33d 7201 87bd e68a a7bd 7aee 893e
000001b0: cc1b 9d3d 84a2 52bc e86b c33d 79e4 e8bd
000001c0: 725d 113e 8ca2 42bd a299 f5bb 9d60 333d
000001d0: a677 7dbe 7159 2a3e ae8f 793e cc3b c43e
000001e0: cc50 cfbd 32bb 043d 5aa8 a23e 6228 35be
000001f0: 5705 303e 9473 d3bd 14fa 91bd ca0b e7bc
00000200: bb0d 2c3d 13dd 2f3e c836 b8be eb7a 943e
00000210: 2070 f0bc 5061 1ebe 8ee0 f9bd 18c7 5fbd
00000220: fa93 073e f825 453d 8b11 f2bc fe2f c5bd
00000230: 1c18 e5bd 4598 91bc 025b d63c 7e05 583e
00000240: 023f 81bd 59a8 1dbe 244e 1cbe 30b8 febd
00000250: 8e18 33bd f696 64bd b3f3 0abe 57fe aebd
00000260: d4d7 b53d 7f2a 023e c479 9b3d 9a5b 3f3e
00000270: f114 05be 1abd 743c 6616 823d bb3e dd3d
00000280: eafe 2d3e 1a15 ab3e 41e6 10be 6114 043e
00000290: b257 c13e 542e 843d e2a9 b4bd 267c 513e
000002a0: d8e6 063e 75a1 133e 3e42 5abd 52fd 15be
000002b0: 65e5 4b3d 60e1 b33c bc55 10be df24 e8bd
000002c0: 3913 56be c73f a2bd 9fab 8bbd 3dde b2bb
000002d0: 18a1 15bd d7df 933c eee9 ea3d 2248 a1be
000002e0: 7df8 8ebe f392 5dbe 3160 a8bd c3cc b53d
000002f0: 80e3 0a3e c735 51be 0fe8 c5bd 989f 6cbe
00000300: 2bf7 2bbd 9835 743d 8677 66bc 82d4 b73c
00000310: b0aa 7c3e e2e0 6cbd 986b 64bd dfea a4bd
00000320: 167f 31bc 03c1 07bd a724 e43d 2319 07be
00000330: d80c 0fbe 099d bebc 8a28 34bd f80c 66bd
00000340: 350d 303d d2da d63d 8db4 17be 74e5 3dbd
00000350: 2c96 ee3d f6ac 9bbe afdd 8bbd 2ea3 d2bd
00000360: 594a a83d 022e d4bd 1575 c1bd e0d6 e43c
00000370: 3064 3abe 0c76 04be a4aa a33d 25d1 54bd
00000380: 54af aa3d 7248 83be 2c9b 9dbd e74d 0dbe
00000390: d926 693d 8060 a5bc 1a4f 0dbe 15d8 a2bd
000003a0: c2cf 6ebe e7fb 333d a831 ec3c af22 bfbd
000003b0: 58e4 4ebe f2a1 dcbc 4681 0cbe 4969 953d
000003c0: e620 b23d 8261 1dbd 6394 c3bd 9b0d 863c
000003d0: 5e41 4d3d 16b5 2c3e ec65 3ebe 4b1b bfbd
000003e0: 54e3 143e b3f7 453d 48ba 7e3d bdc2 06be
000003f0: 1979 243e 29f4 11be fe68 35be 2230 873d

weight_hh_l0 f4 [128, 32]
-0.16125341 -0.145812 -0.08544639 0.28463906 -0.038056538 0.0023849714 -0.22283424 -0.031727713
0.14213327 0.21678737 0.060065933 0.22951974 -0.004794307 0.21147598 0.09082209 0.22469741
0.14275865 -0.118634105 0.08493334 -0.15871437 -0.041235365 -0.22928981 -0.15642075 -0.093574494
0.22462574 -0.05181176 0.10316955 0.20370704 0.07927537 0.07328396 0.065095186 -0.15566988
0.17615132 -0.19013621 0.12501763 0.05884798 0.03869105 0.18963538 -0.10602973 -0.17942166
0.11995784 -0.069979586 -0.031006338 -0.059541397 -0.17313057 0.16961575 0.13933253 0.111861564
0.13622248 0.18141152 -0.13142833 -0.028400216 0.120999485 -0.16701302 -0.19921117 -0.051750243
-0.032486618 -0.037256174 -0.28796673 0.01025603 -0.089092076 -0.0371371 0.0045935893 -0.04785879
0.11958547 -0.12545803 -0.07504432 0.12157913 0.02656197 0.070862524 -0.18234955 -0.16577508
-0.0350669 0.112569205 -0.1493903 0.09903059 -0.11429132 -0.121292345 0.1275913 -0.12599143
0.07990854 -0.0591471 0.12335545 -0.17929937 0.09509113 0.18505058 0.03906751 0.15547694
0.10240461 0.07849554 0.10061567 0.18456355 0.13399304 0.07483969 -0.1116576 0.093712024
0.045931127 0.021078289 0.12622537 0.10611493 -0.23013209 -0.041611876 -0.16709888 -0.011939254
-0.12809421 -0.12088632 0.08452363 -0.14302507 -0.228248 -0.07576952 -0.1702096 -0.009378178
0.030657489 0.3095004 -0.11808172 -0.13239211 -0.10023847 0.11528114 0.070975006 -0.12105896
-0.25116947 -0.015716093 -0.28020227 0.119383685 -0.17594275 -0.025000965 0.1443509 0.13791004
-0.14057788 -0.07448046 0.15775883 -0.096868195 0.13816604 -0.12890348 -0.042084154 0.11451634
-0.16670057 -0.22409342 -0.029838562 -0.12980925 -0.006856809 0.10311404 0.09506725 -0.14832492
-0.03057725 -0.15052338 -0.13243686 0.077833824 0.048530232 0.16522563 0.071824975 -0.11244425
0.028639155 -0.12499485 -0.17134784 -0.14702308 0.17627569 -0.08620682 0.12947318 -0.12211437
0.16624193 -0.099799566 0.050017036 -0.3350168 -0.07148531 -0.054352514 -0.0013516521 -0.06887925
-0.049810704 -0.012648398 0.12725149 -0.17725156 -0.14930087 0.05758449 -0.03438633 -0.03969099
-0.006503671 0.15003656 -0.1890958 0.13069001 0.0739778 -0.012175335 -0.021453999 -0.05390555
-0.079752594 -0.11175353 0.13904852 0.1881115 0.05545631 0.10241672 0.14821936 0.08210287
0.20218116 0.08722295 -0.15163964 0.26316905 -0.008011998 -0.05898481 0.014532171 -0.14470626
-0.062952384 -0.051926665 -0.028264575 -0.11836704 -0.012969883 0.1760944 -0.01202019 0.049685985
0.028517233 -0.11638035 0.027846396 -0.15048836 0.09466837 0.19340886 0.16007844 -0.015584414
-0.21858218 0.00762005 0.1112144 0.0117613785 -0.1834635 0.15420027 -0.16285305 0.050315183
0.21762948 -0.032058302 -0.04636186 0.23515205 -0.047341216 0.08192702 0.053471666 0.004601612
-0.01696988 -0.24794367 -0.04637266 -0.16139132 0.24789613 -0.07223964 0.092350125 0.04221159
0.11904608 -0.13919708 -0.13828076 -0.016667174 -0.18525825 -0.1152085 -0.056703433 -0.17147303
0.02891616 0.1636672 0.036816318 0.022511803 0.14493003 0.17445095 -0.032933246 0.093701504
00000000: 9d1f 25be be4f 15be 84fe aebd 36bc 913e
00000010: 2ce1 1bbd 2e4d 1c3b a92e 64be ebf4 01bd
00000020: 628b 113e 82fd 5d3e b207 763d 3907 6b3e
00000030: 9019 9dbb 298d 583e ef00 ba3d 1417 663e
00000040: 532f 123e 70f6 f2bd 88f1 ad3d 0586 22be
00000050: 6ae6 28bd f3ca 6abe c32c 20be fca3 bfbd
00000060: 4a04 663e 9138 54bd 8f4a d33d 9498 503e
00000070: 205b a23d e715 963d a050 853d ed67 1fbe
00000080: 0361 343e 11b3 42be 9f04 003e 940a 713d
00000090: 827a 1e3d c72f 423e 1d26 d9bd 50ba 37be
000000a0: 75ac f53d 7551 8fbd 0101 febc aee1 73bd
000000b0: 2449 31be c0af 2d3e 30ad 0e3e ad17 e53d
000000c0: e87d 0b3e f1c3 393e 2695 06be 92a7 e8bc
000000d0: 94ce f73d 7605 2bbe 03fe 4bbe 10f8 53bd
000000e0: b010 05bd ee99 18bd 6070 93be e808 283c
000000f0: e875 b6bd 121d 18bd d285 963b 9407 44bd
00000100: 3ae9 f43d 1278 00be d6b0 99bd 7bfe f83d
00000110: 7d98 d93c 5f20 913d d7b9 3abe f1c0 29be
00000120: 4fa2 0fbd af8a e63d c5f9 18be 8dd0 ca3d
00000130: 9111 eabd 1f68 f8bd 4ba7 023e e603 01be
00000140: 17a7 a33d 3b44 72bd c8a1 fc3d 419a 37be
00000150: 23bf c23d e67d 3d3e 4105 203d 5935 1f3e
00000160: 82b9 d13d 45c2 a03d 970f ce3d 3afe 3c3e
00000170: 7935 093e 8d45 993d bdac e4bd 17ec bf3d
00000180: 4722 3c3d 60ac ac3c 3941 013e c952 d93d
00000190: bfa7 6bbe 3771 2abd f81b 2bbe dc9c 43bc
000001a0: 212b 03be 3f93 f7bd ba1a ad3d 2a75 12be
000001b0: d8b9 69be 0d2d 9bbd 6d4b 2ebe eea6 19bc
000001c0: 6a25 fb3c d676 9e3e d4d4 f1bd cc91 07be
000001d0: d449 cdbd 8518 ec3d 585b 913d c3ed f7bd
000001e0: 4999 80be 09bf 80bc ac76 8fbe 6f7f f43d
000001f0: 562a 34be d3ce ccbc b9d0 133e 4a38 0d3e
00000200: a6f3 0fbe 3689 98bd 888b 213e d562 c6bd
00000210: 667b 0d3e 46ff 03be 6f60 2cbd 8b87 ea3d
00000220: 8eb3 2abe bf78 65be 0070 f4bc b7ec 04be
00000230: 15af e0bb 742d d33d 9eb2 c23d 7de2 17be
00000240: 247d fabc cd22 1abe 879d 07be 5767 9f3d
00000250: a3c7 463d e830 293e f918 933d 2c49 e6bd
00000260: a99c ea3c 4dfd ffbd cf75 2fbe 388d 16be
00000270: 9d81 343e 348d b0bd 9e94 043e 1917 fabd
00000280: 533b 2a3e b763 ccbd aade 4c3d 5287 abbe
00000290: e466 92bd bea0 5ebd eb29 b1ba 9010 8dbd
000002a0: 4f06 4cbd 3a3b 4fbc 374e 023e 6f81 35be
000002b0: 54e2 18be b7dd 6b3d aed8 0cbd 0593 22bd
000002c0: bf1c d5bb 2fa3 193e 54a2 41be 9ad3 053e
000002d0: ac81 973d 0e7b 47bc 4cc0 afbc 11cc 5cbd
000002e0: 5455 a3bd 09df e4bd bc62 0e3e 4da0 403e
000002f0: 2826 633d dbbf d13d d1c6 173e 8d25 a83d
00000300: 9408 4f3e f2a1 b23d 6c47 1bbe 18be 863e
00000310: c144 03bc 0e9a 71bd 5818 6e3c e12d 14be
00000320: 2eed 80bd 0eb1 54bd 1c8b e7bc 6b6a f2bd
00000330: a27f 54bc 1752 343e 55f0 44bc 8883 4b3d
00000340: f99c e93c d258 eebd 201e e43c 9f19 1abe
00000350: 7ee1 c13d f90c 463e 9aeb 233e c555 7fbc
00000360: 02d4 5fbe 9db1 f93b 60c4 e33d ccb2 403c
00000370: dbdd 3bbe ade6 1d3e f3c2 26be 4b17 4e3d
00000380: 43da 5e3e 914f 03bd efe5 3dbd b3cb 703e
00000390: dde8 41bd 5ac9 a73d 1b05 5b3d 1fc9 963b
000003a0: 6b04 8bbc f2e4 7dbe 42f1 3dbd c443 25be
000003b0: 7cd8 7d3e 60f2 93bd 1022 bd3d 0fe6 2c3d
000003c0: 6ece f33d ae89 0ebe 7999 0dbe 9989 88bc
000003d0: 57b4 3dbe 6ff2 ebbd dc41 68bd a096 2fbe
000003e0: 95e1 ec3c 6098 273e b5cc 163d ac6a b83c
000003f0: 8a68 143e 45a3 323e 03e5 06bd 93e6 bf3d

bias_ih_l0 f4 [128]
-0.07405889 -0.06209398 -0.02367038 -0.07194028 -0.15450804 0.13762829 -0.045073476 -0.18597926
0.029761901 0.014282894 0.16227065 0.13758062 0.058318987 -0.16133669 0.04744355 -0.13765237
-0.0060204854 0.15160736 -0.037360318 0.11373863 0.0424182 0.0025575275 -0.029935164 -0.0425746
0.13825297 0.06406725 -0.043565396 0.045480013 -0.040781397 -0.11567575 -0.18478131 -0.058189146
0.21673049 -0.05819874 -0.1563254 0.15202373 -0.1535098 -0.08190239 -0.13882457 -0.024000186
-0.12620518 0.088139385 -0.054795492 0.036783345 -0.04889329 0.16538478 -0.040321458 -0.111279696
0.10369621 0.1160392 -0.0755924 0.075196914 -0.13518563 0.09341631 0.1166577 0.10103689
0.0919389 0.14170666 0.12151163 0.1162103 -0.036201887 -0.15790646 -0.1824574 -0.16594079
0.11999651 0.13726188 -0.036116824 0.060699724 -0.07030976 -0.00085742195 0.100456364 -0.06128439
0.01880751 0.09850694 -0.11164878 0.045226682 -0.13474733 -0.057934415 -0.070755854 -0.19147724
-0.10965376 -0.13172626 0.13176873 0.0057520657 0.00046649692 0.11594722 0.08880149 -0.13977864
0.1537197 -0.1265873 0.12709183 -0.16636519 -0.12000757 0.14627628 0.006042985 -0.09910413
0.12308079 -0.07787989 0.018218113 -0.0067014806 -0.00055589806 0.06649679 -0.011540269 -0.16694428
-0.093524195 0.06682528 -0.07088957 0.07293151 0.03146377 -0.1800611 0.09337725 0.04249075
0.11726689 0.06726474 0.060109165 -0.0005077525 0.12948772 -0.012548812 -0.081196874 0.012366572
-0.06752044 0.10435544 0.11473579 -0.01993017 0.08954814 0.08816213 -0.12751137 -0.07392183
00000000: 30ac 97bd 4256 7ebd 62e8 c1bc 6d55 93bd
00000010: 5b37 1ebe 6eee 0c3e f79e 38bd 5971 3ebe
00000020: 3bcf f33c cd02 6a3c 472a 263e efe1 0c3e
00000030: e4df 6e3d 7235 25be 2b54 423d bef4 0cbe
00000040: 7e47 c5bb f63e 1b3e 2207 19bd cdef e83d
00000050: b5be 2d3d 319c 273b 973a f5bc b462 2ebd
00000060: 3092 0d3e b135 833d a171 32bd 4049 3a3d
00000070: 650a 27bd 68e7 ecbd 5037 3dbe be57 6ebd
00000080: 99ee 5d3e cd61 6ebd c413 20be 1cac 1b3e
00000090: ac31 1dbe 71bc a7bd 0728 0ebe 0a9c c4bc
000000a0: ee3b 01be 6c82 b43d 3d71 60bd 22aa 163d
000000b0: 5544 48bd a15a 293e 1d28 25bd 9ce6 e3bd
000000c0: ae5e d43d f6a5 ed3d 30d0 9abd d700 9a3d
000000d0: 1a6e 0abe 0d51 bf3d 3bea ee3d 6eec ce3d
000000e0: 764a bc3d 8d1b 113e 17db f83d aaff ed3d
000000f0: 6e48 14bd 3bb2 21be 1dd6 3abe 62ec 29be
00000100: bbc0 f53d 618e 0c3e 3cef 13bd 46a0 783d
00000110: 90fe 8fbd 9dc4 60ba 11bc cd3d 5705 7bbd
00000120: 3512 9a3c 02be c93d 1ea8 e4bd 9d3f 393d
00000130: 34fb 09be a34c 6dbd 72e8 90bd 9c12 44be
00000140: 2792 e0bd 40e3 06be 62ee 063e d37b bc3b
00000150: 2894 f439 bc75 ed3d 8edd b53d 2222 0fbe
00000160: b268 1d3e 1aa0 01be 5c24 023e a35b 2abe
00000170: 87c6 f5bd 73c9 153e 3b04 c63b 1bf7 cabd
00000180: c811 fc3d 7e7f 9fbd 273e 953c 1898 dbbb
00000190: b0b9 11ba 782f 883d 6513 3dbc 71f3 2abe
000001a0: 9d89 bfbd b1db 883d 8d2e 91bd 1e5d 953d
000001b0: 27e0 003d f061 38be 923c bf3d c80a 2e3d
000001c0: a029 f03d 19c2 893d 0735 763d b21a 05ba
000001d0: 6e98 043e 8899 4dbc 8c4a a6bd 2a9d 4a3c
000001e0: 2848 8abd 4eb8 d53d 99fa ea3d 9944 a3bc
000001f0: 0465 b73d 598e b43d 5792 02be 5464 97bd

bias_hh_l0 f4 [128]
-0.11834921 -0.048986454 -0.15746091 0.08954293 -0.010732445 -0.10627199 -0.14672334 -0.008414691
0.11489962 0.17917861 -0.09418302 0.012752848 -0.17997445 0.13293228 0.08800704 0.022768391
-0.0929873 0.14416753 -0.133051 0.06946135 0.19009568 0.1832746 -0.0014095699 0.021723319
0.03991428 0.0489385 0.029989295 -0.046101976 -0.1224075 -0.12501875 -0.11526199 -0.007998189
0.12797141 -0.03210892 0.081364 -0.054120157 0.15485555 0.08094111 0.0021178825 -0.16882558
-0.05331952 0.031917166 -0.035860818 -0.02440549 -0.05167559 -0.014052141 0.06563325 -0.061167356
-0.027101887 0.048115384 -0.047239535 -0.106088884 0.008721621 -0.06937997 -0.1064083 0.0730493
-0.11164318 -0.16692187 -0.13202539 0.055517443 -0.06442293 0.07601017 -0.0503725 0.1354503
-0.16326232 -0.13151114 0.13396244 0.0050686896 0.18635099 0.03146358 -0.08568612 -0.01439352
0.1600653 0.004888711 0.016184365 0.062520325 0.04596612 0.00850986 -0.14846082 -0.045218594
-0.016712308 0.110664174 0.057215393 -0.120829545 -0.15650867 0.055494215 -0.15479343 0.10829907
-0.08477723 -0.020946784 0.1300589 -0.05151865 -0.108552955 -0.13236801 -0.018506084 0.0048916065
0.008041006 0.056445733 -0.13788205 0.22061145 0.0980582 -0.030113718 0.18703929 0.14364922
-0.14752556 0.08917595 0.1703786 0.14982343 0.043625236 0.013121097 0.01323139 0.05035465
0.13575958 -0.0695269 0.1652051 -0.12399733 0.09253582 0.17854556 0.07057894 0.14495586
0.12030857 0.08000386 0.16665044 -0.013726662 -0.03979204 0.08262024 -0.10049326 0.12681621
00000000: 1261 f2bd 05a6 48bd 6f3d 21be 4962 b73d
00000010: 23d7 2fbc 21a5 d9bd a53e 16be c6dd 09bc
00000020: 7e50 eb3d 997a 373e 07e3 c0bd 52f1 503c
00000030: 394b 38be 661f 083e 093d b43d c784 ba3c
00000040: 2070 bebd a7a0 133e 853e 08be c141 8e3d
00000050: 71a8 423e 56ac 3b3e 51c1 b8ba 1af5 b13c
00000060: 287d 233d bd73 483d 1cac f53c 6dd5 3cbd
00000070: c9b0 fabd ea04 00be 7a0e ecbd d60a 03bc
00000080: f00a 033e a584 03bd 2ba2 a63d 19ad 5dbd
00000090: 7492 1e3e 74c4 a53d 2ccc 0a3b 9de0 2cbe
000000a0: 9265 5abd 93bb 023d cbe2 12bd 06ee c7bc
000000b0: c9a9 53bd f43a 66bc ba6a 863d 9f8a 7abd
000000c0: c704 debc a314 453d 3e7e 41bd 2145 d9bd
000000d0: 21e5 0e3c 1617 8ebd 98ec d9bd df9a 953d
000000e0: 2ea5 e4bd 91ed 2abe aa31 07be 4266 633d
000000f0: 2bf0 83bd 38ab 9b3d 6553 4ebd 7cb3 0a3e
00000100: 3d2e 27be dbaa 06be 732d 093e 4017 a63b
00000110: cbd2 3e3e f4df 003d 347c afbd ccd2 6bbc
00000120: 28e8 233e 7b31 a03b 1395 843c a80a 803d
00000130: f846 3c3d f16c 0b3c 1d06 18be 2237 39bd
00000140: 40e8 88bc e6a3 e23d b05a 6a3d 7b75 f7bd
00000150: cf43 20be e74d 633d 2b82 1ebe e7cb dd3d
00000160: af9f adbd 9798 abbc 292e 053e 3805 53bd
00000170: 0351 debd 7b8b 07be 129a 97bc c549 a03b
00000180: 6cbe 033c a433 673d f430 0dbe f8e7 613e
00000190: bdd2 c83d 0bb1 f6bc 3a87 3f3e c818 133e
000001a0: f110 17be e1a1 b63d ba77 2e3e 506b 193e
000001b0: 60b0 323d dff9 563c 79c8 583c ad40 4e3d
000001c0: 8f04 0b3e 1f64 8ebd 872b 293e 50f2 fdbd
000001d0: 6c83 bd3d a6d4 363e b18b 903d 4f6f 143e
000001e0: 5764 f63d 10d9 a33d 6aa6 2a3e cbe5 60bc
000001f0: fafc 22bd cd34 a93d 69cf cdbd 1cdc 013e

weight_ih_l0 f4 [128, 2]
0.16889825 0.25682068 0.12066779 -0.09527149 0.26334846 -0.005697635 0.002980594 -0.059865423
-0.049951065 -0.2273385 -0.12741137 0.35052443 -0.04078702 0.09485818 -0.040919736 -0.16893417
0.094460845 -0.3123667 0.12791751 0.28525695 -0.036721267 -0.14983693 0.012675798 -0.10836764
0.06423272 0.10689427 -0.055447567 -0.54465395 -0.025689907 -0.12093424 0.034901626 0.72771007
-0.07226786 0.081438996 0.21463044 -0.009747248 0.011367302 -0.078377776 0.2735717 0.3803032
0.06733119 -0.47289744 -0.015390711 -0.1739403 -0.011406135 0.180508 -0.5001679 -0.13026652
0.05173688 -0.08013826 -0.24390393 -0.29491317 0.16021754 0.15095964 -0.1136526 0.19377331
-0.58984536 -0.4448638 -0.023046972 -0.09038409 0.21558239 -0.18855429 -0.22674464 -0.17433602
-0.0001728695 -0.031734474 0.48808497 0.054468144 0.40127248 -0.1162837 0.03455006 -0.2136651
0.23197033 -0.30750188 -0.016630767 -0.11449861 -0.13323799 0.10420834 0.17042795 0.0067125545
0.052594192 -0.017566217 0.40540534 0.37532067 0.05951207 0.02059358 -0.20328428 -0.2071563
0.10253533 0.6690496 0.10637181 -0.477748 0.36771286 0.26510242 0.045098912 0.3363474
-0.21754466 -0.31495637 0.15262875 -0.04924887 0.023508277 0.1030048 -0.22170942 -0.1536905
0.5545966 0.20187943 0.33707586 0.032751195 -0.07509785 0.23960993 -0.077879176 -0.2241047
-0.18664166 0.026943592 0.30935246 -0.094850786 0.045510225 0.0015623617 0.08728435 0.00919085
0.082766816 -0.32944277 0.07053554 0.08636895 0.06892587 -0.4557734 -0.10977936 -0.3336273
0.17831302 0.15264101 -0.13740787 -0.40630305 -0.19779943 -0.05682664 -0.41895744 0.02881245
-0.109048 -0.2123732 0.20944433 -0.422874 -0.08403893 0.06943007 0.081653155 -0.18344589
0.20157185 0.14061551 0.04618044 0.41519943 0.2088699 0.2623325 -0.16570911 -0.19769785
-0.20214954 -0.18279733 0.21448313 0.2828103 -0.21477664 -0.43142167 -0.15261242 0.38740626
-0.07705569 0.25731426 -0.117061086 0.35645798 -0.03622068 0.30105436 0.14605214 0.0072435513
-0.091786 -0.052680742 -0.1849593 0.22664914 0.24684736 -0.22311799 0.24699846 0.023839425
0.21769442 0.33382022 0.3275073 0.3518195 0.05046071 0.29986316 0.10799852 -0.35299093
0.16357636 0.083456635 0.24509962 0.24397941 -0.026188774 -0.18021664 -0.23825808 0.12521164
-0.12611312 -0.02699003 0.28699794 -0.009361563 0.21448852 -0.17146054 0.11649643 -0.109397635
-0.026858633 -0.43715137 -0.17576736 -0.011562583 -0.09605273 -0.27130613 -0.16623862 -0.24108113
0.07529444 0.010500576 0.00197504 0.029180424 0.21679953 0.028003523 0.09645971 -0.2707574
0.33829328 0.21112694 0.06738287 -0.44068888 0.2235114 0.030602423 -0.21985729 0.4758984
-0.12758556 -0.10928103 0.026767537 -0.281899 -0.12109816 -0.26598102 0.123139344 0.022982648
0.1230476 -0.15688182 0.04079936 -0.07002059 0.29660806 -0.06007228 -0.42150936 -0.23726648
0.12288317 0.06297626 0.06460856 -0.36613938 0.18151034 -0.29061538 0.13033105 0.40744615
-0.28944212 -0.40378627 -0.009823065 -0.18498875 0.082357965 -0.18751977 0.0033765265 -0.2501172
00000000: aaf3 2c3e 007e 833e ad20 f73d b31d c3bd
00000010: 9cd5 863e 3ab3 babb 1256 433b 7235 75bd
00000020: 7d99 4cbd 6ccb 68be 2078 02be f077 b33e
00000030: 4a10 27bd 0145 c23d 749b 27bd 14fd 2cbe
00000040: b074 c13d 87ee 9fbe cffc 023e 330d 923e
00000050: 0a69 16bd da6e 19be 26ae 4f3c daef ddbd
00000060: 728c 833d 62eb da3d fd1c 63bd 716e 0bbf
00000070: a473 d2bc 5fac f7bd 02f5 0e3d 354b 3a3f
00000080: 2c01 94bd 7dc9 a63d 15c8 5b3e ecb2 1fbc
00000090: ec3d 3a3c 8784 a0bd 9711 8c3e 1ab7 c23e
000000a0: efe4 893d 9d1f f2be 5229 7cbc 681d 32be
000000b0: cce0 3abc 17d7 383e 010b 00bf 9664 05be
000000c0: 0dea 533d 871f a4bd f4c1 79be dcfe 96be
000000d0: 1110 243e 2a95 1a3e b2c2 e8bd 836c 463e
000000e0: 1b00 17bf 30c5 e3be 01cd bcbc 4b1b b9bd
000000f0: a1c1 5c3e 6014 41be bf2f 68be 2485 32be
00000100: 4e44 35b9 02fc 01bd 46e6 f93e fd19 5f3d
00000110: 9673 cd3e 2626 eebd 5d84 0d3d 06cb 5abe
00000120: a189 6d3e e370 9dbe 3f3d 88bc 3f7e eabd
00000130: 8a6f 08be 2f6b d53d aa84 2e3e fdf4 db3b
00000140: 026d 573d 07e7 8fbc 4a91 cf3e 082a c03e
00000150: eec2 733d deb3 a83c c129 50be c820 54be
00000160: 0bfe d13d d646 2b3f 77d9 d93d 639b f4be
00000170: dc44 bc3e 81bb 873e a3b9 383d ba35 ac3e
00000180: 07c4 5ebe f641 a1be b64a 1c3e 2fb9 49bd
00000190: 6e94 c03c 2ef4 d23d cb07 63be 0b61 1dbe
000001a0: 0bfa 0d3f 7bb9 4e3e 3595 ac3e 1e26 063d
000001b0: e7cc 99bd 4e5c 753e 1e7f 9fbd b47b 65be
000001c0: fe1e 3fbe cfb8 dc3c 7263 9e3e 2141 c2bd
000001d0: ee68 3a3d 29c8 cc3a 23c2 b23d 3895 163c
000001e0: a681 a93d b9ac a8be f074 903d 34e2 b03d
000001f0: 0229 8d3d 225b e9be 00d4 e0bd 33d1 aabe
00000200: b097 363e ed4d 1c3e a6b4 0cbe f406 d0be
00000210: ef8b 4abe 0dc3 68bd 9781 d6be 1608 ec3c
00000220: 8f54 dfbd 5c78 59be 9378 563e f182 d8be
00000230: 9a1c acbd 5a31 8e3d c539 a73d 3dd9 3bbe
00000240: da68 4e3e 83fd 0f3e b327 3d3d 0595 d43e
00000250: fee1 553e 7250 863e a6af 29be 4e71 4abe
00000260: 4a00 4fbe 392f 3bbe 77a1 5b3e 83cc 903e
00000270: 68ee 5bbe 4de3 dcbe 6e46 1cbe 1d5a c63e
00000280: 60cf 9dbd b2be 833e b9bd efbd a981 b63e
00000290: 235c 14bd cc23 9a3e b18e 153e 505b ed3b
000002a0: 4cfa bbbd c3c7 57bd f965 3dbe b616 683e
000002b0: 8ec5 7c3e 0b79 64be 2aed 7c3e e64a c33c
000002c0: 49eb 5e3e 7cea aa3e 09af a73e af21 b43e
000002d0: e4af 4e3d aa87 993e 542e dd3d 3abb b4be
000002e0: 9080 273e 50eb aa3d 65fb 7a3e bdd5 793e
000002f0: d789 d6bc b68a 38be edf9 73be 7b37 003e
00000300: cc23 01be 321a ddbc 65f1 923e 3e61 19bc
00000310: e1a2 5b3e 5a93 2fbe ae95 ee3d de0b e0bd
00000320: a306 dcbc 4ed2 dfbe 5cfc 33be fd70 3dbc
00000330: 4bb7 c4bd a3e8 8abe 753a 2abe f9dd 76be
00000340: f933 9a3d 9c0a 2c3c ac6f 013b c90b ef3c
00000350: b200 5e3e a567 e53c ab8c c53d b7a0 8abe
00000360: c734 ad3e a931 583e 0800 8a3d f9a1 e1be
00000370: 2ce0 643e efb1 fa3c 4522 61be f5a8 f33e
00000380: caa5 02be bcce dfbd 9847 db3c 1155 90be
00000390: 5002 f8bd aa2e 88be 7b30 fc3d 1b46 bc3c
000003a0: 6100 fc3d a1a5 20be 3b1d 273d f566 8fbd
000003b0: 03dd 973e 5a0e 76bd 13d0 d7be fcf5 72be
000003c0: 2caa fb3d b3f9 803d 7e51 843d 9f76 bbbe
000003d0: d9dd 393e 8acb 94be 8175 053e c89c d03e
000003e0: c231 94be 13bd cebe ecf0 20bc b16d 3dbe
000003f0: 4bab a83d 2f05 40be b748 5d3b 5d0f 80be

weight_hh_l0 f4 [128, 32]
-0.12680028 0.07015692 -0.23790638 0.014442379 0.033693146 0.18243255 -0.099329665 -0.041986894
-0.1334759 0.006716312 0.2555163 0.09582522 0.12697573 0.07412376 -0.055248097 -0.043616418
0.07772578 -0.11954654 -0.014671831 0.0769671 0.060549207 -0.17032076 -0.18915549 0.10067469
-0.18636402 0.30034366 -0.20469679 0.16931011 0.020647833 -0.22672802 -0.0022576628 0.060317874
-0.1103423 -0.0034030662 0.17565827 -0.15120307 0.09876138 0.19953929 -0.10244238 -0.003940328
-0.10142193 0.055983465 0.009915817 -0.20534535 0.19932246 0.018302748 0.07885921 -0.06471021
0.011304097 -0.0014372043 -0.016505139 0.09381785 0.2639526 -0.28724816 0.049611233 0.27129743
0.037479497 0.008389591 0.044060457 -0.10477609 0.11274889 0.04762601 0.070851 -0.12697849
-0.1552845 0.15370415 -0.04149405 -0.17734307 -0.06030973 0.09127047 -0.21165073 0.079302005
-0.18742903 -0.27637997 -0.020384545 -0.051699124 0.008135544 0.1992716 0.23596105 -0.15877111
-0.042582393 -0.037616823 -0.25992802 -0.2605786 -0.015183491 -0.18887508 -0.2393275 0.31087008
-0.3597444 0.07957167 -0.17129184 -0.064889364 -0.056956112 -0.03657713 0.16084667 -0.275941
0.11650573 0.009254904 0.014879447 -0.10023882 0.02441306 0.18198487 0.13044572 0.13299139
0.1629435 0.1616958 0.07089284 -0.0898428 -0.025737418 -0.036627296 -0.07641095 -0.37677056
-0.22956938 -0.10333557 -0.123908415 -0.16460945 -0.026176207 0.0517658 -0.06781772 -0.009371224
-0.010080701 0.21516034 -0.075553335 -0.062805116 0.18445691 -0.012537832 0.20101021 -0.23820308
-0.0630018 0.17431332 -0.049708676 0.043927018 0.13224925 0.26714656 0.11303812 -0.048749633
0.0007911278 0.10275246 -0.07643403 -0.03419699 0.050161462 0.07648792 0.13981912 -0.009196654
-0.21856427 -0.0032541875 -0.041574974 -0.06675405 0.17170653 0.078571744 0.067470305 -0.07701659
-0.19597334 0.05843883 -0.1887565 0.053743057 0.029035468 0.1230553 0.14401352 -0.077732414
-0.067524046 -0.04402347 -0.1682116 -0.20492533 -0.033321507 0.24801584 -0.16249576 0.25163487
0.004245803 -0.13935705 0.017512165 0.10337675 0.042814862 -0.07800515 0.074396946 -0.26781443
-0.15019688 0.11232415 -0.123476505 0.096663065 -0.096756436 -0.1144885 -0.2635871 0.14678475
0.096526876 0.28373462 0.12503228 -0.09502061 0.08235869 -0.17976266 0.24452236 -0.15927407
0.10931576 0.03896052 -0.09037843 -0.083245896 0.20418945 -0.09506288 -0.18414204 0.12325642
-0.17451435 0.04247815 0.09931413 -0.012202027 0.044821355 0.23516293 -0.098301396 -0.33272275
-0.09099873 -0.015886039 0.09300515 -0.108475335 0.20486106 0.07243454 -0.20892662 0.2340811
-0.10903602 0.17072111 -0.09336829 -0.009343863 0.17873916 -0.11033442 -0.065863416 -0.10410284
0.012710528 0.26259887 -0.026175791 0.0013625859 0.15265138 -0.02229682 0.016940013 0.12993716
-0.10486589 -0.24399073 -0.10212552 0.21780364 0.11665769 -0.16914926 0.14348257 0.018235642
0.037375454 -0.09539378 -0.30997854 0.016086016 0.049068023 -0.101340435 -0.2491578 -0.09629346
0.0037160253 -0.04273335 0.004387866 0.12685443 -0.0726917 0.05257167 0.17550144 -0.06552801
00000000: efd7 01be 6eae 8f3d bb9d 73be ba9f 6c3c
00000010: d301 0a3d 99cf 3a3e 5a6d cbbd 73fa 2bbd
00000020: e8ad 08be 8214 dc3b 08d3 823e 0340 c43d
00000030: ed05 023e 33ce 973d d44b 62bd 21a7 32bd
00000040: b22e 9f3d d1d4 f4bd 1f62 70bc eda0 9d3d
00000050: 7202 783d 9168 2ebe fab1 41be 882e ce3d
00000060: 36d6 3ebe a5c6 993e 099c 51be a15f 2d3e
00000070: a525 a93c 642b 68be 4cf5 13bb e00f 773d
00000080: 25fb e1bd fa05 5fbb c3df 333e fad4 1abe
00000090: 6843 ca3d 0754 4c3e 4fcd d1bd de1d 81bb
000000a0: 4db6 cfbd eb4e 653d f375 223c 0d46 52be
000000b0: 301b 4c3e a5ef 953c f080 a13d c986 84bd
000000c0: d234 393c 9360 bcba c935 87bc 9323 c03d
000000d0: cc24 873e 3112 93be 2635 4b3d 7fe7 8a3e
000000e0: 1a84 193d 7f74 093c bd78 343d d994 d6bd
000000f0: e4e8 e63d 7e13 433d 541a 913d a606 02be
00000100: e602 1fbe 9f64 1d3e aaf5 29bd 6c99 35be
00000110: 5607 77bd 03ec ba3d f8ba 58be 1769 a23d
00000120: 65ed 3fbe ad81 8dbe 7dfd a6bc 76c2 53bd
00000130: f24a 053c db0d 4c3e c69f 713e e594 22be
00000140: e06a 2ebd 1914 1abd 4915 85be 8f6a 85be
00000150: 2dc4 78bc 7868 41be 4512 75be 5d2a 9f3e
00000160: 6b30 b8be 79f6 a23d 2167 2fbe b7e4 84bd
00000170: d04a 69bd e7d1 15bd fdb4 243e 2448 8dbe
00000180: 8e9a ee3d e2a1 173c edc8 733c 034a cdbd
00000190: e6fd c73c 3e5a 3a3e 9093 053e e52e 083e
000001a0: a9da 263e 9593 253e 4430 913d 80ff b7bd
000001b0: 47d7 d2bc 8106 16bd 587d 9cbd 12e8 c0be
000001c0: 3c14 6bbe 99a1 d3bd b2c3 fdbd 618f 28be
000001d0: 7c6f d6bc 6008 543d 04e4 8abd c389 19bc
000001e0: 8629 25bc fe52 5c3e b5bb 9abd f89f 80bd
000001f0: 46e2 3c3e 7b6b 4dbc 9fd5 4d3e 82eb 73be
00000200: 1607 81bd 317f 323e 539b 4bbd d1ec 333d
00000210: 596c 073e 6fc7 883e 8880 e73d b2ad 47bd
00000220: b063 4f3a e26f d23d 7289 9cbd 2512 0cbd
00000230: 1b76 4d3d b3a5 9c3d be2c 0f3e 90ad 16bc
00000240: 50cf 5fbe 3544 55bb 854a 2abd 59b6 88bd
00000250: d6d3 2f3e 39ea a03d df2d 8a3d e0ba 9dbd
00000260: 3cad 48be 8e5d 6f3d 6249 41be ae21 5c3d
00000270: cadb ed3c 6b04 fc3d 4878 133e 2c32 9fbd
00000280: 0c4a 8abd f451 34bd a93f 2cbe f2d7 51be
00000290: 227c 08bd ddf7 7d3e 4a65 26be 49d6 803e
000002a0: 6120 8b3b 9db3 0ebe ac75 8f3c 31b7 d33d
000002b0: a35e 2f3d 2ac1 9fbd 6d5d 983d f91e 89be
000002c0: 36cd 19be 340a e63d 40e1 fcbd 49f7 c53d
000002d0: 3d28 c6bd f278 eabd e3f4 86be be4e 163e
000002e0: e2af c53d aa45 913e 7608 003e 2a9a c2bd
000002f0: acab a83d b413 38be 1264 7a3e be18 23be
00000300: f1e0 df3d 1195 1f3d 5418 b9bd d37c aabd
00000310: 0a17 513e 54b0 c2bd bb8f 3cbe dd6d fc3d
00000320: e4b3 32be 92fd 2d3d 3565 cb3d 03eb 47bc
00000330: 9996 373d 8dce 703e 3e52 c9bd a35a aabe
00000340: 8b5d babd 7023 82bc 7c79 be3d 5128 debd
00000350: 19c7 513e 8f58 943d dcf0 55be f5b2 6f3e
00000360: 474e dfbd 84d1 2e3e e037 bfbd 0117 19bc
00000370: 6607 373e 03f7 e1bd 66e3 86bd df33 d5bd
00000380: d23f 503c 5c73 863e 9d6e d6bc cc98 b23a
00000390: a550 1c3e d2a7 b6bc c8c5 8a3c 3f0e 053e
000003a0: eec3 d6bd b5d8 79be 2f27 d1bd eb07 5f3e
000003b0: 3aea ee3d 7735 2dbe 18ed 123e ea62 953c
000003c0: 0117 193d d05d c3bd 82b5 9ebe d2c6 833c
000003d0: 8dfb 483d 938b cfbd 3923 7fbe 8135 c5bd
000003e0: 8f88 733b 2a09 2fbd 16c8 8f3b 21e6 013e
000003f0: 63df 94bd 6455 573d a6b6 333e 8d33 86bd

bias_ih_l0 f4 [128]
-0.0016789127 -0.03481162 0.19135807 0.12640445 0.016257016 0.15500134 0.22104368 -0.05193879
0.057777874 0.1519942 -0.10743689 -0.12906748 0.13006027 0.37690547 -0.124090455 0.30508307
0.065815106 0.13810693 0.24106495 0.041598145 0.22435202 -0.01855545 -0.085022874 -0.060898777
0.0031628443 0.04356198 0.094930016 0.06494552 0.1440551 0.17736074 0.21886668 0.03795365
0.23750608 -0.044934835 0.03397324 -0.08252507 -0.030083343 0.12232053 0.026898446 0.21822456
0.20643899 0.30911392 0.10781392 0.18420066 -0.011224174 0.39043266 0.07212549 0.17409651
-0.082169384 0.2194876 0.19960077 0.25923625 0.13130155 0.11760495 -0.00423375 0.011540409
0.006830156 0.18390648 0.096186794 0.28372553 -0.10427959 0.09961626 0.032186523 0.013918482
-0.100381285 0.042985443 0.05911719 -0.19523832 0.0338839 0.09250094 0.11612703 0.13703057
0.11215834 -0.092682265 0.14614366 0.055746138 0.046339396 0.032437313 0.10551974 -0.0997392
-0.14346918 -0.12155473 0.14347106 -0.08742023 0.04883662 -0.18345958 -0.07443102 0.16140784
-0.13071811 -0.08213301 0.1055002 0.0044234213 0.03495079 -0.09877563 -0.02861354 0.051221065
-0.034614842 0.23127118 0.26478443 0.16269189 0.099416435 0.19120406 0.20739226 0.062372606
0.03436018 0.21079704 0.07654289 -0.12366713 0.013453728 0.44409135 0.07630382 0.17776258
0.09287989 -0.10410271 0.13931307 0.15220189 0.004727612 0.14640228 0.017780915 -0.12866855
0.22117452 0.1298966 0.25334132 -0.0601301 -0.10073624 0.022301037 0.15987606 -0.012734995
00000000: f60e dcba a196 0ebd 5ff3 433e 2b70 013e
00000010: 6f2d 853c acb8 1e3e 4659 623e c5bd 54bd
00000020: 7ea8 6c3d 5ea4 1b3e df07 dcbd 442a 04be
00000030: 852e 053e c1f9 c03e 2323 febd d933 9c3e
00000040: 12ca 863d e76b 0d3e bbd9 763e d162 2a3d
00000050: 89bc 653e 9901 98bc 7920 aebd ff70 79bd
00000060: b947 4f3b 0c6e 323d ab6a c23d 2802 853d
00000070: 2e83 133e 0e9e 353e 961e 603e 4975 1b3d
00000080: cb34 733e 970d 38bd 8627 0b3d e702 a9bd
00000090: 5871 f6bc 3083 fa3d 215a dc3c 4276 5f3e
000000a0: be64 533e 2e44 9e3e 8bcd dc3d 199f 3c3e
000000b0: 99e5 37bc cae6 c73e 87b6 933d 5b46 323e
000000c0: 6c48 a8bd 5bc1 603e 2564 4c3e 9dba 843e
000000d0: ea73 063e ddda f03d 45bb 8abb fc13 3d3c
000000e0: 80cf df3b fb51 3c3e 95fd c43d 7944 913e
000000f0: 8a90 d5bd 9c03 cc3d 04d6 033d 580a 643c
00000100: b494 cdbd 8111 303d de24 723d 8eec 47be
00000110: d8c9 0a3d 2271 bd3d 02d4 ed3d be51 0c3e
00000120: 46b3 e53d 33d0 bdbd afa6 153e 1056 643d
00000130: 61ce 3d3d fddc 043d bc1a d83d 1144 ccbd
00000140: 96e9 12be b0f1 f8bd 14ea 123e 6109 b3bd
00000150: e808 483d d4dc 3bbe 4a6f 98bd 1948 253e
00000160: f8da 05be 5a35 a8bd 7d10 d83d 59f2 903b
00000170: 8f28 0f3d e14a cabd f166 eabc 2ecd 513d
00000180: 4bc8 0dbd 5ad2 6c3e d391 873e b498 263e
00000190: d89a cb3d ffca 433e a35e 543e 6b7a 7f3d
000001a0: 43bd 0c3d 2edb 573e 85c2 9c3d 3145 fdbd
000001b0: 066d 5c3c f15f e33e 2d45 9c3d 6507 363e
000001c0: d037 be3d cd33 d5bd 16a8 0e3e d0da 1b3e
000001d0: 15ea 9a3b 7bea 153e 48a9 913c b0c1 03be
000001e0: 937b 623e 9d03 053e f4b5 813e fb4a 76bd
000001f0: cd4e cebd aab0 b63c 8db6 233e 71a6 50bc

bias_hh_l0 f4 [128]
0.22736071 0.22467656 0.12154587 -0.042526513 0.110291384 0.24268189 -0.02557453 0.052145865
0.13645504 0.22412533 0.09762037 0.07968661 0.1306018 0.3861909 0.105193935 0.3561581
0.014768166 0.058984045 0.15082268 -0.0033634051 0.22941671 0.0908792 0.20936105 -0.13437574
-0.10383482 -0.039596375 0.05917188 -0.031229543 0.16989763 0.2015696 0.07805183 0.06692472
0.10329818 0.17607939 0.15789804 0.021882411 -0.01967125 -0.044545412 -0.09620827 -0.07174585
-0.055204753 0.13041872 0.026482262 0.07844587 0.13332038 0.40352508 -0.08431848 0.10017087
-0.014703086 -0.04060884 0.05459761 0.072052434 0.12370797 0.040726118 0.14060305 -0.13603367
0.03126517 0.22881076 0.0069130454 0.0647699 0.09416902 -0.09265626 -0.0873503 0.19087094
0.078907065 0.060927633 -0.1295955 -0.1620599 0.10737994 -0.108761325 -0.08807215 0.13636076
-0.14857142 0.12997694 0.07106465 0.16307473 0.007470691 0.10531929 0.08262062 0.0070327646
-0.054568913 0.04962121 -0.13973208 0.01062834 0.0958027 -0.1417711 0.05715365 0.09708053
-0.06656466 0.14040363 -0.09869889 0.020560242 -0.11377313 -0.13743222 0.19641387 -0.12834406
0.22976899 0.20724326 0.1641909 -0.103625484 -0.07376398 0.20439969 0.13248095 0.13609764
0.07743364 0.22352245 0.021773135 -0.10289616 0.021334905 0.30324945 0.14204732 0.27984354
0.24097295 -0.04571717 -0.08264048 0.1374921 -0.012439855 -0.043729395 0.13864416 0.15811065
0.09610982 0.25572938 0.041676443 0.1252689 0.1747805 0.08949219 0.084697574 0.051975027
00000000: 3fd1 683e 9d11 663e 0bed f83d 4830 2ebd
00000010: 73e0 e13d 9a81 783e ad81 d1bc e796 553d
00000020: dfba 0b3e 1c81 653e 30ed c73d bc32 a33d
00000030: 7abc 053e d0ba c53e eb6f d73d 5b5a b63e
00000040: 2df6 713c 4199 713d 4371 1a3e 936c 5cbb
00000050: 37ec 6a3e e01e ba3d be62 563e cb99 09be
00000060: 5aa7 d4bd cf2f 22bd 375e 723d 19d5 ffbc
00000070: a5f9 2d3e 4368 4e3e a3d9 9f3d d40f 893d
00000080: ff8d d33d 284e 343e 06b0 213e be42 b33c
00000090: 9a25 a1bc 4075 36bd d708 c5bd 7def 92bd
000000a0: 611e 62bd 7c8c 053e 54f1 d83c 3aa8 a03d
000000b0: 2385 083e d79a ce3e 2baf acbd 6326 cd3d
000000c0: 36e5 70bc 7455 26bd bea1 5f3d 3a90 933d
000000d0: 9b5a fd3d 6ed0 263d 3ffa 0f3e 694c 0bbe
000000e0: e80f 003d 5e4d 6a3e d486 e23b 15a6 843d
000000f0: b0db c03d 91c2 bdbd b7e4 b2bd ac73 433e
00000100: 079a a13d 418f 793d afb4 04be 08f3 25be
00000110: 04ea db3d 42be debd 2c5f b4bd 28a2 0b3e
00000120: 1b23 18be ad18 053e 588a 913d 10fd 263e
00000130: b3cc f43b a4b1 d73d 0035 a93d 1b73 e63b
00000140: a783 5fbd 9c3f 4b3d ed15 0fbe 7d22 2e3c
00000150: 3534 c43d 712c 11be f219 6a3d 28d2 c63d
00000160: 0d53 88bd f8c5 0f3e a522 cabd f46d a83c
00000170: e301 e9bd 08bb 0cbe b820 493e a06c 03be
00000180: 9048 6b3e 9437 543e a921 283e 9939 d4bd
00000190: 9211 97bd 274e 513e 16a9 073e 2e5d 0b3e
000001a0: 8795 9e3d 12e3 643e 935d b23c 39bb d2bd
000001b0: 8ac6 ae3c 8343 9b3e da74 113e a747 8f3e
000001c0: 9dc1 763e ed41 3bbd 693f a9bd bbca 0c3e
000001d0: 89d0 4bbc 981d 33bd bcf8 0d3e c2e7 213e
000001e0: 3ad5 c43d f6ee 823e ebb4 2a3d 7e46 003e
000001f0: a9f9 323e ae47 b73d ec75 ad3d c4e3 543d

weight_ih_l0_reverse f4 [128, 2]
0.095778175 -0.14188994 0.24339959 0.13324115 -0.03610698 -0.016647067 0.31356347 -0.11396597
0.24556552 0.11511602 -0.09597009 -0.22411987 0.4790936 0.30816212 -0.05873726 -0.2840488
0.12039746 -0.25066432 -0.11374557 0.09234075 -0.1899149 0.22714032 0.16466738 -0.09938419
-0.27881444 0.42325526 -0.17117864 -0.260571 0.14712916 0.07732873 0.032442547 0.15357941
-0.055409487 0.097862415 -0.015282027 -0.005371774 -0.24676943 0.08084553 -0.057236638 0.17977628
-0.06300716 0.44221213 -0.15070818 -0.029518072 -0.11621989 0.093652844 0.2418579 0.028530572
-0.07815677 0.009930955 -0.16229466 -0.12610039 0.09850314 0.04593829 -0.05318232 0.04633487
-0.04404943 0.3246696 0.060659323 0.005730038 0.16178083 -0.18988551 -0.10176156 -0.12433599
-0.0525509 0.069192454 0.33302903 0.018594 -0.028937709 0.009894101 0.15626983 -0.16893297
0.29098102 0.13982302 0.1737046 -0.056016237 0.3165507 0.2838219 0.0010500376 -0.08946769
0.17037319 -0.11922097 0.0016054467 -0.13096641 0.15022153 -0.091689855 0.16394724 -0.20781866
-0.30018362 0.6002691 -0.022669764 -0.26969957 0.10927 -0.11873093 -0.033378776 -0.022751033
0.10345218 0.0022769957 -0.024017997 0.027417213 -0.24392448 0.04191238 -0.14978114 0.13071702
0.08610348 0.5711801 -0.031230666 -0.12000863 0.12604356 -0.21976136 -0.10677809 -0.012364083
0.043347307 -0.22059654 0.016765304 -0.33520344 0.16958907 -0.1105175 0.107727125 -0.27490187
-0.1286655 0.36312088 0.2373013 -0.012550425 0.22058007 -0.16598904 0.02803355 -0.25646743
-0.14196147 -0.21504325 0.19684443 0.34306663 0.047033615 -0.21362457 -0.14654942 -0.24412598
0.071014695 0.36488402 0.050233983 0.21357003 0.02297651 -0.30670434 -0.17249934 0.25655246
-0.16358371 0.03474626 -0.10830745 0.29258364 0.24034484 -0.22466272 0.23804602 -0.14279963
0.22345744 -0.23852764 0.29365098 -0.040334884 -0.26089433 0.016920118 0.019841338 0.27392077
0.06857865 0.1857476 0.037865963 0.38512367 0.1544965 -0.13585739 -0.2559413 -0.16380435
-0.26242414 -0.25129732 0.26077387 -0.20514989 -0.21605709 0.22330485 0.1484306 0.2740224
-0.061343916 0.27271965 0.20548381 -0.0023926343 -0.18188848 0.15973967 0.12051525 -0.3449758
-0.38409403 0.30271918 0.16095051 0.14232999 0.19053702 -0.28442544 0.28105417 0.06976664
0.19432321 -0.07455197 0.26077974 0.12438873 0.022472665 -0.17887294 0.06791803 -0.1537804
0.109016106 0.18884483 -0.11297984 -0.19687994 0.28875965 0.15998489 0.10617437 -0.25814232
-0.058597956 -0.15699892 -0.017387824 -0.15826923 0.10146857 -0.17853118 0.17330718 -0.25521863
-0.008379376 0.2716344 -0.045577332 -0.15017387 0.227814 -0.054899167 -0.09524781 -0.21949106
0.19533075 0.08005035 0.004057656 -0.18136378 -0.21145341 0.080558896 -0.28498614 0.17586292
-0.019475412 0.14135039 -0.09020992 0.044394325 -0.08127898 -0.20928784 -0.0011157808 -0.018235806
0.07197276 0.039790567 0.15658867 -0.27177852 -0.18962175 0.13027318 0.11909419 0.07621249
0.1866903 0.01382362 0.07429443 -0.25388724 0.061322898 -0.12495783 -0.21593799 -0.16804324
00000000: 5927 c43d 994b 11be be3d 793e 5e70 083e
00000010: eae4 13bd 6e5f 88bc 648b a03e fe66 e9bd
00000020: 8775 7b3e f3c1 eb3d f78b c4bd ae7f 65be
00000030: c24b f53e 6dc7 9d3e 7b96 70bd d86e 91be
00000040: f292 f63d 1357 80be 70f3 e8bd 261d bd3d
00000050: 0d79 42be 7997 683e 919e 283e f089 cbbd
00000060: c4c0 8ebe eab4 d83e 7449 2fbe 9069 85be
00000070: 07a9 163e 865e 9e3d 7ae2 043d ec43 1d3e
00000080: 0ff5 62bd 176c c83d 7861 7abc b505 b0bb
00000090: 20b1 7cbe 5792 a53d f770 6abd 4617 383e
000000a0: e609 81bd a169 e23e 3f53 1abe e2cf f1bc
000000b0: b204 eebd 10cd bf3d 99a9 773e f2b8 e93c
000000c0: a810 a0bd 72b5 223c 9230 26be 7620 01be
000000d0: 04bc c93d ca29 3c3d b4d5 59bd a2c9 3d3d
000000e0: 2d6d 34bd 183b a63e e975 783d 0bc3 bb3b
000000f0: e0a9 253e 5971 42be 5d68 d0bd dea3 febd
00000100: 9d3f 57bd c6b4 8d3d c882 aa3e 7252 983c
00000110: c60e edbc de1a 223c 3305 203e c4fc 2cbe
00000120: 77fb 943e c42d 0f3e 9edf 313e 4871 65bd
00000130: ef12 a23e 1b51 913e 6aa1 893a d63a b7bd
00000140: 4f76 2e3e 202a f4bd da6d d23a 0f1c 06be
00000150: acd3 193e e4c7 bbbd c9e1 273e 6ace 54be
00000160: abb1 99be 3cab 193f f1b5 b9bc 1016 8abe
00000170: f3c8 df3d 3429 f3bd 2fb8 08bd 6060 babc
00000180: bdde d33d a639 153b 64c1 c4bc 109a e03c
00000190: 57c7 79be 51ac 2b3d 3a60 19be afda 053e
000001a0: 0557 b03d dc38 123f 74d7 ffbc 16c7 f5bd
000001b0: 9011 013e 1f09 61be 79ae dabd b992 4abc
000001c0: f28c 313d 0fe4 61be 6457 893c c99f abbe
000001d0: c2a8 2d3e 0057 e2bd 0aa0 dc3d f0bf 8cbe
000001e0: e4c0 03be fbea b93e 1dff 723e 4ca0 4dbc
000001f0: bedf 613e 08f9 29be 9ea6 e53c b34f 83be
00000200: 595e 11be 4c34 5cbe 9691 493e 6ea6 af3e
00000210: 52a6 403d 66c0 5abe 0d11 16be 29fc 79be
00000220: 2770 913d 14d2 ba3e 26c2 4d3d 1ab2 5a3e
00000230: 3c39 bc3c 5a08 9dbe aba3 30be d85a 833e
00000240: 7d82 27be 1852 0e3d 4cd0 ddbd 86cd 953e
00000250: f51c 763e fc0d 66be 56c2 733e 113a 12be
00000260: 07d2 643e 9740 74be 6c59 963e 3136 25bd
00000270: f193 85be 0f9c 8a3c 4d8a a23c 583f 8c3e
00000280: f772 8c3d 9e34 3e3e 5719 1b3d ee2e c53e
00000290: 5534 1e3e 331e 0bbe bd0a 83be 54bc 27be
000002a0: 755c 86be 0baa 80be 2784 853e d012 52be
000002b0: 123e 5dbe 07aa 643e 31fe 173e aa4c 8c3e
000002c0: c243 7bbd e9a1 8b3e 596a 523e becd 1cbb
000002d0: f940 3abe cc92 233e b3d0 f63d aba0 b0be
000002e0: f9a7 c4be 02fe 9a3e 36d0 243e f4be 113e
000002f0: 231c 433e 36a0 91be 55e6 8f3e d0e1 8e3d
00000300: aafc 463e b4ae 98bd ec84 853e 85bf fe3d
00000310: 9818 b83c 782a 37be 9c18 8b3d 9c78 1dbe
00000320: d643 df3d 8a60 413e f961 e7bd e59a 49be
00000330: 4ed8 933e 14d3 233e f371 d93d 3b2b 84be
00000340: 6904 70bd 53c4 20be e970 8ebc 5411 22be
00000350: c1ce cf3d e1d0 36be 7077 313e 04ac 82be
00000360: a649 09bc aa13 8b3e 4caf 3abd 2ec7 19be
00000370: 1348 693e f3dd 60bd 4911 c3bd 44c2 60be
00000380: c904 483e 70f1 a33d 16f6 843b 6db7 39be
00000390: 3e87 58be 10fc a43d b4e9 91be 6915 343e
000003a0: e68a 9fbc 28be 103e fbbf b8bd d3d6 353d
000003b0: 9875 a6bd 8d4f 56be 643f 92ba 4263 95bc
000003c0: 7466 933d 6ffb 223d c858 203e 8e26 8bbe
000003d0: 342c 42be 5566 053e a8e7 f33d 4b15 9c3d
000003e0: be2b 3f3e 777c 623c ae27 983d 82fd 81be
000003f0: b82d 7b3d e4e9 ffbd d91e 5dbe 8713 2cbe

weight_hh_l0_reverse f4 [128, 32]
-0.0109858615 0.070701264 -0.016694043 0.055267643 0.041680377 0.07607655 0.05647988 0.014022142
-0.033437982 0.044401508 0.045332648 -0.0399646 -0.011633512 0.12745613 -0.117064066 0.017148264
-0.01032372 0.07427107 0.021257129 -0.034424037 -0.035670366 0.13339914 0.021829212 -0.02428804
-0.11891497 0.1800177 -0.18791641 -0.1240537 -0.007607547 0.09061948 -0.12835701 0.031832844
-0.037163083 0.1268483 0.02438412 0.20268933 -0.08972014 -0.091163404 -0.016380196 -0.1152747
-0.060624186 0.07438963 -0.00034192743 -0.07889736 0.04661573 -0.08270728 0.040261697 -0.042287376
-0.09981188 -0.09042113 0.06607435 -0.0009235132 -0.04245639 0.09744077 -0.045721274 -0.15505236
-0.082789265 -0.0057876054 -0.08595 -0.059050847 -0.045852453 -0.11659517 0.10242808 0.10577899
0.105954856 -0.19720183 -0.07843108 -0.042890213 0.08615758 0.097220354 0.017159704 -0.200148
-0.0069320216 -0.0013074363 0.019511176 0.092766546 0.06449034 0.011670022 0.056583565 -0.014993485
-0.21014483 -0.07606369 -0.103556134 0.043532472 -0.033102248 -0.07635993 0.029335529 -0.18205643
-0.14505649 0.19368324 -0.014376487 0.04260119 0.046114296 0.11501353 -0.030924298 -0.2231441
0.017940417 -0.16946302 -0.1253329 -0.029871034 -0.10668574 -0.047525 0.088412106 0.07731374
-0.072595 -0.08819296 -0.061524794 0.17065015 0.15125355 0.01049092 0.070985235 0.105752654
-0.10707953 0.079856865 -0.0935732 -0.004276002 -0.05633051 0.14714137 -0.2014725 0.038953923
-0.18583576 0.11118449 0.020550177 0.014119165 0.033387978 -0.18087366 0.030298268 -0.046310164
0.16065124 -0.036596075 -0.11856075 0.05516239 -0.17141813 0.019190537 0.04682862 -0.028997047
0.10480013 -0.14188455 -0.05947114 0.024608336 -0.10683443 0.14138642 -0.03368405 -0.11472067
-0.10227618 0.038698595 0.057580758 -0.10191473 -0.08632714 0.034929182 -0.09752201 0.13818558
-0.11886367 0.24760287 -0.15584122 0.18067312 -0.044649146 0.1299951 -0.083327375 -0.11366057
0.046634503 -0.118708335 0.07775733 0.024990913 0.07165307 0.10466205 -0.05718803 -0.15957431
-0.20705532 -0.11973339 0.046283614 -0.10440213 -0.10531534 0.120683946 -0.04676993 -0.047047228
-0.012647245 -0.22107148 -0.21360914 -0.08889286 0.11638751 0.07071868 -0.18360591 0.06861745
0.09518251 -0.028557425 -0.10652202 -0.052952196 -0.22217706 0.054116316 0.16797204 -0.11403387
0.15892874 0.18503878 0.034728713 -0.16883425 -0.038273055 -0.19451414 0.095517494 -0.110586084
-0.07547912 -0.14112651 0.049275167 0.17138268 -0.17954631 0.026482273 -0.07514951 0.097540215
-0.07244263 0.068145625 -0.11601971 0.10113454 0.05201955 0.20740235 0.12881827 -0.026732087
-0.099525005 0.07517598 0.032167807 -0.118563525 -0.07587617 -0.09874624 -0.016056968 0.04786365
0.20849524 -0.23953472 0.18310149 -0.11001986 -0.047283437 -0.05628599 0.060370393 -0.21422789
-0.059404586 -0.093354575 0.17759323 -0.010907164 -0.022950577 0.08873377 0.1102297 -0.20755385
0.04435263 -0.038606483 -0.20156889 -0.034465972 0.03058985 -0.059190955 -0.0055349553 -0.015981745
0.12145147 0.15269321 0.13487287 0.022275614 -0.0838035 -0.08208579 -0.014583201 -0.025549194
00000000: 0bfe 33bc d3cb 903d f2c1 88bc 5360 623d
00000010: 0bb9 2a3d 06ce 9b3d 7257 673d 20bd 653c
00000020: 44f6 08bd 5bde 353d baae 393d ecb1 23bd
00000030: 7c9a 3ebc dc83 023e 49bf efbd 847a 8c3c
00000040: d224 29bc 6e1b 983d 6e23 ae3c 3800 0dbd
00000050: 171b 12bd c999 083e 2dd3 b23c b6f7 c6bc
00000060: b189 f3bd 8f56 383e 296d 40be de0f febd
00000070: bb48 f9bb b596 b93d 0570 03be 2863 023d
00000080: 5138 18bd 85e4 013e 35c1 c73c cb8d 4f3e
00000090: 31bf b7bd e1b3 babd c32f 86bc 2415 ecbd
000000a0: 1151 78bd 9759 983d b944 b3b9 f094 a1bd
000000b0: 23f0 3e3d 6f62 a9bd 73e9 243d 8735 2dbd
000000c0: 2c6a ccbd b72e b9bd fd51 873d ec17 72ba
000000d0: c0e6 2dbd 078f c73d 3b46 3bbd 0cc6 1ebe
000000e0: 6b8d a9bd f4a5 bdbb 8e06 b0bd 4ddf 71bd
000000f0: c8cf 3bbd 73c9 eebd d0c5 d13d a8a2 d83d
00000100: dcfe d83d 47ef 49be 79a0 a0bd a6ad 2fbd
00000110: 6373 b03d 771b c73d 8292 8c3c 99f3 4cbe
00000120: 0326 e3bb 485e abba e7d5 9f3c 63fc bd3d
00000130: 8313 843d 9f33 3f3c 2bc4 673d 3ca7 75bc
00000140: 3530 57be 48c7 9bbd 3d15 d4bd 1b4f 323d
00000150: 3996 07bd 9862 9cbd 1051 f03c 006d 3abe
00000160: b089 14be e654 463e 5b8b 6bbc 967e 2e3d
00000170: 58e2 3c3d 378c eb3d f454 fdbc e37f 64be
00000180: c8f7 923c b787 2dbe 4557 00be 19b4 f4bc
00000190: 0e7e dabd 93a9 42bd 6811 b53d ab56 9e3d
000001a0: b0ac 94bd 839e b4bd 6c01 7cbd eabe 2e3e
000001b0: 36e2 1a3e 1ce2 2b3c b560 913d d994 d83d
000001c0: 834c dbbd ff8b a33d 4ea3 bfbd b41d 8cbb
000001d0: d2ba 66bd 3aac 163e cf4e 4ebe 268e 1f3d
000001e0: bb4b 3ebe b2b4 e33d d858 a83c 1254 673c
000001f0: d5c1 083d f236 39be 1334 f83c baaf 3dbd
00000200: c281 243e c4e5 15bd facf f2bd f5f1 613d
00000210: 3c88 2fbe 7935 9d3c 5ecf 3f3d 378b edbc
00000220: 73a1 d63d 2f4a 11be 0398 73bd 6c97 c93c
00000230: 02cc dabd 9ac7 103e 49f8 09bd acf2 eabd
00000240: 2d76 d1bd 6b82 1e3d cdd9 6b3d acb8 d0bd
00000250: 49cc b0bd e711 0f3d 9fb9 c7bd 8580 0d3e
00000260: cc6e f3bd 9b8b 7d3e d794 1fbe 6002 393e
00000270: 06e2 36bd 6f1d 053e 8ba7 aabd dfc6 e8bd
00000280: d203 3f3d 5b1d f3bd 3c3f 9f3d beb9 cc3c
00000290: d8be 923d 0f59 d63d ff3d 6abd 7367 23be
000002a0: 4f06 54be c836 f5bd e393 3d3d c9d0 d5bd
000002b0: 92af d7bd 2529 f73d d391 3fbd 98b4 40bd
000002c0: 6436 4fbc 9060 62be 5bbc 5abe 760d b6bd
000002d0: 935c ee3d f5d4 903d 3003 3cbe 4e87 8c3d
000002e0: 0cef c23d 43f1 e9bc 3828 dabd 67e4 58bd
000002f0: 6282 63be 12a9 5d3d dd00 2c3e 978a e9bd
00000300: 37be 223e ce7a 3d3e b23f 0e3d e3e2 2cbe
00000310: 35c4 1cbd b72e 47be ad9e c33d f57a e2bd
00000320: cc94 9abd 7883 10be c2d4 493d f17e 2f3e
00000330: fdda 37be 5af1 d83c fce7 99bd 2ac3 c73d
00000340: cd5c 94bd ef8f 8b3d be9b edbd a01f cf3d
00000350: 7412 553d 4861 543e f0e8 033e 40fd dabc
00000360: c4d3 cbbd ddf5 993d 64c2 033d 6fd1 f2bd
00000370: f764 9bbd 783b cabd e789 83bc ad0c 443d
00000380: c77f 553e 9748 75be f57e 3b3e 1852 e1bd
00000390: 47ac 41bd 238c 66bd f246 773d 8e5e 5bbe
000003a0: 3952 73bd af30 bfbd 00db 353e f6b3 32bc
000003b0: d902 bcbc 0dba b53d 1cc0 e13d ff88 54be
000003c0: 1aab 353d d521 1ebd 1368 4ebe 312c 0dbd
000003d0: 9197 fa3c 3772 72bd 925e b5bb 26ec 82bc
000003e0: 8cbb f83d 9c5b 1c3e 1d1c 0a3e 597b b63c
000003f0: 2ba1 abbd 981c a8bd 61ee 6ebc 8b4c d1bc
