sgan-dataset/logs/univ/models_03_Mar_2019_13_48_01/model_registrar-699.pt (torch_old, 575415 bytes, 45 tensors)

weight_ih_l0 f4 [128, 6]
000000 ea b4 c0 bd 24 30 a6 bb b2 c5 a8 bd 67 56 a7 3d
       -0.094095066 -0.005071657 -0.082408324 0.08170777
000010 06 3d 0d be a6 1e 4d 3e 0c d8 11 be 67 ba 2e be
       -0.1379281 0.20031223 -0.14242572 -0.17063294
000020 72 75 b0 bd 87 41 99 3e 04 f1 a9 3c 34 d1 5d bd
       -0.08616151 0.29932806 0.020744808 -0.05415459
000030 11 3c 1a be 2b d1 e3 bd f9 49 97 bd 4f 9d b1 bd
       -0.15061976 -0.1112388 -0.07387156 -0.08672582
000040 72 8c 38 be 7a 9e 28 3e ac 92 d3 bd c5 ed c5 b7
       -0.18022326 0.16466704 -0.1033071 -2.359495e-05
000050 ee 87 95 bc c3 24 aa 3c 42 8c f8 bc 4c 22 f8 3d
       -0.018253293 0.020769482 -0.030340318 0.121159166
000060 c2 ca c1 bd 43 d6 19 3d 6c a3 44 be f0 76 5b 3e
       -0.09462501 0.03755785 -0.19202965 0.2143209
000070 a4 f7 00 3e fe 72 11 be 9a 21 2b 3e 7e 5e cf 3d
       0.12594467 -0.14204022 0.16712037 0.10125445
000080 92 39 f6 3b e5 2d d4 3d a6 f3 65 3e 7d 34 c3 bc
       0.007514187 0.10360316 0.22456226 -0.02382874
000090 ea ff 3e be bc dd ad bd 3b 2b 72 be e1 e3 a1 bd
       -0.18652311 -0.08489558 -0.23649304 -0.079047926
0000a0 91 0c 9b bd f6 50 13 be 3e 07 fd bb 72 0d 36 3e
       -0.07570756 -0.14386353 -0.0077218106 0.17778566
0000b0 c5 a6 60 be 3f 9f e6 3d 9a 81 4f bd 29 06 81 3d
       -0.21938618 0.112608425 -0.050660707 0.06300003
0000c0 60 13 2b 3e 88 cc f5 3d 9f 34 e4 3d 15 a2 09 3e
       0.1670661 0.12001902 0.11142849 0.13440736
0000d0 74 c2 ff bb 19 3a 4c 3d c4 ce 0f be d2 5a 83 be
       -0.007805163 0.049860094 -0.14043719 -0.25655228
0000e0 cb e5 b1 bb 6f 5d a1 3e 55 da c3 bd 7c a3 42 be
       -0.005429005 0.31516597 -0.09563128 -0.19007677
0000f0 a3 6b 95 3b 8c ab 0d 3e cd 86 81 be 5a fb 10 3c
       0.0045599504 0.13834971 -0.25298157 0.008848989
000100 4c 57 ab bd ac 77 1b 3d d6 7a 6f bd 89 42 02 bd
       -0.0836626 0.037955925 -0.058466755 -0.031801734
000110 5a 83 ed bc c3 f1 c7 3d f5 70 da 3d fd 9d 10 3e
       -0.028993297 0.09762909 0.10666076 0.14122768
000120 f1 a8 32 be 34 75 48 be 60 c9 f6 3d e3 a3 64 bd
       -0.17447259 -0.1957596 0.12050128 -0.055820357
000130 b4 69 65 3d 2e ce 45 be 1b 08 aa bd 97 78 76 3d
       0.05600901 -0.19316933 -0.08302327 0.060173597
000140 ef 64 6a 3e 8f 40 e1 3d 8f 80 ac bd b4 a2 de 3d
       0.22890066 0.10998642 -0.08422958 0.10870877
000150 55 4f cf bd f8 61 7a bd 9d 9d 38 be 15 ce 0f 3e
       -0.10122553 -0.061128587 -0.18028875 0.14043458
000160 fa 90 8d 3d eb f5 ec bb 64 67 17 be a6 89 11 3e
       0.06912418 -0.007231464 -0.14785534 0.14212665
000170 ea ba 9b bc 64 9d 46 3e fa 7b 07 bd 73 84 1c 3d
       -0.019010026 0.19395977 -0.033077218 0.03821225
000180 9e c5 f4 3c bc c0 9b 39 01 06 6a 3c 43 9b 07 3d
       0.029879387 0.00029707502 0.014283658 0.033107053
000190 1a 61 18 3e 0f c3 23 be d6 e0 2d ba e5 74 00 be
       0.14880791 -0.15992378 -0.00066329294 -0.12544592
0001a0 4b 50 b6 3d 68 bd 21 be 5a dc c9 bc 3d f6 11 3e
       0.089020334 -0.15794909 -0.024641205 0.14254089
0001b0 25 7d ac 3d fa 9e 4f bc f2 d4 37 3d 10 9e f5 bc
       0.08422307 -0.01267218 0.044880815 -0.029982597
0001c0 ce e7 49 3d 0c ff 76 bd 45 e1 87 bb 7c 9e 4f 3d
       0.04929333 -0.060301825 -0.0041467273 0.05068825
0001d0 6a 39 97 be 71 0d 61 3d 58 2d 08 3e 96 6e 74 3e
       -0.2953599 0.05494446 0.13298547 0.2387031
0001e0 8a b7 b8 bd 7b 62 56 3d 9f c7 a4 3e ca 71 f4 bd
       -0.09019382 0.052340012 0.3218355 -0.11935766
0001f0 d1 69 98 3d ec 52 41 bc c8 26 ab bc ef ce 3f bc
       0.07442058 -0.011799555 -0.020892516 -0.011707052
000200 a3 cb 8c 3c 0c d2 f8 3a 1c 30 5f be ab 58 12 3e
       0.017186945 0.0018983497 -0.21795696 0.14291637
000210 6f b7 83 bc 3a 98 10 be 4f ee 48 be 1f 2f dd bd
       -0.016078679 -0.1412057 -0.19622158 -0.10800003
000220 8e 93 ba 3d f3 ab 9b 3c 7f 01 a9 bd 5f cc 02 be
       0.09110175 0.01900289 -0.082522385 -0.12773274
000230 fd 03 e9 bd b3 fb ad 3d 69 e5 93 3d 3a 70 56 3e
       -0.11377714 0.084952734 0.07221491 0.20941249
000240 92 d7 a1 bc 8a 27 00 be e8 94 7e be 23 f4 a7 3d
       -0.019756112 -0.12515083 -0.2486149 0.08200862
000250 4f d2 04 be 9b 94 d7 bd 7e fa 24 be 87 d0 db bd
       -0.12970851 -0.10526391 -0.1611118 -0.10733133
000260 bb 31 6d bc 47 02 86 3e 3a 4f 32 bd 3a 18 7e 3e
       -0.014477189 0.26173612 -0.043532588 0.24813929
000270 9e d2 21 be bf ab bd 3c 78 d0 f1 bd eb 88 ae 3e
       -0.15803 0.023153184 -0.118073404 0.34088835
000280 2a 1d fa 3d ba 90 a5 3e 39 7d f5 bd cd 5f 09 3e
       0.12212594 0.3233698 -0.11986775 0.13415451
000290 41 6c 95 3e ea 5c 41 3e 5f d0 b6 bc f3 19 4c 3e
       0.29184154 0.188831 -0.022316156 0.19931774
0002a0 f3 19 f3 3d 2b 6d ff 3d 4d a1 01 bc 73 b2 d9 bd
       0.11870184 0.12471994 -0.007911992 -0.106297396
0002b0 64 38 8d 3d 01 0b 74 3d 3e e7 0d be a9 f8 ea bd
       0.06895521 0.059580807 -0.13857743 -0.114732094
0002c0 43 28 46 be 24 dd e2 bd 57 40 69 3d 59 9b 8e bb
       -0.19351296 -0.110773355 0.056946125 -0.004352015
0002d0 d7 aa 54 bc 6c e1 4f 3d f7 2c 95 3d d9 b1 9a be
       -0.0129801845 0.05075209 0.07283967 -0.30213812
0002e0 02 1a e6 bd 28 ac d4 bd 31 32 cc bd 12 68 aa 3d
       -0.11235429 -0.10384399 -0.09970511 0.08320631
0002f0 83 db 90 3d 85 43 9b be 47 6a 0d be f5 4b 28 be
       0.070731185 -0.3032495 -0.13810073 -0.16435225
000300 ab a6 29 3d 45 f1 03 3e 8e b3 f7 bd 8c e3 03 be
       0.041418713 0.12885006 -0.12094794 -0.12879771
000310 97 cb c0 3d a8 e1 04 bd c6 3e 09 3e 25 0e 33 3c
       0.09413832 -0.032441765 0.13402852 0.010928665
000320 e5 61 63 bc 00 80 8d 3e d6 9b be 3d a9 ac 17 be
       -0.01387832 0.2763672 0.09307067 -0.14811958
000330 ea 4d 09 be d7 08 04 3b 90 e7 47 bc ea 42 1e bd
       -0.13408628 0.002014687 -0.012201205 -0.038638033
000340 33 25 06 bd a3 92 04 3e d9 ca 1d be 7e dc f4 bd
       -0.03275032 0.12946562 -0.15409411 -0.11956118
000350 af 05 ee bd 5f 99 21 bd e0 d9 a5 bc 42 3b f6 bd
       -0.11622178 -0.039452907 -0.020245492 -0.12023021
000360 d6 b8 93 3d 8d f1 e4 bd ef 38 b5 bd d5 b8 e7 3d
       0.07212989 -0.11178885 -0.0884875 0.11314551
000370 2e f4 06 be 4d 76 c7 bd 4d 38 a7 3d f2 3a 18 bd
       -0.13179085 -0.09739361 0.081650354 -0.03716559
000380 13 8d 1a 3d 09 4a 06 be 26 73 bf bb b2 f9 39 be
       0.037732195 -0.1311418 -0.005842584 -0.18161657
000390 ee 05 21 3d 77 7c 05 bd c3 3e fb bd 33 b6 05 be
       0.039312296 -0.032589402 -0.1226783 -0.13057785
0003a0 dd 03 1e be ac 22 86 3d df 05 25 3c ac 4c e6 bd
       -0.15431161 0.06549582 0.010072201 -0.11245093
0003b0 f8 0d 04 be d2 fd ab 3d 5f 3e d8 bd bf 3f 07 3e
       -0.12895954 0.08398022 -0.10558771 0.13207911
0003c0 c1 05 d5 3d d7 98 c1 bc 13 96 a8 bd e9 5b 15 3d
       0.10401488 -0.02363245 -0.082317494 0.036464605
0003d0 39 f1 b8 3d cb a8 14 3e d3 ed 64 be 3e b8 0d be
       0.090303846 0.14517514 -0.22356348 -0.13839814
0003e0 85 d0 4a 3e c2 1c 27 3e f6 a6 07 3c dd d3 cc bc
       0.19806106 0.16319564 0.008279553 -0.025003368
0003f0 47 3e 03 3e 6b 1e 1b be b9 e3 b2 bd c6 2b e6 3d
       0.12816726 -0.15148322 -0.08734841 0.11238818

weight_hh_l0 f4 [128, 32]
000000 d3 cf e8 bd 38 a7 f1 bd 99 32 5d bd 80 d6 fd 3d
       -0.11367764 -0.117994726 -0.05400333 0.12394428
000010 96 c0 4a bc f2 38 fe bc e6 0e 39 be 5b cd 05 3b
       -0.012375018 -0.031033013 -0.1807209 0.002041659
000020 e9 1a f7 3d 3a a5 05 3e 61 1c 0f 3d 19 c2 3c 3e
       0.120656796 0.1305131 0.034939174 0.18433417
000030 b2 bf 2b bd 1f 8c 10 3e c7 24 b7 3d ee 6b 2b 3e
       -0.04193086 0.14115952 0.089425616 0.1674039
000040 04 95 2b 3d bb 03 14 be 9b b5 a1 3d 20 74 0a be
       0.04189016 -0.14454548 0.078959666 -0.1352086
000050 5a 74 d1 bd cc c4 e2 bd 0b 9c c4 bd c5 de 0e be
       -0.102272704 -0.11072692 -0.09600075 -0.13952167
000060 ac a0 0a 3e 7c 84 bf bd e8 a6 c3 3d d1 e8 1d 3e
       0.13537854 -0.09351441 0.09553319 0.15420844
000070 29 88 d2 3d e0 c1 02 3e 9e 3e 1e 3d 82 76 23 be
       0.10279877 0.1276927 0.038633935 -0.15963176
000080 66 59 c7 3d a5 b6 10 be 28 cc 2c 3d 2d 88 96 bd
       0.09733848 -0.14132173 0.042186886 -0.07350192
000090 d4 07 b9 3d 21 24 00 3e 69 1c cc bb bf 0c 8b bd
       0.09034696 0.12513782 -0.0062289727 -0.067895405
0000a0 bd be 0d 3e 3e 1b 91 bc 7d 31 0e be 4f aa e6 bd
       0.13842292 -0.017713185 -0.13886066 -0.112629525
0000b0 89 cb 1e be f8 2c 1f 3e ef 17 05 3e 54 69 8e bc
       -0.1550733 0.15544498 0.12997411 -0.017384209
0000c0 11 9c 1f 3e 7b aa d0 3d d4 83 99 bd 32 9b d2 3c
       0.15586878 0.101887666 -0.07495847 0.025708769
0000d0 a1 59 46 bb f9 4f 01 be 01 c0 02 be 94 11 60 bd
       -0.0030265825 -0.12628163 -0.12768556 -0.054704264
0000e0 ad 6b 11 3b bb c4 1a bc af cf 0e be db 44 15 be
       0.0022189424 -0.009446318 -0.13946413 -0.14577048
0000f0 20 e7 8e bc ab 2b 75 3d a3 1c 85 3d 65 25 02 be
       -0.017444193 0.0598561 0.06499603 -0.12709577
000100 72 d9 f0 3d 7f ac fe bd df 5b a7 bd 5a f8 ea 3d
       0.117602244 -0.12435245 -0.0817182 0.114731506
000110 2d a6 17 3d 3d 1e 89 3d 81 fa 2f be ea d0 28 be
       0.037023712 0.066952206 -0.17185403 -0.16485944
000120 3e 9e fc bc 27 b4 e3 3d dd c7 32 be a4 56 cf 3d
       -0.030837175 0.11118346 -0.17459054 0.10123947
000130 f5 4b eb bd 2c 8a fb bd 53 ae 05 3e f6 40 05 be
       -0.11489097 -0.122822136 0.1305478 -0.13013062
000140 66 7a 87 3d b1 00 16 bd a1 22 10 3e a0 02 34 be
       0.066151425 -0.036621753 0.1407571 -0.17579126
000150 bb 9c b4 3d e0 34 12 3e 4d cc 26 3d ec 03 12 3e
       0.088189565 0.14277983 0.04072218 0.14259309
000160 78 2a 0a 3e db 13 ba 3d c7 41 dc 3d e1 00 21 3e
       0.13492763 0.090858184 0.107547335 0.15722992
000170 29 e2 fe 3d be 32 95 3d d4 bb e0 bd d4 7e cf 3d
       0.124454804 0.07285069 -0.10973325 0.101316124
000180 4f e8 a5 3c 1a 35 6a 3d c0 72 49 3d ad 8d c4 3d
       0.020252375 0.057179548 0.0491817 0.09597335
000190 67 07 82 be 24 63 87 bd e0 0e 1b be 0a 13 be 3d
       -0.25396273 -0.066107064 -0.15142393 0.09280975
0001a0 aa 5e d4 bd e6 0d 9b 3d e3 4d a2 bd cb 82 0b be
       -0.10369618 0.0757101 -0.07925012 -0.13624112
0001b0 54 ab 0c be 4d 1e 14 be b8 eb 0e be 40 2f b0 bd
       -0.13737231 -0.14464684 -0.13957107 -0.08602762
0001c0 5f d7 e2 3b 20 5a 39 3e c4 51 ef bd 84 f3 ab bd
       0.006922647 0.18100786 -0.116855174 -0.08396056
0001d0 bd 47 b1 bc 72 43 1f 3e ac 0a 9d 3d 0c 33 8d bc
       -0.021640653 0.15553072 0.07668051 -0.017236255
0001e0 bd 5f ff bd 8b b4 35 3c c4 40 6d be 88 4e 19 3e
       -0.124694325 0.011090408 -0.23169237 0.14971364
0001f0 77 78 d0 bd b4 a7 04 3e 16 95 f5 3d 64 e5 52 3d
       -0.10179227 0.12954599 0.119913265 0.051488295
000200 c6 0f 1a be 05 7e 41 bd bb 2a 1b 3e 43 69 22 be
       -0.1504508 -0.047239322 0.15153019 -0.15860467
000210 39 b0 ee 3d d8 bf 05 be d7 20 69 bd 33 9c fd 3d
       0.116547056 -0.13061464 -0.056916084 0.12383308
000220 13 35 25 be 77 92 6b be 0f 7c db bc a7 21 0a be
       -0.16133527 -0.2300509 -0.026792554 -0.134894
000230 4a da ab 3c d8 6a cc 3d fd 98 c8 3d 01 a6 07 be
       0.020978112 0.09981316 0.09794805 -0.13246919
000240 76 1f f3 3c 5c a8 14 be 1e 8c 0d be f2 f9 a2 3d
       0.029678088 -0.14517349 -0.13822982 0.079578295
000250 24 34 83 3d be dc f3 3d 25 a0 62 3d 72 cf b1 bd
       0.064064294 0.119073376 0.055328507 -0.08682145
000260 41 11 57 3c f1 e0 09 be 1f 41 41 be ba eb 10 be
       0.013126672 -0.13464715 -0.18872498 -0.14152423
000270 9e fc 3f 3e 82 df ab bd c0 35 fd 3d 67 b5 f7 bd
       0.1874871 -0.0839224 0.123637676 -0.120951466
000280 04 e7 25 3e bd e9 d8 bd 8b 74 16 3d 73 ca 35 be
       0.16201407 -0.10591457 0.036732238 -0.1775301
000290 b4 f5 a1 bd 21 0a 79 bd c8 14 f4 bb e8 9f 74 bd
       -0.07908192 -0.060800675 -0.0074487664 -0.05972281
0002a0 e3 b7 36 bd 29 cd a2 bd 79 7f 08 3e b8 77 3e be
       -0.04460896 -0.079492874 0.13329877 -0.18600357
0002b0 48 a2 cf bd 5c 2d 4c 3d 22 28 71 bc a9 3b 18 bd
       -0.101383746 0.049847946 -0.014719041 -0.03716627
0002c0 d3 c6 5c 3d 89 cf 1c 3e 79 1b 3a be 35 09 06 3e
       0.05390055 0.15313543 -0.18174542 0.1308945
0002d0 10 76 a1 3d 8c ea 05 be b8 da ee bc cb 27 3d bd
       0.07883847 -0.13077754 -0.029157028 -0.046180528
0002e0 1b e5 87 bd 05 96 f6 bd fa 68 fd 3d 1b 2d 31 3e
       -0.06635495 -0.12040333 0.12373538 0.17302363
0002f0 2c a5 6e 3d 83 d8 bb 3d 3e 1f 0f 3e 63 81 a8 3d
       0.05826299 0.09172156 0.13976762 0.082278036
000300 08 dd 46 3e 38 ed 5e 3d ac 3c 15 be 96 d0 3d 3e
       0.19420254 0.05442545 -0.14573926 0.185366
000310 6b 89 c2 bc a9 77 6b bd 51 0a 2f ba f4 f2 19 be
       -0.023747167 -0.057487164 -0.00066772575 -0.15034086
000320 e7 8f 65 bd e7 44 7e bd cf 6d f2 bc 05 a1 dd bd
       -0.05604544 -0.06207743 -0.029593376 -0.10821728
000330 a7 b7 a2 bc 6d ed 22 3e 04 d6 8f bc 0d 8c 70 3d
       -0.019862963 0.15910883 -0.017558105 0.058727313
000340 45 5f 53 3d 33 70 b4 bd f2 51 03 3d 5c 47 1f be
       0.051604528 -0.08810463 0.03206057 -0.15554565
000350 91 00 d8 3d 33 a6 3c 3e d6 52 17 3e a6 09 3d bc
       0.10546983 0.18422775 0.14777693 -0.011537945
000360 19 93 5b be f1 c0 14 bc 34 0c b7 3d 83 8a 9f 3c
       -0.21442832 -0.009079204 0.089378744 0.019475227
000370 ce b8 46 be 9a 5a 16 3e 60 5f 14 be f7 ab 81 3d
       -0.19406435 0.14682999 -0.14489508 0.06331628
000380 23 af 47 3e 75 03 86 bd f2 8d 6a bd c3 5d ed 3c
       0.19500403 -0.06543628 -0.057264276 0.028975373
000390 0a 0f 86 bd 6a 37 a9 3d 92 20 ef 3c 5d b7 c7 bb
       -0.06545837 0.082625225 0.029190335 -0.0060948567
0003a0 08 92 f8 ba 0c 85 5a be ee fe 32 bd 2a 73 0e be
       -0.0018964419 -0.21339816 -0.04370015 -0.13911119
0003b0 bc 54 70 3e 25 ac 9e bd 39 1f 92 3d 0a 70 88 3d
       0.23469824 -0.07747678 0.071348615 0.06661995
0003c0 60 f9 81 3e b2 fd ad bd 9b ee 1b be d3 dc c3 bc
       0.2538557 -0.08495654 -0.1522774 -0.023909008
0003d0 c2 fa 1f be f9 29 cc bd ab 89 aa bd dd 1d 1c be
       -0.15623 -0.09968943 -0.08327039 -0.15245767
0003e0 0b 40 2e 3d 38 c3 16 3e b4 ec 4c 3c 1f 3d e7 3d
       0.042541545 0.14722908 0.012507606 0.11290955
0003f0 4e 70 09 3e b0 55 27 3e 37 5d 55 3c db 12 c9 3d
       0.13421747 0.16341281 0.013022712 0.098180495

bias_ih_l0 f4 [128]
000000 b2 fc b6 bd b8 76 aa bd b2 2a 8e bc 0a f8 87 bd
       -0.089349166 -0.08323425 -0.017354343 -0.066391066
000010 0e bc 28 be f4 18 05 3e c4 cf 1b bd b6 81 31 be
       -0.16477987 0.129978 -0.038039938 -0.17334637
000020 9c 56 58 3c b3 74 37 3d 2b f0 26 3e 9c 1e 20 3e
       0.013204243 0.044789027 0.16302554 0.15636677
000030 a4 f8 8f 3d c6 4a 1c be a6 9a c0 3d 8c a4 17 be
       0.07029846 -0.15262899 0.09404497 -0.14808863
000040 41 cd 3b 3d c9 c9 f5 3d 54 36 47 bd 64 81 e2 3d
       0.045850042 0.12001378 -0.048635796 0.110598356
000050 8f 39 a5 3c 71 81 35 bc ca 1a 33 bd c1 96 00 bd
       0.020169048 -0.0110782245 -0.04372672 -0.03139377
000060 75 80 db 3d d0 8b 9e 3d 26 69 26 bd f2 f1 db 3c
       0.107178606 0.07741511 -0.04062762 0.026848767
000070 d0 8c 11 bd 64 c6 f0 bd 3f fd 49 be 28 a0 15 bd
       -0.03553468 -0.1175659 -0.19725512 -0.03652969
000080 73 9b 3b 3e 3c a5 18 be 70 66 1f be 4a d3 35 3e
       0.18321018 -0.14906782 -0.1556642 0.17756382
000090 56 b7 23 be 59 07 b3 bd f1 2c 07 be 77 d4 86 bc
       -0.15987906 -0.08741636 -0.13200738 -0.016458733
0000a0 75 78 0f be 16 c9 f3 3d 30 3a 62 bd 4d 73 65 3d
       -0.14010794 0.119035885 -0.055231273 0.056018163
0000b0 ee 0b 43 bd ad f8 32 3e 6f 6b ac bc b2 5f 02 be
       -0.0476188 0.17477675 -0.021047322 -0.12731817
0000c0 13 7a 25 3e 82 de a9 3d 27 7b b1 bd 94 9f 92 3d
       0.16159849 0.08294393 -0.086660676 0.07159343
0000d0 22 0e 1a be 33 09 c7 3d 50 be e3 3d 9a 40 fc 3d
       -0.15044454 0.097185515 0.111202836 0.12317009
0000e0 19 db 9b 3d ff ef 1e 3e af 4f 04 3e 48 a5 c9 3d
       0.07610149 0.15521239 0.12921022 0.09845978
0000f0 af 3e 04 bd ae 30 23 be 7a a7 2a be 0b a0 13 be
       -0.032286342 -0.15936539 -0.1666545 -0.1441652
000100 ce f6 d7 3d a1 c4 12 3e ad 26 b0 bc d4 e4 44 3d
       0.10545121 0.1433282 -0.021502817 0.04806979
000110 bb 30 7f bd 2a 8b a5 3c e4 69 c3 3d ed 67 ab bd
       -0.062302332 0.02020796 0.095416814 -0.08369432
000120 60 26 59 bb 27 9c d3 3d 07 17 dc bd c2 5c 6a 3d
       -0.0033134446 0.10332518 -0.107465796 0.057217367
000130 af 0c 04 be 90 e0 51 bd 47 ee aa bd 35 d7 45 be
       -0.12895463 -0.05123955 -0.08346229 -0.19320376
000140 dd 18 02 be 0c cc 07 be b5 a5 fd 3d 9a b6 50 ba
       -0.12704797 -0.13261431 0.12385122 -0.000796178
000150 1f 52 83 3b 5b 30 f7 3d 6d 65 c0 3d 66 9c 15 be
       0.0040075923 0.1206977 0.093943454 -0.14610443
000160 77 25 15 3e d3 31 f1 bd e1 07 f0 3d 3b 10 16 be
       0.14565073 -0.11777081 0.11720253 -0.14654629
000170 24 9d ed bd b0 7b 15 3e a6 9a 51 3c 34 d5 9e bd
       -0.11602238 0.14597964 0.012793219 -0.07755509
000180 ae 2b c2 3d e3 08 00 be 7a e6 53 3c fc 3d ec bc
       0.094809875 -0.1250339 0.012933368 -0.02883815
000190 5e 03 81 bc e5 12 6e 3d 3e f4 42 bb 45 50 1d be
       -0.015748676 0.058123488 -0.002974763 -0.15362652
0001a0 7b 42 df bd ba 8f 8f 3d 24 21 99 bd d3 ce be 3d
       -0.10901352 0.070098355 -0.07477024 0.09316792
0001b0 62 7c 12 3d 87 30 37 be 91 d4 06 3e 57 06 0c 3d
       0.035763152 -0.17889605 0.13167025 0.034185734
0001c0 61 95 0c 3e 42 ef 25 3d cf 5d 3b 3d 2d 9f 22 b8
       0.13728859 0.040511377 0.04574376 -3.8772054e-05
0001d0 2d 25 e7 3d dc fd b3 bc 1d 08 ad bd 69 77 34 3c
       0.112863876 -0.021971636 -0.08448813 0.011014798
0001e0 d6 f9 ce bd 3c eb e8 3d 89 53 e9 3d 5a 5e 17 bd
       -0.10106246 0.113729924 0.11392886 -0.036955215
0001f0 9f e3 c5 3d c1 7a ae 3d 2d 1a 0c be f4 5a 50 bd
       0.09662556 0.08519507 -0.1368186 -0.05086799

bias_hh_l0 f4 [128]
000000 b7 d8 08 be 91 9e 8f bd b2 c5 1a be a2 bf c2 3d
       -0.1336392 -0.07012666 -0.15114477 0.09509207
000010 ee 10 ac bc 0a 50 e9 bd ca 0a 0f be 46 39 8a 3b
       -0.021004166 -0.11392219 -0.1396896 0.0042182533
000020 90 67 c9 3d 8f b7 56 3e 55 57 bf bd e5 2e 01 3d
       0.09834206 0.2096846 -0.09342829 0.031538863
000030 f9 06 2c be 12 0a 11 3e cd d6 09 3e 1f 0c 4a 3c
       -0.16799535 0.14163998 0.13460846 0.012331991
000040 1e 6a 28 bd 25 8d e6 3d 48 ca 13 be 67 d3 87 3d
       -0.041116826 0.1125739 -0.14432633 0.06632119
000050 da df 2b 3e d4 b5 2d 3e 0f 0e 79 bc 62 c6 06 3d
       0.16784611 0.16963893 -0.015201106 0.032904036
000060 cd d4 10 3c 11 20 7f 3d 6e de 06 3d cf 92 84 bd
       0.008839798 0.06228644 0.03292697 -0.06473314
000070 f0 f1 ef bd 70 f4 01 be 36 cd 02 be c8 d3 5f 3c
       -0.11716068 -0.12690902 -0.12773594 0.013661332
000080 88 6f c1 3d d0 db fb bd a6 fc a7 3d 34 21 ea bc
       0.09445101 -0.12297785 0.08202486 -0.028580286
000090 ca 0c 18 3e 88 79 9a 3d a7 63 12 3c b7 27 25 be
       0.14848629 0.075427115 0.008934892 -0.16128431
0000a0 02 ac 89 bd 76 a4 80 3d c4 ab 14 bd 05 6f a9 bb
       -0.06722261 0.062813684 -0.03629662 -0.0051707053
0000b0 62 71 4e bd a9 b3 98 bb ef e3 ad 3d 21 1e 9e bd
       -0.0504011 -0.004660089 0.084907405 -0.077205904
0000c0 fb 50 fc 3c ea 16 76 3c 10 d4 6e bd 64 a6 e0 bd
       0.030800333 0.015020112 -0.058307707 -0.109692365
0000d0 23 34 d6 bb ec 5e 86 bd 93 18 e5 bd 09 ef c2 3d
       -0.006536977 -0.06561074 -0.11186328 0.095182486
0000e0 3b 8a 02 be 1f 19 1d be 20 9f fe bd a2 b1 1a 3d
       -0.12748043 -0.15341614 -0.124326944 0.03776706
0000f0 a3 d6 77 bd 41 ae 98 3d ec 98 0d bd d8 ff 20 3e
       -0.060507428 0.07455111 -0.034569666 0.15722597
000100 3b 13 36 be 9b 74 00 be 5e 24 18 3e b0 c4 f7 bb
       -0.17780773 -0.12544481 0.14857623 -0.007561289
000110 e2 05 47 3e bf 28 57 3d 61 ce b9 bd 59 bf 16 bd
       0.19435838 0.052529093 -0.09072567 -0.036803577
000120 45 41 0d 3e 5c 09 1f 3c 1a d9 a6 3c 2e 99 98 3d
       0.1379443 0.009706821 0.020367194 0.07451092
000130 fe 00 54 3d 59 1d 79 3c f8 08 25 be c4 49 40 bd
       0.05175876 0.015204751 -0.16116703 -0.04694535
000140 4b b3 0b bd 40 d2 e0 3d 05 ed 49 3d 45 6f 02 be
       -0.034106534 0.10977602 0.049298305 -0.12737758
000150 87 a3 1c be 18 c3 76 3d 2a 3e 19 be 65 d7 d0 3d
       -0.15296756 0.06024465 -0.1496512 0.10197333
000160 30 26 be bd e7 be 46 bc 87 1b f6 3d bf d7 01 bd
       -0.092846274 -0.012130476 0.12016969 -0.031699892
000170 9c 27 d6 bd 45 d9 07 be a4 9b 40 bc fa 99 d8 3c
       -0.10456774 -0.13266475 -0.011755858 0.02644061
000180 3f b9 a5 bc b3 3c 18 3c 47 9a 12 be fa 3c 4b 3e
       -0.020229934 0.009291816 -0.14316665 0.1984748
000190 50 b5 a9 3d 7a a4 1d bd 9f 4c 48 3e f4 bb 20 3e
       0.08286536 -0.038486935 0.19560479 0.15696698
0001a0 62 ed 26 be e1 55 bd 3d 6b 7e 2a 3e 3a 24 2e 3e
       -0.16301492 0.09244896 0.16649787 0.17006007
0001b0 a0 4c 44 3d 03 11 6a 3c 9d 0b 53 3d 36 3c 2c 3d
       0.047924638 0.0142862825 0.051524747 0.04204961
0001c0 23 85 1f 3e 8e 2e c5 bd b6 75 1a 3e 58 fc fc bd
       0.15578131 -0.0962802 0.15083966 -0.12352818
0001d0 bd 77 9b 3d 9c 2e 2d 3e 21 ce 89 3d f3 0c 13 3e
       0.07591198 0.16912311 0.06728769 0.14360408
0001e0 a7 b2 b1 3d fe 0b b7 3d e0 d2 29 3e f9 ea fb bc
       0.08676653 0.08937834 0.16584349 -0.030751692
0001f0 d2 ff 05 bd 35 21 a3 3d 1d df e0 bd a9 77 19 3e
       -0.032714672 0.07965318 -0.109800555 0.14987053

weight_ih_l0 f4 [128, 2]
000000 86 4b 8e bc 17 a9 7a 3c e5 1b 8b be 2b 1b 62 be
       -0.017369997 0.015299103 -0.2716972 -0.22080676
000010 5c ab 4a 3e 05 ad 48 be 6e 62 2a be a5 fb f0 bd
       0.19791931 -0.19597252 -0.1663911 -0.117667474
000020 6e e6 d1 bd 70 69 a5 be d6 47 aa bd 36 07 2f 3d
       -0.10249029 -0.32307005 -0.08314483 0.042731486
000030 50 0b 40 be c5 6b 66 bd 42 e2 fa bd 32 bc 7e be
       -0.18754315 -0.05625512 -0.122501865 -0.24876478
000040 9e 75 57 3c 01 ab 91 be 11 8e 00 bd 0d 92 5d 3e
       0.013150601 -0.28450778 -0.031385485 0.21637745
000050 66 fd 2c be 76 7b 0c 3e b7 30 60 bd 7c 1f 82 be
       -0.16893539 0.13718972 -0.054733958 -0.25414646
000060 05 e5 17 be 3d 5d b2 bd b3 ef c0 3c ed dc f1 3d
       -0.14833458 -0.0870919 0.023551797 0.118097164
000070 9a 34 7d be b0 3e 58 be 49 d1 17 3e 26 57 6a 3c
       -0.24727097 -0.21117663 0.1482593 0.014303004
000080 19 f7 1e be a7 51 c6 bc 77 2c 96 3d b9 48 60 bd
       -0.15523948 -0.024208857 0.073327 -0.054756854
000090 f4 6f 30 be c5 d6 23 be 87 3e ad bd 97 e1 6f 3c
       -0.17230207 -0.15999897 -0.08459192 0.014641187
0000a0 c9 1e b9 bd 44 5a 31 be 22 aa 70 be b9 30 98 3c
       -0.09039075 -0.1731959 -0.235024 0.01857792
0000b0 95 d5 86 be 73 07 89 3e c1 7d d9 be 9a 24 a0 bc
       -0.26334825 0.26763496 -0.42478755 -0.019548703
0000c0 6f c6 16 be bd c3 5e be 14 4c 0c bf 9d 2c 8a 3e
       -0.14724134 -0.21754356 -0.54803586 0.26987162
0000d0 e8 bf 24 3e 9f 23 00 be 09 65 82 be de a8 9a 3d
       0.16088831 -0.12513588 -0.2546771 0.0755174
0000e0 11 a3 be be 3e 1b ce 3c 6c e6 b2 3c c9 46 55 be
       -0.37233785 0.025159474 0.02183839 -0.20827784
0000f0 bc c4 20 3e 67 0f be be e0 2d 35 be 25 e4 8d be
       0.15700048 -0.37121126 -0.17693281 -0.27713123
000100 a1 f3 4c be e4 fa 55 be 2e 83 51 bd 96 9b 83 be
       -0.20014812 -0.20896488 -0.051150493 -0.2570464
000110 e0 18 4f 3e 8d f3 50 be 2e 6c a1 3c 25 61 37 bd
       0.20224333 -0.20405407 0.019704904 -0.04477038
000120 fc e1 14 3e 5f 90 99 be 30 93 0d be 78 7a 8e bc
       0.14539331 -0.2999296 -0.13825679 -0.017392382
000130 6d 67 5e be 69 c0 58 3d 4e 5c c4 3d bd dd 42 bd
       -0.21719141 0.05291787 0.09587918 -0.047574747
000140 cb d9 59 bd f8 08 8e be 68 4a 98 3c 77 00 97 3e
       -0.05318622 -0.27741218 0.018590167 0.29492542
000150 82 58 88 3c 27 29 28 bd 89 08 58 be d1 57 8d bd
       0.016643766 -0.04105487 -0.21097006 -0.06901515
000160 87 75 8d bc fa 86 d1 bc 6f d1 4f be 1f 8e fb 3d
       -0.017267955 -0.025577057 -0.20294736 0.12282967
000170 b3 25 a3 3c d5 69 f5 bd b0 d4 6a 3e bc 8d 91 3d
       0.019915437 -0.119830765 0.22932696 0.07107112
000180 68 3f b0 bd 71 4a 81 bc 37 b1 1c be ba 34 5e be
       -0.08605844 -0.015782567 -0.15301977 -0.21699801
000190 96 f3 df bd 31 63 09 3c f5 bd bc be 7d ed 56 3d
       -0.10935132 0.0083854655 -0.36863676 0.05247258
0001a0 c2 e2 e1 3d 5a 63 82 be eb 29 23 3e 68 12 1b be
       0.11029579 -0.25466424 0.15933959 -0.1514374
0001b0 d7 d5 12 be d5 e3 23 3e 8c cc b1 bc 8e b8 76 be
       -0.14339386 0.1600488 -0.02170398 -0.2409384
0001c0 63 83 57 be 62 9b 59 be c2 28 d4 3d 4a db f9 3d
       -0.21046214 -0.2125068 0.103593364 0.12200029
0001d0 85 eb 72 3d 43 8f 29 be d0 5c c0 3d 68 27 eb bd
       0.05930664 -0.16558556 0.093927026 -0.114821255
0001e0 85 13 78 bd 34 27 5d be cc cb 2e bd c2 72 64 bd
       -0.06056549 -0.21596986 -0.042674825 -0.055773504
0001f0 48 1e 84 3d 52 17 99 be b4 af 4f be b9 b8 a7 be
       0.06451088 -0.29900604 -0.20281869 -0.3275812
000200 e1 f6 80 3e e7 f1 46 3e 76 69 85 be 00 ad 98 be
       0.25188354 0.19428216 -0.26057023 -0.2981949
000210 dc a7 17 be c4 86 f0 3d 30 47 d5 bc 9e 98 c6 3b
       -0.14810127 0.117444545 -0.026034921 0.006060674
000220 24 d2 bf bd f6 85 75 be 2a ba 21 3e 32 6a d0 be
       -0.09366253 -0.23976883 0.15793672 -0.4070602
000230 6c 68 b0 3d d4 87 95 3c 8f 1a 0d 3e 76 f3 89 be
       0.08613667 0.018253244 0.13779663 -0.26943558
000240 a7 73 ab 3e fa 03 26 3e 57 4a 01 be ee 50 fe 3e
       0.33486673 0.16212454 -0.12626015 0.4967112
000250 b0 a1 64 3e f1 ad 36 3e 0e 00 20 be ba 6f 1e be
       0.22327304 0.17839791 -0.15625021 -0.15472308
000260 53 12 8e be 87 c2 96 be f2 40 9a 3e 8e e7 f8 3d
       -0.27748355 -0.29445288 0.30127674 0.121535406
000270 f4 e5 87 be 54 19 a9 be fd 64 73 be be 1b 91 3e
       -0.26542628 -0.33027136 -0.23768993 0.28341478
000280 55 98 4f 3d 29 11 29 3e 08 11 26 be 7f b4 9f 3e
       0.050682385 0.16510452 -0.16217434 0.31192395
000290 d0 72 66 3d eb 6b a2 3e 4f c5 93 3e 4f 03 00 3e
       0.056261837 0.3172296 0.28861472 0.12501262
0002a0 79 e7 84 be 61 a4 ca bd 62 ec 8b 3d ab fb 2c 3e
       -0.2595785 -0.09894634 0.06832196 0.16892879
0002b0 94 e4 3d 3e 00 2f 60 be 8a b6 2b 3e 53 5b ea bd
       0.18544227 -0.21892929 0.16768852 -0.114432
0002c0 04 76 90 3e f2 cc 66 3e a0 00 80 3e a7 09 b9 3d
       0.2821504 0.22539118 0.25000477 0.09035044
0002d0 0b cb 14 be df 23 a7 3e 3a c0 1d be 54 9a 01 bd
       -0.1453058 0.32644555 -0.1540536 -0.03164132
0002e0 53 3d 89 3e 38 79 3e 3e ba 92 0c 3e 47 ff ba 3e
       0.268046 0.18600929 0.13727847 0.36522886
0002f0 45 39 1f 3d 9b 9e 89 be 5a b3 32 be a0 ab 21 3e
       0.038872976 -0.2687882 -0.1745123 0.15788126
000300 09 59 9e be bc 13 1b be 38 33 23 3c 27 91 32 bd
       -0.30927303 -0.15144247 0.009960942 -0.04359546
000310 02 06 1a 3e e4 12 a4 be 71 83 ae bc c8 53 ca bd
       0.15041354 -0.32045662 -0.02130291 -0.09879261
000320 8f 1b b9 bd a1 29 b4 be 2d 71 16 be 35 69 23 3c
       -0.090384595 -0.3518801 -0.1469161 0.009973814
000330 fe 49 6c be 6e 36 83 be d8 ae 74 be 5a 14 7e be
       -0.23075101 -0.25627464 -0.23894823 -0.24812451
000340 a2 0d be bd 6a fe 8b bd e0 69 36 be a9 83 f5 3d
       -0.09279944 -0.06835635 -0.17813826 0.11988003
000350 66 b7 e3 3b 9c d7 8d bc bd 90 a3 bd b6 16 a1 be
       0.006949353 -0.017314725 -0.07986591 -0.3146264
000360 46 d2 33 3e 33 54 cb bd 6d a3 49 bd 5a 63 6e 3e
       0.17560682 -0.09928169 -0.04922812 0.23280087
000370 0d 86 50 bc b4 44 09 bd 1b db 7c 3d 18 c6 bf 3d
       -0.012727273 -0.033512786 0.061732393 0.09363955
000380 c6 4a 27 be 21 fe ca bc 03 68 28 be 7c 8a 87 be
       -0.16337118 -0.024779381 -0.16445927 -0.26472843
000390 5e dd 86 be 89 4c 91 be dd 8c d5 bd 3f c4 24 3e
       -0.26340765 -0.28378704 -0.10427258 0.16090487
0003a0 2d 87 d5 bb 15 16 24 be 13 77 06 be f2 f6 cd bd
       -0.0065163583 -0.16024049 -0.1313136 -0.10056867
0003b0 59 2c 81 bd 77 68 8c 3d a6 7f 4b be 9b 45 67 be
       -0.06307287 0.068558626 -0.19872913 -0.22585146
0003c0 02 bb f2 3b 74 89 ac bd 80 b1 ef bd de be 95 3d
       0.007407547 -0.084246546 -0.11703777 0.07311796
0003d0 b5 a8 e5 3d 30 d0 88 be 8e 5d 41 3e 5e 8c a2 3e
       0.11213819 -0.26721334 0.18883345 0.31747717
0003e0 af 8c b5 be 0f b7 c1 bd 74 52 32 be 36 4d 9e be
       -0.35458896 -0.09458744 -0.17414266 -0.30918282
0003f0 c1 98 27 3d 39 1b 4e be 03 14 7a bd 7c 6a 94 be
       0.04091716 -0.20127572 -0.06105424 -0.2898749

weight_hh_l0 f4 [128, 32]
000000 86 7d 05 be e9 32 bf 3d dd db 42 be d2 30 8d 3d
       -0.13036165 0.09335882 -0.19029184 0.06894077
000010 f3 cc 1d 3d 7e 91 11 3e 3a 01 e3 bd 10 d5 59 bd
       0.038525533 0.14215657 -0.11084218 -0.053181708
000020 da 68 10 be 1b c8 71 3d 46 f1 8d 3d 85 3c f4 3d
       -0.14102498 0.059028726 0.06930785 0.11925606
000030 39 53 59 3e 1f 57 c6 3c 03 05 e5 bc 92 1b 81 bd
       0.21223153 0.024211464 -0.027956491 -0.06304087
000040 66 4d 92 3d d9 a1 02 be a6 ec 7d bc 2a 14 7f 3d
       0.07143669 -0.12757052 -0.015498316 0.06227509
000050 6d c9 9a 3d 3d c3 15 be 7e 3a 38 be 40 a5 43 3d
       0.0755795 -0.14625259 -0.17991063 0.047765017
000060 b9 9f 5c be a0 f2 40 3e 94 bc 5f be 1c 36 61 3e
       -0.21545304 0.18842554 -0.2184928 0.21993297
000070 7c ef cd 3b 00 74 7d be 41 3e 0f bc ea e5 c8 3d
       0.0062846523 -0.24751282 -0.00874287 0.098094776
000080 a0 35 03 be bb 64 78 bb 27 25 cb 3c e0 45 c9 bd
       -0.12813425 -0.0037901837 0.024797989 -0.09827781
000090 63 23 b0 3d 15 06 2e 3e f1 91 46 be 98 ec 69 bc
       0.086004995 0.16994508 -0.1939161 -0.0142776
0000a0 c3 4e df bd 1b 79 25 3e 74 04 89 be 48 22 f7 bc
       -0.109036945 0.1615948 -0.2676121 -0.030167714
0000b0 20 3d 4f 3e cc 5a 88 3b 17 8a da 3d ce c0 35 bd
       0.20238161 0.0041612145 0.1067087 -0.044373326
0000c0 96 fc e7 3b c8 c3 ea bd 2a 8f c0 3a 69 58 91 3d
       0.007079671 -0.114631236 0.0014691104 0.07096941
0000d0 5e 07 6b 3e 35 23 84 be 1a c3 9a 3d a6 4c 57 3e
       0.22952029 -0.2580811 0.07556744 0.21025333
0000e0 3d a0 a5 bc 5a 40 51 be 7a e2 be bd 8d 53 82 bd
       -0.02021801 -0.20434704 -0.09320541 -0.06363592
0000f0 a7 fb 12 be 09 ef d8 3c 3f b1 32 3d 6e 3e b1 bd
       -0.1435381 0.026481168 0.043626066 -0.08654486
000100 73 32 f8 bd 95 a0 c8 3d ce c0 63 3c 6c 0d cc bd
       -0.121189974 0.097962536 0.013900949 -0.099634975
000110 ec 17 9e bd 7c 64 9d 3d c9 33 0d be a4 b5 12 3d
       -0.077194065 0.076851815 -0.13789286 0.035817757
000120 5f 49 20 be a6 84 0d be c3 61 3c be e0 0c 8a bd
       -0.15652989 -0.13820133 -0.18396668 -0.06740737
000130 df 6a e8 3c 81 d4 66 3e c2 65 bd 3d fa c7 32 be
       0.028371273 0.22542001 0.092479244 -0.17459098
000140 82 dd 70 bb 94 77 9d bc d1 d7 74 be 8b 4b 7b be
       -0.0036753123 -0.019222058 -0.23910452 -0.24540536
000150 eb 6f fa bc 60 ef fc bd 30 a1 2f be e7 3c 7c 3e
       -0.030570945 -0.12350345 -0.17151332 0.24632607
000160 8c 9c 0e be b1 2b bd 3d 15 3c 11 be e5 c9 80 bd
       -0.13926905 0.09236849 -0.14183076 -0.06288508
000170 72 4d 15 be 56 b8 77 3d b4 d8 05 3e 53 0a 6c be
       -0.14580324 0.06047853 0.13070947 -0.23050813
000180 bd 96 e4 3d ec a1 90 3d b6 f0 38 3d 9b 6a 94 bd
       0.111615635 0.07062134 0.045151435 -0.07246896
000190 a1 7f 59 3d d4 61 79 3e 50 cd c9 3d 5d e2 1f 3e
       0.053100232 0.24353725 0.098536134 0.15613694
0001a0 31 a9 d8 3d ce 40 02 3e 8c 2a 49 bd e5 14 48 3d
       0.10579146 0.12720034 -0.04911284 0.04884805
0001b0 1b 60 4c 3d 42 6c 04 be 73 3b 2a 3c df ab 79 be
       0.04989634 -0.12931922 0.01039015 -0.2438197
0001c0 06 3d 6d be 52 91 30 be cb 7f 14 be 50 41 6b be
       -0.2316781 -0.17242935 -0.14501874 -0.22974133
0001d0 0f a7 a7 3c dd 92 5f 3d 6e 57 a1 bd bb 93 0d bd
       0.020465402 0.05458342 -0.07878004 -0.034564715
0001e0 a1 5c a3 bd 90 91 cf 3d 99 c4 2a be 04 85 07 bd
       -0.07976652 0.10135186 -0.16676559 -0.033085838
0001f0 5a 7a a3 bd c0 b8 9e bd 45 af 81 3e 62 d3 6b be
       -0.07982321 -0.07750082 0.25329033 -0.23029855
000200 e5 36 86 bd c3 72 2c 3e 23 87 37 bd d0 3b 7b 3d
       -0.06553439 0.16840653 -0.04480661 0.06133634
000210 b4 c4 0f 3e a4 26 a0 3e ac a1 dd 3d 59 47 29 bd
       0.1403988 0.3127948 0.10821852 -0.041327808
000220 f3 41 f3 ba 64 8e bc 3d 3b 8c 4e be 64 b0 9b 3c
       -0.0018559083 0.09206846 -0.20170681 0.019005008
000230 68 37 d3 3d aa 05 96 3d c7 ae 25 3e 52 47 4c bc
       0.10313302 0.07325299 0.16179954 -0.012468176
000240 dc bf 5d be 8a 6b e6 bc ca fe 35 bd 28 7c 96 bd
       -0.2165522 -0.02812745 -0.04443244 -0.073479
000250 89 cb 27 3e f0 75 af 3d 13 f6 cc 3d 53 56 a6 bd
       0.16386236 0.08567417 0.100078724 -0.08121934
000260 b8 50 53 be ca 53 4e bd 7a 65 63 be d2 a0 a8 3d
       -0.2063626 -0.050372876 -0.22206679 0.08233799
000270 af 5e bc bd da 56 d5 3d a5 55 19 3e d6 7e 88 bd
       -0.09197747 0.10416956 0.14974077 -0.06664817
000280 01 a4 e4 bd 15 93 02 bd e8 ad fe bd 72 cc 85 be
       -0.11164094 -0.03187855 -0.12435514 -0.26132542
000290 35 c7 3a bc a0 e1 49 3e f8 4c 41 be 90 9b 6e 3e
       -0.011400034 0.19714975 -0.18877017 0.2330153
0002a0 9d 18 29 bd 83 fd 3f 3e 72 bf 6a be 29 f6 04 3e
       -0.04128324 0.18749051 -0.22924593 0.12984528
0002b0 e2 ab cc 3d 58 d6 0f be db 2f de 3d 01 f0 6c be
       0.099937215 -0.1404661 0.108489715 -0.23138429
0002c0 47 a0 5a be 5f 65 cf 3d f9 3d 27 be 46 65 a1 3b
       -0.21350203 0.10126757 -0.16332234 0.004925403
0002d0 ce 9b b6 bb 53 38 35 be a3 3a b1 be 47 c7 18 3e
       -0.0055727726 -0.17697267 -0.3461505 0.14919768
0002e0 70 ac b7 3c b0 92 b1 3c 09 61 e8 3d a2 bc f9 bb
       0.022421092 0.021676391 0.11346633 -0.0076213637
0002f0 80 74 a4 bd e5 ba 5b be f5 9a 87 3e 91 0d 20 be
       -0.08030033 -0.21458013 0.2648541 -0.15630175
000300 5c f6 4b 3d 41 5e 8a 3d ff 55 ee bc d9 84 a5 bd
       0.049795493 0.06756259 -0.02909374 -0.08081979
000310 c8 0c 7e 3e bd 4f 30 bc 51 78 56 be 63 02 00 3e
       0.24809563 -0.010761199 -0.20944335 0.1250091
000320 43 f1 43 be 9d e1 11 bd 6d db b4 bc 4e 84 2a 3e
       -0.19135003 -0.035615552 -0.022077287 0.16652033
000330 98 73 d0 3d 97 fb 14 3e 41 54 48 bd 04 42 62 be
       0.10178298 0.14549099 -0.048908476 -0.22095495
000340 80 76 e0 bd 66 a7 ab bd 28 6a 75 3d c4 77 17 be
       -0.10960102 -0.08381538 0.05991569 -0.1479178
000350 c7 d2 65 3e f7 ee 89 3d 7f 77 4e be f4 5f 45 3e
       0.22443686 0.06735032 -0.20162772 0.19274884
000360 b8 4c ce bd 90 9b 02 3e 8c a2 27 be 9a ca bf 3d
       -0.10073227 0.12754655 -0.163706 0.09364815
000370 2e d5 65 bc 09 8c 33 be 1a 42 e5 bc e5 54 be bd
       -0.014027877 -0.17533888 -0.027985621 -0.09293536
000380 08 7e 98 3d bf 45 42 3e a2 c2 e1 bc 04 05 b8 3c
       0.074459136 0.18971919 -0.027558628 0.02246333
000390 7e 8e e7 3d 35 21 5e bd 29 2d 39 3d c2 f6 e2 3d
       0.11306475 -0.054230887 0.045209084 0.110822216
0003a0 51 46 37 bd 8d 3c 77 be 39 d5 1f be c5 11 4c 3e
       -0.044744793 -0.24144192 -0.15608682 0.19928654
0003b0 b0 14 3d 3e 61 c4 c3 bd 1d 2b 19 3e 96 34 51 bd
       0.18464923 -0.09558941 0.14957853 -0.05107554
0003c0 97 d6 8d 3d 44 1e cf bd 6f 87 81 be fe 8f 7b 3d
       0.069256954 -0.101131946 -0.2529864 0.06141662
0003d0 90 de 3c 3c 44 94 94 bd e2 67 17 be da 5f 5a bd
       0.011527672 -0.07254842 -0.14785722 -0.053314067
0003e0 d6 65 f6 3b 19 45 43 be 54 95 8e 3b 3e 41 1e 3e
       0.007519464 -0.19069327 0.0043512974 0.15454575
0003f0 68 93 30 bd ca cf 73 3d c0 52 0e 3e c5 5f 3c bc
       -0.043109328 0.059524335 0.13898754 -0.011497443

bias_ih_l0 f4 [128]
000000 1b 70 09 bd 5c 0e 6c bd 61 72 03 3e f7 eb f3 3d
       -0.033554178 -0.05763088 0.12836601 0.11910241
000010 da e1 3c 3c ec a1 6f 3e 8f b7 5d 3e e8 58 83 bd
       0.011528457 0.23401612 0.21652053 -0.06413442
000020 3e 03 21 3d 91 d6 62 3e 46 33 e0 bd 27 ea 19 be
       0.039309733 0.22152163 -0.1094728 -0.15030728
000030 22 63 67 3d 7c 1d b9 3e f4 0b fe bd b7 01 45 3e
       0.056491025 0.36155307 -0.12404624 0.19238935
000040 73 2a 92 3d 09 db 26 3e 21 4d 69 3e f1 d0 d1 3b
       0.07137003 0.16294493 0.22783329 0.0064030816
000050 42 be 4d 3e d0 d7 a5 bc f2 ae 8d bd 85 01 13 bd
       0.20092109 -0.020244509 -0.06918134 -0.03589012
000060 d6 6c 7a 3a bd 2b 4d 3e b2 dd 87 3d fe 99 b1 3d
       0.0009552961 0.20036216 0.06634082 0.0867195
000070 75 53 10 3e d9 f8 18 3e a7 17 3d 3e 26 82 4d 3d
       0.14094336 0.14938678 0.18466054 0.050172947
000080 79 4b 4a 3e 1c 17 9d bd 6c b0 76 bd 59 44 c7 bd
       0.19755353 -0.076704234 -0.060226843 -0.09729833
000090 a5 29 b7 bc 61 40 5e 3e a2 87 cd 3c 17 47 4b 3e
       -0.022358725 0.21704246 0.025089089 0.19851337
0000a0 77 1d 41 3e 00 87 a0 3e 58 09 7e 3d 5c b9 32 3e
       0.18858896 0.31352997 0.06202063 0.17453521
0000b0 d4 33 3b bd 84 f9 be 3e 9e f2 50 3d b0 57 a8 3d
       -0.045703724 0.3729974 0.051012628 0.0821985
0000c0 28 65 8f bd 4e ce 82 3e 86 05 4c 3e 6d 2b 7f 3e
       -0.07001716 0.25548023 0.19923982 0.2491891
0000d0 ac 74 d0 3d 99 20 01 3e b2 81 ba bc f9 08 f3 3c
       0.101785034 0.12610091 -0.022766922 0.029667364
0000e0 85 29 a0 bc 79 bc 92 3e 76 10 91 3d f1 7d 6f 3e
       -0.019551048 0.28659418 0.07083218 0.23387887
0000f0 98 b0 d8 bd fe 58 a9 3d 9a 18 8d 3b 73 8c 8d 3c
       -0.105805576 0.08268927 0.0043059113 0.017278885
000100 1e 26 e1 bd 68 a9 8b 3d e7 dd 56 3d 62 00 53 be
       -0.109935984 0.06819421 0.052457716 -0.20605615
000110 19 21 15 3d da b6 a1 3d d0 1b 9c 3d 37 16 e4 3d
       0.036408518 0.07896204 0.07622492 0.1113705
000120 21 83 e0 3d 4c 35 72 bd e1 e9 a1 3d ca 77 26 3d
       0.10962511 -0.05913286 0.07905937 0.040641584
000130 31 c5 5d 3d 40 20 fa 3c 1b a4 e7 3d e3 9d ce bd
       0.054143135 0.030532956 0.113105975 -0.10088708
000140 1d 46 46 be 37 60 ee bd fe b1 10 3e bc ba d4 bd
       -0.19362684 -0.11639445 0.14130399 -0.10387179
000150 50 7b 6b 3d 12 a0 50 be ac 51 f1 bd 1d d5 28 3e
       0.057490647 -0.20373562 -0.11783156 0.16487546
000160 13 d7 09 be 1d 88 a2 bd a7 f8 fc 3d b9 fc 85 3d
       -0.1346095 -0.07936118 0.12352114 0.06542344
000170 1d 5a 82 3c 19 88 ca bd 84 04 63 bd a0 28 f3 3c
       0.01591211 -0.0988924 -0.05542423 0.029682457
000180 06 ad 90 bd 41 af 46 3e dd 89 44 3e d7 07 24 3e
       -0.070642516 0.19402792 0.19193216 0.16018616
000190 17 0d d4 3d 5b 14 95 3e 27 97 56 3e 0c 53 5a 3d
       0.10354059 0.29117092 0.20956098 0.053301856
0001a0 ad 66 be 3c a1 68 98 3e 45 46 38 3d ca 86 f4 bd
       0.023242319 0.29767326 0.04498889 -0.119397715
0001b0 5c 39 96 bd be 25 bf 3e a4 ef 8a 3d f5 71 63 3d
       -0.07335159 0.37333483 0.06783989 0.0555286
0001c0 1b c2 d1 3d 74 19 a6 bd 4b b9 15 3e 66 16 10 3e
       0.10242101 -0.081103235 0.14621465 0.14071044
0001d0 ca b5 4e bd b6 5a 1b 3e c3 fd 3a 3d 10 0a a8 bd
       -0.050466336 0.15171322 0.045652162 -0.08205044
0001e0 a7 2c 56 3e 9c db 97 3e 76 e5 6b 3e 24 34 94 bc
       0.20915471 0.29659736 0.23036751 -0.018091269
0001f0 00 89 c5 bd 7e a6 a6 3c a5 a4 19 3e 3f b0 2e bb
       -0.09645271 0.020343062 0.15004213 -0.0026655344

bias_hh_l0 f4 [128]
000000 3f 2d 48 3e a8 b3 4e 3e 14 d6 6f 3d f7 18 4c bd
       0.1954851 0.20185721 0.05855377 -0.049828496
000010 50 31 d8 3d 6a b5 a4 3e cc 8f f6 bc bc a2 23 3d
       0.105562806 0.32169658 -0.030097865 0.039950117
000020 35 a3 f1 3d a9 59 96 3e c1 c1 c3 3d 53 66 6f 3d
       0.117987074 0.2936528 0.0955844 0.058447193
000030 f6 9a 69 3d 8c de bd 3e 04 87 d7 3d ab 4e 79 3e
       0.057032548 0.37083852 0.10523799 0.24346416
000040 8c 7c a6 3c eb aa ab 3d a9 e4 0c 3e 7b ef 1d bd
       0.02032306 0.083822094 0.13759102 -0.038558464
000050 f0 ed 52 3e 45 a9 b6 3d a7 9b 66 3e ba fb df bd
       0.20598578 0.08919004 0.22520314 -0.10936685
000060 ae 2c d9 bd 85 08 f0 3d 58 88 fa 3c aa eb 1a bc
       -0.10604225 0.11720375 0.030582592 -0.009455601
000070 e6 c9 2a 3e 0f c3 31 3e a7 97 33 3d 47 16 a2 3d
       0.1667858 0.17359565 0.0438458 0.07914405
000080 6b bb 81 3d eb c5 13 3e 10 74 82 3d f0 f5 e8 3b
       0.06334575 0.14430968 0.063697934 0.007109396
000090 b8 bb 43 bc 0f 86 4d 3d 6c bd c8 bd c3 4d bb bd
       -0.011946611 0.050176676 -0.09801754 -0.09145691
0000a0 8c 9d 95 bd 23 12 0a 3e 6f 32 9e bc b7 dc 8c 3d
       -0.0730544 0.13483481 -0.019311158 0.068780355
0000b0 0b 6d ca 3d 91 ad c5 3e 5d ec d7 bd 63 8b 07 3c
       0.098840795 0.38608983 -0.105431296 0.0082729785
0000c0 8e 2e 27 bb 4e 45 97 bb 46 27 5e 3d b0 f9 7d 3d
       -0.0025509926 -0.004616416 0.054236673 0.0620057
0000d0 7e e7 c0 3d 2f 9d 49 3d d0 ff f9 3d 22 79 f1 bd
       0.09419154 0.049222168 0.122069955 -0.117906824
0000e0 1a 0a a0 3b 26 ba a9 3e a1 12 97 bc 57 80 74 3c
       0.0048840167 0.33149832 -0.0184415 0.014923177
0000f0 93 bb bd 3d 33 6d e0 bd 1a fe eb bd 92 e4 46 3e
       0.092642926 -0.10958328 -0.115230754 0.1942313
000100 9c 08 8e 3d 41 68 b0 3d 74 86 0b be dc 06 31 be
       0.06935236 0.08613635 -0.13625509 -0.17287773
000110 c8 15 e1 3d 86 78 fa bd ad 0b 03 be 0c b7 e2 3d
       0.109904826 -0.12230019 -0.12797423 0.1107007
000120 39 bb 1a be 7a 73 27 3e 02 70 82 3b 7c 85 17 3e
       -0.15110482 0.16352645 0.0039806375 0.14797014
000130 d4 41 7a 3c 30 cb d3 3d 55 be b8 3d 51 d6 c0 3b
       0.015274484 0.10341489 0.09020678 0.0058849235
000140 ce 7a d6 bd 6a 62 60 3d 00 4e 11 be 78 d0 be bb
       -0.10472642 0.054781355 -0.14189911 -0.0058231913
000150 61 ed d5 3d ae ef 25 be 58 54 61 3c 6d ec cd 3d
       0.10445667 -0.16204712 0.013753019 0.1005486
000160 46 4b 90 bd 9c 9c 12 3e 7f 3a a5 bd 03 09 a7 3d
       -0.07045607 0.14317554 -0.08067798 0.08156016
000170 cd ff 07 be a8 d9 0c be 71 ac 2d 3e dd 7a 19 be
       -0.13281174 -0.13754904 0.16960312 -0.14988275
000180 1f 64 46 3e 7b 14 2e 3e 26 0f bb 3d 54 5b d9 bd
       0.1937413 0.17 0.09133749 -0.106131226
000190 51 9f 8e bd f2 d5 9b 3e 9d e1 09 3e 53 13 02 3e
       -0.06963981 0.30436665 0.13464971 0.12702684
0001a0 80 d0 87 3d 92 ec 9e 3e e2 3f 20 bc c3 fc c9 bd
       0.06631565 0.31039864 -0.009780856 -0.098626636
0001b0 5c 15 86 bd a8 12 6e 3e 13 ca 08 3e 7c 64 21 3e
       -0.06547043 0.23249304 0.13358335 0.15760988
0001c0 64 43 80 3e 85 1a ba bc c5 1c 9b bd 47 06 01 3e
       0.25051415 -0.022717724 -0.07573847 0.12600051
0001d0 95 83 8a bd 65 5c 1d bd 05 83 2a 3e 6c a4 51 3e
       -0.067633785 -0.038418192 0.16651542 0.20472878
0001e0 84 37 ac 3d cf 48 d8 3e 49 36 99 3c bf 52 2b 3e
       0.08409026 0.4224305 0.018702643 0.16730784
0001f0 89 5c 37 3e 27 45 b3 3d 02 52 99 3d 58 22 7e 3d
       0.17906393 0.08753424 0.07486345 0.06204447

weight_ih_l0_reverse f4 [128, 2]
000000 50 9e 95 3b 43 94 71 be 01 af 23 3d b1 6c 7c bd
       0.0045659915 -0.23591714 0.03996182 -0.061627094
000010 ec 73 8a bd 6f d0 20 be 84 db 23 3e c6 f4 99 be
       -0.067603916 -0.15704511 0.16001707 -0.3006956
000020 a2 43 9e bc 0b 04 ee bd 52 ce d6 bd 65 17 49 be
       -0.01931936 -0.11621865 -0.10488571 -0.1963783
000030 1d 4e 83 3d cf ad 7e 3e c6 ef 96 bd d7 25 b3 be
       0.06411383 0.2487099 -0.07369952 -0.34989807
000040 98 f5 08 3e 91 28 b6 be 5a 74 36 be f2 68 09 bd
       0.13374937 -0.35577825 -0.17817822 -0.03354735
000050 09 74 40 be 3c ad f8 39 e7 25 83 3e 75 62 9f be
       -0.18794264 0.00047431316 0.25614855 -0.31129804
000060 cb 75 59 bd 20 1f 15 be 05 75 43 be 17 c2 b3 be
       -0.05309085 -0.14562654 -0.19087608 -0.35109016
000070 77 f2 18 3e 3e 6a 72 3d 7c 35 8b 3b c2 fd 53 3d
       0.14936243 0.05918335 0.004248319 0.051755674
000080 4f 25 f0 bd b7 6d e9 bd fe 4a d7 bd 03 67 5b be
       -0.11725866 -0.113978796 -0.105123505 -0.21426015
000090 6f 89 6a be fc 8b b8 bc 60 29 c0 bd e4 4d 7b 3d
       -0.2290399 -0.022527687 -0.09382892 0.06135358
0000a0 0a 50 69 be 6c 88 7b 3e c8 e2 50 be 2e 31 aa bd
       -0.22784439 0.2456376 -0.2039901 -0.083101615
0000b0 61 e7 0b be 5f 1c 2a bd 85 22 25 3e 28 44 0f be
       -0.13662483 -0.041530963 0.1612645 -0.13990843
0000c0 be 5e 12 be a3 d8 2f bd 8a 2a ca 3c 24 99 98 3e
       -0.14293954 -0.04293121 0.024678487 0.29804337
0000d0 8c 8d 6b 3d e1 2b c4 bc 7a 3a 20 be c8 fc 25 bd
       0.057508036 -0.023946704 -0.15647307 -0.040524274
0000e0 b3 02 b9 3d fd 47 02 be 5e 6f 83 bc 17 f4 22 bd
       0.09033718 -0.12722774 -0.016044315 -0.039783563
0000f0 55 85 17 3e 06 b9 89 be 8e 3e 00 be 10 df 14 be
       0.14796956 -0.26898974 -0.12523863 -0.14538217
000100 3f 7a 0a be 3b 9d f0 3c c5 a2 e3 3d a5 1e ff bd
       -0.13523196 0.029371848 0.1111503 -0.12457017
000110 e3 84 17 bd f1 17 7f bd 72 a7 94 3d 8e 19 9e be
       -0.036991965 -0.06227869 0.072585 -0.30878872
000120 e3 6f fd bb 79 8d 22 bd e5 06 0b 3e 4b 34 0e bd
       -0.007734285 -0.0396857 0.13576849 -0.03471784
000130 52 27 2a be e0 f1 a9 3e c3 c5 ff 3a ba b8 07 be
       -0.16616562 0.33192348 0.0019513894 -0.13254061
000140 48 df 42 3e 83 f4 33 be 82 a0 3e bd f1 cf 6c be
       0.19030488 -0.17573743 -0.04653979 -0.23126198
000150 7a ac 35 3e 6e db 47 be 79 86 73 3e 3b cb 88 be
       0.17741576 -0.195173 0.23781766 -0.26717553
000160 8e ff 1c bc fd 2f cf bb ab 58 27 bd 01 0a 9e be
       -0.009582413 -0.0063228593 -0.040856045 -0.30867007
000170 2e ce 8b 3d b4 ba ab bd c6 65 98 bd f1 f9 4f bd
       0.06826435 -0.0838522 -0.07441287 -0.050775472
000180 f6 7f 25 3d a9 18 e3 bd 1d d7 ad bd 9a b9 89 bd
       0.040405236 -0.11088688 -0.08488295 -0.06724854
000190 2a e8 81 be a6 f7 5f bd bf 7e 17 be 98 02 3f 3c
       -0.2537244 -0.054679535 -0.14794444 0.011658333
0001a0 fb 2b 4a bd 46 27 0a 3f 06 b8 67 bd 48 a7 0f be
       -0.04935835 0.53966177 -0.056571983 -0.14028656
0001b0 e9 3b 06 3e a4 db 98 be af cd 09 be 09 49 0c be
       0.13108791 -0.29855072 -0.13457368 -0.13699736
0001c0 6c 89 cb bc 34 b8 8a be e0 13 49 3e 0b 73 74 3e
       -0.024845801 -0.2709366 0.19636488 0.2387201
0001d0 ae 7d ef 3d c4 88 db bd d8 22 cb 3c 75 da 97 be
       0.116938934 -0.10719445 0.024796888 -0.29658857
0001e0 e7 04 f5 3b 5f f8 96 3c 3e 51 21 3e 19 cd 6d bd
       0.007477391 0.01842898 0.15753648 -0.058056924
0001f0 99 21 47 3e ab 1a 61 be de e8 59 bb ed c6 8f be
       0.1944641 -0.2198283 -0.0033250372 -0.28081456
000200 bc 33 40 be 3f 8e 85 be b3 15 5c 3e 67 4e df 3e
       -0.18769735 -0.26085088 0.21492653 0.43614504
000210 81 d2 71 bc a7 db 71 be 8e e4 bd bc af 14 a5 be
       -0.014759661 -0.23618947 -0.023180272 -0.32242343
000220 d9 67 96 3d ed 40 c5 3e 96 ac 5a 3e cf 66 86 3e
       0.07344026 0.38526097 0.21354899 0.26250312
000230 23 12 fe 3c ce 5e b7 be 9c 60 39 be 75 99 ab 3e
       0.031014508 -0.35814518 -0.1810326 0.33515516
000240 e4 6a 27 be f5 8f d6 3d c2 39 b7 bd 84 90 a9 3e
       -0.1634937 0.104766764 -0.08946563 0.3311807
000250 52 2e 23 3e 26 3f 96 be a7 c6 86 3e 00 57 5f be
       0.15935639 -0.29345053 0.26323435 -0.21810532
000260 04 14 42 3e 1f 8b 63 be 4d b1 35 3e a3 ac 0c be
       0.18952948 -0.22221039 0.17743416 -0.1373773
000270 08 b3 da bd 96 54 1d bd 9a 3a 10 3e 60 c0 92 3e
       -0.10678679 -0.038410746 0.14084855 0.28662395
000280 18 8e f1 3d 7f 1c 86 3e 12 23 84 3c 95 55 e4 3e
       0.1179468 0.26193616 0.016130004 0.44596544
000290 e8 21 2b 3e f1 95 8e 3d 14 fe 94 be 3b 7c 91 be
       0.16712153 0.06962193 -0.29100096 -0.28415093
0002a0 1b ee 91 be be 54 93 be 1c d6 4f 3e ec 1f 80 be
       -0.28501973 -0.2877559 0.2029652 -0.25024354
0002b0 69 bf 3b be 54 5d 9e 3e 3a 50 af 3d 42 85 bb 3e
       -0.18334736 0.3093058 0.08560224 0.36625105
0002c0 a4 2a 2b bd cf 05 ae 3e 04 2b ad 3e 81 9d de 3d
       -0.041788712 0.33988807 0.3382188 0.10869885
0002d0 3f d0 db bd e2 ce 31 3e 71 e8 51 3d e7 2a c7 be
       -0.10733079 0.17364076 0.051247064 -0.3889992
0002e0 ce 78 a2 be c0 49 ab 3e 4f 4b 44 3e b0 de 5f 3e
       -0.31732792 0.33454704 0.19169353 0.21862292
0002f0 47 5a 3a 3e 07 0b 9f be a7 b8 77 3e 69 02 2b 3e
       0.181985 -0.310631 0.24191533 0.16700138
000300 04 b1 cb 3d 81 e1 25 be 68 87 a6 3d d3 26 24 3d
       0.099458724 -0.16199304 0.081312954 0.04007609
000310 4a 03 15 bd ab 61 7c be b3 44 0d be cb 14 8e be
       -0.03638009 -0.24646632 -0.13795738 -0.2775024
000320 58 f2 bb bd b2 89 98 3d f9 1f 72 be 08 c9 1a 3c
       -0.09177083 0.07448138 -0.23645009 0.009447344
000330 04 cc 88 be d8 44 ff 3d 99 a3 39 3d b4 a4 9e be
       -0.26718152 0.12464303 0.045322035 -0.30985034
000340 4e 74 41 3d a7 6a 61 be f4 b1 e0 bd 24 36 61 be
       0.047230057 -0.22013341 -0.10971442 -0.2199331
000350 42 36 b5 3d 60 4c 72 be 04 86 8f 3e 1a 13 ad be
       0.088482395 -0.23661947 0.28031933 -0.33803636
000360 0d 8f 5c 3e f5 cc 48 be be b9 90 bd 6e 1e 44 be
       0.21538945 -0.19609435 -0.070666775 -0.19152233
000370 d1 38 42 3e 15 cb d3 bb f8 df 0a be 83 5a 29 be
       0.18966986 -0.0064634182 -0.13562 -0.16538434
000380 4a cd e5 3d 1e 1b 16 bc ca 8d 05 be 3b cf 78 be
       0.112207964 -0.009161739 -0.1304237 -0.24297802
000390 d0 ef 20 be 58 03 56 bd 25 e5 87 be 63 b4 19 3d
       -0.15716481 -0.052249283 -0.2654201 0.037525546
0003a0 7e 5b 16 be 2a ce 10 3e 13 11 35 be 16 67 11 3d
       -0.14683339 0.14141145 -0.17682295 0.0354987
0003b0 b4 fd a0 bd 24 75 8e be 38 0c c3 bd 3f 99 15 be
       -0.0786089 -0.27823746 -0.09523815 -0.1460924
0003c0 80 87 af 3c ec d6 11 3c e6 22 b0 3e 9b 63 37 3e
       0.021426916 0.008901339 0.34401625 0.1790909
0003d0 19 74 b8 bd 5a b7 23 3d 25 e6 93 3d f9 b6 84 3c
       -0.09006519 0.03996978 0.07221631 0.01620053
0003e0 50 ee 93 3e 08 5d 56 be 06 b9 54 bc 86 d8 81 be
       0.28892756 -0.20933926 -0.012983566 -0.25360507
0003f0 d9 ef 4a 3d e4 57 22 be c1 bf f3 bd 9f 2c 2b be
       0.049545143 -0.1585384 -0.119018085 -0.1671624
