sgan-dataset/logs/univ/models_03_Mar_2019_13_48_01/model_registrar-199.pt (torch_old, 575415 bytes, 45 tensors)

weight_ih_l0 f4 [128, 6]
00000000: d0f1 98bd a53f 873b dfd3 ddbd 6c3d 033e
00000010: c1e1 24be fde3 4d3e 39dd 13be 4635 24be
00000020: 160a a4bd 966e 0b3e 864b 24bd bb1a 833c
00000030: 1f09 1dbe aafd e5bd aac1 9dbd bf5c 03be
00000040: 60a0 0cbe 7f2e 003e cafa 6cbd dc8e 093d
00000050: 542d 3f3d fdbf 5d3d 4ebd d33c 04fb 293e
00000060: 7e51 c4bd 78d6 153d b6d8 3abe cd7c 4c3e
00000070: 434b f93d 351c 04be aadf 0e3e c3c0 953d
00000080: 7b47 23bb bb5d f43d ca74 4a3e 7882 08bc
00000090: 784a 3bbe 385c a1bd 236a 70be 3f64 3abc
000000a0: 264e 7abd 9530 d3bd c41b 44bc e427 313e
000000b0: 8225 28be d558 0a3d 075b 1dbd c170 943d
000000c0: 7163 233e 19bd e13d 050a 883d 0574 c33d
000000d0: ed05 583d 9651 8f3d 6dc7 d0bd 8a28 6abe
000000e0: 1123 aebc 6257 493e 1b54 85bd 72c4 38be
000000f0: 3f6c 57bb 67ee eb3d b632 2fbe 2995 d8bd
00000100: 992e 92bd f9e3 683c eac1 86bd aea5 29bd
00000110: c1e4 7fbd af0a fa3d d079 d73d a395 113e
00000120: 8e00 1dbe 4bec 32be ea6d dc3d a6eb 45bd
00000130: 2d01 5b3d 8b58 39be 8721 66bd 6a10 ac3d
00000140: fcad 5b3e 77b8 c43d d714 01bd 417f 5e3d
00000150: f4e7 debd bee4 9dbd 25f7 fbbd c3ed 333e
00000160: b9b9 c63d 4ec9 143d e84a 12be 0609 0d3e
00000170: 7b91 89bc 7b7e 473e 07b9 27bd 819c 9a3c
00000180: 9952 8c3d b0cc 0c3d c7fb da3c 798e 193d
00000190: f97e 0a3e 5a1a 09be 3dc3 043b a5c0 efbd
000001a0: ca77 8f3d 633c ffbd 322c 06bd 0d32 143e
000001b0: 6125 b43d c9e5 4bbb ea42 103e 6caa a4bc
000001c0: 8a98 c33d 5308 79bd f38d 9abc f8fb 113d
000001d0: 82a8 8ebe 45a1 cd3d 981c c13d a111 523e
000001e0: 516d b2bd d769 323d 77d2 8c3e 77f0 04bc
000001f0: 62a6 113e 0f20 65bd 8d6b 893c 7b58 863c
00000200: 4894 f53c dfe7 563d d36b 06be 0278 813d
00000210: 1403 d1bc 05a7 1abe e517 2cbe 0d5f 8ebd
00000220: 92ae 853d e1f9 583d ba73 23bd 113c c9bd
00000230: 443e e1bd ee84 063d 9b2d 983d e4d9 463e
00000240: da83 0bbc 367e ecbd 5a9f 5ebe b2c7 323d
00000250: 309e 15be e8f4 ccbd 3808 0cbe aab1 adbd
00000260: bf32 93bd 991e 033e d48c 563d fa64 333e
00000270: 3e0d edbd 3622 b53c 84ef 00be eaca 1e3e
00000280: 34a6 913d 0878 573e fabf eabd d6b9 103e
00000290: 4313 673e 04f0 283e 77ec f1bc 7d45 503e
000002a0: be2e dc3d 25a6 ee3d 553b 253d 1904 52be
000002b0: bc4e 2fbc 0d44 4f3d 448b fabd 7593 c4bd
000002c0: 4a23 23be cff3 a5bc ec34 ea3d 8612 a3bb
000002d0: 1dd4 1bbb 0bad 3b3d 651e e63d 760c 80be
000002e0: f332 fdbd a851 c4bd 40d5 d9bd c540 9a3d
000002f0: 02a0 8f3d 1f15 95be d7a3 19be bd73 1dbe
00000300: 9187 7d3d 068c 0e3e a538 18be f3ba 64bd
00000310: 3c81 5c3d 4a02 26bd 36c2 0c3e 240b d83c
00000320: 099d 4fbc 36ea 663d 9350 893d f6c1 b7bd
00000330: 275f 0cbe 0b95 e7b9 3f40 0bbc 7d66 a2bd
00000340: d353 f4bc 4f3f ef3d e3cd 8ebd f272 31bd
00000350: dd97 b8bc eb85 64bd 5ef7 0f3d 1d36 31bd
00000360: 5b37 8e3d ffc2 e8bd 6acf afbd 849e af3d
00000370: 1f2c 0abe 8f8b cabd 0e52 6b3d 1d0d 7cbd
00000380: 405e cc3c c304 05be 2bb8 dabc a57f 1dbe
00000390: 850b 223d 8873 fbbc ba6c 0abe 8108 6ebd
000003a0: f686 26be bbd2 bc3d aea4 023c 9fe2 edbd
000003b0: 8704 97bd 3618 903c 335f 19be cd62 0b3e
000003c0: 740c c83d 5918 ffbc b9e9 fdbd 66d8 5d3d
000003d0: b846 083e d058 223e ffca 4abe fc8e 00be
000003e0: 44a2 5d3e d9b7 de3d 21aa c73c ac47 7abd
000003f0: 78a0 003e c822 2fbe 4751 81bb d165 363c
-0.07467997 0.00412746 -0.10831427 0.128164 -0.16101743 0.20106502 -0.14439858 -0.16035947
-0.08009736 0.13616404 -0.040111087 0.016003957 -0.1533551 -0.11230023 -0.07702954 -0.12828349
-0.13733053 0.12517737 -0.05785636 0.033583507 0.046674088 0.054138172 0.025847103 0.16599661
-0.09585856 0.036581486 -0.18246731 0.19969483 0.12172558 -0.12901385 0.13952509 0.07312157
-0.0024914432 0.1193194 0.19771114 -0.008331887 -0.18290126 -0.078789175 -0.23477988 -0.01137644
-0.061109684 -0.10312001 -0.0119695105 0.17300373 -0.16420558 0.033776123 -0.03841689 0.072480686
0.15955903 0.11022396 0.06642536 0.09543613 0.052740026 0.06997983 -0.101942874 -0.22867027
-0.021256955 0.1966224 -0.065101825 -0.18043688 -0.0032870916 0.11520081 -0.17109188 -0.10575325
-0.07137794 0.014214509 -0.06579955 -0.04141777 -0.062474016 0.12209069 0.10521281 0.14217238
-0.15332243 -0.17472951 0.10763152 -0.048320435 0.05346792 -0.18100183 -0.056184318 0.08401568
0.21453089 0.096054964 -0.031514015 0.054320578 -0.10884085 -0.07709645 -0.123029985 0.17571168
0.097033925 0.03632479 -0.14286387 0.13772973 -0.016793003 0.19481842 -0.04094794 0.018873455
0.06851692 0.034374893 0.026731385 0.03748939 0.13524999 -0.13388959 0.0020257973 -0.11706666
0.0700527 -0.1246269 -0.03275699 0.14472218 0.08796192 -0.0031112304 0.14088026 -0.020100795
0.09550579 -0.060798954 -0.018866515 0.035640687 -0.27862936 0.10040525 0.09429282 0.20514537
-0.08712257 0.043557968 0.27504322 -0.008113972 0.14223626 -0.055938777 0.016774917 0.016399613
0.029977933 0.052467223 -0.13127069 0.06321718 -0.025514163 -0.15102775 -0.1680599 -0.06951723
0.06527437 0.052972678 -0.039905287 -0.0982591 -0.10998204 0.032841615 0.074305736 0.19419056
-0.008515323 -0.1154751 -0.21740475 0.043647476 -0.14611125 -0.1000765 -0.1367501 -0.08481152
-0.071874134 0.12804641 0.052380398 0.17518988 -0.11574791 0.02211104 -0.12591368 0.15507093
0.07111779 0.21041882 -0.11462398 0.14133391 0.22565942 0.16497809 -0.0295317 0.20339008
0.10751103 0.11652783 0.040339787 -0.20509376 -0.010699924 0.050602008 -0.12233594 -0.09598438
-0.1593143 -0.020257859 0.11435875 -0.0049765734 -0.0023777552 0.045819324 0.11236266 -0.25009507
-0.123632334 -0.09585887 -0.10636377 0.07531885 0.07012941 -0.29117677 -0.15003906 -0.15376182
0.061896864 0.13920602 -0.14865358 -0.05584235 0.053834185 -0.040529527 0.1374596 0.0263725
-0.012671717 0.056375705 0.067048214 -0.08972542 -0.13708173 -0.000441708 -0.008499204 -0.07929704
-0.029825127 0.11681997 -0.069728635 -0.04332251 -0.022533352 -0.055791777 0.035148017 -0.043264497
0.06944152 -0.113653176 -0.08584483 0.08575156 -0.13493393 -0.098899 0.0574513 -0.061535943
0.024947286 -0.12990098 -0.026699146 -0.15380724 0.039561767 -0.030694738 -0.13518038 -0.05811358
-0.16262421 0.09219881 0.007973833 -0.1161549 -0.073739104 0.01758967 -0.14977722 0.13611908
0.09768 -0.03113954 -0.12398095 0.05416145 0.13308227 0.15854192 -0.19804 -0.12554544
0.2164393 0.1087491 0.024373116 -0.061103508 0.12561214 -0.17103112 -0.0039464566 0.011132673

weight_hh_l0 f4 [128, 32]
00000000: c9a4 f6bd 97b8 b7bd a663 8cbd 9e32 e63d
00000010: 9816 23bc 8edd 0fbd b549 2bbe 6db1 763c
00000020: 1850 fe3d f25d 063e d521 d83c 8096 333e
00000030: 4d63 babc 2965 0b3e 4d47 bb3d 8b0c 283e
00000040: 08bc d83d 82ff 22be 9b23 a83d d65a 08be
00000050: 2eff d1bd 30ca 13be b8b6 c3bd e74a 06be
00000060: c10a 193e 38eb b7bd 1d61 f23d ba5c 0e3e
00000070: 3e6f e93d fe32 0a3e dd61 ab3c 4e03 2cbe
00000080: b090 e83d 5f52 20be 4fb5 523d dbda 84bd
00000090: 75e4 cf3d b6d9 013e 7735 2dbc 03e6 8bbd
000000a0: 5f08 0d3e aab6 0bbd 060c 0cbe d318 ddbd
000000b0: f1c5 36be 8b7c 1a3e af7a 023e 7d16 e4bc
000000c0: 298b c73d f021 e03d aea0 8fbd caaa d63c
000000d0: f907 75bc c26e b1bd af26 f8bd ed3a a1bd
000000e0: 8a53 ffbb 7204 93bc adc0 15be 5daa 1cbe
000000f0: b817 e8bc 4fda 783d c7a5 783d be19 f1bd
00000100: ae17 f53d 1420 00be 7ae1 9fbd ecb9 0b3e
00000110: 7cd4 0e3d ee0e 8d3d abd1 2fbe c078 2abe
00000120: 6335 f0bc 8b0c e93d bab4 32be cf3c d13d
00000130: a2ac ebbd 5216 fabd 4ecc 053e cb67 05be
00000140: ecfa 693d c742 13bd 78af 113e 61fb 33be
00000150: b18b b53d 8452 123e 7612 243d 489b 133e
00000160: 0f39 093e a7e5 b73d 5ed7 e13d 29bb 193e
00000170: adb8 f93d f194 973d ebbf f0bd fd3a d43d
00000180: b475 b83c b3cc ab3d 864f 243b 114a ad3d
00000190: f6c8 4abe e8af cfbd 1ed1 b2bd 8922 133e
000001a0: 74f5 d3bd e1b0 1bbc bcc8 bdbd 2f57 29be
000001b0: 842c 0ebe 96b1 29be d5ed 15be a2f3 f5bd
000001c0: 466e aa3c 0705 193e e637 debd 762b 93bd
000001d0: 2d1b 76bd 1f94 4e3d 5ea9 bc3d 60f2 32bd
000001e0: 7a5f cebd 2c22 223d af1b 32be 5f65 ea3d
000001f0: 0280 6cbd 9152 d33d 00dc 0f3e ced3 1e3d
00000200: 47c1 1abe 53c7 49bd 445b 1d3e 0b29 1ebe
00000210: 4cff ef3d 5808 04be ed54 70bd af03 fc3d
00000220: 5aad 23be 6362 65be a0f6 ddbc 6467 07be
00000230: 2500 8e3c 97c5 d23d 7ad2 c63d 389c 09be
00000240: b503 b43c 2f07 13be cf28 0bbe 1b2e a23d
00000250: 2aa2 823d f41b 003e b58c 5f3d 3cb1 b2bd
00000260: cec2 4c3c 447e 09be 9a8a 3fbe aff6 14be
00000270: a9e3 3c3e 7a03 abbd 2269 fc3d 11bb f3bd
00000280: 6d17 133e 4890 d9bd d276 653d 6077 1ebe
00000290: 67cf c5bd e4ca 2fbd b506 ecbc c3f3 adbd
000002a0: fcd4 01bd 12de 5bbd 292d 103e df96 28be
000002b0: 8117 e5bd 990b 953d 2115 f9bc 37d6 c7bc
000002c0: b7b8 593d e0be 243e 845a 31be 3f66 fa3d
000002d0: e0ee c63d ebe1 f1bd 8703 40bd 5a23 bfbc
000002e0: 69fd b0bd 7054 01be 08b3 033e 5351 233e
000002f0: fc85 2a3d baee b43d 3723 153e d035 bd3d
00000300: 3e5f 3f3e b564 623d e298 17be 942e 543e
00000310: bc81 aebc 0d8f 67bd 8179 50bb 4266 13be
00000320: f5c6 4bbd 59d7 33bd d892 24bd 852d debd
00000330: 79e1 5abc fe2d 2b3e c4ce 9abc 2313 5c3d
00000340: b2b7 683d 2dd4 b5bd 6726 1b3d 60b4 1ebe
00000350: a028 d83d 3681 323e bd4d 153e fa0c 3cbb
00000360: e5a0 56be a443 babb 1782 ce3d 474a a03b
00000370: e19c 43be b4ba 183e b8f2 1abe 721a 803d
00000380: c8aa 4f3e 440b 99bd 6a24 52bd e290 473d
00000390: bdc1 7cbd 71b5 ac3d 6889 0a3d 3365 e2bb
000003a0: bd05 72bb c85a 42be 7fe2 28bd 6235 0abe
000003b0: 830a 583e 633d 76bd 59ff 8f3d 5868 8b3d
000003c0: aedf 513e aae8 98bd 0fce 1bbe fdbf bdbc
000003d0: 6add 1dbe b73c b0bd 0d3e aabd ece2 25be
000003e0: ad89 443d 55f8 213e 26d5 183c 17d2 fc3d
000003f0: fb4f 043e 800c 213e 326b f93b dcbc d53d
-0.12043149 -0.089707546 -0.06854944 0.11240123 -0.009954117 -0.0351234 -0.16727336 0.01505695
0.124176204 0.13121775 0.02638332 0.1753788 -0.022752428 0.13612808 0.09144459 0.16411035
0.10582739 -0.15917781 0.08209916 -0.13315901 -0.1025375 -0.14432597 -0.09556335 -0.1311451
0.14945509 -0.08980411 0.11834929 0.1390256 0.11398171 0.13496014 0.020920688 -0.16798136
0.11355722 -0.15656422 0.05144244 -0.06487056 0.101509966 0.12680706 -0.010571829 -0.06830981
0.13772725 -0.03410975 -0.13676462 -0.107957505 -0.17848946 0.15086572 0.12742113 -0.027842754
0.097433396 0.10943973 -0.07013069 0.026204485 -0.014955514 -0.086637035 -0.12116753 -0.07872567
-0.007791941 -0.017946456 -0.14624281 -0.15299363 -0.028331622 0.06075507 0.060704973 -0.11772488
0.11967407 -0.12512237 -0.07806678 0.13645142 0.03487061 0.06887613 -0.17169826 -0.16647625
-0.029322332 0.113793455 -0.17451754 0.102166764 -0.115075365 -0.122112885 0.13066217 -0.13027875
0.057124063 -0.035952356 0.14227092 -0.17576362 0.08864535 0.1428929 0.04005667 0.14414704
0.13400672 0.089793496 0.11027406 0.15012802 0.12193427 0.07401455 -0.117553554 0.103628136
0.022517063 0.08388653 0.0025071814 0.08461393 -0.19803223 -0.10140973 -0.08731292 0.14368643
-0.10349551 -0.00950262 -0.09266803 -0.16537164 -0.13884169 -0.1657165 -0.14641507 -0.1200936
0.020804536 0.14943324 -0.108505055 -0.07186024 -0.06008451 0.050434228 0.09211992 -0.043688178
-0.100768045 0.03958337 -0.17393373 0.11445116 -0.057739265 0.10318483 0.14048767 0.03877621
-0.15112792 -0.049262356 0.15366846 -0.15445344 0.11718616 -0.12893808 -0.05867474 0.1230539
-0.15984097 -0.22400813 -0.027095139 -0.13223034 0.017334053 0.102915935 0.09708114 -0.13438499
0.021974424 -0.14358209 -0.13589786 0.0791895 0.063785866 0.12510663 0.054577548 -0.08725211
0.012497617 -0.13427073 -0.18705216 -0.14547227 0.1844622 -0.083502725 0.1232474 -0.119009145
0.14364405 -0.106232226 0.05602152 -0.15475225 -0.096586995 -0.0429181 -0.028811792 -0.084937595
-0.03169726 -0.05367858 0.14079727 -0.16463803 -0.11186124 0.07277603 -0.030405583 -0.024394138
0.053154673 0.16088438 -0.17319685 0.12226533 0.097135305 -0.118106686 -0.046878364 -0.023332287
-0.08642084 -0.12629867 0.12861264 0.15948991 0.041631684 0.08834596 0.14564215 0.092387795
0.18688676 0.055271823 -0.14804414 0.20720893 -0.021302097 -0.05653291 -0.0031810703 -0.14394477
-0.049750287 -0.043906543 -0.040179104 -0.10848526 -0.013359421 0.16716763 -0.018897422 0.053729188
0.05681581 -0.0887836 0.03787842 -0.15498495 0.105546236 0.17432103 0.14580436 -0.0028694258
-0.20959814 -0.005684333 0.100834064 0.004891667 -0.19102813 0.14914972 -0.15131652 0.06255044
0.20279992 -0.07472852 -0.05130426 0.048722155 -0.0617082 0.08433045 0.033822447 -0.0069090365
-0.003692969 -0.18979943 -0.04123163 -0.13496926 0.2109776 -0.060117137 0.070311256 0.06807011
0.20495483 -0.07466252 -0.15215324 -0.023162836 -0.15416494 -0.086053304 -0.083126165 -0.16199845
0.04798286 0.15817387 0.009328162 0.12344759 0.12921135 0.15727425 0.0076116556 0.10436413

bias_ih_l0 f4 [128]
00000000: 07ac c3bd dc63 91bd b903 60bc f3f8 ccbd
00000010: 2033 23be b61d 213e 0bcd 06bd b5b9 2ebe
00000020: 1a79 c43c dbd5 1f3d e60a 363e 6b2e 2c3e
00000030: 7abf a13d 6195 1abe d4c5 df3d 1ed7 0abe
00000040: c5bf 123d 2499 fb3d 56a6 33bd 10b4 f93d
00000050: 2d2e 093d 49cf c8bc 75bc 13bd 967a 25bd
00000060: ca52 d53d 2fe9 923d eeb5 82bd 9bec f43c
00000070: f89d 8cbc 98e5 e9bd 36c4 3bbe c63a debc
00000080: 632b 343e e4b9 18be f7da 1bbe c07d de3d
00000090: 7a80 1ebe e05b 84bd d537 03be 1de0 86bc
000000a0: deba 05be 58c4 da3d f7d8 49bd ff30 8a3d
000000b0: d7e4 31bd 43e3 333e 7dce 22bc e52c eebd
000000c0: ce4d 1d3e d492 ad3d 191d a6bd 24c5 a23d
000000d0: dc32 13be 144a a43d 165b f23d 7677 e23d
000000e0: e3f7 943d a9ef 183e 5272 c63d 21d1 cb3d
000000f0: cd82 73bc 36b7 24be 2e73 37be 7924 0bbe
00000100: 0462 d93d 9bab 023e 286e 58bc e87c 703d
00000110: 5c74 8dbd b7ca 373d 5b0d ba3d f9db b8bd
00000120: e7d6 9e3c dfb9 e93d c7ec bfbd 207e 9d3d
00000130: 6bbb 14be dd1d 41bd 9f57 cabd e1e8 39be
00000140: 9af0 00be 86a6 f4bd aa2e 063e 192a 27bd
00000150: 5a02 a33c 0306 0d3e be8b a63d e7df 0dbe
00000160: a162 163e a07d 01be f711 f83d 02d0 25be
00000170: 2bbe 0fbe 4eff 073e 3fd2 fb3c cf19 73bd
00000180: e778 c63d 8324 e9bd 7cc8 8b3c fc14 61bd
00000190: 983f 01bc 6565 ad3d 9c59 073b 2fe0 1abe
000001a0: e67b c9bd 85eb 913d f4b5 6bbd 3bf4 d73d
000001b0: f42d 2d3d 4a92 2ebe 7174 153e 8b16 3c3d
000001c0: 15c8 0d3e a78f 353d 7b8d 593d f844 e33b
000001d0: ffc1 fd3d 6bd1 cabc a6ba 9ebd def9 613c
000001e0: 6ac0 d3bd e446 e43d e437 c13d 9669 08bd
000001f0: 848e f23d a60b af3d 4515 01be dc3e 28bd
-0.09554296 -0.07099125 -0.013672763 -0.10008421 -0.15937471 0.1573399 -0.032910388 -0.17063029
0.023983527 0.039022308 0.17777595 0.16814582 0.078978494 -0.15096046 0.109264046 -0.13558623
0.035827417 0.12285069 -0.043859802 0.12192547 0.033491302 -0.024512904 -0.0360684 -0.04040011
0.104161814 0.071733825 -0.063823566 0.029897979 -0.01716517 -0.11420745 -0.18336567 -0.027127635
0.17594676 -0.14914662 -0.15220247 0.10863829 -0.15478697 -0.06462836 -0.12814267 -0.016464287
-0.13059565 0.10681981 -0.04927918 0.067476265 -0.04343113 0.17567162 -0.009936926 -0.11629657
0.15361711 0.08475271 -0.08111019 0.07947758 -0.1437487 0.08021942 0.118337795 0.110579416
0.07273843 0.14935173 0.096897736 0.099519975 -0.014862728 -0.16085514 -0.17915031 -0.13588132
0.10614398 0.12760775 -0.013209857 0.05871287 -0.069069594 0.04487106 0.090845786 -0.090263315
0.019389583 0.11412405 -0.093713336 0.07690072 -0.1452462 -0.04714762 -0.09879994 -0.18155243
-0.12591782 -0.11945824 0.13103738 -0.04081163 0.019898582 0.13771825 0.081321225 -0.13854943
0.14686061 -0.12645578 0.121128015 -0.1619263 -0.14037387 0.13280985 0.030739902 -0.059350785
0.09691029 -0.11383917 0.017063372 -0.054951653 -0.007888697 0.08466605 0.0020652777 -0.15124582
-0.09838085 0.07125 -0.05754657 0.1054463 0.042280152 -0.17047992 0.145952 0.045919936
0.13845856 0.04432645 0.053113442 0.006935712 0.123905174 -0.024758061 -0.07750444 0.013792483
-0.103394344 0.11146334 0.094344884 -0.03330382 0.11843589 0.08547144 -0.1260577 -0.041075572

bias_hh_l0 f4 [128]
00000000: 6630 0fbe 7317 6dbd 9a00 17be 727d 7b3d
00000010: 1d93 7fbc 9446 b1bd 25ca 09be 5a38 e33b
00000020: 097b df3d d3cf 503e ce21 a1bd 366e 313d
00000030: 8d23 23be 77bf 123e 696c 193e 6e71 cb3c
00000040: 9b77 51bd 805c ec3d 4de6 0ebe 1306 9f3d
00000050: 3384 393e fef3 1f3e b029 f7bb 35c5 c33c
00000060: c2cd be3b d1da 673d 0a6f 1f3c 60a8 7cbd
00000070: 0353 cabd 0208 fdbd 4628 e9bd 6aef bc3c
00000080: 6c8f b23d 2805 fcbd 8813 af3d 16b1 c7bd
00000090: a643 1d3e 0125 c93d 21b5 513c 2829 25be
000000a0: 7961 6cbd 713f 4f3d 1695 f8bc 4406 ce3b
000000b0: 4b4a 3dbd a1c2 76bb f8a4 c43d a18b 87bd
000000c0: 06ef ba3c b6dc 893c f617 58bd d480 d0bd
000000d0: 3964 2639 0b1e a9bd cd7b d6bd e525 a93d
000000e0: e0fb 05be 7519 23be 0c66 20be 5109 1f3d
000000f0: a878 30bd 2ba1 953d dec7 40bd 6a7b 293e
00000100: 9d5d 35be a18d 10be 51a2 203e 65f8 493b
00000110: e417 403e eb16 9e3d ea2a c3bd 81a7 31bd
00000120: ca80 243e 91fb a73c 1ac1 0b3d ece8 c03d
00000130: 0546 113d 1814 9e3c a7bd 34be 8790 10bd
00000140: 6812 07bd cfc3 fb3d 3b5c 673d 2369 2bbe
00000150: c65d 0cbe 333d 9e3d fb2a 26be 6450 e03d
00000160: bdab bbbd 1185 aabc 8f25 fe3d ded6 40bd
00000170: 5f03 04be a755 15be 54dc ca3b b1dd 363d
00000180: 4984 94bc 3dd3 a73c 995f 0ebe 767f 303e
00000190: 3dce b93d 66b2 43bc d775 4d3e 0a2c 233e
000001a0: 120a 1cbe acb1 bf3d 8021 3c3e dcb6 3a3e
000001b0: 32fe 5e3d 4efa b93c 81c5 863d 6a4c 5c3d
000001c0: d2b7 203e 625e bdbd a301 223e b6b3 eebd
000001d0: 8f14 b23d 2754 2a3e 981b 983d 1fe5 153e
000001e0: 13ec ac3d a667 b23d 0cc5 153e 5c01 debc
000001f0: 4ba8 32bc 1ab2 a33d 4bd5 cabd a87e 233e
-0.13983306 -0.05788369 -0.14746323 0.06139893 -0.015599039 -0.0865604 -0.13456018 0.006934208
0.10912139 0.20391779 -0.07867776 0.043317996 -0.1593153 0.1433085 0.14982761 0.02483436
-0.051139455 0.115410805 -0.1395504 0.077648304 0.18116836 0.1562042 -0.0075428113 0.023897747
0.005822868 0.056605164 0.009731064 -0.061684012 -0.098791145 -0.12355043 -0.11384635 0.02306338
0.08718762 -0.12305671 0.08548647 -0.09750573 0.15357837 0.09821511 0.012799532 -0.16128981
-0.057710145 0.05059761 -0.030344527 0.006287368 -0.04621343 -0.003765263 0.09601778 -0.06618429
0.022819053 0.016828876 -0.052757226 -0.10180822 0.0001586833 -0.08257683 -0.10472832 0.08259181
-0.13084364 -0.1592768 -0.15663928 0.038827244 -0.043083817 0.07306131 -0.04706561 0.16550985
-0.17711492 -0.14116527 0.15686919 0.003081822 0.18759114 0.07719215 -0.095296696 -0.043372635
0.16064754 0.020505698 0.034119703 0.09419426 0.035467166 0.01929669 -0.17650472 -0.035294082
-0.032976538 0.12293207 0.056484442 -0.16739325 -0.13707647 0.077265166 -0.16227333 0.10952833
-0.09163616 -0.020815404 0.124095075 -0.047079913 -0.12891911 -0.14583455 0.006190816 0.044645015
-0.018129485 0.020486468 -0.13903655 0.17236122 0.0907254 -0.011944389 0.20064484 0.15934768
-0.15238217 0.0936006 0.18372154 0.18233818 0.05444164 0.022702362 0.0658064 0.05378381
0.15695122 -0.09246518 0.15820937 -0.11655371 0.086953275 0.16633664 0.07427138 0.14638184
0.08443465 0.087111756 0.14625949 -0.027100258 -0.010904382 0.079929546 -0.09903964 0.15966284

weight_ih_l0 f4 [128, 2]
00000000: 483f 11bd 95c1 183c 9683 73be c176 e2bd
00000010: 4ec3 863e 7a2c 62be 3371 22be 2835 c9bd
00000020: fdb9 cabd 7a94 91be cf33 7a3c 5cc8 663b
00000030: 47a8 1abe 12a8 b4bd 7c1f 8c3d 87b5 8cbe
00000040: 211d 1b3d f1f4 99be 35f0 6a3b 2b63 443e
00000050: d1cd d3bd 9377 e53d 8482 e9bc f80c 69be
00000060: 2c79 4ebe b571 11bd e404 453e 12c5 073e
00000070: 3028 80be 4c79 26be 8dd8 e53d 8f74 a83c
00000080: ea97 29be 8878 33bd 61d9 1f3e 8233 21bd
00000090: f033 0ebe 2e3f 01be 62d8 26be 9008 713c
000000a0: 2b83 b43c 41f1 22be a1b6 32be 92a6 a1bb
000000b0: e51b 16be 5930 163e ec69 5abd 18de cbbd
000000c0: 839a e7bd 2829 4ebe 120b 8abd cd2c 243e
000000d0: f721 163e 4043 39bd b7ea 9fbe 7d75 5a3b
000000e0: 9f5a 67be c362 063c cc3e c33c 337e 26be
000000f0: dc5e 033e 2771 a5be aae9 08be 748b 8cbe
00000100: dde5 3abe 1d91 73be 583b ffbd 80d5 8bbe
00000110: 7d9c 503e b26f 66be 2eae df3c 1933 51bd
00000120: 9e7b 323e 3252 97be 93be 0a3d 8abe 26be
00000130: 070a 78be 419e 2ebb 7aea 373e 3515 8cbd
00000140: c431 26be 0075 7bbe 4745 863d 60cf 523e
00000150: c219 7cbd 68e9 e0bc 00e7 efbd 03cc 90bd
00000160: 6cc1 2cbe e371 553c c2c8 4f3d f045 0c3e
00000170: 38b1 abbd a7df b7bd 8f34 8b3e de68 fdbd
00000180: 61dd 4d3d a604 9bbd 6477 92bc 9767 97be
00000190: 244c 18be 2a84 233c 6ff1 98be ef1e 1f3c
000001a0: a7d0 61be 4f21 08be ab15 b939 e189 0cbe
000001b0: 2eaa 07be a05f 2c3d 6953 42bb 4a3d aabe
000001c0: df61 72be 2bee 4ebe c955 383d 1b12 f23d
000001d0: 5142 573d 2c97 28be db5a cdbd 1833 2abe
000001e0: d072 db3b 6534 4fbe 9831 d73b 3c60 89bd
000001f0: 82f9 e63d 9a5a 8dbe 0794 11be ee60 acbe
00000200: 279e 4d3e 1609 443e 2382 53be 40e4 90be
00000210: 6104 12be f3cb ec3d 10c8 29bd a97e cebc
00000220: c029 b7bd 2a4d 37be 5252 1f3e 3131 aebe
00000230: b7be e53b 660b 003d dfc3 043e 15e3 5ebe
00000240: 04f2 9f3e a2e7 333e 0c6f 07be 564e c63e
00000250: 4b05 8f3e 8a31 4a3e 4878 7cbd c840 ecbd
00000260: 85d0 85be a5a7 8fbe 9255 a53e e421 963d
00000270: 5d84 7abe 3ec2 98be 36fc 64be c65d 923e
00000280: 00eb a03d 5f29 223e 4da4 0dbe 16f6 5e3e
00000290: 0a6c bc3d ab51 953e 2775 6d3e 04c3 253e
000002a0: 0b16 86be 26e8 8cbd 6c75 2c3d c403 493e
000002b0: 2b2d 423e 3792 e9bd 0c7c 353e 53b9 dbbd
000002c0: 5047 623e 60f4 6f3e 9f03 833e 3247 843d
000002d0: 9854 0bbe 2577 6d3e c31a 3fbd f94f b8bd
000002e0: 6821 9e3e d2cf 393e fcef 0e3e 6c89 b43e
000002f0: e56b 323d 8350 3ebe 03a1 2ebe 607b ff3d
00000300: 0770 8cbe 0f86 3cbe fcde b4bb 26cf c33b
00000310: 3fa9 333e 5bef b2be 024b 083c f72d d1bd
00000320: 7db9 7cbd 8826 afbe f0d4 a1bc bb8c c5bd
00000330: 7bb9 5dbe 1455 92be 9ba2 a7bd e093 99be
00000340: b428 e5bd ae8c c3bc c17e 10be 3984 23bc
00000350: 459f f23c e49a adbc a140 07bd f974 98be
00000360: 43ef 513d cb95 6ebd 0aba 0a3e 8cc7 a53e
00000370: 6187 82bd 51f5 0d3b 36d1 10bd 2d29 ec3c
00000380: 1c07 cabd 7037 c7bd bf62 56bd 7c6d b1be
00000390: 4d3e 91be ba28 85be d865 1dbd 51ec 2e3e
000003a0: 1171 8abd 51d9 87bd 8a7d 30be 87f3 b6bd
000003b0: fcd3 ed3b b112 e73a eecf 38bd efe9 9dbe
000003c0: 9fe0 0c3d 3cdc a2bd 4616 2bbd 3ea6 ce3b
000003d0: 589b ef3d 6e8e 66be 2e11 94ba 8c0a 883e
000003e0: 9256 85be be0b b2bd 90f0 03be 2fc0 b0be
000003f0: cf65 3d3d a7ab 2abe 73c7 22bc 46b9 a6be
-0.03546074 0.009323497 -0.23780665 -0.11057807 0.2632088 -0.22087279 -0.15863495 -0.09824592
-0.09898756 -0.2843359 0.015271141 0.0035214638 -0.15103255 -0.08821119 0.06841943 -0.27482244
0.037869576 -0.30069688 0.003584874 0.19178455 -0.10341991 0.112044476 -0.028504618 -0.22758853
-0.20163411 -0.03550883 0.19240147 0.1325877 -0.2503066 -0.16257209 0.112229444 0.020563392
-0.16561857 -0.04381612 0.15610267 -0.039355762 -0.13887 -0.12621757 -0.16293481 0.014711514
0.022035202 -0.15912344 -0.1745248 -0.004933187 -0.14659078 0.1466688 -0.05332367 -0.099544704
-0.11308768 -0.20132887 -0.06740393 0.16032715 0.14661394 -0.04523015 -0.3123376 0.0033334189
-0.22593163 0.008202258 0.023833655 -0.16259079 0.12829155 -0.3231289 -0.13370386 -0.27450144
-0.18251748 -0.23785825 -0.12462491 -0.27311325 0.20372196 -0.22503546 0.027304735 -0.05107412
0.17429969 -0.29554898 0.033873152 -0.16283622 -0.24222575 -0.002664462 0.1796054 -0.068399824
-0.16229922 -0.2455635 0.06556182 0.2058692 -0.061548002 -0.027455047 -0.11713982 -0.07070162
-0.1687066 0.013027641 0.050728567 0.13698554 -0.08383411 -0.08978205 0.27188537 -0.123735175
0.05025995 -0.07569246 -0.017879196 -0.2957122 -0.14872795 0.009980241 -0.298717 0.009711965
-0.22052251 -0.13293956 0.00035302094 -0.13724472 -0.13248512 0.042083383 -0.0029651767 -0.33249885
-0.23670147 -0.20208041 0.045003686 0.118198596 0.05255348 -0.16463917 -0.10027095 -0.16621053
0.0066970363 -0.2023483 0.0065671913 -0.067078084 0.112780586 -0.27608186 -0.14216624 -0.336677
0.20079862 0.19144091 -0.20655112 -0.2829914 -0.14259483 0.11562338 -0.04145056 -0.02520688
-0.0894351 -0.1790053 0.15558746 -0.34021905 0.0070112604 0.03126087 0.12965344 -0.21766312
0.3123933 0.1756883 -0.13225955 0.3873164 0.27933726 0.1974546 -0.061638147 -0.115357935
-0.2613565 -0.2805759 0.32291847 0.07330683 -0.24464555 -0.29835695 -0.22361836 0.28587168
0.07857323 0.15836094 -0.13832207 0.21773562 0.09200294 0.2916387 0.23189221 0.16187674
-0.26188692 -0.06880216 0.04210417 0.19630343 0.18962543 -0.114048414 0.17723101 -0.10728707
0.22097516 0.23433065 0.255887 0.06458892 -0.13606489 0.23189981 -0.04665638 -0.089996286
0.30884862 0.18145683 0.13958734 0.35261095 0.043559927 -0.185854 -0.17053609 0.12474704
-0.2742922 -0.18410514 -0.005519746 0.0059756218 0.17545031 -0.3494824 0.0083186645 -0.10213845
-0.061700333 -0.34209085 -0.019754857 -0.09645983 -0.21652786 -0.28580534 -0.081853114 -0.29995632
-0.11189404 -0.023870792 -0.14110853 -0.009980255 0.029616961 -0.021192022 -0.03302062 -0.29776743
0.05125357 -0.058248322 0.13547531 0.32378805 -0.06373478 0.0021661113 -0.03535577 0.028828228
-0.09864637 -0.09727371 -0.052340265 -0.34653842 -0.28367844 -0.26007634 -0.038427204 0.17082335
-0.06759847 -0.06633247 -0.1723539 -0.08933168 0.0072579365 0.0017629472 -0.045120172 -0.3084254
0.034393903 -0.079521626 -0.04176929 0.0063064387 0.11699551 -0.2251527 -0.0011296624 0.26570547
-0.2604261 -0.08693646 -0.12884736 -0.34521624 0.04623967 -0.16667043 -0.009935248 -0.32563227

weight_hh_l0 f4 [128, 32]
00000000: b452 e2bd 8683 703d f146 1abe efc1 b33d
00000010: 7352 a03c fb19 c73d 09be c5bd 4d6e a6bd
00000020: 1f49 fabd 87c4 3b3d d273 a93d f30a cd3d
00000030: b6cd 553e 6ca8 56bc 46b2 3cbd 34bf 023d
00000040: 1a14 bb3d 28e3 d3bd 89be 9f3b 1bc2 a73d
00000050: ef22 703d 8edf febd bc66 1ebe 667d 923c
00000060: ccd7 45be 6226 f83d 6702 49be c499 583e
00000070: 2fdc 953c 0688 6abe 60f1 15bd 38c8 033e
00000080: 8679 f0bd a80d 07bd 36bd c3bc 5a1d abbd
00000090: a9fe ae3d d43a 293e ddc6 4abe 4c02 b1bc
000000a0: 02b5 b0bd 1aff 1c3e 891b 77be 0832 b8bc
000000b0: bea1 553e e28c a83d 02e6 c13d 5aa7 acbc
000000c0: f209 713c 761a f5bd fd01 873c 657d b93d
000000d0: 4404 4c3e 6613 72be 3652 c53d a319 4e3e
000000e0: cc82 06ba 4a64 0dbe e5ec d2bd 1809 43bd
000000f0: ae4c dfbd b020 0c3d 8163 9a3c 0f27 8ebd
00000100: d418 b9bd 79a0 6d3d 19f4 55bd 46b8 2dbd
00000110: 1218 ddbd 94fe 6a3d 4f96 efbd 4084 bf3b
00000120: 0434 0bbe 26d2 49be 69ee 3fbe 1477 36bb
00000130: ea09 a23d 3f5b 733e 3043 8e3d 7dd1 afbd
00000140: a025 0f3d 47a2 52bc 5fb2 46be 5e84 5ebe
00000150: 93e5 94bd 4ccb 95bd cfc9 ecbd 2f64 363e
00000160: 4ab4 d3bd c8a1 83bc dfe9 2ebe e45a 2fbd
00000170: 30f4 30be 86a0 b83d b575 c13d ba27 39be
00000180: 2543 023e 24a7 f73c ece8 773d c0f9 5ebd
00000190: f10d f73c 118e 2c3e c941 e93d af61 023e
000001a0: 6501 fd3d 462f fa3d 1a9d 1ebd 2b16 013d
000001b0: bff4 473d c299 e7bd 8e29 32bc dd6c 30be
000001c0: 50a4 57be d877 0bbe a96c f2bd 65fd 5abe
000001d0: d918 223b 5464 953d 9b22 6abd f6ca 67bd
000001e0: 42e1 59bd 834d b03d 7561 0bbe 4b9f 07bd
000001f0: c3e4 8ebd cd31 77bd e962 653e 60ad 4bbe
00000200: 9a37 57bd c9d6 143e 2be4 24bd 2702 963d
00000210: 70db 053e 6ce1 943e 8238 f33d bece 53bd
00000220: a5ec 5b3c f264 b73d a65b 36be f557 3b3b
00000230: fbfe bd3d d36c 0b3e 663b 183e 6655 943a
00000240: 161e 51be ec46 72bc 0786 fabc 4c69 66bd
00000250: a9d2 133e c634 ca3d 7e2f f53d c1e1 bebd
00000260: 9b02 3fbe 6388 6bbc d164 56be c9fa 9c3d
00000270: 71ed 7ebd e2f3 e73d f9de 083e 2bdf 57bd
00000280: 14af 8fbd 9799 4bbd 56a8 53be 16e8 39be
00000290: 00af 5a3b 4a98 953e 43e5 3fbe d51a 743e
000002a0: c129 063c a8a3 aebd 5cf4 70be ccba 3f3e
000002b0: 68b3 183e 3fde 92bd 71d7 fd3d 7348 4dbe
000002c0: ef14 32be d776 1e3d 72c6 16be 511b 903d
000002d0: 8fcd a5bd 99bc dfbd b514 6ebe 2517 ec3d
000002e0: b60d 9e3d 5aa0 a83d 625d 803d d17a fdba
000002f0: 3017 5ebd 6274 62be 5358 823e e9b2 01be
00000300: 1c8f 863d 31ae 423d d85c d8bb 43c4 80bd
00000310: b3f9 693e 20e5 79bd 7da3 48be 51ac c33d
00000320: 22b1 31be 7a15 8bbd deb9 f1bb be20 193e
00000330: da8f e93d 429d 013e dbdd 7dbd 6675 45be
00000340: 08cf aebd b676 5ebd d4c3 9b3d 4450 03be
00000350: 8540 573e 1809 ac3d 37f5 37be 7115 2b3e
00000360: e286 aabd 1dc3 a73d be9c 16be e119 b93d
00000370: b46a 30bc f79e 23be a77c 46bd 17f6 88bd
00000380: 067e ad3d d144 383e c0dc 06bd bd49 1b3d
00000390: b6b4 fb3d 7f83 e4bc 47d7 353d 0ff7 fb3d
000003a0: 1615 3ebd 6168 6dbe a679 17be 2fdd 503e
000003b0: 8587 4c3e 6782 6fbd 2507 183e 1caa a8bd
000003c0: f6b4 8a3d 4ca8 dfbd 1e63 7abe fd49 863d
000003d0: 35f2 efbb 7baf 6abd 4335 03be b2a1 80bd
000003e0: 134e 543c dc07 bcbd 6cfc acbb e1bf 263e
000003f0: 9066 02bd f90a 6e3d 540d 093e a379 16bc
-0.110509306 0.05871918 -0.15066124 0.08777224 0.019570565 0.09721752 -0.09655387 -0.08126507
-0.12220978 0.04584172 0.08274044 0.10011854 0.20879254 -0.013101678 -0.046068452 0.031920627
0.091346934 -0.10346061 0.0048750085 0.081913196 0.058627065 -0.124449834 -0.15468878 0.01788206
-0.19320601 0.12116696 -0.19629823 0.21152407 0.018293468 -0.22903451 -0.036607146 0.12869346
-0.11741929 -0.032972008 -0.023893934 -0.08355208 0.08544666 0.16526347 -0.19802423 -0.02160754
-0.086282745 0.15331689 -0.24131598 -0.022484794 0.20862481 0.08229996 0.09467699 -0.021075893
0.014711844 -0.11967938 0.01648044 0.0905712 0.19923502 -0.23640212 0.09634821 0.20126967
-0.00051311846 -0.13807788 -0.1029909 -0.047616094 -0.10903297 0.03421086 0.018846275 -0.069410436
-0.09037939 0.058014367 -0.052234743 -0.042412065 -0.10795607 0.05737169 -0.11698591 0.005844623
-0.13594061 -0.19709072 -0.1874329 -0.0027841972 0.07912047 0.23765276 0.06946409 -0.085848786
0.03494799 -0.012856073 -0.1940398 -0.21730182 -0.0727035 -0.073141664 -0.115619294 0.17811655
-0.10337122 -0.016068354 -0.17081402 -0.04281129 -0.1728065 0.090149924 0.09446279 -0.1808156
0.12720926 0.030231066 0.060524866 -0.0544374 0.030158015 0.16851069 0.11389501 0.12732576
0.123537816 0.12216048 -0.038724042 0.03151528 0.048817392 -0.11308624 -0.010874165 -0.17229028
-0.21058774 -0.13619936 -0.118371315 -0.21385725 0.0024734049 0.07294527 -0.05716191 -0.056590043
-0.05319334 0.08608534 -0.13611396 -0.033110898 -0.069772266 -0.060350228 0.22401012 -0.19890356
-0.05254326 0.14535059 -0.04025666 0.07324629 0.1307199 0.29078233 0.118760124 -0.051710837
0.01342312 0.08954801 -0.17808399 0.0028586362 0.09277149 0.13615732 0.14866409 0.0011316955
-0.20421633 -0.014787417 -0.030581487 -0.056252763 0.14435829 0.09873347 0.11971949 -0.09320403
-0.18653338 -0.014375779 -0.20936896 0.07665021 -0.06223816 0.11325814 0.13366307 -0.052703064
-0.070158154 -0.04970702 -0.20669684 -0.1815494 0.0033368468 0.2921775 -0.187398 0.2383836
0.008188666 -0.08527309 -0.23530716 0.18723601 0.14912188 -0.07171296 0.12394608 -0.20047168
-0.17390798 0.038687553 -0.14724138 0.0703646 -0.08095848 -0.10924644 -0.23250087 0.11527852
0.07717459 0.0823371 0.06267811 -0.001933897 -0.054221332 -0.22114709 0.2545801 -0.12665905
0.06570265 0.047529403 -0.0066028647 -0.06287434 0.22849159 -0.061009526 -0.19593616 0.09554351
-0.17352727 -0.06791206 -0.0073768934 0.14953896 0.11404391 0.12657645 -0.061979156 -0.19283065
-0.08535582 -0.05431243 0.076057106 -0.12823588 0.21020706 0.08400172 -0.17964636 0.16707398
-0.08326508 0.08191512 -0.1470823 0.09038139 -0.0107676275 -0.15978609 -0.04845872 -0.06687563
0.08471303 0.17995001 -0.032925367 0.03791212 0.12290327 -0.027894733 0.044394758 0.12302982
-0.046406828 -0.23184349 -0.14792499 0.20396875 0.19973572 -0.05847397 0.14846475 -0.08235571
0.06772797 -0.10920772 -0.24451873 0.06557081 -0.0073225745 -0.057296257 -0.12813286 -0.06280841
0.0129580675 -0.091811866 -0.0052791145 0.16284133 -0.031836092 0.058115933 0.1338399 -0.009184274

bias_ih_l0 f4 [128]
00000000: b04d 54bd d061 92bd c4e8 963d 3825 dc3d
00000010: b2aa 533b 819f 0e3e da9a 4d3e 2b30 97bd
00000020: 8b81 0c3d d065 2d3e fac7 03be 3424 2dbe
00000030: 32b6 423d bd7e 7e3e 40df 02be 94b5 b53d
00000040: 6b59 523d 4392 093e 2eaf 633e e73d c1bc
00000050: 0087 423e 0861 edbc 0e26 eebd e696 73bd
00000060: 7c66 1abc 623a 943d 098c 663d cfda 4e3d
00000070: fc8f 013e 2456 0f3e 1b6f 393e ba99 1a3d
00000080: 852e 363e cf89 dabd afbe ebbd cb71 d8bd
00000090: 8118 e9bc 651f de3d 4130 c13b 92b4 4b3e
000000a0: 5a14 373e 0371 7c3e bd5d 303d 6bf0 1a3e
000000b0: d5e9 53bd 23d0 803e 3fe3 493d 58d1 84bc
000000c0: 6ac6 c3bd 413b 5f3e 1d1b 463e c4e9 643e
000000d0: 5487 973d 507d f63d 6196 a4bd 203b 5339
000000e0: 9eae 20bd afb0 373e 9d04 803d 78ee 4e3e
000000f0: eef0 09be 0cf9 9f3d bff5 bcb7 dfc9 113b
00000100: 0937 d6bd eb42 8c3d b0ef 8c3d f76e 4ebe
00000110: 290c 2b3d 9ca2 c13d 0e8b a13d e218 eb3d
00000120: ab71 d63d e4e3 9ebd 5435 a13d 880c 103d
00000130: 6c46 713d 056e d43c 930d f13d 601a c5bd
00000140: 5aff 39be 0cfb fdbd a6e2 053e a923 bdbd
00000150: 5df3 853d 280a 49be c34a c4bd 3da4 223e
00000160: 36e6 03be 0cd3 99bd 6d0b dd3d bf10 533d
00000170: ba2d 9c3c 6f60 c0bd 043b 35bd 18b4 0d3d
00000180: 6bff cebd ae0c 313e 282a 193e 796f 093e
00000190: d07b b13d bbee 583e 78d1 413e cb99 3b3d
000001a0: b401 7f3c dc67 743e 69a7 e73c 6107 14be
000001b0: 5852 aebd 530a 803e 3b9a 7c3d f386 1f3b
000001c0: ec82 913d b355 edbd 7d44 0d3e 640b ed3d
000001d0: 5f2f 86bd 192a 133e 4a32 fa3a 6e73 d4bd
000001e0: e4f9 453e 9533 2a3e a6d9 583e 742e 8fbd
000001f0: b5f7 ecbd d797 b73b 26be 153e a3ec 90bc
-0.0518319 -0.071475625 0.07368615 0.107492864 0.0032297787 0.13928033 0.20078602 -0.07382234
0.03430323 0.1693337 -0.12869254 -0.16908342 0.047537036 0.24853034 -0.12780476 0.08872524
0.051354807 0.134347 0.22234794 -0.023589088 0.18996811 -0.028976932 -0.11628352 -0.05947008
-0.009423848 0.07237698 0.05628589 0.05050164 0.12652582 0.13997704 0.1810879 0.03774426
0.17791183 -0.10670816 -0.115109794 -0.10568579 -0.028454067 0.10845832 0.005895645 0.19893101
0.17878857 0.24652486 0.043058146 0.15130775 -0.05173667 0.25158796 0.049288984 -0.016213104
-0.09559329 0.21799947 0.1934628 0.223548 0.07398859 0.1203562 -0.08036495 0.00020144554
-0.039229028 0.17938493 0.0625088 0.20208156 -0.13470814 0.07811174 -2.252578e-05 0.0022245569
-0.10459716 0.06848701 0.06881654 -0.20159517 0.041759644 0.094548434 0.07887851 0.114793554
0.10470899 -0.077583104 0.078715 0.0351682 0.05890505 0.025931368 0.11770167 -0.09624171
-0.18163815 -0.12401399 0.13074741 -0.09235317 0.065405585 -0.1963278 -0.09584572 0.15882964
-0.12880787 -0.07510957 0.10793195 0.051529642 0.019064773 -0.09393393 -0.044245735 0.03459558
-0.10107311 0.17289993 0.14957488 0.1342143 0.086661935 0.21184818 0.18927562 0.045800965
0.015564371 0.23867744 0.02827807 -0.1445594 -0.085117996 0.25007877 0.061670523 0.002434191
0.071050495 -0.115886115 0.13795657 0.11574438 -0.06552004 0.14371528 0.0019088474 -0.10373579
0.19333607 0.1662124 0.21176776 -0.06991282 -0.11570684 0.0056028175 0.14623317 -0.017690962

bias_hh_l0 f4 [128]
00000000: e275 353e 5d86 403e 09e0 7d3b 7ca6 7bbd
00000010: 7232 c73d 7168 683e c9ba 3bbd 93e8 f73c
00000020: 5462 e73d 8342 773e 1765 9c3d ff7d 223d
00000030: 06ee 443d 6e00 843e 6bd4 cf3d c427 0f3e
00000040: 186a a139 c032 623d b646 073e 4364 8cbd
00000050: aeb6 473e f2c6 a43d 0c60 363e 3323 08be
00000060: 616e eebd f3a3 30bc b129 a83c 0514 3bbd
00000070: 6d06 1c3e 5a20 283e 32f5 243d 13a2 883d
00000080: dc02 333d 2419 ea3d 7d6c 103c 7d88 a7ba
00000090: b8cc 93bc d33c 6fbd 4b0c f0bd d072 babd
000000a0: daaf a9bd 2aea 8a3d cac4 1cbd be95 3a3d
000000b0: 0612 be3d 3084 873e 0f74 dbbd 989a b8bd
000000c0: d16a e6bc 326e 2cbd a17d 463d d1f2 143d
000000d0: 26fa 873d 7415 323d e209 843d e0e8 16be
000000e0: 4d62 72bc 08ac 653e 2042 dbbc 7d3b 8abc
000000f0: 4f8a 823d 25cd e9bd 7cdb f4bd 1e7a 373e
00000100: b1f7 983d c401 b13d 0d8c f5bd 7175 2cbe
00000110: 440b ec3d c48c dabd 1054 00be b7b9 e93d
00000120: f6c3 1fbe d88e 143e 3a4d 6e3b b0ea 113e
00000130: 5623 a43c a65e ca3d cd27 c23d 8087 2c3c
00000140: 49ed bdbd d02c 413d 581d 1cbe 6fa0 ba3b
00000150: 0e23 e63d c459 1ebe e562 123d a48a c13d
00000160: 7c69 84bd 22f7 163e b927 c5bd b294 8a3d
00000170: 5ac5 04be cfc5 07be d31e 393e e672 14be
00000180: e03a 273e e871 183e 959f 483d 0446 07be
00000190: 9830 b1bd f171 663e bf37 ea3d 06ca f43d
000001a0: 1a2e 703d e1b7 803e 0f05 d9bc ca84 fdbd
000001b0: 582e 9ebd 77b7 df3d cf78 023e 290c d63d
000001c0: 2367 603e b685 6bbd 5d06 acbd 2ceb ce3d
000001d0: 1158 a9bd e61e 3ebd ed6f fb3d b56f 3b3e
000001e0: ddd1 8b3d f786 953e d5e6 d738 0384 ec3d
000001f0: 2aa5 233e 0d15 953d fe84 913d 0697 403d
0.1772075 0.18801256 0.0038738272 -0.06143807 0.097264186 0.22696091 -0.04583243 0.030262267
0.112980515 0.24146466 0.07636469 0.03967094 0.04807856 0.25781578 0.101479374 0.13980013
0.0003078736 0.05522418 0.13210568 -0.06855061 0.1950328 0.08045758 0.17810076 -0.13294677
-0.11642147 -0.010781276 0.020527693 -0.04567339 0.15236826 0.16418591 0.0402729 0.06671538
0.0437039 0.114305764 0.008814928 -0.0012781766 -0.018041953 -0.058407616 -0.11721095 -0.0910393
-0.08285494 0.067829445 -0.03827361 0.04555296 0.092807814 0.2646804 -0.10715496 -0.090138614
-0.028127106 -0.042097278 0.048459653 0.03636438 0.06639509 0.04347749 0.064471975 -0.14737272
-0.014793945 0.22428906 -0.02676493 -0.01687407 0.063740365 -0.11416081 -0.11955926 0.17917678
0.074691184 0.08642915 -0.11989603 -0.16841675 0.11525586 -0.1067138 -0.12532067 0.114123754
-0.15602097 0.14507616 0.0036361949 0.14249682 0.02003638 0.09881334 0.09480248 0.010530353
-0.09273774 0.047161877 -0.15245569 0.0056953947 0.11237155 -0.1546393 0.035738844 0.09450272
-0.06465432 0.14742711 -0.09626717 0.06766643 -0.12965909 -0.13259052 0.18078165 -0.14496955
0.16331053 0.14887202 0.048980314 -0.13210303 -0.08651847 0.22504403 0.11436414 0.119525954
0.058637716 0.25140288 -0.02649167 -0.12378843 -0.07723683 0.10923665 0.12741397 0.10451538
0.21914344 -0.057500564 -0.08399651 0.10103449 -0.082687505 -0.046416186 0.122772075 0.18304332
0.068271376 0.29204533 0.00010294995 0.11548617 0.15980974 0.07279406 0.07105444 0.047019027

weight_ih_l0_reverse f4 [128, 2]
00000000: 0f38 86bc b8ee 75be 82ee 183d 59dc e6bd
00000010: fffe aebd 7051 33be ceae 443e dfd3 88be
00000020: b6a7 943b 8859 f9bd 668e 35be 57ac 8fbe
00000030: 8836 853d 24ef 0c3e b1b6 79bd 30e8 a5be
00000040: 704d 183e 973c b3be f613 24be e14e a8bc
00000050: 0299 05be d8ee 60bc d10f 863e 7771 98be
00000060: 9ec9 3cbd 43c2 29be a0ac 25be 8ded a9be
00000070: 2bf5 d83d aa5f 373d 3db5 4dbd 37d4 85bd
00000080: 4c14 cdbd 53cc 31be 7ae8 9dbd 2c10 7ebe
00000090: 2939 70be a690 81bd 6d00 f1bd a8e2 38bc
000000a0: 31ab 70be e17b 023e 71ff 35be 62f9 ddbd
000000b0: 633d c9bd 6396 05bd 9eeb 243e 20ac 0abe
000000c0: b3fe 09be 3ff5 a0bd 1c59 0cbe 3968 343e
000000d0: 3aaa 6e3d 1f99 00bd c88a 04be 4a06 78bd
000000e0: c2f0 c03d 4c51 bebd 50b8 49bd bc0c a4bd
000000f0: 7c05 123e 1e52 86be d737 fcbd 57ca 38be
00000100: c1b3 32be a5bc 3b3c 9394 ad3d 3828 64be
00000110: 1634 96bd 57d7 9ebd 782e a23d 2ad0 92be
00000120: 59cc 9ebc 44c0 7ebd 6975 8a3d d59c 78bd
00000130: 8f4b 25be 373e 5a3e 5a8d 35bc d14f e7bd
00000140: c39e 403e 8f35 37be a45f 36bd b08a 58be
00000150: ffa7 483e bc81 67be 7555 703e 263f 91be
00000160: 42ea 01bc cce1 bbbd aac6 0cbd 3918 96be
00000170: 03d4 1a3d fe02 d8bd 1dff 04be b46a dabd
00000180: bb3c ed3c e11c 49be 1bac aebd 7aef cdbd
00000190: db33 6bbe e437 a1bd cbfb 2abe 77ff 0dbd
000001a0: 061e b7bd 3d65 883e 5c15 81bd 1645 17be
000001b0: be92 193e 6288 97be f319 20be bf66 12be
000001c0: 1bc8 1abd 8774 88be 0e12 ee3c 0be3 253d
000001d0: 7503 c03d fbb5 d5bd 7501 ee3c b72c 96be
000001e0: 11b1 9cbb 5973 0e3c c5de e23d 63d3 96bd
000001f0: 47df 363e e184 4cbe f608 a33b fdbd 8fbe
00000200: 1830 37be d4e1 52be 186a 443e b6e4 bd3e
00000210: 0267 d9bc 652d 3fbe aa16 bebc aa3c 8abe
00000220: 6b2d 8c3d 506a a13e 4b35 683e f84c 5d3e
00000230: 8030 653d a6c6 9bbe 7b6e 32be 4b6d 943e
00000240: e65f 16be bbb7 253d ebef c6bd 1e8a 983e
00000250: a7f0 183e 975f 68be 73e4 7b3e f505 33be
00000260: 6c4a 3c3e 4c4e 30be 7bf8 173e 611f acbd
00000270: 56f1 4abd 7b5c 35bd 16a8 1a3e dc84 7a3e
00000280: 797f be3d f2f7 3f3e e882 183d ef0a c33e
00000290: 5878 123e 7ced 243d 65c5 87be 310b 57be
000002a0: 8188 86be e1b6 13be 1a9f 323e e7dc 47be
000002b0: cbd1 41be 75ed 6e3e 8900 a23d 9b1d 9c3e
000002c0: 69df b2bc f228 a13e 8079 8e3e fe40 8c3d
000002d0: 7ca3 89bd e711 0b3e aa2f 403d d28f 9ebe
000002e0: de1b 93be bacd 973e d392 2a3e 1d76 383e
000002f0: a486 1a3e 2a81 94be edb1 3e3e 33cf b23d
00000300: 8217 b43d ab09 20be 5c6e 8a3d 3c0b 34bd
00000310: 1bc4 50bd 138f 87be d343 e8bd bd9c 8ebe
00000320: c591 ddbd c451 113d 910c 84be c4f1 8ebd
00000330: c349 81be dd91 4b3c a637 3c3d 208a 9abe
00000340: 1626 183d 86e2 61be 8c97 d3bd 2c14 63be
00000350: 02c9 de3d dc9e 74be 2310 813e 2cdc abbe
00000360: 1816 583e 445c 7ebe 51d4 a0bd 8128 49be
00000370: e722 053e 49e6 54bd b302 21be 9921 80be
00000380: 832f 0d3e beae 49bd 82e9 e8bd 9717 8fbe
00000390: 693c 39be 5392 febd 0464 7fbe 70c3 a33a
000003a0: f529 31be 1377 70bd f2e5 2fbe 8727 5e3c
000003b0: 4202 98bd d1f3 8cbe d1d3 cabd 4f8e 1ebe
000003c0: 879c 9a3b 483f ecbc d941 313e cee0 a73d
000003d0: 8a18 fcbd 939d a53b ad17 b93d 1023 88bb
000003e0: b5a7 8a3e 9f19 4fbe 7d8e 48bd 0001 9abe
000003f0: 89a7 183d ab92 2fbe 15f1 e5bd e6ea 49be
-0.016384153 -0.24016845 0.037336834 -0.11272497 -0.085447304 -0.17511535 0.19207308 -0.26724145
0.0045365943 -0.1217528 -0.17730102 -0.28061172 0.06504542 0.137631 -0.060965244 -0.32403708
0.1487329 -0.35007164 -0.1602324 -0.020545425 -0.13046649 -0.01372882 0.26183942 -0.29774067
-0.046090715 -0.16578011 -0.16179132 -0.3318905 0.10593637 0.044768967 -0.05022167 -0.065346174
-0.10013637 -0.173631 -0.07710357 -0.24810857 -0.23459305 -0.063264176 -0.11767659 -0.011284508
-0.23502804 0.12742569 -0.17773224 -0.108385816 -0.09826162 -0.032614123 0.16105506 -0.13542223
-0.13476066 -0.07859277 -0.13705868 0.17617883 0.05826781 -0.031396028 -0.12943566 -0.060552873
0.09420921 -0.0929285 -0.04924804 -0.080102414 0.14259905 -0.26234525 -0.12315338 -0.18045937
-0.17451383 0.011458551 0.08475604 -0.22280967 -0.07334153 -0.077559166 0.079190195 -0.28674442
-0.01938455 -0.062195078 0.067606755 -0.06069644 -0.16142105 0.21312796 -0.011081064 -0.11294521
0.18810563 -0.17891525 -0.044524804 -0.21146655 0.19595335 -0.22608083 0.234701 -0.2836849
-0.007929387 -0.09173927 -0.03436915 -0.29315355 0.037799846 -0.10547446 -0.12987943 -0.10664883
0.028959623 -0.19639923 -0.0852892 -0.10055442 -0.22969 -0.078719884 -0.16697614 -0.03466746
-0.089412734 0.2663974 -0.06302902 -0.14772448 0.14997384 -0.2959624 -0.15634899 -0.14297007
-0.03778849 -0.26651403 0.029061344 0.04049973 0.093756594 -0.10435101 0.02905343 -0.2933099
-0.00478185 0.008694493 0.11077646 -0.073645376 0.17858611 -0.19972564 0.0049754335 -0.28074637
-0.1788944 -0.20593959 0.19181097 0.37088555 -0.026538376 -0.1866966 -0.023204166 -0.26999408
0.068446 0.31526423 0.2267658 0.21611392 0.055954456 -0.30424994 -0.17424957 0.28989634
-0.1468502 0.040458422 -0.097137295 0.29792875 0.14935552 -0.22692715 0.24598865 -0.17482741
0.18387765 -0.17217368 0.14840882 -0.084044226 -0.049546562 -0.04427765 0.15103182 0.24464744
0.09301657 0.18746927 0.037234217 0.3809428 0.1430372 0.040265545 -0.26517788 -0.21000363
-0.2627602 -0.14425232 0.17443505 -0.19517861 -0.18927686 0.2333277 0.07910258 0.30491337
-0.021835046 0.3147655 0.27827072 0.06848334 -0.06720635 0.13581048 0.046920456 -0.309691
-0.28732198 0.29649144 0.16657571 0.18013807 0.15090424 -0.29004794 0.18622561 0.08730926
0.08793546 -0.15628688 0.06759331 -0.043956026 -0.05096827 -0.26476344 -0.113410614 -0.27853957
-0.10818819 0.03547837 -0.25790837 -0.06979707 -0.25251588 0.012424913 0.045951508 -0.30183506
0.037145697 -0.22059068 -0.1033164 -0.22175664 0.10878183 -0.23888725 0.25207624 -0.33566415
0.21102178 -0.24839884 -0.07852996 -0.19644357 0.13001595 -0.05197743 -0.15723686 -0.25025633
0.13787656 -0.049238913 -0.11372663 -0.27947685 -0.18089451 -0.12430253 -0.24940497 0.0012494158
-0.17301162 -0.058707308 -0.17177561 0.013559229 -0.07422306 -0.27529767 -0.09903682 -0.15483974
0.0047183665 -0.028838769 0.17310275 0.08197175 -0.12309368 0.0050541847 0.09037719 -0.0041545704
0.27081075 -0.20224617 -0.048964012 -0.30078888 0.03726915 -0.17145793 -0.112276234 -0.19718513

weight_hh_l0_reverse f4 [128, 32]
00000000: d2d6 1f3c 6363 053c 5031 2abb 2e62 9a3d
00000010: 8494 d33c e10e 833d 0e65 143c ebe0 2a3a
00000020: 7a0b 2dbd 3c13 023d b930 783d 702f 65bd
00000030: fbdc d6bc a1b0 0a3e bb66 fdbd 490b 1a3b
00000040: 7e8a 05bd 4022 5f3d 25a0 423c 945d 5bbc
00000050: 7f9f 743d 28b1 133e e5a7 1b3c 1378 69bd
00000060: c3ad 06be 8b9e 7d3d 66f3 48be 3daa e4bd
00000070: 2fc2 f2ba 06cd 853d f98f f3bd b59e 8d3c
00000080: 1f34 e33c c3b4 5c3d fc5f 8a3d 0fc1 8b3e
00000090: aac7 53be d262 0fbe 23cb 343d 143b 26be
000000a0: 978c b1bd 6088 033d bab9 493d 3e3e 5abd
000000b0: 61bf c33d 7ea8 81bd 9a2e b63c fa1f d4bd
000000c0: b08d 30be 232b 1ebe 659d 283d 0b75 7c3d
000000d0: 43fe 8b3d 2aa3 073e 4f77 b4bd 58da 5dbe
000000e0: 5503 fcbd 8f22 05be 04f0 edbd 7079 80bc
000000f0: f141 0fbd 57ec 3fbe e2a2 0a3e 6e71 6c3d
00000100: aa13 f13d 0c98 84be cd10 96bd 89c6 f2bc
00000110: bf1e 663d 77c2 a53d 0e26 063e d862 5abe
00000120: 6b44 f4ba 07a7 44bc 44ad ed3c 98d7 dd3d
00000130: 4ac0 153e 938d 813c 9e4f 7d3d ed51 b6bc
00000140: d145 6dbe 94ea c5bd dd60 c2bd ad7c 303d
00000150: a2e3 cb3c 9131 a1bd 6374 c53c 2fd7 48be
00000160: 6018 16be d984 c53d fc26 77bc 65d9 413d
00000170: 1767 bb3b 815c d73d c8df b9bc 5ab7 62be
00000180: 4be6 7c3c 3aaf 4fbe 1971 02be d86e a2bc
00000190: faee e2bd 8bab f9bc 475d 163e ca3e 8b3d
000001a0: 63b5 90bd d4b4 c0bd 2ca1 3fbd deaa 453e
000001b0: 5a9f 1a3e 55dc 653c 6589 a13d 2aae d93d
000001c0: 1c03 eabd 0e5e 973d b30c abbd ff6f 96bc
000001d0: 2486 083d 6f0f 133e c269 54be 3b3c 583d
000001e0: afbb 3bbe 3b8d 013d 34b5 903c bfcc 803c
000001f0: 96a4 cf3c 5836 30be 854d 063d 0cb5 13bd
00000200: aa5e 303e 63a5 02be 38b1 d8bd e827 c93d
00000210: a973 55be b078 c83c 9774 f33d de85 47bd
00000220: 5074 b83d 0697 2dbe e230 38bd 436a 4e3d
00000230: 466a 09bd f534 163e 7dd5 1abd 17fd f4bd
00000240: 27e7 ecbd 8e80 dc3c b9b5 7c3d 6038 b6bd
00000250: dc85 673c 66b6 433d 5a07 f7bd e5df f83d
00000260: 0b11 02be d538 203e 96fb 2cbe 8bb3 453e
00000270: 6521 91bd 8370 ee3d 29bf 81bd 0b44 f3bd
00000280: d2a5 843d d52f 47be 7454 bb3d 9117 513d
00000290: 164f 943d 3771 b53d 8637 84bd a74d 34be
000002a0: 0e1a 60be 18bc 07be 264c 7d3d f585 d4bd
000002b0: 511a fcbd c8fc 063e 0e24 65bd ae23 75bd
000002c0: d40c 07bd de18 74be 0abd 63be 120f 6abd
000002d0: 4649 1e3e 33c7 a73d 52b0 4abe fe1f 103d
000002e0: 029d ab3d 6807 18be 1e05 f1bd b941 23bd
000002f0: 2573 5ebe 1bf7 c03c 541c 363e 8ea8 01be
00000300: 1d07 a13e 19e4 873c bbb8 213e c341 103c
00000310: 2d5c 5bbe 1892 a5be 2599 cd3d 2b04 56be
00000320: 51d2 56be 339d 85be 8064 373e 1487 7d3e
00000330: c4e1 1f3c 310b f33d fefc 26be aa7a 19bd
00000340: 4668 46be 5128 5bbd a69c 0ebe 8f7a 6f3e
00000350: 22f7 373e a605 a63e cbbf d8bb 4b0b 1abe
00000360: c416 62be 078a 0d3a 0a72 abbd 3853 693c
00000370: 039f 1fbe 0952 87be f6a3 c23d 39d4 7dbd
00000380: 89c4 583e 50ad 89be 6b8d 403e 9bd6 c6bd
00000390: 5ce2 36bd aa2b 66bd 1105 9bbd bbf3 5fbe
000003a0: 2212 7bbd f7ca cabd 8cc9 333e 129d 2abc
000003b0: 1525 22bd a50d c03d 73c3 dc3d 7d94 54be
000003c0: b49d 1a3d 9cdf 29bd 2efa 53be 8179 00bd
000003d0: 7bd9 213d 5bd7 61bd 5800 22bc 0715 c1bc
000003e0: d676 f23d a7cd 4f3d c35b 073e f82e da3c
000003f0: 88f1 b7bd 7418 b6bd c140 5abc 50d0 fabc
0.009755807 0.008141371 -0.0025969334 0.075382575 0.025827654 0.06399322 0.009057296 0.0006518501
-0.042247273 0.031756625 0.06059334 -0.055953443 -0.026228419 0.13543941 -0.1237311 0.0023505262
-0.03260278 0.054476023 0.011879002 -0.01338901 0.05972242 0.14423048 0.009500478 -0.056999277
-0.13152222 0.061918776 -0.19624099 -0.11165283 -0.0018521006 0.06533246 -0.11892695 0.017287591
0.027734814 0.053883325 0.06756589 0.2729573 -0.20681635 -0.1400254 0.04413904 -0.16233474
-0.086693935 0.03211248 0.04924939 -0.053282015 0.09557987 -0.063309655 0.022239018 -0.103576615
-0.1724155 -0.15446143 0.041165728 0.06163506 0.06835606 0.13245836 -0.08811819 -0.21665323
-0.12305323 -0.13001464 -0.11618045 -0.015682906 -0.034974996 -0.187425 0.13538697 0.057725362
0.11771329 -0.25897253 -0.07327423 -0.029635685 0.056181666 0.08093732 0.13100454 -0.21326768
-0.0018636113 -0.012002713 0.029013284 0.10832137 0.14624134 0.015814578 0.061843507 -0.022255862
-0.23171164 -0.09663883 -0.094911315 0.04308765 0.024888817 -0.07870782 0.02410335 -0.19613336
-0.14657736 0.09644479 -0.015084978 0.047326464 0.0057190764 0.105156906 -0.022689715 -0.22140256
0.0154357655 -0.20281687 -0.12738456 -0.019828245 -0.110807374 -0.030477306 0.1468402 0.067990854
-0.07065847 -0.0940949 -0.046784565 0.19303462 0.1509985 0.014029582 0.07887534 0.10628922
-0.11426374 0.073909864 -0.083520316 -0.01836395 0.03333105 0.14361356 -0.20743468 0.052791815
-0.18333314 0.03162883 0.01766453 0.01572263 0.025347035 -0.1720823 0.032788772 -0.03606133
0.17223611 -0.12758403 -0.10580677 0.09822065 -0.20844902 0.02447161 0.11887472 -0.04871165
0.0900656 -0.16952142 -0.044968493 0.050394308 -0.033548616 0.14668639 -0.037801255 -0.119623356
-0.11567526 0.026916768 0.06169674 -0.088974714 0.014131036 0.04778137 -0.12061949 0.121520795
-0.12701814 0.1564668 -0.16892847 0.19306771 -0.070864476 0.11642554 -0.06335289 -0.118782125
0.0647694 -0.1945184 0.091469675 0.051047865 0.07241647 0.08859485 -0.06455903 -0.17607747
-0.21884939 -0.13255346 0.0618402 -0.10377113 -0.12309707 0.13182366 -0.055942588 -0.05984848
-0.03297122 -0.23837611 -0.22240081 -0.05714328 0.15457639 0.08192291 -0.19793823 0.03518676
0.08379556 -0.14846575 -0.11768554 -0.0398576 -0.21723612 0.02355533 0.17784244 -0.12661955
0.3145074 0.016588258 0.15793125 0.008804741 -0.21421881 -0.32338023 0.100389756 -0.20900027
-0.20978667 -0.26096496 0.17909431 0.2475856 0.009758417 0.11867369 -0.16307446 -0.037470497
-0.19375715 -0.053505246 -0.13926944 0.23386596 0.17965367 0.32426184 -0.0066146604 -0.1504337
-0.22078997 0.0005399291 -0.083713606 0.014241032 -0.15588002 -0.26429775 0.09503929 -0.06196997
0.21168722 -0.2689004 0.18803947 -0.097089015 -0.044649467 -0.056193985 -0.07569326 -0.2187032
-0.06129659 -0.09901994 0.17557353 -0.010413425 -0.039586145 0.093776025 0.107794665 -0.20759769
0.037748054 -0.041473016 -0.20700905 -0.031365875 0.039514046 -0.05513702 -0.009887777 -0.023569597
0.118390724 0.050733235 0.13218598 0.026633725 -0.08981615 -0.08891383 -0.013321103 -0.03061691
