sgan-dataset/logs/univ/models_03_Mar_2019_13_48_01/model_registrar-99.pt (torch_old, 575415 bytes, 45 tensors)

weight_ih_l0 f4 [128, 6]
0	0xbd8b17df	-0.067916624
1	0x3af8e1ae	0.0018988156
2	0xbdbc6954	-0.09199777
3	0x3e1f8421	0.15577747
4	0xbe32aa44	-0.17447764
5	0x3e1f3336	0.15546879
6	0xbe0dde16	-0.1385425
7	0xbe1a0322	-0.15040258
8	0xbd820e19	-0.06350345
9	0x3dc617d4	0.096725136
10	0xbd8d4491	-0.06897844
11	0x3d6fb9d6	0.058526836
12	0xbe1e29c7	-0.15445624
13	0xbde6256f	-0.11237609
14	0xbda52054	-0.08062807
15	0xbe021068	-0.12701571
16	0xbdf621dc	-0.12018177
17	0x3de067eb	0.10957321
18	0xbd2ff9c2	-0.042962797
19	0x3d2dab60	0.042399764
20	0x3d970eaf	0.073758475
21	0x3d880e45	0.06643347
22	0x3d3b5f3d	0.045745123
23	0x3e39f405	0.18159492
24	0xbdc536df	-0.096296065
25	0x3d08b477	0.03337523
26	0xbe37d453	-0.17952089
27	0x3e360953	0.17776994
28	0x3e1044e4	0.1408878
29	0xbe09665f	-0.13417958
30	0x3e0cbcf4	0.13743955
31	0x3d8be2d4	0.068303734
32	0x3c8bad47	0.017050399
33	0x3df3089f	0.11866879
34	0x3e3dbd6d	0.18529291
35	0xbcd2559a	-0.025675584
36	0xbe35c11b	-0.17749445
37	0xbd9afbd3	-0.07567563
38	0xbe5c2238	-0.21497428
39	0x3cbddf28	0.023177698
40	0xbcd351f7	-0.02579592
41	0xbd9b96a0	-0.07597089
42	0xbc94ce30	-0.018164724
43	0x3e26dbd0	0.1629479
44	0xbdfbd08c	-0.122956365
45	0xbc5b530a	-0.013386497
46	0xbb6654e8	-0.0035145823
47	0x3d89cab4	0.06728116
48	0x3e1eddd7	0.15514313
49	0x3dd7d6cd	0.10539017
50	0x3d5fd7dd	0.054649223
51	0x3d9fa0a6	0.07794313
52	0x3d11925a	0.035539962
53	0x3d999c7f	0.075005524
54	0xbd971eb2	-0.073789015
55	0xbe535655	-0.20638402
56	0xbd18c5d0	-0.037298024
57	0x3e2ec457	0.17067085
58	0xbd30ed76	-0.04319521
59	0xbe369bf1	-0.17832924
60	0x3b07b3aa	0.0020706453
61	0x3df5f7b8	0.12010139
62	0xbddb4751	-0.10706962
63	0xbdc7bbdd	-0.09752629
64	0xbde2dddd	-0.11077473
65	0x3cd60384	0.026124723
66	0xbd87acb3	-0.06624737
67	0xbd28b422	-0.041187413
68	0xbdbc26b0	-0.091870666
69	0x3e097de7	0.13426934
70	0x3de96e82	0.11398031
71	0x3e0f0abe	0.13968942
72	0xbe0c50ac	-0.13702649
73	0xbe201069	-0.1563126
74	0x3dd4eb0c	0.10396394
75	0xbd0d20e9	-0.034455214
76	0x3d69dd2f	0.057095703
77	0xbe2f1fa9	-0.17101921
78	0xbd3091e8	-0.043107897
79	0x3dc475ce	0.09592782
80	0x3e45f0c3	0.19330125
81	0x3dd64b22	0.10463549
82	0x3b875780	0.004130304
83	0x3d00ea29	0.031473313
84	0xbde45002	-0.11148073
85	0xbdaa6c61	-0.08321453
86	0xbda9c5ff	-0.08289718
87	0x3e265602	0.16243747
88	0x3d9afe61	0.0756805
89	0x3d915588	0.07096392
90	0xbe13a2c6	-0.14417562
91	0x3e048102	0.12939838
92	0xbceae248	-0.028672352
93	0x3e3c9dce	0.18419573
94	0xbd5cb18c	-0.05388026
95	0x3d2b3b95	0.04180487
96	0x3dc49c81	0.09600163
97	0x3d552ddf	0.0520457
98	0x3d0c1ede	0.034209125
99	0x3d1914b1	0.03737325
100	0x3e023495	0.12715371
101	0xbdd3e29f	-0.10345959
102	0x3af58a61	0.0018733257
103	0xbde8897c	-0.11354348
104	0x3d1832cb	0.037157815
105	0xbe09b39e	-0.13447425
106	0xbcddd975	-0.02708123
107	0x3e239891	0.15976168
108	0x3da8911d	0.08230803
109	0xbc02e683	-0.007989529
110	0x3e1b85f6	0.15187821
111	0xbda8c0dc	-0.0823991
112	0x3db5f3f1	0.08884419
113	0xbce22eeb	-0.027610263
114	0xbd18b3a1	-0.037280682
115	0x3c4238d2	0.011854367
116	0xbe704e88	-0.23467457
117	0x3d7026a6	0.058630608
118	0x3d84109c	0.064484805
119	0x3e32ae8f	0.17449401
120	0xbdaf1154	-0.08548227
121	0x3d286152	0.041108437
122	0x3e6291b8	0.221259
123	0x3cb40452	0.021974716
124	0x3e3a420f	0.18189262
125	0xbd8088cc	-0.06276092
126	0x3cf8d15d	0.03037327
127	0x3cdb38f1	0.02676055
128	0x3d1e8f4a	0.03871087
129	0x3d96e91a	0.07368679
130	0xbdc8b924	-0.09800938
131	0x3ce43f11	0.027862104
132	0xbcfec858	-0.03110139
133	0xbe22e88b	-0.1590902
134	0xbde66b27	-0.112509064
135	0xbd875a7b	-0.06609055
136	0x3cfd5f82	0.03092933
137	0x3d926c76	0.071495935
138	0xbcc6e2ea	-0.024278123
139	0xbdb7712c	-0.08957133
140	0xbdbb418b	-0.09143361
141	0x3ce2109d	0.027595812
142	0x3d90230c	0.07037935
143	0x3e34c1b8	0.17652023
144	0xbb2c1a83	-0.002626092
145	0xbde3b444	-0.11118367
146	0xbe4d2021	-0.20031787
147	0x3d1d3cc6	0.038388036
148	0xbe187560	-0.14888525
149	0xbdcb58be	-0.099290356
150	0xbe0044c2	-0.12526229
151	0xbd99238c	-0.07477483
152	0xbd80ee73	-0.062954806
153	0x3e0e40e9	0.13891949
154	0x3d883a28	0.066517174
155	0x3e261b2a	0.162213
156	0xbdead8b5	-0.11467115
157	0x3c601ff8	0.013679497
158	0xbe11aebd	-0.14226814
159	0x3e010df9	0.12602986
160	0x3d5262ad	0.051363636
161	0x3e33bdba	0.17552844
162	0xbddb8046	-0.107178256
163	0x3e1ec57c	0.15505022
164	0x3e449279	0.191965
165	0x3e43074a	0.1904575
166	0xbc27ffd4	-0.010253865
167	0x3e2cf465	0.16890104
168	0x3dc8966c	0.09794316
169	0x3de17833	0.11009254
170	0x3d115acf	0.035486992
171	0xbe543e46	-0.2072688
172	0xbd0c8058	-0.034302086
173	0x3d5f7163	0.054551493
174	0xbdff1e91	-0.12457002
175	0xbdcdd2b5	-0.10049955
176	0xbded0adf	-0.11574339
177	0xbc4ea4a7	-0.012612498
178	0x3e183098	0.14862287
179	0x3cb26869	0.021778302
180	0x3c3d431c	0.011551645
181	0x3d097b50	0.033564866
182	0x3e212721	0.15737583
183	0xbe4635ce	-0.19356462
184	0xbe05cf82	-0.13067439
185	0xbd9205fb	-0.07130047
186	0xbde6a77d	-0.112624146
187	0x3d9335e7	0.071880154
188	0x3d8c4159	0.068484016
189	0xbe93acc0	-0.28842735
190	0xbe2cd615	-0.16878541
191	0xbe09ca98	-0.1345619
192	0x3d8e4f79	0.06948752
193	0x3e0cb7d1	0.13741995
194	0xbe14a8fc	-0.14517587
195	0xbb970f2e	-0.004609964
196	0x3d158d54	0.036511734
197	0xbdb4884e	-0.088150606
198	0x3e11adfd	0.14226528
199	0x3d0a3f1f	0.033751603
200	0xbb452040	-0.0030079037
201	0x3cedd8d2	0.029034052
202	0x3d4d2a1f	0.050088998
203	0xbd90393a	-0.07042165
204	0xbe0d755c	-0.138143
205	0xba73961a	-0.0009292081
206	0xbc0c9ee5	-0.008582805
207	0xbdaa4916	-0.08314721
208	0xbcd269b8	-0.025685176
209	0x3de7863d	0.11304901
210	0xbd5622ef	-0.05227941
211	0xbd02a940	-0.03189969
212	0x3c1c93ff	0.009556769
213	0xbd8066a6	-0.06269579
214	0x3d5e4460	0.054264426
215	0xbc86f8ea	-0.016476113
216	0x3d8b9bd1	0.06816829
217	0xbdf0f825	-0.1176608
218	0xbdae8b6b	-0.085226856
219	0x3d906759	0.07050962
220	0xbe0239ed	-0.1271741
221	0xbdc80083	-0.097657226
222	0x3d604044	0.05474879
223	0xbd884f03	-0.06655695
224	0x3d3b00b2	0.04565496
225	0xbe03d60d	-0.12874623
226	0xbd382977	-0.04496142
227	0xbe2adc4a	-0.16685596
228	0x3d319685	0.043356437
229	0xbcf0bdf9	-0.029387461
230	0xbdf9b614	-0.12192932
231	0xbc9df399	-0.019281195
232	0xbe13566b	-0.14388435
233	0x3dbc6564	0.09199026
234	0x3b4ccea8	0.0031251106
235	0xbe009a44	-0.12558848
236	0xbd19ead0	-0.03757745
237	0xbcc202ff	-0.02368307
238	0xbe1a499a	-0.1506714
239	0x3e09c015	0.1345218
240	0x3dc0cbe2	0.094138876
241	0xbd0f54a3	-0.034992825
242	0xbe0ad96b	-0.13559501
243	0x3d2ea2b2	0.042635627
244	0x3e03af6a	0.12859884
245	0x3e2ccbf8	0.16874683
246	0xbe35bc2d	-0.17747565
247	0xbde53e22	-0.111934915
248	0x3e57047f	0.20997809
249	0x3de1fc9f	0.11034512
250	0x3d439544	0.047749773
251	0xbdc28de7	-0.09499722
252	0x3e05ac16	0.13053927
253	0xbe2b9486	-0.16755876
254	0x3d4cdf75	0.050017793
255	0x3cfa95e6	0.030589055

weight_hh_l0 f4 [128, 32]
0	0xbe049e3a	-0.12950984
1	0xbda87caf	-0.082269065
2	0xbd932343	-0.0718446
3	0x3dce716a	0.10080226
4	0xbbf28325	-0.0074008876
5	0xbd1746df	-0.036932822
6	0xbe2447e6	-0.16043052
7	0x3c93b1c9	0.01802911
8	0x3dfe272c	0.12409815
9	0x3e1701b0	0.14746737
10	0x3cca6b53	0.02470938
11	0x3e32fffd	0.17480464
12	0xbcdd327a	-0.027001608
13	0x3e0faf39	0.14031686
14	0x3db7f8e8	0.08983022
15	0x3e26a93e	0.16275498
16	0x3de50619	0.11182804
17	0xbe265dfe	-0.16246793
18	0x3da9a500	0.082834244
19	0xbe07435d	-0.13209291
20	0xbdd25c23	-0.1027148
21	0xbe10db89	-0.14146246
22	0xbdc2d519	-0.095133014
23	0xbe07e491	-0.13270785
24	0x3e20500d	0.15655537
25	0xbdac2f8d	-0.08407507
26	0x3e016838	0.12637413
27	0x3e11a9db	0.14224951
28	0x3dedc285	0.11609367
29	0x3e0cb6ac	0.13741559
30	0x3ccc146c	0.024912082
31	0xbe305fce	-0.17224047
32	0x3def20c7	0.11676174
33	0xbe217d68	-0.15770495
34	0x3d521955	0.05129369
35	0xbd85f188	-0.06540209
36	0x3ddb8612	0.10718931
37	0x3dfe7d65	0.12426261
38	0xbc179be0	-0.009253472
39	0xbd8904e9	-0.0669039
40	0x3e0cf5f2	0.13765696
41	0xbd437139	-0.0477154
42	0xbe0d8be9	-0.13822903
43	0xbddfd8cb	-0.10930022
44	0xbe394abb	-0.18094914
45	0x3e176a9d	0.14786763
46	0x3e02dbfd	0.12779231
47	0xbd126a5f	-0.035745975
48	0x3db21985	0.08696274
49	0x3de04d50	0.10952246
50	0xbd89142a	-0.06693299
51	0x3cde4230	0.02713117
52	0xbcbb5bbd	-0.022870893
53	0xbda4e55b	-0.080515586
54	0xbdef391f	-0.11680817
55	0xbdb1115f	-0.086458914
56	0xbc1bd4da	-0.009511197
57	0xbca60779	-0.020267235
58	0xbe1110a3	-0.14166503
59	0xbe23f5dc	-0.16011757
60	0xbcf4fdcf	-0.029906182
61	0x3d7b54f2	0.061360307
62	0x3d82e32f	0.06390988
63	0xbdf14c06	-0.117820784
64	0x3dee538e	0.116370305
65	0xbe00c566	-0.12575302
66	0xbd9df638	-0.07712978
67	0x3e11473c	0.1418733
68	0x3d0aeb64	0.033915892
69	0x3d8f1f3b	0.069883786
70	0xbe30e8b1	-0.17276265
71	0xbe2b5ad5	-0.16733868
72	0xbce2039d	-0.027589614
73	0x3def96eb	0.11698707
74	0xbe33269d	-0.17495199
75	0x3dd2df2f	0.10296475
76	0xbde62531	-0.112375624
77	0xbdf83c8f	-0.12120926
78	0x3e04ef63	0.12981944
79	0xbe04e1fd	-0.12976833
80	0x3d843824	0.064560205
81	0xbd10d725	-0.035361428
82	0x3e139200	0.14411163
83	0xbe353743	-0.17696862
84	0x3db8d757	0.09025448
85	0x3e114b00	0.14188766
86	0x3d1ed059	0.038772915
87	0x3e169939	0.14706887
88	0x3e0928cb	0.13394468
89	0x3db50e6d	0.08840642
90	0x3de36b6b	0.11104473
91	0x3e154da8	0.14580405
92	0x3df7e1d0	0.12103617
93	0x3d970759	0.07374448
94	0xbdf18728	-0.11793357
95	0x3dd5ff5c	0.104490966
96	0x3c8dcadb	0.017308643
97	0x3da13c07	0.078727774
98	0xb9e7f49b	-0.00044242
99	0x3dafc259	0.08581991
100	0xbe347b9b	-0.17625277
101	0xbddfe3d7	-0.10932129
102	0xbd9d384f	-0.07676756
103	0x3e18280a	0.14859024
104	0xbdca8ff8	-0.09890741
105	0xbcf5c6bb	-0.030001989
106	0xbdc15050	-0.094391465
107	0xbe2394b0	-0.15974689
108	0xbe1a65d2	-0.15077904
109	0xbe2e00f2	-0.16992548
110	0xbe21ae9f	-0.15789269
111	0xbe0b030f	-0.13575386
112	0x3b85252d	0.0040632696
113	0x3e19d9d7	0.15024506
114	0xbdb6e155	-0.089296974
115	0xbd92235b	-0.0713565
116	0xbd90418c	-0.07043752
117	0x3d3c635f	0.045993205
118	0x3dc65f9a	0.09686203
119	0xbd6c8e18	-0.0577527
120	0xbdbdb094	-0.09262195
121	0x3d2a1cde	0.041531436
122	0xbe202891	-0.15640475
123	0x3dc913c3	0.098182224
124	0xbd888081	-0.06665135
125	0x3dbcec3c	0.09224746
126	0x3e1f4411	0.15553309
127	0x3d22e90f	0.039773043
128	0xbe1c1668	-0.15242922
129	0xbd4893df	-0.048969146
130	0x3e1fb86e	0.15597698
131	0xbe225dfe	-0.15856168
132	0x3ded36f8	0.1158275
133	0xbe021e7c	-0.12706941
134	0xbd788070	-0.060669363
135	0x3df7b07d	0.12094209
136	0xbe218de2	-0.1577678
137	0xbe637dbe	-0.22215936
138	0xbccde29e	-0.025132474
139	0xbe05000a	-0.12988296
140	0x3c34b5e1	0.011029691
141	0x3dd32bda	0.103110984
142	0x3dbfff6b	0.09374889
143	0xbe09d83c	-0.13461393
144	0x3c963dd8	0.018340036
145	0xbe1224c2	-0.14271834
146	0xbe077281	-0.13227274
147	0x3d9ced76	0.076624796
148	0x3d812dc3	0.063075565
149	0x3e09a9b1	0.13443638
150	0x3d574052	0.052551575
151	0xbdb36319	-0.08759136
152	0x3c227902	0.009916546
153	0xbe0bfb17	-0.13670002
154	0xbe400671	-0.18752457
155	0xbe1662f2	-0.14686182
156	0x3e399d88	0.181265
157	0xbdab8555	-0.083750404
158	0x3e00a390	0.12562394
159	0xbdef5da4	-0.116877824
160	0x3e0d9a6a	0.13828436
161	0xbddcbb3b	-0.10777899
162	0x3d716047	0.058929708
163	0xbe250727	-0.1611601
164	0xbdc54636	-0.09632532
165	0xbd24638d	-0.040134
166	0xbcf71310	-0.030160457
167	0xbdb317ba	-0.0874476
168	0xbcf6239e	-0.03004628
169	0xbd3a8046	-0.045532487
170	0x3e135465	0.14387663
171	0xbe23cf5f	-0.15997075
172	0xbdfa2dc0	-0.12215757
173	0x3d9fe843	0.07807972
174	0xbd110c1e	-0.035411946
175	0xbcb73b72	-0.022367213
176	0x3d3dc00b	0.046325725
177	0x3e27df83	0.16393857
178	0xbe2d139d	-0.16902013
179	0x3df55430	0.11978948
180	0x3dc99b96	0.09844129
181	0xbde1fe98	-0.11034888
182	0xbd4c00f0	-0.04980558
183	0xbcc0a2cc	-0.023515128
184	0xbdb20624	-0.086925775
185	0xbe00fa22	-0.12595418
186	0x3e04d957	0.12973534
187	0x3e220968	0.158239
188	0x3d18b7b7	0.03728458
189	0x3db0538c	0.08609685
190	0x3e1d5fb9	0.15368547
191	0x3dc2bd36	0.09508745
192	0x3e3b346c	0.18281716
193	0x3d664e81	0.05622721
194	0xbe1ad315	-0.15119584
195	0x3e52e4ad	0.20595045
196	0xbc897e4a	-0.016783852
197	0xbd719834	-0.058983043
198	0x3a6f5d68	0.0009131045
199	0xbe0e5af7	-0.13901888
200	0xbd4865a7	-0.04892507
201	0xbcb3e226	-0.021958422
202	0xbd36d011	-0.04463202
203	0xbde0f7fc	-0.10984799
204	0xbc83192b	-0.016003212
205	0x3e31950b	0.17342012
206	0xbc9f4012	-0.01943973
207	0x3d4dccd9	0.050244186
208	0x3d40ef66	0.04710331
209	0xbdb7de18	-0.08977908
210	0x3d2311c0	0.03981185
211	0xbe1c89f6	-0.15287003
212	0x3dd66bc2	0.10469772
213	0x3e3436cd	0.1759903
214	0x3e16a867	0.14712678
215	0xbbabd17f	-0.0052434797
216	0xbe4d1800	-0.20028687
217	0xba7ca4a7	-0.0009637572
218	0x3dd7f437	0.10544627
219	0x3b8dc191	0.0043260534
220	0xbe40f398	-0.18842924
221	0x3e19cee6	0.15020332
222	0xbe181dde	-0.14855143
223	0x3d76e50b	0.060277026
224	0x3e48e2c7	0.19617759
225	0xbda5d4f6	-0.0809726
226	0xbd39802e	-0.045288257
227	0x3d0c753d	0.034291495
228	0xbd7d477b	-0.061835747
229	0x3db6d264	0.089268476
230	0x3d0cdfe9	0.034393225
231	0xbc3ee80c	-0.011652004
232	0xbad8f231	-0.0016551671
233	0xbe1c9331	-0.15290524
234	0xbd06f7ae	-0.03295105
235	0xbe0331a2	-0.12811902
236	0x3e440392	0.19141987
237	0xbd2e5ac0	-0.042567015
238	0x3d826995	0.063677944
239	0x3d950535	0.07276384
240	0x3e2d8571	0.16945435
241	0xbd873678	-0.06602186
242	0xbe156c6b	-0.1459214
243	0xbcd7bca8	-0.026335075
244	0xbe175128	-0.14777052
245	0xbd8e296a	-0.06941493
246	0xbdb5281b	-0.0884554
247	0xbe27ba98	-0.16379774
248	0x3d595396	0.05305823
249	0x3e25eae2	0.16202882
250	0x3ba50dc8	0.0050370432
251	0x3e09988b	0.13437097
252	0x3dfadbf0	0.12248981
253	0x3e1ad226	0.15119228
254	0x3c664bb3	0.014056134
255	0x3de21c02	0.11040498

bias_ih_l0 f4 [128]
0	0xbdc442b4	-0.09583035
1	0xbd8d3fcd	-0.06896935
2	0xbc4566f7	-0.0120484745
3	0xbdc2054b	-0.09473666
4	0xbe1edf92	-0.15514973
5	0x3e2529c2	0.1612921
6	0xbd0b9285	-0.03407528
7	0xbe29a48e	-0.16566679
8	0x3cff7df0	0.031187981
9	0x3d09caa1	0.033640508
10	0x3e2dc167	0.16968308
11	0x3e301b51	0.1719792
12	0x3da995b2	0.08280505
13	0xbe1a91c6	-0.1509467
14	0x3df24fff	0.11831664
15	0xbe073ad7	-0.1320604
16	0x3d05ef4b	0.03269891
17	0x3e026811	0.1273501
18	0xbcf483ec	-0.029848062
19	0x3e0ed2b0	0.13947558
20	0x3d0ed9c2	0.03487564
21	0xbcc32404	-0.023820885
22	0xbcedc995	-0.029026786
23	0xbd350c13	-0.044200968
24	0x3dd3eca7	0.10347872
25	0x3d83e255	0.06439654
26	0xbd6d3eba	-0.05792115
27	0x3cf85c82	0.030317549
28	0xbb389341	-0.0028163942
29	0xbde28fee	-0.11062609
30	0xbe32fefa	-0.17480078
31	0xbca77ca6	-0.02044518
32	0x3e33457e	0.17506978
33	0xbe17e321	-0.14832737
34	0xbe1a5a1a	-0.15073434
35	0x3de617b2	0.11234988
36	0xbe1a55a2	-0.15071729
37	0xbd7819aa	-0.06057135
38	0xbe04f58e	-0.12984297
39	0xbc509e23	-0.012733015
40	0xbdfe12b9	-0.12405915
41	0x3dc48b88	0.09596926
42	0xbd6547e0	-0.05597675
43	0x3d93496d	0.07191739
44	0xbd2f665e	-0.042822234
45	0x3e32f1b0	0.17475009
46	0xbb1caa04	-0.0023905048
47	0xbde78d95	-0.113063015
48	0x3e194233	0.14966659
49	0x3db50c00	0.088401794
50	0xbd8990b3	-0.06717052
51	0x3dc29e8e	0.09502898
52	0xbe149101	-0.1450844
53	0x3da268ad	0.079301216
54	0x3e002b06	0.12516412
55	0x3dd91985	0.106005706
56	0x3d92a503	0.0716038
57	0x3e11ac26	0.14225826
58	0x3dcf7aba	0.1013083
59	0x3dcb43d4	0.099250466
60	0x39476be9	0.00019018319
61	0xbe22b3ff	-0.15888976
62	0xbe2d1556	-0.1690267
63	0xbe04678c	-0.12930125
64	0x3dd90bed	0.10597978
65	0x3df3e62d	0.11909137
66	0xbc26f8b4	-0.010191131
67	0x3d6bd9a1	0.057580594
68	0xbd915fcd	-0.07098351
69	0x3d318365	0.0433382
70	0x3db45f94	0.088072926
71	0xbdc3f5d2	-0.09568371
72	0x3d018ee7	0.031630423
73	0x3df141e6	0.11780147
74	0xbdb8c272	-0.090214625
75	0x3dae96e5	0.085248746
76	0xbe201bb7	-0.15635572
77	0xbd3a453d	-0.045476187
78	0xbdda3aa7	-0.10655718
79	0xbe335953	-0.17514543
80	0xbe014ff1	-0.12628151
81	0xbde7530a	-0.11295135
82	0x3e17c9b2	0.14823034
83	0xbd859ba2	-0.06523825
84	0x3c9f2f32	0.019431684
85	0x3e10afd3	0.14129572
86	0x3d97350c	0.07383165
87	0xbe07f6e8	-0.13277781
88	0x3e11a845	0.14224346
89	0xbe050699	-0.12990798
90	0x3de3a719	0.11115856
91	0xbe2565ea	-0.16152158
92	0xbe22c127	-0.15893994
93	0x3df6718f	0.12033378
94	0x3d214bef	0.039379057
95	0xbd47b955	-0.04876073
96	0x3dcd73aa	0.10031827
97	0xbde5c7ab	-0.11219724
98	0x3c9a10be	0.018806811
99	0xbd3d330e	-0.046191268
100	0xbb139c46	-0.0022523566
101	0x3db5a402	0.08869173
102	0x3a89930f	0.0010496097
103	0xbe16437f	-0.14674185
104	0xbdbb48d5	-0.09144751
105	0x3d90d7ae	0.07072388
106	0xbd85d385	-0.06534485
107	0x3de0eb03	0.10982325
108	0x3d3395ee	0.043844156
109	0xbe2bf796	-0.16793665
110	0x3e1e2960	0.15445471
111	0x3d491310	0.049090445
112	0x3e18f29f	0.14936303
113	0x3d48a0df	0.048981544
114	0x3d8d6df5	0.06905738
115	0x3c9a43d8	0.018831179
116	0x3dfd3ef8	0.12365526
117	0xbc9ecf84	-0.01938606
118	0xbd904b5d	-0.070456244
119	0x3c52a21e	0.012856035
120	0xbdd390b0	-0.10330331
121	0x3dd799c9	0.10527379
122	0x3dce0c0a	0.1006089
123	0xbcfdb0ef	-0.030968158
124	0x3e08ff2c	0.1337859
125	0x3db7c7cc	0.08973655
126	0xbdf27df7	-0.11840432
127	0xbd0d40e9	-0.03448573

bias_hh_l0 f4 [128]
0	0xbe0f7bbc	-0.14012045
1	0xbd64cf52	-0.05586178
2	0xbe1556cf	-0.14583896
3	0x3d88b266	0.06674652
4	0xbc3a5a07	-0.011374003
5	0xbda92e7e	-0.08260821
6	0xbe0afb85	-0.1357251
7	0x3c42eea8	0.01189772
8	0x3dee3c3d	0.11632583
9	0x3e4b4d03	0.19853596
10	0xbdb1b4cb	-0.08677062
11	0x3d4121d6	0.04715141
12	0xbe1f386d	-0.15548868
13	0x3e12c312	0.14332226
14	0x3e22b179	0.15888013
15	0x3ce85394	0.028360166
16	0xbd5e4815	-0.05426796
17	0x3df5937f	0.11991023
18	0xbe008d31	-0.1255386
19	0x3dc2f75c	0.09519836
20	0x3e3aef22	0.18255284
21	0x3e20a962	0.15689614
22	0xba036301	-0.0005012006
23	0x3ca4a245	0.020096907
24	0x3ba86beb	0.005139818
25	0x3d49cd16	0.04926785
26	0x3c8011dc	0.015633516
27	0xbd7af06d	-0.061264444
28	0xbdacf022	-0.08444239
29	0xbdf5b258	-0.11996907
30	0xbdd79dd2	-0.10528149
31	0x3cf3ad8a	0.029745836
32	0x3db0c39a	0.08631058
33	0xbdfa57af	-0.122237556
34	0x3db21551	0.08695472
35	0xbdc01724	-0.09379414
36	0x3e216e7e	0.15764806
37	0x3dd17410	0.10227215
38	0x3c35d9a9	0.0110992575
39	0xbe215706	-0.15755853
40	0xbd519b54	-0.051173523
41	0x3d22cdd4	0.039747074
42	0xbd17b972	-0.03704209
43	0x3c2fc696	0.010728499
44	0xbd3acbd2	-0.045604534
45	0xbb99934a	-0.0046867477
46	0x3dd4197b	0.103564225
47	0xbd80ec51	-0.06295074
48	0x3c9a921b	0.018868497
49	0x3ca7c14d	0.020477915
50	0xbd1eff2c	-0.03881757
51	0xbdb0a76a	-0.08625682
52	0xba9a44a5	-0.0011769725
53	0xbdaaff72	-0.083495036
54	0xbdc880dd	-0.09790204
55	0x3d9fc7f4	0.0780181
56	0xbe072551	-0.13197829
57	0xbe2a5cf8	-0.16637027
58	0xbe1be1d8	-0.15222871
59	0x3d1deeb8	0.038557738
60	0xbce5a11a	-0.02803092
61	0x3d99a795	0.07502667
62	0xbd175099	-0.0369421
63	0x3e303857	0.17208992
64	0xbe3588ac	-0.17727917
65	0xbe194627	-0.14968167
66	0x3e23b9a6	0.15988788
67	0x3aff87b3	0.0019495398
68	0x3e3e2229	0.18567719
69	0x3d9af33f	0.07565927
70	0xbdc8d8b1	-0.098069556
71	0xbd47db29	-0.04879299
72	0x3e3109a8	0.1728884
73	0x3cc61bad	0.024183119
74	0x3d1a15cd	0.037618447
75	0x3dd201b1	0.10254229
76	0x3cc78999	0.024357604
77	0x3cabc550	0.02096811
78	0xbe3caf30	-0.18426204
79	0xbceca49e	-0.02888709
80	0xbd088fc6	-0.033340238
81	0x3e048baa	0.12943903
82	0x3d96e423	0.073677324
83	0xbe446c71	-0.19181992
84	0xbe0cd829	-0.13754334
85	0x3da590d9	0.08084268
86	0xbe2dd654	-0.16976291
87	0x3dec226d	0.11530004
88	0xbdc52076	-0.09625332
89	0xbcc6ccaa	-0.024267513
90	0x3de9bab1	0.11412562
91	0xbd3f2e78	-0.046675175
92	0xbe17065b	-0.14748518
93	0xbe221c2c	-0.15831059
94	0x3c72f959	0.014829957
95	0x3d623e2b	0.05523507
96	0xbc713270	-0.014721498
97	0x3cb546b2	0.022128437
98	0xbe0c9697	-0.1372932
99	0x3e3977f4	0.18112165
100	0x3dc55952	0.09636177
101	0xbc01bd86	-0.007918721
102	0x3e4c6b95	0.19962914
103	0x3e27c8ba	0.16385165
104	0xbe14f08b	-0.14544885
105	0x3dbe9dd5	0.09307448
106	0x3e34253a	0.17592326
107	0x3e3f3244	0.18671519
108	0x3d65662c	0.05600564
109	0x3ccecfcf	0.025245575
110	0x3d982f55	0.07430903
111	0x3d6948ef	0.05695432
112	0x3e2be25c	0.16785568
113	0xbdb3d5c1	-0.08781005
114	0x3e32553c	0.17415327
115	0xbdd65712	-0.10465826
116	0x3db19188	0.08670336
117	0x3e2fd462	0.17170861
118	0x3da68ae1	0.08131958
119	0x3e14efa3	0.14544539
120	0x3dad1bcd	0.08452568
121	0x3da5ba8b	0.08092221
122	0x3e1c2f1f	0.1525235
123	0xbccadf2d	-0.024764622
124	0x3b91acc5	0.0044456446
125	0x3dac6e40	0.08419466
126	0xbdbb28b5	-0.091386236
127	0x3e2a3e21	0.16625263

weight_ih_l0 f4 [128, 2]
0	0xbbfb39d1	-0.0076668044
1	0x3d7188af	0.058968242
2	0xbe49c4d1	-0.19703986
3	0xbd2c7857	-0.042106953
4	0x3e2a1c7c	0.16612428
5	0xbe1e9002	-0.15484622
6	0xbe12e40a	-0.14344802
7	0xbd702733	-0.058631133
8	0xbdd4fbb9	-0.10399575
9	0xbe67ca37	-0.22635733
10	0xbd1c54d5	-0.03816684
11	0x3d597731	0.053092185
12	0xbe0175f6	-0.12642655
13	0xbd28806d	-0.0411381
14	0x3bad7274	0.005293185
15	0xbe5d2bc7	-0.21598731
16	0x3d9d0794	0.07667461
17	0xbe873dcb	-0.26414332
18	0x394bea11	0.00019446785
19	0x3e229c57	0.15879951
20	0xbd95462b	-0.07288774
21	0x3dfacdaf	0.12246262
22	0xbd1d0eac	-0.03834407
23	0xbe32fd4d	-0.17479439
24	0xbe371a72	-0.17881182
25	0x3cdeca64	0.027196117
26	0x3e224a23	0.15848593
27	0x3cb62f40	0.022239327
28	0xbe626959	-0.221105
29	0xbdd24278	-0.10266584
30	0x3d702e03	0.05863763
31	0xbcef4f43	-0.0292126
32	0xbe3084f3	-0.17238216
33	0x3bfcd230	0.007715486
34	0x3e04ae7d	0.12957187
35	0x3ca4e777	0.020129902
36	0xbdf0a8ad	-0.11750922
37	0xbd877208	-0.066135466
38	0xbdeb29c1	-0.11482573
39	0x3d86301e	0.065521464
40	0x3d9438e3	0.07237413
41	0xbdf12ccc	-0.117761225
42	0xbdee1841	-0.1162572
43	0x3d11100c	0.035415694
44	0xbd93b36a	-0.07211955
45	0x3e09d444	0.13459879
46	0xbe0b3791	-0.13595416
47	0xbcff3c79	-0.031156765
48	0xbda916ef	-0.08256327
49	0xbe195398	-0.14973295
50	0xbdad1fe2	-0.08453347
51	0x3d75b1ea	0.059984125
52	0x3dfbc2cf	0.12293016
53	0x3c8adcc1	0.016950967
54	0xbe8404b6	-0.25784844
55	0x3d08c625	0.03339209
56	0xbe3a7b4e	-0.182111
57	0x3cfcf04a	0.030876298
58	0x3cbb3073	0.02285025
59	0xbdca54c0	-0.09879446
60	0x3df14a6e	0.117817745
61	0xbe83caff	-0.2574081
62	0xbe30bedf	-0.17260312
63	0xbe5b5b29	-0.21421494
64	0xbe234cec	-0.15947312
65	0xbe4df3d6	-0.20112547
66	0xbdbc819f	-0.09204411
67	0xbe606e5a	-0.21917096
68	0x3dcaf0c1	0.099092014
69	0xbe1a6310	-0.15076852
70	0x3d29786b	0.041374605
71	0xbc83fbfc	-0.016111366
72	0x3e291e74	0.16515523
73	0xbe7a779a	-0.24459687
74	0xbc90a797	-0.017658038
75	0xbdf42112	-0.1192037
76	0xbe5feb49	-0.21867098
77	0x3d1bac8d	0.038006354
78	0x3dfccb41	0.12343455
79	0xbc74628f	-0.014916076
80	0xbe03ca36	-0.12870106
81	0xbe5f6b7f	-0.2181835
82	0x3d98722e	0.07443653
83	0x3e14c8c0	0.14529705
84	0xbd106f87	-0.03526261
85	0xbcd95b49	-0.026532786
86	0xbe0049cf	-0.12528156
87	0xbc9d89fa	-0.019230831
88	0xbe246c0f	-0.16056846
89	0x3d64ac2e	0.055828266
90	0x3cc2ce9f	0.023780165
91	0x3c759e24	0.014991317
92	0xbd829932	-0.06376876
93	0xbd23daa3	-0.04000343
94	0x3e4ca33f	0.19984148
95	0xbe0b3520	-0.13594484
96	0x3d29e47c	0.041477665
97	0xbce7eb8d	-0.028310562
98	0xbd507f57	-0.05090269
99	0xbe7dede7	-0.24797784
100	0xbe0a1014	-0.13482696
101	0x3d49b170	0.049241483
102	0xbe825058	-0.25451922
103	0x3d0b8ce9	0.03406993
104	0xbe3b5fe6	-0.18298301
105	0xbdc1297e	-0.09431742
106	0x3d445713	0.047934603
107	0xbdcc0bd6	-0.09963195
108	0xbd6cacfe	-0.057782166
109	0x3c777c5a	0.015105331
110	0xbdb3389c	-0.08751032
111	0xbe8859e5	-0.26631084
112	0xbe58a381	-0.21156122
113	0xbe1d0189	-0.15332617
114	0xbb21a26d	-0.0024663464
115	0x3a96b6f9	0.0011498622
116	0x3cdf6ab3	0.027272558
117	0xbdf14e16	-0.11782472
118	0xbd982e7d	-0.07430742
119	0xbe06feb1	-0.13183095
120	0x3d5ca152	0.053864785
121	0xbe41c493	-0.18922643
122	0x3a6fe359	0.0009151004
123	0xbc3ddfdb	-0.011589016
124	0x3dd06ee5	0.101774015
125	0xbe5f7a84	-0.2182408
126	0xbe270418	-0.16310155
127	0xbe9045bb	-0.281782
128	0x3e2285dd	0.15871377
129	0x3e0b481a	0.13601723
130	0xbe2da6ce	-0.16958162
131	0xbe659318	-0.22419393
132	0xbd94bbde	-0.07262395
133	0x3d425101	0.047440533
134	0xbd781389	-0.060565505
135	0xbd9025c4	-0.07038453
136	0xbdc67d2a	-0.09691842
137	0xbdf1f0a3	-0.11813476
138	0x3df00e60	0.11721492
139	0xbe81e4b3	-0.25369796
140	0xbcd9059e	-0.026491936
141	0xbcc97db7	-0.024596078
142	0x3ddb262a	0.107006386
143	0xbe179390	-0.14802384
144	0x3e7ca54c	0.24672431
145	0x3ded3bea	0.11583693
146	0xbdb4943f	-0.08817338
147	0x3e924895	0.28571
148	0x3e56328d	0.20917721
149	0x3e11702e	0.1420295
150	0xbd913bf3	-0.070915125
151	0xbd6b41ea	-0.057435907
152	0xbe70480c	-0.23464984
153	0xbe5bc5c3	-0.21462159
154	0x3e4e3438	0.20137107
155	0x3d229232	0.039690204
156	0xbe5b50e1	-0.21417572
157	0xbe7328cd	-0.23746033
158	0xbe2974ba	-0.16548434
159	0x3e5d1b83	0.21592526
160	0x3dd10997	0.10206907
161	0x3ddec338	0.10877079
162	0xbdf55ee1	-0.11980987
163	0x3e20d47f	0.15706061
164	0x3d7f6aea	0.06235782
165	0x3e6de040	0.23230076
166	0x3e25eacb	0.16202848
167	0x3de39e81	0.111142166
168	0xbe3dca3d	-0.18534179
169	0xbc4403d6	-0.011963805
170	0xbcb3b1e8	-0.021935418
171	0x3e1c3763	0.15255503
172	0x3de3380a	0.11094673
173	0xbe0a7720	-0.13522005
174	0x3e1a3b5b	0.15061705
175	0xbd2ab4ae	-0.041676216
176	0x3e3d7e96	0.1850532
177	0x3e372c13	0.17887907
178	0x3e16ca3c	0.14725584
179	0x3d8d8f23	0.06912067
180	0xbdf46d64	-0.11934927
181	0x3e2f9a50	0.1714871
182	0x3d1f8e99	0.03895435
183	0xbd87ed27	-0.0663703
184	0x3e6d3d52	0.23167923
185	0x3e102f68	0.14080584
186	0x3e1f558c	0.15559977
187	0x3e94dbb0	0.29073858
188	0x3d0521e7	0.032503035
189	0xbdef804a	-0.11694391
190	0xbe258691	-0.16164614
191	0x3d806cc7	0.06270748
192	0xbe7dc989	-0.24783911
193	0xbe1c44cc	-0.15260619
194	0x3d11f09a	0.035629846
195	0x3d51900c	0.051162764
196	0x3da08ae6	0.07838993
197	0xbe92aa45	-0.2864553
198	0x3c865fbd	0.016403073
199	0xbd62aaa1	-0.055338506
200	0xbd856b0b	-0.065145575
201	0xbe941f4f	-0.28930137
202	0xbdaf13d9	-0.085487075
203	0xbd46bc38	-0.048519343
204	0xbe46e539	-0.19423379
205	0xbe776e2a	-0.24163118
206	0xbe1790da	-0.1480135
207	0xbe75cf0f	-0.24004768
208	0xbd93b2b6	-0.07211821
209	0x3bd4c647	0.006493363
210	0xbe0dac58	-0.13835275
211	0xbd692fd5	-0.05693038
212	0x3d87ef01	0.06637383
213	0xbb4d7dc0	-0.003135547
214	0xbce90c9f	-0.028448401
215	0xbe7e0b0d	-0.24808903
216	0x3d881f1f	0.06646561
217	0xbbf1b4e8	-0.007376302
218	0x3dc613f2	0.09671773
219	0x3e50c031	0.20385815
220	0xbd0ac144	-0.03387572
221	0x3d420cfa	0.047375657
222	0xbdbdcf7c	-0.0926809
223	0x3cfc5ed0	0.030806929
224	0xbdf1bf64	-0.11804083
225	0xbd42627a	-0.047457196
226	0xbdbedddd	-0.09319661
227	0xbe96d8e9	-0.29462364
228	0xbe81bf3f	-0.25341222
229	0xbe638f00	-0.22222519
230	0x3c7ca6a5	0.0154205905
231	0x3e43a0d5	0.19104321
232	0xbc354a62	-0.0110650975
233	0xbcf850fe	-0.030312058
234	0xbde7e7ad	-0.113234855
235	0xbd6bcdf5	-0.057569463
236	0x3d8f4ea3	0.06997421
237	0xbc1f4d4b	-0.009723018
238	0xbe0b7220	-0.13617754
239	0xbe721477	-0.23640619
240	0x3d752997	0.059854116
241	0xbd140eaf	-0.036146816
242	0xbdbf35ff	-0.09336471
243	0xbde45693	-0.11149325
244	0x3dc40880	0.09571934
245	0xbe2e78f0	-0.17038321
246	0x3d59b386	0.053149723
247	0x3e459d31	0.19298245
248	0xbe6119b3	-0.2198246
249	0xbd8c2134	-0.068422705
250	0xbdfadd6b	-0.122492634
251	0xbe93b667	-0.288501
252	0x3d0dad90	0.03458935
253	0xbdda5826	-0.10661344
254	0xbcd879b7	-0.026425226
255	0xbe88f814	-0.2675177

weight_hh_l0 f4 [128, 32]
0	0xbdcfcc2d	-0.10146365
1	0x3d387d8d	0.04504161
2	0xbe160308	-0.14649594
3	0x3dbd2aa4	0.09236649
4	0x3c393053	0.011303025
5	0x3da95889	0.0826884
6	0xbdb6cb86	-0.08925538
7	0xbdb3adc3	-0.08773377
8	0xbde5b474	-0.11216059
9	0x3d3f088f	0.04663902
10	0x3dcb8715	0.09937874
11	0x3dbc5517	0.09195917
12	0x3e47da1d	0.19516797
13	0x3c875e29	0.016524391
14	0xbd618f31	-0.0550682
15	0x3d0177df	0.03160846
16	0x3dc88bed	0.09792314
17	0xbdc2ae11	-0.09505857
18	0x3c767af8	0.0150439665
19	0x3dbb1f25	0.091368
20	0x3d4dcb90	0.05024296
21	0xbdf118fe	-0.11772345
22	0xbe166ced	-0.1468999
23	0x3c794b19	0.015215659
24	0xbe3bfb5e	-0.18357608
25	0x3e14b54c	0.14522284
26	0xbe40c7dc	-0.1882624
27	0x3e526a67	0.20548402
28	0x3d0764a2	0.033054955
29	0xbe61fcda	-0.22069111
30	0xbd3be2c0	-0.045870543
31	0x3e0a6e68	0.13518679
32	0xbdd5246c	-0.104073375
33	0xbd573f3c	-0.05255054
34	0xbbda15bc	-0.006655423
35	0xbd96c4ff	-0.07361793
36	0x3d91def0	0.071226
37	0x3e111327	0.14167462
38	0xbe3e3c05	-0.18577583
39	0xbd168e0f	-0.03675657
40	0xbd94eba9	-0.07271511
41	0x3e217ca1	0.15770198
42	0xbe638c4e	-0.2222149
43	0xbd1b9cab	-0.037991207
44	0x3e42c44f	0.19020198
45	0x3dd8ad45	0.105799235
46	0x3da39b82	0.07988645
47	0xbc121b26	-0.0089176055
48	0x3cda38c2	0.026638392
49	0xbdd4c98f	-0.10390007
50	0x3cf3c7d6	0.029758375
51	0x3dd4ec22	0.10396601
52	0x3e3fcfe0	0.18731642
53	0xbe65ffca	-0.22460857
54	0x3ddb5edc	0.10711452
55	0x3e4160cf	0.18884586
56	0x3c75d065	0.015003298
57	0xbe03ef4c	-0.12884253
58	0xbdb5a49d	-0.08869288
59	0xbd6d0e5a	-0.057875015
60	0xbdae276f	-0.08503615
61	0x3d46e657	0.048559513
62	0x3b88613f	0.0041619833
63	0xbd69fa0a	-0.05712322
64	0xbdabf6af	-0.083966605
65	0x3d2edc87	0.04269078
66	0xbcb76927	-0.022389008
67	0xbcf870f1	-0.030327292
68	0xbdfc244f	-0.12311613
69	0x3c8308c6	0.015995394
70	0xbddb1575	-0.10697452
71	0xbc9d3d70	-0.019194335
72	0xbe06ffb2	-0.13183478
73	0xbe2cae02	-0.16863254
74	0xbe3e6df6	-0.18596634
75	0xbc8dde7d	-0.017318005
76	0x3d9b690f	0.07588398
77	0x3e42a503	0.1900826
78	0x3d722d19	0.05912504
79	0xbce6b0a7	-0.028160406
80	0x3d370832	0.04468555
81	0x3be43905	0.006964805
82	0xbe3d24a0	-0.18471003
83	0xbe59a681	-0.21254922
84	0xbd990c8f	-0.074730985
85	0xbd7d4aca	-0.061838903
86	0xbde5f96d	-0.11229215
87	0x3e1a5091	0.15069796
88	0xbdbf3860	-0.093369246
89	0xbd9aa614	-0.07551208
90	0xbe1da0fc	-0.15393442
91	0xbd4a0ce6	-0.049328707
92	0xbe2d6748	-0.1693393
93	0x3dd36444	0.103218585
94	0x3d9e592e	0.077318534
95	0xbe26bf5a	-0.16283932
96	0x3e076333	0.13221435
97	0x3cbc01cc	0.022950076
98	0x3d688d94	0.056775644
99	0xbd60ff16	-0.05493077
100	0x3cdc6fd7	0.026908798
101	0x3e244291	0.16041018
102	0x3df00dab	0.11721357
103	0x3e01fdff	0.12694548
104	0x3e04fb23	0.12986426
105	0x3e02113f	0.12701891
106	0xbcc138b9	-0.023586618
107	0x3ce7754f	0.02825418
108	0x3d19daad	0.03756206
109	0xbd7789de	-0.060434215
110	0xbc79e7ba	-0.015253002
111	0xbe33dd40	-0.17564869
112	0xbe55e739	-0.20888986
113	0xbe07972e	-0.13241264
114	0xbde5aec0	-0.112149715
115	0xbe554bc5	-0.20829685
116	0xbaaf4b2c	-0.0013373843
117	0x3d994cbe	0.074853405
118	0xbd593c56	-0.053036056
119	0xbd566fca	-0.052352704
120	0xbd44c6b5	-0.048041064
121	0x3df52162	0.11969258
122	0xbe06b2e1	-0.13154174
123	0xbd118609	-0.035528217
124	0xbd7119e8	-0.058862597
125	0xbd691840	-0.056907892
126	0x3e60fb8c	0.21970958
127	0xbe4a40a9	-0.19751228
128	0xbd4cff6e	-0.050048284
129	0x3e0b4df6	0.13603958
130	0xbd0df36f	-0.034655984
131	0x3d959273	0.073033236
132	0x3e012934	0.12613374
133	0x3e8a2ca4	0.26987183
134	0x3df733b8	0.120704114
135	0xbd6ee696	-0.058325373
136	0x3c849be6	0.01618762
137	0x3dddf4db	0.10837718
138	0xbe303231	-0.17206647
139	0xb9f406c6	-0.00046544353
140	0x3db2fe34	0.08739892
141	0x3e14e649	0.14540972
142	0x3e14532c	0.14484853
143	0x3c2316a6	0.00995413
144	0xbe4fe2a1	-0.20301296
145	0xbc06b4e2	-0.008221837
146	0xbcd614f5	-0.02613304
147	0xbd5cba73	-0.05388875
148	0x3e1329ec	0.1437146
149	0x3dcd6644	0.10029271
150	0x3df5eea5	0.120084085
151	0xbdc6688a	-0.09687908
152	0xbe3af728	-0.18258345
153	0xbc799b2a	-0.015234748
154	0xbe517877	-0.2045611
155	0x3d9eecd1	0.07760013
156	0xbd6643af	-0.05621689
157	0x3deff772	0.11717118
158	0x3e028a0d	0.12747975
159	0xbd49ad21	-0.049237374
160	0xbd38fd73	-0.045163583
161	0xbda57529	-0.08078987
162	0xbe3c87f2	-0.18411234
163	0xbe1e947f	-0.15486334
164	0xbca322f8	-0.019914135
165	0x3e888e2f	0.26670977
166	0xbe28c405	-0.16481026
167	0x3e5b4aae	0.21415207
168	0x3d01f5de	0.031728618
169	0xbdc12853	-0.09431519
170	0xbe535e9a	-0.20641556
171	0x3e28444a	0.164323
172	0x3e0525ff	0.13002776
173	0xbd97d717	-0.07414072
174	0x3dcf007e	0.10107516
175	0xbe1fd422	-0.15608266
176	0xbe1b6ace	-0.15177462
177	0x3d799c8c	0.06094031
178	0xbdfd4680	-0.123669624
179	0x3dc57b99	0.09642715
180	0xbdd837e2	-0.10557534
181	0xbda87659	-0.08225698
182	0xbe4e8383	-0.20167355
183	0x3db61a8d	0.08891783
184	0x3dd57e80	0.104245186
185	0x3da506bf	0.08057927
186	0x3dac5881	0.08415318
187	0xbca38dce	-0.019965079
188	0xbc05f76b	-0.008176665
189	0xbe4b24d2	-0.19838265
190	0x3e695cf0	0.22789359
191	0xbdd2f1a4	-0.102999955
192	0x3d915bf5	0.070976175
193	0x3d1e5fc0	0.038665533
194	0x3c47af89	0.012187847
195	0xbd7c26db	-0.061560493
196	0x3e64240e	0.22279379
197	0xbd9e1357	-0.077185325
198	0xbe442a14	-0.19156677
199	0x3db75e74	0.089535624
200	0xbe2be6d0	-0.16787267
201	0xbd76bec3	-0.06024052
202	0x3b97d710	0.0046337917
203	0x3e119761	0.14217903
204	0x3dcc2d62	0.099695936
205	0x3e154e01	0.14580537
206	0xbd8bf0dc	-0.0683305
207	0xbe4402a9	-0.1914164
208	0xbda84bcb	-0.08217581
209	0xbd3e0dc4	-0.046399847
210	0x3da730a7	0.081635766
211	0xbdfc0820	-0.12306237
212	0x3e53d438	0.20686424
213	0x3db23de5	0.08703212
214	0xbe350e3a	-0.17681208
215	0x3e29bd72	0.16576174
216	0xbd9d768d	-0.076886274
217	0x3dbe5e90	0.0929538
218	0xbe0ef0cf	-0.13959049
219	0x3db2dcce	0.087335214
220	0x3b76f6fa	0.003768383
221	0xbe1d813f	-0.15381335
222	0xbd5ed0b6	-0.05439826
223	0xbd8183e8	-0.06323987
224	0x3db089cb	0.08620032
225	0x3e2c9614	0.16854125
226	0xbcdb3ed0	-0.02676335
227	0x3d22532a	0.039630093
228	0x3deef459	0.11667699
229	0xbd6592b8	-0.056048125
230	0x3d3f3a19	0.046686266
231	0x3de67eb6	0.11254637
232	0xbd34ba93	-0.044123244
233	0xbe547723	-0.20748572
234	0xbe1362a6	-0.143931
235	0x3e4d8bb9	0.20072831
236	0x3e4853c9	0.19563212
237	0xbd79e825	-0.061012406
238	0x3e141713	0.14461927
239	0xbd68d7ba	-0.056846358
240	0x3d8e760b	0.06956109
241	0xbdce8c5e	-0.10085367
242	0xbe74be22	-0.23900655
243	0x3d8a9b36	0.067678854
244	0xbbeb8179	-0.007187065
245	0xbd5df5d2	-0.05418951
246	0xbe0371e3	-0.12836413
247	0xbd95ea20	-0.073200464
248	0x3c8a9291	0.016915591
249	0xbdd7c334	-0.10535279
250	0x3a3f4ee5	0.0007297828
251	0x3e26e39c	0.16297764
252	0xbcf15059	-0.029457258
253	0x3d80aa0a	0.062824324
254	0x3dff62ed	0.124700405
255	0xbb475554	-0.003041585

bias_ih_l0 f4 [128]
0	0xbd619c28	-0.055080563
1	0xbda55b0e	-0.08074008
2	0x3d78c0f7	0.0607309
3	0x3de10ec2	0.10989143
4	0x3ba6b468	0.005087424
5	0x3de47bd3	0.1115643
6	0x3e4d9d0f	0.20079444
7	0xbd966c2c	-0.07344851
8	0x3cf1f074	0.029533602
9	0x3e0161af	0.1263492
10	0xbe1bba11	-0.15207697
11	0xbe2faf18	-0.17156637
12	0x3d35a157	0.04434332
13	0x3e341c65	0.17588957
14	0xbe025ca6	-0.12730655
15	0x3d411c88	0.04714635
16	0x3d5d2111	0.053986613
17	0x3e09d621	0.1346059
18	0x3e61c42e	0.22047493
19	0xbd0b2865	-0.03397407
20	0x3e3dbcea	0.18529096
21	0xbcfd1f01	-0.030898573
22	0xbe0da19e	-0.13831183
23	0xbd79ef2a	-0.0610191
24	0xbc652280	-0.013985276
25	0xbc3ee5d6	-0.011651477
26	0x3d6f0aa1	0.058359746
27	0x3d32dd49	0.043668065
28	0x3ddb485c	0.10707161
29	0x3e1285e8	0.14308894
30	0x3e3b795a	0.1830801
31	0x3d254d86	0.040357135
32	0x3e332d84	0.17497832
33	0xbdf26692	-0.1183597
34	0xbe0554af	-0.13020585
35	0xbdd3cb93	-0.10341563
36	0xbced412b	-0.028961739
37	0x3d95e3a3	0.07318809
38	0x3bb16da3	0.005414681
39	0x3e4ab14c	0.19794196
40	0x3e31e3f6	0.17372116
41	0x3e5723bc	0.21009725
42	0x3cb056f3	0.021525836
43	0x3e1829a9	0.14859642
44	0xbd76e535	-0.060277183
45	0x3e0e2e62	0.13884881
46	0x3d46e87f	0.04856157
47	0xbd418d03	-0.04725362
48	0xbdbe3af4	-0.09288588
49	0x3e5ea99b	0.21744387
50	0x3e43b26c	0.19111031
51	0x3e5ba564	0.2144981
52	0x3d8f7eac	0.070065826
53	0x3df35795	0.11881939
54	0xbdd07d57	-0.10180157
55	0xbb1954f4	-0.0023396583
56	0xbd34de61	-0.04415739
57	0x3dd61fb7	0.10455268
58	0x3d811507	0.06302839
59	0x3e4b6503	0.19862752
60	0xbe180419	-0.14845313
61	0x3da3d41d	0.07999442
62	0xb64f7d77	-3.0918434e-06
63	0x3b755b0f	0.0037438308
64	0xbde28677	-0.110608034
65	0x3d919bd5	0.07109801
66	0x3d84f57d	0.06492136
67	0xbe530772	-0.20608309
68	0x3d49f7ac	0.049308464
69	0x3dd275fe	0.102764115
70	0x3d93d53b	0.07218405
71	0x3dfee983	0.124468826
72	0x3dc92f3d	0.09823463
73	0xbdb5d6ce	-0.08878861
74	0x3d9c7712	0.07639898
75	0x3d1d1cda	0.038357593
76	0x3d893a3f	0.06700563
77	0x3cd97a11	0.026547464
78	0x3e007064	0.12542874
79	0xbdcef242	-0.10104801
80	0xbe42c3a3	-0.19019942
81	0xbe09be90	-0.134516
82	0x3dfa5c3d	0.12224624
83	0xbdc83e1d	-0.09777472
84	0x3d91ab91	0.07112802
85	0xbe4b170f	-0.19833015
86	0xbdbdf4ce	-0.092752084
87	0x3e29065c	0.16506332
88	0xbe071d9b	-0.13194887
89	0xbd9ea416	-0.07746141
90	0x3dc77310	0.09738743
91	0x3d64ce10	0.05586058
92	0x3c9ab3bd	0.018884534
93	0xbdd3b73e	-0.10337685
94	0xbd110336	-0.035403453
95	0x3cf15bc4	0.029462703
96	0xbdd81f00	-0.10552788
97	0x3e24bceb	0.16087691
98	0x3e085fcb	0.13317792
99	0x3e0a5998	0.1351074
100	0x3dac347f	0.0840845
101	0x3e36eb9f	0.1786332
102	0x3e3fa847	0.18716536
103	0x3d35a532	0.044346996
104	0x3c19f0f6	0.0093958285
105	0x3e4fd357	0.20295464
106	0x3c3c7a38	0.011503749
107	0xbe19878d	-0.14993115
108	0xbdbb55aa	-0.091471985
109	0x3e2997b6	0.1656178
110	0x3d73fce7	0.05956736
111	0xbc9d78fe	-0.019222733
112	0x3d922f39	0.07137913
113	0xbdf04ba9	-0.11733181
114	0x3e0777e9	0.13229336
115	0x3dd24c7a	0.10268493
116	0xbd956dd2	-0.07296337
117	0x3e0fb5e5	0.14034231
118	0xbc97a3a6	-0.01851065
119	0xbdd15476	-0.10221188
120	0x3e40eab1	0.18839528
121	0x3daa3f99	0.083129115
122	0x3e56fccf	0.20994876
123	0xbdd6445a	-0.10462256
124	0xbe04a2ed	-0.12952776
125	0x3b7b4e6e	0.0038346308
126	0x3e169050	0.14703488
127	0xbc8f47f4	-0.017490365

bias_hh_l0 f4 [128]
0	0x3e322246	0.17395887
1	0x3e3709bd	0.17874809
2	0xbc14ca3b	-0.009081419
3	0xbd71d36b	-0.059039515
4	0x3dcb0064	0.09912184
5	0x3e4c06da	0.19924489
6	0xbd3bb1ec	-0.045823976
7	0x3cfaf898	0.030636117
8	0x3ddd9db0	0.10821092
9	0x3e4b3e62	0.19848016
10	0x3d5901bf	0.05298018
11	0x3d18526c	0.03718798
12	0x3d37d92b	0.044884842
13	0x3e3d9e83	0.18517499
14	0x3dd0d9a6	0.10197763
15	0x3dc92838	0.09822124
16	0x3b40a7b3	0.0029396832
17	0x3d63423b	0.055483084
18	0x3e055bb6	0.13023266
19	0xbda1a902	-0.07893564
20	0x3e42ec98	0.19035566
21	0x3da0d772	0.07853593
22	0x3e1fd170	0.15607238
23	0xbe09b945	-0.13449581
24	0xbdf7c5e3	-0.12098291
25	0xbdc22b9a	-0.094809726
26	0x3cb926df	0.022601543
27	0xbd57118b	-0.052506965
28	0x3e081a9e	0.13291404
29	0x3e2b501e	0.16729781
30	0x3d2d1e1e	0.04226505
31	0x3d8dfbfa	0.06932826
32	0x3d26fedd	0.0407704
33	0x3dd23c61	0.102654226
34	0xbbcdd20b	-0.0062811426
35	0x3a820531	0.000991976
36	0xbc97f562	-0.018549625
37	0xbdbfda27	-0.09367781
38	0xbdf1087a	-0.11769195
39	0xbdbc795c	-0.09202835
40	0xbdb410a0	-0.087922335
41	0x3d009f3b	0.031401854
42	0xbd74f70a	-0.059805907
43	0x3d2f7ab1	0.042841617
44	0x3dac9460	0.08426738
45	0x3e1b967f	0.15194128
46	0xbddcf169	-0.10788233
47	0xbdf82cc9	-0.12117917
48	0xbcd03cfd	-0.025419706
49	0xbd2eb4bd	-0.042652834
50	0x3d3cdae6	0.046107195
51	0x3cdfc2b6	0.027314525
52	0x3d7fe2fb	0.062472325
53	0x3d2bca0a	0.041940726
54	0x3d3045d5	0.043035347
55	0xbe198303	-0.14991383
56	0xbca190b0	-0.019722313
57	0x3e190b38	0.14945686
58	0xbcd70087	-0.026245369
59	0xbca6872d	-0.020328129
60	0x3d4cc7fc	0.049995407
61	0xbde5f214	-0.11227813
62	0xbdf4d14c	-0.11953983
63	0x3e390863	0.18069606
64	0x3d8ca843	0.06868031
65	0x3db65aae	0.089040145
66	0xbdfd8640	-0.12379122
67	0xbe310dec	-0.17290467
68	0x3dfb8104	0.12280467
69	0xbdc9b962	-0.09849812
70	0xbe072efc	-0.13201517
71	0x3dfd8a58	0.123799026
72	0xbe26652f	-0.16249536
73	0x3e091564	0.13387066
74	0x3aad095a	0.001320164
75	0x3e152ec0	0.14568615
76	0x3ce67f7f	0.028136967
77	0x3dcba1aa	0.09942944
78	0x3dd1fb03	0.10252955
79	0x3bbb9104	0.0057240743
80	0xbdcf75d6	-0.10129897
81	0x3d1628ac	0.03665988
82	0xbe24d1e0	-0.16095686
83	0x398f9193	0.00027383547
84	0x3df1db42	0.11809398
85	0xbe2066ab	-0.15664165
86	0x3d1f0ec6	0.03883245
87	0x3dce4ee0	0.10073638
88	0xbd8ad848	-0.067795336
89	0x3e148e99	0.14507522
90	0xbddac016	-0.10681169
91	0x3d93735d	0.07199738
92	0xbe04f49c	-0.12983936
93	0xbe11713b	-0.1420335
94	0x3e422cca	0.18962398
95	0xbe19b477	-0.15010248
96	0x3e22ab1e	0.15885589
97	0x3e0c2225	0.136849
98	0x3d057637	0.03258344
99	0xbe065be5	-0.13120992
100	0xbdb677e9	-0.0890959
101	0x3e446ed5	0.19182904
102	0x3de5e560	0.112253904
103	0x3df1cfb8	0.11807197
104	0x3d56e9ef	0.05246919
105	0x3e5cdb3b	0.21568005
106	0xbd3137af	-0.043265995
107	0xbe044290	-0.12916017
108	0xbdab31aa	-0.08359082
109	0x3ccaf661	0.024775686
110	0x3e00517c	0.12531084
111	0x3da9b1b4	0.08285847
112	0x3e60bd46	0.21947202
113	0xbd7171a3	-0.058946263
114	0xbdb79f8a	-0.089659765
115	0x3db42c42	0.08797504
116	0xbdb89684	-0.090130836
117	0xbd4befcd	-0.04978924
118	0x3dd19e3e	0.102352604
119	0x3e3cff33	0.18456726
120	0x3d81b36f	0.06333052
121	0x3e55fa23	0.20896201
122	0xbae0eb5d	-0.0017159987
123	0x3da56e1d	0.08077643
124	0x3e157e1a	0.14598885
125	0x3d917604	0.07102588
126	0x3d932958	0.0718562
127	0x3d416960	0.047219634

weight_ih_l0_reverse f4 [128, 2]
0	0xbc936a8e	-0.017995145
1	0xbe42f0ce	-0.19037172
2	0x3d74b94f	0.059747037
3	0xbdb18f9f	-0.08669972
4	0xbdb54d01	-0.08852578
5	0xbe077142	-0.13226798
6	0x3e26a49a	0.16273728
7	0xbe473419	-0.19453467
8	0xbb82c390	-0.003990598
9	0xbd898542	-0.0671487
10	0xbe3f2edd	-0.1867022
11	0xbe7f9d9d	-0.24962468
12	0x3d971235	0.073765196
13	0x3dc1c32b	0.094610535
14	0xbdb74bff	-0.08950042
15	0xbe878597	-0.26469108
16	0x3e0933cc	0.13398665
17	0xbe97e37b	-0.2966574
18	0xbe2f6ec8	-0.17132103
19	0x3d1e0dd9	0.038587425
20	0xbe29a1e0	-0.16565657
21	0x3d06bd25	0.032895226
22	0x3e413c92	0.18870762
23	0xbe726dd8	-0.23674715
24	0xbdcfa0a7	-0.10138064
25	0xbde72fe8	-0.11288434
26	0xbe3c853d	-0.18410201
27	0xbe90310a	-0.28162414
28	0x3e13555a	0.14388028
29	0x3d302887	0.0430074
30	0xbd5b4798	-0.053535074
31	0xbd1ca3af	-0.03824204
32	0xbe01ba2d	-0.12668677
33	0xbe002d9e	-0.12517402
34	0xbda6fdee	-0.08153902
35	0xbe55e63f	-0.20888613
36	0xbe51fdbd	-0.2050695
37	0xbd0f5f07	-0.035002735
38	0xbdd6cd8f	-0.10488426
39	0x3cfd5498	0.030924127
40	0xbe4965c4	-0.19667727
41	0x3df2f03a	0.11862226
42	0xbe36fd58	-0.1787008
43	0xbd8368ca	-0.06416471
44	0xbdfb541b	-0.12271901
45	0x3cc1abdc	0.02364152
46	0x3e21a869	0.157869
47	0xbda10ed2	-0.07864155
48	0xbe13a610	-0.14418817
49	0xbcfb10cd	-0.03064766
50	0xbe13225c	-0.14368576
51	0x3da05ff0	0.078307986
52	0x3d3d8610	0.04627043
53	0x3be7650e	0.007061607
54	0xbe0019f6	-0.12509903
55	0xbc47875c	-0.012178268
56	0x3d2b693d	0.04184841
57	0xbd13463d	-0.035955656
58	0xbd41201c	-0.047149763
59	0xbd0c5058	-0.03425631
60	0x3e02136d	0.12702723
61	0xbe630627	-0.22170316
62	0xbdef318b	-0.116793714
63	0xbe17730b	-0.14789979
64	0xbe36de46	-0.17858228
65	0x3d635a37	0.055505957
66	0x3dce42b9	0.1007132
67	0xbe6023cb	-0.21888654
68	0xbda064e5	-0.07831744
69	0xbd220e18	-0.039564222
70	0x3d446d1b	0.047955614
71	0xbe5e22a6	-0.21692905
72	0xbd019888	-0.031639606
73	0xbc41ebf7	-0.011836044
74	0x3d8d07c9	0.068862505
75	0xbce33ce1	-0.02773899
76	0xbe13c090	-0.14428926
77	0x3e240479	0.16017331
78	0xbd1bb4f0	-0.038014352
79	0xbd6fef50	-0.058577836
80	0x3e31eb76	0.17374977
81	0xbe052bfc	-0.1300506
82	0xbd5f50b5	-0.054520328
83	0xbe1e9f03	-0.15490346
84	0x3e257514	0.16157943
85	0xbe40522a	-0.18781343
86	0x3e19500a	0.14971939
87	0xbe63fe1e	-0.22264907
88	0xbd825ee0	-0.06365752
89	0xbd592248	-0.05301121
90	0xbd71acf7	-0.059002843
91	0xbe7c7dea	-0.24657407
92	0x3da1547f	0.078774445
93	0xbdcf2bdc	-0.101157874
94	0xbe0672b5	-0.13129695
95	0xbd9fcc7c	-0.07802674
96	0x3c0d33a9	0.008618274
97	0xbe22a3d1	-0.15882803
98	0xbdbef520	-0.09324098
99	0xbd87e22b	-0.06634935
100	0xbe487393	-0.19575338
101	0xbd4a680e	-0.04941564
102	0xbe1d23ae	-0.15345642
103	0x3a576125	0.0008216075
104	0xbd5b77ce	-0.05358105
105	0x3e244e17	0.16045414
106	0xbd831824	-0.06401089
107	0xbdda08a9	-0.10646183
108	0x3dfe2aa4	0.12410477
109	0xbe7aa9ae	-0.2447879
110	0xbe28056a	-0.16408315
111	0xbdc46c35	-0.09590951
112	0xbd30e9bc	-0.043191656
113	0xbe5f415b	-0.21802275
114	0x3c713c77	0.014723889
115	0xbd9371c1	-0.07199431
116	0x3dab5235	0.08365289
117	0xbd81af61	-0.06332279
118	0x3cdbc5b3	0.026827669
119	0xbe7ef3cb	-0.24897687
120	0xbd96ab48	-0.07356888
121	0x3d937c96	0.07201497
122	0x3de40cef	0.111352794
123	0xbcd3179f	-0.0257681
124	0x3e1d6d0e	0.15373632
125	0xbe1fa3a3	-0.15589766
126	0x3c5e843e	0.013581334
127	0xbe7aa898	-0.24478376
128	0xbe4696e7	-0.19393502
129	0xbe139676	-0.14412865
130	0x3e6621a0	0.22473764
131	0x3e932c11	0.28744557
132	0xbd11411c	-0.035462484
133	0xbdfe39bd	-0.124133565
134	0xbd33200f	-0.043731745
135	0xbe4e0a67	-0.20121156
136	0x3da70999	0.081561275
137	0x3e7b427b	0.24537079
138	0x3e5aaeec	0.2135579
139	0x3e223a63	0.15842585
140	0x3cde801b	0.027160695
141	0xbe4f8478	-0.20265377
142	0xbe200261	-0.15625907
143	0x3e6a800c	0.22900409
144	0xbe08c5c5	-0.13356693
145	0xbcea6d42	-0.028616551
146	0xbdbe7c37	-0.09301036
147	0x3e75d443	0.24006753
148	0x3e09919c	0.13434452
149	0xbe28c651	-0.16481902
150	0x3e49283d	0.19644256
151	0xbdc054df	-0.09391188
152	0x3e222a50	0.15836453
153	0xbdb3b9b9	-0.08775658
154	0x3e0c66dc	0.13711113
155	0xbcfdd646	-0.030985963
156	0xbdb5253f	-0.08844995
157	0xbd21fb02	-0.03954602
158	0x3e1345fd	0.14382167
159	0x3e36505a	0.17804089
160	0x3dd6509d	0.104645945
161	0x3de6f959	0.11278028
162	0x3d5017ec	0.050804064
163	0x3ea301ff	0.3183746
164	0x3dd4f324	0.10397938
165	0xbbac995b	-0.005267305
166	0xbe8163d1	-0.25271466
167	0xbe0f2220	-0.13977861
168	0xbe8ab65e	-0.2709226
169	0xbd48125e	-0.04884564
170	0x3e31a14f	0.1734669
171	0xbe0d94df	-0.13826321
172	0xbe3241fd	-0.17407985
173	0x3e2478e3	0.1606174
174	0x3de1cb48	0.11025101
175	0x3e6c4718	0.23073995
176	0xbc6c2215	-0.014412423
177	0x3e85be46	0.2612173
178	0x3e58fdba	0.21190539
179	0x3cde46e7	0.027133418
180	0xbd7ee5e4	-0.06223096
181	0x3db6db17	0.08928507
182	0x3d49f61c	0.049306974
183	0xbe79990a	-0.24374786
184	0xbe7aee2d	-0.2450492
185	0x3e5e26e3	0.21694522
186	0x3e2c9ea0	0.16857386
187	0x3df6e3d6	0.12055175
188	0x3e0ded36	0.1386002
189	0xbe7da68a	-0.24770561
190	0x3e274a38	0.16336906
191	0x3d0c9f99	0.03433189
192	0x3db52a11	0.08845914
193	0xbddcbcd4	-0.107782036
194	0x3db223f9	0.086982675
195	0xbce95913	-0.028484857
196	0xbd62dfea	-0.055389322
197	0xbe64491e	-0.22293517
198	0xbe2100ec	-0.15723008
199	0xbe54d9f4	-0.20786268
200	0xbe0990d7	-0.13434158
201	0x3daaa382	0.08331968
202	0xbe7ee56c	-0.24892205
203	0xbd762443	-0.060093176
204	0xbe7bf5ad	-0.24605437
205	0xbd24a65d	-0.04019772
206	0x3cf373dc	0.029718332
207	0xbe7e1adf	-0.24814938
208	0x3badefa7	0.00530811
209	0xbe29af08	-0.16570675
210	0xbdeda22e	-0.11603199
211	0xbe275dc3	-0.16344361
212	0x3db67f64	0.089110166
213	0xbe42dc28	-0.19029295
214	0x3e29762b	0.16548984
215	0xbe88f399	-0.2674835
216	0x3e26ae84	0.1627751
217	0xbe4d8149	-0.2006885
218	0xbde0c06f	-0.10974204
219	0xbe189aa4	-0.1490274
220	0x3e218fe2	0.15777543
221	0xbd8f1958	-0.06987256
222	0xbe1ee310	-0.15516305
223	0xbe637d0b	-0.22215669
224	0x3e036c03	0.12834172
225	0xbb741927	-0.0037246437
226	0xbded9364	-0.11600378
227	0xbe784d8f	-0.24248336
228	0xbe2ad737	-0.1668366
229	0xbde96684	-0.113965064
230	0xbe6abfd9	-0.22924747
231	0x3d368810	0.044563353
232	0xbe0e763c	-0.1391229
233	0xbe0b263e	-0.13588807
234	0xbe2fd984	-0.1717282
235	0x3d5864b9	0.05283043
236	0xbde1ae6b	-0.11019596
237	0xbe632183	-0.22180752
238	0xbdd389c1	-0.10329009
239	0xbdd29162	-0.10281636
240	0x3ac57c59	0.0015066966
241	0x3c44a725	0.012002741
242	0x3e1fe35d	0.15614076
243	0xbc969f18	-0.018386409
244	0xbe16e240	-0.14734745
245	0x3d08a839	0.033363555
246	0x3dd265f6	0.10273354
247	0x3d2bb686	0.041922115
248	0x3e533d56	0.20628867
249	0xbe136242	-0.14392951
250	0xbd3f1739	-0.046653006
251	0xbe852a5c	-0.2600888
252	0x3c8a6f97	0.016898913
253	0xbe08f76e	-0.13375637
254	0xbdda4a01	-0.106586464
255	0xbe3ec23e	-0.18628785
