sgan-dataset/logs/univ/models_03_Mar_2019_13_48_01/model_registrar-499.pt (torch_old, 575415 bytes, 45 tensors)

weight_ih_l0 f4 [128, 6]
000000 45 2d ad bd 7b 2b b0 3a df 6e b6 bd 16 20 cc 3d
       -0.084559 0.0013440693 -0.08907866 0.099670574
000010 28 48 19 be 3f 35 5a 3e 31 56 10 be da 5b 29 be
       -0.14968932 0.21309374 -0.1409538 -0.16538945
000020 ae e2 9b bd 97 57 83 3e 02 3c 0f 3c 47 e8 12 bd
       -0.07611595 0.25652763 0.008742334 -0.03586605
000030 04 4c 1a be 6c 9c e2 bd c7 ef 9d bd 11 10 cb bd
       -0.1506806 -0.11064991 -0.077117495 -0.09915174
000040 86 e4 19 be c2 f1 14 3e f0 da aa bd 1b 93 b3 3c
       -0.15028581 0.14545348 -0.0834254 0.021920731
000050 70 f1 9d ba 7f 4a 5b 3d cb 2f a0 bb 6e e3 07 3e
       -0.0012050103 0.053537842 -0.00488851 0.13270351
000060 68 a3 c1 bd 09 75 1a 3d 8e e5 40 be bd 03 5c 3e
       -0.094549954 0.03770927 -0.18837568 0.21485801
000070 21 2e f0 3d 75 08 09 be 59 a2 20 3e ca 32 b7 3d
       0.117275484 -0.13382132 0.1568693 0.08945234
000080 e8 ed 0d bb 84 0f de 3d 94 cc 68 3e 42 2d a9 bc
       -0.0021656696 0.10842803 0.2273429 -0.020651463
000090 fa 6c 3d be 0b 74 a5 bd ee 2d 6b be 2b e6 69 bd
       -0.18498603 -0.08078774 -0.2296674 -0.05710427
0000a0 a0 52 94 bd 18 40 08 be f3 70 0a bc 82 3d 35 3e
       -0.07242322 -0.133057 -0.008449781 0.17699245
0000b0 fb f1 45 be e2 f8 ac 3d e3 b1 1b bd e0 1a 89 3d
       -0.1933059 0.08445908 -0.038011443 0.06694579
0000c0 1f 55 2a 3e f4 8d f2 3d fe 65 ce 3d 21 49 eb 3d
       0.16634034 0.11843482 0.10078047 0.114885576
0000d0 c1 62 87 3c 27 59 84 3d ed aa f5 bd 6f c5 76 be
       0.016526582 0.06462317 -0.11995492 -0.24098752
0000e0 c7 f0 28 bc d7 7a 8b 3e aa 5f af bd a2 04 3f be
       -0.010311312 0.27242157 -0.08563168 -0.18654111
0000f0 fc 5f 71 3b 34 67 06 3e fb f3 5d be b9 f8 09 bd
       0.0036830893 0.13125306 -0.21675102 -0.033684466
000100 21 e3 91 bd 5a 61 9b 3c 45 a9 75 bd 3f 9c 0e bd
       -0.071233995 0.01896732 -0.05997588 -0.034816977
000110 19 f2 2e bd dc a9 d9 3d cd 3a cc 3d c9 f7 17 3e
       -0.04271135 0.10628101 0.09972153 0.14840616
000120 59 9a 28 be b6 88 3e be be cf ec 3d 8f 30 64 bd
       -0.16465129 -0.18606839 0.11563061 -0.05571037
000130 0a b1 52 3d 15 54 3b be 64 0b 8f bd 68 20 95 3d
       0.05143837 -0.18293793 -0.069845945 0.072815716
000140 91 f4 65 3e 19 26 d0 3d d2 c4 89 bd 23 2f bd 3d
       0.22456576 0.101635166 -0.067269936 0.09237506
000150 1a c4 d2 bd 27 2e 8a bd 8f 51 20 be fa c9 1e 3e
       -0.1029131 -0.06747084 -0.15656112 0.15506735
000160 db 8d b8 3d fb c8 4f 3c a7 4a 13 be af 92 12 3e
       0.09011432 0.012682195 -0.14383946 0.14313768
000170 47 18 a1 bc 6c a4 40 3e 66 d0 1e bd 24 4d 09 3d
       -0.019664897 0.18812722 -0.038772963 0.033520833
000180 5b 0b 52 3d 3d 20 8b 3c bc f5 8f 3c 70 6b 07 3d
       0.05128036 0.016983146 0.01757323 0.033061445
000190 93 9a 19 3e a7 c5 19 be 72 2c 12 3b 09 89 f5 bd
       0.15000372 -0.15016805 0.0022304324 -0.11989028
0001a0 e6 05 a1 3d 63 7a 01 be 96 b4 e0 bc ae 34 11 3e
       0.07862453 -0.12644343 -0.02742986 0.14180252
0001b0 ef c8 b1 3d 60 ba e0 bb 91 39 c2 3d c8 71 2c bb
       0.08680903 -0.006858155 0.09483636 -0.0026312936
0001c0 6e 53 9d 3d 55 2f 96 bd 52 7a cf bb 91 0f 4b 3d
       0.076819286 -0.073332466 -0.0063317204 0.049575392
0001d0 41 22 92 be 70 9a c4 3d 1a 7e 01 3e af d1 66 3e
       -0.2854176 0.09599769 0.1264576 0.22540925
0001e0 94 ce b0 bd 5b 2b 56 3d 4e c4 9b 3e 32 a0 93 bd
       -0.08633152 0.05228744 0.30423206 -0.07208289
0001f0 8c 41 e4 3d 05 dd 9f bc 45 10 0b bb 25 5d 29 3b
       0.111453146 -0.01951457 -0.0021219414 0.0025842872
000200 6e ab bb 3c 79 7a da 3c 41 ae 33 be 16 0b e2 3d
       0.022908892 0.026669728 -0.17546941 0.11037271
000210 e2 a2 a1 bc 04 06 14 be 04 a5 41 be d8 29 77 bd
       -0.019730989 -0.1445542 -0.18910605 -0.06034264
000220 eb d5 b0 3d d3 fc 00 3d 4f 9e 66 bd 6c 10 d9 bd
       0.086345516 0.031491112 -0.05630332 -0.10598835
000230 d9 a6 e0 bd b8 9a 65 3d e6 f0 ac 3d 66 97 51 3e
       -0.10969324 0.056055754 0.08444385 0.2046791
000240 61 ad 47 bc ea 55 f2 bd 2f be 70 be c3 c9 82 3d
       -0.012187333 -0.11832793 -0.2351005 0.06386139
000250 12 39 08 be 60 a5 da bd aa 3b 15 be 1e d6 bd bd
       -0.1330302 -0.10676074 -0.14573541 -0.09269355
000260 40 07 21 bd 68 a6 45 3e e2 ed 0e 3c f0 46 62 3e
       -0.039313555 0.1930176 0.008723708 0.22097373
000270 42 0e 09 be e6 17 dd 3c d9 61 fa bd 2f 3b 6f 3e
       -0.13384345 0.026988935 -0.12225694 0.2336242
000280 ee cb c2 3d 66 89 8c 3e af 64 e6 bd 37 52 0c 3e
       0.09511553 0.27448577 -0.112496726 0.13703237
000290 4c be 84 3e f4 21 3e 3e 27 be c6 bc 94 27 40 3e
       0.25926435 0.1856764 -0.024260594 0.18765098
0002a0 ad 13 e6 3d fc 07 f3 3d 43 6e 3d 3c 16 3e 2f be
       0.112342216 0.11866757 0.011561933 -0.17113528
0002b0 3b ca 1b 3d 14 b7 33 3d 9d d0 02 be 8b 6e d4 bd
       0.03803466 0.04387577 -0.12774892 -0.10372647
0002c0 85 61 2e be 6b bf 97 bd a0 86 cb 3d c2 9e 23 b8
       -0.17029388 -0.07409557 0.09937787 -3.9010083e-05
0002d0 fc ac 33 ba 6b 4e 61 3d 46 d4 b5 3d 89 00 92 be
       -0.0006854085 0.055006426 0.088783786 -0.28516033
0002e0 51 3d f3 bd c8 ee d2 bd 9a e5 cc bd dd c7 a8 3d
       -0.118769296 -0.1029945 -0.100047305 0.08241246
0002f0 45 ee 8f 3d 56 09 98 be d1 bc 11 be ea 9e 26 be
       0.07027868 -0.29694623 -0.14232184 -0.16271558
000300 49 fb 51 3d 83 fa 0a 3e 28 c5 06 be 0d f4 d8 bd
       0.051265035 0.13572125 -0.13161147 -0.10593424
000310 4f f1 a5 3d 77 d7 c7 bc cc 46 0d 3e 2b a2 97 3c
       0.081026666 -0.024394734 0.13796538 0.018509945
000320 2f d4 bd bb 3a 84 4e 3e ec b2 b6 3d c7 05 09 be
       -0.0057931165 0.20167628 0.089208454 -0.1338111
000330 e1 6d 09 be 60 15 08 3b 14 27 42 bc 9a cd 4e bd
       -0.13420822 0.0020764694 -0.011850137 -0.050489046
000340 5b c2 c6 bc e3 0c fa 3d b4 9a e4 bd 63 56 93 bd
       -0.024262598 0.12209489 -0.1116232 -0.07194211
000350 97 29 a8 bd 03 47 0c bd 0c 78 9f 3b 10 5e bd bd
       -0.08211058 -0.03424741 0.0048666056 -0.092464566
000360 92 53 92 3d 1c 75 e5 bd 17 7e b2 bd 98 df d6 3d
       0.07144846 -0.112039775 -0.08715456 0.10491866
000370 de 52 0b be fd 49 c8 bd 0b eb 95 3d 94 d3 3f bd
       -0.1360583 -0.09779737 0.073202215 -0.046832636
000380 4e 33 ea 3c ba 7f 07 be a6 e0 e7 bb a8 54 35 be
       0.028588917 -0.13232318 -0.0070763407 -0.17708075
000390 ac 14 22 3d ba 1e f8 bc f5 b1 fa bd a9 c5 d1 bd
       0.039570495 -0.030288089 -0.12240974 -0.10242779
0003a0 19 63 21 be 08 95 97 3d d1 31 29 3c 6d c1 e6 bd
       -0.15760459 0.07401472 0.010326819 -0.11267362
0003b0 5f 34 d2 bd f8 a4 7c 3d c5 09 f0 bd b3 e3 07 3e
       -0.10263895 0.061680764 -0.117206134 0.13270454
0003c0 d5 4c d3 3d e1 7c ca bc ea 08 bd bd 95 2e 53 3d
       0.10317389 -0.02471775 -0.09230216 0.051558096
0003d0 24 06 da 3d 82 4d 1a 3e 12 1e 56 be a4 bf 04 be
       0.106457025 0.1506863 -0.20909908 -0.1296373
0003e0 0a f4 4e 3e d2 2b 12 3e ee 38 31 3c ca a1 f3 bc
       0.20210281 0.14274529 0.010816796 -0.029740233
0003f0 c5 fe 05 3e ad c7 1f be 68 e4 3a bd c8 26 9e 3d
       0.13085468 -0.15603514 -0.04562798 0.07722241

weight_hh_l0 f4 [128, 32]
000000 9d 01 ef bd e8 bb d5 bd 14 29 7d bd 8d 28 f2 3d
       -0.116702296 -0.10436231 -0.061806753 0.11824141
000010 7f 9c 2a bc fc ed 05 bd 70 2a 34 be 53 df 00 3c
       -0.010413288 -0.032697663 -0.17594314 0.007865745
000020 7b a5 fb 3d 5b 90 05 3e 6e f4 fc 3c 39 40 38 3e
       0.12287422 0.13043348 0.030878272 0.17993249
000030 5f 3e f7 bc 28 e9 0c 3e 6c 54 b8 3d 0a 92 28 3e
       -0.030181108 0.13760817 0.09000477 0.1646196
000040 2e 25 91 3d 48 f2 1a be a3 ad a6 3d 04 cc 09 be
       0.070871696 -0.15131485 0.08138587 -0.13456732
000050 05 21 d3 bd 8b 5c 05 be 8f 9f c4 bd dc 37 09 be
       -0.10309032 -0.13023584 -0.09600746 -0.13400215
000060 76 cb 10 3e 75 b7 be bd d7 c7 df 3d 6d c8 0e 3e
       0.14140114 -0.093123354 0.10926788 0.13943644
000070 74 ee dc 3d 3c 4d 05 3e 77 55 fa 3c 3f f6 26 be
       0.10787669 0.13017744 0.030558331 -0.16304873
000080 24 7c d2 3d 20 8b 17 be 1a ca 33 3d 05 08 8d bd
       0.10277584 -0.14799166 0.04389391 -0.06886295
000090 8d 38 c6 3d 4f a2 fe 3d 37 cd a7 bb 36 5f 86 bd
       0.09678755 0.12433302 -0.005120899 -0.06561129
0000a0 7e 71 0c 3e 0d 3a 96 bc 32 0b 0e be 10 dd e4 bd
       0.13715169 -0.018338228 -0.13871458 -0.11174977
0000b0 66 b6 26 be 80 b4 1e 3e 1c 1e 05 3e 16 53 aa bc
       -0.16280517 0.15498543 0.12999767 -0.020791572
0000c0 79 e9 08 3e 59 20 d6 3d 20 8f 98 bd 3b 25 db 3c
       0.13370313 0.104553886 -0.07449174 0.026751151
0000d0 d4 ee de bb ad 9c e8 bd d0 d9 fd bd ba 8c 84 bd
       -0.006803373 -0.113580085 -0.1239506 -0.06472154
0000e0 e4 a1 45 3b 7c e4 1f bc 90 ac 11 be 6f 9b 15 be
       0.0030156309 -0.009759065 -0.14225984 -0.14610074
0000f0 56 31 a6 bc ea 9f 73 3d 85 65 82 3d 38 e2 ff bd
       -0.020287197 0.059478678 0.063670196 -0.1249432
000100 40 2e f2 3d f1 87 fd bd 8f 17 a7 bd 34 0a 00 3e
       0.11825228 -0.123794444 -0.0815879 0.12503892
000110 0c 5c 13 3d 09 84 89 3d a5 76 2f be e6 9f 28 be
       0.035976455 0.06714637 -0.17135103 -0.16467246
000120 5d ef f9 bc 9a c4 e4 3d 29 34 33 be 27 ba cd 3d
       -0.030509645 0.11170311 -0.17500366 0.10045271
000130 8b d2 e4 bd 27 6c fc bd df a2 06 3e 4c 56 05 be
       -0.111729704 -0.12325316 0.13148068 -0.13021201
000140 8c e7 93 3d cf fa 1a bd a8 de 0f 3e 07 82 33 be
       0.072218984 -0.037836846 0.1404978 -0.1753007
000150 d0 d2 b4 3d a7 50 0e 3e c6 64 27 3d db 18 14 3e
       0.08829272 0.13897954 0.04086759 0.14462607
000160 a8 cd 09 3e fa 7b b9 3d 92 bc e1 3d 80 b6 1d 3e
       0.13457358 0.0905685 0.11022295 0.1540165
000170 1e 0d ff 3d ac 06 97 3d 3a d8 e9 bd 57 8a cf 3d
       0.12453674 0.073743194 -0.11418195 0.10133808
000180 18 db 79 3c 1c 73 9c 3d 58 f1 9c 3c 76 d1 bf 3d
       0.01524999 0.07639143 0.01915805 0.093661234
000190 f2 03 6c be 00 57 a2 bd eb 7c ff bd 39 e8 fb 3d
       -0.2304838 -0.0792675 -0.12474998 0.12300152
0001a0 20 f6 c4 bd d9 b1 49 3d 0f 1b c1 bd aa 1f 1d be
       -0.09617257 0.049241874 -0.09428989 -0.1534411
0001b0 47 d1 f3 bd 36 3d 1d be 54 96 0f be c1 bb d0 bd
       -0.11905151 -0.15355381 -0.1402219 -0.10192061
0001c0 ce 13 a4 3c 36 74 27 3e 38 e1 e2 bd 35 c2 a4 bd
       0.020028975 0.16352925 -0.11078113 -0.080448546
0001d0 a2 cb 01 bd 82 cb b8 3d 9d cf a8 3d 15 32 79 bc
       -0.03168834 0.09023191 0.08242724 -0.015209694
0001e0 fc 55 d8 bd 2e e6 d5 3c c4 fd 3f be 8f 85 fc 3d
       -0.10563275 0.026110735 -0.18749148 0.12330162
0001f0 5c 99 91 bd 60 92 f7 3d c6 7e 03 3e 5c 5d 2e 3d
       -0.07109329 0.12088466 0.12841329 0.042569503
000200 99 b7 1a be 56 fa 45 bd 03 6c 1b 3e 70 c2 1f be
       -0.151091 -0.048334442 0.15177922 -0.15601516
000210 dd 4e f0 3d 4b 5d 05 be c2 6a 6b bd 1e 17 fe 3d
       0.11733792 -0.1302387 -0.05747486 0.12406753
000220 11 c0 24 be 1d 8a 68 be 95 f6 de bc c6 66 09 be
       -0.16088893 -0.22708936 -0.027217189 -0.13418111
000230 70 9e ab 3c 36 84 cf 3d 70 f0 c8 3d ec 8d 08 be
       0.020949572 0.10132639 0.09811485 -0.13335389
000240 5e 3f df 3c f9 4a 14 be 3e 09 0d be d2 75 a3 3d
       0.027251896 -0.14481725 -0.13773057 0.07981457
000250 92 2f 83 3d ff 8b f4 3d 32 bc 62 3d 24 4a b1 bd
       0.06405558 0.11940765 0.05535526 -0.08656719
000260 61 cd 54 3c 4f 17 09 be 08 25 40 be ad 7f 12 be
       0.012988419 -0.13387798 -0.18764126 -0.14306517
000270 90 44 3f 3e 97 75 ab bd df 98 fb 3d 71 0e f7 bd
       0.18678498 -0.08372038 0.12285017 -0.12063301
000280 68 40 1f 3e e9 7a d2 bd cf ce 30 3d 89 27 30 be
       0.15551913 -0.102773495 0.043165978 -0.17202581
000290 41 c1 b2 bd 75 a8 63 bd 49 54 6e bc 22 74 8e bd
       -0.087282665 -0.055580575 -0.014546462 -0.06955744
0002a0 74 6d 29 bd a9 63 90 bd 3c 3b 0a 3e d4 05 38 be
       -0.04136415 -0.07050259 0.13499159 -0.17970973
0002b0 ce ff d2 bd 50 e7 6e 3d a0 09 99 bc 50 d8 04 bd
       -0.10302697 0.058326066 -0.018681347 -0.032432854
0002c0 d6 bc 74 3d 17 79 1c 3e ed 23 39 be 1d 91 04 3e
       0.0597504 0.15280567 -0.18080111 0.12945981
0002d0 ec 9e ad 3d dc ff 03 be eb 9a 0e bd 03 29 15 bd
       0.084775776 -0.12890571 -0.03481571 -0.036416065
0002e0 e5 fb 9d bd 01 9e f6 bd 38 48 01 3e a7 88 30 3e
       -0.07714061 -0.120418556 0.12625206 0.17239629
0002f0 3c 14 5b 3d 57 a8 bd 3d 07 6b 0e 3e a5 93 ab 3d
       0.053486094 0.09260624 0.13908015 0.0837777
000300 57 21 45 3e 13 89 5c 3d 65 39 16 be 2f db 4c 3e
       0.19251 0.05384166 -0.14670332 0.20005487
000310 d1 d3 b6 bc 7b 89 6a bd 83 ab 8e ba b7 8a 16 be
       -0.022317799 -0.057260018 -0.0010884855 -0.14701353
000320 71 7f 5d bd ca e9 5b bd 01 e4 0f bd c9 ad de bd
       -0.054076616 -0.053689755 -0.03512955 -0.10872991
000330 bf 31 84 bc 18 b7 26 3e ac a4 8e bc 87 ec 64 3d
       -0.016137002 0.16280782 -0.017412506 0.055889633
000340 a2 60 4d 3d ba cb b2 bd 06 2d 0f 3d 72 9f 1e be
       0.050140984 -0.08730264 0.034955047 -0.15490511
000350 d5 34 d7 3d 47 60 36 3e 80 18 17 3e 57 e6 0a bc
       0.10508124 0.17810164 0.1475544 -0.008477769
000360 47 05 58 be c5 fe c7 bb 26 28 c3 3d 56 84 40 3c
       -0.21095763 -0.006103369 0.09529142 0.011750301
000370 28 b6 45 be d0 83 16 3e db d3 18 be de 4d 81 3d
       -0.19307768 0.1469872 -0.14924566 0.0631368
000380 16 11 4c 3e 15 de 8d bd 76 58 64 bd 19 a8 31 3d
       0.19928393 -0.069271244 -0.055748425 0.0433732
000390 ee 7f 81 bd e6 2e a9 3d 4f d2 03 3d ec bf a8 bb
       -0.06323229 0.08260898 0.032182988 -0.005149832
0003a0 4a 47 43 bb 56 bc 4f be 8f 30 35 bd 06 6c 0d be
       -0.002979713 -0.20286688 -0.044235762 -0.13810739
0003b0 b5 ae 67 3e 39 91 8f bd 60 bf 92 3d 48 ac 88 3d
       0.22625239 -0.07010121 0.07165408 0.06673485
0003c0 16 31 6f 3e f8 2f a6 bd c6 82 1c be 7c 68 bc bc
       0.23358569 -0.08114618 -0.15284261 -0.02299904
0003d0 9a b9 1f be c9 67 c5 bd f4 ab a8 bd 8f c8 20 be
       -0.15598145 -0.09638936 -0.082359225 -0.15701507
0003e0 06 10 3e 3d 07 10 1d 3e 24 17 4d 3c 4d c9 f0 3d
       0.046402 0.15338145 0.012517724 0.11757145
0003f0 b2 37 08 3e 24 74 24 3e f4 0b 12 3c c7 bd cc 3d
       0.13302496 0.16059929 0.008913983 0.09997135

bias_ih_l0 f4 [128]
000000 54 1f bc bd 2f 8c a7 bd ca 1f 8c bc 9c ae aa bd
       -0.09185663 -0.08181035 -0.017105002 -0.08334085
000010 90 1d 27 be 05 c4 0e 3e ae 8f 14 bd cd 56 31 be
       -0.16319871 0.13941963 -0.036269836 -0.17318268
000020 03 08 87 3c 9c 18 19 3d 63 2e 28 3e fb b4 23 3e
       0.016483312 0.037376985 0.16423945 0.15987007
000030 ed a5 94 3d c0 d2 1f be f0 54 ce 3d 38 dd 16 be
       0.0725821 -0.15607738 0.10074794 -0.14732826
000040 2b f5 05 3d c3 e4 f3 3d 1d 7d 39 bd ea ff e5 3d
       0.032704514 0.11908867 -0.045285333 0.11230452
000050 28 67 be 3c da 57 9a bc a7 ec 2a bd 91 41 33 bd
       0.023242548 -0.018840719 -0.041729596 -0.0437637
000060 4a 50 d1 3d 11 18 93 3d b3 f9 72 bd 2b fb df 3c
       0.10220392 0.07182325 -0.059320163 0.027341446
000070 9a 95 e5 bc af 77 f7 bd 9c 1c 45 be 74 30 0f bd
       -0.028025437 -0.12083375 -0.19249195 -0.034958318
000080 e6 c5 38 3e 22 0a 1c be f9 33 1f be 55 03 10 3e
       0.18044242 -0.1523824 -0.1554717 0.14063771
000090 9d 17 22 be 71 8f a3 bd 2a 02 06 be 40 2e 90 bc
       -0.1582932 -0.07986344 -0.13086763 -0.017600179
0000a0 97 1a 0c be 29 51 e2 3d 6b 57 72 bd f4 e1 73 3d
       -0.13682018 0.11050636 -0.0591654 0.059541658
0000b0 fc fc 3f bd 20 46 30 3e 39 3b 89 bc e6 a5 01 be
       -0.046872124 0.1721425 -0.016751872 -0.12660941
0000c0 78 c4 1a 3e 0d 13 a7 3d b6 59 aa bd 8a 03 93 3d
       0.1511401 0.081579305 -0.08317892 0.071784094
0000d0 04 cb 19 be 38 26 b4 3d c3 68 e7 3d aa 69 e0 3d
       -0.1501885 0.08796352 0.112992786 0.10957654
0000e0 7a 60 93 3d e9 4a 19 3e be ad d7 3d f5 b3 c8 3d
       0.07196136 0.14969982 0.105311856 0.09799949
0000f0 14 05 d6 bc af 09 28 be 38 ff 37 be 4b 29 12 be
       -0.026125468 -0.16409944 -0.17968452 -0.14273565
000100 ee 58 d9 3d 0a f9 0f 3e 2e b6 97 bc c0 ac 53 3d
       0.10612665 0.14059845 -0.018519487 0.05167842
000110 d7 c6 84 bd 3e 9d 01 3d 79 33 bc 3d 10 0d af bd
       -0.06483238 0.0316441 0.09189505 -0.08547413
000120 0f 8d db 3b 92 e8 d8 3d f7 3b da bd b7 3a 83 3d
       0.006700165 0.10591234 -0.10655969 0.06407683
000130 5b 07 09 be 17 e8 52 bd f2 88 b9 bd f7 b2 42 be
       -0.13381712 -0.05149087 -0.09059323 -0.19013582
000140 39 dd 02 be 46 50 02 be 37 0c 03 3e 15 dd 31 bc
       -0.12779702 -0.12725934 0.12797628 -0.010855933
000150 32 6d f1 3b a3 27 03 3e 2f d1 b5 3d 9d 78 14 be
       0.0073677534 0.12808089 0.08877789 -0.14499135
000160 ca 98 16 3e 68 d1 f1 bd a2 73 f6 3d ce b5 1b be
       0.14706722 -0.11807519 0.12033774 -0.15206072
000170 f1 02 03 be 02 bf 12 3e 89 d2 a0 3c c1 1c 93 bd
       -0.12794091 0.14330676 0.019631641 -0.07183219
000180 80 c4 c2 3d c2 bf fd bd 17 7c 5b 3c c7 98 30 bd
       0.09510136 -0.123900905 0.013396285 -0.04311445
000190 de 1a 5a bc 5f d4 89 3d fd 23 b8 ba 13 2d 1d be
       -0.01331207 0.0672996 -0.0014048811 -0.15349226
0001a0 e1 d0 d7 bd e7 99 82 3d 13 26 96 bd b1 a7 c6 3d
       -0.10537887 0.06377011 -0.07331481 0.09699953
0001b0 e0 a8 16 3d 4e 2f 38 be ad 21 0d 3e 21 b5 0d 3d
       0.036782146 -0.17986795 0.13782378 0.034596566
0001c0 41 c9 00 3e d4 18 23 3d 5d f8 4e 3d 1f 77 8b 3a
       0.12576772 0.0398186 0.050529826 0.0010640359
0001d0 f1 ed eb 3d e4 e2 d1 bc 40 8b a9 bd d6 9a 82 3b
       0.11519993 -0.025620885 -0.08278513 0.003985743
0001e0 4f 3e d8 bd 74 f6 e0 3d d7 ab c6 3d 94 e3 16 bd
       -0.105587594 0.10984507 0.097007446 -0.03683813
0001f0 1f 3b d8 3d 88 17 a6 3d ca 17 08 be 0e c9 47 bd
       0.105581515 0.08109957 -0.13290325 -0.048775725

bias_hh_l0 f4 [128]
000000 0c 6a 0b be 08 b4 8c bd 54 84 1a be 10 09 a0 3d
       -0.13614672 -0.06870276 -0.15089542 0.078142285
000010 0e 1d 9f bc f7 f9 d5 bd c9 3a 0d be 6a 95 8f 3b
       -0.019423034 -0.10448068 -0.13791956 0.004381825
000020 bf 1e d0 3d 8a 20 4f 3e e0 da bc bd 6d 88 0f 3d
       0.10162114 0.20227256 -0.092214346 0.035042215
000030 52 b0 29 be 18 82 0d 3e fd b3 10 3e 17 81 56 3c
       -0.16571167 0.13819158 0.1413116 0.013092301
000040 34 42 5e bd 1f a8 e4 3d f8 5b 10 be ed 51 8b 3d
       -0.054262355 0.11164879 -0.14097583 0.068027355
000050 8e 05 2f 3e f0 c2 25 3e 9a 55 58 bc 42 37 a8 3c
       0.17091963 0.16187644 -0.013204003 0.020534161
000060 d5 4c 7d 3b 8b 38 68 3d 8e 37 69 3c 82 90 83 bd
       0.0038650532 0.05669455 0.014234437 -0.06424047
000070 f1 90 e0 bd 0f 4d 05 be 23 d9 fb bd a7 92 79 3c
       -0.109651454 -0.13017677 -0.12297275 0.015232719
000080 78 c4 bb 3d ce 52 01 be 96 61 a8 3d 35 28 86 bd
       0.09168333 -0.12629244 0.08221738 -0.06550638
000090 83 ac 19 3e 70 f1 a9 3d bf 0f 25 3c ee 52 26 be
       0.15007214 0.08298004 0.010074555 -0.16242573
0000a0 3b f0 82 bd 19 59 5e 3d ff c8 24 bd 63 e7 d7 ba
       -0.063934766 0.05428419 -0.040230747 -0.0016472157
0000b0 70 62 4b bd a1 05 ef bb fa af b6 3d 8c aa 9c bd
       -0.049654424 -0.007294372 0.089202836 -0.07649717
0000c0 1b a4 a6 3c 29 bb 5f 3c 39 91 60 bd 6e 42 e0 bd
       0.020341923 0.013655462 -0.054825995 -0.109501705
0000d0 fe d0 cd bb e7 41 99 bd 20 6e e1 bd 19 18 a7 3d
       -0.0062810173 -0.07483273 -0.11007333 0.08158893
0000e0 91 c7 06 be 35 be 22 be 5a c8 17 be f6 ce 18 3d
       -0.13162066 -0.1589287 -0.14822522 0.03730675
0000f0 86 9a 5e bd 36 fc 8e 3d f2 f7 42 bd 98 76 22 3e
       -0.054346584 0.06981699 -0.04759974 0.15865552
000100 27 62 35 be 32 40 03 be 6c 32 1b 3e 2d 85 81 bb
       -0.17713223 -0.12817457 0.15155953 -0.0039526434
000110 a5 6e 44 3e 35 00 83 3d cc 04 c1 bd a1 09 1e bd
       0.19182833 0.06396524 -0.09424743 -0.0385834
000120 4c 82 17 3e ac 6c 49 3c 69 45 ae 3c 83 a5 a6 3d
       0.14795798 0.012293976 0.021273332 0.081370376
000130 4d 16 40 3d 4a ff 74 3c 50 56 2c be de b8 33 bd
       0.046896268 0.014953444 -0.168298 -0.043877475
000140 d0 c4 0e bd c5 c9 eb 3d 79 d2 5a 3d 67 bc 0c be
       -0.034855664 0.11513094 0.05342338 -0.13743745
000150 aa 32 19 be 76 80 8a 3d 46 88 1e be fb 1e d3 3d
       -0.14960733 0.06762783 -0.15481672 0.103086434
000160 7d 3f bb bd 83 bb 4b bc 48 87 fc 3d 0c 6e 18 bd
       -0.09142969 -0.012434843 0.1233049 -0.037214324
000170 5c 90 ee bd f3 95 0a be 6a 22 a1 bb ed bd 03 3d
       -0.11648628 -0.13533764 -0.0049174326 0.03216355
000180 fb 55 a3 bc bb cc 2a 3c f0 20 12 be 82 9e 3c 3e
       -0.01993846 0.010424788 -0.14270377 0.18419841
000190 d2 b2 ae 3d 54 1d f0 bc 2b e8 49 3e 26 df 20 3e
       0.08530201 -0.02931086 0.19717471 0.15710124
0001a0 8e 34 23 be 0e 60 b0 3d f8 fb 2b 3e a2 10 32 3e
       -0.15938017 0.08612071 0.16795337 0.17389157
0001b0 1e 79 48 3d b1 24 5a 3c 00 40 6c 3d 00 eb 2d 3d
       0.04894363 0.013314412 0.057678223 0.04246044
0001c0 03 b9 13 3e c7 99 c6 bd 5c 5c 1f 3e 26 ba fa bd
       0.14426045 -0.096972995 0.15562576 -0.12242536
0001d0 81 40 a0 3d f7 71 29 3e fe 4a 8d 3d 58 da 0b 3e
       0.07824803 0.1654738 0.06899069 0.1365751
0001e0 2e 6e a8 3d 36 17 af 3d 00 7f 18 3e 73 f5 fa bc
       0.0822414 0.08549349 0.14892197 -0.030634617
0001f0 b8 a1 c2 bc fc bd 9a 3d 5a da d8 bd 20 9c 1b 3e
       -0.023758754 0.07555768 -0.10588522 0.15196276

weight_ih_l0 f4 [128, 2]
000000 c8 00 0f bd d2 8a 24 bc 26 5f 90 be 35 12 43 be
       -0.034912854 -0.010042863 -0.28197592 -0.19049914
000010 01 84 62 3e c1 63 36 be 49 1d 2d be 8a b3 e1 bd
       0.22120668 -0.1781149 -0.16905703 -0.110205725
000020 19 95 db bd 70 42 a5 be 89 c3 9e bd 35 5f 16 3d
       -0.107217975 -0.3227725 -0.07752139 0.03671189
000030 84 37 31 be e8 85 ad bd eb 1e 49 bd 74 c0 83 be
       -0.17306334 -0.08472806 -0.04910175 -0.25732768
000040 fc c2 8a 3c e2 7d 97 be 13 da c8 bc fb 48 7f 3e
       0.016938679 -0.29588228 -0.024518048 0.24930184
000050 ee ff 26 be b1 01 d6 3d c8 8c 78 bd 11 c5 81 be
       -0.16308567 0.10449541 -0.060681134 -0.25345662
000060 81 3d 4c be 4b ad c2 bd 0d 8d bd 3d 0c c3 24 3e
       -0.19945337 -0.09505709 0.09255419 0.1609003
000070 4f 4a 88 be 9e 10 5a be 5b 83 02 3e e6 16 c5 3d
       -0.26619193 -0.21295401 0.1274542 0.09623508
000080 18 5d 28 be cb 8f 3a bd f4 fd c3 3d b4 ee 8a bd
       -0.16441762 -0.045547288 0.09569922 -0.0678381
000090 73 07 22 be a9 b7 36 be 26 3a 0f be a3 3b 2c bc
       -0.15823154 -0.17843498 -0.13987026 -0.010512265
0000a0 5f cd 51 bd 3a 94 22 be 37 99 53 be f5 af e2 3b
       -0.051221248 -0.15876856 -0.20663916 0.0069179484
0000b0 37 4c 69 be 2b 3a 64 3e ef 14 6d be 59 b3 69 bd
       -0.2278298 0.22287814 -0.23152517 -0.057055805
0000c0 11 ed 17 be 73 67 66 be 06 64 a9 be 91 3b 8c 3e
       -0.14836527 -0.225004 -0.33084124 0.27389196
0000d0 5b 13 21 3e b2 7d d2 bd 27 77 86 be 5b e9 3b 3d
       0.1573004 -0.10277881 -0.2626278 0.045876842
0000e0 20 50 ab be 3e db ef 3c 50 9b 8b 3c 6d 3b 4f be
       -0.33459568 0.029279348 0.017041832 -0.20237513
0000f0 e8 32 0d 3e b1 ad bc be 3f e8 26 be b6 0b 94 be
       0.1378895 -0.36851266 -0.16299532 -0.28915185
000100 d9 33 48 be 10 14 71 be 04 3b f4 bd 7b d2 9b be
       -0.19551028 -0.2354281 -0.11925319 -0.3043402
000110 39 70 4d 3e 50 a1 5d be d9 ec c3 3c 78 90 4a bd
       0.20062341 -0.21643567 0.023916649 -0.049454182
000120 d2 7b 21 3e 5f 4c a0 be fb 82 d2 bd 63 d0 98 bd
       0.1576989 -0.31308267 -0.10278889 -0.074616216
000130 76 c2 61 be e4 53 f3 3b 7a 26 e4 3d 03 e4 5b bd
       -0.22046837 0.007425772 0.11140151 -0.053684246
000140 44 8e ae bd 1e 2a 85 be 80 dd f2 3c e6 3c 98 3e
       -0.08523229 -0.26008695 0.029646635 0.29733962
000150 4a ce fe bc cc b9 3a bd 3f 02 3f be 8d b1 a0 bd
       -0.031104226 -0.045587346 -0.186532 -0.07846365
000160 81 2f bf bd 18 c8 c6 bc e8 33 d2 bd 3c d8 22 3e
       -0.093352325 -0.024265334 -0.102638066 0.159028
000170 3e c3 09 bd 26 41 08 be 2d f4 51 3e 30 aa 38 3d
       -0.033633463 -0.13306102 0.20503302 0.04508418
000180 e7 47 ad bc 41 66 78 bd bb 4c b0 bd 34 89 90 be
       -0.02115245 -0.060644392 -0.08608385 -0.28229678
000190 88 b0 ec bd dd 70 28 bb d2 18 aa be 1c b4 f9 3c
       -0.11557108 -0.0025702037 -0.3322206 0.03048139
0001a0 9a 17 e4 bc 29 be 36 be d0 b6 c4 3d a5 3d 0f be
       -0.027843285 -0.17845978 0.09605181 -0.1398836
0001b0 d0 f3 00 be 9a e3 e5 3d 1e 69 4d bd 0e d0 a3 be
       -0.12593007 0.11225052 -0.050149076 -0.3199467
0001c0 ee c5 73 be 53 b3 68 be f1 39 a0 3d a4 a3 5e 3e
       -0.23805973 -0.22724657 0.078235514 0.21742111
0001d0 11 34 6f 3d 81 c0 35 be d6 dc 5b 3c 3f 00 32 be
       0.058399264 -0.17749216 0.013419351 -0.17382906
0001e0 08 4c 55 bd 20 92 4c be df 66 94 bc 9a 3c a4 bd
       -0.052074462 -0.19977617 -0.018115459 -0.08019371
0001f0 1c c0 ab 3d 94 12 9b be db f5 43 be 59 ce af be
       0.08386251 -0.3028761 -0.19136755 -0.34337118
000200 d3 b4 5c 3e f5 0b 4a 3e ae 05 71 be 05 46 97 be
       0.21553354 0.19731124 -0.23537323 -0.29545608
000210 2d 81 0f be c2 35 09 3e dd 3a 01 bd 2b ad 0b bc
       -0.1401412 0.13399413 -0.031550277 -0.008525173
000220 57 f6 b1 bd 90 8c 5e be 51 ca 17 3e 0b c5 d2 be
       -0.08689564 -0.21733308 0.14823271 -0.41165957
000230 39 b3 11 3d 91 3f de 3c 98 7a 03 3e 6e 8d 89 be
       0.03557131 0.02712992 0.12839735 -0.26865715
000240 63 2d a1 3e 73 69 32 3e 48 ec 00 be ea 27 ef 3e
       0.3147994 0.17423038 -0.12590134 0.4671014
000250 f3 41 80 3e 05 2f 4e 3e 54 03 f1 bd da fc 05 be
       0.25050315 0.20135124 -0.11768213 -0.13084736
000260 0d 3a 87 be ff 21 9c be c7 5a 9e 3e 1c 3b b9 3d
       -0.26411477 -0.30494687 0.30928633 0.09044477
000270 b8 02 82 be cf 40 a4 be 19 11 68 be e8 3c 9f 3e
       -0.253927 -0.32080695 -0.22662772 0.31101155
000280 d9 9f 56 3d f8 04 25 3e 56 a3 1b be 27 b5 91 3e
       0.052398536 0.16115177 -0.15199026 0.2845852
000290 41 9a 92 3d a2 18 a0 3e 42 07 7e 3e 98 ac 0c 3e
       0.07158328 0.31268793 0.24807456 0.13737714
0002a0 c0 8e 85 be 6d 0c ad bd 0a 94 6b 3d 14 34 31 3e
       -0.26085472 -0.08449636 0.057514228 0.17305022
0002b0 6b fa 31 3e 25 10 28 be 17 a4 29 3e 87 44 02 be
       0.17380683 -0.16412409 0.16566502 -0.12721454
0002c0 e9 02 82 3e 4e f1 6e 3e 8d 3e 81 3e 89 fe 6f 3d
       0.25392845 0.23334238 0.25243035 0.058592353
0002d0 9e 92 14 be e7 1c 91 3e cb 6c d5 bd 97 a5 a3 bc
       -0.14509055 0.28342363 -0.10421141 -0.01997642
0002e0 33 20 95 3e 88 ce 40 3e dc 15 08 3e a4 70 c0 3e
       0.2912613 0.18828785 0.13289589 0.37585938
0002f0 79 cb 32 3d 44 a4 79 be 8b e9 29 be e2 15 24 3e
       0.043651078 -0.24379069 -0.16592996 0.16023973
000300 1e 4a a0 be 26 93 37 be 30 aa 41 bc 08 8b 29 bd
       -0.31306547 -0.17927226 -0.011820361 -0.041392356
000310 9f b7 1a 3e 6b 48 a5 be 88 07 c5 bc 72 cd da bd
       0.15109108 -0.32281813 -0.024051443 -0.10683717
000320 ed 52 b3 bd 2c f3 ba be bf 41 f4 bd 77 89 a9 bc
       -0.08756051 -0.3651365 -0.119266026 -0.020695431
000330 46 d8 60 be 6b da 92 be 9c f2 3f be 63 44 89 be
       -0.21957502 -0.28682265 -0.18744892 -0.26809987
000340 44 00 d7 bd f8 f7 19 bd 70 3f 33 be f0 3e d3 3d
       -0.104980975 -0.037589997 -0.17504668 0.10314739
000350 f1 34 30 bc 05 2b a2 bc 2e 31 8c bd b0 5e a1 be
       -0.01075481 -0.019795904 -0.06845318 -0.31517553
000360 17 dc c9 3d 5a e3 d3 bd fe dc 03 3d 79 06 a4 3e
       0.09856432 -0.10346098 0.032193176 0.32036188
000370 2a ae 5b bd 21 1a 29 bd ec 9a c2 3c b2 d5 10 3e
       -0.053632893 -0.041284684 0.023755513 0.14144018
000380 e1 5d 10 be 6d a7 8c bd 00 7b 00 be a5 14 a8 be
       -0.14098312 -0.068678714 -0.12546921 -0.3282825
000390 b0 e0 92 be 84 e3 92 be ea f5 ad bd e5 66 31 3e
       -0.28687048 -0.28689206 -0.0849417 0.17324407
0003a0 bb a5 64 bd 8f 29 bd bd 43 24 1c be 25 78 b9 bd
       -0.055822115 -0.09236442 -0.15248208 -0.09056119
0003b0 3d 07 52 bd 13 e4 39 3d 03 64 e0 bd c8 bc 8e be
       -0.051276434 0.045383524 -0.10956576 -0.27878404
0003c0 fe 0e 57 3b 95 be c0 bd fb 72 a8 bd 27 47 17 3e
       0.0032815333 -0.09411351 -0.08225056 0.14773236
0003d0 37 e6 ce 3d 02 7a 84 be 86 4f a8 3d 22 bc 94 3e
       0.10102504 -0.25874335 0.08218293 0.29049784
0003e0 8b be aa be 9b 7c 9f bd cb 2a 20 be 40 b6 b1 be
       -0.33348498 -0.077874385 -0.15641324 -0.34709358
0003f0 2b 53 0a 3d be c9 4f be 8a 6f 4d bd aa 6b a5 be
       0.03377072 -0.20291802 -0.0501552 -0.32308704

weight_hh_l0 f4 [128, 32]
000000 1a 77 f2 bd 76 4d a1 3d c1 ee 27 be 89 a6 a1 3d
       -0.11839123 0.078761026 -0.16399671 0.07893092
000010 3f 1a ee 3c 51 5a 08 3e 07 10 d1 bd 83 74 86 bd
       0.02906525 0.13315703 -0.10208135 -0.065651916
000020 13 e4 04 be 73 8e 2e 3d 75 cd 9a 3d 7c 1e dd 3d
       -0.12977628 0.04261632 0.07558719 0.1079683
000030 9a e6 57 3e 5c 3d 2e bc 5b b6 17 bd f7 1d 82 bc
       0.21084061 -0.010634746 -0.037039142 -0.015883429
000040 f1 19 aa 3d 02 55 ec bd f6 f1 c1 bb d3 6e 97 3d
       0.08305729 -0.115396515 -0.0059187366 0.07394185
000050 c5 f8 88 3d 71 2f 09 be 3b 86 28 be 0b 50 11 3d
       0.06688074 -0.13397004 -0.16457455 0.035476726
000060 f4 b4 50 be ad d0 16 3e fb 01 53 be 7d 04 58 3e
       -0.20381528 0.14728041 -0.20606224 0.21095462
000070 9e a5 2b 3c cb a8 73 be ee 42 b0 bc b6 a8 ea 3d
       0.010476498 -0.23794858 -0.02151629 0.1145796
000080 4c cf fb bd 10 ff 45 bc 14 8c 1b bb 75 4f bb bd
       -0.12295398 -0.012084737 -0.0023734616 -0.091460146
000090 00 fb b2 3d 30 9c 36 3e c3 6c 49 be 25 c4 5f bc
       0.08739281 0.17833018 -0.19670396 -0.013657604
0000a0 e5 fa cb bd 0c d8 1a 3e 1f df 82 be c8 b4 be bc
       -0.09959964 0.15121478 -0.25560853 -0.023279563
0000b0 86 79 54 3e a6 c9 e3 3c cb 69 d4 3d 12 41 11 bd
       0.20749483 0.027806114 0.10371741 -0.035462447
0000c0 98 8a 23 3c d7 1d fa bd bf 22 df 3b 93 c1 9f 3d
       0.009981774 -0.12212723 0.006809562 0.07800593
0000d0 53 28 5d 3e 4f ec 7e be d2 45 ad 3d 56 58 55 3e
       0.21597414 -0.24894832 0.08460583 0.20834479
0000e0 41 4e 40 bc 36 83 41 be 79 f4 ce bd 8d 90 65 bd
       -0.011737407 -0.18897709 -0.10105223 -0.056046057
0000f0 b3 fb 07 be 8a 70 e4 3c b7 44 13 3d 97 fe a1 bd
       -0.1327961 0.027885694 0.035954203 -0.07909887
000100 3f 81 eb bd 15 1b bb 3d fe a8 8f 3b 9b 54 b9 bd
       -0.11499261 0.09136025 0.004384159 -0.0904934
000110 79 c8 a9 bd 8f b7 99 3d 5e 9c 02 be 44 7e cc 3c
       -0.0829019 0.07505714 -0.12754962 0.024962552
000120 8d 9a 18 be 00 4c 1d be b4 cf 37 be 8b 45 3b bd
       -0.14902706 -0.15361023 -0.17950326 -0.04572062
000130 5b 3e e4 3c 46 18 72 3e a1 07 a7 3d 32 cd 30 be
       0.027861765 0.23642072 0.08155752 -0.17265776
000140 f2 0a 86 3b 6e 02 0a bc 1c a9 6e be 4d 33 73 be
       0.0040906603 -0.008423431 -0.23306698 -0.23750038
000150 b1 97 1a bd b7 25 eb bd 01 cd 27 be 34 82 73 3e
       -0.03774232 -0.11481803 -0.16386797 0.23780137
000160 29 07 03 be 21 24 bc 3d 7b 23 14 be b3 03 86 bd
       -0.127957 0.091865785 -0.1446666 -0.06543674
000170 e1 b8 0b be 32 2c 92 3d 75 31 fe 3d 5d b5 64 be
       -0.13644744 0.07137336 0.12411777 -0.2233481
000180 e9 6a f1 3d 4b 3b 55 3d 66 d1 59 3d cc c1 84 bd
       0.117879696 0.0520585 0.053178214 -0.06482276
000190 a3 db 2e 3d 8c a8 57 3e e6 c9 d7 3d 39 7e 11 3e
       0.04268993 0.2106039 0.10536556 0.14208306
0001a0 f0 3e eb 3d 90 22 f9 3d 60 62 3f bd a9 03 23 3d
       0.11486614 0.121647954 -0.046724677 0.039798412
0001b0 47 34 40 3d df ec ff bd 2f 8c 95 b9 79 d2 54 be
       0.046924856 -0.124963515 -0.0002852394 -0.20783414
0001c0 db f6 62 be aa 5b 1b be 6f d5 08 be 63 31 64 be
       -0.2216448 -0.15171686 -0.13362668 -0.22284465
0001d0 2b 8e 4c 3c 02 61 80 3d a5 d7 8e bd f6 54 27 bd
       0.012485067 0.06268503 -0.06974725 -0.04085251
0001e0 3d 79 88 bd e9 55 c6 3d 24 79 19 be 5c d9 0d bd
       -0.06663749 0.09684355 -0.14987618 -0.03463112
0001f0 2c 77 9d bd 24 7a 8e bd 94 d3 74 3e ef 03 5c be
       -0.07688746 -0.0695689 0.23908836 -0.21485876
000200 5b d0 6c bd 94 c8 21 3e ef 97 28 bd 65 bb 8c 3d
       -0.05781589 0.1579917 -0.04116052 0.0687168
000210 c2 2e 0a 3e 75 22 9f 3e 47 12 eb 3d 34 46 40 bd
       0.13494399 0.31080976 0.114780955 -0.04694195
000220 5a 78 fe 3b a1 04 ab 3d fb 2f 41 be 76 61 16 3c
       0.007765812 0.08350492 -0.1886596 0.00917851
000230 50 58 c2 3d 05 2b cc 3d ac af 1d 3e ce 80 dd bb
       0.094895005 0.09969143 0.15399045 -0.0067597395
000240 fd e0 55 be 67 73 aa bc ab c0 1a bd 97 22 81 bd
       -0.20886607 -0.020806981 -0.0377814 -0.063054256
000250 5a ed 1b 3e 75 e5 bf 3d e7 e6 e4 3d f9 d1 b2 bd
       0.15227261 0.09369937 0.111768536 -0.08731455
000260 1a 1c 47 be 6e 78 12 bd bf 86 5b be 8d 20 9a 3d
       -0.19444314 -0.035759382 -0.2143812 0.0752574
000270 f3 47 9e bd 6d fd df 3d 95 0d 11 3e 0f 82 6f bd
       -0.07728567 0.10937009 0.14165337 -0.058473643
000280 93 2d e5 bd a5 a7 e6 bc d3 87 18 be ef f0 77 be
       -0.11190333 -0.028156111 -0.14895563 -0.24213003
000290 35 58 08 3b 12 74 66 3e 4f ec 4e be 8d 6d 6c 3e
       0.0020804529 0.22505215 -0.20207332 0.23088665
0002a0 86 3c 07 bd bd c9 ce 3d e2 6e 89 be fc 0d 25 3e
       -0.033016704 0.10097072 -0.2684241 0.16118616
0002b0 c9 a0 ff 3d 4d e6 10 be 40 8a 04 3e 99 bb 61 be
       0.12481839 -0.14150353 0.12943363 -0.22044219
0002c0 42 53 55 be f1 e5 93 3d 90 83 29 be 91 80 4b 3c
       -0.20832542 0.07221592 -0.16554093 0.012420789
0002d0 68 13 7f bc 6b 19 25 be 44 37 a8 be e4 c8 0a 3e
       -0.015568592 -0.16122977 -0.32854664 0.13553196
0002e0 a4 10 d4 3c a2 87 ac 3c 8e c3 ae 3d 9c 3a 29 bb
       0.025886841 0.021060769 0.08533393 -0.0025822287
0002f0 c1 60 f5 bd 29 6b 63 be 52 94 85 3e 34 2a 17 be
       -0.11981345 -0.22208847 0.26089722 -0.14762193
000300 15 57 85 3d 73 38 63 3d f3 ee 7c bc 6d 45 88 bd
       0.0651075 0.055473756 -0.015437829 -0.06653867
000310 16 59 6e 3e 5e dd 14 bd 8e 78 49 be a6 65 da 3d
       0.23276171 -0.036343925 -0.19674894 0.10663919
000320 df 71 38 be 72 48 84 bd cf 18 68 bc e1 ef 20 3e
       -0.18012188 -0.0645913 -0.014166071 0.15716507
000330 1a e8 df 3d b9 b2 02 3e fe bf 67 bd 5f 47 4a be
       0.10932942 0.1276349 -0.056579582 -0.19753788
000340 50 48 ba bd 31 b6 83 bd 50 21 92 3d 02 f3 09 be
       -0.09095824 -0.06431235 0.0713526 -0.13471606
000350 ee 09 5d 3e 19 ef a0 3d 21 22 3d be 18 2a 34 3e
       0.21585819 0.07858104 -0.1847005 0.17594182
000360 62 7c b3 bd d6 9c 9e 3d af 0b 1d be ff 1f b7 3d
       -0.087639585 0.07744758 -0.15336488 0.0894165
000370 6e 85 8a bc fb e4 27 be 90 50 22 bd f8 29 98 bd
       -0.016909327 -0.16395943 -0.03962761 -0.0742988
000380 e4 18 99 3d 8b c4 3d 3e ba 4a 19 bd cb 3c e4 3c
       0.07475451 0.18532006 -0.03742478 0.02786102
000390 25 8e f7 3d 01 43 51 bd da 85 23 3d 43 f3 eb 3d
       0.12087659 -0.05108929 0.039922573 0.11521008
0003a0 6e 15 55 bd d9 4d 5f be dc 3a 28 be d4 e1 54 3e
       -0.05202239 -0.2180704 -0.16428703 0.20789272
0003b0 4e 11 47 3e a9 5b 9a bd bd 2a 1d 3e b5 e6 40 bd
       0.19440195 -0.07537014 0.15348335 -0.04709502
0003c0 e7 79 82 3d 88 df df bd 85 1b 81 be 79 0d 64 3d
       0.06370907 -0.10931307 -0.25216308 0.05567691
0003d0 61 97 46 3b bc 0e 8f bd c0 04 14 be 12 38 88 bd
       0.0030302631 -0.06985232 -0.14454937 -0.066513196
0003e0 78 15 bc 3b 85 c8 3b be 36 64 60 bb 31 9e 28 3e
       0.005739864 -0.18338211 -0.0034239418 0.16466595
0003f0 e2 4d 43 bd e9 b1 5d 3d 71 2d 0c 3e 16 07 58 bc
       -0.047681697 0.054124746 0.1368921 -0.013185283

bias_ih_l0 f4 [128]
000000 f1 3c 34 bd 5f 92 83 bd 68 d2 f6 3d e5 ee ea 3d
       -0.04400343 -0.064244024 0.120518506 0.11471347
000010 78 d8 ba 3b ca 9e 58 3e 4d eb 51 3e 03 f4 85 bd
       0.0057020746 0.21154323 0.20499916 -0.06540682
000020 19 31 16 3d 8e 2c 4e 3e 7f 3f e8 bd 6d 06 24 be
       0.036667917 0.20134184 -0.11340236 -0.16018076
000030 3f 15 57 3d 48 46 b0 3e 03 a9 fe bd 1e e1 39 3e
       0.052510496 0.3442862 -0.1243458 0.18152282
000040 d7 71 77 3d eb 09 18 3e 83 68 66 3e 85 e9 d4 bb
       0.0604113 0.14847533 0.22500806 -0.0064975643
000050 8c 46 4d 3e af 6a bd bc fc 00 b0 bd 43 bb 4a bd
       0.20046443 -0.02312216 -0.08593938 -0.049494993
000060 40 a2 93 bb 3a cd 3a 3e c7 8d 6f 3d a8 69 95 3d
       -0.0045054257 0.1824235 0.05848482 0.07295543
000070 6c 6c 0f 3e 69 98 11 3e ea 2c 3a 3e 5b a3 36 3d
       0.14006203 0.14218296 0.18181196 0.04458938
000080 94 7b 40 3e 86 d9 ba bd 53 f5 84 bd ac e4 cb bd
       0.18797141 -0.091235206 -0.064921044 -0.09955725
000090 d1 50 d4 bc 85 88 3c 3e 0d 31 30 3c 16 f9 4c 3e
       -0.025917443 0.18411453 0.010753882 0.20016894
0000a0 88 8c 3d 3e e3 32 91 3e ec f9 67 3d 20 02 28 3e
       0.1851064 0.28359136 0.05663483 0.1640706
0000b0 6d 44 53 bd 4c 93 b9 3e ad b7 4f 3d 77 a6 8a 3d
       -0.051578928 0.3624519 0.050712276 0.06770032
0000c0 c9 cf ad bd 87 73 6f 3e 1c 9b 49 3e f7 a1 75 3e
       -0.084868975 0.23383914 0.19688076 0.23987566
0000d0 7e 30 b8 3d 73 de f6 3d 62 5a 45 bd 08 ed a2 3c
       0.08993624 0.120541476 -0.0481819 0.019888416
0000e0 03 39 fa bc 13 fb 8e 3e 14 8a 86 3d ae 68 6a 3e
       -0.030544763 0.2792593 0.06569305 0.22891495
0000f0 5e 74 e0 bd cf a1 9f 3d 07 58 3a 3b c8 32 46 3c
       -0.10959695 0.077945344 0.0028433816 0.012097068
000100 07 ea dc bd 5c be 8b 3d 58 8f 67 3d e9 6e 53 be
       -0.10786825 0.068234175 0.056533188 -0.20647778
000110 b5 5f 1d 3d ab 1b ac 3d 4c 9c a3 3d ed c6 e7 3d
       0.03842135 0.08403715 0.07988796 0.11317239
000120 a0 fa dc 3d 41 a0 89 bd 20 20 a0 3d 8c 4f 26 3d
       0.107899904 -0.06720019 0.07818627 0.040603206
000130 9e 63 67 3d 5c 8f ff 3c c5 b4 ef 3d 97 9f c9 bd
       0.056491487 0.031196289 0.11704401 -0.098448925
000140 d1 7b 40 be 74 08 f5 bd f9 de 0a 3e 7b a9 cd bd
       -0.18797232 -0.11964503 0.1356162 -0.100420915
000150 1d 98 7c 3d e9 24 4e be 85 f7 e2 bd b2 6c 25 3e
       0.061668504 -0.20131268 -0.11082367 0.16154745
000160 e6 23 06 be 5e bd 9d bd 0c f2 ea 3d c4 d9 7f 3d
       -0.13099632 -0.077021345 0.11471948 0.062463537
000170 22 a2 87 3c 3e c3 be bd 6c 19 48 bd dd 42 04 3d
       0.016556803 -0.09314583 -0.04885237 0.03229033
000180 88 b7 ad bd f8 b3 3e 3e df 11 41 3e c0 14 18 3e
       -0.084822714 0.1862334 0.18854474 0.14851665
000190 52 2c c2 3d d0 75 88 3e 65 1e 46 3e 79 44 56 3d
       0.0948111 0.26652384 0.19347532 0.052311394
0001a0 fd 1d b1 3c 33 72 8b 3e 07 cf 2c 3d b0 f2 05 be
       0.021620745 0.27235565 0.042189624 -0.13080859
0001b0 69 60 a4 bd 0b 4c b5 3e 41 4d 8a 3d 2e 37 59 3d
       -0.08026201 0.3540958 0.06753016 0.05303114
0001c0 7a 92 b7 3d 0e d9 cb bd 6e b8 13 3e 1d 8d 08 3e
       0.08963485 -0.09953509 0.14425823 0.1333508
0001d0 a9 6b 4f bd 39 64 17 3e 70 ae ec 3c 2f 70 ba bd
       -0.050639782 0.14784326 0.028891772 -0.091034286
0001e0 71 03 4e 3e f2 a8 91 3e 35 00 60 3e fd 44 27 bd
       0.201185 0.28449208 0.21875079 -0.040837277
0001f0 3c 62 c8 bd 02 16 42 3c db e0 17 3e 38 55 01 bc
       -0.09784362 0.011846067 0.1483187 -0.007893853

bias_hh_l0 f4 [128]
000000 0f 7a 3d 3e 16 ee 47 3e 4f b1 4f 3d 28 13 5e bd
       0.18503593 0.19524416 0.050706204 -0.054217488
000010 9c 42 cc 3d db 33 99 3e eb 78 2a bd 88 6c 1e 3d
       0.09973642 0.29922375 -0.041619223 0.038677722
000020 1c 3a ec 3d a3 04 8c 3e 88 b5 bb 3d 2b f5 46 3d
       0.11534521 0.27347288 0.09165484 0.048573654
000030 13 4d 59 3d 58 07 b5 3e f5 e9 d6 3d 12 2e 6e 3e
       0.05305202 0.35357165 0.104938425 0.23259762
000040 11 6d 19 3c b8 08 8e 3d 0b 00 0a 3e c8 c6 52 bd
       0.009364382 0.06935257 0.13476579 -0.051459104
000050 3a 76 52 3e 87 c4 b0 3d a0 72 55 3e 9b d8 fb bd
       0.20552912 0.086312346 0.20844507 -0.122971736
000060 b2 5b e4 bd 94 4b cb 3d 25 2d ba 3c fd 36 be bc
       -0.11150302 0.09926525 0.022726605 -0.02321958
000070 dd e2 29 3e 9f 62 2a 3e a9 ec 27 3d e3 a6 96 3d
       0.16590448 0.16639183 0.04099718 0.0735605
000080 3d 37 5c 3d b8 e4 04 3e da ad 71 3d 22 f0 9e 3b
       0.053763617 0.12977874 0.05900369 0.0048504034
000090 10 0a 7e bc 25 4d 8d 3c 36 19 e6 bd ca e9 b7 bd
       -0.015505329 0.0172487 -0.11235277 -0.089801386
0000a0 7a bf 9c bd c1 d3 d6 3d 3a 51 ca bc 82 dc 6e 3d
       -0.07653709 0.104896076 -0.024696935 0.05831576
0000b0 bb 64 be 3d 59 47 c0 3e d3 89 d8 bd cf fc cb bb
       0.092965566 0.37554434 -0.10573163 -0.0062252055
0000c0 50 90 8e bc 24 1a d7 bc 9c 7d 54 3d b9 d3 57 3d
       -0.017402798 -0.026257582 0.051877603 0.05269215
0000d0 50 a3 a8 3d bb d7 32 3d 12 f3 c5 3d 0e c0 02 be
       0.082342744 0.043662768 0.096655026 -0.12768576
0000e0 d8 33 c8 bb c0 f8 a5 3e 52 2c c1 bc 39 2c 23 3c
       -0.006109696 0.32416344 -0.023580704 0.009959274
0000f0 cd f7 b5 3d 62 24 ea bd ea fc ee bd 2a 96 41 3e
       0.08885155 -0.11432721 -0.11669333 0.1890494
000100 b3 44 92 3d 35 7d b0 3d 0c 5a 07 be 63 75 31 be
       0.071420096 0.08617631 -0.13217944 -0.17329936
000110 14 35 e5 3d b5 13 f0 bd e0 96 fe bd c2 67 e6 3d
       0.111917645 -0.11722509 -0.12431121 0.11250259
000120 7c 7f 1c be aa 30 1f 3e f6 a6 4b 3b 70 7b 17 3e
       -0.15283006 0.15545908 0.0031074858 0.14793181
000130 c1 5d 90 3c f6 26 d5 3d ff ce c0 3d ba 5d 08 3c
       0.01762283 0.10407822 0.09414481 0.008323127
000140 40 e6 ca bd f4 11 53 3d 05 21 17 be b3 79 1b bb
       -0.09907198 0.051530793 -0.1475869 -0.0023723661
000150 c0 7b de 3d 85 74 23 be c1 12 aa 3c 95 1b c7 3d
       0.10863447 -0.15962417 0.020760896 0.09722058
000160 e6 e4 88 bd fa 01 15 3e 1a 41 b7 bd 2b f9 a0 3d
       -0.06684284 0.14551535 -0.08947964 0.07860025
000170 ca 56 07 be 38 f7 06 be 36 67 34 3e 39 cf 16 be
       -0.13216701 -0.13180244 0.17617497 -0.14727487
000180 cf de 37 3e 32 19 26 3e 3c 1f b4 3d 7b 41 f1 bd
       0.17956088 0.16220549 0.0879502 -0.117800675
000190 16 80 a0 bd 67 37 8f 3e ae d1 f2 3d ac 0f 01 3e
       -0.078369305 0.27971956 0.118563995 0.12603635
0001a0 58 7e 84 3d 24 f6 91 3e f0 1c 4e bc 64 5b e1 bd
       0.06469411 0.28508103 -0.012580141 -0.110037595
0001b0 69 3c 94 bd 32 5f 5a 3e e8 78 08 3e c3 d5 1e 3e
       -0.07238085 0.21325377 0.13327372 0.15511231
0001c0 f1 6e 73 3e 6a 8c 28 bd 92 1e 9f bd 02 fa f2 3d
       0.2377279 -0.041149534 -0.07769503 0.118640915
0001d0 84 de 8a bd 6c 36 2d bd 68 59 19 3e 5c 71 48 3e
       -0.06780723 -0.04228823 0.14975512 0.19574493
0001e0 10 e5 9b 3d 25 16 d2 3e a5 30 e8 3b ff 07 14 3e
       0.076120496 0.4103252 0.007085877 0.14456175
0001f0 e8 ef 35 3e 46 de a1 3d 65 ca 95 3d 0d b8 68 3d
       0.17767298 0.079037234 0.07313994 0.05681615

weight_ih_l0_reverse f4 [128, 2]
000000 02 6f 27 bb 1c 78 7a be 56 76 07 3d e0 a2 b4 bd
       -0.0025548344 -0.2445988 0.03307184 -0.088201284
000010 b8 8f 92 bd 3f 52 36 be 29 1a 2e 3e 29 48 93 be
       -0.071563184 -0.17804812 0.17002167 -0.2876599
000020 c5 32 ab bc 91 80 00 be ee d2 f2 bd 6c 14 81 be
       -0.020898232 -0.12549044 -0.11856638 -0.25210893
000030 fa 71 5e 3d 59 53 5e 3e 6e b9 84 bd a8 4d b0 be
       0.054307915 0.21711482 -0.064806804 -0.34434247
000040 4d 10 11 3e 60 93 b9 be d3 3a 29 be f1 b6 15 bd
       0.14166375 -0.3624525 -0.16526346 -0.03655142
000050 b6 6c 36 be 1f 4d fc bb b1 8f 82 3e 24 90 95 be
       -0.17814907 -0.0076996232 0.25500253 -0.29211533
000060 7b 99 57 bd 11 2e 14 be 34 1f 3a be 6c 75 b3 be
       -0.052636605 -0.14470698 -0.18175966 -0.35050523
000070 11 65 00 3e b3 58 1a 3d 5f 70 9a bb b8 31 97 bc
       0.12538554 0.037682246 -0.0047131027 -0.018456325
000080 57 a1 ee bd e6 22 12 be 77 8a c1 bd 9c c7 70 be
       -0.11651867 -0.14271125 -0.09450238 -0.23513645
000090 96 27 6b be 5b 63 6c bd 78 bb cb bd 84 5c 2e 3c
       -0.2296432 -0.05771194 -0.09947866 0.010642175
0000a0 8b 2b 73 be 9c a8 28 3e 6d 03 44 be 56 bd e3 bd
       -0.23747079 0.1647057 -0.19141932 -0.11120097
0000b0 8a 23 01 be 05 94 2f bd 3f 7a 25 3e 44 4d 12 be
       -0.12611213 -0.04286577 0.16159914 -0.14287287
0000c0 85 e9 0d be 9c 1f 9d bd a9 2b 1f bd d0 80 73 3e
       -0.13858612 -0.07672045 -0.038859997 0.23779607
0000d0 b6 9d 81 3d 16 0d 0e bd ff ec 13 be ba 6a 85 bd
       0.06328909 -0.03468045 -0.14445876 -0.06514497
0000e0 76 e2 b1 3d e9 c8 bb bd a6 90 dd bc 23 73 96 bd
       0.08685772 -0.0916918 -0.027046513 -0.07346179
0000f0 26 10 11 3e 2c 27 8e be b8 09 ff bd 66 8b 3d be
       0.14166316 -0.2776426 -0.124530256 -0.18510208
000100 0a 78 16 be 85 90 70 3c bc 30 c0 3d 76 be 2c be
       -0.14694229 0.014682894 0.09384295 -0.1686953
000110 62 34 3a bd f9 82 a4 bd 00 ab 9b 3d fc 23 9a be
       -0.045460112 -0.080327936 0.07600975 -0.3010558
000120 a0 d5 b6 bc 50 a8 61 bd 9b a9 fc 3d fa 85 71 bd
       -0.022318661 -0.055092156 0.12337037 -0.05896566
000130 41 70 37 be 8d 52 9a 3e f1 88 b1 39 96 0b 04 be
       -0.17913915 0.30141106 0.000338621 -0.12895045
000140 28 6a 45 3e 25 68 40 be 1d 0b 24 bd e6 a4 6b be
       0.19278777 -0.18789728 -0.04004966 -0.23012123
000150 3e 1c 38 3e f4 75 57 be a3 26 71 3e af f2 85 be
       0.17979524 -0.2104109 0.23549895 -0.26161715
000160 11 9c 17 bc a0 a1 ed bc 87 ba 1c bd 1c a6 9e be
       -0.009253518 -0.029007733 -0.038263824 -0.30986106
000170 f9 44 3e 3d 61 67 e4 bd 92 04 ab bd 80 c0 b5 bd
       0.046452496 -0.111525305 -0.08350481 -0.08874607
000180 7a 19 fb 3c 70 eb 19 be d9 ed ad bd 15 18 ae bd
       0.030651797 -0.15031219 -0.084926315 -0.08500687
000190 aa b4 77 be 64 78 a4 bd da 8a 16 be 73 ff da bc
       -0.24190012 -0.08030775 -0.14701405 -0.026733136
0001a0 88 12 99 bd 60 f5 c3 3e 93 52 5f bd 1a f8 1f be
       -0.07474238 0.38273144 -0.05452211 -0.15621987
0001b0 ab bb 0a 3e 8d 45 9b be e1 71 12 be 70 90 11 be
       0.13548152 -0.303265 -0.14301254 -0.14215255
0001c0 9b 03 f3 bc 62 98 90 be 8a b1 13 3e 9a 4d 10 3e
       -0.029664805 -0.2824126 0.14423195 0.14092103
0001d0 a2 0f e4 3d 98 fb eb bd a9 df e3 3c 08 db 9c be
       0.11135794 -0.11522597 0.02781661 -0.30635858
0001e0 62 87 78 3b 3a 42 14 3d 4e 03 13 3e 79 e0 9e bd
       0.0037922491 0.03619597 0.1435673 -0.077576585
0001f0 b0 5c 3b 3e 4e 45 61 be 85 d8 cb 39 88 99 98 be
       0.18297076 -0.21999094 0.00038880497 -0.29804635
000200 14 f5 36 be 9d 11 78 be bc c0 4a 3e 48 24 d4 3e
       -0.17866927 -0.24225469 0.19800085 0.4143393
000210 b6 21 b3 bc 11 e2 6e be 77 02 89 bc 26 92 9c be
       -0.02186666 -0.23328425 -0.016724808 -0.30580252
000220 df 40 7a 3d 99 66 b9 3e f6 ad 54 3e 06 94 84 3e
       0.061097022 0.36211088 0.20769486 0.25894183
000230 62 d4 25 3d 29 c3 ae be 2a 6a 3c be 12 37 a5 3e
       0.040485747 -0.3413327 -0.18399873 0.32268578
000240 51 c7 21 be 15 9b b5 3d 42 2f cb bd 04 9e a5 3e
       -0.1579869 0.0886747 -0.09921123 0.3234712
000250 20 b7 1c 3e 60 b8 8d be 97 5d 7e 3e 36 ac 4f be
       0.15304232 -0.2767973 0.24840389 -0.20280537
000260 c6 5a 40 3e e2 25 50 be fd f4 2b 3e 7d 54 01 be
       0.18784627 -0.20326951 0.16792674 -0.12629886
000270 f6 fd 8e bd 37 96 cb bc 43 f6 0c 3e b2 62 97 3e
       -0.06982033 -0.024851901 0.13765816 0.29567486
000280 54 43 cf 3d 8f 43 71 3e 03 ff 99 3c 1a 5f de 3e
       0.10120264 0.23560928 0.018798357 0.43431932
000290 ec 17 2c 3e 6e 0b 93 3d 7a 4e 8b be 8a 65 83 be
       0.16806 0.071799144 -0.2720831 -0.25663406
0002a0 6e 46 89 be 9a 0a 60 be 31 a5 45 3e 34 e1 7b be
       -0.26811546 -0.21879044 0.19301297 -0.24597627
0002b0 ee 9b 3e be ec 04 92 3e 51 4d 9e 3d 38 92 b0 3e
       -0.1861417 0.2851938 0.07729591 0.34486556
0002c0 7e 3b 0a bd 51 fc af 3e 68 49 9b 3e c9 a1 bc 3d
       -0.033748142 0.3437219 0.30329442 0.092105456
0002d0 2d 00 ca bd 19 51 2c 3e 6d 8d 59 3d 68 7d bf be
       -0.09863315 0.16827811 0.05311339 -0.37400365
0002e0 56 5b 99 be f7 e7 a5 3e 07 5b 30 3e 2a a8 58 3e
       -0.29952496 0.32403538 0.17222224 0.211579
0002f0 0d 1c 2a 3e 49 36 a1 be 06 be 72 3e 0b 19 2c 3e
       0.16612263 -0.3148673 0.237053 0.16806428
000300 0b 0a c5 3d 89 7f 28 be 4c 52 92 3d 46 fa 2a 3a
       0.09621056 -0.16454901 0.07144603 0.0006522279
000310 f4 0c 31 bd 9e 0f 87 be ed 93 04 be 3f fe 8f be
       -0.043225244 -0.26379102 -0.12947054 -0.28123662
000320 d3 68 d4 bd 92 a3 59 3d 66 2d 72 be 38 3b f8 bc
       -0.10371556 0.05313451 -0.2365013 -0.030301675
000330 a2 6c 8a be 92 25 ba 3d d1 c5 47 3d 73 4c 9f be
       -0.27036005 0.09089197 0.048772637 -0.31113014
000340 7d b2 2f 3d d9 a2 66 be ab fe cc bd df 32 6c be
       0.04289483 -0.22523059 -0.100095116 -0.23066281
000350 26 8a b2 3d 17 0d 73 be a5 3d 8a 3e f9 e8 a7 be
       0.08717756 -0.23735462 0.27000156 -0.32794932
000360 8b f5 56 3e 46 d1 59 be 44 c8 99 bd 4d 68 4c be
       0.20992105 -0.21271238 -0.07508901 -0.19961663
000370 18 7e 24 3e 3f c8 01 bd d7 7c 09 be e4 48 5c be
       0.16063726 -0.03168511 -0.13426529 -0.2151218
000380 3a b5 ed 3d 25 c8 ee bc f6 d5 fd bd b1 53 86 be
       0.11606832 -0.02914817 -0.123943254 -0.26235726
000390 e1 0c 2a be 95 96 c1 bd 83 24 86 be 1d 64 07 3c
       -0.16606475 -0.09452549 -0.2619973 0.008263615
0003a0 ad eb 26 be 7b 65 08 3d 13 f7 32 be 8f bd 8d 3c
       -0.1630084 0.033299904 -0.17477064 0.017302303
0003b0 9a f4 a4 bd 6d 3d 8f be 25 fc c4 bd 79 63 1c be
       -0.080544665 -0.27976552 -0.09618405 -0.15272321
0003c0 e8 b5 98 3c 63 2c 8a bc 85 23 93 3e 79 7b 08 3e
       0.018641427 -0.016866868 0.28738037 0.13328351
0003d0 dd 1b c4 bd 69 69 b4 3c ff 1c a8 3d 5d 6a 99 bb
       -0.09575627 0.02202292 0.082086556 -0.004681869
0003e0 3e 21 8f 3e 72 8f 40 be f7 43 b2 bc 1b 0e 92 be
       0.2795505 -0.1880472 -0.021760924 -0.28526387
0003f0 af fb 32 3d b4 44 34 be 0a c1 e9 bd c2 d4 41 be
       0.043697055 -0.17604333 -0.114137724 -0.18928817
