sgan-dataset/logs/univ/models_03_Mar_2019_13_48_01/model_registrar-1599.pt (torch_old, 575415 bytes, 45 tensors)

weight_ih_l0 f4 [128, 6]
00000000: d3f3 e0bd b8f4 92bc 7cbc f1bd fbad 3f3e
00000010: 99c8 fabd 4bf8 3d3e fbc0 32be 0a1c 53be
00000020: 868c 07be 140f 813e 01b8 573d 1598 f8bd
00000030: e01a 1dbe 8d57 f0bd 4b02 b0bd 45ac 08bb
00000040: 57a7 a6be 5bdb 4b3e d580 cdbd 3317 42bd
00000050: 2067 083e 3286 eb3d ab34 44be d89d 4b3e
00000060: ff43 febd f1f8 563c 71d8 67be 8e21 253e
00000070: 0621 a83d ca60 34be 2f22 2e3e ffad e33d
00000080: c3e0 adbc 0dc4 e43d 5144 753e d3d3 c33c
00000090: 26ba 4fbe e019 debd fbc2 90be 1e8d fc3b
000000a0: 3b01 53bd 1419 1cbe 79ac 04ba 28b3 473e
000000b0: ce04 00bf c125 133e 6140 98bd db7c 803d
000000c0: 8e1b 1a3e 73cd ca3d 3c1b 853d a7bc 1a3e
000000d0: bd9a 4fbd c842 c13c 86fa 5fbe 8ce8 a0be
000000e0: d1d2 4b3d eab8 bc3e a885 fbbd e09b 64be
000000f0: a564 39bd 75e3 e03d b276 f7be f1ab 553e
00000100: aa96 82bd 791b 8a3d 2c44 63bd 6cc8 b2bc
00000110: 8317 433d 6361 ea3d f2d1 1a3e a306 e93d
00000120: e9e4 57be 3d7a 71be 8cc7 cc3d 1234 5bbd
00000130: fd9e ad3d dd68 5abe 016a 0bbe 5be2 953c
00000140: 3d7f a43e 2f2b b83d 2233 22be 5773 e13d
00000150: 24d6 dfbd 734c 6fbd 3fff 54be 5c78 433e
00000160: f98c 62bd 967d 3dbd c9c0 27be 170f 1e3e
00000170: a707 d13d a6c5 b43e 4ef5 e03d f0aa cabb
00000180: d51b 9fbd 82b2 8abd 42b9 95bc 9e7d 853d
00000190: a6e7 b73d 4b68 dcbd ea30 a5bb 6204 1abe
000001a0: ac1b 0e3e 930b 62be 1b3f 22bc 602e 543e
000001b0: fb9c 3c3d cee8 61bd eade 403d fb7c bc3c
000001c0: 1e0c a53b ab1a 83bd 1fea d2bb f25c 593d
000001d0: c309 9fbe 3c15 cb3d 4301 ef3d 5b63 8b3e
000001e0: c7de a1bd 661c a53d 535d fa3e 8a15 63be
000001f0: 321d 5cbc 7cdf 87bd b16c cdbd 69b2 b0bd
00000200: 553e 48bd 6036 35be 0a6d cfbe c190 6d3e
00000210: 289f a3bc a9a3 0dbe 284b 94be 86e2 f8bd
00000220: 37b3 c93d 9103 2a3d 5a8a 2cbe fa4e 47be
00000230: 3aee 23be c7c8 863e 9a63 073e af2a 8d3e
00000240: a253 63bd 7983 23be 17ff a3be 75ae 353e
00000250: 2600 f0bd 2b25 30bd 9044 6cbe 3543 25be
00000260: 9280 7c3d b64f a03e e6d5 c9bc b8fb a83e
00000270: dceb 7cbe 58d7 cfbc b7ca 23be 58b0 1c3f
00000280: 7fcd 923e f013 d63e e670 40be 494b 213e
00000290: 0d5f f63e 67aa a53e a1b8 1cbd 826d 8b3e
000002a0: 9ebe f83d fb5e 0c3e 0142 25bd 9430 73bc
000002b0: 3c91 df3d 58c1 fe3d 29dc 72be 452e 66be
000002c0: 2b76 c8be 7b8f c8be df47 06bd d6c8 45bd
000002d0: cc2d 4ebd 1284 373d 4433 e43c 7ec8 ebbe
000002e0: 7248 30be 5c95 8ebd 3f66 cfbd d583 b03d
000002f0: 4825 0f3d 1a8a cabe ec54 15be 8ea7 45be
00000300: 3194 c03c f220 eb3d bb24 1bbe b210 41bd
00000310: 3f68 033e d162 d5bb c705 d73d b618 b3ba
00000320: 91aa 7dbd 0910 373e 8dcf b23d 5c46 38be
00000330: 178a 0bbe 6ab4 63ba ee5e eebc 2e75 c33c
00000340: f3e3 b3bd 03fd f33d 9ca7 39be b2a7 1cbe
00000350: b7dd 84bb e3a0 533e 8517 a1bd c9ea babd
00000360: 094a 3b3d c401 08be 149d d8bd e935 b83d
00000370: 9696 4abe dcbb a3bd aad6 ab3d abd8 f1bc
00000380: 65ec 65bb 533e 02be 7ca9 a03c 4814 26be
00000390: 91ba 1d3d 3cda 0cbd b2bb 01be 8ab3 fcbc
000003a0: 4562 efbd debc 4f3d bc18 4f3b fccc cbbd
000003b0: 6150 f0be eb9f 673d 542c 85bd 8c65 1a3e
000003c0: b034 ca3d bbde 0fbd 6b87 d8bd eb25 b1bc
000003d0: d67a 353d 5222 073e 0b5c 6dbe 0106 f8bd
000003e0: 53cf 6c3e 7236 393e 7bcc 3e3c fd25 65bd
000003f0: 975e 333d fd32 42be 7c9d e4be c14d ba3e
-0.10984006 -0.017938957 -0.11803529 0.18718712 -0.12245292 0.18551748 -0.17456429 -0.20616165
-0.13237199 0.25206816 0.052665714 -0.12138382 -0.15342283 -0.11735449 -0.08594187 -0.0020854634
-0.32549545 0.19907896 -0.100343384 -0.047385406 0.13320589 0.11500205 -0.19160716 0.19884431
-0.12415313 0.013120876 -0.2264116 0.16126081 0.08209424 -0.17615047 0.17005228 0.111171715
-0.021225339 0.11170206 0.23951842 0.023904717 -0.20285854 -0.10844779 -0.28273758 0.007707252
-0.051514845 -0.15243942 -0.0005061101 0.19501936 -0.5000733 0.1436987 -0.07434154 0.06273814
0.15049574 0.099024676 0.06499335 0.15111028 -0.05068468 0.023591414 -0.21872911 -0.3142742
0.049761597 0.36859828 -0.12281352 -0.22325087 -0.045261998 0.10980884 -0.48332745 0.20866372
-0.06376393 0.06743521 -0.055484936 -0.021824084 0.047629844 0.11444356 0.1511915 0.11378219
-0.21083416 -0.23581786 0.09998998 -0.053516455 0.0847759 -0.21329065 -0.13614656 0.018296411
0.32128325 0.089926116 -0.15839818 0.110083275 -0.10929516 -0.058422517 -0.20800494 0.19088882
-0.055310223 -0.046262346 -0.16382135 0.15435444 0.10206538 0.35307044 0.10984288 -0.006184928
-0.077689804 -0.06772329 -0.018276814 0.065181 0.0897973 -0.1076208 -0.0050412314 -0.15040734
0.13877743 -0.22074728 -0.009902741 0.20720816 0.046048146 -0.05515366 0.047087587 0.023008814
0.005036845 -0.06401571 -0.006436601 0.053067155 -0.31062135 0.099161595 0.116701625 0.2722424
-0.079038195 0.08062057 0.48899326 -0.22176185 -0.013434695 -0.06634423 -0.10030497 -0.08627779
-0.04888757 -0.17696524 -0.40512878 0.2319975 -0.019973353 -0.13831963 -0.2896359 -0.12152581
0.09848636 0.041507307 -0.16849652 -0.19463721 -0.16008845 0.26325056 0.13221589 0.27571627
-0.05549968 -0.15968122 -0.32030556 0.17742331 -0.11718778 -0.043004196 -0.2307303 -0.16138919
0.06164605 0.31310815 -0.024638128 0.33004546 -0.24699348 -0.025371239 -0.15995298 0.6120658
0.28672406 0.41812086 -0.18793067 0.15751375 0.48119393 0.3235657 -0.038262013 0.27231985
0.12145732 0.13708107 -0.04034615 -0.014843125 0.10916373 0.12439221 -0.23716797 -0.22478588
-0.39152655 -0.39171967 -0.032783385 -0.048287235 -0.050336644 0.044803686 0.027856477 -0.460514
-0.17215136 -0.06962082 -0.10126924 0.08618895 0.034947664 -0.39558488 -0.14583176 -0.19302198
0.023508163 0.11480893 -0.1515073 -0.047135063 0.12832735 -0.006512024 0.10499149 -0.0013663981
-0.061930243 0.1787721 0.087309934 -0.1799559 -0.13626896 -0.00086862466 -0.029098 0.023859587
-0.08783712 0.119134925 -0.18130344 -0.15298346 -0.004054751 0.20666842 -0.07865814 -0.09126813
0.045724902 -0.13281924 -0.10576835 0.089946575 -0.19784006 -0.07994816 0.08390553 -0.02952226
-0.003508353 -0.12719087 0.019612066 -0.16218674 0.038508 -0.034387812 -0.12669256 -0.03084733
-0.11688665 0.050717227 0.0031600436 -0.09951207 -0.46936324 0.056548994 -0.065025955 0.150778
0.098733306 -0.03512452 -0.10572704 -0.021624526 0.0443066 0.13196686 -0.23179643 -0.1211052
0.23125963 0.18087175 0.011645432 -0.05594443 0.04379138 -0.18964763 -0.446514 0.36387447

weight_hh_l0 f4 [128, 32]
00000000: f91c 2bbe b8bc 0fbe b973 84bd d8a8 413e
00000010: 57be 60bc 8349 bcbc d9fb 55be 61b8 99bc
00000020: 17a7 0b3e 4632 513e cd5f 763d 1e42 473e
00000030: 9cc1 383c 127e 323e 780a ad3d 872c 353e
00000040: c37d ac3d ec26 0abe 2abe 923d 0030 13be
00000050: 80ce a4bd 0b5b 33be aa34 eebd b767 cfbd
00000060: 4a38 d63d e1d9 acbd 264d 0a3e b619 013e
00000070: 4a80 bd3d ef00 593d 5561 fa3d d777 34be
00000080: 606e b73d 4867 1cbe 2a0f 5a3d e1df 55bc
00000090: 71d9 823d f1db 053e 52d9 78bc 0196 bcbd
000000a0: 246c 0e3e f9cc 4e39 37a9 0bbe 0867 d4bd
000000b0: a532 1ebe e7a9 293e e444 0a3e d652 463c
000000c0: 6fa4 1f3e 5dc5 d13d 0711 a5bd 7aad c33c
000000d0: 1726 bf3c ef38 fbbd 6c0f 08be c727 38bd
000000e0: 58e5 29bb fe18 7ebc 475a 05be cd49 f4bd
000000f0: 88d3 b6bc 74ea 593d fd2f 923d beff 03be
00000100: 6d36 ae3d 38fc fabd c43c a9bd e618 b23d
00000110: 8b7a 3d3d 5fb9 873d 96e8 35be e7cc 38be
00000120: 8945 ffbc 4371 ff3d 464d 2ebe ae84 d63d
00000130: b52b d0bd e7d7 cdbd b77a fc3d 8285 fbbd
00000140: bdb9 8d3d a0ba d9bc 1805 153e 0992 3bbe
00000150: a9eb ca3d 05b7 0d3e 7af2 0c3d e430 2e3e
00000160: 3e1d 033e fef7 c43d e06f c53d 9e44 373e
00000170: bae6 fa3d 7797 1a3d 64d3 9abd e0dd cb3d
00000180: 4c2e 72bc 1d95 85bc 6896 c83d 0f98 353e
00000190: 3f49 a4be 31bc 18bd 212e f7bd b9ca 833c
000001a0: 6af5 92bd 7e7b 763e 44ca a6bd 66b1 4bbd
000001b0: 52dc 85be 0177 a7bd 60c7 14be d8df 12bd
000001c0: a5ec a1bd 824d 763e 2ce7 cebd 981b c6bd
000001d0: 89e9 303d fa49 8c3e 668f ba3d 9ba7 a2bd
000001e0: 25ba b23c 7ded 1c3d d746 3fbc 27d0 313e
000001f0: 9c5b 56be bc6b ee3d 7154 873d 3e13 453d
00000200: 1300 26be 0040 3dbd 44f3 273e 6a00 14be
00000210: 4d89 e73d 0991 05be 71f2 8bbd 42e0 c23d
00000220: bf88 28be 78c1 80be 7189 2dbc e8ce 03be
00000230: 1afd c83c 46ad ea3d 7164 be3d 084a 00be
00000240: 6207 483d a96e 0ebe ccd1 0bbe 0c4c 953d
00000250: 48ed 8f3d eae0 003e e318 3d3d e626 95bd
00000260: 448b 58bc bd91 0fbe 3af4 5abe 6709 fdbd
00000270: 7899 393e dab8 c4bd ad53 0d3e 2e08 f6bd
00000280: c4df 483e c8dc c2bd 27b5 3a3d c28e 48be
00000290: 00db 97bd b9f0 61bd 156f 8cba 81c0 1bbd
000002a0: e19c 47bd e974 a3bd 5111 c93d 5bdf 39be
000002b0: 7d84 fabd 0e52 4c3d e050 a2bc ae89 36bd
000002c0: 8569 173c f7e6 2f3e 307e 2bbe 2c71 063e
000002d0: bcc9 a03d 1708 a1bd c1a7 c8bc 7e0b aabd
000002e0: e030 2ebd 359e ffbd 4834 b33d c1d3 6c3e
000002f0: b53d 773d c3d8 b53d b4da f43d 6409 b63d
00000300: e1c1 343e 6541 443d 12c4 18be 7150 343e
00000310: 12f0 0fbd b9ed 64bd 8927 2d3b c615 48be
00000320: 75b9 73bd 5977 8cbc cab1 b03c 32b9 c9bd
00000330: 8e06 c8bc 9aec 273e 0c48 5bbc 6f93 c83d
00000340: 331e 483d b2a0 a8bd 4c20 2a3c 66aa 25be
00000350: 4bdd 0d3e e8a5 133e d4d7 0f3e c433 70bc
00000360: 5709 55be e7e2 2b39 124a a73d eda8 9e3d
00000370: 09f3 4fbe a521 c53d 7427 ccbd 3adc 753d
00000380: aaa5 4a3e b6f2 91bd d6ef 75bd 4e0d b43d
00000390: e441 bfbd 7ae8 b43d 9dbe 5b3c aa72 f23b
000003a0: 028e cb3b 1de3 7fbe f00a 3fbd e7df 17be
000003b0: 6b2c 963e 438d fabd 8ac6 a63d 262d 6d3d
000003c0: 707b a73e ac6e e1bd 8e1e 13be 47f0 aabc
000003d0: 1e06 22be 094e 09be 49d6 a3bd 9ff3 0abe
000003e0: 22db 213d d741 ac3d 8579 a23b f442 933d
000003f0: 26dc 0d3e c86c 4c3e c02c 1a3b d3ad c43d
-0.16710271 -0.14036834 -0.06467385 0.18912065 -0.013717256 -0.022984272 -0.20896854 -0.018764677
0.13637958 0.20429334 0.060149956 0.19458815 0.011276629 0.17430905 0.084492624 0.17692767
0.08422425 -0.1349141 0.07165177 -0.1437378 -0.08047199 -0.17515199 -0.116311386 -0.10127204
0.10459955 -0.084399946 0.13505992 0.12607464 0.09252985 0.052979406 0.12225596 -0.1762384
0.08956599 -0.15273774 0.053237118 -0.013053865 0.0638913 0.13072182 -0.015188532 -0.092082985
0.1390844 0.00019722049 -0.13638769 -0.10371214 -0.15449007 0.16568719 0.13502842 0.012104711
0.1559007 0.10242722 -0.08059888 0.023886431 0.023333592 -0.122667186 -0.13287133 -0.04495981
-0.0025924053 -0.015508888 -0.1302272 -0.11928139 -0.022317663 0.053202108 0.07138059 -0.12890527
0.08506475 -0.12255138 -0.08263543 0.08696155 0.046259444 0.066271536 -0.17764506 -0.18046914
-0.031161087 0.12472775 -0.17021665 0.104745254 -0.101645865 -0.10050946 0.123280935 -0.12281324
0.069201924 -0.026578248 0.14552724 -0.18317427 0.0990823 0.13839348 0.03441093 0.17010838
0.12804124 0.09617613 0.09640479 0.17897269 0.12251039 0.037742104 -0.07559851 0.09954429
-0.014781546 -0.016306454 0.09794313 0.17733787 -0.32087132 -0.03728885 -0.12069345 0.016087877
-0.07175715 0.24070546 -0.08144048 -0.049729727 -0.26144654 -0.08176995 -0.1452918 -0.035858005
-0.079064645 0.24053004 -0.10102686 -0.09673232 0.043191466 0.2740019 0.09109382 -0.079421245
0.021817276 0.038312424 -0.011674604 0.1736456 -0.20933384 0.116416425 0.06607903 0.048114054
-0.16210966 -0.046203613 0.16401392 -0.14453283 0.11305485 -0.13043608 -0.068333514 0.0951543
-0.16458414 -0.25147605 -0.010591851 -0.12871897 0.02453475 0.114588305 0.092965014 -0.1252824
0.048835166 -0.13909401 -0.1365425 0.072898954 0.0702768 0.12585798 0.046166312 -0.0728281
-0.013216797 -0.14020438 -0.21382228 -0.12355309 0.1812495 -0.0960557 0.13801451 -0.12013279
0.1961661 -0.09514767 0.045582917 -0.19585708 -0.07414818 -0.05516121 -0.0010714257 -0.038025383
-0.048733596 -0.07981283 0.09817756 -0.1815161 -0.122323014 0.04988294 -0.019813955 -0.044564895
0.009241466 0.1717795 -0.16747355 0.13129109 0.07850978 -0.07862871 -0.024494054 -0.08302973
-0.04252708 -0.124813475 0.08750206 0.23127653 0.060361583 0.08879235 0.11955777 0.0888851
0.17652084 0.047913928 -0.14918545 0.17608811 -0.03514106 -0.055890772 0.002642127 -0.19539556
-0.059503037 -0.017146753 0.021569151 -0.09849776 -0.024417188 0.1639885 -0.0133838765 0.09793746
0.048856925 -0.08233775 0.010383677 -0.16178283 0.13853948 0.14418757 0.14047176 -0.014660779
-0.20804344 0.00016392359 0.08168425 0.07747064 -0.20307554 0.09625558 -0.099684626 0.060024478
0.19789758 -0.071263716 -0.06004318 0.087916 -0.093387395 0.08833404 0.013412145 0.007398923
0.006211997 -0.2498898 -0.04664129 -0.14831506 0.29330763 -0.12233975 0.08143337 0.057904385
0.32711363 -0.11007437 -0.14367124 -0.020866526 -0.15822646 -0.13408674 -0.07999856 -0.13569497
0.039515622 0.084109955 0.004958334 0.07190505 0.13853511 0.19963372 0.0023525208 0.09603467

bias_ih_l0 f4 [128]
00000000: 1f42 97bd 3d63 9dbd 2aad 83bc 411a 97bc
00000010: dda9 19be 6743 0b3e b9d7 3ebd e632 32be
00000020: e675 963c f213 6a3d 59a5 753e 060f 173e
00000030: b7ec 7f3d e471 febd 9b25 b53d d30b 09be
00000040: 3b3f a63d 7114 f73d bb26 1bbd 4ca8 ed3d
00000050: b1ef d43b 0ca4 8f3c 156f 42bd 0f4c bbbb
00000060: 4841 003e 0c90 d73d 3124 ff3c 3e30 a73d
00000070: 5373 38bd 2d54 61bd aee4 38be c7e8 35bd
00000080: e48e 493e 4654 0bbe 6643 1dbe 923a 7a3e
00000090: d9d1 13be f1a2 a7bd 71c7 12be 04cc 7ab9
000000a0: 4053 13be 7334 e13d 1650 9c3d d243 393d
000000b0: 7fca 81bd c384 4f3e 4d42 90bc c174 dcbd
000000c0: 1285 093e 8995 ad3d d212 92bd eb09 a93d
000000d0: d605 1fbe 4f7d ca3d 9151 e13d 0604 f83d
000000e0: 695a bf3d 972f 203e b762 373e 86f6 1a3e
000000f0: 5a20 07bd 7754 39bd 0e96 88bd 1b04 1dbe
00000100: d20a bd3d 737b 173e 04be e7bc e393 4b3d
00000110: 9ad4 49bd b954 923c 0300 d43d 06f5 99bd
00000120: a659 6dbc 8c6a c43d 5e83 e4bd 9f24 2a3d
00000130: 3b4e 00be 301c 11bd 6d00 82bd 596b 4abe
00000140: 9432 f8bd 172a 0ebe aa0d e83d 95ae 1ebb
00000150: 3610 403c 183c ef3d 5521 cf3d 0636 0fbe
00000160: fac2 123e b33a e6bd 0699 e53d cb09 09be
00000170: 4482 cebd c2ba 013e 9fda 593a 85ff bdbd
00000180: a9fb da3d 6a3e f5bd b852 5b3c c50f c53c
00000190: 5e53 a1bb ff68 843d 3ded 16bc bf26 1ebe
000001a0: 4a51 dbbd 5ee7 b73d 57ef de3b b08c aa3d
000001b0: 83e7 073d 57e1 25be 58e6 f93d 3e14 5e3d
000001c0: 6777 243e 6523 293d 5592 503d 50f5 783b
000001d0: f3fd dd3d 15ec f0bb 031f babd e383 913c
000001e0: 6096 acbd 921a 043e 67fd 2c3e 42d1 9f3c
000001f0: 9159 a93d 7e9a 1b3e 1b00 01be 718c 72bd
-0.073856585 -0.07684944 -0.016073782 -0.018445136 -0.15006204 0.1359993 -0.046592448 -0.17402229
0.018366765 0.057147928 0.23988856 0.14751825 0.06248161 -0.12424067 0.08845063 -0.13383417
0.08117529 0.12064446 -0.037878733 0.11604366 0.0064983 0.017534278 -0.047469217 -0.005715854
0.12524903 0.10525522 0.031145187 0.08163498 -0.045031857 -0.055011917 -0.18055984 -0.044411447
0.19683415 -0.13606367 -0.15357742 0.24436405 -0.1443552 -0.081853755 -0.14333893 -0.0002391786
-0.14387226 0.10996332 0.07632463 0.045230694 -0.06337451 0.20265488 -0.01760974 -0.107644565
0.13429669 0.08475787 -0.07132496 0.08253845 -0.1552957 0.09887182 0.11001886 0.121101424
0.09343416 0.15643154 0.1790875 0.15133104 -0.032989837 -0.045246568 -0.06669246 -0.15333597
0.092305794 0.14793186 -0.028288849 0.049701583 -0.04927502 0.017862665 0.10351565 -0.07517438
-0.014486706 0.09590635 -0.11157869 0.04153883 -0.12529843 -0.035427272 -0.063477375 -0.19767512
-0.12119022 -0.13883244 0.11330731 -0.0024212946 0.011722615 0.11681384 0.101137795 -0.13985452
0.1433219 -0.11241665 0.112108275 -0.13382642 -0.1008344 0.12668899 0.000831047 -0.09277252
0.106925316 -0.11974795 0.013386421 0.024055371 -0.004923268 0.06465339 -0.009211835 -0.15444468
-0.10708864 0.08979677 0.006803434 0.08327615 0.03317977 -0.16199242 0.12202138 0.054218523
0.16061173 0.04129352 0.050920803 0.0037988015 0.108394526 -0.007352362 -0.09087946 0.017763084
-0.08427119 0.12900761 0.1689354 0.019508962 0.082690366 0.15195653 -0.12597696 -0.059215967

bias_hh_l0 f4 [128]
00000000: ccf6 f1bd 168b 82bd fd75 19be 8378 123e
00000010: d2fd cdbb 0afb dcbd c0cc 17be 4925 683b
00000020: 3ffa d33d 5d5f 633e c6b3 87bc c7e0 b93c
00000030: 1708 34be e31b 2e3e 441c 043e 8ecb d93c
00000040: 75c7 bdbb cdd7 e73d 54c6 08be 4ffa 923d
00000050: 27e0 1d3e 8002 4b3e 8d2f 9bbc 99f3 6f3d
00000060: 9f72 dc3c 4694 b83d e06c d63d 88f8 22bc
00000070: adb2 01be 8ecc 83bd 4e69 e3bd 4562 bd3b
00000080: 5f56 dd3d de39 e1bd cb42 ac3d 828c 1c3d
00000090: 47f2 273e f0dd a53d 1e11 1dbb cc8b 14be
000000a0: 9161 91bd 971f 5c3d 4517 c33d bcba 82bc
000000b0: 397d 87bd 8333 be3c 25ee b43d e8a6 6bbd
000000c0: 5248 653b 84e7 893c 4d03 30bd 0d3c cabd
000000d0: 6e95 3abc daea 82bd 5285 e7bd 7cb2 be3d
000000e0: 1d95 e1bd 87d9 1bbe 2879 98bd 9da0 b93d
000000f0: 37b8 7abd c632 413e 5cec 853d c89b 173e
00000100: 3289 43be a37b f7bd 7c31 113e 424c c2bb
00000110: e75c 543e 9a8d 4d3d 4238 a9bd f0b2 e7bc
00000120: 3fd0 013e 71f3 153b d427 853c 45fa 703d
00000130: eafa 623d 8117 fe3c 0c92 10be 959a 52bd
00000140: ee69 e7bc 2c16 d43d f6bc 1e3d 4219 04be
00000150: 14bd 14be adda 663d 3de0 11be 1aa4 dd3d
00000160: 33eb c2bd 660c debb acac eb3d c37b 9bbc
00000170: bc0c b7bd 339a 1bbe 554c c2bc e9e1 373c
00000180: 9ff2 04bc 87d7 6e3c 8823 12be 5db3 803e
00000190: f4e0 bf3d 6ae5 02bd a2e9 413e 7ae5 1f3e
000001a0: c4f4 24be 85ad e53d 7d06 7e3e 3a03 243e
000001b0: c1b7 393d d981 ff3c 0186 2b3d 1d4a 7e3d
000001c0: 2967 373e 6e94 c3bd e6c2 1f3e 5520 f5bd
000001d0: 8350 923d ff26 3c3e 846e 793d f1f5 193e
000001e0: 1d16 d43d ed55 d63d 8226 623e 05a3 d23c
000001f0: 0414 3fbd b8ed 153e fbaa cabd 4aeb 103e
-0.11814651 -0.06374185 -0.14986415 0.14303784 -0.0062863613 -0.107900694 -0.148242 0.0035422614
0.10350465 0.22204347 -0.016565215 0.02269019 -0.17581211 0.17002825 0.12901407 0.02658632
-0.0057915994 0.113204576 -0.13356906 0.07176649 0.15417539 0.19825172 -0.018943572 0.058581922
0.026910124 0.09012656 0.10469985 -0.00994695 -0.12665816 -0.064355 -0.1110407 0.005779537
0.108074896 -0.109973654 0.08411177 0.038219936 0.16401015 0.08098972 -0.0023966501 -0.14506453
-0.070986874 0.053741064 0.09525923 -0.015958183 -0.06615681 0.023217922 0.08834485 -0.05753222
0.0034985733 0.016834028 -0.042971898 -0.09874735 -0.011388166 -0.06392451 -0.11304726 0.09311387
-0.11014769 -0.15219699 -0.07444984 0.09063838 -0.061210837 0.18867025 0.065392226 0.1480552
-0.19095305 -0.12084129 0.14179033 -0.005929501 0.20738564 0.05018387 -0.082626835 -0.028283566
0.12677096 0.0022880698 0.016254343 0.058832426 0.05541507 0.031017067 -0.14118212 -0.051416952
-0.028248753 0.103557914 0.038754426 -0.1290026 -0.14525253 0.05636089 -0.14245696 0.108223155
-0.09517517 -0.0067763804 0.11507544 -0.018979913 -0.08937976 -0.15195541 -0.023718039 0.011223295
-0.008114486 0.014577753 -0.14271367 0.25136843 0.09369078 -0.031957068 0.1893678 0.15614882
-0.16108996 0.11214737 0.24807163 0.16016856 0.045341257 0.031189846 0.041875843 0.0620824
0.17910446 -0.09549795 0.15601692 -0.119690575 0.07144263 0.18374251 0.06089641 0.15035225
0.1035578 0.10465608 0.22085002 0.0257125 -0.046649948 0.14641464 -0.09895893 0.14152256

weight_ih_l0 f4 [128, 2]
00000000: 6015 8e3e 839a c23e 248d cbbe be4a d4be
00000010: 6b8d 1e3e d66e c6be 1754 f7bd edf8 29be
00000020: e0c6 a3bc b9b4 7fbe bf4b 043f c34c 9bbe
00000030: c69c c9bd f018 713e fd50 20bf 9175 61be
00000040: bc8c 7f3e de39 1ebe 8837 653d 7566 873d
00000050: 510e f3be cccb bc3e c84c f63d a075 cfbd
00000060: e6a6 963e 14c0 913e 074f 1bbf 91f2 34be
00000070: 3929 97bb 6134 153c c74b 0a3e cae4 e7bb
00000080: 7e0d 98bd 55f3 303d 643a 383d afec 80be
00000090: 819b 54bf fbb3 a2bd 0fe4 1f3f 5413 1e3f
000000a0: 710b 3dbe 854d 85be b099 dbbe 3882 203e
000000b0: 6263 2fbf 0ded 483e f54a acbf a8a3 6c3d
000000c0: ec49 af3e d250 d23c 7b41 e8bf 58a7 dcbd
000000d0: 0d9e ba3e 3461 98bd 8acb 4cbe 3fd3 893e
000000e0: 152a 07bf c7b8 383e b224 413e 873f dabd
000000f0: 3833 293c 114f 10bf 623f afbe d3db 37be
00000100: 5b58 c2bd d8c0 90be 4e57 a33e aa53 203d
00000110: e0c9 063e 2110 a8bd 5c17 a73d 5a26 3fbe
00000120: 6625 d33d 2324 e6bd 1f38 4ebe 6930 d0be
00000130: 0646 79be 0704 313d 276d 133e 8b6c d93d
00000140: 02de 123f 5a48 b6be 7d70 53bc b47e 113e
00000150: b495 e43e 1b1b 0fbe 9d9d 60be cac9 0ebe
00000160: 3e21 c53e 22a1 a23e 8169 26bf dda1 0c3e
00000170: 5ee4 c03e 7c25 af3e e8f2 af3e dbe9 4e3e
00000180: 83f9 e4be 5e2b a2bc 25b7 aabe 2470 f93d
00000190: ade9 e23b ed47 ec3d dd97 1dbf 4049 0fbe
000001a0: dc27 843f ba56 23be 32c4 4c3f f177 16be
000001b0: b0b1 71bd 321a a9be 57f2 dc3e 0602 3c3c
000001c0: b982 a83d b649 eabe 29ff ae3e 45e4 c63d
000001d0: d9ba f4bd 4c67 00bd 7c50 1b3f c924 03bf
000001e0: 796f 403e 5d7f 52be 8a43 9ebe bccf 1b3e
000001f0: 8e82 debd 10c0 2ebf b4a8 83be b5fb 61be
00000200: e4c8 2f3e 6241 803e 8552 893c b84a c3bd
00000210: 08ae a2bd 8946 573e 06d3 83be 9b7c 083e
00000220: 2a04 81bd 5698 94be 8131 d03d 8a6d 8fbe
00000230: a0ad 9bbe 0139 88bc 459a 083e e77a 7bbe
00000240: a741 0f3f a47f 6f3d 1ad6 49bd 2cdc e33e
00000250: f15f 01be 6889 a33d b567 6cbe 17d0 c0be
00000260: b4f8 d9bd e732 47be 3628 8f3e 3f49 e93d
00000270: fd2c abbe 2661 c7be 7101 4fbe 8261 cb3e
00000280: b6ef 7b3d 742e 813e 5b57 16be 8e8a c53e
00000290: a0aa 51be 84e4 1c3e 6652 e33e 4683 813e
000002a0: b0eb 3fbe 0900 6f3c 1eae 2fbe ef71 403e
000002b0: 0083 2cbe 75e0 9ebe cef9 023e 3bdf 063d
000002c0: 92c5 113f aa21 8a3e 3f6d 2f3e b7f3 133e
000002d0: 1609 27be b788 e93e 0e08 b4be ff47 88bd
000002e0: 8173 95bd 6edc d23d 43ff a83d 1d61 9e3e
000002f0: dc36 973d f372 2dbe 8cb1 9bbe ec72 5a3e
00000300: ad9c e7bd db07 2bbe b962 163e 9a92 25bd
00000310: dbb9 dc3d f9c8 86be ad15 9bbb 0252 6cbe
00000320: ba09 73bd 92a9 8fbe b04a 1f3e 61b5 a4be
00000330: bc3a 82be 462d bcbe 5851 d8be 48e3 71bd
00000340: c024 8e3e a333 01be d418 02be 13b1 61bd
00000350: 33ca 573e 5d8b a63d 1ce9 803d 6bf8 9bbe
00000360: d605 313f 0eca 5b3e 7288 edbe f64c ca3d
00000370: ebc9 7a3e 5a41 813e f36f 8dbe ce90 003e
00000380: f6ba 66be ea96 a1bd ab2a 91be b6b0 62bc
00000390: 15a7 95be 2db5 50be aebc 103e 931f 423e
000003a0: 21e1 e83e 395c 32be 8ea7 0f3e 7921 31be
000003b0: 48fe cdbd e15c 7dbe d603 51bf 9333 16be
000003c0: 9acd d23e 3844 27bd 55e6 ffbe ec03 2e3d
000003d0: 50f9 1d3e c3fb e8bd 2b7b 6f3f de5b 3bbd
000003e0: be97 89be 5659 afbc 05c3 90be 6954 60be
000003f0: 09cb 54be be86 e5be 6e75 40be 4abb 2ebd
0.27750683 0.38008508 -0.3975612 -0.41463274 0.15483634 -0.38756436 -0.12076586 -0.16598864
-0.019992292 -0.24971284 0.5167808 -0.30332002 -0.09844355 0.23544669 -0.6262358 -0.22017504
0.2495603 -0.15451762 0.05596116 0.06611339 -0.4747186 0.36874235 0.120263636 -0.10129857
0.29424208 0.28466856 -0.6066746 -0.17670657 -0.0046130684 0.009106726 0.1350547 -0.0070768343
-0.074244484 0.04320081 0.04497756 -0.25180575 -0.8304978 -0.07944485 0.62457365 0.6174824
-0.18461396 -0.26035705 -0.42890692 0.15674675 -0.6851102 0.19621678 -1.3460375 0.057773262
0.34236085 0.025673304 -1.8144983 -0.10774106 0.36448708 -0.07440415 -0.19999519 0.2691898
-0.5279859 0.18039237 0.18861654 -0.10656648 0.010327153 -0.56370646 -0.34228045 -0.1795495
-0.09489509 -0.28272128 0.31902546 0.03914229 0.13162947 -0.08206201 0.08158752 -0.18666974
0.103098676 -0.11237361 -0.20138596 -0.40661934 -0.24343118 0.04321673 0.14397107 0.10616406
0.5737001 -0.35602075 -0.012905237 0.1420849 0.44645464 -0.13975184 -0.21935125 -0.13944164
0.38501924 0.3176356 -0.65004736 0.13733621 0.3767423 0.34208286 0.3436501 0.20206396
-0.44721612 -0.01979607 -0.33342853 0.12179592 0.006924829 0.11537156 -0.6155985 -0.13992786
1.0324664 -0.15951052 0.7998687 -0.14694192 -0.059007347 -0.33027798 0.4315364 0.011475092
0.08228058 -0.45759362 0.34179047 0.09711508 -0.11949701 -0.03134851 0.60669684 -0.51228005
0.18792523 -0.20556398 -0.30910903 0.15215963 -0.10864745 -0.68261814 -0.25714648 -0.22068675
0.17166477 0.25049883 0.016762981 -0.09535736 -0.0794335 0.21023001 -0.25746936 0.13328783
-0.06299622 -0.29022473 0.10165692 -0.2801326 -0.30405903 -0.016628744 0.13340099 -0.24558602
0.5595955 0.058471337 -0.04927645 0.44503915 -0.12634255 0.079851925 -0.23086436 -0.3765876
-0.106431395 -0.19453011 0.27960366 0.11390924 -0.3343276 -0.38941306 -0.20215394 0.3972283
0.061507903 0.25230753 -0.14681761 0.3858227 -0.20475245 0.15321547 0.44398803 0.25295466
-0.18742251 0.014587411 -0.17156264 0.18793462 -0.16846848 -0.31030622 0.12790605 0.032927733
0.56942093 0.2697881 0.17131518 0.14448439 -0.1631206 0.45612118 -0.35162395 -0.06654357
-0.07297421 0.1029595 0.08251812 0.30933467 0.073835105 -0.16938381 -0.30408895 0.21332902
-0.113091804 -0.16702215 0.14686097 -0.040423013 0.107776366 -0.26325205 -0.0047328086 -0.23078158
-0.059335448 -0.2805906 0.15555835 -0.3216963 -0.25435436 -0.3675329 -0.4224956 -0.059054643
0.27762413 -0.12617354 -0.12704784 -0.05510051 0.21073227 0.0813205 0.06294462 -0.30462965
0.6914953 0.21463796 -0.46393162 0.098779604 0.24491088 0.25245172 -0.27624473 0.12555239
-0.22532257 -0.07890113 -0.28352866 -0.0138360765 -0.29229036 -0.20381613 0.14134476 0.18957357
0.4548426 -0.17417993 0.14028761 -0.17297925 -0.10058266 -0.24742462 -0.8164648 -0.14668112
0.41172487 -0.040836543 -0.49980417 0.04248421 0.15427136 -0.11376145 0.93547314 -0.04574191
-0.26873583 -0.021404903 -0.28273788 -0.219072 -0.20780577 -0.44829363 -0.18794796 -0.04265908

weight_hh_l0 f4 [128, 32]
00000000: 1d83 15be df67 8d3d 0b50 9fbe 7e4c 373d
00000010: 013a 673d e1cd 9a3c de2a 0bbe e4ee 36bd
00000020: 3ba8 16be b5f5 003e dcd4 8a3d a3a8 273e
00000030: 065a 133e 5a28 993e 4832 adbc 448b 0dbe
00000040: 7cbd 213d 6d7e 0bbe 7e5c fcbb 6b2e 5a3d
00000050: f9cd 843d b12c 34be f60a 58be 9785 cd3d
00000060: 6f56 6dbe e05c 943e 0531 86be 37c6 8c3e
00000070: 8f63 8f3c e916 8cbe 5ada e4bc 5054 943d
00000080: e284 36be 1d20 013d a374 d03d 0be6 0bbe
00000090: 84ff 8c3d 4805 213e 81e0 55be 3717 13bd
000000a0: 0a94 1abe 9f14 193e 14ac 77be 90ef c0bd
000000b0: ee76 413e ff79 8bbd 4a88 db3d e097 b5bd
000000c0: 2bca c9b9 946c bbbc bbeb afbc 83fd f33c
000000d0: 4e60 8d3e 27a9 9bbe c290 163d 4f23 5f3e
000000e0: 903a 96bd 7ec5 44be d2c5 06bd b737 9dbd
000000f0: 77d0 d9bd 1e09 10bc 5e95 953d e148 f3bd
00000100: 2aaa fcbd 12f8 d23d 7036 243d 852b d8bd
00000110: a47f b1bd dba7 9b3d b2fc 0ebe 371d 143d
00000120: a242 1dbe 58e7 07be 0301 f3bd 7db1 1abe
00000130: d77e 953c 67e0 663e 4a99 b73d 9d34 3bbe
00000140: bb42 1bbb 873a 0c3c 3168 76be a881 77be
00000150: 25c8 0cbd ace2 04be b4fd 2bbe d5e9 863e
00000160: 3ffe 08be 2b4e d53d 0c6e 99bd 2a6f babd
00000170: f679 debd 211e 4f3d 41de 0c3e 6a36 72be
00000180: b809 de3d f66e 5e3d de83 45bb ca75 8fbd
00000190: 73e4 613d 10c0 db3d 599d af3d 85b9 333e
000001a0: 46bb e33d fb80 303e c5c2 80bc d49f 7c3d
000001b0: 32f8 7a3d 3e4b 9abd 27e6 533d fef9 97be
000001c0: 0d8b 7bbe f364 78be abed ffbd 03ff 5abe
000001d0: d603 e1bb 3402 753d 30e4 a2bd d280 aebd
000001e0: 7feb eebd 3368 453e b577 71be b69f 213c
000001f0: fef2 8dbd 6df8 b4bd 8f44 5a3e 48a0 7bbe
00000200: 7e03 f4bd 2238 383e 8958 25bd 8162 f63c
00000210: 2eea 083e 21dd 383e f5aa 8a3d d3d5 79bd
00000220: 409b 35bd eb50 253e bb46 79be 9b9d a33c
00000230: 00f1 f23d 8a05 2e3d 6ddb 313e fbf0 b1bd
00000240: f465 71be 92d1 883c 8435 48bd 7293 fabd
00000250: de06 473e 962b 303d d98c 403d fdfb bebd
00000260: 89af 83be d365 47bd d393 30be 1137 1b3e
00000270: 430a 0fbe 586d 963d f985 1b3e 957a bdbd
00000280: b9b2 e7bd 9a80 10bd ed34 aebd b38e 71be
00000290: a846 f7bd e96c 283e b8ff 27be 5702 323e
000002a0: db13 09bd 0333 193e 2ccb 59be 8e87 bb3d
000002b0: 525d ee3c 4192 1bbe 9ae5 943d 797e 9fbe
000002c0: ffdd 34be db82 603e d531 10be 7c73 0d3c
000002d0: 8e2c c9ba a19a 3bbe 29c1 c3be 3328 a23d
000002e0: c3c6 fe3a 5ca0 a4bd 9b2f 293e 8470 06bd
000002f0: 83cc 52bd 9361 57be 1c57 913e 38e7 34be
00000300: ea2a 1fbb 7088 e83d ed62 9a3c 7e21 0dbe
00000310: 2ec4 883e 05ee 78bc a2df 70be 43e3 153e
00000320: ed88 77be d6cd ec3d e4f9 be3c a4f8 ca3d
00000330: 9b92 6d3c c45a 013e 965c b4bd d2c9 8ebe
00000340: cded 17be 51c3 62bd e94f 163c 9be4 44be
00000350: 2aa0 883e 6771 f63b 9bdb 89be d5f6 6a3e
00000360: d5ed ebbd e320 5c3e b443 a5bd 3ae8 493d
00000370: 1b2a 5c3d b827 69be cdb9 c13c 5fa1 1abe
00000380: 5966 8d3d bb6e 5c3e 479d 19bb 7607 abbc
00000390: 795d b03d 7068 fd3c 72c0 833d e70c e63d
000003a0: 22d0 81bc ff1f 97be 287e f1bd 7ff7 2c3e
000003b0: 75a9 b73d abda 03be 7036 0a3e 4c6b c4bd
000003c0: e7c3 b33d 8427 95bd ea71 94be 3b06 a23d
000003d0: 60ab 243d 0cf4 02be c272 1fbe ed6c e83d
000003e0: c885 eb3c bd3f 2fbe df16 2a3d b668 e73d
000003f0: d830 7dbc 548f 863d f71d 743e 4463 05bd
-0.14600797 0.069045775 -0.31115755 0.044750683 0.0564518 0.018896999 -0.13590571 -0.044661418
-0.14712612 0.1259373 0.06778881 0.16372924 0.1438981 0.29913598 -0.02114214 -0.13822657
0.039487347 -0.13622446 -0.0077014556 0.053266924 0.06484599 -0.17595173 -0.21097931 0.10035246
-0.23177503 0.28977108 -0.26209274 0.27494976 0.017503528 -0.2736123 -0.02793615 0.07242644
-0.17824128 0.031524766 0.10178497 -0.13661973 0.06884673 0.15724671 -0.20886423 -0.03591081
-0.15095535 0.14949273 -0.24186736 -0.09420693 0.18893024 -0.06810378 0.107193545 -0.088668585
-0.00038488334 -0.022878923 -0.02147471 0.02978397 0.27612537 -0.3040249 0.036759146 0.21790813
-0.07335389 -0.19215962 -0.0329035 -0.076766424 -0.10635465 -0.008791236 0.0730388 -0.11879135
-0.12337144 0.10301222 0.04009098 -0.10555176 -0.08666924 0.07600375 -0.13963583 0.036160674
-0.1535745 -0.13271844 -0.11865427 -0.15106769 0.018248959 0.2254654 0.089647844 -0.18281789
-0.0023690898 0.008558876 -0.24063183 -0.24170554 -0.03437056 -0.12977093 -0.16795999 0.26350275
-0.13378237 0.104153 -0.07491693 -0.09103234 -0.10863106 0.050565843 0.13756658 -0.2365357
0.108416975 0.05430504 -0.0030138413 -0.07004888 0.055149507 0.107299924 0.085749336 0.17551239
0.11119704 0.17236702 -0.015717873 0.06167586 0.061271854 -0.075338826 0.051733162 -0.29682916
-0.24564762 -0.24257259 -0.124965034 -0.21386342 -0.0068669124 0.059816554 -0.079536796 -0.08520664
-0.11666011 0.1927803 -0.23580821 0.009864738 -0.06931113 -0.08836446 0.21315216 -0.24572861
-0.119147286 0.17990163 -0.040367637 0.030076267 0.13370582 0.18053104 0.06770889 -0.060994934
-0.04433751 0.16144149 -0.24343388 0.019972613 0.11862373 0.04248575 0.1736886 -0.086885415
-0.23574048 0.016701493 -0.04887916 -0.12235154 0.19436213 0.043010317 0.047009323 -0.09325407
-0.2571986 -0.04868109 -0.1724389 0.15157725 -0.13968758 0.073450744 0.15187825 -0.09251896
-0.113133855 -0.035278894 -0.085061885 -0.23589592 -0.120740235 0.16447796 -0.16406143 0.17383705
-0.0334662 0.14960866 -0.2126891 0.091567144 0.029097233 -0.1519251 0.072703555 -0.31151178
-0.1766281 0.21924917 -0.1408151 0.008633491 -0.0015348361 -0.18320705 -0.38233307 0.07917824
0.0019437898 -0.080383986 0.16522066 -0.032822147 -0.05146457 -0.21033315 0.28386772 -0.17666328
-0.0024287053 0.113541484 0.018846 -0.13782308 0.26712173 -0.015193467 -0.23522809 0.14637475
-0.24173327 0.115626976 0.023312517 0.09910706 0.0145002855 0.1263228 -0.08806722 -0.27888352
-0.14836808 -0.05536205 0.0091743255 -0.19227831 0.26684695 0.007520843 -0.26925358 0.22945721
-0.11519972 0.2149692 -0.08069554 0.049293734 0.053751092 -0.22769058 0.023648167 -0.1510062
0.06904287 0.21526615 -0.0023439692 -0.020877581 0.086115785 0.030933589 0.064331904 0.1123293
-0.015846316 -0.295166 -0.117916405 0.16891287 0.08967868 -0.12876384 0.13497329 -0.09590778
0.087776 -0.07282928 -0.2899316 0.079113446 0.0402025 -0.12788409 -0.1557112 0.11348901
0.028750315 -0.17114158 0.041525718 0.11299269 -0.01545354 0.065703064 0.23839556 -0.03256537

bias_ih_l0 f4 [128]
00000000: a47c 073c f84e f9bc fe0f 093e fb7c e63d
00000010: 4eac 333d c866 903e 99de 8e3e 4fdf 57bd
00000020: 2567 843d 5d4b 8d3e 1f7a 9cbd ea90 debd
00000030: 3dc5 b23d 5580 c03e 50ef f6bd d813 6a3e
00000040: 2548 a63d 6d63 403e 964c 743e d59e 893d
00000050: c253 653e d884 5abb 1da3 c7bc 9d3b 06bc
00000060: 803b e53c 5000 0b3e d52e f83d e20c 083e
00000070: b656 283e 490e 413e 94b4 623e 99f7 543d
00000080: 02e8 643e b38b fcbc 1d60 6bbd 8fc6 c3bd
00000090: c25e 303b c216 743e e4a4 b83d 22f8 4d3e
000000a0: cdba 5d3e 89c0 b63e c5ec bf3d 2f33 573e
000000b0: 7c67 cebc 4e31 da3e 9a2b a43d 6ad3 ca3d
000000c0: 1d6b 95bd 1990 9a3e b2d0 583e dc2d 8c3e
000000d0: 765a 113e caea 0d3e 716a a13c da35 963d
000000e0: 6baf 3c3c 8abf 993e 8721 e23d 1f13 523e
000000f0: ebb6 aebd 8f68 c83d 88b7 063c aa22 873c
00000100: d8ae cfbd 7191 843d 7f95 343d cb21 33be
00000110: d9f4 093d df2f b93d 0dec b03d 3119 fb3d
00000120: e430 fa3d c313 9ebd 0f06 c23d 973e 433d
00000130: 1a6f 2a3d a8db 283d 11f0 c83d 9eaa e2bd
00000140: a8e8 3fbe 1531 d8bd 894c 273e 8638 e6bd
00000150: 0415 363d e3cf 4ebe 64cd cbbd be87 373e
00000160: 7078 13be e48c 93bd 6198 0f3e 4aaa 993d
00000170: 04cc a43c 7ccc 00be d2be b0bd 5575 0a3d
00000180: 7c2d 37bd 7f39 5e3e 90c7 493e a963 293e
00000190: 706d 093e 408b ad3e 985d 903e 4f7e 6c3d
000001a0: c5d9 483d 2345 b63e 2222 9f3d 8c21 abbd
000001b0: dc2b c3bc 32d8 013f b1eb 9e3d 58ca 883d
000001c0: 1ece e43d 8d89 4ebd e68a 1d3e eb58 323e
000001d0: e572 15bc 5a1c 333e 16d2 b53d 9e2d 37bd
000001e0: 4986 7a3e 9ff4 b53e 8fab 913e 713e 153d
000001f0: 2291 92bd 6113 553d 8b0e 213e 5644 b4bb
0.008269463 -0.030433163 0.13385007 0.11254307 0.043865494 0.28203416 0.27904204 -0.052703198
0.06464986 0.2759656 -0.0764048 -0.10867484 0.087290265 0.3759791 -0.12057364 0.22859132
0.08119229 0.18787928 0.2385734 0.06719748 0.22395232 -0.0033343341 -0.02436977 -0.008192924
0.027982473 0.13574338 0.121183075 0.13286164 0.16439328 0.18853106 0.22139198 0.05199394
0.22354129 -0.030828333 -0.057464708 -0.095593564 0.0026911949 0.23836806 0.090158254 0.20114186
0.2165329 0.35693768 0.09371332 0.21015619 -0.02519583 0.42615741 0.08016129 0.09903605
-0.07295821 0.30188063 0.21173361 0.27378738 0.14194664 0.13859096 0.019704076 0.0733449
0.011516432 0.30028945 0.11041551 0.20515107 -0.085309826 0.09785568 0.008222468 0.016496021
-0.10140771 0.06473053 0.044087883 -0.1749336 0.03368077 0.09042334 0.08638773 0.12260664
0.122163564 -0.07718613 0.09473812 0.047667112 0.04160986 0.041225106 0.09811414 -0.11067699
-0.18741095 -0.10556237 0.1633779 -0.1124125 0.044453636 -0.2019649 -0.099512845 0.17922875
-0.14401412 -0.07204607 0.14022972 0.07503183 0.020116813 -0.12578005 -0.08630146 0.033803303
-0.04472111 0.2170162 0.19705033 0.16541924 0.13420653 0.33895302 0.28196406 0.057737645
0.049035806 0.35599622 0.07770182 -0.08356008 -0.023824625 0.5072051 0.07759798 0.06679219
0.11172126 -0.050424147 0.15385017 0.17416732 -0.009121631 0.17491284 0.08877961 -0.04472124
0.24465288 0.35538194 0.284512 0.036436502 -0.07156588 0.052020434 0.15728204 -0.0055013103

bias_hh_l0 f4 [128]
00000000: 0c01 733e 5c8d 6a3e 3e26 833d f5f6 66bd
00000010: ab35 0d3e 3c4b bd3e 0ece 043d 4575 523d
00000020: 66c4 123e c339 b23e 74bd 033e 91f6 cc3d
00000030: 25e1 b33d 6541 c53e aca3 de3d 5a30 8f3e
00000040: 30f3 f63c cebb de3d 1ee4 173e 1e28 b63c
00000050: 7083 6a3e 084b d93d 523f 8a3e 6042 a7bd
00000060: 9fd2 a1bd 0763 573d 3df3 ae3d ae44 163d
00000070: 27cd 423e 7fd8 593e 9405 a53d 14d1 a53d
00000080: 87f4 b63d 04c0 423e 371c 883d ed68 103c
00000090: 3caf 563c cc6f 923d e6f4 06bd bdeb b5bd
000000a0: 6ec5 38bd 3585 363e 32dc 4a3c 62d0 d53d
000000b0: 186d f43d 5be5 e03e 1b3a 9cbd b4b4 cd3c
000000c0: a1f6 b3bb a425 2b3d eba9 883d 435d b13d
000000d0: dc93 093e f9c5 7c3d 607d 283e 9905 98bd
000000e0: da41 133d 37bd b03e c131 ad3c a62c 62bc
000000f0: 40b5 e73d a25d c1bd b0f8 e3bd 5217 463e
00000100: e27f 9f3d 4a50 a93d 8018 14be 4528 11be
00000110: b47f db3d 6dff e2bd 0a47 f1bd 06ba f93d
00000120: 57e4 0dbe f8f6 143e ae0c a13c 32b7 1e3e
00000130: bea5 333b f3b0 e93d 4b0a 9a3d 95ec 7fbb
00000140: ffbf c9bd 5460 863d e066 f5bd 6256 6bbc
00000150: 313a bb3d 7f1f 24be 875d 033d c051 eb3d
00000160: 118e a3bd 2c1a 1a3e 9502 83bd 94b6 ba3d
00000170: 8ab1 03be 2062 28be 210e 0e3e 8842 15be
00000180: 3eef 603e b99e 453e 888a c53d bba3 cebd
00000190: e6a2 1fbd d74c b43e af05 543e 299e 063e
000001a0: aba3 bc3d 14c9 bc3e f2db bb3c 8597 80bd
000001b0: bb9b 82bc 0094 bb3e 1ac8 123e 29ed 2c3e
000001c0: 6306 853e 8a70 023c 7c79 8bbd cc48 233e
000001d0: 545c d7bc c357 79bc a1ac 563e fddd 773e
000001e0: b2ea f43d d261 f63e f930 953d dd28 633e
000001f0: 83d8 503e 4625 f43d d725 a83d e684 723d
0.23730868 0.22905487 0.064037785 -0.05638786 0.13790004 0.36971462 0.03242307 0.05138137
0.14332733 0.34809694 0.1286524 0.10007966 0.08783177 0.38526455 0.10871062 0.27966577
0.030145258 0.10875665 0.14833114 0.022235926 0.22901702 0.10610014 0.27001435 -0.08166957
-0.07901501 0.052584674 0.08542488 0.03668659 0.19023572 0.21273993 0.080577046 0.08096519
0.08933359 0.1901856 0.066460066 0.008814079 0.013103303 0.0715023 -0.032948397 -0.08882854
-0.04511016 0.17824252 0.0123816 0.104401365 0.119348705 0.43924984 -0.0762827 0.02511058
-0.005492047 0.041783944 0.06673034 0.086603664 0.1343531 0.06171224 0.16454077 -0.07422943
0.035951473 0.3451936 0.021141889 -0.01380459 0.113138676 -0.09441687 -0.11131418 0.19344833
0.077880636 0.08267267 -0.14462471 -0.14175518 0.10717717 -0.11083875 -0.11781128 0.12193684
-0.13856636 0.14547336 0.019659366 0.15499571 0.0027412022 0.114107035 0.075214945 -0.0039050926
-0.098510735 0.06561342 -0.119825125 -0.014363857 0.091419585 -0.1602764 0.032071617 0.11490202
-0.079860814 0.15049046 -0.06396977 0.09116855 -0.12860695 -0.16443682 0.13872577 -0.14576161
0.21966264 0.19298829 0.09645563 -0.10089823 -0.03897371 0.35214874 0.20705293 0.13146271
0.09210905 0.3687216 0.022932027 -0.062789 -0.015943399 0.36636353 0.14334145 0.16887344
0.25981435 0.007961402 -0.06810281 0.15945739 -0.026289143 -0.015218678 0.2096429 0.24205776
0.11958827 0.48121506 0.072847314 0.22183557 0.20395093 0.11921172 0.082103424 0.059208773

weight_ih_l0_reverse f4 [128, 2]
00000000: f554 353c 5b17 2ebe 007f 23bc 7451 60bd
00000010: cef5 2cbd 05b3 5bbd 4738 c1bc 008e fcbe
00000020: e6c7 c7bd f902 9fbd c2c1 873c a352 083e
00000030: 2912 a13d 0f4f 783e 6f36 0fbe 394d a7be
00000040: 7a4d 9c3d 551e 98be 2a41 59be 1765 18bd
00000050: e39c 83be 572e bd3c 4e88 b03e 9856 d8be
00000060: 29b9 f939 084f 7bbe 7891 8dbe 7a3e a7be
00000070: 081a 503e 1704 003e 56ba 103e 9234 ae3e
00000080: 77f0 eebd 77c6 00bd 62d2 32be f1d2 01be
00000090: a371 4cbe 1c49 0c3e 1ba8 55be e568 9a3e
000000a0: d0b0 a4be a4da ec3e e9ec aebe 6bfe 863d
000000b0: 54d6 52be 0e36 e9bb c027 033e ff95 f3bd
000000c0: 66ef 0ebe 0240 033e 7f28 653e 5588 163f
000000d0: 32b8 3abd d1ed 933c 2716 4bbe 4f56 c63d
000000e0: 0620 d93d a039 8cbe 14d1 563d 3fdc 183e
000000f0: 4fa0 f93d c695 77be 0c2c 2ebd 4636 373d
00000100: 9f86 56bd 682c fa3d 0957 273e 7e5b 633c
00000110: 02e5 2c3d 91cd 7d3d 7deb 35bd 8001 b6be
00000120: 178a f0bc 7173 403d 675e 833e 2179 0b3d
00000130: eed8 c8bd 2383 f63e 82fb 9ebc 804c c0bd
00000140: 2a14 393e 82c2 a5bd 8f7f 72bd 4493 58be
00000150: 6fc7 cb3d 5f52 f2bd cfaf 963e f1b9 3bbe
00000160: b1df b03c cb31 163e a701 b1bd f0c1 91be
00000170: 4104 853e e04d a13d 456e 343e c056 9a3d
00000180: 6d26 073e ef70 dc3c 1546 a5bd 5bd8 973b
00000190: 5d7b 34be b557 ab3d 2143 94be 450c 833e
000001a0: 4e38 573d b062 7b3f 5e86 66bd 4b28 3cbd
000001b0: 2702 a73d 0960 7cbe 62a8 adbd 3a16 d5bd
000001c0: e235 1b3d cc32 68be fb7d 6f3e a0bc 0e3f
000001d0: 85cc 4b3d 25ee 9ebc f0c4 e83c 1204 7ebe
000001e0: 139c 5f3d f517 b23c 2180 973e 5e6e 843d
000001f0: 68f6 7f3e 8b26 59be 3a62 dc3d 50c7 45be
00000200: 26ef 58be 2393 86be 660c 973e 7712 dc3e
00000210: b4e3 43bd d843 5abe 0c99 ebbd 3434 afbe
00000220: a2a1 f23d 9fa6 d43e 42eb 4e3e 5e7b 9b3e
00000230: ac65 87bd 4cdf bdbe c912 ffbd 4d06 9e3e
00000240: 2349 f4bd ea62 cc3d 9889 80bc 6574 a23e
00000250: aa21 0e3e 985c 9abe c9f7 3d3e c2b3 78be
00000260: 7afd 013e faf7 87be 4291 2c3e aef4 1ebe
00000270: 16d1 8fbe 2dd5 8cbd 6197 563d 5cfd 8e3e
00000280: 6ee5 1e3e 45a4 a33e 48c8 9b3c d56d e63e
00000290: 0a98 813e 42b6 313d a5a1 adbe 6ace 97be
000002a0: 03ab b7be 5103 9dbe d4d8 693e 81d0 84be
000002b0: ba6a 09be b25e a23e 3ece 113e 1926 b33e
000002c0: 3f76 8ebd 114e b13e a10b 913e 11a9 6a3e
000002d0: d580 9dbd 5798 243e 72a8 843d 85cd e6be
000002e0: ad07 83be 670d b63e b52b 483e 9c0e 883e
000002f0: 116b 593e ac4c 9dbe f574 273e 5f93 2f3e
00000300: 3bc3 ae3d fe0b c3bd 17a6 af3d 8d78 113e
00000310: a469 eebc b5a1 3ebe 08ce 99be 8476 96be
00000320: 7e3a ddbd 2cf1 2f3e af40 42be 0f59 543e
00000330: 3824 72be 5d7f 3b3e 1505 b03c 68a2 84be
00000340: ad83 7abb 8b82 21be 85f4 08be b311 27be
00000350: 0bdc e33c 091e 50be 0033 be3e cacf afbe
00000360: 92a4 843e 3c9b c1bd 55fe 4dbd 9a98 f9bd
00000370: 2b0c b53e 0ef4 ff3c 0daf debd 4649 613d
00000380: 0c20 3b3d 2b85 a43d 85d0 36be f0c9 19be
00000390: e75a cabd 213a cd3d 1d4d cbbe 09a4 603e
000003a0: 2935 c9bd 12a4 fa3e b55b 58be fc41 1a3e
000003b0: 8858 cbbd ec16 7bbe 21dd c4bd 2e84 cabd
000003c0: c824 923d 5826 1c3e 507a fd3e ae83 b63e
000003d0: 9faa 9bbd 571b e43d 34e5 2c3d 70bd ef3d
000003e0: 0b5f b53e 9ec5 97be 3401 913d 6f0e 98bd
000003f0: 94ad 463d c7d8 a8bd 9aaa 82bd a1cd f0bd
0.011067619 -0.17001097 -0.00997901 -0.05476518 -0.042226605 -0.053637523 -0.023586405 -0.49327087
-0.097549245 -0.07764239 0.016571883 0.13312773 0.07864792 0.24248908 -0.13985609 -0.32676104
0.07631965 -0.29710642 -0.21216264 -0.03720578 -0.25705633 0.023093386 0.34478992 -0.42253566
0.00047630936 -0.24541867 -0.27650046 -0.32664853 0.2032243 0.1250156 0.14133582 0.34024483
-0.11666959 -0.03143927 -0.17463067 -0.12678124 -0.19965224 0.13699764 -0.20864908 0.30158153
-0.32166147 0.4626056 -0.34165123 0.06591495 -0.20589572 -0.0071170395 0.12808132 -0.11893844
-0.13958511 0.12817386 0.2237873 0.58801776 -0.04558582 0.018057736 -0.19832669 0.09684431
0.10601811 -0.27387714 0.052445486 0.14927767 0.121887796 -0.24178228 -0.042522475 0.044729494
-0.05237448 0.12215501 0.16341795 0.013876794 0.042210586 0.06196362 -0.044414032 -0.3554802
-0.029362721 0.046985094 0.2565796 0.034051064 -0.09807001 0.48146924 -0.019407038 -0.09389591
0.18074098 -0.0809374 -0.05920368 -0.21149927 0.09950148 -0.11832117 0.29431006 -0.1833265
0.02159104 0.14667432 -0.08642893 -0.28468275 0.25979808 0.078761816 0.1762019 0.075360775
0.13198252 0.02690932 -0.08070008 0.004633946 -0.17625184 0.08366338 -0.28957465 0.25595298
0.05254393 0.9819746 -0.056280486 -0.045936864 0.081547074 -0.2464601 -0.08479382 -0.1040463
0.037893184 -0.22675627 0.23387901 0.5575657 0.049755592 -0.019400666 0.02841422 -0.2480624
0.054592203 0.02173994 0.29589942 0.06466363 0.2499634 -0.21206109 0.10760923 -0.19314313
-0.21184978 -0.2628413 0.29501647 0.42982838 -0.047824576 -0.21314943 -0.11503801 -0.34219515
0.11847235 0.41533372 0.20206931 0.3036756 -0.06611189 -0.37084424 -0.12454755 0.30864182
-0.11928012 0.09979804 -0.01569061 0.31729427 0.1388003 -0.30148768 0.18551554 -0.24287322
0.1269435 -0.2655638 0.16852286 -0.15523025 -0.28089207 -0.068765976 0.05239046 0.27927673
0.15517208 0.31961265 0.0190164 0.4500567 0.2531131 0.043386705 -0.33912387 -0.2964967
-0.3587266 -0.30666593 0.2283662 -0.25940326 -0.13419619 0.31712872 0.14238831 0.34990004
-0.069561474 0.34629872 0.28329185 0.22916056 -0.076905884 0.16073738 0.06477441 -0.45078674
-0.25591794 0.355571 0.19547923 0.26573646 0.21232249 -0.30722558 0.1635321 0.17146061
0.08533331 -0.09523772 0.08576601 0.14206143 -0.029103108 -0.18616374 -0.30040002 -0.29387295
-0.10802172 0.17181844 -0.18969987 0.20737098 -0.23646629 0.18310304 0.021486798 -0.25905156
-0.0038225458 -0.15772454 -0.13374527 -0.16315345 0.027814886 -0.20323958 0.37148285 -0.34338218
0.25906807 -0.09453437 -0.050291378 -0.121873096 0.35360846 0.031244304 -0.10873232 0.05500152
0.04568486 0.08033212 -0.17852981 -0.1501844 -0.098806195 0.10020853 -0.3970727 0.21937574
-0.098245926 0.489533 -0.21128733 0.15064234 -0.09928995 -0.24520463 -0.096124895 -0.098884925
0.07135922 0.15249002 0.4950738 0.3564734 -0.07600903 0.11138027 0.042210773 0.11706054
0.35424075 -0.29642957 0.070803076 -0.07424628 0.04850538 -0.08244472 -0.06380196 -0.117579706

weight_hh_l0_reverse f4 [128, 32]
00000000: 59b3 083c 97ea 2f3d adfc 593a 70e2 9a3d
00000010: 00b6 0e3d 632b 7f3d 0e2c edbc cec8 1abb
00000020: 7a22 32bd d63e ec3c 6002 713d 65eb 57bd
00000030: bc7a 83bd 0335 0d3e 3ba6 03be 22fe 963b
00000040: 7607 dabc dcda 713d 613e e13b 1b5b 6ebc
00000050: ad35 15bd e0c1 173e 826a 273c c6fb 64bd
00000060: e820 0fbe 2364 0b3e 2672 4bbe 4ee4 debd
00000070: a711 7dbc 14e2 8a3d 18a3 eabd 9984 4b3c
00000080: ebae 67bc ef74 ee3d 5df7 823d 607a 823e
00000090: 5db2 01be 92ec eebd 4cec 01be 4827 19be
000000a0: 3f00 a6bd 68d6 f43c 2da4 8f3c 847a 26be
000000b0: 0c57 6bbe c783 56bd ece9 3abc 5a87 7fbd
000000c0: 0815 adbd 022b acbd 7fab 213c 9270 bc3c
000000d0: 9e09 1bbe 3817 0e3e 6ee3 81bd 42a0 2cbe
000000e0: a081 1bbe 5dba 52bc 27b5 dfbd e891 f9bc
000000f0: 6ddd e2bc fc4a 0abe bdf4 203e f0aa 423d
00000100: 8629 0d3e 137f 45be f468 38bd 4d09 d5bc
00000110: 5658 5a3d d7ba 653d 5779 283d d2f4 70be
00000120: 2a07 cbbc b72b 0ebd 0b23 4a3d afe7 a73d
00000130: 3e49 cb3d 7383 263d 06cf db3c bcb3 3abd
00000140: 64e1 75be 47f2 e4bd 74b0 04be 9c80 2a3d
00000150: 02b5 d9bd b177 4fbd ef45 9a3b 0f0a 55be
00000160: 48f9 35be 0554 fb3d 55e3 1cbd 9b09 903d
00000170: 9dfe 49bc 80d5 b53d 98dc 223c 4f4e 82be
00000180: a69e a939 2e95 59be 69e3 06be 8af0 133d
00000190: 4437 0cbe 4c8e 60bc b446 463e 2516 803d
000001a0: b338 84bd d1bf d3bd 168d e7bc 99e6 8f3e
000001b0: 3572 5e3e 5eec 203d 0502 ac3d 7c91 153e
000001c0: ec88 03be 7b71 ab3d 0474 87bd aa24 43bd
000001d0: 15fe a5be 6fe7 0d3e fa1d 51be 0b4e 863d
000001e0: 88c4 4dbe 07d5 a93e 6feb 123b 2f54 833c
000001f0: a10a b9bd 8737 1ebe 8274 8a3d 8f2b 02bd
00000200: fb62 1f3e 9525 d0bd 81ac e6bd fbb3 e03d
00000210: 4eaf 48be 6aee 193d 96e4 b23d c615 3bbd
00000220: 28f7 cc3d bf9e 2dbe 86b2 57bd 3fd3 803d
00000230: 31c5 73bd 467f 193e bc9c 0fbd e551 bebd
00000240: 80be c3bd 37bd 403d 7bc2 7f3d b47b fbbd
00000250: efcc 8cbe e84d 283d f602 e1bd 316f 0c3e
00000260: ba2e 0abe f3ce c03e cc6e 29be 5257 3d3e
00000270: b034 bbbd 96bb 0a3e ef21 6ebd cdff e9bd
00000280: 5f2a 2d3d d7ee 26be a397 a93d dd68 903d
00000290: 8ef7 cb3d bf64 df3d 6eef ddbd 5e2d 31be
000002a0: 0b8f 5abe 00be 05be 6277 533d 0fe1 8dbd
000002b0: 405f 1bbe 3605 093e 382f 70bd 0d5d 1ebd
000002c0: 84fb 14bc 7e76 5cbe 1ea6 63be 4322 bebd
000002d0: 37d6 a4bd 4d48 9e3d d8e0 3ebe 851b 623d
000002e0: 93a0 a93d 77e3 8e3d e153 e3bd 4f7d 4dbd
000002f0: 3c53 89be cd88 3c3d a635 3b3e ca1b fabd
00000300: b077 973e 0017 a83e fdcb 2c3e 964b 3a3c
00000310: 2715 aabd 6b0f 9dbe b543 2b3d f026 58be
00000320: 333f 61be 88b7 8cbe 685c 0e3e c00a 0f3e
00000330: 2edf b4bd 1160 103e 7d0e 51be bfa2 08bc
00000340: 7af0 2abc c2d0 933d 641a 37be fa0c 3b3e
00000350: ec89 aabc e5aa ae3e 95c1 383c 2054 96bd
00000360: 4aa2 83be db95 943d dd75 afbd 7c84 883c
00000370: 5491 15be 9c73 7dbe 6a0e 013e 646a b3bd
00000380: 813b 533e f06a 99be 7de1 3a3e 62ff bbbd
00000390: 77f7 2dbd 9701 4dbd 09f0 83bd 2d61 5dbe
000003a0: dce3 5dbd f3a2 c8bd 7ee0 2a3e da25 08bc
000003b0: b745 77bd d781 b53d 7899 e83d 9eb3 4abe
000003c0: 8063 433d 9b13 03bd d987 50be 3de5 09bd
000003d0: 2c7c a5bc 900f 74bd 913d 5ebb 5aa2 abbc
000003e0: c979 f73d d215 b73d e8a1 0d3e d5f0 b33c
000003f0: ac41 adbd 2906 aebd d71b 97bc 424a e0bc
0.008343541 0.04294833 0.00083155447 0.07562721 0.034841537 0.062297236 -0.028951671 -0.0023618224
-0.04348991 0.028838556 0.058840156 -0.052714724 -0.06419894 0.13789754 -0.1285638 0.0046079317
-0.026614886 0.05904661 0.006873891 -0.014548088 -0.036428142 0.14820051 0.010218265 -0.055904172
-0.13977396 0.13612418 -0.19867763 -0.108833894 -0.015446103 0.06781402 -0.11456889 0.01242175
-0.014140825 0.11643397 0.06394837 0.2548399 -0.12665696 -0.11666216 -0.12687796 -0.14956391
-0.08105516 0.029887393 0.01753434 -0.16257674 -0.22982424 -0.052371766 -0.01140831 -0.06238494
-0.08451277 -0.084066406 0.009867548 0.023002896 -0.15140387 0.13876045 -0.06342207 -0.16858009
-0.15186167 -0.012861815 -0.10923224 -0.030465081 -0.027693475 -0.13505167 0.1571836 0.0475263
0.13785371 -0.19286756 -0.045021966 -0.026005412 0.0533069 0.056086387 0.041131344 -0.23530892
-0.02478369 -0.03470966 0.049349826 0.08198487 0.09926079 0.040652703 0.026832115 -0.045581564
-0.24011761 -0.11179023 -0.12957937 0.041626558 -0.106302276 -0.050651256 0.0047080438 -0.20804618
-0.17770875 0.12271885 -0.03830274 0.07033082 -0.012328771 0.088786125 0.009940289 -0.2545037
0.00032352394 -0.21248314 -0.13172688 0.036118068 -0.13692957 -0.013705801 0.19362909 0.06254224
-0.06456127 -0.103393205 -0.028265517 0.2810562 0.21723254 0.039287917 0.08398823 0.14606279
-0.128452 0.08371254 -0.06613925 -0.047642387 -0.32420412 0.13857816 -0.20421591 0.06557854
-0.20094502 0.3317034 0.0022418161 0.016031353 -0.090352304 -0.1545087 0.06760503 -0.031779822
0.15565102 -0.10163418 -0.11263371 0.109718286 -0.19598123 0.037580885 0.087350056 -0.04567506
0.10008079 -0.16955088 -0.052660488 0.06290292 -0.05951423 0.14989957 -0.035061583 -0.09292964
-0.09557819 0.04705545 0.06244133 -0.12279454 -0.27500102 0.041089922 -0.10986893 0.13714291
-0.13494387 0.3765789 -0.16546172 0.18490341 -0.09140909 0.13548121 -0.05813783 -0.11425743
0.042276736 -0.16302048 0.082808755 0.07051251 0.09959327 0.10907888 -0.10836683 -0.17302462
-0.21343629 -0.1306076 0.051627524 -0.06927692 -0.15173054 0.13380894 -0.05863878 -0.03866296
-0.009093169 -0.21529576 -0.22231337 -0.09283879 -0.08048671 0.07728634 -0.18640459 0.055202026
0.0828258 0.06976979 -0.11099983 -0.05016833 -0.26821315 0.0460289 0.18282184 -0.122123316
0.29583502 0.32830048 0.1687469 0.01137056 -0.08304816 -0.30675825 0.041812617 -0.21108603
-0.21996765 -0.27483773 0.13902438 0.13968945 -0.08831631 0.14099146 -0.20415683 -0.008339583
-0.010433311 0.07217552 -0.17881161 0.18266669 -0.02081772 0.34114757 0.011276622 -0.07340264
-0.25709754 0.07255145 -0.085674025 0.016664736 -0.1460622 -0.24751133 0.12603155 -0.08760527
0.20628168 -0.299644 0.1825008 -0.0917957 -0.04247233 -0.050050344 -0.064422674 -0.21619101
-0.05417238 -0.09796705 0.166872 -0.008309806 -0.06036922 0.088626556 0.11357397 -0.19795081
0.047702312 -0.03200112 -0.20364322 -0.033665884 -0.020200811 -0.059585154 -0.0033911208 -0.020951439
0.120837756 0.08939709 0.13831294 0.021965424 -0.084597915 -0.08497269 -0.018445892 -0.027379159
