sgan-dataset/logs/univ/models_03_Mar_2019_13_48_01/model_registrar-1499.pt (torch_old, 575415 bytes, 45 tensors)

weight_ih_l0 f4 [128, 6]
0	0xbddd52a7	-0.1080678
1	0xbc9366cb	-0.017993351
2	0xbdfa8a5d	-0.12233422
3	0x3e34916d	0.176336
4	0xbe023baa	-0.12718073
5	0x3e3a7afb	0.18210976
6	0xbe2e7d43	-0.17039971
7	0xbe4f5e6a	-0.2025086
8	0xbde82242	-0.11334659
9	0x3e86f41f	0.26358125
10	0x3d411e63	0.04714812
11	0xbde603ea	-0.11231215
12	0xbe1cc52c	-0.1530959
13	0xbdeff899	-0.11717338
14	0xbd9d191d	-0.076708056
15	0xbc36ccc2	-0.0111572165
16	0xbe9e69d7	-0.30940124
17	0x3e4da629	0.20082916
18	0xbdce0c4a	-0.10060938
19	0xbd2d4d4a	-0.042310037
20	0x3df00a4a	0.117207125
21	0x3dd5e88b	0.10444745
22	0xbe3af3cd	-0.18257065
23	0x3e3c72dc	0.1840319
24	0xbdf19d86	-0.11797623
25	0x3c8919d3	0.016735947
26	0xbe669a0d	-0.22519703
27	0x3e20ec9d	0.15715261
28	0x3dc80f07	0.09768491
29	0xbe330b2c	-0.1748473
30	0x3e301d2c	0.17198628
31	0x3de5614b	0.11200198
32	0xbcbf0771	-0.023318978
33	0x3de6d2e5	0.11270694
34	0x3e73e823	0.23819022
35	0x3c07774d	0.00826819
36	0xbe4def79	-0.20110883
37	0xbdd957f6	-0.1061248
38	0xbe8d439b	-0.2759064
39	0xbbd10008	-0.0063781776
40	0xbd5f7804	-0.054557815
41	0xbe214b1e	-0.15751311
42	0xbb16ecbb	-0.0023029286
43	0x3e453319	0.19257773
44	0xbeec52f6	-0.46157044
45	0x3e192e36	0.14959034
46	0xbd9659a1	-0.07341314
47	0x3d64266e	0.055700712
48	0x3e1d5a76	0.1536654
49	0x3dd13561	0.10215259
50	0x3d9b0077	0.07568448
51	0x3e259e68	0.16173708
52	0xbd58ad27	-0.052899506
53	0x3ca02b8e	0.019552018
54	0xbe562705	-0.20913322
55	0xbe9d639d	-0.3074006
56	0x3d520d31	0.05128211
57	0x3eb9d51e	0.36295408
58	0xbdf3b929	-0.11900551
59	0xbe5f6468	-0.21815646
60	0xbd144a1b	-0.036203485
61	0x3df122d2	0.117742196
62	0xbee9ba28	-0.45649838
63	0x3e382156	0.17981467
64	0xbd944fb4	-0.07241765
65	0x3d78a3f9	0.06070325
66	0xbd62e6ab	-0.055395763
67	0xbcbb4fab	-0.022865137
68	0x3d22fd9b	0.03979264
69	0x3de0dcdb	0.10979625
70	0x3e163561	0.146688
71	0x3deaeb60	0.114706755
72	0xbe53fd7e	-0.20702168
73	0xbe6f62fd	-0.23377605
74	0x3dd496b2	0.10380305
75	0xbd614b6d	-0.055003572
76	0x3da87fb9	0.08227486
77	0xbe5e3f57	-0.2170385
78	0xbe0909d6	-0.13382658
79	0x3c963a8b	0.018338462
80	0x3e9d9c8f	0.30783507
81	0x3dabff1a	0.08398266
82	0xbe1606a7	-0.14650975
83	0x3dde6dc4	0.1086078
84	0xbddc6b47	-0.10762649
85	0xbd678883	-0.056526672
86	0xbe5b96cf	-0.21444248
87	0x3e32ff71	0.17480256
88	0xbd0b8729	-0.034064446
89	0xbd6d0858	-0.057869285
90	0xbe25e3fc	-0.1620025
91	0x3e1abffa	0.15112296
92	0x3dbbbd56	0.09166972
93	0x3ea88363	0.3291274
94	0x3d9c088b	0.07618817
95	0xbad0f679	-0.0015942595
96	0xbd85e1f1	-0.065372355
97	0xbd7c9a8a	-0.061670817
98	0xbc519408	-0.012791641
99	0x3d835685	0.06412987
100	0x3dd81432	0.10550727
101	0xbddafe69	-0.10693056
102	0xbb38e022	-0.0028209765
103	0xbe15926c	-0.14606637
104	0x3e0de1e4	0.13855702
105	0xbe5badaa	-0.21452966
106	0xbc91faa2	-0.017819706
107	0x3e41bdc4	0.18920046
108	0x3d6477c7	0.05577829
109	0xbd48b093	-0.04899652
110	0x3d54bde2	0.0519389
111	0x3cfe09bf	0.031010507
112	0xbc29d352	-0.010365324
113	0xbd73dc9c	-0.05953656
114	0xbbbb84fb	-0.0057226396
115	0x3d58e477	0.052952256
116	0xbea04935	-0.31305853
117	0x3da413b6	0.08011572
118	0x3df38e60	0.1189239
119	0x3e8e3b85	0.27779785
120	0xbda4a34b	-0.08038958
121	0x3d9da7b1	0.07698
122	0x3ef1b226	0.4720623
123	0xbe5ec57f	-0.21755026
124	0xbb3d791b	-0.0028911296
125	0xbd6b1d5a	-0.05740104
126	0xbdc2b916	-0.095079586
127	0xbda9a39e	-0.082831606
128	0xbd53680c	-0.0516129
129	0xbe1e7d47	-0.15477477
130	0xbec6e442	-0.38846022
131	0x3e5c3c5e	0.21507403
132	0xbca3a786	-0.019977342
133	0xbe0e985f	-0.13925312
134	0xbe9052fc	-0.28188312
135	0xbdfd5ee0	-0.123716116
136	0x3db631d5	0.088962235
137	0x3d0f0e9c	0.034926042
138	0xbe274126	-0.16333446
139	0xbe445209	-0.19171919
140	0xbe16c056	-0.14721808
141	0x3e810a54	0.25203192
142	0x3dfbcec3	0.12295296
143	0x3e7e0039	0.24804772
144	0xbd5cfc88	-0.05395177
145	0xbe21f3c3	-0.15815644
146	0xbe9d4d96	-0.30723256
147	0x3e3a388d	0.18185635
148	0xbdf8b352	-0.12143578
149	0xbd32f4a0	-0.043690324
150	0xbe648183	-0.2231503
151	0xbe216019	-0.15759315
152	0x3d64f03e	0.055893175
153	0x3e9b2bc1	0.3030682
154	0xbcb805bb	-0.02246367
155	0x3ea3f929	0.32026032
156	0xbe7305d2	-0.23732689
157	0xbc943c5a	-0.018095184
158	0xbe10dde9	-0.14147152
159	0x3f1991e2	0.59988225
160	0x3e8b1dfb	0.2717131
161	0x3ecdaa54	0.40169013
162	0xbe37e95b	-0.17960112
163	0x3e1c1c32	0.1524513
164	0x3eeea1b2	0.4660774
165	0x3ea1b3e4	0.31582558
166	0xbd3385cb	-0.043828767
167	0x3e84f019	0.2596443
168	0x3dfa46c3	0.12220528
169	0x3e0ba88c	0.13638514
170	0xbd0e32ec	-0.03471653
171	0xbcada251	-0.021195563
172	0x3ddcc1ba	0.10779138
173	0x3deb3fbd	0.114867665
174	0xbe6d46d6	-0.23171553
175	0xbe624dcc	-0.2209999
176	0xbeb5259c	-0.35380256
177	0xbeb2c60f	-0.34916732
178	0xbc71d83d	-0.014761028
179	0xbd445151	-0.047929112
180	0xbd3ce6ba	-0.046118475
181	0x3d2e4ec1	0.042555574
182	0x3d1e66ed	0.038672376
183	0xbedd6829	-0.4324353
184	0xbe245a02	-0.1604996
185	0xbd87afd0	-0.066253304
186	0xbdcc218b	-0.09967335
187	0x3db2c2c2	0.08728553
188	0x3d43015c	0.04760872
189	0xbec4f157	-0.38465378
190	0xbe148283	-0.14502911
191	0xbe41b709	-0.18917479
192	0x3ccd1791	0.025035651
193	0x3deaecd6	0.11470954
194	0xbe1adfae	-0.1512439
195	0xbd5ae94a	-0.053445138
196	0x3df9b015	0.12191788
197	0xbc8b13e1	-0.016977252
198	0x3ddb4b27	0.107076935
199	0xbb1eadbf	-0.0024212447
200	0xbd2eb59f	-0.042653676
201	0x3e476e64	0.19475704
202	0x3db09c2d	0.08623538
203	0xbe34aeff	-0.1764488
204	0xbe0b5e22	-0.13610128
205	0xba8eb122	-0.001088653
206	0xbcbf7bfd	-0.023374552
207	0x3c9f856a	0.019472796
208	0xbda9168d	-0.08256254
209	0x3dfcb5a5	0.123393334
210	0xbe3b2958	-0.1827749
211	0xbe1d9c1c	-0.15391582
212	0xbbef6911	-0.007306226
213	0x3e50de38	0.2039727
214	0xbdc41469	-0.095742054
215	0xbdd9fcf9	-0.10643954
216	0x3d54cef1	0.051955167
217	0xbe04b8cf	-0.12961124
218	0xbdda3acd	-0.106557466
219	0x3dae5350	0.08511984
220	0xbe367c94	-0.1782096
221	0xbdaac555	-0.08338419
222	0x3dadb005	0.08480839
223	0xbcef2305	-0.029191503
224	0xbb9bc950	-0.004754223
225	0xbe0078e3	-0.12546115
226	0x3ca1c4e6	0.019747209
227	0xbe35cdf9	-0.17754354
228	0x3d1dfb5f	0.038569804
229	0xbd0c4bb6	-0.03425189
230	0xbdfeab0e	-0.1243497
231	0xbd3fd7a4	-0.04683651
232	0xbdff3032	-0.124603644
233	0x3d52a520	0.051427007
234	0x3b81b8af	0.0039587836
235	0xbdce6107	-0.100771
236	0xbed98cd4	-0.42490256
237	0x3d91661a	0.070995525
238	0xbd8e9e5d	-0.06963799
239	0x3e12db60	0.14341497
240	0x3dccc492	0.0999843
241	0xbd0adbec	-0.03390114
242	0xbdcdaf9d	-0.10043261
243	0xbc317257	-0.010830483
244	0x3d4ece84	0.050489917
245	0x3e039d98	0.12853086
246	0xbe6bf8f3	-0.23044185
247	0xbdfb8a5a	-0.12282248
248	0x3e70fd90	0.23534226
249	0x3e33d11c	0.17560238
250	0x3c803b17	0.015653176
251	0xbd4da18b	-0.050202888
252	0x3d6a624b	0.057222646
253	0xbe3ad6df	-0.1824603
254	0xbecec07e	-0.40381235
255	0x3ea8c226	0.32960624

weight_hh_l0 f4 [128, 32]
0	0xbe26ba99	-0.16282119
1	0xbe0edd35	-0.13951571
2	0xbd801c37	-0.062553816
3	0x3e3e1afe	0.18564984
4	0xbc9aefd9	-0.018913196
5	0xbcc34cdc	-0.02384036
6	0xbe52072a	-0.20510545
7	0xbc7cce56	-0.015430054
8	0x3e0885c4	0.13332278
9	0x3e4cc144	0.199956
10	0x3d5288a6	0.05139985
11	0x3e463fa2	0.19360211
12	0x3b8cfda5	0.0043026977
13	0x3e30170b	0.1719629
14	0x3dad6ac3	0.08467629
15	0x3e3606b3	0.17775993
16	0x3daa0781	0.083022125
17	0xbe0b0c3b	-0.13578884
18	0x3d97e1f1	0.07416142
19	0xbe123a22	-0.14279988
20	0xbda8aa66	-0.08235626
21	0xbe2b206c	-0.16711587
22	0xbde9d89e	-0.114182696
23	0xbdd5ff61	-0.104491
24	0x3ddbd733	0.10734405
25	0xbdaca75e	-0.0843036
26	0x3e0201ed	0.12696047
27	0x3e0f976b	0.14022605
28	0x3dc270b6	0.09494154
29	0x3d864bfd	0.06557462
30	0x3dd462b8	0.103703916
31	0xbe317ebe	-0.17333505
32	0x3db2f765	0.08738593
33	0xbe1bcbb2	-0.15214422
34	0x3d516697	0.051123228
35	0xbc980150	-0.018555313
36	0x3d915684	0.0709658
37	0x3e04c059	0.12964
38	0xbc5655db	-0.013081993
39	0xbdb6b401	-0.08921052
40	0x3e0e9950	0.13925672
41	0x3baf7292	0.005354234
42	0xbe0d64db	-0.13808005
43	0xbdd51ca5	-0.10405854
44	0xbe20bc19	-0.15696754
45	0x3e2fd215	0.17169984
46	0x3e08eefd	0.13372417
47	0x3be71f10	0.0070532635
48	0x3e1b78c1	0.15182783
49	0x3dd25ce0	0.10271621
50	0xbda3f9dc	-0.08006641
51	0x3cc78dab	0.024359545
52	0x3ca41a12	0.020031963
53	0xbdf38d0e	-0.118921384
54	0xbe074043	-0.13208108
55	0xbd2e5e87	-0.042570617
56	0xbadccdfe	-0.0016846058
57	0xbc2db919	-0.010603213
58	0xbe03eda6	-0.12883624
59	0xbdfe5f58	-0.12420529
60	0xbcb32b9e	-0.021871384
61	0x3d595e71	0.053068582
62	0x3d885996	0.06657712
63	0xbe049482	-0.12947276
64	0x3db4b2a2	0.08823134
65	0xbdfad9d8	-0.12248582
66	0xbda9aca0	-0.08284879
67	0x3da6cc43	0.081444286
68	0x3d37a383	0.04483367
69	0x3d87bc2d	0.066276886
70	0xbe352622	-0.17690328
71	0xbe36e8d9	-0.17862262
72	0xbd003a4c	-0.031305596
73	0x3dfe66c9	0.124219485
74	0xbe2e9a11	-0.17050959
75	0x3dd63a96	0.10460393
76	0xbdd6b3ff	-0.1048355
77	0xbdd3b002	-0.10336305
78	0x3dfd380c	0.12364206
79	0xbdfe6541	-0.124216564
80	0x3d8e8985	0.069598235
81	0xbce36b32	-0.027761076
82	0x3e14ba54	0.14524204
83	0xbe3ac133	-0.18237762
84	0x3dc6cabe	0.09706639
85	0x3e0f4168	0.13989794
86	0x3d0f5351	0.034991566
87	0x3e28c9b6	0.16483197
88	0x3e0481fe	0.12940213
89	0x3dc55c94	0.096367985
90	0x3dc54ec5	0.09634165
91	0x3e335a5f	0.17514943
92	0x3dfb5b00	0.12273216
93	0x3d33b40d	0.04387288
94	0xbda1fb3f	-0.079092495
95	0x3dcc6ccd	0.099816896
96	0xbc43fd9d	-0.011962322
97	0xbc6d1c88	-0.014472134
98	0x3dc3ae38	0.09554714
99	0x3e3510e7	0.17682229
100	0xbea53c6e	-0.32272667
101	0xbd1f5615	-0.038900454
102	0xbdfe1a61	-0.12407375
103	0x3cac5d91	0.02104071
104	0xbd9202d0	-0.07129443
105	0x3e6ef4fc	0.23335642
106	0xbdac4bff	-0.084129326
107	0xbd62aa05	-0.055337925
108	0xbe826abe	-0.25472063
109	0xbdab5230	-0.083652854
110	0xbe0df30d	-0.13862248
111	0xbd380c75	-0.044933755
112	0xbd9e4c5b	-0.077294074
113	0x3e70fff8	0.23535144
114	0xbdccb10f	-0.09994709
115	0xbdbb61a9	-0.091494866
116	0x3d22f98c	0.039788768
117	0x3e8ca606	0.27470416
118	0x3dbd1a5d	0.09233544
119	0xbd9f107e	-0.077668175
120	0x3ca002c2	0.019532565
121	0x3d0c1458	0.03419909
122	0xbc8612d2	-0.016366396
123	0x3e2869c3	0.16446595
124	0xbe4f3afb	-0.20237343
125	0x3df67610	0.120342374
126	0x3d8a4d5c	0.067530364
127	0x3d302044	0.04299952
128	0xbe219458	-0.15779245
129	0xbd41fb3a	-0.04735873
130	0x3e25e8f2	0.16202143
131	0xbe16f784	-0.14742857
132	0x3de5da47	0.11223274
133	0xbe057884	-0.13034254
134	0xbd8688f9	-0.06569094
135	0x3dd2a6a0	0.102856874
136	0xbe28a0aa	-0.16467538
137	0xbe7da36a	-0.24769369
138	0xbc7d6393	-0.015465635
139	0xbe055d25	-0.13023813
140	0x3ca7dd3c	0.020491235
141	0x3de2bc52	0.110710755
142	0x3dc1854d	0.09449253
143	0xbe003f63	-0.1252418
144	0x3d342fe8	0.043991
145	0xbe10f544	-0.14156061
146	0xbe0d945d	-0.13826127
147	0x3d999567	0.07499199
148	0x3d8ecab7	0.069722585
149	0x3e06744e	0.13130304
150	0x3d473260	0.048632026
151	0xbd9c91b8	-0.07644981
152	0xbc0fec5a	-0.008784378
153	0xbe0e1301	-0.13874437
154	0xbe576ce8	-0.21037638
155	0xbdfb6a20	-0.12276101
156	0x3e3ba5d9	0.18324985
157	0xbdb8c785	-0.0902243
158	0x3e079807	0.13241588
159	0xbdf6c359	-0.12048978
160	0x3e43f266	0.19135436
161	0xbdbf1c63	-0.09331586
162	0x3d2df4cb	0.04246978
163	0xbe51d1f0	-0.20490241
164	0xbd96d2a0	-0.07364392
165	0xbd67f8c8	-0.05663374
166	0xbb0a31f0	-0.0021086894
167	0xbd1d8d4c	-0.03846483
168	0xbd44a60f	-0.04800993
169	0xbdad41ba	-0.08459802
170	0x3dd3e437	0.10346263
171	0xbe3c8b1f	-0.18412445
172	0xbdeee241	-0.11664248
173	0x3d3572f2	0.044299074
174	0xbc9b07b6	-0.018924575
175	0xbd412aa2	-0.0471598
176	0x3c95e237	0.018296344
177	0x3e2b5530	0.16731715
178	0xbe2c92e1	-0.16852905
179	0x3e06a655	0.13149388
180	0x3d9b7f29	0.07592613
181	0xbdb3fe5d	-0.0878875
182	0xbcc92e85	-0.024558315
183	0xbd9dd2c0	-0.07706213
184	0xbd3ade5f	-0.045622226
185	0xbe014103	-0.12622456
186	0x3db62424	0.08893612
187	0x3e5bfe35	0.21483691
188	0x3d7afc9e	0.06127607
189	0x3dbfda05	0.09367756
190	0x3e0075ed	0.12544985
191	0x3db33a8b	0.087514006
192	0x3e393540	0.1808672
193	0x3d429340	0.04750371
194	0xbe1666d6	-0.14687666
195	0x3e38dcb4	0.18052942
196	0xbd0dfe1d	-0.03466617
197	0xbd646fef	-0.05577081
198	0x3b8aa628	0.004231233
199	0xbe4051b5	-0.18781169
200	0xbd790db6	-0.06080409
201	0xbc9860f1	-0.018600913
202	0x3c017aba	0.007902795
203	0xbdc93de3	-0.09826257
204	0xbcf99ef6	-0.030471306
205	0x3e290596	0.16506037
206	0xbc7aa9e5	-0.015299295
207	0x3dbf1073	0.09329309
208	0x3d2dddf1	0.042447988
209	0xbda1dd23	-0.079035066
210	0x3c821db5	0.015883306
211	0xbe25642a	-0.16151491
212	0x3e09b453	0.13447694
213	0x3e245c40	0.16050816
214	0x3e11b076	0.14227471
215	0xbc941c67	-0.01807995
216	0xbe53a822	-0.20669606
217	0xba3f8f23	-0.0007307401
218	0x3d9f41cc	0.07776222
219	0x3da32620	0.07966256
220	0xbe4e9a96	-0.20176157
221	0x3dd73b79	0.105093904
222	0xbddddd29	-0.108331986
223	0x3d7e51d4	0.062089756
224	0x3e48c29e	0.1960549
225	0xbd912c74	-0.07088557
226	0xbd72b0bb	-0.059250575
227	0x3db40bda	0.08791323
228	0xbdb6d8a5	-0.089280404
229	0x3db340e8	0.08752614
230	0x3c77b29b	0.015118266
231	0x3b9cb555	0.0047823587
232	0x3ba40a03	0.0050060763
233	0xbe79412a	-0.24341264
234	0xbd47d780	-0.0487895
235	0xbe16371c	-0.1466946
236	0x3e92bc11	0.28659108
237	0xbdf076d5	-0.117414154
238	0x3da3cc4c	0.07997951
239	0x3d77d0c8	0.060501844
240	0x3ea34e0f	0.3189549
241	0xbdd51cd1	-0.10405887
242	0xbe134465	-0.14381559
243	0xbcb1b989	-0.021694915
244	0xbe209a66	-0.15683898
245	0xbe05f279	-0.13080777
246	0xbda615a3	-0.081095956
247	0xbe0ae33d	-0.13563247
248	0x3d212326	0.03934016
249	0x3dc015bd	0.09379146
250	0x3b8479d3	0.004042843
251	0x3d9f3372	0.07773484
252	0x3e0ce0d2	0.13757637
253	0x3e45dda3	0.19322829
254	0x3a97ad41	0.001157202
255	0x3dc57404	0.09641269

bias_ih_l0 f4 [128]
0	0xbd9bc1b2	-0.07605304
1	0xbd9d50a6	-0.07681398
2	0xbc84dfba	-0.016219962
3	0xbc9f9ba8	-0.019483402
4	0xbe1e6a74	-0.15470296
5	0x3e08bd99	0.13353576
6	0xbd3c326e	-0.04594653
7	0xbe318823	-0.17337088
8	0x3c8cfc19	0.017210053
9	0x3d5f330d	0.054492045
10	0x3e659544	0.22420222
11	0x3e17459d	0.14772649
12	0x3d7e7789	0.062125716
13	0xbe00aa15	-0.12564881
14	0x3db3a7b7	0.087722234
15	0xbe0a0d1d	-0.13481565
16	0x3d9c389b	0.07627984
17	0x3df392f8	0.118932664
18	0xbd2b64ac	-0.041844055
19	0x3dec4f01	0.11538506
20	0x3c0aa88d	0.008463037
21	0x3c7b57f4	0.015340794
22	0xbd40550a	-0.0469561
23	0xbc02ee12	-0.007991331
24	0x3e000763	0.12502818
25	0x3dd0d4c4	0.10196832
26	0x3cc71bbc	0.024305217
27	0x3d96376d	0.073347904
28	0xbd3bbea9	-0.045836125
29	0xbd811c05	-0.063041724
30	0xbe3f2512	-0.18666485
31	0xbd35d5cb	-0.044393342
32	0x3e46fde3	0.19432788
33	0xbe0b1e9f	-0.135859
34	0xbe1d957d	-0.15389057
35	0x3e7b2454	0.24525577
36	0xbe18bcd2	-0.14915779
37	0xbdaa91df	-0.08328604
38	0xbe11c3f6	-0.1423491
39	0xbb15f097	-0.0022878998
40	0xbe12adce	-0.14324114
41	0x3de18de9	0.11013395
42	0x3d551e84	0.052031055
43	0x3d3b3f0b	0.04571442
44	0xbd7cac89	-0.06168798
45	0x3e4d73c5	0.20063694
46	0xbc95401d	-0.018219048
47	0xbde1dc26	-0.11028318
48	0x3e0de17d	0.13855548
49	0x3daacc25	0.08339719
50	0xbd9d30d3	-0.07675328
51	0x3da71300	0.08157921
52	0xbe1d293c	-0.15347761
53	0x3dcec957	0.10096996
54	0x3de1cab1	0.110249884
55	0x3dfd6e63	0.1237457
56	0x3dbd767e	0.09251116
57	0x3e2084c8	0.15675652
58	0x3e374e61	0.17900993
59	0x3e1503cc	0.1455223
60	0xbd0dd58a	-0.034627475
61	0xbd61f155	-0.055161793
62	0xbd966928	-0.07344276
63	0xbe1c6864	-0.15274197
64	0x3dbc738f	0.092017286
65	0x3e18257e	0.14858052
66	0xbce1bf98	-0.02755718
67	0x3d45da88	0.04830411
68	0xbd4db1e8	-0.050218493
69	0x3c99d43c	0.018777959
70	0x3dd2a576	0.102854654
71	0xbd9c938e	-0.07645331
72	0xbc51f8b9	-0.012815648
73	0x3dc61bd6	0.09673278
74	0xbde3ea90	-0.111287236
75	0x3d2cd563	0.04219569
76	0xbdff82cd	-0.1247612
77	0xbd170739	-0.036872122
78	0xbd86ec30	-0.06588018
79	0xbe48796a	-0.19577566
80	0xbdfc2fec	-0.12313828
81	0xbe0f03b4	-0.13966256
82	0x3de70abf	0.112813465
83	0xbb5406fe	-0.00323528
84	0x3c2ed6e2	0.010671349
85	0x3deea279	0.11652083
86	0x3dcdca48	0.10048348
87	0xbe0e5524	-0.13899666
88	0x3e124a54	0.14286166
89	0xbde51f51	-0.11187614
90	0x3de5209a	0.11187859
91	0xbe0b2804	-0.13589483
92	0xbdcc6573	-0.099802874
93	0x3e04a094	0.1295188
94	0x3a3239b6	0.0006798761
95	0xbdbd8ba5	-0.09255151
96	0x3dd85cc9	0.10564572
97	0xbdf5e363	-0.12006261
98	0x3c5b0f8e	0.013370408
99	0x3cc2976a	0.02375384
100	0xbc189b1e	-0.009314327
101	0x3d7e9b23	0.06215967
102	0xbc0f042f	-0.008729025
103	0xbe1d697d	-0.15372272
104	0xbddc59d9	-0.107593246
105	0x3db1d50c	0.086832136
106	0xbc1a2b9c	-0.009409811
107	0x3dab36f9	0.083600946
108	0x3d0a82d2	0.033816166
109	0xbe264569	-0.16237415
110	0x3dfa1314	0.1221067
111	0x3d5617c7	0.05226877
112	0x3e21408c	0.15747279
113	0x3d234d0d	0.039868403
114	0x3d437a6a	0.047724165
115	0x3b58bfff	0.0033073423
116	0x3de11f72	0.10992326
117	0xbc230e06	-0.009952074
118	0xbdb88d8e	-0.090113744
119	0x3c96cc7e	0.018408056
120	0xbdac8702	-0.08424188
121	0x3e0231c1	0.12714292
122	0x3e288ccc	0.1645996
123	0x3c414881	0.011797071
124	0x3da90903	0.08253672
125	0x3e157f47	0.14599334
126	0xbe07b65a	-0.13253155
127	0xbd7011c2	-0.058610685

bias_hh_l0 f4 [128]
0	0xbdf6765f	-0.12034296
1	0xbd82787f	-0.06370639
2	0xbe199c54	-0.1500104
3	0x3e116857	0.14199959
4	0xbc33083f	-0.010927259
5	0xbde206aa	-0.11036427
6	0xbe17236b	-0.14759605
7	0x3b896b03	0.004193665
8	0x3dd19bca	0.102347925
9	0x3e60a724	0.21938759
10	0xbd041a2a	-0.032251514
11	0x3cbb95ae	0.022898521
12	0xbe346567	-0.17616807
13	0x3e2caac3	0.16862015
14	0x3e035d4b	0.12828557
15	0x3cd1c13c	0.025604837
16	0xbc2f18aa	-0.010687033
17	0x3de45654	0.11149278
18	0xbe0cd5d0	-0.13753438
19	0x3d91a104	0.071107894
20	0x3e1fe332	0.15614012
21	0x3e48c37c	0.19605821
22	0xbc96fb76	-0.018430453
23	0x3d66a197	0.056306448
24	0x3cdaa379	0.026689278
25	0x3db1d8fe	0.08683966
26	0x3dc86ac1	0.09785987
27	0xbc955f6f	-0.018233983
28	0xbe028579	-0.12746228
29	0xbd943e7c	-0.072384804
30	0xbdefea17	-0.11714571
31	0x3bbdfa0e	0.005797631
32	0x3dd8345d	0.105568625
33	0xbde0ce90	-0.10976899
34	0x3dab9e9e	0.08379863
35	0x3d203399	0.039111707
36	0x3e23074e	0.15920755
37	0x3da2ef02	0.07955743
38	0xbab86634	-0.0014068545
39	0xbe16a4e0	-0.14711332
40	0xbd9016ac	-0.07035574
41	0x3d5cd280	0.053911686
42	0x3d915677	0.0709657
43	0xbc7d8890	-0.015474454
44	0xbd8408fe	-0.064470276
45	0x3cadabb6	0.021200042
46	0x3db3aeae	0.08773552
47	0xbd7675bf	-0.060170885
48	0x3bfe3161	0.0077573513
49	0x3c7d83e7	0.0154733425
50	0xbd463f55	-0.048400242
51	0xbdcc32f8	-0.09970659
52	0xbc1ccba1	-0.009570033
53	0xbd7d3d9c	-0.061826333
54	0xbde70c32	-0.11281623
55	0x3dc41cd9	0.09575815
56	0xbde37908	-0.11107069
57	0xbe1b8456	-0.15187201
58	0xbd98a1d6	-0.07452743
59	0x3dadbb30	0.08482969
60	0xbd80b6b7	-0.0628485
61	0x3e370b89	0.17875494
62	0x3d703286	0.058641933
63	0x3e18377f	0.1486492
64	0xbe43d4d7	-0.1912416
65	0xbdf6278d	-0.120192625
66	0x3e11f14c	0.14252204
67	0xbbf01710	-0.007326968
68	0x3e536593	0.20644216
69	0x3d514d5b	0.051099163
70	0xbdaa92cf	-0.08328783
71	0xbcf22d0d	-0.029562498
72	0x3e03864b	0.12844197
73	0x3b4c1cb2	0.0031145033
74	0x3c878b08	0.016545787
75	0x3d73ab09	0.059489284
76	0x3d652e39	0.055952284
77	0x3cf24176	0.02957223
78	0xbe1307eb	-0.14358489
79	0xbd4ad2bb	-0.049517374
80	0xbcf75f4f	-0.030196814
81	0x3dd262ee	0.102727756
82	0x3d1cb71f	0.038260575
83	0xbe04eea7	-0.12981664
84	0xbe15d0a6	-0.14630374
85	0x3d65a766	0.056067847
86	0xbe128bc5	-0.1431113
87	0x3ddf65df	0.10908102
88	0xbdc3dc85	-0.09563545
89	0xbbcc561f	-0.0062358524
90	0x3deb3440	0.11484575
91	0xbcac6da6	-0.021048378
92	0xbdb4efeb	-0.08834823
93	0xbe18b461	-0.14912559
94	0xbcc3895a	-0.023869205
95	0x3c3b80f5	0.01144432
96	0xbc19e98a	-0.009394059
97	0x3c69afb8	0.014263086
98	0xbe1227bf	-0.14272974
99	0x3e808bd9	0.25106695
100	0x3db6e2c9	0.089299746
101	0xbd0d1c3c	-0.034450755
102	0x3e426831	0.18985058
103	0x3e20a2bc	0.15687078
104	0xbe25790e	-0.1615946
105	0x3ddf9b33	0.10918274
106	0x3e6d6c46	0.23185834
107	0x3e24585d	0.16049333
108	0x3d3c5310	0.045977652
109	0x3cfc612a	0.03080805
110	0x3d2bdf7c	0.04196118
111	0x3d764da6	0.060132645
112	0x3e34304e	0.17596552
113	0xbdc67f9b	-0.096923076
114	0x3e1c7ceb	0.15282027
115	0xbdf621fc	-0.12018201
116	0x3d957202	0.07297136
117	0x3e397d81	0.18114282
118	0x3d7c917a	0.061662175
119	0x3e1a9f08	0.15099728
120	0x3dd4257b	0.10358711
121	0x3dd2844b	0.10279139
122	0x3e5db5e7	0.21651421
123	0x3c937602	0.018000606
124	0xbd3fb52b	-0.046803635
125	0x3e0fd281	0.14045145
126	0xbdd8176d	-0.10551343
127	0x3e1189f5	0.14212783

weight_ih_l0 f4 [128, 2]
0	0x3e7c2249	0.24622454
1	0x3ea75a95	0.32686296
2	0xbebe61d2	-0.37184006
3	0xbec73f77	-0.38915607
4	0x3e16d7c1	0.14730741
5	0xbec00fe5	-0.37512127
6	0xbda5ce99	-0.08096046
7	0xbe39babd	-0.18137641
8	0xbcfee2cd	-0.031114006
9	0xbe87c1cd	-0.26515046
10	0x3ec590f5	0.38587156
11	0xbe64a0be	-0.22326943
12	0xbdadbb5e	-0.08483003
13	0x3e401e28	0.18761504
14	0xbf0e779e	-0.5565127
15	0xbe709ab2	-0.23496512
16	0x3e5a23a5	0.2130266
17	0xbe2a0565	-0.1660362
18	0x3d296d95	0.04136427
19	0x3dbb9a36	0.09160273
20	0xbedf784e	-0.43646473
21	0x3ebf0c17	0.3731391
22	0x3da66f77	0.08126729
23	0xbe064456	-0.13112006
24	0x3e7af2f2	0.24506739
25	0x3e8c576a	0.27410442
26	0xbf062bd8	-0.5241065
27	0xbe14047b	-0.14454834
28	0xbcf2b95d	-0.029629404
29	0xbd05add9	-0.032636497
30	0x3e35b5e7	0.17745171
31	0xbccb0d00	-0.024786472
32	0xbd9ec168	-0.07751733
33	0x3c3f1153	0.011661845
34	0x3d54d7ed	0.051963735
35	0xbe6ecd38	-0.23320472
36	0xbf3a7445	-0.72833663
37	0xbdaa6d0d	-0.08321581
38	0x3f0a91db	0.5412881
39	0x3f134a29	0.57535034
40	0xbe4710f3	-0.1944006
41	0xbe7d9101	-0.24762346
42	0xbeced9f5	-0.40400663
43	0x3e125405	0.14289863
44	0xbf20541d	-0.62628347
45	0x3e46261f	0.1935048
46	0xbf9db8af	-1.2321986
47	0x3cd6f0f0	0.026237935
48	0x3e9043c4	0.281767
49	0xbc74b02a	-0.014934579
50	0xbfd4a59b	-1.6613039
51	0xbd20b1af	-0.039231952
52	0x3e9eb7ab	0.30999503
53	0xbe0603f7	-0.1308745
54	0xbe4f59a6	-0.20249042
55	0x3e7ce844	0.24697977
56	0xbf048c43	-0.5177652
57	0x3e35dbdc	0.17759651
58	0x3e2d03d3	0.1689599
59	0xbe153c49	-0.14573778
60	0x3d18403c	0.037170634
61	0xbf03c834	-0.5147736
62	0xbe958d89	-0.29209545
63	0xbe6272f5	-0.22114165
64	0xbdd46793	-0.10371318
65	0xbe8d2ff2	-0.27575642
66	0x3e974367	0.2954361
67	0x3b3859da	0.0028129728
68	0x3e10b434	0.14131242
69	0xbdb5598a	-0.08854969
70	0x3daca238	0.08429378
71	0xbe2eec1a	-0.17082253
72	0x3defb853	0.11705079
73	0xbe115041	-0.1419077
74	0xbe406b7f	-0.18791007
75	0xbeb8b77c	-0.36077487
76	0xbe7ebe45	-0.2487727
77	0x3d295095	0.041336615
78	0x3df1c5b6	0.118052885
79	0x3db2d255	0.08731524
80	0x3eec9169	0.4620469
81	0xbeaabfbf	-0.33349416
82	0x3b33e436	0.0027449257
83	0x3e18a35b	0.14906065
84	0x3ece4cc9	0.40292957
85	0xbe21fb03	-0.1581841
86	0xbe808ad2	-0.25105911
87	0xbe0dd252	-0.13849762
88	0x3eb91218	0.36146617
89	0x3e9bbf4c	0.30419385
90	0xbf1db47c	-0.6160352
91	0x3e1947a9	0.14968742
92	0x3ebc9997	0.3683593
93	0x3e9abe2c	0.30223215
94	0x3ea9cea3	0.33165464
95	0x3e406fdf	0.18792675
96	0xbec4ab20	-0.38411808
97	0xbcb23eb7	-0.02175842
98	0xbea17e02	-0.3154145
99	0x3d9bec4b	0.07613429
100	0xbab079e0	-0.0013464056
101	0x3d8f0b85	0.06984619
102	0xbf1b0e23	-0.60568446
103	0xbdd8df8d	-0.10589514
104	0x3f710155	0.9414266
105	0xbe3d82ce	-0.1850693
106	0x3f3f8be3	0.74822825
107	0xbe23a8ce	-0.15982363
108	0xbd8a8211	-0.067630894
109	0xbe9d4972	-0.30720097
110	0x3eb8e22b	0.36110052
111	0x3cd7703f	0.02629864
112	0x3d8aad05	0.06771282
113	0xbedf8d65	-0.43662563
114	0x3e9dee51	0.30845883
115	0x3da498c1	0.08036948
116	0xbdbcdb06	-0.09221463
117	0xbd601d08	-0.054715186
118	0x3f08a4bf	0.5337638
119	0xbee0092d	-0.43757
120	0x3e161017	0.14654575
121	0xbe4c4dc4	-0.1995154
122	0xbe875531	-0.26432183
123	0x3df1d155	0.11807505
124	0xbdc59433	-0.096474074
125	0xbf173355	-0.590627
126	0xbe7d3548	-0.24727356
127	0xbe711445	-0.23542888
128	0x3e36810d	0.17822666
129	0x3e872db2	0.2640205
130	0xbca0e43c	-0.01964008
131	0xbe007a5b	-0.12546675
132	0xbddc84c5	-0.10767511
133	0x3e53b663	0.20675044
134	0xbe6934da	-0.22774068
135	0x3e003bb6	0.12522778
136	0xbd8abab0	-0.06773889
137	0xbe96daa8	-0.29463696
138	0x3df18287	0.11792474
139	0xbe9cc06b	-0.30615553
140	0xbe615def	-0.22008489
141	0xbc192e8c	-0.009349477
142	0x3e09cd55	0.13457234
143	0xbe7b6bac	-0.24552792
144	0x3f06a710	0.5259867
145	0x3d96a2dc	0.07355282
146	0xbd2a5687	-0.041586425
147	0x3ee70712	0.45122582
148	0xbdc48cc4	-0.095971614
149	0x3dc804b3	0.09766521
150	0xbe8115a1	-0.25211814
151	0xbeb486dd	-0.35259143
152	0xbdf8db62	-0.12151219
153	0xbe5f3208	-0.21796429
154	0x3e92280e	0.28546184
155	0x3df18bb9	0.11794228
156	0xbea45f72	-0.3210407
157	0xbec7c3c9	-0.3901656
158	0xbe57e1f7	-0.21082292
159	0x3ec5432a	0.38527805
160	0x3d2c8fa9	0.042129193
161	0x3e8672c2	0.26259428
162	0xbe23e502	-0.16005328
163	0x3ec95114	0.3931967
164	0xbe39c63a	-0.18142024
165	0x3e3efddc	0.18651527
166	0x3ed212d3	0.41029987
167	0x3e7d4be1	0.24735977
168	0xbe4cff1a	-0.20019189
169	0x3a5718a3	0.000820527
170	0xbe0bcab2	-0.13651541
171	0x3e4670d6	0.19378981
172	0xbe2a3dba	-0.1662511
173	0xbe9644af	-0.29349276
174	0x3e07d9a6	0.1326662
175	0x3c777b19	0.015105032
176	0x3f073fae	0.5283154
177	0x3e86daf9	0.26338938
178	0x3e3bbf75	0.18334754
179	0x3e0b0293	0.135752
180	0xbe1ac2df	-0.151134
181	0x3ee66d33	0.45005187
182	0xbeaa2d94	-0.33237898
183	0xbd9d6a97	-0.07686346
184	0xbd4d3eaf	-0.050108608
185	0x3df151db	0.11783191
186	0x3daefe53	0.08544602
187	0x3ea6b49d	0.32559672
188	0x3d7ad9b7	0.061242785
189	0xbe3d5b1c	-0.18491787
190	0xbe91dff8	-0.28491187
191	0x3e5f3aed	0.21799822
192	0xbddfb776	-0.10923664
193	0xbe3162b6	-0.17322811
194	0x3e0fd98b	0.1404783
195	0xbd91a6be	-0.07111882
196	0x3ddd0cce	0.10793458
197	0xbe83f21f	-0.2577066
198	0x3d270c5c	0.04078327
199	0xbe671184	-0.22565275
200	0xbd8663c2	-0.06561996
201	0xbe99a404	-0.30007946
202	0x3dcf2de8	0.10116178
203	0xbe8331e0	-0.2562399
204	0xbe7500d7	-0.23926102
205	0xbeb6962e	-0.35661453
206	0xbed4adb7	-0.41538784
207	0xbdb788bf	-0.08961629
208	0x3e6c753d	0.23091598
209	0xbdea70f3	-0.114473246
210	0xbe151957	-0.14560448
211	0xbc8ca65d	-0.017169172
212	0x3e3abec8	0.1823684
213	0x3d8ec98f	0.06972038
214	0x3c3ae0de	0.011406152
215	0xbe9b1b73	-0.3029438
216	0x3f2169eb	0.63052243
217	0x3e578619	0.21047248
218	0xbee1d1b8	-0.44105315
219	0x3dfdbc5c	0.12389442
220	0x3e6cc215	0.23120911
221	0x3e634652	0.22194794
222	0xbe4a892f	-0.19778894
223	0x3ddf7e4f	0.10912763
224	0xbe5bf917	-0.21481739
225	0xbda7f972	-0.08201875
226	0xbe8cd516	-0.27506322
227	0xbd59ccbe	-0.053173773
228	0xbe87ad22	-0.26499277
229	0xbe788f9e	-0.24273536
230	0x3dbf7a18	0.093494594
231	0x3e3d037e	0.18458363
232	0x3ec8a288	0.39186502
233	0xbe385b74	-0.18003637
234	0x3dfa358f	0.12217247
235	0xbe2a536c	-0.16633385
236	0xbdd2e749	-0.102980204
237	0xbe61aede	-0.22039363
238	0xbf3d0a97	-0.73844284
239	0xbe089434	-0.13337785
240	0x3ec409e7	0.38288805
241	0xbd65047d	-0.055912483
242	0xbee37912	-0.44428307
243	0x3d2ed7ef	0.0426864
244	0x3e0f2626	0.13979396
245	0xbe246290	-0.16053224
246	0x3f5e0e12	0.8674022
247	0xbb96ce28	-0.0046022125
248	0xbe963e11	-0.29344228
249	0xbc8db12e	-0.0172964
250	0xbe828b6e	-0.25497
251	0xbe789fd4	-0.2427972
252	0xbe2582b4	-0.1616314
253	0xbebe383c	-0.37152278
254	0xbe246884	-0.16055495
255	0xbda96ddc	-0.08272907

weight_hh_l0 f4 [128, 32]
0	0xbe18e7c9	-0.14932169
1	0x3d907db4	0.07055226
2	0xbe9a245e	-0.3010587
3	0x3d3aa4e4	0.04556741
4	0x3d593baf	0.053035434
5	0x3c5d0418	0.013489746
6	0xbe0ca870	-0.13736129
7	0xbd5bd10c	-0.05366616
8	0xbe1975cf	-0.14986347
9	0x3e02dace	0.1277878
10	0x3d87d2d5	0.0663201
11	0x3e213820	0.15744066
12	0x3e18a4a8	0.14906561
13	0x3e8a7a89	0.27046612
14	0xbcba41e2	-0.022736493
15	0xbe0dea47	-0.13858901
16	0x3d2c5176	0.042069875
17	0xbe053701	-0.13009264
18	0xbc102b47	-0.008799381
19	0x3d4e9095	0.050430853
20	0x3d88b3f3	0.066749476
21	0xbe343877	-0.17599665
22	0xbe597699	-0.21236648
23	0x3dae97f2	0.08525075
24	0xbe6e4329	-0.23267807
25	0x3e8f4567	0.27982637
26	0xbe7f1f07	-0.2491418
27	0x3e8d1cf0	0.2756114
28	0x3c444d23	0.011981281
29	0xbe8bdeb3	-0.27318344
30	0xbcd69559	-0.026194261
31	0x3d97077f	0.07374477
32	0xbe2ef153	-0.17084245
33	0x3ce682d9	0.028138565
34	0x3dc7d2bf	0.097569935
35	0xbe0614fc	-0.13093942
36	0x3d8e1989	0.06938464
37	0x3e1f2597	0.15541683
38	0xbe525bb7	-0.20542799
39	0xbd017890	-0.031609118
40	0xbe14296c	-0.14468926
41	0x3e154a94	0.1457923
42	0xbe80f9eb	-0.25190672
43	0xbdb8024b	-0.08984812
44	0x3e4756b0	0.19466662
45	0xbd81eebc	-0.06344363
46	0x3de67992	0.112536564
47	0xbda6a39e	-0.08136676
48	0x3af5e9e5	0.0018761723
49	0xbcf2ed92	-0.029654298
50	0xbc8d6cc5	-0.01726378
51	0x3d1cfb44	0.038325563
52	0x3e8afe47	0.27147123
53	0xbe98b264	-0.298236
54	0x3d2c5139	0.042069647
55	0x3e5bc12e	0.21460411
56	0xbd8b4159	-0.067995735
57	0xbe4c000c	-0.19921893
58	0xbd1e7cff	-0.038693424
59	0xbd9765f3	-0.07392492
60	0xbde8acd5	-0.1136109
61	0xba83e0b2	-0.0010061471
62	0x3d8d0aa9	0.06886799
63	0xbde8d50f	-0.11368763
64	0xbe03b05f	-0.12860249
65	0x3ddd983c	0.10820052
66	0x3d33a43b	0.043857794
67	0xbde2aa26	-0.110676095
68	0xbda5dfff	-0.080993645
69	0x3da4c975	0.080462374
70	0xbe14968d	-0.14510556
71	0x3d31ba07	0.0433903
72	0xbe22d77f	-0.15902518
73	0xbe01e238	-0.12683952
74	0xbe07069a	-0.13186112
75	0xbe1b5448	-0.1516887
76	0x3c78febf	0.015197455
77	0x3e62f06d	0.22162028
78	0x3dc26109	0.09491164
79	0xbe3fee63	-0.18743281
80	0xbc00187f	-0.00781834
81	0x3b7d9602	0.0038694148
82	0xbe7ad7bc	-0.24496359
83	0xbe7cfee9	-0.24706616
84	0xbced5a3b	-0.02897369
85	0xbe09cc5b	-0.13456862
86	0xbe3174f9	-0.17329778
87	0x3e889fca	0.2668441
88	0xbe105506	-0.14094934
89	0x3ddd46ce	0.108045205
90	0xbd9bde66	-0.076107785
91	0xbdba23cc	-0.09088859
92	0xbdfbcaef	-0.12294566
93	0x3d3a6a89	0.045511756
94	0x3e103300	0.14081955
95	0xbe7707f2	-0.24124125
96	0x3dc1016c	0.09424099
97	0x3d93ac84	0.07210639
98	0x3bf68ff4	0.007524485
99	0xbda52a80	-0.08064747
100	0x3d83eddf	0.06441855
101	0x3e0a52fa	0.13508216
102	0x3d9825db	0.07429095
103	0x3e31c4a3	0.17360167
104	0x3dcc6f20	0.09982133
105	0x3e356809	0.17715468
106	0xbca58515	-0.02020506
107	0x3d6f1e7e	0.05837869
108	0x3d3adadc	0.045618877
109	0xbdb9e4e6	-0.09076862
110	0x3d3801e2	0.04492367
111	0xbea2bb14	-0.31783354
112	0xbe809387	-0.25112554
113	0xbe6fe8ec	-0.23428696
114	0xbe1004ca	-0.14064327
115	0xbe68451d	-0.22682615
116	0x3b25bd90	0.002528999
117	0x3d3b2b8f	0.045695838
118	0xbdbc704c	-0.092011064
119	0xbd9dad9d	-0.0769913
120	0xbdefb985	-0.11705307
121	0x3e4d8a56	0.20072302
122	0xbe616bb3	-0.2201374
123	0xba7d7713	-0.00096689275
124	0xbd9ab5ba	-0.07554193
125	0xbdda853d	-0.106699444
126	0x3e6bf853	0.23043947
127	0xbe83cd3b	-0.25742516
128	0xbdf14dcb	-0.11782416
129	0x3e38a40d	0.1803133
130	0xbd3d3483	-0.046192657
131	0x3ceeed22	0.029165808
132	0x3e0e2a6e	0.13883373
133	0x3e4320e8	0.19055521
134	0x3d8a6662	0.06757809
135	0xbd60838b	-0.05481295
136	0xbd2a81d0	-0.041627705
137	0x3e23b52b	0.15987079
138	0xbe76f3ba	-0.24116412
139	0x3cd2d0eb	0.025734385
140	0x3df4a1af	0.11944901
141	0x3d3bf48c	0.045887515
142	0x3e3436a5	0.1759897
143	0xbdb13fa5	-0.08654717
144	0xbe743d82	-0.23851588
145	0x3bd18c81	0.006394923
146	0xbd4c0e08	-0.04981807
147	0xbdf5e673	-0.12006845
148	0x3e44d157	0.19220482
149	0x3d3796ca	0.044821538
150	0x3d4a9076	0.049454175
151	0xbdb5f83e	-0.08885239
152	0xbe83e3c2	-0.25759703
153	0xbd3aeac8	-0.04563406
154	0xbe3f1162	-0.18658975
155	0x3e18e62b	0.14931552
156	0xbe0fff61	-0.14062263
157	0x3d94ec6e	0.07271658
158	0x3e1aa7ae	0.15103027
159	0xbdbeaf07	-0.093107276
160	0xbe04ad66	-0.12956771
161	0xbcf32984	-0.029682882
162	0xbda3fd47	-0.08007293
163	0xbe800cfe	-0.25009912
164	0xbde47dfb	-0.11156841
165	0x3e2fc292	0.17164066
166	0xbe26530e	-0.1624262
167	0x3e3d5e32	0.18492964
168	0xbd4e4ea0	-0.05036795
169	0x3e22aa2c	0.15885228
170	0xbe5658dd	-0.20932336
171	0x3db31c9b	0.087456904
172	0x3cdb2bf8	0.026754364
173	0xbe216322	-0.15760472
174	0x3d975847	0.073898844
175	0xbea0177d	-0.3126792
176	0xbe3b085f	-0.18264912
177	0x3e5f1b62	0.2178779
178	0xbe1bc9cd	-0.152137
179	0x3abf3dbc	0.0014590542
180	0x3c2ee6cf	0.010675146
181	0xbe471846	-0.19442853
182	0xbecb3616	-0.39689702
183	0x3dbbd2d6	0.09171073
184	0xbaf5fb56	-0.001876692
185	0xbd62ceab	-0.055372875
186	0x3e2d264a	0.16909137
187	0xbd16c670	-0.03681034
188	0xbd3b4045	-0.04571559
189	0xbe55e607	-0.2088853
190	0x3e940410	0.2890935
191	0xbe41bd6a	-0.18919912
192	0x3bb40528	0.0054937787
193	0x3dd90f62	0.10598637
194	0x3c216385	0.009850387
195	0xbe04fac8	-0.1298629
196	0x3e868080	0.26269913
197	0xbcc67001	-0.02422333
198	0xbe6cf2b2	-0.23139456
199	0x3e121bfa	0.14268485
200	0xbe6f0ac4	-0.2334395
201	0x3dd4e5e7	0.10395413
202	0x3c8b630a	0.017014999
203	0x3ddedfe8	0.108825505
204	0x3ccde16f	0.02513191
205	0x3e07f80f	0.1327822
206	0xbd92f021	-0.07174707
207	0xbe8b1776	-0.27166337
208	0xbe11d9f5	-0.142433
209	0xbd8b2641	-0.06794406
210	0x3c91b431	0.017786117
211	0xbe3c67ae	-0.18398926
212	0x3e841ea3	0.25804624
213	0x3c85287c	0.016254656
214	0xbe852f6e	-0.26012748
215	0x3e613361	0.21992256
216	0xbde451ff	-0.11148452
217	0x3e536669	0.20644535
218	0xbdbec666	-0.09315185
219	0x3d710d1f	0.058850404
220	0x3d2cff4d	0.04223566
221	0xbe614793	-0.2199996
222	0x3c7dd56f	0.015492781
223	0xbe124a83	-0.14286236
224	0x3d84e83a	0.06489606
225	0x3e5e0a74	0.21683675
226	0xbc2d5afe	-0.010580776
227	0xbcb848e9	-0.022495704
228	0x3dc26806	0.09492497
229	0x3cd04e5b	0.025427988
230	0x3d655dfc	0.055997834
231	0x3df2fcab	0.11864599
232	0xbccfd052	-0.02536789
233	0xbe916a51	-0.28401425
234	0xbe037d1e	-0.12840697
235	0x3e35f82b	0.1777045
236	0x3de07059	0.109589286
237	0xbdf5cb53	-0.12001672
238	0x3e1230c8	0.14276421
239	0xbdc14c71	-0.09438408
240	0x3da28ff0	0.0793761
241	0xbda64339	-0.081182905
242	0xbe9270c8	-0.2860167
243	0x3d909d8d	0.070613004
244	0x3d0f172e	0.034934215
245	0xbe022de5	-0.1271282
246	0xbe263d4d	-0.16234322
247	0x3dc1c11d	0.094606616
248	0x3c973bbc	0.0184611
249	0xbe2b46a5	-0.16726168
250	0x3d00da80	0.031458378
251	0x3dfe9985	0.12431625
252	0xbcca3ba2	-0.024686638
253	0x3d6e0733	0.058112334
254	0x3e5dacc3	0.21647935
255	0xbd10cbb4	-0.035350516

bias_ih_l0 f4 [128]
0	0x3baec072	0.005333
1	0xbd112322	-0.035433896
2	0x3e0e0460	0.13868856
3	0x3dff5863	0.1246803
4	0x3d315baa	0.04330031
5	0x3e959118	0.2921226
6	0x3e89fef7	0.26952335
7	0xbd427569	-0.047475252
8	0x3d6fa5f9	0.058507893
9	0x3e88864b	0.26664957
10	0xbda97278	-0.08273786
11	0xbde6bd80	-0.11266613
12	0x3da5050b	0.080576025
13	0x3ec321fd	0.38111869
14	0xbdfba94a	-0.12288149
15	0x3e6fa63c	0.23403257
16	0x3dafa178	0.085757196
17	0x3e451e72	0.19249895
18	0x3e72d8b0	0.23715472
19	0x3d794fe7	0.060867216
20	0x3e600d10	0.21879983
21	0xbc110dee	-0.008853419
22	0xbcee3c1b	-0.029081395
23	0xbb7dab46	-0.0038706823
24	0x3cbfdd2f	0.023420898
25	0x3e20d1e4	0.15705067
26	0x3de966f8	0.11396593
27	0x3dfc5ac0	0.12321997
28	0x3e2140bb	0.15747349
29	0x3e3ee92d	0.18643637
30	0x3e537a73	0.2065218
31	0x3d702e97	0.05863818
32	0x3e639267	0.22223817
33	0xbd16cf2f	-0.03681868
34	0xbd5ce926	-0.053933285
35	0xbdc3215f	-0.095278494
36	0x3b6b7845	0.003592984
37	0x3e7c719b	0.24652712
38	0x3da312d4	0.079625756
39	0x3e51f1c0	0.20502377
40	0x3e581969	0.21103443
41	0x3eb30f8f	0.34972808
42	0x3db66654	0.08906236
43	0x3e53cef2	0.20684412
44	0xbcbac41a	-0.022798587
45	0x3ed85910	0.4225545
46	0x3d9d1244	0.076694995
47	0x3dd36a08	0.10322958
48	0xbd86e3e9	-0.06586439
49	0x3e9be6aa	0.3044942
50	0x3e56e9b9	0.20987596
51	0x3e8a40ba	0.27002507
52	0x3e13add7	0.14421783
53	0x3e097533	0.13423614
54	0x3c87fd5c	0.016600303
55	0x3d962c96	0.07332723
56	0x3be2ae30	0.0069177374
57	0x3e9b997b	0.30390534
58	0x3de1770e	0.11009036
59	0x3e5a5da6	0.21324787
60	0xbdb82bd7	-0.08992737
61	0x3dcaf6c9	0.09910352
62	0x3c4432c5	0.011974995
63	0x3cae47ab	0.021274408
64	0xbdd2b5ef	-0.10288607
65	0x3d88b5d9	0.0667531
66	0x3d3cf2ab	0.046129864
67	0xbe43140e	-0.19050619
68	0x3d163b6c	0.036677763
69	0x3dadc31d	0.084844805
70	0x3db05aea	0.086110905
71	0x3df060d1	0.11737216
72	0x3df5a083	0.11993506
73	0xbd91938e	-0.07108222
74	0x3db988cb	0.09059294
75	0x3d3ad8c3	0.045616876
76	0x3d39a3f1	0.045322362
77	0x3d27b8cf	0.04094773
78	0x3dd039ac	0.1016725
79	0xbddfded1	-0.10931171
80	0xbe46868a	-0.1938726
81	0xbdd797e2	-0.10527016
82	0x3e231fed	0.15930147
83	0xbde1514b	-0.110018335
84	0x3d40269c	0.04691182
85	0xbe514537	-0.2043656
86	0xbdd885bd	-0.105723836
87	0x3e343ed9	0.176021
88	0xbe162b01	-0.14664842
89	0xbd94478c	-0.07240209
90	0x3e0ddb20	0.13853121
91	0x3d8d0ee9	0.068876095
92	0x3c961182	0.018318895
93	0xbe008dd9	-0.1255411
94	0xbda593e0	-0.080848455
95	0x3d035353	0.032061886
96	0xbd3b848b	-0.0457807
97	0x3e59663b	0.21230404
98	0x3e4c12be	0.19929025
99	0x3e34e1c5	0.17664249
100	0x3e0a2236	0.13489613
101	0x3eb0107a	0.3438757
102	0x3e8b5c74	0.27218974
103	0x3d80848d	0.06275282
104	0x3d2e8832	0.042610355
105	0x3eb1b65c	0.34709442
106	0x3d907b73	0.07054796
107	0xbdb03df3	-0.08605566
108	0xbcda5721	-0.026652874
109	0x3f01ece3	0.50752085
110	0x3d9911a6	0.07474069
111	0x3d94329a	0.07236214
112	0x3dedb6e0	0.11607146
113	0xbd38afb8	-0.045089453
114	0x3e1b5301	0.15168382
115	0x3e2d208a	0.16906944
116	0xbc884e55	-0.016638914
117	0x3e2ca5dc	0.16860145
118	0x3daaa5fc	0.0833244
119	0xbd3caff8	-0.046066254
120	0x3e74ddf6	0.23912796
121	0x3eb596f4	0.3546673
122	0x3e8f97fa	0.28045636
123	0x3cd724da	0.02626269
124	0xbda0d421	-0.078529604
125	0x3d58244e	0.052768998
126	0x3e1e9ad8	0.15488756
127	0x3aaa27ab	0.0012981793

bias_hh_l0 f4 [128]
0	0x3e6fff40	0.23437214
1	0x3e656e71	0.22405411
2	0x3d8d0f05	0.068876304
3	0xbd35401c	-0.044250593
4	0x3e0ca180	0.13733482
5	0x3ec2758c	0.37980306
6	0x3cbba28b	0.022904655
7	0x3d67df2b	0.056609314
8	0x3e0c7a51	0.13718535
9	0x3ead74b1	0.3387809
10	0x3dfa828f	0.12231933
11	0x3dc4c9fb	0.09608837
12	0x3da620f3	0.08111753
13	0x3ec7e30d	0.39040413
14	0x3dd9e9b2	0.10640277
15	0x3e91f98e	0.28510708
16	0x3d0e2c3f	0.034710165
17	0x3de831d6	0.113376305
18	0x3e167038	0.14691246
19	0x3c824c9d	0.015905673
20	0x3e653cbe	0.22386453
21	0x3dcdfd75	0.10058109
22	0x3e87d5c7	0.26530287
23	0xbd9e6845	-0.077347316
24	0xbdab2a33	-0.08357658
25	0x3d9754ab	0.07389196
26	0x3da02b60	0.07820773
27	0x3cdd8d37	0.027044876
28	0x3e3bb72c	0.18331593
29	0x3e57b363	0.21064524
30	0x3d869153	0.06570687
31	0x3db36c8b	0.08760937
32	0x3db44947	0.08803039
33	0x3e3c9dae	0.18419525
34	0x3d8f57b2	0.069991484
35	0x3c15928b	0.009129177
36	0x3c65759b	0.01400509
37	0x3da3257d	0.07966135
38	0xbd321909	-0.043480907
39	0xbdadf87b	-0.084946595
40	0xbd4f4af6	-0.050608598
41	0x3e2f2343	0.17103295
42	0x3bfd50e4	0.00773059
43	0x3dcf07f8	0.10108942
44	0x3df955ef	0.12174594
45	0x3edf0d1d	0.43564692
46	0xbda35371	-0.079748996
47	0x3cf00f22	0.02930409
48	0x3ad1f288	0.0016017715
49	0x3d35da23	0.044397485
50	0x3d84dbfc	0.06487271
51	0x3da9a8bb	0.08284136
52	0x3e0be73d	0.13662429
53	0x3d6aef9f	0.057357427
54	0x3e254fbd	0.16143699
55	0xbd980edd	-0.0742471
56	0x3d006bc6	0.03135278
57	0x3eb29728	0.34880948
58	0x3caa87d3	0.02081672
59	0xbbbb0905	-0.0057078623
60	0x3dde4054	0.10852113
61	0xbdbecf68	-0.09316903
62	0xbddc4949	-0.107561655
63	0x3e4afbf8	0.19822681
64	0x3d9c78cb	0.07640227
65	0x3dad74b2	0.084695235
66	0xbe120138	-0.14258277
67	0xbe211a88	-0.15732777
68	0x3de1a303	0.1101742
69	0xbdee6c2f	-0.11641728
70	0xbdf1d82d	-0.118088104
71	0x3def01a6	0.11670236
72	0xbe102c84	-0.14079481
73	0x3e1b370a	0.15157714
74	0x3c7e2f21	0.015514166
75	0x3e1c9dbe	0.15294549
76	0x3bd37987	0.006453696
77	0x3de91f82	0.11382963
78	0x3da153e6	0.078773305
79	0xbb26723f	-0.0025397686
80	0xbdd6fbbc	-0.10497233
81	0x3d86f987	0.06590562
82	0xbdfdc01c	-0.123901576
83	0xbc441c9a	-0.01196971
84	0x3dc042ff	0.093877785
85	0xbe2694d3	-0.1626771
86	0x3cd3d9d0	0.025860697
87	0x3de4bfec	0.11169419
88	0xbda8f32f	-0.082495086
89	0x3e19bcd7	0.15013443
90	0xbd867d16	-0.06566827
91	0x3dae1b33	0.085012816
92	0xbe0588db	-0.13040487
93	0xbe28237d	-0.16419788
94	0x3e13a39d	0.14417882
95	0xbe170b05	-0.14750297
96	0x3e5fd976	0.21860299
97	0x3e40cb75	0.18827613
98	0x3dca20e7	0.09869557
99	0xbdb7a794	-0.0896751
100	0xbd1ccfc8	-0.038284093
101	0x3eb6d211	0.35707143
102	0x3e4a035c	0.19727844
103	0x3e0bc0d9	0.13647784
104	0x3daf7ae9	0.08568365
105	0x3eb83a4d	0.3598198
106	0x3c814141	0.015778186
107	0xbd85b3ec	-0.06528458
108	0xbc99c701	-0.01877165
109	0x3ebbbd5d	0.3666791
110	0x3e0fdb13	0.14048414
111	0x3e32a151	0.1744435
112	0x3e874098	0.2641647
113	0x3c59d7df	0.013296097
114	0xbd8fe942	-0.07026912
115	0x3e1e106b	0.1543595
116	0xbd0a789b	-0.033806425
117	0xbcb05fc6	-0.021530043
118	0x3e51168e	0.2041876
119	0x3e767d65	0.24071272
120	0x3de99a04	0.11406329
121	0x3ef60427	0.48050043
122	0x3d8ce296	0.06879155
123	0x3e58bddb	0.21166174
124	0x3e49b6ff	0.19698714
125	0x3df5adba	0.11996026
126	0x3da33e66	0.07970886
127	0x3d872f57	0.06600826

weight_ih_l0_reverse f4 [128, 2]
0	0x3be99215	0.00712801
1	0xbe2d308c	-0.1691305
2	0x3a0b126f	0.0005305176
3	0xbd3abeca	-0.045592107
4	0xbd4d9015	-0.050186235
5	0xbd8cf6c6	-0.06883006
6	0x3c781c9a	0.015143538
7	0xbeea9ca2	-0.45822626
8	0xbd8fc10a	-0.07019241
9	0xbd8c820a	-0.068607405
10	0x3c026aaf	0.007960006
11	0x3dbc29a0	0.09187627
12	0x3db48603	0.08814623
13	0x3e74e827	0.23916684
14	0xbe042f5b	-0.1290869
15	0xbea66e3b	-0.32505974
16	0x3dad3354	0.08457056
17	0xbe9a8d81	-0.30186084
18	0xbe52813b	-0.2055711
19	0xbce15ce3	-0.027510112
20	0xbe81a8cb	-0.2532409
21	0x3cda4e36	0.026648622
22	0x3eaba535	0.3352448
23	0xbed45b48	-0.41475892
24	0x39065cec	0.00012813852
25	0xbe6ebb82	-0.23313716
26	0xbe84b60a	-0.25920135
27	0xbea76a78	-0.32698417
28	0x3e54cf6b	0.20782249
29	0x3de8b1e7	0.11362057
30	0x3df846c8	0.121228755
31	0x3e9ec6c1	0.31011012
32	0xbde8fec4	-0.11376718
33	0xbcf38b02	-0.02972937
34	0xbe2eeda5	-0.17082842
35	0xbe02bce0	-0.12767363
36	0xbe573885	-0.21017654
37	0x3ddd81d3	0.10815778
38	0xbe3ed6a3	-0.18636565
39	0x3e95c8e7	0.2925484
40	0xbe9d47cf	-0.30718848
41	0x3ee8a41f	0.45437714
42	0xbea7a235	-0.32740942
43	0x3d4e5b1a	0.05037985
44	0xbe4f60e9	-0.20251812
45	0xbc1c348e	-0.009534014
46	0x3e03f812	0.128876
47	0xbdefa2df	-0.11700987
48	0xbe05bdbf	-0.13060664
49	0x3df1158e	0.11771689
50	0x3e538311	0.20655467
51	0x3f13a2d4	0.5767033
52	0xbc9383ec	-0.018007241
53	0x3c7d6f5b	0.015468444
54	0xbe4e690a	-0.20157257
55	0x3daf7d28	0.085687935
56	0x3dd9ab1b	0.10628339
57	0xbe82ec55	-0.25570932
58	0x3d562454	0.05228074
59	0x3e0f0022	0.13964894
60	0x3e0187f8	0.12649524
61	0xbe7548f0	-0.23953605
62	0xbd796ddb	-0.060895782
63	0x3c8578a3	0.016292876
64	0xbd954b36	-0.07289736
65	0x3dd99b18	0.10625285
66	0x3e2b9d14	0.1675914
67	0x3c8f52c4	0.01749552
68	0x3cef16c5	0.029185662
69	0x3d0a3709	0.033743892
70	0xbcae1608	-0.02125074
71	0xbeb00e78	-0.3438604
72	0xbc0125f7	-0.007882587
73	0x3d3d92c1	0.046282534
74	0x3e6cba71	0.23117997
75	0x3b146f43	0.0022649325
76	0xbdab3c02	-0.08361055
77	0x3ee91a44	0.45527852
78	0xbc80a060	-0.015701473
79	0xbdc95891	-0.09831346
80	0x3e3b20c6	0.18274221
81	0xbdc2c113	-0.09509482
82	0xbd67b669	-0.056570444
83	0xbe5a0e9e	-0.21294639
84	0x3de01fc7	0.10943561
85	0xbdff770f	-0.124738805
86	0x3e931232	0.2872482
87	0xbe555ef8	-0.20837009
88	0x3cce45bb	0.025179734
89	0x3e01d33b	0.12678234
90	0xbd8c0f9c	-0.06838915
91	0xbe92c27d	-0.28664008
92	0x3e883ccc	0.26608884
93	0x3d43ed2c	0.047833607
94	0x3e053989	0.13010229
95	0x3d397317	0.045275774
96	0x3de8430c	0.11340913
97	0x3c84a80b	0.01619341
98	0xbdb49c9b	-0.088189326
99	0xbbd8c979	-0.0066158143
100	0xbe473ff1	-0.19457985
101	0x3d2fb78a	0.042899646
102	0xbe8609aa	-0.26179248
103	0x3e7fb42b	0.24971072
104	0x3d56453f	0.052312132
105	0x3f76ff11	0.9648295
106	0xbd5cfa8a	-0.05394987
107	0xbd821e20	-0.06353402
108	0x3da64c21	0.08119989
109	0xbe81c36a	-0.25344402
110	0xbdc6cf02	-0.09707452
111	0xbdd4b451	-0.10385955
112	0x3d2dd650	0.042440712
113	0xbe718559	-0.23586024
114	0x3e65d0b3	0.22442894
115	0x3f0b4c6d	0.5441349
116	0x3d990c56	0.07473056
117	0xbd071647	-0.03298023
118	0x3ca51429	0.020151215
119	0xbe856196	-0.26051015
120	0x3d4a6b85	0.049418945
121	0x3c8ea463	0.01741237
122	0x3e8b79f8	0.27241492
123	0x3d537a2b	0.05163018
124	0x3e8066e3	0.25078496
125	0xbe5927cf	-0.21206592
126	0x3da639ce	0.08116494
127	0xbe692ee7	-0.22771798
128	0xbe56e05d	-0.20984025
129	0xbe87c276	-0.2651555
130	0x3e930332	0.28713375
131	0x3edb64db	0.42850384
132	0xbd071fa2	-0.03298915
133	0xbe55f15c	-0.20892853
134	0xbddff243	-0.1093488
135	0xbeacde22	-0.33763224
136	0x3debc415	0.11512009
137	0x3ed2f7ed	0.41204777
138	0x3e4a9a3b	0.19785397
139	0x3e99a87e	0.30011362
140	0xbd891929	-0.06694252
141	0xbebd54d3	-0.36978778
142	0xbe094634	-0.13405687
143	0x3e9fe950	0.3123269
144	0xbe056dc0	-0.13030148
145	0x3dca988f	0.098923795
146	0xbce3c37b	-0.027803173
147	0x3ea33b11	0.31881002
148	0x3e10fb49	0.14158358
149	0xbe99a45d	-0.30008212
150	0x3e4178ea	0.18893781
151	0xbe745301	-0.23859788
152	0x3e016548	0.12636292
153	0xbe85589a	-0.2604416
154	0x3e320511	0.17384745
155	0xbe1c8c43	-0.1528788
156	0xbe8d2d2c	-0.27573526
157	0xbd8b1493	-0.067910336
158	0x3d353713	0.044241976
159	0x3e8eb968	0.2787583
160	0x3e1e7b13	0.15476637
161	0x3e9ff179	0.31238917
162	0x3c8adef3	0.016952014
163	0x3ee77814	0.452088
164	0x3e539fb4	0.2066639
165	0x3d16df72	0.036834188
166	0xbeaed666	-0.34147948
167	0xbe9b29c5	-0.30305305
168	0xbeb755ae	-0.35807556
169	0xbe9eadc9	-0.30991963
170	0x3e70ada3	0.23503737
171	0xbe83e1e8	-0.2575829
172	0xbe0e470e	-0.13894293
173	0x3ea22664	0.31669915
174	0x3e0ccd67	0.1375023
175	0x3eb37e86	0.35057467
176	0xbda7073f	-0.08155679
177	0x3eb149bd	0.3462657
178	0x3e970e4a	0.2950309
179	0x3e6867d6	0.2269586
180	0xbdbfdca8	-0.09368259
181	0x3e25d9a1	0.161963
182	0x3d8387f4	0.064224154
183	0xbee413ea	-0.44546443
184	0xbe888918	-0.26667094
185	0x3eb22ce7	0.34799883
186	0x3e43a83a	0.19107142
187	0x3e853b19	0.2602165
188	0x3e5e5523	0.21712165
189	0xbe9d6adf	-0.307456
190	0x3e20f090	0.15716767
191	0x3e278f90	0.16363358
192	0x3da73433	0.08164253
193	0xbdd51b0b	-0.10405549
194	0x3db73102	0.089448944
195	0x3e13527e	0.14386937
196	0xbcfd8a81	-0.030949833
197	0xbe50fc24	-0.20408684
198	0xbe839fcf	-0.25707862
199	0xbe90370c	-0.28166997
200	0xbdb9f341	-0.090796
201	0x3e2cd756	0.16879019
202	0xbe400b64	-0.18754345
203	0x3e2be4ef	0.1678655
204	0xbe6b867c	-0.2300052
205	0x3e38854d	0.180196
206	0x3ccca811	0.024982484
207	0xbe869442	-0.26284987
208	0x3b92d6b9	0.0044811633
209	0xbe294d82	-0.16533473
210	0xbe04c6f1	-0.12966515
211	0xbe2814b9	-0.16414155
212	0x3cddcd75	0.027075509
213	0xbe53b7ed	-0.20675631
214	0x3eb82977	0.35969135
215	0xbeb1897c	-0.34675205
216	0x3e83e308	0.2575915
217	0xbdd3a9c6	-0.10335116
218	0xbd2555ff	-0.040365215
219	0xbe029d91	-0.1275542
220	0x3eb47568	0.35245824
221	0x3ccecee4	0.025245138
222	0xbde80297	-0.11328619
223	0x3b10c65b	0.0022090885
224	0x3d3a6edc	0.04551588
225	0x3d94cf38	0.07266086
226	0xbe3a9fa6	-0.18224964
227	0xbe2715e0	-0.16316938
228	0xbdc472ad	-0.09592185
229	0x3d90523b	0.07046934
230	0xbebdf6ab	-0.37102255
231	0x3e5f00a6	0.21777591
232	0xbdd25539	-0.10270161
233	0x3ef47d3e	0.47751802
234	0xbe4ecbe3	-0.20194964
235	0x3e06a1a8	0.13147604
236	0xbdd71859	-0.10502691
237	0xbe7f928b	-0.24958245
238	0xbdcd32b4	-0.100194365
239	0xbdd3a121	-0.10333467
240	0x3daa9b4a	0.083304
241	0x3e0af970	0.13571715
242	0x3ef9275c	0.4866284
243	0x3eb11aef	0.3459086
244	0xbd7235c0	-0.05913329
245	0x3dda72ee	0.10666452
246	0x3d0b6a0f	0.034036692
247	0x3dd07cfa	0.101800874
248	0x3eb06202	0.34449774
249	0xbe90609e	-0.28198713
250	0x3d7454a7	0.059651043
251	0xbdbc2440	-0.09186602
252	0x3d63a728	0.055579334
253	0xbdabbf48	-0.083860934
254	0xbd9dbc10	-0.07701886
255	0xbe0d697e	-0.13809773
