sgan-dataset/logs/univ/models_03_Mar_2019_13_48_01/model_registrar-1899.pt (torch_old, 575415 bytes, 45 tensors)

weight_ih_l0 f4 [128, 6]
-0.117058665 -0.019837817 -0.050742336 0.21707356 -0.13103124 0.17069776 -0.19662498 -0.22883323
-0.17446207 0.22398256 0.0684117 -0.14426349 -0.15409082 -0.11778461 -0.11310902 0.035412923
-0.35444328 0.20659414 -0.10393314 -0.06008274 0.15584424 0.15430854 -0.22889134 0.23151195
-0.1437051 0.004960212 -0.22095999 0.18312885 0.055001855 -0.20972922 0.16549867 0.11101265
-0.004088396 0.10572674 0.24219663 0.06431285 -0.21123411 -0.11534371 -0.30442873 0.026193108
-0.03508191 -0.13882472 0.0017478811 0.20055042 -0.60570234 0.15369143 -0.0923709 0.078386396
0.14046949 0.090852514 0.055366296 0.13348714 -0.045476314 0.025603263 -0.24460074 -0.32962477
0.04858523 0.3895396 -0.14678794 -0.24514204 -0.056766264 0.108108304 -0.5532059 0.28433287
-0.045508612 0.074976355 -0.05638436 -0.019978909 0.06721503 0.11701129 0.15872283 0.114087395
-0.22946632 -0.24542937 0.091201484 -0.061886765 0.084632196 -0.20671077 -0.13840114 0.018964194
0.357467 0.1277114 -0.1745161 0.10484542 -0.11563658 -0.060816266 -0.1953948 0.24195278
-0.07292867 0.0020622427 -0.17933302 0.1535436 0.13265356 0.40480027 0.18116698 -0.002742978
-0.11447272 -0.08728773 -0.03931195 0.07754199 0.07500407 -0.10244604 -0.009381574 -0.16037907
0.13910612 -0.23061684 0.014992783 0.2206475 0.021328583 -0.06665075 0.039536633 -0.002828257
0.02131443 -0.046457384 -0.011415193 0.05100993 -0.2966442 0.13632935 0.11175251 0.27376175
-0.0768795 0.0884816 0.5429398 -0.23877527 -0.05906015 -0.083474316 -0.11905778 -0.09853379
-0.06448246 -0.22804962 -0.4292996 0.27044246 -0.021646729 -0.13577248 -0.2991049 -0.122502245
0.13759434 0.053024717 -0.19254352 -0.21180004 -0.19764924 0.28840566 0.14714001 0.317266
-0.062343203 -0.16432494 -0.35416278 0.16006702 -0.108163655 -0.034170955 -0.24917208 -0.17259027
0.08626059 0.3483281 -0.04827195 0.36583477 -0.26072857 -0.033724427 -0.19056585 0.6532926
0.34922606 0.47439516 -0.21196644 0.16579676 0.5208065 0.3426495 -0.028258214 0.3146136
0.119154505 0.13914776 -0.04459052 0.0012173052 0.1316079 0.1410908 -0.24773347 -0.23611288
-0.4880538 -0.5105854 -0.07788787 -0.0638344 -0.06890331 0.03946368 0.0025965252 -0.5341409
-0.20484963 -0.09915917 -0.108453475 0.07937954 0.009050358 -0.40924656 -0.1534949 -0.1977658
0.01844086 0.114022054 -0.111279294 -0.029200858 0.116625234 -0.0070883473 0.08994827 -0.008889161
-0.10087988 0.1456589 0.098812506 -0.18835983 -0.13679871 -0.0004222968 -0.04660591 0.042709935
-0.09842518 0.10827627 -0.1801068 -0.15041764 -0.0030947067 0.21281882 -0.08101303 -0.077065356
0.028016198 -0.13630708 -0.08938492 0.10820347 -0.22418839 -0.10496539 0.08584568 -0.025142036
0.027918883 -0.13887593 0.0080491295 -0.11108532 0.034028955 -0.036712807 -0.13798827 -0.004988049
-0.098596066 0.058297273 0.00057221745 -0.096046604 -0.5629996 0.04661083 -0.09016021 0.17770325
0.094569765 -0.037483327 -0.113215774 -0.0386311 0.051833007 0.13239384 -0.23247895 -0.109671675
0.22410122 0.18740419 -0.017637253 -0.0511173 0.04089853 -0.17106178 -0.5658271 0.4297252
00000000: 74bc efbd eb82 a2bc 32d7 4fbd 8848 5e3e
00000010: 0e2d 06be 65cb 2e3e 0f58 49be 4253 6abe
00000020: 2fa6 32be af5b 653e 6f1b 8c3d cfb9 13be
00000030: fcc9 1dbe 0f39 f1bd b4a5 e7bd 240d 113d
00000040: 9779 b5be 6a8d 533e e6da d4bd 5219 76bd
00000050: a295 1f3e 0f03 1e3e 7e62 6abe 7811 6d3e
00000060: 6e27 13be 4689 a23b 5643 62be 2186 3b3e
00000070: a049 613d 42c3 56be 7c78 293e 9a5a e33d
00000080: f4f7 85bb 4387 d83d 6502 783e 75b6 833d
00000090: c14d 58be 5339 ecbd 15de 9bbe ee92 d63c
000000a0: 0db2 0fbd 1128 0ebe 2819 e53a 175d 4d3e
000000b0: 4f0f 1bbf 4961 1d3e f42c bdbd 0c89 a03d
000000c0: 3cd7 0f3e e210 ba3d c5c7 623d dab0 083e
000000d0: 5f45 3abd efbd d13c 9e78 7abe 94c4 a8be
000000e0: 4e01 473d bc71 c73e 944f 16be 8406 7bbe
000000f0: be83 68bd e367 dd3d e79e 0dbf 1494 913e
00000100: 3d67 3abd 348d 993d 49f3 66bd cfaa a3bc
00000110: 09a8 893d 9da3 ef3d 3d88 223e a7a6 e93d
00000120: 38f9 6abe d651 7bbe d8c7 ba3d fa7c 7dbd
00000130: a553 ad3d fdab 53be 07b9 0dbe cc5a 9b3c
00000140: ea05 b73e c7c6 023e 59b4 32be 32b9 d63d
00000150: dfd2 ecbd 7a1a 79bd 9315 48be 78c2 773e
00000160: a05b 95bd b126 073b 13a3 37be 893a 1d3e
00000170: 56d6 073e fb41 cf3e d683 393e 89c3 33bb
00000180: ac70 eabd e9c3 b2bd 9105 21bd 56ce 9e3d
00000190: bc9b 993d 3bcf d1bd 2cb5 19bc 693a 24be
000001a0: d671 0e3e d226 6cbe 4aa4 753c 6bf1 613e
000001b0: 48b9 ae3c 3080 88bd 2af1 213d 475a 39bb
000001c0: 999b ae3c 194a 3ebd ca06 3bbc caef 503d
000001d0: c0e1 97be ec99 0b3e 80de e43d 802a 8c3e
000001e0: 0073 9dbd d735 b53d 1afe 0a3f 8181 74be
000001f0: 0ee9 71bd 95f4 aabd 91d4 f3bd 15cc c9bd
00000200: 610f 84bd d785 69be 28cd dbbe 6f77 8a3e
00000210: 7b54 b1bc f107 0bbe 4724 99be 75e2 fabd
00000220: 88e5 0c3e 7230 593d 212a 45be 1ce2 58be
00000230: 9064 4abe e8a9 933e dfab 163e b070 a23e
00000240: 965b 7fbd cc44 28be d354 b5be 9ce8 233e
00000250: e884 ddbd d8f6 0bbd f726 7fbe 81bb 30be
00000260: 64a9 b03d 1058 b23e cfb8 45bd b24e bb3e
00000270: 377e 85be a022 0abd b223 43be 2f3e 273f
00000280: c2cd b23e ece3 f23e bb0d 59be a0c6 293e
00000290: 9353 053f c16f af3e c57d e7bc 0915 a13e
000002a0: 4707 f43d c07c 0e3e 8da4 36bd fc8d 9f3a
000002b0: 39c4 063e 1b7a 103e d8ad 7dbe 93c7 71be
000002c0: 30e2 f9be bab5 02bf ad83 9fbd 9cbb 82bd
000002d0: 2e1d 8dbd aba4 213d 772a 2a3b 75bd 08bf
000002e0: 1ac4 51be f713 cbbd db1c debd be91 a23d
000002f0: f447 143c c488 d1be c42d 1dbe 1e83 4abe
00000300: 4911 973c 6584 e93d 66e6 e3bd a336 efbc
00000310: 36d9 ee3d 5e45 e8bb cc36 b83d d8a3 11bc
00000320: 1c9a cebd 9b27 153e 365e ca3d 66e1 40be
00000330: f614 0cbe b867 ddb9 d7e5 3ebd 9df0 2e3d
00000340: 2493 c9bd f3bf dd3d eb6d 38be 1507 1abe
00000350: 90d0 4abb 2ded 593e 29ea a5bd 71d4 9dbd
00000360: 3a82 e53c 1594 0bbe 710f b7bd c899 dd3d
00000370: a491 65be 18f8 d6bd dccf af3d acf6 cdbc
00000380: 24b6 e43c 7e35 0ebe 7fe0 033c b380 e3bd
00000390: f261 0b3d 2b60 16bd cc4c 0dbe ca72 a3bb
000003a0: bcec c9bd 1fc9 6e3d dd00 163a 15b4 c4bd
000003b0: be20 10bf ffea 3e3d eba5 b8bd d7f7 353e
000003c0: cbad c13d 1e88 19bd acdd e7bd a53b 1ebd
000003d0: d94e 543d 4092 073e f60e 6ebe 8b9b e0bd
000003e0: ca7a 653e e2e6 3f3e 007c 90bc 6060 51bd
000003f0: 3885 273d d22a 2fbe 0bda 10bf f104 dc3e

weight_hh_l0 f4 [128, 32]
-0.17823923 -0.15828985 -0.07521135 0.20956634 -0.002096837 -0.021594904 -0.21232663 -0.038927414
0.14971116 0.23141085 0.1011301 0.20055243 0.018926999 0.1820783 0.088490196 0.18776949
0.079229645 -0.120747186 0.04823101 -0.14599805 -0.070277855 -0.20438081 -0.12165162 -0.09726464
0.10398642 -0.07687391 0.17158547 0.08900903 0.08075083 0.003977037 0.19347967 -0.183788
0.090641595 -0.14968109 0.060176212 -0.0033847424 0.026828095 0.13571218 -0.024970617 -0.11329612
0.1391158 -0.001465277 -0.13161229 -0.09856532 -0.15173538 0.14724019 0.13893743 0.026136732
0.17581569 0.09901141 -0.07887909 0.022105172 0.039633214 -0.13594623 -0.14052716 -0.059352897
-0.0064425515 -0.03264168 -0.12928574 -0.10221063 -0.024292003 0.06192212 0.09399985 -0.12779848
0.07369686 -0.1222934 -0.083202854 0.09957558 0.047900166 0.0656567 -0.18203294 -0.1889342
-0.030337814 0.12309316 -0.1631773 0.10442702 -0.08803368 -0.09754826 0.12416984 -0.11854914
0.07738155 -0.025811734 0.1441196 -0.18497546 0.10630571 0.12661166 0.031549867 0.18710959
0.12303745 0.09416889 0.1022971 0.18336715 0.12204932 0.02459936 -0.059001107 0.09742802
-0.027782224 -0.020409808 0.10452772 0.18296427 -0.31141666 -0.028194016 -0.12104462 0.002552685
-0.05991794 0.2607808 -0.07972068 -0.033278923 -0.27577963 -0.07549179 -0.1672234 -0.012857266
-0.0831544 0.25502 -0.09696267 -0.11314299 0.05361108 0.26968196 0.08107918 -0.079147354
0.017888846 0.046698503 0.015341787 0.19103956 -0.22852942 0.104792304 0.06470096 0.056950107
-0.16985305 -0.045407675 0.1695603 -0.13418534 0.11060653 -0.13145879 -0.073869534 0.063395716
-0.16209942 -0.25086647 0.006200675 -0.12275676 0.041500542 0.115978636 0.09039036 -0.12416783
0.055432074 -0.12968183 -0.13295412 0.066034324 0.07233637 0.10492184 0.04143954 -0.062068187
-0.020019656 -0.15462898 -0.21565205 -0.13576336 0.17124535 -0.11747437 0.169123 -0.11888617
0.2181417 -0.10740822 0.059749395 -0.16033398 -0.0853746 -0.050542895 0.004371493 -0.052543636
-0.053352587 -0.07179126 0.09635819 -0.17072886 -0.14551488 0.062400382 -0.020098394 -0.028104542
-0.015378455 0.19258706 -0.16852461 0.12828617 0.095288254 -0.05699655 -0.026673643 -0.12104892
-0.028909612 -0.1255448 0.074185744 0.30035433 0.057494283 0.06852077 0.11508636 0.09670161
0.1681477 0.050602082 -0.15107135 0.17643796 -0.037350047 -0.057245307 -0.0051320395 -0.21527028
-0.05664715 -0.025505126 0.069492206 -0.09881149 -0.008264468 0.16163279 -0.0067670527 0.10968902
0.06418334 -0.09008159 -0.002398265 -0.16303362 0.14884762 0.10157148 0.13294783 -0.008553886
-0.21344155 -0.003093413 0.07985254 0.07064138 -0.20980531 0.08031184 -0.07869982 0.05667308
0.20084737 -0.07555529 -0.0602245 0.09274044 -0.102855615 0.093508996 0.0076608225 0.013276936
0.013002799 -0.2661732 -0.049940433 -0.15054215 0.31690434 -0.1321282 0.08229601 0.049493596
0.3504912 -0.1220771 -0.14178456 -0.02127364 -0.16172603 -0.14452876 -0.078906104 -0.13524026
0.04104128 0.060158603 0.0106562115 0.055642273 0.13857806 0.20870976 0.006716909 0.09601037
00000000: 5884 36be bc16 22be 6908 9abd 8f98 563e
00000010: 166b 09bb cce7 b0bc 276c 59be 5a72 1fbd
00000020: e24d 193e f7f6 6c3e 4c1d cf3d 9e5d 4d3e
00000030: cb0c 9b3c bc72 3a3e 593a b53d a546 403e
00000040: 2743 a23d 4d4a f7bd e18d 453d 8380 15be
00000050: d6ed 8fbd 3449 51be 7c24 f9bd af32 c7bd
00000060: d5f6 d43d 1270 9dbd 1ab4 2f3e 5e4a b63d
00000070: b160 a53d ce51 823b 891f 463e ec32 3cbe
00000080: 4da2 b93d 0046 19be 557b 763d 8ed2 5dbb
00000090: 98c6 db3c 22f8 0a3e 2e8f ccbc cc07 e8bd
000000a0: 5f74 0e3e 8a0e c0ba 5fc5 06be 9ddc c9bd
000000b0: 8560 1bbe 22c6 163e 9d45 0e3e b31c d63c
000000c0: 0709 343e 7ec6 ca3d 5c8b a1bd e815 b53c
000000d0: 7056 223d 7d35 0bbe 5ae6 0fbe 061c 73bd
000000e0: 0a1c d3bb 48b3 05bd 7b63 04be cf53 d1bd
000000f0: 0600 c7bc 0da2 7d3d fe82 c03d 9bdd 02be
00000100: 61ee 963d f674 fabd 4266 aabd 48ee cb3d
00000110: f732 443d 0577 863d d866 3abe f877 41be
00000120: 0287 f8bc 4418 fc3d f317 27be d5dd d53d
00000130: 014b b4bd 62c7 c7bd c24c fe3d e4c9 f2bd
00000140: 387a 9e3d 2173 d3bc 1794 133e 356a 3dbe
00000150: cfb6 d93d 7da6 013e 6f3a 013d a899 3f3e
00000160: 0ffb fb3d 9edb c03d 2481 d13d 99c4 3b3e
00000170: fef4 f93d 9984 c93c 25ab 71bd 5788 c73d
00000180: 8c97 e3bc 7832 a7bc a112 d63d fc5a 3b3e
00000190: 0172 9fbe 23f7 e6bc 3ee6 f7bd f34a 273b
000001a0: 846c 75bd 1085 853e 9944 a3bd 7b4f 08bd
000001b0: fd32 8dbe 719b 9abd 9c3c 2bbe 48a7 52bc
000001c0: db4c aabd fb91 823e 5d94 c6bd 83b7 e7bd
000001d0: 4b97 5b3d c113 8a3e d70c a63d 0218 a2bd
000001e0: a18b 923c ee46 3f3d 1e5c 7b3c e09f 433e
000001f0: 9e03 6abe 599d d63d f081 843d 8444 693d
00000200: f5ed 2dbe 66fd 39bd 37a1 2d3e e267 09be
00000210: ad85 e23d 229d 06be e948 97bd 9dd5 813d
00000220: 64fd 25be 9271 80be 082f cb3b e567 fbbd
00000230: 79fc 293d 3586 ed3d 951e b93d b44b febd
00000240: be0c 633d 50cb 04be 2025 08be 013d 873d
00000250: 1725 943d 43e1 d63d 82bc 293d 363b 7ebd
00000260: 4300 a4bc 0f57 1ebe e4d3 5cbe 8d05 0bbe
00000270: f15a 2f3e 6796 f0bd 942e 2d3e 987a f3bd
00000280: 8a60 5f3e d7f8 dbbd c8bb 743d 972e 24be
00000290: e1d8 aebd 1106 4fbd be3e 8f3b ff37 57bd
000002a0: 3e88 5abd 4c07 93bd 7157 c53d 8cd3 2ebe
000002b0: da01 15be 8b97 7f3d 63a5 a4bc 7f3b e6bc
000002c0: eaf5 7bbc 8b35 453e b791 2cbe 735d 033e
000002d0: 7d26 c33d 3775 69bd af82 dabc 7fe8 f7bd
000002e0: dad3 ecbc d18e 00be b2ee 973d 0bc8 993e
000002f0: 207f 6b3d 9e54 8c3d 66b2 eb3d 7e0b c63d
00000300: e92e 2c3e 2144 4f3d 73b2 1abe 27ac 343e
00000310: 5dfc 18bd 0e7a 6abd ab2a a8bb d06f 5cbe
00000320: d806 68bd 20f0 d0bc ee51 8e3d ae5d cabd
00000330: b167 07bc 1183 253e 27be ddbb a3a4 e03d
00000340: 8e72 833d b27c b8bd 362c 1dbb 49f2 26be
00000350: 836b 183e b504 d03d 7a23 083e 9925 0cbc
00000360: 6c90 5abe dcba 4abb ba89 a33d 6eac 903d
00000370: 34d7 56be 897a a43d 5f2d a1bd 0822 683d
00000380: efaa 4d3e bbbc 9abd f7ad 76bd b3ee bd3d
00000390: f7a5 d2bd a581 bf3d a307 fb3b 8187 593c
000003a0: b109 553c db47 88be 578e 4cbd b927 1abe
000003b0: 4941 a23e 9d4c 07be cf8a a83d ccb9 4a3d
000003c0: 9573 b33e 8f03 fabd f92f 11be 0f46 aebc
000003d0: 829b 25be 59ff 13be 8699 a1bd 6c7c 0abe
000003e0: e71a 283d de68 763d 6497 2e3c 27e9 633d
000003f0: 68e7 0d3e 03b8 553e 8419 dc3b 16a1 c43d

bias_ih_l0 f4 [128]
-0.070504606 -0.066219136 -0.01623014 -0.010153869 -0.13527772 0.1413397 -0.044572573 -0.17212033
0.021099312 0.067551605 0.27647546 0.14768414 0.06982882 -0.12306889 0.085152164 -0.12324991
0.0919821 0.12370716 -0.028826244 0.119002655 0.004268142 0.022339052 -0.04753844 0.009486179
0.13139614 0.11303272 0.04255747 0.10991175 -0.042593718 -0.037877813 -0.15892449 -0.04205384
0.20103443 -0.12686229 -0.15301746 0.2472314 -0.1295484 -0.08039673 -0.14136915 0.0069437
-0.14577268 0.110783756 0.12604672 0.04481597 -0.059816394 0.20411062 -0.021259313 -0.09213522
0.12383325 0.08717217 -0.052613236 0.08562863 -0.1552347 0.096326336 0.1103757 0.12074469
0.09957469 0.1556252 0.18097088 0.17169194 -0.02929827 -0.03539005 -0.051675346 -0.15404224
0.08893161 0.14539602 -0.032070715 0.05094708 -0.04792531 0.011115662 0.10372039 -0.07783842
-0.0144814495 0.09236347 -0.105993874 0.03791297 -0.1243017 -0.032620784 -0.05638576 -0.19800718
-0.122401744 -0.13954075 0.10700938 -0.00030017752 0.013073875 0.115573116 0.100649774 -0.13726945
0.14082707 -0.11403566 0.110741824 -0.13191366 -0.10459952 0.11571305 -0.00056899636 -0.0943829
0.107798554 -0.10772596 0.012488155 0.030755159 0.009011817 0.070947565 -0.0066617006 -0.15334342
-0.10560366 0.098597474 0.046465237 0.08303154 0.03799724 -0.16142663 0.118665926 0.067788586
0.16724697 0.04352664 0.058481388 0.0061124205 0.107206814 -0.0015627082 -0.09107967 0.02452258
-0.08283262 0.1351572 0.18381651 0.042985074 0.082272984 0.15917791 -0.106571734 -0.05955246
00000000: b864 90bd e69d 87bd 12f5 84bc 6a5c 26bc
00000010: 3e86 0abe 5bbb 103e bb91 36bd 5040 30be
00000020: 77d8 ac3c 7f58 8a3d 318e 8d3e 833a 173e
00000030: 6a02 8f3d 8b0b fcbd 4264 ae3d 736a fcbd
00000040: 1c61 bc3d 2e5a fd3d 0425 ecbc aab7 f33d
00000050: c5db 8b3b 6300 b73c abb7 42bd eb6b 1b3c
00000060: b68c 063e b37d e73d be50 2e3d 6919 e13d
00000070: c076 2ebd c425 1bbd 1abd 22be a640 2cbd
00000080: f8db 4d3e 30e8 01be 9cb0 1cbe 3a2a 7d3e
00000090: 56a8 04be 0aa7 a4bd 13c3 10be fa87 e33b
000000a0: 6f45 15be 98e2 e23d 6412 013e f390 373d
000000b0: 0902 75bd 6002 513e 0328 aebc 64b1 bcbd
000000c0: 499c fd3d 5387 b23d fa80 57bd 105e af3d
000000d0: d8f5 1ebe be46 c53d a80c e23d fe48 f73d
000000e0: d1ed cb3d 365c 1f3e 6e50 393e 03d0 2f3e
000000f0: ed02 f0bc 28f5 10bd 87a9 53bd 40bd 1dbe
00000100: c721 b63d b2e2 143e 955c 03bd e3ad 503d
00000110: 544d 44bd 771e 363c 5b6b d43d c069 9fbd
00000120: 9a43 6dbc 0f29 bd3d 5113 d9bd a14a 1b3d
00000130: e491 febd 5f9d 05bd c1f4 66bd 65c2 4abe
00000140: c4ad fabd c5e3 0ebe bc27 db3d 2561 9db9
00000150: ce33 563c 99b1 ec3d 7821 ce3d 5d90 0cbe
00000160: f934 103e 878b e9bd 9ccc e23d 6014 07be
00000170: 4638 d6bd f7fa ec3d b328 15ba d24b c1bd
00000180: 7dc5 dc3d 6e9f dcbd 1e9b 4c3c 3ef2 fb3c
00000190: 4da6 133c f54c 913d 654a dabb 0f06 1dbe
000001a0: bb46 d8bd 79ed c93d 5552 3e3d 710c aa3d
000001b0: fea2 1b3d 064d 25be 1f07 f33d bed4 8a3d
000001c0: ca42 2b3e fd48 323d 2e8a 6f3d b34a c83b
000001d0: 3f8f db3d c9d3 ccba fa87 babd 94e3 c83c
000001e0: 26a4 a9bd a666 0a3e 653a 3c3e 1e11 303d
000001f0: bd7e a83d 89ff 223e 4842 dabd 48ed 73bd

bias_hh_l0 f4 [128]
-0.11479453 -0.053111587 -0.1500206 0.1513291 0.008498039 -0.10256035 -0.14622214 0.0054442286
0.10623716 0.23244709 0.020021848 0.022855999 -0.16846485 0.17120011 0.12571557 0.037170496
0.0050152238 0.11626728 -0.12451661 0.07472549 0.15194523 0.20305637 -0.019012786 0.07378397
0.0330573 0.097904064 0.11611215 0.018329818 -0.12422002 -0.047220893 -0.08940531 0.00813713
0.11227524 -0.10077224 0.084671594 0.04108726 0.17881694 0.08244675 -0.0004268975 -0.13788171
-0.07288734 0.054561485 0.14498127 -0.016372923 -0.06259869 0.02467385 0.08469527 -0.042022835
-0.0069648065 0.019248368 -0.024260188 -0.09565717 -0.011327125 -0.06646999 -0.11269041 0.092757136
-0.10400716 -0.15300333 -0.0725665 0.11099932 -0.05751928 0.19852675 0.080409355 0.14734893
-0.19432706 -0.123377 0.1380084 -0.0046840077 0.20873538 0.04343688 -0.08242209 -0.030947587
0.1267763 -0.0012547892 0.021839188 0.055206563 0.056411818 0.033823553 -0.13409045 -0.051749058
-0.02946026 0.10284941 0.03245649 -0.12688155 -0.14390132 0.055120155 -0.14294502 0.11080828
-0.09767003 -0.00839537 0.11370899 -0.017067144 -0.09314488 -0.16293128 -0.025118079 0.009612904
-0.00724125 0.026599716 -0.14361198 0.25806823 0.107625805 -0.025662856 0.1919178 0.15725008
-0.15960519 0.120948076 0.2877334 0.15992363 0.050158724 0.03175549 0.03852041 0.07565246
0.1857397 -0.09326488 0.16357745 -0.11737691 0.070254914 0.18953222 0.060696285 0.15711169
0.104996376 0.110805795 0.23573112 0.049188606 -0.047067318 0.15363602 -0.07955368 0.14118618
00000000: 6519 ebbd 898b 59bd 009f 19be 04f6 1a3e
00000010: 5c3b 0b3c 290b d2bd 42bb 15be 8065 b23b
00000020: de92 d93d 9c06 6e3e dc04 a43c 813c bb3c
00000030: 0d82 2cbe 154f 2f3e 95bb 003e 1740 183d
00000040: bf56 a43b 8a1d ee3d 9002 ffbd ad09 993d
00000050: 8897 1b3e 02ee 4f3e b4c0 9bbc 0d1c 973d
00000060: 1767 073d ed81 c83d 35cc ed3d 6a28 963c
00000070: 1167 febd b26a 41bd 221a b7bd 9951 053c
00000080: 90f0 e53d ad61 cebd 4d68 ad3d 1d4b 283d
00000090: ca1b 373e d7d9 a83d 36d1 dfb9 dd30 0dbe
000000a0: f545 95bd dd7b 5f3d f875 143e 8220 86bc
000000b0: be33 80bd d020 ca3c b774 ad3d 2320 2cbd
000000c0: 0839 e4bb c1ae 9d3c 4dbd c6bc e8e7 c3bd
000000d0: 6895 39bc 6b21 88bd 3bca e6bd 74f7 bd3d
000000e0: b501 d5bd e8ac 1cbe bf9d 94bd 9d53 e33d
000000f0: 5699 6bbd 994a 4b3e a9ad a43d a3e2 163e
00000100: acfd 46be 15ad fcbd 1352 0d3e 4e7c 99bb
00000110: babe 553e dfea 313d eacc a8bd cb85 fdbc
00000120: a5d1 013e bd77 a4ba 19e8 b23c 4720 623d
00000130: 1410 673d 918a 0a3d 024f 09be d2f6 53bd
00000140: a556 f1bc b6a2 d23d 19f1 043d 3ded 01be
00000150: de5a 13be acc5 613d 2e60 12be 74ef e23d
00000160: 3a07 c8bd bc8c 09bc 42e0 e83d 65d0 8bbc
00000170: bec2 bebd 75d7 26be 6ec4 cdbc 717f 1d3c
00000180: 0248 edbb a6e7 d93c 050f 13be 8521 843e
00000190: eb6a dc3d e93a d2bc 1a86 443e 2a06 213e
000001a0: 8b6f 23be a0b3 f73d cb51 933e 05c3 233e
000001b0: 3c73 4d3d 0b12 023d 94c7 1d3d adef 9a3d
000001c0: 8c32 3e3e a801 bfbd d980 273e 4e63 f0bd
000001d0: cfe1 8f3d bc14 423e ab9c 783d e3e1 203e
000001e0: 5708 d73d 26ee e23d 8063 713e fe79 493d
000001f0: a9c9 40bd c352 1d3e 0aed a2bd 1c93 103e

weight_ih_l0 f4 [128, 2]
0.39638668 0.5013642 -0.42814037 -0.4890889 0.16954614 -0.41458964 -0.32140064 -0.093902
0.026508566 -0.21843827 0.8238686 -0.5611212 -0.18088424 0.33980784 -0.71985954 -0.15441878
0.29751617 -0.13969742 0.06841225 0.0060703144 -0.5301251 0.3432775 0.20668894 0.0064388807
0.3567895 0.2664642 -0.6401763 -0.22790223 0.023186628 0.08475605 0.12957887 0.004267597
-0.07183625 0.10816065 0.013979876 -0.21406679 -1.0115473 -0.09090709 0.7775384 0.68884814
-0.17302248 -0.30029 -0.4733566 0.19252735 -0.79360986 0.21360022 -1.5233136 0.2694785
0.4171895 0.10643229 -2.0672934 -0.1584112 0.41539693 0.20475203 -0.20454766 0.3104866
-0.5306242 0.1803686 0.21901926 -0.012895003 -0.05772278 -0.62494314 -0.43413 -0.08807116
-0.058064792 -0.29912525 0.32867342 0.104367234 0.11586433 -0.0514995 0.050173655 -0.22193323
0.052680414 -0.025755122 -0.17966706 -0.44391373 -0.31438223 0.06211904 0.18676451 0.11109382
0.7636594 -0.3786299 -0.047568556 0.14909482 0.48466232 -0.13219814 -0.15706396 -0.12010116
0.40232095 0.36961013 -0.70156705 0.10763897 0.34895676 0.41605622 0.35958314 0.1996745
-0.5643886 0.019005315 -0.3862715 0.27884993 -0.037590828 0.18977383 -0.5884371 -0.21680345
1.1466678 -0.12720609 0.84456146 -0.101735756 -0.06012264 -0.35356078 0.5362667 -0.01054936
0.096297525 -0.49312237 0.37062147 0.12162681 -0.17499077 0.031032756 0.700592 -0.66969776
0.24242651 -0.22844684 -0.398839 0.2359441 -0.13280316 -0.97519803 -0.28430632 -0.18439004
0.14381887 0.21412686 0.032862183 -0.030004088 -0.027696712 0.21724132 -0.49213445 0.15836087
-0.049825657 -0.27245688 0.07260577 -0.23744021 -0.48890582 -0.047921948 0.12832288 -0.2607874
0.6205896 0.031685364 -0.06510849 0.42300034 -0.13875996 0.047439918 -0.18721023 -0.42997706
-0.12297128 -0.15362999 0.2716022 0.112629585 -0.36695108 -0.4048656 -0.18634067 0.4075834
0.12300339 0.23861493 -0.112027474 0.37524152 -0.21952815 0.09117985 0.49677566 0.27102467
-0.18826772 0.05184336 -0.22408481 0.18646735 -0.18563014 -0.3190818 0.113675624 0.062700264
0.64628756 0.29110086 0.15011077 0.15355346 -0.1762634 0.4603489 -0.3865331 -0.03412286
-0.09659774 0.08657259 0.108312346 0.28341204 0.112765834 -0.1540419 -0.33012846 0.21983773
-0.15857199 -0.16017748 0.15168808 -0.006163984 0.11300708 -0.2628836 -0.15358098 -0.23201665
-0.050837535 -0.22512634 0.25575158 -0.42029938 -0.34375265 -0.39631543 -0.4205329 0.0013941001
0.33358806 -0.13834447 -0.0997672 -0.10424305 0.22992396 0.07680824 0.1436485 -0.30520487
0.8181729 0.21651945 -0.44622388 0.04458894 0.26117262 0.30463856 -0.38993 0.1341964
-0.24198979 -0.06135477 -0.30925032 0.103351906 -0.3953601 -0.13198435 0.20898557 0.18822652
0.5532245 -0.17720681 0.14443743 -0.17837103 -0.12208927 -0.28524837 -0.9194093 -0.12497781
0.439816 -0.001030093 -0.6033965 0.040805317 0.16003647 0.07101332 1.0115491 -0.13418388
-0.23753777 -0.035060227 -0.3390428 -0.16461043 -0.3231871 -0.6570111 -0.23991627 0.04233048
00000000: 32f3 ca3e 6759 003f 3735 dbbe dc69 fabe
00000010: 819d 2d3e 1845 d4be a08e a4be b14f c0bd
00000020: 7e28 d93c 48ae 5fbe 0de9 523f a4a5 0fbf
00000030: b839 39be 4bfb ad3e b748 38bf f51f 1ebe
00000040: 0a54 983e d70c 0fbe b91b 8c3d 7de9 c63b
00000050: 47b6 07bf 12c2 af3e 44a6 533e 3ffd d23b
00000060: 1dad b63e ff6d 883e 98e2 23bf 345f 69be
00000070: e2f1 bd3c 9494 ad3d 53b0 043e 33d7 8b3b
00000080: e21e 93bd 5583 dd3d da0b 653c 5334 5bbe
00000090: 627a 81bf 7f2d babd c20c 473f 5a58 303f
000000a0: ce2c 31be 9cbf 99be cc5b f2be e425 453e
000000b0: 042a 4bbf 04ba 5a3e f1fb c2bf 16f9 893e
000000c0: dd99 d53e 2cf9 d93d 894e 04c0 8c36 22be
000000d0: e8ae d43e 84aa 513e f174 51be 1af8 9e3e
000000e0: fdd6 07bf 8cb2 383e 9646 603e 9045 53bc
000000f0: b96e 6cbd 46fc 1fbf 4a46 debe a75e b4bd
00000100: 59d5 6dbd f226 99be e247 a83e 7dbe d53d
00000110: 474a ed3d 24f1 52bd e482 4d3d 7742 63be
00000120: 6bc7 573d 68fc d2bc a4fa 37be a948 e3be
00000130: b5f6 a0be 8970 7e3d 323f 3f3e 2885 e33d
00000140: 2f7f 433f c7db c1be 3fd7 42bd 50ac 183e
00000150: a925 f83e f35e 07be 60d5 20be 99f7 f5bd
00000160: 03fd cd3e 8a3d bd3e e699 33bf d271 dc3d
00000170: 76aa b23e 5205 d53e 481b b83e 7977 4c3e
00000180: c57b 10bf 09b1 9b3c 61c5 c5be 6bc5 8e3e
00000190: d7f8 19bd 1254 423e d0a3 16bf b901 5ebe
000001a0: 03c6 923f 5042 02be 2e35 583f d65a d0bd
000001b0: 2843 76bd eb05 b5be c648 093f 39d7 2cbc
000001c0: a337 c53d 897a fcbe 19c2 bd3e 7a17 f93d
000001d0: c830 33be 6838 fe3c ff59 333f 5071 2bbf
000001e0: a83e 783e f8ed 69be a034 ccbe 559b 713e
000001f0: 8dfd 07be 94a6 79bf 9990 91be bed0 3cbe
00000200: 4145 133e 1244 5b3e 7f9a 063d 22cb f5bc
00000210: 37e4 e2bc 8274 5e3e 0cf9 fbbe 5a29 223e
00000220: fd15 4cbd 787f 8bbe 55b2 943d 8723 73be
00000230: dd51 fabe ce49 44bd 1367 033e ed85 85be
00000240: f6de 1e3f 83c8 013d 9a57 85bd 8093 d83e
00000250: 1717 0ebe 5c50 423d 0ab4 3fbe f425 dcbe
00000260: 5ed8 fbbd 2e51 1dbe 720f 8b3e 57aa e63d
00000270: 03e1 bbbe 8b4a cfbe 17d0 3ebe c5ae d03e
00000280: 34e9 fb3d 7957 743e a96e e5bd a81f c03e
00000290: fdcb 60be 80bc ba3d 6159 fe3e bfc3 8a3e
000002a0: 41c9 40be b459 543d 7d76 65be 4cf1 3e3e
000002b0: d415 3ebe b15e a3be c4ce e83d ff68 803d
000002c0: 1a73 253f 2c0b 953e a3b6 193e 1e3d 1d3e
000002d0: 657e 34be dab2 eb3e abe7 c5be 69c4 0bbd
000002e0: 09d5 c5bd f84c b13d ddd2 dd3d 621b 913e
000002f0: c6f1 e63d 29bd 1dbe 9906 a9be 241d 613e
00000300: b260 22be 9105 24be 1f54 1b3e 3ffb c9bb
00000310: 4270 e73d ae98 86be 5544 1dbe c695 6dbe
00000320: 053b 50bd 8587 66be dff1 823e 7b31 d7be
00000330: 5900 b0be dbe9 cabe 1750 d7be 3dba b63a
00000340: 0ecc aa3e 2caa 0dbe bf52 ccbd 617d d5bd
00000350: 3071 6b3e a34d 9d3d 9818 133e d043 9cbe
00000360: c773 513f 46b7 5d3e 7577 e4be e4a2 363d
00000370: 6bb8 853e 96f9 9b3e e8a4 c7be c86a 093e
00000380: 2ccc 77be 244f 7bbd 0f56 9ebe 2aaa d33d
00000390: a46c cabe e826 07be 5000 563e 74be 403e
000003a0: 1fa0 0d3f b475 35be 68e7 133e e5a6 36be
000003b0: f009 fabd 130c 92be 685e 6bbf 5ef4 ffbd
000003c0: 902f e13e 2f04 87ba 3178 1abf 7a23 273d
000003d0: 9ae0 233e 6e6f 913d 717a 813f 8067 09be
000003e0: 1a3d 73be 509b 0fbd 0597 adbe a38f 28be
000003f0: c878 a5be e131 28bf 9cac 75be ba62 2d3d

weight_hh_l0 f4 [128, 32]
-0.14002538 0.067978315 -0.3235529 0.046028465 0.059868585 0.027273634 -0.1339543 -0.032362707
-0.14105044 0.115261145 0.07373415 0.1748662 0.13765173 0.34245268 -0.020266818 -0.13872392
0.03791165 -0.14664945 -0.006832696 0.059879337 0.05931175 -0.17468871 -0.20750012 0.12311019
-0.22562097 0.30603778 -0.27686906 0.27218172 0.031201875 -0.27411178 -0.029810308 0.07176404
-0.18433572 0.03278657 0.10252082 -0.14091063 0.078148566 0.15433478 -0.22200415 -0.047406238
-0.16009705 0.16439265 -0.2357893 -0.0944104 0.18528284 -0.07070146 0.10574703 -0.095566526
-0.0074576945 -0.020393439 -0.023985935 0.01500225 0.27876955 -0.30925074 0.033685394 0.21803053
-0.085118346 -0.1840109 -0.03095866 -0.07619388 -0.1032449 -0.02539821 0.07468499 -0.12218187
-0.12015295 0.099434294 0.036892112 -0.102408536 -0.08940224 0.07241469 -0.13815771 0.028804831
-0.15079531 -0.13432617 -0.10497794 -0.14485101 0.019808618 0.22868745 0.08826496 -0.17967996
0.0007037503 -0.0063439584 -0.23831132 -0.23909034 -0.03801665 -0.12754183 -0.16438174 0.2614792
-0.12852171 0.101711236 -0.07330017 -0.08779597 -0.10540322 0.05258211 0.13502046 -0.23358145
0.11198031 0.034835964 0.0037681651 -0.06876803 0.0281125 0.056148548 0.10402713 0.1797271
0.116910286 0.18015543 0.01209876 0.03829814 0.07664498 -0.058059637 0.07454461 -0.276583
-0.23998778 -0.24170768 -0.10611887 -0.20104614 -0.0038533753 0.06824616 -0.074848875 -0.08757676
-0.13973643 0.21756607 -0.24485412 0.01618808 -0.029118842 -0.05996262 0.19514917 -0.24176037
-0.12644078 0.18162578 -0.032117687 0.030070137 0.12538712 0.17246598 0.06249061 -0.085615344
-0.053561933 0.16432802 -0.24713539 0.011738595 0.10798194 0.03752226 0.16109097 -0.092656195
-0.2313149 0.04384248 -0.052783314 -0.13208713 0.20116286 0.03510012 0.037770875 -0.09624173
-0.25382057 -0.046999652 -0.13568968 0.15413141 -0.12941599 0.07037888 0.15574163 -0.09350409
-0.09847654 -0.04399205 -0.08806396 -0.22359188 -0.14480476 0.15473598 -0.15997495 0.12923898
-0.00548898 0.12670478 -0.21297485 0.09302479 0.026958931 -0.14842457 0.05890208 -0.30950856
-0.1523822 0.22543924 -0.13131699 0.030629411 -0.0124135725 -0.17458197 -0.36612687 0.07013854
0.038549516 -0.11374918 0.16742176 -0.03088639 -0.05414341 -0.20094712 0.28167385 -0.16183485
-0.0063152453 0.11794066 0.024343234 -0.14249022 0.27151802 -0.0054178345 -0.23311499 0.14755315
-0.24783517 0.12665227 0.025068425 0.093169585 0.006722707 0.12404199 -0.11086576 -0.2820433
-0.15405545 -0.047549445 0.00267566 -0.19896904 0.2726566 0.0018059645 -0.27575806 0.23873185
-0.11297936 0.22030179 -0.069389254 0.041410137 0.061466377 -0.2335248 0.029266339 -0.15570536
0.065849595 0.21632914 0.004584938 -0.02972536 0.08015474 0.04177642 0.06984871 0.106335275
-0.010032229 -0.30485386 -0.108193785 0.1624148 0.061074283 -0.13505146 0.12995934 -0.11640446
0.09350253 -0.066159435 -0.30918542 0.084032655 0.04790261 -0.14318891 -0.1565895 0.13281336
0.036963675 -0.16891271 0.050874 0.10328094 -0.007345885 0.070219584 0.25639033 -0.041796263
00000000: d062 0fbe 3738 8b3d baa8 a5be 5888 3c3d
00000010: c338 753d f56c df3c 512b 09be c28e 04bd
00000020: 876f 10be 090e ec3d ee01 973d 2010 333e
00000030: 93f4 0c3e f555 af3e 9906 a6bc a50d 0ebe
00000040: 3f49 1b3d 462b 16be cfe4 dfbb 0944 753d
00000050: e1f0 723d 99e1 32be e97a 54be 3221 fc3d
00000060: 2f09 67be fcb0 9c3e c8c1 8dbe 675b 8b3e
00000070: 139b ff3c 6158 8cbe bf34 f4bc 06f9 923d
00000080: 81c2 3cbe 364b 063d 70f6 d13d e04a 10be
00000090: 5b0c a03d f009 1e3e 0e55 63be 0b2d 42bd
000000a0: 7bf0 23be 8c56 283e c072 71be 3d5a c1bd
000000b0: c9ba 3d3e edcb 90bd e691 d83d 62b8 c3bd
000000c0: ad5f f4bb 2410 a7bc 277e c4bc ffcb 753c
000000d0: e2ba 8e3e 1d56 9ebe b2f9 093d 6543 5f3e
000000e0: 8752 aebd 5a6d 3cbe 049d fdbc 890b 9cbd
000000f0: 1072 d3bd e80f d0bc 72f4 983d 7d3a fabd
00000100: c012 f6bd 35a4 cb3d 2f1c 173d 91bb d1bd
00000110: 8618 b7bd 274e 943d 3779 0dbe 1cf8 eb3c
00000120: 166a 1abe cd8c 09be adfe d6bd d353 14be
00000130: af45 a23c 0b2d 6a3e 42c4 b43d 06fe 37be
00000140: e27b 383a fbe0 cfbb e207 74be 19d4 74be
00000150: 59b7 1bbd 539a 02be b053 28be 9ae0 853e
00000160: 329b 03be fb4d d03d 661e 96bd 60ce b3bd
00000170: a5dd d7bd 5760 573d ce42 0a3e fa2f 6fbe
00000180: ef55 e53d 28b0 0e3d 52f3 763b 41d6 8cbd
00000190: 304c e63c 05fc 653d 2d0c d53d 620a 383e
000001a0: a96e ef3d aa7a 383e e139 463c 83de 1c3d
000001b0: 0bf8 9c3d f1cf 6dbd d8aa 983d 499c 8dbe
000001c0: 5bbf 75be 3882 77be da54 d9bd 0adf 4dbe
000001d0: e988 7cbb a5c4 8b3d 5e4a 99bd 725b b3bd
000001e0: 1117 0fbe a4c9 5e3e 0abb 7abe dd9c 843c
000001f0: a38a eebc 5d9b 75bd 2fd5 473e 0890 77be
00000200: b179 01be 1cfc 393e d68d 03bd a655 f63c
00000210: 7b65 003e ec9a 303e 27f6 7f3d 1957 afbd
00000220: c263 5bbd 9b45 283e 0f11 7dbe 3c53 403c
00000230: a325 dd3d f1b0 193d 08f5 243e 88c2 bdbd
00000240: d0dd 6cbe 2c94 333d 5133 58bd d941 07be
00000250: a3fd 4d3e 25c5 0f3d a2b5 1a3d 621a c5bd
00000260: c5f4 81be b582 40bd 3cf2 0abe a0d4 1d3e
00000270: a085 04be cd22 903d bc7a 1f3e 137f bfbd
00000280: 11ae c9bd 0231 34bd e15a b4bd 45f5 64be
00000290: b347 14be 1c73 1e3e 79d0 23be 3957 043e
000002a0: e7dc b3bb e6be 013e 1416 5abe c883 be3d
000002b0: fad8 dc3c 9cfc 17be 4f43 713d e877 9ebe
000002c0: 140a 1cbe 8bd9 663e f677 06be 88ea fa3c
000002d0: 4c62 4bbc 9ec5 32be fb74 bbbe cba4 8f3d
000002e0: 19e6 1d3d 55f5 e8bd 9c70 2b3e 7405 fdbc
000002f0: 7bc5 5dbd 15c5 4dbe 8e37 903e 09b8 25be
00000300: 1ef0 cebb df8a f13d 766b c73c f5e8 11be
00000310: 6904 8b3e 1788 b1bb b2b5 6ebe 2c18 173e
00000320: 81c8 7dbe 22b1 013e 4c5c cd3c b2cf be3d
00000330: 274a dc3b ba09 fe3d 960d e3bd fb67 90be
00000340: b6c0 1dbe 35c3 42bd 205a 2f3b 8abe 4bbe
00000350: a599 8b3e 1db6 ec3a 2930 8dbe 1f76 743e
00000360: b961 e7bd cb96 613e f41b 8ebd ad9d 293d
00000370: 2bc4 7b3d 2021 6fbe f6bf ef3c 3a71 1fbe
00000380: 27dc 863d 6385 5d3e 3f3d 963b 9982 f3bc
00000390: 2b28 a43d c01d 2b3d d70c 8f3d 4fc6 d93d
000003a0: 385e 24bc ce15 9cbe b494 ddbd 1150 263e
000003b0: 0729 7a3d ee4a 0abe 1014 053e 7665 eebd
000003c0: 417e bf3d 997e 87bd 8d4d 9ebe 5019 ac3d
000003d0: 8735 443d 1da0 12be ff58 20be 3a00 083e
000003e0: 3967 173d 74f7 2cbe 4161 503d f584 d33d
000003f0: c0b5 f0bb 49cf 8f3d 9845 833e 8f32 2bbd

bias_ih_l0 f4 [128]
0.012243536 -0.026233662 0.13083723 0.10351373 0.048429195 0.2676745 0.28712824 -0.054461196
0.06937982 0.2872077 -0.072017446 -0.09931275 0.09534824 0.3753755 -0.11814848 0.22032973
0.078023724 0.18694904 0.2391838 0.072178975 0.22813912 0.0010175374 -0.020901466 -0.019907372
0.031087287 0.1246763 0.1429087 0.14097132 0.16996226 0.19485372 0.24741861 0.046664376
0.22500663 -0.02577647 -0.052346826 -0.07790406 0.005772503 0.23337245 0.10109598 0.20089543
0.2215985 0.36436844 0.096526384 0.21829934 -0.025479475 0.43114403 0.08507467 0.09618918
-0.08030855 0.30302826 0.21352564 0.27435374 0.14254706 0.14192213 0.02285178 0.07691086
0.014519304 0.3015992 0.11396209 0.19961825 -0.088121064 0.103366695 0.0106193675 0.013667537
-0.10024152 0.06399584 0.04388071 -0.14494368 0.02574329 0.09306303 0.09051059 0.12442809
0.12264543 -0.08088703 0.09483663 0.049126506 0.04092358 0.041243646 0.09712847 -0.11069408
-0.17877375 -0.107679896 0.16484588 -0.10877471 0.04391672 -0.1999642 -0.096318625 0.17933421
-0.14231773 -0.072029054 0.1390801 0.075388536 0.020139467 -0.12984632 -0.10340091 0.028724479
-0.04282165 0.21970499 0.20355344 0.160355 0.13738689 0.33785275 0.28846788 0.055107996
0.054430064 0.3661132 0.0841674 -0.07788558 -0.017193964 0.50911605 0.08146191 0.06383129
0.108708 -0.053303063 0.15594675 0.17693742 -0.0023692634 0.17953263 0.093013026 -0.039041933
0.24913426 0.3572445 0.29590687 0.04499489 -0.06615235 0.058818515 0.17513363 -0.010485812
00000000: 1d99 483c fae7 d6bc 32fa 053e 02ff d33d
00000010: b15d 463d a20c 893e 7902 933e b412 5fbd
00000020: 0217 8e3d e30c 933e e27d 93bd 7c64 cbbd
00000030: f045 c33d 3831 c03e d5f7 f1bd 1e9e 613e
00000040: e7ca 9f3d 926f 3f3e 99ec 743e 92d2 933d
00000050: 4d9d 693e e45e 853a 8d39 abbc c914 a3bc
00000060: c4aa fe3c 4a56 ff3d a956 123e c95a 103e
00000070: 960a 2e3e bc87 473e 4e5b 7d3e 2523 3f3d
00000080: 2368 663e 2d29 d3bc a069 56bd 2a8c 9fbd
00000090: 4427 bd3b 30f9 6e3e 690b cf3d 88b7 4d3e
000000a0: b8ea 623e 808e ba3e a0af c53d dd89 5f3e
000000b0: 55ba d0bc e9be dc3e a13b ae3d d5fe c43d
000000c0: cf78 a4bd 8526 9b3e 77a6 5a3e 1878 8c3e
000000d0: dbf7 113e 0954 113e a833 bb3c 7183 9d3d
000000e0: 60e2 6d3c 366b 9a3e f564 e93d ba68 4c3e
000000f0: d178 b4bd ebb1 d33d dbfc 2d3c ceed 5f3c
00000100: 6d4b cdbd 4010 833d 42bc 333d 1e6c 14be
00000110: 98e3 d23c d497 be3d 9e5d b93d 28d4 fe3d
00000120: 872d fb3d 19a8 a5bd b539 c23d e038 493d
00000130: 7c9f 273d 19ef 283d 4beb c63d 94b3 e2bd
00000140: 7710 37be 4787 dcbd 5ccd 283e 46c5 debd
00000150: 05e2 333d 6ac3 4cbe b342 c5bd 63a3 373e
00000160: bdbb 11be f883 93bd 046b 0e3e 4e65 9a3d
00000170: 86fb a43c 6ff6 04be dbc3 d3bd 994f eb3c
00000180: c165 2fbd 58fa 603e 5070 503e 1a34 243e
00000190: 26af 0c3e 09fb ac3e 10b2 933e ecb8 613d
000001a0: 0ff2 5e3d 3073 bb3e f55f ac3d 7a82 9fbd
000001b0: 5bda 8cbc 6e55 023f 80d5 a63d fbb9 823d
000001c0: 4da2 de3d 5054 5abd 81b0 1f3e 152f 353e
000001d0: a545 1bbb 67d7 373e 9d7d be3d 6fea 1fbd
000001e0: 0d1d 7f3e c0e8 b63e 1b81 973e 904c 383d
000001f0: e27a 87bd afeb 703d 3b56 333e afcc 2bbc

bias_hh_l0 f4 [128]
0.24128276 0.23325437 0.06102514 -0.06541716 0.14246377 0.35535496 0.040509213 0.04962337
0.14805716 0.35933903 0.13303956 0.10944175 0.09588975 0.38466096 0.11113577 0.2714039
0.02697672 0.10782647 0.14894153 0.027217384 0.23320381 0.11045206 0.27348262 -0.093384005
-0.07591025 0.041517444 0.107150316 0.04479631 0.1958047 0.2190626 0.10660362 0.07563557
0.09079894 0.19523756 0.07157799 0.026503604 0.016184604 0.06650669 -0.022010678 -0.089075
-0.040044624 0.18567325 0.015194648 0.11254438 0.11906504 0.44423646 -0.07136932 0.022263685
-0.012842436 0.042931538 0.06852261 0.0871702 0.13495351 0.06504325 0.16768841 -0.07066347
0.038954318 0.34650335 0.024688497 -0.019337278 0.11032744 -0.088905856 -0.10891727 0.1906199
0.07904682 0.081937976 -0.14483182 -0.111765236 0.09923973 -0.10819906 -0.11368842 0.12375829
-0.13808456 0.14177261 0.019757893 0.15645505 0.002054928 0.11412558 0.07422928 -0.0039221863
-0.08987351 0.06349589 -0.118357144 -0.010726056 0.09088267 -0.1582757 0.03526577 0.1150074
-0.078164525 0.15050747 -0.06511947 0.09152526 -0.12858431 -0.16850309 0.12162634 -0.15084043
0.22156213 0.19567707 0.10295876 -0.105962425 -0.035793267 0.35104847 0.21355677 0.12883289
0.09750335 0.37883857 0.029397624 -0.057114523 -0.009312726 0.36827445 0.14720525 0.16591245
0.2568012 0.0050824746 -0.06600632 0.16222748 -0.019536782 -0.010598946 0.21387626 0.2477371
0.12406962 0.48307762 0.08424218 0.23039389 0.20936435 0.12600985 0.099955 0.05422426
00000000: d412 773e 3cda 6e3e 7ff5 793d 6ff9 85bd
00000010: 06e2 113e 16f1 b53e fdec 253d e041 4b3d
00000020: 4c9c 173e 49fb b73e 863b 083e ff22 e03d
00000030: d861 c43d 48f2 c43e 279b e33d 74f5 8a3e
00000040: 48fe dc3c 20d4 dc3d 2184 183e fef6 de3c
00000050: fbcc 6e3e b134 e23d ea05 8c3e 1d40 bfbd
00000060: d576 9bbd 320e 2a3d a071 db3d 567c 373d
00000070: 0781 483e f251 603e 0053 da3d d2e6 9a3d
00000080: cbf4 b93d 5bec 473e 7b97 923d 161e d93c
00000090: 9395 843c a934 883d bd4f b4bc f46c b6bd
000000a0: d505 24bd 2121 3e3e f9f2 783c ab7d e63d
000000b0: 5fd8 f33d f672 e33e 142a 92bd 5562 b63c
000000c0: 1569 52bc fbd8 2f3d 9555 8c3d 4a86 b23d
000000d0: 4131 0a3e 6535 853d 83b6 2b3e 02b8 90bd
000000e0: 908e 1f3d e368 b13e 883f ca3c 3669 9ebc
000000f0: 5af3 e13d 4614 b6bd 0510 dfbd dd31 433e
00000100: 4de3 a13d 19cf a73d cb4e 14be 2ce5 e4bd
00000110: 333e cb3d 7897 ddbd 79d5 e8bd fd74 fd3d
00000120: 0a66 0dbe d72c 113e 4edb a13c c135 203e
00000130: f9ab 063b acba e93d 8505 983d af85 80bb
00000140: 9a0f b8bd 220a 823d 3b65 f2bd 57bc 2fbc
00000150: b120 ba3d 0613 22be d772 103d 0089 eb3d
00000160: b914 a0bd a11e 1a3e 5b5d 85bd 9871 bb3d
00000170: 9bab 03be 138c 2cbe 3b17 f93d ea75 1abe
00000180: 2fe1 623e 925f 483e 0bdc d23d d402 d9bd
00000190: f69b 12bd a0bc b33e a0ae 5a3e c5ec 033e
000001a0: d6af c73d 21f7 c13e 49d3 f03c ebf0 69bd
000001b0: 6794 18bc 788e bc3e f9bc 163e f4e4 293e
000001c0: 727b 833e e38a a63b 522e 87bd f61e 263e
000001d0: 9a0b a0bc 34a7 2dbc 6102 5b3e cbae 7d3e
000001e0: 3718 fe3d f355 f73e 2a87 ac3d 60ec 6b3e
000001f0: 9c63 563e ba08 013e 35b5 cc3d 421a 5e3d

weight_ih_l0_reverse f4 [128, 2]
0.041705582 -0.19453113 -0.05117936 -0.09422688 0.004287638 -0.027602965 -0.123097256 -0.61890805
-0.16421992 -0.10931391 0.047735903 0.23209235 0.053156856 0.25635445 -0.15320764 -0.34423923
0.057814103 -0.2870113 -0.21978995 -0.087358624 -0.25910842 0.0045643784 0.37813124 -0.44312638
0.00021664522 -0.25914502 -0.31598362 -0.33362883 0.20512727 0.14213584 0.1989364 0.42026225
-0.090420805 -0.028833395 -0.1727469 -0.13589081 -0.17403083 0.20009412 -0.2812885 0.29326576
-0.35676444 0.476549 -0.36001676 0.09182209 -0.20302135 -0.0011551582 0.13502309 -0.13607848
-0.16059677 0.1261293 0.24184825 0.59553343 -0.11633467 0.009910085 -0.17576084 0.11429343
0.10089437 -0.32137835 0.0601575 0.15053822 0.1115608 -0.26817855 -0.0007921705 0.101595506
0.02768663 0.16866945 0.1547227 -0.005802737 0.10684503 0.13862874 -0.10042848 -0.40366748
-0.07337124 0.057127614 0.3511644 0.14333701 -0.147256 0.5683142 -0.009265056 -0.0804987
0.18469813 -0.03666643 -0.05205311 -0.20862776 0.08840075 -0.09696044 0.31811246 -0.09612727
-0.0022457463 0.22950903 -0.13287981 -0.27795187 0.21333046 0.16966955 0.3312252 0.15498781
0.23112734 0.0721898 -0.031145347 0.045579143 -0.1312464 0.20976591 -0.36062604 0.24452354
0.0624188 1.0090345 -0.05076868 0.010094495 0.09456047 -0.21572529 -0.031702064 -0.104338944
0.025369227 -0.20001641 0.22665028 0.57460344 -0.011975093 0.023026627 0.07623966 -0.20150116
0.06776912 0.04614371 0.3960998 0.088393115 0.24305344 -0.23065883 0.17558716 -0.07897064
-0.20877336 -0.2531708 0.3097217 0.4218961 -0.08265435 -0.23564276 -0.1237761 -0.3535913
0.115616746 0.4204393 0.21037972 0.30961502 -0.052680176 -0.36443672 -0.10841082 0.29539075
-0.09029515 0.10690096 0.007914765 0.31225473 0.13739534 -0.31353623 0.19488417 -0.25081262
0.135239 -0.27775735 0.16730012 -0.16706833 -0.2982991 -0.061971895 0.041015655 0.28645855
0.15492207 0.33389392 0.010629378 0.44174987 0.41074422 0.03942022 -0.33616063 -0.26162288
-0.3598645 -0.2881284 0.2202898 -0.27089393 -0.12251589 0.31823808 0.146261 0.34464034
-0.04078617 0.34169474 0.26416582 0.22862445 -0.03588383 0.14989002 0.078208655 -0.46400294
-0.24791893 0.382349 0.18724492 0.27884087 0.20974194 -0.31717014 0.19613871 0.1854153
0.11059541 -0.075982384 0.06674423 0.11620142 0.006254753 -0.14600997 -0.4097609 -0.34853435
-0.14118405 0.17625031 -0.21179435 0.31536135 -0.25471655 0.20123287 0.035818428 -0.25278533
-0.0018251599 -0.13105002 -0.13116144 -0.17371391 0.04566498 -0.19389091 0.41677496 -0.34114215
0.27455893 -0.061877176 -0.052116934 -0.11763526 0.36711782 0.033409674 -0.087337844 0.19140165
0.0712071 0.11060369 -0.14127032 -0.10217281 -0.094256796 0.1815988 -0.4732855 0.19635321
-0.08935583 0.50386 -0.19706893 0.19552475 -0.056347303 -0.2254439 -0.07063885 -0.08777607
0.052476183 0.17623076 0.5093688 0.3738914 -0.13343878 0.10408513 0.069635324 0.15594003
0.38898015 -0.34247535 0.10928367 -0.052005064 0.038320266 -0.101594225 -0.027930886 -0.06784262
00000000: 79d3 2a3d 2b33 47be 73a1 51bd 06fa c0bd
00000010: 507f 8c3b 9d1f e2bc 6a1a fcbd c270 1ebf
00000020: 4429 28be f9df dfbd b986 433d 9ea9 6d3e
00000030: 01bb 593d e440 833e 77e2 1cbe 2040 b0be
00000040: 7bce 6c3d 25f3 92be 9e10 61be 14e9 b2bd
00000050: dca9 84be c890 953b 6b9a c13e 76e1 e2be
00000060: 422b 6339 a8ae 84be 9bc8 a1be 66d1 aabe
00000070: e20c 523e 0f8c 113e fcb5 4b3e 9d2c d73e
00000080: 8b2e b9bd 0334 ecbc 90e4 30be f626 0bbe
00000090: 2335 32be 79e5 4c3e 0c05 90be ee26 963e
000000a0: d4a9 b6be 3bfe f33e 1e54 b8be 380d bc3d
000000b0: d4e4 4fbe ad68 97ba 7e43 0a3e 2858 0bbe
000000c0: 7b73 24be 0a28 013e 11a7 773e e174 183f
000000d0: df40 eebd e95d 223c a6fa 33be ac12 ea3d
000000e0: b5a1 ce3d b48b a4be b667 763d b126 1a3e
000000f0: fd79 e43d b34e 89be aaa9 4fba 4e11 d03d
00000100: 12cf e23c afb7 2c3e a16f 1e3e e324 bebb
00000110: 91d1 da3d b1f4 0d3e 72ad cdbd 81ad cebe
00000120: a943 96bd a5fe 693d d2cb b33e f0c6 123e
00000130: 47ca 16be 0a7d 113f 76cc 17bc 81dc a4bd
00000140: 8221 3d3e 8a2f 16bd a435 55bd 84a2 55be
00000150: 740b b53d 3293 c6bd a3df a23e 60de c4bd
00000160: 5f2d 13bb 6a04 6b3e a511 08be b54f 8ebe
00000170: 4d73 5a3e dbbd 2d3e 5996 a93e 20b5 1e3e
00000180: a5ac 6c3e 3fd8 933d 8724 ffbc 32b1 3a3d
00000190: 7565 06be e0cc 563e faa3 b8be 6164 7a3e
000001a0: dbaa 7f3d 0b28 813f d2f2 4fbd 6163 253c
000001b0: eba8 c13d 17e7 5cbe 06da 01bd a8af d5bd
000001c0: 20d3 cf3c 1ad1 4cbe 0317 683e 3619 133f
000001d0: 2e33 44bc 56a2 bc3c 8a23 9c3d 5256 4ebe
000001e0: 89ca 8a3d 3001 3d3d 98cd ca3e 7307 b53d
000001f0: 00e3 783e d431 6cbe 1fcd 333e 5cbb a1bd
00000200: afc8 55be 9a9f 81be d893 9e3e c402 d83e
00000210: af46 a9bd 564c 71be 537e fdbd eb09 b5be
00000220: 79c8 ec3d d243 d73e c86d 573e dc85 9e3e
00000230: 2bc7 57bd 7397 babe 7e06 debd 753d 973e
00000240: aaec b8bd e4ee da3d eeac 013c dadf 9f3e
00000250: 5db1 0c3e d287 a0be b78f 473e 836a 80be
00000260: 187c 0a3e 3636 8ebe b950 2b3e f613 2bbe
00000270: a9ba 98be 3ed6 7dbd 0800 283d b2aa 923e
00000280: e4a3 1e3e 25f4 aa3e d826 2e3c 0a2d e23e
00000290: 114d d23e 1977 213d 3f1d acbe 6ff3 85be
000002a0: 2940 b8be 9185 93be a693 613e 9cb2 8abe
000002b0: 9ce9 fabd 1af0 a23e 72c5 153e b374 b03e
000002c0: 660f 27bd 9df2 ae3e be40 873e 871c 6a3e
000002d0: ecfa 12bd c57c 193e dc2b a03d cb91 edbe
000002e0: 76de 7dbe 40c3 c33e 22bd 3f3e 3bc4 8e3e
000002f0: 97c6 563e 2064 a2be 96d8 483e 82dd 3d3e
00000300: d97f e23d a79c 9bbd 33b1 883d 03fb ed3d
00000310: acf4 cc3b a383 15be 2ecc d1be 1873 b2be
00000320: 8d92 10be f67a 343e 9ee0 58be 0b77 a13e
00000330: 356a 82be fd0f 4e3e 58b6 123d 146d 81be
00000340: 343a efba fa31 06be 2f4f 06be 0fe2 31be
00000350: 340b 3b3d 578b 46be 8763 d53e 2faa aebe
00000360: fd92 8c3e ec72 7dbd 9178 55bd c1ea f0bd
00000370: def6 bb3e 95d8 083d 2fde b2bd cbfe 433e
00000380: 07d5 913d 3084 e23d 2ba9 10be fa3f d1bd
00000390: b509 c1bd 09f5 393e 7a52 f2be d110 493e
000003a0: 3000 b7bd f8fc 003f 70cc 49be a437 483e
000003b0: 6ecc 66bd c4da 66be 1aab 90bd f1c3 b3bd
000003c0: 44f1 563d d675 343e fe65 023f b26e bf3e
000003d0: 2da4 08be 962a d53d f79c 8e3d beae 1f3e
000003e0: 6828 c73e ee58 afbe 1ed0 df3d 4303 55bd
000003f0: b6f5 1c3d a210 d0bd 50cf e4bc 12f1 8abd

weight_hh_l0_reverse f4 [128, 32]
0.008264972 0.040264595 0.00162424 0.08546825 0.03100507 0.061698474 -0.025329355 -0.0034801485
-0.043392017 0.028274925 0.05944682 -0.022893952 -0.04012032 0.13895181 -0.12862374 0.004100846
-0.029257262 0.060138468 0.007502249 -0.013297655 -0.040430762 0.1490571 0.010328065 -0.055014428
-0.14247395 0.15048754 -0.20052354 -0.107263915 -0.05088278 0.06532485 -0.11066222 0.011237381
-0.021426868 0.10743183 0.058266122 0.28172404 -0.14122401 -0.10966939 -0.12364033 -0.14876477
-0.076490164 0.027573554 0.015907666 -0.15577413 -0.23052831 -0.050024834 -0.006690677 -0.052097023
-0.07729265 -0.075823896 0.01384538 0.033845298 -0.16469748 0.13589245 -0.058403652 -0.16470261
-0.15266621 0.017100066 -0.10780567 -0.033289105 -0.039055735 -0.1292091 0.15819688 0.05324206
0.13550748 -0.19213712 -0.046377487 -0.019234374 0.058152903 0.058991324 0.03572295 -0.23616143
-0.024531597 -0.035542507 0.047263224 0.09560912 0.09655347 0.04046756 0.026643287 -0.04148758
-0.23414256 -0.10787672 -0.12998922 0.042073112 -0.11949059 -0.049080968 0.005756107 -0.2059159
-0.17972721 0.14627779 -0.038648535 0.0695763 -0.02621689 0.09063479 0.012369609 -0.25394636
-0.017919742 -0.2256002 -0.14755721 0.07295077 -0.15019783 0.008103988 0.21311548 0.06645316
-0.05215533 -0.102819405 -0.030817397 0.33664414 0.2597754 0.048333276 0.09668462 0.17795166
-0.12762778 0.10375902 -0.045473147 -0.061669387 -0.4450157 0.12657236 -0.19022028 0.08328026
-0.20319133 0.4202106 0.004164106 0.008145599 -0.15048358 -0.13697071 0.08080689 -0.014459242
0.14550276 -0.10515526 -0.117310934 0.11580963 -0.19352396 0.045654453 0.09290304 -0.04276009
0.10705455 -0.16730183 -0.05648082 0.07742807 -0.062301937 0.15059848 -0.029490288 -0.08328055
-0.08930277 0.05849818 0.066336624 -0.13367873 -0.32562742 0.03335906 -0.10221474 0.14434229
-0.13594781 0.45314395 -0.16056305 0.18016022 -0.1151341 0.14311779 -0.05555209 -0.10979923
0.0283283 -0.15722965 0.0759806 0.073840685 0.12211658 0.12113752 -0.11500693 -0.16569966
-0.2071785 -0.123105265 0.04039506 -0.04980148 -0.16452053 0.12916535 -0.05539965 -0.027961904
0.0077683846 -0.19796805 -0.21946041 -0.10857781 -0.15556645 0.071603015 -0.17608804 0.06938339
0.08439988 0.11506505 -0.10249586 -0.058952443 -0.29484797 0.05932056 0.18245865 -0.11723863
0.28647152 0.31559056 0.16674243 0.011539017 -0.06374037 -0.3013472 0.041721065 -0.20803617
-0.2137305 -0.2740406 0.12701894 0.14270711 -0.10868991 0.13717817 -0.2027615 -0.006915301
0.012702436 0.09295546 -0.18094003 0.18615536 -0.03960355 0.33692503 0.021538481 -0.06544586
-0.2574746 0.09241001 -0.0788463 0.012030963 -0.14243126 -0.24475712 0.12458419 -0.08910997
0.20701441 -0.31813708 0.18310629 -0.08791376 -0.04389196 -0.05030811 -0.063768044 -0.21820204
-0.05324965 -0.100465864 0.16609925 -0.008273082 -0.06665588 0.088804446 0.113825195 -0.19670318
0.04894699 -0.031798128 -0.20505346 -0.028297655 -0.012928601 -0.05964479 -0.003369007 -0.024349118
0.11977373 0.09129031 0.13785924 0.022521907 -0.080131106 -0.085920855 -0.018203106 -0.028243681
00000000: ce69 073c 7dec 243d 73e4 d43a fa09 af3d
00000010: 58fe fd3c 8ab7 7c3d 827f cfbc 3413 64bb
00000020: d4bb 31bd d1a0 e73c 827e 733d 198c bbbc
00000030: 3455 24bd 6249 0e3e f1b5 03be 6460 863b
00000040: edac efbc c153 763d 6dd5 f53b 68de 59bc
00000050: ba9a 25bd 6da2 183e 0b37 293c cf56 61bd
00000060: b1e4 11be 6819 1a3e 0b56 4dbe 2fad dbbd
00000070: 766a 50bd 09c9 853d e0a2 e2bd fe1c 383c
00000080: 6687 afbc 3805 dc3d 75a8 6e3d 223e 903e
00000090: 079d 10be 589a e0bd 2437 fdbd cb55 18be
000000a0: e0a6 9cbd efe1 e13c cb50 823c 4183 1fbe
000000b0: 9d0f 6cbe d7e6 4cbd 773d dbbb b063 55bd
000000c0: 9c4b 9ebd 8f49 9bbd bcd7 623c 5ea1 0a3d
000000d0: 75a6 28be 6427 0b3e ab38 6fbd cda7 28be
000000e0: 8854 1cbe 7015 8c3c 38c9 dcbd 285a 08bd
000000f0: e8f8 1fbd 644f 04be 5dfe 213e 5914 5a3d
00000100: 79c2 0a3e 98bf 44be 52f6 3dbd 6891 9dbc
00000110: bd31 6e3d e3a0 713d 3a52 123d 4dd4 71be
00000120: 7df6 c8bc 0595 11bd 1597 413d b7ce c33d
00000130: d3bd c53d 50c1 253d 0643 da3c e1ee 29bd
00000140: 11c3 6fbe 78ee dcbd e51b 05be db54 2c3d
00000150: 7cb7 f4bd 2009 49bd ba9d bc3b 9edb 52be
00000160: 690a 38be d8c9 153e ed4d 1ebd 057e 8e3d
00000170: cec4 d6bc bc9e b93d e7a9 4a3c 4205 82be
00000180: 6ccc 92bc bd03 67be 3d19 17be 3767 953d
00000190: 76cd 19be 97c6 043c f23a 5a3e 9818 883d
000001a0: d4a0 55bd fb92 d2bd c474 fcbc 9f5c ac3e
000001b0: 4801 853e 1df9 453d 9602 c63d f638 363e
000001c0: dbb0 02be 9c7f d43d 0d42 3abd 0a99 7cbd
000001d0: 19d9 e3be 2f9c 013e 1bc9 42be d78e aa3d
000001e0: 6311 50be d825 d73e 0e73 883b 1e75 053c
000001f0: 5e18 1abe 0d42 0cbe 157e a53d 75e6 6cbc
00000200: adfe 143e a45b d7bd b740 f0bd 992d ed3d
00000210: 252b 46be 2a00 3b3d f343 be3d 3425 2fbd
00000220: 6a3f db3d 2c51 2bbe 6f58 67bd 9c92 9e3d
00000230: 5130 7fbd 7d36 1a3e 9e95 f1bc fe8e aabd
00000240: 5fe4 b6bd ca9b 6f3d 7fdb 873d 14e3 08be
00000250: a3b8 a6be 82a3 083d f655 d1bd 77ce 133e
00000260: e735 0bbe 7c02 e83e a46a 24be ec7b 383e
00000270: 6dcb ebbd 788d 123e 978a 63bd 6bde e0bd
00000280: c010 e83c cf00 21be b89b 9b3d c939 973d
00000290: 4218 fa3d f316 f83d c188 ebbd 2cad 29be
000002a0: 9a26 54be 9d1e fcbd 4a75 253d a3fc 4bbd
000002b0: 1278 28be ec43 043e beea 62bd 5d10 e5bc
000002c0: ef8d fe3b 23b8 4abe 3bba 60be 0b5e debd
000002d0: d04c 1fbe 9aa4 923d 6c50 34be e118 8e3d
000002e0: d8d9 ac3d 3aa7 eb3d 59e9 d1bd 1e78 71bd
000002f0: 50f6 96be 1efa 723d 71d6 3a3e cf1a f0bd
00000300: 65ac 923e 1695 a13e 87be 2a3e 250e 3d3c
00000310: 508a 82bd 2e4a 9abe b5e3 2a3d 6f07 55be
00000320: 2bdc 5abe 0d4f 8cbe 4111 023e d021 123e
00000330: d198 debd 6f78 0c3e b6a0 4fbe c099 e2bb
00000340: e11d 503c 6f5f be3d 5848 39be 839f 3e3e
00000350: 5537 22bd 7081 ac3e 7871 b03c 7b08 86bd
00000360: b6d3 83be 7641 bd3d 2b7a a1bd 841d 453c
00000370: 80d9 11be 9ca1 7abe ff25 ff3d 4a7f b6bd
00000380: 96fb 533e dde2 a2be 3780 3b3e 210c b4bd
00000390: 0ec8 33bd e00f 4ebd d298 82bd 5b70 5fbe
000003a0: 4e1c 5abd 0cc1 cdbd ec15 2a3e d28b 07bc
000003b0: e182 88bd 1bdf b53d 2f1d e93d 8f6c 49be
000003c0: a47c 483d c13e 02bd 89f9 51be 7cd0 e7bc
000003d0: 7cd2 53bc 184e 74bd 8fca 5cbb cd77 c7bc
000003e0: ee4b f53d 6af6 ba3d f92a 0d3e dd7f b83c
000003f0: c71b a4bd 46f7 afbd ae1e 95bc 4b5f e7bc
