sgan-dataset/logs/zara2/models_04_Mar_2019_00_49_31/model_registrar-1099.pt (torch_old, 575433 bytes, 45 tensors)

weight_ih_l0 f4 [128, 6]
000000 a5 ba 72 be 00 9f b7 bd ff 28 15 be ba 11 90 bd
       -0.23704012 -0.08965874 -0.1456642 -0.07034631
000010 a0 7a f9 bc d2 70 2a 3e 75 d9 75 be 53 59 6a be
       -0.03045398 0.166446 -0.24008735 -0.22885637
000020 15 49 fe bd a9 c2 3d bd 8b e3 35 3d 86 a8 c1 bd
       -0.12416283 -0.04632822 0.044406455 -0.094559714
000030 11 4b 10 be cf 42 e0 bd ba bb d8 bd 3d 6b 39 bd
       -0.14091136 -0.10950243 -0.10582681 -0.045268286
000040 53 9e 1f be d0 90 4c 3e 76 8f c8 bd a0 dc fa 3c
       -0.1558774 0.19977117 -0.09792988 0.03062278
000050 ba f5 22 3e 80 9b 7c bd cd e1 35 be 96 7a 8b 3e
       0.1591405 -0.061671734 -0.17761917 0.27241963
000060 c8 77 89 bd 40 85 7b 3d 52 1b 3c be ba b7 fb 3d
       -0.067122996 0.061406374 -0.18369797 0.122909024
000070 c2 4b 2a 3e 1d 48 25 be 24 69 24 3e 2a bf 99 3d
       0.16630462 -0.1614079 0.16055733 0.07507165
000080 24 f7 da 3c e0 89 a5 3d 30 5f dd 3d d0 a8 92 3d
       0.026729174 0.08082938 0.10809171 0.07161105
000090 e9 b8 1f be 27 b3 93 bd 40 19 68 be c4 cb 6c 3d
       -0.15597881 -0.07211905 -0.22665882 0.057811514
0000a0 66 00 c0 3a af 38 05 be 6f 80 87 3c ed 7a 47 3e
       0.0014648556 -0.13009904 0.016540734 0.19480486
0000b0 ff ae 95 be 93 2c 73 3d be 0e 85 be 5f 1e 9f 3d
       -0.29235074 0.05936868 -0.2598781 0.07769465
0000c0 7e 7b 1d 3e d0 ad e1 3d 5c eb 05 3e 68 f8 64 3d
       0.1537914 0.1101948 0.13078064 0.05590096
0000d0 a2 b7 39 3c 9e c5 96 3d 35 64 42 be d2 54 7d be
       0.011335285 0.07361911 -0.18983538 -0.24739388
0000e0 19 6b 28 be 60 5d d8 3d f1 d6 d3 bc 7b 30 49 be
       -0.16447105 0.10564685 -0.025859328 -0.196474
0000f0 b5 35 84 3b f3 2e 0b 3e 81 2b 83 be 73 d2 f3 bd
       0.0040347227 0.13592128 -0.25619128 -0.119053744
000100 18 a0 b0 bd b4 3c 2e 3d 13 81 73 bd c2 dd c1 bc
       -0.086242855 0.04253836 -0.059449267 -0.023665313
000110 5f 0e c3 bd 29 4f d3 3d 1f 1b 07 3e 1c ae 01 3e
       -0.095242254 0.10317833 0.1319394 0.12664074
000120 aa 5b 35 be 21 2d 32 be 3a be c0 3d 8d df 17 3d
       -0.17710748 -0.17400028 0.09411283 0.03707843
000130 41 fc 0b 3d 39 d2 2a be c8 e4 48 bd 44 a1 c0 3d
       0.034176115 -0.16681756 -0.049046308 0.09405759
000140 40 aa 46 3e 1d 49 6f bd a7 4e ee bd c6 50 52 3c
       0.19400883 -0.058419336 -0.116360955 0.012836641
000150 e8 31 2f be ae f4 ef bd f2 52 4b be a0 2d 96 3e
       -0.17108881 -0.11716591 -0.1985586 0.29331684
000160 c0 d6 ce bd 0e 9a 2f 3d e1 95 d8 bd ee b9 2e 3e
       -0.10099554 0.042871527 -0.10575462 0.17063114
000170 e7 2c 33 3e 23 ce e7 3e b5 84 1c 3d d1 3e c9 bb
       0.17497598 0.45274457 0.038212497 -0.0061415215
000180 bd e4 12 3e bb 5b c4 3d be b3 a1 3c 4c 85 92 3b
       0.14345069 0.09587809 0.019739028 0.0044714566
000190 b1 30 25 3e 48 b3 19 be 92 80 48 bd 00 03 1f be
       0.16131856 -0.15009797 -0.04895074 -0.15528488
0001a0 60 ec cb 3d c3 47 a9 bd e4 93 b3 bd 8e 85 6c 3e
       0.09957194 -0.082656406 -0.08768442 0.23097822
0001b0 43 6b ca 3d 7d f5 a2 3c f6 be 84 3a 6c 35 9b bc
       0.0988374 0.019892449 0.0010127712 -0.018946372
0001c0 e1 fc dd 3d 78 5f e8 bd bb ee 8d 3b fb f2 4b 3d
       0.108392484 -0.11346334 0.0043314374 0.04979227
0001d0 c1 66 5a be 18 38 02 3e 26 b7 21 3e c8 3a 88 3e
       -0.2132826 0.1271671 0.15792522 0.26607347
0001e0 4b 59 b1 bd 0a 5c 23 3d 21 42 94 3e 09 86 8e bd
       -0.086596094 0.039882697 0.28956702 -0.06959159
0001f0 b9 f8 09 3e 4c f2 6d bd b6 02 c9 bd 04 c6 32 bd
       0.13473786 -0.0580924 -0.0981497 -0.043645874
000200 23 03 18 3d 37 d6 20 3e 69 53 93 be 47 b2 a1 3e
       0.037112366 0.15706716 -0.28774574 0.31581327
000210 db 9b d2 bc 8a 36 25 be 1f 13 df bd 1a 9a e5 bd
       -0.025709083 -0.16134086 -0.10892319 -0.11211033
000220 73 c8 02 3e a6 79 5e 3d 3b 77 ce bc c3 59 b9 bd
       0.12771778 0.05431523 -0.025203338 -0.09050324
000230 41 23 c7 bd 51 17 3b bd 21 8d d6 3d 3d bd 82 3e
       -0.09723521 -0.045676533 0.10476137 0.25535002
000240 0c f3 33 bd 8e d7 11 be c8 26 42 be 70 49 f9 bd
       -0.04393296 -0.14242384 -0.18960106 -0.1217221
000250 d4 11 0b be 28 b8 38 bd 98 07 0f be 5d 92 b6 bd
       -0.1358102 -0.0450975 -0.1396774 -0.08914635
000260 fb 03 76 3d 7c 1d 31 3e 90 8c 0d bd c4 a9 79 3e
       0.06006239 0.17296404 -0.03455788 0.24381167
000270 6c c9 32 be 61 b2 ea bc 3b cf b1 3c ee f8 27 3c
       -0.17459649 -0.02864951 0.02170526 0.010252221
000280 03 56 b6 3d 5e 51 ca 3e 3e de 11 be 23 c7 ef 3d
       0.08903124 0.39515203 -0.14244935 0.11707904
000290 fb 5b ca 3e 89 d4 be 3c e3 55 95 bd 30 47 5c 3e
       0.395233 0.023294704 -0.07291772 0.21511531
0002a0 f2 a7 f7 3d 8b 03 0c 3e 0c 19 1d bd 12 98 c7 bd
       0.1209258 0.13673227 -0.038353965 -0.09745802
0002b0 b4 1d 81 3d 13 ba bb 3d f6 43 16 be 3b 46 f5 bd
       0.063044935 0.0916635 -0.14674363 -0.11976286
0002c0 af 2a 42 be d2 ba 07 bd fc 51 11 bd 9f 96 8b bc
       -0.18961595 -0.03313715 -0.035478577 -0.017039595
0002d0 49 c4 58 bc aa 94 cf 3c 41 df cb 3d 35 d1 72 be
       -0.013230392 0.025339443 0.09954692 -0.23712619
0002e0 15 57 c0 bd a1 86 e4 bd 36 a2 ab bd d3 0c c2 3d
       -0.093916096 -0.11158491 -0.08380549 0.09475102
0002f0 82 96 fd 3d 34 c3 f4 bd fa b9 95 bd d8 d5 5d be
       0.12382223 -0.119512945 -0.07310863 -0.21663606
000300 d2 60 a6 bd e4 9e 6f 3d 77 47 41 be b5 5f 63 be
       -0.08123936 0.05850114 -0.18874918 -0.22204478
000310 81 25 fe 3d d6 ab c0 bc 27 8e 61 3d 54 da bb bc
       0.12409497 -0.023519438 0.055067208 -0.022931255
000320 3c c0 23 bd 97 42 83 bd fb 5b cf 3d ee 35 ab bd
       -0.03997825 -0.064091854 0.10124966 -0.08359896
000330 a1 83 00 be 6d f6 1b 3b 41 7c 29 bd 75 f1 e2 bc
       -0.12550212 0.0023798004 -0.041378263 -0.027703026
000340 00 7b fe 3a c6 95 15 3e ae a9 c3 bd f6 ab 0c bd
       0.0019415319 0.14607915 -0.09553848 -0.034343682
000350 09 4c 98 3d 44 11 03 be a7 e9 0c be da dc 9c 3c
       0.074363776 -0.12799555 -0.13761006 0.019148279
000360 17 63 c5 3d 86 6e bb bd ce ba ac bd f6 72 c3 3c
       0.096380405 -0.0915194 -0.08434068 0.023858529
000370 cd a5 02 be f6 3f f3 bd 2f 32 a3 3d 5b a7 6a bd
       -0.1275856 -0.11877434 0.07968556 -0.05728851
000380 10 c5 3e 3d 6f d6 11 be 11 b1 c6 bd 51 b9 8d bd
       0.046574652 -0.14241956 -0.097017415 -0.06920112
000390 6d 2e 89 3d 9d 2f b7 bc 54 a9 ea bd b0 18 00 bc
       0.06698308 -0.022361571 -0.11458078 -0.007818386
0003a0 15 00 a8 bd 7c 92 53 3d de 85 d9 3c 42 a6 ce bd
       -0.08203141 0.05165337 0.02655309 -0.10090305
0003b0 1c 0a 76 be 85 18 d7 3c 0f 32 0a be 00 9d f3 3d
       -0.24027294 0.026256809 -0.13495658 0.1189518
0003c0 db 68 bc 3d 2c 51 fe bc 77 2e 63 bd a4 57 a7 3a
       0.09199687 -0.031044565 -0.055464234 0.0012767208
0003d0 2b bd b0 3d 48 77 28 3e 8a 82 5e be e7 b9 e6 bd
       0.08629831 0.16451752 -0.21729484 -0.11265927
0003e0 67 22 e0 3d b8 bc f4 ba b8 51 72 bd cb 1b 7c 3d
       0.10944062 -0.0018671965 -0.059159964 0.061549943
0003f0 4d 8d 04 3e 38 19 19 be 8a b7 93 bd 95 f9 89 3d
       0.12944527 -0.14951026 -0.07212742 0.06737057

weight_hh_l0 f4 [128, 32]
000000 9d 57 11 3d 1d 17 9d 3c 14 a5 2f 3d 18 ed 1e 3e
       0.035483945 0.01917606 0.04288204 0.15520132
000010 f0 de ca bd 95 30 b9 3c b3 3e 88 be cb 94 c3 bd
       -0.09905803 0.022606174 -0.26610336 -0.095498644
000020 c1 16 c9 3d 61 88 8a 3c a1 46 a3 3d d0 d4 41 3e
       0.09818793 0.016910734 0.07972456 0.18928838
000030 40 d6 a3 bd 5c bc 50 3e b7 e1 01 3e 84 e9 92 3e
       -0.07999849 0.20384353 0.1268376 0.28693783
000040 e5 36 33 3e 16 b9 b6 bd 87 1c c8 3b 89 1a 34 be
       0.1750141 -0.08922021 0.0061069163 -0.17588247
000050 30 6b 67 bd db bd b3 bd c7 1f 0f be 1f 1a c9 bd
       -0.056498706 -0.087764464 -0.13976966 -0.09819435
000060 67 3f f6 3b 0d 26 09 be e3 24 07 3c 87 78 8f 3e
       0.0075148824 -0.13393421 0.008248541 0.28021643
000070 67 d9 74 3d aa 22 43 3d 9e e0 54 3c 45 4f cd bd
       0.059777644 0.04764048 0.012993006 -0.10024885
000080 16 78 60 3e 4f d9 21 be a8 82 f2 3d d8 a6 f0 3c
       0.21920809 -0.15805553 0.11841327 0.029376432
000090 03 2c 1f 3d 86 db 2f 3e 26 85 a3 bd 1e 77 22 be
       0.038860332 0.17173585 -0.079843804 -0.15865752
0000a0 3e d9 f0 3d ba f6 8f bd 30 96 92 bd 31 37 c4 bd
       0.11760186 -0.07029481 -0.07157552 -0.095808394
0000b0 5c be 43 be c3 45 0a 3e 2a 9d 2a 3e d9 cc dd 3d
       -0.19115585 0.13503174 0.16661516 0.10830087
0000c0 0f c7 20 3e ef ba 1a 3e 28 1b 15 be 4d 84 07 bb
       0.15700935 0.15110372 -0.1456114 -0.0020678223
0000d0 bf 11 41 3d 9a ec 45 be 4f 5f 25 be af 1e 0d bd
       0.047136065 -0.19328538 -0.16149639 -0.03445309
0000e0 f1 fc a7 bd fa db 18 bd 42 9e 5e be bd ab 56 bd
       -0.082025416 -0.03731916 -0.21740058 -0.052409876
0000f0 0a d4 83 bd 31 99 3a 3c 11 b7 0e 3d 88 f3 91 bd
       -0.064369276 0.011389063 0.034842554 -0.07126528
000100 2f 45 51 3d 00 89 08 be 2a b1 ba bd 66 1c 13 3e
       0.05109137 -0.13333511 -0.091158226 0.14366302
000110 11 20 21 3d ff 6f 8b 3d 80 a2 31 be 1e 09 1e be
       0.03933722 0.06808471 -0.17347145 -0.15433165
000120 f7 53 fa bc 52 2d 35 3e 6e bb 2d be a8 49 c4 3d
       -0.030557616 0.1769307 -0.1696603 0.09584361
000130 ae 05 a8 bd 60 cc 0a be fb 36 05 3e 0a 91 00 be
       -0.08204208 -0.13554525 0.13009255 -0.12555328
000140 5b 32 94 3d 41 34 61 bd fb 7f 01 3e fb 3f 32 be
       0.07236167 -0.054981474 0.12646477 -0.17407219
000150 f5 1d d4 3d 52 75 02 3e 16 f8 2a 3d 3b 82 23 3e
       0.10357276 0.12740067 0.0417405 0.15967648
000160 9a 31 1c 3e 12 95 b6 3d 56 96 fe 3d cf d6 24 3e
       0.15253296 0.08915152 0.12431018 0.16097568
000170 b5 f2 11 3e e5 09 b3 3d cd b2 f8 bd f9 3f bb 3d
       0.14252742 0.087421216 -0.121434785 0.09143061
000180 7d 0e d6 bc fe c1 4c 3c e3 6f 0c 3d 9d df d9 3d
       -0.026129955 0.012497423 0.03428639 0.10638354
000190 20 b9 3d be ff fc c1 bd 04 0c b6 bd c3 02 e6 3d
       -0.18527651 -0.09472083 -0.088890105 0.112309955
0001a0 13 b0 de bd c4 a9 04 bd e3 80 7e bc bf 9c 28 be
       -0.10873427 -0.032388464 -0.015533659 -0.16466044
0001b0 87 54 40 be 5c 60 d8 bd 1f 5e 08 be 2e b0 7d bd
       -0.18782245 -0.10565254 -0.13317154 -0.061935596
0001c0 c2 44 1c bc 31 4e 5b 3e 72 02 01 be c2 be 93 bd
       -0.0095378775 0.21416546 -0.12598589 -0.072141185
0001d0 43 f1 88 bd 3d 44 b5 3c 76 99 c0 3d e5 46 b2 bd
       -0.06686642 0.022127265 0.0940427 -0.08704928
0001e0 9e 0a b9 bd 78 b9 4b 3d 74 98 39 be dc 02 09 3e
       -0.09035228 0.049737424 -0.18124563 0.13379997
0001f0 08 fa cf bd f2 3e 37 3d 08 0f 0e 3e 04 38 ac 3d
       -0.101551116 0.044737764 0.13872921 0.08409122
000200 bd 97 2e be 88 aa 6e bd 8b 1c 18 3e da 2f 26 be
       -0.17050071 -0.0582681 0.14854638 -0.16229191
000210 16 79 12 3e 54 18 0c be ec a4 06 bd a3 64 01 3e
       0.14304003 -0.13681155 -0.032872126 0.12636046
000220 30 99 2b be 94 a9 41 be 3c c6 18 bd bb 0c 0d be
       -0.16757655 -0.18912345 -0.037298426 -0.13774388
000230 40 8b 89 ba fa 76 bc 3d 69 4a b9 3d 51 9a 1c be
       -0.001049377 0.092023805 0.09047396 -0.15293242
000240 bd fa 1b bd 47 db 18 be ef d7 ed bd 2c ae a2 3d
       -0.03808092 -0.14927398 -0.11613452 0.07943377
000250 14 07 39 3d ac b7 34 3e be 58 a0 3d e1 d8 f5 bd
       0.045172766 0.1764819 0.07829426 -0.12004257
000260 3c 0d 59 3d 43 e0 00 be 95 a5 26 be 1c 5f 28 be
       0.052991137 -0.12585549 -0.16274102 -0.16442531
000270 44 fb 39 3e c4 07 9e bd 76 72 f9 3d 0e 93 fc bd
       0.18162256 -0.07716325 0.12180035 -0.12332736
000280 b7 13 e7 3d 73 d1 cf bd 4e 20 05 3d 98 55 62 be
       0.11283057 -0.10147371 0.03250151 -0.22102964
000290 f7 e2 92 bd 51 01 5c bd ac d0 a7 bb 1b 94 90 bd
       -0.07172196 -0.053712193 -0.005121311 -0.07059499
0002a0 7c bb 3f bd b3 93 23 3d fd d6 0d 3e a5 ca 31 be
       -0.04680966 0.03993578 0.13851543 -0.17362459
0002b0 15 e7 03 be 26 c9 5d 3d 1c 2b cf bc 29 62 c4 bc
       -0.1288112 0.05414691 -0.02528911 -0.023972588
0002c0 e0 55 64 3b a8 0d 08 3e 1c 57 41 be dc 3b 07 3e
       0.0034841225 0.1328646 -0.18880886 0.13206428
0002d0 3d 7b b8 3d 59 77 8e bd cd af 05 bd 55 e5 39 bd
       0.09007881 -0.069563575 -0.03263836 -0.045384724
0002e0 46 7a 6e bd f8 fe d6 bd 3b 65 19 3e 82 f6 4a 3e
       -0.058222078 -0.1049785 0.14980023 0.19820598
0002f0 02 92 63 3d 0e 6e d9 3d 2c 94 0f 3e 75 99 9b 3d
       0.055559166 0.106166944 0.14021367 0.07597629
000300 a0 3e 3f 3e 34 69 b3 3d 14 bd 2d be c3 e6 30 3e
       0.18676233 0.087603 -0.16966659 0.17275529
000310 4e 3f ea ba fd 64 85 bd d7 21 c0 3c de c9 0b be
       -0.001787165 -0.065134026 0.023453636 -0.13651225
000320 91 bb 88 bd 26 f9 09 3d 72 6e 38 bd 6b b7 f6 bd
       -0.066764005 0.033684872 -0.045027204 -0.12046703
000330 88 6d 25 bc 98 fa 24 3e 79 d7 d2 bb 8a 96 41 3d
       -0.010096915 0.16111219 -0.0064343777 0.047262706
000340 2c 54 e6 3c e8 f9 06 be 4f 08 a6 3c e3 06 14 be
       0.028116308 -0.13181269 0.020267634 -0.14455752
000350 14 ea cb 3d 21 d3 65 3e 9c b1 2a 3e 1e d0 92 bc
       0.09956756 0.2244382 0.16669315 -0.017921504
000360 6f 58 34 be ca 67 52 3c a0 9d 03 3e 51 f0 08 3d
       -0.1761186 0.012842128 0.12853098 0.03343231
000370 30 da 32 be 86 36 2c 3e 1b 18 18 be 4c 5c 1b 3d
       -0.17466044 0.16817674 -0.14852946 0.037929818
000380 e4 4b bb 3e f9 17 b7 3c 3d fa 83 bd db 3c 89 3c
       0.36581337 0.022350298 -0.064442135 0.016752651
000390 a8 e2 01 bd b6 24 a7 3d ab 08 66 3d 09 d1 da 3b
       -0.031710297 0.08161299 0.05616061 0.006677751
0003a0 a0 b3 b9 bc 3d 5e 81 be 27 42 8c bd 0f 5f 26 be
       -0.02266866 -0.2526721 -0.06848555 -0.162472
0003b0 52 42 86 3e 3c ee e1 bd 42 c3 fe 3d f8 c0 0c 3d
       0.26222473 -0.11031768 0.12439586 0.034363717
0003c0 9a 10 0a 3e c7 76 28 be 07 c9 08 be 9e a3 07 bc
       0.13482895 -0.1645156 -0.13357936 -0.0082787555
0003d0 10 75 2c be 8b 00 2c be f6 8b 4f bd 17 72 33 be
       -0.16841531 -0.16797082 -0.050670587 -0.1752399
0003e0 8f 11 63 3d 7c 50 27 3e 63 73 58 3d cc 70 e6 3c
       0.055436667 0.16339296 0.052844416 0.028129958
0003f0 e7 31 1d 3e 5f 6f 4a 3e ea 41 c3 bc 07 13 91 3d
       0.15351067 0.19769047 -0.023835141 0.07083707

bias_ih_l0 f4 [128]
000000 fc 6e 5a bd 83 66 76 bd 10 36 01 bd 2c 5d df bd
       -0.0533285 -0.060156357 -0.0315457 -0.10906443
000010 0b 90 26 be c9 de 10 3e be 1f 4f bd 70 fa 39 be
       -0.16265886 0.14147486 -0.05056738 -0.1816194
000020 b9 82 bc 3c a8 34 01 3b 83 05 27 3e 45 7f 1c 3e
       0.023011552 0.0019715223 0.16310696 0.15282924
000030 92 12 8c 3d 14 6c 21 be a1 95 82 3d f7 42 1a be
       0.068394795 -0.15763885 0.06376196 -0.15064608
000040 22 20 c8 3a fe cd 15 3e 7b 9c 4e bd 42 a0 d5 3d
       0.0015268365 0.14629361 -0.0504422 0.104309574
000050 92 2f ee 3c 40 5f 10 3c 8c 46 dc bc c8 8e 51 bd
       0.029075418 0.008811772 -0.026889108 -0.051161557
000060 cf 19 11 3e 18 ea 8e 3d 5d 4c b2 bc 9d 69 53 3d
       0.14170001 0.069782436 -0.021764928 0.051614393
000070 3e 69 0e bd 9c d8 e3 bd 79 19 4c be 7a 04 5b bd
       -0.034768336 -0.11125299 -0.19931592 -0.053471066
000080 1e 50 72 3e b8 36 ee bd 98 ba 29 be d1 c8 f4 3d
       0.23663375 -0.116315305 -0.16575086 0.11952365
000090 1f eb 23 be 5c dc a8 bd ba 2c 15 be 0f 1b 91 bc
       -0.1600766 -0.08245155 -0.14567843 -0.017713098
0000a0 ef 26 09 be 29 2e c6 3d cf 41 73 bd dd 37 4e 3d
       -0.13393758 0.09676773 -0.05938893 0.050346244
0000b0 a4 88 2d bd ae 5d 2e 3e e5 4c ba bc c5 a9 d5 bd
       -0.04236664 0.17027923 -0.022741744 -0.104327716
0000c0 9b b7 e1 3d 25 b5 e2 3d 38 80 b4 bd ed c1 83 3d
       0.11021348 0.11069707 -0.08813518 0.06433473
0000d0 c7 03 19 be 89 18 f0 3d 5d 3a fa 3d d7 4d c1 3d
       -0.14942847 0.1172343 0.12218163 0.09438675
0000e0 79 a9 c5 3d ec 06 17 3e 6d b9 16 3e 94 52 fe 3d
       0.09651465 0.14748734 0.14719172 0.12418094
0000f0 c9 b8 0c bd b2 74 1c be dc 0c 54 be 69 49 22 be
       -0.034355912 -0.1527889 -0.2070803 -0.15848316
000100 a2 5c df 3d 77 fd 0e 3e ee 6a 12 bd ae cc 8c 3d
       0.1090634 0.13963877 -0.035746507 0.06874977
000110 58 74 87 bd 15 6e 27 bb a6 cf c3 3d 18 c3 81 bd
       -0.06613988 -0.0025547792 0.0956109 -0.06336039
000120 38 d9 70 3c bb 96 b0 3d bc 44 df bd d5 b9 3e 3d
       0.0147002265 0.086224996 -0.10901782 0.046563942
000130 d8 76 0d be 8c 74 82 bd 1e cf 4c bd 78 31 53 be
       -0.13814867 -0.06369886 -0.05000221 -0.2062434
000140 fb 7f ea bd e3 ed 10 be 2e 73 09 3e d5 b4 0f b9
       -0.114501916 -0.14153247 0.13422844 -0.00013704908
000150 d4 8f 46 bb 20 a6 db 3d 95 45 a0 3d 52 d1 0f be
       -0.003029813 0.10725045 0.07825772 -0.14044693
000160 51 99 12 3e a9 a1 03 be 69 ff 01 3e 3e e4 2d be
       0.14316298 -0.12854637 0.12695087 -0.16981599
000170 c6 98 fc bd 9c 69 0a 3e ba 34 d0 3c 96 1d b7 bd
       -0.12333827 0.1351685 0.025415767 -0.0894119
000180 08 97 1d 3e 3d 65 b9 bd 4d 9b f6 3b 33 58 82 bd
       0.15389645 -0.09052513 0.0075258375 -0.06364479
000190 77 78 b1 bb b0 6a 8c 3d b1 2d 73 bc 70 f1 25 be
       -0.005415972 0.068562865 -0.014842437 -0.16205382
0001a0 7e e6 cd bd b9 10 6e 3d da fb a3 bd b3 63 b4 3d
       -0.100537285 0.058121417 -0.08007021 0.088080786
0001b0 58 0f 1c 3d f0 09 38 be be 31 d0 3d dc 74 ee 3c
       0.03810057 -0.17972541 0.101657376 0.029108457
0001c0 70 62 fc 3d 5f 84 7d 3d f5 9b 3d 3d 1a 2b 09 bc
       0.12323463 0.061893817 0.04629131 -0.008372093
0001d0 07 77 ed 3d 79 a9 92 bb b2 a1 94 bd ef e4 ec ba
       0.11594968 -0.004475769 -0.072574034 -0.0018073599
0001e0 5a 4d ae bd 80 3e de 3d ff 32 02 3e 46 b6 91 bc
       -0.085108474 0.10851765 0.12714766 -0.01778711
0001f0 55 c5 c4 3d 23 fb b9 3d cd c1 16 be 9c 81 88 bd
       0.096079506 0.09081104 -0.14722367 -0.06665346

bias_hh_l0 f4 [128]
000000 1b ec c7 bd 26 b6 40 bd e8 4d 29 be 0a b5 56 3d
       -0.097618304 -0.04704871 -0.16533625 0.052418746
000010 be b0 9a bc 62 c4 d1 bd c8 de 1b be 0e dd 84 bb
       -0.018883105 -0.10242535 -0.15221703 -0.004054672
000020 64 7d dd 3d 3e df 2a 3e 9d 2c bf bd 0e 63 e5 3c
       0.10814932 0.16686723 -0.09334681 0.028001335
000030 10 fa 2d be c4 e8 0b 3e 96 a8 d5 3d 19 26 20 3c
       -0.16989923 0.13663012 0.10432546 0.009774708
000040 2e fb ae bd b0 2f 0e 3e cd a3 15 be 7c e4 75 3d
       -0.085440025 0.13885379 -0.14613266 0.060032353
000050 a8 fe 34 3e d8 13 42 3e 58 7f d6 3a f1 39 57 3c
       0.17675269 0.18952882 0.0016364856 0.013136373
000060 a7 9b 31 3d a3 dc 5f 3d 81 21 54 3d 10 b5 23 bd
       0.043361332 0.054653775 0.051789764 -0.039967597
000070 20 60 ee bd 06 fb f6 bd 71 e9 04 be 94 f6 56 bb
       -0.11639428 -0.12059598 -0.12979676 -0.003280078
000080 64 6c 17 3e 2e c8 b8 bd 3d 54 93 3d 02 66 b1 bd
       0.14787441 -0.09022556 0.071938016 -0.086620346
000090 01 d9 17 3e 89 a4 a4 3d a7 30 9b bb 87 70 26 be
       0.14828874 0.08039195 -0.0047360244 -0.16253863
0000a0 9f 11 7a bd 2c 13 26 3d 5f b3 25 bd c9 a5 31 bc
       -0.06105196 0.040545627 -0.040454265 -0.010842749
0000b0 19 ee 38 bd 5e 0a 16 bc 9c 6b aa 3d 00 11 5e bd
       -0.045148943 -0.009157745 0.08321306 -0.05421543
0000c0 f2 a0 a8 bc ca 32 2f 3d 38 de 74 bd 0b 84 ef bd
       -0.020584557 0.042773046 -0.059782237 -0.11695107
0000d0 f8 e9 b4 bb 2e 9f 3a bd 8b 9c ce bd 48 fc 87 3d
       -0.0055210553 -0.04556196 -0.10088452 0.06639916
0000e0 20 46 db bd 32 02 25 be 83 cb d9 bd 2f 06 82 3d
       -0.10706735 -0.16114119 -0.1063452 0.06348836
0000f0 67 28 80 bd 52 26 a6 3d 4d 97 99 bd 77 56 12 3e
       -0.06257706 0.08112778 -0.074995615 0.14290796
000100 4b 60 32 be cb 3b 04 be 78 8e 09 3e 00 f0 56 3c
       -0.17419545 -0.12913434 0.13433254 0.013118744
000110 e8 17 43 3e 7f d8 f3 3c 9f 68 b9 bd 7d eb 86 bc
       0.19052088 0.02976632 -0.09053158 -0.016469711
000120 88 b3 1f 3e d3 43 f2 bb a2 22 9a 3c ae c7 82 3d
       0.1559583 -0.007393339 0.018815342 0.06385742
000130 8c 58 2e 3d 50 ec 33 3b ac c5 02 be 8f b2 75 bd
       0.042564914 0.0027454086 -0.12770718 -0.05998474
000140 12 a0 b0 bc b9 8e ce 3d 39 6e 74 3d 73 c2 01 be
       -0.021560702 0.10085816 0.05967543 -0.12671833
000150 37 d8 23 be 7a ae 3f 3d 03 4e 29 be 7a 6d dc 3d
       -0.16000448 0.046797253 -0.16533665 0.107630685
000160 67 3e c3 bd 4d a5 bb bc 38 09 05 3e f5 27 61 bd
       -0.09533387 -0.02290597 0.12991798 -0.054969747
000170 36 23 e5 bd 40 eb 12 be 09 36 63 3a 7b f1 6e 3c
       -0.111883566 -0.14347553 0.00086674147 0.014583941
000180 4d 28 1f 3d 30 68 33 3d d4 23 18 be 9e 98 27 3e
       0.038856793 0.043800533 -0.14857417 0.16366813
000190 a7 de be 3d 44 c4 e5 bc a8 25 3c 3e c9 1a 18 3e
       0.09319811 -0.028047688 0.1837374 0.14853968
0001a0 55 3f 1e be 79 ce a4 3d 10 11 25 3e 93 ee 28 3e
       -0.15453847 0.08047194 0.1611979 0.16497259
0001b0 94 df 4d 3d de 79 5c 3c a6 39 b0 3c 57 70 17 3d
       0.05026205 0.01345679 0.021511864 0.03697237
0001c0 00 21 11 3e 02 64 99 bd 31 05 1b 3e af 06 07 be
       0.14172745 -0.07489778 0.15138699 -0.13186143
0001d0 97 c9 a1 3d 0a 19 3f 3e 8e 34 a2 3d b1 eb 05 3e
       0.07899778 0.18661895 0.0792018 0.1307819
0001e0 25 5f d2 3d 42 5f ac 3d 1f 5c 37 3e 1c c9 3d bc
       0.10272054 0.084166065 0.17906235 -0.011583593
0001f0 3d 3c 08 bd 97 a1 ae 3d 57 2e f6 bd 87 4d 09 3e
       -0.033260573 0.085269146 -0.120205574 0.1340848

weight_ih_l0 f4 [128, 2]
000000 fb 4e ac 3d 7d fd 91 3e 31 e3 8d 3d ba c8 ef bc
       0.08413502 0.2851371 0.06928099 -0.029270519
000010 de f3 1d 3e ed 8a 09 bc f1 f7 bf 3c 02 29 1a bd
       0.15425059 -0.008394939 0.023433657 -0.037636764
000020 4f 88 5a bd 94 44 85 be bf 60 a9 bc f9 b6 81 3e
       -0.05335265 -0.26028883 -0.020676015 0.2533491
000030 56 a2 7b 3c 1e e3 11 bd b6 f2 00 3c 64 e1 1f be
       0.015358528 -0.035616986 0.007870367 -0.15613323
000040 25 d5 a1 bd 5e 1c 9c be 93 0a 90 bd 74 f3 54 3e
       -0.07901982 -0.30490392 -0.07033267 0.20795995
000050 cc 73 24 be ad 9a 50 be 07 74 a0 3e d8 06 18 bd
       -0.16059798 -0.20371504 0.31338522 -0.0371159
000060 a3 95 a9 3e 06 59 35 3e 5d b0 f8 be 7d 40 f2 be
       0.33121976 0.17709741 -0.48572055 -0.47314826
000070 6d c7 cd 3d d1 17 31 3c 4c 8a 1d 3e d9 3b fe 3e
       0.10047803 0.010808901 0.15384787 0.49655035
000080 40 97 42 39 88 3c 74 3c 12 e6 eb 3d a0 9b 35 3d
       0.00018557627 0.01490701 0.11518492 0.04433787
000090 12 8c a6 be c5 a1 3c be 00 06 11 3f ec 29 f7 3e
       -0.3252874 -0.18421085 0.5664978 0.4827417
0000a0 12 2a 36 bd 48 4e b3 be c4 f5 15 be 32 a2 fb bd
       -0.044473715 -0.3502066 -0.14644533 -0.12286796
0000b0 64 f5 50 be 44 cb 5b 3a 32 32 f4 be f6 f4 12 3d
       -0.20406109 0.0008384476 -0.47694546 0.035878144
0000c0 e8 38 fb 3d a0 85 06 be 13 5b 9f be a6 21 b4 bd
       0.122667134 -0.13136911 -0.31124172 -0.087954804
0000d0 b5 d4 30 3e b8 4a cd 3c 59 21 1e be d0 50 7d 3d
       0.17268641 0.025060043 -0.15442409 0.061844647
0000e0 9a 4b 49 bf 8a fd 16 be 98 29 1c bd 59 8e a3 bd
       -0.78630984 -0.14745155 -0.038125604 -0.07986135
0000f0 ab eb a1 3e c6 40 26 be f8 cc 6c be a7 a7 2a be
       0.31625113 -0.16235647 -0.23125064 -0.16665517
000100 0b 3e 0b be ea 06 58 bd 3b f9 15 3f 97 22 27 3e
       -0.13597886 -0.05274097 0.5858342 0.16321789
000110 19 04 7c 3e f5 8d 9d 3d 2e e5 45 be ee 9c 51 bd
       0.24610938 0.07693092 -0.19325706 -0.05117505
000120 4e 17 57 3e 9f c4 96 be 18 37 8d bd 00 b0 8a bc
       0.21004984 -0.29446885 -0.06895274 -0.016929626
000130 17 82 1a be 7a 88 1b 3d a3 b5 03 3e f5 76 5c 3b
       -0.15088688 0.03797195 0.12862258 0.003364024
000140 c3 d2 c9 3d 10 60 9e bd 00 81 a5 bd 88 cc 26 3e
       0.09854653 -0.07733166 -0.080812454 0.1628896
000150 7b 84 04 be 57 6e 93 bc 78 7f 6d be 00 7d cd bd
       -0.12941162 -0.01799695 -0.23193157 -0.100336075
000160 96 4b 66 3e 75 57 b8 3e a8 11 b5 bd 14 aa 7a be
       0.22489771 0.36004224 -0.08841258 -0.24478942
000170 5c 18 27 3f 98 cb 53 3e 62 74 a6 3e 10 78 3a 3e
       0.65271544 0.20683134 0.32510668 0.18209863
000180 17 14 fc be 8f 28 6b be 52 d3 19 3c a1 2e 38 be
       -0.49234077 -0.2296469 0.009388762 -0.17986538
000190 ef 30 87 3d 0b bc 86 3d 26 8c dd be c1 7d 47 be
       0.0660113 0.06578835 -0.43270987 -0.19481565
0001a0 3f c3 5d 3f 88 46 cd 3d 0d 02 03 3f d4 60 72 bc
       0.86626047 0.100232184 0.51175004 -0.014793593
0001b0 93 07 b2 3d 8d a0 40 3d 68 f3 06 be 9a 42 fb bd
       0.08692851 0.047028113 -0.1317879 -0.122685626
0001c0 ec 96 9b be 83 e1 6b bd ee 2c ac 3c dd 40 25 3d
       -0.30388582 -0.05758811 0.021017518 0.04034506
0001d0 83 e6 3f 3e 09 72 19 be a6 94 40 be 9a d0 7c 3d
       0.18740277 -0.14984907 -0.18806705 0.061722375
0001e0 5f be ef 3b f6 dc 05 be 98 21 c7 3d f2 13 df 3c
       0.007316395 -0.13072571 0.097232044 0.02723119
0001f0 50 4e 1f 3d 30 81 8f be 06 8f 38 be a4 5e a1 be
       0.038893044 -0.2802825 -0.18023309 -0.31517518
000200 ca b1 3e 3d d4 84 02 3e 3b 74 40 be d1 a7 93 be
       0.04655627 0.12745982 -0.18794338 -0.2883897
000210 b4 76 d4 be 4f 81 a6 bd 62 65 84 be 12 c2 3d bd
       -0.41496813 -0.081301324 -0.258586 -0.046327658
000220 67 db b8 bd c2 1a 45 be 81 72 02 3e ec 02 a7 be
       -0.09026223 -0.19248489 0.12738992 -0.32619417
000230 23 f1 a5 bd 1f 58 15 3d 96 68 3e 3e d5 32 2b be
       -0.08102634 0.036460992 0.18594584 -0.1671861
000240 9b b5 46 3e 44 37 ed 3d 8e 32 78 bd ae 3b b4 3e
       0.19405214 0.11582807 -0.060595088 0.35201782
000250 1c 30 9d 3e e5 8c 9e 3e 19 d7 7f be c6 ba 07 be
       0.30700767 0.3096687 -0.24984397 -0.13254842
000260 ec c5 42 be 9f e7 0f be bb a5 6f 3e 08 d9 79 3e
       -0.19020814 -0.140532 0.23403065 0.24399197
000270 0a e9 ae be b4 1c c0 be d3 9f 88 be f4 76 9b 3e
       -0.3416217 -0.375219 -0.26684436 0.30364192
000280 b7 ca 21 bd 9e ac 72 3e f9 0b 07 be f1 74 84 3e
       -0.039499965 0.2369866 -0.13188161 0.2587047
000290 d3 64 23 be c7 6e 67 3e 7b 87 00 3e f7 ae 0e 3e
       -0.1595643 0.22600852 0.12551682 0.13933931
0002a0 d8 f0 40 bd a9 6d 37 bd 56 61 9e be 85 0f 27 3e
       -0.047104686 -0.044782314 -0.30933636 0.16314514
0002b0 67 58 e6 bd 6c b9 08 be c0 e7 3a 3e 95 2f cc 3d
       -0.1124733 -0.13351983 0.18252468 0.09970013
0002c0 2f 9d 72 3e 9f 10 99 3e 03 24 02 3f 96 ac 72 3e
       0.23692773 0.29895493 0.508362 0.23698649
0002d0 ee fb 70 bd 44 1d 87 3e e9 c7 89 3e 6d 12 99 be
       -0.05883401 0.26389515 0.26910332 -0.2989687
0002e0 97 43 c4 3c d7 83 39 3d cb 58 28 3e 03 96 88 3e
       0.02395801 0.045291748 0.16440122 0.2667695
0002f0 3f 17 c6 bc 79 35 e4 bd 99 1a 67 be 14 4f 66 3d
       -0.024181006 -0.111430116 -0.2256874 0.05622776
000300 c0 f4 22 be db 00 1d 3d a0 65 db 3e 57 ed cf 3d
       -0.15913677 0.038330894 0.4285097 0.10152691
000310 4d 90 2c 3e 5e 3e f7 bd f3 d4 21 3d e8 7c 90 bd
       0.16851921 -0.120724425 0.039509725 -0.07055074
000320 df 51 66 bd c8 45 ae be c9 bc 1c bc 1d 48 04 3e
       -0.056230422 -0.34037614 -0.009566494 0.12918134
000330 55 62 1d be da bc 92 be a9 01 c0 bd 0a 93 17 be
       -0.15369542 -0.28659707 -0.09375317 -0.14802185
000340 47 08 d2 3d fb 67 55 3d 35 12 3c be b3 87 15 be
       0.10255485 0.052101117 -0.1836632 -0.14602546
000350 5e 45 65 3d 4f d3 23 bd 15 b5 60 3e ae 37 41 be
       0.055974357 -0.03999644 0.21944077 -0.18868896
000360 90 3c 09 3f 95 86 80 3e 16 3f bb bd d4 c9 50 be
       0.53608036 0.25102678 -0.09142892 -0.20389491
000370 7f 17 eb 3e bb 89 dc 3d c6 82 4c bd df 20 ed 3e
       0.45916364 0.107684575 -0.049929403 0.4631414
000380 2e df 2e be 12 ad b5 bd c9 0b bb bc ec e8 62 be
       -0.17077324 -0.08870901 -0.022832768 -0.22159165
000390 03 60 06 be e1 ae 87 be fd d1 3d 3e cf a2 d9 3d
       -0.13122563 -0.2650061 0.18537135 0.106267564
0003a0 d1 10 90 3e df c1 de 3c 53 48 b1 3d 3d d6 4d bd
       0.2813783 0.027192054 0.08656373 -0.05025314
0003b0 ae f7 92 3e 0a 74 e6 bc e5 4b a7 be 97 b6 13 be
       0.2870459 -0.028131504 -0.3267509 -0.14425121
0003c0 05 16 6f 3b 33 26 b8 bc f9 31 2a bd d7 c8 75 be
       0.003648163 -0.022479152 -0.041551564 -0.24002396
0003d0 00 79 a1 3e f4 00 86 be 58 c9 5a be e5 4a c9 3d
       0.31537628 -0.26172602 -0.21365869 0.09828738
0003e0 85 3d d8 be 5d e2 30 be b1 ff 36 bd e4 28 4c be
       -0.42234436 -0.1727385 -0.04467744 -0.19937474
0003f0 12 33 15 3e cd e8 b9 bd c3 da d3 3b 93 76 80 be
       0.14570263 -0.09077606 0.0064652874 -0.25090465

weight_hh_l0 f4 [128, 32]
000000 83 4d ed bd a1 ae 81 3d d5 fa 51 be 87 f5 3b 3d
       -0.1158705 0.06332136 -0.20505841 0.04588845
000010 a4 d6 1c 3d 92 a6 30 3e e2 df e1 bd c7 3a 58 bd
       0.038290635 0.17251042 -0.110290304 -0.05279043
000020 cb 50 02 be 35 b0 fd bc d4 a2 49 3e 56 cb df 3d
       -0.12726133 -0.030967811 0.1969102 0.10927455
000030 af 00 1f 3e 9f 73 9b 3d 49 a2 22 bd 35 2c d2 3d
       0.15527605 0.07590412 -0.03970555 0.10262338
000040 de 9d 81 3d ed fa fb bd 07 ef 2c bc 4b 46 a4 3d
       0.06328939 -0.1230372 -0.010555035 0.0802122
000050 61 e3 a3 3d bb 51 1c be 5d 1d 3f be 5e 73 99 3d
       0.080023535 -0.15265553 -0.18663545 0.07492708
000060 85 ff 56 be 2b 0b 67 3e b1 f0 59 be 99 c6 60 3e
       -0.2099591 0.22562854 -0.21283223 0.21950759
000070 5c e5 62 3c 8f 51 69 be ee 12 b4 bc 64 7a b2 3d
       0.013848629 -0.22785018 -0.021981683 0.087147504
000080 95 b5 e8 bd 65 14 04 bb 60 eb 37 3e 87 53 df bd
       -0.11362759 -0.0020153758 0.17960882 -0.109046035
000090 15 fe 88 3d 02 1b 2c 3e 90 b6 1b be 96 3e 14 bd
       0.06689087 0.16807178 -0.15206361 -0.0361925
0000a0 0f 5c d8 bd 38 86 91 3d 39 bd e4 bd b9 1e 61 be
       -0.10564434 0.07105678 -0.11168904 -0.21984376
0000b0 73 fc 6f 3e a5 f5 4c bd 29 20 90 3d 33 36 90 3d
       0.23436145 -0.050038952 0.07037384 0.07041588
0000c0 5d 59 09 3d 76 37 3a bd e9 b3 15 bb 3c 37 b2 3d
       0.03353249 -0.045463048 -0.002284283 0.08701941
0000d0 c2 cf 8a 3e cf 57 88 be d0 82 84 3d 87 13 5a 3e
       0.27111632 -0.26629493 0.06470263 0.21296512
0000e0 a8 b2 da 3c b3 13 87 bd 89 73 fe 3d 8d b6 eb bd
       0.026696518 -0.06595554 0.1242438 -0.11509428
0000f0 0c ca 78 bd df 5f 7f 3d 21 ca 3f 3d 99 a4 a3 bd
       -0.060739562 0.06234729 0.046823625 -0.07990379
000100 15 fc 27 be e3 0e 06 3e 40 ef d8 3c ff ef 1c be
       -0.16404755 0.13091616 0.02648127 -0.15325926
000110 d0 a8 44 bd 6f d0 a2 3d 48 15 b0 bd 3f f4 54 3d
       -0.048012555 0.07949912 -0.08597809 0.051990744
000120 f2 a6 35 be e3 85 78 be 05 3c 64 3b dc a2 d6 bd
       -0.17739466 -0.24269824 0.0034825813 -0.10480282
000130 51 54 65 bc d9 9a 47 3e 9b b2 56 3d 4d 13 0a be
       -0.013997153 0.19492663 0.052416425 -0.13483925
000140 a4 e9 b1 bc 1c 6e 92 3c 27 c3 86 be 91 e0 7a be
       -0.021717854 0.01787477 -0.26320764 -0.24499728
000150 3f d7 3d 3b 5b d0 2f be e8 d6 5f be 33 7f 94 3e
       0.0028967408 -0.17169325 -0.21859324 0.29003295
000160 bc f8 23 be a2 e8 8d 3d a4 e2 e5 bd 58 96 89 bd
       -0.16012853 0.06929137 -0.11224869 -0.06718129
000170 8f 09 2e 3d 2f e4 5a 3d 4d 49 24 3e 0d 43 85 be
       0.042489585 0.05344027 0.16043587 -0.26027718
000180 99 f4 df 3d 38 9d 4d 3d 61 ab 51 3d 26 78 d2 bd
       0.10935325 0.050198764 0.05118883 -0.10276823
000190 34 fc 39 3d c7 2a 57 3e 85 64 0d 3e 57 14 27 3e
       0.045406535 0.21012412 0.13807876 0.16316353
0001a0 34 e8 02 3e 97 cf 8b 3d d2 bd af 3d de f0 51 bd
       0.12783891 0.06826704 0.08581127 -0.0512551
0001b0 32 7f 60 bd 07 a6 79 bd 80 a7 58 bd 44 17 c4 be
       -0.054808803 -0.06094935 -0.052894115 -0.38299
0001c0 39 e7 6f be c6 6d 1f be f4 21 18 be 5a a8 42 be
       -0.23428048 -0.15569219 -0.14856702 -0.19009534
0001d0 21 c2 8a 3c 64 5f 0b 3d 9a 5e a0 bd 3b 85 e2 3c
       0.016938271 0.03402652 -0.07830544 0.02765142
0001e0 8f 9b 2d bd 9b b1 5d 3e 63 a8 c7 bd 3e ef 4f bd
       -0.04238468 0.21649782 -0.09748914 -0.05076527
0001f0 18 51 52 3e 43 17 01 bd 44 d0 71 3e 72 fb 85 be
       0.20538747 -0.031516325 0.23614603 -0.261684
000200 57 90 80 bd 04 9b 3e 3e da b6 a2 3b 41 c7 20 3d
       -0.06277531 0.18613821 0.0049656453 0.039252523
000210 56 dc 0a 3e 4e cd 93 3e cb be de 3d 22 1c f2 bc
       0.13560614 0.28867573 0.108762346 -0.02955443
000220 14 d3 c3 bc 55 55 9e 3d a4 e6 ab bd 72 f8 9a bd
       -0.02390436 0.077311195 -0.083936006 -0.075669184
000230 8f 0c ed 3c b7 74 3a 3d d3 0f 0f 3e 06 3a 75 be
       0.028936652 0.045521464 0.1397088 -0.23947915
000240 12 f9 60 be 49 5f bd bc c5 72 88 bd 5a 28 9f bd
       -0.21970013 -0.023116725 -0.066625156 -0.07771368
000250 3c a9 45 3e 47 58 84 3d de b0 74 3d 1e 4c 90 bd
       0.19302839 0.0646215 0.059738986 -0.07045768
000260 1f b1 4c be 0c 7f 0a 3d 20 01 2b be 4b f0 3b 3d
       -0.19989441 0.033812568 -0.16699648 0.045883458
000270 03 7c 92 bb 20 f2 db 3d 83 ed 27 3e 54 26 cb bd
       -0.0044703498 0.10739541 0.16399197 -0.0991942
000280 6c f5 2d be 44 89 5b 3d 3e a7 24 be fd 3c 6c be
       -0.16988152 0.053597704 -0.16079423 -0.2307014
000290 ee 13 17 3d cf d3 8e 3e c9 0e 46 be 2e 23 8b 3e
       0.03688424 0.27895972 -0.19341578 0.27175277
0002a0 b6 45 73 bd 96 54 5a be 60 38 07 3d b1 4b 00 3e
       -0.059392653 -0.2132133 0.033012748 0.12528874
0002b0 19 42 81 3d 7b 0c 8e bd f8 1c 06 3e a6 d1 2b be
       0.06311435 -0.06935974 0.13096988 -0.16779193
0002c0 b3 cd 3f be 02 f8 ba 3d f7 37 38 be cd 63 bc bb
       -0.18730812 0.09129335 -0.17990099 -0.005749202
0002d0 13 02 6d ba 61 ed 25 be d6 3e a3 be 76 27 36 3e
       -0.00090411416 -0.16203834 -0.31883878 0.1778849
0002e0 16 4f 31 3d bc 70 90 3e a0 86 f4 3d 99 e1 7a bd
       0.043288313 0.2821101 0.1193974 -0.061250303
0002f0 51 6e ef 3c 19 4b 80 be 45 59 a1 3e a4 a1 39 be
       0.029227408 -0.25057295 0.3151342 -0.18128067
000300 c3 ec 02 3e 5e 99 a0 3d ce 53 ad 3c b4 ee cf bd
       0.1278563 0.078417525 0.021158125 -0.10152951
000310 f8 22 80 3e 34 88 82 bd 5c f4 52 be 0c c6 08 3e
       0.2502668 -0.06373635 -0.20601028 0.13356799
000320 32 0b 67 be f9 12 8b ba 2d 42 b0 3d 2a b8 cd 3c
       -0.22562864 -0.0010610513 0.08606372 0.02511223
000330 f4 b6 0a 3d 04 f1 28 3e 3c f5 04 be 82 1a b5 be
       0.033865884 0.1649819 -0.12984174 -0.35371786
000340 2d 85 df bd b5 7f 14 be 6d 28 7f 3d c0 e3 15 be
       -0.10914073 -0.14501841 0.062294412 -0.14637661
000350 97 34 76 3e d5 9d 49 3d 55 2a 56 be 86 08 6e 3e
       0.24043499 0.049222786 -0.20914586 0.23245439
000360 51 d2 ea bd 97 d8 08 3e bd 4f d2 bd a4 10 86 3d
       -0.11465896 0.13363872 -0.10269115 0.06546143
000370 29 b2 ed 3d 2a 0d 14 be a6 66 07 bd bf 44 04 be
       0.11606247 -0.14458147 -0.033056878 -0.1291685
000380 5b 73 34 bc a9 84 8c 3e be 0b 8d 3c 58 55 08 bd
       -0.011013831 0.27444962 0.017217513 -0.033284515
000390 8b 77 16 3e 8b 10 11 ba 63 d6 01 3d b9 fa 20 3e
       0.1469404 -0.0005533776 0.031698596 0.15720643
0003a0 18 e9 fb bd d3 37 6f be 9e 9a d6 bd e2 f5 36 3e
       -0.123003185 -0.23361139 -0.1047871 0.17867234
0003b0 9b 28 df 3d ae 25 23 be 97 18 0d 3e b5 b5 c0 be
       0.10896417 -0.15932342 0.13778912 -0.3763863
0003c0 0b a2 1d 3d c4 4f b2 bd 94 0d ae be a1 37 1f 3d
       0.038484614 -0.0870662 -0.33994734 0.03887141
0003d0 b8 e4 b4 3d 12 cb 01 be a7 b4 7c be 8f de 1b bd
       0.08832687 -0.12675121 -0.24678288 -0.038054045
0003e0 a1 19 f0 ba 58 d8 79 bd c5 96 1d 3d e5 ac e9 3d
       -0.0018318185 -0.060997337 0.038473863 0.1140993
0003f0 12 db 76 bd a7 45 5a 3d 74 71 45 3e ba 30 a8 bd
       -0.060267515 0.053289082 0.1928156 -0.08212419

bias_ih_l0 f4 [128]
000000 d1 6b bb bb 9d 56 6c bd 3d 12 25 3e 0f 5e 06 3e
       -0.00571964 -0.05769979 0.16120239 0.13121818
000010 bf 53 69 3c b8 4d 40 3e bc 95 59 3e eb d9 0b bd
       0.014241158 0.18779647 0.21248525 -0.03414337
000020 f3 e5 50 3d 97 84 11 3e 77 c8 15 bd a6 01 0d be
       0.051000547 0.14210735 -0.03656813 -0.1377016
000030 34 d5 01 3e 2c 01 ad 3e 90 27 f5 bd b2 16 c9 3e
       0.12678987 0.33789957 -0.119704366 0.39275128
000040 cf f9 85 3d bf 88 0f 3e c0 fc 64 3e 2e c0 9e 3d
       0.06541788 0.14017008 0.22362041 0.07751499
000050 37 fe 57 3e 66 4d a6 bc 8e ba da bd 45 81 0e 3c
       0.21093069 -0.020300578 -0.10680114 0.008697812
000060 95 aa fe bb 32 11 bb 3d c9 4c 62 3d 23 9e a4 3d
       -0.0077718 0.09134139 0.05524901 0.08037975
000070 89 bf 29 3e 20 e5 39 3e 68 3b 4e 3e cc 6c 36 3d
       0.16576971 0.1815381 0.20139849 0.04453735
000080 82 3f 62 3e da 02 7e bd 2e e8 fb bc 78 ba af bd
       0.22094539 -0.06201444 -0.03075036 -0.08580488
000090 ff 18 25 bd 8a 41 00 3e 09 b9 cd 3b 51 8a 61 3e
       -0.04030704 0.12525001 0.0062781614 0.2202542
0000a0 73 ca 53 3e b4 01 80 3e 74 a6 6c 3e 59 c5 2b 3e
       0.20682697 0.250013 0.23110372 0.16774501
0000b0 57 f7 b9 3b d1 a3 a7 3e 45 8f bd 3d 57 b5 82 3e
       0.005675237 0.3274217 0.09255842 0.25528976
0000c0 0f 2a d1 bd 66 06 59 3e 37 8e 3a 3e 5b 5c 82 3e
       -0.102131 0.21193847 0.18218313 0.25461087
0000d0 49 42 0b 3e a4 9c da 3d a8 bb 84 bd 62 a2 87 3d
       0.13599505 0.10674408 -0.06481105 0.06622769
0000e0 b8 be f3 3c a4 16 5b 3e 6c 8a a5 3d 27 2a 81 3e
       0.029754028 0.21395355 0.080830425 0.25227472
0000f0 36 96 b5 bd 43 91 ca 3d 30 f3 b8 3c ec 37 33 3d
       -0.08866541 0.09890988 0.022576898 0.043754503
000100 65 ea e2 bd 4e 0f 8f 3d 54 5d 88 3d 25 72 4a be
       -0.110798635 0.06985341 0.06658426 -0.19770105
000110 a0 4e f6 3c dc 42 b0 3d 94 0a 0d 3e dc be 01 3e
       0.030066788 0.086065024 0.13773566 0.12670463
000120 8f 68 d4 3d 0f e6 8d bd d7 f0 0b 3e 56 b7 4b 3d
       0.103715055 -0.06928646 0.13666092 0.04973539
000130 57 85 72 3d 7b 82 db 3c 08 13 04 3e 4c 30 7f bd
       0.059209194 0.026795616 0.12897885 -0.06230192
000140 ef f7 1e be 6c 7b ce bd 54 a3 15 3e de 08 be bd
       -0.15524267 -0.100821346 0.14613086 -0.09279035
000150 9f c4 83 3d f2 64 34 be a5 be a8 bd c5 a0 39 3e
       0.06433987 -0.17616633 -0.082394876 0.18127735
000160 2c 4f fd bd dd 14 74 bd 15 de ea 3d 2b 39 36 bc
       -0.123686165 -0.05959021 0.1146814 -0.011122028
000170 db 38 48 3c 2a 44 bc bd 6e 0b ef bc 5c a3 86 3d
       0.012220587 -0.09192689 -0.029180255 0.06574127
000180 09 72 32 bd 34 0c 59 3e b0 b2 7b 3e 25 e4 2f 3e
       -0.043565784 0.21196061 0.24579883 0.17176874
000190 4c f6 ee 3d c6 2a 70 3e 37 d4 5e 3e cb cf a3 3d
       0.11668071 0.23453817 0.21760641 0.07998618
0001a0 79 6b e9 3c 97 32 5c 3e 21 b0 fc 3d 3f a4 0c be
       0.02849363 0.21503673 0.123382814 -0.1373453
0001b0 57 cd 5d 3c b0 63 ee 3e 00 cb 97 3d 03 cc 9c 3e
       0.013537726 0.4656043 0.07411766 0.306244
0001c0 7d 74 b6 3d 21 e3 d2 bd 64 d7 06 3e 9a bb 1f 3e
       0.08908937 -0.10297228 0.13168103 0.15598908
0001d0 68 80 b5 3b e6 55 18 3e 23 1e 13 bc 9f ed 29 bd
       0.005538989 0.14876518 -0.008979353 -0.04148638
0001e0 20 cd 6a 3e 51 a1 27 3e 5a 99 64 3e b0 0a 5b bc
       0.22929811 0.16370131 0.22324124 -0.013369247
0001f0 75 98 b8 bd 76 11 34 3d 57 ff 15 3e fb 25 0a 3d
       -0.09013454 0.043961965 0.14648186 0.033727627

bias_hh_l0 f4 [128]
000000 f7 ad 64 3e ad a1 4e 3e bc 2a bb 3d b5 78 1a bd
       0.22331987 0.20178862 0.0913901 -0.03771277
000010 a2 bf dd 3d 4f 0b 8d 3e 21 cf 0b bd 63 3d 8f 3d
       0.10827567 0.2754769 -0.03413308 0.069941305
000020 41 ca 04 3e 44 61 5b 3e 60 88 2c 3e 1a 84 91 3d
       0.12967779 0.21423823 0.16848898 0.071052745
000030 28 63 02 3e 3c c2 b1 3e 62 6b e0 3d 2f 3d e3 3e
       0.12733138 0.34718502 0.10957982 0.44382617
000040 65 74 6b 3c 97 0c 7a 3d 4e 94 08 3e c6 56 05 3d
       0.014371012 0.061047163 0.13337824 0.032553457
000050 e5 2d 5d 3e de 8b b6 3d c5 15 40 3e d1 aa 84 bd
       0.21599539 0.08913396 0.18758304 -0.06477893
000060 45 0c eb bd 94 12 06 3c 39 ab 9f 3c 14 65 81 bc
       -0.114769496 0.00818314 0.019490825 -0.015795268
000070 fc 35 44 3e 53 af 52 3e 31 26 78 3d 9e 8b 96 3d
       0.19161218 0.20574693 0.060583297 0.073508486
000080 5a a3 b1 3d d5 d0 22 3e 2e d2 be 3d cf 64 98 3c
       0.08673735 0.15899976 0.09317432 0.018602757
000090 2a e6 f4 bc 53 75 2a bd c0 43 ef bd 6f c7 8e bd
       -0.029894907 -0.041615795 -0.11682844 -0.06971633
0000a0 88 87 60 bd f3 0e 92 3d be 5d 19 3e 7c e9 7d 3d
       -0.054816753 0.071317576 0.14977166 0.061990246
0000b0 38 d3 19 3e dd 57 ae 3e 75 d6 82 bd 97 b7 39 3e
       0.1502198 0.3405141 -0.06388561 0.1813644
0000c0 ab fc 0d bd a6 41 45 bd f1 49 18 3d 64 17 8a 3d
       -0.03466479 -0.04815831 0.03717989 0.06742743
0000d0 a9 7b 03 3e eb a7 f4 3c 9e e4 a3 3d ef 98 a6 bd
       0.12840141 0.029865226 0.0800259 -0.081346385
0000e0 5f f5 5d 3d 0a 89 84 3e 4d 56 0a bc 81 79 08 3d
       0.054189082 0.25885803 -0.008443427 0.033319
0000f0 01 d6 e0 3d f0 34 bf bd dd 92 c6 bd f1 00 62 3e
       0.10978318 -0.09336269 -0.09695981 0.22070672
000100 55 44 8c 3d 24 ce b3 3d 6f 1e fa bd 9f 78 28 be
       0.06848971 0.087795526 -0.12212836 -0.16452263
000110 c7 18 d4 3d 78 ec eb bd fb 1d 88 bd 46 0f 01 3e
       0.103562884 -0.11519712 -0.06646343 0.12603483
000120 8f c8 20 be c1 0d 1d 3e 7b 3d 7c 3d 67 d5 20 3e
       -0.15701507 0.15337278 0.06158207 0.15706407
000130 29 a1 a6 3c c5 23 cc 3d 5a 40 d9 3d 6c 26 36 3d
       0.020340519 0.0996776 0.10607977 0.044470236
000140 97 de 87 bd 17 16 90 3d ab 5c 0c be aa 4d ac 3b
       -0.066342525 0.07035463 -0.13707225 0.0052582817
000150 4d f4 e3 3d 8f b4 09 be 0b 7b 49 3d b7 83 ef 3d
       0.11130581 -0.13447784 0.04918961 0.116950445
000160 44 d8 73 bd 7b db 26 3e 12 55 b7 bd 68 52 a4 3b
       -0.05953242 0.16294663 -0.08951773 0.0050147064
000170 88 c7 0b be c9 b7 05 be 2a 8c 48 3e 76 1c e9 bd
       -0.13650334 -0.1305839 0.19584718 -0.113823816
000180 2d 1e 62 3e 6e 71 40 3e 77 b0 14 3e ca a2 c1 bd
       0.22081824 0.1879327 0.14520441 -0.09454878
000190 3a 6c 67 bd 06 ae 7d 3e aa 1e 12 3e 70 66 1d 3e
       -0.056499697 0.24773416 0.1426951 0.15371108
0001a0 aa 91 92 3d 7b 3a 69 3e 13 85 8c 3d 85 be ee bd
       0.071566895 0.22776215 0.068613194 -0.116574325
0001b0 b2 76 af 3c 3c 47 a6 3e c0 37 0f 3e f9 0f d1 3e
       0.021418903 0.32476223 0.1398611 0.408325
0001c0 df df 72 3e ab a0 36 bd 76 e0 b8 bd 8d ab 10 3e
       0.23718213 -0.04458682 -0.090271875 0.14127941
0001d0 2e 85 3e bc 98 6f 29 bd 5c 23 e5 3d 1b 2e 7b 3e
       -0.011628432 -0.04136619 0.11188385 0.24529307
0001e0 67 78 d5 3d d4 3d 94 3e 1e ac 3d 3c 89 28 30 3e
       0.104233555 0.2895342 0.0115766805 0.17202963
0001f0 ca d4 3d 3e 37 a4 e3 3d 83 07 92 3d a9 99 c9 3d
       0.18538204 0.11115306 0.07130339 0.098437615

weight_ih_l0_reverse f4 [128, 2]
000000 92 d5 58 3d f0 94 36 be 16 a2 0e 3e 0c 88 cb 3d
       0.05293805 -0.17830253 0.13929018 0.09938058
000010 5b 05 d9 bd 36 3d c0 bd 6b 61 3a 3e d8 81 56 be
       -0.105967246 -0.09386675 0.18201225 -0.20947969
000020 83 ce bc 3d 7a 2d a6 3d 56 a0 0e be f6 00 5c be
       0.092190765 0.08114143 -0.13928351 -0.21484742
000030 ff 91 de 3c 36 1e a3 3e 5f 1a 32 bd 67 b6 94 be
       0.027169226 0.31858987 -0.04348218 -0.29045412
000040 95 43 b8 3d 81 54 87 be 4a 3d dc bd 3e 39 67 3d
       0.08997265 -0.2643166 -0.107538775 0.056451075
000050 7a e5 80 be 34 cf 18 3e 78 e1 1f 3e de 72 c7 bd
       -0.25175077 0.14922792 0.15613353 -0.09738706
000060 92 5f 5e be f7 db b9 3e fd 01 56 be f9 cc 8d be
       -0.21716145 0.36300632 -0.20899196 -0.27695444
000070 ac d6 ed 3d 3d 40 78 3d a5 3e 86 bd 75 df bb 3d
       0.11613211 0.060608137 -0.06554917 0.091734804
000080 58 7f f1 bd 88 14 12 3d 32 4c ec bd a8 7f e8 bd
       -0.11791867 0.03566411 -0.115379706 -0.113524735
000090 6f b2 93 be 5f 89 8d 3c a7 bc 87 bd 6c 06 15 3e
       -0.28847072 0.017277418 -0.066277795 0.14553231
0000a0 57 9e 07 be 2f cf d9 3e 5d 1b 49 be 71 43 f9 bc
       -0.13243996 0.4254088 -0.19639345 -0.030427666
0000b0 21 1b 07 be b1 70 a0 3d 8a a7 20 3e 0c a2 ac bc
       -0.13193943 0.07833994 0.15688911 -0.021073364
0000c0 50 4a a9 bd e7 5b d9 3c f9 81 24 be 3f 59 db bd
       -0.08266127 0.02653308 -0.16065206 -0.10710382
0000d0 aa 35 98 3d cd 84 d8 3a 51 c4 da bd f7 eb aa 3c
       0.074321106 0.001651907 -0.10681976 0.02086447
0000e0 f1 bd b7 bd 1b 8a 7c 3e a0 a0 84 3c c7 2b ea bc
       -0.08971775 0.24662058 0.016189873 -0.028585328
0000f0 11 c6 1d 3e 89 03 6a be 01 43 bc bd 54 cc 14 be
       0.15407588 -0.22852911 -0.091924675 -0.1453107
000100 1f ee da bd ca 2d 7f 3d 88 2e 5c 3e a3 9e 8a 3d
       -0.10689949 0.062299527 0.21502125 0.06768539
000110 4c 21 c0 bd 70 9c ed bc 9d e7 97 3c e5 4b 59 be
       -0.09381351 -0.02900526 0.018543059 -0.21220358
000120 66 1d 9b 3d 34 c7 26 3e 12 a5 07 3e d2 7d 5b bd
       0.07573967 0.16286927 0.13246563 -0.05358679
000130 f4 f7 6f be dd 8b cb 3e af 49 42 3c ef a5 ad bd
       -0.2343443 0.39755145 0.011858388 -0.08478915
000140 88 a7 16 3e be 03 f0 bd ea 69 01 bc 2c 4c 14 be
       0.14712346 -0.11719464 -0.007898787 -0.14482182
000150 3c 6c 97 3d 8d d0 b5 bd 79 cf 01 3e fc fa 07 be
       0.07393691 -0.088776685 0.12676801 -0.13279337
000160 2c 8a 9e be b5 1e 32 3f 4b 8e 4e bd e5 84 84 be
       -0.30964792 0.69578105 -0.05042867 -0.2588264
000170 5b b0 4f 3d fa 50 d4 bd c2 d1 e5 bd 4d 5b 11 bd
       0.050705295 -0.103670076 -0.11221649 -0.03548746
000180 83 b2 95 3c d0 b5 50 3c b9 50 fd bd 9e 68 ab bc
       0.018273598 0.01273866 -0.12368912 -0.020923909
000190 11 17 a5 be cf 14 8c 3c 5f ea 34 be f2 17 fe 3d
       -0.3224416 0.017099766 -0.1766753 0.12406911
0001a0 49 52 97 3c f0 76 2f 3f b9 e3 3d bd 1d 9e ec bd
       0.018471854 0.6854086 -0.04635975 -0.11553595
0001b0 df 77 eb 3d 7a f3 53 be 7f ed 4f be a0 73 0a bd
       0.11497473 -0.20698348 -0.20305441 -0.033801675
0001c0 10 e3 52 3d 39 90 5a be cb 1a e8 3b 05 34 8d be
       0.051486075 -0.21344079 0.007083272 -0.2757875
0001d0 86 44 1e 3e 2a 48 df bd 42 4a 8e 3d 32 cb 87 be
       0.15455827 -0.10902436 0.06947757 -0.26522213
0001e0 d5 7d 5d be 8b 82 b2 3e 22 c0 48 3e b4 28 2c bd
       -0.21630032 0.3486522 0.19604543 -0.042031005
0001f0 2e 3b 5c 3e 70 c4 41 be 72 61 db 3c b7 be 83 be
       0.2150695 -0.18922591 0.026779864 -0.2573144
000200 b3 d9 10 be 56 cd 4c be dd 61 4f 3e 34 5b a1 3e
       -0.14145546 -0.20000204 0.20252176 0.31514895
000210 47 63 88 3d d0 85 38 be 95 ff 27 be 5b 4f 6b be
       0.06659561 -0.18019795 -0.1640609 -0.2297949
000220 36 c6 47 3d 07 16 ac 3e 0a 1e 99 bb 8f 75 56 3e
       0.048773013 0.33610556 -0.0046727704 0.20943283
000230 93 b5 ac 3d 34 c8 98 be 53 5a 4c be 94 9d 82 3e
       0.0843307 -0.29840243 -0.19956331 0.25510848
000240 42 c3 5b be 5e 8b d9 3c d3 ea c2 bd c5 f2 89 3e
       -0.21461204 0.026555713 -0.095174454 0.2694303
000250 ed bf 9c 3e 0b e0 68 be c9 06 b4 3e 89 2e 30 be
       0.30615178 -0.22741716 0.35161427 -0.17205252
000260 47 7f a5 3e 84 c8 62 be c0 97 bd 3e 61 19 66 bd
       0.32323667 -0.22146803 0.3702984 -0.056176547
000270 b8 66 7a be 02 ff a0 bc 3a 20 be bc f6 28 81 3e
       -0.24453247 -0.019652847 -0.023208726 0.25226563
000280 1c 33 06 3d ec 13 3d 3e a1 27 8c 3b 85 de bf 3e
       0.032763585 0.18464631 0.004277185 0.37474456
000290 66 cb 35 3e 3a 8e 81 bd 24 eb 91 be f7 04 49 be
       0.17753372 -0.06325956 -0.2849971 -0.196308
0002a0 2c c0 87 be f5 ae 45 be 8e 12 97 3e a4 9f 47 be
       -0.26513803 -0.19305022 0.29506344 -0.19494492
0002b0 2b ae 8f be e3 8d 5f 3e 92 30 1a 3e cc 9d 8c 3e
       -0.28062567 0.21831469 0.1505759 0.2746414
0002c0 86 42 eb bd 31 8a 91 3e 31 62 9d 3e 02 0c dd bc
       -0.11487298 0.28425744 0.30738977 -0.026983265
0002d0 71 c8 90 be b2 01 14 3e 45 10 43 3e bd 83 a7 be
       -0.28277925 0.14453772 0.19049175 -0.32717696
0002e0 4a b3 f9 be 26 a2 97 3e 5a fe 0c 3e cc 33 07 3e
       -0.487696 0.29615897 0.13768902 0.13203353
0002f0 9c 4d 87 3e d0 b7 88 be 5a b5 8f 3e b6 e3 4a 3d
       0.264264 -0.26702738 0.28068048 0.04953357
000300 f9 85 29 3e 2b 08 ba bd 31 85 4b 3e 38 5e 21 3e
       0.16555013 -0.09083589 0.19875027 0.15758598
000310 16 2a 90 bb 76 c7 5c be fb dd ab bc 30 a4 5e be
       -0.0043995483 -0.21560463 -0.020979872 -0.2174232
000320 de e6 97 3c a6 0b 65 3e ad 68 10 be 80 10 32 be
       0.018542703 0.22367725 -0.1410243 -0.17389107
000330 d9 9c 8e be 0d 45 9d 3e da 91 eb 3d 85 00 8b be
       -0.2785404 0.30716744 0.11502428 -0.27148834
000340 77 c2 62 bd 61 b8 1b be 9f 04 a2 ba f7 b5 29 be
       -0.055361237 -0.15207054 -0.0012360996 -0.1657332
000350 ef 8f 4a 3d a1 9c 2d be 7a 82 3e 3e ad 4a 67 be
       0.049453672 -0.1695428 0.1860446 -0.2258708
000360 4b 34 1e bb ca 78 ac 3e 5c 65 8c bd 14 14 20 be
       -0.0024140056 0.33685905 -0.0685527 -0.15632659
000370 57 08 46 3e 92 10 35 bd 28 a9 1e be 6c ec 44 be
       0.19339119 -0.044205256 -0.15494215 -0.19230813
000380 48 04 21 3e c5 37 c0 3d 4f 1d a4 bd 5a 07 31 be
       0.1572429 0.09385637 -0.08013403 -0.1728796
000390 52 cc 8f be 06 88 77 3b 7e f1 97 be da 0b 04 3e
       -0.28085572 0.0037770285 -0.2967643 0.12895146
0003a0 3d fa 9e bd b5 e3 80 3e ce a3 20 be 91 37 58 3d
       -0.07762573 0.25173727 -0.15687487 0.052787367
0003b0 ec 12 b0 bd ec d4 55 be 57 7d 6c bd fb e7 74 bd
       -0.08597359 -0.20882004 -0.05773672 -0.059791546
0003c0 ca 08 9c 3d 2e 18 1e 3d 22 57 30 3e 9a 85 66 be
       0.07618864 0.03859728 0.17220739 -0.22511902
0003d0 3e b2 ff bd 19 71 3a 3d c0 eb c3 3d 90 ad 8e 3d
       -0.12485169 0.045518015 0.0956645 0.06966698
0003e0 27 72 1c 3e d8 0b fa 3c 80 1a 1a 3d b4 f4 8a be
       0.1527792 0.030523226 0.03762293 -0.2713982
0003f0 db 31 82 3c b2 82 0f be c9 ed 2e be ce 70 47 be
       0.015892914 -0.140147 -0.17082895 -0.19476625
