sgan-dataset/logs/zara2/models_04_Mar_2019_00_49_31/model_registrar-299.pt (torch_old, 575433 bytes, 45 tensors)

weight_ih_l0 f4 [128, 6]
0	0xbe15b8e9	-0.14621319
1	0xbd1af2f6	-0.03782936
2	0xbde3813b	-0.11108633
3	0x3bbe8dd0	0.005815245
4	0xbe0a3797	-0.13497768
5	0x3e473c0d	0.19456501
6	0xbe41a5cc	-0.18910903
7	0xbe3fb703	-0.18722157
8	0xbdc044ad	-0.09388099
9	0x3b5553c5	0.0032551151
10	0xbca61685	-0.02027441
11	0x38a79c09	7.992244e-05
12	0xbe1ab8f6	-0.1510962
13	0xbdf1a5e0	-0.11799216
14	0xbda93ce2	-0.082635656
15	0xbde3cdac	-0.11123213
16	0xbdef0020	-0.11669946
17	0x3e101bb5	0.1407307
18	0xbd9a8fbc	-0.075469464
19	0x3d5a9c9f	0.05337202
20	0x3d9deb9b	0.07710954
21	0x3c2e7fca	0.0106505845
22	0xbcd1a4ad	-0.025591219
23	0x3e5451a8	0.20734274
24	0xbdad5773	-0.08463945
25	0x3d31935b	0.04335342
26	0xbe3a6bde	-0.1820521
27	0x3ddc9f61	0.107725866
28	0x3e26e63c	0.16298765
29	0xbe145838	-0.14486778
30	0x3e1f4843	0.1555491
31	0x3d8c6138	0.068544805
32	0x3d1f3f58	0.03887877
33	0x3e01907d	0.12652774
34	0x3dd0665a	0.10175772
35	0x3ca7f9a5	0.020504782
36	0xbe28c208	-0.16480267
37	0xbda36b77	-0.07979482
38	0xbe5f9c0f	-0.21836875
39	0x3d818500	0.06324196
40	0xbb807fc1	-0.0039214795
41	0xbdbd6b30	-0.0924896
42	0x39e0d997	0.00042886726
43	0x3e363893	0.17795019
44	0xbdfc735f	-0.12326693
45	0xbb2d889a	-0.0026479126
46	0xbdc197c5	-0.09452776
47	0x3d9f63dd	0.07782719
48	0x3e1cb9bd	0.15305229
49	0x3dd81e73	0.10552683
50	0x3dea1f5a	0.11431761
51	0x3dc5b69c	0.096539706
52	0x3bc7fe5d	0.0061033205
53	0x3da81188	0.08206469
54	0xbdff9435	-0.1247944
55	0xbe5f65cc	-0.21816176
56	0xbe42afde	-0.190124
57	0x3d92f58b	0.0717574
58	0x3925f1ad	0.00015825657
59	0xbe02038f	-0.1269667
60	0x3cafe786	0.021472704
61	0x3e123360	0.1427741
62	0xbe2242ff	-0.1584587
63	0xbe65f12b	-0.2245528
64	0xbd83b007	-0.06430059
65	0x3dabf467	0.083962254
66	0xbd619105	-0.055069942
67	0xbcafdedc	-0.021468572
68	0xbde9b828	-0.11412078
69	0x3dfe1bef	0.12407672
70	0x3e114833	0.14187698
71	0x3de502e3	0.11182191
72	0xbe1c4282	-0.15259746
73	0xbe1b4fea	-0.15167204
74	0x3dcb51f6	0.09927742
75	0x3ba53f64	0.005042957
76	0x3dbe9cc2	0.09307243
77	0xbe5c7e53	-0.21532564
78	0xbd164fb1	-0.036697093
79	0x3dd74cfd	0.10512731
80	0x3e38854b	0.18019597
81	0xbc978d59	-0.018500017
82	0xbd8570fc	-0.06515691
83	0xbb6797de	-0.0035338323
84	0xbe0ae121	-0.13562442
85	0xbdaf11a0	-0.085482836
86	0xbdcdc4cf	-0.10047304
87	0x3e3ff363	0.18745188
88	0x3c69020e	0.014221681
89	0x3cb24d46	0.021765362
90	0xbe036ee1	-0.12835266
91	0x3e113f12	0.14184216
92	0x3dec267b	0.11530777
93	0x3e790061	0.24316551
94	0xbc696171	-0.014244423
95	0xbb6612ef	-0.00351065
96	0x3e1db19b	0.15399782
97	0x3dcf96fe	0.10136221
98	0x3cdf8ed1	0.02728978
99	0x3c7477ab	0.014921109
100	0x3e0cb503	0.13740925
101	0xbe00f24f	-0.12592433
102	0xbcfa52bd	-0.03055703
103	0xbe0f7393	-0.14008932
104	0x3d929327	0.07156973
105	0xbda5acee	-0.08089624
106	0xbd3bcacd	-0.045847703
107	0x3e3100d6	0.17285475
108	0x3dc2a519	0.09504146
109	0x3c87cfe8	0.01657863
110	0x3d8ff176	0.07028477
111	0x3c168f90	0.009189501
112	0x3dd5cd6c	0.10439572
113	0xbd9564d6	-0.072946236
114	0xbc14fb03	-0.009093049
115	0x3d0c5961	0.034264926
116	0xbe4403ff	-0.1914215
117	0x3d38f470	0.04515499
118	0x3dc4e88f	0.096146695
119	0x3e474c25	0.1946264
120	0xbd9f00de	-0.07763837
121	0x3d2178ac	0.039421722
122	0x3e4f5355	0.20246632
123	0x3b724952	0.0036969972
124	0x3e15fe68	0.1464783
125	0xbdafde83	-0.085873626
126	0xbd02b721	-0.031912927
127	0x3ad1c9fc	0.0016005631
128	0x3d82e0ac	0.06390509
129	0x3e00b26b	0.12568061
130	0xbe33b482	-0.17549327
131	0x3e2268c2	0.15860274
132	0xbca2cd38	-0.019873247
133	0xbe20f432	-0.15718153
134	0xbd5f377f	-0.054496285
135	0xbda22348	-0.079168856
136	0x3dd62179	0.10455603
137	0x3cca3e55	0.024687925
138	0xbc6672a9	-0.014065423
139	0xbdbb1b77	-0.09136098
140	0xbdc3685e	-0.09541391
141	0x3d050e23	0.032484185
142	0x3d6cf2aa	0.05784861
143	0x3e5ce7e8	0.2157284
144	0xba82701c	-0.0009951624
145	0xbddbc9c3	-0.10731842
146	0xbe5b0176	-0.21387276
147	0xbdd5c69d	-0.10438273
148	0xbdf1181c	-0.117721766
149	0xbd35aa97	-0.04435214
150	0xbe00c0a3	-0.12573485
151	0xbd9fa3cc	-0.07794914
152	0xbceda2c9	-0.029008286
153	0x3d833a0c	0.06407556
154	0x3d5f1b13	0.05446918
155	0x3e398d16	0.18120226
156	0xbe0ef3dd	-0.13960214
157	0xb9ddb42a	-0.00042286637
158	0xbd3d1e71	-0.04617161
159	0xbc5b0de5	-0.013370012
160	0x3d39a30a	0.0453215
161	0x3e7eea35	0.2489403
162	0xbdefca3a	-0.117084935
163	0x3e1ae153	0.15125017
164	0x3e72d36f	0.23713468
165	0x3dead619	0.11466617
166	0xbd694c49	-0.056957517
167	0x3e464310	0.1936152
168	0x3ddeec16	0.108848736
169	0x3e03623c	0.12830442
170	0x3ce7f96f	0.028317181
171	0xbe30240e	-0.17201254
172	0x3ca3e88a	0.020008344
173	0x3d6dc61e	0.058050267
174	0xbe0cde76	-0.13756737
175	0xbddf7a54	-0.10912004
176	0xbe20db95	-0.15708764
177	0xbdd52ab8	-0.104085386
178	0x3d4ce3e7	0.050022032
179	0x3b624808	0.0034527797
180	0xbc686dc4	-0.014186326
181	0x3ca3f43f	0.020013927
182	0x3e087788	0.13326848
183	0xbe5ce472	-0.2157152
184	0xbe1e09b4	-0.15433389
185	0xbdc78da8	-0.09743816
186	0xbdcd1ed1	-0.100156434
187	0x3da07d16	0.07836358
188	0x3df0ffc4	0.117675334
189	0xbe38c728	-0.18044722
190	0xbdc5ccd4	-0.096582085
191	0xbe563e8b	-0.20922296
192	0xbc4d39ec	-0.012526017
193	0x3dc4e60c	0.096141905
194	0xbe2c0388	-0.16798222
195	0xbe261a0a	-0.1622087
196	0x3d817b26	0.06322317
197	0xbcc8dc13	-0.024519002
198	0x3dc12806	0.09431462
199	0x3a2f8206	0.0006695095
200	0xbcc52009	-0.024063127
201	0xbd8f0cdd	-0.06984875
202	0x3d94cb1f	0.07265305
203	0xbd71919a	-0.058976747
204	0xbe0aacaf	-0.13542436
205	0xbbc3e902	-0.0059787044
206	0xbcba44f9	-0.022737967
207	0xbd986e0d	-0.074428655
208	0x3b003600	0.0019563437
209	0x3e039f08	0.12853634
210	0xbda51ae6	-0.08061771
211	0xbcac7a31	-0.02105436
212	0x3c5a1c7e	0.013312457
213	0xbde39f9e	-0.11114429
214	0xbd903795	-0.070418514
215	0xbbdfaa9b	-0.0068257577
216	0x3da2e7ad	0.07954345
217	0xbdde0c61	-0.10842205
218	0xbdb65c39	-0.08904309
219	0xb7cce31e	-2.4424455e-05
220	0xbe044c52	-0.12919739
221	0xbddb2cd3	-0.10701909
222	0x3d9a1c03	0.07524874
223	0xbd807d06	-0.06273846
224	0x3d8ace92	0.067776814
225	0xbdf3aed2	-0.11898579
226	0xbdea6434	-0.114448935
227	0xbde57171	-0.11203278
228	0x3d666acb	0.05625419
229	0xbd06c633	-0.03290386
230	0xbdf327cf	-0.11872827
231	0x3c75afd4	0.014995534
232	0xbde3cb02	-0.11122705
233	0x3d98f2ac	0.07468161
234	0x3ca7909c	0.020454697
235	0xbde2c96d	-0.11073575
236	0xbd136ad3	-0.035990547
237	0xbc83a76f	-0.01607105
238	0xbe1e037f	-0.15431021
239	0x3e01ccaf	0.12675737
240	0x3db85617	0.09000795
241	0xbd14dca3	-0.036343228
242	0xbd8dec86	-0.06929879
243	0x3d44b42b	0.048023384
244	0x3db6f561	0.08933521
245	0x3e2f987d	0.17148013
246	0xbe4b013a	-0.19824687
247	0xbde52fd4	-0.11190763
248	0x3daefb97	0.08544081
249	0xbc61f596	-0.013791462
250	0x3c33fc39	0.010985428
251	0x3cecec91	0.028921397
252	0x3e15771e	0.14596221
253	0xbe162c52	-0.14665344
254	0x3c0fa77a	0.008767957
255	0xbd807b47	-0.06273513

weight_hh_l0 f4 [128, 32]
0	0xbb3fbf9c	-0.0029258495
1	0x3b3da07e	0.0028934772
2	0xbc64ec2e	-0.013972325
3	0x3d94d046	0.072662875
4	0xbd5c778f	-0.053824957
5	0xbc17d5cd	-0.009267283
6	0xbe542d58	-0.20720422
7	0xbceed6e1	-0.029155197
8	0x3db4d7b4	0.088302046
9	0x3d26a54d	0.040684987
10	0x3d833869	0.06407244
11	0x3e28a543	0.16469292
12	0xbd51c84a	-0.0512164
13	0x3e31edc6	0.1737586
14	0x3df06b24	0.117391855
15	0x3e560e7e	0.20903966
16	0x3e206cb3	0.15666465
17	0xbe05e432	-0.13075331
18	0x3cbacb22	0.02280194
19	0xbe21d174	-0.15802556
20	0xbdb56992	-0.088580266
21	0xbe196314	-0.14979202
22	0xbddf5d59	-0.109064765
23	0xbdfe431f	-0.12415146
24	0x3d2256e4	0.039633647
25	0xbde81512	-0.11332144
26	0x3d456c71	0.04819912
27	0x3e6a981f	0.22909592
28	0x3dd70e35	0.10500757
29	0x3dc45504	0.09586528
30	0x3a855106	0.0010171242
31	0xbe098941	-0.13431264
32	0x3e601af3	0.2188528
33	0xbe104c09	-0.14091505
34	0x3db41a65	0.08794097
35	0xbd408a19	-0.0470067
36	0x3d9231c2	0.07138397
37	0x3e1809e9	0.1484753
38	0xbd3ea283	-0.046541702
39	0xbdc19e9f	-0.09454083
40	0x3ded1dbf	0.11577939
41	0xbd8c217f	-0.068423264
42	0xbdca2144	-0.09869626
43	0xbdd9ca21	-0.10634256
44	0xbe422056	-0.18957648
45	0x3e12d9c6	0.14340886
46	0x3e15dd9b	0.14635317
47	0x3ca0dc34	0.019636251
48	0x3e0672c3	0.13129716
49	0x3e0cabcd	0.13737412
50	0xbdfc1bbd	-0.12309978
51	0x3c11c444	0.008896891
52	0x3bfe9ee6	0.007770407
53	0xbe16cbd2	-0.14726189
54	0xbe0d2859	-0.13784923
55	0xbd87a691	-0.06623567
56	0xbda994a3	-0.08280303
57	0xbd0fac14	-0.035076216
58	0xbe4c65eb	-0.19960754
59	0xbdb355ec	-0.08756623
60	0xbd132458	-0.035923332
61	0x3d2397e4	0.039939776
62	0x3d2756d7	0.0408543
63	0xbdb6bff2	-0.089233294
64	0x3dd72b01	0.10506249
65	0xbded70fd	-0.115938164
66	0xbda4d8a1	-0.08049131
67	0x3e075c02	0.13218692
68	0x3d0a516e	0.033769064
69	0x3d8c8f86	0.068633124
70	0xbe332710	-0.1749537
71	0xbe2492f8	-0.16071689
72	0xbcd5e925	-0.026112149
73	0x3e1054a7	0.14094792
74	0xbe240373	-0.16016941
75	0x3dd0498c	0.10170278
76	0xbdd1c073	-0.10241785
77	0xbe05eea9	-0.13079323
78	0x3dff6570	0.124705195
79	0xbe02b8d3	-0.12765817
80	0x3d90e702	0.07075311
81	0xbd3f5ad1	-0.04671747
82	0x3e03746a	0.12837377
83	0xbe366545	-0.17812069
84	0x3dc32a8e	0.09529601
85	0x3e291a99	0.16514052
86	0x3d216e3f	0.03941178
87	0x3e1cd3e2	0.15315202
88	0x3e043096	0.12909159
89	0x3daaece8	0.083459675
90	0x3de816c9	0.11332471
91	0x3e1ef729	0.15523972
92	0x3e0544be	0.13014504
93	0x3da6fb88	0.081534445
94	0xbdf4180e	-0.119186506
95	0x3dc39452	0.09549774
96	0x3cc83ab9	0.024442064
97	0x3d4ceba5	0.050029416
98	0x3cef1e86	0.02918936
99	0x3dd0481b	0.10170003
100	0xbe30c854	-0.17263919
101	0xbdcc773a	-0.09983678
102	0xbdaa4542	-0.08313991
103	0x3e107799	0.14108123
104	0xbddac4cd	-0.10682068
105	0xbd9ebf22	-0.077512994
106	0xbd2f7b93	-0.04284246
107	0xbe2ef810	-0.17086816
108	0xbe2430d7	-0.16034256
109	0xbe0b6313	-0.13612013
110	0xbe0b763c	-0.13619322
111	0xbdf79e65	-0.12090758
112	0xbc814a04	-0.015782364
113	0x3e47028a	0.19434562
114	0xbddb8fd3	-0.10720792
115	0xbd890345	-0.06690077
116	0xbd91948b	-0.071084104
117	0x3c7ceeff	0.0154378405
118	0x3ddd34c2	0.108010784
119	0xbdaf6b33	-0.085653685
120	0xbdd4df7c	-0.10394189
121	0x3d29d76f	0.04146522
122	0xbe3ad131	-0.18243863
123	0x3dec563d	0.11539886
124	0xbda7136c	-0.08158001
125	0x3d8c3a67	0.06847077
126	0x3e01c803	0.12673955
127	0x3d8d9f46	0.069151446
128	0xbe1fa1fb	-0.15589134
129	0xbd3ca590	-0.04605633
130	0x3e21c32d	0.1579711
131	0xbe2e7669	-0.17037357
132	0x3e085041	0.13311864
133	0xbe014afd	-0.12626262
134	0xbd456f5b	-0.0482019
135	0x3ded8fcc	0.11599693
136	0xbe2124a6	-0.15736637
137	0xbe49f1e0	-0.19721174
138	0xbce914bb	-0.028452268
139	0xbe025ff3	-0.12731914
140	0xbc0a9c50	-0.008460119
141	0x3dce4eaa	0.10073598
142	0x3dba1b24	0.09087208
143	0xbe196e3a	-0.14983454
144	0xbcd9a4f1	-0.026567908
145	0xbe185571	-0.14876343
146	0xbdf1fc4f	-0.11815702
147	0x3d97aef5	0.07406417
148	0x3d4c6541	0.04990125
149	0x3e2dba72	0.16965654
150	0x3d82eb1f	0.06392502
151	0xbde15458	-0.110024154
152	0x3cf0813e	0.029358502
153	0xbe049e80	-0.12951088
154	0xbe2f189e	-0.17099234
155	0xbe24aa18	-0.1608051
156	0x3e2f78c9	0.1713592
157	0xbdac269c	-0.08405802
158	0x3e051f9d	0.13000341
159	0xbdf45862	-0.1193092
160	0x3dfc28bb	0.12312456
161	0xbdc8a346	-0.09796767
162	0x3d1073c3	0.03526665
163	0xbe5d91ad	-0.21637602
164	0xbd9ae782	-0.07563688
165	0xbd4144ac	-0.04718463
166	0xbc57b164	-0.013164852
167	0xbd9bd620	-0.076092005
168	0xbd1c5c9a	-0.03817425
169	0x3d34330f	0.043994006
170	0x3e09699f	0.13419197
171	0xbe28f483	-0.16499524
172	0xbe00b5fa	-0.12569419
173	0x3d5ffaec	0.054682657
174	0xbcd7f836	-0.026363473
175	0xbd05fcb7	-0.03271171
176	0x3be57528	0.0070024915
177	0x3e07668b	0.13222711
178	0xbe3de212	-0.1854327
179	0x3e03e9a1	0.12882091
180	0x3db9fdf1	0.090816386
181	0xbdcb903b	-0.09939619
182	0xbd202dad	-0.03910606
183	0xbd21fdf0	-0.039548814
184	0xbd648ee9	-0.055800352
185	0xbdd75a44	-0.10515264
186	0x3e1d5f6d	0.15368433
187	0x3e3d226a	0.18470159
188	0x3d4c7995	0.049920637
189	0x3dd9212c	0.1060203
190	0x3e18e647	0.14931594
191	0x3d9b8f2a	0.07595666
192	0x3e2d2b54	0.1691106
193	0x3d9c2af2	0.07625379
194	0xbe2b2d6b	-0.16716544
195	0x3e3b3f5b	0.18285887
196	0xbbcad681	-0.0061901216
197	0xbd77e714	-0.060523108
198	0x3c6238df	0.013807504
199	0xbe0a7754	-0.13522083
200	0xbd6a95a3	-0.05727161
201	0x3d1be917	0.03806409
202	0xbd401388	-0.046893626
203	0xbde97c53	-0.11400666
204	0xbc15f4f1	-0.009152637
205	0x3e2c1996	0.16806635
206	0xbbab4afd	-0.005227445
207	0x3d2fe311	0.042941157
208	0x3d037d03	0.032101642
209	0xbe035e12	-0.12828854
210	0x3cf01b59	0.029309915
211	0xbe15cb6c	-0.1462838
212	0x3dd65d27	0.10466986
213	0x3e30cb2a	0.17265001
214	0x3e1f8ebe	0.15581796
215	0xbc11fa1e	-0.00890973
216	0xbe39cfb2	-0.18145636
217	0x3c66aec3	0.014079752
218	0x3e0174c0	0.12642193
219	0x3ca5b237	0.020226581
220	0xbe374f20	-0.17901278
221	0x3e281014	0.16412383
222	0xbe174e22	-0.14775899
223	0x3d29605f	0.041351672
224	0x3e5cf1a0	0.21576548
225	0xbd698ed3	-0.057020973
226	0xbd6ed1a3	-0.058305394
227	0xbc51ffc7	-0.01281733
228	0xbd14356b	-0.036183756
229	0x3da25d64	0.07927969
230	0x3d65c870	0.056099355
231	0x3a4c24fa	0.00077874924
232	0xbc92edc5	-0.017935643
233	0xbe0e2753	-0.13882188
234	0xbd4269a5	-0.04746403
235	0xbe10a9a0	-0.14127207
236	0x3e503ef3	0.20336513
237	0xbd5e669b	-0.05429707
238	0x3da9f0ce	0.08297883
239	0x3d534c28	0.0515863
240	0x3debfa12	0.115223065
241	0xbdc92387	-0.098212294
242	0xbe139384	-0.14411741
243	0xbc3f01d7	-0.0116581535
244	0xbe23267d	-0.15932651
245	0xbd90e366	-0.07074623
246	0xbd8cd558	-0.068766296
247	0xbe3d6111	-0.18494059
248	0x3d8ac6cf	0.06776201
249	0x3e3975cc	0.18111342
250	0x3ccffeb7	0.025390012
251	0x3e032be9	0.12809719
252	0x3e0baf43	0.13641076
253	0x3e2be737	0.1678742
254	0xb9e29c89	-0.00043222707
255	0x3db699db	0.08916064

bias_ih_l0 f4 [128]
0	0xbdc599f6	-0.09648506
1	0xbd90f279	-0.07077498
2	0xbc8af817	-0.016964002
3	0xbdd8fdb2	-0.105952635
4	0xbe141ce6	-0.14464149
5	0x3e1a72df	0.15082882
6	0xbd1f4e26	-0.038892888
7	0xbe364b4b	-0.1780216
8	0x3cde4081	0.027130367
9	0xbaa69b50	-0.0012711082
10	0x3e1a0bc7	0.15043555
11	0x3e1f9a26	0.15586147
12	0x3d8dd93b	0.06926199
13	0xbe225854	-0.15854007
14	0x3dc81956	0.097704574
15	0xbe083d51	-0.1330464
16	0xbad9880f	-0.0016596335
17	0x3e108222	0.14112142
18	0xbd4359ba	-0.04769299
19	0x3deff280	0.11716175
20	0x3d0368c4	0.032082334
21	0xbcadff0c	-0.02123978
22	0xbd145250	-0.03621131
23	0xbd30e36d	-0.04318564
24	0x3de88fae	0.1135553
25	0x3d869b35	0.06572572
26	0xbd13fa67	-0.036127474
27	0x3d186023	0.037201058
28	0xbca3ca46	-0.019993912
29	0xbdd4a8bc	-0.10383746
30	0xbe391bda	-0.18077031
31	0xbd02982b	-0.0318834
32	0x3e3c6bc1	0.1840048
33	0xbe112269	-0.14173283
34	0xbe1db208	-0.15399945
35	0x3def84e5	0.116952695
36	0xbe125262	-0.14289239
37	0xbd973a13	-0.07384124
38	0xbe09e0cc	-0.1346466
39	0xbccf8fad	-0.025337065
40	0xbe039087	-0.12848102
41	0x3db390a6	0.08767824
42	0xbd917f05	-0.07104305
43	0x3d623e87	0.055235412
44	0xbd453df5	-0.04815479
45	0x3e2aea3f	0.1669092
46	0xbc6fe152	-0.014641123
47	0xbde8650e	-0.113474
48	0x3de1b6f9	0.110212274
49	0x3dd5452e	0.104135856
50	0xbdaf91e2	-0.08572747
51	0x3d968856	0.07350223
52	0xbe1c7c5a	-0.15281811
53	0x3dae2523	0.08503177
54	0x3deec114	0.116579205
55	0x3dd6842f	0.10474431
56	0x3d9c5a07	0.07634359
57	0x3e11c3e6	0.14234886
58	0x3e0296b6	0.12752804
59	0x3ddbed1f	0.10738587
60	0xbca76542	-0.020434026
61	0xbe1740cd	-0.14770813
62	0xbe3ec17c	-0.18628496
63	0xbe118115	-0.14209397
64	0x3df8dcfd	0.12151525
65	0x3e0adbd2	0.13560417
66	0xbc870d0f	-0.016485719
67	0x3d9739c1	0.073840626
68	0xbdb110c4	-0.08645776
69	0x3cc35cc3	0.023847943
70	0x3db3a987	0.08772569
71	0xbd9cc1d9	-0.07654161
72	0x3cd64f53	0.026160872
73	0x3dc6bce4	0.09703997
74	0xbdedf216	-0.1161844
75	0x3d752614	0.059850767
76	0xbe12d20a	-0.14337936
77	0xbd7f9256	-0.062395416
78	0xbd84c79d	-0.06483386
79	0xbe3ef76e	-0.18649074
80	0xbdee5e8c	-0.11639127
81	0xbe06969c	-0.1314339
82	0x3e0c2de3	0.1368938
83	0xbd0cead1	-0.034403626
84	0xba825333	-0.0009943008
85	0x3de50131	0.11181868
86	0x3dabfe65	0.08398131
87	0xbe0d86d8	-0.1382097
88	0x3e1aa4a8	0.15101874
89	0xbe03bb7f	-0.12864493
90	0x3e031ae0	0.12803221
91	0xbe307693	-0.17232732
92	0xbe0acd9a	-0.13554993
93	0x3dfbddfc	0.122981995
94	0x3d3209a5	0.04346623
95	0xbd86b1b2	-0.065768614
96	0x3dc05579	0.093913026
97	0xbddb2c98	-0.10701865
98	0x3ca2a732	0.019855116
99	0xbd6a4675	-0.0571961
100	0x3c70068a	0.0146499965
101	0x3da015d0	0.078166604
102	0xbb63ebb5	-0.0034777944
103	0xbe237012	-0.1596072
104	0xbdc11eed	-0.09429727
105	0x3d39d413	0.045368265
106	0xbdb170b0	-0.086640716
107	0x3dbd74ae	0.092507705
108	0x3d0eed7e	0.03489446
109	0xbe36c851	-0.17849852
110	0x3e07b8ef	0.1325414
111	0x3d2ba656	0.041906677
112	0x3dfd7e4f	0.12377607
113	0x3d778098	0.06042537
114	0x3d49d8cf	0.04927903
115	0xba9d6e22	-0.0012010972
116	0x3deb891c	0.11500761
117	0xbcee3165	-0.029076288
118	0xbd983a3e	-0.07432984
119	0x3c31b494	0.010846276
120	0xbdccb9e5	-0.09996394
121	0x3dd42748	0.10359055
122	0x3df6172f	0.12016141
123	0xbcd0651c	-0.025438838
124	0x3dec9b41	0.1155305
125	0x3dc8c49b	0.098031245
126	0xbe01b998	-0.12668455
127	0xbd4af286	-0.049547695

bias_hh_l0 f4 [128]
0	0xbe102752	-0.140775
1	0xbd6c34a4	-0.05766739
2	0xbe1a5f6d	-0.15075465
3	0x3d63740c	0.055530593
4	0xba62edaa	-0.00086566305
5	0xbdbe9c48	-0.09307152
6	0xbe0fea6d	-0.1405427
7	0xb9ef8fdd	-0.0004569282
8	0x3de5ecd9	0.11226816
9	0x3e278d25	0.16362436
10	0xbdd92001	-0.106018074
11	0x3cfe3a24	0.031033583
12	0xbe2d16af	-0.16903184
13	0x3e0afc84	0.1357289
14	0x3e0d9629	0.13826813
15	0x3ce03fc7	0.027374161
16	0xbdb581cf	-0.0886265
17	0x3e08e3d4	0.1336816
18	0xbe12d321	-0.14338352
19	0x3d954483	0.07288458
20	0x3e3812e9	0.17975964
21	0x3e234e07	0.15947734
22	0xbbfbd875	-0.007685716
23	0x3cacf3a3	0.021112269
24	0x3c794e4c	0.015216421
25	0x3d4f3ecf	0.05059701
26	0x3d194d48	0.037427217
27	0xbd5ebe8a	-0.05438093
28	0xbdd01e1e	-0.101619944
29	0xbde7cb26	-0.11318044
30	0xbde3d79f	-0.11125111
31	0x3c95f9df	0.018307624
32	0x3dc31011	0.09524549
33	0xbdecd648	-0.115643084
34	0x3dab6584	0.08368972
35	0xbdb6a9ee	-0.0891913
36	0x3e2971be	0.16547295
37	0x3db646d2	0.08900227
38	0x3bce4cbd	0.006295769
39	0xbe2e3f1e	-0.17016265
40	0xbd63b805	-0.055595417
41	0x3d00d811	0.031456057
42	0xbd556f98	-0.052108377
43	0xbbc315fe	-0.0059535494
44	0xbd50a36a	-0.050937094
45	0xbc4d4045	-0.01252753
46	0x3dbb029b	0.09131356
47	0xbd81c3c6	-0.06336169
48	0xbca8a37b	-0.020585766
49	0x3d1452ec	0.036211893
50	0xbd6b0185	-0.057374496
51	0xbddcbda2	-0.10778357
52	0xbc11fe19	-0.008910679
53	0xbd9f42fe	-0.077764496
54	0xbdda15d4	-0.10648695
55	0x3d9d32a0	0.076756716
56	0xbe024ad1	-0.12723853
57	0xbe2a4538	-0.16627967
58	0xbe01087f	-0.12600897
59	0x3d3f4156	0.04669317
60	0xbd474aa0	-0.048655152
61	0x3db08e0f	0.086208455
62	0xbd5e0150	-0.05420047
63	0x3e231ecb	0.15929715
64	0xbe25a020	-0.16174364
65	0xbe085d70	-0.13316894
66	0x3e1d4794	0.15359336
67	0x3c952c47	0.01820959
68	0x3e2e49ab	0.1702029
69	0x3d661188	0.056169063
70	0xbdc98ebe	-0.09841679
71	0xbcf2e655	-0.029650846
72	0x3e2b6fda	0.16741887
73	0x3b603d7e	0.003421634
74	0x3c3eda16	0.011648675
75	0x3d9dfdd3	0.07714429
76	0x3d18eb94	0.03733404
77	0x3b84ac33	0.004048848
78	0xbe11f5ae	-0.14253876
79	0xbd24ca8a	-0.04023222
80	0xbcc01a34	-0.023449995
81	0x3de33d36	0.110956594
82	0x3d7f591f	0.062340852
83	0xbe24d950	-0.16098523
84	0xbe21c2ab	-0.15796916
85	0x3d5264c2	0.05136562
86	0xbe2371a4	-0.15961319
87	0x3de1029b	0.10986825
88	0xbdb327c6	-0.087478206
89	0xbcbc73d6	-0.023004454
90	0x3e0624af	0.13099931
91	0xbd6b713b	-0.057481032
92	0xbdfe25a0	-0.1240952
93	0xbe1f65df	-0.15566204
94	0x3c9af826	0.018917155
95	0x3d1c941e	0.038227193
96	0xbcad11fd	-0.021126742
97	0x3cdfb310	0.027307063
98	0xbe0b83cd	-0.13624497
99	0x3e2e3316	0.17011675
100	0x3de7f6fe	0.11326407
101	0xbc9717ac	-0.018443905
102	0x3e47c8c1	0.19510175
103	0x3e1a9c27	0.1509863
104	0xbe17db99	-0.14829864
105	0x3d8ab02f	0.067718856
106	0x3e1e569f	0.15462731
107	0x3e2d771e	0.16939971
108	0x3d40bdba	0.047055937
109	0x3c7093d0	0.014683679
110	0x3d569cfb	0.052395802
111	0x3d4bdc3a	0.04977057
112	0x3e11aeee	0.14226887
113	0xbd9c65ed	-0.07636628
114	0x3e1e1475	0.15437491
115	0xbdff5db9	-0.12469048
116	0x3d9fdbac	0.07805571
117	0x3e25e829	0.16201843
118	0x3d9e9c02	0.077446
119	0x3e12e0ca	0.14343563
120	0x3db3f29a	0.08786507
121	0x3da2480a	0.079238966
122	0x3e3034ba	0.17207614
123	0xbc9d935e	-0.01923531
124	0xbc6241a0	-0.0138095915
125	0x3dbd6b0f	0.092489354
126	0xbdcc1dec	-0.09966645
127	0x3e1ad1b1	0.15119053

weight_ih_l0 f4 [128, 2]
0	0x3c2eb071	0.010662184
1	0x3d5ea8ec	0.054360315
2	0xbe244463	-0.16041712
3	0xbd72db7f	-0.05929136
4	0x3e8e71c3	0.27821168
5	0xbe00891e	-0.12552306
6	0xbc20d6ff	-0.009816884
7	0xbd84f3c7	-0.06491809
8	0xbd2c1dc9	-0.042020593
9	0xbe637b4b	-0.22215001
10	0xbc3bf4b3	-0.011471915
11	0x3dbb232d	0.091375686
12	0xbc453ff4	-0.012039173
13	0xbd0e60f6	-0.034760438
14	0x3d4c0bc4	0.049815908
15	0xbe5ac428	-0.2136389
16	0x3dd3af5b	0.10336181
17	0xbe85b2ac	-0.26112878
18	0x3d52712b	0.051377457
19	0x3c762518	0.015023492
20	0x3e05c5fb	0.13063805
21	0x3e69ed34	0.22844392
22	0x3c6481a7	0.013946927
23	0xbe36ae8a	-0.17840019
24	0xbe1d136f	-0.15339445
25	0x3d2a836a	0.041629232
26	0x3e1dfcb4	0.1542843
27	0x3dfaed4c	0.12252292
28	0xbe374e69	-0.17901005
29	0xbe0c2465	-0.13685758
30	0xbdf625a4	-0.12018898
31	0x3ea1b986	0.31586856
32	0xbcfa1b64	-0.030530639
33	0xbc03c2e3	-0.00804207
34	0x3e2f5029	0.17120422
35	0x3c4a9131	0.012363718
36	0xbcac869c	-0.02106028
37	0xbd4a61db	-0.04940973
38	0xbda433f5	-0.080177225
39	0xbc93f3fb	-0.018060675
40	0x3e026487	0.1273366
41	0xbe4e8c08	-0.20170605
42	0x3cbabeae	0.022796001
43	0xbc568096	-0.013092181
44	0xbdabd5a8	-0.08390361
45	0x3d7eb2c2	0.062182195
46	0xbdb7f1c1	-0.08981658
47	0xbcc4e726	-0.024036001
48	0xbcdafe99	-0.02673273
49	0xbe0f5751	-0.13998152
50	0x3d294eab	0.04133479
51	0xbd02c92e	-0.03193014
52	0x3e12838d	0.14307995
53	0x3cccc2dd	0.024995262
54	0xbe2217a1	-0.15829326
55	0xbc1bd523	-0.009511265
56	0xbe196b55	-0.1498235
57	0x3dc1d285	0.094639815
58	0xbcc6a5cd	-0.024248982
59	0xbdebf245	-0.115208186
60	0x3e15b1c9	0.14618601
61	0xbe86f7e1	-0.26360992
62	0xbe17477d	-0.14773364
63	0xbe536aa9	-0.20646156
64	0xbe03dcf2	-0.12877253
65	0xbe4f0af4	-0.20219022
66	0xbc959eff	-0.018264292
67	0xbe6e74ad	-0.23286696
68	0x3e3bf1b2	0.18353918
69	0xbdc0395d	-0.09385941
70	0x3e282f3d	0.1642427
71	0xbcb65051	-0.022255095
72	0x3e6e831b	0.232922
73	0xbe6d8d17	-0.23198353
74	0x3caa6c59	0.020803617
75	0xbdb0c3b4	-0.086310774
76	0xbdf52e21	-0.11971689
77	0x3d34307f	0.043991562
78	0x3e2aa1c7	0.16663276
79	0xbc09ed32	-0.008418368
80	0xbdc68c94	-0.09694782
81	0xbe5a0269	-0.21289982
82	0x3e070ed7	0.13189255
83	0x3bad1be8	0.0052828677
84	0x3e483575	0.19551642
85	0x3d6c4aeb	0.057688635
86	0xbd960d48	-0.07326752
87	0xbca309ca	-0.019902129
88	0xbdde40da	-0.10852213
89	0x3dfa6c49	0.12227685
90	0x3cd49eb7	0.025954587
91	0x3d6ec21b	0.058290582
92	0xbcb1bca3	-0.021696394
93	0xbd8d28b9	-0.06892533
94	0x3c762c51	0.015025214
95	0x3e34cd5f	0.17656468
96	0x3e3d9e4a	0.18517414
97	0xbd31cc4a	-0.043407716
98	0x3b29339e	0.002581812
99	0xbe80ca94	-0.25154555
100	0xbd26a2fe	-0.040682785
101	0x3d8136d3	0.06309285
102	0xbe5ef207	-0.21772014
103	0xbd3ccdee	-0.046094827
104	0xbdf4b141	-0.11947871
105	0xbe2d8605	-0.16945656
106	0x3e3f48ac	0.18680066
107	0xbe0efe15	-0.13964112
108	0xbd95e760	-0.07319522
109	0xbd807461	-0.062721975
110	0xbd59bcdc	-0.053158626
111	0xbe7ee0ee	-0.24890491
112	0xbe0e68a9	-0.13907112
113	0xbe15470f	-0.14577888
114	0x3def1358	0.116736114
115	0xbdd90a67	-0.10597687
116	0x3d44ff04	0.048094764
117	0xbdd41f49	-0.1035753
118	0x3cda9e1e	0.026686724
119	0xbe1f3901	-0.15549089
120	0x3c9c876f	0.019107549
121	0xbe0c5d55	-0.13707478
122	0xbd4dd6c2	-0.050253637
123	0xbcec417e	-0.028839823
124	0x3e0a422e	0.13501808
125	0xbe588e67	-0.21148072
126	0xbe112b25	-0.14176615
127	0xbe8d25b4	-0.27567828
128	0x3e02248a	0.12709251
129	0x3e4ea74c	0.20181006
130	0xbdfbe891	-0.12300218
131	0xbe892e12	-0.2679296
132	0xbe82b495	-0.25528398
133	0x3db9d8b3	0.09074535
134	0xbe7bdae8	-0.24595225
135	0xbd63ef22	-0.055647977
136	0xbd1cf306	-0.038317703
137	0xbe095981	-0.1341305
138	0x3e524993	0.20535879
139	0xbe8b39d8	-0.2719257
140	0xbe1f326d	-0.1554658
141	0x3b9a954b	0.004717504
142	0x3e358776	0.17727455
143	0xbe28c215	-0.16480286
144	0x3e469e3c	0.19396299
145	0x3e240110	0.1601603
146	0xbddc7416	-0.10764329
147	0x3e9a7438	0.30166793
148	0x3e83f8b1	0.25775674
149	0x3e4004bd	0.18751808
150	0xbd03f426	-0.03221526
151	0xbd5f315b	-0.05449043
152	0xbe5dcf43	-0.21661095
153	0xbe7a6d4e	-0.24455759
154	0x3e6d1993	0.23154287
155	0x3e46c72e	0.19411919
156	0xbe35e79d	-0.17764135
157	0xbe8ce371	-0.27517274
158	0xbeaf64c2	-0.3425656
159	0x3e904e89	0.28184918
160	0xbdb555bf	-0.088542454
161	0x3e19a78d	0.15005322
162	0xbe62c454	-0.22145206
163	0x3e453393	0.19257955
164	0xbd8c158d	-0.06840048
165	0x3e85057c	0.25980747
166	0x3de0acae	0.10970436
167	0x3e694a6d	0.22782297
168	0xbe03dbe3	-0.12876849
169	0xbe0a214b	-0.13489263
170	0xbe33ba1a	-0.17551461
171	0x3e459b64	0.19297558
172	0x3db7ea44	0.089802295
173	0xbcc87b21	-0.024472775
174	0x3e53a961	0.20670082
175	0xbcb80543	-0.022463446
176	0x3e1c589a	0.15268174
177	0x3e386e44	0.18010813
178	0x3e7a77cb	0.2445976
179	0x3d206a01	0.039163593
180	0xbe236d17	-0.15959583
181	0x3e42d0f0	0.19025016
182	0x3e5014ca	0.2032043
183	0xbe35a475	-0.17738517
184	0x3e96928d	0.29408684
185	0x3e30237b	0.17201035
186	0x3e461ed5	0.19347699
187	0x3e9d8f62	0.30773455
188	0x3d3d45e1	0.04620922
189	0xbdfee59a	-0.12446137
190	0xbe7afc4c	-0.24510306
191	0x3da55cd8	0.08074349
192	0xbe4b24ab	-0.19838206
193	0xbe12ebe2	-0.14347795
194	0x3dacca33	0.08437004
195	0x3c9d74a9	0.019220667
196	0x3e24b8c9	0.16086115
197	0xbe6572e7	-0.22407113
198	0x3e1dc1e0	0.15405989
199	0xbd69d45d	-0.05708729
200	0xbc2c85d1	-0.010529951
201	0xbe8d8973	-0.27643928
202	0xbd19b83f	-0.037529226
203	0xbd482d97	-0.048871603
204	0xbdc39706	-0.0955029
205	0xbe7ec1ed	-0.24878664
206	0xbdc07659	-0.09397573
207	0xbe6dbb88	-0.23216069
208	0xbb8a8890	-0.0042277053
209	0x3cad3546	0.021143567
210	0xbdc95b5e	-0.0983188
211	0xbe5f6a65	-0.2181793
212	0x3e8ce061	0.27514938
213	0x3e47c170	0.19507384
214	0x3daa49c7	0.08314853
215	0xbe7eded7	-0.24889694
216	0x3e032c7e	0.12809941
217	0x3cba5124	0.022743769
218	0x3da207c4	0.079116374
219	0x3e8d61b1	0.27613595
220	0x3c8b9c6c	0.017042361
221	0x3c41fd36	0.011840155
222	0xbe2966b2	-0.16543081
223	0x3ec3603b	0.38159356
224	0x3d713eb9	0.058897708
225	0xbd93bbb6	-0.072135374
226	0xbd85e1fc	-0.06537244
227	0xbe910302	-0.28322607
228	0xbe45d21e	-0.19318435
229	0xbe523887	-0.20529376
230	0x3d8f0d46	0.069849536
231	0x3dc9dff9	0.098571725
232	0xbc1ecf8b	-0.009693037
233	0xbdbe3345	-0.09287123
234	0xbc5d9a69	-0.013525584
235	0xbdc19a4f	-0.0945326
236	0x3e185183	0.14874844
237	0xbcc54b78	-0.024083838
238	0xbe03b4d9	-0.12861957
239	0xbe6b5ccf	-0.22984622
240	0x3dc8ae10	0.09798825
241	0xbd09cb18	-0.03364095
242	0x3d4ee491	0.050510947
243	0xbe567b7e	-0.20945546
244	0x3e360b27	0.17777692
245	0xbe2a1358	-0.16608942
246	0x3da6460e	0.081188306
247	0x3d4c7dcd	0.04992466
248	0xbe3f0524	-0.18654305
249	0xbd22cc68	-0.03974572
250	0xbd8b9a4a	-0.06816538
251	0xbe86eea3	-0.2635394
252	0x3d92f29f	0.071751826
253	0xbde98a36	-0.11403315
254	0x3cfe0e0a	0.031012554
255	0xbe8ac2e2	-0.2710181

weight_hh_l0 f4 [128, 32]
0	0xbdec6f70	-0.115446925
1	0x3d837e4d	0.06420574
2	0xbe460d65	-0.19341047
3	0x3d9c4f5f	0.07632326
4	0x3cd5900f	0.026069669
5	0x3e1f5d1e	0.15562865
6	0xbdd85273	-0.10562601
7	0xbd80b693	-0.06284823
8	0xbe015c40	-0.12632847
9	0xbd2bd7fc	-0.041954026
10	0x3e2b4f31	0.16729428
11	0x3dd4be4f	0.10387861
12	0x3e59c015	0.2126468
13	0x3d0761de	0.033052318
14	0xbd2c711d	-0.04210006
15	0x3d6509c2	0.05591751
16	0x3daabf1d	0.08337233
17	0xbdfea0de	-0.12433027
18	0xbaf2d3d6	-0.0018526267
19	0x3d936a92	0.07198061
20	0x3d95b3ab	0.073096596
21	0xbe0e2402	-0.13880923
22	0xbe28d688	-0.16488087
23	0x3d2bb069	0.041916285
24	0xbe47ff3a	-0.19530955
25	0x3e419751	0.18905379
26	0xbe5eff18	-0.21776998
27	0x3e65a912	0.22427776
28	0x3c878b27	0.016545845
29	0xbe6fd7d6	-0.23422179
30	0xbcd69ec8	-0.02619876
31	0x3dd6cc78	0.10488218
32	0xbdc6df57	-0.097105674
33	0xbd24deb8	-0.040251464
34	0xbd4609d7	-0.048349228
35	0xbdb57372	-0.0885991
36	0x3d9ce5c5	0.076610126
37	0x3e1feaae	0.15616867
38	0xbe497bc4	-0.19676119
39	0xbcff833e	-0.03119051
40	0xbda502bc	-0.08057162
41	0x3d98dff8	0.07464594
42	0xbddafc0e	-0.10692607
43	0xbd01a315	-0.031649668
44	0x3e8054b4	0.25064623
45	0x3d6f25ae	0.058385544
46	0x3da804cc	0.0820404
47	0x3dac81f9	0.08423228
48	0x3caf6d8e	0.021414544
49	0xbdd7de53	-0.10540452
50	0x3d0e7e54	0.034788445
51	0x3dcc0cd1	0.09963382
52	0x3e4c9e64	0.19982296
53	0xbe6d1bdb	-0.23155157
54	0x3dba1e1a	0.09087773
55	0x3e54178b	0.20712106
56	0x3c147d6c	0.009063106
57	0xbd4b17bb	-0.049583178
58	0xbdb3b1e7	-0.087741666
59	0xbd46c961	-0.048531894
60	0xbdd57534	-0.10422745
61	0x3d4a3165	0.049363513
62	0x3c775c1f	0.015097647
63	0xbd93adb0	-0.07210863
64	0xbde5daee	-0.11223398
65	0x3da6ea5a	0.08150168
66	0xbd3b2894	-0.045692995
67	0xbdc87001	-0.09786988
68	0xbdb9708b	-0.09054669
69	0x3d0b7735	0.03404923
70	0xbe153553	-0.14571123
71	0x3c313332	0.010815429
72	0xbe123144	-0.14276606
73	0xbe58632c	-0.21131581
74	0xbd905266	-0.07046966
75	0xbc48998e	-0.012243642
76	0x3d46e2bc	0.048556075
77	0x3e620219	0.22071113
78	0x3daa9a48	0.08330208
79	0xbdd48cee	-0.10378443
80	0x3c3128ef	0.010812982
81	0xbcce1fcf	-0.025161652
82	0xbe5fbf70	-0.21850371
83	0xbe662b40	-0.22477436
84	0xbd3bde68	-0.0458664
85	0xbdf25398	-0.118323505
86	0xbe2cb2d6	-0.16865095
87	0x3e5f5dd6	0.2181314
88	0xbdfc317a	-0.123141244
89	0x3ba63c2a	0.00507309
90	0xbe35082d	-0.176789
91	0xbcbdcb85	-0.023168335
92	0xbdcd4e43	-0.10024693
93	0x3da7f3da	0.08200808
94	0x3df198ad	0.11796699
95	0xbe578c80	-0.2104969
96	0x3dfbc465	0.12293319
97	0x3d094f15	0.033522684
98	0x3cc672d6	0.02422468
99	0xbd67bdcb	-0.056577485
100	0x3cc01339	0.023446666
101	0x3e238ec9	0.15972437
102	0x3de4924b	0.11160716
103	0x3dfac3eb	0.122444
104	0x3e048266	0.12940368
105	0x3ddd9437	0.10819285
106	0x3bba4c88	0.005685393
107	0x3cb298d0	0.021801382
108	0x3cf98163	0.030457204
109	0xbda9f33a	-0.08298345
110	0xbc6aa241	-0.014320911
111	0xbe85e7d4	-0.26153433
112	0xbe575998	-0.21030271
113	0xbe0afc16	-0.13572726
114	0xbdfc4a23	-0.12318828
115	0xbe6366a9	-0.2220713
116	0x3c0b98a3	0.008520278
117	0x3d88c918	0.066789806
118	0xbd72942b	-0.059223335
119	0xbd6db049	-0.058029447
120	0xbd394741	-0.04523397
121	0x3e118da4	0.14214188
122	0xbe0dd68d	-0.13851376
123	0xbccbf7be	-0.024898406
124	0xbd249c6e	-0.040188245
125	0xbd622304	-0.055209175
126	0x3e5f411c	0.21802181
127	0xbe56c116	-0.20972094
128	0xbd44f14b	-0.048081677
129	0x3e019a33	0.12656479
130	0xbd24b3d1	-0.04021055
131	0x3d9342d7	0.07190483
132	0x3df54cdf	0.119775526
133	0x3e7b93dd	0.24568124
134	0x3def3c95	0.11681477
135	0xbd8cf85d	-0.06883309
136	0x3cbdbad2	0.023160372
137	0x3dd68216	0.10474031
138	0xbdd92c4b	-0.10604151
139	0xbbd60f6d	-0.0065326006
140	0x3d8cbed8	0.06872338
141	0x3def6589	0.11689288
142	0x3e10fdb5	0.14159282
143	0xbdb38d09	-0.08767135
144	0xbe5106a4	-0.2041269
145	0xbb4218d8	-0.0029616859
146	0xbcc0fd9e	-0.023558434
147	0xbd671cdd	-0.05642401
148	0x3e184572	0.14870241
149	0x3dcd7b54	0.100332886
150	0x3dc4bea4	0.09606674
151	0xbde643cf	-0.11243402
152	0xbe34ed60	-0.17668676
153	0x3c8a47b3	0.016879892
154	0xbe4cf1d5	-0.20014127
155	0x3da0ac42	0.078453556
156	0xbcbc64d8	-0.022997305
157	0x3dfc5edb	0.1232278
158	0x3dfb7c8e	0.12279616
159	0xbd48fd08	-0.049069434
160	0xbcbd1d27	-0.02308519
161	0xbdb4ddf3	-0.08831396
162	0xbe3f0f37	-0.18658148
163	0xbe1a1e31	-0.1505058
164	0xbd053201	-0.03251839
165	0x3e5e2c02	0.21696475
166	0xbe30892b	-0.17239825
167	0x3e4f24b0	0.20228839
168	0x3d499c27	0.049221184
169	0xbe3d0509	-0.18458952
170	0xbd9b485e	-0.07582162
171	0x3e1d84ac	0.15382642
172	0x3df127fa	0.11775203
173	0xbd0c9b01	-0.03432751
174	0x3db47699	0.08811683
175	0xbe2bbc50	-0.16771054
176	0xbe1113b7	-0.14167677
177	0x3daf6989	0.08565051
178	0xbdbdc52e	-0.09266125
179	0x3dea6f2e	0.11446987
180	0xbdfae167	-0.12250023
181	0xbd8d7eb7	-0.069089346
182	0xbe48a893	-0.19595556
183	0x3daf89a3	0.08571174
184	0x3de947fd	0.11390684
185	0x3e308bd9	0.17240848
186	0x3dccb173	0.09994783
187	0xbd0673cc	-0.032825276
188	0x3b02809a	0.0019913078
189	0xbe3be684	-0.18349653
190	0x3e57aab4	0.21061212
191	0xbdc4b6b2	-0.09605159
192	0x3d9822dd	0.07428525
193	0x3d2c8ffa	0.042129494
194	0xbc6fe7a0	-0.014642626
195	0xbd776dd1	-0.060407463
196	0x3e5d7a43	0.2162867
197	0xbdbf31ac	-0.09335646
198	0xbe500416	-0.20314059
199	0x3da52179	0.08063025
200	0xbe2bdd7a	-0.16783705
201	0xbda14f0a	-0.07876404
202	0x3d34ccc0	0.044140577
203	0x3e08850e	0.13332006
204	0x3dcd64b8	0.10028976
205	0x3e0a8d92	0.13530567
206	0xbd9547d1	-0.072890885
207	0xbe68d80a	-0.22738662
208	0xbda7394c	-0.081652254
209	0xbd423452	-0.047413178
210	0x3da8a152	0.082338944
211	0xbe052843	-0.1300364
212	0x3e59b106	0.21258935
213	0x3dacc096	0.0843517
214	0xbe4526bf	-0.19253062
215	0x3e1d78cb	0.1537811
216	0xbd8f66b8	-0.07002014
217	0x3ddd5942	0.1080804
218	0xbe116397	-0.14198147
219	0x3db37844	0.08763173
220	0x3ccfe113	0.025375878
221	0xbe13ad5a	-0.14421597
222	0xbd7453f1	-0.059650365
223	0xbd8ce65d	-0.06879876
224	0x3d8b3da0	0.067988634
225	0x3e29f688	0.1659795
226	0xbd0dc678	-0.034613103
227	0x3d0a79a8	0.033807427
228	0x3e08afc5	0.13348301
229	0xbda41a8d	-0.08012877
230	0x3d18223c	0.037142023
231	0x3ddf9982	0.10917951
232	0xbd790116	-0.06079205
233	0xbe5dafd8	-0.2164911
234	0xbde530fa	-0.11190982
235	0x3e66e89f	0.22549675
236	0x3e4c8b1d	0.19974943
237	0xbdc0f5f5	-0.094219126
238	0x3e185ef1	0.14879967
239	0xbe33be98	-0.17553174
240	0x3d569e0a	0.05239681
241	0xbdd66f5b	-0.10470458
242	0xbe70ca8c	-0.23514766
243	0x3d6ca51b	0.057774644
244	0xbb1496ff	-0.0022673008
245	0xbd6c84fe	-0.05774402
246	0xbe1ccb41	-0.1531191
247	0xbdb7ead1	-0.089803346
248	0x3c5671ea	0.013088683
249	0xbdca029b	-0.09863778
250	0xbb400616	-0.0029300503
251	0x3e2f2f86	0.17107973
252	0xbd80e4d8	-0.062936485
253	0x3d7ced4b	0.061749738
254	0x3dfe428d	0.12415037
255	0xbc393b4b	-0.01130564

bias_ih_l0 f4 [128]
0	0xbd1ce3af	-0.038303073
1	0xbd91c5d8	-0.07117814
2	0x3de0e90e	0.10981952
3	0x3dd9c0d1	0.1063248
4	0x3a35664a	0.00069198443
5	0x3dce64d5	0.10077826
6	0x3e4aae24	0.19792992
7	0xbd8dc450	-0.06922209
8	0x3d1be155	0.03805669
9	0x3dcb8975	0.09938327
10	0xbdc8713b	-0.09787222
11	0xbe2a638e	-0.1663954
12	0x3d85c4b8	0.06531662
13	0x3e7ef500	0.24898148
14	0xbe066ca0	-0.13127375
15	0x3e822019	0.25415114
16	0x3d5569d8	0.052102894
17	0x3e057b3f	0.13035296
18	0x3e64503d	0.22296233
19	0xbbd2b41f	-0.0064301635
20	0x3e4701b2	0.1943424
21	0xbca57dc4	-0.020201571
22	0xbe0496ce	-0.12948152
23	0xbd95cc9d	-0.073144175
24	0xbc5faad0	-0.013651565
25	0x3d3333be	0.043750517
26	0x3d7b9146	0.06141784
27	0x3d757ba9	0.059932385
28	0x3e232cbe	0.15935037
29	0x3e2039d9	0.15647067
30	0x3e491499	0.19636764
31	0x3d14273b	0.036170226
32	0x3e41ad9f	0.18913887
33	0xbdcce290	-0.10004151
34	0xbd8cb8f0	-0.068712115
35	0xbdd5f6b0	-0.104474425
36	0xbd10233d	-0.035189856
37	0x3d882381	0.06647397
38	0x3bb8db67	0.005641389
39	0x3e5211ff	0.20514677
40	0x3e3ffd0d	0.18748875
41	0x3e44ad52	0.19206741
42	0x3dccfb54	0.100088745
43	0x3e1d49db	0.15360205
44	0xbce61603	-0.028086668
45	0x3e973a80	0.2953682
46	0x3d2c64f9	0.042088483
47	0x3e2dfdd1	0.16991355
48	0xbdc3eab2	-0.09566249
49	0x3e5adfed	0.21374483
50	0x3e44fa20	0.1923604
51	0x3e733fc4	0.23754793
52	0x3dbbdd80	0.09173107
53	0x3e033ca6	0.12816104
54	0xbdaddb32	-0.08489074
55	0xbc49b149	-0.0123103345
56	0xbd3098ff	-0.04311466
57	0x3e37af25	0.17937906
58	0x3d8b7314	0.06809059
59	0x3e5d35cf	0.21602558
60	0xbdd4be4c	-0.10387859
61	0x3dc1cdc3	0.09463074
62	0x3c886e35	0.016654113
63	0x3b782c0a	0.0037868046
64	0xbddb96e8	-0.107221425
65	0x3d7a5cc2	0.061123617
66	0x3d765d16	0.060147367
67	0xbe4997ea	-0.19686857
68	0x3d205701	0.039145473
69	0x3dfcb1fe	0.12338637
70	0x3db96c76	0.090538904
71	0x3e0e2ee3	0.13885073
72	0x3dc8bab7	0.09801238
73	0xbde42f0a	-0.111417845
74	0x3e0d1193	0.13776235
75	0x3d29004f	0.04126006
76	0x3d4d1ba0	0.050075173
77	0x3ce0aae1	0.027425231
78	0x3df695a2	0.12040259
79	0xbd9b6c19	-0.07588977
80	0xbe30aaba	-0.17252627
81	0xbdf869fb	-0.12129589
82	0x3e0b75c3	0.13619141
83	0xbdb9e768	-0.0907734
84	0x3d887405	0.06662754
85	0xbe44db63	-0.19224314
86	0xbdd0bd8b	-0.101924025
87	0x3e23cbc4	0.15995699
88	0xbe033d3c	-0.12816328
89	0xbd0acd78	-0.033887357
90	0x3de164d4	0.110055596
91	0x3d317a32	0.043329425
92	0x3caa1ca5	0.020765612
93	0xbdc69e96	-0.096982166
94	0xbcd91d04	-0.026503094
95	0x3d210d46	0.0393193
96	0xbdb50d2f	-0.08840405
97	0x3e49decd	0.19713898
98	0x3e56cacd	0.209758
99	0x3e0c4b8c	0.13700694
100	0x3da9377d	0.08262537
101	0x3e099dd5	0.13439114
102	0x3e43d50a	0.19124237
103	0x3cffd49e	0.031229313
104	0x3c57e802	0.013177874
105	0x3e2b6790	0.16738725
106	0x3d80c634	0.06287804
107	0xbe1a6e6e	-0.15081188
108	0xbd695cdf	-0.056973334
109	0x3e92b44d	0.28653184
110	0x3d6d1b18	0.057887167
111	0x3e334490	0.17506623
112	0x3d99a7e9	0.075027294
113	0xbdf0bbf4	-0.11754599
114	0x3e062ce3	0.1310306
115	0x3e019d6a	0.12657705
116	0xbd242ef9	-0.04008386
117	0x3e139ad7	0.14414535
118	0xbc875373	-0.016519284
119	0xbe086aa9	-0.13321938
120	0x3e4659fb	0.19370262
121	0x3ded6253	0.115910195
122	0x3e57fe6c	0.21093148
123	0xbdd2f56a	-0.10300715
124	0xbdd7ca60	-0.10536647
125	0x3c47d0f3	0.0121958135
126	0x3e124145	0.14282711
127	0xbca19bbd	-0.019727582

bias_hh_l0 f4 [128]
0	0x3e43506e	0.1907365
1	0x3e40d463	0.18831019
2	0x3d23de99	0.040007208
3	0xbd8037ab	-0.06260618
4	0x3dc1fffa	0.09472652
5	0x3e40fb5a	0.18845883
6	0xbd476d9c	-0.048688516
7	0x3d0ecc0a	0.034862556
8	0x3def1231	0.116733916
9	0x3e2fa168	0.17151415
10	0x3ddb83bd	0.107184865
11	0x3d2d807f	0.04235887
12	0x3d86e0a2	0.06585814
13	0x3e843b8f	0.2582669
14	0x3dc8b9bb	0.0980105
15	0x3e9c4696	0.30522603
16	0x3a8a68fc	0.0010559852
17	0x3d51d6af	0.05123013
18	0x3e07e7cb	0.13272016
19	0xbd528024	-0.051391736
20	0x3e4c3160	0.1994071
21	0x3db6bfc3	0.089232944
22	0x3e28dc3f	0.16490267
23	0xbe1623d0	-0.14662099
24	0xbdf716f2	-0.12064923
25	0xbd216a06	-0.039407752
26	0x3cd23429	0.025659638
27	0xbd147332	-0.03624267
28	0x3e3da331	0.18519284
29	0x3e39040c	0.1806795
30	0x3d638b16	0.055552565
31	0x3d8568d0	0.06514132
32	0x3d60ff4f	0.05493098
33	0x3df7c05c	0.120972365
34	0x3d6226a6	0.05521264
35	0xb88bfea9	-6.675471e-05
36	0xbccafab8	-0.024777755
37	0xbdcd9a3d	-0.10039184
38	0xbdf09198	-0.1174652
39	0xbdadb80c	-0.0848237
40	0xbd97de83	-0.074154876
41	0x3c5b1640	0.013372004
42	0x3c99a824	0.018756934
43	0x3d43fb8a	0.04784731
44	0x3dee817e	0.116457924
45	0x3e9dee8c	0.3084606
46	0xbdea3335	-0.11435548
47	0x3dc49556	0.09598796
48	0xbce6fbea	-0.028196294
49	0xbd3ddb4f	-0.046351727
50	0x3d41f97d	0.04735707
51	0x3d4e4af9	0.05036447
52	0x3dac5052	0.084137574
53	0x3d520d66	0.05128231
54	0x3d758a27	0.059946205
55	0xbe23b8bf	-0.15988444
56	0xbc9905fc	-0.018679611
57	0x3e65aa86	0.22428331
58	0xbcad8875	-0.021183232
59	0xbb400691	-0.002930079
60	0x3dc1adeb	0.09457
61	0xbdc7f870	-0.097641826
62	0xbdd2b414	-0.102882534
63	0x3e3913a8	0.18073905
64	0x3d9397d2	0.07206692
65	0x3da1ed34	0.07906571
66	0xbe03a69c	-0.12856525
67	0xbe279e64	-0.16369015
68	0x3de6b0a6	0.11264162
69	0xbd9f7d57	-0.077875786
70	0xbde8c6b7	-0.11366027
71	0x3e0d7f4d	0.13818093
72	0xbe269f75	-0.16271766
73	0x3de3d293	0.11124148
74	0x3d80602b	0.062683426
75	0x3e1827a2	0.14858869
76	0x3c379b64	0.011206482
77	0x3dcd6ddd	0.100307204
78	0x3dc7afe2	0.09750344
79	0x3cfcfcd8	0.030882284
80	0xbdab441f	-0.083626024
81	0x3d4c4f08	0.049880058
82	0xbe168a3c	-0.1470117
83	0x3bee64db	0.0072752065
84	0x3de8a3b7	0.11359351
85	0xbe1a2b00	-0.15055466
86	0x3cf2fa83	0.029660469
87	0x3dc3d9bb	0.09563013
88	0xbd831779	-0.064009614
89	0x3e412d49	0.18864931
90	0xbdc0ce53	-0.09414353
91	0x3d7392ca	0.05946616
92	0xbe030788	-0.12795842
93	0xbe0ae4ed	-0.13563891
94	0x3e4b49f9	0.19852437
95	0xbe0f9c99	-0.14024581
96	0x3e34340c	0.1759798
97	0x3e314407	0.17311107
98	0x3ddf9123	0.109163545
99	0xbe0469f4	-0.12931043
100	0xbdb974ec	-0.09055504
101	0x3e172115	0.14758714
102	0x3dee3ef5	0.11633102
103	0x3dd6f24a	0.10495432
104	0x3d6667aa	0.056251206
105	0x3e386f74	0.18011266
106	0x3c04d8b6	0.008108309
107	0xbe052971	-0.1300409
108	0xbd4914dc	-0.04909216
109	0x3e152fb7	0.14568983
110	0x3dfd320a	0.1236306
111	0x3e8de649	0.27714756
112	0x3e64799c	0.22312015
113	0xbd725255	-0.05916055
114	0xbdba359a	-0.09092255
115	0x3de51aa7	0.11186724
116	0xbd6a804c	-0.05725126
117	0xbd3c5c10	-0.045986235
118	0x3dd5b250	0.10434401
119	0x3e1d3ecd	0.15355988
120	0x3d8c9202	0.06863786
121	0x3e778b79	0.24174298
122	0xba403e40	-0.0007333495
123	0x3da8bd0d	0.082391836
124	0x3e2e3bd4	0.1701501
125	0x3da295a4	0.07938698
126	0x3d8a8b45	0.06764845
127	0x3d383f82	0.04498244

weight_ih_l0_reverse f4 [128, 2]
0	0x3d65b4df	0.056080695
1	0xbe53ce09	-0.20684065
2	0x3e07249f	0.13197564
3	0xbd162f3d	-0.036666144
4	0xbb5b2ba7	-0.0033442767
5	0xbdff05c6	-0.12452273
6	0x3e3be833	0.18350296
7	0xbe47ab45	-0.19498928
8	0x3d658d43	0.05604292
9	0xbd42eafd	-0.047587384
10	0xbddf9a59	-0.10918111
11	0xbe805797	-0.25066826
12	0x3b10bd3f	0.0022085456
13	0x3e0862cf	0.13318942
14	0xbd646ce0	-0.055767894
15	0xbe925371	-0.28579286
16	0x3e21c842	0.15799049
17	0xbe986237	-0.29762432
18	0xbe03be67	-0.12865601
19	0x3d556580	0.05209875
20	0xbe0f5b7f	-0.13999747
21	0x3d341e49	0.043974195
22	0x3e510538	0.20412147
23	0xbe45f2e7	-0.19330941
24	0xbe254547	-0.16139708
25	0x3d80327e	0.062596306
26	0xbe14e349	-0.14539827
27	0xbe96dcf8	-0.2946546
28	0x3e4243b4	0.18971139
29	0x3d013086	0.031540416
30	0x3d16a749	0.03678063
31	0xbc3df039	-0.011592918
32	0xbdb0953a	-0.08622213
33	0xbdc4ef9c	-0.09616014
34	0xbd506e3f	-0.05088639
35	0xbe4a6091	-0.197634
36	0xbe51c101	-0.20483781
37	0xbd403e49	-0.0469344
38	0xbdbc6826	-0.09199552
39	0x3cfdf68f	0.031001357
40	0xbe1a06b6	-0.15041623
41	0x3dc2ce65	0.09512023
42	0xbdf62825	-0.12019376
43	0xbd944236	-0.07239191
44	0xbdc07a5a	-0.09398337
45	0x3ce3f5e4	0.02782721
46	0x3e216604	0.15761572
47	0xbd677ba3	-0.056514394
48	0xbda56497	-0.080758266
49	0xbcb1f725	-0.021724293
50	0xbe01f0fd	-0.12689586
51	0xbdde7178	-0.10861486
52	0x3dbcfc2c	0.092277855
53	0xbab42d2f	-0.0013746376
54	0xbd1f99d4	-0.03896506
55	0xbcf13697	-0.029444976
56	0x3ce1a619	0.027545022
57	0x3c23cd04	0.00999761
58	0xba4e85b0	-0.00078781974
59	0xbd223548	-0.039601594
60	0x3e397bf2	0.18113688
61	0xbe79974f	-0.24374126
62	0xbd73680d	-0.059425402
63	0xbe18cfbe	-0.14922997
64	0xbdcc5aeb	-0.09978279
65	0x3d1b5255	0.037920315
66	0x3e3a7b5f	0.18211125
67	0xbe181c14	-0.14854461
68	0x3a518523	0.0007992556
69	0xbd1073f5	-0.035266835
70	0x3cbf51d3	0.023354447
71	0xbe6253c3	-0.22102265
72	0x3cf1adfc	0.029501908
73	0x3afbbf28	0.0019206749
74	0x3e18f548	0.14937317
75	0xbd203bd6	-0.039119564
76	0xbe6e9d2d	-0.23302145
77	0x3e3a10b6	0.18170437
78	0x3b54a483	0.003244669
79	0xbda167f6	-0.07881157
80	0x3e50c2f6	0.20386872
81	0xbe08c922	-0.13357976
82	0xbc8a5c82	-0.016889814
83	0xbe12294d	-0.14273567
84	0x3e479741	0.19491293
85	0xbe37c97b	-0.17947952
86	0x3e3b904c	0.18316764
87	0xbe500dcc	-0.20317763
88	0xbe25353f	-0.16133593
89	0x3e56c006	0.20971689
90	0xbc6527dc	-0.013986554
91	0xbe83014a	-0.2558692
92	0x3de2d043	0.11074879
93	0xbde71eb5	-0.11285154
94	0xbd387ef8	-0.04504296
95	0xbd887552	-0.06663002
96	0x3d74fc90	0.059811175
97	0xbe07708b	-0.13226525
98	0xbd7819e6	-0.060571574
99	0xbd838e62	-0.06423642
100	0xbe48dbf6	-0.19615158
101	0xbd7f23a7	-0.06228986
102	0xbe1d7acd	-0.15378876
103	0xbb4cbecc	-0.0031241653
104	0xbc00e25a	-0.007866466
105	0x3e46d19e	0.194159
106	0xba88af73	-0.0010428265
107	0xbdf236ab	-0.11826833
108	0x3e1e94ed	0.15486498
109	0xbe765d13	-0.24058942
110	0xbe3f5ec6	-0.18688497
111	0xbd941cde	-0.072320685
112	0x3d2505f7	0.04028889
113	0xbe606276	-0.2191256
114	0x3d3a1541	0.045430426
115	0xbe832921	-0.25617316
116	0x3e124a5d	0.1428618
117	0xbda5db04	-0.080984145
118	0x3df2cc6c	0.11855397
119	0xbe8ccb8b	-0.2749904
120	0xbd9f7365	-0.07785682
121	0x3ddbd5e2	0.10734154
122	0x3e244b0f	0.16044258
123	0xbd2ae6ee	-0.041724138
124	0x3e66f336	0.22553715
125	0xbe3d442b	-0.18483035
126	0x3d8c3d1f	0.068475954
127	0xbe796715	-0.24355729
128	0xbe03f179	-0.12885083
129	0xbe2d86d2	-0.16945961
130	0x3e5136ef	0.20431112
131	0x3e90f73d	0.28313628
132	0x3dead9cd	0.114673235
133	0xbe29bebc	-0.16576666
134	0xbe184618	-0.14870489
135	0xbe537346	-0.20649442
136	0x3d52ab39	0.051432822
137	0x3e8b771a	0.27239305
138	0x3d4d8473	0.05017514
139	0x3e395d5a	0.18102017
140	0x3d9bbfbb	0.07604929
141	0xbe819b5c	-0.25313842
142	0xbe4ff497	-0.20308147
143	0x3e79a3f0	0.24378943
144	0xbe51e4d6	-0.2049745
145	0x3c209373	0.00980078
146	0xbded714e	-0.11593877
147	0x3e83e7bb	0.25762734
148	0x3e8fcd43	0.2808629
149	0xbe477ae1	-0.19480468
150	0x3e9a8b15	0.30184236
151	0xbe16c7d8	-0.14724672
152	0x3e958303	0.29201517
153	0xbe2c3d53	-0.16820268
154	0x3e92ed97	0.28696892
155	0xbd57eab4	-0.052714065
156	0xbe4da3b4	-0.20081979
157	0x3b1d850c	0.00240356
158	0xbc28ff02	-0.010314705
159	0x3e666c45	0.22502239
160	0x3c525fdc	0.0128402375
161	0x3e101a86	0.14072618
162	0xbcb80a47	-0.022465838
163	0x3eadbfc7	0.33935377
164	0x3dd92a19	0.106037326
165	0x3c5a8077	0.0133362925
166	0xbe7ce567	-0.24696885
167	0xbe363164	-0.17792279
168	0xbe88db64	-0.26729882
169	0xbdf56a43	-0.119831584
170	0x3e989069	0.29797676
171	0xbe37d462	-0.17952111
172	0xbe8b723e	-0.27235597
173	0x3e392f90	0.1808455
174	0x3e138441	0.1440592
175	0x3e82a3c4	0.25515568
176	0xbdf73fb0	-0.12072694
177	0x3e964fe7	0.29357836
178	0x3e7c3ae3	0.24631839
179	0xbcfd7a20	-0.030942023
180	0xbe53940d	-0.20661946
181	0x3e019957	0.12656151
182	0x3e402171	0.18762757
183	0xbe91b195	-0.28455797
184	0xbec9de81	-0.3942757
185	0x3e893d93	0.2680479
186	0x3e0eb8a2	0.1393762
187	0x3dfe6ff8	0.124237
188	0x3e6d8306	0.23194513
189	0xbe897ff6	-0.2685544
190	0x3e1bd122	0.15216497
191	0x3d7d23f3	0.061801862
192	0x3e2663d9	0.16249026
193	0xbdf0c30a	-0.11755951
194	0x3e3932f2	0.1808584
195	0xbc166410	-0.00917913
196	0x3d50544c	0.05086164
197	0xbe6b5062	-0.22979882
198	0xbd33abbc	-0.04386495
199	0xbe770d5d	-0.24126191
200	0xbd58d305	-0.05293562
201	0x3dc5ba05	0.09654621
202	0xbe145728	-0.14486372
203	0xbe0859e9	-0.13315548
204	0xbea0aefd	-0.31383505
205	0x3d8d5853	0.06901612
206	0x3de22ff2	0.11044301
207	0xbe8b1ba9	-0.2716954
208	0xbd39c01e	-0.045349233
209	0xbe25bdb2	-0.16185644
210	0xbc6e8a74	-0.014559377
211	0xbe33a6c2	-0.17544082
212	0x3de8a903	0.113603614
213	0xbe5c00a0	-0.21484613
214	0x3e339ae5	0.17539556
215	0xbe84bfb1	-0.259275
216	0x3d8f1333	0.06986084
217	0xbcefc8a4	-0.029270478
218	0xbd95d478	-0.07315916
219	0xbe1b5e1a	-0.15172616
220	0x3e68968b	0.22713678
221	0xbd6b6435	-0.05746861
222	0xbd64137c	-0.055682644
223	0xbe6651ae	-0.22492096
224	0x3e24815f	0.16064976
225	0x3c1cadcc	0.009562921
226	0xbc8ec13c	-0.017426126
227	0xbe777815	-0.24166901
228	0xbe34274e	-0.17593119
229	0xbde0550b	-0.10953721
230	0xbe7a244d	-0.2442791
231	0x3d7ec93d	0.062203635
232	0xbdd8486e	-0.1056069
233	0xbdf258ec	-0.11833367
234	0xbdb04e41	-0.08608676
235	0x3d16a495	0.03677805
236	0xbd960fde	-0.07327245
237	0xbe67a1eb	-0.2262036
238	0xbd6d5647	-0.05794361
239	0xbdbdd3b1	-0.092688926
240	0x3d5a88d6	0.053353153
241	0x3cdddc1e	0.0270825
242	0x3e24facc	0.16111296
243	0xbe5c4bf7	-0.21513353
244	0xbe1ab30e	-0.15107366
245	0x3d37e9d9	0.04490075
246	0x3e054477	0.13014399
247	0x3d3a9b92	0.04555852
248	0x3e4a414e	0.19751474
249	0xbda06fff	-0.078338616
250	0x3c9aa62c	0.018878065
251	0xbe8f523c	-0.27992427
252	0x3d71c775	0.059028108
253	0xbe1141e2	-0.14185289
254	0xbd594329	-0.053042565
255	0xbe38003c	-0.1796884
