sgan-dataset/logs/zara2/models_04_Mar_2019_00_49_31/model_registrar-1899.pt (torch_old, 575433 bytes, 45 tensors)

weight_ih_l0 f4 [128, 6]
000000 45 57 87 be 67 62 c2 bd b6 b6 75 be 4e 21 ec bd
       -0.2643377 -0.09491425 -0.2399548 -0.1152979
000010 60 2e d0 3d b1 b4 0b 3e c7 45 92 be 7b 80 93 be
       0.10165095 0.13643147 -0.2856886 -0.2880896
000020 6e f6 59 be 0b 8e 0e be 09 37 03 3e e2 07 75 be
       -0.21285412 -0.13921373 0.12813963 -0.23928788
000030 3e 22 0f be 50 db dc bd 13 c2 e2 bd b0 d8 19 3d
       -0.13977906 -0.10784018 -0.11072173 0.037560165
000040 61 40 6f be 55 a2 58 3e 6d 58 fa bd f7 5b 08 bc
       -0.23364402 0.21155675 -0.12223897 -0.008322707
000050 d9 5b 2b 3e 5a 29 08 be e8 a8 c8 be aa 61 a4 3e
       0.16734256 -0.13297024 -0.39191365 0.32105762
000060 aa 87 97 bd ba e1 68 3d 8a 65 46 be 1e fb ea 3d
       -0.07398923 0.056855895 -0.19374672 0.11473678
000070 d6 3e 17 3e 52 3d 26 be 91 3f 10 3e 31 a7 7f 3d
       0.14770064 -0.1623433 0.14086749 0.062415306
000080 a4 02 e5 bb 55 b5 da 3c 53 1e d6 3d e8 3c 16 3e
       -0.00698884 0.026697794 0.10455003 0.14671671
000090 8a 7d 21 be 7e e9 92 bd 1f 96 75 be fe 0d 8c 3d
       -0.15770546 -0.07173441 -0.23983048 0.06838606
0000a0 68 ee 56 bd 80 db 1d be d2 36 23 3d 73 9b 5e 3e
       -0.052473456 -0.15415764 0.039847203 0.21738987
0000b0 98 97 03 bf fa 48 ed 3d dd 42 c5 be d5 eb 78 3d
       -0.5140319 0.11586185 -0.38527575 0.060771782
0000c0 80 b4 15 3e d6 64 da 3d 0d 6a 26 3e 3c 1a de 3c
       0.14619637 0.10663764 0.16251393 0.027112119
0000d0 ff 80 a1 bd e8 ef 10 3d 52 1e 6b be c0 19 85 be
       -0.07885932 0.035385042 -0.22960785 -0.25996208
0000e0 7e fd 29 be 03 ca 1e 3e 04 75 98 bc 6e 9f 89 be
       -0.16600606 0.15506749 -0.018610485 -0.26879448
0000f0 37 8d 36 bc a6 ca 08 3e 46 6a 8d be 23 80 e9 bc
       -0.011142067 0.13358554 -0.27620143 -0.028503483
000100 39 2e 18 be 19 14 03 3d d7 86 70 bd 2d f0 bf bc
       -0.14861383 0.03200159 -0.058722343 -0.023429954
000110 f5 6e e4 bd d6 82 a7 3d 1e b2 9d 3d 56 80 11 3e
       -0.11153976 0.08179252 0.07699989 0.14209113
000120 03 a8 42 be 57 dd 40 be 91 56 ab 3d a8 4e bc 3d
       -0.19009404 -0.18834434 0.083661206 0.0919469
000130 f8 85 24 bd c0 57 19 be e5 b8 80 bd 3a 9d 9e 3d
       -0.040166825 -0.1497488 -0.06285266 0.07744832
000140 f0 b0 2f 3e 25 eb 80 bd b5 cc 3b be 34 6e 23 3d
       0.1715734 -0.0629485 -0.18339808 0.03990002
000150 ac 33 6a be 5b 9a 1f be 3e b9 7c be bb 2e b1 3e
       -0.22871274 -0.15586226 -0.2468004 0.34605965
000160 37 71 0d be ad ff 8a 3d fd 36 d2 bd de b2 38 3e
       -0.1381272 0.067870475 -0.102643944 0.18036982
000170 68 73 90 3e bb 58 20 3f 50 9a be 3d 41 a8 e3 3c
       0.28213048 0.6263539 0.093067765 0.02779019
000180 33 51 0a 3e 40 70 c4 3d 79 dd 5c bb 67 20 d0 3c
       0.13507538 0.095917225 -0.0033701344 0.025406076
000190 4f e5 24 3e 94 8d 3c be 39 52 80 bd 85 fb 29 be
       0.161031 -0.18413383 -0.06265683 -0.16599853
0001a0 60 1a f4 3d ea 9d e8 bd 73 8a 0c be d2 b0 98 3e
       0.11919093 -0.11358245 -0.13724689 0.29822403
0001b0 7b ec d4 3d df f9 1e 3b d7 ae 33 bd ff 2e 3c bd
       0.103966676 0.0024257821 -0.043867912 -0.045943256
0001c0 31 9f d3 3d 3c c8 33 be ad 6c fc 3a bf ae 44 3d
       0.10333098 -0.17556852 0.0019258462 0.048018213
0001d0 7d 97 5e be ef 7b 1c 3e db 95 28 3e 6c 79 86 3e
       -0.21737476 0.15281652 0.16463415 0.26264513
0001e0 4b 07 c6 bd f8 58 2b 3d af 9d b1 3e be 3f 0a be
       -0.0966936 0.041832894 0.34690616 -0.13500878
0001f0 24 92 35 3e 5c b9 58 bd 72 1a 18 be 8b ff 97 bd
       0.1773153 -0.052911147 -0.14853838 -0.07421788
000200 11 70 b3 3b a6 98 47 3e 13 10 cb be a0 2c e5 3e
       0.005476006 0.19491825 -0.396607 0.4476061
000210 d1 68 1a bd d2 86 2b be c9 24 0f be 1c 67 1d be
       -0.037697617 -0.16750649 -0.13978876 -0.15371364
000220 83 9c 06 3e b3 1c d8 3d 3c 73 3d bd 07 79 bf bd
       0.13145642 0.10552349 -0.046252474 -0.09349256
000230 e7 43 03 be 03 b4 d9 bc f3 d6 28 3e 7a a1 85 3e
       -0.12818871 -0.026575094 0.16488247 0.2609976
000240 c7 7b 57 bd 82 7b 1c be 54 8f 7a be 39 11 18 be
       -0.052608278 -0.1528149 -0.24468738 -0.1485032
000250 88 57 41 be 1f 62 67 bd 0a a2 17 be 1f ac c0 bd
       -0.18881047 -0.05649006 -0.14807907 -0.094078295
000260 a2 70 12 3e d5 c7 84 3e cf 29 09 be 65 e6 79 3e
       0.14300779 0.2593371 -0.13394855 0.24404295
000270 d1 5c 48 be 0d cf 46 bd e4 9d 07 3c c6 1c 9c 3d
       -0.19566657 -0.048537303 0.00827739 0.076226756
000280 a7 04 30 3e a0 7d f1 3e 3a 65 28 be 4a 01 c7 3d
       0.17189275 0.47166157 -0.16444865 0.09717043
000290 91 f3 fd 3e 52 45 a7 3b 89 c2 1a bd ed 08 3d 3e
       0.4959989 0.005104699 -0.03778318 0.18460436
0002a0 13 c3 01 3e c0 3b 0a 3e 98 3e a1 bd 31 bf 96 bd
       0.12672071 0.13499355 -0.07873267 -0.073606856
0002b0 95 56 e1 3d 53 98 50 3d bd eb 34 be 42 77 1d be
       0.11002842 0.050926518 -0.17668052 -0.15377524
0002c0 5c b0 75 be 38 fa 88 bc 0b 8a 34 3c 86 bf 2d 3c
       -0.23993057 -0.016720876 0.01101924 0.010604745
0002d0 66 35 07 bd e2 ab a9 3a c4 11 96 3d a2 db 6f be
       -0.03300991 0.0012944902 0.07327607 -0.23423627
0002e0 45 9c 44 bd f9 a6 bd bd c0 f4 92 bd 92 f4 d9 3d
       -0.048000593 -0.09260363 -0.071755886 0.10642351
0002f0 6f 27 c5 3d b2 21 27 be cd 31 af bd ef bf 35 be
       0.09626662 -0.16321447 -0.085544206 -0.17748998
000300 50 67 46 bd 0d 92 d7 3d 2d 3d 68 be b0 5f 43 be
       -0.04843837 0.10525904 -0.22679587 -0.1907947
000310 ff 02 74 3e a8 d9 56 3c 1e 44 48 3d a9 81 34 bd
       0.23829268 0.013113417 0.048893087 -0.044068966
000320 a9 25 04 be 2b bd bf bd 8f 4c 1f 3e d3 d7 07 be
       -0.12904991 -0.09362253 0.15556549 -0.13265924
000330 47 e6 f7 bd b9 dc f4 3b 6e f6 43 bd fe 3a b6 3b
       -0.12104469 0.0074726013 -0.047842436 0.0055612316
000340 56 62 85 bc e8 6c 0f 3e 5b d5 cd bd 04 e9 42 bd
       -0.016282242 0.14006388 -0.1005046 -0.047585502
000350 4e c3 6c 3d 97 5a 09 be d2 9e 67 be c6 01 a4 3b
       0.057803445 -0.13413464 -0.22619179 0.005005094
000360 6c 9c c0 3d 2e e6 bc bd 6d 24 a8 bd eb 40 c6 3c
       0.09404835 -0.09223591 -0.08210073 0.024200877
000370 02 99 08 be 62 23 dc bd b0 67 86 3d 90 c6 85 bd
       -0.13339618 -0.10748936 0.065627456 -0.065320134
000380 bc 60 63 bc 63 a0 01 be ae 25 51 bd 72 b6 ee bc
       -0.013878044 -0.12658839 -0.051061325 -0.029139731
000390 b3 29 90 3d 2b 1b 78 bc df 4c d5 bd 47 a9 fa 3b
       0.070392035 -0.015143196 -0.104150526 0.007649574
0003a0 52 db 80 bd d2 29 f9 3c c9 8c fe 3c 34 0f ba bd
       -0.06291832 0.03041545 0.031072991 -0.09084931
0003b0 7f ab 08 bf af 44 d2 3c 6a 0c 0b 3d d2 d6 e5 3d
       -0.5338668 0.025667517 0.033947386 0.11222614
0003c0 c1 3c bb 3d 70 aa f0 bc 3e e2 c6 bc 07 61 f1 bc
       0.09142447 -0.029378146 -0.024277803 -0.029465212
0003d0 03 b1 02 3d 42 6e e0 3d d3 3a 3f be 01 e3 ab bd
       0.031907093 0.1095853 -0.18674783 -0.08392907
0003e0 75 78 e3 3d 21 b0 84 3c 84 ad 96 bd 76 a1 38 3d
       0.1110696 0.016197266 -0.07357314 0.045075856
0003f0 db 16 e3 3d a1 0a 1c be ae 26 9e bd fb e0 e4 3d
       0.11088344 -0.1523843 -0.07722221 0.11175724

weight_hh_l0 f4 [128, 32]
000000 e7 ef a1 3c 59 71 59 3a 2e 69 8e 3d 61 cf ac 3e
       0.019767715 0.0008294783 0.06953655 0.33751968
000010 65 96 11 be 4d 1b 58 3d cf eb 9b be 6e 62 07 be
       -0.14217527 0.05276041 -0.30453345 -0.13221142
000020 6e 11 d2 3d 13 3f 07 bc 82 a6 84 3d 25 79 2f 3e
       0.10257231 -0.008254784 0.06477071 0.17136057
000030 80 f5 4e bd 88 87 1a 3e bc 0a 26 3e f4 a2 d9 3e
       -0.050527096 0.15090764 0.16215032 0.42507136
000040 d3 02 2c 3e 79 bf d8 bd 02 be 86 3d 65 dc 41 be
       0.16797952 -0.105833955 0.0657921 -0.1893173
000050 e4 17 c3 3c ee 58 ec bd 3e 24 19 be 9e 72 50 bd
       0.023815103 -0.115403995 -0.14955232 -0.050890557
000060 0c b4 13 3d 19 8f 2f be c3 da 65 3c 1a 85 a3 3e
       0.036060378 -0.17144431 0.014029208 0.31937486
000070 2d b8 31 3d 99 15 d2 3c e0 ff b6 bc 8b d9 71 bd
       0.043388534 0.025645064 -0.022338808 -0.059045356
000080 b0 5c 75 3e c8 43 02 be da 68 23 3e 0c ab c7 3d
       0.23961139 -0.12721169 0.15957966 0.097494215
000090 0f 28 33 3a 96 e9 4e 3e 77 0c db bd 52 05 90 be
       0.00068342773 0.20206293 -0.10695737 -0.2812906
0000a0 da 21 02 3e c1 94 de bd b0 73 ad bc c5 7b da bd
       0.12708226 -0.10868216 -0.021173328 -0.106681384
0000b0 89 fc 4b be 96 7f a0 3d 38 19 48 3e 9f 7e 7a 3e
       -0.19920553 0.07836835 0.1954087 0.24462365
0000c0 1c b4 40 3e d6 6d d7 3d b5 d8 0b be 02 59 72 bc
       0.18818706 0.105189964 -0.13656886 -0.014791729
0000d0 52 de a1 3d bd 5c 07 be 7d 25 26 be 60 aa 0f 3c
       0.07903732 -0.1321897 -0.16225238 0.008768648
0000e0 7e 26 c8 bd f7 49 9d bd 79 e0 53 be 2d 17 09 bd
       -0.09772967 -0.07680123 -0.20691098 -0.033469368
0000f0 c9 fc c9 bd 66 e7 22 3c 0f 17 02 3d 60 17 83 bd
       -0.09862668 0.009942865 0.03176027 -0.06400943
000100 d2 b9 27 bd 28 df 36 be c9 31 c4 bd c8 37 28 3e
       -0.040948696 -0.17858565 -0.09579808 0.16427529
000110 4b c4 23 3d e3 06 90 3d 09 0f 3d be c3 6b 29 be
       0.03998212 0.070325635 -0.18462767 -0.16545014
000120 33 8a d5 bc 91 3c 70 3e 73 60 36 be e3 35 d1 3d
       -0.026066875 0.23460604 -0.1781023 0.10215356
000130 0d 3e 91 bd 97 ed 08 be bc 41 03 3e be e7 eb bd
       -0.07091913 -0.13371883 0.12818044 -0.11518811
000140 76 ab 93 3d 8a 27 4d bd 4e 7c 04 3e 4e 8d 33 be
       0.07210438 -0.050086536 0.12938043 -0.17534372
000150 2e ef e7 3d 44 ca f7 3d a2 29 0a 3d e8 25 30 3e
       0.11324917 0.12099126 0.03373111 0.1720196
000160 19 40 2e 3e cf 5c bb 3d f0 ed 07 3e 4d c4 25 3e
       0.17016639 0.09148561 0.1327436 0.16188164
000170 5f 73 16 3e c3 66 a7 3d 06 b6 e4 bd a0 6a bc 3d
       0.14692448 0.08173897 -0.11167531 0.092000246
000180 24 c8 f1 bc 62 cb 02 3c 2f 3d 34 3d ed c7 ed 3d
       -0.02951438 0.007983061 0.04400366 0.116103984
000190 2f f0 48 be ab 92 af bd 63 be c9 bd 76 93 5a 3d
       -0.19622873 -0.085728966 -0.098507665 0.053363286
0001a0 f7 c3 d5 bd 52 37 6c bd ec 4a 4a 3d 39 00 2a be
       -0.10437768 -0.057669945 0.049387857 -0.16601647
0001b0 6e ea 54 be e1 61 cd bd 07 87 e8 bd 3e 5e df 3c
       -0.20792553 -0.100284345 -0.113538794 0.027266618
0001c0 8f cc 9c 3c 9e 2b 4e 3e 01 2d 0b be 13 67 a0 bd
       0.01914051 0.20133826 -0.13591386 -0.0783216
0001d0 ce 81 8f bd 14 8e cd 3c 74 bc ad 3d ba ec 9c bd
       -0.0700718 0.025092162 0.0848321 -0.076623395
0001e0 34 82 e4 bd 06 da 3b 3d 37 86 30 be ec d2 06 3e
       -0.11157647 0.04586222 -0.17238699 0.13166398
0001f0 b5 93 02 be f3 31 f7 3c 6f e2 08 3e 46 d5 af 3d
       -0.12751658 0.030175185 0.13367628 0.085856006
000200 a3 9d 4e be e9 a6 b1 bd 53 d0 19 3e c8 22 18 be
       -0.20177321 -0.08674414 0.15020876 -0.14857018
000210 af 3a 10 3e 6e bb 0d be b0 a4 05 bd 7d 8d fc 3d
       0.14084886 -0.1384103 -0.03262776 0.12331674
000220 f1 24 30 be fd d2 2e be d8 d8 1f bd 55 b1 0a be
       -0.17201592 -0.17072673 -0.039025158 -0.1354421
000230 63 6a c5 bb 15 5d c3 3d 01 a3 af 3d 6e d1 0c be
       -0.006024645 0.09539238 0.085760124 -0.13751766
000240 a3 5e 24 bd 7a 91 0f be 4a a2 ef bd 95 ea a1 3d
       -0.040129315 -0.14020339 -0.11700876 0.07906071
000250 51 56 5a 3d 37 d9 46 3e 41 c6 9e 3d 64 df f5 bd
       0.053304974 0.19418798 0.07752658 -0.12005499
000260 93 4e 71 3d 53 c9 fc bd 3e 13 2b be ba b0 07 be
       0.058912825 -0.12343087 -0.16706559 -0.1325101
000270 19 22 39 3e ef fc a9 bd 7a 72 fe 3d 30 4f f7 bd
       0.18079413 -0.083001964 0.124241784 -0.12075651
000280 87 89 41 3d d2 9c 0b be d3 a6 21 3d 27 ef 60 be
       0.047250297 -0.13634041 0.039465737 -0.2196623
000290 c8 00 a3 bd 5a b6 43 bd d4 c6 33 bc 11 db bc bd
       -0.079591334 -0.047781326 -0.010972697 -0.09221471
0002a0 ff 40 60 bd 08 81 8a 3c 08 a4 32 3e 98 ee 35 be
       -0.054749485 0.01690723 0.17445385 -0.17766798
0002b0 1d 95 14 be 3a 70 73 3d 3c 80 2b bc bf 44 0f 3d
       -0.14510007 0.0594332 -0.010467585 0.03497767
0002c0 49 bf 52 3c bb 67 10 3e 0c 38 4b be 6f 08 04 3e
       0.012862989 0.1410207 -0.19845599 0.12893842
0002d0 02 a0 e0 3d f7 48 8b bc 33 d7 2e bd 9f a7 1d bd
       0.10968019 -0.017002566 -0.0426857 -0.038489934
0002e0 91 43 b0 bd 53 42 ec bd b1 40 02 3e 5b 86 7c 3e
       -0.08606637 -0.11536088 0.1271999 0.24660628
0002f0 f4 01 50 3d 21 fa a7 3d 0f 15 0d 3e 5e da ae 3d
       0.050783113 0.08202005 0.13777564 0.08537744
000300 87 d9 33 3e 09 39 93 3d f2 2d 27 be 41 30 29 3e
       0.17563449 0.07188613 -0.1632612 0.16522314
000310 b2 4a 40 bb 67 84 8e bd dc bd cd 3c 73 93 25 be
       -0.0029341397 -0.069588475 0.025114946 -0.16169529
000320 36 4f 9e bd 8b 48 e5 3c 8e 75 e4 bc f4 eb fb bd
       -0.07729952 0.027988693 -0.027888086 -0.12300864
000330 d7 d5 a9 bc be 1b 27 3e 85 d1 43 bb c8 25 a6 3d
       -0.02073185 0.16319177 -0.0029879522 0.08112675
000340 fd 6f 01 3d 32 53 ef bd a3 ce 33 3a 59 ff 15 be
       0.03160094 -0.1168579 0.00068590994 -0.14648189
000350 5b 81 d7 3d 18 00 92 3e 0a 85 2c 3e b7 60 ab bc
       0.105227195 0.28515697 0.16847625 -0.02092014
000360 8e 6d 3d be f8 b6 1c 3c fd 40 eb 3d a3 78 cd 3d
       -0.18498823 0.0095651075 0.11487005 0.10032775
000370 8b a7 2f be 0e 1e 24 3e 1a 6e 0e be 74 f3 29 3d
       -0.17153756 0.1602709 -0.13909188 0.04149194
000380 36 f3 fb 3e 0a 18 19 3e 76 e8 5d bd 01 b1 03 3d
       0.49208993 0.14950576 -0.05417677 0.032151226
000390 44 72 dc bc 2c 58 a6 3d 79 77 87 3d 0c a2 db 3c
       -0.026909955 0.08122286 0.066145845 0.026810668
0003a0 74 b1 16 bd c0 0b a9 be 99 80 bd bd b9 b4 46 be
       -0.036790326 -0.33016777 -0.09253044 -0.19404878
0003b0 da 06 99 3e 60 c5 34 be 83 fe 07 3e d9 64 d1 3c
       0.2988804 -0.17653418 0.13280682 0.025560783
0003c0 fb 80 16 3e 7d 80 69 be df 93 03 be 87 32 ea bb
       0.1469764 -0.2280292 -0.12849377 -0.0071471366
0003d0 8c 14 46 be d8 2a 1f be 02 36 b5 bc ef df 3e be
       -0.19343776 -0.15543687 -0.02212048 -0.18640111
0003e0 27 eb 64 3d c2 c0 13 3e 51 38 b0 3d f3 d3 3e bd
       0.05588832 0.14429 0.086044915 -0.04658885
0003f0 e0 bb 32 3e bb 02 82 3e 05 2f d2 bc c1 2a 7c 3d
       0.17454481 0.25392708 -0.025657186 0.06156421

bias_ih_l0 f4 [128]
000000 c3 12 4d bd ed ed 98 bc c1 73 1a bd 94 fe bf bd
       -0.05006672 -0.01866814 -0.037708048 -0.09374729
000010 8d 33 28 be ec f9 0c 3e 91 c5 77 bd 29 13 44 be
       -0.16425915 0.13767213 -0.06049115 -0.19147934
000020 5e 66 bf 3c 93 69 a6 bb cf 23 31 3e 62 fa 12 3e
       0.023364242 -0.0050785034 0.17298816 0.14353326
000030 4b fc 3f 3d d2 30 20 be be e9 9a 3d 68 58 11 be
       0.046871465 -0.15643623 0.07564114 -0.1419388
000040 1d f3 5a 3b 68 92 20 3e 18 d4 3f bd ab 79 dc 3d
       0.0033409067 0.1568085 -0.046833128 0.10765394
000050 55 8f e6 3c 9f 95 51 3d 8b 16 e3 bc 1b 35 55 bd
       0.028144518 0.05116808 -0.02772071 -0.0520526
000060 5f 67 0e 3e cc 86 8f 3d 34 71 8c bc b4 fa 94 3d
       0.1390662 0.07008132 -0.017143823 0.0727438
000070 3c 55 35 bd 8e ad ec bd 94 73 4d be 5c a4 8c bd
       -0.04427074 -0.115565404 -0.20063621 -0.068672866
000080 61 47 58 3e d3 1e 81 bd 19 77 2f be 9e e3 01 3e
       0.21120979 -0.063047074 -0.17135276 0.12684485
000090 25 2b 28 be 84 7b b4 bd 1b 7e 1f be f0 50 9a bb
       -0.16422708 -0.08812621 -0.15575449 -0.0047093555
0000a0 52 e1 0d be c0 8e 8f 3d e0 95 42 bd 8e 3b 1c 3d
       -0.13855484 0.07009649 -0.047506213 0.038142733
0000b0 4b 4a 64 bd 95 f4 2d 3e fc b1 07 bc 2b 3a 6f bd
       -0.055734914 0.16987832 -0.008282181 -0.058405083
0000c0 f7 54 cc 3d 9f ad d8 3d e2 c1 b6 bd 12 92 87 3d
       0.09977143 0.105799906 -0.08923699 0.066196576
0000d0 48 98 11 be 74 ce e3 3d 55 8a f7 3d a8 2d ae 3d
       -0.14218247 0.11123362 0.120869316 0.08504802
0000e0 e4 90 a5 3d 9f 59 14 3e e5 db 1b 3e da 87 0b 3e
       0.08084276 0.14487313 0.15220602 0.13626042
0000f0 ed 8d 37 bd 80 90 14 be c2 bc 55 be bc 84 2d be
       -0.044813085 -0.14508247 -0.20872787 -0.16945165
000100 bf 7a db 3d 36 d6 10 3e 9c a1 23 bd c6 41 7c 3d
       0.10716771 0.14144215 -0.039949045 0.061586164
000110 6b f9 8b bd 22 23 76 3b ab 1b d4 3d af 44 54 bd
       -0.06834682 0.0037557562 0.1035684 -0.051823314
000120 29 68 08 3c e5 02 9c 3d fe 4f d9 bd d1 d1 01 3d
       0.008325615 0.076177396 -0.106109604 0.031694237
000130 4f e7 16 be 1f 9c 91 bd 81 5c 37 bd 39 fc 4f be
       -0.14736675 -0.07109856 -0.044765953 -0.20311059
000140 92 c6 e5 bd 7d f9 14 be fe 9e 09 3e c8 3c 2d bb
       -0.11219515 -0.14548297 0.13439557 -0.0026433934
000150 fe d2 ef b9 2e 8f d1 3d 76 2d a6 3d cd 69 08 be
       -0.00045742834 0.102323875 0.0811414 -0.1332161
000160 82 d9 0c 3e 2c 1b 03 be 21 37 03 3e 0d ee 2d be
       0.13754848 -0.12803334 0.12813999 -0.1698534
000170 5b b8 f8 bd 4f 78 07 3e f2 60 b1 3c e6 df a0 bd
       -0.12144538 0.13229488 0.021652672 -0.07855205
000180 62 60 3a 3e 1a f0 1e bd cc da fa 3a ee 0a 58 bd
       0.1820083 -0.038803197 0.0019138693 -0.0527448
000190 69 31 2c bc 3c f1 80 3d dd 39 c8 bc b0 92 30 be
       -0.010509827 0.06296012 -0.024441654 -0.17243457
0001a0 e6 ee cf bd cf 35 6d 3d e7 7d 99 bd 95 e5 9e 3d
       -0.10152988 0.057912644 -0.07494717 0.07758633
0001b0 d8 c3 c6 3c c5 4c 3b be d1 6c dd 3d 00 a8 42 3d
       0.024263307 -0.18291004 0.10811771 0.0475235
0001c0 0a b1 f7 3d 1b 01 91 3d b5 87 49 3d ca 7f dc bb
       0.120943144 0.07080289 0.049201686 -0.006729101
0001d0 9d f7 ed 3d 70 c7 1b 3d 12 0b a6 bd 57 36 16 bc
       0.11619494 0.038031995 -0.0810758 -0.009168229
0001e0 22 53 c1 bd 24 7f dc 3d 7a c9 01 3e b7 5c bc 3b
       -0.094396845 0.10766438 0.12674513 0.005748357
0001f0 9c b5 a8 3d 89 5d b5 3d 9c aa 1a be 92 43 a0 bd
       0.08237764 0.08855731 -0.15104145 -0.07825388

bias_hh_l0 f4 [128]
000000 f9 3d c1 bd b5 34 b6 bb 5d 9d 2f be 22 b9 8a 3d
       -0.094356485 -0.0055604824 -0.17149873 0.067735925
000010 0f cd a7 bc 10 8e d9 bd 33 08 26 be f7 f9 63 bc
       -0.020483522 -0.106227994 -0.16214065 -0.013914577
000020 56 36 de 3d 23 a7 23 3e 11 f0 aa bd da 3b 99 3c
       0.108502075 0.15981726 -0.0834657 0.018705297
000030 53 04 44 be 06 24 0d 3e b3 fc ed 3d c6 67 97 3c
       -0.19142275 0.13783273 0.11620464 0.0184821
000040 28 44 ab bd 1a f4 18 3e b2 f1 11 be a5 cb 81 3d
       -0.08362609 0.14936867 -0.14252356 0.0633767
000050 b2 0a 34 3e 66 73 6d 3e 92 ff 52 3a 8e a0 48 3c
       0.17582205 0.23188552 0.0008048947 0.0122453105
000060 a7 d1 26 3d fc 15 61 3d 18 0f 67 3d 7b 52 9a bc
       0.040727284 0.054952607 0.05641088 -0.018838158
000070 13 eb 00 be f8 cf ff bd 8c 43 06 be 39 67 97 bc
       -0.12589674 -0.12490839 -0.13111705 -0.018481838
000080 55 c7 fa 3d 95 60 17 bd 3a db 87 3d a3 67 a2 bd
       0.12245051 -0.036957342 0.06633611 -0.079299234
000090 fb 98 13 3e 61 05 99 3d 8b ae 72 bc af 1f 19 be
       0.14413826 0.07471729 -0.014812122 -0.14953493
0000a0 91 7d 86 bd 0b 51 63 3c d7 0e ea bc 7a cb bc bc
       -0.06566919 0.013874303 -0.02857153 -0.023046244
0000b0 c0 af 6f bd db 9c 1c bc a4 08 c8 3d bd de 07 bc
       -0.058517218 -0.009558882 0.09767273 -0.008292851
0000c0 84 2b fe bc c7 23 1b 3d 92 61 79 bd e6 b3 eb bd
       -0.03102661 0.037875917 -0.060884066 -0.11508922
0000d0 28 18 e2 3a 5e 33 53 bd 93 4c d1 bd 3d b8 69 3d
       0.0017249631 -0.05156266 -0.102196835 0.05706047
0000e0 b5 5e fb bd 7f af 27 be 8a 86 cf bd 7b c3 9a 3d
       -0.12273923 -0.1637554 -0.10133083 0.07556816
0000f0 f1 92 95 bd cc ee b5 3d 13 f7 9c bd 24 1b 07 3e
       -0.073034175 0.088834375 -0.07664313 0.13193947
000100 49 51 34 be 0c 63 02 be c1 40 05 3e 8c 22 c3 3b
       -0.17609133 -0.12733096 0.13012983 0.005955046
000110 52 d5 40 3e 53 c5 13 3d 9a 1c a9 bd a4 a1 a1 bb
       0.18831375 0.036076855 -0.082574084 -0.004932599
000120 77 2c 19 3e 46 e0 8e bc f3 f5 b1 3c 5d a7 48 3d
       0.14958368 -0.017440926 0.021723723 0.048987735
000130 d4 96 08 3d 88 82 98 bb fb d1 fa bd 8c dd 68 bd
       0.033346966 -0.0046542324 -0.12247082 -0.05685191
000140 9b ba 9d bc 95 77 c6 3d 7b 1d 75 3d 7c 53 04 be
       -0.01925402 0.09690777 0.059842568 -0.12922472
000150 e2 35 21 be a7 80 2b 3d 12 5a 26 be 7b 3c eb 3d
       -0.15743211 0.04187074 -0.16245297 0.11486145
000160 0a be ce bd 41 71 b7 bc f0 40 06 3e 81 4f 61 bd
       -0.10094841 -0.02239287 0.13110709 -0.05500746
000170 cb 42 e1 bd 8d dc 15 be 78 d0 3d bb 7a 6f d0 3c
       -0.10999068 -0.14634915 -0.0028963368 0.025443781
000180 d7 26 89 3d 3c a1 c3 3d 04 e3 1d be 02 c2 32 3e
       0.06696861 0.095522374 -0.15418631 0.1745682
000190 fa 6f b4 3d 00 d5 09 bd 41 51 32 3e 89 79 0d 3e
       0.0881042 -0.0336504 0.17413808 0.13815893
0001a0 90 43 1f be 03 61 a4 3d 15 50 2a 3e 82 2f 1e 3e
       -0.15553117 0.08026316 0.16632111 0.1544781
0001b0 2d 32 15 3d 23 4d 28 3c fe 25 e5 3c e5 dd 62 3d
       0.036424804 0.010272297 0.027972218 0.055387396
0001c0 54 c8 0e 3e 14 25 87 bd 34 00 1e 3e f2 57 05 be
       0.13943607 -0.06598869 0.15429765 -0.1302183
0001d0 2d 4a a2 3d 3e a0 6a 3e 2e cb 90 3d 2a c4 fc 3d
       0.07924304 0.2291269 0.070700034 0.12342103
0001e0 5d 59 bf 3d e6 9f aa 3d 9a f2 36 3e d6 d1 43 3c
       0.093432166 0.083312795 0.17865983 0.011951884
0001f0 af 5b 40 bd fd 03 aa 3d de ff fd bd 13 d9 fa 3d
       -0.046962436 0.08301542 -0.124023184 0.12248435

weight_ih_l0 f4 [128, 2]
000000 8b 14 39 3e f5 bd ad 3e ac 72 8e 3e 2f c8 48 3c
       0.18074243 0.33933988 0.27821863 0.012254759
000010 5b f4 8a bd af 1d 18 3d 10 12 39 be 9e 56 b3 bd
       -0.06784888 0.037137683 -0.18073297 -0.08756755
000020 d4 6c 07 3c 8b b6 54 be af be 45 be 49 51 0a 3f
       0.008265693 -0.2077276 -0.19311021 0.5403028
000030 b1 94 18 3e 38 66 26 bf 4a 02 04 be 33 bd 0d bc
       0.14900471 -0.64999723 -0.12891498 -0.008651066
000040 da fc a9 bd cd e1 b0 be b1 ce 3a be 00 a1 f6 3e
       -0.08300181 -0.34547272 -0.18242909 0.48169708
000050 5b e6 ed be e5 e6 3c bf b4 b1 48 3f 93 8a ec bd
       -0.4646481 -0.7378982 0.78396153 -0.115498684
000060 bb 77 12 3f 33 ea 87 3e e5 a6 52 bf 79 a8 31 bf
       0.57213944 0.26545867 -0.8228591 -0.69397694
000070 b1 50 03 3f 74 6f ce 3d 72 90 d4 3d ac f4 46 3f
       0.51295 0.10079852 0.10379113 0.7771709
000080 7a e2 78 3d b4 05 9c ba fa 3e 8a 3d 94 8d 5c 3e
       0.06076286 -0.0011903555 0.06750293 0.21538383
000090 1f d5 0f bf 84 b1 bc be 10 54 88 3f 6b 44 55 3f
       -0.5618457 -0.36854184 1.0650654 0.8330752
0000a0 1f 67 0c be 02 dd b9 be d3 51 5c be 8e 8e 84 be
       -0.13711213 -0.36301428 -0.21515588 -0.2589001
0000b0 74 63 e4 be 32 18 45 be 17 5d 47 bf 63 b3 d0 bb
       -0.44607127 -0.19247511 -0.7787642 -0.006369041
0000c0 ec dc 85 3e 10 76 a5 3d e8 2a 41 bf 79 15 a1 be
       0.26145113 0.08079159 -0.75456095 -0.31461695
0000d0 ee f2 aa 3e 21 aa b0 3d 5f 03 3f be fc 29 68 3e
       0.33388466 0.086261995 -0.1865363 0.22672266
0000e0 3b 22 77 bf 15 1e 81 be 52 db 02 bd ac d8 3f be
       -0.96536607 -0.25218263 -0.03194744 -0.18734998
0000f0 e1 ac ec 3e fc 4c cb bd 75 68 c9 be 0a 81 22 be
       0.46225646 -0.09926793 -0.39337507 -0.15869537
000100 2e 17 7d be 7a 5c 26 be 0a 22 36 3f e7 d6 99 3e
       -0.24715874 -0.16246215 0.7114569 0.3004677
000110 18 31 a9 3e a2 a9 a0 3d c8 6f 15 bf 44 e0 4e 3d
       0.33045268 0.07844855 -0.5837369 0.050506845
000120 8e 76 83 3e 5a 42 85 be 73 91 c5 bd 2c ee 82 3e
       0.25676388 -0.26027185 -0.09646883 0.25572336
000130 6c 42 4d be aa 95 a8 3d 7d 21 3a 3e 65 49 a1 3d
       -0.20044869 0.08231671 0.18176837 0.07875327
000140 cf 04 83 3e 98 86 1a 3e 60 8b e3 be b0 40 47 3f
       0.25589606 0.15090406 -0.44442272 0.7783308
000150 40 70 3a be c1 5f c0 3c 25 0c 99 be ca b2 61 bd
       -0.18206882 0.023483159 -0.29892078 -0.055102147
000160 23 71 a4 3e ee 17 cc 3e b6 67 10 be 58 82 cc be
       0.32117566 0.39862007 -0.14102063 -0.39943194
000170 bd 9e 7c 3f 97 a3 f8 3d 53 0b 1c 3f f3 71 b5 bc
       0.98679715 0.12140577 0.6095478 -0.022149062
000180 dc e8 67 bf ad e0 98 bd af d0 a6 bd eb 0f 12 3e
       -0.9058969 -0.074647285 -0.08145272 0.14263885
000190 d0 73 87 3e 08 5f 59 3e fb b5 0c bf ec 3b 91 be
       0.26455545 0.21227658 -0.5496518 -0.2836603
0001a0 2f dd a0 3f 26 aa 28 3e c5 7d 41 3f 79 e0 83 3e
       1.25675 0.16471156 0.75582534 0.25757197
0001b0 59 82 99 3e 11 19 52 3d 8e d0 dd be 4e c8 39 be
       0.2998226 0.051293436 -0.43323177 -0.18142816
0001c0 4c 9e a9 be d1 58 a5 bd 84 d3 b7 3d 70 1f 6f 3d
       -0.33128583 -0.08073581 0.0897589 0.05837959
0001d0 9f 13 e9 3e a7 56 6a be 3d 4d 02 bf ad 2c 04 3f
       0.45522782 -0.22884618 -0.50899106 0.5163067
0001e0 6e c9 a5 3d 5c 02 a7 bd 51 e6 49 3e 48 fb 9e 3d
       0.0809506 -0.08154747 0.19716765 0.07762772
0001f0 97 1c 32 bd 53 b1 8a be c0 0e fe 3a a2 74 f8 be
       -0.043484297 -0.27088413 0.0019383058 -0.48526484
000200 6f 67 86 bd f0 af 21 3e 52 ff 67 be 9a f4 ad be
       -0.06562697 0.15789771 -0.2265599 -0.3397568
000210 3a 41 be be 33 28 36 be 2f 05 aa bd 71 c4 82 bd
       -0.3715914 -0.17788772 -0.0830177 -0.063851245
000220 a6 44 4f be 15 bf df bd cd ec c9 3c 53 4d fc bd
       -0.20241031 -0.10925118 0.024649048 -0.12319436
000230 a7 5d ea 3b 76 bb 11 be 4d 46 c7 3d eb 5f e6 bd
       0.0071522775 -0.14231667 0.09730206 -0.11248764
000240 27 ea 3e 3e 92 78 f5 3d 11 3f b3 bd a4 75 cc 3e
       0.1864401 0.119858876 -0.08752263 0.39933503
000250 36 6d 26 3e 3f 92 bd 3e 61 26 b4 be 1b 16 d7 bd
       0.16252598 0.3702564 -0.3518553 -0.10502263
000260 a8 63 f3 bd 2d be 11 be 3f b9 62 3e 26 a2 7d 3e
       -0.11884242 -0.14232703 0.22140978 0.24768886
000270 90 9c cd be e9 43 cf be 47 33 49 be cb 92 9e 3e
       -0.4015851 -0.404815 -0.19648467 0.3097137
000280 d6 23 c5 3d 88 18 70 3e 2c 6a 82 bc 1e 9c 2b 3e
       0.09625976 0.23446858 -0.015919767 0.16758773
000290 1d cb 9a be d3 79 11 3e 60 10 a0 3d 51 70 c3 3d
       -0.30233088 0.14206629 0.07815623 0.09542907
0002a0 39 ef 4c 3d 4e 6c db bb f8 3d b9 be 8a 78 95 3d
       0.050032828 -0.0066962605 -0.3618009 0.072983816
0002b0 be 60 93 be 37 b2 2d be 6c 38 a9 3d bb f8 ed 3d
       -0.28784746 -0.16962515 0.08262715 0.11619707
0002c0 d4 c3 1e 3e 5b 4f ef 3e 90 14 28 3f c9 65 96 3e
       0.1550439 0.4674023 0.65656376 0.2937453
0002d0 4b 4f 7f be 78 5d 27 3e f9 43 66 3e d2 97 f5 be
       -0.24932592 0.16344249 0.22486867 -0.47967392
0002e0 13 61 4b be 93 4d 02 3c 3f 75 24 3e 7b 81 6a 3e
       -0.1986125 0.007953065 0.16060351 0.22900955
0002f0 e0 44 96 bd 7d 28 8f bd 4e 23 02 be f4 ca ce 3d
       -0.073373556 -0.069901444 -0.1270878 0.10097304
000300 c7 28 d5 bd 74 d1 50 3d 8c 45 2e 3f a7 de 0c 3e
       -0.10408168 0.050981 0.6807487 0.1375681
000310 89 76 da 3d da 28 28 be e9 23 5d be cb 14 9f bd
       0.1066714 -0.16421834 -0.2159573 -0.07767638
000320 97 1b b1 bd 8d 43 d1 be b6 d5 94 bd ac 9c fa 3d
       -0.086478405 -0.4087185 -0.072673246 0.12236914
000330 54 46 a6 bd 7f a0 11 bf 25 ea d3 bd ac 2d 4a be
       -0.08118883 -0.5688552 -0.10347394 -0.19743985
000340 0a ac 94 3e 2b 13 23 3e 84 9b c0 be 9a 61 8d 3d
       0.29037505 0.15925281 -0.3761865 0.06903382
000350 fb 25 3e bd b8 bc 1f be 45 02 bf 3e e5 b1 52 be
       -0.04642294 -0.15599334 0.3730642 -0.20575674
000360 c1 47 2c 3f 90 c2 50 3e 43 38 64 be 6a a5 ac be
       0.6729699 0.2038672 -0.22287087 -0.3371995
000370 c0 d2 44 3f 69 94 01 3e c5 fc 1e be 9d cd 11 3f
       0.7688408 0.1265427 -0.15526111 0.56954366
000380 2b 4e af be 86 b4 ad bd 20 51 46 bd b4 3e 26 3d
       -0.34239325 -0.08481698 -0.04841721 0.040587142
000390 08 06 d2 bd 1d 92 84 be e0 77 df 3e a6 f2 50 3e
       -0.102550566 -0.25892726 0.43646145 0.20405063
0003a0 3d 92 d1 3e 97 4c 55 3e 93 29 29 3e d4 33 26 3b
       0.40931883 0.20829998 0.16519766 0.0025360482
0003b0 78 4e a0 3e f7 85 58 bd 93 37 e1 be b9 a0 79 be
       0.31309867 -0.052862134 -0.43987712 -0.24377717
0003c0 cb 63 15 3d a6 4a 60 3e d1 f7 51 be 37 14 93 be
       0.036472123 0.21903476 -0.2050469 -0.2872636
0003d0 b9 9f 09 3f 28 39 aa be 06 8a 23 bf 60 3e 28 3f
       0.5375934 -0.33246732 -0.6388248 0.65720177
0003e0 cf 66 be be f8 7e 15 be 19 51 02 bc 98 8d 55 be
       -0.37187812 -0.14599216 -0.0079539055 -0.20854795
0003f0 8c 83 43 3e 9a 20 18 bd 90 6d 00 bc f8 94 a0 be
       0.1909315 -0.037140466 -0.007838622 -0.31363654

weight_hh_l0 f4 [128, 32]
000000 0d d3 c1 bd cb d5 34 3d c1 7f 88 be 3a 00 26 3d
       -0.09464083 0.0441492 -0.26659968 0.04052756
000010 04 bc 76 3d af c8 32 3e ed 8c 99 bd 7e fd 73 bd
       0.0602379 0.17459367 -0.074975826 -0.05956792
000020 ec c7 c8 bd 0d 90 5c bd ed 28 55 3e 03 97 52 3e
       -0.09803757 -0.053848315 0.20816393 0.20565419
000030 c4 5d 09 3e b4 3a 9e 3e 55 dd 4f bc 25 24 5d 3e
       0.13414675 0.30904162 -0.012687047 0.2159582
000040 ec 01 2b 3d c3 50 0c be 07 1a ce 3c 70 07 95 3d
       0.04174988 -0.13702683 0.025158895 0.07276809
000050 c8 f3 52 3c e0 f2 f3 bd 1a c0 2e be b4 3a c0 3d
       0.012875505 -0.11911559 -0.17065468 0.09386197
000060 2f 3a 5b be e2 08 78 3e e6 c0 92 be 88 d9 55 3e
       -0.21408914 0.24222139 -0.28662795 0.20883763
000070 07 1a 11 3d 35 52 60 be ba 89 2a bd 08 e2 b9 3d
       0.035425212 -0.2190636 -0.041635253 0.09076315
000080 e8 46 fb bd 11 04 ff 3b 58 e8 48 3e 84 eb eb bd
       -0.12269384 0.007782467 0.19619882 -0.115195304
000090 f5 03 8a 3d 05 35 2f 3e 2e c7 14 be e9 f6 0c bd
       0.06739036 0.17110069 -0.14529106 -0.03441516
0000a0 0f 56 dd bd 08 cf 84 3d 1d a8 e9 bd ae d8 80 be
       -0.1080743 0.064848006 -0.11409018 -0.25165313
0000b0 36 53 6e 3e a0 99 c2 bd 30 91 9e 3d 64 0d ac 3d
       0.2327393 -0.09501958 0.07742536 0.084009916
0000c0 b9 13 13 3d 2a 3b 21 bd c8 3b 35 bc 07 14 9d 3d
       0.03590748 -0.039363064 -0.011061616 0.076698355
0000d0 70 fa 97 3e bb 82 8d be 4c ca 4c 3d cd f4 5c 3e
       0.29683256 -0.27638802 0.049997613 0.21577759
0000e0 48 cf ba 3c 55 78 89 bd 8c 4b 1c 3e 09 fe 06 be
       0.022803918 -0.06712405 0.15263194 -0.13182844
0000f0 42 59 50 bd ca 4f 7b 3d 17 12 53 3d 56 ad aa bd
       -0.050866373 0.06135539 0.051530924 -0.083338425
000100 83 75 21 be de 3b 14 3e a4 c6 51 3d fc c9 1d be
       -0.15767483 0.14475963 0.05121483 -0.15409082
000110 22 77 36 bd c2 2d ad 3d 45 92 93 3c 28 2c 8b 3d
       -0.044547208 0.08455993 0.018014083 0.067955315
000120 44 5f 66 be af 05 7a be 11 17 93 3b 2e 58 f3 bd
       -0.22497278 -0.2441623 0.0044888337 -0.11882053
000130 99 8c 11 bd 77 b1 41 3e af 82 8b 3d 02 7b 0e be
       -0.035534475 0.18915354 0.06812035 -0.13914111
000140 b2 16 36 bd bb 7f 54 bd b1 c7 87 be b9 76 91 be
       -0.044455238 -0.051879626 -0.2651954 -0.2841089
000150 da 70 7d 3c 14 3a 3e be af 91 6f be 38 77 9a 3e
       0.0154688 -0.18576843 -0.23395418 0.30169082
000160 68 58 a5 be 33 11 83 3d 4c 57 c4 bd 88 6f 9d bd
       -0.3229401 0.06399765 -0.09586963 -0.076872885
000170 e7 e7 40 3d d7 97 96 3c 01 8a 38 3e 33 75 90 be
       0.04709616 0.01838295 0.18021394 -0.28214416
000180 5c 7d bd 3d ac df 84 3d 5a 79 74 3b 68 21 ea bd
       0.09252426 0.064879745 0.0037303776 -0.11432153
000190 7c 40 af 3d f4 cd 5d 3e 59 7d 2e 3e f2 ad 33 3e
       0.08557221 0.21660596 0.17040004 0.17546824
0001a0 d1 08 f6 3d 65 ed 85 3c 5e 1d 0b 3e 96 e1 36 bd
       0.120134 0.01634855 0.13585421 -0.04464873
0001b0 d0 6e 6f bd 87 f2 46 bc 1b 2d 97 3d 9b 3d 7d be
       -0.05845529 -0.012142784 0.0738165 -0.24730532
0001c0 b5 54 80 be d8 b4 3f be 9c ec 0c be d4 9e 84 be
       -0.25064626 -0.1872133 -0.13762134 -0.25902426
0001d0 72 16 f3 3c 49 58 f6 3c d5 b5 c1 bd 92 4d 1a 3d
       0.029673789 0.030071395 -0.0945851 0.037671633
0001e0 a0 22 19 be 61 e8 7e 3e 6a d8 f2 bd 7e 1e b6 bc
       -0.14954615 0.24893333 -0.11857684 -0.022231337
0001f0 43 f7 96 3e 3f d0 51 bd 0d e7 82 3e ac 41 8c be
       0.2948552 -0.05122399 0.25566903 -0.27393854
000200 34 b0 90 bd a0 c6 5d 3e 76 93 68 3c af 49 7d 3c
       -0.07064858 0.216578 0.014195314 0.015459462
000210 53 94 28 3e ab 8f a4 3e b5 fc c0 3d 18 41 c9 3b
       0.16462831 0.3214086 0.094232 0.006141793
000220 63 52 a1 bd e1 5c 08 3d 03 0f 3f bd 3f 15 d2 bd
       -0.07877042 0.0332917 -0.046645176 -0.102579586
000230 98 38 08 bc ea 32 3d 3d fd ba 2c 3e 1d c4 88 be
       -0.008314274 0.046191134 0.16868205 -0.26712123
000240 81 6e 82 be 03 21 a9 bd c8 ba c0 bd 09 45 ee bd
       -0.25474933 -0.082582496 -0.09410626 -0.11634261
000250 70 d9 72 3e 53 01 f0 3c 2a 5f dc 3c d1 65 0e bd
       0.23715758 0.029297506 0.026900847 -0.03476507
000260 aa ef 70 be 49 64 58 3d 51 59 21 be fd ab 3f 3d
       -0.23528925 0.052830014 -0.15756728 0.04679488
000270 fa 6c bb 3c 6b 26 ae 3d 4e 5f 50 3e 1b e3 0c be
       0.022879113 0.085034214 0.20348856 -0.13758509
000280 93 44 84 be 22 29 3b 3e e5 ba 2a be 04 52 77 be
       -0.25833568 0.1827741 -0.16672857 -0.2415238
000290 01 39 f1 3d 13 e7 42 3e 71 2c 76 be 92 3c 9d 3e
       0.11778451 0.1903346 -0.2404039 0.30710274
0002a0 9f 84 36 be 74 99 42 be c6 34 65 3e 24 37 a1 3d
       -0.17824028 -0.1900385 0.22383413 0.07871845
0002b0 f4 4b 9d 3d b2 6d ba bb 1d 41 2a 3e e7 57 54 3d
       0.076805025 -0.005689346 0.16626401 0.051841643
0002c0 05 04 58 be 1b d3 2e 3e 86 ba 2c be 70 42 23 be
       -0.21095283 0.17072718 -0.16868028 -0.15943313
0002d0 a3 94 08 3e cb 27 69 be d3 3a de be d2 24 0c 3e
       0.1333795 -0.22769086 -0.43404254 0.13685921
0002e0 a0 b7 00 be 27 b3 d8 3e 6e 8f 00 3e 3f 2b 4e bc
       -0.12570047 0.42324182 0.12554714 -0.012583553
0002f0 15 9c a8 3d aa 4a bf be 6c 9c c8 3e 31 28 7e be
       0.08232895 -0.37361652 0.3918184 -0.2482002
000300 f2 1b 08 3e 07 0a a9 3d 51 f4 5e 3c f1 ad 05 be
       0.1329191 0.08253866 0.013608054 -0.13054635
000310 d0 b0 98 3e 3d 93 05 bd 52 fa 2b be 04 3d 34 3e
       0.29822397 -0.03261112 -0.16794708 0.176014
000320 e6 09 70 be c0 63 c9 3c 2d 5a dd 3d db d0 61 3c
       -0.23441276 0.024583697 0.10808215 0.013782705
000330 75 cb 94 3c e0 cb 29 3e 25 95 0a be db 44 c1 be
       0.018163422 0.16581678 -0.13533457 -0.37747845
000340 d9 bc 2a be 43 7d 95 be 3b dd 53 3d bd 03 eb bd
       -0.16673602 -0.2919713 0.051724654 -0.114753224
000350 97 cf 63 3e 16 2b 17 3d b6 a6 4c be 8b 8c 8a 3e
       0.22247158 0.036906324 -0.1998547 0.2706035
000360 f3 14 1e bc 8a 43 1b 3e 56 f5 c9 bd 22 8e 2a 3d
       -0.009648549 0.15162483 -0.09861247 0.041639455
000370 c5 58 10 3e 35 6d 2f be 43 00 17 bc 11 27 1d be
       0.14096363 -0.17131503 -0.009216371 -0.15346934
000380 03 33 00 be 0f 4c e1 3e 63 70 d3 3c c2 6d ce bd
       -0.1251946 0.4400334 0.025810426 -0.100795284
000390 e1 e5 81 3e ae 12 4c 3d 05 b8 f0 bb bd 10 56 3e
       0.25370696 0.0498225 -0.0073461556 0.20904823
0003a0 37 b0 7b be 0d 21 a2 be 0b 27 84 3c 3e d0 1c 3e
       -0.2457894 -0.3166584 0.016131898 0.15313813
0003b0 90 14 a2 3d 1d da 19 be b1 15 29 3e 5c d3 8a be
       0.07914078 -0.1502461 0.16512181 -0.2711438
0003c0 5d 90 6d bc 01 c6 a0 bd f4 35 d4 be 93 9c af bd
       -0.014499751 -0.07850266 -0.41447413 -0.08574786
0003d0 90 a7 a2 3e 7e 94 65 be 35 81 d0 be ac 3d e0 bb
       0.31768465 -0.22419927 -0.40723577 -0.0068432894
0003e0 86 d3 bc bd 74 89 f0 3c 66 99 5b 3d 5c 88 0c 3e
       -0.092200324 0.029362418 0.05361309 0.13723892
0003f0 70 35 d3 3c 15 78 5c bc c8 d4 9a 3e 31 a6 2c be
       0.025782317 -0.013456364 0.30240464 -0.16860272

bias_ih_l0 f4 [128]
000000 8d 84 39 3a c9 1d 5f bd 8a cd 32 3e 9f 77 04 3e
       0.00070769415 -0.054471765 0.1746122 0.12936257
000010 5c c8 14 3d c9 85 84 3e 1b 48 70 3e a7 db ce bb
       0.03632389 0.2588332 0.23465006 -0.0063128057
000020 90 ba 5c 3d 0d 16 2e 3e 1b de 26 bd 95 32 04 be
       0.053888857 0.17000599 -0.04073916 -0.1290992
000030 05 01 f3 3d 89 44 a6 3e 2c ca f3 bd ca c7 ac 3e
       0.11865429 0.32474163 -0.119037956 0.33746177
000040 d2 06 9d 3d bc a0 34 3e 64 a1 61 3e 39 38 a0 3d
       0.076673165 0.1763944 0.22034222 0.078232236
000050 dd 89 5d 3e 1c 28 c2 bc d7 98 df bd d3 ec 4e 3c
       0.21634622 -0.023700766 -0.10917824 0.0126297055
000060 ef da b5 3a bd ce bc 3d e8 7e 8d 3d f8 ef da 3d
       0.0013874451 0.0921912 0.06908971 0.10690302
000070 63 d1 2c 3e a1 3a 52 3e ba 09 55 3e fe 57 df 3c
       0.1687675 0.20530178 0.20804492 0.027263638
000080 3c 83 65 3e 67 15 74 bd 71 d8 88 bc 86 f3 81 bd
       0.22413343 -0.059590723 -0.01670477 -0.063452765
000090 b1 26 e5 bc ae 57 2c 3e cf 12 b7 3c bb b8 76 3e
       -0.027972551 0.16830322 0.022347836 0.24093907
0000a0 d8 cb 56 3e d6 ed 90 3e 35 05 01 3e f3 ed 30 3e
       0.20976198 0.28306454 0.12599643 0.1727827
0000b0 d2 d5 9c 3b 4d a3 a6 3e 34 22 4c 3e de d7 76 3e
       0.0047862316 0.32546464 0.19934922 0.24105784
0000c0 a5 41 d9 bd cc fd 64 3e 96 ec 39 3e 9d d4 80 3e
       -0.10608224 0.22362441 0.18156657 0.2516221
0000d0 2d c1 0e 3e 3a 57 df 3d 0e 1a 67 bd 42 52 a4 3d
       0.13940878 0.10905309 -0.056421332 0.08023502
0000e0 41 72 8d 3d 7e 75 5e 3e cb 9f c7 3d 0f a3 87 3e
       0.06906558 0.21724507 0.09747275 0.2649159
0000f0 a7 39 ba bd 72 35 f2 3d 66 36 ce 3c 21 a2 89 3d
       -0.090930276 0.118266 0.025172424 0.06720377
000100 1e 8e d1 bd c2 81 90 3d 9b 6e 92 3d d1 a0 21 be
       -0.10232185 0.07055999 0.071500026 -0.15784003
000110 d5 3e 75 bc 0e 9d dc 3c d5 cd 1b 3e 9e 4a 82 3c
       -0.014968594 0.026930358 0.15215237 0.01590472
000120 cc ae d5 3d ad 28 76 bd 32 19 0c 3e ee fa 4e 3d
       0.104337305 -0.060097385 0.13681486 0.050532274
000130 5c ac 66 3d 6f c1 ea 3c bb 5c 04 3e fe 5c 6b bd
       0.05631672 0.02865669 0.12925999 -0.05746173
000140 83 6c 16 be 18 36 82 bd e7 0a 15 3e 6e 6e be bd
       -0.14689831 -0.06357974 0.1455494 -0.092984065
000150 52 e4 80 3d e5 f4 34 be 06 23 9d bd 46 2a 34 3e
       0.06293549 -0.17671545 -0.07672696 0.17594251
000160 f0 58 ff bd 9a 19 87 bd 17 3e b9 3d e3 f0 bd bc
       -0.12468135 -0.0659668 0.09045046 -0.023186153
000170 7e a9 6a 3c dd a8 b1 bd 02 b4 fc bc 23 a1 a8 3d
       0.014322637 -0.08674786 -0.030847553 0.082338594
000180 8a bf 2a bd 25 16 5a 3e 60 c5 82 3e 9b 23 30 3e
       -0.041686572 0.2129751 0.2554121 0.17201082
000190 0d 2a 1c 3e 37 76 91 3e f7 d5 7b 3e 38 c3 ea 3d
       0.15250416 0.28410503 0.2459334 0.11463016
0001a0 ae e3 ff 3c e9 2e 82 3e 08 ca 0c 3e 29 e6 09 be
       0.031236496 0.25426415 0.13748944 -0.13466705
0001b0 6c 4c e1 3c 9c 9f f8 3e 7f 55 9d 3d c2 4d 93 3e
       0.027502261 0.48559272 0.07682323 0.28770262
0001c0 bf f7 cd 3d eb 07 99 bd 97 e7 07 3e f4 ca 29 3e
       0.100570194 -0.07472213 0.13271938 0.16581327
0001d0 c8 be b6 3d 83 bf 1a 3e 81 96 8f 3a 27 19 9c bc
       0.089231074 0.15112118 0.0010954888 -0.019054962
0001e0 b6 a0 80 3e c7 65 37 3e e6 fe 7a 3e a9 86 bf 3d
       0.25122613 0.17909919 0.24511299 0.09351856
0001f0 41 c5 b0 bd 48 54 84 3d 61 c8 16 3e b5 66 0a 3d
       -0.08631373 0.06461388 0.14724876 0.033789355

bias_hh_l0 f4 [128]
000000 df 42 6b 3e d8 ef 51 3e 69 a1 d6 3d 3d 12 22 bd
       0.22974728 0.2050165 0.10480005 -0.039568175
000010 b1 7c 05 3e 38 6a b1 3e 89 16 44 bc 94 3c c8 3d
       0.13035847 0.3465135 -0.011968263 0.09777179
000020 65 bf 07 3e ba f2 77 3e ea 42 28 3e 33 22 a3 3d
       0.13256605 0.24213687 0.16431776 0.07965507
000030 eb 1c f4 3d 99 05 ab 3e c6 c8 e1 3d 47 ee c6 3e
       0.11919578 0.33402708 0.110246226 0.38853666
000040 1d ee d1 3c 3e 36 c7 3d f2 38 05 3e a1 46 08 3d
       0.025626237 0.09727143 0.13010004 0.033270482
000050 8b b9 62 3e 20 95 af 3d 9c a6 3d 3e bc 3a 79 bd
       0.22141092 0.08573365 0.18520588 -0.06084703
000060 32 4a d8 bd f5 fe 13 3c 97 86 08 3d 88 c4 2f 3c
       -0.10561027 0.009032954 0.03333148 0.010728009
000070 d6 47 47 3e d4 04 6b 3e c0 af 89 3d 80 56 66 3d
       0.19460997 0.2295106 0.06722975 0.056234837
000080 d3 2a b8 3d 2b 4c 25 3e 1d 96 db 3d 68 c0 27 3d
       0.08992543 0.16142337 0.10721991 0.040954977
000090 e4 da 8f bc 07 69 bc 3a 9a 5a ce bd 58 d5 48 bd
       -0.01756043 0.0014374562 -0.100758746 -0.049031585
0000a0 ef 81 54 bd 82 bf d5 3d b3 f1 36 3d f9 45 89 3d
       -0.051881727 0.10436918 0.044664096 0.06702799
0000b0 2c ea 18 3e 59 57 ad 3e 2a bd 2f 3d c1 24 2b 3e
       0.1493308 0.33855703 0.04290501 0.16713239
0000c0 c7 2b 1e bd ed 63 15 bd 72 c3 15 3d 7d f8 83 3d
       -0.038615968 -0.03647225 0.036563344 0.0644388
0000d0 8d fa 06 3e 12 c9 03 3d 40 13 b5 3d 0f e9 89 bd
       0.13181515 0.032174177 0.08841562 -0.067339055
0000e0 3f 7d bf 3d 67 38 86 3e a8 54 06 3c ee 40 3c 3d
       0.09350061 0.26214907 0.008198895 0.04596036
0000f0 90 32 dc 3d c1 90 97 bd 09 42 c1 bd 02 04 7a 3e
       0.107518315 -0.074006565 -0.09436423 0.24415591
000100 9c a0 9d 3d 98 40 b5 3d 28 0d f0 bd 9a 4e ff bd
       0.076966494 0.08850211 -0.11721259 -0.12466164
000110 8d ba 6f 3d 06 84 32 be f6 2e 55 bd d9 9b 79 3c
       0.058527518 -0.17433175 -0.05204674 0.015234911
000120 6b 25 20 be 8c 76 26 3e c2 de 7c 3d 5b a6 21 3e
       -0.15639274 0.1625616 0.061735876 0.15786116
000130 53 ef 8e 3c 83 f3 cf 3d c1 d3 d9 3d ba f9 49 3d
       0.017448103 0.10153868 0.10636092 0.049310423
000140 a8 8f 6d bd 6b 5b dc 3d 18 f5 0c be 50 f5 a5 3b
       -0.05799833 0.10759624 -0.13765371 0.005064644
000150 00 14 e1 3d 82 44 0a be 4a b2 60 3d c0 96 e4 3d
       0.10990143 -0.13502696 0.05485753 0.11161566
000160 e7 eb 77 bd d9 53 20 3e 10 f5 e8 bd 9d fe e6 bb
       -0.06052771 0.15656985 -0.11374867 -0.0070493952
000170 79 a0 09 be 22 6a 00 be 01 d7 46 3e af 1e c7 bd
       -0.13440122 -0.12540486 0.19417955 -0.09722649
000180 c9 0a 64 3e 5f 7b 41 3e 69 88 1e 3e ed 23 c1 bd
       0.22269739 0.18894719 0.15481724 -0.094306804
000190 ff 60 a9 bc da 37 98 3e 6a 20 2f 3e 1d e0 40 3e
       -0.020676134 0.2973011 0.17102209 0.18835492
0001a0 c1 2f 98 3d e5 b2 88 3e 20 69 a9 3d 72 42 e9 bd
       0.07430983 0.26698986 0.08272004 -0.113896266
0001b0 2d ee 10 3d 28 83 b0 3e 08 fd 11 3e b8 91 c7 3e
       0.035383392 0.34475064 0.1425668 0.38978362
0001c0 70 a1 7e 3e b2 d4 85 bc e9 bf b6 bd e7 ba 1a 3e
       0.24866271 -0.016336773 -0.08923323 0.1511036
0001d0 18 96 93 3d 43 c9 1f bd 84 c5 f9 3d 31 13 89 3e
       0.072063625 -0.039010298 0.12195876 0.26772454
0001e0 7a 30 01 3e 1c 20 9c 3e 58 01 09 3d 45 ce 8e 3e
       0.12616149 0.30493248 0.033448547 0.27891746
0001f0 67 be 41 3e d4 f7 06 3e 90 99 93 3d 00 ba c9 3d
       0.18920289 0.13180476 0.07207024 0.0984993

weight_ih_l0_reverse f4 [128, 2]
000000 fe 1d 9a 3d 1c 97 de bd 6f 3d 09 3e b4 f5 57 3e
       0.07525252 -0.108686656 0.13402341 0.21089822
000010 3b 31 f4 bd e7 9f ae bd 4c 7a 85 3d 3e 23 79 be
       -0.119234525 -0.08526593 0.06517467 -0.2432985
000020 82 df 0d 3e f3 b1 45 3e ab 4a 5d be 42 41 3c be
       0.13854793 0.19306163 -0.21610515 -0.18384269
000030 f7 19 b5 3d 01 bc c8 3e fc 78 04 bd 39 fa 8e be
       0.08842843 0.39205936 -0.032341942 -0.2792528
000040 fd 04 e3 3c 10 62 6d be 61 43 bc bd d9 df 66 3d
       0.02771234 -0.23181939 -0.09192539 0.05636582
000050 41 bd 9b be e1 33 81 3e c5 93 0f 3e db 63 21 bd
       -0.30417827 0.25234893 0.14021213 -0.03940187
000060 0b 8b 70 be 89 39 01 3f 0b f4 57 be 95 3a 79 be
       -0.2349054 0.50478417 -0.21089189 -0.24338754
000070 f1 af 41 3e 67 ab 69 3d b7 36 38 be fd 08 33 3e
       0.18914773 0.057048228 -0.17989622 0.17483898
000080 f1 1d 73 bd 48 32 df 3d d3 6e 04 be a5 88 17 bd
       -0.059354726 0.10898262 -0.12932901 -0.03699555
000090 69 6e 52 be 28 39 b9 3c 48 73 61 bc db 59 50 3e
       -0.2054993 0.022610262 -0.013760395 0.20346777
0000a0 42 4d 88 bd cf ad 01 3f 2f f7 48 be e9 98 63 bc
       -0.06655361 0.50655836 -0.19625543 -0.013891437
0000b0 c0 42 33 be c0 e0 17 3e 5f 24 c0 3d c8 87 81 3c
       -0.17505932 0.14831829 0.09381937 0.015811816
0000c0 1e 44 d0 3c e2 81 34 bd 37 5b 2e be 4a 06 fc bd
       0.025423106 -0.04406918 -0.17026983 -0.12305887
0000d0 37 a7 6c 3e 09 7b 38 bd c8 85 09 be ad f3 b5 3d
       0.23110662 -0.04503921 -0.1342994 0.08884368
0000e0 f2 24 47 be 40 94 f3 3e 0c 3a b7 bd 2e fc 4d bb
       -0.19447687 0.47574043 -0.089466184 -0.0031430828
0000f0 9a 26 98 3e f7 c8 86 be e1 31 93 be 98 bc 5b be
       0.2971695 -0.263252 -0.28748992 -0.21458662
000100 cb b0 a3 bd 7e 88 0e 3e 2c 22 3b 3e 8a ca 1b 3e
       -0.07992705 0.13919255 0.18274754 0.15213981
000110 ba 61 04 be 41 04 24 3c 0a 75 11 be e1 3e 27 be
       -0.12927905 0.01001078 -0.14204803 -0.1633258
000120 07 53 8e 3d 7f 0e 56 3e bd d9 86 3d 5c 7a 98 3d
       0.0694943 0.20903967 0.06584499 0.07445213
000130 88 8f 15 be ac 21 cd 3e 9d a5 c3 3c fa e2 ff bc
       -0.14605534 0.40064752 0.023882682 -0.03123616
000140 27 77 b4 3d 19 cf c2 bd 53 28 36 3b 99 d2 d0 bd
       0.08811789 -0.09512157 0.0027795031 -0.10196418
000150 bb 10 90 3c 4d e0 14 bd d5 86 f4 3d cb 5d 8b bd
       0.017586103 -0.036346722 0.1193978 -0.06804999
000160 c0 d7 90 be c6 76 16 3f 4a 61 5b bd 9a 1e 56 be
       -0.28289604 0.58774984 -0.05355958 -0.20910111
000170 66 7d 0c 3e 52 63 95 bd bf 76 5e be 0d e9 e0 3c
       0.1371971 -0.072943345 -0.21724986 0.027454877
000180 6c b9 d3 3d 9d 4d 42 3d b3 f6 2b be 89 60 4d 3d
       0.10338101 0.0474373 -0.16793327 0.05014089
000190 33 be 56 be ae 44 17 3c 4f 58 4c be 72 3b 04 3e
       -0.20970993 0.009232683 -0.19955562 0.12913302
0001a0 83 1f 39 3d 17 84 fd 3e 5c 2e 9d bd 6a c3 92 bd
       0.045196068 0.4951484 -0.07674858 -0.071661785
0001b0 d9 43 75 3d 6c 50 36 be 67 d1 96 be 4b 2c cb 3c
       0.059879158 -0.17804116 -0.29456636 0.024801394
0001c0 31 4e fe 3d 24 26 34 be 49 cf 2e 3c c3 6e a3 be
       0.124172576 -0.17592674 0.010669538 -0.31920442
0001d0 03 de 98 3e 67 96 ea bc a8 7c e2 3c 90 24 4e be
       0.29856881 -0.02863617 0.027647331 -0.20131135
0001e0 0b 2c 96 be 6a 88 f2 3e 2f c9 f6 3d 91 09 41 3c
       -0.29330477 0.473697 0.120500915 0.011782066
0001f0 dd 0b a7 3e 0a 00 30 be a6 b6 86 bd c7 71 89 be
       0.32626238 -0.17187515 -0.06577806 -0.26844618
000200 77 35 10 be 77 04 36 be ef 49 4c 3e a6 c6 91 3e
       -0.14082895 -0.1777514 0.19950078 0.2847187
000210 08 1c f5 3c a0 8e 5b be 37 c8 17 be 9b f6 5c be
       0.029920593 -0.21441126 -0.1482247 -0.21578448
000220 96 15 4e 3d 0c 75 98 3e d4 2c 5d bd c8 46 80 3e
       0.050313555 0.297768 -0.05399783 0.25054002
000230 68 4a 9d 3d 45 84 87 be 95 49 5c be 03 7b 72 3e
       0.076802075 -0.264681 -0.21512444 0.23679738
000240 4a 47 32 be 22 4e 3b bc 11 51 d0 bd 20 36 84 3e
       -0.17410007 -0.0114322025 -0.10171712 0.25822544
000250 32 8d 6a 3e fa 8b 4c be ab 5f c0 3e ff 17 f8 bd
       0.22905424 -0.19975272 0.3757299 -0.12113952
000260 7c d8 81 3e 65 0f 53 be 4a 80 d2 3e 43 0f 4c bd
       0.25360477 -0.20611341 0.41113502 -0.049819242
000270 59 26 80 be 2a 02 2b 3c 88 61 69 bd eb c3 80 3e
       -0.25029257 0.010437528 -0.05697778 0.25149474
000280 cf df 6a 3d ef f0 1d 3e de 9c 4e bc 8b da b0 3e
       0.057342347 0.1542394 -0.012610642 0.34541735
000290 46 b0 f2 3d ff 5c af bc e6 51 85 be 3b 55 36 be
       0.11850028 -0.021406649 -0.26039046 -0.1780595
0002a0 33 6c 78 be 3b a5 2a be c0 4e 94 3e 92 23 40 be
       -0.24260025 -0.16664593 0.2896633 -0.18763569
0002b0 1b 0c 65 be 53 82 36 3e ff 0b 13 3e c7 ef 80 3e
       -0.22367899 0.17823152 0.14360045 0.25182936
0002c0 71 8c 41 be 02 8c 9b 3e ce 19 a5 3e 44 72 52 3d
       -0.1890123 0.30380255 0.3224625 0.051378503
0002d0 0a 6d de be 6b 7d 23 3e 85 d0 40 3e 68 e0 a4 be
       -0.43442565 0.15965812 0.18829544 -0.32202458
0002e0 7e 99 e0 be a4 10 92 3e 93 07 dc 3d 78 8a 0b 3e
       -0.43867105 0.2852832 0.10743632 0.1362704
0002f0 cf d4 b9 3e 0b 50 9b be 58 69 93 3e ea 1f 0d 3e
       0.36295173 -0.30334505 0.28791308 0.13781705
000300 99 a8 39 3e e7 c4 c8 bc 89 fd 4b 3e 74 f7 6f 3e
       0.18130721 -0.024507953 0.19920935 0.2343424
000310 23 91 d0 bb a4 fb 4e be 87 32 e8 bd dd d4 63 be
       -0.006364958 -0.20213181 -0.11337762 -0.2224917
000320 9a b4 63 3d 35 6e 8a 3e 02 5c 59 be 18 92 4b be
       0.055592157 0.27037206 -0.21226504 -0.19879949
000330 95 ac 13 be c9 b3 a4 3e f9 40 d9 3d 7e de 7a be
       -0.14421304 0.32168415 0.10608096 -0.24498937
000340 e7 1b 94 bd 51 86 f3 bd d7 97 71 3a 4d c8 16 be
       -0.072318844 -0.11890853 0.00092160463 -0.14724846
000350 fb 82 0f 3d 12 10 00 be 19 77 3b 3e 9f 94 34 be
       0.035037022 -0.1250613 0.18307151 -0.1763482
000360 e3 e6 3f bc 06 da aa 3e bf 7f 3f bd 67 60 06 be
       -0.0117127625 0.33369464 -0.046752688 -0.13122712
000370 b2 91 56 3e 10 55 71 bd af 77 8e be 97 46 1f be
       0.20954016 -0.058919013 -0.27825686 -0.15554272
000380 c0 7b 45 3e d5 b6 02 3e 4c 73 bc bd 25 ad c7 bd
       0.19285488 0.12765057 -0.09201679 -0.097498216
000390 76 96 70 be 75 36 95 bc ec f8 ab be bd 23 12 3e
       -0.23494896 -0.018214444 -0.3358835 0.14271446
0003a0 c4 79 2e bd 44 c2 a7 3e 99 9a 3f be 0b 25 ba 3d
       -0.042596593 0.327654 -0.18711318 0.09089097
0003b0 f2 9a e1 bd 5b 63 2c be 49 dd f6 bd 2e 4f 22 bc
       -0.110158816 -0.16834776 -0.120539255 -0.009906573
0003c0 02 44 1b 3e 00 30 f2 3c 02 9d 47 3e 2c 7b 75 be
       0.15162662 0.029563904 0.19493487 -0.23972768
0003d0 59 b2 f5 bd 48 89 df 3b fb 6f 9d 3d 33 82 dd 3d
       -0.11996908 0.006821785 0.07687374 0.10815849
0003e0 22 7e d0 3d e8 ee 2d 3e 38 71 8c bd 14 28 84 be
       0.10180308 0.16985667 -0.06857532 -0.25811827
0003f0 fc 84 a3 3d c6 e9 1f be eb dc a3 be e6 fa 92 be
       0.07984349 -0.15616521 -0.32004485 -0.28707045
