sgan-dataset/logs/zara2/models_04_Mar_2019_00_49_31/model_registrar-599.pt (torch_old, 575433 bytes, 45 tensors)

weight_ih_l0 f4 [128, 6]
0	0xbe3ca2d1	-0.18421485
1	0xbd71ccb7	-0.059033122
2	0xbe106bad	-0.14103575
3	0xbd184710	-0.037177145
4	0xbdf446ba	-0.119275525
5	0x3e4ae523	0.19813971
6	0xbe52f221	-0.20600177
7	0xbe4e720a	-0.2016069
8	0xbdbda935	-0.09260789
9	0xbc9b7d43	-0.018980628
10	0xbc5d4edf	-0.013507574
11	0xbca44eba	-0.020057071
12	0xbe14be3d	-0.14525695
13	0xbde79941	-0.11308528
14	0xbdaf6838	-0.085648
15	0xbdc5ce72	-0.09658517
16	0xbe103ffb	-0.14086907
17	0x3e24deea	0.1610066
18	0xbdab7681	-0.08372212
19	0x3d26e285	0.04074337
20	0x3df110d8	0.11770791
21	0xbd0452da	-0.032305576
22	0xbd84739c	-0.06467363
23	0x3e5cb13c	0.21551985
24	0xbd9763f5	-0.07392112
25	0x3d5e95da	0.05434213
26	0xbe3b3662	-0.18282464
27	0x3dfc71b1	0.123263724
28	0x3e2a6c1d	0.16642804
29	0xbe181936	-0.14853367
30	0x3e2afb43	0.16697411
31	0x3da30dba	0.079616025
32	0x3d0fdea1	0.035124425
33	0x3df80d02	0.12111856
34	0x3ddc6b75	0.10762683
35	0x3c9aa380	0.018876791
36	0xbe2658c1	-0.16244794
37	0xbd9e64f0	-0.07734096
38	0xbe5d9c09	-0.21641554
39	0x3d86bc24	0.06578854
40	0x3c309a15	0.0107789235
41	0xbdc77897	-0.097397976
42	0x3b9bfc37	0.004760291
43	0x3e3b6427	0.18299924
44	0xbe2fef81	-0.17181207
45	0x3c4dcb3a	0.01256066
46	0xbe122e41	-0.14275457
47	0x3db1fb92	0.08690561
48	0x3e1f33ca	0.155471
49	0x3ddf8a05	0.10914997
50	0x3df23c22	0.11827876
51	0x3db0edbd	0.08639095
52	0x3b594eb5	0.0033158485
53	0x3d9d875c	0.076918334
54	0xbe1461b8	-0.14490402
55	0xbe678c68	-0.22612154
56	0xbe3c68a3	-0.1839929
57	0x3d97c6d4	0.0741097
58	0xbc88b70b	-0.016688844
59	0xbe1c0f64	-0.15240246
60	0x3c95a00c	0.018264793
61	0x3e104c53	0.14091615
62	0xbe3eb5b8	-0.18624008
63	0xbe4211b9	-0.18952073
64	0xbd97ae5b	-0.074063025
65	0x3daeb3bf	0.085303776
66	0xbd5d77f0	-0.05406946
67	0xbca16623	-0.019702023
68	0xbddc83c2	-0.10767318
69	0x3deb8662	0.11500241
70	0x3e116ee0	0.14202452
71	0x3de6497a	0.11244483
72	0xbe254327	-0.16138898
73	0xbe22f1ae	-0.15912506
74	0x3dcdccde	0.10048841
75	0x3c3af3e4	0.011410687
76	0x3dae9444	0.08524373
77	0xbe516839	-0.20449914
78	0xbd1f0f6a	-0.03883306
79	0x3dd44c72	0.10366143
80	0x3e41fb3f	0.18943499
81	0xbd130e9f	-0.035902616
82	0xbdaa54ef	-0.08316981
83	0xb985d8d7	-0.00025529295
84	0xbe1e667e	-0.15468785
85	0xbdd1e48c	-0.1024867
86	0xbe0af364	-0.13569409
87	0x3e714784	0.23562437
88	0xbd8dbb8a	-0.06920536
89	0x3d10c846	0.035347246
90	0xbdec8384	-0.11548522
91	0x3e2327d5	0.15933163
92	0x3e019b4f	0.12656902
93	0x3ea2ebc1	0.3182049
94	0x3c8a3653	0.016871607
95	0xbc759207	-0.014988429
96	0x3e198dfc	0.14995569
97	0x3dca848a	0.09888561
98	0x3cdaea19	0.026722955
99	0xbb407391	-0.0029365758
100	0x3e113f68	0.14184344
101	0xbe039f67	-0.12853776
102	0xbd136f82	-0.035995014
103	0xbe140704	-0.14455801
104	0x3db2245b	0.086983405
105	0xbdc24ebf	-0.09487676
106	0xbd5540af	-0.05206364
107	0x3e3e85c5	0.18605717
108	0x3dc5b9f2	0.09654607
109	0x3c9070e0	0.017631948
110	0x3d436df5	0.047712285
111	0xbb52105a	-0.0032053203
112	0x3dc262be	0.0949149
113	0xbdaa7c75	-0.083245195
114	0xba95acc9	-0.0011419292
115	0x3d31ba7b	0.043390732
116	0xbe502d6d	-0.20329829
117	0x3da5514e	0.08072148
118	0x3decb3d2	0.115577355
119	0x3e60fc8d	0.2197134
120	0xbda09e77	-0.07842725
121	0x3d32601e	0.043548696
122	0x3e63d40b	0.22248857
123	0xbcfa2d2f	-0.030539123
124	0x3e00e8c7	0.12588798
125	0xbda45b45	-0.08025221
126	0xbd8128b0	-0.06306589
127	0xbcbbfa34	-0.022946455
128	0x3d86af05	0.06576351
129	0x3e1363e4	0.14393574
130	0xbe62357a	-0.22090712
131	0x3e5ae3b6	0.21375927
132	0xbcbec40a	-0.023286838
133	0xbe239053	-0.15973024
134	0xbda79996	-0.08183591
135	0xbdbfb5e3	-0.09360864
136	0x3de3657b	0.1110334
137	0x3d00d31e	0.031451337
138	0xbc823f74	-0.015899397
139	0xbdb59ca4	-0.088677675
140	0xbda15b35	-0.078787245
141	0xbc093631	-0.008374737
142	0x3da2d4e4	0.07950762
143	0x3e6c35c9	0.23067392
144	0xbc774c1a	-0.015093828
145	0xbdf39583	-0.118937515
146	0xbe4f8b18	-0.20267904
147	0xbdef61a3	-0.116885446
148	0xbdeedd8e	-0.11663352
149	0xbd0028d9	-0.031288955
150	0xbe0550c6	-0.13019094
151	0xbda54f64	-0.08071783
152	0x3c186a0d	0.009302628
153	0x3dd55f49	0.10418565
154	0x3c5f78ed	0.013639671
155	0x3e577934	0.21042329
156	0xbe1928b4	-0.14956933
157	0xbbd8fbd7	-0.0066218185
158	0xbc6bb156	-0.014385542
159	0xbbcf643a	-0.0063290866
160	0x3d52a08b	0.051422637
161	0x3e9eb374	0.30996287
162	0xbdf8a9c2	-0.12141754
163	0x3e116559	0.14198817
164	0x3e981f40	0.29711342
165	0x3d97b1fc	0.07406995
166	0xbd9957e1	-0.07487465
167	0x3e4a8c5f	0.1978011
168	0x3ded4782	0.11585905
169	0x3e0a04d4	0.13478404
170	0xba4500d2	-0.0007515076
171	0xbe10f774	-0.14156896
172	0x3d23ee96	0.040022455
173	0x3d8aefc3	0.06784012
174	0xbe0bbe2c	-0.13646764
175	0xbdde922a	-0.10867722
176	0xbe31f449	-0.17378344
177	0xbd9b8dff	-0.07595443
178	0x3b263092	0.002535854
179	0xbc214cde	-0.009844987
180	0xbc1f55fa	-0.009725088
181	0x3cdabecd	0.026702309
182	0x3df18ef2	0.11794843
183	0xbe6c7566	-0.23091659
184	0xbe028371	-0.12745453
185	0xbdda4c05	-0.10659031
186	0xbdc05b06	-0.09392361
187	0x3dabbad3	0.08385243
188	0x3df3ce24	0.119045526
189	0xbe15ffad	-0.14648314
190	0xbdb4beb3	-0.088254355
191	0xbe5c26ee	-0.21499225
192	0xbd734432	-0.059391208
193	0x3d843120	0.06454682
194	0xbe571b3b	-0.21006481
195	0xbe53dcd7	-0.20689712
196	0x3d5e8377	0.054324593
197	0xbc37c231	-0.011215732
198	0x3d9ce3df	0.076606505
199	0xbc671606	-0.014104372
200	0xbca428bd	-0.020038957
201	0xbd981592	-0.07425989
202	0x3d4d0c86	0.05006077
203	0xbd613e8c	-0.05499129
204	0xbe0528cd	-0.13003846
205	0xbaaeb75a	-0.001332979
206	0xbcd42f3e	-0.025901433
207	0xbd80b4c6	-0.0628448
208	0x3a2781a9	0.00063898653
209	0x3e067aec	0.13132828
210	0xbdb2b604	-0.08726123
211	0xbcfb9d81	-0.030714752
212	0x3d41de34	0.04733105
213	0xbe0b7b39	-0.13621224
214	0xbdc19f31	-0.094541915
215	0xbbe0a410	-0.0068554953
216	0x3db743b4	0.0894846
217	0xbdc98645	-0.09840063
218	0xbdb2e179	-0.08734412
219	0x3c968fcc	0.018379115
220	0xbe01773d	-0.12643142
221	0xbde434d8	-0.11142892
222	0x3dae5212	0.085117474
223	0xbd5a17ea	-0.053245462
224	0x3d7edc77	0.06222197
225	0xbdf8c307	-0.121465735
226	0xbddb9005	-0.10720829
227	0xbddfaccd	-0.10921631
228	0x3d732844	0.059364572
229	0xbcf1b05e	-0.029503044
230	0xbde5951a	-0.112100795
231	0x3c095fae	0.008384628
232	0xbdd0bdec	-0.10192475
233	0x3d96103e	0.07327317
234	0x3cbd30e0	0.023094594
235	0xbddb0028	-0.10693389
236	0xbdab2c1c	-0.083580226
237	0xbba0c1d6	-0.0049059195
238	0xbe28d270	-0.16486526
239	0x3e0ac35f	0.1355109
240	0x3dbd562d	0.09244952
241	0xbd067a15	-0.03283127
242	0xbd883252	-0.06650223
243	0x3d0715dc	0.03297983
244	0x3dabb611	0.08384336
245	0x3e2a5967	0.16635667
246	0xbe563b1a	-0.20920983
247	0xbdea6641	-0.11445285
248	0x3db41d2e	0.08794628
249	0xbcbb0e02	-0.022833828
250	0xbcd2bc90	-0.02572468
251	0x3d230025	0.03979506
252	0x3e13280f	0.1437075
253	0xbe157861	-0.14596702
254	0xbc58bf10	-0.013229147
255	0xbbb66024	-0.00556566

weight_hh_l0 f4 [128, 32]
0	0x3d3f4f4a	0.046706475
1	0x3d301c26	0.042995594
2	0x3c4ecc29	0.012621918
3	0x3da0a711	0.078443654
4	0xbda15c96	-0.078789875
5	0x3b88565b	0.004160685
6	0xbe711e72	-0.2354677
7	0xbd6236ee	-0.055228166
8	0x3dace4ee	0.084421024
9	0x3bd37b9d	0.006453945
10	0x3da151e2	0.07876946
11	0x3e2b1a7d	0.16709323
12	0xbd5c446d	-0.053776193
13	0x3e3b8cca	0.18315426
14	0x3e0ea35b	0.13929503
15	0x3e6f5d21	0.2337537
16	0x3e3716fe	0.17879865
17	0xbe003353	-0.12519579
18	0xbab8850e	-0.0014077739
19	0xbe2b4a4d	-0.16727562
20	0xbda8facf	-0.08250963
21	0xbe1c3c75	-0.15257438
22	0xbdf2ab2d	-0.118490554
23	0xbde87b8b	-0.11351689
24	0xba9e4f15	-0.0012078012
25	0xbe03b837	-0.12863241
26	0x3cbab06d	0.022789204
27	0x3e7daa42	0.2477198
28	0x3dc18139	0.094484754
29	0x3da17a26	0.07884626
30	0x3a025c2f	0.0004972843
31	0xbdfbf41c	-0.123024195
32	0x3e7271af	0.2367618
33	0xbe0e6c9a	-0.13908616
34	0x3dc622ed	0.0967463
35	0xbd352290	-0.044222414
36	0x3d737ce3	0.059445273
37	0x3e1ca884	0.15298659
38	0xbd63a85e	-0.05558049
39	0xbde36e4f	-0.11105024
40	0x3dde0ec2	0.108426586
41	0xbd9c184f	-0.07621824
42	0xbda9892f	-0.08278119
43	0xbdd6bd4a	-0.10485323
44	0xbe47aef5	-0.19500335
45	0x3e196e8d	0.14983578
46	0x3e1fc161	0.15601112
47	0x3d3e534b	0.046466153
48	0x3e1494db	0.14509909
49	0x3e143025	0.1447149
50	0xbe13dd1c	-0.14439815
51	0x3bba7c1a	0.0056910636
52	0x3c8faf09	0.017539518
53	0xbe286cf5	-0.16447814
54	0xbe13ce83	-0.14434247
55	0xbd766cc4	-0.06016232
56	0xbdc88117	-0.09790247
57	0xbd0bbe4c	-0.034117028
58	0xbe5d9cec	-0.21641892
59	0xbd683928	-0.056695133
60	0xbd269de5	-0.040677924
61	0x3cedbc97	0.02902059
62	0x3d27c220	0.040956616
63	0xbdaabef0	-0.083372
64	0x3dc2d5ac	0.09513411
65	0xbdf27d1f	-0.11840271
66	0xbdad8a0f	-0.08473598
67	0x3e053136	0.13007054
68	0x3d1970eb	0.037461203
69	0x3d863ea0	0.065549135
70	0xbe2ecc6b	-0.17070167
71	0xbe20658c	-0.15663737
72	0xbcf2cc8d	-0.029638553
73	0x3e1b8bd0	0.15190053
74	0xbe262f30	-0.16228938
75	0x3dc95554	0.09830728
76	0xbdca50ff	-0.0987873
77	0xbe06d4bd	-0.1316709
78	0x3e002793	0.12515096
79	0xbe03ce69	-0.12871708
80	0x3d8d98cc	0.06913909
81	0xbd4522e3	-0.048128974
82	0x3e01e000	0.12683105
83	0xbe33ed9c	-0.1757111
84	0x3dc39fe9	0.09551985
85	0x3e281538	0.16414344
86	0x3d2fbe0a	0.042905845
87	0x3e1ad4cf	0.15120243
88	0x3e0a9078	0.13531673
89	0x3daeda24	0.08537701
90	0x3dec393d	0.11534355
91	0x3e2496d4	0.16073161
92	0x3e0ae50a	0.13563934
93	0x3dad057f	0.08448314
94	0xbdf7b4b8	-0.12095016
95	0x3dbf43c1	0.09339095
96	0x3c3b163e	0.011418877
97	0x3d350cc2	0.04420162
98	0x3d02041c	0.0317422
99	0x3db8032a	0.089849785
100	0xbe3795ad	-0.1792819
101	0xbdcb83e0	-0.099372625
102	0xbda81469	-0.08207018
103	0x3e0a62f4	0.1351431
104	0xbde7042b	-0.11280092
105	0xbd579476	-0.052631818
106	0xbcf70014	-0.030151404
107	0xbe2f53c2	-0.17121795
108	0xbe3a26cc	-0.18178862
109	0xbdf4140a	-0.11917885
110	0xbe0e47db	-0.13894598
111	0xbdcf7065	-0.101288594
112	0xbc4e26bd	-0.012582478
113	0x3e504318	0.20338094
114	0xbdf91e11	-0.12163938
115	0xbd8c9d0e	-0.06865893
116	0xbd934a19	-0.071918674
117	0x3d155fc0	0.036468267
118	0x3dd38fe8	0.10330182
119	0xbdb8b39a	-0.09018631
120	0xbddf9483	-0.10916998
121	0x3d386755	0.04502042
122	0xbe45a759	-0.1930212
123	0x3e0ac828	0.13552916
124	0xbdaf43a7	-0.085578255
125	0x3d7581fd	0.05993842
126	0x3e08f358	0.13374078
127	0x3d9a6163	0.07538106
128	0xbe26055d	-0.16212983
129	0xbd504943	-0.050851118
130	0x3e1b0c93	0.15141515
131	0xbe2ae2fd	-0.16688152
132	0x3e0f9e9e	0.14025351
133	0xbe08a10b	-0.13342683
134	0xbd200eb8	-0.039076537
135	0x3dfc3d05	0.12316326
136	0xbe273100	-0.16327286
137	0xbe46405d	-0.1936049
138	0xbd08c0a3	-0.033386838
139	0xbe08cee0	-0.13360167
140	0xbb538ede	-0.00322812
141	0x3dc46849	0.09590203
142	0x3db9cfd1	0.09072841
143	0xbe1d9590	-0.15389085
144	0xbd08b212	-0.033372946
145	0xbe18861f	-0.14894913
146	0xbdee5c31	-0.11638678
147	0x3d9f8bef	0.07790362
148	0x3d3febba	0.046855666
149	0x3e321197	0.17389522
150	0x3d93c22c	0.0721477
151	0xbdecca36	-0.11562006
152	0x3d28a022	0.04116834
153	0xbe0255ce	-0.12728044
154	0xbe2a9d54	-0.16661578
155	0xbe27048b	-0.16310327
156	0x3e36642c	0.1781165
157	0xbda25350	-0.07926047
158	0x3dfef7cd	0.12449608
159	0xbdfb2608	-0.12263113
160	0x3df35a9c	0.11882517
161	0xbdcb6e38	-0.09933132
162	0x3cee413a	0.029083837
163	0xbe5e338f	-0.21699356
164	0xbd8df819	-0.069320865
165	0xbd63c22a	-0.05560509
166	0xbb7c70e1	-0.003851943
167	0xbd8cde6f	-0.06878363
168	0xbd3a53df	-0.045490142
169	0x3d2d8dee	0.042371683
170	0x3e083d3c	0.13304609
171	0xbe320fb5	-0.17388804
172	0xbdf63e65	-0.120236196
173	0x3d4e79d2	0.050409146
174	0xbcbd303e	-0.023094293
175	0xbd0df829	-0.034660492
176	0x3b3c509a	0.0028734566
177	0x3e04e25d	0.12976976
178	0xbe3fd28d	-0.18732662
179	0x3e08356c	0.13301629
180	0x3db60e19	0.08889408
181	0xbdcd823d	-0.100346066
182	0xbcff671a	-0.031177092
183	0xbd346faa	-0.044051804
184	0xbd4e4a81	-0.05036402
185	0xbdd1fb41	-0.10253001
186	0x3e2018f7	0.15634523
187	0x3e4096c8	0.18807518
188	0x3d6f5eb4	0.058439925
189	0x3de26a02	0.11055376
190	0x3e0ffab2	0.14060476
191	0x3d950f02	0.07278253
192	0x3e286185	0.16443451
193	0x3d981ab3	0.074269675
194	0xbe2d2731	-0.16909482
195	0x3e3a0328	0.18165267
196	0xbb872139	-0.0041238335
197	0xbd7fd5de	-0.06245982
198	0x3c8b8276	0.017029982
199	0xbe099d55	-0.13438924
200	0xbd792fa0	-0.060836434
201	0x3d23d3be	0.039996855
202	0xbd3d6af7	-0.046244588
203	0xbdecf7b6	-0.115706846
204	0xbc118454	-0.008881647
205	0x3e2ba65e	0.16762683
206	0xbb9cb5a2	-0.0047823945
207	0x3d34208b	0.043976348
208	0x3cf66b3a	0.030080426
209	0xbe030fb1	-0.12798955
210	0x3cd6e65d	0.026232893
211	0xbe149cb3	-0.14512901
212	0x3dd59ce4	0.10430315
213	0x3e38c9fa	0.18045798
214	0x3e22786e	0.15866253
215	0xbc41d0e8	-0.011829592
216	0xbe363b6a	-0.17796102
217	0x3c7aa9ac	0.015299242
218	0x3e01c050	0.12671018
219	0x3cd6a14d	0.026199961
220	0xbe35a5f4	-0.17739087
221	0x3e28bb4d	0.164777
222	0xbe18125f	-0.14850758
223	0x3d24f790	0.040275156
224	0x3e8573fb	0.2606505
225	0xbd176845	-0.036964674
226	0xbd7d1011	-0.0617829
227	0xbb364d23	-0.0027816973
228	0xbd0d7ff2	-0.034545846
229	0x3d9e717f	0.077364914
230	0x3d65d3d9	0.056110237
231	0x3b4c6865	0.0031190154
232	0xbcae3d91	-0.021269592
233	0xbe353dbf	-0.17699336
234	0xbd578c1d	-0.052623857
235	0xbe1704e2	-0.14747956
236	0x3e632c8f	0.22184967
237	0xbd8cbd42	-0.068720356
238	0x3dcb544d	0.099281885
239	0x3d3e644d	0.046482373
240	0x3df75f32	0.12078704
241	0xbdebddfa	-0.11516948
242	0xbe12fd01	-0.14354326
243	0xbc21b1e5	-0.0098690735
244	0xbe238f70	-0.15972686
245	0xbddaf070	-0.10690391
246	0xbd81b61c	-0.06333563
247	0xbe3a651a	-0.1820263
248	0x3d7954e6	0.06087198
249	0x3e34e098	0.176638
250	0x3cee6d04	0.029104717
251	0x3dda96c2	0.10673286
252	0x3e127233	0.14301376
253	0x3e3329bd	0.1749639
254	0xbc1b76ec	-0.009488802
255	0x3da92b0c	0.08260164

bias_ih_l0 f4 [128]
0	0xbdac6a43	-0.08418705
1	0xbd9cc833	-0.076553725
2	0xbcc490d4	-0.02399484
3	0xbde60793	-0.112319134
4	0xbe1eaece	-0.1549637
5	0x3e0d184c	0.137788
6	0xbd3179a2	-0.04332889
7	0xbe38e97a	-0.18057814
8	0x3cc2d0c0	0.02378118
9	0xbbed0fae	-0.007234535
10	0x3e157517	0.14595447
11	0x3e1c12b0	0.15241504
12	0x3d8efeb8	0.069821775
13	0xbe23e622	-0.16005757
14	0x3dabb18c	0.08383474
15	0xbe14c199	-0.14526977
16	0xbaa42628	-0.0012523578
17	0x3e0f6b91	0.14005877
18	0xbd4b541e	-0.049640767
19	0x3de02886	0.10945229
20	0x3cd6ce63	0.02622146
21	0xbc465380	-0.012104869
22	0xbd0587ec	-0.03260033
23	0xbd4d6381	-0.050143722
24	0x3df4b992	0.11949457
25	0x3d86d05b	0.065827094
26	0xbd09877b	-0.03357647
27	0x3d1ea06f	0.03872722
28	0xbcec4972	-0.028843615
29	0xbde036b9	-0.109479375
30	0xbe43515d	-0.19074006
31	0xbd23828c	-0.03991942
32	0x3e5a27a4	0.21304184
33	0xbe0ead13	-0.1393321
34	0xbe23d0d0	-0.15997624
35	0x3deb9c9d	0.11504481
36	0xbe1c26ce	-0.15249178
37	0xbdae4a3c	-0.08510253
38	0xbe0e2876	-0.13882622
39	0xbcd63b31	-0.026151272
40	0xbe070ea0	-0.13189173
41	0x3db80243	0.089848064
42	0xbd9cd432	-0.076576605
43	0x3d5202e8	0.051272303
44	0xbd391cbf	-0.04519343
45	0x3e2abf95	0.16674645
46	0xbc7f4f7e	-0.015582917
47	0xbdf54fd5	-0.119781174
48	0x3de162d5	0.11005179
49	0x3dd70ee5	0.10500888
50	0xbdb2f03d	-0.08737228
51	0x3d8a8067	0.06762772
52	0xbe20496f	-0.15653013
53	0x3dcee6a6	0.101025864
54	0x3df44f8b	0.11929234
55	0x3dc8ae17	0.0979883
56	0x3daa6f46	0.08322005
57	0x3e129011	0.1431277
58	0x3e0794f9	0.13240422
59	0x3de011b3	0.10940876
60	0xbced7c14	-0.02898983
61	0xbe1c2fdc	-0.15252632
62	0xbe49b56c	-0.19698113
63	0xbe17f148	-0.14838135
64	0x3df23201	0.11825944
65	0x3e0d8171	0.13818909
66	0xbcdeba3b	-0.027188411
67	0x3d8bd48e	0.06827651
68	0xbd9ce51b	-0.07660886
69	0x3b7cfab9	0.003860159
70	0x3db7b487	0.0896998
71	0xbd96502b	-0.073395096
72	0x3caae722	0.020862166
73	0x3db95648	0.0904966
74	0xbde9a0f2	-0.11407651
75	0x3d54b9e0	0.051935077
76	0xbe0cdd71	-0.13756348
77	0xbd8260d6	-0.06366126
78	0xbd6bfdcb	-0.057615083
79	0xbe4d6b41	-0.20060445
80	0xbdeca513	-0.11554923
81	0xbe0d4a46	-0.13797864
82	0x3e0ba6ce	0.1363785
83	0xbc8e01b2	-0.017334793
84	0xbbe97665	-0.0071247094
85	0x3de1ae0f	0.11019527
86	0x3d9ff953	0.07811227
87	0xbe146627	-0.14492093
88	0x3e1b0bf7	0.15141283
89	0xbdffc569	-0.12488825
90	0x3e03bb65	0.12864454
91	0xbe297197	-0.16547237
92	0xbe0356b9	-0.12826051
93	0x3e037946	0.12839231
94	0x3d16b731	0.0367958
95	0xbda6861e	-0.081310496
96	0x3dd442f8	0.10364336
97	0xbde2d1ec	-0.11075196
98	0x3c5e111b	0.013553883
99	0xbd83ea49	-0.06441171
100	0x3b680fac	0.0035409732
101	0x3d861ef4	0.065488726
102	0xbc00c5b6	-0.007859638
103	0xbe259b7f	-0.16172598
104	0xbdc953a5	-0.09830407
105	0x3d2c5d2d	0.042081047
106	0xbdc182b7	-0.0944876
107	0x3db58e17	0.08864992
108	0x3d183358	0.03715834
109	0xbe38f32e	-0.18061516
110	0x3df6e673	0.120556735
111	0x3d00ff53	0.031493496
112	0x3dfb8477	0.12281125
113	0x3d6e0157	0.058106747
114	0x3d41c327	0.047305252
115	0xbbbda776	-0.005787785
116	0x3de3a046	0.11114554
117	0xbcc9880c	-0.024601005
118	0xbd953e8a	-0.07287319
119	0x3b0719b9	0.0020614697
120	0xbdc3eaa0	-0.095662355
121	0x3dd58cee	0.10427271
122	0x3df607d0	0.12013209
123	0xbcda4d2f	-0.026648132
124	0x3dd6acf5	0.10482208
125	0x3dbc8432	0.09204902
126	0xbe0c8011	-0.13720728
127	0xbd662cfd	-0.056195248

bias_hh_l0 f4 [128]
0	0xbe038f70	-0.12847686
1	0xbd81f009	-0.06344611
2	0xbe219281	-0.15778543
3	0x3d496046	0.04916408
4	0xbc374dfc	-0.0111880265
5	0xbdd9515f	-0.106112234
6	0xbe147544	-0.14497858
7	0xbb457e1a	-0.0030134977
8	0x3ddf10e6	0.10891895
9	0x3e2171e6	0.15766105
10	0xbde24d82	-0.1104994
11	0x3ce1fe73	0.027587151
12	0xbe2c83f9	-0.16847219
13	0x3e096eb6	0.13421139
14	0x3dfec481	0.12439824
15	0x3c783b87	0.015150911
16	0xbdb4ac4e	-0.08821927
17	0x3e07cd43	0.13261895
18	0xbe14d1bb	-0.14533131
19	0x3d857a89	0.06517512
20	0x3e321283	0.17389874
21	0x3e2ca8b2	0.16861227
22	0xbb858559	-0.004074734
23	0x3c67e6f6	0.0141541865
24	0x3cad4ed3	0.02115575
25	0x3d4fa922	0.050698407
26	0x3d23c034	0.03997822
27	0xbd587e3e	-0.05285477
28	0xbde23de9	-0.11046965
29	0xbdf35923	-0.11882236
30	0xbdf842bc	-0.121221036
31	0x3c284a25	0.010271584
32	0x3dfe87d9	0.12428255
33	0xbde7eba7	-0.11324244
34	0x3d9f27dc	0.077712744
35	0xbdba9236	-0.09109919
36	0x3e1f9d52	0.15587357
37	0x3d9f36a9	0.077740975
38	0x3b0aaf9f	0.0021161807
39	0xbe2f1494	-0.17097694
40	0xbd71b06c	-0.05900614
41	0x3d09bb55	0.03362592
42	0xbd6c19e4	-0.05764188
43	0xbc2279a2	-0.009916695
44	0xbd448234	-0.047975734
45	0xbc4feb92	-0.012690442
46	0x3db914db	0.09037181
47	0xbd8eae8d	-0.06966887
48	0xbca9f41c	-0.020746283
49	0x3d17e65c	0.037084922
50	0xbd71be3a	-0.059019305
51	0xbde8c591	-0.11365808
52	0xbc4ecf82	-0.012622716
53	0xbd7d02f6	-0.061770402
54	0xbdd4875d	-0.10377381
55	0x3d8f5c88	0.07000071
56	0xbdf68053	-0.12036195
57	0xbe29790d	-0.16550083
58	0xbdf8146c	-0.1211327
59	0x3d478a87	0.048716094
60	0xbd6a5617	-0.057211008
61	0x3da6afe2	0.08139016
62	0xbd84e87e	-0.06489657
63	0x3e1cae98	0.15300977
64	0xbe28f59b	-0.16499941
65	0xbe05b7d1	-0.13058402
66	0x3e1251f0	0.14289069
67	0x3c4f2efa	0.012645477
68	0x3e385f88	0.18005192
69	0x3d1432cb	0.036181252
70	0xbdc583be	-0.096442685
71	0xbcd91f93	-0.026504314
72	0x3e2602d4	0.16212016
73	0xbb4c96a1	-0.0031217712
74	0x3c616374	0.013756622
75	0x3d8dc7b5	0.06922857
76	0x3d30bdf9	0.043149922
77	0x3b36630a	0.0027830028
78	0xbe0a914f	-0.13531993
79	0xbd5e99a3	-0.05434574
80	0xbcb93440	-0.022607923
81	0x3dd5d5e0	0.10441184
82	0x3d7d3cc9	0.061825547
83	0xbe135ec8	-0.14391625
84	0xbe2809b2	-0.16409948
85	0x3d4bbe68	0.049742132
86	0xbe29742d	-0.16548224
87	0x3dd343f6	0.10315697
88	0xbdb25929	-0.08708412
89	0xbc9dad8f	-0.019247798
90	0x3e06c534	0.13161165
91	0xbd4f5d42	-0.050626047
92	0xbdef37dd	-0.11680577
93	0xbe19db96	-0.15025172
94	0x3c48a6c0	0.012246788
95	0x3cb9d6a8	0.022685364
96	0xbc3ab7f2	-0.011396395
97	0x3cc11daf	0.023573725
98	0xbe11f7a2	-0.1425462
99	0x3e26cf8e	0.16290113
100	0x3dd136a9	0.10215504
101	0xbcfef33c	-0.031121843
102	0x3e434c1d	0.19072004
103	0x3e1870ba	0.14886752
104	0xbe1bf5ed	-0.15230532
105	0x3d83f4bc	0.06443164
106	0x3e164d9c	0.14678043
107	0x3e2983cf	0.16554187
108	0x3d4a0394	0.04931982
109	0x3c4de5cf	0.012566998
110	0x3d258633	0.040411185
111	0x3d213537	0.03935739
112	0x3e10b206	0.1413041
113	0xbda12588	-0.07868487
114	0x3e1c0f09	0.1524011
115	0xbe04613e	-0.1292772
116	0x3d97f2d6	0.07419364
117	0x3e2a7d52	0.16649368
118	0x3da197b6	0.07890265
119	0x3e09e1e6	0.1346508
120	0x3dbcc1df	0.092166655
121	0x3da3adb0	0.07992113
122	0x3e302d0c	0.17204684
123	0xbca77b71	-0.020444604
124	0xbcc8da07	-0.024518026
125	0x3db12aa6	0.08650713
126	0xbde1aadf	-0.11018919
127	0x3e140314	0.14454299

weight_ih_l0 f4 [128, 2]
0	0xbc3f672b	-0.011682312
1	0x3dd2dc4c	0.102959245
2	0xbdfb55e0	-0.12272239
3	0xbd858e34	-0.06521264
4	0x3e6a05f3	0.22853832
5	0xbd902306	-0.0703793
6	0x3d8888ca	0.066667154
7	0xbd78f61a	-0.060781576
8	0xbd09b01e	-0.033615224
9	0xbe76e303	-0.24110036
10	0xbab3e74e	-0.001372555
11	0x3de73223	0.1128886
12	0xbbbf5e0c	-0.0058400687
13	0xbca0e04c	-0.019638203
14	0x3cd476d3	0.025935566
15	0xbe5cb068	-0.21551669
16	0x3d452939	0.048135016
17	0xbe8a2520	-0.2698145
18	0x3d38bf3a	0.045104243
19	0x3d4aeb8e	0.04954105
20	0x3d0f63c5	0.035007257
21	0x3db33da4	0.087519914
22	0x3d7da3ca	0.06192378
23	0xbe22b692	-0.15889958
24	0xbc9a912d	-0.018868053
25	0x3dbf0db1	0.09328783
26	0xbb6f0826	-0.0036473363
27	0xbe25b270	-0.1618135
28	0xbe2308b7	-0.15921293
29	0xbe02002b	-0.12695377
30	0xbdb913e8	-0.09037
31	0x3eb69b97	0.3566558
32	0xbcb8342c	-0.022485815
33	0x3c059aeb	0.008154611
34	0x3e372f80	0.17889214
35	0x3c68cec1	0.01420945
36	0xbd624d05	-0.055249233
37	0xbd908788	-0.070571005
38	0x3d5b62f5	0.05356117
39	0x3d82e8a2	0.063920274
40	0x3dbd5073	0.0924386
41	0xbe85f435	-0.26162878
42	0xbccae758	-0.024768516
43	0xbd339251	-0.04384071
44	0xbda7a849	-0.08186395
45	0x3d956963	0.072954915
46	0xbe657bc8	-0.224105
47	0xbba759b6	-0.00510713
48	0xbd05a8cf	-0.03263169
49	0xbe1a571e	-0.15072295
50	0x3c4679ec	0.012114029
51	0x3c6bbcbb	0.014388259
52	0x3e34c3e6	0.17652854
53	0x3c5a96c3	0.013341608
54	0xbe0910c5	-0.13385303
55	0x3c80bfaa	0.015716393
56	0xbe9c9c08	-0.30587792
57	0x3cf5b861	0.029995145
58	0xbd3e1dbd	-0.04641508
59	0xbdd6bbb9	-0.10485024
60	0x3e3f2a69	0.18668522
61	0xbe81fcde	-0.25388235
62	0xbe2f7771	-0.17135407
63	0xbe4ea6bb	-0.2018079
64	0xbe2d69dd	-0.16934915
65	0xbe266a49	-0.16251482
66	0x3dec4239	0.115360685
67	0xbe17e07f	-0.14831732
68	0x3e35cfee	0.177551
69	0x3d0d1137	0.034440245
70	0x3e1d47ad	0.15359373
71	0xbcf6a1f1	-0.030106517
72	0x3e79c3e1	0.24391128
73	0xbe82afb2	-0.2552467
74	0x3cc02463	0.02345485
75	0xbd9146a6	-0.07093553
76	0xbe02e03f	-0.12780856
77	0x3d53d0b9	0.051712725
78	0x3e18be3f	0.14916323
79	0xbc4d5ec4	-0.012534801
80	0xbd6e62a7	-0.05819955
81	0xbe451dad	-0.19249602
82	0x3e15768b	0.14596002
83	0x3d730a91	0.05933625
84	0x3db195e8	0.086711705
85	0x3b53dfea	0.0032329508
86	0xbe140884	-0.14456373
87	0xbd97e33c	-0.074163884
88	0x3d39795d	0.045281757
89	0x3e768958	0.2407583
90	0xbd332b55	-0.043742497
91	0xbd4b3118	-0.049607366
92	0x3dd16b6f	0.102255695
93	0x3b94ed28	0.004544873
94	0x3d0b123f	0.033952948
95	0x3e6d78af	0.23190568
96	0x3cccfa1b	0.025021603
97	0xbd9193c5	-0.07108263
98	0x3cc401f2	0.023926709
99	0xbe646cb0	-0.22307086
100	0xbcdbb301	-0.026818754
101	0x3d6af84d	0.057365704
102	0xbe8c93a5	-0.27456394
103	0xbda596be	-0.080853924
104	0x3e72074a	0.23635593
105	0xbd672503	-0.05643178
106	0x3e69322e	0.22773048
107	0xbdd95447	-0.10611778
108	0xbd4aa0f6	-0.04946991
109	0xbcbfbd6a	-0.02340575
110	0xbd1e9df0	-0.03872484
111	0xbe48882f	-0.195832
112	0xbe35fba3	-0.17771773
113	0xbde93e8a	-0.113888815
114	0x3dedbd11	0.11608327
115	0xbc117408	-0.008877762
116	0x3da29182	0.0793791
117	0xbdee83d4	-0.11646238
118	0xb9979ea3	-0.00028919158
119	0xbdc8d463	-0.098061346
120	0x3cb15d00	0.021650791
121	0xbe1db51b	-0.15401118
122	0xbd6892b5	-0.056780536
123	0xbc9cc62e	-0.019137468
124	0x3dc30a9d	0.09523509
125	0xbe83a367	-0.25710604
126	0xbe28c7e1	-0.16482498
127	0xbe91880c	-0.28424108
128	0x3e287668	0.16451418
129	0x3e47d3b8	0.19514358
130	0xbe2083d8	-0.15675294
131	0xbe8e0fb8	-0.27746367
132	0xbeb114bc	-0.34586132
133	0xbc93642f	-0.017992107
134	0xbe9968d0	-0.29962778
135	0xbd4c11ad	-0.049821544
136	0xbd654952	-0.055978127
137	0xbe1f041d	-0.15528913
138	0x3e5726e5	0.21010931
139	0xbe976a44	-0.29573262
140	0xbdf69375	-0.12039844
141	0x3cb7a332	0.022416685
142	0x3e4903e6	0.19630393
143	0xbe2f52f2	-0.17121485
144	0x3e717c85	0.23582657
145	0x3e162655	0.1466306
146	0xbdca6d74	-0.09884158
147	0x3ea7ee56	0.32799023
148	0x3ea14057	0.314944
149	0x3e6ece1e	0.23320815
150	0xbdedb10a	-0.11606033
151	0xbdae79ea	-0.08519347
152	0xbe712e70	-0.23552871
153	0xbe43adc4	-0.19109255
154	0x3e487aca	0.1957809
155	0x3e5baa37	0.2145165
156	0xbe71f72c	-0.23629445
157	0xbe9b3061	-0.30310348
158	0xbea2b151	-0.31775907
159	0x3e90a88c	0.2825359
160	0xbddc57b0	-0.107589126
161	0x3e2b1626	0.16707668
162	0xbe589043	-0.21148781
163	0x3e5d22f7	0.2159537
164	0xbd0b2e67	-0.0339798
165	0x3e8a2579	0.26981714
166	0x3e2737b8	0.16329849
167	0x3e5ddee9	0.21667065
168	0xbe14db3f	-0.14536761
169	0xbdfe63c8	-0.124213755
170	0xbe0dcbd1	-0.13847281
171	0x3e572fb7	0.21014296
172	0x3db5235d	0.08844636
173	0xbd111ab9	-0.035425875
174	0x3e378010	0.17919946
175	0x3c8cb896	0.017177861
176	0x3e48a421	0.1959386
177	0x3e546837	0.2074288
178	0x3ec124b0	0.37723303
179	0x3e1a81fb	0.15088646
180	0xbde94fb4	-0.11392155
181	0x3e6e9180	0.23297691
182	0x3e574f29	0.21026291
183	0xbe51abeb	-0.20475738
184	0x3e673a7f	0.22580908
185	0x3dfd2c7d	0.12362001
186	0x3e65b3d9	0.22431888
187	0x3e9b6997	0.30353996
188	0xba810429	-0.0009843159
189	0xbe12b175	-0.14325507
190	0xbe832361	-0.2561293
191	0x3da81a98	0.08208197
192	0xbe708a26	-0.234902
193	0xbdde88c4	-0.1086593
194	0x3e2362a9	0.15955605
195	0x3d244bd4	0.040111378
196	0x3e32df1a	0.17467919
197	0xbe19a586	-0.15004548
198	0x3e5823cb	0.21107404
199	0xbd8f9717	-0.0701124
200	0x3bad244f	0.0052838693
201	0xbe9ec204	-0.31007397
202	0x39a481f2	0.00031377334
203	0x3b464c82	0.0030258005
204	0xbe0bc9f4	-0.13651258
205	0xbe800573	-0.25004157
206	0xbdfe34c6	-0.124124095
207	0xbe5a9783	-0.2134686
208	0x3d1f17bf	0.038841005
209	0x3c66d593	0.014089006
210	0xbd9fffdc	-0.07812473
211	0xbe4a974f	-0.19784282
212	0x3e6c4e4c	0.23076743
213	0x3e01b205	0.12665565
214	0x3dbc7566	0.092020795
215	0xbe7e5755	-0.24838002
216	0x3e9e389e	0.3090257
217	0x3e182502	0.14857867
218	0x3ca4e54a	0.020128865
219	0x3dc1174e	0.09428273
220	0x3ddb7c23	0.107170366
221	0x3d28d8d5	0.041222412
222	0xbe53ecff	-0.20695876
223	0x3ed267b5	0.41094747
224	0x3c58cdf8	0.0132327005
225	0xbd8759fb	-0.06608959
226	0xbc98a69d	-0.018634135
227	0xbe84ad88	-0.25913644
228	0xbe1d2c0a	-0.15348831
229	0xbe6accba	-0.2292966
230	0x3da46131	0.0802635
231	0x3d6527fa	0.055946328
232	0x3dd09f15	0.101865925
233	0xbdc7a145	-0.097475566
234	0x3cdc4767	0.026889516
235	0xbda9603b	-0.08270308
236	0x3e3584f9	0.17726506
237	0xbd015dcc	-0.031583592
238	0xbe7372a8	-0.23774207
239	0xbe4e622d	-0.20154639
240	0x3d8d7f39	0.069090314
241	0xbd255585	-0.04036476
242	0x3db2da05	0.0873299
243	0xbe4d0192	-0.2002013
244	0x3e70a04b	0.23498647
245	0xbe6561e1	-0.22400619
246	0x3c6cb735	0.014447977
247	0x3d9978d4	0.07493749
248	0xbe825dd4	-0.2546221
249	0xbdd905f2	-0.10596837
250	0xbdc059a6	-0.09392099
251	0xbe7a053e	-0.24416062
252	0x3d97a094	0.07403675
253	0xbe0e31f4	-0.13886243
254	0x3be4511c	0.006967677
255	0xbe843aab	-0.2582601

weight_hh_l0 f4 [128, 32]
0	0xbdf8bd10	-0.12145436
1	0x3d91cbc3	0.071189426
2	0xbe4fa6fb	-0.20278542
3	0x3d7da19c	0.0619217
4	0x3d052159	0.032502506
5	0x3e271daa	0.1631991
6	0xbde10638	-0.10987514
7	0xbd5d8e00	-0.0540905
8	0xbe063ff9	-0.13110341
9	0xbd220cd6	-0.039563023
10	0x3e3c0ac7	0.18363486
11	0x3dddca76	0.10829632
12	0x3e414cae	0.18876907
13	0x3d8a786f	0.06761252
14	0xbd1871f7	-0.03721806
15	0x3dee5b59	0.11638517
16	0x3d9896cb	0.074506365
17	0xbe01c7e8	-0.12673914
18	0xbb999b0f	-0.004687674
19	0x3d900a24	0.07033184
20	0x3d9b9d6e	0.07598387
21	0xbe186160	-0.14880896
22	0xbe340a2a	-0.17582002
23	0x3d7f5b8e	0.062343173
24	0xbe516898	-0.20450056
25	0x3e577414	0.21040374
26	0xbe5fc7a3	-0.21853499
27	0x3e651839	0.22372521
28	0x3c4bfc7e	0.012450336
29	0xbe747845	-0.23874004
30	0xbc95f199	-0.01830368
31	0x3dc05869	0.09391863
32	0xbdd16011	-0.10223401
33	0xbcc67e7c	-0.024230234
34	0x3d876c0c	0.06612405
35	0xbdcc8bea	-0.09987624
36	0x3d9b7092	0.075898305
37	0x3e2945f4	0.16530591
38	0xbe353d07	-0.17699061
39	0xbd197135	-0.03746148
40	0xbdbe34ac	-0.0928739
41	0x3d993496	0.07480733
42	0xbdd20c6f	-0.10256278
43	0xbdd83850	-0.10557616
44	0x3e6f864c	0.23391074
45	0x3c3f2133	0.01166563
46	0x3d98f280	0.07468128
47	0x3da29153	0.07937875
48	0x3cb9379b	0.022609523
49	0xbda55513	-0.08072867
50	0x3c8a55fd	0.016886706
51	0x3dc0b0d3	0.094087265
52	0x3e68555e	0.22688815
53	0xbe7c0153	-0.2460988
54	0x3da0aeed	0.078458644
55	0x3e5e5914	0.21713668
56	0x3c8d43a2	0.017244164
57	0xbd68e1d9	-0.05685601
58	0xbc35dd28	-0.011100091
59	0xbdaeb091	-0.08529771
60	0xbdacf1a6	-0.08444528
61	0x3d627fd9	0.055297706
62	0x3d05aa0a	0.032632865
63	0xbd9be5dc	-0.076122016
64	0xbe13f1fb	-0.14447777
65	0x3de53458	0.111916244
66	0xbc0d216e	-0.008613927
67	0xbe104653	-0.14089327
68	0xbd739754	-0.05947049
69	0x3d89a4d5	0.06720892
70	0xbe21426d	-0.15747996
71	0x3d0c71a0	0.03428805
72	0xbe1da7ac	-0.15395993
73	0xbe630cc9	-0.22172846
74	0xbc36a1f6	-0.011147013
75	0xbda4fff8	-0.08056635
76	0x3c2fe719	0.01073625
77	0x3e5696e4	0.20955998
78	0x3da5291f	0.08064484
79	0xbdf22eb2	-0.11825313
80	0xbc84b3da	-0.016199041
81	0xbc6fe72e	-0.01464252
82	0xbe7d5e06	-0.24742898
83	0xbe6bb4eb	-0.23018233
84	0xbc94168e	-0.018077161
85	0xbe1be3f6	-0.15223679
86	0xbe4d621c	-0.20056957
87	0x3e8841dd	0.2661275
88	0xbe19e818	-0.15029943
89	0x3d6ff192	0.05857999
90	0xbe0c6f7d	-0.13714404
91	0xbd32947d	-0.04359864
92	0x3c9b2518	0.018938586
93	0x3d862dd1	0.065517075
94	0x3e116767	0.14199601
95	0xbe797191	-0.24359728
96	0x3def3a7c	0.11681077
97	0x3d24193d	0.04006313
98	0x3ca1c7f7	0.019748671
99	0xbda75ebc	-0.08172366
100	0x3d1bb807	0.0380173
101	0x3e419eb4	0.18908197
102	0x3ddf0d4c	0.10891208
103	0x3e0e6d9a	0.13908997
104	0x3e08c4bc	0.13356298
105	0x3dc0ac82	0.09407903
106	0x3d470dda	0.048597194
107	0xbbf1a708	-0.007374648
108	0xbcd3c2af	-0.025849668
109	0xbd821e45	-0.0635343
110	0xbcd1b9e0	-0.025601327
111	0xbeab764f	-0.334887
112	0xbe64aea0	-0.22332239
113	0xbe1199b6	-0.14218792
114	0xbe0b4dde	-0.13603923
115	0xbe54cb23	-0.20780616
116	0x3c2ef62e	0.010678811
117	0x3d4fd15e	0.050736777
118	0xbd8de9cb	-0.06929358
119	0xbc1fc9f1	-0.009752736
120	0xbd286757	-0.041114178
121	0x3e47c688	0.19509327
122	0xbe06b421	-0.13154651
123	0xbd150f9a	-0.036391832
124	0x3d9d2fbb	0.076751195
125	0xbd3aabd8	-0.04557404
126	0x3e64e8de	0.22354457
127	0xbe702894	-0.2345298
128	0xbd45f949	-0.04833344
129	0x3e0fb4a6	0.14033756
130	0xbd12ad2f	-0.035809692
131	0x3d8cad26	0.06868963
132	0x3df4362b	0.11924394
133	0x3e80dd0c	0.25168645
134	0x3df1664f	0.11787092
135	0xbd84a466	-0.06476669
136	0x3c86dd64	0.01646299
137	0x3dd319dc	0.10307667
138	0xbdcf0c48	-0.10109764
139	0xbc5338d4	-0.012891967
140	0x3d879ea0	0.06622052
141	0x3e030242	0.1279383
142	0x3e12c555	0.14333089
143	0xbe0a425b	-0.13501875
144	0xbe52c9cf	-0.20584796
145	0xbbb55270	-0.005533509
146	0xbce3e848	-0.027820721
147	0xbd78865e	-0.060675018
148	0x3e1fecd7	0.15617691
149	0x3dc6ae25	0.09701184
150	0x3dba9da5	0.091120996
151	0xbdd6a308	-0.104803145
152	0xbe38fd00	-0.18065262
153	0x3c99e22e	0.018784609
154	0xbe49df41	-0.19714071
155	0x3d964fa5	0.0733941
156	0xbc37d904	-0.011221174
157	0x3dfbb9a2	0.12291266
158	0x3e03c0e5	0.12866552
159	0xbd68d912	-0.05684764
160	0xbd4c3dad	-0.049863506
161	0xbd592754	-0.05301602
162	0xbe2d7fe9	-0.16943325
163	0xbe396547	-0.1810504
164	0xbcc4f26a	-0.024041373
165	0x3e79cb1d	0.24393888
166	0xbe2f9f6e	-0.17150661
167	0x3e585acd	0.21128388
168	0x3d09aa22	0.033609517
169	0xbe42cf5f	-0.19024418
170	0xbd561c0f	-0.052272853
171	0x3e0aab62	0.1354194
172	0x3d91433c	0.07092902
173	0xbd8bd5b0	-0.06827867
174	0x3db92594	0.090403706
175	0xbe7c31b7	-0.2462834
176	0xbe195e8d	-0.14977475
177	0x3db487c2	0.08814956
178	0xbdf58727	-0.11988669
179	0x3dd51d03	0.10405924
180	0xbdcb4bb8	-0.099265516
181	0xbdc02b21	-0.09383226
182	0xbe66d191	-0.2254088
183	0x3dfd4f81	0.1236868
184	0x3de6d764	0.11271551
185	0x3e5359e3	0.20639758
186	0x3de94b8a	0.11391361
187	0xbd5874ff	-0.05284595
188	0x3cf39041	0.029731872
189	0xbe42deaf	-0.1903026
190	0x3e7196e9	0.23592724
191	0xbdf4e734	-0.11958161
192	0x3db51ee3	0.08843782
193	0x3d5b5b2f	0.053553756
194	0xbc8cbe0b	-0.017180463
195	0xbd8e0542	-0.069345966
196	0x3e6297ad	0.22128172
197	0xbdb22251	-0.086979516
198	0xbe56da7d	-0.20981784
199	0x3dc91786	0.0981894
200	0xbe348ba8	-0.176314
201	0xbd8812ac	-0.066441864
202	0x3d84cf84	0.06484893
203	0x3dbe4439	0.09290356
204	0x3d8cf021	0.068817385
205	0x3e3f139f	0.18659829
206	0xbd9a407d	-0.075318314
207	0xbe986412	-0.29763848
208	0xbdb9c189	-0.09070117
209	0xbd53cb1c	-0.051707372
210	0x3dadd9d6	0.084888145
211	0xbe075117	-0.13214527
212	0x3e5ee406	0.21766672
213	0x3da270c3	0.07931664
214	0xbe4b2a66	-0.19840392
215	0x3e43a568	0.19106066
216	0xbdc3befe	-0.09557913
217	0x3e035ffa	0.12829581
218	0xbe128745	-0.14309414
219	0x3d91fac7	0.0712791
220	0x3dbfba6a	0.093617275
221	0xbe0b4cfb	-0.13603584
222	0xbd7fbdea	-0.062436976
223	0xbdb5efa5	-0.08883599
224	0x3d58932e	0.052874736
225	0x3e46558e	0.19368574
226	0xbd269029	-0.040664826
227	0x3cac521f	0.021035252
228	0x3e0fcf17	0.14043842
229	0xbd713de8	-0.05889693
230	0x3cec6abb	0.028859487
231	0x3df48be6	0.11940746
232	0xbd99894a	-0.07496889
233	0xbe6221e5	-0.22083242
234	0xbde203be	-0.1103587
235	0x3e6c5af1	0.23081566
236	0x3e3b43a4	0.18287522
237	0xbdc47b85	-0.09593872
238	0x3e1f461b	0.15554087
239	0xbe83f25b	-0.2577084
240	0x3d2df10b	0.042466205
241	0xbde610b0	-0.11233652
242	0xbe8008cf	-0.2500672
243	0x3d3fcea6	0.046827935
244	0x3c03106b	0.00799952
245	0xbd89da86	-0.06731133
246	0xbe2e5fa4	-0.17028672
247	0xbd99473f	-0.07484292
248	0x3b830ccd	0.0039993287
249	0xbda5567d	-0.08073137
250	0xbb96b709	-0.004599456
251	0x3e2ab577	0.16670786
252	0xbda380a2	-0.07983519
253	0x3d5e2801	0.05423737
254	0x3e0bc377	0.13648783
255	0xbcde64bd	-0.027147645

bias_ih_l0 f4 [128]
0	0xbcb05115	-0.021523038
1	0xbd7fb628	-0.062429577
2	0x3e116fec	0.14202851
3	0x3df379c4	0.11888459
4	0x3af55652	0.0018717742
5	0x3dfd6f02	0.12374689
6	0x3e51f00e	0.2050173
7	0xbd791896	-0.060814463
8	0x3d3849d3	0.04499228
9	0x3dda1511	0.10648549
10	0xbd904f7a	-0.07046409
11	0xbe20a01a	-0.15686074
12	0x3ddf1814	0.108932644
13	0x3ea22940	0.31672096
14	0xbe006381	-0.12537958
15	0x3eae44dd	0.34036914
16	0x3d75d251	0.060015026
17	0x3e045b32	0.12925413
18	0x3e64b730	0.22335505
19	0x3d0922da	0.033480503
20	0x3e50e2e9	0.2039906
21	0xbc94d18b	-0.018166324
22	0xbde25abb	-0.11052462
23	0xbcf6739b	-0.030084422
24	0xbbe6fd62	-0.0070492486
25	0x3d9bea2b	0.07613023
26	0x3d76aad2	0.0602215
27	0x3d7782ff	0.060427662
28	0x3e2bbc6a	0.16771093
29	0x3e2784ae	0.16359207
30	0x3e4ed7f9	0.20199575
31	0x3d39de87	0.045378234
32	0x3e53a9bc	0.20670217
33	0xbda3eb25	-0.08003835
34	0xbd30b440	-0.04314065
35	0xbdc29ae1	-0.09502197
36	0xbd2017d1	-0.039085213
37	0x3dbe9a99	0.09306831
38	0x3c33d10d	0.010975135
39	0x3e5b8bfc	0.21440119
40	0x3e4a74f9	0.19771184
41	0x3e50f09c	0.20404285
42	0x3e1a805a	0.15088025
43	0x3e24e7ea	0.16104093
44	0xbb720d71	-0.0036934281
45	0x3ea52dfb	0.32261643
46	0x3d65f8bd	0.05614542
47	0x3e714f37	0.23565374
48	0xbdb69c92	-0.08916582
49	0x3e5db0ac	0.21649426
50	0x3e41f854	0.18942386
51	0x3e7d15b0	0.24715304
52	0x3dfec311	0.1243955
53	0x3e01390f	0.12619422
54	0xbd920d09	-0.071313925
55	0x3d1ed183	0.038774025
56	0xbca6a7f0	-0.02034375
57	0x3e51597a	0.20444289
58	0x3d8e562c	0.0695003
59	0x3e648bcd	0.22318955
60	0xbdba072f	-0.090834014
61	0x3dbe3506	0.09287457
62	0x3ca577af	0.020198671
63	0x3ca48723	0.02008397
64	0xbde81ac6	-0.11333232
65	0x3d84a572	0.06476869
66	0x3d805d73	0.06267824
67	0xbe4d7e2f	-0.20067666
68	0x3d184040	0.03717065
69	0x3dfc7305	0.12326626
70	0x3dbf3139	0.0933556
71	0x3e0fc67f	0.14040564
72	0x3dcbc20c	0.09949121
73	0xbdd0d83c	-0.101974934
74	0x3e0b7be1	0.13621475
75	0x3d3a2a52	0.045450516
76	0x3d792c7e	0.060833447
77	0x3ce46961	0.02788228
78	0x3dfcee18	0.123501
79	0xbd8ec22c	-0.06970629
80	0xbe2eac05	-0.17057808
81	0xbdeba95b	-0.11506911
82	0x3e11d43c	0.14241117
83	0xbdc0aed2	-0.09408344
84	0x3d83e3f8	0.06439966
85	0xbe44c86b	-0.19217078
86	0xbdd6573e	-0.10465859
87	0x3e350090	0.17675996
88	0xbe062bdb	-0.13102667
89	0xbd3910eb	-0.04518215
90	0x3de9618b	0.11395558
91	0x3d031c0e	0.032009177
92	0x3c446944	0.011987988
93	0xbdc7609d	-0.097352244
94	0xbcdd4b7a	-0.02701353
95	0x3d264ba7	0.04059949
96	0xbd81338f	-0.06308662
97	0x3e52ca8e	0.20585081
98	0x3e6d0155	0.2314504
99	0x3e1e1150	0.15436292
100	0x3db98d2b	0.09060129
101	0x3e2dd3f4	0.16975385
102	0x3e4eafb9	0.2018422
103	0x3d36b196	0.044602953
104	0x3caa3cc7	0.020780934
105	0x3e357c14	0.17723113
106	0x3db2bd59	0.087275214
107	0xbe132d0f	-0.14372657
108	0xbc23fe80	-0.010009408
109	0x3ec3e20a	0.38258392
110	0x3d82f96a	0.06395228
111	0x3e715370	0.23566985
112	0x3dafab59	0.08577604
113	0xbde88488	-0.11353403
114	0x3e076058	0.13220346
115	0x3e1028b2	0.14078024
116	0xbcc2c5fd	-0.023776049
117	0x3e159580	0.14607811
118	0xbbeca565	-0.007221865
119	0xbdbfc5c1	-0.093638904
120	0x3e52c559	0.20583095
121	0x3e16f351	0.14741255
122	0x3e606b3d	0.21915908
123	0xbdb3d4b8	-0.08780807
124	0xbdc3c56c	-0.095591396
125	0x3ca75ab8	0.020429
126	0x3e16d7e0	0.14730787
127	0xb97dd3ba	-0.00024206834

bias_hh_l0 f4 [128]
0	0x3e547f37	0.20751654
1	0x3e49c9cf	0.1970589
2	0x3d93e617	0.072216205
3	0xbd4cfd6e	-0.050046377
4	0x3dc46a83	0.09590628
5	0x3e588072	0.21142748
6	0xbd2a65f5	-0.04160114
7	0x3d313c15	0.04327019
8	0x3dfd4673	0.12366953
9	0x3e36e728	0.17861617
10	0x3e09d2c3	0.13459305
11	0x3d548e32	0.05189342
12	0x3de033fe	0.10947417
13	0x3ea6ea50	0.3260064
14	0x3dd4cbf0	0.103904605
15	0x3ec86b5a	0.39144403
16	0x3c12ef1b	0.00896814
17	0x3d4d565d	0.05013119
18	0x3e084ebe	0.13311288
19	0xbc3c1b18	-0.011481069
20	0x3e561297	0.20905529
21	0x3dbaeacf	0.091268174
22	0x3e3c45b0	0.18385959
23	0xbdd417e3	-0.103561185
24	0xbde99175	-0.11404697
25	0xbbe64b47	-0.0070280167
26	0x3cc8673c	0.024463288
27	0xbd126bdc	-0.035747394
28	0x3e4632dd	0.1935534
29	0x3e404ee1	0.1878009
30	0x3d7a989a	0.06118069
31	0x3d98447b	0.074349366
32	0x3d9477e5	0.072494306
33	0x3e105bf1	0.14097573
34	0x3da5721f	0.080784075
35	0x3c19c680	0.009385705
36	0xbceae3d7	-0.028673096
37	0xbd972325	-0.0737975
38	0xbde5a52e	-0.11213146
39	0xbd9ac409	-0.07556922
40	0xbd82eeae	-0.06393181
41	0x3ccfa59e	0.025347527
42	0x3d8e6f58	0.06954831
43	0x3d6273cb	0.05528621
44	0x3e103b46	0.14085111
45	0x3eabe207	0.33570883
46	0xbdcd6956	-0.10029857
47	0x3e259c11	0.16172816
48	0xbcb1c376	-0.021699648
49	0xbd32986a	-0.043602385
50	0x3d35f25d	0.04442059
51	0x3d75a2aa	0.05996958
52	0x3def35e3	0.116802
53	0x3d49fee5	0.049315352
54	0x3d96933d	0.07352302
55	0xbdded291	-0.10880006
56	0x3b861008	0.0040912665
57	0x3e7f54e4	0.24934727
58	0xbca1fc05	-0.019773493
59	0x3b8abc32	0.0042338604
60	0x3ddc6508	0.10761458
61	0xbdcb912d	-0.099397995
62	0xbdcb71b2	-0.09933795
63	0x3e49c3e6	0.19703636
64	0x3d8713f4	0.06595603
65	0x3da96448	0.0827108
66	0xbe010f29	-0.1260344
67	0xbe2b84a9	-0.16749825
68	0x3de2a545	0.11066679
69	0xbd9fbc4f	-0.07799589
70	0xbde301f4	-0.11084357
71	0x3e0f16e9	0.13973583
72	0xbe251bcc	-0.16123885
73	0x3df72961	0.12068439
74	0x3d7a69b9	0.06113598
75	0x3e1c721f	0.15277909
76	0x3cb3ef70	0.021964759
77	0x3dce5d7e	0.10076426
78	0x3dce0858	0.10060185
79	0x3d17d243	0.037065756
80	0xbda746b3	-0.08167782
81	0x3d65d05c	0.05610691
82	0xbe102bc3	-0.14079194
83	0x3b81ee00	0.0039651394
84	0x3de413aa	0.11136563
85	0xbe1a1808	-0.1504823
86	0x3cdc93c4	0.026925929
87	0x3de64353	0.1124331
88	0xbd88f4ba	-0.06687303
89	0x3e359c6f	0.17735456
90	0xbdb8d19c	-0.09024355
91	0x3d4534a6	0.048145913
92	0xbe0c048a	-0.13673607
93	0xbe0b45fa	-0.13600913
94	0x3e4ac42f	0.198014
95	0xbe0e4cfe	-0.13896558
96	0x3e4e20e2	0.20129731
97	0x3e3a2fc8	0.1818229
98	0x3e05ff1c	0.13085598
99	0xbde5487f	-0.11195468
100	0xbda91f3e	-0.08257912
101	0x3e3b5734	0.18294984
102	0x3e01fa2c	0.12693089
103	0x3df255e6	0.1183279
104	0x3d82c606	0.06385426
105	0x3e4283f8	0.18995655
106	0x3d052489	0.032505546
107	0xbdfbd01f	-0.12295555
108	0xbb0b79e2	-0.0021282365
109	0x3e778b34	0.24174196
110	0x3e04cef7	0.12969576
111	0x3eacedab	0.33775076
112	0x3e6f7b57	0.23386894
113	0xbd61e388	-0.05514863
114	0xbdb7cea9	-0.08974964
115	0x3e0118a5	0.12607057
116	0xbd27b45c	-0.04094349
117	0xbd347147	-0.044053342
118	0x3de8bcc8	0.11364132
119	0x3e45c69b	0.19314043
120	0x3da568d5	0.08076636
121	0x3e8be6cd	0.27324525
122	0x3bf59357	0.007494371
123	0x3dc7ddbf	0.097590916
124	0x3e383e51	0.17992522
125	0x3db37230	0.08762014
126	0x3d93b887	0.0721293
127	0x3d8407c4	0.06446794

weight_ih_l0_reverse f4 [128, 2]
0	0x3d7c02e7	0.061526205
1	0xbe4a1a91	-0.19736697
2	0x3e0a083a	0.134797
3	0x3d97d97a	0.07414527
4	0xbca0bedd	-0.01962226
5	0xbdded2bc	-0.10880038
6	0x3e28c4af	0.16481279
7	0xbe2cba26	-0.16867885
8	0x3dcf6b47	0.101278834
9	0x3d2d2e5a	0.042280532
10	0xbde30f10	-0.11086857
11	0xbe6fb394	-0.23408347
12	0x3b3093a7	0.0026943476
13	0x3e9b598b	0.30341753
14	0xbd5c09bd	-0.053720225
15	0xbe93eb89	-0.28890637
16	0x3e0f0083	0.13965039
17	0xbe95bf53	-0.2924753
18	0xbe07fa86	-0.13279161
19	0x3d6ebf2e	0.058287792
20	0xbe3a031b	-0.18165247
21	0x3dc0a297	0.094060116
22	0x3e47a13d	0.19495101
23	0xbddcfa1b	-0.10789891
24	0xbe422b28	-0.18961775
25	0x3e950290	0.29103518
26	0xbe26765c	-0.16256088
27	0xbe96acfd	-0.29428855
28	0x3e2dc1c5	0.16968448
29	0x3d270e7d	0.0407853
30	0x3c832368	0.016008094
31	0x3cffe849	0.031238692
32	0xbdb97252	-0.09055008
33	0xbd05433d	-0.032534827
34	0xbd7df8c5	-0.062004823
35	0xbe19f441	-0.15034582
36	0xbe7a5074	-0.24444753
37	0xbc9cf674	-0.019160487
38	0xbd8df876	-0.06932156
39	0x3da2b306	0.07944302
40	0xbdfa93cd	-0.12235222
41	0x3e82fe83	0.25584802
42	0xbe0bf0c4	-0.13666064
43	0xbd6891d9	-0.056779716
44	0xbdc8b6aa	-0.098004654
45	0x3d23a412	0.03995139
46	0x3e1a9559	0.15096034
47	0xbd0af839	-0.03392813
48	0xbdb0a2c1	-0.08624793
49	0xbb160e01	-0.002289653
50	0xbe0aa4b4	-0.13539392
51	0xbde69d7f	-0.11260509
52	0x3dadd509	0.08487899
53	0x3bf868e4	0.0075808633
54	0xbd7630c5	-0.060105104
55	0xbc2567b6	-0.010095527
56	0xbccd663c	-0.025073163
57	0x3e2a69d6	0.16641936
58	0x3bb21a14	0.0054352377
59	0xbd1277fd	-0.03575896
60	0x3e3d144c	0.18464774
61	0xbe714e07	-0.23564921
62	0xbd545fdf	-0.051849242
63	0xbe14a597	-0.14516293
64	0xbdc6ed75	-0.0971326
65	0x3d0de22d	0.034639526
66	0x3e48b0ed	0.19598742
67	0xbd04b839	-0.03240225
68	0xbc31da28	-0.010855235
69	0xbd08b360	-0.03337419
70	0xbb8662b5	-0.0041011223
71	0xbe5a5e67	-0.21325074
72	0x3dc29f75	0.0950307
73	0x3da511bd	0.08060024
74	0x3e24352e	0.16035911
75	0xbd51497d	-0.051095475
76	0xbe7b7818	-0.24557531
77	0x3eb6b3f4	0.35684168
78	0x3c2185e2	0.00985858
79	0xbdbf9695	-0.09354893
80	0x3e4906bc	0.19631475
81	0xbe0d2e36	-0.1378716
82	0xbca3f86c	-0.020015918
83	0xbe1b6d2c	-0.15178365
84	0x3e24b7a8	0.16085684
85	0xbe1e6621	-0.15468647
86	0x3e4285a4	0.18996292
87	0xbe2ad247	-0.16681777
88	0xbe64afc2	-0.22332671
89	0x3ef97db9	0.4872873
90	0xbc9c2ecf	-0.019065289
91	0xbe8875f3	-0.26652488
92	0x3dc005e8	0.093761265
93	0xbde62bbb	-0.1123881
94	0xbd6af238	-0.057359904
95	0xbd7aa4ca	-0.06119231
96	0x3d874430	0.066048026
97	0xbdb84077	-0.08996671
98	0xbd829224	-0.0637553
99	0xbd58b839	-0.052910063
100	0xbe7d251d	-0.24721189
101	0xbd1f68d5	-0.038918335
102	0xbe173fb2	-0.14770392
103	0x3d276972	0.040872045
104	0x3cc15269	0.023598867
105	0x3eda1bb8	0.42599273
106	0x3b7258c4	0.0036979178
107	0xbdfa6859	-0.12226934
108	0x3e237adb	0.15964834
109	0xbe79b61a	-0.24385872
110	0xbe56459a	-0.20924988
111	0xbd833c8e	-0.06408034
112	0x3d3f71f0	0.04673952
113	0xbe628a4e	-0.22123072
114	0x3d2d520a	0.042314567
115	0xbe8f898b	-0.28034624
116	0x3e20a3d5	0.15687497
117	0xbdc43e69	-0.09582216
118	0x3de87793	0.11350932
119	0xbe916da2	-0.28403956
120	0xbdfd2fcc	-0.12362632
121	0x3e6d1840	0.23153782
122	0x3e32b7cb	0.17452924
123	0xbd516c8b	-0.051128905
124	0x3e793e79	0.24340238
125	0xbe446055	-0.19177373
126	0x3d950fa2	0.07278372
127	0xbe80e379	-0.25173548
128	0xbe0df4fe	-0.13862988
129	0xbe492d47	-0.19646178
130	0x3e5a73aa	0.21333185
131	0x3ea29f1a	0.3176201
132	0x3e00c99c	0.12576908
133	0xbe386639	-0.18007745
134	0xbe2d278c	-0.16909617
135	0xbe6d8ca5	-0.23198183
136	0x3d5ce8c0	0.053932905
137	0x3ea9796b	0.33100447
138	0x3d089a81	0.03335047
139	0x3e512350	0.20423627
140	0x3dc35c72	0.09539117
141	0xbe9bec0b	-0.30453524
142	0xbe533709	-0.20626463
143	0x3e88240b	0.2659
144	0xbe6438e9	-0.22287335
145	0x3cdbee55	0.026847044
146	0xbdd6a5e0	-0.10480857
147	0x3e8edef4	0.27904475
148	0x3ea5b4cf	0.32364509
149	0xbe671bba	-0.2256917
150	0x3eb5d235	0.35511938
151	0xbe2f1680	-0.17098427
152	0x3eb17278	0.34657645
153	0xbe5fe291	-0.21863772
154	0x3eb66c1c	0.35629356
155	0xbd78dfaa	-0.060760178
156	0xbe83af5a	-0.2571972
157	0x3a7f0c5c	0.000972932
158	0xbcfccf55	-0.030860582
159	0x3e7b0b40	0.2451601
160	0x3c8f158b	0.017466327
161	0x3e3cd4ad	0.18440504
162	0xbce549e8	-0.027989343
163	0x3ec05ea4	0.37572205
164	0x3e1e6783	0.15469174
165	0xbc896309	-0.016770856
166	0xbe8cbaaa	-0.27486163
167	0xbe491314	-0.19636184
168	0xbe93e874	-0.28888285
169	0xbe35eb9d	-0.1776566
170	0x3eaaa8a4	0.33331788
171	0xbe499db4	-0.19689065
172	0xbe977f91	-0.29589513
173	0x3e59b2e5	0.21259649
174	0x3e1d8b19	0.15385093
175	0x3e8f39d9	0.27973822
176	0xbdf902c7	-0.12158733
177	0x3e9ac683	0.30229577
178	0x3ea284c1	0.31741908
179	0xbd0212ce	-0.031756215
180	0xbe82209f	-0.25415513
181	0x3e140a97	0.14457165
182	0x3e56bcc3	0.20970444
183	0xbea5776d	-0.32317677
184	0xbf001df0	-0.5004568
185	0x3e960b75	0.29305616
186	0x3e18993b	0.14902203
187	0x3e0ea9ce	0.13931963
188	0x3e85a1c6	0.26099986
189	0xbe8d783e	-0.276308
190	0x3e4249e7	0.18973504
191	0x3d953ed1	0.07287372
192	0x3e3662d3	0.17811136
193	0xbde829c9	-0.11336095
194	0x3e403999	0.18771972
195	0x3dc0dfe2	0.09417702
196	0x3d957c47	0.07299095
197	0xbe62156f	-0.22078489
198	0xbd2a233a	-0.0415375
199	0xbe594d2c	-0.21220845
200	0xbc4487f5	-0.011995305
201	0x3e286860	0.16446066
202	0xbe1b736e	-0.15180752
203	0xbe07fdcb	-0.13280408
204	0xbe987827	-0.2977917
205	0x3e6c314f	0.23065685
206	0x3de59c6c	0.11211476
207	0xbe8d30df	-0.27576348
208	0xbd187e6c	-0.03722994
209	0xbe25ded6	-0.16198286
210	0xbc95265f	-0.018206773
211	0xbe30cafe	-0.17264935
212	0x3ddef2d3	0.10886159
213	0xbe49b077	-0.19696222
214	0x3e4974e0	0.1967349
215	0xbe6e5f33	-0.23278503
216	0x3d394eab	0.04524104
217	0x3e4a8d41	0.19780447
218	0xbd8c5ad8	-0.068532646
219	0xbe1acc39	-0.15116967
220	0x3e6cf504	0.23140341
221	0xbd49c53e	-0.04926037
222	0xbd3df22c	-0.04637353
223	0xbe55b1fd	-0.20868678
224	0x3e35e683	0.17763714
225	0x3d1281ba	0.03576825
226	0xb9b1be75	-0.00033901972
227	0xbe5d2a6c	-0.21598214
228	0xbe623785	-0.22091492
229	0xbd4fc549	-0.050725255
230	0xbe913c99	-0.28366545
231	0x3db013bb	0.08597513
232	0xbdb25cff	-0.08709144
233	0x3d6d0fcf	0.057876404
234	0xbdb262c3	-0.087102436
235	0x3d338d36	0.04383584
236	0xbd8a3199	-0.06747741
237	0xbe6c91b2	-0.23102453
238	0xbd7c668c	-0.061621234
239	0xbda01a93	-0.07817569
240	0x3d652792	0.05594594
241	0x3d1ba42a	0.037998356
242	0x3e355163	0.17706828
243	0xbe6a2a1a	-0.22867623
244	0xbe0c9634	-0.13729173
245	0x3d80a035	0.06280557
246	0x3e07f995	0.13278802
247	0x3d54addc	0.051923618
248	0x3e4774c7	0.19478141
249	0xb7de5fe4	-2.6509115e-05
250	0x3c320c8e	0.010867251
251	0xbe8f82e5	-0.28029552
252	0x3d71b487	0.059010055
253	0xbe0b3b79	-0.13596906
254	0xbd417228	-0.04722801
255	0xbe2b782b	-0.16745059
