sgan-dataset/logs/zara2/models_04_Mar_2019_00_49_31/model_registrar-399.pt (torch_old, 575433 bytes, 45 tensors)

weight_ih_l0 f4 [128, 6]
00000000: c57f 25be 78e8 40bd 9e4e 0abe dd3e abbc
00000010: 6eaf 0dbe c062 4f3e b002 45be 4220 41be
00000020: 4178 cabd 9610 81bc a89d a8bc 8a14 a4bb
00000030: 457b 18be 8071 edbd b0e3 a1bd 8c43 dfbd
00000040: ad82 febd 9cd9 163e c8de 9ebd ec07 4b3d
00000050: 9c3b c53d e087 8bbc b90a 26bd 3851 543e
00000060: 96e0 a5bd 12d7 403d 9ce8 37be 0bfa e43d
00000070: 8f35 273e 2662 13be 7245 253e b162 973d
00000080: e60b 1d3d dc43 023e ec8f d93d a03f a13c
00000090: 2593 27be 60aa a0bd 8a16 5cbe 065a 843d
000000a0: 153b ad38 c467 b8bd e10e 393b 1003 393e
000000b0: f20d 0abe 0c95 843b a427 ecbd d540 b53d
000000c0: 146a 1e3e f127 dc3d 78a5 e93d 9670 bf3d
000000d0: f02f 633b 662b 9f3d fa41 01be ca2b 5dbe
000000e0: 6566 45be 0e11 893d 410d c7bb 11b1 0ebe
000000f0: e9de b23c b283 133e 0084 2ebe 83ab 58be
00000100: 94e8 91bd b290 b93d a44b 5bbd 78d9 a1bc
00000110: 7e48 eabd b247 f53d 3ec4 133e 641b e03d
00000120: cca1 1ebe 0c2e 1dbe 232c ce3d 4301 b23b
00000130: 287e b83d 0d64 5bbe 67c6 16bd 73b9 d73d
00000140: 512c 3c3e c5ef d1bc 610f 91bd 0231 4bbb
00000150: a8e2 11be aa76 babd f4f7 e4bd c28b 4e3e
00000160: 40dc b4bc eeb2 da3c 3ee6 f9bd b77c 193e
00000170: 74ad f13d 444e 893e 7adf 9539 70e9 27bc
00000180: 62a6 1c3e 0b31 d03d bf20 e73c 6350 bb3b
00000190: 8f43 0e3e 9eab f9bd 6b8d fdbc 4fee 0ebe
000001a0: 77e9 a33d 60aa b6bd 9619 3dbd ea52 323e
000001b0: 75bd c53d c243 923c d53f 7a3d ca22 bf3b
000001c0: 7232 ca3d a1d7 9cbd 5872 92bb 85ef 213d
000001d0: decf 4abe be27 823d 3984 d13d cdf0 4d3e
000001e0: bd87 9ebd f8e1 283d 354e 533e b9c3 33bc
000001f0: 6068 0c3e e5b6 afbd 9d30 32bd f374 f0bb
00000200: 4d3f 893d 9804 063e 63ce 43be 8514 383e
00000210: 43b6 a5bc bd17 21be 938f 84bd e8d2 acbd
00000220: edda db3d 031a ea3c 8a4f 61bc 96d2 b6bd
00000230: b7ad a2bd f2ce 533c 2649 8b3d c3e5 653e
00000240: 766d 4dbb 2fad ddbd 4df6 55be 0815 e2bd
00000250: afab eebd deec 13bd 9a27 02be 7311 a1bd
00000260: cc63 72bc b99c 993d 9251 173d 1c9b 463e
00000270: 55b0 12be fd5d 1fbb e5bc 01bd c75f 42bc
00000280: 07ee 473d 2a38 8a3e ebf1 edbd 7ede 193e
00000290: 63d2 863e c971 c53d 3130 81bd 4343 443e
000002a0: 1d49 e53d b794 063e 05d1 923c af93 22be
000002b0: 91af d23c 21a3 803d 1bc3 0abe f32b dbbd
000002c0: eaf0 2cbe ba48 c4bd 1432 123d 06b7 99bb
000002d0: 67ed 2fbc 7017 c93c 0fd3 f83d 9630 63be
000002e0: c748 0dbe 5128 cfbd 9cbe c6bd a58f a63d
000002f0: 8174 f33d 5644 2cbe 1ad6 bdbd d4ca 5bbe
00000300: 8926 0fbd 2294 a33d 2c11 51be a478 48be
00000310: 2e5f 4d3d 979f 2ebc b516 b93d ac90 e1ba
00000320: 9ef3 04bd 2d49 b7bd 04d9 6d3d ca56 5cbd
00000330: ea87 08be d2d6 82bb 0aa6 a2bc ce1b 95bd
00000340: 8c12 0e3b d9c3 033e c0e2 a8bd c4a2 c6bc
00000350: 3689 f53c 6d26 06be 2694 a9bd 432c 26bc
00000360: d53b aa3d 44a9 d6bd c6e7 afbd c49a aa3b
00000370: 27df 03be 5e6d d9bd 9f9f a43d 5882 6dbd
00000380: 9b3f 873d dfe4 f0bd ede1 e1bd 237c e5bd
00000390: 2f17 6d3d 52d7 fdbc 8cdd e7bd a6f5 533c
000003a0: 2708 dfbd 7a84 a23d 2b66 b73c d5d4 ddbd
000003b0: 6497 41bd ce10 3bbc e422 25be 73bf 0b3e
000003c0: 7c99 bb3d 1228 0dbd fae7 8ebd 8dd6 2c3d
000003d0: 70e1 b13d bb7e 2b3e b4be 49be 34f1 ddbd
000003e0: b9b0 a23d db36 d5bc c999 baba 420a 023d
000003f0: e619 163e b7d0 13be 44ed 69ba 9e00 1abd
-0.16162021 -0.0470967 -0.13506553 -0.020903999 -0.13836452 0.20252514 -0.19239306 -0.18859962
-0.09886218 -0.01575498 -0.020582989 -0.0050073313 -0.14890774 -0.11593914 -0.07904756 -0.109015554
-0.12427268 0.14731449 -0.07757336 0.0495681 0.0963051 -0.017032564 -0.04053757 0.20734107
-0.08099477 0.047080107 -0.17959827 0.111805044 0.16329025 -0.1439291 0.16139773 0.07391871
0.038341425 0.12721199 0.10623154 0.01968366 -0.16364725 -0.078449965 -0.21492973 0.06462483
8.260288e-05 -0.09004167 0.0028237628 0.18067575 -0.13481882 0.004046088 -0.11530998 0.08850256
0.15470153 0.10749806 0.11408514 0.09347646 0.0034666024 0.077719495 -0.12622824 -0.21598735
-0.19277342 0.06692706 -0.006074578 -0.13934733 0.021834807 0.14405707 -0.17042542 -0.21159177
-0.07124439 0.090608016 -0.053538933 -0.019757017 -0.11439608 0.119765654 0.14430329 0.10942724
-0.15491408 -0.15349597 0.10067012 0.0054322793 0.090084374 -0.21424885 -0.036810305 0.105334185
0.1837628 -0.025627026 -0.070830114 -0.0031004553 -0.14246619 -0.091046646 -0.11180106 0.20170501
-0.02207768 0.026696648 -0.12202118 0.14988981 0.11800662 0.26817524 0.00028585998 -0.010248527
0.15297845 0.10165604 0.028213857 0.00571637 0.13892959 -0.121909365 -0.030951222 -0.13958095
0.08003514 -0.08919215 -0.04616698 0.17414442 0.09655277 0.017854575 0.06109603 0.0058330046
0.09872903 -0.076583154 -0.0044691972 0.039535064 -0.19805858 0.063552365 0.102302976 0.2011139
-0.07740734 0.041231126 0.20635302 -0.010971957 0.13711691 -0.08579806 -0.043503392 -0.00733816
0.06701527 0.1308769 -0.19121699 0.17976578 -0.02022851 -0.15731712 -0.06472697 -0.08438665
0.10735116 0.028576856 -0.013751874 -0.08926885 -0.0794329 0.012927758 0.06801061 0.22450928
-0.0031345761 -0.10824048 -0.20894738 -0.11039168 -0.1165384 -0.036114566 -0.1271042 -0.07864656
-0.014794301 0.075005956 0.036943026 0.19395107 -0.14325078 -0.0024317496 -0.031674284 -0.011863655
0.048810985 0.26995975 -0.11618408 0.1502628 0.26332387 0.096408434 -0.0630802 0.19166283
0.11195586 0.13142668 0.017921934 -0.1587665 0.025718482 0.06281114 -0.1355099 -0.10701742
-0.16888776 -0.09584184 0.03569229 -0.0046910075 -0.0107377535 0.024547309 0.12149631 -0.22186503
-0.13797294 -0.101151116 -0.097043246 0.08132867 0.11887456 -0.16822943 -0.09269352 -0.21464092
-0.03494886 0.079872385 -0.20416707 -0.19577271 0.0501396 -0.010658166 0.09037534 -0.0017209253
-0.032458894 -0.08949504 0.05806829 -0.053793706 -0.13333097 -0.0039928937 -0.019854564 -0.07280694
0.0021678535 0.12867679 -0.08246374 -0.024247535 0.029972654 -0.13100596 -0.0828021 -0.010142389
0.08312193 -0.104815036 -0.08589129 0.005206438 -0.12878095 -0.10616563 0.08038258 -0.057985634
0.06603929 -0.11762404 -0.1102942 -0.11205318 0.057883438 -0.030986462 -0.113215536 0.012936985
-0.10890227 0.07935424 0.022387585 -0.1083161 -0.047263518 -0.011417581 -0.16126591 0.13647251
0.09160134 -0.034462042 -0.0697784 0.0421968 0.08685577 0.16747563 -0.19701654 -0.108370215
0.079438634 -0.026027134 -0.0014236505 0.031748064 0.14658317 -0.14435087 -0.00089236 -0.037598245

weight_hh_l0 f4 [128, 32]
00000000: 4fc1 0f3d 0c65 253d f01a 8739 e4f6 823d
00000010: cd40 89bd ba5f 78bb 0e95 61be c30b 26bd
00000020: a982 ad3d c5ef 5b3c d441 963d 2d8b 263e
00000030: b7ad 51bd b604 343e 913b 053e 80a6 5d3e
00000040: 8dd6 2d3e 516e 08be 3171 253c 6370 27be
00000050: b568 b5bd 75f7 17be 966d e2bd d58e f6bd
00000060: fda4 213c e70a 00be 6711 093d 33a6 703e
00000070: fdfe d23d 14c6 b73d 6741 dbba 7b68 05be
00000080: 595e 803e 2612 03be ef62 bb3d ffdf 58bd
00000090: 9eb4 8a3d c777 163e c386 41bd 0ac2 c9bd
000000a0: dfc3 de3d ee3f b3bd 8899 b8bd 8187 e1bd
000000b0: ba92 42be 491e 133e 823c 1c3e bccb d33c
000000c0: e14e 0c3e fa91 0d3e 5d64 08be 99a7 063c
000000d0: 92a4 e63b 7d0e 14be 3f3e 0abe 5488 8cbd
000000e0: cdd3 ccbd f417 1fbd 94a1 56be 4f1d 9bbd
000000f0: 571d 0cbd 7beb 1a3d 1764 183d c271 b5bd
00000100: f4a0 d13d 2819 efbd b672 a7bd bb7e 043e
00000110: f440 113d 4ce8 883d bdb2 30be 2bdb 22be
00000120: 9ca5 e3bc 5650 153e c86a 24be 04a3 cd3d
00000130: 79a8 d2bd 0a93 05be 5f1a fd3d 705e 03be
00000140: 2d98 8d3d 839d 3bbd f7d6 023e c757 35be
00000150: 3c69 c13d c05d 2d3e 750a 283d 0795 1a3e
00000160: d03f 063e 3d7b ac3d bde0 e73d 436d 223e
00000170: 4c1f 073e 7f97 a83d 69e8 f4bd 098f c23d
00000180: 3c9e be3c cdb5 4c3d a26e fa3c 93c9 be3d
00000190: a769 33be 1119 cfbd c5d4 a4bd 2718 0f3e
000001a0: 81e5 e3bd 7117 93bd 577a 13bd 3525 31be
000001b0: a4d3 30be cbfc 03be 9479 0dbe 8b12 e8bd
000001c0: e1b8 80bc 9912 4c3e 52b1 eabd fe05 8abd
000001d0: f135 96bd c97e 003d b1a1 dc3d e484 b9bd
000001e0: 49a4 debd dbb1 2d3d d038 42be 7b50 013e
000001f0: 0292 a8bd 86ea 843d 56a9 033e 7d03 943d
00000200: 58ec 22be 4f56 47bd e425 1f3e 210e 2fbe
00000210: 7b61 0b3e 1857 04be 5a80 36bd bae4 f23d
00000220: ad78 23be 20f9 45be 5a4f f5bc d270 04be
00000230: 892d 00bc 3513 cc3d c9dc b73d 73eb 1abe
00000240: 620c f2bc 86ae 17be cef7 f0bd 4400 9b3d
00000250: 14c1 463d 759f 313e cec3 883d 740f e7bd
00000260: 1fd0 0a3d 4c3c 03be e4b2 2dbe ef23 23be
00000270: aac6 313e a004 a9bd 8373 033e bbed f6bd
00000280: 6a66 f43d b83a cbbd 397d 013d 9962 5ebe
00000290: 7870 93bd 9183 54bd c063 07bc ff57 94bd
000002a0: 9086 2bbd 67bd 383d 47a1 083e eb40 2dbe
000002b0: cc80 fbbd e4eb 573d edb4 ccbc 5075 0cbd
000002c0: ec25 9c3b a0f4 053e 0dfd 3ebe df6f 063e
000002d0: 0415 b83d 3e2e cebd c690 10bd be30 2cbd
000002e0: 4525 56bd d87c d3bd 6e23 1f3e fff0 3f3e
000002f0: d98c 5e3d a22d de3d 9db4 143e e035 973d
00000300: 6e39 283e 5f8c 953d 785b 2cbe e8b4 3a3e
00000310: 562f 9abb 3f68 7cbd 9eaa 7e3c b6b6 09be
00000320: 58f1 70bd 08cd 2b3d e805 40bd deb2 eabd
00000330: 6de3 20bc 7577 2c3e eb57 c3bb ad21 313d
00000340: dad3 f83c 1049 02be a514 e83c feff 14be
00000350: f61e d63d 4a9c 333e 3add 203e 39bd 31bc
00000360: b2b1 36be ca3b 7c3c d1eb 013e 7e33 c13c
00000370: f097 36be d83b 283e 0c82 17be b334 283d
00000380: 60f3 663e a30f 5dbd 791c 77bd 2679 2ebc
00000390: bc4c 0cbd 37c0 9e3d dedf 6a3d d1c0 393b
000003a0: 1475 a2bc 37ea 16be 6f35 4fbd a7fe 12be
000003b0: bde1 543e 49d0 6ebd df8d b03d 5c78 4a3d
000003c0: d91b ec3d ff76 d0bd 6e33 13be 8a0d 2abc
000003d0: c0b0 23be cc09 9ebd 9753 87bd d50d 3ebe
000003e0: 510d 8b3d 8150 393e a275 dd3c d949 fe3d
000003f0: 52a6 0e3e 1cad 2e3e fff6 66bb fc01 b23d
0.035096463 0.04037957 0.00025769277 0.06394747 -0.06701813 -0.0037898854 -0.22029516 -0.04053856
0.08472187 0.013423865 0.073367745 0.16264029 -0.051191058 0.17579922 0.13011004 0.21645546
0.16976376 -0.13323332 0.010097788 -0.16351466 -0.08857862 -0.14840491 -0.11056058 -0.12038962
0.009865996 -0.12504159 0.03346386 0.235009 0.103025414 0.08973327 -0.0016727865 -0.13028137
0.25071982 -0.12799892 0.091497295 -0.052947994 0.06772731 0.14694129 -0.04724766 -0.09851463
0.10877203 -0.08752428 -0.09013659 -0.110121734 -0.19001284 0.14367022 0.15257457 0.025853984
0.13701965 0.13825217 -0.13319536 0.008218669 0.0070386613 -0.14458652 -0.13500308 -0.0686194
-0.10001335 -0.038841203 -0.20960075 -0.075739495 -0.03420767 0.037822228 0.037204828 -0.08859588
0.102357775 -0.1167472 -0.08176176 0.12938969 0.035462335 0.06684932 -0.17255683 -0.15903918
-0.02778893 0.14581427 -0.16056359 0.100408584 -0.1028604 -0.13044372 0.123585455 -0.12828994
0.06913791 -0.04580451 0.12777315 -0.17709266 0.094439 0.16930294 0.041025598 0.15095912
0.1311028 0.08421943 0.11322162 0.15861993 0.13195533 0.082320206 -0.11958391 0.09499938
0.023268811 0.049978066 0.030570332 0.09315791 -0.17520772 -0.10112203 -0.08048395 0.13974057
-0.11127759 -0.071822055 -0.036005344 -0.1729935 -0.17268234 -0.12889402 -0.1381591 -0.11331662
-0.015713157 0.1992897 -0.114596024 -0.06739424 -0.07334507 0.03137091 0.10773028 -0.0905855
-0.10871179 0.042405944 -0.18966985 0.12628357 -0.08230974 0.06490044 0.12857565 0.07227228
-0.1591047 -0.048666295 0.15541798 -0.17095234 0.13611405 -0.12923849 -0.044556 0.118600324
-0.15964003 -0.19333315 -0.029945064 -0.12933663 -0.007823356 0.09964601 0.08977658 -0.15128879
-0.02954692 -0.14812669 -0.11766015 0.0756841 0.048523977 0.17345984 0.06677972 -0.11282244
0.033889886 -0.1281597 -0.16962773 -0.15931676 0.1736094 -0.08252835 0.12837033 -0.12057062
0.119335964 -0.09923309 0.031613562 -0.217173 -0.07199186 -0.051883284 -0.008263528 -0.072433464
-0.041876376 0.045102503 0.13342772 -0.16919295 -0.122804254 0.052715197 -0.024988616 -0.034291565
0.004765263 0.13081598 -0.18651219 0.13128613 0.089883834 -0.10067414 -0.035294317 -0.04203867
-0.052281637 -0.103265464 0.15540859 0.18744276 0.05433354 0.108485475 0.14522023 0.07383323
0.16428158 0.07302164 -0.16831768 0.18233073 -0.00470535 -0.061622854 0.015543608 -0.13448605
-0.058823913 0.04194358 -0.046880633 -0.114598975 -0.0098198475 0.16842444 -0.0059614084 0.043245006
0.030374456 -0.12723184 0.028330157 -0.14550778 0.10455124 0.17540088 0.15709391 -0.010848337
-0.17841223 0.015395114 0.12687613 0.023584124 -0.17831397 0.16429079 -0.14795703 0.041065883
0.22553778 -0.05396999 -0.060329888 -0.010649001 -0.034252867 0.07751506 0.057342403 0.0028343687
-0.019831218 -0.14737783 -0.050588068 -0.14354955 0.20789237 -0.058304105 0.0862081 0.04943119
0.11528749 -0.10178947 -0.14375088 -0.0103792045 -0.15985394 -0.07716712 -0.0660774 -0.18559964
0.06789649 0.18097116 0.02703363 0.12416429 0.13930634 0.17058223 -0.0035242436 0.08691785

bias_ih_l0 f4 [128]
00000000: 2175 b9bd 6ce6 9bbd 4088 a1bc 69c5 e2bd
00000010: bbe9 17be 9e90 133e 06e0 27bd 744f 38be
00000020: b502 d03c b811 19bc 1ce2 153e b06c 1d3e
00000030: 78d3 8d3d ec8b 23be a6af bd3d cbce 0ebe
00000040: 818c 0bbb 1175 0e3e 1298 46bd d3ee e63d
00000050: 5a20 ef3c 6cbe 98bc 4611 14bd f8ad 41bd
00000060: 73e9 e53d 7f1f 863d 76b6 11bd 479f 133d
00000070: 6790 c4bc 33bd dcbd 1449 3ebe 79d0 11bd
00000080: f720 4c3e 38fb 12be 6528 20be f0b9 ea3d
00000090: 8307 16be 2469 a3bd b00d 0cbe 50f4 dbbc
000000a0: a940 05be 4916 ab3d 4aca 9abd 1f56 593d
000000b0: be64 42bd 5946 2a3e 97c2 7abc 66f5 f1bd
000000c0: a44a e03d 3d8e d23d d5c7 b0bd be73 8f3d
000000d0: 61d1 1ebe 90c3 b83d 9092 ee3d a706 ce3d
000000e0: b5ec 9b3d e2ba 113e f93a 043e c314 da3d
000000f0: d044 c8bc b4b6 1abe f855 44be b888 14be
00000100: 7591 fa3d 8296 0d3e 573a acbc 7dc7 8d3d
00000110: 6267 abbd db3d 773c 5e50 b63d 1f95 98bd
00000120: 3ca5 c13c 31be bf3d 1b1a efbd 6310 653d
00000130: d91a 10be 83da 81bd 37f8 7bbd 3432 45be
00000140: 43ab eebd 2184 0abe c01b 0b3e 0105 d9bc
00000150: 60fa c8bb 4f8f e33d 235b aa3d cb06 12be
00000160: 902a 1c3e a82d 01be fb1b 053e 41c6 2bbe
00000170: 05f4 06be 2b33 013e 3dcb 283d ab2c 97bd
00000180: 4055 cd3d d187 e2bd 455e 8d3c 2902 7ebd
00000190: a2a8 2c3c 4bb9 923d c639 babb c751 25be
000001a0: e11e c5bd cd06 1c3d a1f6 bcbd a20a b93d
000001b0: 6c23 113d fc35 38be c034 033e 4681 133d
000001c0: dd55 fb3d 47f4 6d3d e00c 473d 0271 80bb
000001d0: d646 e73d 3a54 e8bc 863a 99bd 7deb ba3b
000001e0: acb5 cebd e804 d43d 28bd f43d 7769 e1bc
000001f0: 42df e23d da31 c03d c848 07be 29cb 56bd
-0.09055544 -0.07612309 -0.01971829 -0.11072809 -0.14835255 0.14410636 -0.04098513 -0.17999059
0.025391916 -0.009342603 0.14637035 0.15373492 0.069251 -0.15971345 0.09262018 -0.13946073
-0.0021293464 0.13911845 -0.04848487 0.11276021 0.029190231 -0.018645488 -0.036149286 -0.04728505
0.112261675 0.06548976 -0.0355744 0.03604057 -0.023994638 -0.107782744 -0.18582565 -0.035599206
0.1993445 -0.14353645 -0.1564041 0.11461246 -0.14651303 -0.07979038 -0.13677096 -0.026849896
-0.13012947 0.0835386 -0.07558115 0.053060647 -0.047459356 0.16628398 -0.015305183 -0.11814384
0.109517366 0.10281036 -0.08631865 0.07004498 -0.15509559 0.090216756 0.11649048 0.100598626
0.07613508 0.14231446 0.12913121 0.10648491 -0.024446875 -0.15108758 -0.1917342 -0.14505279
0.12234775 0.13826945 -0.021023912 0.06922815 -0.08369328 0.015090431 0.089020476 -0.074503176
0.02363836 0.09362448 -0.11674901 0.05592383 -0.14072742 -0.06340506 -0.061516013 -0.19257432
-0.11653759 -0.13526966 0.13584805 -0.026491644 -0.0061333627 0.11111318 0.08318164 -0.14260404
0.15250611 -0.12615073 0.12998955 -0.16774847 -0.13179024 0.12617175 0.041209448 -0.073815666
0.10026026 -0.11061061 0.017256865 -0.06201378 0.010538252 0.07164248 -0.0056831567 -0.16144477
-0.0962503 0.038092423 -0.09226728 0.09035231 0.03543417 -0.17989343 0.12813091 0.036011957
0.122722365 0.05809429 0.048596263 -0.0039197216 0.11292808 -0.028360475 -0.074818656 0.005704342
-0.10093245 0.10352498 0.11950141 -0.02751611 0.11077739 0.093845084 -0.13211358 -0.052439842

bias_hh_l0 f4 [128]
00000000: e714 0abe 420e 81bd 7731 1dbe a6e4 4f3d
00000010: 3af9 95bb cd60 ccbd e90e 12be 11fc 1ebb
00000020: 6a5d e23d 4349 1f3e 6473 e1bd 71ce ec3c
00000030: 9719 2dbe ecc8 093e 4d61 083e ffb3 ab3c
00000040: 1678 b6bd c3d6 063e b8a2 13be d640 8c3d
00000050: bd1c 353e 17f6 253e 35d0 f9bb 8e5e 8b3c
00000060: 9e1c 643c 6d47 4e3d 3991 1b3d 667f 63bd
00000070: a74f d8bd 9ddf efbd 1932 eebd 8712 6f3c
00000080: 787a e23d f387 f0bd bc78 a63d e374 bbbd
00000090: 9dbc 253e c117 aa3d 33b0 883b b4cb 2fbe
000000a0: 8c78 6abd b5c6 df3c 2306 68bd bb2c 05bc
000000b0: 33ca 4dbd f17e 57bc 74a6 b93d 1e54 8bbd
000000c0: db54 aebc 0ae5 0e3d 696d 6dbd 3ad2 e3bd
000000d0: 814e 37bc 91a4 94bd 5844 dabd 18b5 943d
000000e0: 7681 02be 3c4e 2abe 70c8 febd 9c90 3b3d
000000f0: 68ba 57bd 43a2 a93d 3e53 74bd 2817 203e
00000100: e5c5 24be c0a2 05be eca1 183e 5fc6 5e3c
00000110: 611e 313e 9832 423d e7e7 c6bd 6533 e2bc
00000120: 9ada 283e 655e cd36 f199 353c f9f2 953d
00000130: 49c8 233d fd2c 473b ef8f 0ebe 99b5 3dbd
00000140: 104d c1bc 3562 db3d 8e10 7b3d 38bf 1cbe
00000150: d705 27be f780 4f3d 4743 24be bb02 d83d
00000160: f41b b0bd 1b05 a8bc ca25 083e e9af 58bd
00000170: 7c72 f6bd b121 1cbe 627b 883c 5d3c f73c
00000180: d125 72bc 2e46 c23c ea2c 0ebe 2844 293e
00000190: 3d8b df3d cb89 ccbc a286 453e 72ba 183e
000001a0: 8fdb 19be 1a93 773d aa93 183e 1442 2b3e
000001b0: a8f3 423d 01b9 593c 598c 443d 2ab7 333d
000001c0: ba9a 103e 122c a1bd 7b61 1d3e 8d77 02be
000001d0: 6699 9b3d cea3 263e ba9b 9d3d d99c 0d3e
000001e0: d3f6 b13d aa25 a23d b287 2f3e b997 aebc
000001f0: c610 98bc 4ed8 b43d 4e3c d7bd 85db 173e
-0.13484536 -0.063015476 -0.153509 0.050755166 -0.0045768293 -0.09979401 -0.142635 -0.002425913
0.110529736 0.15555291 -0.11008337 0.028907033 -0.16904293 0.13455552 0.13318367 0.020959852
-0.08909623 0.13167863 -0.14417541 0.06848304 0.17686744 0.16207157 -0.007623697 0.01701286
0.0139228385 0.050361086 0.037980292 -0.05554142 -0.105620675 -0.11712573 -0.11630649 0.01459182
0.11058515 -0.1174468 0.08128497 -0.09153154 0.16185232 0.08305312 0.004171395 -0.1716755
-0.05724387 0.02731643 -0.056646477 -0.00812834 -0.05024166 -0.013152824 0.090649515 -0.068031535
-0.021280697 0.034886397 -0.05796567 -0.11124082 -0.01118815 -0.07257951 -0.10657567 0.072611034
-0.12744698 -0.16631407 -0.12440574 0.045792207 -0.052668005 0.08282902 -0.0596497 0.15633833
-0.16091116 -0.13050365 0.14905518 0.0135971 0.17296745 0.04741153 -0.097122006 -0.027612397
0.1648964 6.120465e-06 0.011084066 0.07321734 0.03998593 0.0030391805 -0.13922094 -0.046315763
-0.023596317 0.10712091 0.061295085 -0.15307319 -0.16310821 0.0506601 -0.1604129 0.10547396
-0.08599082 -0.020510247 0.13295665 -0.052902136 -0.12033555 -0.15247227 0.016660396 0.03018015
-0.014779524 0.023715105 -0.13884321 0.16529906 0.109152295 -0.024968049 0.1928964 0.14914873
-0.15025161 0.06044302 0.1490008 0.16724426 0.04759565 0.013288737 0.04798541 0.04387585
0.14121523 -0.07869734 0.15369217 -0.12740918 0.07597618 0.16273424 0.07695718 0.13829364
0.08689656 0.0791734 0.17141607 -0.021312581 -0.018562686 0.08830319 -0.10509549 0.14829834

weight_ih_l0 f4 [128, 2]
00000000: 5521 93bb 7251 833d f3b2 0abe ec1a 65bd
00000010: 0288 723e 0696 cbbd 0015 063c fd09 70bd
00000020: 7b62 20bd e5a3 67be 8b83 86bc 433b c13d
00000030: 1c00 30bc b5e7 00bd aa21 293d 0999 5fbe
00000040: b238 f23d 005d 85be c1c9 663d 42c3 c73c
00000050: 9dce e03d 1507 683e 4f5e 9e3c f185 35be
00000060: 66e1 ecbd 1ddd 903d 727f f93d f950 bd3d
00000070: 57f1 28be 14ce 0bbe 4bc0 ffbd b377 a53e
00000080: f480 50bd 07ce 7fbb 9349 383e 44c3 553c
00000090: 7ed9 4abc 5cf2 38bd b2a3 83bd 255f 913b
000000a0: 7137 1b3e 3bcf 54be 3881 983c 29da 92bc
000000b0: 92a7 abbd f095 8f3d cad2 acbd 0211 75bc
000000c0: 0a46 dbbc 4f55 11be 3246 993c c914 ec3c
000000d0: 4840 1f3e 0854 d73c d423 1abe 5237 b9ba
000000e0: c9f4 0abe 6a50 d73d 7866 ecbc 5662 ebbd
000000f0: 49ff 193e 8010 86be bd57 1cbe 462c 53be
00000100: 6d71 11be e669 44be 105d a83c 63f7 61be
00000110: ed62 023e 76bf 75bc d2e9 2e3e e63a 82bc
00000120: 0fa6 703e fce8 71be a541 8d3c a87d a1bd
00000130: 3ca7 f1bd 66c7 413d 0b39 1e3e 6bd6 42bc
00000140: b11b a4bd 8786 56be 7095 0e3e 399b a63c
00000150: bda5 443e 25dc 6c3d 8986 9abd 0778 e7bc
00000160: 4f83 b1bd 9ce4 313e 1c77 d0bb 727f 6d3d
00000170: 1f41 85bc 891f 57bd f288 28bd 06b4 513e
00000180: 9197 153e e7d1 35bd 64b6 623b be3e 79be
00000190: 3644 cabc 9447 893d fe29 51be 8052 3bbd
000001a0: b573 39bd 637e 0cbe ccd6 463e 8549 08be
000001b0: 14d1 8fbd 2691 4dbd 2f31 e9bc f84a 69be
000001c0: 02a6 14be e360 11be fc0c da3d 8f83 20bd
000001d0: 79e9 713d c3b7 ccbd 106f f83c a55f 09be
000001e0: 4480 543d cf23 06be 85a9 56bd cbc0 ecbc
000001f0: 1ca2 0b3e 9f7a 5fbe 6543 1bbe cc39 8ebe
00000200: f250 153e 0886 4e3e 45f4 fabd 1092 8bbe
00000210: 5d14 8cbe 0c47 4d3d 71c5 86be 710c 6ebd
00000220: 5c37 36bd 41af 0fbe bbdf 523e fdd5 8bbe
00000230: f8fc 15be d354 373c 9c6c 363e e96b 2cbe
00000240: 671d 513e 2d39 243e a9bf e6bd a5f5 9e3e
00000250: 4ae7 853e 2524 543e 0db9 32bd 74b4 69bd
00000260: 7141 5cbe 140b 79be 60f8 453e 7c47 503e
00000270: a9dc 37be 97b7 90be 4db4 9ebe f551 903e
00000280: baf9 afbd f3cc 1d3e c38c 6ebe d4ec 4c3e
00000290: 5bdd 98bd 21c0 873e 7bbb fb3d 5de0 683e
000002a0: dbfd 00be c9a6 0cbe e123 2dbe c049 4b3e
000002b0: bbad c43d 59da dfbc edb0 473e 7d7e 41bc
000002c0: b820 233e 5be3 3c3e 85e9 933e 4295 b93d
000002d0: 8277 24be 5be3 493e 3d4d 533e fa9e 3cbe
000002e0: ae1b 893e 5e12 263e 79cc 503e 0937 9f3e
000002f0: 4e86 193d 6a51 05be f01f 7dbe 8b8d a93d
00000300: 1577 58be 0369 0cbe 3609 f63d 5d06 ec3c
00000310: ba6b f93d b8ec 3abe 0944 293e 9087 4ebd
00000320: 2924 68ba db00 8fbe 8ae2 ccbc 4637 21bd
00000330: befb cdbd b69e 7dbe 7b04 d7bd 21ab 6cbe
00000340: f921 e83c a16f a23c 05d1 acbd 7713 58be
00000350: 235a 8d3e 3e80 583e 51c9 c83d 184d 7ebe
00000360: e4a6 173e 7c76 923d 93b5 873d 024f 853e
00000370: ac12 2d3d 7e05 b33c e4c7 4abe e889 cb3e
00000380: e7ba 123d e74b 87bd 683b 34bd e1a6 8dbe
00000390: 8ec5 2dbe fe6d 53be 2f30 b43d 04d8 c13d
000003a0: 3f7c d13c 868f b6bd 5177 533b 365c b9bd
000003b0: d725 1e3e 5dd6 b8bc 19c3 0bbe 890f 5fbe
000003c0: 6813 b93d 9d5f 19bd 186e 1b3d c732 30be
000003d0: 16e0 513e 46c2 2ebe 3b5b 993d 8515 853d
000003e0: 1248 31be 4f2e 28bd 5e56 97bd 5669 85be
000003f0: 2685 933d 8a21 f2bd aaca b03c 0d28 89be
-0.0044900575 0.06412019 -0.13544826 -0.055933878 0.23684695 -0.09940724 0.008183718 -0.058603276
-0.03915642 -0.22621115 -0.016420146 0.094351314 -0.010742214 -0.031470973 0.04129187 -0.21835722
0.1182722 -0.26047516 0.05634475 0.024385098 0.10976908 0.22658952 0.01933208 -0.17726876
-0.11566429 0.07073424 0.121825114 0.0924396 -0.16498314 -0.13652831 -0.12487849 0.32317886
-0.05090423 -0.0039032714 0.17996816 0.013047043 -0.012380956 -0.045153007 -0.06427707 0.004436391
0.15157868 -0.20782177 0.018616304 -0.017926292 -0.08381571 0.0701102 -0.08438642 -0.014957668
-0.026766796 -0.14192699 0.01871023 0.028818505 0.15551865 0.026285186 -0.1505273 -0.0014130867
-0.1356994 0.10513385 -0.028857455 -0.114933655 0.1503879 -0.26184464 -0.15267844 -0.20622358
-0.14203425 -0.19181022 0.020552188 -0.22067027 0.1273305 -0.014999261 0.17081383 -0.015897226
0.23500846 -0.23624033 0.017243216 -0.07885295 -0.117994756 0.0473093 0.15451448 -0.011891942
-0.08013094 -0.20949756 0.13924193 0.020337688 0.19203849 0.057827134 -0.07545192 -0.028255476
-0.08667623 0.17372364 -0.006361855 0.05798287 -0.016266404 -0.05252031 -0.041146226 0.2047883
0.14608599 -0.04438963 0.0034593577 -0.2434034 -0.024690729 0.067031056 -0.20426175 -0.045732975
-0.045276362 -0.13720088 0.19417876 -0.13309295 -0.070223 -0.050187252 -0.028465835 -0.22782505
-0.14516452 -0.14197116 0.10647008 -0.039187964 0.059060548 -0.09995987 0.030326396 -0.13415392
0.051880136 -0.13099597 -0.05240776 -0.028900525 0.13636059 -0.2182412 -0.15162428 -0.2777847
0.1458166 0.20168316 -0.12253622 -0.27259874 -0.27359286 0.050116584 -0.2632251 -0.058117334
-0.04448639 -0.14031698 0.20593159 -0.27311698 -0.14647281 0.011189657 0.17814869 -0.1683804
0.20421372 0.16037436 -0.11267025 0.31046787 0.26153022 0.20716913 -0.04363351 -0.05705686
-0.21509339 -0.24320632 0.19333029 0.20339769 -0.17955269 -0.28265068 -0.30996934 0.28187528
-0.085925534 0.15410213 -0.23295884 0.20012218 -0.07464095 0.2651377 0.122916184 0.22741838
-0.12596838 -0.13735498 -0.16908218 0.19852352 0.09603449 -0.027325796 0.19501086 -0.011809942
0.1593045 0.18446104 0.288891 0.09061672 -0.16061214 0.19715635 0.20634933 -0.1842002
0.2677893 0.16217944 0.203905 0.31096676 0.0374816 -0.13019338 -0.24719214 0.0827895
-0.21139176 -0.13711934 0.120134756 0.028811628 0.1217875 -0.18254364 0.1652986 -0.05042225
-0.0008855486 -0.2793034 -0.025010366 -0.039359353 -0.10057782 -0.24767575 -0.104989015 -0.23112155
0.028336512 0.01982862 -0.08438305 -0.21101175 0.2760783 0.2114267 0.09804023 -0.24834096
0.14809757 0.07151505 0.066264294 0.2603684 0.042254135 0.021853205 -0.19802815 0.39753652
0.035822775 -0.06606274 -0.044001967 -0.2766638 -0.16969892 -0.20647427 0.08798253 0.0946503
0.02557194 -0.08914094 0.0032267163 -0.09050791 0.15444122 -0.022563154 -0.13648643 -0.2178327
0.090369046 -0.0374447 0.03794679 -0.1720687 0.20495638 -0.17066297 0.07488104 0.06498245
-0.17312649 -0.04105979 -0.0738952 -0.26056927 0.072031304 -0.11822803 0.021581013 -0.2678837

weight_hh_l0 f4 [128, 32]
00000000: cb11 f1bd 7114 8c3d 5884 46be cbed 953d
00000010: 40bb e33c ef9b 1f3e d9b1 dabd 2db1 79bd
00000020: eee9 03be 44ab 25bd e34b 2d3e 0a0f d93d
00000030: eb88 593e d747 003d 3ac4 23bd 14db c03d
00000040: eb5b a63d 5228 ffbd db20 53bb 99e8 8e3d
00000050: be30 9b3d 9dee 10be 53be 2cbe 620c 313d
00000060: 10f0 4bbe f869 453e e986 5fbe b75e 653e
00000070: 5676 1a3c 600d 72be e3e3 bbbc a9a2 d33d
00000080: a91c cabd da2c f7bc 336c 8fbc f144 c3bd
00000090: 6886 a23d 902c 273e a1f9 45be 2164 fdbc
000000a0: df34 bbbd 1f72 963d d508 d3bd 5f3a 1abd
000000b0: 82fd 743e fbb9 053d 658d aa3d 6045 a83d
000000c0: a5d5 923c 133f d7bd 9ef7 c73c 6105 be3d
000000d0: ad11 5c3e 1a41 76be 014b aa3d 3a17 5d3e
000000e0: db00 fe3b 6bad 59bd abdf a4bd 1b00 83bd
000000f0: 6ca4 d1bd 7094 4b3d 0754 df3c 9c6e 9bbd
00000100: 865e 09be debe d03d b9dc cabc 14e2 03be
00000110: 9e40 8cbd 2b42 683d 941b 20be 7e35 c83c
00000120: ccb4 15be 1149 63be df26 d4bc 46e7 79bd
00000130: a5eb c13c 90c3 5d3e 1516 ad3d 0eeb e8bd
00000140: bf6f ebbb a879 a5bc d772 73be 87df 67be
00000150: 1c96 e8bc 728f 10be 4827 43be fb77 813e
00000160: 4ff2 0ebe 7ddc 413d ab2f 1cbe ef0b 0bbd
00000170: 2605 c4bc c0c8 933d 85fb 073e e770 6ebe
00000180: 8994 f03d c725 1c3d 1669 7a3c 4d76 8ebd
00000190: 8f7f 013d 6edd 323e b37b da3d 1e18 043e
000001a0: 5366 063e 17bb cf3d 5394 c93c a898 423c
000001b0: 0da4 87bb 8a32 8cbd 79e2 88bc 7f14 9bbe
000001c0: 6c69 5ebe 648c 0dbe c54c 05be 1b43 60be
000001d0: bb98 233c 6956 723d cdf3 86bd deb7 12bd
000001e0: 324c 41bd 2306 363e 10aa 0dbe 5920 f2bc
000001f0: ccb6 92ba 7309 5cbd ae38 613e 9a6f 62be
00000200: 737e 45bd 3a59 073e 32dd 17bd 9905 913d
00000210: ee84 f43d ac20 7e3e 7e0b f13d 4999 8bbd
00000220: d349 a83c 2dc5 d73d 0e15 dabd b75d 06bc
00000230: 4624 863d df87 d53d 7cbf 103e e389 cdbd
00000240: d043 51be fede 52bb b165 d3bc ce43 6fbd
00000250: eb72 1b3e 934e cb3d c61b c03d f080 e5bd
00000260: 491c 35be 7c50 823c 10fa 4abe f033 983d
00000270: 80c8 bcbc c292 fd3d 2f96 003e 8dd7 4fbd
00000280: a3fa eebc cf8b 9ebd 1842 38be c01b 24be
00000290: fa5a f1bc ba65 653e 70f5 30be d572 503e
000002a0: 25bb 3a3d 9d40 3ebe f35f 8ebd e7b1 163e
000002b0: 2968 cc3d cb87 60bd ad8d b43d 80d9 54be
000002c0: 66eb 13be 850f b23d 8f1c cebd bd8f e43d
000002d0: 066e edbd 6c25 9bbd 33c4 51be 8080 c03d
000002e0: 2e2e e73d e193 3d3e 2c4f d63d 4e7e 22bd
000002f0: 7618 143c 40b2 3dbe 7272 5e3e 55ba d1bd
00000300: 6c59 9d3d 7705 423d eb75 52bc 47ab 83bd
00000310: 5ed8 5f3e 9113 b6bd c541 50be acb2 b23d
00000320: 195f 2ebe 4492 98bd d9e3 523d 88d5 f33d
00000330: 27eb b13d 170b 1b3e 0560 96bd 26d5 7cbe
00000340: fd9b acbd 6ff4 45bd b080 a73d 6841 06be
00000350: a489 5c3e 24cd a73d a06c 48be b1bd 293e
00000360: b9f1 99bd 9422 ed3d c6c8 10be 84a4 993d
00000370: b701 4e3d 93e6 10be eae9 70bd 4eb5 99bd
00000380: cd6b 863d acb1 2c3e eb5e 21bd 48ce 123d
00000390: 7e1b 093e ac6c a1bd b8f6 0e3d a08d e23d
000003a0: 29e6 80bd b2da 5ebe 7339 f0bd 9181 6b3e
000003b0: 07bf 4b3e e88a babd 3b83 1a3e 8d3b 57be
000003c0: 58f7 503d 2d64 dbbd 841b 70be 7e52 623d
000003d0: 449a 93bb e11b 67bd 645b 1dbe 4378 bfbd
000003e0: 43dd 3f3c 330f cabd be67 98bb ccb0 2e3e
000003f0: 95f2 91bd 5bd7 733d 458c fe3d 6526 4abc
-0.11770972 0.068398364 -0.19386423 0.07320746 0.027799249 0.15586828 -0.10678453 -0.060959984
-0.12882206 -0.040446535 0.1692348 0.105985716 0.21243636 0.03131851 -0.039982058 0.09416786
0.08123001 -0.12458862 -0.0032215628 0.06977958 0.07577656 -0.14153524 -0.16869478 0.0432247
-0.19915795 0.19278705 -0.21828808 0.22399412 0.009427628 -0.23637915 -0.022935813 0.10333759
-0.09868748 -0.030172754 -0.017507648 -0.09534634 0.07935792 0.16325593 -0.19333507 -0.030931534
-0.09140944 0.073459856 -0.10304419 -0.037653323 0.2392483 0.032648068 0.0832775 0.08216357
0.01792414 -0.10510077 0.024410065 0.0927837 0.21491118 -0.24048272 0.08315087 0.21590891
0.007751567 -0.0531439 -0.08050474 -0.063965045 -0.10236439 0.049702108 0.027261747 -0.075894564
-0.13414964 0.10192655 -0.024763452 -0.1287921 -0.06848262 0.056703728 -0.1563552 0.02443957
-0.1461975 -0.22195841 -0.025897441 -0.061011575 0.023671934 0.21656632 0.084514774 -0.11372958
-0.007184952 -0.020199612 -0.23774277 -0.22643863 -0.02839189 -0.1411722 -0.19057953 0.2528685
-0.13959621 0.047329415 -0.15252559 -0.033946928 -0.023928236 0.072160244 0.13279541 -0.23285256
0.11747081 0.038121965 0.0152838435 -0.06956158 0.03161579 0.17467281 0.10668125 0.12899825
0.13124971 0.101431064 0.02460686 0.011877216 -0.0041394294 -0.06845577 -0.016709553 -0.30289075
-0.21719903 -0.13823086 -0.13017567 -0.21900599 0.009985144 0.05916444 -0.0658947 -0.03581988
-0.047191806 0.17775778 -0.13834405 -0.02955644 -0.0011193394 -0.05371995 0.21994278 -0.22112885
-0.048216294 0.13217631 -0.037076183 0.07081146 0.11939417 0.24817151 0.1176977 -0.06816346
0.020543015 0.10535655 -0.10648547 -0.008201054 0.06549887 0.10426306 0.14135545 -0.100360654
-0.20436025 -0.003217637 -0.025805326 -0.058414273 0.15180556 0.09927096 0.09380297 -0.112062335
-0.17686571 0.015907519 -0.19821954 0.07431781 -0.023044825 0.123815075 0.1255729 -0.050742675
-0.029172247 -0.0774151 -0.17993963 -0.16026211 -0.029462326 0.22402087 -0.17281127 0.20356305
0.04558863 -0.18579336 -0.069518946 0.14716302 0.099808045 -0.054817002 0.08816085 -0.20786095
-0.14445266 0.08694366 -0.10064041 0.111602284 -0.11593251 -0.07575497 -0.20485 0.093995094
0.11288105 0.18513443 0.104643196 -0.039671235 0.009039035 -0.18525028 0.21723345 -0.10240618
0.076830715 0.047368493 -0.012845497 -0.06429153 0.21859881 -0.08890451 -0.20337589 0.08725485
-0.17028464 -0.07449773 0.051486824 0.11905962 0.0868743 0.15140949 -0.07342533 -0.24690685
-0.0842819 -0.048328813 0.08178842 -0.13110888 0.2153688 0.08193424 -0.19572687 0.16576268
-0.07516808 0.11578861 -0.14139089 0.07502082 0.050294604 -0.14150457 -0.058816828 -0.07505284
0.0656353 0.16864651 -0.03939716 0.035841256 0.13389394 -0.07882056 0.034903258 0.11062169
-0.062938996 -0.21763113 -0.117297076 0.22998644 0.1989709 -0.091085255 0.15089123 -0.2101881
0.051017135 -0.107124664 -0.23447996 0.055254452 -0.004504474 -0.05642307 -0.15366894 -0.0934911
0.011710468 -0.0986618 -0.004651039 0.1705963 -0.07126347 0.05953155 0.12429098 -0.0123382555

bias_ih_l0 f4 [128]
00000000: b797 08bd 8382 85bd d364 073e e968 e73d
00000010: 4f2b 893a a514 dc3d 9413 4e3e adca 8dbd
00000020: 983f 2b3d 9fa1 d23d 7689 b1bd d924 27be
00000030: bb37 b63d 20a4 953e c1a1 03be d67c 983e
00000040: 64e7 683d 272f 063e 2ec1 653e ef90 003c
00000050: a3fb 4c3e f587 92bc 2aad fbbd 9355 67bd
00000060: bf2a 31bc dd25 8e3d 26c3 7d3d be5d 7e3d
00000070: b3ef 293e f4bb 213e b709 4c3e 7c1b 1f3d
00000080: 841c 473e 93a7 b5bd d55e 49bd d2d8 c9bd
00000090: 58cf 15bd b7ee 983d e53b 093c bc74 533e
000000a0: c706 463e 1bfd 473e 4b19 f33d 2f5e 213e
000000b0: c54e 40bc 3380 a23e 6a69 393d 037d 5c3e
000000c0: d9d9 bcbd e6be 5c3e bc33 453e c77b 783e
000000d0: 1662 e13d 73e1 033e 11b9 a3bd 800f 713c
000000e0: b457 11bd 75c8 523e 1b0c 8c3d 75c2 5d3e
000000f0: 0964 bdbd 0e3c bd3d afe9 9d3c 85e7 1c3c
00000100: 77a8 ddbd f2db 803d 536d 713d 21f0 4dbe
00000110: 38aa 1c3d ac49 003e 99bc b93d f41b 0d3e
00000120: 4550 cb3d 16ce debd 68bc 0c3e 9464 2f3d
00000130: bcf2 593d a614 e63c 3476 f83d caef 9abd
00000140: afba 31be 1444 f3bd ebb7 0e3e ea1d bcbd
00000150: 55e4 843d 39dd 45be c74b d2bd a275 2c3e
00000160: 937d 05be e73a 03bd 4f30 e53d 5bab 2e3d
00000170: cbb0 903c 5b4a c4bd 9bf6 dabc 5b78 1e3d
00000180: 6d95 a5bd 5e0c 503e 332d 653e a4dd 153e
00000190: 4265 b13d 34e9 153e 45c8 473e 679e 0c3d
000001a0: b9f3 933c 47ab 2f3e f8ec 993d 4fd3 15be
000001b0: 287b d5bc a375 b63e 1e33 773d c0ea 523e
000001c0: 7f05 a83d 0264 e9bd 96e1 083e 50ec 083e
000001d0: 46af f1bc 1b8e 153e e1ba 49bc bfeb fdbd
000001e0: 51c8 4a3e ce6e 113e 3069 5e3e 1028 ccbd
000001f0: f02f c7bd 1184 6e3c 8bf1 143e 6642 59bc
-0.03334781 -0.06519034 0.13222055 0.11299307 0.0010465177 0.10746125 0.20124656 -0.06923423
0.041808695 0.10284733 -0.08668797 -0.1632265 0.088973485 0.2922678 -0.12854673 0.29782742
0.056861296 0.13103925 0.22436973 0.007847055 0.20017867 -0.017887095 -0.12288888 -0.056478094
-0.010813414 0.069408156 0.061953686 0.06210112 0.16595344 0.15794355 0.19925581 0.03884457
0.19444472 -0.08869853 -0.049162704 -0.09855808 -0.03657469 0.07467406 0.008376096 0.2065
0.19338523 0.19530146 0.118700586 0.15758584 -0.01173753 0.31738433 0.045266546 0.21532063
-0.09221239 0.21557197 0.19258016 0.24265967 0.110050365 0.12878971 -0.07994283 0.014713168
-0.03548403 0.20584281 0.068382464 0.2165621 -0.09247596 0.0923997 0.019276468 0.009576683
-0.10823148 0.06291951 0.05894215 -0.20111133 0.03824827 0.12528104 0.09069175 0.13780195
0.099274196 -0.108791515 0.13743746 0.04282053 0.053210005 0.028086018 0.121319205 -0.075652674
-0.1735637 -0.11878219 0.13937347 -0.09185393 0.064888634 -0.19322671 -0.1026836 0.16841748
-0.13036184 -0.032038596 0.11190855 0.042643886 0.017662426 -0.09584495 -0.026728919 0.038689
-0.08085141 0.20317218 0.22380523 0.1463533 0.086618915 0.14639741 0.1950999 0.03433075
0.018060552 0.17155181 0.07515901 -0.14631389 -0.026059702 0.35636625 0.060351484 0.20597363
0.08204173 -0.11396028 0.13367304 0.13371396 -0.029502522 0.1460499 -0.012312622 -0.123984806
0.19802977 0.14202425 0.21719813 -0.09968579 -0.0972594 0.014557854 0.14545266 -0.0132604595

bias_hh_l0 f4 [128]
00000000: 6d63 483e 10f6 463e ce9f 7f3d 1b1f 65bd
00000010: dab9 c23d 41d3 473e dad7 39bd 45bf 0e3d
00000020: 54c1 f63d 7e2d 333e 826b f23d 447b 3a3d
00000030: a553 b73d 3065 9a3e 714f ce3d 53a3 b23e
00000040: ad86 be3b 42a6 543d bc58 093e 6105 18bd
00000050: 512b 523e 377d bb3d 799c 2f3e e012 05be
00000060: f346 f1bd 0b48 61bc e597 d63c 1d91 0bbd
00000070: 2666 443e 2786 3a3e a45f 6f3d f0e2 8a3d
00000080: ceba 763d b57d 073e d61c 993d f8ad bf3b
00000090: f352 d6bc 07cf bcbd d1f7 eabd 89f2 aabd
000000a0: 0ccb 8bbd 9009 883c 0610 193d dc4c 543d
000000b0: 92fe 073e 3f34 a93e fab0 e3bd ddc9 103e
000000c0: 9db8 cabc 8e5f 36bd eedf 423d 0d3b 633d
000000d0: e8d4 d13d 98a0 543d 35e7 843d b10c 08be
000000e0: ed06 35bc ed61 803e 4d24 abbc 6cdd 1cbb
000000f0: 2e08 d93d 258a ccbd 3355 cdbd 7301 3f3e
00000100: 4386 913d c89a a53d 8de2 04be 9bf6 2bbe
00000110: 3fda e43d fc9b 9bbd 9476 e8bd 5e6c 0c3e
00000120: b054 25be 8733 e93d c06b 7f3d b2c0 193e
00000130: d0f7 6a3c 50c8 ce3d 7490 c93d 0eee fe3c
00000140: 0764 adbd da9a 563d 1448 13be 9efc ca3b
00000150: 0714 e53d d62c 1bbe 8ac1 ec3c 722d d53d
00000160: 2f98 87bd f111 433e d802 bdbd f3c3 703d
00000170: 0335 06be d3ba 09be c40e 4b3e d341 10be
00000180: efef 3b3e 9871 373e f555 fc3d bfaf f5bd
00000190: 2747 b1bd 746c 233e 7225 f63d 554c dd3d
000001a0: 8467 7a3d 2bb3 3c3e 7207 a73c 528e 00be
000001b0: 20eb 94bc 5bb2 5c3e 051f 013e 5db9 9d3e
000001c0: 66a8 6b3e 7ca2 63bd 30cc b4bd 80b8 f33d
000001d0: f428 3fbd ed8e 34bd cd4f de3d 97b3 263e
000001e0: b66e 953d 8b24 893e cb50 b53b 678a af3d
000001f0: 0b89 363e 086c a73d d5eb 8f3d c3bc 523d
0.19569178 0.19429803 0.06240826 -0.055937868 0.095081046 0.1951418 -0.045371868 0.034850378
0.12048593 0.17497823 0.11836912 0.04552771 0.08951501 0.30155325 0.10073746 0.34890231
0.0058143944 0.05191637 0.13412756 -0.037114505 0.20524336 0.09154742 0.17149533 -0.12995481
-0.117811106 -0.013750087 0.026195476 -0.034073938 0.19179592 0.18215238 0.05844082 0.06781566
0.060236745 0.13231547 0.07476203 0.005849596 -0.0261626 -0.09219175 -0.114730485 -0.08347041
-0.068258375 0.016606122 0.037368797 0.05183111 0.13280705 0.33047673 -0.1111774 0.14139505
-0.024746234 -0.04452472 0.047576837 0.055476237 0.10245687 0.051910967 0.06489412 -0.13286091
-0.0110490145 0.2507471 -0.020891333 -0.0023935689 0.10597263 -0.099872865 -0.10026016 0.18652897
0.071056865 0.08086163 -0.12977047 -0.16793291 0.1117444 -0.07598111 -0.11350742 0.13713214
-0.16145587 0.11386781 0.062358618 0.15014914 0.01434131 0.100968 0.09842005 0.031119373
-0.08466344 0.05239377 -0.14382964 0.006194665 0.111854605 -0.15153822 0.02890088 0.10409059
-0.066208236 0.19049813 -0.09229058 0.05878062 -0.1310616 -0.13450174 0.19829851 -0.1408761
0.18353246 0.17914426 0.123210825 -0.119964115 -0.08656149 0.1595934 0.12018861 0.10805575
0.061133876 0.18427722 0.020389292 -0.12554291 -0.018178523 0.21552412 0.1260949 0.30805483
0.23013458 -0.05557488 -0.08828008 0.11900425 -0.046669915 -0.044081617 0.108550645 0.16279446
0.07296507 0.26785693 0.005533313 0.0857132 0.17825715 0.08174902 0.07027403 0.05144955

weight_ih_l0_reverse f4 [128, 2]
00000000: c9c7 7c3d dac3 54be c530 093e a3cb 783c
00000010: 60a4 4fbc 41a9 f6bd b003 3c3e c3a3 3abe
00000020: 5988 ad3d 4f45 5bbc f52c d9bd 262c 7cbe
00000030: 7f16 15ba 0946 4d3e cdaf 5bbd 486b 94be
00000040: 7c16 1a3e b95f 99be 45f1 02be 33e2 533d
00000050: 3de3 24be b128 6f3d 5510 4e3e 48f8 2ebe
00000060: 9cea 33be 5833 1a3e 52e3 1dbe d52c 99be
00000070: 78d8 393e 40ca 0a3d ca42 e73c a63c 6d3b
00000080: 0c05 b4bd 745f a6bd 928b 67bd 5f13 3abe
00000090: 7798 61be f1f3 25bd 2b30 a2bd 50e7 553d
000000a0: 4cbd 0cbe a439 1f3e 46a2 03be e74e 8dbd
000000b0: d4e2 c1bd d6df dd3c 28a3 223e 8352 48bd
000000c0: c096 a8bd 4bf5 98bc bb97 05be 84a5 f5bd
000000d0: 0a8e b23d 4bba bd39 9a35 43bd 10b1 d5bc
000000e0: 93f3 3a3b ee8a 973d 4c91 d83b e7f9 23bd
000000f0: b24e 3b3e cd73 7abe b803 56bd d637 1bbe
00000100: 3a06 c3bd b401 023d 9e54 413e 4a75 cebd
00000110: f8cf eebb 9751 15bd 6c21 b43c 995f 60be
00000120: 2b5a 823d 1497 e73c d054 1f3e 09c7 39bd
00000130: 2567 7bbe ccdb 7f3e 06aa 033c 672d b4bd
00000140: 0046 4d3e 6e71 0ebe c1df 72bc 7934 19be
00000150: 33ca 353e 0319 35be 15eb 423e 007e 59be
00000160: 8225 41be a099 9d3e 2ec0 91bc 656c 87be
00000170: bfe6 d43d 8bd4 e9bd b922 51bd 1274 86bd
00000180: d46d 803d 36f9 03be bc64 83bd 2032 81bd
00000190: f0ec 5bbe 2fc0 69bd 1344 17be e8a3 713c
000001a0: be99 f93a d784 8f3e 7089 00bb e933 fabd
000001b0: c4b0 213e fba4 7dbe 1c08 45be 6434 92bd
000001c0: dc6c 353d 590a 65be 7044 3a3d f461 8dbe
000001d0: 2874 153e 674b b5bd dd97 ef3d 96ab 90be
000001e0: 23ea c2bd 22ff 0f3e 8d78 2f3e 2910 3fbd
000001f0: 3740 723e 5c26 46be 4752 993d e70b 80be
00000200: e862 07be 4cbc 3abe 950b 543e 56fe 993e
00000210: 70ea f83d 1eaa 32be 9808 1fbe 8736 62be
00000220: 7cf0 4d3d 3397 983e c825 2d3d a326 473e
00000230: cb35 b63d 0b52 92be c3f8 52be c7f7 823e
00000240: e546 5cbe c8f2 9c3c 2aef e8bd 4cfb 893e
00000250: 56f8 993e 5d47 56be 96ec a73e 7d28 27be
00000260: 4312 a43e 35a5 48be aa0d a33e f6fc 75bd
00000270: ea20 6bbe ff73 a73b 25fe 9ebc ec02 733e
00000280: f1d9 5e3c f32b 233e f6fe c9bc 0dbd b63e
00000290: 2c02 043e 51de 113c 56f1 83be 3722 40be
000002a0: f4a2 8dbe 3952 13be 57a3 a13e e242 43be
000002b0: fed5 91be 1a4e 493e 40bd 163e d089 893e
000002c0: 3241 fcbd aea3 9a3e 7c8c 8e3e e9fd 1abd
000002d0: c449 69be a686 0c3e d6f4 4b3e 7f4a 9bbe
000002e0: b456 e1be eb88 943e d357 113e 37d4 083e
000002f0: 031a 7b3e e8e4 8cbe 3ffd 2a3e 8b6d 983d
00000300: d2bd 303e 3e15 f8bd 8885 3c3e 40e8 103d
00000310: b3e9 783d c569 6bbe ca80 1abd 90eb 6bbe
00000320: 3f95 e6bc 632a f53d 7d78 12be 998b 04be
00000330: 38b3 9ebe 31f2 023e 082d e73d fa49 8dbe
00000340: 843e 29bd 2cf2 2abe 8928 61bc a5b6 35be
00000350: 3ab9 e43d 2c19 5dbe 2a05 3d3e e9e8 87be
00000360: acb3 703d c46f 3b3d 8117 95bd 5523 1ebe
00000370: 5329 693e 8a4d 5cbd b525 4abd 2626 62be
00000380: 3268 2e3e 6efd 153c 00a6 f8bb 5ed6 71be
00000390: e82a 47be 4f63 b9bd 685f 85be 54ae 953d
000003a0: aaa5 cbbd 8f72 72bd bdd1 adbd 077c 143d
000003b0: adeb 8dbd 1aba 6fbe 08ec 63bd a0ee b6bd
000003c0: b1df 663d a402 e73c 71b4 2b3e b03a 6cbe
000003d0: 100a 18be 69a4 5a3d 845b 083e 52d3 303d
000003e0: 84ff 493e 88e5 6cbd 7b06 a43c 37d8 8fbe
000003f0: 411d 6b3d e0fa 11be 0c03 3bbd 0bfe 35be
0.061713967 -0.20777836 0.1339751 0.0151852695 -0.012673467 -0.12044001 0.18360782 -0.18226533
0.08473272 -0.013383224 -0.10604278 -0.24626216 -0.0005687251 0.20046248 -0.053634454 -0.289881
0.1504764 -0.29955843 -0.1278735 0.051729392 -0.1610231 0.058388416 0.20123418 -0.170869
-0.17569965 0.15058649 -0.15418747 -0.29917017 0.18148983 0.033884287 0.02823009 0.003619948
-0.08790025 -0.08123675 -0.05652959 -0.18171452 -0.22030817 -0.040515844 -0.079193436 0.05222255
-0.13744086 0.15549332 -0.12854871 -0.06899815 -0.09467092 0.027084272 0.15882552 -0.048906814
-0.08231878 -0.018671652 -0.13046162 -0.1199446 0.08718498 0.00036187688 -0.04765854 -0.026085407
0.002852653 0.073995456 0.0066091176 -0.040033247 0.18291739 -0.24458237 -0.05224964 -0.15158018
-0.09522672 0.031739905 0.18879935 -0.10080965 -0.0072879754 -0.036454763 0.021988593 -0.21911468
0.063648544 0.028270282 0.15559697 -0.04535583 -0.24551065 0.2498619 0.008036142 -0.08797722
0.20046234 -0.13910457 -0.014823855 -0.14961423 0.17752914 -0.17685322 0.19034989 -0.21239471
-0.18861964 0.3078127 -0.017791834 -0.26449886 0.10395574 -0.114174925 -0.051058505 -0.065651074
0.06270948 -0.12888035 -0.06415698 -0.06308389 -0.21477103 -0.057068046 -0.14772062 0.014748551
0.0019043011 0.28031036 -0.001961317 -0.12216932 0.15790087 -0.24769966 -0.19241375 -0.07138899
0.04429327 -0.22367229 0.045475423 -0.27613795 0.14595091 -0.088522725 0.116988875 -0.2825591
-0.09517314 0.14062169 0.1713583 -0.04664627 0.23657309 -0.1935057 0.07486396 -0.2500908
-0.13221323 -0.18235892 0.20707543 0.30076855 0.121540904 -0.17447707 -0.15530622 -0.22091113
0.050278172 0.29802856 0.04227236 0.19448332 0.08896979 -0.2857822 -0.20602708 0.25579664
-0.21511419 0.019158736 -0.11373742 0.26949537 0.30072278 -0.2092566 0.32797688 -0.16324039
0.32045183 -0.19594271 0.31846362 -0.060055695 -0.22961774 0.0051102634 -0.019408295 0.23731583
0.013601766 0.15934734 -0.024657708 0.3569111 0.12891454 0.008903102 -0.25770062 -0.18763052
-0.27663386 -0.14386834 0.3156993 -0.19068483 -0.28483576 0.196587 0.1472063 0.26862955
-0.123171225 0.30203003 0.27841556 -0.037839804 -0.22782046 0.1372324 0.19917616 -0.30330274
-0.44011462 0.2901071 0.14193659 0.13362204 0.24521641 -0.27518392 0.16698168 0.07442769
0.1725991 -0.121134266 0.18410313 0.03537774 0.060769748 -0.22989567 -0.03772048 -0.23039079
-0.028147338 0.11970975 -0.14303775 -0.12943877 -0.30996108 0.12787701 0.11287886 -0.27595502
-0.041319385 -0.16693944 -0.0137425745 -0.17745455 0.11168142 -0.21591634 0.18459001 -0.26544884
0.0587651 0.045760885 -0.07279874 -0.15443166 0.2276967 -0.053784885 -0.049352366 -0.22084865
0.17031935 0.009154661 -0.007588148 -0.23616931 -0.19449961 -0.09052145 -0.26049352 0.07308641
-0.09943707 -0.059191283 -0.0848727 0.036251094 -0.06929717 -0.23410836 -0.05564502 -0.08932233
0.056365672 0.028199501 0.16768052 -0.23069263 -0.14847589 0.05337945 0.1331616 0.04317028
0.19726378 -0.057836086 0.020022621 -0.28094646 0.057400946 -0.14255857 -0.045657203 -0.17772691

weight_hh_l0_reverse f4 [128, 32]
00000000: ace8 fdba 3fd6 4c3d 0ed3 19bc de49 853d
00000010: 37c9 1b3d 2441 8f3d a2ae 9e3d eeeb 143c
00000020: 3c1a 28bd 1aca 1c3d 7c5c 523d a6e5 15bd
00000030: 3b05 723c c48a 073e 7fa0 fabd 18a4 103c
00000040: e42a 84bc 9995 8d3d 94f4 803c 68fc b8bc
00000050: 64a9 863c a2f4 0f3e df90 6d3c 8304 14bd
00000060: 7850 01be 466d 343e 0b90 47be 5d72 efbd
00000070: 2129 1ebc aeae a23d b9c2 fcbd 17d3 bf3c
00000080: d351 713c 4538 ca3d 76b5 8e3d ff7e 713e
00000090: 4fa8 14be b26c 15be 2f41 f03b 80f5 18be
000000a0: 8703 cabd b7a4 143d bd1d ec3c 8cc0 75bd
000000b0: d47d 543d e7c0 73bd b2d3 a53b 2ebe cebd
000000c0: b57f 1dbe 8f41 0abe 8d0e b93c 1891 393d
000000d0: 81dd f43c 0c39 0b3e 359f aebd 2b27 4bbe
000000e0: 6b22 febd e6f6 e93b eea2 fcbd 19dd 95bc
000000f0: 62fa aabc 8cb4 2cbe 6d1c 073e 82a6 613d
00000100: 0493 e73d b70c 67be 97b5 97bd f232 07bd
00000110: 6dc4 923d 6261 b83d 48c5 f03d 5a28 53be
00000120: fa33 16bc 868c 0dbc 4cbe df3c a615 da3d
00000130: 95d9 193e 91fd 853c b4e9 633d 66ac aebc
00000140: 4b20 60be 881b adbd aed0 cdbd f3bb 3f3d
00000150: a317 d5bb 9f05 97bd 890e c83c 36f3 40be
00000160: a3b4 18be 0200 393e 6b2e a1bc 5450 443d
00000170: 9206 053d dd95 e33d fb02 c8bc 6908 65be
00000180: c9b4 063d 9dd1 3fbe f35a eabd 5bf0 80bc
00000190: 9433 06be a8ec 7bbd 0804 0a3e a179 873d
000001a0: ff35 a3bd be30 cfbd 359f 6bbd d475 2f3e
000001b0: 969c bf3d 857d 693c 38eb 833d df3f b73d
000001c0: fcad f7bd c496 863d 9324 d5bd d816 7c3c
000001d0: 70ac 9b3c a00e 203e 288f 57be 33b6 9d3c
000001e0: 1071 49be 34e2 d33d 5758 423c eb01 c83c
000001f0: e6e1 3d3d 7d3b 49be c3cf 1a3d ddc1 70bd
00000200: b3dc 353e 2197 a7bd a7c2 ebbd b501 a23d
00000210: 9922 57be 0cd4 2a3c fe52 d23d 5f45 04bd
00000220: 3556 ba3d 7144 18be f7a4 4cbd 2b83 293d
00000230: 4aee 0cbd 64aa 193e 9d83 27bd 6930 fdbd
00000240: 481b edbd c8a6 e83c 037e 543d f5f2 b1bd
00000250: 640e a4bb d24c 3d3d a6db e7bd 94a1 f63d
00000260: b594 f4bd d2b9 833e 2b60 30be adff 3c3e
00000270: 9ae9 70bd 5647 db3d 6fc0 a1bd 1be4 febd
00000280: d00e 5d3d 1375 09be 98d9 b03d d169 2b3d
00000290: 1304 933d a2d2 cf3d 1a47 74bd e6a8 2bbe
000002a0: e1fd 5ebe 2142 04be 7d9b 683d fe2c bebd
000002b0: b9c2 bdbd 989e 053e 7185 5fbd 6bd2 66bd
000002c0: bb0c 95bc cc0a 69be 25e8 60be 6013 a6bd
000002d0: bd0e 073e 979d a33d 997d 46be e32f 7f3d
000002e0: 8a12 b03d 1ae1 bfbc a3f2 efbd 82c0 31bd
000002f0: 1c1a 70be fe2b 3b3d 5c49 353e 4d81 f9bd
00000300: 1c34 853e 0fbc f03d e782 e43d e38c e0bc
00000310: 0c1d c7bd f203 8ebe 3ac9 d83d ed5d 30be
00000320: 90cf 2abe 3b87 6cbe b319 e53d 230c 7d3e
00000330: 4133 7bbd 039c b83d 10f8 0cbe 0133 ca3c
00000340: 37d5 03be 7c06 593c 800a 06be 12f2 2c3e
00000350: b5f6 f43d 1dac 903e edac 513d 1b00 b0bd
00000360: 221f 37be 0731 f83d 310d 41bd 71fe 18bd
00000370: c6d2 28be 41ca 59be 57b8 803d bb3f 03bd
00000380: 8d64 5b3e eb47 76be de78 423e cfec d3bd
00000390: ed54 3bbd 6a35 7abd 5773 99bc d4f6 61be
000003a0: 3ff7 87bd 9f1b cebd c925 3b3e d9ed 9fbb
000003b0: 8a98 11bd f1e6 c43d bcb6 d33d 93d9 59be
000003c0: a2f9 273d 613a 2cbd c19f 56be 16a9 f1bc
000003d0: 41f2 ad3c 7c81 54bd 2907 49bc 086f bebc
000003e0: 4fec e83d 2668 223e 920d 023e 3e4f ef3c
000003f0: cbd0 bcbd 5cc2 b3bd dd26 f7bb 4056 05bd
-0.001937171 0.05000901 -0.009388698 0.0650823 0.03803369 0.069948465 0.07748152 0.009089453
-0.041040644 0.038278677 0.05135773 -0.036595963 0.014771755 0.13236529 -0.122376435 0.0088281855
-0.016133733 0.06913299 0.015741624 -0.022581294 0.016438194 0.14058164 0.014499872 -0.036137115
-0.12628353 0.1761981 -0.19488542 -0.11691735 -0.009653361 0.07943474 -0.12341828 0.023416085
0.014728981 0.09874014 0.06968205 0.23583601 -0.1451733 -0.14592245 0.0073319892 -0.14937401
-0.09863954 0.036289897 0.028822774 -0.05999808 0.05187781 -0.059510138 0.0050606364 -0.10094868
-0.15380748 -0.13501571 0.022589946 0.045304388 0.029890778 0.1359598 -0.0852646 -0.1983916
-0.124089085 0.0071400283 -0.12335764 -0.018293904 -0.020871345 -0.16865748 0.13194437 0.055090435
0.11307338 -0.22563444 -0.074076824 -0.03300757 0.071663715 0.09002949 0.117563784 -0.20620862
-0.009167666 -0.00863946 0.02731242 0.1064866 0.15024407 0.016356261 0.0556428 -0.02132244
-0.21887319 -0.08452517 -0.10049568 0.0468101 -0.006503062 -0.07374119 0.024420993 -0.18842778
-0.14912657 0.18066409 -0.019675454 0.04792817 0.03247697 0.111125685 -0.024415484 -0.2236649
0.032887254 -0.18732305 -0.114431284 -0.01573961 -0.13105613 -0.06150499 0.134781 0.06614996
-0.07969283 -0.10116719 -0.05752488 0.17134792 0.09356038 0.014251118 0.06441349 0.08947729
-0.12093732 0.06571725 -0.104073666 0.015386306 0.019003123 0.15630579 -0.21050704 0.019251918
-0.19672036 0.10345879 0.011861882 0.024414977 0.04635801 -0.19651599 0.037795793 -0.058778632
0.17759971 -0.081831224 -0.11511736 0.07910482 -0.21009292 0.0104265325 0.10269736 -0.03229272
0.09098474 -0.14869858 -0.04996201 0.041384857 -0.034406938 0.15006405 -0.040897 -0.12362749
-0.11577469 0.02839984 0.051877987 -0.086889185 -0.0050065983 0.04621584 -0.113211915 0.12042537
-0.11942426 0.25727707 -0.17224185 0.18456908 -0.05881653 0.107069656 -0.07898032 -0.124458514
0.053969204 -0.13423567 0.08635253 0.04184896 0.071785115 0.10147597 -0.05963812 -0.16763648
-0.21776535 -0.12915851 0.05678891 -0.09285925 -0.09265656 0.1304878 -0.05457062 -0.056353014
-0.018194547 -0.22758025 -0.21963556 -0.08109164 0.13189216 0.07989042 -0.19383849 0.062301528
0.08597286 -0.023422766 -0.11716201 -0.04339648 -0.2344746 0.04569625 0.17703766 -0.12182865
0.2601632 0.11754619 0.1115778 -0.02741093 -0.09722337 -0.27737385 0.10585256 -0.1722333
-0.16680741 -0.23098461 0.11186542 0.24711661 -0.061328176 0.09014132 -0.13766503 0.024682524
-0.12874304 0.013246175 -0.13089943 0.16889217 0.11961118 0.28256312 0.051190306 -0.0859377
-0.1788297 0.12118726 -0.04713172 -0.03735203 -0.16486654 -0.2126856 0.0628516 -0.0320432
0.21425076 -0.24050872 0.1899142 -0.10347902 -0.04573529 -0.061086096 -0.018731756 -0.22066814
-0.06638955 -0.10063862 0.18276133 -0.0048806486 -0.035545863 0.09614361 0.10337588 -0.21274404
0.041009553 -0.042047862 -0.20959379 -0.029499572 0.02123368 -0.0518813 -0.0122697735 -0.023246303
0.11373197 0.15860042 0.12700489 0.02921259 -0.092195116 -0.087773055 -0.0075424747 -0.032552958
