sgan-dataset/logs/zara2/models_04_Mar_2019_00_49_31/model_registrar-499.pt (torch_old, 575433 bytes, 45 tensors)

weight_ih_l0 f4 [128, 6]
00000000: 3c0f 2fbe 4a50 52bd 036b 10be 0b95 edbc
00000010: 771b 06be 2ebd 4c3e f86e 4abe 5120 46be
00000020: 5d48 c3bd 080a 97bc 0dd8 99bc 91cf 54bc
00000030: bc76 16be a233 eabd 0389 a5bd 3092 d2bd
00000040: b58c 0bbe a6ce 1e3e a5d4 a5bd 6f3e 373d
00000050: bef0 d73d 4207 c8bc e9a5 47bd 112b 533e
00000060: c9bf 9ebd f49f 4f3d 3eb5 39be 26fa f13d
00000070: c096 283e aabb 14be ec88 283e a8a7 9d3d
00000080: 306e 113d 01f9 fe3d 42dc d83d 88b8 983c
00000090: c4e9 26be 0765 9fbd 2e12 5dbe d3a6 8a3d
000000a0: 00bb f83b dc8f bdbd ce0c 783b 9434 3a3e
000000b0: f592 1dbe 13fe e43b dac1 02be ba8d b43d
000000c0: db34 1f3e 64bb de3d 3ef0 eb3d be62 b73d
000000d0: 2fe0 403b ef59 9d3d 1291 08be 2887 60be
000000e0: 3189 41be 4c3f 8d3d dc2a 53bc bec7 16be
000000f0: e73a ab3c f999 123e 1f5d 37be 05e2 4abe
00000100: 69ee 93bd 13fa b63d d249 5abd aa79 9dbc
00000110: fcd0 e4bd d7e7 ee3d f177 133e 8e72 e23d
00000120: cf58 22be ca53 20be 3778 cf3d 8b21 fe3b
00000130: ae37 b63d 3d1d 57be 1c0d 1abd e393 d63d
00000140: 6e5a 3f3e d775 fcbc 9e12 9fbd a661 30bb
00000150: 10cf 19be 97e1 c8bd d152 fbbd f7dc 613e
00000160: 3676 5bbd a9a5 fb3c 89e5 f2bd bcce 1e3e
00000170: 65a9 f83d 2685 943e b053 163c 77b1 50bc
00000180: ae1a 1b3e c770 cd3d 9bde e53c b18f a539
00000190: 4b9c 0f3e 88ff fcbd e2c0 08bd a66a 11be
000001a0: 4065 ac3d 7e72 bebd 8719 49bd dbcc 363e
000001b0: dc5b c53d c756 8f3c 42dc 603d 7e9d dc3a
000001c0: 3ed7 c03d c244 a3bd e65e 1dbb 53cd 2b3d
000001d0: eb08 4ebe c5b9 993d 8e7e e03d 186f 553e
000001e0: f0af 9ebd 3c65 303d e25f 583e f41e aabc
000001f0: feac 043e 84bf acbd 230b 61bd c261 86bc
00000200: ed6c 883d 34a6 103e df34 55be da30 4a3e
00000210: 1df4 b3bc 3d6f 22be 1667 99bd 9932 b4bd
00000220: 1cdd df3d 7523 fa3c 5724 6ebc 4a5b b5bd
00000230: 63da 9fbd 6bd5 543b 87fd 983d 3b01 683e
00000240: 051d 06bc 1094 e6bd 34dc 51be fab1 e7bd
00000250: a8ca edbd 3d74 04bd 0a8c 03be 98d0 a2bd
00000260: 2c53 1cbb 5660 b73d f097 bf3c b68e 4f3e
00000270: fda0 15be 8c5b 82bb e90a bcbc ccd5 d6bb
00000280: ceb0 473d f120 953e ec08 f1bd d1b9 163e
00000290: 71fb 8f3e 9ef0 ac3d 55e4 90bd 468e 463e
000002a0: 821a e93d ff50 083e 4307 123c cdba 18be
000002b0: 1193 033d 3411 863d 14e6 0abe 3e1a dcbd
000002c0: d7f9 30be 0a14 aebd 9eb7 963c ae69 09bc
000002d0: 6257 1cbc 2eeb d73c 7505 f13d 0eb8 68be
000002e0: 3ca7 07be aac1 d7bd b543 c3bd da8a a93d
000002f0: 8994 f23d 7095 20be ed84 bbbd 8231 5cbe
00000300: 0779 3cbd ae54 963d afb3 59be 49e7 4ebe
00000310: 6b4b 4a3d 894c 42bc e320 ae3d 22c3 d6bb
00000320: dcb5 d9bc d72d acbd 8d0f 4e3d 442f 66bd
00000330: 58b6 06be 8150 24bb ae57 b3bc 3f04 8bbd
00000340: 01bf 0d39 52fa 043e b04d aebd 22cf e3bc
00000350: 9d91 193d 51e8 08be 61e0 aebd f2ad 51bc
00000360: ceb5 b03d 0b13 d0bd 58ee b1bd aba0 4c3c
00000370: d55d 03be 20e7 ddbd cb3c aa3d bce7 62bd
00000380: e848 813d 65f4 f3bd 0d87 dfbd d7ef e5bd
00000390: 7f49 703d ca30 f7bc e0ee e6bd 83c6 4f3c
000003a0: ef21 d8bd 1824 9d3d fade ba3c ef4a dcbd
000003b0: 5c7f 86bd 194d 1cbc 979f 27be 4330 0c3e
000003c0: 543d bd3d c126 08bd 9e78 8dbd bf5d 173d
000003d0: 5eee ad3d 9646 2a3e 4300 4ebe f4de e0bd
000003e0: b53a a93d 9ad2 d9bc 2d81 7cbc 3f57 0e3d
000003f0: 8d86 153e f3d2 13be d524 f0bb a24c 8dbc
-0.17095655 -0.0513461 -0.14103322 -0.029001733 -0.13096415 0.19994041 -0.19768894 -0.19348265
-0.095352866 -0.0184374 -0.018779779 -0.012988941 -0.14693731 -0.114356294 -0.080827735 -0.10281789
-0.13627894 0.15508518 -0.08097199 0.044737276 0.10543965 -0.024417523 -0.04874221 0.20621897
-0.07751424 0.050689653 -0.18135545 0.1181529 0.16463757 -0.14524713 0.16458482 0.076979935
0.035505474 0.124498375 0.10588886 0.018642679 -0.16300112 -0.07782941 -0.21588966 0.067701004
0.0075906515 -0.092559546 0.003784943 0.1818412 -0.15388091 0.006988296 -0.12769261 0.08816095
0.15547507 0.10875586 0.11520432 0.089543805 0.0029430499 0.07683169 -0.1333659 -0.21926558
-0.1889999 0.068968385 -0.012888636 -0.14724633 0.02090211 0.14316548 -0.17906617 -0.19812782
-0.072232075 0.089344166 -0.053293057 -0.019223053 -0.11172673 0.11665314 0.14401223 0.11057006
-0.1585419 -0.15656963 0.10130351 0.0077554635 0.08897339 -0.21007247 -0.03761016 0.10477426
0.1868684 -0.03081791 -0.07767223 -0.0026913672 -0.15020394 -0.09808653 -0.12271655 0.22056948
-0.05357953 0.030718641 -0.118601866 0.1550855 0.121416844 0.29007834 0.009175226 -0.012737623
0.15146896 0.10031276 0.028060248 0.0003157831 0.14024465 -0.12353426 -0.033387072 -0.1420084
0.084177494 -0.092991814 -0.04909661 0.17851584 0.096366614 0.017497433 0.054897554 0.0016831604
0.09416054 -0.07972099 -0.0024012863 0.04194386 -0.2012059 0.07506136 0.109616384 0.2084316
-0.07748401 0.043065295 0.21130326 -0.020766713 0.12956616 -0.08434966 -0.05494226 -0.016404036
0.06661401 0.14125901 -0.2082095 0.19745198 -0.021966988 -0.15862747 -0.07490365 -0.08798713
0.10930845 0.030534485 -0.014535031 -0.08855303 -0.07805326 0.003247584 0.074702315 0.2265672
-0.00818563 -0.112587094 -0.20494157 -0.11313243 -0.11610919 -0.032337416 -0.1284639 -0.07949942
-0.0023853285 0.089539215 0.02338788 0.20269284 -0.14612193 -0.0039781984 -0.022954421 -0.0065562483
0.0487526 0.29126695 -0.1176928 0.14719321 0.28121522 0.084443316 -0.07074801 0.1939021
0.11382009 0.13312148 0.008912864 -0.14915009 0.032122675 0.0654625 -0.1356433 -0.10747193
-0.17282806 -0.08499916 0.018398102 -0.008387012 -0.009542318 0.02635726 0.11768619 -0.22726461
-0.13247389 -0.10534985 -0.095343985 0.08278437 0.11844737 -0.15682006 -0.09156213 -0.2150326
-0.04601386 0.0734037 -0.2125995 -0.20205416 0.04938833 -0.011859068 0.085023664 -0.0065540234
-0.026575975 -0.08407181 0.0503078 -0.05619742 -0.13155496 -0.0025072398 -0.021892395 -0.06787919
0.00013517962 0.12986115 -0.085109115 -0.02780873 0.037492383 -0.13369872 -0.08538891 -0.012797819
0.086284265 -0.10159882 -0.086880386 0.012489478 -0.12828763 -0.10835099 0.083123766 -0.05539678
0.06312734 -0.11911849 -0.10914431 -0.112273864 0.05866384 -0.030174632 -0.112760305 0.012681606
-0.10553347 0.076729 0.022811402 -0.1075648 -0.065672606 -0.009539866 -0.16369472 0.13690285
0.09240213 -0.033240084 -0.069077715 0.036954638 0.084927306 0.16628489 -0.20117287 -0.10980025
0.082631506 -0.02658968 -0.015411657 0.034751173 0.14602108 -0.1443594 -0.0073286095 -0.017248455

weight_hh_l0 f4 [128, 32]
00000000: f605 393d 65dd 3c3d e1f5 bf3b 4214 8e3d
00000010: f19a 94bd 8a88 5cba 1797 68be 2e3c 40bd
00000020: 7912 aa3d 7bdd e03b b9dd 9b3d 9ede 263e
00000030: ba72 4ebd 2fbd 363e 2d55 0c3e 85e4 643e
00000040: c62b 333e dc4f 06be 1cb9 463b c8fb 28be
00000050: 15b0 b0bd 8ce3 1cbe 0af8 e6bd 2c21 f0bd
00000060: 3381 2d3b 7cc1 02be be09 e33c 5773 763e
00000070: 6a0f cf3d f109 af3d 5444 06bb dda4 02be
00000080: 9097 7d3e 49c1 06be 1a7f bf3d 18c3 4fbd
00000090: 41f8 833d 1875 183e 62a3 4cbd 0c65 d4bd
000000a0: 0213 dc3d 057b abbd 5c3c b0bd b096 debd
000000b0: c0cf 44be cc6e 163e 8b7b 1e3e e78a 0e3d
000000c0: df1a 103e cc87 103e f2c8 0ebe d545 ef3b
000000d0: c75f 353c 155e 1dbe 536c 0dbe ab41 86bd
000000e0: 02c5 ccbd 241e 16bd 274a 5abe 5445 87bd
000000f0: f3c8 14bd 6c24 0c3d 6444 1d3d 5f08 b1bd
00000100: ae50 c93d 9572 f1bd 0fb5 aabd a690 043e
00000110: 2e3a 163d d71a 873d 0f7c 2fbe e17f 21be
00000120: 56d0 ebbc 2ed1 193e ef51 25be 7180 cb3d
00000130: 7235 cfbd 68ff 05be 0a35 fe3d 73b0 03be
00000140: 3905 8d3d 71f9 3ebd 3b64 023e 218b 34be
00000150: 2049 c23d b76b 2b3e 6954 2c3d 626c 1a3e
00000160: 21b0 083e d9f3 ad3d 0104 ea3d a9c5 233e
00000170: 960d 093e 33d9 aa3d d23b f6bd aaef c03d
00000180: 7fe6 8d3c c1c4 413d c292 ff3c 710d bb3d
00000190: 7ee0 35be 89d8 ccbd 92df a6bd 0fd6 0c3e
000001a0: e21b e6bd 90f3 7cbd cd81 07bd cd86 30be
000001b0: eeff 34be 5414 febd 6c68 0dbe f542 dbbd
000001c0: 0342 5cbc 7302 4e3e 5d3b f3bd 7f44 8bbd
000001d0: a600 94bd 23fb 063d ee73 d73d 9245 b8bd
000001e0: 32e6 dfbd 36a4 333d 0b6b 44be 39bb 063e
000001f0: 6215 abbd c70d 803d 89fc 053e 384d 973d
00000200: 94bb 24be 8546 4cbd 52f3 1c3e 91ed 2cbe
00000210: 5ba0 0d3e 0ea9 06be be5b 2bbd 7fac f73d
00000220: 106b 25be 68e0 45be ba8d 01bd a59d 06be
00000230: d716 b3bb 0f6a c83d c50e b93d 904d 1cbe
00000240: 60ba 00bd 3707 18be acba efbd 4f78 9d3d
00000250: 58b9 433d bcaa 313e 9e20 8e3d 10e6 e9bd
00000260: 572d 193d 8caf 02be 8041 2cbe 839e 24be
00000270: 4434 343e 12a1 a5bd 8963 013e 3547 f9bd
00000280: 4a23 f43d 70bb cabd c00c f63c 0639 5ebe
00000290: 5247 90bd 8b72 5dbd 99f4 bfbb ed11 90bd
000002a0: 22bd 33bd 461e 323d 8068 083e e5fc 2fbe
000002b0: bce0 f7bd 817c 513d 7f72 c2bc 1772 0ebd
000002c0: 171c 803b 3cfc 043e 886b 3fbe fe7c 073e
000002d0: 8323 b73d f0e5 cebd d24e 07bd 7a1c 30bd
000002e0: 636c 52bd fca7 d2bd adc2 1f3e c648 403e
000002f0: 9398 683d fbe8 e03d 50e6 113e 0d7f 953d
00000300: 549e 263e 335a 953d c1fe 2cbe 6df0 3a3e
00000310: 418d 8dbb 3944 7ebd c94d 853c 7684 09be
00000320: ce49 75bd 3b75 2a3d d56a 3fbd c2e6 ebbd
00000330: 4d8d 11bc 900a 2c3e a501 a5bb 8b62 323d
00000340: 3615 f83c 94d2 02be be28 df3c acb3 14be
00000350: bc87 d63d 72c4 333e 9f9b 213e 8bba 36bc
00000360: 090a 36be 5b79 7f3c 8500 023e ae34 cd3c
00000370: 93e3 35be 1892 283e 57ef 17be 3e35 263d
00000380: 8dff 793e 4cc7 38bd 1f06 7abd 236f e8bb
00000390: 660c 0dbd 3c0e 9e3d c4ab 683d c084 523b
000003a0: 3048 abbc 839d 26be e79a 52bd 9829 15be
000003b0: f4d1 5b3e 38d4 81bd 6274 be3d 73cf 443d
000003c0: 0ac9 f13d 2aaf ddbd 5da4 13be e74a 25bc
000003d0: 6a73 23be 78e0 bbbd e84c 84bd 6f61 3cbe
000003e0: 9fe1 823d 9d25 373e a548 e13c 9d78 ef3d
000003f0: f9db 103e 2de2 303e 667a dfbb ff9a ad3d
0.0451717 0.046109576 0.0058581685 0.069374576 -0.07256115 -0.000841268 -0.22713886 -0.04693239
0.08304305 0.00686234 0.076106496 0.16295859 -0.05040238 0.17845605 0.13704367 0.22352798
0.17497167 -0.13116401 0.0030322736 -0.16502297 -0.08627335 -0.15321177 -0.112777784 -0.11725077
0.0026474714 -0.12769121 0.027714606 0.24067436 0.10110362 0.08546818 -0.0020487504 -0.12758203
0.24764848 -0.1315967 0.093504146 -0.050723165 0.06443835 0.14888418 -0.0499605 -0.10370836
0.10745813 -0.083730735 -0.08605263 -0.10868585 -0.19219875 0.14690703 0.15476815 0.034800436
0.1407275 0.14114302 -0.13943842 0.007302026 0.011070198 -0.1536792 -0.13810854 -0.06555494
-0.09998514 -0.036649838 -0.2131735 -0.0660502 -0.036324453 0.034214422 0.0383953 -0.08644175
0.098298416 -0.11789433 -0.083353154 0.12945804 0.03667658 0.06596916 -0.17137168 -0.15771438
-0.028785866 0.15021202 -0.16144536 0.09936608 -0.10117616 -0.13085711 0.1241246 -0.12860279
0.06885762 -0.046624605 0.12733547 -0.17631198 0.09486604 0.16740309 0.042072687 0.15080407
0.13348438 0.08493776 0.11426545 0.1599337 0.13384089 0.08342209 -0.120231286 0.09420712
0.017321823 0.04730678 0.03119791 0.09133423 -0.17761418 -0.10002238 -0.081481114 0.13753532
-0.11235787 -0.061755717 -0.033082772 -0.17238922 -0.17675754 -0.12406221 -0.13809365 -0.107061304
-0.013443473 0.20118122 -0.11876557 -0.06800174 -0.07226686 0.032954346 0.10520159 -0.089976445
-0.10932578 0.043857776 -0.19181459 0.13157357 -0.08353688 0.06252628 0.13084616 0.07387775
-0.1608718 -0.04987194 0.15327194 -0.168875 0.13830702 -0.13150427 -0.04183554 0.12093448
-0.16154122 -0.19323885 -0.0316293 -0.13146074 -0.005465369 0.09785854 0.0903602 -0.15263963
-0.03142774 -0.14846502 -0.11705527 0.07688963 0.04778418 0.17350286 0.06939815 -0.11420834
0.037396755 -0.12762278 -0.16821861 -0.16076092 0.17598063 -0.08087362 0.12635626 -0.12171785
0.11920793 -0.09899032 0.030035377 -0.2170144 -0.07044853 -0.054064315 -0.0058580157 -0.07034669
-0.043881543 0.043485902 0.13321114 -0.17186315 -0.121034116 0.051144127 -0.023736237 -0.034776773
0.0039095986 0.12986845 -0.18693364 0.13231274 0.0894232 -0.10102451 -0.033034153 -0.042995907
-0.051372897 -0.10285947 0.15601607 0.18777761 0.05678613 0.109819375 0.14248013 0.07299624
0.16271335 0.07292595 -0.16894056 0.18255778 -0.0043198173 -0.06207678 0.016272442 -0.13429436
-0.05988484 0.041615706 -0.046732742 -0.11518623 -0.008883786 0.16800904 -0.0050355964 0.04355101
0.030283552 -0.12775642 0.027241107 -0.14521664 0.10475108 0.17555407 0.15782021 -0.011152874
-0.17777266 0.015592898 0.1269551 0.025049534 -0.17762594 0.1646198 -0.14837395 0.04057812
0.24413891 -0.04511194 -0.061040994 -0.0070933267 -0.034435652 0.07717559 0.056804433 0.0032122582
-0.020908445 -0.16271023 -0.051417258 -0.14566648 0.2146681 -0.06339306 0.09299542 0.0480494
0.11805923 -0.108244255 -0.14418168 -0.010088659 -0.15961996 -0.091736734 -0.06459981 -0.18396543
0.0639069 0.17885442 0.02750046 0.11692927 0.14146413 0.17273779 -0.006820011 0.08476829

bias_ih_l0 f4 [128]
00000000: a44d b7bd 1e80 9fbd d85b b4bc 9b35 e5bd
00000010: 8958 1bbe d1f5 0f3e 6b5e 2dbd e9db 38be
00000020: 3a1a c73c 8966 28bc 7868 143e 7e48 1c3e
00000030: f158 8f3d b6dc 23be 43b9 b63d e247 12be
00000040: bec5 e8ba ded1 0e3e 4e77 47bd 83e9 e23d
00000050: 0e91 de3c e6f2 6ebc a17d 0cbd 4730 4abd
00000060: 0aec ea3d 1f30 863d 1886 0fbd 5c72 173d
00000070: 0e6d d8bc e61b dfbd 9441 41be dd54 1bbd
00000080: f25b 513e 198f 12be 9923 22be 7fa6 ea3d
00000090: 3129 19be af81 a9bd fc3f 0dbe f088 dbbc
000000a0: b167 06be 35fa ad3d 9764 9ebd 59f4 533d
000000b0: f80e 3cbd a962 2a3e 7140 6abc 3580 f5bd
000000c0: c295 e03d 8fb0 d43d 0922 b1bd 0e6f 8c3d
000000d0: 4430 20be 9d47 c63d 7e9d f13d 2a18 ca3d
000000e0: 7f3d a13d ebf4 113e 0e7e 053e de48 dc3d
000000f0: 2d0e dbbc 3ebe 1bbe ea6e 47be d463 16be
00000100: e357 f73d dd99 0d3e 74ab c7bc d783 8b3d
00000110: aca9 a4bd 5f8c 1c3c cc44 b73d e296 97bd
00000120: 4f3b b53c 85bd bb3d 17cd ecbd deff 5a3d
00000130: 18ff 0dbe dfc6 82bd 3b51 71bd a356 49be
00000140: 3410 eebd 8337 0cbe bb53 0b3e 009a b4bc
00000150: 99f5 00bc e49b e13d 9a7b a43d 1707 14be
00000160: 8f40 1c3e b9bf ffbd 76f2 043e 521f 29be
00000170: 8754 05be 3f4e 023e 28cb 1f3d b18d a0bd
00000180: fd81 cb3d c863 e5bd 5bb7 793c 497c 82bd
00000190: e93a e43b 65b5 8b3d 7165 e1bb 9bb5 25be
000001a0: 46d9 c7bd b774 1b3d 9d17 c2bd 1d75 b63d
000001b0: 068d 163d 93b5 38be b06f 003e a2e2 073d
000001c0: 4a4f fb3d a8bf 6d3d 6bf2 453d ac85 a5bb
000001d0: be54 e43d c853 d4bc 8c28 97bd f061 533b
000001e0: 0c43 cbbd e18c d43d 745c f43d 587f e0bc
000001f0: 9cb4 dc3d 4a8e bd3d ac59 0abe 0709 5fbd
-0.08950356 -0.07788108 -0.02201645 -0.11191865 -0.15170492 0.14058615 -0.042326372 -0.18052639
0.024304498 -0.010278353 0.14492977 0.15262029 0.06999386 -0.16002163 0.089220546 -0.14285234
-0.0017759127 0.13947245 -0.048697762 0.11079695 0.027168777 -0.014584279 -0.034299497 -0.049362447
0.11470802 0.06552147 -0.03503999 0.036974296 -0.026419189 -0.10893993 -0.18872672 -0.03792273
0.2044523 -0.143124 -0.15833892 0.11457538 -0.1495712 -0.08276688 -0.1379394 -0.026798695
-0.13125493 0.08494989 -0.0773403 0.0517467 -0.045912713 0.16639198 -0.014297591 -0.11987344
0.10966064 0.103852384 -0.0864907 0.068571195 -0.15643412 0.09681628 0.117976174 0.0986789
0.078730576 0.14253585 0.13036367 0.10756086 -0.026740158 -0.1520929 -0.19475904 -0.14686519
0.1207731 0.13828225 -0.024373747 0.06812256 -0.08040175 0.009554951 0.08948669 -0.074018255
0.022123007 0.09167007 -0.11562555 0.05346667 -0.13866842 -0.06385588 -0.058915358 -0.19661956
-0.11624184 -0.13693051 0.1360616 -0.02204609 -0.007871055 0.11016062 0.080313876 -0.1445583
0.15259002 -0.1248774 0.12983117 -0.16515854 -0.13020526 0.12725161 0.039012104 -0.078395255
0.09936903 -0.112006724 0.015241469 -0.06371362 0.0069650305 0.06821708 -0.006878548 -0.16182558
-0.097582385 0.037953105 -0.0947716 0.08909056 0.036755584 -0.18038015 0.12542605 0.03317512
0.122709826 0.058044106 0.04832689 -0.0050513353 0.11148976 -0.025918856 -0.073807806 0.003225442
-0.099248976 0.10378433 0.119316965 -0.027404472 0.10776636 0.09255655 -0.1351077 -0.05445197

bias_hh_l0 f4 [128]
00000000: 2701 09be f4a7 84bd e48b 1fbe 4804 4b3d
00000010: 64e9 01bc 5e96 d3bd 7b6e 13be 7519 42bb
00000020: 4723 e03d fa53 1e3e b866 e4bd e3ac e33c
00000030: de56 2cbe 2278 093e 1ae6 043e 57eb 8f3c
00000040: ccbe b5bd 9033 073e 86da 13be 863b 883d
00000050: d90a 333e b91e 2a3e 0933 bdbb d5b3 743c
00000060: ae18 863c ac68 4e3d 97c1 1d3d 51ac 5fbd
00000070: d146 ddbd 503e f2bd 2223 f4bd e500 493c
00000080: 70f0 ec3d b2af efbd 4782 a23d 5488 bbbd
00000090: ef9a 223e 36ff a33d 18cd 443b 48be 2fbe
000000a0: a414 6fbd 7156 eb3c bb3a 6fbd c6b3 1abc
000000b0: 6d74 47bd f7b9 55bc bbb6 bb3d edde 8ebd
000000c0: 5f28 adbc b129 133d d021 6ebd ead6 e6bd
000000d0: c43c 4dbc 8420 87bd 6a39 d7bd 9bc6 903d
000000e0: 1ab2 ffbd 3314 2abe 3f42 fcbd def8 3f3d
000000f0: 1d1f 61bd 2393 a73d 805b 80bd 0c3c 1e3e
00000100: aa62 26be 659f 05be c533 153e 39a9 4c3c
00000110: 3f7d 343e 3b86 2b3d 79f3 c5bd 733a debc
00000120: 594d 273e d65d ffba 3f02 483c b7ea 903d
00000130: 4637 2c3d 78a1 293b 2fe6 0bbe 3e47 4ebd
00000140: cee0 bebc 68fb d73d 87f0 7b3d d231 18be
00000150: 5ccd 28be 1e9a 4b3d 0b33 27be 2202 d43d
00000160: fbef afbd c796 9dbc 45fc 073e 3814 4ebd
00000170: 7933 f3bd 9d06 1bbe 8af6 6c3c 46b8 d13c
00000180: f55f 80bc 4dd6 b63c 403d 10be 9386 273e
00000190: db39 d83d 6999 e8bc 484d 443e 9e56 183e
000001a0: bc38 1bbe 0401 773d 2803 163e 51f7 293e
000001b0: 425d 483d 56bf 513c 0678 393d 8618 283d
000001c0: 7197 103e 6146 a1bd db1a 1d3e 34a0 03be
000001d0: 4ea7 983d de23 293e b4ad 9f3d 0913 0b3e
000001e0: 7369 b53d a3ad a23d 5857 2f3e 9aad adbc
000001f0: 63bb b0bc be34 b23d 165e ddbd 11cc 153e
-0.13379346 -0.06477347 -0.15580708 0.04956463 -0.00792918 -0.10331415 -0.14397614 -0.0029617224
0.109442286 0.15461722 -0.111524045 0.0277924 -0.16830012 0.13424733 0.12978402 0.017568273
-0.08874282 0.13203263 -0.14438829 0.06651978 0.17484607 0.16613282 -0.005773906 0.014935453
0.01636919 0.05039279 0.0385147 -0.054607693 -0.10804523 -0.118282914 -0.119207636 0.01226828
0.11569297 -0.11703433 0.07935005 -0.09156862 0.15879415 0.08007662 0.0030029472 -0.1716243
-0.058369294 0.028727742 -0.05840562 -0.009442275 -0.048695017 -0.013044826 0.091657124 -0.069761135
-0.021137415 0.035928432 -0.058137715 -0.1127146 -0.012526695 -0.06597999 -0.10508998 0.07069131
-0.12485142 -0.16609268 -0.12317323 0.046868198 -0.054961313 0.08182361 -0.06267452 0.15452594
-0.16248575 -0.13049085 0.1457053 0.012491518 0.17625903 0.04187606 -0.09665579 -0.02712748
0.163381 -0.0019482921 0.012207567 0.07076018 0.0420449 0.0025883596 -0.13662027 -0.05036091
-0.023300555 0.10545999 0.06150868 -0.14862755 -0.16484588 0.049707524 -0.16328065 0.10351969
-0.085906945 -0.019236935 0.13279827 -0.05031225 -0.11875052 -0.15139242 0.014463076 0.025600564
-0.015670756 0.022318983 -0.14085865 0.1635993 0.1055791 -0.028393464 0.19170105 0.14876792
-0.15158361 0.060303703 0.14649642 0.1659825 0.048917063 0.012801966 0.04528048 0.041039012
0.1412027 -0.07874752 0.15342276 -0.12854081 0.07453786 0.16517588 0.07796803 0.1358148
0.088580035 0.07943275 0.17123163 -0.021200944 -0.021573728 0.08701466 -0.10808961 0.14628626

weight_ih_l0 f4 [128, 2]
00000000: 2fb5 9cbc 6122 a53d c887 09be cfc2 81bd
00000010: abd5 6b3e 0caa a5bd b8ad 2e3d 8957 71bd
00000020: 7d15 24bd 8e3e 70be 4a86 22bc 28b2 ca3d
00000030: 69a4 40bc 1c0f d8bc d3b6 e93c e531 5fbe
00000040: e2e8 a73d 2f7e 87be 10e6 603d f0ce 013d
00000050: 9913 963d f624 233e 689f fc3c 8294 30be
00000060: f9f3 90bd f90b a63d 537b 593d fbfe 47bd
00000070: bd49 2cbe 5fa6 09be 1fc5 e0bd f29d b03e
00000080: 3e79 29bd 4c42 2d3b bff7 393e 5745 393c
00000090: c549 06bd 6e1f 75bd 9fe9 bfbc b98a cf3c
000000a0: baff f13d ccc3 73be 313b 06bc 542f 06bd
000000b0: 6285 acbd 6d10 943d 8f6f 17be 8af2 9abb
000000c0: 3f7f 15bd 8cf1 18be 9e30 9d3c 6e46 c33c
000000d0: a441 273e a983 943c 4b58 0fbe 6b75 8e3b
000000e0: 4e8b 57be dae1 843d 0976 2cbd d109 e3bd
000000f0: 62e6 223e d27d 85be a823 26be ed4d 51be
00000100: c151 29be 15a6 34be 4dbc 653d 87b6 3fbe
00000110: a03c 173e 0444 773c 83b2 2d3e 2684 b1bc
00000120: 46da 703e ce81 7bbe 13f3 9f3c ca88 99bd
00000130: 793b 01be a1c7 4a3d 8e4a 143e 6b4e 47bc
00000140: 5d73 9dbd d1d1 4fbe 95a3 163e f093 153d
00000150: dfb3 1a3e 1a06 153d 4be7 f1bd d093 50bd
00000160: 7b0b 91bc 7955 513e 485c 0bbd ae3e a4bb
00000170: 9ead c23c 8d15 e4bc 738c 9fbc 35aa 623e
00000180: 3816 b33d 65c6 67bd 0345 423c 7dc4 6fbe
00000190: 0d4b f1bc af9e 7e3d 65b8 77be 14ea 78bd
000001a0: e0d2 bb3d b0b6 b9bd 7085 503e c21a f5bd
000001b0: 1641 7ebd 539c 18bd f27f 1ebd d858 55be
000001c0: 7084 29be 1169 06be 072c ef3d 2483 a0bc
000001d0: 73e9 833d 9d25 dbbd e728 a23c 46ef e9bd
000001e0: 4397 083d 5389 16be 4ef9 77bd a4f3 c5bc
000001f0: 96d0 e03d 9ab9 73be 0b2f 24be daa7 90be
00000200: 44c0 283e 2960 4a3e a6f6 15be 414a 8cbe
00000210: 5b83 a6be ae84 ad3b 8d9a 90be 58af 63bd
00000220: 3522 64bd b588 17be a7f8 543e 5979 90be
00000230: ffac 01be c87d 7f3c 8935 3a3e e94c 2dbe
00000240: 9064 693e 9c30 1e3e 6e5e d1bd 5fa2 a33e
00000250: a0e0 973e c631 643e 13fc b2bd 48a6 91bd
00000260: ad60 6cbe c229 5cbe 1f7b 453e d48d 583e
00000270: b5c8 59be 7cf3 94be 3639 a1be cdf5 903e
00000280: 62d0 c5bd ac8d 223e ab1d 61be 44e3 543e
00000290: 7006 4bbd ebac 883e 5021 1d3e 1ac9 633e
000002a0: 55f0 10be 6faf 06be 51b1 12be 2604 523e
000002b0: 2878 c83d 9c2d ffbc e973 3a3e 2ded 7e3b
000002c0: 3284 3a3e d9d7 473e 4c28 b63e fb9f 053e
000002d0: a73a 0abe f232 5a3e 6884 4f3e cd8e 46be
000002e0: 7499 7f3e 5b22 123e 2583 613e 10cc 9d3e
000002f0: 8dac 323c 35d0 0cbe 1685 7ebe cfdb a83d
00000300: a51c 70be 140c fdbd ca3a 0b3e abb5 043d
00000310: 0d91 0f3e 8808 29be dec6 453e b56f 7abd
00000320: 9c82 03ba 8725 97be 010d 84bc 9544 a5bc
00000330: d8dd f5bd 0820 7fbe 36cd fabd d940 63be
00000340: 9d0b f63c 065c 743c 01cb 9dbd 4d35 53be
00000350: ec0d 853e 090e 333e 8a33 b63d 282d 80be
00000360: 2d33 673e d59e cd3d dc57 093d 3071 283e
00000370: 280c 8d3d f4c4 f43c 07ff 55be 3b18 d03e
00000380: e127 cd3c 0496 85bd efd1 f7bc 5cde 89be
00000390: 6783 28be eb36 62be 2335 9e3d 93ff 913d
000003a0: 34b3 5b3d bd1b c8bd fc27 573c 9ed1 b4bd
000003b0: 04d4 253e 0f93 debc 79d1 46be c58a 51be
000003c0: f5e0 953d 8d21 2dbd a231 753d f326 46be
000003d0: d57c 5e3e aec3 4bbe 64e3 6d3d af86 953d
000003e0: 37b1 5abe 470f a3bd 0d4a b5bd 953d 81be
000003f0: 2f3e 833d 7d0d 06be 92f8 013c 6417 87be
-0.019129364 0.08063198 -0.13430703 -0.06335985 0.23030727 -0.080890745 0.04264614 -0.05892137
-0.040059555 -0.23461363 -0.009919712 0.09897262 -0.011757948 -0.026374392 0.02852956 -0.21796377
0.08198716 -0.26463458 0.054906905 0.03169149 0.07327957 0.15932068 0.03083773 -0.17244151
-0.07077784 0.08107752 0.053096127 -0.048827153 -0.16825004 -0.13442372 -0.10975098 0.34495503
-0.04137539 0.002643722 0.18160914 0.011308036 -0.032785196 -0.059844427 -0.023426829 0.025334703
0.11816354 -0.2380516 -0.008192823 -0.03275998 -0.08423878 0.072296955 -0.1478865 -0.00472862
-0.036498304 -0.14935893 0.019188222 0.023837294 0.16333634 0.018129187 -0.13998525 0.0043474934
-0.21049234 0.0648839 -0.042104755 -0.11085857 0.15908197 -0.26072556 -0.1622454 -0.20439883
-0.16535093 -0.1764148 0.05608778 -0.18721972 0.1476922 0.0150919 0.16962628 -0.021669459
0.23520765 -0.24561235 0.019525087 -0.074967936 -0.12620343 0.049506787 0.14481565 -0.012164692
-0.076880194 -0.20294882 0.14710839 0.036518037 0.15107678 0.036382772 -0.11811694 -0.050922215
-0.01770567 0.20442761 -0.034023553 -0.005012355 0.023764428 -0.027842307 -0.019476151 0.22135241
0.08744472 -0.05658569 0.011857274 -0.23414798 -0.029454732 0.06216305 -0.24191435 -0.06077011
0.091710806 -0.09068048 0.20363402 -0.11967994 -0.06207379 -0.037258457 -0.038696237 -0.20834672
-0.16554427 -0.13126017 0.116783194 -0.019593783 0.06441011 -0.107005335 0.019794894 -0.11422591
0.03334738 -0.14700823 -0.06054049 -0.024164028 0.109772846 -0.2380127 -0.1603357 -0.2825306
0.16479594 0.19763245 -0.1464487 -0.274004 -0.3252209 0.0052953577 -0.28242913 -0.055587143
-0.055696685 -0.14798243 0.20797978 -0.2821758 -0.12663649 0.015593953 0.18184485 -0.1692387
0.22792268 0.1544823 -0.10223089 0.31959817 0.29663563 0.22284612 -0.087394856 -0.07111794
-0.23083754 -0.21500304 0.19285248 0.21147853 -0.2126797 -0.29092014 -0.3148896 0.2831253
-0.096588865 0.15874356 -0.21983974 0.2078982 -0.049566686 0.26694426 0.15344739 0.22244683
-0.1415418 -0.1315286 -0.14325453 0.20509395 0.09788543 -0.031149678 0.18208279 0.0038898692
0.18214491 0.19515933 0.3557762 0.13049309 -0.13498937 0.21308497 0.20265353 -0.19390412
0.24960881 0.14270918 0.22022684 0.3081975 0.010905397 -0.137513 -0.24855456 0.0824505
-0.23448427 -0.12355819 0.13596645 0.032399815 0.14020176 -0.1650716 0.19314143 -0.06114169
-0.0005016716 -0.2952082 -0.016119482 -0.020174304 -0.12005204 -0.24914563 -0.12246172 -0.22192706
0.030034835 0.014914518 -0.077047355 -0.20625801 0.25987184 0.17485823 0.08896549 -0.2503445
0.22578116 0.100400604 0.033531055 0.16449428 0.06887084 0.02987907 -0.20898066 0.40643486
0.02504343 -0.06522754 -0.030251471 -0.2692746 -0.16456376 -0.22091262 0.07724979 0.07128825
0.0536377 -0.09770916 0.013132092 -0.08829044 0.16194159 -0.027169732 -0.19415845 -0.20463093
0.07318298 -0.042268325 0.059861787 -0.19350795 0.21727307 -0.19898865 0.058078185 0.073010795
-0.21356665 -0.07961898 -0.08852015 -0.25242296 0.06408345 -0.13091083 0.007932799 -0.26385033

weight_hh_l0 f4 [128, 32]
00000000: 3e5c f7bd f708 923d 3c1e 4cbe 6504 8a3d
00000010: a0cc fc3c f25c 233e f015 dfbd 7c6b 6abd
00000020: 93a6 05be 5468 25bd b0d0 343e ddd8 dd3d
00000030: 6a64 4f3e 7f65 563d 5d10 1abd e8f8 df3d
00000040: 7348 9e3d 1eee 00be 1c08 87bb 608e 8d3d
00000050: 3a11 9c3d 9617 15be 4316 31be 6e50 5b3d
00000060: 85f3 4fbe 711d 503e 8c4f 60be b8f5 653e
00000070: 594a 0d3c fb6d 74be 7731 a4bc 05a3 c93d
00000080: 7ea2 ccbd 3722 e2bc c7fb e93c c851 c8bd
00000090: d3f8 9e3d 8f33 283e 3ee4 3cbe d4e1 10bd
000000a0: 8a91 bbbd 9a15 9a3d 0e7f d1bd 3467 91bd
000000b0: 050d 723e 1d9b ac3c a696 9f3d 07a4 a53d
000000c0: 73ca a73c 1cff bcbd 0294 a83c ecf5 c03d
000000d0: 99cd 613e 8dce 78be 70ef a53d 80f6 5d3e
000000e0: 3bcc 533c efb6 62bd 7e12 44bd a0a5 9abd
000000f0: d405 bcbd dc6b 583d efa1 f43c cee8 9abd
00000100: 4f89 10be 4dd9 dc3d dc6c 7dbc cd87 0dbe
00000110: a575 7abd a4a0 853d cb60 25be c77b fe3c
00000120: e2aa 19be 24cb 63be e0e7 63bc b068 9abd
00000130: 2895 663c d6f1 593e 9835 a23d ac9e f2bd
00000140: 51dd 71bc 700a 99bc 7c4a 7abe 69b5 69be
00000150: 5028 b5bc 08ef 17be bd1c 4abe 70ec 863e
00000160: 5dd7 13be d689 683d 91f8 10be ce63 24bd
00000170: 63c8 843c f713 8d3d 7cd5 0d3e 0184 76be
00000180: c160 ef3d ab49 1d3d 3d7c 833c 8b4e 9fbd
00000190: 6aba 143d e922 3d3e 2de3 da3d 0dc6 093e
000001a0: 739b 083e c85a c73d 025f 233d 2b90 c439
000001b0: 0544 99bc 1672 83bd 08cc b6bc b9af a5be
000001c0: ead4 62be 6a19 10be c145 09be 6876 59be
000001d0: a32d 253c 4a81 5d3d ca83 8bbd bbbb 94bc
000001e0: 005c 2ebd 34a6 423e 7fc7 09be 21da 09bd
000001f0: 626d 4a3d 9f66 48bd 0a26 633e a2fd 6abe
00000200: c79b 44bd 08ae 0a3e 6535 12bd cbd6 8e3d
00000210: d0d1 f33d faee 7f3e 45b6 f23d e157 89bd
00000220: cbd9 9f3c f257 d83d 1716 d5bd f43d 3abc
00000230: 3d9e 843d d5a1 f43d 7ecc 103e 62f9 f5bd
00000240: ac93 51be c569 6cbb 1b37 d8bc 20d9 70bd
00000250: 07c2 1c3e d074 ca3d c250 be3d 55bc ddbd
00000260: a9af 35be 699f 8c3c a94c 49be e60d 943d
00000270: 7b38 63bc 29b4 fd3d 54ab 013e 77c2 59bd
00000280: 743c 1fbd a3ce 86bd 41b5 31be 784b 31be
00000290: 8b96 d9bc 829a 713e 4f3a 30be 66a8 533e
000002a0: 4c3c 2a3d 9b48 40be dbb6 71bd 646c 0d3e
000002b0: 852a a23d 179c 7ebd 0f62 b33d 37dd 76be
000002c0: 24ee 16be dff2 b43d 9e7f e2bd 5f81 e03d
000002d0: 5890 debd 8681 adbd 31ac 5cbe 9545 e53d
000002e0: 25d0 e93d 7bd0 4c3e 770f e33d 8031 43bd
000002f0: c437 ef3c 4086 3fbe 122e 673e 3d9f e5bd
00000300: 5a30 a53d 5b23 513d 9ad9 80bc 4a5d 8bbd
00000310: a1cc 613e fbd9 b0bd 924b 53be c019 c03d
00000320: 607d 30be 99af 8fbd bb12 773d 42cd d13d
00000330: 3a7d 9a3d 0ea4 323e 4d09 98bd fb5d 8dbe
00000340: 901e b4bd fc08 4abd dd4f aa3d 1c5c 06be
00000350: 1fa1 5d3e c2ac a43d e490 4abe aa76 393e
00000360: b7f4 acbd bd32 ff3d da20 11be 82d4 8f3d
00000370: 44c3 a93d df40 0ebe e841 77bd 5125 a9bd
00000380: c24b 703d 2474 393e f2a5 30bd f233 e53c
00000390: 17b7 0d3e da77 89bd 4ebf fa3c aa2a ec3d
000003a0: 72b0 8cbd c595 61be 9fbd e8bd 10ab 6d3e
000003b0: 0932 423e e70b b8bd cd52 1d3e 51ed 75be
000003c0: 6ace 3a3d b8ad e2bd 6cca 77be 37d4 4d3d
000003d0: 7c61 ac39 c49c 7bbd fb2d 26be 7a3f a7bd
000003e0: 9b3c fe3b 5c76 b0bd 91a7 b7bb 9e9a 2d3e
000003f0: c488 9cbd a884 663d 38e7 043e 8511 a5bc
-0.12078141 0.07130616 -0.19933408 0.067391194 0.030859292 0.15953425 -0.10892856 -0.05723141
-0.13051824 -0.0403827 0.17657733 0.10832379 0.20253149 0.052342888 -0.03761326 0.10936147
0.07728662 -0.12590834 -0.0041208398 0.069119215 0.07620473 -0.14559779 -0.17293648 0.0535435
-0.20307739 0.20323731 -0.21905345 0.22457016 0.008623683 -0.23870079 -0.020043118 0.09845547
-0.099919304 -0.027604206 0.02856244 -0.097812235 0.07762303 0.16425918 -0.18446442 -0.035371616
-0.09158619 0.075236514 -0.10229312 -0.070997626 0.23637779 0.021070058 0.07792406 0.08087926
0.020482277 -0.09228346 0.020578388 0.09421906 0.22051086 -0.24297543 0.0810231 0.21676064
0.01292711 -0.05535024 -0.047869198 -0.07551122 -0.09180799 0.052837238 0.029862372 -0.07563935
-0.14114879 0.10783634 -0.015467849 -0.13821335 -0.06114735 0.065247804 -0.16150205 0.031064881
-0.15006593 -0.22245461 -0.013910264 -0.07539499 0.014073648 0.2128366 0.079203784 -0.118466705
-0.014762239 -0.018681735 -0.24442476 -0.22823109 -0.022113949 -0.14837277 -0.19737525 0.26352262
-0.14437623 0.056772076 -0.1415732 -0.040134244 0.016208833 0.068885736 0.13850969 -0.24073793
0.11688376 0.038400333 0.016050452 -0.07778653 0.03631059 0.18470348 0.106878616 0.13454457
0.13340549 0.09734112 0.03988553 0.00037491447 -0.018709192 -0.064182445 -0.022314087 -0.32360628
-0.22151533 -0.14072195 -0.13405515 -0.21236575 0.010081681 0.054078378 -0.06812246 -0.018155923
-0.042568207 0.19008714 -0.13455008 -0.03365529 0.04942072 -0.048925992 0.2218248 -0.22948316
-0.048000123 0.1354295 -0.035695452 0.06974562 0.11905253 0.24993506 0.118511714 -0.06706215
0.019513031 0.10563649 -0.10404604 -0.01136731 0.06475494 0.119449295 0.14140508 -0.120104566
-0.20466489 -0.0036073786 -0.026393464 -0.058800817 0.1530839 0.098855615 0.09292747 -0.10826937
-0.1774279 0.017165856 -0.1965815 0.072292134 -0.013868446 0.123878784 0.12663013 -0.05316397
-0.038876012 -0.065823816 -0.17354299 -0.17313945 -0.026561042 0.23594096 -0.17209743 0.20669708
0.04156141 -0.18777697 -0.059012275 0.13810879 0.07918266 -0.062160578 0.087589376 -0.24107824
-0.14739281 0.088353865 -0.11059497 0.109621756 -0.10867375 -0.0847197 -0.21550061 0.11194912
0.114166535 0.20001404 0.11086934 -0.04765463 0.029201396 -0.18703556 0.22576168 -0.11212013
0.08065863 0.05105911 -0.01572876 -0.06804903 0.22050716 -0.086353265 -0.20634297 0.093799114
-0.17235327 -0.070159145 0.060320597 0.10244228 0.07543416 0.17445394 -0.07423649 -0.27610764
-0.08794892 -0.049324974 0.08316014 -0.13121074 0.21643494 0.080407634 -0.19781834 0.18111673
-0.08445113 0.124608494 -0.14172688 0.070229545 0.08289197 -0.13891934 -0.060365587 -0.08259071
0.058666 0.1811071 -0.043127008 0.027978871 0.13839374 -0.06712313 0.0306088 0.11531575
-0.06869592 -0.22029789 -0.11364292 0.23209786 0.189644 -0.08986645 0.15363617 -0.2401631
0.045607008 -0.110682905 -0.24198312 0.050251212 0.00032879028 -0.0614288 -0.16228478 -0.08166404
0.0077586896 -0.08616325 -0.0056046923 0.16953513 -0.076432735 0.056278855 0.12978828 -0.020149956

bias_ih_l0 f4 [128]
00000000: e14c dbbc e726 83bd 901d 0e3e 4fda ee3d
00000010: 5eee 993a da7f ec3d b1ea 503e 46f0 84bd
00000020: e4be 303d 1f7f d43d c6de 9fbd 5918 24be
00000030: 3b37 ce3d 554c 9e3e 2a68 02be 889a a43e
00000040: 2579 743d 1d0c 043e 1485 643e 9459 ab3c
00000050: 37df 4e3e cfa3 94bc a8b2 edbd d9ff 21bd
00000060: 71b8 10bc bbc2 963d 9969 783d 61be 7a3d
00000070: bbe4 2a3e ff86 243e a364 4d3e ca5c 2d3d
00000080: a85b 4e3e d463 acbd 4ec0 36bd 7ef7 c3bd
00000090: 0f62 1bbd 13fe ab3d 2eb5 323c 0f58 583e
000000a0: 3bf8 473e 3a4a 4a3e 2feb 083e bad9 223e
000000b0: bae9 c8bb c921 a43e 69d9 4d3d 35ba 693e
000000c0: 80d7 b6bd 662b 5c3e 09fb 423e 3ac9 7a3e
000000d0: 80e1 f33d 6915 033e 10ac 99bd 1d53 063d
000000e0: 8aab e7bc 653d 523e 047a 8c3d 00a6 5f3e
000000f0: ce49 bcbd e363 bd3d 9136 a03c 9245 7e3c
00000100: 406a e4bd 981e 833d f593 793d b640 4ebe
00000110: ad06 1a3d 787d ff3d ed6d b93d 14d1 0e3e
00000120: 4f4f cb3d 9f17 d8bd cb4e 0b3e c687 333d
00000130: 70b5 6c3d 1296 e83c a740 fb3d 0cb7 91bd
00000140: e414 31be b8e2 edbd cda8 103e 7aee bebd
00000150: 424c 843d 71be 45be 3efa d5bd 688d 323e
00000160: 0a55 06be 19b7 25bd 49d7 e73d 8189 1e3d
00000170: 1ffa 703c 98b3 c5bd d94c ddbc 6369 213d
00000180: 9e2a 91bd db11 513e 7276 6a3e b210 1b3e
00000190: 38ac b53d 681f 233e 5af7 4b3e 4fe9 223d
000001a0: b38f 9b3c ff6f 313e a8ac a73d 35cb 14be
000001b0: 1364 77bc e33a be3e a193 7c3d 7b7a 643e
000001c0: 6dcd ae3d ea04 ebbd 2d51 073e 2d6b 0c3e
000001d0: 3a95 dcbc 8329 153e 12b1 12bc 7f28 d6bd
000001e0: 568e 4e3e b848 153e 68f0 5f3e c93e c5bd
000001f0: 10e7 c5bd dfaa 8e3c 8795 153e 5ec0 b8bb
-0.026770057 -0.064039044 0.13878465 0.11662733 0.0011744013 0.11547823 0.20402028 -0.06491141
0.043150797 0.10375809 -0.078061625 -0.16024913 0.10069128 0.30917612 -0.12735048 0.32149148
0.059685845 0.12895246 0.2231639 0.020916738 0.20202337 -0.018144516 -0.116063416 -0.039550636
-0.008833037 0.07361361 0.06064758 0.061216716 0.16688816 0.16067122 0.20057921 0.04232482
0.20152152 -0.08417478 -0.04461699 -0.0956869 -0.037935313 0.0839807 0.010907454 0.21127342
0.19528286 0.19754878 0.13370965 0.15903369 -0.006131378 0.32057026 0.050256167 0.22824939
-0.08927822 0.2150093 0.19041075 0.24490824 0.11908245 0.12801136 -0.075035214 0.032794107
-0.028280038 0.20531233 0.0685921 0.21840668 -0.091937646 0.092475675 0.01955727 0.015519517
-0.11153078 0.0640232 0.06093212 -0.20141873 0.037604023 0.12475103 0.0905417 0.13946944
0.09927236 -0.1055138 0.13604276 0.043830656 0.05779022 0.028391872 0.12268191 -0.071149915
-0.17293125 -0.11615509 0.14126892 -0.093228295 0.064598575 -0.19310929 -0.104481205 0.17436755
-0.13118377 -0.04045782 0.11320359 0.038705353 0.014708071 -0.096533954 -0.027014183 0.039407145
-0.07088207 0.20416968 0.22896746 0.15143088 0.08870739 0.1592995 0.19918576 0.03977328
0.01898942 0.1732788 0.081872284 -0.14530642 -0.015099543 0.37154302 0.061664227 0.22312348
0.085352756 -0.11475547 0.1321456 0.1371276 -0.026926626 0.14566617 -0.00895335 -0.10456943
0.20171484 0.14578521 0.21869051 -0.09631116 -0.09663212 0.017415462 0.14607821 -0.0056381663

bias_hh_l0 f4 [128]
00000000: bf1f 4f3e dc23 483e 5c41 8d3d 513c 56bd
00000010: e5fc c23d de08 503e 7e7b 2ebd 1d74 203d
00000020: fc80 f93d 341c 343e 190b 023e 3dad 463d
00000030: 2553 cf3d 650d a33e 98c2 d03d 05c1 be3e
00000040: 628a 0d3c 131a 4c3d a21c 083e abf9 c4bc
00000050: e50e 543e 3af6 ba3d ba99 363e e97a e7bd
00000060: ab38 edbd 3b61 1cbc cde4 cb3c 7a30 0fbd
00000070: 2e5b 453e 3251 3d3e 44cb 743d 9903 923d
00000080: b9db 893d 991f 0c3e 1b6c a23d 7ee1 0e3c
00000090: 5d78 e1bc abbf a9bd a6c8 e5bd df2b a1bd
000000a0: 2ae8 87bd a472 9a3c 218a 563d 013b 5a3d
000000b0: 2fbc 0d3e d5d5 aa3e fb78 d9bd 0f07 1e3e
000000c0: 2aaf b2bc 87ad 38bd 34fd 393d d970 6c3d
000000d0: 5254 e43d 5370 513d 36f4 8e3d c411 ebbd
000000e0: c2fc 7bbb 691c 803e 9a6c a9bc 11e7 0fba
000000f0: 6922 da3d 5062 ccbd fbc1 ccbd 5817 453e
00000100: 7ac4 8a3d 6edd a73d e3d8 02be 3047 2cbe
00000110: 7a88 e33d dcb1 9cbd 40c5 e8bd 7e21 0e3e
00000120: 2e55 25be fee9 ef3d 5ab5 793d 7ac9 1a3e
00000130: 4e01 9b3c ad68 cf3d e75a cc3d 7ee8 113d
00000140: 7118 acbd 9b5d 613d 3257 11be 9df3 9d3b
00000150: f47b e43d 0e0e 1bbe bf07 de3c f55c e13d
00000160: 1647 89bd e472 3a3e de5b babd 19a2 603d
00000170: 7a3b 09be 726f 0abe ffc3 4a3e 8d85 0fbe
00000180: 5625 463e 1577 383e 3974 033e ad49 ebbd
00000190: 3100 adbd a8a2 303e 9783 fe3d c871 e83d
000001a0: 8635 7e3d e377 3e3e 4406 de3c 6a0c ffbd
000001b0: 0d88 ecbb dd3c 6c3e 2977 023e 3981 a63e
000001c0: 5f0c 6f3e 46e4 66bd f8ec b7bd 3fb6 fa3d
000001d0: fa9b 34bd 3f21 36bd 0031 e53d 3a95 3a3e
000001e0: cbfa 9c3d 8111 8b3e 2138 e63b ae73 b63d
000001f0: 7f2d 373e 3846 ad3d d333 913d 56f5 713d
0.20226954 0.1954493 0.06897232 -0.052303616 0.09520892 0.20315883 -0.04259824 0.039173234
0.12182805 0.17588884 0.12699546 0.048505057 0.101232804 0.31846157 0.10193366 0.37256637
0.00863895 0.049829554 0.13292173 -0.024044832 0.20708807 0.09128995 0.1783208 -0.1130274
-0.11583074 -0.009544666 0.024889374 -0.03495834 0.19273064 0.18488005 0.05976416 0.071295924
0.06731362 0.13683929 0.07930776 0.008720754 -0.027523214 -0.08288511 -0.11219911 -0.07869696
-0.06636079 0.018853493 0.052377824 0.053278927 0.13841318 0.33366266 -0.10618778 0.1543238
-0.02181204 -0.045087364 0.04540749 0.057724807 0.11148895 0.05113251 0.06980173 -0.11477998
-0.0038450216 0.25021675 -0.020681668 -0.00054894487 0.106510945 -0.09979689 -0.09997936 0.19247186
0.06775756 0.08196531 -0.12778048 -0.16824031 0.11110015 -0.076511115 -0.113657475 0.13879964
-0.16145775 0.11714552 0.060963966 0.1511592 0.01892152 0.10127387 0.09978276 0.035622112
-0.08403099 0.05502091 -0.14193419 0.0048203007 0.11156455 -0.1514208 0.027103303 0.11004058
-0.06703012 0.1820789 -0.090995535 0.05484209 -0.13401595 -0.13519076 0.19801329 -0.1401579
0.1935018 0.18014176 0.12837304 -0.11488662 -0.08447302 0.17249548 0.124274425 0.11349827
0.062062763 0.1860042 0.027102597 -0.1245354 -0.007218367 0.23070092 0.12740768 0.32520464
0.23344563 -0.056370042 -0.08980745 0.12241792 -0.044094063 -0.0444653 0.11190987 0.18220988
0.076650225 0.27161792 0.007025734 0.08908783 0.17888449 0.08460659 0.07089963 0.05907186

weight_ih_l0_reverse f4 [128, 2]
00000000: ce59 813d 95e1 4fbe 8950 083e fe74 523d
00000010: 8557 5ebc 9428 eabd 6754 303e 4091 2fbe
00000020: 5e58 ca3d a974 923c d821 dabd ff12 75be
00000030: dbdf 2f3c 3097 853e c343 59bd 274b 94be
00000040: bbe9 153e 4f05 98be 1219 05be b7b2 633d
00000050: 4440 2dbe 4f75 a03d 5a6d 4e3e b57e 06be
00000060: da4c 37be 9418 743e a1e0 20be 55f4 97be
00000070: 5136 343e bd4e 183d 1404 bf3c 15b6 983c
00000080: f0d0 b1bd 6a65 68bd f256 6cbd a3c8 28be
00000090: 77b1 6cbe 6544 f6bc 1a27 92bd 25c5 8b3d
000000a0: 10b4 02be a212 553e dfc4 05be bb2a 80bd
000000b0: d8d2 c0bd fa38 063d 7233 1c3e 6b65 25bd
000000c0: 3a8b a9bd f3f4 2cbc 7a23 04be e2a7 e9bd
000000d0: c938 b03d c8ce 9b3b 4049 55bd 75dc 93bc
000000e0: 6e4f 16bc 389b 0b3e 87e3 f33b d2d3 19bd
000000f0: 680b 3f3e 23e9 75be f355 3dbd 187e 18be
00000100: a4c3 c1bd 7fa8 013d 7df5 443e 11f7 7bbd
00000110: 783f d6bb a424 12bd f715 083c 47ea 5bbe
00000120: 8d3d b13d 8bb4 653d 8d6c 243e 6b6f 44bd
00000130: f427 73be d756 a03e 6fb3 263c 9c0b bcbd
00000140: b6d1 4c3e 5a17 0fbe 5d43 89bc 62e7 1abe
00000150: fee3 303e d424 2abe 2617 493e 947e 3fbe
00000160: 66f1 4dbe 24b5 d23e d9ea 84bc d63e 88be
00000170: 12f9 ca3d f0e9 e8bd e52b 58bd d74b 82bd
00000180: 4c76 8b3d 10bc e4bd 1ce3 7cbd 51ed 70bd
00000190: 8986 6bbe bd78 45bd 9033 13be e7e8 eb3c
000001a0: a26c 773c e3a9 b63e 4f3a 733b 2639 fbbd
000001b0: aebb 253e f88b 7dbe 4df4 4fbe 7576 8bbd
000001c0: 42ca 433d 1528 64be b628 4a3d 44e3 8dbe
000001d0: d044 1c3e 4938 bcbd 749d f13d 37c0 91be
000001e0: 630f d6bd 8191 4a3e 3365 333e 5a2f 46bd
000001f0: cc30 7a3e 9a71 45be cf66 a13d f6f7 80be
00000200: 0c05 0bbe 320c 43be 43d6 583e cb42 9f3e
00000210: bf10 023e ea33 37be 02a6 26be 6f9e 69be
00000220: 371d 593d 8a67 a23e 08f2 163d 39de 4d3e
00000230: ffd0 c13d 105b 99be dc6a 53be 2260 863e
00000240: f333 61be 438f c33c 4fbc debd 1633 8d3e
00000250: dede a03e 7538 61be 6e3d b13e c4e4 2cbe
00000260: 282b ae3e 34ee 56be 4143 af3e 0aeb 7dbd
00000270: a413 80be 753c a23b 86b2 e8bc 512e 793e
00000280: 1781 853c 010c 323e 5383 e8bc 7de9 bc3e
00000290: 0b84 123e 8ee1 15bb 7b60 89be f4ca 44be
000002a0: 7211 93be d986 25be 7461 a83e 5aa4 48be
000002b0: 08e9 94be a99a 533e bc43 1b3e af26 8d3e
000002c0: ae43 00be c5bf 9b3e a15d 9b3e 7f2b 10bd
000002d0: a8fd 7abe 2c1c 123e 2e0b 533e b5c4 a1be
000002e0: 8a77 f5be b354 963e d3f7 143e 0900 0d3e
000002f0: ba9b 833e bee9 8dbe a3e3 303e 0b0f 9e3d
00000300: bb3c 363e 295b f1bd cea2 3c3e aa0a 903d
00000310: fa38 933d 1277 66be bfaa 29bd f188 5fbe
00000320: 67c1 80bc 9a8f 133e 3e48 16be d4b6 02be
00000330: 52f2 96be 3c80 3e3e 952e e83d dd5c 8dbe
00000340: ec05 17bd b6e6 28be bfc3 7abc b202 33be
00000350: 961d ee3d cda7 52be 8b98 473e de0a 7bbe
00000360: ad09 693d 279e 093e 4a40 8dbd b29b 1bbe
00000370: a9cc 6c3e 2784 4fbd 5c1b 31bd 4454 5abe
00000380: 0f62 363e e8ca ab3c e4a6 3c3a 1aee 66be
00000390: 1e66 52be 3c56 8dbd 2538 8bbe 67c3 a63d
000003a0: be38 bebd bbe1 f53a 1291 a8bd 4ccd 253d
000003b0: 9b15 86bd e390 6fbe 5054 78bd f876 aabd
000003c0: 4210 6f3d a29f 0b3d a97a 363e 5404 6abe
000003d0: 5935 13be a602 7b3d fc94 0c3e d596 423d
000003e0: 75b0 4d3e aa92 8dbc 7fd1 833c b985 8fbe
000003f0: b79b 7c3d 8bf1 0dbe 4650 1abd 32dc 2fbe
0.06315957 -0.20300896 0.13311972 0.051381104 -0.013570671 -0.11433521 0.17219697 -0.17145252
0.09880136 0.017877894 -0.106509864 -0.23933028 0.010734524 0.2609191 -0.05304314 -0.28963587
0.14639942 -0.2969155 -0.12997845 0.055590358 -0.16919047 0.07834875 0.20158902 -0.13134272
-0.1790041 0.23837501 -0.15710689 -0.29678598 0.17598845 0.037184466 0.023317374 0.018641511
-0.0868243 -0.05673734 -0.057700105 -0.16482787 -0.23114572 -0.03006191 -0.07136364 0.06824712
-0.12764001 0.20807889 -0.13063382 -0.0625815 -0.09415215 0.03276918 0.15254 -0.040379923
-0.082785085 -0.010556447 -0.12904158 -0.11408974 0.08604581 0.004754875 -0.05207181 -0.018049458
-0.009174211 0.1363343 0.007442895 -0.037555523 0.18656695 -0.24014716 -0.046224546 -0.14891851
-0.094611436 0.03165483 0.19234271 -0.061514918 -0.006538328 -0.035679474 0.008306018 -0.21476088
0.08654318 0.056080382 0.16057034 -0.04795782 -0.2374571 0.31316254 0.010174616 -0.09181902
0.20001873 -0.13973752 -0.016755754 -0.15127328 0.17274472 -0.16615611 0.19637737 -0.1870063
-0.20111617 0.41153824 -0.016225265 -0.2661044 0.09910788 -0.11372745 -0.052776236 -0.063621216
0.06809673 -0.111686826 -0.061740026 -0.058820073 -0.2300054 -0.048210848 -0.14375138 0.02879758
0.015101584 0.35676488 0.0037113612 -0.122667596 0.16184875 -0.24760425 -0.20308037 -0.06809703
0.04780031 -0.22280915 0.04935523 -0.27712452 0.15260625 -0.09190423 0.1179761 -0.2846696
-0.104521535 0.19782068 0.17519073 -0.048385 0.24432677 -0.19281617 0.07880937 -0.2518918
-0.13576144 -0.19047621 0.21175484 0.31105646 0.127017 -0.17890897 -0.16274264 -0.22814344
0.053006377 0.3171962 0.036851913 0.20104302 0.09463691 -0.29952288 -0.20646232 0.2624522
-0.21992473 0.023872023 -0.10875761 0.27578038 0.31420034 -0.21994193 0.3461718 -0.16884142
0.340173 -0.20989305 0.34230998 -0.06199173 -0.25014985 0.0049510547 -0.02840544 0.24334075
0.016296906 0.17387392 -0.028382933 0.36896887 0.14308183 -0.0022870037 -0.2683142 -0.19218045
-0.28724247 -0.16164722 0.3288685 -0.19593945 -0.2908404 0.20664467 0.15162557 0.27568576
-0.12525818 0.30419746 0.3034487 -0.03519773 -0.24510825 0.14268559 0.20609733 -0.31595388
-0.47942764 0.29361495 0.14547662 0.13769545 0.25704747 -0.27717394 0.17274337 0.07717713
0.17796604 -0.117849655 0.1842148 0.07033284 0.07188602 -0.22506359 -0.0414226 -0.21829583
-0.015717221 0.14410248 -0.14675996 -0.12765056 -0.2948175 0.18603605 0.1133701 -0.27609912
-0.036870882 -0.16494259 -0.015305459 -0.17481497 0.11626737 -0.20571823 0.19491784 -0.24515864
0.056893993 0.13439237 -0.06897028 -0.15196112 0.23124947 -0.05066314 -0.043238983 -0.21321207
0.17810844 0.020970777 0.00071964995 -0.22551766 -0.20546767 -0.069012135 -0.27191272 0.08142739
-0.092881665 0.001875929 -0.08230795 0.04047899 -0.0654709 -0.23395114 -0.06062728 -0.08323473
0.058365114 0.034087785 0.17820229 -0.22853214 -0.1437582 0.061281823 0.13728708 0.047507126
0.20086844 -0.017281849 0.016091106 -0.2803171 0.06167194 -0.13861673 -0.03767421 -0.17173842

weight_hh_l0_reverse f4 [128, 32]
00000000: 12bb bfba 295e 693d a18b 08bc e5f5 823d
00000010: 8455 293d e24c 8d3d 9e9d 773d a9fb 083c
00000020: 7f11 2cbd 813d 1a3d d71f 533d b1bb 17bd
00000030: 6f49 003c c84c 083e 20c2 fdbd 0361 003c
00000040: 4c74 83bc 634e 8d3d 0620 623c 9588 b9bc
00000050: 2ebd d03b 9c1c 113e 8cb0 613c 2b4e 14bd
00000060: e377 02be 1c7d 343e 5890 48be 80b5 edbd
00000070: 6a1b 10bc 6354 a23d fe0a fbbd 5ed8 b43c
00000080: 62b4 1a3c 146a e93d 7146 943d 348c 693e
00000090: 9f89 e8bd 7b46 13be ef55 3ebd 41bb 18be
000000a0: fe3b cfbd 4153 153d ca8c a43c a128 9abd
000000b0: 4f50 9d3a 59d6 74bd 5efa 7bbb a46c c8bd
000000c0: b5a5 0cbe ec07 febd 3d0b d33b 688f 2b3d
000000d0: 8654 b23b 32ac 0f3e 65ed a9bd 768c 47be
000000e0: 863d 04be 65b7 7bbb 1bee fcbd 778f 9abc
000000f0: 8593 82bb 18af 26be e39d 073e 5018 483d
00000100: bb50 e73d 2c2f 63be df3f 96bd 8516 0ebd
00000110: e991 9d3d 96de b73d 7b07 cb3d 9491 53be
00000120: 1abe 22bc bb07 0ebc 8d96 db3c b61a d33d
00000130: 3a19 0b3e f6b6 873c 5ea9 5e3d 5150 b4bc
00000140: b045 5fbe 4667 acbd cca4 d1bd f093 423d
00000150: 655e 41bc ffec 94bd 1560 c53c 0d5e 41be
00000160: 2086 19be c2cb 363e 30f8 a3bc eca5 463d
00000170: ebb5 1c3d f0e4 e33d acec c7bc ad56 66be
00000180: d59a 003d 9ef6 37be ff27 e9bd a947 8bbc
00000190: 304a f9bd 0a2f 78bd 4242 bd3d 4f30 873d
000001a0: 5113 a3bd 5f1a d0bd 46f1 7ebd e581 253e
000001b0: be86 4c3d 8339 453c 2c78 7f3d 5d4f b93d
000001c0: 6162 eabd f8d0 8d3d 0022 dfbd 3874 863c
000001d0: 9aaa d2ba 7ef9 203e b462 56be d930 9c3c
000001e0: 9b91 4abe 7891 c23d 60cb 573c 5782 c33c
000001f0: 9895 763d f340 48be 9366 173d 8afa 78bd
00000200: e29b 353e 2e94 51bd 3e74 e3bd e93a 923d
00000210: 5792 45be b989 083c c6c3 253d 55bf 0cbd
00000220: a2df b13d 06c4 19be b54d 4fbd 99ad 1e3d
00000230: f25a 6abd 9af2 1d3e 3f5e 49bd d304 00be
00000240: 5f80 e4bd 3572 fe3c 5ee6 273d 7eca bdbd
00000250: 50cb 47bd 55ff 4f3d eb55 ebbd fc3f fd3d
00000260: 32d9 febd 2d90 843e c035 34be e764 3f3e
00000270: 43c8 67bd 5d82 df3d 8b6e 99bd 31fb 04be
00000280: d093 603d 8d6a 02be dd4e b33d 2e34 2a3d
00000290: 8f3e 973d 7315 cd3d 8b39 98bd d1d4 2cbe
000002a0: 7c17 60be 795b 05be c850 6b3d ef0f bdbd
000002b0: ebf7 c4bd 13e2 063e 5b32 66bd 85ef 6abd
000002c0: 5767 97bc 2ab7 69be 9f25 63be 2bb0 a7bd
000002d0: 2e62 003e 9ac7 a53d 555d 47be 2492 7e3d
000002e0: ee9c ad3d 1619 b7bc 8944 f2bd b804 2ebd
000002f0: 1f28 71be 1ec0 383d 30d2 363e de98 fcbd
00000300: 54ac 783e 505b 5b3e e64e e73d bedd 97bd
00000310: c5e1 a1bc 3d7b 88be 2745 903d bf1c 29be
00000320: 6b05 2ebe ccc0 61be ef85 be3d 211e 573e
00000330: a15e cabd 08b3 c03d db0b 1abe 017a 113d
00000340: dd1f c8bd 83ce 2c3d bbe2 15be b042 083e
00000350: 2457 9b3d 820d 923e 275b 6f3d 292d 6fbd
00000360: e15a 3abe b37d ef3d 9857 3cbd 5b73 30bd
00000370: ba44 01be 31a6 40be 4832 7f3d f7d8 16bd
00000380: 9b4d 5d3e 28b5 75be 3341 443e 71eb d0bd
00000390: b54c 44bd 57d0 81bd abf3 bcbc c0bf 63be
000003a0: dfec 8abd 2bf8 d1bd 8ebb 3c3e 4fb8 45bb
000003b0: 31b9 12bd 0c19 c83d 0e23 d03d 6ad8 5bbe
000003c0: 6d9b 203d dba7 33bd 2c94 58be 1533 e9bc
000003d0: 9505 a73c 0c13 4ebd c53b 62bc 7cb3 c9bc
000003e0: 2855 e53d b325 243e 6a1e 003e 880d fd3c
000003f0: 2f01 c1bd 274d b7bd b1ea b8bb ffc1 0cbd
-0.0014627895 0.056974564 -0.008334071 0.06394557 0.04134132 0.0689943 0.06045305 0.008360782
-0.042008873 0.03765631 0.051544037 -0.03704423 0.007830008 0.1331054 -0.12390542 0.007835629
-0.016046666 0.06899717 0.01380158 -0.022648135 0.006370208 0.1417107 0.013775002 -0.03620736
-0.12741046 0.1762585 -0.19586313 -0.11606884 -0.0087955985 0.07926252 -0.12257956 0.022075828
0.009442421 0.11397186 0.07239998 0.2280739 -0.11354374 -0.14382355 -0.04646867 -0.14915182
-0.101188645 0.03645635 0.020086665 -0.075272806 0.0012002083 -0.05977473 -0.003844879 -0.097863466
-0.13735087 -0.12403855 0.0064405487 0.04188481 0.005442205 0.14030531 -0.082972325 -0.19487175
-0.12914094 -0.0038408872 -0.123501025 -0.018867237 -0.003984871 -0.1627773 0.13243823 0.04885131
0.11294695 -0.22185963 -0.07336401 -0.034689445 0.07693846 0.08978002 0.09913536 -0.20661002
-0.009933019 -0.008668835 0.026805187 0.10307829 0.13583842 0.016566735 0.05436074 -0.022010954
-0.21803927 -0.08418135 -0.10236511 0.047504365 -0.011802291 -0.07271766 0.024093667 -0.18883534
-0.14992571 0.17851165 -0.020015806 0.04849808 0.038259428 0.11127651 -0.024404846 -0.22494002
0.03139766 -0.1796517 -0.11384582 -0.017001944 -0.12172353 -0.060591735 0.09241153 0.06601011
-0.07962669 -0.1016128 -0.062241815 0.16162832 0.049933188 0.012037638 0.062370464 0.090483405
-0.114445455 0.06924623 -0.10895157 0.01641284 -0.0016072572 0.15720174 -0.2093609 0.019066261
-0.19782107 0.09500402 0.013171047 0.023865862 0.060201257 -0.19556026 0.036963057 -0.060785808
0.17735246 -0.051166706 -0.11106156 0.071401425 -0.19294105 0.008333617 0.040469907 -0.034362156
0.08685233 -0.15016183 -0.050611217 0.038739774 -0.05721564 0.15424576 -0.049162146 -0.1250184
-0.11157297 0.031060318 0.04099118 -0.09267138 -0.04877788 0.050780613 -0.11490997 0.1236572
-0.124437705 0.25891247 -0.17598629 0.18690835 -0.05658747 0.10913537 -0.074917875 -0.12986447
0.054828465 -0.12735958 0.08755276 0.04155367 0.07384979 0.10013857 -0.074328505 -0.16878058
-0.21883959 -0.13023175 0.057450086 -0.09231555 -0.09617599 0.13172178 -0.056200366 -0.05735733
-0.018481893 -0.22823778 -0.2218232 -0.08187898 0.12537453 0.080947116 -0.19469197 0.06215109
0.084771976 -0.02235083 -0.11829478 -0.04248497 -0.23550461 0.045105092 0.17853618 -0.123338446
0.24284488 0.21421552 0.112943456 -0.07415341 -0.019760976 -0.26656523 0.0704444 -0.16514872
-0.16994254 -0.22046202 0.093028896 0.21007587 -0.0988133 0.094091475 -0.15043585 0.035516743
-0.097717024 0.042189132 -0.14637272 0.1330669 0.0758498 0.2852593 0.05843654 -0.058392677
-0.1819873 0.11693897 -0.045981973 -0.04307876 -0.12623873 -0.18813397 0.06230381 -0.036828008
0.21611635 -0.23994887 0.19165497 -0.10201157 -0.047924716 -0.06338566 -0.023065409 -0.22241116
-0.06783461 -0.102524124 0.18430921 -0.003016967 -0.035821144 0.09770402 0.10162936 -0.21469274
0.039210726 -0.04386125 -0.21150273 -0.02846674 0.020388404 -0.050311133 -0.0138081955 -0.024621718
0.11197883 0.16030006 0.12511602 0.030890241 -0.09424054 -0.089502625 -0.005643212 -0.034364697
